sampling-based_planning_framework/checkpoints/checkpoint_epoch_68.pth (torch, 386610 bytes, 75 tensors)

enc1.0.weight f4 [8, 1, 3, 3]
000000 3f 20 d3 bd 3d 23 d3 3d e5 74 8b 3d a9 7d 10 3e
       -0.10308885 0.103094555 0.06809405 0.14110436
000010 e5 b2 e7 bd 9b 5f ac 3d 33 fe 00 3d 62 62 35 be
       -0.11313418 0.08416673 0.031492423 -0.17713311
000020 f7 d4 89 bd ea 26 17 3e 5b 53 00 be 83 09 49 3d
       -0.06730073 0.14760938 -0.12531798 0.049081337
000030 89 f9 73 3e 24 c3 97 bd 5f 6c 13 3e 69 7d 7d bd
       0.23825659 -0.07410267 0.14396809 -0.06188718
000040 91 a3 1f 3e 12 78 9d bd c1 17 2f 3e c0 3d 50 be
       0.1558974 -0.07688917 0.17098905 -0.20336056
000050 29 78 3c be e6 15 25 3e 9d a1 ae bd 80 e0 1f be
       -0.18405212 0.16121635 -0.08526919 -0.15612984
000060 ee e9 ba be 53 ab 46 be 11 bd cd bd 2c c3 63 3d
       -0.365066 -0.19401293 -0.10045827 0.055606052
000070 e0 95 bf 3c b3 af 4b be 7c 7f 30 3d 22 fd 28 3e
       0.023386896 -0.19891243 0.04309033 0.16502813
000080 e8 21 ae 3e f5 8c 6c bc d4 d4 12 39 07 0b 9f ba
       0.34010243 -0.014437904 0.0001400293 -0.0012134024
000090 fb 95 cf bd 83 5c 44 3d 8e a0 aa bd bb a2 8e be
       -0.101360284 0.04793979 -0.083314046 -0.27858528
0000a0 43 c3 67 3e 1c 0e 58 bd b8 bd 59 bd ef 53 d4 3d
       0.2263308 -0.05274783 -0.053159446 0.103675716
0000b0 d6 57 99 be 8e ae 5b 3e 9f 16 6b 3e 8a f1 1f bc
       -0.29949826 0.21453306 0.22957848 -0.009762177
0000c0 be fe bf 3e 43 2c 81 bd f8 74 bc bd 45 92 b2 3d
       0.3749904 -0.063072704 -0.092019975 0.08719305
0000d0 f4 3e 3a be a0 9e 84 be f9 8f 91 3c 24 e9 42 3d
       -0.18188077 -0.2590227 0.017768847 0.04758562
0000e0 1b c9 d4 3d 16 a3 05 3e fb 36 db bd e3 8c fa 3e
       0.1038992 0.13050494 -0.10703846 0.48935613
0000f0 98 d6 12 bd c2 a8 df 3d 6f 45 eb 3d 18 0a 01 3e
       -0.035849184 0.1092086 0.11487853 0.12601507
000100 ed 38 a3 be 11 b8 b0 3d 44 e4 1e be 27 60 b7 bd
       -0.31879368 0.08628858 -0.15516764 -0.089538865
000110 84 57 5e 3e 3a e8 85 3d 7b 32 f5 bd 65 9c 62 3d
       0.21713072 0.06538434 -0.11972519 0.05532493

enc1.0.bias f4 [8]
000000 51 df 11 3d dd 86 d0 3a 63 bf 03 3d ec 21 da b8
       0.03561336 0.0015909333 0.032164942 -0.000104013685
000010 36 d6 57 3d 7f 91 33 b9 48 73 42 3b 4f 42 73 b7
       0.05269452 -0.00017124972 0.0029670764 -1.4499367e-05

enc1.2.weight f4 [8, 8, 3, 3]
000000 2a f9 3d 3d 0a 83 87 3d be 07 98 bd 9f c1 77 be
       0.0463802 0.066167906 -0.07423352 -0.24194954
000010 84 2a fb 3e 7e f6 21 3e 5f b3 c7 bc 51 cc 42 bc
       0.49055874 0.15816686 -0.024377523 -0.011889533
000020 66 8c c9 bc 36 8c aa bd 05 8d b5 bd c1 bb de bd
       -0.02460308 -0.08327524 -0.08864788 -0.10875655
000030 89 23 09 bd a3 d0 d5 bd c9 37 3f 3e c0 d2 40 3e
       -0.033481155 -0.10440185 0.18673624 0.18830395
000040 63 f2 2a 3e a6 13 8a be 85 d1 82 3d 2a 79 24 3e
       0.16694026 -0.26968116 0.06387619 0.16061845
000050 53 51 f0 3d 55 31 e4 bd 07 06 f7 3d 72 4f bb bd
       0.11734261 -0.11142222 0.120616965 -0.09146012
000060 b7 a5 51 be cd 75 03 3e fd 47 67 3d f5 6a 01 3d
       -0.20473371 0.12837906 0.056465138 0.031596143
000070 93 be a0 3d b9 cb 83 be 37 b0 5f 3e 46 7e 77 3c
       0.07848849 -0.25741366 0.21844564 0.0151057895
000080 af 90 05 3d 77 aa 7e bc 5e 30 05 3d dc 23 43 be
       0.032608684 -0.015543572 0.03251683 -0.19056648
000090 52 73 07 3d 3b fc 8b 3d 4f bf 23 3e 8d eb 34 be
       0.033068962 0.068352185 0.15990947 -0.1766798
0000a0 c5 b6 2d 3d 48 9e 12 3d 38 c0 39 bb 97 f0 55 bd
       0.04241063 0.03579548 -0.002834333 -0.052231397
0000b0 83 b0 10 3e fd d3 ce 3c 86 e4 9e be f9 c1 9b 3d
       0.14129834 0.025247568 -0.31033725 0.07605357
0000c0 8f 3a 3c 3c 48 b6 9e 3e 94 8b 14 be c6 f9 34 3e
       0.011488571 0.30998445 -0.1450637 0.17673406
0000d0 0b d7 26 be dd 1b 01 be ee 43 b2 bd b3 7a 30 3e
       -0.1629297 -0.12608285 -0.08704363 0.17234306
0000e0 24 82 c4 bc 5a e9 4a 3e 2d bd a2 bd 69 5d ab bc
       -0.023987837 0.19815579 -0.07946239 -0.020918565
0000f0 8b 14 79 3d 02 ad eb be 57 45 a2 bd 95 d0 7c bb
       0.060810607 -0.46030432 -0.07923382 -0.0038576473
000100 b9 94 ce ba 15 1f 67 3e c2 7e 8b bd c7 1e 56 bd
       -0.0015760876 0.2257045 -0.068112865 -0.052275445
000110 46 d4 8b 3d c9 ff 23 3e a8 f6 d6 bc 5d 0c 9c bd
       0.06827597 0.16015543 -0.026240662 -0.076195456
000120 d5 e6 45 be 9a 4c 02 3d dc 92 8a 3c 1b 18 04 3e
       -0.19326337 0.031811334 0.016915731 0.1289982
000130 20 42 16 3e 27 86 f6 3d d9 06 0d be c0 75 3a 3e
       0.14673662 0.12037306 -0.13772143 0.1820898
000140 51 b1 5f be 32 66 c5 3c ba be 84 3e e2 52 d6 bd
       -0.21844985 0.024096582 0.25926763 -0.104650274
000150 e3 9b 2c 3e ee 7a b6 3c 0c 6b 1f 3e 6a 98 09 bd
       0.16856341 0.022275414 0.15568179 -0.03359262
000160 d0 b6 89 be 80 25 1e 3e a8 6b ce 3b 1c 76 97 be
       -0.26897287 0.15443993 0.0062994547 -0.29582298
000170 bb ce 89 3e 4c 2f 95 bc 10 7a 1e 3e 1d 97 06 3e
       0.26915535 -0.01821103 0.1547625 0.13143583
000180 c7 1b 8f 3b 78 9d 11 3e 42 1c 06 be ab 52 b1 bc
       0.004367325 0.14220226 -0.13096717 -0.021645864
000190 ee 78 90 bd 75 20 4e 3e 8b 4f ee 3e 2a 48 81 bc
       -0.070543155 0.20129569 0.4654506 -0.01578148
0001a0 3d 1b 66 3c 3f 7c b0 3d 77 c8 0b 3f 5c 4d be 3d
       0.01404458 0.08617448 0.5460276 0.09292099
0001b0 96 64 90 be b1 4a 08 3d 32 3c 09 bd f5 ca ad be
       -0.2820174 0.033274356 -0.033504672 -0.33943906
0001c0 12 d4 14 3e 92 79 49 be 72 b4 93 bd df 83 20 3e
       0.14534023 -0.19675282 -0.072121516 0.15675305
0001d0 16 9f a9 3e 90 c6 92 bd c0 ee be bd 6d 83 cb 3b
       0.33129185 -0.07166779 -0.09322882 0.0062107355
0001e0 7b 75 77 3d 44 ad 69 3e 60 46 fe 3d 67 e7 a7 3b
       0.060414772 0.22820002 0.12415767 0.005124021
0001f0 98 e8 4f bd c9 66 df bc 7c 48 74 3e ab af 80 3b
       -0.050758928 -0.027270691 0.23855776 0.0039271913
000200 95 7b 93 be b7 62 93 3e 55 53 57 3e b7 e5 b9 bd
       -0.28805223 0.2878625 0.21027882 -0.09077018
000210 b7 96 d1 3e 8f d5 66 3e 51 f8 24 3d 96 73 e7 bc
       0.409353 0.22542404 0.040275875 -0.028253358
000220 ce 99 a6 3e 2c e8 05 3e 86 55 90 3e e7 8f 96 3e
       0.3253922 0.13076848 0.2819025 0.29406664
000230 19 b0 37 3e b0 05 1e 3e 3e 35 d3 bd f7 78 0e 3e
       0.1793827 0.15431857 -0.103128895 0.13913332
000240 6b 6c c8 3d 86 ac 4c 3e 11 c7 f2 3c 38 5c 53 3e
       0.09786304 0.19987687 0.029635938 0.20640647
000250 a3 f8 c5 3d cc eb c7 bd e8 9a d3 3d cd 68 0a 3f
       0.09666564 -0.097617716 0.103322804 0.54066163
000260 7d 16 ff bd 7a f0 b3 be 29 2f 68 bd c4 94 b4 3d
       -0.12455461 -0.35144407 -0.0566856 0.08817437
000270 47 32 5c 3e 84 15 b1 bc d2 52 4b bd d4 51 ec 3d
       0.21503554 -0.021616705 -0.04963953 0.11539045
000280 16 97 e3 be 0b 36 2b be 21 85 55 be bd d1 92 bd
       -0.44451207 -0.16719835 -0.20851566 -0.07168911
000290 86 40 b0 be 4c 8d c9 3d 9e 30 9f 3d ac 42 86 3e
       -0.34424227 0.09841403 0.07772945 0.26222742
0002a0 ae 9f 25 3d 6c 3f 34 3e 20 ac 9f bd a0 6c a0 3e
       0.040435486 0.17602319 -0.07796502 0.31332874
0002b0 80 ef bd 3c 87 f0 f5 bc 51 9b 5d bd 44 d8 c4 3d
       0.023185492 -0.030021919 -0.0541032 0.09611562
0002c0 c5 9a f2 3d 8f 5e 63 be 76 ce 57 be e0 8b 63 bd
       0.11845926 -0.2220404 -0.21074852 -0.055553317
0002d0 cf 9f 56 3e b5 6f 1f be 65 92 b8 3e ab 1f 73 be
       0.209594 -0.15569957 0.3604919 -0.23742549
0002e0 a1 42 49 bd 26 e8 0e 3e f7 4a 59 be 4b a1 92 bb
       -0.049135808 0.13955745 -0.21220003 -0.004474794
0002f0 2d 62 22 b9 ad 1f ea bd 5e 28 c1 be c4 65 98 3e
       -0.00015486097 -0.11431823 -0.3772611 0.2976514
000300 46 78 ff 3d c6 61 9c be 33 12 9f be 7d bc 34 3d
       0.12474112 -0.30543345 -0.31068572 0.04412507
000310 7f 2d bc be f9 c3 14 3d 72 94 a6 3d d1 00 a6 bc
       -0.3675346 0.036319707 0.081337824 -0.020264061
000320 ca 7d f1 bd 12 ad 94 be 09 67 a9 3e 57 7a a6 3d
       -0.117915705 -0.29038292 0.33086422 0.08128803
000330 2b 07 71 be 71 5a b3 bd 0c 63 44 3e 26 11 de 3d
       -0.2353789 -0.08757485 0.19178408 0.108431146
000340 ed 0d 66 bd 63 12 1a bd 34 38 8a 3e d0 8b b4 bd
       -0.056165624 -0.03761519 0.26996005 -0.088157296
000350 81 5b d3 bd 26 47 e3 3d 84 ba f3 3d cf 7a 62 be
       -0.10320187 0.11097555 0.119008094 -0.2211716
000360 37 86 ea 3c 23 db 75 3e 40 8e 90 b7 13 ef 66 bd
       0.028628452 0.24009375 -1.7232378e-05 -0.056380343
000370 47 b2 8d 3c e3 fd 4f be 79 40 30 3e 33 16 e7 3c
       0.017296923 -0.20311694 0.17212094 0.028208828
000380 3c 25 16 3d e6 b9 bf be b3 49 a7 be a6 7a 57 be
       0.036656603 -0.37446517 -0.32673416 -0.2104288
000390 d2 44 d1 bc 0d 40 76 be 24 41 ab bd dd b5 8f 3e
       -0.025545511 -0.24047871 -0.08362034 0.28068438
0003a0 e8 38 19 3e 9b 47 e8 3d ad 0a b5 bc a7 c7 80 3d
       0.14963114 0.11341783 -0.022099817 0.06288081
0003b0 e9 a5 2d 3d 9e 6a c2 bd 5d dc 09 bd 7f 53 c2 3d
       0.042394552 -0.09492992 -0.03365742 0.09488582
0003c0 13 b5 72 3d c5 37 4c 3e 7d bc 4e be ff d3 23 bd
       0.059254717 0.1994315 -0.2018909 -0.039997097
0003d0 aa c1 1d 3d 66 ec dd 3d 7e 4e a6 be 5b 56 39 be
       0.03851477 0.10836105 -0.3248176 -0.18099348
0003e0 96 64 5f 3c 62 be b4 3d d1 43 1c 3e 9f 68 eb 3d
       0.013634821 0.08825375 0.15260245 0.11494564
0003f0 5a 23 b9 3e d2 87 54 bd 82 43 06 be 0a 1d 6a be
       0.36159784 -0.05188734 -0.1311169 -0.2286264

enc1.2.bias f4 [8]
000000 d0 21 f3 bc 16 45 95 ba e5 a4 21 3d 89 90 30 bc
       -0.029679209 -0.0011388387 0.039463896 -0.010776647
000010 96 ee 86 3b b5 fa 0c 3d 63 ac f3 3c 91 20 04 3c
       0.004117797 0.03441878 0.029745286 0.008064405

enc2.0.weight f4 [16, 8, 3, 3]
000000 76 1e 5b 3c 10 31 1f bd 93 1d 5b bc 00 9a 08 be
       0.013373962 -0.03886515 -0.01337375 -0.13339996
000010 46 c5 50 be 76 bf bc 3d 8c 89 73 3d a3 62 b2 bd
       -0.20387754 0.09216206 0.059457347 -0.0871022
000020 42 cd 84 3e 0b 98 21 bb 92 11 4e 3d 18 85 18 bd
       0.2593785 -0.0024657275 0.050309725 -0.037236303
000030 1d 9e 62 be 5b 21 9d 3d 19 3a 40 bd b1 d7 ad bd
       -0.22130628 0.07672378 -0.046930406 -0.084884055
000040 76 97 2d bd da 2b 3a 3e c2 e4 e4 3b 48 af f3 3d
       -0.042380773 0.1818079 0.006985278 0.118986666
000050 bd 0b 2a be 28 de 35 bd ae 3a 91 bc 95 0b 04 be
       -0.1660604 -0.044401318 -0.017728176 -0.12895043
000060 36 91 b5 3d ca c8 8a 3e 19 3b e6 3d fe 1d 48 bd
       0.088655874 0.27106315 0.11241741 -0.048856728
000070 37 07 d1 3d 8c 0c e0 3d 88 eb c6 bc 8f 36 29 be
       0.10206454 0.10939893 -0.024282232 -0.16524719
000080 67 bf 5d bc fd ff 3b be 78 3d 21 be 13 43 ae bd
       -0.013534403 -0.1835937 -0.15746105 -0.08508887
000090 84 9f 1b 3e 22 a0 1f bd f6 30 49 be 8e f0 04 bd
       0.15197569 -0.038971074 -0.19647583 -0.032455973
0000a0 25 1a 33 3d 7b 96 23 bd 2c 28 00 be cd e9 ed bd
       0.043726105 -0.03993843 -0.12515324 -0.116168596
0000b0 38 ca 81 3d 8f 02 79 3d 13 e5 5c 3d 02 88 0d 3e
       0.06337398 0.060793456 0.0539294 0.13821414
0000c0 57 4f 64 3e 0c bf 07 bd da 95 13 3e 73 5a 33 3e
       0.22295891 -0.03314118 0.14412633 0.17514972
0000d0 53 df 13 bd 84 7b ed 3d 38 19 3d 3e fa 3e 5d bd
       -0.03610165 0.11595824 0.18466651 -0.054015137
0000e0 dd 28 9f be 54 2c 36 be da 29 4e 3e ad 6b 86 bd
       -0.31085864 -0.17790347 0.20133153 -0.06563506
0000f0 70 da bd 3d d7 e9 59 3e 4f c5 3c 3e 7d 57 e0 3b
       0.09270179 0.21280609 0.18434642 0.006846367
000100 40 e7 2d be f0 09 ce 3c a1 7c c0 bc b8 28 aa bb
       -0.16982746 0.025151223 -0.023496928 -0.0051928423
000110 ad 39 df 3d d7 45 d8 bd 0d 68 2e be 33 2e 16 3b
       0.10899673 -0.10560196 -0.1703188 0.002291572
000120 b6 a5 b2 3b 30 3d 30 3d 19 1b af bc cb aa 67 bd
       0.005451883 0.043027103 -0.021375226 -0.056559365
000130 62 2d d2 bc 7b 80 e6 bd 17 a7 84 bd 10 4b b4 3c
       -0.025656406 -0.112549745 -0.06477182 0.022008449
000140 de 1a f5 3d 0e 05 3e bd 04 ad 8f 3b d3 8d 93 3e
       0.11968015 -0.04639154 0.0043846387 0.2881914
000150 8b 74 27 3c ce 6d dd bd df ca a8 3b a2 68 3a bd
       0.010220657 -0.10811959 0.0051511372 -0.045509942
000160 dd c7 0f ba 81 26 e0 bd 34 3d 54 3d c9 2f 6b 3d
       -0.0005484799 -0.10944844 0.05181618 0.05741862
000170 6c 3c 26 3e c0 55 b3 3d 77 a1 0f 3d 75 fb 92 3d
       0.16233987 0.0875659 0.035066094 0.07176868
000180 91 ee 3d be 53 99 e3 3d 91 80 07 3d a2 1e 9c bc
       -0.18548037 0.11113229 0.033081595 -0.019057576
000190 e1 0d b0 bd 5b 27 ab 3d a5 0a 3e be 69 d6 78 3d
       -0.08596397 0.08357116 -0.18558748 0.060751352
0001a0 36 1d bd 3a 32 ed f9 3d 5b 80 6c be f7 49 e1 3c
       0.0014428261 0.122034445 -0.23095839 0.02750109
0001b0 00 53 05 3e 1c 7f 52 bd e1 3d ad bc 25 93 00 bd
       0.13019943 -0.051390752 -0.02114767 -0.031390328
0001c0 96 07 cc 3d ee 23 80 3d b5 ad 32 3e d4 3f 77 3e
       0.099623844 0.06256853 0.17449076 0.24145442
0001d0 8b 0d 50 3c 2d 1f 7a bd 43 17 b6 bd 69 07 38 3e
       0.012698541 -0.061064888 -0.088911556 0.17971577
0001e0 dc 26 32 3e 7a 34 21 3e 5c 23 99 3d 12 60 05 be
       0.17397636 0.15742674 0.074774474 -0.13024929
0001f0 95 bd cf 3d 65 47 00 3e c2 97 50 3e 28 d6 90 3a
       0.10143582 0.12527235 0.20370391 0.0011050152
000200 84 ff 8b 3d 40 77 dc 3c 6b 31 47 3e 47 2d fd bd
       0.06835845 0.026912332 0.19452445 -0.123621516
000210 4c 92 99 3c 41 bb ea bc aa f5 4a 3e 20 40 87 be
       0.018746518 -0.028653743 0.19820276 -0.2641611
000220 f8 9f 17 3e d6 d2 4e be 59 e3 30 be 09 05 1a 3d
       0.14807117 -0.20197615 -0.17274226 0.03760246
000230 77 61 f1 bc f0 43 2e 3d 4b 0f 6b bb 3d 88 d0 bd
       -0.02946542 0.04254526 -0.003586727 -0.101822354
000240 0a 53 47 bd a2 28 8b bc b8 34 4a be 18 69 0a bd
       -0.048663177 -0.016987149 -0.19746673 -0.03379163
000250 bc cc f1 3d 51 ef 5c 3e ef bc 8d 3e 5d e9 1f 3e
       0.11806628 0.21575667 0.27683207 0.15616365
000260 8d 83 37 be 66 2c 32 bd 93 80 21 be f4 e2 17 be
       -0.17921276 -0.043499373 -0.15771703 -0.1483267
000270 df e4 fd 3d 8b 45 33 3e a1 61 e3 bc f4 1f 4b 3d
       0.12397169 0.17506997 -0.027756514 0.04959102
000280 cd af e3 bd 4e 6e 6c be b0 c4 04 3e dd be 2e 3c
       -0.11117516 -0.23088953 0.12965655 0.010665623
000290 4c ae 36 be d9 f7 cc bd b9 30 47 3d b5 41 1d 3e
       -0.17839926 -0.10008211 0.04863045 0.15357096
0002a0 8b 02 87 bd 30 ee 0b be 5c 2e c4 3d 8b 9a 39 3e
       -0.06592282 -0.1366508 0.09579155 0.1812536
0002b0 42 c4 1d bc 60 25 f5 3d 89 7a 12 3e ac dd ed b8
       -0.009629311 0.11970019 0.14304556 -0.0001134233
0002c0 ea 92 48 bd 29 e4 38 3e df ec 94 bc a8 3e b0 bd
       -0.048968233 0.18055786 -0.018179355 -0.08605701
0002d0 b1 ce c2 3d ad 96 a7 3d 0c 1c f9 3d 6d f2 4f 3e
       0.095120795 0.08183036 0.12163553 0.20307322
0002e0 f2 71 b8 3d d5 6a c5 3e 7b ca 9c 3e f6 b1 26 3e
       0.09006108 0.3855807 0.3062323 0.16278824
0002f0 6e b3 82 3d 5a 29 cb bd fa a7 1a 3e 2b 4a 0a be
       0.0638188 -0.099199966 0.1510314 -0.13504855
000300 06 5b bc bd 31 57 89 bd 65 0a 3e 3e 50 98 73 3e
       -0.09197049 -0.067060836 0.18558653 0.23788571
000310 9c d8 a3 3d 21 5a cf bd 72 45 d6 3d 44 93 99 3d
       0.08000299 -0.101246126 0.104624644 0.07498792
000320 10 db cb bc da ca 79 3d 90 9c 20 3e 0f b1 a8 3d
       -0.02488473 0.06098447 0.15684724 0.08236896
000330 96 f8 eb 3d 99 dd bb 3d 01 60 b7 bb 6d b0 37 3e
       0.115220234 0.09173126 -0.0055961614 0.17938395
000340 d9 c0 34 be 93 87 e1 3c 63 0d 0a 3e d6 10 47 bc
       -0.1765169 0.027530467 0.13481669 -0.01215001
000350 b4 88 7a 3e ff 65 27 be 59 6a ed 3c dd 49 1e be
       0.2446621 -0.16347502 0.028981375 -0.15457864
000360 6a 8a 06 bd 42 8e 5d 3d 90 8b 21 3e 87 6c df bc
       -0.032846846 0.054090746 0.15775895 -0.02727343
000370 fe 28 99 3d 71 04 86 3e 31 a8 61 bb 47 e7 78 bd
       0.07478522 0.26175264 -0.0034432525 -0.06076744
000380 0e 43 4f bd fd f3 b5 be 32 25 05 be ad a0 a8 3c
       -0.050601058 -0.3553771 -0.1300247 0.020584429
000390 15 68 4c bd c4 12 49 be f7 6d 1a 3d 2b 81 21 3e
       -0.049903948 -0.19636065 0.037702527 0.1577193
0003a0 7c 00 0b bb b6 be b5 3d 47 01 43 3d 1b 26 8e bd
       -0.0021210006 0.08874266 0.04760864 -0.06940862
0003b0 9c 1b b2 bd a7 fd 8b bd e7 f7 bc 3d 69 77 fe bd
       -0.08696672 -0.0683549 0.09226971 -0.124251194
0003c0 f4 de 34 3d 76 55 27 3c 4b 44 00 3d b5 da d3 bc
       0.044157937 0.010213247 0.03131513 -0.025861124
0003d0 89 35 fc bd 25 f0 72 3e ac 99 8d bc 0e ac 6f bd
       -0.123148985 0.2372442 -0.01728519 -0.058513694
0003e0 5c bf a0 3d 80 b7 74 bd 5c 86 75 3e e6 1f 09 3e
       0.07848999 -0.05974531 0.23977035 0.13391075
0003f0 7d 3d 9a be ca 79 72 be cb 5e d8 3c 9a c4 9d 3c
       -0.30125037 -0.23679271 0.026412388 0.019258786

enc2.0.bias f4 [16]
000000 b3 a8 08 3d b1 8e 06 3d ef c7 75 bc 01 cf 34 3d
       0.03336401 0.032850925 -0.015001281 0.044142727
000010 bb 1b 1e 3c ad ee 1b 3d 02 ea ae bc 0d 52 e7 bc
       0.009650166 0.038069416 -0.021351818 -0.028237367
000020 fe 0f df 3c 94 bd d4 3b cf 16 03 3d db 2d 16 3d
       0.027229305 0.006492326 0.032004174 0.036664825
000030 d4 9f fd 3c 23 e7 dd 3c 9b f5 c1 3c a6 fc 18 3d
       0.030960001 0.027087754 0.023676684 0.03735032

enc2.2.weight f4 [16, 16, 3, 3]
000000 11 24 b9 ba 6b f6 37 3d 9d 8e ae bc 33 a5 f0 bd
       -0.0014125129 0.044912737 -0.021308238 -0.11750259
000010 8b 99 0f 3e 8a 1d 63 3d 9b c0 6e bd 12 d0 d0 bc
       0.14023416 0.055448093 -0.05828915 -0.02548984
000020 e8 06 77 3b d7 7f fd bd 1f 47 68 3e 37 4f e3 bd
       0.0037693325 -0.12377899 0.2268338 -0.110990934
000030 ca 5d 38 be 0f 08 2d 3d ba 6f 37 3e ee 79 6e be
       -0.18004528 0.042244013 0.17913714 -0.232887
000040 8e c1 05 bd 47 ed ed bc 4c ac f1 bd 3c 0a 89 bd
       -0.03265529 -0.029043807 -0.11800441 -0.06691405
000050 16 48 04 be 20 4d d2 bd 78 30 9f 3e e6 42 31 3d
       -0.12918124 -0.10268617 0.31091666 0.04327669
000060 1a b3 3b bd 90 ec 18 3e 38 60 95 bd 33 63 59 3e
       -0.0458251 0.14933991 -0.07293743 0.21229248
000070 41 d8 16 3e 60 47 80 bd 69 47 25 3e d0 1c 33 3e
       0.14730932 -0.06263614 0.16140522 0.1749146
000080 33 99 cb bd ce 8e 9e bd 0b 53 a5 be fb 6a 41 3e
       -0.0994133 -0.077420816 -0.3228992 0.18888466
000090 64 61 07 bd 58 1b 3d bd 57 e0 18 3e 88 0e 25 be
       -0.033051863 -0.046168655 0.14929329 -0.16118824
0000a0 73 80 ea bd 15 54 63 3e d9 f2 73 bd 92 2a cb be
       -0.11450281 0.22200043 -0.05955777 -0.39680916
0000b0 96 81 bb bd cd 23 32 3c b1 44 11 bd 56 75 00 3e
       -0.09155576 0.010872793 -0.0354659 0.1254476
0000c0 40 f7 bd 3c 7b 11 30 bb 7e 09 e4 bd f3 6b a7 bd
       0.023189187 -0.0026865888 -0.11134623 -0.081748866
0000d0 0a 08 82 be cb 47 a4 bd 7a 05 b4 3c 2a b8 dd bc
       -0.25396758 -0.08021506 0.021975268 -0.027065355
0000e0 41 25 bd bd 6b e1 02 3e 52 4d 00 be 2d cf 29 3e
       -0.09235621 0.12781303 -0.12529495 0.16582938
0000f0 a1 cb 27 3d 84 70 e2 3d e3 9c 1a 3d 7e e7 5f 3d
       0.04096568 0.11056617 0.037747275 0.054664128
000100 72 88 d7 3d 29 7d 84 3d c8 42 f6 bd 78 06 1d bc
       0.10524072 0.06469185 -0.12024456 -0.009584062
000110 4e ea 1a be 57 55 e5 3d 30 65 22 3e fc 2b ab bc
       -0.15128443 0.11197918 0.15858912 -0.020894997
000120 60 72 7d 3e 2c 27 6a 3c df f2 37 3e 6d 93 b2 bd
       0.24750662 0.014291566 0.17963742 -0.087195255
000130 f3 e6 84 3d 70 7e 58 3e 7e e9 56 3a 06 c0 53 be
       0.064893626 0.21141982 0.0008198245 -0.2067872
000140 4f 66 2f 3e eb 0a 56 be e5 79 02 bd 87 32 4d be
       0.17128871 -0.20902602 -0.03185453 -0.20038806
000150 35 62 15 3e 40 aa 29 3e 64 d4 97 3d cc 07 69 bd
       0.14588244 0.16568851 0.07413557 -0.0568922
000160 44 87 45 be 45 82 4f 3e 8b 1d ec 3a cd 4e 11 be
       -0.19289881 0.20264538 0.0018014176 -0.14190216
000170 71 e1 db 3d 26 96 9f bd 1c fa ee 3d 2f d3 bd 3c
       0.10736359 -0.077923104 0.11668798 0.02317199
000180 5f 0f 84 be 2a e4 29 3d 22 4e 3a 3e ec 0a 05 3e
       -0.25792977 0.04147736 0.18193868 0.12992448
000190 05 46 24 bd d9 9f 52 bd dc 45 83 bd 89 ca 12 3e
       -0.04010584 -0.051421974 -0.06409809 0.14335074
0001a0 1c 07 85 3d ab 65 c7 3c b4 26 fb bc 44 8a 8a 3d
       0.06495497 0.024340471 -0.030658104 0.06764653
0001b0 7c ec b3 bd 96 ca ca 3c 2d 22 4c 3e 58 c8 55 be
       -0.0878534 0.024754804 0.19934912 -0.20877206
0001c0 5e 8c 82 bd 97 46 93 bd e2 d6 b3 ba 79 bb 11 3e
       -0.06374429 -0.07191198 -0.0013720656 0.14231671
0001d0 89 3b 17 3e 89 f1 c2 3c 28 e5 c7 3d be 50 21 be
       0.14768805 0.023796814 0.09760505 -0.15753457
0001e0 b0 70 18 3e 61 6a 0b 3e 78 56 96 bd 7f cd aa 3d
       0.14886737 0.13614799 -0.07340711 0.083399765
0001f0 81 99 bd 3c 3d ac 82 bd ac a6 23 3e b0 13 94 bd
       0.023144485 -0.06380508 0.15981549 -0.072303176
000200 47 98 d9 bd 35 b4 ef bc b5 59 a6 bd 3a 8f 3d 3d
       -0.10624748 -0.029260734 -0.08122579 0.04627917
000210 88 6f 80 be 6a e4 55 3d 10 18 e9 bd d4 c4 04 be
       -0.25085092 0.052219786 -0.11381543 -0.12965709
000220 51 f9 3e 3d bd 5e 2d 3e 03 06 01 be 48 5d f1 3d
       0.046624485 0.16930671 -0.1259995 0.1178537
000230 bd a0 41 bd 28 77 8c 3d 7f ff e1 bc 6d 71 be 3d
       -0.047272433 0.06858665 -0.02758765 0.09298978
000240 bf fb 6e 3c ff 90 8e 3d eb 3a dd 3d 16 c0 e8 bc
       0.014586388 0.069612496 0.10802253 -0.028411906
000250 83 9b 00 3e 90 84 0a 3e ec 05 3f 3e ed fa ab bd
       0.12559323 0.13527131 0.18654603 -0.0839747
000260 a6 9e 2c 3e 0c 5a 36 3e ff 7d b5 3d 84 21 14 3c
       0.16857395 0.17807788 0.088619225 0.009041194
000270 11 13 8f be 78 0d e0 3d 82 1e e5 bd e5 d6 e6 b9
       -0.27944234 0.10940069 -0.111874595 -0.00044029127
000280 c2 b6 9a bd 2a b6 06 be 77 1f 18 3e c1 37 6d 3d
       -0.075543895 -0.13155428 0.14855753 0.0579145
000290 3b 9f f8 3d 30 1d 5d be fd 7a 2b bd 5b 06 20 bd
       0.12139746 -0.21593165 -0.041865338 -0.03906856
0002a0 b0 a7 1d bd 7e 3a 30 bd e0 a6 48 bd f1 48 53 be
       -0.038489997 -0.043024532 -0.04898727 -0.20633294
0002b0 c2 8a 1f be 17 94 a1 bd 05 2f f8 3d 53 b7 ec bc
       -0.15580276 -0.07889574 0.12118343 -0.02889601
0002c0 bb b4 4b be 9f 8e aa bd e6 84 22 bd 83 d9 4d 3d
       -0.19893162 -0.08327984 -0.039677523 0.050256263
0002d0 10 a2 c7 bb c0 a5 0a 3d 21 19 9a 3d 63 ce d0 3c
       -0.0060923174 0.033849478 0.07524324 0.025489038
0002e0 66 f3 89 3d d2 79 4e 3e 58 c4 28 3e fb 05 10 3e
       0.06735878 0.20163658 0.16481149 0.14064781
0002f0 cc e3 0b bc f0 eb ad 3b 40 16 3d 3e 9e 8f cc bd
       -0.008538198 0.005307667 0.18465519 -0.0998833
000300 e0 d5 cc bd f7 00 fe 3c b8 e0 84 3d 20 98 4e 3e
       -0.10001731 0.03100632 0.06488174 0.20175219
000310 02 ae 8d 3e fe 0c 0c bc f8 26 79 bd a3 0c 74 bd
       0.2767182 -0.008548019 -0.06082818 -0.059582364
000320 00 48 7a bd 99 60 16 be 21 a8 f4 3d 46 c8 0b 3e
       -0.06110382 -0.14685287 0.119461305 0.13650617
000330 6a 2a cf bd 3d 68 97 bd 52 52 44 3e 05 c2 f3 3d
       -0.10115512 -0.07392929 0.19172028 0.11902241
000340 13 9e 0d be e2 31 ff 3d 72 11 58 bb a0 d2 e4 3c
       -0.13829832 0.12460686 -0.0032969383 0.027932465
000350 f2 e7 32 bd e0 dc a5 3d 61 24 86 bd 5b f7 2a bc
       -0.04367823 0.08098769 -0.065499075 -0.010434951
000360 4c c9 8a 3d 6c 0a 2c 3e c0 f7 36 be cf f6 87 3b
       0.067766756 0.1680085 -0.17867947 0.004149295
000370 b0 3f a0 3e c8 3f 07 3e 18 ee 84 bd 7f 35 b2 3c
       0.3129859 0.13207924 -0.06490725 0.021754025
000380 94 46 dc bc 65 49 92 3e 1c dc c4 bd ab 3a cb bd
       -0.026889123 0.2857162 -0.09612295 -0.099232994
000390 d2 5c b9 bd 4b e7 cc 3c 45 c2 c6 3c 72 9f 1c be
       -0.09050907 0.025012633 0.024262557 -0.15295199
0003a0 33 f9 d5 be 2f bc 84 bd 1e d2 72 bc 82 a2 3d be
       -0.41791686 -0.06481206 -0.014820604 -0.18519023
0003b0 81 39 30 3d 23 a7 33 3e 7f 71 6f 3d 4f 90 86 be
       0.04302359 0.17544226 0.058457848 -0.26281974
0003c0 35 88 22 be 59 b1 bf 3d dc a2 32 bd 0f 66 5c 3d
       -0.15872271 0.09359998 -0.043612346 0.05380827
0003d0 b2 3e 3d be 9d 35 be bd d2 85 4c 3d 70 1b 19 be
       -0.18480948 -0.0928757 0.04993231 -0.14951873
0003e0 6a cd 9b 3e 56 32 04 3e b7 24 c1 3e d3 9d 80 bd
       0.30430156 0.12909827 0.37723324 -0.062801026
0003f0 3e 0a 16 3d 36 eb be 3c 44 fb d6 bc 9d ab 0f 3e
       0.03663086 0.023305517 -0.02624286 0.14030309

enc2.2.bias f4 [16]
000000 56 14 8f 3c 99 90 01 3d 1b 91 68 39 13 84 4d 3c
       0.017465752 0.03163204 0.000221793 0.012543696
000010 68 8d 08 3d 99 eb d3 3c d1 24 9a bb 23 ba a9 bb
       0.03333798 0.025869178 -0.004704096 -0.00517966
000020 28 10 6e 3d 0f a8 ff 3c 2b 26 54 3c 8d c0 f2 bb
       0.058120877 0.031208066 0.012948553 -0.0074082077
000030 35 24 9c 3c 95 5c 77 bc 86 75 0d 3d b7 af ea 3c
       0.019060234 -0.015097757 0.034535907 0.02864824

bottleneck.0.weight f4 [32, 16, 3, 3]
000000 a4 82 bc bd 58 b3 14 3d d1 63 49 3d 0d 33 49 3d
       -0.09204605 0.036303848 0.049167458 0.04912095
000010 16 83 a1 3d 5d 9c 0d bd a3 78 cb 3c 05 51 52 3c
       0.07886331 -0.034572948 0.024837798 0.012836699
000020 0a 28 2e be cf bb 93 bc de 4e 3d be 1d 10 c8 3d
       -0.17007461 -0.01803389 -0.18487117 0.09768698
000030 70 91 a1 bc d4 ae 85 3d 62 59 07 3e 57 10 2f be
       -0.01972267 0.065274864 0.1321769 -0.17096077
000040 a2 92 5a 3e d8 75 0c 3d 24 f1 21 3d 2a 31 b2 3d
       0.21344998 0.034292072 0.03953661 0.087007836
000050 c9 f7 ae 3d fb 27 47 bd b9 3f 06 3e 87 62 5e 3e
       0.08543355 -0.048622113 0.13110246 0.21717273
000060 81 35 12 bd d7 ce 6e bc 43 40 bb bc 29 a1 2a 3d
       -0.035695557 -0.014575682 -0.02285779 0.0416576
000070 cc d8 85 bd 22 0f ae 3b fd 8d 30 bd 8b aa d1 bd
       -0.06535491 0.0053118626 -0.04310416 -0.102376066
000080 b5 3a fe bc e6 1a 00 3e b3 db 32 bc 25 75 a9 bd
       -0.031033853 0.12510261 -0.010916638 -0.08274297
000090 23 d1 a3 bd e2 26 9a bd 48 60 a1 bb 05 fa 67 bd
       -0.07998874 -0.075269476 -0.0049248077 -0.05663492
0000a0 35 60 2d 3d 8d 1d 32 be 8f 82 ce 3d fa 53 0b be
       0.04232808 -0.17394085 0.10083496 -0.13606253
0000b0 03 f4 ff 3d 7c 05 d2 bc d5 b9 d9 3d 88 66 e7 3c
       0.124977134 -0.02563738 0.10631148 0.028247133
0000c0 fb 66 d1 bd a5 62 85 3d 63 ed 1c bd 6e e4 f5 3d
       -0.1022472 0.065129556 -0.038312327 0.1200646
0000d0 44 3c be 3d 92 5d 3f bd ba 1f f2 3c f1 a9 f8 3d
       0.092888385 -0.046720095 0.029556144 0.12141789
0000e0 05 4c 42 3c 8c 6e 97 3d 89 ed 04 bd ed 01 03 be
       0.011858945 0.07394132 -0.032453094 -0.12793703
0000f0 ad 17 6f bd f8 24 8a 3e 1b cc 9c 3d 5c 23 8b bd
       -0.05837219 0.2698133 0.076561175 -0.06793854
000100 de cf fb 3c 9f 10 53 bd ed d4 04 3d bd 2f 11 3e
       0.030738767 -0.051529523 0.032429624 0.14178367
000110 6d 42 b6 3d f8 8b 9b 3c 59 5b 39 3b 61 24 3b bd
       0.088993885 0.01898764 0.0028283207 -0.04568899
000120 eb 38 e6 3b d7 9c 8c 3c 91 82 23 be a4 bd b7 3d
       0.007025828 0.01716463 -0.15967776 0.08971718
000130 45 fd 97 bd a9 9f 3c bd 6d 74 27 bd c6 59 f1 3d
       -0.07421354 -0.0460507 -0.040882517 0.11784701
000140 28 27 47 3e 54 03 b7 bd 83 7f d1 3d ab 0f 6a 3d
       0.1944853 -0.08936182 0.10229399 0.05714385
000150 f9 c3 e6 bc 20 ed 63 3d 78 82 20 3e 9c 0b e3 bd
       -0.028169619 0.055646062 0.1567477 -0.11086199
000160 30 ad 10 3d fd 66 8c bb 93 de 91 3c c3 af ba bc
       0.035321414 -0.004284738 0.017806327 -0.022788888
000170 96 26 79 bd 83 d9 e0 3d e9 cf 19 3e c0 16 f9 3d
       -0.060827814 0.10978987 0.15020718 0.12162542
000180 ae 9a 2d bb 5e 4b cc 3d 0f 36 4e bc bc 4e 86 bc
       -0.0026489901 0.09975313 -0.012586131 -0.016394965
000190 0f 99 ab 3d 1b 7d 2b bd b6 7c 93 ba 38 73 6d 3d
       0.08378803 -0.041867357 -0.0011252377 0.05797121
0001a0 ea de c4 3b 25 78 06 3d bd 47 8e 3e 69 f5 d8 3d
       0.0060080187 0.032829423 0.27789107 0.10593683
0001b0 7b 65 2e bb 1f 33 16 3d 6d 0f 25 bd 9f 2b 1a 3e
       -0.002661078 0.036669847 -0.040297914 0.15055703
0001c0 54 99 8f 3d 7a 71 c5 bd fb f6 22 bd 47 10 1d bd
       0.07011667 -0.096407846 -0.03978632 -0.0383456
0001d0 15 f1 46 be c5 c5 a6 3d 93 3d 7d 3d b6 e9 f0 bd
       -0.19427903 0.0814319 0.0618263 -0.11763327
0001e0 b3 cf 3d 3e a0 bb 08 bd cc 9e 3f 3d 0f e4 ce b9
       0.18536262 -0.03338206 0.0467823 -0.000394613
0001f0 19 f9 b8 3c bf 6f 60 3e d1 33 02 bc 09 e9 30 3d
       0.022579717 0.21917628 -0.007946924 0.04319099
000200 55 76 15 be 23 b8 67 3d 7f e3 3b bd b5 08 06 bd
       -0.14595921 0.05657209 -0.045871254 -0.032723147
000210 28 a0 b2 3c 37 61 e4 bd 62 1d 73 bd 84 b9 bd 3c
       0.021804884 -0.11151355 -0.059354194 0.02315975
000220 e0 20 2e 3e 02 4f 1e 3d 19 50 7a 3d 6d 7c 41 3d
       0.17004728 0.038649566 0.061111543 0.047237802
000230 c8 10 28 3d ad b7 c3 3d d9 6b 46 3d 74 d1 1b 3d
       0.04103163 0.09556518 0.048442695 0.038041547
000240 fc a4 f2 3b 7d de b8 bd 57 b3 cc 3d 97 37 49 3c
       0.0074049216 -0.09026811 0.09995144 0.01228132
000250 80 88 3a 3d 42 df 46 3c 37 91 b4 bc aa 9b 8c bd
       0.045540333 0.01213819 -0.0220419 -0.06865628
000260 d2 df 80 3d fa e5 80 3d cb 3d 89 bd fb dd af 3b
       0.0629269 0.062938645 -0.06701239 0.0053670383
000270 92 d4 44 3d 93 db 10 bb 34 28 45 be a8 11 5d bd
       0.048054285 -0.0022103533 -0.19253618 -0.053971916
000280 18 79 9d bd 8b de 75 3e 65 c6 b7 bb 92 1a 00 be
       -0.076891124 0.24010675 -0.0056083673 -0.12510136
000290 6e 2f ab bd 83 07 6a bd 6b 5d d2 bd bb 6a 2e 3c
       -0.08358656 -0.05713607 -0.10271724 0.010645564
0002a0 11 6c 6f bd 75 9a 3c 3d 8d 4d b0 3d e9 8f 92 bd
       -0.05845267 0.04604574 0.08608542 -0.07156355
0002b0 59 9d 8e bd 68 92 21 3d 17 bd 2c 3d 64 7b 5b bd
       -0.069636054 0.039446265 0.042172518 -0.05358447
0002c0 09 d0 c4 3c 63 01 7c 3d c4 f0 2e 3d a9 37 df 3d
       0.02402498 0.06152476 0.04271008 0.10899288
0002d0 10 59 4f 3d 9a 21 a9 3c c6 d7 df 3d 28 2b f0 3d
       0.050622046 0.020645905 0.109298274 0.117269814
0002e0 28 b8 b3 3d 1d 7a b9 3d bd 58 30 3d a9 f5 a1 bc
       0.087753594 0.090564944 0.043053377 -0.01977046
0002f0 6d 39 c1 bd 7a 36 19 bd e7 cd 81 3b 09 3c 82 bd
       -0.09434781 -0.03740547 0.003961313 -0.06359107
000300 50 3c fa bc 29 5b 7c 3b 4e e3 83 bd b0 35 38 3d
       -0.030546337 0.0038506484 -0.06439839 0.044973075
000310 0f ba 1e bd cd 11 d7 3d 51 99 f1 bd 51 e7 54 bd
       -0.038751658 0.10501442 -0.11796821 -0.051978413
000320 ac cb 05 be cc 3c 06 3d 2b 13 a0 3d 4f 7f 1b be
       -0.13065976 0.032772824 0.07816156 -0.15185283
000330 67 75 a3 3d 62 9e e6 3d 83 a3 3e 3e 54 43 34 be
       0.07981377 0.11260678 0.18617062 -0.17603809
000340 f4 d4 58 bd 4b 60 71 be bd 43 d5 3d 87 b5 63 3e
       -0.052937463 -0.23571889 0.10413311 0.22237216
000350 1d 1b 5b bd 8f 35 32 3d ba e9 cc 3c 41 9b 63 bd
       -0.053492654 0.04350811 0.025013793 -0.055567984
000360 95 c3 67 bd 41 33 e9 3d 0a 12 a6 3c 3d 53 ea bb
       -0.056583006 0.11386729 0.020272274 -0.007151036
000370 cb 16 1a bd 76 95 77 bc d4 cb b0 bd e5 8e 5f 3e
       -0.037619393 -0.015111318 -0.08632627 0.21831854
000380 e8 a3 0b 3e fc 08 2b 3c ac 36 f7 bc 40 43 f6 bd
       0.13636744 0.010439154 -0.030177437 -0.12024546
000390 dc 6b 50 3d 88 38 03 be a5 56 9c bd 65 54 58 be
       0.050884113 -0.12814534 -0.07633714 -0.21125944
0003a0 6f 1c c8 3d 85 7c 00 be fd d3 82 3d 44 2c 8b 3d
       0.09771048 -0.125475 0.0638809 0.067955524
0003b0 11 eb bd bd 6f c0 08 3e 38 66 c9 bc d9 b5 00 be
       -0.09273351 0.13354658 -0.024584875 -0.1256937
0003c0 85 68 66 3d 7f 2c 26 bc ad 76 01 3e c6 71 35 bd
       0.05625202 -0.010142445 0.12642927 -0.044297956
0003d0 54 10 a9 bc 1c 9c 24 3e 3d 88 9c 3d e8 63 d8 bc
       -0.020637669 0.16075176 0.07643173 -0.026414827
0003e0 74 d6 98 3d aa a7 42 3d a9 87 02 39 d5 51 0a 3e
       0.07462779 0.04752318 0.00012448303 0.13507779
0003f0 77 5e d0 3d fe 08 21 3e 6d 0c 28 bd bd 89 ab bd
       0.10174268 0.15726086 -0.041027475 -0.08375881

bottleneck.0.bias f4 [32]
000000 f8 6d 04 bd 0f 86 a5 3c 48 0e ea 3c fb fd 18 3d
       -0.032331437 0.020205526 0.028571263 0.03735159
000010 6f e0 f5 3c b1 ad d8 3c 85 0a 4b 3d 1d f0 26 bc
       0.030014245 0.02645001 0.04957058 -0.010189083
000020 d0 f3 da 3c c5 9d 60 bc d0 d1 5f 3c 9a b1 19 3d
       0.026727587 -0.01370949 0.013660863 0.03752289
000030 ce 18 20 bc f5 16 d5 3c e5 70 7b bb c1 b9 f5 3c
       -0.009771539 0.026011923 -0.003836685 0.0299958
000040 ae b3 0c 3d 43 1e e6 3b b6 66 d9 3c 50 19 62 3d
       0.034351043 0.0070226504 0.026538234 0.05519992
000050 ff 94 02 3b b0 c9 50 3d 4f 56 c7 3c d8 57 50 bc
       0.0019925234 0.050973594 0.024333147 -0.012716256
000060 e0 6d 0c 3d b8 26 a0 3c 60 a3 eb bc fd 36 3a 3c
       0.034284472 0.019549713 -0.028764427 0.011365649
000070 0b d6 ba 3c a1 ba dd 3c 1e ff cc 3c 8d b1 eb 3c
       0.022807142 0.02706653 0.025023993 0.028771186

bottleneck.2.weight f4 [32, 32, 3, 3]
000000 51 4d 44 bc cb e7 08 bd 3b 6b 47 be 04 49 d7 bd
       -0.011981324 -0.03342418 -0.19474499 -0.105119735
000010 74 79 3d be a2 2f 9f bc fc 8a 93 bd a8 4b fa bd
       -0.18503362 -0.019431893 -0.072042435 -0.122214615
000020 c6 b1 5f bc 50 de 0c 3b 1e 7f 37 be 57 aa 8d bc
       -0.013653224 0.0021494813 -0.17919585 -0.017293138
000030 fe 3f 9b 3b 17 0a d2 3d e6 7d 8d 3d cc c3 9d 3d
       0.004737853 0.10255831 0.06908779 0.07703361
000040 b0 47 11 bd a5 6f 84 bc 26 b9 41 bd 3f 3d 63 3e
       -0.035468757 -0.016166518 -0.047295712 0.22191332
000050 27 0f 1d 3d 2f 20 c1 bd 4e 4d 92 3d 7d c7 bb bc
       0.03834453 -0.09429967 0.07143651 -0.022922272
000060 1e f9 bc 3d b4 12 8c bd b9 66 b9 3d a8 5e e6 bc
       0.09227203 -0.06839505 0.09052796 -0.028121307
000070 ca 7f cd 3d 90 c5 ae 3c 19 b7 9b bb a6 78 1a 3e
       0.100341395 0.02133444 -0.0047520516 0.15085086
000080 64 6c b5 3d 20 64 5b 3d f8 18 ee 3d d9 8f 2b 3d
       0.088585645 0.053562284 0.11625856 0.04188523
000090 b7 49 2c 3d a4 0a dc bb bf b6 84 3d 16 4e 39 3c
       0.042062487 -0.0067151356 0.064801686 0.011310121
0000a0 27 cd 97 bd a3 57 21 3e f7 04 fe bb 3d d5 03 3d
       -0.074121766 0.15756087 -0.0077520567 0.03218578
0000b0 42 76 19 be 76 b3 3f be 9e bb 22 be f7 c3 61 bd
       -0.14986518 -0.18720803 -0.15891883 -0.055118527
0000c0 c1 e0 b4 3d 2c 2d 61 3d 17 35 e9 3d c9 b0 9d bd
       0.08831931 0.05497472 0.11387079 -0.07699735
0000d0 20 48 6e bd e1 23 56 3d 14 b9 86 3e 9d 5c 98 bd
       -0.058174253 0.05228031 0.26313078 -0.074395396
0000e0 12 bf 16 bd be be 8b 3d 5b 81 b7 bc b1 5c 48 bd
       -0.036803313 0.068234906 -0.022400549 -0.048916522
0000f0 69 6a 17 bd 0e b7 7a bc 6a 7e cc bd 7b 72 5b 3c
       -0.036966715 -0.015302433 -0.09985049 0.0133939935
000100 52 a3 cd 3b a5 59 ff 3d 36 6e df 3c 8c ab 9d 3d
       0.006275573 0.1246827 0.027274232 0.076987356
000110 23 a9 f4 3c 9a 52 3a bd 0e 82 c0 3c ef 3c 7b 3d
       0.029865807 -0.04548893 0.023499515 0.061337408
000120 e1 41 36 be 15 aa 3c 3c e5 2a eb bd bb 41 5b 3d
       -0.17798568 0.01151516 -0.11482791 0.053529482
000130 d5 83 2d bc bb c6 e8 3c 43 45 75 3d 5d 4b ae bd
       -0.010590513 0.028415075 0.059880506 -0.08510468
000140 00 af 0d 3d f7 f9 3d 3c d5 ff 90 3c 0b bb 4a bd
       0.03459072 0.011595241 0.017700115 -0.049494784
000150 8f 36 3a bd 7f c2 5f 3d c1 4c 78 bd 0c a0 82 bc
       -0.045462187 0.054628845 -0.060620073 -0.015945457
000160 dd da 68 be 35 42 f9 bd 7a 2d a1 bc 38 76 d4 3c
       -0.2273974 -0.12170831 -0.019675005 0.025935277
000170 f1 d6 12 bd ae e4 a4 bd c4 cf fe 3d 2f dd 97 3d
       -0.035849515 -0.0805143 0.12441972 0.07415234
000180 94 33 9e 3c f3 e3 7c 3d 3f 79 20 3d 1f ce 01 3c
       0.019311704 0.061740827 0.03917813 0.007922678
000190 64 e8 a8 3d 0f d8 38 3e 65 4f dd 3d ce b9 3c 3e
       0.0824745 0.1805117 0.10806159 0.18430254
0001a0 ad 1d 0c bd 48 51 5d 3d 76 f5 ef bd 86 c7 02 3d
       -0.03420799 0.054032594 -0.1171674 0.03192856
0001b0 e1 a5 38 bd 69 69 7f bd c8 02 aa bc c2 32 9c bb
       -0.04508007 -0.062356386 -0.02075328 -0.004766793
0001c0 11 06 49 bd cb 29 bb bd 2d 37 f4 bd b5 85 db bd
       -0.04907805 -0.09138831 -0.119245864 -0.10718862
0001d0 9d 29 25 be fe e1 4d 3c 52 3b ab 3d f5 59 d9 bd
       -0.16129155 0.012566088 0.08360924 -0.10612861
0001e0 63 7d ab bd 6a 8d 50 3c 74 11 4e 3d 6a ce 52 be
       -0.08373525 0.012729028 0.050309613 -0.20586553
0001f0 82 50 bd 3c 3e 8a b7 3d aa 34 ef 3d e0 a8 14 3d
       0.023109678 0.089619145 0.11679967 0.036293864
000200 8b 2d 08 be 5b ed 05 3e c6 e1 19 3e c0 90 57 be
       -0.13298623 0.13078825 0.15027532 -0.21051311
000210 30 51 92 bd c8 ea 16 3e 7c 3e 19 3d 49 98 66 bd
       -0.071443915 0.14738 0.037413105 -0.056297574
000220 b3 4d ae 3d 8c bb 8e 3c e0 6d d6 bd e6 ef 03 3d
       0.08510914 0.017423414 -0.10470176 0.032211207
000230 93 fa 06 3d 90 e5 b4 3d f5 07 c0 bd 95 8f d3 3d
       0.03295381 0.08832848 -0.09376518 0.103301205
000240 93 cb 54 3e 61 57 15 be 8a 51 74 bc 33 53 59 bd
       0.20780782 -0.14584114 -0.014912019 -0.05305786
000250 5b ed 48 3d 70 b5 86 3c 76 c3 e1 bd c4 30 48 3d
       0.049054485 0.016443938 -0.11023609 0.04887463
000260 a4 f3 dd bc 98 67 9e bc 19 27 4a bd 59 bc dd 3d
       -0.027093716 -0.019336507 -0.049353693 0.1082694
000270 3b f9 5c 3c af 35 04 bd 4c 1b 18 3d 48 fc c5 3c
       0.013487156 -0.03227776 0.037135407 0.024168149
000280 f3 02 ee 3d ea 3d 39 bd 47 a6 e1 bc f1 bb eb bd
       0.11621656 -0.04522506 -0.027545108 -0.11510456
000290 a9 9e b0 bd ae 9b 4c be e2 61 07 3d 84 44 0b be
       -0.08624012 -0.19981262 0.033052333 -0.13600355
0002a0 ef 76 27 3c 1f 09 2b 3e 04 06 01 bd 03 86 ad bd
       0.010221227 0.16702698 -0.031499878 -0.08472826
0002b0 52 b2 3e bd 27 5b 09 be 09 e4 45 3d fa 61 46 3d
       -0.04655678 -0.13413678 0.048313174 0.04843328
0002c0 ec 1a 1f be ec 5d 93 3c 3e 8b a4 3d df db 1a 3e
       -0.15537614 0.017989121 0.08034371 0.15122937
0002d0 51 ad ea bc af 47 f8 bd 78 01 fd 3d ef cc d4 bd
       -0.028647097 -0.121230476 0.12353796 -0.103906505
0002e0 39 38 1b bd d2 c7 b5 bd e8 f6 a4 bd 95 a9 9f 3d
       -0.037895415 -0.08876003 -0.08054906 0.07796017
0002f0 d7 c1 e6 3d d6 32 84 be cd d5 11 3c 57 24 33 3d
       0.11267441 -0.25820035 0.008901072 0.04373583
000300 f7 61 86 bd 14 cb c3 3c 42 cc 04 3d 8d 07 1f be
       -0.06561654 0.023900546 0.032421358 -0.15530224
000310 fe 2c cc 3d 60 53 a3 3c 6a 75 01 3d 96 e4 e9 bd
       0.09969519 0.019937217 0.031606115 -0.114205524
000320 d8 c2 9f 3c 8b a8 4a bd cd 4d 1c bb 3b 6b 32 3e
       0.019502088 -0.04947714 -0.0023850084 0.17423718
000330 f5 13 9e 3c b1 5a 0c be 66 f8 81 3d 75 b4 46 3d
       0.019296626 -0.13706471 0.06346206 0.04851194
000340 6e b7 6c 3d 60 bb c8 bd 67 be a6 3c e4 58 2b be
       0.05779212 -0.09801364 0.020354463 -0.16733128
000350 93 55 db bb b5 99 5e bd 3e 94 4a bb bb 87 03 be
       -0.006693551 -0.054345805 -0.0030911113 -0.12844746
000360 16 ab 33 3c 2a 04 9b 3c 84 b7 93 3c 78 c8 4a 3d
       0.010966083 0.018922884 0.018031843 0.04950759
000370 5c 20 f4 bc f4 b6 e3 3d 51 00 81 3c 12 c0 69 3d
       -0.029800586 0.1111888 0.015747221 0.05706794
000380 0a 02 0a 3d 71 92 f2 bd 06 22 8a bd fd de 28 3c
       0.03369335 -0.11844338 -0.06744771 0.010307071
000390 a1 de 31 bd 3e 60 d4 bd 4f 22 d2 3d 34 6e 90 3d
       -0.043425206 -0.10369919 0.1026045 0.070522696
0003a0 e1 8e 47 bd 92 02 38 3d c7 80 32 3d 9d 60 01 be
       -0.048720244 0.044924326 0.043579843 -0.12634511
0003b0 4e 99 a4 bc f5 0c 2e 3e c6 b2 ef bd eb 16 ae bd
       -0.020092633 0.1699713 -0.1170402 -0.08500465
0003c0 37 be 02 3d 99 68 50 bc 6a 4d a0 bd bc a1 63 3d
       0.031919684 -0.0127202505 -0.078272656 0.055574164
0003d0 7e 69 51 3d 7a fa 2e 3d 92 86 a2 3c 78 51 95 3d
       0.051125996 0.04271934 0.019839559 0.072909296
0003e0 53 d3 21 3e 2e fc b8 bd fe 5b f5 bc 9c 0a c2 3c
       0.1580327 -0.090324745 -0.029951092 0.0236867
0003f0 a8 d6 18 3e c4 b1 66 3e 39 26 7a 3e 3b 72 3d bd
       0.14925635 0.2252875 0.24428643 -0.046251517

bottleneck.2.bias f4 [32]
000000 bd 63 e4 3c 73 67 3b 3d b8 f1 fb 3c bb 20 69 bc
       0.02787959 0.045752954 0.030754909 -0.014228995
000010 de 5d 10 bc 60 25 6c bc e8 62 d3 3c 8f 70 70 bb
       -0.008811442 -0.014413208 0.025803998 -0.0036688184
000020 4f 9b 13 3d 4c 59 0a 3c 7a 97 0a 3d 47 13 0e bd
       0.036036786 0.008444142 0.033835866 -0.034686353
000030 bf f8 16 bd f4 c9 ec 3c b4 bf 5e bc 23 01 dc 3c
       -0.036858317 0.028904893 -0.01359551 0.02685601
000040 78 a7 f0 3c e7 a5 64 bc 04 7a 0f 3d 9f 6e 46 bc
       0.02937673 -0.01395557 0.035028473 -0.012111335
000050 04 59 ed 3c 47 9f 91 3b 2a de 3b bd 6a 1a ac bb
       0.02897311 0.004444036 -0.04586617 -0.0052521722
000060 28 40 e7 3c 11 6a 01 3d d6 1d 08 bd f0 30 ef 3c
       0.028228834 0.031595293 -0.03323158 0.02919814
000070 a3 76 07 3c 04 4f b5 bc cf 66 d9 3c 26 bf b1 3b
       0.008268031 -0.022132404 0.02653828 0.005424398

up1.weight f4 [32, 16, 2, 2]
000000 a6 fa 95 3d 64 bf 7a 3d 5e 00 88 be e5 36 e6 bc
       0.07323198 0.06121768 -0.2656278 -0.028102348
000010 7f 70 e6 bd f8 a9 e8 3d 1f c3 ab 3d 51 fc 9c 3e
       -0.11251926 0.11360544 0.08386826 0.30661252
000020 cb c3 3e be 05 fa a8 bd 46 07 c7 3d 98 1f 8b 3c
       -0.18629377 -0.082508124 0.09718184 0.016982839
000030 64 1d 9d bd f6 28 9a 3d 65 8f ea 3d 15 23 bc bd
       -0.076716214 0.07527344 0.114531316 -0.09186379
000040 de 91 96 3b 00 98 99 3e 2f 32 a8 3d 1a 88 9f bd
       0.0045950254 0.2999878 0.08212697 -0.07789631
000050 7e e6 0a 3d 11 0a 27 be c6 bc 88 3c 26 60 b5 bd
       0.03391122 -0.16312434 0.016691577 -0.088562295
000060 6e 70 09 3e b1 0c eb 3d 17 dc 29 bd ea fd be bd
       0.13421795 0.1147703 -0.04146966 -0.09325774
000070 74 53 a1 3c 22 04 5c be 97 a6 68 3e 80 d7 7c 3d
       0.019693114 -0.21485952 0.22719799 0.061728954
000080 2e 52 68 be ff 64 e5 3d 4b 9f 62 be 71 07 b3 bd
       -0.22687599 0.11200904 -0.22131078 -0.08741654
000090 de 9a 49 3d db 0d 6d bd b5 90 3e 3e 2e ec 4d 3e
       0.04921996 -0.05787454 0.18609889 0.20109627
0000a0 bf 76 f4 bd 8a 0e 43 3e d7 35 a8 3d 86 74 0c 3e
       -0.119367115 0.19048515 0.08213394 0.13716325
0000b0 53 0e cb 3b 1b 1f d7 3d 63 ee bd bd b1 3d b9 bc
       0.006196776 0.1050398 -0.09273984 -0.022612425
0000c0 f5 6b c5 3d 28 70 81 be af 31 01 bd 05 d5 a8 3d
       0.09639732 -0.2528088 -0.031541523 0.08243755
0000d0 71 a3 f4 3c 25 1d 6c bd 9f fc 8e 3e 46 1a 1c 3e
       0.029863091 -0.057644982 0.2792711 0.15244398
0000e0 4a 01 f2 bd 4d a0 6f be 91 36 88 3d 54 5a 11 bd
       -0.11816652 -0.23400994 0.06651033 -0.035486534
0000f0 00 d7 c1 3b f6 12 63 3e ea f7 c4 bd 3d 3e 42 3d
       0.0059155226 0.22175202 -0.09617598 0.047422636
000100 29 1e 5d be 6a 9e 3e be cf 1d 2e 3b 44 53 01 be
       -0.21593536 -0.18615118 0.002656806 -0.1262942
000110 06 9e 7d be 86 68 fa bd 63 24 4b be 21 8b ec ba
       -0.24767312 -0.122269675 -0.19838099 -0.0018046835
000120 55 70 99 3e aa 7a c2 3d 1a e4 33 bd a6 a6 be bd
       0.29968515 0.094960526 -0.043918706 -0.093091294
000130 a2 09 df 3d 79 33 fc bc 43 8d c8 3d d6 84 e8 bd
       0.10890509 -0.030786263 0.097925685 -0.113534614
000140 de a8 19 be a7 5f e1 bd 8b 22 6e bd 06 48 76 be
       -0.15005824 -0.11004572 -0.05813841 -0.24050912
000150 de 0c b7 bc 03 2f 99 bc d7 b3 2a 3d 59 65 7d 3d
       -0.022345003 -0.018699175 0.041675415 0.06186423
000160 68 1b 00 be 6e 8b 9f bd 72 fd 24 be d5 c8 af be
       -0.12510455 -0.07790266 -0.16112307 -0.3433291
000170 a0 05 9b 3d 55 a5 cf 3d 9b 15 40 be b8 d7 9e bd
       0.07569432 0.101389565 -0.18758242 -0.07755989
000180 ce b6 4d be 67 51 25 bd 45 47 7e be d0 58 08 3e
       -0.20089266 -0.040360834 -0.24831875 0.1331513
000190 af 0b 9f 3d 0c 2e 0b 3e b6 2e c8 3d 57 09 a9 3c
       0.077659 0.13591784 0.097745344 0.020634336
0001a0 45 6c a3 bd 17 6c 4c be a2 d7 3c 3a fc 0e 87 3d
       -0.07979635 -0.19963108 0.00072037627 0.06594655
0001b0 89 8f 0b be 38 52 10 bc 47 91 6a 3e 67 49 94 3b
       -0.13628973 -0.008808665 0.22906981 0.004525352
0001c0 50 33 a7 bd ea 3e c2 3d 53 b9 5d 3d ab cf c4 3d
       -0.08164084 0.09484656 0.054131817 0.09609922
0001d0 cc ec e4 3d 42 52 c7 3c 59 29 52 3e b8 d7 80 bd
       0.11177978 0.024331216 0.20523585 -0.06291145
0001e0 0a bc 45 3d 07 f8 30 3e 67 91 79 bd 0a c3 cc bd
       0.04827503 0.17282115 -0.060929682 -0.09998138
0001f0 95 10 3f be b5 08 fb bd 42 e8 72 be 8e 8f 53 bd
       -0.1865867 -0.1225752 -0.23721412 -0.051650576
000200 52 bd ff bc e8 01 82 bd 20 90 f6 bd 49 59 82 3e
       -0.031218205 -0.0634802 -0.120392084 0.25458744
000210 a8 d0 30 b9 5b 05 2a bd 29 56 18 be a3 0c 8f bd
       -0.00016862398 -0.041509014 -0.14876617 -0.06984832
000220 5d 86 37 3d c6 80 8e 3d 55 94 5e 3e 5e e5 7e 3e
       0.044805873 0.06958155 0.21736272 0.24892184
000230 cf 4a f2 3d 8b f4 9a 3d c6 62 a4 3e b4 be b6 bc
       0.11830675 0.07566174 0.32106608 -0.022307731
000240 79 b4 55 bd 5f a8 9e bc 67 54 5b be 38 c7 4e be
       -0.052174065 -0.019367395 -0.21418916 -0.20193183
000250 ba 3e 84 bc 64 4b 11 3d 2c cd 96 bd 0d 04 04 bd
       -0.016143192 0.03547229 -0.07363352 -0.032230426
000260 31 c6 2d 3d 8c 13 0a 3e 4c 21 1c bd 8a b5 17 be
       0.04242534 0.13484019 -0.038117692 -0.14815345
000270 c9 90 d4 be 1e 5d 3b bd 13 b6 a4 bd 2c 1f bc bc
       -0.41516712 -0.0457431 -0.080425404 -0.022964083
000280 4a 3f 43 3e 20 9a 4f bc 82 0b 1f be 87 a7 b1 3e
       0.19067112 -0.012671024 -0.15531734 0.34698126
000290 48 0c d5 3d ea fd e8 3d 5d a5 48 3e 95 a2 78 bd
       0.10402733 0.11376555 0.19594331 -0.060701925
0002a0 18 39 0e 3d b5 0a 69 bb 45 db 01 3d 7a ef 85 bd
       0.034722418 -0.003555936 0.031703252 -0.06539817
0002b0 f0 32 41 3d 67 4c a2 bd fd 5c bd 3d f3 7b c4 bd
       0.04716772 -0.07924729 0.09246252 -0.09593954
0002c0 7c 51 b0 bc f2 3b d2 3c 35 32 38 bd 37 a9 82 3e
       -0.02152323 0.02566335 -0.044969756 0.25519726
0002d0 81 34 05 bd 38 e8 7b bc fe 29 43 3a a3 51 8e 3e
       -0.032520775 -0.0153751895 0.0007444917 0.2779666
0002e0 23 6b cc bd db 54 0d 3e c5 60 81 bd 91 07 1f be
       -0.09981372 0.13801901 -0.063172854 -0.1553023
0002f0 41 28 dd 3d 12 00 ea bd 71 9d 29 bd d2 ed 19 be
       0.107986934 -0.11425795 -0.041409913 -0.15032127
000300 ab 1d b9 bd 20 5c 45 3d 7b da 12 3d 55 c7 d3 3d
       -0.09038862 0.04818356 0.03585289 0.10340754
000310 6a 4b de 3d ad d0 0f 3e a1 37 8e be 60 2a ac 3d
       0.10854228 0.14044447 -0.27776816 0.0840652
000320 fa 19 19 be d8 78 39 be 08 01 56 bd 42 2b c1 3d
       -0.14951316 -0.18112504 -0.052247077 0.09432079
000330 4c c9 96 be 5b b8 66 bb 1a 32 87 3d 67 2a 27 3e
       -0.29450452 -0.00352051 0.06601353 0.16324769
000340 7b 0d a6 3d bf ed dd bd b5 64 04 3e c6 86 6b bd
       0.0810804 -0.10836362 0.12929042 -0.057501577
000350 22 59 48 bc 9a 70 75 bc c8 4a a3 3d 9f 6e c3 3d
       -0.012228282 -0.01498046 0.07973248 0.09542584
000360 8c 7b ff bc 43 24 fb bb 41 97 b8 3e 33 8d d5 3c
       -0.031186841 -0.007664235 0.36052898 0.026068306
000370 c5 15 da bc f1 11 ff 3d bb a1 b2 3c 4c 8a 7a bd
       -0.026621709 0.12454594 0.021805635 -0.061167046
000380 52 aa a2 bb 8d 3b 99 bc 13 51 e8 3c b1 53 73 bd
       -0.0049641514 -0.018705154 0.028358972 -0.059405986
000390 c2 de b5 3d 1b 55 53 be 3a 2f 69 3d b4 62 60 3e
       0.08880378 -0.20637934 0.056929804 0.21912652
0003a0 7f 04 cc bd a3 d4 13 bd fa 08 10 3e 12 7c 49 be
       -0.09961795 -0.036091458 0.14065924 -0.19676235
0003b0 82 0c f8 3c 9e 11 23 be f3 33 9b 3d 62 89 a2 3d
       0.030279402 -0.15924689 0.07578268 0.0793636
0003c0 fc de c6 bc 3e 8e dc 3d ee 02 f8 3d 4d 9f 07 be
       -0.02427625 0.10769318 0.12109934 -0.13244362
0003d0 90 f7 02 3e c7 88 d9 bc 1a ce 06 3e 94 7f 0e be
       0.1278975 -0.026554478 0.13164559 -0.13915855
0003e0 ba 17 77 3e 20 fa 6f bd 75 d2 fa 3d 5d 60 68 bd
       0.24130145 -0.058588147 0.12247173 -0.056732524
0003f0 57 7c 20 be 54 6d a6 3d 5a 6d ac 3d 06 2c eb 3c
       -0.15672432 0.081263214 0.08419295 0.028707515

up1.bias f4 [16]
000000 7a 83 9e 3c 30 9b 06 bd 63 bf dd 3c 4d 06 03 bd
       0.019349802 -0.032862842 0.0270688 -0.03198843
000010 df c8 d7 bc eb 5c f4 bc d7 c3 f4 bc 0d dc eb bc
       -0.0263409 -0.029829463 -0.02987854 -0.028791452
000020 85 45 c1 bc 73 83 c5 3c 0e de 9d bc c4 6b d3 3c
       -0.02359272 0.024110531 -0.019270923 0.025808223
000030 de ca e6 3c 44 3a d5 3c 3e a3 d5 bc 23 d0 cf bc
       0.028172906 0.02602876 -0.026078817 -0.025367802
