sampling-based_planning_framework/checkpoints/checkpoint_epoch_63.pth (torch, 386482 bytes, 75 tensors)

enc1.0.weight f4 [8, 1, 3, 3]
0	0xbdd1b7b9	-0.102401204
1	0x3dd3023e	0.10303162
2	0x3d8a80c5	0.06762842
3	0x3e107cdc	0.1411013
4	0xbde7dd73	-0.11321535
5	0x3dab8aa4	0.08376053
6	0x3d01b04e	0.031662278
7	0xbe35aae4	-0.17740971
8	0xbd89e8dd	-0.06733868
9	0x3e17e5ef	0.14833806
10	0xbdfdec57	-0.12398594
11	0x3d48ef83	0.04905654
12	0x3e73129f	0.23737572
13	0xbd9625dd	-0.073314406
14	0x3e129842	0.14315894
15	0xbd7777d1	-0.060417
16	0x3e1ef145	0.15521725
17	0xbd9b374c	-0.075789064
18	0x3e2f6e61	0.1713195
19	0xbe506270	-0.20350051
20	0xbe3abc76	-0.18235955
21	0x3e25093f	0.16116808
22	0xbdab2d9b	-0.08358308
23	0xbe1ffcf1	-0.15623833
24	0xbebac255	-0.3647639
25	0xbe460079	-0.19336118
26	0xbdcc3a48	-0.09972054
27	0x3d621de8	0.055204302
28	0x3cbc0595	0.02295188
29	0xbe489241	-0.19587041
30	0x3d2d2cfe	0.042279236
31	0x3e27922d	0.16364355
32	0x3eacd946	0.33759516
33	0xbc693d1e	-0.014235763
34	0x37555c81	1.2717327e-05
35	0x3845a4ec	4.7122056e-05
36	0xbdcc9007	-0.099884085
37	0x3d42ce55	0.047560055
38	0xbdac1f42	-0.084043995
39	0xbe8ee357	-0.27907822
40	0x3e68242c	0.22670048
41	0xbd550a2c	-0.052011654
42	0xbd556851	-0.052101437
43	0x3dd2d20f	0.10293972
44	0xbe99cb8b	-0.30038103
45	0x3e5b0612	0.21389034
46	0x3e6b634d	0.22987099
47	0xbc216514	-0.009850759
48	0x3ec0235e	0.37526983
49	0xbd81dc9a	-0.063409045
50	0xbdc02247	-0.09381538
51	0x3dafde91	0.08587373
52	0xbe3dd7dd	-0.18539377
53	0xbe857744	-0.26067555
54	0x3c8f3ffb	0.017486563
55	0x3d40d862	0.04708136
56	0x3dd3caf0	0.10341442
57	0x3e03c758	0.12869012
58	0xbdd9673d	-0.10615394
59	0x3efa67ca	0.4890731
60	0xbd12cd90	-0.03584057
61	0x3dde9626	0.10868482
62	0x3de941ee	0.11389528
63	0x3dfffbee	0.12499224
64	0xbea29411	-0.3175359
65	0x3db09240	0.08621645
66	0xbe1ce9ed	-0.1532361
67	0xbdb57b64	-0.088614255
68	0x3e5f558f	0.21809982
69	0x3d860a44	0.06544927
70	0xbdf6a042	-0.120422855
71	0x3d5e7557	0.054311123

enc1.0.bias f4 [8]
0	0x3d112c08	0.035442382
1	0x3b02301a	0.0019865097
2	0x3d03b4d6	0.03215488
3	0xb7a25d50	-1.9355357e-05
4	0x3d55330c	0.052050635
5	0x3892e8e1	7.0051996e-05
6	0x3b164e1d	0.0022934743
7	0x3922ac2a	0.0001551366

enc1.2.weight f4 [8, 8, 3, 3]
0	0x3d447f00	0.04797268
1	0x3d873244	0.06601384
2	0xbd964919	-0.07338161
3	0xbe77b76f	-0.24191068
4	0x3efb05ae	0.4902777
5	0x3e1fb2e0	0.15595579
6	0xbccb2fae	-0.024803009
7	0xbc3f3109	-0.011669406
8	0xbcca6831	-0.024707885
9	0xbdab688b	-0.08369549
10	0xbdbd86c0	-0.09254217
11	0xbde1308c	-0.10995588
12	0xbd1c1740	-0.03810811
13	0xbdd794fb	-0.10526463
14	0x3e3d0871	0.18460251
15	0x3e4048f2	0.18777826
16	0x3e29b1c4	0.16571718
17	0xbe8a52a0	-0.27016163
18	0x3d81329c	0.06308481
19	0x3e2572a2	0.1615701
20	0x3df46009	0.1193238
21	0xbde73f5d	-0.112913825
22	0x3df842d4	0.121221215
23	0xbdbba127	-0.09161597
24	0xbe52de0c	-0.20592517
25	0x3e020bfc	0.12699884
26	0x3d63dd6f	0.055631097
27	0x3d085927	0.033288147
28	0x3d981c88	0.07427317
29	0xbe826afc	-0.25472248
30	0x3e5df2f4	0.2167471
31	0x3c6d0b18	0.014467977
32	0x3cedb323	0.029016083
33	0xbc837a97	-0.016049666
34	0x3d00877a	0.0313792
35	0xbe417720	-0.18893099
36	0x3d0673ef	0.032825407
37	0x3d8ac681	0.06776143
38	0x3e222433	0.15834121
39	0xbe365650	-0.17806363
40	0x3d3121b6	0.04324504
41	0x3d1600b2	0.036621757
42	0xbb4ce269	-0.003126288
43	0xbd53047b	-0.051517945
44	0x3e11d95c	0.14243072
45	0x3cc1356f	0.02358505
46	0xbe9f428d	-0.31105462
47	0x3d9d03cc	0.0766674
48	0x3c235e48	0.009971209
49	0x3e9e669a	0.30937654
50	0xbe198ca1	-0.14995052
51	0x3e33c62d	0.17556067
52	0xbe2856b7	-0.16439329
53	0xbe02b81e	-0.12765548
54	0xbdb1f219	-0.086887546
55	0x3e2c7171	0.1684015
56	0xbcc58b89	-0.024114387
57	0x3e48a76e	0.1959512
58	0xbda47940	-0.08030939
59	0xbcbb5f5f	-0.022872625
60	0x3d79525c	0.06086956
61	0xbeecb2aa	-0.4623006
62	0xbd9d7352	-0.07688011
63	0xbbc12ed2	-0.005895474
64	0xbbb16234	-0.005413318
65	0x3e6892f7	0.22712313
66	0xbd8cd318	-0.068762004
67	0xbd5b6e73	-0.05357213
68	0x3d85eaef	0.06538951
69	0x3e20d6bb	0.15706913
70	0xbcda6dfb	-0.02666377
71	0xbd9d074a	-0.07667406
72	0xbe46a478	-0.19398677
73	0x3cf9adbc	0.03047835
74	0x3c902e55	0.017600218
75	0x3e03b5b9	0.1286229
76	0x3e165abf	0.14683054
77	0x3df39f48	0.11895615
78	0xbe0ccb6c	-0.13749474
79	0x3e39fbb5	0.18162425
80	0xbe603b9a	-0.21897736
81	0x3cb60f86	0.022224199
82	0x3e848087	0.2587931
83	0xbdd97545	-0.106180705
84	0x3e2b866c	0.16750497
85	0x3c93fd23	0.01806504
86	0x3e1d8317	0.15382038
87	0xbd0279e1	-0.031854514
88	0xbe8ae279	-0.2712591
89	0x3e1eaa30	0.15494609
90	0x3bb4f151	0.005521931
91	0xbe97ba18	-0.29634166
92	0x3e896b9e	0.26839918
93	0xbc985dbc	-0.018599384
94	0x3e1e8828	0.15481627
95	0x3e040f4b	0.12896459
96	0x3b9a82e5	0.004715311
97	0x3e12cd08	0.14336026
98	0xbe05999c	-0.13046879
99	0xbca70bc9	-0.020391362
100	0xbd894e7b	-0.06704422
101	0x3e507a8b	0.20359246
102	0x3eec731d	0.46181574
103	0xbca8c18f	-0.020600108
104	0x3c3aca2a	0.011400739
105	0x3dae1f08	0.085020125
106	0x3f0c21e0	0.5473919
107	0x3dbf4d83	0.09340956
108	0xbe8fce6a	-0.2808717
109	0x3d0aa8b1	0.033852283
110	0xbd07cf14	-0.03315647
111	0xbeada018	-0.33911204
112	0x3e14c7ae	0.14529297
113	0xbe48b712	-0.19601086
114	0xbd910790	-0.070815206
115	0x3e203fc1	0.1564932
116	0x3eaa55c8	0.3326857
117	0xbd935e66	-0.071957394
118	0xbdc570f2	-0.09640683
119	0x3bcee43e	0.0063138297
120	0x3d733107	0.059372928
121	0x3e6a3d1a	0.22874871
122	0x3dfeefa7	0.12448054
123	0x3bc51a29	0.0060150814
124	0xbd5230e9	-0.051316176
125	0xbcd95890	-0.026531488
126	0x3e747200	0.23871613
127	0x3b613c4a	0.003436821
128	0xbe93b47d	-0.2884864
129	0x3e934f4a	0.2877143
130	0x3e555f3e	0.20837113
131	0xbdbd42f5	-0.09241287
132	0x3ed1e935	0.40998235
133	0x3e64e84d	0.2235424
134	0x3d233ea6	0.039854668
135	0xbcde72e6	-0.027154397
136	0x3ea80c2e	0.32821792
137	0x3e02657f	0.1273403
138	0x3e902900	0.2815628
139	0x3e94d223	0.29066572
140	0x3e33ca82	0.1755772
141	0x3e1f0b01	0.15531541
142	0xbdcf2469	-0.101143666
143	0x3e0a2b0d	0.13492985
144	0x3dc95a04	0.09831622
145	0x3e4b86a2	0.19875577
146	0x3cf6f424	0.030145712
147	0x3e530c74	0.20610219
148	0x3dc6aaaa	0.0970052
149	0xbdcacafc	-0.099019974
150	0x3dd306be	0.1030402
151	0x3f0a3760	0.53990746
152	0xbe00f97c	-0.1259517
153	0xbeb3d8f1	-0.3512645
154	0xbd6cee30	-0.05784434
155	0x3db3c851	0.08778442
156	0x3e5d699c	0.21622318
157	0xbcb3f0e2	-0.021965448
158	0xbd4da9b1	-0.05021066
159	0x3df0f5d8	0.11765641
160	0xbee2a78e	-0.4426846
161	0xbe2c69fb	-0.16837303
162	0xbe571bc4	-0.21006685
163	0xbd962d72	-0.07332887
164	0xbeb0a212	-0.3449865
165	0x3dc5e188	0.09662157
166	0x3d9ea9ba	0.077472165
167	0x3e86384b	0.26214823
168	0x3d2bdbc4	0.04195763
169	0x3e33e072	0.17566088
170	0xbda04883	-0.078263305
171	0x3ea1159d	0.31461802
172	0x3cbc92d6	0.023019236
173	0xbcf18ed6	-0.029487055
174	0xbd6ed046	-0.058304094
175	0x3dc1ee3c	0.09469268
176	0x3dec94b1	0.11551798
177	0xbe612ab6	-0.21988949
178	0xbe589656	-0.21151099
179	0xbd6b90f9	-0.057511304
180	0x3e56bec9	0.20971216
181	0xbe1e3680	-0.15450478
182	0x3eb88b26	0.36043662
183	0xbe732dfb	-0.23748009
184	0xbd4cd56c	-0.050008222
185	0x3e0fe715	0.14052995
186	0xbe58ef88	-0.21185124
187	0xbba97d46	-0.0051724045
188	0x36fe4471	7.5777575e-06
189	0xbdec30c4	-0.11532739
190	0xbebee7cf	-0.3728623
191	0x3e98efdf	0.29870507
192	0x3e00e7db	0.12588446
193	0xbe9b4f63	-0.30334005
194	0xbe9ea363	-0.3098403
195	0x3d3c922c	0.046037838
196	0xbebb4384	-0.36574948
197	0x3d129bd9	0.03579316
198	0x3da7e93a	0.08198781
199	0xbcae3f56	-0.021270435
200	0xbdf2a097	-0.11847036
201	0xbe94d12e	-0.2906584
202	0x3ea9499b	0.3306397
203	0x3d9fe319	0.07806987
204	0xbe6edc45	-0.23326214
205	0xbdb2a354	-0.087225586
206	0x3e431e59	0.19054545
207	0x3ddcead8	0.107869804
208	0xbd6cdef5	-0.057829816
209	0xbd2332c6	-0.039843343
210	0x3e8a43f2	0.27004963
211	0xbdb46016	-0.088073894
212	0xbdd33e39	-0.103146024
213	0x3ddf0582	0.108897224
214	0x3df61a99	0.12016792
215	0xbe5f1795	-0.2178634
216	0x3ce94afe	0.028478142
217	0x3e76873f	0.2407503
218	0xb9c73239	-0.00037993657
219	0xbd64b0e6	-0.055832766
220	0x3c919d85	0.017775306
221	0xbe4fdc25	-0.20298822
222	0x3e303ba7	0.17210256
223	0x3cdd8040	0.027038693
224	0x3d14b085	0.036301155
225	0xbebf0136	-0.3730561
226	0xbea770e9	-0.3270333
227	0xbe57720f	-0.21039604
228	0xbcdc86b9	-0.02691971
229	0xbe74ef5b	-0.23919432
230	0xbdad6508	-0.08466536
231	0x3e8f1e7e	0.2795295
232	0x3e191e03	0.14952855
233	0x3de43927	0.111437134
234	0xbcb72a9a	-0.022359181
235	0x3d8072df	0.0627191
236	0x3d2fc290	0.04291016
237	0xbdc18396	-0.09448926
238	0xbd0722bf	-0.03299212
239	0x3dc30f4a	0.095244005
240	0x3d6f0dfe	0.058362953
241	0x3e4bef6b	0.1991555
242	0xbe4e920d	-0.20172901
243	0xbd208f4b	-0.039199155
244	0x3d22c685	0.039740104
245	0x3ddf289f	0.1089642
246	0xbea41d6d	-0.320537
247	0xbe35386b	-0.17697303
248	0x3c53d8f7	0.012930146
249	0x3dae56ba	0.085126355
250	0x3e1bc627	0.15212308
251	0x3deadf8b	0.11468419
252	0x3eb965b3	0.36210403
253	0xbd542167	-0.051789667
254	0xbe0584cb	-0.13038938
255	0xbe6a1d71	-0.22862794

enc1.2.bias f4 [8]
0	0xbcefbbfe	-0.029264446
1	0xbaadbccf	-0.0013255122
2	0x3d209953	0.03920872
3	0xbc2ea231	-0.010658787
4	0x3b8aaa5f	0.0042317356
5	0x3d0c70c3	0.034287225
6	0x3cf288d2	0.029606257
7	0x3c015ac6	0.007895177

enc2.0.weight f4 [16, 8, 3, 3]
0	0x3c5d33d6	0.013501128
1	0xbd2256e8	-0.03963366
2	0xbc615558	-0.013753258
3	0xbe084552	-0.13307694
4	0xbe514d93	-0.20439748
5	0x3dbc81ee	0.092044696
6	0x3d719473	0.058979463
7	0xbdb488b0	-0.088151336
8	0x3e84d238	0.25941634
9	0xbb304845	-0.0026898545
10	0x3d4bfe4d	0.049803067
11	0xbd17cd3f	-0.037060972
12	0xbe62b840	-0.22140598
13	0x3d9c34d1	0.076272614
14	0xbd3e8b3c	-0.046519503
15	0xbdae5b46	-0.08513503
16	0xbd2f55c1	-0.04280639
17	0x3e398bb9	0.18119706
18	0x3bca9898	0.0061827414
19	0x3df26a1d	0.11836646
20	0xbe2c0e88	-0.16802418
21	0xbd3703dc	-0.044681415
22	0xbc945172	-0.018105242
23	0xbe04bbff	-0.1296234
24	0x3db52747	0.08845382
25	0x3e8b00bc	0.27148998
26	0x3de544c0	0.11194754
27	0xbd493c8e	-0.049130015
28	0x3dd221e4	0.102603704
29	0x3de07d56	0.10961406
30	0xbcc636d7	-0.024196072
31	0xbe28e466	-0.16493377
32	0xbc61db31	-0.013785169
33	0xbe3c7613	-0.18404417
34	0xbe21f6db	-0.15816824
35	0xbdae9a12	-0.0852548
36	0x3e1c2104	0.1524697
37	0xbd243e5f	-0.040098544
38	0xbe491c64	-0.19639736
39	0xbd03db6f	-0.03219169
40	0x3d304820	0.043037534
41	0xbd258fbf	-0.04042029
42	0xbe00cb95	-0.1257766
43	0xbdef0dc1	-0.11672545
44	0x3d81d569	0.06339533
45	0x3d7862cf	0.060641106
46	0x3d5c5eb8	0.05380127
47	0x3e0d83a7	0.13819753
48	0x3e642787	0.22280703
49	0xbd084ab1	-0.033274356
50	0x3e137af0	0.14402366
51	0x3e335017	0.1751102
52	0xbd152696	-0.03641375
53	0x3ded05e8	0.11573392
54	0x3e3d3ceb	0.1848027
55	0xbd5e684e	-0.05429869
56	0xbe9f132b	-0.31069311
57	0xbe361970	-0.17783141
58	0x3e4e3f43	0.2014132
59	0xbd8607fa	-0.0654449
60	0x3dbdc21d	0.0926554
61	0x3e59cd66	0.2126976
62	0x3e3ca942	0.18423942
63	0x3bddb511	0.0067659696
64	0xbe2e8d0c	-0.17045993
65	0x3cca0885	0.024662266
66	0xbcbe6000	-0.023239136
67	0xbba9de80	-0.005183995
68	0x3de013f5	0.109413065
69	0xbdd8a39b	-0.1057808
70	0xbe2e27a0	-0.17007303
71	0x3b1c829c	0.002388156
72	0x3bd72648	0.006565843
73	0x3d3158b5	0.04329749
74	0xbcaeb8ab	-0.02132829
75	0xbd64642e	-0.0557596
76	0xbcd310cb	-0.025764843
77	0xbde863fe	-0.11347197
78	0xbd85ab29	-0.06526787
79	0x3cb64219	0.022248315
80	0x3df2e8ce	0.1186081
81	0xbd3d571e	-0.04622566
82	0x3b9b451a	0.004738462
83	0x3e93f783	0.28899774
84	0x3c27ccb2	0.010241674
85	0xbdddfd22	-0.10839297
86	0x3ba4c076	0.005027826
87	0xbd39f276	-0.045397244
88	0xbad173b8	-0.0015979921
89	0xbde0b92b	-0.10972818
90	0x3d53cc50	0.05170852
91	0x3d6869d6	0.056741558
92	0x3e258e89	0.16167654
93	0x3db2d8f9	0.087327905
94	0x3d10582f	0.03524035
95	0x3d933604	0.07188037
96	0xbe3ee506	-0.18642053
97	0x3de4811b	0.111574374
98	0x3d086231	0.033296768
99	0xbc9ec498	-0.019380853
100	0xbdb048ec	-0.08607659
101	0x3dab43bc	0.08362529
102	0xbe3ea6a0	-0.1861825
103	0x3d77183c	0.060325846
104	0x39a9625f	0.00032307484
105	0x3df84adb	0.121236525
106	0xbe6d0b20	-0.23148775
107	0x3cdee7cb	0.027210137
108	0x3e0670bd	0.13128944
109	0xbd53e782	-0.051734455
110	0xbcad3947	-0.021145476
111	0xbcfb1fb7	-0.030654771
112	0x3dcbb461	0.09946514
113	0x3d7f8fac	0.062392876
114	0x3e32dec4	0.17467791
115	0x3e770e59	0.24126567
116	0x3c4285e9	0.011872747
117	0xbd79f9c0	-0.061029196
118	0xbdb5edf4	-0.088832766
119	0x3e382601	0.17983247
120	0x3e325139	0.17413796
121	0x3e213dc6	0.15746221
122	0x3d98eda4	0.07467201
123	0xbe0556bf	-0.13021372
124	0x3dcf3e74	0.10119334
125	0x3e006393	0.12537985
126	0x3e512cef	0.20427297
127	0x3afbab13	0.0019200764
128	0x3d8d182d	0.06889377
129	0x3ce356f6	0.027751427
130	0x3e47c799	0.19509734
131	0xbdfcaafc	-0.123373
132	0x3c9a7ac9	0.018857377
133	0xbcea5fd8	-0.028610155
134	0x3e4a8ddc	0.19780678
135	0xbe86e726	-0.26348227
136	0x3e17cf2a	0.1482512
137	0xbe4f4310	-0.20240426
138	0xbe3066d1	-0.17226721
139	0x3d18ff5e	0.037352912
140	0xbcf11280	-0.029427767
141	0x3d322b2b	0.0434982
142	0xbb5f55bf	-0.0034078208
143	0xbdcfb7fc	-0.10142514
144	0xbd4e9f4f	-0.050444897
145	0xbc8c233f	-0.01710665
146	0xbe4de530	-0.2010696
147	0xbd17bf2c	-0.03704755
148	0x3defdbf6	0.11711876
149	0x3e5bfae0	0.2148242
150	0x3e8cec03	0.27523813
151	0x3e1e287e	0.15445134
152	0xbe394f45	-0.18096645
153	0xbd39017c	-0.04516743
154	0xbe21692d	-0.15762778
155	0xbe19fbaf	-0.15037416
156	0x3dfb4fb8	0.122710645
157	0x3e3356d8	0.17513597
158	0xbcea5bf2	-0.028608296
159	0x3d4a958a	0.049459018
160	0xbde0d7e7	-0.1097868
161	0xbe6b5f12	-0.22985485
162	0x3e04f68c	0.12984675
163	0x3c3d0cc4	0.011538688
164	0xbe3811a3	-0.17975478
165	0xbdcde2c8	-0.10053021
166	0x3d4f6316	0.050631605
167	0x3e1def68	0.15423357
168	0xbd8436b1	-0.06455744
169	0xbe0ac3fe	-0.13551328
170	0x3dc32b35	0.095297255
171	0x3e382fe2	0.17987016
172	0xbc146a23	-0.009058508
173	0x3df7686d	0.120804645
174	0x3e12b8c2	0.14328292
175	0x398d529e	0.0002695517
176	0xbd4725e0	-0.048620105
177	0x3e3974e8	0.18111002
178	0xbc83284d	-0.016010428
179	0xbdae89bd	-0.08522365
180	0x3dc11df1	0.09429539
181	0x3da7eb79	0.0819921
182	0x3df66c19	0.12032337
183	0x3e50ba64	0.20383602
184	0x3db478c5	0.088120975
185	0x3ec52e3a	0.3851183
186	0x3e9cf0bb	0.30652413
187	0x3e2663a0	0.16248941
188	0x3d84c31c	0.06482527
189	0xbdcc02fa	-0.09961505
190	0x3e1ae39a	0.15125886
191	0xbe0aed44	-0.13567072
192	0xbdbc1da7	-0.09185343
193	0xbd89810f	-0.06714069
194	0x3e3d6015	0.18493684
195	0x3e73590e	0.2376444
196	0x3da29f9a	0.07940598
197	0xbdcf8360	-0.1013248
198	0x3dd27e6d	0.1027802
199	0x3d999a50	0.07500136
200	0xbccb6855	-0.024830023
201	0x3d77e06d	0.060516763
202	0x3e20a5c4	0.15688235
203	0x3da7ac30	0.08187139
204	0x3dec0d2d	0.115259506
205	0x3dbd4948	0.09242493
206	0xbb907f2d	-0.004409692
207	0x3e376d3a	0.1791276
208	0xbe345579	-0.1761073
209	0x3cdf9929	0.027294712
210	0x3e0b1575	0.13582404
211	0xbc492d76	-0.012278905
212	0x3e7c0742	0.24612144
213	0xbe2687e8	-0.16262782
214	0x3cfea15e	0.031082805
215	0xbe1c24e8	-0.15248454
216	0xbcfaa47a	-0.030596007
217	0x3d66294a	0.05619172
218	0x3e22f8e0	0.15915251
219	0xbcdbff0c	-0.026855014
220	0x3d9c2ce6	0.07625751
221	0x3e86b8d4	0.26312888
222	0xbba4484e	-0.005013502
223	0xbd772a56	-0.06034311
224	0xbd544f9a	-0.051833726
225	0xbeb42c74	-0.35190165
226	0xbe03d369	-0.12873615
227	0x3ca68a06	0.020329487
228	0xbd438b36	-0.047740184
229	0xbe474808	-0.19461071
230	0x3d1bbf11	0.038024012
231	0x3e208415	0.15675385
232	0xbb0a9ba1	-0.002114989
233	0x3db80e34	0.08987084
234	0x3d47a359	0.048739765
235	0xbd8f0944	-0.06984189
236	0xbdb4a2b3	-0.08820095
237	0xbd8c6fc0	-0.06857252
238	0x3dbd6ad1	0.09248889
239	0xbdffacac	-0.124841064
240	0x3d2fe171	0.042939607
241	0x3c21a6e7	0.009866453
242	0x3d02a27e	0.031893246
243	0xbcce526f	-0.025185792
244	0xbdfc5226	-0.12320356
245	0x3e72c54c	0.23708075
246	0xbc8753fa	-0.016519535
247	0xbd6d29ae	-0.057901077
248	0x3da152e9	0.07877142
249	0xbd80f4c7	-0.062966876
250	0x3e73f59e	0.23824164
251	0x3e0776af	0.13228868
252	0xbe988ca3	-0.29794797
253	0xbe708d69	-0.23491444
254	0x3cdf8257	0.02728383
255	0x3ca12a5f	0.019673524

enc2.0.bias f4 [16]
0	0x3d081c87	0.03323033
1	0x3d06be25	0.03289618
2	0xbc7674ed	-0.015042526
3	0x3d3406c5	0.04395177
4	0x3c188b2c	0.009310525
5	0x3d1a6e94	0.03770311
6	0xbcaef1da	-0.021355558
7	0xbce728ff	-0.02821779
8	0x3cdec87f	0.027195213
9	0x3bd5310f	0.0065060924
10	0x3d02aa12	0.031900473
11	0x3d15c526	0.03656497
12	0x3cfd1272	0.030892584
13	0x3cde760c	0.027155899
14	0x3cbf75ae	0.023371544
15	0x3d17cbc1	0.03705955

enc2.2.weight f4 [16, 16, 3, 3]
0	0xbaea7e21	-0.0017890373
1	0x3d370264	0.044680014
2	0xbcac7008	-0.021049514
3	0xbdeef649	-0.11668069
4	0x3e0fec87	0.14055072
5	0x3d610ccd	0.05494385
6	0xbd6a2d1c	-0.057171926
7	0xbccc8a26	-0.024968218
8	0x3b8b60aa	0.0042534666
9	0xbdfdb60e	-0.1238824
10	0x3e687bc5	0.22703464
11	0xbde30b4c	-0.11086139
12	0xbe38c343	-0.18043236
13	0x3d2d6e77	0.042341676
14	0x3e3824d3	0.17982797
15	0xbe6e64e3	-0.23280673
16	0xbd059feb	-0.032623213
17	0xbcec45b1	-0.028841825
18	0xbdef51d3	-0.116855286
19	0xbd88732a	-0.06662591
20	0xbe048c27	-0.12944089
21	0xbdd05ff7	-0.10174554
22	0x3e9f55b9	0.3112009
23	0x3d31463e	0.04327988
24	0xbd3aae8e	-0.045576625
25	0x3e19943c	0.14997953
26	0xbd9541ac	-0.072879165
27	0x3e59025d	0.21192308
28	0x3e17474b	0.1477329
29	0xbd7b52d6	-0.061358295
30	0x3e247f5e	0.16064212
31	0x3e321555	0.1739095
32	0xbdcc0437	-0.099617414
33	0xbda051bd	-0.0782809
34	0xbea55ed3	-0.32298908
35	0x3e40c54b	0.18825261
36	0xbd0d8111	-0.034546915
37	0xbd435a49	-0.047693525
38	0x3e173408	0.14765942
39	0xbe26d6b4	-0.1629284
40	0xbdebafdf	-0.11508154
41	0x3e62d273	0.22150593
42	0xbd7c69c0	-0.06162429
43	0xbecba0fa	-0.39771253
44	0xbdba75a1	-0.09104467
45	0x3c2fd3db	0.010731663
46	0xbd11d922	-0.035607465
47	0x3e00bcf1	0.12572075
48	0x3cc04e8e	0.023474958
49	0xbb379130	-0.0028010122
50	0xbde4edfb	-0.11178204
51	0xbda74648	-0.08167702
52	0xbe825b68	-0.25460362
53	0xbda41e76	-0.080136225
54	0x3cb5976c	0.02216693
55	0xbce0da8d	-0.027447963
56	0xbdbd4ff9	-0.09243769
57	0x3e030251	0.12793852
58	0xbe005d50	-0.12535596
59	0x3e2a3af2	0.16624048
60	0x3d2ad421	0.04170621
61	0x3de4049e	0.11133693
62	0x3d1d5103	0.038407337
63	0x3d5fd63a	0.05464766
64	0x3dd727ef	0.105056636
65	0x3d8601a2	0.0654328
66	0xbdf5fcd5	-0.120111145
67	0xbc1ee2b6	-0.009697607
68	0xbe1aa898	-0.15103376
69	0x3de6a6d9	0.112622924
70	0x3e2295e7	0.15877496
71	0xbca76be2	-0.020437185
72	0x3e7dbce8	0.24779093
73	0x3c64e9d8	0.013971768
74	0x3e37b737	0.17940985
75	0xbdb267b8	-0.08711189
76	0x3d83f21c	0.06442663
77	0x3e58a7f0	0.21157813
78	0x3a861508	0.0010229656
79	0xbe547682	-0.20748332
80	0x3e2f8707	0.17141353
81	0xbe54c281	-0.20777322
82	0xbd0161be	-0.031587355
83	0xbe4e904f	-0.20172237
84	0x3e15c567	0.14626084
85	0x3e29bde0	0.16576338
86	0x3d9a435e	0.075323805
87	0xbd6644a5	-0.05621781
88	0xbe44d076	-0.19220147
89	0x3e4fec1b	0.20304911
90	0x3af06cfb	0.0018343026
91	0xbe1193a2	-0.14216474
92	0x3ddc2e46	0.107510135
93	0xbd9ee227	-0.07757979
94	0x3def1808	0.116745055
95	0x3cc28a0e	0.02374747
96	0xbe838f4e	-0.2569527
97	0x3d2d051b	0.042241197
98	0x3e3a91ce	0.18219683
99	0x3e04cf5c	0.12969726
100	0xbd24bdd3	-0.040220093
101	0xbd53c86f	-0.05170482
102	0xbd844b54	-0.0645968
103	0x3e12d5c4	0.14339358
104	0x3d86ab4d	0.06575642
105	0x3ccebb1a	0.025235701
106	0xbcf395ea	-0.02973457
107	0x3d8988c3	0.06715538
108	0xbdb386d6	-0.08765952
109	0x3cc9f6e2	0.024653856
110	0x3e4c418f	0.19946884
111	0xbe54f829	-0.2079779
112	0xbd81f7f3	-0.06346121
113	0xbd941a5c	-0.0723159
114	0xba575776	-0.0008214632
115	0x3e1253b7	0.14289747
116	0x3e179330	0.14802241
117	0x3cc3fa42	0.023923043
118	0x3dc6921e	0.096958384
119	0xbe20ade8	-0.1569134
120	0x3e186c98	0.14885175
121	0x3e0b7ce1	0.13621856
122	0xbd95addb	-0.07308551
123	0x3dad52ac	0.08463034
124	0x3cbdb43f	0.023157237
125	0xbd82cdbb	-0.06386896
126	0x3e2436e7	0.16036569
127	0xbd942e21	-0.07235361
128	0xbdda33f0	-0.106544375
129	0xbcec33cb	-0.02883329
130	0xbda5ef93	-0.08102336
131	0x3d3ea9cf	0.04654866
132	0xbe80033f	-0.25002477
133	0x3d57cdac	0.05268638
134	0xbde7cfa2	-0.113189
135	0xbe054915	-0.1301616
136	0x3d3a85f6	0.04553791
137	0x3e2c6be0	0.16838026
138	0xbe007549	-0.1254474
139	0x3df26c5e	0.11837076
140	0xbd41f62b	-0.047353905
141	0x3d8a8742	0.0676408
142	0xbceadaf5	-0.02866886
143	0x3dbffe22	0.09374644
144	0x3c77e52a	0.015130321
145	0x3d8e7ca4	0.06957367
146	0x3ddd19d9	0.10795946
147	0xbceb4661	-0.028720083
148	0x3e0006ef	0.12502645
149	0x3e0a7e83	0.13524823
150	0x3e3edfb9	0.18640031
151	0xbdac13e1	-0.08402229
152	0x3e2c99cb	0.16855542
153	0x3e365fd7	0.17809997
154	0x3db5ee40	0.08883333
155	0x3c115035	0.0088692205
156	0xbe8f62a3	-0.2800494
157	0x3de0cd84	0.10976699
158	0xbde4d75b	-0.11173888
159	0xba7cd45c	-0.0009644681
160	0xbd9b0c89	-0.0757075
161	0xbe06ac1f	-0.13151596
162	0x3e180015	0.14843781
163	0x3d6b7a94	0.057489946
164	0x3df6e8f7	0.12056153
165	0xbe5c50d4	-0.21515208
166	0xbd312248	-0.043245584
167	0xbd1deb69	-0.038554583
168	0xbd1abc63	-0.037777316
169	0xbd30bf65	-0.043151278
170	0xbd4a98ab	-0.049462
171	0xbe523160	-0.20526648
172	0xbe1e2f4d	-0.15447731
173	0xbda287c6	-0.07936053
174	0x3df803b1	0.12110079
175	0xbce8b5ba	-0.028406966
176	0xbe4c3c42	-0.19944862
177	0xbda94be3	-0.08266427
178	0xbd23826d	-0.039919306
179	0x3d5115e8	0.051046282
180	0xbbcbbd73	-0.0062176525
181	0x3d0ebe17	0.034849253
182	0x3d9d3882	0.07676794
183	0x3ccd0ea1	0.02503139
184	0x3d8b27dc	0.06794712
185	0x3e4f05da	0.20217076
186	0x3e2946c9	0.16530909
187	0x3e103cbd	0.1408567
188	0xbc005b45	-0.00783426
189	0x3b8c6460	0.0042844266
190	0x3e3cdcab	0.18443553
191	0xbdcc480b	-0.099746786
192	0xbdccf3e8	-0.10007459
193	0x3cfac7a9	0.030612784
194	0x3d8500fc	0.064943284
195	0x3e4eae0a	0.20183578
196	0x3e8d8e10	0.27647448
197	0xbc0cd6a2	-0.008596094
198	0xbd79d832	-0.060997196
199	0xbd746b8a	-0.05967287
200	0xbd79c20f	-0.060976084
201	0xbe16210f	-0.14661048
202	0x3df47662	0.11936642
203	0x3e0b9159	0.13629664
204	0xbdcf30db	-0.1011674
205	0xbd976f9e	-0.07394336
206	0x3e43c744	0.19118983
207	0x3df0ff84	0.11767486
208	0xbe0da863	-0.13833766
209	0x3dffca90	0.124898076
210	0xbb668c9f	-0.0035179032
211	0x3ce04c74	0.027380206
212	0xbd3472ea	-0.044054903
213	0x3da66311	0.08124364
214	0xbd873901	-0.066026695
215	0xbc355548	-0.011067696
216	0x3d8c8f73	0.06863298
217	0x3e2be595	0.16786797
218	0xbe365eda	-0.1780962
219	0x3b97686f	0.0046206038
220	0x3ea03f0b	0.31298098
221	0x3e07a608	0.1324693
222	0xbd85be50	-0.0653044
223	0x3cb19460	0.021677196
224	0xbce05c55	-0.027387777
225	0x3e9207d2	0.2852159
226	0xbdc88ca6	-0.097924516
227	0xbdc94a04	-0.098285705
228	0xbdb4c8c5	-0.08827356
229	0x3cc0be08	0.023528114
230	0x3cc436e9	0.023951964
231	0xbe1ad267	-0.15119325
232	0xbed57891	-0.41693547
233	0xbd824c67	-0.06362229
234	0xbc77df0a	-0.01512886
235	0xbe3e8443	-0.18605141
236	0x3d345457	0.044025745
237	0x3e32e7c7	0.17471229
238	0x3d6c24d4	0.05765231
239	0xbe871287	-0.26381323
240	0xbe2357e1	-0.15951492
241	0x3dbece17	0.09316652
242	0xbd3428e5	-0.043984313
243	0x3d5f9532	0.054585643
244	0xbe3c5359	-0.1839117
245	0xbdbddca2	-0.09270598
246	0x3d4f0694	0.050543383
247	0xbe186379	-0.14881696
248	0x3e9bdb23	0.30440626
249	0x3e037faf	0.12841676
250	0x3ec11e8d	0.3771862
251	0xbd80b50f	-0.06284534
252	0x3d10dcb5	0.035366733
253	0x3cbc0dbb	0.022955766
254	0xbcd931ac	-0.026512943
255	0x3e0fa81e	0.14028975

enc2.2.bias f4 [16]
0	0x3c8f1e94	0.017470635
1	0x3d013ab3	0.03155012
2	0x38f27547	0.00011561304
3	0x3c4dd2ec	0.012562495
4	0x3d089e00	0.033353806
5	0x3cd52966	0.026020717
6	0xbb9d92bd	-0.0048087523
7	0xbbabf4b3	-0.0052476763
8	0x3d6de7b3	0.058082294
9	0x3cffb9c7	0.031216515
10	0x3c53af88	0.012920268
11	0xbbe9761b	-0.007124675
12	0x3c9ca3f7	0.019121153
13	0xbc76f11b	-0.015072132
14	0x3d0d1b4b	0.034449857
15	0x3cea00ea	0.028564889

bottleneck.0.weight f4 [32, 16, 3, 3]
0	0xbdbc9ad1	-0.092092164
1	0x3d164e9e	0.03669607
2	0x3d4806d3	0.048834633
3	0x3d486adc	0.048930034
4	0x3da36350	0.07977927
5	0xbd0d2b1a	-0.034464933
6	0x3cc8aee3	0.024497455
7	0x3c4ced7f	0.012507795
8	0xbe2ed975	-0.17075141
9	0xbc955bd3	-0.018232262
10	0xbe3eb99d	-0.18625493
11	0x3dc9d71f	0.09855484
12	0xbca529df	-0.020161567
13	0x3d84d03a	0.064850286
14	0x3e07fdc3	0.13280396
15	0xbe2e6b9b	-0.17033236
16	0x3e5a5ddf	0.21324871
17	0x3d0fde9b	0.035124402
18	0x3d20b4be	0.03923487
19	0x3db340d6	0.08752601
20	0x3dade5ef	0.08491122
21	0xbd488703	-0.048956882
22	0x3e06b1c2	0.13153747
23	0x3e5f150d	0.21785374
24	0xbd110faf	-0.035415348
25	0xbc69c624	-0.014268432
26	0xbcb962cc	-0.022630118
27	0x3d2b61ac	0.041841194
28	0xbd862c05	-0.06551365
29	0x3bcca14e	0.006244815
30	0xbd2df6f8	-0.042471856
31	0xbdd264f2	-0.1027316
32	0xbcfeacfc	-0.031088345
33	0x3e0012d1	0.12507178
34	0xbc3393bc	-0.010960516
35	0xbda9f40b	-0.082985006
36	0xbda402e6	-0.08008365
37	0xbd999692	-0.07499422
38	0xbb9f6e1f	-0.0048654224
39	0xbd6a0749	-0.057135854
40	0x3d2f0ec2	0.042738684
41	0xbe325852	-0.17416504
42	0x3dcce698	0.1000492
43	0xbe0b5bca	-0.13609233
44	0x3dffdad6	0.124929115
45	0xbcd841fe	-0.026398655
46	0x3dd98718	0.1062147
47	0x3cdf68af	0.027271597
48	0xbdd2ae6f	-0.10287177
49	0x3d86fb70	0.06590927
50	0xbd1dc046	-0.038513444
51	0x3df62909	0.120195456
52	0x3dbe1d9a	0.0928299
53	0xbd3e0d54	-0.04639943
54	0x3ceb61f4	0.028733231
55	0x3df9ab82	0.12190916
56	0x3c3f329f	0.011669784
57	0x3d96d082	0.073639885
58	0xbd003878	-0.031303853
59	0xbdff0c98	-0.12453574
60	0xbd6cb3cc	-0.057788655
61	0x3e8a4eba	0.2701319
62	0x3d9dc897	0.07704275
63	0xbd8a17e7	-0.0674284
64	0x3d00f3fb	0.031482678
65	0xbd511798	-0.05104789
66	0x3d061896	0.03273829
67	0x3e11dc81	0.14244272
68	0x3db7740c	0.08957681
69	0x3ca09c06	0.019605648
70	0x3b491133	0.0030680418
71	0xbd3a4533	-0.04547615
72	0x3b867549	0.004103337
73	0x3c821a34	0.015881635
74	0xbe245c11	-0.16050746
75	0x3db3435d	0.08753083
76	0xbd9d941b	-0.076942645
77	0xbd3ca5e4	-0.046056643
78	0xbd2d7af3	-0.04235358
79	0x3dedccb6	0.11611311
80	0x3e48aafd	0.19596477
81	0xbdb64480	-0.08899784
82	0x3dd191f6	0.10232918
83	0x3d6a4f0e	0.0572043
84	0xbce7c405	-0.028291712
85	0x3d64e75b	0.0558847
86	0x3e209fc9	0.15685953
87	0xbde2c806	-0.11073308
88	0x3d0fd9cf	0.035119828
89	0xbb766721	-0.003759809
90	0x3c92df7c	0.017928831
91	0xbcbad51f	-0.022806702
92	0xbd763aef	-0.060114797
93	0x3de1b26d	0.1102036
94	0x3e19bd0f	0.15013526
95	0x3df7f884	0.121079475
96	0xbb4bbd98	-0.0031088348
97	0x3dcba69e	0.09943889
98	0xbc62c62e	-0.013841195
99	0xbc77d00e	-0.015125288
100	0x3daced1e	0.08443664
101	0xbd3257c3	-0.043540727
102	0xba699d2a	-0.0008911664
103	0x3d6deb70	0.05808586
104	0x3bc902f0	0.0061343834
105	0x3d07daf4	0.033167794
106	0x3e8e5639	0.27800158
107	0x3dda5d53	0.106623314
108	0xbb7e80fa	-0.00388342
109	0x3d13f20c	0.036119506
110	0xbd265371	-0.04060692
111	0x3e198648	0.1499263
112	0x3d8f274c	0.06989917
113	0xbdc54cf5	-0.09633819
114	0xbd252579	-0.04031894
115	0xbd1a78d2	-0.03771288
116	0xbe46f9c5	-0.19431217
117	0x3da597f1	0.08085621
118	0x3d80ec1e	0.06295036
119	0xbdf3303b	-0.118744336
120	0x3e4073a7	0.18794118
121	0xbd035cda	-0.032070972
122	0x3d40d071	0.047073785
123	0x3acbfedd	0.0015563626
124	0x3cbec1ef	0.023285834
125	0x3e5ebe63	0.21752314
126	0xbc1184a7	-0.008881724
127	0x3d313b64	0.04326953
128	0xbe14cab3	-0.14530449
129	0x3d669514	0.056294516
130	0xbd3a570c	-0.04549317
131	0xbd064095	-0.032776434
132	0x3cabfe12	0.020995174
133	0xbde4e878	-0.111771524
134	0xbd723126	-0.059128903
135	0x3cb74ab3	0.022374487
136	0x3e2dd511	0.1697581
137	0x3d1f1008	0.038833648
138	0x3d78ca54	0.06073983
139	0x3d42a3e7	0.04751959
140	0x3d29d46e	0.041462354
141	0x3dc33ef4	0.09533492
142	0x3d44ba60	0.048029304
143	0x3d1e4ea5	0.03864922
144	0x3bd3dedb	0.0064657754
145	0xbdba8a61	-0.09108425
146	0x3dcd073d	0.10011146
147	0x3c4bf7a0	0.012449175
148	0x3d3b6cd9	0.045758102
149	0x3c5112b8	0.012760811
150	0xbcb24da2	-0.021765534
151	0xbd8dbf5d	-0.06921265
152	0x3d81769b	0.0632145
153	0x3d82cbb3	0.06386509
154	0xbd868ebd	-0.06570194
155	0x3bcef01d	0.006315245
156	0x3d485752	0.0489114
157	0xbaef4cfe	-0.0018257198
158	0xbe451fa2	-0.19250348
159	0xbd589ca9	-0.052883778
160	0xbd9b8af4	-0.075948626
161	0x3e7653a2	0.24055341
162	0xbb8d03ec	-0.004303446
163	0xbe006a57	-0.12540565
164	0xbdacf05c	-0.084442824
165	0xbd6b0f5d	-0.0573877
166	0xbdd21c34	-0.102592856
167	0x3c30c610	0.010789409
168	0xbd6e87d7	-0.058235016
169	0x3d3f845b	0.046757083
170	0x3db288b7	0.087174825
171	0xbd9334e9	-0.07187826
172	0xbd8e82ce	-0.06958543
173	0x3d245340	0.040118456
174	0x3d2dd709	0.0424414
175	0xbd596a4a	-0.05307988
176	0x3cce7375	0.025201539
177	0x3d7c6c6c	0.061626837
178	0x3d2fa198	0.042878717
179	0x3ddf8e20	0.1091578
180	0x3d50431a	0.050845243
181	0x3ca8e193	0.020615375
182	0x3de0e19e	0.10980533
183	0x3df0fd5b	0.11767074
184	0x3db3da19	0.08781833
185	0x3db953c8	0.09049183
186	0x3d329d0c	0.043606803
187	0xbca163e7	-0.019700957
188	0xbdc05ebe	-0.09393071
189	0xbd18142d	-0.037128616
190	0x3ba9fa18	0.005187284
191	0xbd81eeec	-0.06344399
192	0xbcf74b1e	-0.030187186
193	0x3ba58e6e	0.0050523793
194	0xbd83840c	-0.0642167
195	0x3d387726	0.045035504
196	0xbd1c9cf2	-0.038235612
197	0x3dd93d65	0.10607413
198	0xbdf1571d	-0.11784194
199	0xbd555e4b	-0.052091878
200	0xbe09aaad	-0.13444014
201	0x3cfc7754	0.030818619
202	0x3da0c671	0.0785035
203	0xbe1b8c7e	-0.15190312
204	0x3da2cbd2	0.07949032
205	0x3de6ef7d	0.112761475
206	0x3e3f898d	0.18704815
207	0xbe335643	-0.17513375
208	0xbd567a10	-0.0523625
209	0xbe70fe75	-0.23534568
210	0x3dd59d76	0.10430424
211	0x3e642b28	0.22282088
212	0xbd5735ae	-0.052541427
213	0x3d33d29e	0.043902032
214	0x3ccfb405	0.025354395
215	0xbd60642f	-0.054783043
216	0xbd705c1d	-0.058681596
217	0x3de69f43	0.112608455
218	0x3ca1dac0	0.019757628
219	0xbbc567de	-0.006024345
220	0xbd17456e	-0.036931448
221	0xbc5f1960	-0.01361689
222	0xbdadb85d	-0.0848243
223	0x3e600321	0.21876194
224	0x3e0b8046	0.13623151
225	0x3c301ba1	0.010748775
226	0xbcf0da98	-0.029401109
227	0xbdf4e55d	-0.1195781
228	0x3d53c0ba	0.05169747
229	0xbe020506	-0.12697229
230	0xbd9a7b0c	-0.075430006
231	0xbe583f4d	-0.21117897
232	0x3dc9a0c1	0.098451145
233	0xbdfef696	-0.12449376
234	0x3d855b2f	0.065115325
235	0x3d8bca40	0.068256855
236	0xbdbdca8f	-0.092671506
237	0x3e098fad	0.13433714
238	0xbcc5a29a	-0.024125386
239	0xbe006e79	-0.12542142
240	0x3d6883af	0.05676621
241	0xbc1e2981	-0.00965345
242	0x3e012925	0.12613352
243	0xbd3564f5	-0.044285733
244	0xbca7035a	-0.02038734
245	0x3e23732d	0.15961905
246	0x3d9e98dc	0.07743999
247	0xbccec449	-0.02524008
248	0x3d9c0e2a	0.07619889
249	0x3d465d6c	0.048428938
250	0xb911e38e	-0.00013913048
251	0x3e0afe09	0.13573469
252	0x3dce0e1a	0.100612834
253	0x3e20742c	0.15669316
254	0xbd26701a	-0.040634252
255	0xbdab6d26	-0.08370428

bottleneck.0.bias f4 [32]
0	0xbd04112a	-0.03224293
1	0x3ca985c8	0.020693675
2	0x3ce9e81a	0.028553057
3	0x3d18da40	0.037317514
4	0x3cf4cb51	0.029882105
5	0x3cd7a060	0.02632159
6	0x3d471141	0.04860044
7	0xbc240c30	-0.010012671
8	0x3cdc07c9	0.026859181
9	0xbc5e15b7	-0.013554982
10	0x3c635e89	0.013877519
11	0x3d196c44	0.037456766
12	0xbc1d2711	-0.009591834
13	0x3cd4e2f2	0.025987122
14	0xbb7b5545	-0.0038350385
15	0x3cf6c816	0.030124705
16	0x3d0c0c03	0.034191143
17	0x3bec080d	0.007203108
18	0x3cd91d84	0.026503332
19	0x3d61ba34	0.055109218
20	0x3b185e1a	0.0023249448
21	0x3d51694b	0.051125806
22	0x3cc55369	0.024087625
23	0xbc5057d8	-0.012716256
24	0x3d0c177e	0.03420209
25	0x3ca10568	0.019655898
26	0xbceb6fe3	-0.028739875
27	0x3c3a4592	0.011369126
28	0x3cba8798	0.022769734
29	0x3cdd9176	0.0270469
30	0x3ccb7b59	0.02483909
31	0x3cec1277	0.028817398

bottleneck.2.weight f4 [32, 32, 3, 3]
0	0xbc3e5ae3	-0.011618349
1	0xbd05e8f6	-0.032692872
2	0xbe46957c	-0.19392961
3	0xbdd75abc	-0.10515353
4	0xbe3d221f	-0.18470047
5	0xbc981867	-0.018566323
6	0xbd93fc34	-0.07225838
7	0xbdf9d130	-0.121981025
8	0xbc586eae	-0.013209982
9	0x3b2b62d8	0.0026151445
10	0xbe376a7a	-0.17911711
11	0xbc937d90	-0.018004209
12	0x3b97b6da	0.004629952
13	0x3dd2a380	0.102850914
14	0x3d8df125	0.0693076
15	0x3d9e7090	0.07736313
16	0xbd1160f0	-0.035492837
17	0xbc836b7e	-0.016042467
18	0xbd422555	-0.047398884
19	0x3e633c59	0.2219099
20	0x3d1d6f27	0.03843608
21	0xbdc10870	-0.094254375
22	0x3d928b1f	0.071554415
23	0xbcbc3a86	-0.022977125
24	0x3dbd3f1e	0.09240554
25	0xbd8be2ac	-0.068303436
26	0x3db9f1c2	0.09079315
27	0xbce04a98	-0.02737932
28	0x3dcccaf8	0.09999651
29	0x3cac335b	0.021020582
30	0xbb872791	-0.0041245897
31	0x3e1b693b	0.15176861
32	0x3db57dd3	0.0886189
33	0x3d5c7f9f	0.053832646
34	0x3deed798	0.11662215
35	0x3d2d318d	0.042283583
36	0x3d2c3c30	0.042049587
37	0xbbe677fc	-0.007033346
38	0x3d84b2e7	0.064794354
39	0x3c3ded7a	0.011592263
40	0xbd97a496	-0.07404439
41	0x3e2112cb	0.15729825
42	0xbbf92fb4	-0.0076045636
43	0x3d050b5b	0.032481533
44	0xbe193f23	-0.14965491
45	0xbe3f8f4e	-0.1870701
46	0xbe2197e1	-0.15780593
47	0xbd62681c	-0.055275068
48	0x3db673de	0.08908819
49	0x3d63f9af	0.05565804
50	0x3de9c42f	0.11414372
51	0xbd9d8250	-0.07690871
52	0xbd6f48a1	-0.058418874
53	0x3d572e36	0.052534305
54	0x3e8662dc	0.262473
55	0xbd97b3de	-0.07407354
56	0xbd12acdf	-0.035809394
57	0x3d89a785	0.06721405
58	0xbcbbb610	-0.022913963
59	0xbd470732	-0.048590846
60	0xbd14086f	-0.036140855
61	0xbc7d2f2a	-0.015453139
62	0xbdc8ca88	-0.09804255
63	0x3c5dc159	0.013534867
64	0x3bdd26d8	0.0067490153
65	0x3e00151e	0.12508056
66	0x3cdf6ef2	0.027274583
67	0x3d9e6284	0.07733634
68	0x3cf99306	0.030465614
69	0xbd38c960	-0.04511392
70	0x3cc23cc1	0.02371061
71	0x3d7ce2d3	0.061739754
72	0xbe35b663	-0.17745356
73	0x3c4250f6	0.011860123
74	0xbdea1d1a	-0.11431332
75	0x3d5ee0f0	0.054413736
76	0xbc24ad7b	-0.010051127
77	0x3cf1aee0	0.029502332
78	0x3d778a27	0.060434487
79	0xbdad322f	-0.084568374
80	0x3d0fd75f	0.035117503
81	0x3c39c935	0.011339475
82	0x3c927314	0.01787714
83	0xbd451ce8	-0.04812327
84	0xbd3921c4	-0.045198217
85	0x3d5f4e46	0.054518007
86	0xbd77da06	-0.060510658
87	0xbc8326e0	-0.016009748
88	0xbe68c0b6	-0.22729763
89	0xbdf7c129	-0.12097389
90	0xbca0fb2f	-0.019651024
91	0x3cd4bfe6	0.02597041
92	0xbd129928	-0.035790592
93	0xbda4ec80	-0.08052921
94	0x3dfe92c3	0.12430336
95	0x3d9806fe	0.07423209
96	0x3c9e560f	0.019328145
97	0x3d7cc606	0.061712287
98	0x3d20c016	0.039245687
99	0x3c113cbc	0.008864578
100	0x3daac293	0.08337893
101	0x3e3779fe	0.1791763
102	0x3ddee0c8	0.10882717
103	0x3e3ca360	0.18421698
104	0xbd0cabbf	-0.034343477
105	0x3d610735	0.054938514
106	0xbdef0112	-0.11670126
107	0x3d04ceeb	0.032423895
108	0xbd3524b2	-0.04422445
109	0xbd7b96fe	-0.061423294
110	0xbcaf2db3	-0.021384096
111	0xbb87fccc	-0.004150009
112	0xbd4ae1b6	-0.04953166
113	0xbdba4717	-0.090955906
114	0xbdf3f1f1	-0.11911381
115	0xbddb1763	-0.1069782
116	0xbe24bdbf	-0.16088007
117	0x3c3615a5	0.011113559
118	0x3da99b7e	0.08281611
119	0xbddb2a3c	-0.10701415
120	0xbdac7135	-0.0842003
121	0x3c50a09f	0.012733608
122	0x3d4cbf59	0.04998717
123	0xbe529a11	-0.20566584
124	0x3cbc3ccf	0.022978215
125	0x3db779b9	0.08958764
126	0x3deeb366	0.11655311
127	0x3d139416	0.036029898
128	0xbe07f7c5	-0.1327811
129	0x3e05c857	0.13064705
130	0x3e198361	0.14991523
131	0xbe57e1db	-0.21082251
132	0xbd90f55e	-0.0707805
133	0x3e16f8f9	0.14743413
134	0x3d19552b	0.037434738
135	0xbd669c88	-0.056301624
136	0x3dae0f12	0.08498968
137	0x3c90706e	0.017631736
138	0xbdd5e580	-0.10444164
139	0x3d03a806	0.03214266
140	0x3d05fe35	0.032713134
141	0x3db4a3fb	0.08820339
142	0xbdbfa381	-0.09357358
143	0x3dd327d5	0.10310332
144	0x3e543ab7	0.20725523
145	0xbe15b17d	-0.14618488
146	0xbc807d1b	-0.015684655
147	0xbd592567	-0.053014185
148	0x3d49163b	0.049093466
149	0x3c842541	0.016131045
150	0xbde0e5b4	-0.109813124
151	0x3d4a308c	0.049362704
152	0xbcde0bd8	-0.027105257
153	0xbc98e9f6	-0.018666249
154	0xbd4b5469	-0.049641047
155	0x3ddf66c6	0.10908274
156	0x3c616da6	0.013759052
157	0xbd063af4	-0.032771066
158	0x3d1a788e	0.037712626
159	0x3cc84dd7	0.02445118
160	0x3deec126	0.11657934
161	0xbd384a81	-0.044992927
162	0xbcd9eec2	-0.026603106
163	0xbde9eb81	-0.11421872
164	0xbdb19bcb	-0.08672293
165	0xbe4d02f5	-0.2002066
166	0x3d043de0	0.03228557
167	0xbe0a9b2a	-0.13535753
168	0x3c2395d8	0.009984456
169	0x3e2aeff1	0.16693093
170	0xbcffaaf6	-0.03120945
171	0xbda91264	-0.08255461
172	0xbd36debb	-0.044646006
173	0xbe08a4f7	-0.13344179
174	0x3d46eac4	0.048563734
175	0x3d4acd20	0.04951203
176	0xbe1dfc81	-0.15428354
177	0x3c8dc11c	0.017303996
178	0x3da3065a	0.07960196
179	0x3e1a5b2b	0.1507384
180	0xbce6a888	-0.028156534
181	0xbdf7ec00	-0.1210556
182	0x3dfdf46e	0.12400137
183	0xbdd4fae7	-0.10399418
184	0xbd1c2928	-0.038125187
185	0xbdb65739	-0.08903355
186	0xbda4cfca	-0.08047445
187	0x3d9fe9ad	0.07808242
188	0x3de77c63	0.11303022
189	0xbe839204	-0.2569734
190	0x3c04544b	0.008076738
191	0x3d303173	0.04301591
192	0xbd83c8a2	-0.06434752
193	0x3cbf8f22	0.02338368
194	0x3d04c58f	0.03241497
195	0xbe1f49ac	-0.15555447
196	0x3dcc8d81	0.09987927
197	0x3ca73e5b	0.020415476
198	0x3d05565b	0.032553058
199	0xbde7dfea	-0.11322005
200	0x3ca75e05	0.020430574
201	0xbd477cac	-0.04870288
202	0xbaf1dc7d	-0.0018452551
203	0x3e33852b	0.17531268
204	0x3c9c4d3a	0.019079793
205	0xbe0bfd2b	-0.13670795
206	0x3d8295e6	0.06376247
207	0x3d46b475	0.04851194
208	0x3d6cb76e	0.05779212
209	0xbdc8bb60	-0.09801364
210	0x3ca6be67	0.020354463
211	0xbe2b58e4	-0.16733128
212	0xbbdb5593	-0.006693551
213	0xbd5e99b5	-0.054345805
214	0xbb4a943e	-0.0030911113
215	0xbe0387bb	-0.12844746
216	0x3c361df9	0.0111155445
217	0x3c9ae17e	0.018906351
218	0x3c9408b3	0.018070554
219	0x3d4a9c48	0.049465448
220	0xbcf4b174	-0.029869772
221	0x3de3d8ac	0.11125311
222	0x3c815834	0.015789129
223	0x3d698b39	0.05701754
224	0x3d09ac2f	0.033611473
225	0xbdf1f021	-0.11813379
226	0xbd89b7b1	-0.067244895
227	0x3c3db2ea	0.011578301
228	0xbd33ef06	-0.043929122
229	0xbdd45b21	-0.10368944
230	0x3dd1759f	0.102275126
231	0x3d8fd9fe	0.070240006
232	0xbd482065	-0.04885902
233	0x3d3963a5	0.045261044
234	0x3d31b851	0.04338867
235	0xbe015ef2	-0.12633875
236	0xbca2803d	-0.01983654
237	0x3e2ec5f9	0.17067708
238	0xbdef8f3c	-0.11697242
239	0xbdac8024	-0.084228784
240	0x3d02873e	0.03186726
241	0xbc4d6731	-0.01253681
242	0xbd9fbfc6	-0.0780025
243	0x3d64104e	0.05567961
244	0x3d55b4e4	0.052174464
245	0x3d33d308	0.043902427
246	0x3ca4f958	0.020138428
247	0x3d9565c3	0.072948
248	0x3e2234a4	0.15840393
249	0xbdb845d8	-0.08997697
250	0xbcf3b545	-0.029749522
251	0x3cc6cbed	0.024267161
252	0x3e18fc8a	0.14940086
253	0x3e67eb2a	0.22648302
254	0x3e7bbc9c	0.24583668
255	0xbd3e8fee	-0.04652398

bottleneck.2.bias f4 [32]
0	0x3ce55973	0.027996754
1	0x3d3af87d	0.045647133
2	0x3cfb60be	0.030685779
3	0xbc6920bb	-0.014228995
4	0xbc105b66	-0.008810854
5	0xbc6c2560	-0.014413208
6	0x3cd455d1	0.025919827
7	0xbb80756d	-0.0039202482
8	0x3d136059	0.035980556
9	0x3c0bc523	0.008530888
10	0x3d097122	0.033555157
11	0xbd0d4722	-0.034491666
12	0xbd168609	-0.03674892
13	0x3cecf765	0.02892656
14	0xbc5ebfb4	-0.01359551
15	0x3cdb8f62	0.026801769
16	0x3cea44e7	0.028597308
17	0xbc62c095	-0.01383986
18	0x3d0f39b7	0.03496715
19	0xbc41aaa6	-0.011820471
20	0x3cee6c77	0.029104454
21	0x3b88c995	0.004174421
22	0xbd3b4f2d	-0.045729805
23	0xbbb1856c	-0.0054175165
24	0x3ce645da	0.02810948
25	0x3d010cde	0.03150641
26	0xbd075128	-0.03303638
27	0x3cef31bf	0.029198525
28	0x3c0e1cdd	0.008673874
29	0xbcb368a4	-0.021900482
30	0x3cd921db	0.026505401
31	0x3bab00ae	0.005218587

up1.weight f4 [32, 16, 2, 2]
0	0x3d966ec7	0.07345348
1	0x3d7c1ef3	0.061552953
2	0xbe87dd3f	-0.26535985
3	0xbce4f6de	-0.027949747
4	0xbde60d47	-0.11233001
5	0x3de908c4	0.11378625
6	0x3dabd301	0.08389855
7	0x3e9ce3ef	0.3064265
8	0xbe3ee229	-0.18640961
9	0xbda972e6	-0.08273868
10	0x3dc6f8af	0.097154014
11	0x3c8a3f4f	0.016875891
12	0xbd9da2cd	-0.076970674
13	0x3d9b5430	0.07584417
14	0x3de9ed55	0.114222206
15	0xbdbbada5	-0.091639794
16	0x3b943928	0.004523415
17	0x3e9993a8	0.29995465
18	0x3da81f45	0.08209089
19	0xbd9f7ce3	-0.07787492
20	0x3d0c79f2	0.034295984
21	0xbe26c121	-0.1628461
22	0x3c8acadd	0.016942436
23	0xbdb57395	-0.08859936
24	0x3e093de7	0.1340252
25	0x3deae6a9	0.11469776
26	0xbd29a711	-0.041419093
27	0xbdbece3e	-0.09316681
28	0x3c9cfea1	0.019164385
29	0xbe5bf873	-0.21481495
30	0x3e687ba8	0.22703421
31	0x3d7ec682	0.06220103
32	0xbe6819fa	-0.2266616
33	0x3de5d28a	0.11221798
34	0xbe6278fa	-0.22116461
35	0xbdb2b7de	-0.08726476
36	0x3d494021	0.049133424
37	0xbd6d1ed0	-0.057890713
38	0x3e3e85f7	0.18605791
39	0x3e4df014	0.20111114
40	0xbdf457ff	-0.119308464
41	0x3e42e122	0.19031194
42	0x3da80bf2	0.082054034
43	0x3e0c3eee	0.13695881
44	0x3bc02265	0.005863475
45	0x3dd75a8d	0.10515318
46	0xbdbe18f1	-0.09282101
47	0xbcb871c7	-0.02251519
48	0x3dc4f089	0.09616191
49	0xbe81a69d	-0.25322428
50	0xbd007df6	-0.031370126
51	0x3da8688f	0.08223068
52	0x3cf40144	0.02978576
53	0xbd6c78b6	-0.057732306
54	0x3e8ef515	0.27921358
55	0x3e1c1832	0.15243605
56	0xbdf1ea44	-0.11812261
57	0xbe6f9192	-0.23395374
58	0x3d883726	0.06651144
59	0xbd115994	-0.03548582
60	0x3bc3fca4	0.005981045
61	0x3e633497	0.2218803
62	0xbdc4b3e8	-0.09604627
63	0x3d42b0fc	0.047532067
64	0xbe5b7daf	-0.21434663
65	0xbe3da148	-0.18518555
66	0x3b98f29d	0.0046675936
67	0xbe01a715	-0.12661393
68	0xbe7dc783	-0.24783139
69	0xbdfed9ff	-0.12443923
70	0xbe4cc46b	-0.19996803
71	0xbabe0a9e	-0.0014499014
72	0x3e994b41	0.29940227
73	0x3dc30c7f	0.09523868
74	0xbd33a299	-0.043856237
75	0xbdbf16f8	-0.09330553
76	0x3de494b1	0.11161173
77	0xbcfdc129	-0.030975895
78	0x3dcadb2a	0.099050835
79	0xbde7788a	-0.11302288
80	0xbe19ddae	-0.1502597
81	0xbde24c8d	-0.11049757
82	0xbd72c5ce	-0.059270673
83	0xbe773176	-0.24139962
84	0xbcb19834	-0.021679021
85	0xbc9fbfbc	-0.019500606
86	0x3d2af4de	0.04173743
87	0x3d7cdb8c	0.061732814
88	0xbdfe34fb	-0.12412449
89	0xbda131de	-0.078708395
90	0xbe23fb56	-0.16013846
91	0xbeb05a47	-0.34443876
92	0x3d9efbb1	0.0776285
93	0x3dcecd1f	0.100977175
94	0xbe3fdc07	-0.18736278
95	0xbda032c2	-0.07822181
96	0xbe4df478	-0.20112789
97	0xbd2689ce	-0.040658765
98	0xbe7fe2c7	-0.24988852
99	0x3e081f49	0.13293184
100	0x3d9c17a1	0.07621694
101	0x3e0ba70f	0.13637947
102	0x3dc6d16c	0.09707913
103	0x3ca8a718	0.020587489
104	0xbd9e076d	-0.0771626
105	0xbe4af878	-0.19821346
106	0xba36d1cc	-0.0006974011
107	0x3d8a728e	0.06760131
108	0xbe0a7ff7	-0.13525377
109	0xbc06eff1	-0.008235917
110	0x3e6a9830	0.22909617
111	0x3ba8558a	0.00513715
112	0xbda81b4b	-0.08208331
113	0x3dc4cc96	0.09609334
114	0x3d6337cb	0.05547313
115	0x3dc85675	0.09782115
116	0x3de361c3	0.11102631
117	0x3cc4998a	0.023998994
118	0x3e52157f	0.20516013
119	0xbd82f7ec	-0.063949436
120	0x3d4a82d6	0.04944118
121	0x3e31626c	0.17322701
122	0xbd76dc2c	-0.060268566
123	0xbdcc320b	-0.099704824
124	0xbe3dca61	-0.18534233
125	0xbdf8efc2	-0.12155105
126	0xbe72094f	-0.23636363
127	0xbd4f967f	-0.050680634
128	0xbd009220	-0.031389356
129	0xbd828649	-0.06373269
130	0xbdf746ba	-0.12074037
131	0x3e821ba1	0.25411704
132	0xb89fd4ae	-7.6213255e-05
133	0xbd24c93b	-0.04023097
134	0xbe1825ac	-0.1485812
135	0xbd8b1a1d	-0.0679209
136	0x3d37e1c4	0.04489304
137	0x3d8e856b	0.06959041
138	0x3e5e7a8f	0.2172644
139	0x3e7ee038	0.2489022
140	0x3df0e18b	0.11761769
141	0x3d9b06f6	0.07569687
142	0x3ea38249	0.31935337
143	0xbcbfc76f	-0.023410527
144	0xbd55b84f	-0.052177723
145	0xbc9dfae0	-0.019284666
146	0xbe5b869d	-0.2143807
147	0xbe4e944a	-0.20173755
148	0xbc83b984	-0.016079672
149	0x3d116a9c	0.03550206
150	0xbd97671b	-0.07392713
151	0xbd03f07e	-0.032211773
152	0x3d2dc40e	0.0424233
153	0x3e0a51bd	0.13507743
154	0xbd1d3934	-0.03838463
155	0xbe1764c6	-0.14784536
156	0xbed47ad3	-0.41499957
157	0xbd3c0b3d	-0.045909155
158	0xbda377c7	-0.0798183
159	0xbcb40896	-0.02197675
160	0x3e4325e6	0.19057426
161	0xbc4c2106	-0.012459045
162	0xbe1f3bb4	-0.15550119
163	0x3eb1fb4f	0.34762046
164	0x3dd510de	0.10403608
165	0x3de933bb	0.1138682
166	0x3e4861f6	0.19568619
167	0xbd7934e6	-0.060841464
168	0x3d0e02af	0.034670528
169	0xbb8d2615	-0.0043075182
170	0x3d024765	0.03180637
171	0xbd86b074	-0.065766245
172	0x3d41146a	0.04713861
173	0xbda2b742	-0.0794511
174	0x3dbd4082	0.092408195
175	0xbdc58c72	-0.096459284
176	0xbcb3460f	-0.021883992
177	0x3cd0557b	0.025431385
178	0xbd3a2028	-0.045440823
179	0x3e8285ea	0.25492793
180	0xbd04df02	-0.03243924
181	0xbc7f8d1f	-0.015597611
182	0x3a2bb956	0.00065507495
183	0x3e8e1904	0.2775346
184	0xbdcc2580	-0.0996809
185	0x3e0de3e1	0.1385646
186	0xbd80b39f	-0.0628426
187	0xbe1e1cf5	-0.15440734
188	0x3ddd8280	0.108159065
189	0xbde9bb59	-0.11412687
190	0xbd271787	-0.04079392
191	0xbe199f9f	-0.15002297
192	0xbdb91dab	-0.09038862
193	0x3d455c20	0.04818356
194	0x3d12da7b	0.03585289
195	0x3dd3c755	0.10340754
196	0x3dde4b6a	0.10854228
197	0x3e0fd0ad	0.14044447
198	0xbe8e37a1	-0.27776816
199	0x3dac2a60	0.0840652
200	0xbe1919fa	-0.14951316
201	0xbe3978d8	-0.18112504
202	0xbd560108	-0.052247077
203	0x3dc12b42	0.09432079
204	0xbe96c94c	-0.29450452
205	0xbb66b85b	-0.00352051
206	0x3d87321a	0.06601353
207	0x3e272a67	0.16324769
208	0x3da60d7b	0.0810804
209	0xbdddedbf	-0.10836362
210	0x3e0464b5	0.12929042
211	0xbd6b86c6	-0.057501577
212	0xbc485922	-0.012228282
213	0xbc75709a	-0.01498046
214	0x3da34ac8	0.07973248
215	0x3dc36e9f	0.09542584
216	0xbcff7b8c	-0.031186841
217	0xbbfb2443	-0.007664235
218	0x3eb89741	0.36052898
219	0x3cd58d33	0.026068306
220	0xbcda15c5	-0.026621709
221	0x3dff11f1	0.12454594
222	0x3cb2a1bb	0.021805635
223	0xbd7a8a4c	-0.061167046
224	0xbba2aa52	-0.0049641514
225	0xbc993b8d	-0.018705154
226	0x3ce85113	0.028358972
227	0xbd7353b1	-0.059405986
228	0x3db5dec2	0.08880378
229	0xbe53551b	-0.20637934
230	0x3d692f3a	0.056929804
231	0x3e6062b4	0.21912652
232	0xbdcc047f	-0.09961795
233	0xbd13d4a3	-0.036091458
234	0x3e1008fa	0.14065924
235	0xbe497c12	-0.19676235
236	0x3cf80c82	0.030279402
237	0xbe23119e	-0.15924689
238	0x3d9b33f3	0.07578268
239	0x3da28962	0.0793636
240	0xbcc6defc	-0.02427625
241	0x3ddc8e3e	0.10769318
242	0x3df802ee	0.12109934
243	0xbe079f4d	-0.13244362
244	0x3e02f790	0.1278975
245	0xbcd988c7	-0.026554478
246	0x3e06ce1a	0.13164559
247	0xbe0e7f94	-0.13915855
248	0x3e7717ba	0.24130145
249	0xbd6ffa20	-0.058588147
250	0x3dfad275	0.12247173
251	0xbd68605d	-0.056732524
252	0xbe207c57	-0.15672432
253	0x3da66d54	0.081263214
254	0x3dac6d5a	0.08419295
255	0x3ceb2c06	0.028707515

up1.bias f4 [16]
0	0x3c9fb4cf	0.019495396
1	0xbd071870	-0.03298229
2	0x3cddb055	0.02706162
3	0xbd03e700	-0.03220272
4	0xbcd741f9	-0.026276575
5	0xbcf3bf40	-0.029754281
6	0xbcf5ca84	-0.030003794
7	0xbcec0ede	-0.028815683
8	0xbcc19696	-0.023631375
9	0x3cc5262e	0.024066057
10	0xbc9eadd5	-0.019369999
11	0x3cd459a4	0.02592165
12	0x3ce7ec94	0.028311051
13	0x3cd50e8c	0.026007913
14	0xbcd4d821	-0.025981965
15	0xbccfc1e8	-0.025361016
