sampling-based_planning_framework/checkpoints/checkpoint_epoch_54.pth (torch, 386354 bytes, 75 tensors)

enc1.0.weight f4 [8, 1, 3, 3]
0	0xbdd124e0	-0.102121115
1	0x3dd2d0f1	0.10293759
2	0x3d8a00a4	0.067384034
3	0x3e106f7f	0.14105032
4	0xbde7b681	-0.11314107
5	0x3dab67ea	0.083694294
6	0x3d02772e	0.03185194
7	0xbe358f45	-0.17730434
8	0xbd8a0826	-0.067398354
9	0x3e1842a6	0.14869174
10	0xbdfc858f	-0.12330162
11	0x3d49199b	0.049096685
12	0x3e72c301	0.237072
13	0xbd94410e	-0.07238971
14	0x3e124575	0.14284308
15	0xbd77fff6	-0.060546838
16	0x3e1ef0e5	0.15521581
17	0xbd992649	-0.074780054
18	0x3e2f579c	0.17123264
19	0xbe504f5a	-0.2034277
20	0xbe3a8f2e	-0.18218681
21	0x3e24b218	0.16083562
22	0xbdaa24df	-0.08307814
23	0xbe205e05	-0.15660866
24	0xbeba8d51	-0.3643594
25	0xbe46c7ad	-0.19412108
26	0xbdcb5c4a	-0.09929712
27	0x3d6220b3	0.055206966
28	0x3cbcb475	0.023035267
29	0xbe4788fc	-0.19485849
30	0x3d2b7228	0.041856915
31	0x3e27120b	0.16315477
32	0x3eac19c8	0.3361342
33	0xbc6b4632	-0.014359998
34	0xb8c49c95	-9.375174e-05
35	0x3a1560fd	0.00056983513
36	0xbdc9fb0f	-0.09862339
37	0x3d3de894	0.046364382
38	0xbdad7bb8	-0.08470863
39	0xbe8ed833	-0.27899322
40	0x3e681c6e	0.22667095
41	0xbd53c47b	-0.05170105
42	0xbd5487bf	-0.05188727
43	0x3dd20c8f	0.102563016
44	0xbe99aa6d	-0.30012837
45	0x3e5ae470	0.21376204
46	0x3e6b65fa	0.2298812
47	0xbc160b4a	-0.009157965
48	0x3ec02beb	0.37533507
49	0xbd81c258	-0.06335896
50	0xbdc1f1a0	-0.094699144
51	0x3dadea1c	0.084919184
52	0xbe3ea7c4	-0.18618685
53	0xbe85e822	-0.26153666
54	0x3c957876	0.018245917
55	0x3d4295fe	0.047506325
56	0x3dd2656a	0.102732494
57	0x3e03d485	0.12874039
58	0xbdd770ce	-0.10519563
59	0x3efa6c60	0.4891081
60	0xbd0f37cb	-0.034965318
61	0x3ddda8e0	0.10823226
62	0x3de7ab6d	0.11311994
63	0x3dffa71a	0.12483044
64	0xbea19e51	-0.31566098
65	0x3db0db50	0.086355805
66	0xbe1ba6e9	-0.1520039
67	0xbdb3dfd0	-0.08782923
68	0x3e5ff6da	0.2187151
69	0x3d860cdc	0.065454215
70	0xbdf6444f	-0.120247476
71	0x3d5ae649	0.053442273

enc1.0.bias f4 [8]
0	0x3d10b38d	0.035327483
1	0x3b0837e9	0.0020785278
2	0x3d037d84	0.032102123
3	0xb961c6a3	-0.0002153167
4	0x3d53ec6d	0.051739145
5	0xb8a396a1	-7.8005025e-05
6	0x3b1774ce	0.0023110393
7	0x38b4d785	8.6232125e-05

enc1.2.weight f4 [8, 8, 3, 3]
0	0x3d489cb7	0.04897758
1	0x3d86ada4	0.06576088
2	0xbd967b9f	-0.073477976
3	0xbe772cf5	-0.24138243
4	0x3efad77b	0.48992524
5	0x3e1f0989	0.15530981
6	0xbcd1912d	-0.02558192
7	0xbc2ffa20	-0.010740787
8	0xbcc92690	-0.02455452
9	0xbdacc3d9	-0.084357925
10	0xbdc144a6	-0.09436922
11	0xbde37bcf	-0.11107599
12	0xbd209232	-0.039201923
13	0xbdd8ede7	-0.10592251
14	0x3e3c88fa	0.18411627
15	0x3e3fb68b	0.18721978
16	0x3e28fe0b	0.1650316
17	0xbe8aeada	-0.27132303
18	0x3d80a305	0.062810935
19	0x3e26600d	0.16247578
20	0x3df5d851	0.1200415
21	0xbde7749e	-0.1130154
22	0x3df86469	0.12128527
23	0xbdbbc449	-0.09168298
24	0xbe536796	-0.20644984
25	0x3e0112a0	0.12604761
26	0x3d601af1	0.054713193
27	0x3d07f653	0.033193897
28	0x3d92b471	0.07163323
29	0xbe81af3d	-0.2532901
30	0x3e5d545f	0.21614216
31	0x3c758e13	0.014987486
32	0x3ce91bcd	0.02845564
33	0xbc8fd3bb	-0.017557016
34	0x3cf3ae46	0.029746186
35	0xbe4246bd	-0.18972297
36	0x3d069c27	0.032863762
37	0x3d89e7de	0.06733678
38	0x3e21c05a	0.15796033
39	0xbe373935	-0.17892917
40	0x3d34c6f4	0.04413505
41	0x3d18ffb3	0.03735323
42	0xbb40bfc5	-0.0029411179
43	0xbd50a7b1	-0.050941173
44	0x3e123dd9	0.14281406
45	0x3cb9a87d	0.02266335
46	0xbe9fb999	-0.31196287
47	0x3d991d87	0.07476335
48	0x3c1d29c8	0.009592481
49	0x3e9e08e4	0.30866158
50	0xbe1cbd28	-0.15306532
51	0x3e32921f	0.17438553
52	0xbe2922c6	-0.16517171
53	0xbe02f255	-0.12787755
54	0xbdb33f84	-0.08752349
55	0x3e2a4c63	0.16630702
56	0xbcc4989e	-0.023998555
57	0x3e484396	0.19557032
58	0xbda5326b	-0.08066257
59	0xbcbd47eb	-0.023105582
60	0x3d76e9a5	0.060281415
61	0xbeecdeac	-0.46263635
62	0xbd9adfab	-0.075621925
63	0xbbfc70e6	-0.007703888
64	0xbbf9e0a2	-0.0076256553
65	0x3e695bd4	0.22788936
66	0xbd8d0a8e	-0.06886779
67	0xbd5b1a94	-0.053492144
68	0x3d8395ef	0.06425082
69	0x3e1ec134	0.15503389
70	0xbce17362	-0.02752084
71	0xbd9beb86	-0.07613282
72	0xbe470548	-0.19435608
73	0x3cf64076	0.030060034
74	0x3c92dfac	0.01792892
75	0x3e03c27b	0.12867157
76	0x3e16682b	0.14688174
77	0x3df28f36	0.118437216
78	0xbe0caad7	-0.13737045
79	0x3e39ea40	0.18155766
80	0xbe602df2	-0.21892527
81	0x3cad2659	0.02113645
82	0x3e84b59f	0.25919816
83	0xbddb10f9	-0.10696597
84	0x3e2b2f26	0.16717204
85	0x3c8900d4	0.016724028
86	0x3e1c9efd	0.15295024
87	0xbcfbd54d	-0.030741358
88	0xbe8b6e45	-0.27232566
89	0x3e1eeeab	0.15520732
90	0x3baa1c2e	0.0051913476
91	0xbe97bd6d	-0.29636708
92	0x3e894a09	0.26814297
93	0xbc996a43	-0.018727427
94	0x3e1ec1f2	0.15503672
95	0x3e02f527	0.1278883
96	0x3ba80ce1	0.0051284884
97	0x3e137e3d	0.14403625
98	0xbe0547be	-0.13015649
99	0xbca0556c	-0.019571982
100	0xbd85c4eb	-0.065317
101	0x3e5233c0	0.20527554
102	0x3eebbecd	0.46044007
103	0xbcb9da89	-0.022687213
104	0x3c266c43	0.010157648
105	0x3dae4a24	0.08510235
106	0x3f0c64d7	0.5484137
107	0x3dc0a26b	0.09405979
108	0xbe8f589b	-0.27997288
109	0x3d0bae88	0.034101993
110	0xbd06c094	-0.0328985
111	0xbead86e1	-0.33891967
112	0x3e14d71d	0.14535184
113	0xbe486a5e	-0.19571826
114	0xbd8f4c87	-0.06997018
115	0x3e20650e	0.1566355
116	0x3eaaa5a4	0.333295
117	0xbd936082	-0.07196142
118	0xbdc6d6b0	-0.09708917
119	0x3bc77f37	0.0060881632
120	0x3d73139d	0.059344877
121	0x3e6a97e3	0.22909503
122	0x3dff386d	0.12461934
123	0x3bd6a4f9	0.006550428
124	0xbd5363cc	-0.051608846
125	0xbcd560ff	-0.026047228
126	0x3e74388c	0.23849696
127	0x3b6d634d	0.0036222518
128	0xbe93cbb6	-0.28866357
129	0x3e93565b	0.28776821
130	0x3e54a43d	0.20765777
131	0xbdbe1b89	-0.09282596
132	0x3ed23867	0.41058657
133	0x3e63d4af	0.22249101
134	0x3d23afb4	0.039962485
135	0xbcd9b218	-0.02657418
136	0x3ea8b9ca	0.32954246
137	0x3e016a26	0.12638149
138	0x3e9001f2	0.28126484
139	0x3e941784	0.2892419
140	0x3e31ff05	0.17382438
141	0x3e1f8ed3	0.15581827
142	0xbdcdcc52	-0.10048737
143	0x3e0892f3	0.13337307
144	0x3dc9a984	0.09846786
145	0x3e4a60ee	0.19763538
146	0x3cf292a1	0.029610934
147	0x3e5279d7	0.2055429
148	0x3dc6bdf1	0.09704197
149	0xbdcc30ce	-0.09970246
150	0x3dd2aaae	0.10286461
151	0x3f0a2390	0.53960514
152	0xbe01bc17	-0.12669407
153	0xbeb40923	-0.3516322
154	0xbd729eaf	-0.059233364
155	0x3db31ac1	0.08745337
156	0x3e5dd610	0.2166369
157	0xbcb8c83d	-0.022556419
158	0xbd502820	-0.050819516
159	0x3df32768	0.118727505
160	0xbee253db	-0.44204602
161	0xbe2dbf7d	-0.16967578
162	0xbe580cb8	-0.21098602
163	0xbd97f3db	-0.074195586
164	0xbeb0e63f	-0.34550664
165	0x3dc3920e	0.09549342
166	0x3d9e1dc0	0.07720518
167	0x3e85f57f	0.2616386
168	0x3d2df57d	0.042470444
169	0x3e339bbc	0.17539877
170	0xbda0d32e	-0.07852779
171	0x3ea0c83b	0.31402764
172	0x3cb8ed90	0.022574216
173	0xbcedd507	-0.029032243
174	0xbd7709e2	-0.06031216
175	0x3dbffbb7	0.09374183
176	0x3de87c35	0.113518156
177	0xbe5fb070	-0.2184465
178	0xbe58d7f1	-0.21176125
179	0xbd6aaa2d	-0.0572912
180	0x3e562c6d	0.20915385
181	0xbe1dd7b9	-0.15414323
182	0x3eb875c5	0.3602735
183	0xbe738330	-0.23780513
184	0xbd4fd3b6	-0.050739013
185	0x3e101275	0.14069541
186	0xbe59087f	-0.21194647
187	0xbbbd5bf9	-0.0057787863
188	0xb9d6196a	-0.00040836196
189	0xbdedd55e	-0.11612962
190	0xbebe85d1	-0.3721147
191	0x3e98d987	0.2985346
192	0x3e01010c	0.12598056
193	0xbe9b556d	-0.30338612
194	0xbe9e9792	-0.30975014
195	0x3d40633f	0.04696965
196	0xbebaac09	-0.36459377
197	0x3d126b3c	0.035746798
198	0x3da80425	0.082039155
199	0xbcb48dbc	-0.02204024
200	0xbdf45230	-0.119297385
201	0xbe94f4ac	-0.2909292
202	0x3ea934dd	0.33048144
203	0x3d9c13d9	0.07620973
204	0xbe6dd767	-0.232267
205	0xbdb31d09	-0.087457724
206	0x3e429125	0.1900068
207	0x3ddb67d8	0.10713166
208	0xbd6f6bf5	-0.058452565
209	0xbd2718ff	-0.040795323
210	0x3e8a55f6	0.27018708
211	0xbdb4f6c9	-0.08836133
212	0xbdd52de2	-0.10409142
213	0x3ddd52d1	0.108068116
214	0x3df68e9a	0.12038918
215	0xbe5c867b	-0.21535675
216	0x3ce8b2bb	0.028405538
217	0x3e76d94c	0.2410633
218	0xba09b2c7	-0.0005252775
219	0xbd63a2d9	-0.055575226
220	0x3c933ac9	0.017972367
221	0xbe4fe38d	-0.20301647
222	0x3e30229f	0.17200707
223	0x3cd9c8fe	0.026585098
224	0x3d13a717	0.03604802
225	0xbebe9d33	-0.37229308
226	0xbea75dc6	-0.3268873
227	0xbe57b354	-0.21064502
228	0xbcdd2043	-0.026992923
229	0xbe743ca4	-0.23851258
230	0xbdae5900	-0.08513069
231	0x3e8edba3	0.27901945
232	0x3e190fe2	0.14947465
233	0x3de25efc	0.11053273
234	0xbcb86399	-0.02250843
235	0x3d80319f	0.062594645
236	0x3d30ecd7	0.043194618
237	0xbdc1098a	-0.094256476
238	0xbd0644d4	-0.032780483
239	0x3dc37ed3	0.09545674
240	0x3d6cee76	0.0578446
241	0x3e4bc53a	0.19899455
242	0xbe4e5693	-0.20150213
243	0xbd1f4057	-0.03887972
244	0x3d258d7b	0.04041813
245	0x3ddfcbec	0.10927567
246	0xbea2540a	-0.31704742
247	0xbe3351de	-0.17511699
248	0x3c402011	0.011726395
249	0x3dad2318	0.08453959
250	0x3e1c9e96	0.1529487
251	0x3deb4350	0.11487448
252	0x3eb97ed9	0.3622959
253	0xbd53a744	-0.05167319
254	0xbe051382	-0.12995723
255	0xbe6a1ed1	-0.22863318

enc1.2.bias f4 [8]
0	0xbced5ee4	-0.028975911
1	0xbaac9af2	-0.0013168736
2	0x3d1fb918	0.03899488
3	0xbc2da185	-0.010597591
4	0x3b88a253	0.004169741
5	0x3d0c3d6a	0.034238257
6	0x3cf1c039	0.029510604
7	0x3bfc330d	0.0076965154

enc2.0.weight f4 [16, 8, 3, 3]
0	0x3c5ca808	0.013467796
1	0xbd236fff	-0.03990173
2	0xbc663b8f	-0.014052286
3	0xbe07ee94	-0.13274604
4	0xbe519ccf	-0.20469974
5	0x3dbc9a36	0.09209101
6	0x3d727348	0.059191972
7	0xbdb48199	-0.08813781
8	0x3e85254a	0.26005012
9	0xbb39f34d	-0.0028373778
10	0x3d4a8238	0.049440593
11	0xbd17eb2c	-0.03708951
12	0xbe62c1b2	-0.22144201
13	0x3d9ba6e0	0.07600188
14	0xbd3da5cc	-0.046300694
15	0xbdadb4cf	-0.08481752
16	0xbd2efc89	-0.042721305
17	0x3e397ca9	0.1811396
18	0x3bbfac10	0.005849369
19	0x3df20205	0.118167914
20	0xbe2cd4d5	-0.16878064
21	0xbd36fd49	-0.044675145
22	0xbc951df6	-0.018202763
23	0xbe050ead	-0.1299388
24	0x3db5f9f9	0.08885569
25	0x3e8b3329	0.2718747
26	0x3de5296b	0.111895405
27	0xbd4a25b7	-0.049352374
28	0x3dd24b4d	0.10268269
29	0x3de09d94	0.10967556
30	0xbcc4978b	-0.023998043
31	0xbe28b437	-0.16474997
32	0xbc60ca23	-0.013720068
33	0xbe3c5d0a	-0.18394867
34	0xbe223320	-0.15839815
35	0xbdae58a2	-0.08512999
36	0x3e1c6cdf	0.15275906
37	0xbd262574	-0.04056306
38	0xbe491709	-0.19637693
39	0xbd0393b5	-0.032123286
40	0x3d2ebce7	0.04266062
41	0xbd25f0c1	-0.040512804
42	0xbe00d37a	-0.12580672
43	0xbdeeefc3	-0.11666825
44	0x3d8270e1	0.06369186
45	0x3d7842b8	0.060610503
46	0x3d5c612a	0.0538036
47	0x3e0d95fe	0.13826749
48	0x3e642eed	0.22283526
49	0xbd0840bf	-0.03326487
50	0x3e138131	0.14404751
51	0x3e3367db	0.17520086
52	0xbd154572	-0.03644318
53	0x3ded0ee8	0.11575109
54	0x3e3d6bf1	0.18498208
55	0xbd5e3530	-0.054249942
56	0xbe9efb46	-0.3105108
57	0xbe35d787	-0.17757998
58	0x3e4e78dd	0.20163293
59	0xbd857ca2	-0.065179124
60	0x3dbe2d83	0.092860244
61	0x3e59f51d	0.2128491
62	0x3e3cda71	0.18442704
63	0x3bdd0063	0.006744431
64	0xbe2ef22c	-0.17084569
65	0x3cc7b828	0.024379805
66	0xbcbdbab3	-0.023160314
67	0xbbab4352	-0.005226531
68	0x3de07e0f	0.10961544
69	0xbdd80fc5	-0.10549883
70	0xbe2dcf7a	-0.16973677
71	0x3b2eaa8c	0.0026651947
72	0x3bdb0406	0.0066838292
73	0x3d32ab2f	0.043620285
74	0xbcb10158	-0.021607086
75	0xbd63dd7c	-0.055631146
76	0xbcd75d69	-0.026289659
77	0xbde8db00	-0.11369896
78	0xbd872687	-0.065991454
79	0x3cb4196b	0.021984776
80	0x3df21717	0.1182081
81	0xbd3e34ee	-0.046437196
82	0x3b9dbcb3	0.0048137545
83	0x3e93f33c	0.2889651
84	0x3c23059c	0.009950068
85	0xbdddd23f	-0.10831117
86	0x3ba7dc11	0.0051226695
87	0xbd3b5374	-0.045733884
88	0xbb0797e0	-0.002068989
89	0xbde0bfce	-0.10974084
90	0x3d52b185	0.051438827
91	0x3d66c317	0.056338396
92	0x3e253e40	0.16137028
93	0x3db2bbaf	0.08727204
94	0x3d10bed9	0.035338257
95	0x3d932ea7	0.071866326
96	0xbe3f98d5	-0.18710645
97	0x3de54062	0.11193921
98	0x3d081e82	0.03323222
99	0xbc9fe860	-0.019519985
100	0xbdb0ddd7	-0.086360626
101	0x3daabb53	0.083365105
102	0xbe3ed1b7	-0.18634687
103	0x3d77153b	0.06032298
104	0x378d492e	1.6842587e-05
105	0x3df74dbd	0.12075374
106	0xbe6d4380	-0.2317028
107	0x3cdb85f3	0.02679727
108	0x3e06bf31	0.13158871
109	0xbd544e81	-0.05183268
110	0xbcafed5d	-0.021475488
111	0xbcfac132	-0.0306097
112	0x3dcb0ffb	0.099151574
113	0x3d7f691b	0.062356096
114	0x3e32ae1e	0.17449233
115	0x3e772242	0.24134162
116	0x3c41bd26	0.011824882
117	0xbd7a252e	-0.061070614
118	0xbdb5f64d	-0.08884869
119	0x3e383269	0.1798798
120	0x3e324954	0.17410785
121	0x3e214c6b	0.15751807
122	0x3d98c51b	0.0745947
123	0xbe0583a0	-0.13038492
124	0x3dcee164	0.101015836
125	0x3e00731a	0.12543908
126	0x3e5144b8	0.2043637
127	0x3b19bf07	0.0023459808
128	0x3d8d1bec	0.06890091
129	0x3ce4ebf4	0.027944542
130	0x3e480b5f	0.19535588
131	0xbdfca1c2	-0.1233554
132	0x3c999872	0.01874945
133	0xbceb3aee	-0.028714623
134	0x3e4a58c2	0.19760421
135	0xbe86cb98	-0.26327205
136	0x3e17cc28	0.14823973
137	0xbe4fb44c	-0.20283622
138	0xbe305bbd	-0.17222495
139	0x3d18a89a	0.037270166
140	0xbcf04b96	-0.029332917
141	0x3d329a61	0.04360426
142	0xbb5dd724	-0.0033850158
143	0xbdcf3518	-0.10117549
144	0xbd5682c0	-0.052370787
145	0xbc8d1a60	-0.01722449
146	0xbe503f12	-0.2033656
147	0xbd1cffea	-0.038329996
148	0x3dec271f	0.11530899
149	0x3e5a9877	0.21347223
150	0x3e8bc23c	0.27296627
151	0x3e1b4346	0.15162382
152	0xbe3a8dc2	-0.18218139
153	0xbd3cf65f	-0.046133395
154	0xbe20f47e	-0.15718266
155	0xbe1afb13	-0.1513484
156	0x3df9b7a8	0.12193233
157	0x3e33b01a	0.17547646
158	0xbcec6cae	-0.028860416
159	0x3d45c7ed	0.048286367
160	0xbde049bd	-0.109515645
161	0xbe6ad01f	-0.22930954
162	0x3e04fc51	0.12986876
163	0x3c3f8b68	0.011690952
164	0xbe3955b1	-0.18099095
165	0xbdcd8e23	-0.10036876
166	0x3d5260c1	0.051361803
167	0x3e1d96b9	0.15389527
168	0xbd8380c4	-0.064210445
169	0xbe0ac61b	-0.13552134
170	0x3dc1a25d	0.094547965
171	0x3e37c89c	0.1794762
172	0xbc0c5dc8	-0.008567281
173	0x3df87a37	0.12132686
174	0x3e12cc16	0.14335665
175	0x3a05cb23	0.0005103817
176	0xbd48660c	-0.048925444
177	0x3e38f7b2	0.18063238
178	0xbc85c4b0	-0.01632914
179	0xbdb0b3ba	-0.0862803
180	0x3dbef9e6	0.09325008
181	0x3da7b57a	0.08188911
182	0x3df56d3f	0.11983728
183	0x3e510233	0.20410995
184	0x3db20730	0.08692777
185	0x3ec5119d	0.3849
186	0x3e9c84e8	0.3057015
187	0x3e25f65e	0.16207263
188	0x3d859e2a	0.06524308
189	0xbdccd629	-0.10001785
190	0x3e1ac31d	0.15113492
191	0xbe0b916b	-0.13629691
192	0xbdbc7fce	-0.09204064
193	0xbd8a3055	-0.067475
194	0x3e3cc58a	0.1843473
195	0x3e72cca8	0.23710883
196	0x3da14b44	0.07875684
197	0xbdd0227b	-0.10162827
198	0x3dcf5317	0.1012327
199	0x3d987564	0.074442655
200	0xbccfe542	-0.025377873
201	0x3d7521c2	0.059846647
202	0x3e202ebe	0.1564283
203	0x3da6413b	0.081179105
204	0x3deb2f3b	0.11483618
205	0x3dbd48ea	0.09242423
206	0xbb870bd5	-0.0041212835
207	0x3e371125	0.17877634
208	0xbe33f130	-0.17572474
209	0x3cddee7c	0.027091257
210	0x3e0b4f01	0.13604356
211	0xbc4aa90a	-0.012369404
212	0x3e7cb233	0.24677353
213	0xbe274a79	-0.16337003
214	0x3d00e7f7	0.03147122
215	0xbe1b0137	-0.15137182
216	0xbcf3af52	-0.029746685
217	0x3d69b4d7	0.057057228
218	0x3e23a33a	0.15980235
219	0xbcda38bb	-0.02663838
220	0x3d9eb8e7	0.07750111
221	0x3e872d4e	0.26401752
222	0xbba089fd	-0.004899262
223	0xbd75b8ae	-0.059990577
224	0xbd55bac0	-0.05218005
225	0xbeb3661f	-0.3503885
226	0xbe0306e0	-0.12795591
227	0x3ca71487	0.02039553
228	0xbd3f06e6	-0.04663744
229	0xbe464fe9	-0.19366421
230	0x3d1b9738	0.03798601
231	0x3e209302	0.15681079
232	0xbb003aef	-0.0019566377
233	0x3db73ad8	0.089467704
234	0x3d4ae74e	0.049536996
235	0xbd8e4c46	-0.06948142
236	0xbdb50fe8	-0.088409245
237	0xbd8bfc59	-0.06835241
238	0x3dbe8eff	0.09304618
239	0xbdff57cd	-0.124679185
240	0x3d2e123e	0.042497866
241	0x3c283978	0.010267608
242	0x3d01f2a4	0.03172554
243	0xbccce2c8	-0.025010481
244	0xbdfc38a2	-0.12315489
245	0x3e72d9e4	0.23715931
246	0xbc841700	-0.016124249
247	0xbd6c01e3	-0.057618987
248	0x3da11fbd	0.07867382
249	0xbd82f2d6	-0.063939735
250	0x3e732c82	0.23747447
251	0x3e063a2c	0.13108128
252	0xbe97e152	-0.29664093
253	0xbe702175	-0.23450263
254	0x3ce17841	0.027523162
255	0x3ca33407	0.01992227

enc2.0.bias f4 [16]
0	0x3d081479	0.03322265
1	0x3d06b842	0.032890566
2	0xbc793ec8	-0.015212722
3	0x3d343c67	0.044002917
4	0x3c176bd6	0.009242019
5	0x3d1a0d76	0.037610494
6	0xbcaef7fc	-0.021358483
7	0xbce6ba78	-0.028165087
8	0x3cdea15d	0.027176553
9	0x3bdb9a85	0.00670177
10	0x3d0253fc	0.031818375
11	0x3d158f38	0.036513537
12	0x3cfcb1f6	0.030846577
13	0x3cde0161	0.027100267
14	0x3cbe05c1	0.023196103
15	0x3d16fad0	0.036860287

enc2.2.weight f4 [16, 16, 3, 3]
0	0xbaf7b171	-0.0018897486
1	0x3d374b05	0.04474928
2	0xbca98562	-0.020693485
3	0xbdee55b6	-0.11637442
4	0x3e101a74	0.14072591
5	0x3d610ad3	0.054941963
6	0xbd684333	-0.05670471
7	0xbcca12c3	-0.02466715
8	0x3b94e50c	0.004543906
9	0xbdfda396	-0.12384717
10	0x3e68b884	0.22726637
11	0xbde2a709	-0.11067016
12	0xbe38d517	-0.18050037
13	0x3d2df9b6	0.04247447
14	0x3e38a7e8	0.18032801
15	0xbe6e7536	-0.232869
16	0xbd0583ca	-0.032596387
17	0xbce9e385	-0.028550873
18	0xbdee041b	-0.11621877
19	0xbd88434e	-0.06653462
20	0xbe04c135	-0.12964328
21	0xbdcf1d63	-0.10113027
22	0x3e9f6acd	0.3113617
23	0x3d31c069	0.043396387
24	0xbd39687c	-0.04526566
25	0x3e19eee7	0.1503254
26	0xbd9551c3	-0.072909854
27	0x3e592057	0.21203743
28	0x3e17b667	0.14815675
29	0xbd77b49d	-0.06047498
30	0x3e248dc2	0.16069701
31	0x3e31c69f	0.17360924
32	0xbdcc06dd	-0.099622466
33	0xbda0a5e7	-0.07844143
34	0xbea52647	-0.32255766
35	0x3e40e34e	0.1883671
36	0xbd0edaeb	-0.034876745
37	0xbd448a41	-0.04798341
38	0x3e16e03c	0.14733976
39	0xbe276e52	-0.16350678
40	0xbdec8be8	-0.115501225
41	0x3e62cd2f	0.22148584
42	0xbd7f570b	-0.06233887
43	0xbecbcfb1	-0.39806893
44	0xbdba01cf	-0.09082376
45	0x3c304e9c	0.010760929
46	0xbd11708c	-0.035507724
47	0x3e00e85c	0.12588638
48	0x3cc18e71	0.023627492
49	0xbb3b83e8	-0.0028612558
50	0xbde51c16	-0.111869976
51	0xbda6f1b9	-0.08151574
52	0xbe826eee	-0.25475258
53	0xbda3f477	-0.08005612
54	0x3cb549a5	0.022129843
55	0xbce313b1	-0.02771935
56	0xbdbd7bdf	-0.09252142
57	0x3e02fafa	0.12791052
58	0xbe007153	-0.1254323
59	0x3e2a66f6	0.16640839
60	0x3d2c32f4	0.04204078
61	0x3de4b4d4	0.11167303
62	0x3d1e3b2f	0.03863066
63	0x3d5f27e4	0.054481402
64	0x3dd6b51a	0.10483761
65	0x3d86fef8	0.065916
66	0xbdf618f8	-0.12016481
67	0xbc22c43d	-0.009934482
68	0xbe1a8d75	-0.15093024
69	0x3de732b0	0.11288965
70	0x3e2286d6	0.15871748
71	0xbca6eeaf	-0.020377485
72	0x3e7e0d30	0.24809718
73	0x3c64179e	0.013921646
74	0x3e37c9f3	0.17948131
75	0xbdb21126	-0.08694677
76	0x3d83dd8f	0.06438743
77	0x3e58ff32	0.211911
78	0x3a8a1f81	0.0010537953
79	0xbe54c631	-0.20778729
80	0x3e2fbea9	0.17162575
81	0xbe546633	-0.20742111
82	0xbd01f6dc	-0.031729564
83	0xbe4f9574	-0.20271856
84	0x3e160c56	0.14653143
85	0x3e299c0a	0.1656343
86	0x3d9ac616	0.07557313
87	0xbd648fea	-0.05580131
88	0xbe447c63	-0.19188075
89	0x3e501b7e	0.20322987
90	0x3af65808	0.0018794546
91	0xbe11ac77	-0.14225946
92	0x3ddc5f04	0.1076031
93	0xbd9e83af	-0.077399604
94	0x3def5832	0.11686744
95	0x3cc4af67	0.02400942
96	0xbe835bca	-0.25655967
97	0x3d2e957b	0.042623024
98	0x3e3aad20	0.18230104
99	0x3e04df97	0.12975918
100	0xbd247f1d	-0.040160287
101	0xbd536c93	-0.051617216
102	0xbd84c8f0	-0.06483638
103	0x3e12ed24	0.14348274
104	0x3d883819	0.06651325
105	0x3cd1935e	0.025582965
106	0xbcefe913	-0.029285943
107	0x3d8973b3	0.06711521
108	0xbdb391d0	-0.08768046
109	0x3cc942b2	0.024567936
110	0x3e4c5c75	0.19957145
111	0xbe54acb5	-0.20769008
112	0xbd81fda9	-0.0634721
113	0xbd94a216	-0.07257478
114	0xb9da0b59	-0.00041588655
115	0x3e1280b1	0.14306904
116	0x3e1795be	0.14803216
117	0x3cc493c8	0.023996249
118	0x3dc5e3f8	0.09662622
119	0xbe202452	-0.15638855
120	0x3e187fa1	0.14892437
121	0x3e0b9ccd	0.13634034
122	0xbd950d80	-0.072779655
123	0x3dae934e	0.0852419
124	0x3cbd614f	0.02311769
125	0xbd82eb48	-0.063925326
126	0x3e246fe2	0.16058305
127	0xbd94198d	-0.07231436
128	0xbdda8444	-0.10669759
129	0xbceaaef9	-0.028647887
130	0xbda5c77a	-0.08094688
131	0x3d3e827c	0.04651116
132	0xbe7f89eb	-0.24954955
133	0x3d594576	0.05304476
134	0xbde6e8cb	-0.112748705
135	0xbe056671	-0.1302736
136	0x3d394581	0.0452323
137	0x3e2c1cf0	0.16807914
138	0xbe001a04	-0.12509924
139	0x3df30c00	0.11867523
140	0xbd4162bb	-0.047213297
141	0x3d8a80bf	0.067628376
142	0xbcef3a06	-0.029202472
143	0x3dc098a8	0.09404117
144	0x3c802364	0.015641876
145	0x3d8efd4c	0.06981906
146	0x3ddd3653	0.10801377
147	0xbceb9104	-0.028755672
148	0x3dff9a17	0.12480562
149	0x3e0a763f	0.1352167
150	0x3e3ef529	0.18648209
151	0xbdabdcf3	-0.08391752
152	0x3e2c685e	0.16836688
153	0x3e3697a9	0.17831291
154	0x3db6b983	0.08922102
155	0x3c13d317	0.009022496
156	0xbe8f6760	-0.28008556
157	0x3de16c5b	0.11006995
158	0xbde41757	-0.11137264
159	0xba8e49df	-0.0010855756
160	0xbd9b292c	-0.07576212
161	0xbe067b8c	-0.13133067
162	0x3e17d909	0.14828886
163	0x3d6cb88d	0.05779319
164	0x3df7af50	0.12093985
165	0xbe5bae56	-0.21453223
166	0xbd337d78	-0.04382083
167	0xbd1bf8d5	-0.0380791
168	0xbd1c526d	-0.038164545
169	0xbd30aa34	-0.04313107
170	0xbd4a486f	-0.049385484
171	0xbe514188	-0.20435154
172	0xbe1d33f3	-0.15351848
173	0xbda2ce48	-0.07949501
174	0x3df8c823	0.12147548
175	0xbce4faba	-0.027951587
176	0xbe4cb216	-0.1998981
177	0xbda7eb85	-0.08199219
178	0xbd23fbb1	-0.040034954
179	0x3d536a56	0.05161508
180	0xbbc7df6c	-0.006099632
181	0x3d106d84	0.035260692
182	0x3d9ec8dd	0.077531554
183	0x3cce0a15	0.025151292
184	0x3d8c0058	0.06836003
185	0x3e4f87d7	0.20266663
186	0x3e2a25c8	0.16615975
187	0x3e104165	0.14087446
188	0xbbf9cb49	-0.0076231104
189	0x3b7e3df9	0.0038794263
190	0x3e3cce4c	0.18438071
191	0xbdcbada8	-0.09945232
192	0xbdcc5526	-0.09977178
193	0x3cfadabd	0.03062188
194	0x3d859344	0.06522229
195	0x3e4f07d9	0.20217837
196	0x3e8d8a5e	0.27644628
197	0xbc0de432	-0.008660363
198	0xbd79c0de	-0.060974948
199	0xbd732075	-0.059357125
200	0xbd773d38	-0.060361117
201	0xbe15cf3e	-0.14629838
202	0x3df4f1f1	0.11960209
203	0x3e0be3c4	0.13661104
204	0xbdceed1e	-0.1010382
205	0xbd968e17	-0.0735132
206	0x3e441709	0.19149412
207	0x3defb1e7	0.11703854
208	0xbe0d7215	-0.1381305
209	0x3e00bcb1	0.1257198
210	0xbb5fc31d	-0.0034143396
211	0x3ce1cb5c	0.02756279
212	0xbd327980	-0.043572903
213	0x3da76adb	0.08174678
214	0xbd865bad	-0.065604545
215	0xbc32e579	-0.010918968
216	0x3d8dea38	0.06929439
217	0x3e2bedf0	0.16789985
218	0xbe362d8c	-0.17790812
219	0x3ba41bc0	0.005008191
220	0x3ea0430c	0.31301153
221	0x3e07c455	0.13258488
222	0xbd860ee0	-0.06545806
223	0x3cb14c31	0.021642776
224	0xbce2659e	-0.027636345
225	0x3e91936f	0.28432795
226	0xbdc9bbd9	-0.09850282
227	0xbdc5e0ad	-0.09661994
228	0xbdb3540d	-0.08756266
229	0x3cbe0133	0.023193931
230	0x3ccc616b	0.024948796
231	0xbe1abd50	-0.1511128
232	0xbed4d469	-0.41568306
233	0xbd79cd30	-0.060986698
234	0xbc6fa86e	-0.014627559
235	0xbe3e7ec4	-0.18603045
236	0x3d37b7a9	0.044852886
237	0x3e32aed2	0.17449501
238	0x3d6c6e51	0.057722393
239	0xbe872636	-0.2639634
240	0xbe235357	-0.1594976
241	0x3dbfeec8	0.09371716
242	0xbd31b23d	-0.043382872
243	0x3d63246f	0.055454668
244	0xbe3bc72e	-0.183377
245	0xbdbd07dc	-0.09230015
246	0x3d51b6d7	0.05119976
247	0xbe180dfd	-0.14849086
248	0x3e9bf752	0.30462128
249	0x3e039168	0.12848437
250	0x3ec129e7	0.3772728
251	0xbd808f2a	-0.062773064
252	0x3d0dc4e1	0.034611586
253	0x3cbb3de0	0.022856653
254	0xbcd8ba70	-0.026456088
255	0x3e0f98d4	0.14023143

enc2.2.bias f4 [16]
0	0x3c8f96a5	0.017527888
1	0x3d0145b0	0.0315606
2	0x3954d3ba	0.0002029677
3	0x3c4cf44a	0.012509415
4	0x3d08a818	0.03336343
5	0x3cd57c9c	0.026060395
6	0xbb9cf8d1	-0.0047904034
7	0xbbae0fc1	-0.0053119366
8	0x3d6d62b1	0.057955448
9	0x3cffb228	0.031212881
10	0x3c5152e9	0.012776115
11	0xbbe4cb17	-0.006982218
12	0x3c9cac39	0.01912509
13	0xbc788047	-0.015167302
14	0x3d0cf0fe	0.034409516
15	0x3ce99340	0.028512597

bottleneck.0.weight f4 [32, 16, 3, 3]
0	0xbdbc47b3	-0.09193363
1	0x3d18b003	0.037277233
2	0x3d494393	0.04913671
3	0x3d470431	0.04858798
4	0x3da3e231	0.08002127
5	0xbd0c7252	-0.03428871
6	0x3cc5e7b6	0.02415834
7	0x3c477c7c	0.0121756755
8	0xbe2f53eb	-0.17121856
9	0xbc975cd8	-0.018476889
10	0xbe3f7628	-0.18697417
11	0x3dca752e	0.098856315
12	0xbca6f7ce	-0.020381834
13	0x3d84a8cf	0.0647751
14	0x3e086018	0.13317907
15	0xbe2e0a16	-0.16996035
16	0x3e5a0985	0.21292694
17	0x3d11e3f6	0.03561779
18	0x3d231db0	0.039823234
19	0x3db48bd6	0.08815734
20	0x3dadd521	0.08487917
21	0xbd476aed	-0.048685957
22	0x3e071980	0.13193321
23	0x3e5f95c8	0.21834481
24	0xbd10ef3c	-0.0353844
25	0xbc674014	-0.0141143985
26	0xbcb646d7	-0.022250576
27	0x3d2db7ad	0.042411495
28	0xbd85446f	-0.06507193
29	0x3be40824	0.0069589783
30	0xbd2d60af	-0.042328533
31	0xbdd31a97	-0.10307806
32	0xbcfc2dec	-0.030783616
33	0x3dffb138	0.12484974
34	0xbc3807c3	-0.011232319
35	0xbdaaeb2b	-0.08345636
36	0xbda53178	-0.08066076
37	0xbd99f414	-0.07517257
38	0xbba64cf8	-0.0050750934
39	0xbd6badc0	-0.057538748
40	0x3d2eec41	0.042705778
41	0xbe32b505	-0.17451866
42	0x3dccaf82	0.09994413
43	0xbe0b2f91	-0.13592364
44	0x3dffaed2	0.12484516
45	0xbcdc260c	-0.02687361
46	0x3dd9bd97	0.106318645
47	0x3cdaac61	0.026693525
48	0xbdd31988	-0.10307604
49	0x3d88234a	0.06647356
50	0xbd1e8eca	-0.038710393
51	0x3df66a29	0.12031967
52	0x3dbe57e7	0.0929411
53	0xbd3d1f73	-0.04617257
54	0x3cf0480a	0.029331226
55	0x3dfa6037	0.12225383
56	0x3c3ae1eb	0.011406402
57	0x3d9727a5	0.073806085
58	0xbcf57ab4	-0.029965736
59	0xbdfae4b8	-0.12250656
60	0xbd6be35a	-0.057589866
61	0x3e8ad8df	0.27118585
62	0x3d9f7cd0	0.07787478
63	0xbd886bd3	-0.06661191
64	0x3d035863	0.032066714
65	0xbd4f2786	-0.0505748
66	0x3d07a8ee	0.03312009
67	0x3e125071	0.14288498
68	0x3db89d31	0.09014357
69	0x3ca0c1fe	0.019623753
70	0x3b412510	0.0029471554
71	0xbd3a2e47	-0.04545429
72	0x3b6257d0	0.0034537204
73	0x3c7e26d1	0.015512184
74	0xbe255b79	-0.16148175
75	0x3db0eeac	0.08639273
76	0xbd9e022a	-0.077152565
77	0xbd3aa3eb	-0.04556648
78	0xbd312ae1	-0.043253783
79	0x3ded0504	0.11573222
80	0x3e4a12c8	0.19733727
81	0xbdb63eca	-0.08898695
82	0x3dd136d3	0.10215535
83	0x3d6a13a9	0.057147656
84	0xbce7f8ca	-0.028316874
85	0x3d6523b3	0.05594225
86	0x3e209054	0.15680057
87	0xbde2c80d	-0.11073313
88	0x3d0fc4d0	0.035099804
89	0xbb69823c	-0.0035630604
90	0x3c963a33	0.018338298
91	0xbcb91bf2	-0.022596333
92	0xbd74ac5c	-0.059734687
93	0x3de20592	0.11036219
94	0x3e1980a2	0.14990476
95	0x3df78ad7	0.120870285
96	0xbb57ee02	-0.003294826
97	0x3dcab8df	0.098985426
98	0xbc6e8501	-0.014558078
99	0xbc613d8a	-0.013747582
100	0x3dad3d51	0.08458961
101	0xbd38ddbe	-0.045133345
102	0xb9f70913	-0.00047118272
103	0x3d6e5e4d	0.0581954
104	0x3bc69ccd	0.0060611726
105	0x3d0802d6	0.03320583
106	0x3e8e56aa	0.27800494
107	0x3ddbd8d2	0.107347146
108	0xbba3e573	-0.0050017177
109	0x3d11edb3	0.03562708
110	0xbd27c106	-0.040955566
111	0x3e18da27	0.14926969
112	0x3d8e3c74	0.06945124
113	0xbdc5a980	-0.0965147
114	0xbd262454	-0.04056199
115	0xbd1910e7	-0.037369635
116	0xbe4707a2	-0.19436505
117	0x3da5e7ab	0.08100828
118	0x3d817a17	0.06322115
119	0xbdf42698	-0.11921424
120	0x3e413156	0.18866476
121	0xbd031581	-0.03200293
122	0x3d46b925	0.04851641
123	0x3ac60859	0.0015108689
124	0x3cbf0a0f	0.023320226
125	0x3e5e214b	0.21692388
126	0xbc224838	-0.009904914
127	0x3d2fd263	0.04292525
128	0xbe14b998	-0.14523923
129	0x3d653ce3	0.05596627
130	0xbd3a4728	-0.045478016
131	0xbd07255b	-0.03299461
132	0x3cab7cb5	0.020933488
133	0xbde4c054	-0.11169496
134	0xbd71d236	-0.059038363
135	0x3cb01be3	0.021497672
136	0x3e2d63b1	0.1693256
137	0x3d1eaeaa	0.03874079
138	0x3d778946	0.06043365
139	0x3d4235fb	0.04741476
140	0x3d2a1b88	0.041530162
141	0x3dc3c8a3	0.09559753
142	0x3d4522fd	0.04812907
143	0x3d1fb22c	0.038988277
144	0x3bc54a14	0.0060207937
145	0xbdbb7778	-0.09153646
146	0x3dcc5e45	0.09978918
147	0x3c4a0de0	0.01233241
148	0x3d3b6f8a	0.04576067
149	0x3c54d2cd	0.012989712
150	0xbcb325b3	-0.021868562
151	0xbd8ee92e	-0.06978069
152	0x3d812d0d	0.06307421
153	0x3d835c56	0.06414096
154	0xbd85c603	-0.06531908
155	0x3bcc9c43	0.006244214
156	0x3d497bfc	0.049190506
157	0xbb002c25	-0.0019557562
158	0xbe454869	-0.19265904
159	0xbd584f85	-0.05281021
160	0xbd9b2dc5	-0.07577089
161	0x3e7650a4	0.240542
162	0xbb790667	-0.00379982
163	0xbe00c05f	-0.12573384
164	0xbdad8139	-0.08471913
165	0xbd6c1b76	-0.057643376
166	0xbdd22bdb	-0.10262271
167	0x3c2efbef	0.010680183
168	0xbd6de567	-0.058080103
169	0x3d40d004	0.04707338
170	0x3db2fa25	0.087391175
171	0xbd93dd0a	-0.07219894
172	0xbd8ed582	-0.06974317
173	0x3d241378	0.04005763
174	0x3d2e5f64	0.04257144
175	0xbd58c10a	-0.05291847
176	0x3cd0c05f	0.025482355
177	0x3d7bb9fe	0.061456673
178	0x3d2ebc32	0.042659946
179	0x3ddf32a4	0.10898331
180	0x3d4f8b41	0.050669912
181	0x3ca7bd75	0.020476082
182	0x3de0cd2b	0.10976633
183	0x3df091d0	0.117465615
184	0x3db36843	0.08760121
185	0x3db934a6	0.09043245
186	0x3d328446	0.043583177
187	0xbca36eb1	-0.019950243
188	0xbdbfbd6b	-0.093623005
189	0xbd17e384	-0.03708221
190	0x3bc1b2b1	0.0059111943
191	0xbd81d327	-0.06339102
192	0xbcf7f8de	-0.030270036
193	0x3bb5e450	0.0055508986
194	0xbd83797e	-0.06419657
195	0x3d371709	0.044699702
196	0xbd1c6058	-0.038177818
197	0x3dd9a39f	0.10626911
198	0xbdf16cac	-0.11788306
199	0xbd513bc1	-0.051082376
200	0xbe0adae5	-0.13560064
201	0x3cf0c1cc	0.029389285
202	0x3da0ab7c	0.07845208
203	0xbe1bd5f2	-0.15218332
204	0x3da1a297	0.0789234
205	0x3de6e7b3	0.11274662
206	0x3e3f38e7	0.1867405
207	0xbe333124	-0.17499214
208	0xbd56b9c7	-0.052423265
209	0xbe70ef98	-0.23528898
210	0x3dd58c43	0.104271434
211	0x3e643496	0.22285685
212	0xbd56ce0e	-0.052442603
213	0x3d33ff5e	0.04394471
214	0x3ccf5f39	0.02531396
215	0xbd60098e	-0.054696612
216	0xbd757d66	-0.059934042
217	0x3de5e771	0.112257846
218	0x3c9b8793	0.018985545
219	0xbbbb07e8	-0.0057077296
220	0xbd1985f5	-0.037481267
221	0xbc5bfd3f	-0.013427078
222	0xbdacb28d	-0.08432493
223	0x3e5f7aa5	0.21824129
224	0x3e0ac4a9	0.13551582
225	0x3c2e21fa	0.010628218
226	0xbcee6bf9	-0.02910422
227	0xbdf4c17a	-0.11950965
228	0x3d541218	0.051775068
229	0xbe01b367	-0.12666093
230	0xbd9a3070	-0.0752877
231	0xbe5895a2	-0.2115083
232	0x3dc9a169	0.0984524
233	0xbdfe6ae1	-0.12422729
234	0x3d85c722	0.06532122
235	0x3d8b67d4	0.06806913
236	0xbdbe799f	-0.09300541
237	0x3e09e5cd	0.13466568
238	0xbcc4cf57	-0.024024649
239	0xbe00a8fe	-0.12564465
240	0x3d689418	0.05678186
241	0xbc1e48ef	-0.009660943
242	0x3e00c532	0.12575224
243	0xbd3895be	-0.04506468
244	0xbca45566	-0.020060252
245	0x3e230382	0.15919307
246	0x3d9f4ff2	0.0777892
247	0xbccb2bd9	-0.024801182
248	0x3d9d8fb9	0.076934285
249	0x3d48c1a9	0.049012814
250	0xb94f528b	-0.00019771808
251	0x3e0b2065	0.13586576
252	0x3dcce9df	0.10005545
253	0x3e1ffef6	0.15624604
254	0xbd26ff4e	-0.04077082
255	0xbdac20d3	-0.08404698

bottleneck.0.bias f4 [32]
0	0xbd03f854	-0.032219246
1	0x3ca9e31b	0.020738175
2	0x3ce9d8b6	0.028545719
3	0x3d18ec83	0.03733493
4	0x3cf409ec	0.029789887
5	0x3cd65316	0.026162665
6	0x3d45881c	0.048225507
7	0xbc2214cc	-0.009892654
8	0x3cdcb86a	0.026943404
9	0xbc5d78a9	-0.013517537
10	0x3c639da6	0.013892567
11	0x3d1994aa	0.037495293
12	0xbc1dc1ce	-0.009628726
13	0x3cd41039	0.025886642
14	0xbb783721	-0.0037874656
15	0x3cf72b3f	0.030171989
16	0x3d0c658c	0.03427653
17	0x3bee26fc	0.007267831
18	0x3cd938c9	0.026516335
19	0x3d614292	0.054995127
20	0x3b26b36a	0.002543653
21	0x3d52993f	0.051415678
22	0x3cc475d4	0.023981966
23	0xbc5057d8	-0.012716256
24	0x3d0bfe96	0.03417834
25	0x3ca0b0fb	0.01961564
26	0xbceaee9c	-0.028678231
27	0x3c3bcd8e	0.011462582
28	0x3cb96168	0.022629455
29	0x3cdd2b10	0.026998073
30	0x3ccb3d3d	0.024809474
31	0x3cec9049	0.028877394

bottleneck.2.weight f4 [32, 32, 3, 3]
0	0xbc424be6	-0.011858916
1	0xbd0502af	-0.032473262
2	0xbe4694b4	-0.19392663
3	0xbdd7fe6e	-0.105465755
4	0xbe3d168a	-0.18465629
5	0xbc985901	-0.018597128
6	0xbd949475	-0.072548784
7	0xbdfa0d69	-0.12209589
8	0xbc5a2342	-0.01331407
9	0x3b33ceb7	0.0027436444
10	0xbe376973	-0.1791132
11	0xbc9772c7	-0.018487347
12	0x3b968512	0.0045935
13	0x3dd2c5bd	0.10291622
14	0x3d8ddb93	0.06926646
15	0x3d9eb974	0.07750216
16	0xbd120212	-0.035646506
17	0xbc8444f7	-0.016146166
18	0xbd423f01	-0.047423366
19	0x3e6343e6	0.2219387
20	0x3d1ccb85	0.03828003
21	0xbdc10147	-0.09424072
22	0x3d929247	0.071568064
23	0xbcbd3b1f	-0.02309948
24	0x3dbd5d31	0.092462905
25	0xbd8c13dd	-0.06839726
26	0x3dba1ca2	0.090874925
27	0xbcdd3829	-0.027004318
28	0x3dcc4b7b	0.09975334
29	0x3ca8598e	0.020550516
30	0xbb848814	-0.004044542
31	0x3e1bb2f2	0.15204981
32	0x3db4efb3	0.088347815
33	0x3d5c1849	0.053734098
34	0x3deeaca4	0.11654022
35	0x3d2c5a80	0.042078495
36	0x3d2c7f73	0.042113733
37	0xbbeb6135	-0.007183219
38	0x3d840a70	0.06447303
39	0x3c3f692e	0.011682792
40	0xbd97c90a	-0.07411392
41	0x3e20e59d	0.1571259
42	0xbbfb3cdb	-0.0076671666
43	0x3d0555f1	0.032552663
44	0xbe193592	-0.14961842
45	0xbe3f7464	-0.18696743
46	0xbe216f33	-0.15765075
47	0xbd628330	-0.05530089
48	0x3db74e8c	0.089505285
49	0x3d63c7dc	0.055610523
50	0x3de9bc64	0.11412886
51	0xbd9d2520	-0.07673097
52	0xbd70bf0a	-0.05877594
53	0x3d5723db	0.05252443
54	0x3e84bdb0	0.2592597
55	0xbd96ce14	-0.07363525
56	0xbd079518	-0.03310117
57	0x3d873d90	0.06603539
58	0xbcc9b173	-0.024620747
59	0xbd467407	-0.048450496
60	0xbd1575f7	-0.036489453
61	0xbc89053a	-0.016726125
62	0xbdcb90c5	-0.09939722
63	0x3c5d1397	0.01349344
64	0x3be0a5a9	0.0068556857
65	0x3e002165	0.12512739
66	0x3cdf997f	0.027294872
67	0x3d9e410b	0.0772725
68	0x3cf98bd8	0.03046219
69	0xbd3823e7	-0.044956114
70	0x3cc15f42	0.023604993
71	0x3d7cdae4	0.061732188
72	0xbe359318	-0.17731893
73	0x3c449891	0.011999265
74	0xbde9dc5f	-0.114189856
75	0x3d60388f	0.05474144
76	0xbc22d726	-0.009938991
77	0x3cf3408b	0.029693862
78	0x3d784aaf	0.0606181
79	0xbdad1896	-0.08451955
80	0x3d1005b6	0.035161696
81	0x3c32a346	0.010903185
82	0x3c8cdee1	0.01719612
83	0xbd441601	-0.047872547
84	0xbd391caf	-0.04519337
85	0x3d5e09ae	0.05420845
86	0xbd785747	-0.06063011
87	0xbc83ea19	-0.016102837
88	0xbe68c550	-0.22731519
89	0xbdf776d0	-0.120832086
90	0xbca11651	-0.019663962
91	0x3cd4e228	0.025986746
92	0xbd128e7b	-0.03578041
93	0xbda4ec58	-0.080528915
94	0x3dfe7b38	0.12425846
95	0x3d9806a6	0.07423143
96	0x3c9e6a6e	0.019337859
97	0x3d7cb444	0.061695352
98	0x3d20a734	0.039221957
99	0x3c129441	0.008946479
100	0x3da9b11d	0.08285735
101	0x3e368459	0.17823924
102	0x3ddf4fdc	0.10903904
103	0x3e3c77ce	0.18405077
104	0xbd0d2ab4	-0.034464553
105	0x3d62bb60	0.055354476
106	0xbdef3684	-0.1168032
107	0x3d044ec5	0.032301683
108	0xbd32e3c3	-0.04367424
109	0xbd7b6a2f	-0.06138056
110	0xbcb281d1	-0.021790417
111	0xbb8960b0	-0.0041924343
112	0xbd4bd4ab	-0.049763363
113	0xbdb9b24a	-0.09067209
114	0xbdf45788	-0.11930758
115	0xbddafbc5	-0.106925525
116	0xbe24a054	-0.16076785
117	0x3c238f81	0.0099829445
118	0x3da92dec	0.08260712
119	0xbddbce75	-0.10732738
120	0xbdad77ec	-0.08470139
121	0x3c5181b5	0.012787272
122	0x3d4c22a6	0.04983773
123	0xbe52bc44	-0.2057963
124	0x3cb9542f	0.02262315
125	0x3db74324	0.08948353
126	0x3dee947f	0.11649417
127	0x3d1206eb	0.03565113
128	0xbe078a2d	-0.13236304
129	0x3e059d7a	0.13048354
130	0x3e193067	0.1495987
131	0xbe57e111	-0.2108195
132	0xbd909d17	-0.070612125
133	0x3e1684a5	0.14699037
134	0x3d18849f	0.037235852
135	0xbd66bb59	-0.056331012
136	0x3dad7b25	0.084707536
137	0x3c8d6e87	0.017264618
138	0xbdd5a596	-0.10431974
139	0x3d0385ff	0.03211021
140	0x3d0537f9	0.032524083
141	0x3db455ce	0.088054284
142	0xbdbf7ac5	-0.09349588
143	0x3dd2ef33	0.1029953
144	0x3e542fbd	0.20721336
145	0xbe15bef0	-0.14623618
146	0xbc83579f	-0.016032992
147	0xbd58f5fd	-0.052968968
148	0x3d49b712	0.049246855
149	0x3c82ef77	0.015983326
150	0xbde0bbaa	-0.10973294
151	0x3d4a378d	0.049369384
152	0xbcded37e	-0.027200457
153	0xbc98513f	-0.018593429
154	0xbd4c39f8	-0.04985997
155	0x3de12e57	0.10995167
156	0x3c6331ac	0.013866823
157	0xbd0766ac	-0.0330569
158	0x3d1a048a	0.037601985
159	0x3cc84439	0.024446594
160	0x3def409d	0.11682246
161	0xbd3876d1	-0.045035187
162	0xbcd9d6e8	-0.026591733
163	0xbde9acc7	-0.11409908
164	0xbdb1298a	-0.08650501
165	0xbe4d3e07	-0.20043193
166	0x3d034841	0.03205133
167	0xbe0a05b1	-0.13478734
168	0x3c240207	0.010010249
169	0x3e2aff35	0.16698916
170	0xbcfe331e	-0.031030234
171	0xbda8355c	-0.082133025
172	0xbd32b9b8	-0.043634146
173	0xbe099720	-0.13436556
174	0x3d46de4e	0.04855185
175	0x3d48a431	0.04898471
176	0xbe1ecceb	-0.15507858
177	0x3c86afff	0.016441343
178	0x3da0a10d	0.07843218
179	0x3e18e01b	0.1492924
180	0xbce50985	-0.02795864
181	0xbdf7f591	-0.12107385
182	0x3dfe3d43	0.124140285
183	0xbdd520a2	-0.10406615
184	0xbd1cba3a	-0.038263537
185	0xbdb68e69	-0.08913881
186	0xbda4be7b	-0.08044144
187	0x3da003f5	0.07813255
188	0x3de7c422	0.11316706
189	0xbe839126	-0.25696677
190	0x3bfc3ab5	0.007697428
191	0x3d2c0c0d	0.04200368
192	0xbd833c91	-0.064080365
193	0x3cbbadd3	0.022910034
194	0x3d02c25d	0.03192364
195	0xbe1ff093	-0.15619116
196	0x3dcbda5b	0.099537574
197	0x3ca47d0a	0.020079155
198	0x3d062eaa	0.032759346
199	0xbde7bce3	-0.11315324
200	0x3ca8db45	0.020612368
201	0xbd466fb4	-0.048446372
202	0xbae9af5a	-0.0017828748
203	0x3e33ab0c	0.17545718
204	0x3c98a21e	0.018631991
205	0xbe0c2e2c	-0.13689488
206	0x3d81d2a9	0.06339008
207	0x3d46b475	0.04851194
208	0x3d6cb76e	0.05779212
209	0xbdc8bb60	-0.09801364
210	0x3ca6be67	0.020354463
211	0xbe2b58e4	-0.16733128
212	0xbbdb5593	-0.006693551
213	0xbd5e99b5	-0.054345805
214	0xbb4a943e	-0.0030911113
215	0xbe0387bb	-0.12844746
216	0x3c369afd	0.0111453505
217	0x3c9aba29	0.018887596
218	0x3c943d59	0.01809566
219	0x3d4a88e4	0.049446955
220	0xbcf4eabd	-0.029897088
221	0x3de3f020	0.111297846
222	0x3c81541f	0.015787182
223	0x3d6956b2	0.056967445
224	0x3d094cd7	0.033520546
225	0xbdf2135c	-0.11820099
226	0xbd89f3c0	-0.06735945
227	0x3c452148	0.012031861
228	0xbd356b0b	-0.044291537
229	0xbdd52978	-0.104083
230	0x3dd11d42	0.102106586
231	0x3d8f653c	0.07001731
232	0xbd489aea	-0.048975863
233	0x3d3975e0	0.04527843
234	0x3d308d48	0.043103486
235	0xbe021029	-0.12701477
236	0xbca7dd95	-0.0204914
237	0x3e2f1804	0.17099005
238	0xbdf04872	-0.11732568
239	0xbdad0867	-0.08448868
240	0x3d0193b1	0.03163499
241	0xbc51e2af	-0.012810393
242	0xbda008e8	-0.07814199
243	0x3d65180b	0.055931132
244	0x3d56de3b	0.05245803
245	0x3d34d5b1	0.044149105
246	0x3ca60d1a	0.02026992
247	0x3d951489	0.072793074
248	0x3e223931	0.1584213
249	0xbdb81112	-0.08987631
250	0xbcf34dda	-0.029700208
251	0x3cc74883	0.024326568
252	0x3e189337	0.14899908
253	0x3e682485	0.22670181
254	0x3e7c0208	0.2461015
255	0xbd3dacbe	-0.046307318

bottleneck.2.bias f4 [32]
0	0x3ce497b8	0.027904376
1	0x3d3ad51a	0.045613386
2	0x3cfb2700	0.030658245
3	0xbc6920bb	-0.014228995
4	0xbc105b3f	-0.008810817
5	0xbc6c2560	-0.014413208
6	0x3cd4c70e	0.025973823
7	0xbb6e67b8	-0.003637774
8	0x3d11e728	0.03562084
9	0x3c0e7bd6	0.008696517
10	0x3d0991a2	0.033586152
11	0xbd0cab09	-0.0343428
12	0xbd168389	-0.036746535
13	0x3ced0e83	0.028937584
14	0xbc5ebfb4	-0.01359551
15	0x3cdc5c26	0.026899409
16	0x3ce8663c	0.028369062
17	0xbc5fcaaa	-0.013659159
18	0x3d0f522c	0.034990475
19	0xbc4195e0	-0.011815518
20	0x3cee7da1	0.029112639
21	0x3b808162	0.0039216736
22	0xbd3abd5f	-0.045590755
23	0xbbb30e98	-0.005464386
24	0x3ce4eb8c	0.027944349
25	0x3d00f328	0.031481892
26	0xbd06f746	-0.032950662
27	0x3cef2148	0.029190674
28	0x3c0ebf14	0.008712549
29	0xbcb2b042	-0.021812562
30	0x3cd90572	0.026491854
31	0x3ba719ef	0.005099527

up1.weight f4 [32, 16, 2, 2]
0	0x3d96900b	0.07351693
1	0x3d7ce101	0.061738018
2	0xbe87ceef	-0.26525065
3	0xbce41e79	-0.027846562
4	0xbde5bcf3	-0.1121768
5	0x3de96499	0.113961406
6	0x3dabd408	0.08390051
7	0x3e9cda96	0.30635518
8	0xbe3eea9e	-0.18644187
9	0xbda9ae8a	-0.08285244
10	0x3dc6fb68	0.09715921
11	0x3c89d053	0.01682297
12	0xbd9e61e5	-0.07733516
13	0x3d9b9d19	0.075983234
14	0x3de96cfa	0.11397739
15	0xbdbbcd95	-0.09170071
16	0x3b933116	0.0044919355
17	0x3e9991b3	0.29993972
18	0x3da80c2f	0.08205449
19	0xbd9f80cb	-0.07788237
20	0x3d0d3479	0.03447387
21	0xbe269baa	-0.16270319
22	0x3c8bb296	0.01705293
23	0xbdb57b25	-0.088613786
24	0x3e0922fd	0.13392253
25	0x3deaf28d	0.11472044
26	0xbd297685	-0.041372795
27	0xbdbe99e5	-0.09306697
28	0x3c9b8c34	0.018987752
29	0xbe5c0258	-0.21485269
30	0x3e684abc	0.22684759
31	0x3d7f8c84	0.062389866
32	0xbe67f4e3	-0.2265201
33	0x3de62459	0.112374015
34	0xbe626456	-0.22108588
35	0xbdb28949	-0.08717591
36	0x3d4926e0	0.04910934
37	0xbd6d2a71	-0.057901803
38	0x3e3e82ec	0.1860463
39	0x3e4df1e0	0.20111799
40	0xbdf44d33	-0.11928787
41	0x3e42d1cc	0.19025344
42	0x3da7f567	0.08201104
43	0x3e0c2c03	0.13688664
44	0x3bba24e1	0.005680666
45	0x3dd772ac	0.10519919
46	0xbdbe2655	-0.09284655
47	0xbcb80d2b	-0.022467216
48	0x3dc4acd7	0.09603279
49	0xbe81cdd1	-0.25352338
50	0xbcffeee5	-0.031241843
51	0x3da82e0d	0.082119085
52	0x3cf3a4d9	0.029741691
53	0xbd6cb88d	-0.05779319
54	0x3e8eeefe	0.27916712
55	0x3e1c16ae	0.15243027
56	0xbdf1e1e7	-0.118106656
57	0xbe6f8709	-0.23391356
58	0x3d883152	0.06650032
59	0xbd115474	-0.03548093
60	0x3bc4c209	0.006004576
61	0x3e634c03	0.22196965
62	0xbdc48e2c	-0.0959743
63	0x3d42ee4b	0.047590535
64	0xbe59ff1e	-0.21288726
65	0xbe3d5d9a	-0.18492737
66	0x3bc30183	0.005951108
67	0xbe01f309	-0.12690367
68	0xbe7df846	-0.2480174
69	0xbe00d8f1	-0.12582757
70	0xbe4dac6d	-0.20085306
71	0xbae974ef	-0.0017811338
72	0x3e993777	0.2992513
73	0x3dc351d2	0.0953709
74	0xbd3387a5	-0.043830533
75	0xbdbf1fa5	-0.093322076
76	0x3de4d582	0.11173536
77	0xbcf922d6	-0.030412119
78	0x3dcb67ee	0.099319324
79	0xbde64605	-0.11243824
80	0xbe1a0581	-0.15041162
81	0xbde39b7e	-0.11113642
82	0xbd74077d	-0.059577454
83	0xbe774a18	-0.24149358
84	0xbcadee61	-0.021231832
85	0xbca2ed8c	-0.019888662
86	0x3d2bcc3f	0.04194283
87	0x3d7b408b	0.06134085
88	0xbdfc6239	-0.12323422
89	0xbda0f877	-0.07859891
90	0xbe231087	-0.15924273
91	0xbeb08793	-0.34478435
92	0x3d9f1567	0.07767754
93	0x3dcf8e66	0.10134582
94	0xbe400974	-0.18753606
95	0xbda0ce0c	-0.078518
96	0xbe4e0ec3	-0.20122819
97	0xbd26b1b4	-0.040696815
98	0xbe80318e	-0.25037807
99	0x3e080e2c	0.13286656
100	0x3d9ab9a5	0.0755494
101	0x3e0c0bde	0.13676402
102	0x3dc52ae9	0.09627325
103	0x3ca9ca58	0.020726368
104	0xbd9c569e	-0.076337084
105	0xbe49b209	-0.19696821
106	0xbac16981	-0.0014756174
107	0x3d8b9970	0.06816375
108	0xbe0a24d1	-0.13490607
109	0xbc078299	-0.008270883
110	0x3e6aca73	0.22928791
111	0x3ba8073a	0.0051278146
112	0xbda8b846	-0.08238272
113	0x3dc60f95	0.09670941
114	0x3d64882c	0.055793926
115	0x3dca8760	0.09889102
116	0x3de2c3af	0.1107248
117	0x3cc4785b	0.023983171
118	0x3e521c47	0.205186
119	0xbd8342bb	-0.06409212
120	0x3d4cae2a	0.049970783
121	0x3e319229	0.17340912
122	0xbd754593	-0.059880804
123	0xbdcc0cd1	-0.09963382
124	0xbe3d4a40	-0.18485355
125	0xbdf861d5	-0.12128035
126	0xbe71b2ec	-0.2360341
127	0xbd4e956b	-0.050435465
128	0xbd00ef9f	-0.03147852
129	0xbd82e34c	-0.0639101
130	0xbdf7a3e6	-0.12091808
131	0x3e820d2b	0.2540067
132	0x37e1f513	2.6936212e-05
133	0xbd21834b	-0.03943185
134	0xbe181fac	-0.14855832
135	0xbd89a60d	-0.06721125
136	0x3d37d2bf	0.044878718
137	0x3d8e5fe2	0.06951882
138	0x3e5e892a	0.21732011
139	0x3e7f002b	0.24902408
140	0x3df0713e	0.11740349
141	0x3d9b1d49	0.07573945
142	0x3ea31007	0.31848165
143	0xbcc5fe6e	-0.024169173
144	0xbd55b31e	-0.052172773
145	0xbc9dc88a	-0.019260664
146	0xbe5b9b1e	-0.21445891
147	0xbe4e7686	-0.201624
148	0xbc8314a5	-0.016001055
149	0x3d11c9a0	0.035592675
150	0xbd97689f	-0.07393002
151	0xbd03a570	-0.032140195
152	0x3d2de345	0.04245307
153	0x3e0a7b2f	0.13523553
154	0xbd1d34fa	-0.0383806
155	0xbe1735c5	-0.14766605
156	0xbed463a6	-0.41482276
157	0xbd3bb6bc	-0.045828566
158	0xbda2ad48	-0.07943207
159	0xbcaffdb4	-0.02148328
160	0x3e432a2e	0.19059059
161	0xbc486416	-0.012230894
162	0xbe1f3fbb	-0.15551655
163	0x3eb22766	0.34795684
164	0x3dd501f3	0.104007624
165	0x3de93e65	0.11388854
166	0x3e483708	0.19552243
167	0xbd79c86f	-0.060982164
168	0x3d0de716	0.03464421
169	0xbb9873b8	-0.0046524666
170	0x3d02208d	0.031769324
171	0xbd86f420	-0.06589532
172	0x3d415ed9	0.047209594
173	0xbda2bfd1	-0.07946742
174	0x3dbd212c	0.09234843
175	0xbdc63fd0	-0.0968014
176	0xbcb45de4	-0.022017427
177	0x3cd0407d	0.025421375
178	0xbd3be595	-0.045873243
179	0x3e825842	0.2545796
180	0xbd051646	-0.032491945
181	0xbc817c5b	-0.015806368
182	0x3a241bdb	0.00062602543
183	0x3e8dfe2b	0.27732977
184	0xbdcbe362	-0.09955479
185	0x3e0e4996	0.13895258
186	0xbd80397e	-0.06260966
187	0xbe1d92c1	-0.15388013
188	0x3ddddb8c	0.10832891
189	0xbde95ed1	-0.11395038
190	0xbd261855	-0.04055055
191	0xbe19881f	-0.14993332
192	0xbdb91dab	-0.09038862
193	0x3d455c20	0.04818356
194	0x3d12da7b	0.03585289
195	0x3dd3c755	0.10340754
196	0x3dde4b6a	0.10854228
197	0x3e0fd0ad	0.14044447
198	0xbe8e37a1	-0.27776816
199	0x3dac2a60	0.0840652
200	0xbe1919fa	-0.14951316
201	0xbe3978d8	-0.18112504
202	0xbd560108	-0.052247077
203	0x3dc12b42	0.09432079
204	0xbe96c94c	-0.29450452
205	0xbb66b85b	-0.00352051
206	0x3d87321a	0.06601353
207	0x3e272a67	0.16324769
208	0x3da60d7b	0.0810804
209	0xbdddedbf	-0.10836362
210	0x3e0464b5	0.12929042
211	0xbd6b86c6	-0.057501577
212	0xbc485922	-0.012228282
213	0xbc75709a	-0.01498046
214	0x3da34ac8	0.07973248
215	0x3dc36e9f	0.09542584
216	0xbcff7b8c	-0.031186841
217	0xbbfb2443	-0.007664235
218	0x3eb89741	0.36052898
219	0x3cd58d33	0.026068306
220	0xbcda15c5	-0.026621709
221	0x3dff11f1	0.12454594
222	0x3cb2a1bb	0.021805635
223	0xbd7a8a4c	-0.061167046
224	0xbba2aa52	-0.0049641514
225	0xbc993b8d	-0.018705154
226	0x3ce85113	0.028358972
227	0xbd7353b1	-0.059405986
228	0x3db5dec2	0.08880378
229	0xbe53551b	-0.20637934
230	0x3d692f3a	0.056929804
231	0x3e6062b4	0.21912652
232	0xbdcc047f	-0.09961795
233	0xbd13d4a3	-0.036091458
234	0x3e1008fa	0.14065924
235	0xbe497c12	-0.19676235
236	0x3cf80c82	0.030279402
237	0xbe23119e	-0.15924689
238	0x3d9b33f3	0.07578268
239	0x3da28962	0.0793636
240	0xbcc6defc	-0.02427625
241	0x3ddc8e3e	0.10769318
242	0x3df802ee	0.12109934
243	0xbe079f4d	-0.13244362
244	0x3e02f790	0.1278975
245	0xbcd988c7	-0.026554478
246	0x3e06ce1a	0.13164559
247	0xbe0e7f94	-0.13915855
248	0x3e7717ba	0.24130145
249	0xbd6ffa20	-0.058588147
250	0x3dfad275	0.12247173
251	0xbd68605d	-0.056732524
252	0xbe207c57	-0.15672432
253	0x3da66d54	0.081263214
254	0x3dac6d5a	0.08419295
255	0x3ceb2c06	0.028707515

up1.bias f4 [16]
0	0x3ca04931	0.01956615
1	0xbd06c039	-0.03289816
2	0x3cdd1cd5	0.026991287
3	0xbd03adac	-0.03214805
4	0xbcd71701	-0.026256086
5	0xbcf370f7	-0.029716952
6	0xbcf616e1	-0.030040206
7	0xbceac40d	-0.028657937
8	0xbcc1845d	-0.023622686
9	0x3cc502b9	0.02404915
10	0xbc9ed01d	-0.019386346
11	0x3cd53ff2	0.026031468
12	0x3ce7ebb4	0.028310634
13	0x3cd4e02a	0.025985796
14	0xbcd47758	-0.025935814
15	0xbccfa35f	-0.025346456
