sampling-based_planning_framework/checkpoints/checkpoint_epoch_26.pth (torch, 385842 bytes, 75 tensors)

enc1.0.weight f4 [8, 1, 3, 3]
-0.10082063 0.1082641 0.042118818 0.1405404 -0.11781046 0.08069597 0.03754379 -0.17767307
-0.06966649 0.16886215 -0.14444683 0.050107136 0.2078175 -0.059342973 0.13134342 -0.033851657
0.13169055 -0.027837053 0.1686022 -0.1990856 -0.0934481 0.15203439 -0.061712485 -0.108756706
-0.33448815 -0.12882297 -0.06851613 0.04296696 0.020757329 -0.12406826 0.04198898 0.07403754
0.26213259 -0.011871008 0.002975267 0.0029036887 -0.036735944 0.019727198 -0.048218854 -0.22177581
0.19102365 -0.026243927 -0.052280392 0.107003585 -0.27176806 0.21669446 0.23277958 -0.063261285
0.35899174 -0.03461142 -0.10900756 0.0882992 -0.34189823 -0.24453951 0.02615327 0.010668693
0.07046486 0.11379901 -0.07640862 0.47859442 -0.024891464 0.0937259 0.057538554 0.098770976
-0.35383466 0.06656439 -0.12751146 -0.05274297 0.2232852 0.053922094 -0.12155879 0.02584036
00000000: 0c7b cebd 92b9 dd3d c884 2c3d d3e9 0f3e
00000010: 9c46 f1bd ee43 a53d 84c7 193d eeef 35be
00000020: 4ead 8ebd 33ea 2c3e dfe9 13be 243d 4d3d
00000030: 1cce 543e 9e11 73bd e47e 063e 09a8 0abd
00000040: e3d9 063e 880a e4bc 0ea6 2c3e 18dd 4bbe
00000050: b861 bfbd e7ae 1b3e 3bc6 7cbd d6bb debd
00000060: 0842 abbe 2bea 03be 2f52 8cbd 20fe 2f3d
00000070: 460b aa3c 8017 febd a3fc 2b3d fea0 973d
00000080: 3e36 863e 9e7e 42bc b2fc 423b d04b 3e3b
00000090: 6e78 16bd ef9a a13c 2281 45bd 3319 63be
000000a0: b49b 433e 81fd d6bc f723 56bd b224 db3d
000000b0: 2f25 8bbe 27e5 5d3e c55d 6e3e 228f 81bd
000000c0: c4cd b73e b4c4 0dbd 5b3f dfbd 36d6 b43d
000000d0: 490d afbe 9168 7abe 623f d63c becb 2e3c
000000e0: e14f 903d 750f e93d 1f7c 9cbd 540a f53e
000000f0: 2fe9 cbbc 5df3 bf3d 8cad 6b3d 7048 ca3d
00000100: d129 b5be e952 883d 5d92 02be 0309 58bd
00000110: e0a4 643e 6add 5c3d d1f3 f8bd 2aaf d33c

enc1.0.bias f4 [8]
0.032090206 0.006235402 0.030311348 -0.0030268182 0.02824593 0.0007151998 0.0006893037 -0.00020484842
00000000: 0571 033d 5852 cc3b 814f f83c 955d 46bb
00000010: 0264 e73c 3f7c 3b3a 63b2 343a 94cc 56b9

enc1.2.weight f4 [8, 8, 3, 3]
0.11133864 0.05513135 -0.06314465 -0.2571461 0.47440222 0.12298006 -0.065934725 0.023408297
-0.029177709 -0.10357059 -0.13826996 -0.12718332 -0.11796028 -0.13730508 0.16071014 0.16271263
0.14081243 -0.24141131 0.06707794 0.19552448 0.1477609 -0.13198501 0.11059544 -0.12705612
-0.222683 0.09130207 -0.012905507 0.0005152303 -0.087072216 -0.21470128 0.13292271 -0.025537876
-0.00640573 -0.07106076 -0.016385475 -0.22172537 -0.051258046 0.029347697 0.1573837 -0.20265327
0.08969102 0.07514063 0.051617425 -0.029666234 0.1699001 0.04911494 -0.32909176 0.04639688
-0.047824167 0.27549684 -0.30157378 0.1089504 -0.20404372 -0.15857847 -0.11102675 0.10364376
-0.015836021 0.08457735 -0.090932354 -0.03620216 0.031638823 -0.44869655 0.007839428 -0.0675631
-0.06322396 0.25141016 -0.054856643 0.05645185 0.046420597 0.008568681 -0.06426484 -0.07205723
-0.19737773 -0.0057245037 0.038022626 0.14737295 0.15944262 0.07538276 -0.16290055 0.17426004
-0.21309356 -0.056852013 0.23774818 -0.12442811 0.16980007 -0.16285023 0.10752179 0.023017248
-0.36653662 0.145123 -0.006954794 -0.28146878 0.2387351 -0.024715403 0.15361911 0.079946294
0.046359155 0.15997872 -0.13583602 0.095544964 -0.012349971 0.23528767 0.34152523 -0.098214805
-0.0062311846 0.0061929394 0.48153526 0.12848616 -0.2529284 0.057673056 -0.030165346 -0.33790016
0.13153154 -0.15706567 -0.012385521 0.14317282 0.38339102 -0.07674473 -0.27847093 -0.0007404782
0.07651198 0.19471563 0.11318063 0.024651818 -0.096163586 -0.0212311 0.24448048 -0.038974844
-0.28142345 0.27924857 0.17059882 -0.12590066 0.3975338 0.16365348 0.05819555 0.038765907
0.29135585 -0.057416737 0.24637221 0.19821554 0.10090762 0.16099522 -0.124154985 0.056623373
0.13532093 0.16350266 0.0038904138 0.16695404 0.09406896 -0.108899735 0.10107543 0.52357167
-0.17031148 -0.3595898 -0.17550322 0.057759143 0.25234467 -0.0812293 -0.05471203 0.14834848
-0.40304807 -0.16490553 -0.24609421 -0.11449125 -0.33182997 0.08336141 0.06082418 0.24777034
0.08249078 0.18293864 -0.077233836 0.24376842 -0.079005525 -0.015028599 -0.056536738 0.0048984773
0.0061945957 -0.15630314 -0.14837235 -0.16744126 0.13813123 -0.06831698 0.32857752 -0.20826499
-0.034384195 0.1507241 -0.13277882 0.0022229163 0.017094797 -0.1365702 -0.28533116 0.3085737
0.11915722 -0.29503435 -0.27353805 0.07897857 -0.24982834 0.041752506 0.08573756 -0.077944994
-0.1709486 -0.2788651 0.291199 0.043547973 -0.17720617 -0.082686745 0.047914244 0.04958842
-0.11281012 -0.01972486 0.29560488 -0.14301549 -0.15990345 0.056411356 0.13101111 0.026771948
0.023131758 0.2642952 -0.014066201 -0.04685793 0.04047465 -0.20349535 0.17324404 -0.0017616182
0.031121997 -0.28329682 -0.3726055 -0.2116214 -0.007259395 -0.1819354 -0.101498656 0.19687948
0.16956511 0.06094141 -0.032020953 0.052581724 0.06659993 -0.08289253 -0.016975919 0.10568645
0.010472398 0.2034743 -0.19791165 -0.038909767 0.0050009317 0.11081668 -0.12810208 -0.06606406
-0.04929659 -0.020439895 0.13687487 0.10236116 0.37988013 -0.051770292 -0.104951516 -0.19982608
00000000: 8305 e43d 69d1 613d fb51 81bd a7a8 83be
00000010: d9e4 f23e f8dc fb3d c908 87bd c2c2 bf3c
00000020: 1706 efbc d11c d4bd a496 0dbe 583c 02be
00000030: 2995 f1bd b499 0cbe 3391 243e 249e 263e
00000040: 2231 103e 8734 77be 2960 893d 9237 483e
00000050: a24e 173e 1427 07be dd7f e23d 001b 02be
00000060: 0307 64be 94fc ba3d 9f71 53bc 8510 073a
00000070: eb52 b2bd a7da 5bbe e41c 083e cf34 d1bc
00000080: 28e7 d1bb 4e88 91bd d53a 86bc fa0b 63be
00000090: f5f3 51bd 956a f03c 3129 213e 5784 4fbe
000000a0: edaf b73d 55e3 993d cb6c 533d 9a06 f3bc
000000b0: 4bfa 2d3e bf2c 493d b77e a8be a80a 3e3d
000000c0: 46e3 43bd ec0d 8d3e e167 9abe 6321 df3d
000000d0: d6f0 50be 6562 22be fe61 e3bd 2e43 d43d
000000e0: 8bba 81bc e436 ad3d be3a babd b748 14bd
000000f0: b697 013d 8ebb e5be f270 003c 865e 8abd
00000100: 907b 81bd d5b8 803e 5cb1 60bd 0e3a 673d
00000110: 8623 3e3d a763 0c3c 499d 83bd be92 93bd
00000120: 631d 4abe 9e94 bbbb 9dbd 1b3d efe8 163e
00000130: ed44 233e 4762 9a3d 67cf 26be 3971 323e
00000140: 3335 5abe a8dd 68bd 4274 733e 2ad4 febd
00000150: 12e0 2d3e 36c2 26be 6234 dc3d ab8e bc3c
00000160: b0aa bbbe 209b 143e 0ae5 e3bb ad1c 90be
00000170: f976 743e f577 cabc 544e 1d3e e2ba a33d
00000180: 19e3 3d3d 76d1 233e 9918 0bbe 14ad c33d
00000190: 8857 4abc 40ef 703e 65dc ae3e d824 c9bd
000001a0: f72e ccbb 24ee ca3b ca8b f63e e091 033e
000001b0: d57f 81be 953a 6c3d 511d f7bc 4001 adbe
000001c0: 34b0 063e d3d5 20be a4ec 4abc e59b 123e
000001d0: d44b c43e 572c 9dbd be93 8ebe a71c 42ba
000001e0: 50b2 9c3d 8963 473e 3fcb e73d 9cf2 c93c
000001f0: 6af1 c4bd d8ec adbc 1759 7a3e 16a4 1fbd
00000200: bc16 90be abf9 8e3e 75b1 2e3e 1aec 00be
00000210: 8d89 cb3e c794 273e 755e 6e3d 00c9 1e3d
00000220: 982c 953e d02d 6bbd ff48 7c3e 04f9 4a3e
00000230: a7a8 ce3d eedb 243e f844 febd e9ed 673d
00000240: 9291 0a3e 3e6d 273e 50f6 7e3b 00f6 2a3e
00000250: 3aa7 c03d d306 dfbd a300 cf3d cb08 063f
00000260: 2266 2ebe 271c b8be 1eb7 33be da94 6c3d
00000270: 5233 813e 8c5b a6bd b919 60bd aae8 173e
00000280: 515c cebe ffdc 28be 1f00 7cbe 637a eabd
00000290: 9ee5 a9be 63b9 aa3d c622 793d 82b7 7d3e
000002a0: edf0 a83d 4454 3b3e c62c 9ebd 6e9e 793e
000002b0: a6cd a1bd 833a 76bc 1193 67bd 6883 a03b
000002c0: 09fc ca3b ee0d 20be ecee 17be b975 2bbe
000002d0: 4672 0d3e c6e9 8bbd 503b a83e 6b43 55be
000002e0: 71d6 0cbd 6b57 1a3e 2cf7 07be 59ae 113b
000002f0: 630a 8c3c 0fd9 0bbe ed16 92be 5ffd 9d3e
00000300: b308 f43d be0e 97be 2e0d 8cbe 84bf a13d
00000310: 00d3 7fbe ad04 2b3d 2d97 af3d a0a1 9fbd
00000320: 260d 2fbe 68c7 8ebe 0918 953e 5c5f 323d
00000330: 8975 35be ab57 a9bd ba41 443d 3a1d 4b3d
00000340: fe08 e7bd 0896 a1bc 8659 973e a772 12be
00000350: bbbd 23be 980f 673d c727 063e d850 db3c
00000360: d07e bd3c b351 873e ec75 66bc 1aee 3fbd
00000370: bfc8 253d 1661 50be e366 313e 19e6 e6ba
00000380: 8ff3 fe3c 480c 91be 26c6 bebe 48b3 58be
00000390: 38e0 edbb 464d 3abe 87de cfbd c69a 493e
000003a0: 7aa2 2d3e b39d 793d 6728 03bd ef5f 573d
000003b0: 8b65 883d 8fc3 a9bd 1511 8bbc 2372 d83d
000003c0: 6c94 2b3c 915b 503e 5aa9 4abe d95f 1fbd
000003d0: dbde a33b dbf3 e23d 312d 03be 984c 87bd
000003e0: 39eb 49bd 9171 a7bc ed28 0c3e baa2 d13d
000003f0: a67f c23e 160d 54bd d2f0 d6bd 359f 4cbe

enc1.2.bias f4 [8]
-0.025922172 0.0027354856 0.03402623 -0.008776137 0.00050373474 0.031487152 0.027462289 0.0027555556
00000000: bc5a d4bc d545 333b 175f 0b3d c9c9 0fbc
00000010: 110d 043a acf8 003d 98f8 e03c 8d96 343b

enc2.0.weight f4 [16, 8, 3, 3]
0.011210067 -0.04842356 -0.009861355 -0.1174029 -0.22105512 0.09498047 0.059320774 -0.0942445
0.26626143 -0.008910318 0.046028573 -0.03246212 -0.21277577 0.061275158 -0.036091093 -0.07685475
-0.048714697 0.18031678 -0.02167706 0.11109423 -0.19590083 -0.054436702 -0.02655357 -0.14621694
0.09042503 0.2750547 0.103255264 -0.050575085 0.11068772 0.118101574 -0.017442543 -0.15659206
-0.01291312 -0.18041739 -0.15909348 -0.08373133 0.16223781 -0.055678315 -0.18429111 -0.026563844
0.025693314 -0.0446806 -0.13307561 -0.12094752 0.06640442 0.05133389 0.049284525 0.13833718
0.2186367 -0.03778602 0.1430822 0.17555396 -0.04292312 0.11161722 0.18548629 -0.055870757
-0.30272263 -0.17723566 0.2030684 -0.06322164 0.089913286 0.21260819 0.19000438 0.0035532785
-0.1821681 0.022098972 -0.017523404 -0.007818388 0.12060153 -0.1010205 -0.16280523 0.003620269
0.02106985 0.05746663 -0.01608858 -0.031091629 -0.041681435 -0.11782305 -0.08612446 0.00034144256
0.11644487 -0.049470842 0.0024350826 0.3062902 0.008733691 -0.09627521 0.025205437 -0.0625396
-0.013379374 -0.08659831 0.033036258 0.021108286 0.14920263 0.09427965 0.03223807 0.068494156
-0.21177714 0.11357459 0.0152477585 -0.029139765 -0.08580774 0.097781874 -0.19758236 0.059720747
0.010666134 0.10794794 -0.24295844 0.029940592 0.1543965 -0.060433097 -0.0276108 -0.019956606
0.08395463 0.06433746 0.16612199 0.23189509 0.014825237 -0.05555906 -0.08366951 0.18665601
0.18068402 0.1630473 0.071664 -0.13082616 0.0959515 0.12951149 0.21182135 0.009513608
0.0772682 0.041987605 0.20134896 -0.12188267 0.014033754 -0.03825464 0.20018877 -0.2518228
0.15229142 -0.20223854 -0.15507029 0.044420775 -0.005164141 0.051892124 0.0020536056 -0.068939105
-0.070531055 -0.014593358 -0.25952995 -0.032704644 0.017597197 0.15520366 0.22041474 0.00019544527
-0.20837423 -0.12622994 -0.11073769 -0.19991906 0.09241387 0.21147284 -0.049148284 0.012359655
-0.077971175 -0.18516266 0.13872327 0.048504334 -0.19295172 -0.085243456 0.11692136 0.14770037
-0.044512566 -0.1310697 0.077336006 0.16334064 -0.024280665 0.12989244 0.14603068 -0.0064457604
-0.04277855 0.16813108 -0.040147386 -0.10035668 0.017735643 0.083499596 0.10013273 0.22086655
0.060898684 0.35597727 0.29500985 0.17508489 0.11542518 -0.10410095 0.15831943 -0.15686497
-0.09352935 -0.07738672 0.16928011 0.216683 0.058296382 -0.1057537 0.050708435 0.07167655
-0.022245456 0.05204484 0.15407749 0.061546236 0.1128776 0.11281318 0.025756046 0.16916174
-0.1543062 0.032018542 0.1751104 -0.020763656 0.25428253 -0.1897138 0.028475031 -0.105402865
0.0016907717 0.06913854 0.1842301 -0.02558547 0.10331654 0.29555854 0.005960118 -0.044869136
-0.085232414 -0.28185946 -0.0721743 0.020979768 0.0112793865 -0.12767693 0.034824513 0.11173412
-0.002155876 0.082360186 0.086496815 -0.064688765 -0.13937892 -0.08177991 0.12604688 -0.13907978
0.036046393 0.029152023 0.019402709 -0.0054263854 -0.11338845 0.24178492 0.01184892 -0.045871083
0.07047266 -0.112922154 0.20337583 0.10125476 -0.23993799 -0.21346702 0.0349471 0.030205349
00000000: 6eaa 373c c857 46bd 8591 21bc ee70 f0bd
00000010: 465c 62be 1f85 c23d 57fa 723d 4303 c1bd
00000020: 6b53 883e 95fc 11bc 7588 3c3d 00f7 04bd
00000030: e4e1 59be a9fb 7a3d 41d4 13bd 0666 9dbd
00000040: 1089 47bd f6a4 383e 1794 b1bc 5f85 e33d
00000050: 3a9a 48be 05f9 5ebd df86 d9bc e5b9 15be
00000060: c230 b93d f8d3 8c3e 7f77 d33d d227 4fbd
00000070: 3eb0 e23d 3ddf f13d aae3 8ebc ab59 20be
00000080: 8d91 53bc 56bf 38be 67e9 22be 557b abbd
00000090: ab21 263e f20e 64bd cfb6 3cbe 6b9c d9bc
000000a0: c97a d23c 0103 37bd f944 08be 55b3 f7bd
000000b0: 0aff 873d 7c43 523d 92de 493d 43a8 0d3e
000000c0: 4de2 5f3e 84c5 1abd 2484 123e 6bc4 333e
000000d0: 27d0 2fbd 9297 e43d 1ef0 3d3e bcd8 64bd
000000e0: 76fe 9abe 447d 35be 2af1 4f3e 597a 81bd
000000f0: 7524 b83d f6b5 593e 8290 423e 1fde 683b
00000100: 468a 3abe e708 b53c 3e8d 8fbc b218 00bc
00000110: effd f63d d6e3 cebd 6ab6 26be 0942 6d3b
00000120: ae9a ac3c 2162 6b3d 33cc 83bc dfb3 febc
00000130: 27ba 2abd 364d f1bd 0562 b0bd a503 b339
00000140: a67a ee3d f0a1 4abd e895 1f3b 12d2 9c3e
00000150: c117 0f3c f02b c5bd a27b ce3c c314 80bd
00000160: 2935 5bbc 745a b1bd 0751 073d 49eb ac3c
00000170: 93c8 183e b015 c13d 110c 043d aa46 8c3d
00000180: 1bdc 58be cb99 e83d bcd1 793c 84b6 eebc
00000190: f8bb afbd dd41 c83d 0853 4abe be9d 743d
000001a0: 02c1 2e3c cf13 dd3d 19ca 78be f945 f53c
000001b0: 1e1a 1e3e b288 77bd 0b30 e2bc 097c a3bc
000001c0: 68f0 ab3d 5cc3 833d e21b 2a3e e875 6d3e
000001d0: 8de5 723c e691 63bd ec5a abbd c122 3f3e
000001e0: 3b05 393e dff5 263e 93c4 923d 4bf7 05be
000001f0: 3882 c43d a99e 043e b2e7 583e f7de 1b3c
00000200: ca3e 9e3d 32fb 2b3d 6c2e 4e3e 9f9d f9bd
00000210: d5ed 653c e6b0 1cbd 49fe 4c3e ebee 80be
00000220: 48f2 1b3e 9f17 4fbe bfca 1ebe 8ff2 353d
00000230: f437 a9bb d68c 543d c995 063b f22f 8dbd
00000240: 9672 90bd fb18 6fbc 1ce1 84be 4ef5 05bd
00000250: ff27 903c b5ed 1e3e 67b4 613e 71f0 4c39
00000260: 0e60 55be 6c42 01be 71ca e2bd 95b7 4cbe
00000270: 7c43 bd3d 568c 583e b64f 49bd 2780 4a3c
00000280: 5aaf 9fbd 489b 3dbe 790d 0e3e 7bac 463d
00000290: 2395 45be 1f94 aebd 7774 ef3d c43e 173e
000002a0: cf52 36bd 2337 06be 5762 9e3d c542 273e
000002b0: 3fe8 c6bc 8602 053e 1189 153e f536 d3bb
000002c0: 9038 2fbd 8e2a 2c3e 9671 24bd ce87 cdbd
000002d0: 574a 913c d601 ab3d 6412 cd3d d72a 623e
000002e0: e670 793d a742 b63e 880b 973e 7449 333e
000002f0: 0964 ec3d e132 d5bd 7d1e 223e 36a1 20be
00000300: 518c bfbd ee7c 9ebd c457 2d3e 26e2 5d3e
00000310: 30c8 6e3d 6595 d8bd a6b3 4f3d 28cb 923d
00000320: 1a3c b6bc f82c 553d 7dc6 1d3e e817 7c3d
00000330: 5f2c e73d 990a e73d 58fe d23c bc38 2d3e
00000340: 7202 1ebe e025 033d 2450 333e 8b18 aabc
00000350: 5231 823e 5644 42be 7844 e93c 75dd d7bd
00000360: e29c dd3a 8298 8d3d d1a6 3c3e 9f98 d1bc
00000370: 9f97 d33d 7353 973e 184d c33b b3c8 37bd
00000380: 558e aebd e24f 90be 1fd0 93bd c3dd ab3c
00000390: 2dcd 383c bebd 02be 26a4 0e3d dcd4 e43d
000003a0: 9949 0dbb 75ac a83d 3e25 b13d 8b7b 84bd
000003b0: 59b9 0ebe 3a7c a7bd 6f12 013e ee6a 0ebe
000003c0: 62a5 133d 39d0 ee3c 6ef2 9e3c d2cf b1bb
000003d0: 3438 e8bd 7796 773e f921 423c 51e3 3bbd
000003e0: f853 903d bb43 e7bd c141 503e a85e cf3d
000003f0: 4eb2 75be 1997 5abe b124 0f3d 3571 f73c

enc2.0.bias f4 [16]
0.029823054 0.034082115 -0.017047945 0.038889855 0.0069040577 0.031148255 -0.021057675 -0.024556853
0.026636664 0.013256599 0.031303518 0.03393914 0.030015614 0.030419054 0.014745757 0.02853348
00000000: 7a4f f43c b099 0b3d 22a8 8bbc f84a 1f3d
00000010: 6f3b e23b a02a ff3c 2581 acbc 742b c9bc
00000020: 2235 da3c 3532 593c 1e38 003d c503 0b3d
00000030: 4ee3 f53c 6131 f93c 3098 713c 0bbf e93c

enc2.2.weight f4 [16, 16, 3, 3]
-0.0015107307 0.047941305 -0.017388878 -0.099722326 0.16022252 0.049815197 -0.051575776 -0.015559307
0.021753103 -0.12674062 0.23102836 -0.109035484 -0.17649424 0.04606754 0.19242783 -0.23421293
-0.029755594 -0.023407316 -0.096423164 -0.0641524 -0.13955216 -0.08074702 0.31608048 0.042240344
-0.030071301 0.14082077 -0.09673963 0.19721985 0.15196559 -0.030489748 0.15495795 0.16599917
-0.1075 -0.06977395 -0.304798 0.17431031 -0.037456743 -0.063345715 0.12779224 -0.18317714
-0.12502854 0.23126544 -0.096558645 -0.3976572 -0.0864715 0.015713017 -0.028759757 0.1272839
0.019510815 -0.0051280227 -0.11171986 -0.087793946 -0.25647143 -0.07842264 0.018200058 -0.037598893
-0.095950365 0.12518266 -0.13312641 0.17270446 0.049323384 0.11354254 0.04673365 0.0601028
0.101787664 0.07736868 -0.13414508 -0.020185817 -0.14599018 0.11302563 0.16042857 -0.008111753
0.2545126 0.010840683 0.1763678 -0.08911319 0.061456364 0.21927574 -0.009596219 -0.21716276
0.18524192 -0.2156989 -0.049003977 -0.22919837 0.14641608 0.14520028 0.09328685 -0.019329257
-0.20469357 0.18902408 -0.0043601757 -0.14891852 0.10594863 -0.064943224 0.12252343 0.038734425
-0.25206152 0.054168187 0.18083632 0.11276095 -0.049333688 -0.060837496 -0.055726476 0.15136628
0.09403493 0.03561297 -0.024792481 0.058250323 -0.084916584 0.02057964 0.20499018 -0.20882604
-0.05877231 -0.074449405 0.011418876 0.14655146 0.14844395 0.02135227 0.08472718 -0.1414159
0.14402215 0.14365882 -0.055354536 0.09756081 0.017778913 -0.055952854 0.15760385 -0.0733389
-0.10572237 -0.022734916 -0.07970409 0.049113866 -0.23757671 0.056691386 -0.09495077 -0.13242766
0.0332012 0.14817551 -0.124747835 0.13197486 -0.051513646 0.053828716 -0.05867361 0.087359786
0.024290912 0.07009244 0.10588922 -0.03805515 0.102574 0.14301872 0.175332 -0.09967848
0.17464784 0.17221865 0.09098237 0.0033239392 -0.28664786 0.11696603 -0.11261312 -0.0045143375
-0.08106248 -0.126211 0.16250058 0.078534484 0.13069023 -0.2021011 -0.07070716 -0.04318353
-0.055369694 -0.05183908 -0.06700349 -0.1951985 -0.12900266 -0.07986669 0.12540689 -0.014324002
-0.21372384 -0.08051505 -0.053379312 0.06657323 -0.013375078 0.053554215 0.10529051 0.01910151
0.07894091 0.21519369 0.17608139 0.1369162 0.017402774 -0.017695064 0.17757805 -0.09472982
-0.10276373 0.025196327 0.08038692 0.20311868 0.2640659 -0.0083778575 -0.06235533 -0.053592812
-0.051680725 -0.1438161 0.11622981 0.12918131 -0.09770617 -0.080957904 0.18123846 0.10303772
-0.13541803 0.13342895 -0.0029826402 0.021902759 -0.031440455 0.08087489 -0.08334375 -0.014340124
0.08196001 0.16252671 -0.17377286 0.015807979 0.3121735 0.14039977 -0.071760364 0.018794078
-0.02617241 0.25982967 -0.14140368 -0.06004071 -0.060803033 0.023763692 -0.036452405 -0.09003843
-0.33877137 -0.08820595 -0.02192316 -0.20746195 0.057457846 0.15530145 0.038999192 -0.2895498
-0.17712753 0.08604447 -0.045722276 0.08276663 -0.1707169 -0.082824424 0.06392161 -0.15231164
0.28005847 0.11521004 0.36587244 -0.0698027 0.022284199 0.024464216 -0.02488214 0.13606179
00000000: b603 c6ba 1a5e 443d 1f73 8ebc 383b ccbd
00000010: 5f11 243e 050b 4c3d 1f41 53bd 77ec 7ebc
00000020: 9033 b23c 4bc8 01be b392 6c3e ff4d dfbd
00000030: e8ba 34be 51b1 3c3d cd0b 453e 84d5 6fbe
00000040: 01c2 f3bc b3c0 bfbc 8279 c5bd 5562 83bd
00000050: c3e6 0ebe b25e a5bd 4dd5 a13e 3604 2d3d
00000060: 1758 f6bc 5233 103e 6d1f c6bd 00f4 493e
00000070: de9c 1b3e a3c5 f9bc 4cad 1e3e b0fb 293e
00000080: f628 dcbd a5e5 8ebd 7c0e 9cbe 677e 323e
00000090: 3e6c 19bd 66bb 81bd f8db 023e ca92 3bbe
000000a0: 7b07 00be d9d0 6c3e 8ac0 c5bd b999 cbbe
000000b0: f817 b1bd 96b8 803c 9599 ebbc b656 023e
000000c0: 25d5 9f3c f908 a8bb 62cd e4bd 50cd b3bd
000000d0: 3950 83be 0d9c a0bd 4a18 953c 4c01 1abd
000000e0: a081 c4bd e22f 003e 4a52 08be 70d9 303e
000000f0: 5107 4a3d fe88 e83d c96b 3f3d 5b2e 763d
00000100: 0d76 d03d 7873 9e3d 545d 09be ba5c a5bc
00000110: 737e 15be fb79 e73d 6347 243e 28e7 04bc
00000120: 7a4f 823e 1f9d 313c c399 343e fa80 b6bd
00000130: abb9 7b3d d289 603e 7639 1dbc ea5f 5ebe
00000140: 0fb0 3d3e 2ce0 5cbe 65b8 48bd fab2 6abe
00000150: 19ee 153e 62af 143e 2d0d bf3d 6458 9ebc
00000160: 319b 51be 878f 413e cedf 8ebb 197e 18be
00000170: 98fb d83d f400 85bd 90ed fa3d fda7 1e3d
00000180: 350e 81be 76df 5d3d 282d 393e 37ef e63d
00000190: 1f12 4abd bd30 79bd 7241 64bd c3ff 1a3e
000001a0: 6395 c03d e8de 113d 9a19 cbbc e497 6e3d
000001b0: bfe8 adbd a296 a83c f2e8 513e 7ed6 55be
000001c0: 3cbb 70bd ee78 98bd 3d16 3b3c 9611 163e
000001d0: b101 183e f5ea ae3c 7285 ad3d 54cf 10be
000001e0: 8b7a 133e 4c1b 133e 70bb 62bd f6cd c73d
000001f0: 15a5 913c d22e 65bd e762 213e b532 96bd
00000200: f884 d8bd 933e babc e63b a3bd 9f2b 493d
00000210: 4f47 73be 3a35 683d 8d75 c2bd 1e9b 07be
00000220: fbfd 073d 52bb 173e cb7b ffbd 6b24 073e
00000230: f9ff 52bd 807b 5c3d bd53 70bd b0e9 b23d
00000240: bcfd c63c a08c 8f3d 73dc d83d b8df 1bbd
00000250: 5112 d23d 8073 123e 3b8a 333e 3b24 ccbd
00000260: e2d6 323e 165a 303e f754 ba3d 72d6 593b
00000270: 82c3 92be e38b ef3d b5a1 e6bd 02ed 93bb
00000280: 1604 a6bd 753d 01be 8d66 263e b0d6 a03d
00000290: a9d3 053e 97f3 4ebe eace 90bd 37e1 30bd
000002a0: 55cb 62bd 3755 54bd 2039 89bd 1ee2 47be
000002b0: 4619 04be 2691 a3bd aa6a 003e 38af 6abc
000002c0: 6cda 5abe 13e5 a4bd 44a4 5abd 8c57 883d
000002d0: 2523 5bbc aa5b 5b3d 8da2 d73d c57a 9c3c
000002e0: c6ab a13d bc5b 5c3e ae4e 343e c333 0c3e
000002f0: 4390 8e3c 3df5 90bc 05d7 353e b501 c2bd
00000300: ca75 d2bd 8768 ce3c e6a1 a43d 58fe 4f3e
00000310: a533 873e 4843 09bc 4d68 7fbd 2384 5bbd
00000320: 2baf 53bd 8744 13be e509 ee3d 1b48 043e
00000330: 2c1a c8bd 42cd a5bd 9396 393e 7105 d33d
00000340: 06ab 0abe 99a1 083e 6678 43bb 6a6d b33c
00000350: b5c7 00bd bca1 a53d 21b0 aabd d7f2 6abc
00000360: a6da a73d 676d 263e 83f1 31be bc7f 813c
00000370: 34d5 9f3e f5c4 0f3e 19f7 92bd 0af6 993c
00000380: 8667 d6bc 6508 853e 20cc 10be 3fed 75bd
00000390: 9a0c 79bd 13ac c23c 1e4f 15bd 1266 b8bd
000003a0: 7173 adbe 52a5 b4bd 3398 b3bc e870 54be
000003b0: eb58 6b3d 5807 1f3e 9ebd 1f3d df3f 94be
000003c0: eb60 35be 1538 b03d 4847 3bbd 8d81 a93d
000003d0: 69d0 2ebe da9f a9bd 55e9 823d 95f7 1bbe
000003e0: d363 8f3e 3ef3 eb3d a253 bb3e b8f4 8ebd
000003f0: 5a8d b63c 2e69 c83c a1d5 cbbc c853 0b3e

enc2.2.bias f4 [16]
0.017095415 0.0299025 0.002922381 0.012798671 0.032803174 0.028575609 -0.0034042157 -0.0055274516
0.05173733 0.031690598 0.011416209 0.005790876 0.020604353 -0.011728981 0.032201264 0.028357787
00000000: af0b 8c3c 16f6 f43c 6b85 3f3b 84b1 513c
00000010: 9f5c 063d 6517 ea3c 4319 5fbb a01f b5bb
00000020: 86ea 533d 00ce 013d 0d0b 3b3c 64c1 bd3b
00000030: 76ca a83c e92a 40bc 79e5 033d 974e e83c

bottleneck.0.weight f4 [32, 16, 3, 3]
-0.09101233 0.05072295 0.057300925 0.027018009 0.09206814 -0.018283067 0.025962876 -0.007211697
-0.1758546 -0.02296153 -0.20443727 0.11044947 -0.013798816 0.06373206 0.13841732 -0.169158
0.18938681 0.05082185 0.051320042 0.107205644 0.08359278 -0.050985683 0.1365604 0.23057371
-0.038915955 -0.003933477 -0.0022660382 0.056618746 -0.06858485 0.036038306 -0.044169918 -0.10457873
-0.0049086544 0.12167453 -0.015791232 -0.07751335 -0.08831194 -0.06846038 -0.006014032 -0.060683608
0.05211166 -0.18131025 0.09925735 -0.12492454 0.115048096 -0.048795026 0.12905172 0.010268462
-0.10891062 0.08760358 -0.0639645 0.12607613 0.09761976 -0.05466977 0.014078381 0.18022108
-0.03582088 0.06543925 0.031206496 -0.0918822 -0.096446835 0.2480705 0.12357259 -0.05058317
0.047628082 -0.036312334 0.04331865 0.16218986 0.11966157 0.015099531 0.00654773 -0.024135284
-0.08941471 0.0068809814 -0.14102437 -0.059470326 -0.077303395 -0.027461449 -0.119353265 0.038503565
0.1607696 -0.07970062 0.11435541 0.06713285 -0.026769063 0.06869785 0.16064444 -0.100964196
0.032524526 0.0021851081 0.028544957 -0.034687467 -0.04109875 0.11038136 0.14036138 0.13195905
-0.02889154 0.078848355 -0.036735643 0.0226973 0.13094561 -0.06032089 -0.003572095 0.08694417
0.011637182 0.041598964 0.26499465 0.11201407 -0.026083149 0.030367617 -0.04423905 0.1410954
0.0655772 -0.08509272 -0.04747071 -0.03322591 -0.20036669 0.0836661 0.051296983 -0.16769545
0.15885463 -0.045646243 0.08867341 0.052230638 0.039807495 0.22492239 -0.033556275 0.04215275
-0.13491239 0.055594753 -0.038201116 -0.03971525 0.019876547 -0.101849616 -0.056559056 0.0027977142
0.16868953 0.03698008 0.05287453 0.054574084 0.04370172 0.09754332 0.054868437 0.053717054
-0.015080432 -0.11799495 0.09079407 0.011410953 0.038551137 -0.0010155024 -0.02490365 -0.088905565
0.053102754 0.08043647 -0.052746248 0.028730422 0.06469742 0.0034360872 -0.16856025 -0.04370945
-0.06589276 0.24715613 0.011456018 -0.12558234 -0.07680918 -0.070325755 -0.10336296 0.013331248
-0.05331744 0.054708682 0.09475962 -0.093902186 -0.07021492 0.048229452 0.04761234 -0.054178458
0.025097229 0.04991206 0.034214087 0.10010347 0.048974413 0.013410552 0.09959348 0.12433023
0.08774063 0.07526403 0.054141052 -0.016656753 -0.07348512 -0.021718103 0.03121667 -0.04994466
-0.020997189 0.028211514 -0.034944188 0.038878273 -0.039205085 0.1313113 -0.09773542 -0.057302095
-0.1498693 0.019868772 0.056998726 -0.14292596 0.063895 0.080052 0.13881062 -0.16377024
-0.039457556 -0.21441023 0.09943133 0.21881026 -0.049849052 0.04599824 0.02231731 -0.051337194
-0.100983486 0.12183582 -0.012439451 0.10130537 -0.0040732836 0.0452988 -0.043021407 0.21788119
0.09525894 0.018761147 -0.017342193 -0.10743582 0.07138447 -0.10552624 -0.050606795 -0.21140593
0.10245191 -0.09985568 0.075806655 0.07837282 -0.09496475 0.1517691 -0.019727193 -0.14478925
0.052232713 -0.0002808013 0.11513704 -0.044007555 -0.0018634057 0.15675247 0.120227 -0.005436963
0.13423142 0.07491594 -0.011088253 0.13537969 0.078707844 0.13545714 -0.05353197 -0.079482235
00000000: ac64 babd dec2 4f3d 60b4 6a3d df54 dd3c
00000010: 398e bc3d 5fc6 95bc 19b0 d43c 1950 ecbb
00000020: 3a13 34be d219 bcbc 0158 51be 5533 e23d
00000030: 6e14 62bc f485 823d 45bd 0d3e c137 2dbe
00000040: 9eee 413e 922a 503d f734 523d a28e db3d
00000050: b132 ab3d 5dd6 50bd 7dd6 0b3e 841b 6c3e
00000060: 5666 1fbd 66e4 80bb d081 14bb 0fe9 673d
00000070: 3776 8cbd e79c 133d 84eb 34bd 602d d6bd
00000080: c7d8 a0bb 7f30 f93d 9d5c 81bc 52bf 9ebd
00000090: e4dc b4bd f534 8cbd 5b11 c5bb 608f 78bd
000000a0: 0973 553d 65a9 39be 7047 cb3d 70d8 ffbd
000000b0: 569e eb3d 4bdd 47bd 2226 043e 0d3d 283c
000000c0: 880c dfbd 8169 b33d d2ff 82bd 1a1a 013e
000000d0: deec c73d 69ed 5fbd 02a9 663c e08b 383e
000000e0: eab8 12bd 0305 863d c4a4 ff3c bc2c bcbd
000000f0: eb85 c5bd 3106 7e3e a013 fd3d 4c30 4fbd
00000100: aa15 433d 3ebc 14bd e66e 313d 1915 263e
00000110: 2011 f53d 0664 773c 578e d63b 5cb7 c5bc
00000120: 0f1f b7bd db79 e13b b168 10be 2897 73bd
00000130: 3e51 9ebd d5f6 e0bc 7c6f f4bd eab5 1d3d
00000140: c9a0 243e 143a a3bd 2b33 ea3d f37c 893d
00000150: cb4a dbbc 75b1 8c3d fa7f 243e 51c6 cebd
00000160: 7038 053d 0834 0f3b 1dd7 e93c 7214 0ebd
00000170: 2a57 28bd 9f0f e23d e5ba 0f3e 4620 073e
00000180: f3ad ecbc 3f7b a13d 1d78 16bd b0ef b93c
00000190: 9b16 063e 0a13 77bd cf19 6abb c90f b23d
000001a0: e1a9 3e3c ad63 2a3d 61ad 873e a267 e53d
000001b0: 54ac d5bc 82c5 f83c 0234 35bd 507b 103e
000001c0: 574d 863d 1845 aebd a670 42bd e417 08bd
000001d0: ed2c 4dbe 2259 ab3d c91c 523d 5bb8 2bbe
000001e0: caaa 223e 8ef7 3abd 689a b53d cbef 553d
000001f0: 2f0d 233d 0e52 663e 4e72 09bd 5da8 2c3d
00000200: 7926 0abe 53b7 633d c678 1cbd 75ac 22bd
00000210: 24d4 a23c 8896 d0bd 78aa 67bd db59 373b
00000220: f3bc 2c3e 6d78 173d f792 583d 1389 5f3d
00000230: 9300 333d cbc4 c73d babd 603d 6a06 5c3d
00000240: eb13 77bc 56a7 f1bd 3ef2 b93d 01f5 3a3c
00000250: cce7 1d3d 9b1a 85ba bd02 ccbc 1f14 b6bd
00000260: 4682 593d e0bb a43d 730c 58bd 105c eb3c
00000270: 1580 843d fa2f 613b 0f9b 2cbe ae08 33bd
00000280: c9f2 86bd 7f16 7d3e 06b2 3b3c a898 00be
00000290: 224e 9dbd f306 90bd f6af d3bd 4f6b 5a3c
000002a0: 6363 5abd 3616 603d 5511 c23d ca4f c0bd
000002b0: d7cc 8fbd 3f8c 453d 2805 433d 3bea 5dbd
000002c0: b498 cd3c 9770 4c3d 1224 0c3d 0c03 cd3d
000002d0: 6599 483d efb7 5b3c abf7 cb3d d9a0 fe3d
000002e0: 5cb1 b33d 0724 9a3d 02c3 5d3d be73 88bc
000002f0: 5e7f 96bd 2aea b1bc 1aba ff3c c692 4cbd
00000300: 4c02 acbc d51b e73c a321 0fbd d33e 1f3d
00000310: 8395 20bd 7876 063e 8229 c8bd 9ab5 6abd
00000320: 5677 19be d6c3 a23c 7f77 693d 2f5b 12be
00000330: 62db 823d 4ef2 a33d 5f24 0e3e 63b3 27be
00000340: 3f9e 21bd 5b8e 5bbe a7a2 cb3d cc0f 603e
00000350: 852e 4cbd a768 3c3d cbd2 b63c f346 52bd
00000360: 6ed0 cebd 0f85 f93d d7ce 4bbc 3179 cf3d
00000370: 2e79 85bb 3c8b 393d 3737 30bd 3f1c 5f3e
00000380: 1e17 c33d fab0 993c 3711 8ebc 5007 dcbd
00000390: 0532 923d 241e d8bd 1249 4fbd cc7a 58be
000003a0: 4fd2 d13d 2281 ccbd 8540 9b3d ee81 a03d
000003b0: e17c c2bd 5c69 1b3e ec9a a1bc a243 14be
000003c0: f8f1 553d 8338 93b9 f8cc eb3d 4441 34bd
000003d0: 853d f4ba b883 203e 9339 f63d 8d28 b2bb
000003e0: f673 093e 876d 993d 81ab 35bc f9a0 0a3e
000003f0: 9431 a13d 47b5 0a3e 5744 5bbd 95c7 a2bd

bottleneck.0.bias f4 [32]
-0.02896872 0.02736007 0.029921278 0.03372171 0.029189415 0.022916183 0.013704086 -0.0043437923
0.028230213 -0.010426482 0.015383171 0.03758019 -0.008595745 0.02553142 -0.00051305327 0.03106454
0.033864964 0.011043784 0.025934359 0.0524608 0.011699292 0.0505973 0.02503749 -0.012717577
0.032521244 0.021315316 -0.028887808 0.016471 0.016305998 0.027658902 0.022711474 0.032172065
00000000: cf4f edbc 3a22 e03c 781d f53c c71f 0a3d
00000010: a41e ef3c b8ba bb3c 1a87 603c 5f56 8ebb
00000020: 0c43 e73c d6d3 2abc b209 7c3c afed 193d
00000030: 2bd5 0cbc 4527 d13c 6c7e 06ba 107b fe3c
00000040: fdb5 0a3d fdf0 343c 4b74 d43c 23e1 563d
00000050: 63ae 3f3c 1d3f 4f3d 6c1b cd3c 625d 50bc
00000060: ff34 053d 759d ae3c 20a6 ecbc 31ee 863c
00000070: 2894 853c ec94 e23c 6a0d ba3c dbc6 033d

bottleneck.2.weight f4 [32, 32, 3, 3]
0.005292375 -0.000521458 -0.18924034 -0.101740584 -0.1798685 -0.009207071 -0.06642947 -0.11828319
-0.022092275 0.0067166123 -0.18639512 -0.038555425 0.013845337 0.11025143 0.067766555 0.07983075
-0.034164466 -0.014278793 -0.04780143 0.22187969 0.034589134 -0.09452055 0.07034918 -0.027434899
0.094551764 -0.07387784 0.10582693 -0.023298252 0.09309587 0.017097821 0.0019122448 0.16342649
0.08885944 0.053014033 0.10958008 0.03468325 0.04256055 -0.0107247885 0.057996996 0.016690293
-0.07366872 0.15092555 -0.009511067 0.03644135 -0.13530366 -0.17148554 -0.14870532 -0.070734575
0.111290015 0.06728782 0.13018334 -0.07389159 -0.072289206 0.06611413 0.082106955 0.031819057
0.011558767 0.0126028685 0.0037526367 0.07868229 -0.06334487 -0.054622665 -0.051185332 0.013550695
0.016248804 0.13795951 0.038438924 0.08084596 0.032155782 -0.040615775 0.025086798 0.06946823
-0.1718769 0.019049741 -0.09471993 0.07407546 0.0043067737 0.049210936 0.06673779 -0.06926726
0.04453036 0.0058637387 0.016130487 -0.010415574 -0.045507345 0.042819794 -0.055821065 -0.0061692703
-0.20575538 -0.09345805 -0.020509515 0.025857972 -0.03541661 -0.08085482 0.12341244 0.0739725
0.019645726 0.0598591 0.0379065 0.024427067 0.06831948 0.13140403 0.13483116 0.18064743
-0.017496638 0.09653599 -0.1069662 0.052750763 -0.016775029 -0.038111612 -0.036888897 -0.0004338767
-0.05821436 -0.06774191 -0.12379847 -0.077306874 -0.1360581 -0.022241123 0.06822574 -0.11514938
-0.077958256 0.021621423 0.047637966 -0.20420273 0.010638119 0.08753847 0.12055539 0.046921153
-0.07618863 0.14439978 0.15552974 -0.14711368 -0.06921344 0.14121574 0.07055484 -0.052940153
0.083716206 0.013372571 -0.097340524 0.030841164 0.028013254 0.08567356 -0.08208931 0.10005965
0.19975652 -0.14907405 -0.02801869 -0.051442485 0.050040726 0.014775893 -0.108087845 0.04981888
-0.035019495 -0.0256516 -0.048500054 0.12269363 0.025140025 -0.039932225 0.027349526 0.036382407
0.13409677 -0.05070285 -0.0116606485 -0.10840876 -0.095176354 -0.19982979 0.028183134 -0.08693134
0.01743225 0.1823703 -0.010870662 -0.03910435 -0.0179832 -0.14425187 0.056460984 0.051259432
-0.15459499 -0.022504603 0.067117915 0.10234864 -0.018673936 -0.119999 0.11936679 -0.10759116
-0.044662517 -0.083597444 -0.07579099 0.079695605 0.12930346 -0.22993858 -0.0057177735 0.024341414
-0.048228875 0.0040540635 0.029926779 -0.17017289 0.09783613 0.017893871 0.04708387 -0.079129174
0.054126475 -0.013256836 0.028092172 0.18122327 0.03803259 -0.11936524 0.043304883 0.048517223
0.057797402 -0.098024204 0.020356443 -0.16734712 -0.006694211 -0.054351088 -0.0030914415 -0.1284633
0.010976228 0.0176554 0.01928935 0.049184952 -0.030745685 0.112254255 0.016691843 0.05665981
0.03347442 -0.10125597 -0.060558766 0.013449631 -0.061018664 -0.11022256 0.105546035 0.062173907
-0.0494472 0.055522703 0.060555626 -0.14160468 -0.03768815 0.17731987 -0.12882707 -0.07569703
0.041919824 -0.012934206 -0.077551134 0.06935743 0.07361428 0.056697223 0.024628548 0.06510609
0.16023701 -0.081607945 -0.015217757 0.04073067 0.16132537 0.250512 0.29154995 -0.021513266
00000000: a96b ad3b 74b2 08ba 38c8 41be 5e5d d0bd
00000010: 732f 38be 41d9 16bc 2d0c 88bd 753e f2bd
00000020: dcfa b4bc 0717 dc3b 5dde 3ebe 4bec 1dbd
00000030: 8dd7 623c 80cb e13d 31c9 8a3d 4e7e a33d
00000040: 0af0 0bbd 99f1 69bc 6fcb 43bd 6e34 633e
00000050: 56ad 0d3d fd93 c1bd 3b13 903d 27bf e0bc
00000060: 5ba4 c13d 444d 97bd cabb d83d fadb bebc
00000070: 0ca9 be3d bb10 8c3c 4aa4 fa3a 4659 273e
00000080: f0fb b53d 3e25 593d 856b e03d 0610 0e3d
00000090: f953 2e3d 06b7 2fbc 428e 6d3d 15ba 883c
000000a0: a0df 96bd 3a8c 1a3e 4ed4 1bbc 8643 153d
000000b0: 0b8d 0abe e899 2fbe 3546 18be 4add 90bd
000000c0: 05ec e33d 32ce 893d c84e 053e 7954 97bd
000000d0: 5d0c 94bd d866 873d b127 a83d b354 023d
000000e0: fc60 3d3c 437c 4e3c ccee 753b 2e24 a13d
000000f0: f5ba 81bd 04bc 5fbd b6a7 51bd bc03 5e3c
00000100: 361c 853c 4245 0d3e 2272 1d3d 9192 a53d
00000110: c8b5 033d ba5c 26bd d482 cd3c 5c45 8e3d
00000120: 8000 30be 340e 9c3c 86fc c1bd e0b4 973d
00000130: d61f 8d3b 6891 493d d3ad 883d fedb 8dbd
00000140: 7765 363d 9b24 c03b 1524 843c 15a6 2abc
00000150: e965 3abd cf63 2f3d a1a4 64bd 9727 cabb
00000160: 8ab1 52be ef66 bfbd 9203 a8bc 19d4 d33c
00000170: 0211 11bd 3697 a5bd a9bf fc3d e57e 973d
00000180: 13f0 a03c d12e 753d d943 1b3d 461b c83c
00000190: 15eb 8b3d c78e 063e 2e11 0a3e a4fb 383e
000001a0: 1c55 8fbc a9b4 c53d 1811 dbbd 2f11 583d
000001b0: c96b 89bc ec1a 1cbd d018 17bd f279 e3b9
000001c0: 2e72 6ebd 45bc 8abd 0d8a fdbd 1153 9ebd
000001d0: d152 0bbe 0433 b6bc f0b9 8b3d 70d3 ebbd
000001e0: 94a8 9fbd 691f b13c 0720 433d 851a 51be
000001f0: 814b 2e3c 5f47 b33d bfe5 f63d 6530 403d
00000200: c908 9cbd 89dd 133e 3043 1f3e f8a4 16be
00000210: c7bf 8dbd dc9a 103e 0e7f 903d c6d7 58bd
00000220: 6773 ab3d a118 5b3c 785a c7bd 9ca6 fc3c
00000230: 0d7c e53c 9f75 af3d 711e a8bd 13ec cc3d
00000240: f98c 4c3e dea6 18be 7487 e5bc 5bb5 52bd
00000250: 81f7 4c3d 9616 723c 295d ddbd e20e 4c3d
00000260: 9a70 0fbd 4e23 d2bc fea7 46bd cc46 fb3d
00000270: 74f2 cd3c f98f 23bd 1d0c e03c b805 153d
00000280: aa50 093e cbad 4fbd 4e0c 3fbc 6905 debd
00000290: d2eb c2bd 2ea0 4cbe 51e0 e63c 0f09 b2bd
000002a0: 14ce 8e3c 48bf 3a3e dc1a 32bc e22b 20bd
000002b0: 8151 93bc c3b6 13be a243 673d 69f5 513d
000002c0: 264e 1ebe 935b b8bc 1e75 893d 2a9c d13d
000002d0: 15fa 98bc 09c2 f5bd 9376 f43d c158 dcbd
000002e0: 0bf0 36bd 2335 abbd 4e38 9bbd 7337 a33d
000002f0: 2068 043e 0575 6bbe 295c bbbb a567 c73c
00000300: a48b 45bd f3d7 843b 0129 f53c cd41 2ebe
00000310: 4f5e c83d 2b96 923c 04db 403d 7a0e a2bd
00000320: b9b3 5d3d 3333 59bc 8e21 e63c 9892 393e
00000330: 10c8 1b3d c375 f4bd 7660 313d ffb9 463d
00000340: f8bc 6c3d eac0 c8bd 8ec2 a63c 0b5d 2bbe
00000350: 1d5b dbbb 3f9f 5ebd c899 4abb e28b 03be
00000360: a3d5 333c 0fa2 903c b304 9e3c 2976 493d
00000370: 60de fbbc 8fe5 e53d 55bd 883c 1e14 683d
00000380: 791c 093d 4a5f cfbd 780c 78bd d75b 5c3c
00000390: b5ee 79bd 5ebc e1bd 8528 d83d 11aa 7e3d
000003a0: 2689 4abd c66b 633d 2d09 783d d100 11be
000003b0: e45e 1abd 5793 353e 3eeb 03be 0b07 9bbd
000003c0: 1fb4 2b3d fee9 53bc 21d3 9ebd 450b 8e3d
000003d0: 15c3 963d 593b 683d cfc1 c93c 5756 853d
000003e0: 2c15 243e 1122 a7bd e653 79bc 34d5 263d
000003f0: 7a32 253e 1c43 803e 0946 953e 973c b0bc

bottleneck.2.bias f4 [32]
0.029574264 0.04182076 0.030473096 -0.014218955 -0.008796959 -0.014408575 0.027371094 -0.013605194
0.032468263 0.008422958 0.034703005 -0.032296937 -0.035497118 0.028944263 -0.013323751 0.027802033
0.017800128 -0.008430577 0.03274417 -0.0043821963 0.031282127 -0.0019445798 -0.041132346 -0.008143381
0.026749594 0.03155009 -0.029003624 0.026359163 0.016467135 -0.014803751 0.027536843 0.0032992186
00000000: ba45 f23c 3f4c 2b3d b7a2 f93c 9ff6 68bc
00000010: 1f21 10bc f211 6cbc 5839 e03c 52e8 5ebc
00000020: 71fd 043d 7200 0a3c bd24 0e3d cb49 04bd
00000030: 6d65 11bd 851c ed3c dd4b 5abc 17c1 e33c
00000040: 93d1 913c 6720 0abc c01e 063d 8798 8fbb
00000050: b021 003d 45e1 feba 647a 28bd d16b 05bc
00000060: f721 db3c ab3a 013d 0299 edbc 2cef d73c
00000070: 16e6 863c 6f8b 72bc f294 e13c b437 583b

up1.weight f4 [32, 16, 2, 2]
0.07348783 0.06155427 -0.26087323 -0.025692374 -0.11000893 0.11575851 0.07864919 0.3045505
-0.18729688 -0.08237795 0.100556456 0.017771563 -0.09195551 0.072201736 0.112211004 -0.088906795
0.0030867546 0.29846913 0.07722732 -0.08064454 0.03929207 -0.16193521 0.019438263 -0.09068465
0.13206096 0.11629721 -0.040642235 -0.09163234 0.028246183 -0.20606321 0.2317628 0.07858865
-0.22309375 0.11379947 -0.2201494 -0.08684679 0.047336336 -0.056263275 0.18597342 0.20179458
-0.11564922 0.19362554 0.07982901 0.13336249 -0.0014999503 0.10692933 -0.09204559 -0.019028371
0.09076897 -0.26958945 -0.029531213 0.07751828 0.030518295 -0.05990458 0.2810462 0.15283892
-0.11975576 -0.23587488 0.06369072 -0.038364466 0.0058188844 0.22552928 -0.09461413 0.050174523
-0.1494674 -0.15770678 0.07079498 -0.096422635 -0.24711195 -0.15890764 -0.2207011 0.0038711596
0.2912057 0.1032351 -0.048323546 -0.09152588 0.12121714 0.008953472 0.15172389 -0.07179006
-0.17762595 -0.14353591 -0.047183104 -0.27201396 0.0065587936 -0.03275193 0.046775565 0.058829587
-0.113567516 -0.024651105 -0.15159334 -0.39793974 0.106622 0.10913419 -0.20646842 -0.10789019
-0.18857682 -0.03514989 -0.27079448 0.11151029 0.04469652 0.14774956 0.085468434 0.03358266
0.021093015 -0.12180348 -0.008550878 0.124370545 -0.13040917 -0.007383788 0.24193431 0.05275965
-0.07264638 0.1213 0.078365974 0.13560049 0.098284975 0.031565167 0.20229456 -0.07061437
0.06712839 0.16924873 -0.056432176 -0.10252252 -0.17310715 -0.11801756 -0.23412381 -0.046296436
-0.033600852 -0.06601391 -0.12576507 0.25049382 0.004922819 -0.014714483 -0.15049064 -0.04314515
0.042160235 0.068287715 0.21783327 0.25088936 0.10456973 0.07381808 0.31327635 -0.022059252
-0.053236682 -0.017698279 -0.22233033 -0.20171396 -0.014329697 0.03913667 -0.075624414 -0.029189112
0.041002065 0.13807575 -0.04361664 -0.14899139 -0.4056594 -0.041007314 -0.060128253 -0.007589731
0.18971878 -0.0062033273 -0.15532257 0.35584456 0.10377582 0.11371846 0.18993422 -0.065838605
0.036503777 -0.014716673 0.037740044 -0.065738186 0.050441556 -0.08052555 0.08986266 -0.1057205
-0.027022589 0.020527057 -0.05734281 0.23241226 -0.03458206 -0.020835904 -0.00025630862 0.2718196
-0.09617631 0.14966018 -0.050443783 -0.13265635 0.11341108 -0.107889265 -0.036136746 -0.14416249
-0.09037272 0.048208784 0.03586172 0.10342582 0.1085546 0.14045458 -0.27781838 0.084053114
-0.14954384 -0.18115003 -0.05226051 0.0943373 -0.29452077 -0.0035156922 0.06602316 0.16328086
0.08107869 -0.108376406 0.12930444 -0.057509765 -0.012198901 -0.014975616 0.07976469 0.09544434
-0.031156085 -0.0076332423 0.3605777 0.026081279 -0.026634322 0.12457598 0.021780698 -0.06116275
-0.004980647 -0.018705923 0.02836408 -0.059416506 0.0888073 -0.20639367 0.056930713 0.21914217
-0.0996106 -0.036100827 0.14069717 -0.19678363 0.030326605 -0.15923339 0.07580934 0.07939413
-0.02422175 0.10772049 0.12112348 -0.13245112 0.12790678 -0.026555762 0.13167402 -0.13916576
0.2413516 -0.05859635 0.122509986 -0.056719106 -0.15672679 0.081284046 0.08418153 0.028706463
00000000: ca80 963d 5520 7c3d 2d91 85be d078 d2bc
00000010: 5d4c e1bd cc12 ed3d d412 a13d 0bee 9b3e
00000020: c1ca 3fbe c5b5 a8bd 8bf0 cd3d ab95 913c
00000030: 2c53 bcbd 81de 933d e2ce e53d c414 b6bd
00000040: 264b 4a3b f2d0 983e 5b29 9e3d f728 a5bd
00000050: b9f0 203d 58d2 25be fe3c 9f3c e0b8 b9bd
00000060: fd3a 073e 3b2d ee3d 7978 26bd bca9 bbbd
00000070: 8a64 e73c 3c02 53be 3a53 6d3e 16f3 a03d
00000080: b072 64be b20f e93d d86e 61be bbdc b1bd
00000090: bfe3 413d 5274 66bd d16f 3e3e 3da3 4e3e
000000a0: 80d9 ecbd c645 463e 647d a33d 2d90 083e
000000b0: fb99 c4ba c4fd da3d 6682 bcbd 63e1 9bbc
000000c0: 15e5 b93d a107 8abe 71eb f1bc e7c1 9e3d
000000d0: 8101 fa3c 815e 75bd 4ae5 8f3e ce81 1c3e
000000e0: 8242 f5bd 2f89 71be 4870 823d 0f24 1dbd
000000f0: 57ac be3b 26f1 663e 0ec5 c1bd cd83 4d3d
00000100: fb0d 19be e37d 21be f5fc 903d 3b79 c5bd
00000110: ea0a 7dbe afb8 22be 78ff 61be 48b3 7d3b
00000120: ea18 953e ed6c d33d e9ee 45bd ec71 bbbd
00000130: b140 f83d 95b1 123c 825d 1b3e ab06 93bd
00000140: 94e3 35be 14fb 12be 1243 41bd 6a45 8bbe
00000150: 26eb d63b e326 06bd bc97 3f3d 4bf7 703d
00000160: 1696 e8bd 1df1 c9bc 493b 1bbe c2be cbbe
00000170: a35c da3d bf81 df3d 756c 53be 88f5 dcbd
00000180: 481a 41be 55f9 0fbd 93a5 8abe 825f e43d
00000190: b313 373d a94b 173e 130a af3d f98d 093d
000001a0: 42cb ac3c 1a74 f9bd fb18 0cbc fcb5 fe3d
000001b0: fb89 05be b4f3 f1bb a1bd 773e 811a 583d
000001c0: a0c7 94bd 226c f83d 577e a03d dbda 0a3e
000001d0: a249 c93d 7a4a 013d 4e26 4f3e 449e 90bd
000001e0: 9c7a 893d 8a4f 2d3e 6d25 67bd 54f7 d1bd
000001f0: 0043 31be 31b3 f1bd 27be 6fbe 55a1 3dbd
00000200: 0ca1 09bd 4d32 87bd 8fc8 00be ba40 803e
00000210: 994f a13b 0415 71bc 381a 1abe f8b8 30bd
00000220: 36b0 2c3d 6eda 8b3d af0f 5f3e 9274 803e
00000230: a828 d63d ef2d 973d c265 a03e 9bb5 b4bc
00000240: b50e 5abd fbfb 90bc 90aa 63be 1b8e 4ebe
00000250: 1bc7 6abc c64d 203d f9e0 9abd 011e efbc
00000260: c8f1 273d bb63 0d3e 5da7 32bd 3391 18be
00000270: 97b2 cfbe 49f7 27bd 0b49 76bd 47b3 f8bb
00000280: a445 423e 4845 cbbb e10c 1fbe 4231 b63e
00000290: 6b88 d43d 39e5 e83d 1e7e 423e 64d6 86bd
000002a0: fc84 153d 331e 71bc 4e95 1a3d bea1 86bd
000002b0: ce9b 4e3d 94ea a4bd ea09 b83d fd83 d8bd
000002c0: 7a5e ddbc 5c28 a83c 4be0 6abd 7bfd 6d3e
000002d0: eba5 0dbd 0fb0 aabc 2961 86b9 f02b 8b3e
000002e0: 16f8 c4bd 8540 193e 249e 4ebd 11d7 07be
000002f0: 1144 e83d 0cf5 dcbd 2004 14bd 559f 13be
00000300: 5515 b9bd 9376 453d bde3 123d ebd0 d33d
00000310: e051 de3d 53d3 0f3e 363e 8ebe 0a24 ac3d
00000320: 0522 19be 657f 39be 1e0f 56bd ea33 c13d
00000330: 6dcb 96be 8767 66bb 2737 873d 1933 273e
00000340: 960c a63d 73f4 ddbd 6268 043e 5c8f 6bbd
00000350: e6dd 47bc 495c 75bc ab5b a33d 5278 c33d
00000360: 0c3b ffbc 4720 fabb a49d b83e 68a8 d53c
00000370: 3930 dabc b121 ff3d 6f6d b23c cb85 7abd
00000380: b234 a3bb 2a3d 99bc c95b e83c b95e 73bd
00000390: 9ae0 b53d dd58 53be 2e30 693d ce66 603e
000003a0: a400 ccbd 76de 13bd eb12 103e a681 49be
000003b0: 806f f83c 140e 23be ed41 9b3d 6499 a23d
000003c0: b16c c6bc 8f9c dc3d 960f f83d 44a1 07be
000003d0: fff9 023e 788b d9bc 8ed5 063e 7881 0ebe
000003e0: e024 773e ba02 70bd 84e6 fa3d 4b52 68bd
000003f0: fd7c 20be 4078 a63d 5e67 ac3d d129 eb3c

up1.bias f4 [16]
0.026096633 -0.033202488 0.027902577 -0.019143777 -0.026409771 -0.027720474 -0.031901892 -0.02548884
-0.023447232 0.024388414 -0.024855565 0.027437631 0.029750096 0.026328458 -0.02396958 -0.026951013
00000000: 9bc8 d53c 55ff 07bd f293 e43c 69d3 9cbc
00000010: 4e59 d8bc 0c16 e3bc 8fab 02bd f9cd d0bc
00000020: 6914 c0bc 36ca c73c e69d cbbc e2c4 e03c
00000030: 79b6 f33c c7ae d73c da5b c4bc 5fc8 dcbc

dec1.0.weight f4 [16, 32, 3, 3]
0.096715905 0.10830772 0.087425925 0.0687388 0.104542345 -0.0858888 0.080150984 0.1416813
-0.21447423 0.029248815 -0.083431445 -0.0025187316 -0.20719272 0.07425861 0.17881238 -0.07748576
0.042290475 0.056461833 0.02353065 -0.11637569 0.15523522 0.07287804 0.030841913 0.061356276
-0.11667892 -0.0004869998 0.26757237 -0.077164136 0.022580547 -0.1952638 -0.23607919 -0.0032987148
-0.12582661 -0.09271895 0.051896248 0.0913455 -0.0005687114 0.19647841 -0.021760847 -0.013330942
-0.062141214 0.02202719 -0.035360694 -0.086657144 0.20913443 3.56618e-05 0.12557974 0.11796775
0.07883583 0.106250495 0.07425617 0.0093683805 0.061961126 0.03001137 -0.15586087 0.09543483
-0.028065007 -0.15521076 0.10013067 0.013821922 0.20583844 0.14370123 -0.117900304 -0.08720355
-0.11851172 -0.2556181 -0.25911677 0.00018918571 -0.023783503 -0.19927585 -0.06023186 -0.2313579
-0.05678884 -0.109625086 0.16616526 0.103689775 0.050456084 0.15009151 -0.25576127 -0.10053382
0.07744258 0.20901765 0.19404607 0.04984963 -0.051677827 0.08352076 -0.028118776 0.0057653436
-0.008331206 0.108214706 0.10105603 -0.057241186 -0.08574056 0.16178915 -0.15922767 0.1089923
-0.09498514 -0.026563471 -0.10743256 -0.060593616 -0.06313695 0.32433057 -0.13457318 0.15868033
0.014340169 0.2670632 -0.08433166 0.013816609 -0.015072221 -0.09662806 -0.18285803 -0.00258976
0.003151638 0.09412683 0.017945807 0.061538137 -0.106833756 0.034169827 -0.30585778 -0.04502681
-0.024915766 -0.028370367 0.0041846433 -0.20024045 0.04494702 0.11648069 -0.022999147 0.0034145878
0.0579713 -0.20207207 -0.040485043 0.025403082 0.15700041 0.043754824 0.0012637713 0.13296193
-0.20112745 -0.066957384 0.049514372 -0.009297178 -0.028020777 0.015373734 0.36941648 0.08708111
-0.006560815 0.114388555 -0.04103633 -0.028716978 0.014001542 -0.06583839 0.072725214 0.04954446
-0.1583826 0.055615727 -0.16510127 0.10488129 -0.062085666 -0.104877755 0.11835345 0.09031851
-0.04897493 -0.04325961 0.024494994 0.18394673 0.080750406 0.06518429 0.25067475 0.1700468
0.023423813 -0.016391993 -0.038164288 -0.04652249 0.07121848 -0.00919804 0.014695443 0.102177024
0.01503023 -0.26269767 0.07448124 -0.08772712 0.10613401 -0.06791368 -0.03122019 0.08231428
0.04980787 0.2226072 -0.08459782 -0.06619166 -0.22177435 -0.10599928 -0.23838879 0.053112935
-0.042804085 -0.00354897 -0.11519797 0.28618544 -0.03714331 -0.056582067 -0.067704864 -0.1926057
-0.17509292 -0.010553492 -0.1279949 -0.070190854 -0.034550745 0.12310651 0.042029217 -0.10334719
-0.13110642 -0.15104085 -0.15924445 0.15782431 -0.11202533 -0.025298126 0.16313925 0.050033096
-0.14187577 -0.0658637 -0.116285555 0.026013728 -0.1315052 0.14630693 -0.09254686 -0.036233403
-0.014169356 -0.1658729 -0.025523297 0.29173982 0.16996121 0.09651276 0.009710645 0.010656607
0.13253444 0.044267282 -0.33294082 -0.08143396 0.15778309 -0.17512216 0.030532867 -0.035182193
0.11441031 -0.2774125 0.05311375 -0.23702821 0.03612715 0.06397774 0.06481385 -0.11185808
-0.08202743 0.0999692 0.004452323 -0.015528757 -0.08592985 0.060205217 0.020663714 -0.14071038
00000000: fd12 c63d 70d0 dd3d 5d0c b33d eec6 8c3d
00000010: 4c1a d63d 78e6 afbd 3326 a43d e714 113e
00000020: 229f 5bbe 369b ef3c 1bde aabd 4e11 25bb
00000030: 542a 54be e614 983d 981a 373e dbb0 9ebd
00000040: c738 2d3d 8644 673d 5ac3 c03c 6156 eebd
00000050: fbf5 1e3e 1541 953d 2ea8 fc3c b850 7b3d
00000060: 5cf5 eebd 0254 ffb9 3fff 883e 3b08 9ebd
00000070: d7fa b83c 3cf3 47be bebe 71be 402f 58bb
00000080: b1d8 00be 6fe3 bdbd 2991 543d 5913 bb3d
00000090: 9315 15ba a331 493e ce43 b2bc 066a 5abc
000000a0: c987 7ebd 5e72 b43c 60d6 10bd 4d79 b1bd
000000b0: 5627 563e 9193 1538 fa97 003e 1399 f13d
000000c0: ae74 a13d dc99 d93d 9e13 983d d67d 193c
000000d0: f3ca 7d3d 68da f53c fe99 1fbe 5673 c33d
000000e0: 96e8 e5bc 92ef 1ebe 4f11 cd3d 5875 623c
000000f0: 50c7 523e 6a26 133e b775 f1bd c697 b2bd
00000100: 46b6 f2bd 60e0 82be f4aa 84be 2760 4639
00000110: 9fd5 c2bc f80e 4cbe afb5 76bd 16e9 6cbe
00000120: 6a9b 68bd 1e83 e0bd 3a27 2a3e 4e5b d43d
00000130: 0aab 4e3d 97b1 193e 24f3 82be ade4 cdbd
00000140: 379a 9e3d b908 563e 03b4 463e 202f 4c3d
00000150: 21ac 53bd ef0c ab3d 5959 e6bc 35eb bc3b
00000160: 9c7f 08bc ac9f dd3d 77f6 ce3d bc75 6abd
00000170: bf98 afbd 0eac 253e 940c 23be 5b37 df3d
00000180: 9287 c2bd a39b d9bc 9a05 dcbd 0331 78bd
00000190: f24d 81bd a80e a63e 8dcd 09be 197d 223e
000001a0: 07f3 6a3c 82bc 883e 14b6 acbd 0f5f 623c
000001b0: 7af1 76bc efe4 c5bd 233f 3bbe f7b8 29bb
000001c0: b68b 4e3b 91c5 c03d 1603 933c 6a0f 7c3d
000001d0: a8cb dabd a9f5 0b3d 6499 9cbe 086e 38bd
000001e0: 261c ccbc f968 e8bc 551f 893b d50b 4dbe
000001f0: 5e1a 383d 6e8d ee3d b568 bcbc 47c7 5f3b
00000200: 5073 6d3d fbeb 4ebe a5d3 25bd 201a d03c
00000210: b7c4 203e 4238 333d 21a5 a53a 2c27 083e
00000220: 5bf4 4dbe f420 89bd 95cf 4a3d 3153 18bc
00000230: d48b e5bc 1de2 7b3c 2824 bd3e 9557 b23d
00000240: 1bfc d6bb 8c44 ea3d b615 28bd de3f ebbc
00000250: b966 653c 47d6 86bd f5f0 943d 22ef 4a3d
00000260: 0c2f 22be 51cd 633d 4f10 29be 00cc d63d
00000270: 8a4d 7ebd 26ca d6bd 4b63 f23d e9f8 b83d
00000280: f099 48bd fd30 31bd baa9 c83c 885c 3c3e
00000290: 7860 a53d 577f 853d 7158 803e c020 2e3e
000002a0: 4ce3 bf3c 8048 86bc 2852 1cbd 5e8e 3ebd
000002b0: ffda 913d 60b3 16bc 28c5 703c 3042 d13d
000002c0: 5b41 763c 4f80 86be 9f89 983d 47aa b3bd
000002d0: ca5c d93d 5416 8bbd 7cc1 ffbc 6494 a83d
000002e0: 5603 4c3d 24f3 633e 9f41 adbd 7e8f 87bd
000002f0: d118 63be 2716 d9bd 311c 74be f38c 593d
00000300: 5653 2fbd d695 68bb eaec ebbd e686 923e
00000310: 9523 18bd 99c2 67bd d9a8 8abd 6e3a 45be
00000320: 8f4b 33be 8ee8 2cbc 1811 03be 39c0 8fbd
00000330: 1585 0dbd 441f fc3d d426 2c3d b1a7 d3bd
00000340: c340 06be 74aa 1abe fa10 23be b29c 213e
00000350: 896d e5bd 043e cfbc fa0d 273e 81ef 4c3d
00000360: e247 11be 8ce3 86bd 1f27 eebd be1a d53c
00000370: 4da9 06be 7cd1 153e 3589 bdbd 7a69 14bd
00000380: 9626 68bc 96da 29be 3c16 d1bc ec5e 953e
00000390: 500a 2e3e 7ba8 c53d 6619 1f3c 0d99 2e3c
000003a0: 1cb7 073e 9c51 353d 3877 aabe d9c6 a6bd
000003b0: e491 213e 3953 33be 1020 fa3c 341b 10bd
000003c0: f44f ea3d 0309 8ebe ce8d 593d 86b7 72be
000003d0: 10fa 133d c306 833d 20bd 843d d915 e5bd
000003e0: fffd a7bd a7bc cc3d cbe4 913b 546c 7ebc
000003f0: fdfb afbd bf99 763d f346 a93c 6216 10be

dec1.0.bias f4 [16]
0.02299465 0.023731204 0.027927827 0.02956324 -0.0052202563 -0.030474562 0.02502271 0.026698882
-0.014961961 0.003158368 -0.009577277 -0.0036692715 -0.01563525 0.020932376 -0.0047188597 0.02674349
00000000: 475f bc3c f167 c23c e6c8 e43c 9c2e f23c
00000010: af0e abbb caa5 f9bc 6dfc cc3c 9db7 da3c
00000020: 0323 75bc 9ffc 4e3b 03ea 1cbc 2978 70bb
00000030: 7f15 80bc 607a ab3c aaa0 9abb 2a15 db3c
