sampling-based_planning_framework/checkpoints/checkpoint_epoch_76.pth (torch, 386738 bytes, 75 tensors)

enc1.0.weight f4 [8, 1, 3, 3]
-0.10522991 0.103803225 0.07114306 0.14177082 -0.11404249 0.08493939 0.02921672 -0.17880824
-0.07010173 0.14442573 -0.1220531 0.04751873 0.2425109 -0.079815745 0.1452508 -0.061027862
0.15882003 -0.082373075 0.17091961 -0.20395505 -0.19430049 0.16388132 -0.091412365 -0.1567069
-0.36789915 -0.19658369 -0.109121956 0.055865157 0.024450269 -0.21207725 0.047965758 0.17173073
0.34831187 -0.014157891 -0.0017074437 -0.004633852 -0.11130213 0.055540614 -0.07725264 -0.28272143
0.22487158 -0.057163864 -0.057254814 0.10190744 -0.30178118 0.21755359 0.22937576 0.00048041847
0.37498617 -0.063915625 -0.08773778 0.09175897 -0.1742055 -0.2579805 0.012756527 0.05020616
0.10947056 0.13119596 -0.11177082 0.49018818 -0.039644927 0.110836975 0.1181562 0.1301828
-0.32522717 0.086185604 -0.15812078 -0.09436532 0.21283427 0.06377243 -0.12215583 0.05737378
00000000: c782 d7bd c996 d43d 74b3 913d 5f2c 113e
00000010: 1c8f e9bd b4f4 ad3d e757 ef3c 8219 37be
00000020: 7f91 8fbd 57e4 133e faf6 f9bd 00a3 423d
00000030: c754 783e 7076 a3bd a0bc 143e 5af8 79bd
00000040: b8a1 223e 37b3 a8bd 8d05 2f3e 98d9 50be
00000050: b5f6 46be 81d0 273e 6836 bbbd c677 20be
00000060: 475d bcbe 3c4d 49be 557b dfbd ddd2 643d
00000070: ee4b c83c c72a 59be be77 443d 2eda 2f3e
00000080: ef55 b23e 80f6 67bc 4ecc dfba 91d7 97bb
00000090: 5ff2 e3bd 8e7e 633d a236 9ebd ddc0 90be
000000a0: bc44 663e a824 6abd 0684 6abd d9b4 d03d
000000b0: 1083 9abe 5ec6 5e3e 7be1 6a3e ade0 fb39
000000c0: 30fe bf3e 32e6 82bd ddaf b3bd 20ec bb3d
000000d0: ed62 32be 0516 84be c100 513c f9a4 4d3d
000000e0: 1a32 e03d 3c58 063e 1ae8 e4bd f2f9 fa3e
000000f0: b862 22bd 7ffe e23d e1fb f13d a44e 053e
00000100: 2d84 a6be 1482 b03d 6aea 21be 9b42 c1bd
00000110: 3af1 593e 1f9b 823d d62c fabd c500 6b3d

enc1.0.bias f4 [8]
0.035770513 0.0005628824 0.032528754 0.0021703332 0.056154333 -0.0012600948 0.0018991486 -0.00018158494
00000000: 1a84 123d 668e 133a df3c 053d 263c 0e3b
00000010: 1602 663d c429 a5ba daec f83a d667 3eb9

enc1.2.weight f4 [8, 8, 3, 3]
0.040656533 0.065109864 -0.07799701 -0.24670619 0.49241242 0.16293533 -0.020407032 -0.01839734
-0.024805183 -0.07942208 -0.081267625 -0.10002865 -0.021127822 -0.09856191 0.18574354 0.18746828
0.17227721 -0.27077475 0.06571032 0.15833145 0.11071357 -0.10687155 0.12112547 -0.09610085
-0.20108484 0.13569699 0.061035514 0.025737425 0.097622715 -0.26718616 0.22171849 0.0076263873
0.03559449 -0.008157469 0.042704646 -0.18880573 0.032784946 0.07021797 0.16296361 -0.17012548
0.03546402 0.029810628 -0.0046440363 -0.054362528 0.13802673 0.03136425 -0.3050098 0.075187184
0.014059765 0.31417826 -0.1284356 0.18330584 -0.1574901 -0.121492 -0.08491722 0.18489836
-0.024411416 0.19751254 -0.07516735 -0.020034583 0.062698364 -0.45871663 -0.09411518 -0.0002242056
0.008142171 0.21924183 -0.068946935 -0.056530483 0.07534138 0.17455275 -0.02305607 -0.08506847
-0.18917039 0.03858026 0.014791628 0.13007165 0.14787644 0.1257534 -0.13809606 0.1861469
-0.21639861 0.030087328 0.25849906 -0.09626393 0.17174664 0.037502065 0.16321015 -0.04208686
-0.2569234 0.15188342 0.009824603 -0.2941181 0.27331457 -0.01688419 0.15321444 0.1425032
0.003033713 0.13981032 -0.1320076 -0.026018288 -0.08090517 0.19247757 0.4758759 0.003279155
0.024696426 0.094469875 0.542416 0.08519618 -0.28741932 0.031996176 -0.034002356 -0.3402688
0.14468421 -0.19852321 -0.07708069 0.1559027 0.32675362 -0.07380994 -0.08199247 0.01001404
0.06027781 0.22513199 0.122668125 -0.0007955342 -0.04521162 -0.03141174 0.2391643 0.0071381233
-0.28768507 0.28764638 0.21778402 -0.088266626 0.4046154 0.23379411 0.03900177 -0.031357415
0.31468123 0.13815817 0.28208947 0.30886006 0.19316295 0.15055919 -0.11221304 0.14718725
0.09484211 0.20304768 0.030692685 0.20844702 0.094572715 -0.093543544 0.10360918 0.5424656
-0.12144997 -0.3519123 -0.05044038 0.091209516 0.21315984 -0.021515679 -0.0423362 0.105864376
-0.44664922 -0.1574249 -0.20474151 -0.06690942 -0.34370515 0.10530095 0.0771864 0.2628112
0.038146887 0.17624056 -0.079238184 0.31303716 0.027379856 -0.03669579 -0.034308 0.10316241
0.13214289 -0.23280321 -0.20351738 -0.0514203 0.20726529 -0.1610066 0.35957766 -0.23996985
-0.04818708 0.13520756 -0.2166056 -0.0034284724 -0.0022935232 -0.105333365 -0.3984526 0.29543242
0.12389556 -0.31086853 -0.31081644 0.039074674 -0.37708578 0.039176185 0.07993224 -0.016993674
-0.111916594 -0.2864149 0.33143038 0.096441574 -0.246664 -0.08571161 0.19685109 0.11114235
-0.04759259 -0.02970609 0.27168265 -0.08721532 -0.099274814 0.118567616 0.11334645 -0.22898287
0.029176613 0.23778196 0.0022222428 -0.057602722 0.014502052 -0.20400135 0.17245641 0.032951187
0.039079834 -0.3857622 -0.3230906 -0.21146733 -0.021322401 -0.24873981 -0.08089252 0.28428727
0.14703047 0.120430484 -0.020815369 0.06316041 0.039368268 -0.09650009 -0.036095902 0.09350619
0.06417551 0.19947484 -0.20260634 -0.04436853 0.044836897 0.10673724 -0.3487099 -0.19984081
0.01956883 0.09493267 0.15008382 0.116037846 0.35902867 -0.051881146 -0.13313432 -0.23047729
00000000: 7787 263d 5258 853d e5bc 9fbd 8ca0 7cbe
00000010: 7b1d fc3e 85d8 263e a62c a7bc 05b6 96bc
00000020: 3d34 cbbc 0ba8 a2bd a46f a6bd d2db ccbd
00000030: 4114 adbc d4da c9bd 8e33 3e3e aff7 3f3e
00000040: 7069 303e fda2 8abe 2293 863d a421 223e
00000050: ccbd e23d 79df dabd a110 f83d 86d0 c4bd
00000060: 2fe9 4dbe 27f4 0a3e 6000 7a3d 4bd7 d23c
00000070: 6bee c73d a0cc 88be 2c0a 633e c6e6 f93b
00000080: 87cb 113d e8a6 05bc 11eb 2e3d 4a56 41be
00000090: 8249 063d 70ce 8f3d efdf 263e 6035 2ebe
000000a0: b842 113d 6b35 f43c 002d 98bb 3eab 5ebd
000000b0: e156 0d3e cd77 003d 3f2a 9cbe bdfb 993d
000000c0: ee5a 663c f9db a03e 9f84 03be 87b4 3b3e
000000d0: 1645 21be ccd0 f8bd 14e9 adbd ff55 3d3e
000000e0: 73fa c7bc ba40 4a3e 57f1 99bd 911f a4bc
000000f0: 0068 803d e8dc eabe 76bf c0bd bc18 6bb9
00000100: be66 053c ee80 603e 0d34 8dbd 828c 67bd
00000110: 954c 9a3d f5bd 323e 15e0 bcbc 6138 aebd
00000120: e2b5 41be 5606 1e3d 9658 723c 8131 053e
00000130: ec6c 173e 80c5 003e 0e69 0dbe 4b9d 3e3e
00000140: 9997 5dbe b379 f63c fd59 843e 0626 c5bd
00000150: 5ade 2f3e c49b 193d 9020 273e 4563 2cbd
00000160: 778b 83be 5487 1b3e 5ff7 203c a696 96be
00000170: e3ef 8b3e b650 8abc 3fe4 1c3e 5cec 113e
00000180: 42d1 463b 702a 0f3e 002d 07be 4e24 d5bc
00000190: 9cb1 a5bd d718 453e 02a6 f33e 17e7 563b
000001a0: 2950 ca3c 6c79 c13d c6db 0a3f 567b ae3d
000001b0: a028 93be 6c0e 033d 0e46 0bbd b637 aebe
000001c0: 1928 143e ab49 4bbe 7bdc 9dbd f5a4 1f3e
000001d0: 404c a73e aa29 97bd abeb a7bd ee11 243c
000001e0: dde5 763d 0089 663e 6d39 fb3d 658b 50ba
000001f0: d22f 39bd 99a9 00bd 7ce7 743e ebe6 e93b
00000200: 754b 93be 6346 933e c602 5f3e 22c5 b4bd
00000210: c029 cf3e b967 6f3e 52c0 1f3d a270 00bd
00000220: e61d a13e 5679 0d3e 086e 903e e822 9e3e
00000230: 82cc 453e 302c 1a3e f3cf e5bd 41b8 163e
00000240: 953c c23d bbeb 4f3e 3a6f fb3c 2373 553e
00000250: 57af c13d c293 bfbd 0d31 d43d 07df 0a3f
00000260: c3ba f8bd d92d b4be 929a 4ebd 0ecc ba3d
00000270: 9346 5a3e a641 b0bc b968 2dbd 6ccf d83d
00000280: 35af e4be fe33 21be c2a7 51be ce07 89bd
00000290: 1ffa afbe 06a8 d73d e713 9e3d 318f 863e
000002a0: e93f 1c3d 6878 343e a147 a2bd 6846 a03e
000002b0: b84b e03c 534e 16bd 8c86 0cbd d046 d33d
000002c0: 7750 073e f763 6ebe dc66 50be 189e 52bd
000002d0: 5a3d 543e eade 24be 901a b83e a8ba 75be
000002e0: d15f 45bd da73 0a3e dccd 5dbe 39b0 60bb
000002f0: ef4e 16bb 05b9 d7bd fb01 ccbe eb42 973e
00000300: f5bc fd3d 292a 9fbe 5523 9fbe c40c 203d
00000310: 6311 c1be 3577 203d 84b3 a33d 5136 8bbc
00000320: 8734 e5bd f9a4 92be 3eb1 a93e 2983 c53d
00000330: 7d95 7cbe 9289 afbd 5593 493e 9a9e e33d
00000340: 73f0 42bd 305a f3bc fd19 8b3e f29d b2bd
00000350: 9850 cbbd 94d3 f23d 2f22 e83d 7c7a 6abe
00000360: cb03 ef3c 1d7d 733e 0ca3 113b d5f0 6bbd
00000370: 049a 6d3c bbe5 50be 6a98 303e d3f7 063d
00000380: 2d12 203d a082 c5be 226c a5be e48a 58be
00000390: 51ac aebc a6b5 7ebe faaa a5bd 1a8e 913e
000003a0: 288f 163e 42a4 f63d fe84 aabc 3f5a 813d
000003b0: 9f40 213d d7a1 c5bd 4cd9 13bd 2c80 bf3d
000003c0: 736e 833d 2243 4c3e 0978 4fbe c7bb 35bd
000003d0: e5a6 373d 0e99 da3d 1b8a b2be 12a3 4cbe
000003e0: d04e a03c 0f6c c23d 93af 193e 40a5 ed3d
000003f0: 9bd2 b73e 5381 54bd 5d54 08be 3d02 6cbe

enc1.2.bias f4 [8]
-0.031952076 -4.684377e-05 0.039851274 -0.011218496 0.004915428 0.03464932 0.02992548 0.006728625
00000000: 2ee0 02bd 1d7a 44b8 173b 233d c8cd 37bc
00000010: 9911 a13b 72ec 0d3d 4826 f53c cc7b dc3b

enc2.0.weight f4 [16, 8, 3, 3]
0.011712532 -0.0364816 -0.014419969 -0.13574362 -0.19926077 0.09125865 0.058468558 -0.08377621
0.25797126 -0.0025265426 0.051068768 -0.03990722 -0.22190627 0.07816174 -0.050846834 -0.08581193
-0.03865887 0.1838922 0.0090094805 0.1209083 -0.15995951 -0.04399019 -0.016900713 -0.12843567
0.087619975 0.2698617 0.11404634 -0.049303763 0.09918852 0.107426606 -0.0250405 -0.16644716
-0.011045643 -0.18268043 -0.15424678 -0.08228275 0.14884558 -0.03399493 -0.1983981 -0.03324508
0.046872213 -0.039452806 -0.12363276 -0.11516604 0.06210819 0.061896387 0.054465733 0.13820949
0.22360367 -0.032319255 0.14451219 0.17528908 -0.03453378 0.116698496 0.18429781 -0.052987467
-0.31180978 -0.17826033 0.20173897 -0.066122994 0.092623144 0.21304734 0.18483773 0.0052243182
-0.16875014 0.025299484 -0.025216345 -0.005381556 0.10588683 -0.10713722 -0.17204991 0.003048187
0.0029664054 0.0413909 -0.02347128 -0.057869166 -0.023088912 -0.109828524 -0.059552535 0.02070425
0.12323635 -0.04524376 0.0012811758 0.28217635 0.012118668 -0.106998675 0.0034836042 -0.047040816
0.0036582383 -0.1096613 0.052623615 0.06175848 0.16389604 0.088277906 0.03536371 0.07043021
-0.18282984 0.11110761 0.03082055 -0.018004509 -0.08718433 0.082424045 -0.1835025 0.06174431
0.005060346 0.12467396 -0.23018754 0.030343156 0.12722977 -0.05036253 -0.02125185 -0.033185232
0.100596055 0.063842796 0.17504674 0.2403408 0.014839216 -0.06134987 -0.08986071 0.17847279
0.17335889 0.15718856 0.07456247 -0.1303889 0.10245497 0.124461345 0.20155208 -0.0029369479
0.06609123 0.024539793 0.19291975 -0.12429109 0.019022638 -0.02744223 0.2001876 -0.26636156
0.14622766 -0.20104444 -0.17338602 0.03855214 -0.030430686 0.0394181 -0.0047085453 -0.10461175
-0.04254038 -0.020684734 -0.1828658 -0.024476156 0.12454612 0.2213503 0.2907325 0.16493672
-0.17296715 -0.039106157 -0.1586254 -0.14228834 0.12511325 0.1726612 -0.025567789 0.049292937
-0.1163148 -0.23643194 0.12750223 0.0069692982 -0.17719856 -0.0995533 0.041605297 0.15131724
-0.07039307 -0.14009432 0.09687272 0.18312319 -0.016066683 0.116394415 0.14131834 0.00011542239
-0.04581622 0.18270586 -0.023805846 -0.08230545 0.10023475 0.07752128 0.12456933 0.19602987
0.09442947 0.3906765 0.3074359 0.16114464 0.05963242 -0.098727845 0.14905117 -0.13252923
-0.092710674 -0.0666869 0.18795832 0.2398894 0.08341207 -0.100226015 0.11411427 0.07502498
-0.024657259 0.0624144 0.15622538 0.08525818 0.11414486 0.088291116 -0.00989011 0.18032275
-0.17996638 0.030201502 0.13202542 -0.010259222 0.24187748 -0.16387132 0.023254324 -0.16227965
-0.046034608 0.04419343 0.15280688 -0.03058409 0.06527943 0.25254047 -0.00020298234 -0.06660375
-0.045990694 -0.37143448 -0.13587557 0.021492403 -0.06003442 -0.20548949 0.03993192 0.16213983
-0.0016572098 0.089010604 0.04078256 -0.06926725 -0.08278208 -0.069189005 0.08866409 -0.12197053
0.048372425 0.0062698163 0.033333767 -0.028424619 -0.12456309 0.23481311 -0.021226136 -0.060011342
0.08014031 -0.046753593 0.2487612 0.143525 -0.31413758 -0.24018939 0.0252934 0.01902543
00000000: ebe5 3f3c bb6d 15bd bc41 6cbc 6000 0bbe
00000010: 040b 4cbe d1e5 ba3d ba7c 6f3d dd92 abbd
00000020: cf14 843e 5a94 25bb 7c2d 513d c175 23bd
00000030: 663b 63be 4313 a03d c544 50bd 2abe afbd
00000040: c358 1ebd 3d4e 3c3e 809c 133c c59e f73d
00000050: 6dcc 23be 0f2f 34bd 5d73 8abc a484 03be
00000060: 1a72 b33d 502b 8a3e 2191 e93d bef2 49bd
00000070: 5a23 cb3d 7b02 dc3d bc21 cdbc 2071 2abe
00000080: c9f8 34bc 9410 3bbe def2 1dbe dc83 a8bd
00000090: fa6a 183e 453e 0bbd df28 4bbe fe2b 08bd
000000a0: 14fd 3f3d 4499 21bd 2c33 fdbd 2cdc ebbd
000000b0: 2865 7e3d 1187 7d3d 7617 5f3d ca86 0d3e
000000c0: 5cf8 643e 3261 04bd 01fb 133e fb7e 333e
000000d0: 4b73 0dbd 9fff ee3d 91b8 3c3e 6309 59bd
000000e0: 88a5 9fbe e089 36be a994 4e3e 7e6b 87bd
000000f0: 34b1 bd3d 1529 5a3e 1a46 3d3e c230 ab3b
00000100: d6cc 2cbe dd40 cf3c 8292 cebc c457 b0bb
00000110: 32db d83d c26a dbbd da2d 30be 17c4 473b
00000120: 0668 423b 8189 293d d746 c0bc 3808 6dbd
00000130: f524 bdbc c7ed e0bd 5ced 73bd f69b a93c
00000140: 5763 fc3d 8551 39bd 20ed a73a 6b79 903e
00000150: 618d 463c 1f22 dbbd 2e4d 643b dfad 40bd
00000160: 0ebf 6f3b 1b96 e0bd dc8b 573d 76f6 7c3d
00000170: 5dd4 273e 0ccb b43d 8ad9 103d b73d 903d
00000180: bf37 3bbe 638c e33d 617b fc3c 317e 93bc
00000190: b38d b2bd f0cd a83d 14e8 3bbe 9ae7 7c3d
000001a0: 42d1 a53b 1055 ff3d 48b6 6bbe 3692 f83c
000001b0: 8548 023e f148 4ebd 5c18 aebc 3ded 07bd
000001c0: 4e05 ce3d 03c0 823d 743f 333e e61b 763e
000001d0: 2f20 733c 004a 7bbd e408 b8bd 92c1 363e
000001e0: fe84 313e 0af6 203e 35b4 983d ab84 05be
000001f0: e9d3 d13d 97e5 fe3d ab63 4e3e cf79 40bb
00000200: d75a 873d ad07 c93c c18c 453e 548c febd
00000210: 5dd5 9b3c 87ce e0bc fafd 4c3e 8b60 88be
00000220: b4bc 153e 98de 4dbe 1b8c 31be d9e8 1d3d
00000230: c649 f9bc e074 213d 244a 9abb af3e d6bd
00000240: d23e 2ebd 0873 a9bc 2c41 3bbe 3882 c8bc
00000250: 0912 ff3d a7a9 623e e4da 943e 2ce5 283e
00000260: 4d1e 31be c72d 20bd b26e 22be 09b4 11be
00000270: b01d 003e 19ce 303e 8a73 d1bc 64e7 493d
00000280: 7436 eebd 371b 72be f28f 023e b65e e43b
00000290: 8a73 35be 9ae2 cbbd 516a 2a3d e8f2 1a3e
000002a0: 3e2a 90bd e374 0fbe 3465 c63d a584 3b3e
000002b0: 479e 83bc 3260 ee3d c1b5 103e ec0e f238
000002c0: caa9 3bbd 3f17 3b3e 7a04 c3bc c38f a8bd
000002d0: e047 cd3d 7ac3 9e3d 341e ff3d 0ebc 483e
000002e0: 3d64 c13d c006 c83e 3d68 9d3e 1a03 253e
000002f0: 2041 743d d331 cabd dfa0 183e beb5 07be
00000300: 18df bdbd 2493 88bd 2578 403e 91a5 753e
00000310: f3d3 aa3d 4c43 cdbd beb4 e93d b2a6 993d
00000320: 05fe c9bc 3ea6 7f3d 8cf9 1f3e d79b ae3d
00000330: c8c4 e93d f9d1 b43d 210a 22bc 87a6 383e
00000340: 1b49 38be 2469 f73c ac31 073e 4c16 28bc
00000350: bbae 773e e2cd 27be da7f be3c a32c 26be
00000360: c98e 3cbd 2c04 353d 6879 1c3e 7c8b fabc
00000370: 39b1 853d fc4c 813e a8d7 54b9 8c67 88bd
00000380: bd60 3cbd a92c bebe f722 0bbe d610 b03c
00000390: a7e6 75bd d66b 52be a78f 233d fc07 263e
000003a0: bc36 d9ba 314b b63d 9d0b 273d fddb 8dbd
000003b0: a789 a9bd f7b2 8dbd 8595 b53d afcb f9bd
000003c0: 2a22 463d 0873 cd3b fd88 083d bfda e8bc
000003d0: ef1a ffbd d972 703e 6fe2 adbc 74ce 75bd
000003e0: 9a20 a43d b280 3fbd 42bb 7e3e 38f8 123e
000003f0: a4d6 a0be 35f4 75be 1b34 cf3c 38db 9b3c

enc2.0.bias f4 [16]
0.033997096 0.032427143 -0.014762951 0.04423315 0.010619276 0.03871063 -0.021380667 -0.028863346
0.027393062 0.007005678 0.03197894 0.037145175 0.031406507 0.026619827 0.024420042 0.03823688
00000000: 8a40 0b3d 53d2 043d 4ee0 71bc d22d 353d
00000010: 79fc 2d3c 0a8f 1e3d 8226 afbc d372 ecbc
00000020: 6a67 e03c e38f e53b 59fc 023d 8a25 183d
00000030: 1ca4 003d d311 da3c 8a0c c83c 469e 1c3d

enc2.2.weight f4 [16, 16, 3, 3]
0.00034018382 0.044509307 -0.02241054 -0.120658666 0.13784115 0.057405174 -0.062308203 -0.028032321
-0.00094665814 -0.12337269 0.22626588 -0.11273794 -0.17968607 0.040193405 0.17520064 -0.23348403
-0.033995576 -0.03032171 -0.12477477 -0.06869488 -0.12732297 -0.10589792 0.31076735 0.043132108
-0.048312016 0.14822938 -0.06949386 0.21252051 0.14321215 -0.06709672 0.16366972 0.18022838
-0.09498115 -0.07619554 -0.3239069 0.19216686 -0.032483492 -0.042377982 0.15587305 -0.15611945
-0.115964375 0.22169526 -0.05282171 -0.39832366 -0.09312356 0.011001092 -0.035806548 0.1247635
0.022268033 -0.0018917333 -0.110186696 -0.08104485 -0.25170374 -0.08191269 0.022910029 -0.024658324
-0.09420604 0.12991136 -0.123851694 0.16326211 0.039666355 0.10901928 0.035743307 0.056842297
0.10519012 0.060409494 -0.1183112 -0.008448991 -0.15158954 0.11265793 0.15947068 -0.02212836
0.24651241 0.015757611 0.18005411 -0.08773218 0.06526017 0.2090013 -0.0005283459 -0.20539482
0.16849269 -0.21231179 -0.027904622 -0.19364376 0.1452285 0.16969451 0.07207421 -0.05945453
-0.193445 0.20479484 0.0041145165 -0.13978104 0.10744884 -0.0790705 0.1163691 0.020814516
-0.2600337 0.039913747 0.18160613 0.12991638 -0.04048697 -0.051092356 -0.06307019 0.14376853
0.062368818 0.01971371 -0.034772754 0.06894408 -0.087333664 0.025544392 0.19922045 -0.20999545
-0.06372395 -0.06873611 -0.002090274 0.14228474 0.14774647 0.02533036 0.09947761 -0.16135444
0.14998007 0.13422899 -0.07668771 0.07933133 0.023708088 -0.06368985 0.15908842 -0.07015854
-0.10421394 -0.02985609 -0.079528466 0.046196964 -0.25428486 0.052070312 -0.116073824 -0.13003519
0.04954731 0.17324609 -0.1284982 0.115798 -0.045887668 0.070800595 -0.022659844 0.08981935
0.011389275 0.06888368 0.107825436 -0.025789153 0.12817042 0.13508216 0.1877843 -0.08272012
0.16831288 0.17809023 0.08796049 0.009436585 -0.27635527 0.10801283 -0.11283656 0.0025661644
-0.07532594 -0.13371482 0.14971289 0.062282454 0.12433785 -0.22007127 -0.036697783 -0.03886158
-0.040930063 -0.043755144 -0.048162583 -0.20798132 -0.16456433 -0.08061394 0.12143352 -0.03166361
-0.1978919 -0.08515479 -0.035900578 0.04801166 -0.0059386627 0.032191686 0.066068865 0.028209535
0.06572842 0.19442898 0.16217352 0.14112577 -0.015308356 0.009729288 0.18552922 -0.099463046
-0.09968136 0.03319181 0.06443456 0.20109423 0.2788959 -0.007927151 -0.060118973 -0.05921087
-0.06253864 -0.147723 0.11951496 0.13671 -0.102199934 -0.07588426 0.19144817 0.12476454
-0.13780606 0.121388085 -0.0024924672 0.029447185 -0.04613964 0.07818655 -0.064689755 -0.0103367185
0.06286452 0.16989602 -0.17921215 0.0012096335 0.3133529 0.13163622 -0.06270524 0.021820117
-0.023731036 0.28992507 -0.08941811 -0.10548831 -0.10011225 0.032609683 0.024625761 -0.1624329
-0.43019077 -0.07696502 -0.014561658 -0.18249856 0.036120053 0.17891519 0.061251022 -0.25920513
-0.15740323 0.0917164 -0.04569605 0.05098158 -0.19033113 -0.096806355 0.047938302 -0.15138021
0.30305138 0.13216364 0.375752 -0.06378884 0.04224736 0.024228498 -0.0258134 0.1402325
00000000: b35a b239 644f 363d 4f96 b7bc e41b f7bd
00000010: 3b26 0d3e b021 6b3d e336 7fbd 0aa4 e5bc
00000020: 2729 78ba d2aa fcbd 3eb2 673e 26e3 e6bd
00000030: a0ff 37be d7a1 243d cc67 333e 7016 6fbe
00000040: f23e 0bbd 3c65 f8bc ea89 ffbd e7af 8cbd
00000050: f460 02be 02e1 d8bd e61c 9f3e 4bab 303d
00000060: d2e2 45bd 71c9 173e cc52 8ebd fa9e 593e
00000070: 35a6 123e 016a 89bd 0999 273e ca8d 383e
00000080: 7a85 c2bd 680c 9cbd 20d7 a5be 64c7 443e
00000090: 690d 05bd 8994 2dbd 2f9d 1f3e c7dd 1fbe
000000a0: bb7e edbd 1504 633e 945b 58bd 14f1 cbbe
000000b0: 91b7 bebd ed3d 343c e3a9 12bd 0284 ff3d
000000c0: 736b b63c 09f4 f7ba 90a9 e1bd d8fa a5bd
000000d0: 50df 80be d7c1 a7bd d0ad bb3c 4100 cabc
000000e0: 19ef c0bd 7c07 053e f5a5 fdbd 2f2e 273e
000000f0: 3079 223d 8045 df3d 9367 123d 78d3 683d
00000100: eb6d d73d f26f 773d 244d f2bd a36d 0abc
00000110: 4a3a 1bbe 33b9 e63d 484c 233e 8946 b5bc
00000120: c06d 7c3e 1b16 813c 1b60 383e eeac b3bd
00000130: 20a7 853d 7004 563e b180 0aba 0553 52be
00000140: 5989 2c3e 4368 59be 3c98 e4bc 8d4a 46be
00000150: c8b6 143e 66c4 2d3e a59b 933d 9886 73bd
00000160: 7216 46be bdb5 513e 11d3 863b c322 0fbe
00000170: 230e dc3d b7ef a1bd ec52 ee3d 3483 aa3c
00000180: 2323 85be 997c 233d f5f6 393e cd08 053e
00000190: aad5 25bd 3846 51bd f22a 81bd 0f38 133e
000001a0: 7276 7f3d a57e a13c e06d 0ebd 8e32 8d3d
000001b0: fedb b2bd 7942 d13c 7200 4c3e 0c09 57be
000001c0: b481 82bd 85c5 8cbd fafc 08bb 17b3 113e
000001d0: da4a 173e 9d81 cf3c ebba cb3d 193a 25be
000001e0: 6094 193e 5373 093e 720e 9dbd 7778 a23d
000001f0: 7737 c23c d36f 82bd 13e8 223e 48af 8fbd
00000200: 1e6e d5bd c294 f4bc d2df a2bd 0739 3d3d
00000210: a031 82be ae47 553d 1db8 edbd f227 05be
00000220: 1ff2 4a3d 6c67 313e 0895 03be 8027 ed3d
00000230: b5f4 3bbd e7ff 903d 23a1 b9bc 35f3 b73d
00000240: 159a 3a3c e312 8d3d 95d3 dc3d c643 d3bc
00000250: 1b3f 033e fa52 0a3e 874a 403e 2b69 a9bd
00000260: 365a 2c3e 495d 363e a124 b43d e89b 1a3c
00000270: 707e 8dbe d535 dd3d db16 e7bd 182d 283b
00000280: 7d44 9abd 8aec 08be 564e 193e e31b 7f3d
00000290: d8a4 fe3d 5d5a 61be 6a50 16bd 522d 1fbd
000002a0: 48a6 27bd 9838 33bd 2146 45bd 0ef9 54be
000002b0: 8d83 28be ec18 a5bd 23b2 f83d b4b1 01bd
000002c0: 2da4 4abe a265 aebd 7c0c 13bd e0a7 443d
000002d0: 1d99 c2bb 6edb 033d 1d4f 873d af17 e73c
000002e0: 9f9c 863d 6418 473e d110 263e 4683 103e
000002f0: e6cf 7abc 9767 1f3c 5ffb 3d3e 48b3 cbbd
00000300: be25 ccbd 23f4 073d 44f6 833d a5eb 4d3e
00000310: 72cb 8e3e e2e0 01bc 503f 76bd 1987 72bd
00000320: 4214 80bd b344 17be 42c4 f43d b5fd 0b3e
00000330: 334e d1bd 3569 9bbd fd0a 443e 8d84 ff3d
00000340: 081d 0dbe 519a f83d a958 23bb 393b f13c
00000350: ebfc 3cbd 4520 a03d 107c 84bd 575b 29bc
00000360: 1dbf 803d 39f9 2d3e 6483 37be 918c 9e3a
00000370: cb6f a03e a5cb 063e 9b6b 80bd 1ac0 b23c
00000380: 9767 c2bc 0f71 943e d820 b7bd 410a d8bd
00000390: a707 cdbd bb91 053d f7bb c93c cf54 26be
000003a0: f741 dcbe d69f 9dbd 0594 6ebc e7e0 3abe
000003b0: 9ff2 133d 8b35 373e 5ae2 7a3d 89b6 84be
000003c0: 502e 21be cfd5 bb3d c82b 3bbd 10d2 503d
000003d0: 2ae6 42be 6942 c6bd f45a 443d 6a03 1bbe
000003e0: 8d29 9b3e e855 073e 9162 c03e b9a3 82bd
000003f0: 910b 2d3d d87a c63c a076 d3bc 1c99 0f3e

enc2.2.bias f4 [16]
0.017541988 0.032055933 -0.0004522298 0.012399844 0.03335435 0.025469333 -0.005624686 -0.005327378
0.058376852 0.031196067 0.01328526 -0.009332871 0.018899355 -0.015004605 0.034741186 0.028667117
00000000: 37b4 8f3c 154d 033d 4219 edb9 b728 4b3c
00000010: 929e 083d 10a5 d03c 494f b8bb 4991 aebb
00000020: 911c 6f3d e58e ff3c 6baa 593c e6e8 18bc
00000030: d2d2 9a3c e0d5 75bc c64c 0e3d 4dd7 ea3c

bottleneck.0.weight f4 [32, 16, 3, 3]
-0.091286026 0.033835817 0.050532002 0.05109331 0.07530675 -0.03629502 0.026687201 0.0147723025
-0.16829073 -0.0172598 -0.18038811 0.09277835 -0.018512351 0.066679716 0.12912506 -0.17246868
0.21692842 0.03036341 0.03638333 0.08156335 0.08718523 -0.04917013 0.12965105 0.21669261
-0.035242982 -0.016537014 -0.025595104 0.04010817 -0.06597407 0.0032294237 -0.044025585 -0.10018328
-0.033425078 0.12585767 -0.010168542 -0.08339475 -0.078778155 -0.07568896 -0.00692962 -0.056386486
0.04115901 -0.17346582 0.10104432 -0.13662562 0.12657773 -0.024991302 0.10647304 0.030782754
-0.10111026 0.060736485 -0.03527758 0.119619384 0.09119487 -0.046779193 0.021562766 0.113454975
0.0040912507 0.07161963 -0.039553273 -0.14000235 -0.056742523 0.26400265 0.07695801 -0.0732934
0.025991477 -0.05380356 0.030049663 0.13859046 0.08696034 0.017717816 0.0011802224 -0.04856189
0.015543819 0.018233053 -0.16227224 0.09632049 -0.07340059 -0.055982698 -0.035948012 0.1232351
0.18615514 -0.0912539 0.102133945 0.055697728 -0.029397676 0.053864855 0.15453233 -0.11109721
0.034405943 -0.0063522155 0.016642056 -0.024011588 -0.06322463 0.10968539 0.15045384 0.121178925
-0.0009068853 0.10117441 -0.0107691465 -0.025963265 0.07928505 -0.03534215 -0.0030502614 0.055184837
0.0060056867 0.032119885 0.2743904 0.10160634 0.0057442393 0.040446054 -0.038228903 0.1532612
0.07091749 -0.09844032 -0.038464077 -0.039869618 -0.19463827 0.08241362 0.0626371 -0.10632663
0.17859408 -0.03372478 0.040779024 -0.005781106 0.017605303 0.22356291 -0.0036261037 0.04351301
-0.14957194 0.05660328 -0.047505945 -0.03199695 0.022549128 -0.111907065 -0.059792873 0.026383284
0.17116785 0.037960276 0.060847983 0.04598628 0.03944784 0.09481647 0.048903782 0.036004663
0.014051669 -0.084349826 0.102704026 0.012202125 0.046865426 0.012653413 -0.024182107 -0.065460406
0.06163742 0.05885013 -0.07016648 0.0023869937 0.046482038 0.00049434125 -0.19264689 -0.053408787
-0.07819927 0.24323645 -0.0091422675 -0.123960584 -0.08033596 -0.05352193 -0.101129346 0.0106667
-0.05874413 0.046797764 0.08741919 -0.06660267 -0.06641365 0.03835936 0.041892145 -0.052574847
0.023344923 0.06040132 0.04302819 0.108383454 0.050773907 0.021899067 0.11028169 0.11705131
0.08781611 0.09211069 0.044782802 -0.017238352 -0.09586214 -0.03827736 -0.00063428207 -0.0610278
-0.02986271 0.00040941365 -0.06378271 0.048199482 -0.038456626 0.10138096 -0.11980298 -0.051509563
-0.11185729 0.043438416 0.08095775 -0.1517734 0.08648501 0.11772072 0.18775457 -0.17655352
-0.054025147 -0.23633607 0.10641507 0.22325489 -0.054925285 0.042503398 0.025870249 -0.056367353
-0.04764064 0.12278715 0.025682999 -0.015655411 -0.038779136 -0.021207884 -0.09102415 0.21888329
0.13947144 0.010362676 -0.031981066 -0.120905936 0.0493288 -0.13140526 -0.078371555 -0.20925985
0.09716296 -0.12858106 0.063589156 0.0703233 -0.09181727 0.1325973 -0.024199266 -0.122882485
0.05406145 -0.011060643 0.13006325 -0.043463197 -0.018683147 0.16985154 0.071860895 -0.028326416
0.06850888 0.04305777 0.0027880888 0.1307786 0.10783599 0.16293514 -0.039650008 -0.082979225
00000000: 2bf4 babd 6d97 0a3d a5fa 4e3d 3847 513d
00000010: 6d3a 9a3d 16aa 14bd 1e9f da3c 8707 723c
00000020: 6854 2cbe 6d64 8dbc a9b7 38be 9302 be3d
00000030: 37a7 97bc 608f 883d 5c39 043e a19b 30be
00000040: 7c22 5e3e b0bc f83c b006 153d b00a a73d
00000050: 2b8e b23d 9e66 49bd 3fc3 043e abe4 5d3e
00000060: f25a 10bd a278 87bc d3ac d1bc 7748 243d
00000070: 6a1d 87bd bda4 533b 2c54 34bd e42c cdbd
00000080: bce8 08bd d5e0 003e f599 26bc deca aabd
00000090: 7156 a1bd d002 9bbd de11 e3bb 84f5 66bd
000000a0: 5a96 283d 06a1 31be 53f0 ce3d 96e7 0bbe
000000b0: 989d 013e 8fba ccbc 8a0e da3d 1d2c fc3c
000000c0: e512 cfbd d2c6 783d 397f 10bd 02fb f43d
000000d0: 60c4 ba3d 8a9b 3fbd 66a4 b03c 155b e83d
000000e0: e60f 863b 50ad 923d 9d02 22bd c75c 0fbe
000000f0: d96a 68bd 5b2b 873e 299c 9d3d da1a 96bd
00000100: 14ec d43c 1f61 5cbd b62a f63c a8ea 0d3e
00000110: 4318 b23d f424 913c b1b1 9a3a d5e8 46bd
00000120: 81ab 7e3c 7c5d 953c b22a 26be ad43 c53d
00000130: 0c53 96bd 1d4e 65bd 393e 13bd af62 fc3d
00000140: 749f 3e3e 53e3 babd 9a2b d13d 4d23 643d
00000150: 65d3 f0bc 65a1 5c3d b93d 1e3e ef86 e3bd
00000160: 3fed 0c3d 3f26 d0bb ec54 883c f3b3 c4bc
00000170: ea7b 81bd bca2 e03d 9210 1a3e a82c f83d
00000180: 0bbc 6dba 8734 cf3d 1371 30bc eab0 d4bc
00000190: 3360 a23d eec2 10bd e5e6 47bb 7f09 623d
000001a0: 5acb c43b 2490 033d e67c 8c3e fc16 d03d
000001b0: 2c3a bc3b c3aa 253d e995 1cbd 81f0 1c3e
000001c0: 303d 913d 149b c9bd 828c 1dbd 534e 23bd
000001d0: 414f 47be 79c8 a83d e147 803d c7c1 d9bd
000001e0: 5ee1 363e ff22 0abd e807 273d 6f6f bdbb
000001f0: ff38 903c aded 643e eda3 6dbb b33a 323d
00000200: 6329 19be d7d8 673d 9895 42bd 3c0f 03bd
00000210: f3b8 b83c 882f e5bd 5fe9 74bd c221 d83c
00000220: a046 2f3e 3c7c 1b3d bc3b 793d 1c5c 3c3d
00000230: 0f94 213d 232f c23d 554f 483d a079 133d
00000240: f938 663c 9abf acbd 7d56 d23d 6ceb 473c
00000250: f6f5 3f3d 4350 4f3c 8e19 c6bc 1b10 86bd
00000260: 8577 7c3d d50c 713d 72b3 8fbd 1c6f 1c3b
00000270: f363 3e3d ae96 013a 3a45 45be 2cc3 5abd
00000280: f026 a0bd fa12 793e 73c9 15bc 0cdf fdbd
00000290: 2e87 a4bd d039 5bbd e71c cfbd 62c3 2e3c
000002a0: af9d 70bd 03af 3f3d d508 b33d fb66 88bd
000002b0: e103 88bd b41e 1d3d 1997 2b3d b958 57bd
000002c0: da3d bf3c 6067 773d 543e 303d 25f8 dd3d
000002d0: 4df8 4f3d ac65 b33c 5edb e13d 99b8 ef3d
000002e0: efd8 b33d 88a4 bc3d 2c6e 373d 7237 8dbc
000002f0: 5f53 c4bd b9c8 1cbd f345 26ba 49f8 79bd
00000300: a4a2 f4bc 92a6 d639 82a0 82bd d26c 453d
00000310: b284 1dbd d2a0 cf3d 445b f5bd b1fb 52bd
00000320: 6f15 e5bd 7bec 313d 2dcd a53d 7c6a 1bbe
00000330: 0e1f b13d 9017 f13d bc42 403e 72ca 34be
00000340: 7949 5dbd 1502 72be 25f0 d93d ee9c 643e
00000350: 56f9 60bd 0b18 2e3d d8ed d33c 74e1 66bd
00000360: d522 43bd d477 fb3d 2765 d23c c73f 80bc
00000370: dfd6 1ebd 28bc adbc df6a babd f122 603e
00000380: 9ad1 0e3e 37c8 293c 94fe 02bd 889d f7bd
00000390: ff0c 4a3d 1a8f 06be 4481 a0bd 3748 56be
000003a0: 60fd c63d c1aa 03be 083b 823d aa05 903d
000003b0: b10a bcbd 96c7 073e 8a3d c6bc d0a9 fbbd
000003c0: 8a6f 5d3d b337 35bc 4d2f 053e 7706 32bd
000003d0: 660d 99bc 90ed 2d3e ce2b 933d cd0c e8bc
000003e0: 624e 8c3d 585d 303d 5eb8 363b d3ea 053e
000003f0: 1ed9 dc3d 78d8 263e 0c68 22bd 03f1 a9bd

bottleneck.0.bias f4 [32]
-0.03324584 0.019637896 0.028420972 0.037762262 0.03024574 0.027286595 0.05155126 -0.011365151
0.025786288 -0.014104312 0.0137894545 0.037339725 -0.010221305 0.025474874 -0.0039492017 0.029640295
0.03486373 0.0069899377 0.02743797 0.056646507 0.00041879603 0.05025551 0.024683664 -0.012716033
0.03465632 0.019593243 -0.02772566 0.011085207 0.024198715 0.026796993 0.02536724 0.02793275
00000000: ca2c 08bd a7df a03c 19d3 e83c 9aac 1a3d
00000010: eac5 f73c 2388 df3c 6a27 533d e634 3abc
00000020: c43d d33c c615 67bc 2aed 613c 8af1 183d
00000030: 4377 27bc afb0 d03c 4e68 81bb 34d0 f23c
00000040: 45cd 0e3d d90b e53b 98c5 e03c 2b06 683d
00000050: da91 db39 b9d8 4d3d 6535 ca3c e856 50bc
00000060: c9f3 0d3d 0282 a03c ec20 e3bc ba9e 353c
00000070: 623c c63c 5e85 db3c f5ce cf3c 39d3 e43c

bottleneck.2.weight f4 [32, 32, 3, 3]
-0.0112236 -0.036172792 -0.19665007 -0.10393977 -0.18583697 -0.02271647 -0.07158849 -0.12338187
-0.015777156 0.00014541518 -0.18031763 -0.015542023 0.004474928 0.10064417 0.068138935 0.0759645
-0.033760287 -0.015271604 -0.047146723 0.22158784 0.03944551 -0.09424737 0.0706484 -0.021732455
0.09163697 -0.06814903 0.0901056 -0.031184267 0.10132048 0.026040338 -0.004785985 0.14734685
0.09202177 0.055025343 0.115526855 0.04195371 0.04263973 -0.004953152 0.06600857 0.010672948
-0.074190855 0.15925577 -0.0062721623 0.030718219 -0.14866397 -0.19111758 -0.16006318 -0.053806987
0.083238944 0.05520322 0.11391761 -0.08072598 -0.055510577 0.05166481 0.25837478 -0.08151282
-0.04849013 0.07114097 -0.022450725 -0.051235236 -0.04502381 -0.0075692465 -0.08428242 0.012279893
0.005446744 0.1234948 0.025930237 0.07715828 0.029156957 -0.04778252 0.023719316 0.060572397
-0.17776626 0.01144505 -0.11672472 0.051421303 -0.010085323 0.0249424 0.058844086 -0.08540839
0.03337869 0.012107506 0.022591524 -0.053097196 -0.0503874 0.056481484 -0.061312333 -0.017921839
-0.2276542 -0.12501936 -0.019805538 0.025867905 -0.035746578 -0.08061825 0.12491865 0.07422791
0.019203527 0.06177914 0.03900803 0.0047154394 0.084266186 0.19114596 0.10558484 0.18605575
-0.032159265 0.048455272 -0.11799647 0.031444456 -0.051941693 -0.065404475 -0.019200336 -0.006180609
-0.04744981 -0.09413028 -0.117057055 -0.10833754 -0.16277206 0.023262432 0.085165694 -0.102914296
-0.07959106 0.011217208 0.05004356 -0.20631483 0.024419593 0.08856954 0.11168899 0.03664148
-0.13242361 0.12655702 0.15050976 -0.21095099 -0.074969664 0.1498603 0.03775026 -0.05609821
0.08671393 0.01920101 -0.1052515 0.030948492 0.032854997 0.09077197 -0.09545171 0.10365364
0.2092431 -0.14521891 -0.011799872 -0.05323968 0.048749566 0.017891375 -0.111667514 0.04763014
-0.026476836 -0.01469678 -0.047090497 0.105130054 0.013389818 -0.028846707 0.033361293 0.026271053
0.11365618 -0.0479295 -0.030690895 -0.11548017 -0.08465297 -0.2016015 0.035515085 -0.13991645
0.0071708057 0.16531745 -0.034010172 -0.09083946 -0.058756318 -0.13285492 0.047882166 0.044867642
-0.14902772 0.023477595 0.08378628 0.16220333 -0.030898785 -0.120878845 0.1256462 -0.10327244
-0.03740026 -0.08747938 -0.08102066 0.07684382 0.11092165 -0.25696886 0.0083881905 0.045624845
-0.063508324 0.026809033 0.03230881 -0.15067385 0.10151085 0.020014105 0.03035582 -0.11574472
0.017599758 -0.05045394 -0.0032712359 0.1718397 0.02216951 -0.13901778 0.063494235 0.048511047
0.057791226 -0.09801185 0.020354016 -0.1673277 -0.006693439 -0.05434491 -0.0030910554 -0.12844388
0.011373839 0.018896246 0.018354207 0.05020642 -0.029555624 0.11108927 0.01572963 0.05730584
0.03420241 -0.12106755 -0.06587974 0.005371844 -0.04333505 -0.101505 0.10412554 0.07056473
-0.049169768 0.04423939 0.0423666 -0.12329486 -0.01900307 0.16505525 -0.116542466 -0.08795739
0.03244948 -0.0104834195 -0.07770278 0.054278642 0.049576703 0.039323274 0.018066844 0.07501392
0.15620092 -0.09132346 -0.03034236 0.021724869 0.14631902 0.22563498 0.24115255 -0.0516741
00000000: 31e3 37bc ec29 14bd a35e 49be 60de d4bd
00000010: 0c4c 3ebe e417 babc fc9c 92bd a2af fcbd
00000020: 183f 81bc 977a 1839 2fa5 38be f8a3 7ebc
00000030: 6ba2 923b 881e ce3d 6d8c 8b3d 4793 9b3d
00000040: 3a48 0abd c035 7abc ec1c 41bd ece7 623e
00000050: 9d91 213d c404 c1bd 1cb0 903d 4308 b2bc
00000060: 2aac bb3d b891 8bbd 4989 b83d 2676 ffbc
00000070: 1d81 cf3d 8c52 d53c c1d3 9cbb 18e2 163e
00000080: e975 bc3d 4162 613d 5899 ec3d a7d7 2b3d
00000090: ffa6 2e3d 0d4e a2bb 802f 873d 97dd 2e3c
000000a0: 60f1 97bd f213 233e b686 cdbb c6a4 fb3c
000000b0: 5e3b 18be 54b4 43be 9ae7 23be b764 5cbd
000000c0: 2e79 aa3d c61c 623d a34d e93d aa53 a5bd
000000d0: 0f5f 63bd 7b9e 533d b349 843e 32f0 a6bd
000000e0: 969d 46bd 5bb2 913d 95ea b7bc 0adc 51bd
000000f0: e36a 38bd 7107 f8bb 439c acbd 9b31 493c
00000100: 9a7a b23b d7ea fc3d a66b d43c 2905 9e3d
00000110: 92da ee3c 9bb7 43bd 034f c23c c31a 783d
00000120: 5c08 36be 0584 3b3c 5f0d efbd 259f 523d
00000130: e93c 25bc 0154 cc3c 7f06 713d 98ea aebd
00000140: 18b8 083d 905e 463c dc11 b93c 727c 59bd
00000150: 0563 4ebd 2159 673d a422 7bbd d2d0 92bc
00000160: 2f1e 69be 1305 00be 393f a2bc eee8 d33c
00000170: 016b 12bd 2e1b a5bd 59d5 ff3d cd04 983d
00000180: b750 9d3c 200c 7d3d e2c6 1f3d f983 9a3b
00000190: c093 ac3d c4bb 433e dd3c d83d 6685 3e3e
000001a0: 6fb9 03bd 0979 463d 22a8 f1bd e7cb 003d
000001b0: d0c0 54bd c8f2 85bd 064a 9dbc b586 cabb
000001c0: bb5a 42bd 60c7 c0bd 9cbb efbd 12e0 ddbd
000001d0: b8ad 26be db90 be3c 5a6b ae3d bbc4 d2bd
000001e0: a300 a3bd 61c8 373c 7afa 4c3d 3244 53be
000001f0: 990b c83c f263 b53d 32bd e43d 6015 163d
00000200: 0e9a 07be 2a98 013e 3b1f 1a3e 8903 58be
00000210: b289 99bd fa74 193e 04a0 1a3d 3dc7 65bd
00000220: 1397 b13d 704b 9d3c 198e d7bd b187 fd3c
00000230: f692 063d a8e6 b93d 307c c3bd 5c48 d43d
00000240: d343 563e 44b4 14be 4054 41bc da11 5abd
00000250: a0ad 473d ef90 923c f0b1 e4bd d217 433d
00000260: f3e5 d8bc c3ca 70bc f7e1 40bd 6d4e d73d
00000270: f860 5b3c ee4f ecbc daa5 083d 6436 d73c
00000280: 92c4 e83d b951 44bd 796b fbbc de80 ecbd
00000290: 895e adbd a070 4ebe 4478 113d 4246 0fbe
000002a0: 14f9 ea3b fa48 293e 404e 0bbd 0a0a babd
000002b0: 77aa 70bd 1f0b 08be 1720 443d 22c7 373d
000002c0: b99a 18be 1654 c03c 2498 ab3d a118 263e
000002d0: 731f fdbc 548f f7bd 66a9 003e 8080 d3bd
000002e0: 0431 19bd 6428 b3bd 29ee a5bd 4b60 9d3d
000002f0: e42a e33d 6c91 83be 9f6e 093c 1ee1 3a3d
00000300: a710 82bd 9e9e db3c 3e56 043d 3f4a 1abe
00000310: ece4 cf3d 9ff4 a33c c5ac f83c 910b edbd
00000320: 5e2d 903c caa8 4ebd 3b62 56bb bff6 2f3e
00000330: d59c b53c ad5a 0ebe 4409 823d 85b3 463d
00000340: 7eb6 6c3d 70ba c8bd 77bd a63c f457 2bbe
00000350: a354 dbbb c598 5ebd 4e93 4abb cb86 03be
00000360: 5759 3a3c 4dcc 9a3c 905b 963c 3fa5 4d3d
00000370: a31e f2bc c582 e33d 6ddb 803c 87b9 6a3d
00000380: d417 0c3d 43f2 f7bd f5eb 86bd 4b06 b03b
00000390: 1880 31bd dae1 cfbd c53f d53d 3e84 903d
000003a0: 3d66 49bd 5d34 353d 9a88 2d3d 0482 fcbd
000003b0: 54ac 9bbc 3e04 293e d1ad eebd 0123 b4bd
000003c0: bfe9 043d a6c2 2bbc a322 9fbd 4853 5e3d
000003d0: f110 4b3d 7111 213d eb00 943c e6a0 993d
000003e0: 22f3 1f3e cb07 bbbd 8a90 f8bc 5af8 b13c
000003f0: a7d4 153e db0c 673e b2f0 763e 39a8 53bd

bottleneck.2.bias f4 [32]
0.028154425 0.045904126 0.030877642 -0.014228771 -0.008812486 -0.014420205 0.025699254 -0.0032748678
0.036791705 0.008442833 0.0342223 -0.035806946 -0.037069578 0.02890496 -0.013595287 0.02658427
0.031042924 -0.014515074 0.03509467 -0.013268574 0.02885673 0.006103994 -0.04687125 -0.0041308496
0.02883595 0.0315848 -0.033523273 0.02935321 0.0068544582 -0.023646316 0.02640567 0.0063180714
00000000: 1ca4 e63c f705 3c3d 1cf3 fc3c cb1f 69bc
00000010: 3f62 10bc b942 6cbc 3e87 d23c 2a9f 56bb
00000020: e6b2 163d cf53 0a3c af2c 0c3d 4eaa 12bd
00000030: 45d6 17bd 18ca ec3c c4be 5ebc 41c7 d93c
00000040: bb4d fe3c a2d0 6dbc 6ebf 0f3d 6f64 59bc
00000050: f364 ec3c 0304 c83b 11fc 3fbd 145c 87bb
00000060: 5f39 ec3c 105f 013d b34f 09bd 2576 f03c
00000070: 5d9b e03b ebb5 c1bc b450 d83c d307 cf3b

up1.weight f4 [32, 16, 2, 2]
0.0724428 0.059545513 -0.26654696 -0.028966371 -0.113782495 0.11248596 0.08402575 0.30729872
-0.18561149 -0.08115741 0.09732143 0.017653266 -0.07657556 0.07181574 0.116465785 -0.092518665
0.0048053027 0.3000483 0.08239045 -0.07779777 0.031986274 -0.16445799 0.015740715 -0.08849492
0.13545057 0.11483877 -0.04153324 -0.0936284 0.021446796 -0.21433808 0.22859144 0.059799667
-0.22794022 0.11105321 -0.22192293 -0.08814454 0.049520884 -0.057688583 0.18613848 0.20108217
-0.11928528 0.19057256 0.08269316 0.13799544 0.007903357 0.104423724 -0.092589945 -0.023223447
0.09742929 -0.25114557 -0.0325742 0.08241006 0.03020849 -0.05725886 0.27954015 0.15253252
-0.11837888 -0.23427272 0.066747114 -0.035537355 0.0058284327 0.22148399 -0.09680027 0.046885528
-0.22142473 -0.18845524 -0.0085784085 -0.12826154 -0.24450007 -0.11264321 -0.19046298 0.0012281784
0.29942518 0.09369919 -0.04532395 -0.0944118 0.10041318 -0.029555632 0.08855603 -0.113997795
-0.1502731 -0.105979264 -0.05955167 -0.23716421 -0.023077324 -0.015631264 0.041411314 0.064107396
-0.12792449 -0.07541847 -0.1634454 -0.33707225 0.07555932 0.09957915 -0.18654269 -0.07107009
-0.19779319 -0.036949087 -0.24383807 0.13550892 0.08269469 0.13321255 0.10086649 0.01825184
-0.08626284 -0.20833921 0.006962074 0.06331494 -0.13835074 -0.012432803 0.23296846 0.006836981
-0.08269241 0.08772931 0.050015915 0.08938733 0.114216395 0.02477174 0.20536503 -0.06073478
0.04487082 0.17234808 -0.06385808 -0.099130936 -0.19025621 -0.12524967 -0.23847651 -0.052858442
-0.03055218 -0.062162198 -0.11868278 0.25456136 -0.0007880546 -0.049155977 -0.14881323 -0.07940944
0.044894375 0.07027945 0.21779956 0.24983452 0.11776828 0.07524507 0.32679623 -0.018474288
-0.052200913 -0.019636998 -0.21269141 -0.20262624 -0.016919205 0.03453256 -0.07399161 -0.03340066
0.042403154 0.1337422 -0.037898846 -0.14972648 -0.41591263 -0.045845278 -0.083901584 -0.027700182
0.19061236 -0.01421211 -0.15535893 0.34333858 0.104240716 0.11377302 0.19723879 -0.059694994
0.03503644 -0.0005630833 0.030720182 -0.063861474 0.046641223 -0.07938035 0.0922671 -0.09356692
-0.020609485 0.027113592 -0.042051543 0.2580077 -0.03224828 -0.013703859 0.0014736817 0.28029072
-0.1007248 0.13464658 -0.065305166 -0.16059065 0.10673448 -0.11600291 -0.044289734 -0.15181547
-0.09038683 0.048182666 0.035851996 0.10340575 0.10854049 0.1404409 -0.277761 0.08406341
-0.14950958 -0.18112147 -0.052246183 0.094319 -0.29449737 -0.003520454 0.06601174 0.16324411
0.08107861 -0.10836183 0.12928684 -0.057500683 -0.012228059 -0.014980236 0.07973069 0.09542405
-0.031186394 -0.007664123 0.36052182 0.026067859 -0.026621262 0.12454415 0.021805188 -0.061166152
-0.0049640397 -0.018704707 0.028358525 -0.059405092 0.088801995 -0.20637576 0.05692891 0.21912295
-0.09961616 -0.036090564 0.14065567 -0.19675878 0.030278955 -0.15924332 0.07578089 0.07936181
-0.024275802 0.10769139 0.12109755 -0.13244005 0.12789392 -0.026554031 0.13164201 -0.13915497
0.24129787 -0.058587253 0.12246994 -0.05673163 -0.15672074 0.081261426 0.08419116 0.028707068
00000000: e45c 943d ffe5 733d d878 88be e24a edbc
00000010: cc06 e9bd 0a5f e63d b115 ac3d 4256 9d3e
00000020: f010 3ebe db35 a6bd 7550 c73d 959d 903c
00000030: a6d3 9cbd 2114 933d 9d85 ee3d 6d7a bdbd
00000040: cd75 9d3b ee9f 993e 53bc a83d 7054 9fbd
00000050: 0a04 033d ad67 28be acf2 803c d33c b5bd
00000060: 8eb3 0a3e 9730 eb3d c21e 2abd 3fc0 bfbd
00000070: 31b1 af3c 717b 5bbe e013 6a3e 7ff0 743d
00000080: 2969 69be de6f e33d c43f 63be 2085 b4bd
00000090: 69d6 4a3d dd4a 6cbd 169b 3e3e 7ce8 4d3e
000000a0: d74b f4bd 7425 433e 085b a93d ad4e 0d3e
000000b0: 157d 013c 1bdc d53d cc9f bdbd 193f bebc
000000c0: 0289 c73d 2796 80be 866c 05bd 9bc6 a83d
000000d0: cc77 f73c 4488 6abd e31f 8f3e 7c31 1c3e
000000e0: a070 f2bd 30e5 6fbe b6b2 883d 9e8f 11bd
000000f0: 70fc be3b b3cc 623e 383f c6bd 0a0b 403d
00000100: 2abd 62be 69fa 40be 748c 0cbc fe56 03be
00000110: 3a5e 7abe 7cb1 e6bd ba08 43be d4fa a03a
00000120: 424e 993e 5ce5 bf3d 9ba5 39bd f95a c1bd
00000130: 6da5 cd3d a71e f2bc dd5c b53d ad77 e9bd
00000140: 31e1 19be a80b d9bd 74ec 73bd 2ddb 72be
00000150: a80c bdbc 230d 80bc e99e 293d bd4a 833d
00000160: a3fe 02be 0075 9abd 3b5e 27be bc94 acbe
00000170: d8be 9a3d 27f0 cb3d 0c05 3fbe 328d 91bd
00000180: 4c8a 4abe ed57 17bd b0b0 79be dac2 0a3e
00000190: d55b a93d df68 083e 1793 ce3d e284 953c
000001a0: 92aa b0bd e056 55be 1c22 e43b 43ab 813d
000001b0: d1ab 0dbe f5b2 4bbc 498f 6e3e c108 e03b
000001c0: a35a a9bd 6dab b33d 7ddd 4c3d b410 b73d
000001d0: 49ea e93d 1bee ca3c 364b 523e 08c5 78bd
000001e0: 77ca 373d 047c 303e 06c8 82bd 2905 cbbd
000001f0: 86d2 42be 7341 00be 3033 74be 1882 58bd
00000200: 9148 fabc ca9d 7ebd f50f f3bd de55 823e
00000210: 7395 4eba c757 49bd 7f62 18be 6ba1 a2bd
00000220: 2ae3 373d acee 8f3d d906 5f3e 9fd4 7f3e
00000230: 7f30 f13d 161a 9a3d d651 a73e 6457 97bc
00000240: a0d0 55bd c5dd a0bc c7cb 59be 417d 4fbe
00000250: 259a 8abc 0372 0d3d ea88 97bd 21cf 08bd
00000260: eeae 2d3d b7f3 083e d23b 1bbd e651 19be
00000270: 80f2 d4be 42c8 3bbd 98d4 abbd 7eeb e2bc
00000280: e32f 433e e9d9 68bc 6916 1fbe 13ca af3e
00000290: 287c d53d d401 e93d f7f8 493e bd82 74bd
000002a0: 5f82 0f3d e19b 13ba e4a8 fb3c cec9 82bd
000002b0: de0a 3f3d 2a92 a2bd 89f6 bc3d 03a0 bfbd
000002c0: 39d5 a8bc 531d de3c 3d3e 2cbd 9619 843e
000002d0: c616 04bd 2786 60bc 8d28 c13a 4482 8f3e
000002e0: ce48 cebd cbe0 093e b7be 85bd e071 24be
000002f0: 9b97 da3d ef92 edbd 2769 35bd 8475 1bbe
00000300: bb1c b9bd 305b 453d 8bd9 123d 65c6 d33d
00000310: 7a4a de3d bdcf 0f3e b136 8ebe 7029 ac3d
00000320: 0a19 19be e877 39be 1800 56bd 522a c13d
00000330: 5cc8 96be 6bb7 66bb 2a31 873d 7729 273e
00000340: 8b0c a63d cfec ddbd c563 043e d685 6bbd
00000350: 3258 48bc aa6f 75bc d849 a33d af6d c33d
00000360: 9c7a ffbc 5323 fbbb 5196 b83e 438c d53c
00000370: d514 dabc 0111 ff3d cba0 b23c 5c89 7abd
00000380: 62a9 a2bb 9d3a 99bc 2350 e83c c152 73bd
00000390: d2dd b53d 2b54 53be 4a2e 693d c461 603e
000003a0: 8f03 ccbd b3d3 13bd 0a08 103e 227b 49be
000003b0: 920b f83c ae10 23be 0333 9b3d 7288 a23d
000003c0: 0cde c6bc 4e8d dc3d fe01 f83d 5d9e 07be
000003d0: a0f6 023e d787 d9bc 2acd 063e a47e 0ebe
000003e0: ca16 773e 30f9 6fbd 85d1 fa3d 6d5f 68bd
000003f0: 677b 20be 646c a63d 6a6c ac3d 162b eb3c

up1.bias f4 [16]
0.018693883 -0.032265462 0.026836948 -0.03247493 -0.02651207 -0.030030796 -0.02957965 -0.02871314
-0.023593366 0.024191128 -0.018295381 0.02583491 0.028120877 0.025799487 -0.02637594 -0.025085803
00000000: ea23 993c ca28 04bd 29d9 db3c 6f04 05bd
00000010: d72f d9bc 2503 f6bc 0651 f2bc d237 ebbc
00000020: e046 c1bc 792c c63c 32e0 95bc bca3 d33c
00000030: c15d e63c 7259 d33c 5b12 d8bc be80 cdbc

dec1.0.weight f4 [16, 32, 3, 3]
0.07397581 0.094322175 0.08249286 0.08912071 0.11815509 -0.085393876 0.059218686 0.14681368
-0.23758473 0.028820463 -0.07278708 0.005403594 -0.20325774 0.1015725 0.19850679 -0.08159739
0.024345804 0.033131536 0.028049951 -0.10473149 0.16774516 0.0701643 0.024980925 0.061861575
-0.10821522 -0.0037615472 0.2689374 -0.110673405 0.008921844 -0.20829792 -0.25343013 -0.018189011
-0.12926675 -0.1052536 0.04404744 0.110947534 0.028586019 0.20213422 -0.03438701 -0.0021283114
-0.05308228 0.011971716 -0.029925575 -0.09157054 0.20270626 0.0091998605 0.121556334 0.10523317
0.09090333 0.10081662 0.08259777 0.011690305 0.043358125 0.019179745 -0.09634864 0.12558188
-0.03028839 -0.14136113 0.11839543 0.08518594 0.17506412 0.11580984 -0.05303898 -0.07779989
-0.10899928 -0.257717 -0.27492306 -0.0015197991 -0.020773502 -0.19476661 -0.06741358 -0.21681887
0.031161156 -0.19519873 0.22373696 0.050932486 -0.08561869 0.21950644 -0.25628117 -0.22243439
0.17128417 0.21527322 0.18661532 0.035155207 -0.04653616 0.08244523 -0.027048448 0.020567099
-0.0056213043 0.10933061 0.062974334 -0.0831669 -0.08537268 0.14595383 -0.15612079 0.12038513
-0.107326224 -0.038162135 -0.12412797 -0.07033817 -0.059221856 0.3084181 -0.16773097 0.137773
0.07200719 0.28684497 -0.10873483 0.051283315 -0.0072230245 -0.09842615 -0.1914979 -0.0003201312
0.015172043 0.09956596 0.025586268 0.060702983 -0.10792022 0.1257035 -0.32887372 -0.09813342
-0.10757047 -0.04826258 0.026109232 -0.22637488 0.08454435 0.18882875 -0.012550688 -5.2767984e-05
0.053565215 -0.19172192 -0.04292432 0.025666036 0.17242813 0.04327755 -0.0030227802 0.1557254
-0.19911185 -0.075120166 0.069081 0.0030875187 -0.025414571 0.023933766 0.37722895 0.08860117
-0.015105161 0.12701571 -0.042040896 -0.031890113 -0.0072650416 -0.11801726 0.07005821 0.014147877
-0.1894991 0.06810307 -0.149539 0.098475486 -0.046050433 -0.086811885 0.11832535 0.09920289
-0.058836486 -0.050660487 0.0133703975 0.18159455 0.076934576 0.06365723 0.24086463 0.1736789
0.010088653 -0.019094778 -0.034047242 -0.041537613 0.07342723 -0.007229449 0.01951063 0.101342924
0.020047355 -0.24936624 0.08490717 -0.08913304 0.10426635 -0.067288965 -0.03172104 0.101172015
0.054551017 0.22268319 -0.06794148 -0.06332628 -0.22454996 -0.09808584 -0.22270831 0.057344735
-0.0367912 -0.009584913 -0.13487123 0.28545836 -0.032328658 -0.056354575 -0.07277059 -0.1885662
-0.17244679 -0.031450633 -0.13815887 -0.09100857 -0.02714866 0.118868575 0.03644989 -0.076863475
-0.110276416 -0.12356318 -0.14080869 0.14544031 -0.1077236 -0.00879657 0.19345874 0.07277167
-0.14277038 -0.060984846 -0.11807087 0.01774827 -0.13225213 0.14447132 -0.099390194 -0.044568345
-0.0148913525 -0.16930507 -0.030970749 0.2886701 0.16565964 0.10250267 0.010841401 0.0062533966
0.12211329 0.043464046 -0.3112807 -0.08410654 0.16117485 -0.17532541 0.008116017 -0.024269879
0.11074507 -0.26487896 0.06656075 -0.2463519 -0.0055202316 0.04576561 0.07516565 -0.101095885
-0.10181643 0.09529091 0.021241432 -0.042768598 -0.09396761 0.06948596 0.0076691364 -0.13170807
00000000: a180 973d fc2b c13d 04f2 a83d eb84 b63d
00000010: 4cfb f13d fce2 aebd 4b8f 723d 5356 163e
00000020: 6949 73be e418 ec3c 6511 95bd a210 b13b
00000030: cc22 50be 3e05 d03d 5d45 4b3e 881c a7bd
00000040: da70 c73c efb4 073d 03c9 e53c 777d d6bd
00000050: 63c5 2b3e 4db2 8f3d cca4 cc3c 9062 7d3d
00000060: f19f ddbd 4a84 76bb 2ab2 893e bda8 e2bd
00000070: ed2c 123c 0d4c 55be 98c1 81be 1f01 95bc
00000080: 815e 04be 338f d7bd 176b 343d 7638 e33d
00000090: 3a2d ea3c 46fc 4e3e 65d9 0cbd 247b 0bbb
000000a0: ce6c 59bd 0425 443c 7b26 f5bc 5689 bbbd
000000b0: 3b92 4f3e 03bb 163c 87f2 f83d 7d84 d73d
000000c0: 862b ba3d f278 ce3d 0529 a93d b188 3f3c
000000d0: 4a98 313d d71e 9d3c 7052 c5bd 8998 003e
000000e0: 5c1f f8bc f9c0 10be 4e79 f23d f775 ae3d
000000f0: 0244 333e b62d ed3d 673f 59bd 8c55 9fbd
00000100: 043b dfbd 7cf3 83be b7c2 8cbe ff33 c7ba
00000110: 312d aabc e670 47be 2210 8abd c405 5ebe
00000120: ae45 ff3c 2de2 47be 4d1b 653e 959e 503d
00000130: da58 afbd 4cc6 603e 4937 83be d7c5 63be
00000140: 1e65 2f3e 9570 5c3e 1618 3f3e e8fe 0f3d
00000150: b39c 3ebd 0bd9 a83d b594 ddbc 557c a83c
00000160: eb32 b8bb bae8 df3d b0f8 803d 6853 aabd
00000170: dfd7 aebd ec74 153e 21de 1fbe 7b8c f63d
00000180: dacd dbbd e64f 1cbd ce36 febd 750d 90bd
00000190: 9e92 72bd fae8 9d3e abc1 2bbe 5e14 0d3e
000001a0: 8178 933d 58dd 923e 5eb0 debd 740e 523d
000001b0: 1faf ecbb a693 c9bd 0718 44be 48d7 a7b9
000001c0: 2994 783c 3de9 cb3d 4b9a d13c b1a3 783d
000001d0: 4705 ddbd 6bb8 003e 2362 a8be 2dfa c8bd
000001e0: e84d dcbd fcae 45bd 07e3 d53c d1ce 67be
000001f0: 9725 ad3d 535c 413e 67a1 4dbc 3153 5db8
00000200: 3367 5b3d c052 44be 69d1 2fbd 9441 d23c
00000210: 0091 303e cd43 313d d619 46bb 7b76 1f3e
00000220: fae3 4bbe 9ad8 99bd 577a 8d3d f857 4a3b
00000230: 3832 d0bc bf10 c43c 2724 c13e 8874 b53d
00000240: a37b 77bc 6810 023e 1333 2cbd 359f 02bd
00000250: 960f eebb 09b3 f1bd ae7a 8f3d 7fcc 673c
00000260: 0d0c 42be 9f79 8b3d c020 19be 84ad c93d
00000270: 619f 3cbd 6eca b1bd 9054 f23d e32a cb3d
00000280: 87fe 70bd 5f81 4fbd 830f 5b3c ecf3 393e
00000290: e08f 9d3d b95e 823d 38a5 763e e2d8 313e
000002a0: e14a 253c a76c 9cbc 1f75 0bbd 5823 2abd
000002b0: 0461 963d 04e5 ecbb c2d4 9f3c e18c cf3d
000002c0: 5a3a a43c dd59 7fbe cfe3 ad3d 628b b6bd
000002d0: 9989 d53d ccce 89bd eced 01bd 4633 cf3d
000002e0: e370 5f3d 1007 643e e724 8bbd 35b1 81bd
000002f0: 6df0 65be 3be1 c8bd a60d 64be 50e2 6a3d
00000300: 5fb2 16bd 0a0a 1dbc af1b 0abe 9927 923e
00000310: 0e6b 04bd 0ed4 66bd bf08 95bd 7f17 41be
00000320: e495 30be 61d2 00bd 8579 0dbe b362 babd
00000330: de66 debc 5e71 f33d 7b4c 153d 996a 9dbd
00000340: 9ad8 e1bd b10e fdbd 2730 10be 4eee 143e
00000350: 319e dcbd 7d1f 10bc 0c1a 463e 5009 953d
00000360: 6632 12be 3fcb 79bd 24cf f1bd d264 913c
00000370: 1a6d 07be 4af0 133e 168d cbbd 4c8d 36bd
00000380: dcfa 73bc 4f5e 2dbe 5eb6 fdbc 91cc 933e
00000390: aea2 293e ebec d13d 22a0 313c 4be9 cc3b
000003a0: 8816 fa3d 5b07 323d 2f60 9fbe 0d40 acbd
000003b0: 050b 253e 8188 33be 0bf9 043c a0d1 c6bc
000003c0: 50ce e23d 379e 87be 0151 883d ac43 7cbe
000003d0: 0fe3 b4bb b874 3b3d 73f0 993d 5c0b cfbd
000003e0: 2285 d0bd e127 c33d 8302 ae3c 202e 2fbd
000003f0: 1772 c0bd a84e 8e3d 614d fb3b 7bde 06be

dec1.0.bias f4 [16]
0.021886552 0.025150338 0.028185507 0.029058432 -0.023185289 -0.033986922 0.022474542 0.023924572
0.0016826361 -0.00076278247 0.0031698067 -0.008292603 -0.016237743 0.022152083 -0.00467968 0.023975357
00000000: 6d4b b33c 1508 ce3c 4be5 e63c f30b ee3c
00000010: 13ef bdbc df35 0bbd 881c b83c 77fd c33c
00000020: e68b dc3a 77f5 47ba 88bc 4f3b b3dd 07bc
00000030: 0405 85bc 4978 b53c 0058 99bb f867 c43c
