sampling-based_planning_framework/checkpoints/checkpoint_epoch_75.pth (torch, 386738 bytes, 75 tensors)

enc1.0.weight f4 [8, 1, 3, 3]
00000000: 959e d8bd 22bf d33d 7192 8f3d c3f1 103e
00000010: ab3a eabd 81ec ad3d 0843 f73c c767 36be
00000020: e282 8ebd 1e6f 143e cf5b fbbd 8a47 423d
00000030: b272 773e adf6 9ebd a5f8 143e ebe0 7abd
00000040: b558 233e 6d6a a8bd 0da6 2e3e 0077 50be
00000050: 4149 46be 4a66 273e abf9 b7bd a47c 21be
00000060: 7afc bbbe 2dda 48be 7299 d7bd 5320 633d
00000070: 7baf cb3c 1bb4 54be e7b8 413d 9ea6 2d3e
00000080: 21fb b03e 281f 89bc da73 d639 d3b9 83bb
00000090: 723d dfbd de63 5e3d 47e0 9fbd 70fb 90be
000000a0: 74ab 673e dde4 64bd 21e7 64bd 84c0 d13d
000000b0: b202 99be 9a49 5e3e 7af0 6a3e db1e faba
000000c0: 8acd bf3e 9316 7dbd a7da b5bd 47fb ba3d
000000d0: d4f9 2ebe a7d2 83be f8c2 853c 446a 4f3d
000000e0: 7c79 db3d 6f94 073e 5ec7 e6bd 09b5 fa3e
000000f0: f333 19bd d439 e13d 9c1f f13d f734 043e
00000100: a8a3 a4be a032 b13d 24a3 22be 5a6a c0bd
00000110: e8e7 593e bd41 843d 767c fdbd 8483 703d
-0.10577122 0.1033919 0.07010353 0.14154725 -0.11436971 0.08492375 0.03018333 -0.17813025
-0.06958558 0.14495513 -0.122733705 0.047431506 0.24164847 -0.077618934 0.14547975 -0.061249655
0.15951808 -0.08223424 0.17055531 -0.20357895 -0.19363882 0.16347614 -0.08983167 -0.15770203
-0.36716062 -0.19614477 -0.10527314 0.05545075 0.024863949 -0.2077183 0.047295477 0.1695809
0.34566596 -0.01673849 0.00040903577 -0.0040199547 -0.10900392 0.05429446 -0.078064494 -0.28316832
0.22623998 -0.055882324 -0.055884484 0.102417976 -0.2988487 0.21707764 0.22943297 -0.0019082682
0.374615 -0.061789107 -0.08879595 0.091299586 -0.1708749 -0.25746652 0.01632832 0.050638452
0.10716531 0.13240217 -0.11268495 0.48966244 -0.03740306 0.10997358 0.11773607 0.1291083
-0.3215611 0.08652234 -0.15882546 -0.09395285 0.21279871 0.06457851 -0.12377255 0.058719173

enc1.0.bias f4 [8]
00000000: c055 133d a87d a43a 9a55 043d f940 143a
00000010: 31c3 613d 210a ed39 96dd 3c3b 8b00 b239
0.03597045 0.0012549656 0.0323082 0.00056554336 0.05511779 0.0004521171 0.00288186 0.0003395121

enc1.2.weight f4 [8, 8, 3, 3]
00000000: 69aa 2b3d 00e0 843d f6a0 9dbd b2fa 7abe
00000010: d2ec fb3e 26d1 253e 7032 aebc a8f2 8dbc
00000020: 1d6d c5bc a629 a6bd fc63 b1bd 163b cfbd
00000030: 3f85 bdbc 117f ccbd 14ee 3f3e a5a9 403e
00000040: 8fe2 2f3e 2eef 8bbe 2f6c 833d 0996 233e
00000050: f7c9 e43d 7cf8 ddbd 15d3 f83d 8fed c1bd
00000060: 69b7 4cbe f4e1 093e 639e 723d b380 d93c
00000070: bda7 b93d 4aa4 88be 2a47 623e a88a 103c
00000080: 4d34 1f3d e738 1cbc aa92 233d 910f 44be
00000090: 9313 093d c203 903d 104f 243e 7d10 2ebe
000000a0: 5058 133d 1b6e f43c ee53 4fbb 07f1 5ebd
000000b0: c2a5 0d3e 93f3 e43c b637 9cbe 4acb 9a3d
000000c0: 7d5b 6f3c aabb a03e 88b7 09be 8650 3b3e
000000d0: b9a4 21be 3fcf fcbd af2a afbd bf3e 373e
000000e0: 32a2 b8bc 742d 493e 5244 9dbd a82a 90bc
000000f0: ac05 7d3d ca59 eabe e9f7 b8bd ed0c 24ba
00000100: 0f4a 593b c721 643e 2757 94bd 702c 6ebd
00000110: fec6 9d3d 4a59 2f3e da3d c9bc f39e a4bd
00000120: f30b 43be dd8c 143d dd36 743c 945d 043e
00000130: 6ef4 153e 0d17 fe3d 5dac 0dbe c14f 3d3e
00000140: 17ed 5ebe 3b53 eb3c 6068 843e ea34 c9bd
00000150: 0278 2f3e 2260 0a3d 1172 253e 1454 22bd
00000160: 795d 85be 6216 1c3e 942a 053c 4337 97be
00000170: 4313 8b3e aa72 96bc e8a2 1c3e 925d 0f3e
00000180: a6c2 523b fcdb 0e3e 2098 07be 5590 d5bc
00000190: 3167 a7bd c276 443e 42d0 f23e 09b1 3eb8
000001a0: d486 af3c 49ca be3d 9bc3 0a3f 6487 b13d
000001b0: f207 93be 7b0a ff3c 70de 11bd 6214 afbe
000001c0: 4402 143e 975b 4cbe 6148 9fbd ca22 1f3e
000001d0: e03f a73e 4802 96bd a12c abbd d77b 1a3c
000001e0: 2f21 7a3d c91a 663e 7c18 fa3d 1150 dd3a
000001f0: 7f43 3fbd fdd2 fcbc 2e13 743e 6e00 a13b
00000200: 9a61 93be 5156 933e 5a3e 5c3e 74f2 b7bd
00000210: 8f90 cf3e 36d3 6d3e c32e 213d b51e 04bd
00000220: 082d a13e 33d6 0c3e 4992 903e 21a8 9c3e
00000230: 2939 423e 67b1 1a3e b2c2 e1bd 0a17 163e
00000240: 6ef7 c23d bd26 503e e904 f33c ef9d 553e
00000250: d2bf c03d 2803 c0bd ab02 d53d be14 0b3f
00000260: 2d3e f9bd 2788 b4be 53ec 4abd f50b b83d
00000270: 5b04 5b3e 2186 aebc bf30 3bbd 8b85 dc3d
00000280: ab91 e4be 53fe 25be 9fb5 51be 6788 88bd
00000290: 7eb1 afbe 3ed3 d73d 8ccf 9f3d 6e41 863e
000002a0: 328f 1c3d c1e9 343e 23d9 9fbd 9d45 9f3e
000002b0: d5d1 d33c 2602 15bd 5269 11bd d8e8 cf3d
000002c0: 58c5 003e 8e3b 6cbe e6da 4fbe a235 58bd
000002d0: 1412 563e 189c 24be ed92 b83e 7fac 74be
000002e0: b2a3 44bd 47a2 0b3e 93c8 5cbe abed 44bb
000002f0: 8308 b3ba ccb3 d8bd 3394 c9be 9886 963e
00000300: 3175 ff3d fa6c 9fbe 82ca 9fbe e112 233d
00000310: 88c9 bfbe b29c 1f3d 5bb6 a03d 7249 8fbc
00000320: 4c4b ecbd d6eb 92be 5071 a93e 6ad1 b53d
00000330: eef3 7abe 331d b1bd 2785 453e 9d1d e03d
00000340: 4907 51bd acca 05bd 4ab8 8a3e 8ec1 b2bd
00000350: 30ef d9bd 2316 f43d 2078 e83d c605 6dbe
00000360: b57e ef3c b6c5 733e 84f2 fe3a 708c 6bbd
00000370: bb73 7e3c 0d89 50be faaa 303e 5522 033d
00000380: 89df 1e3d 0ed2 c3be 24b2 a6be ea1e 57be
00000390: 5fb9 b2bc 8b8e 7cbe c138 a7bd d35c 903e
000003a0: 581d 173e 32c0 f43d c4cf aabc e98e 803d
000003b0: 00e2 233d 25cd c4bd 3421 11bd 823d c03d
000003c0: e1ca 813d 15d9 4c3e fe30 4fbe e0c7 41bd
000003d0: 1701 2d3d deb6 dc3d e5a7 afbe ad8b 46be
000003e0: b0c1 9a3c dca4 bf3d 025f 193e c1bc ed3d
000003f0: 6a10 b83e 7616 54bd 36c8 07be b31b 6bbe
0.041910563 0.06488037 -0.076967165 -0.24509695 0.49204117 0.16193065 -0.021264285 -0.017327622
-0.02409988 -0.081134126 -0.08661649 -0.101186916 -0.023134826 -0.099851735 0.18743163 0.18814714
0.17176269 -0.27330917 0.06417119 0.15975203 0.11171334 -0.1083841 0.12149636 -0.09469139
-0.1999184 0.134651 0.05923308 0.026550626 0.09065197 -0.26687843 0.2209746 0.008822121
0.038868237 -0.009535051 0.03993479 -0.19146563 0.033465933 0.07031967 0.16045785 -0.16998477
0.035972893 0.029837659 -0.003163572 -0.05442908 0.13832763 0.027948176 -0.30511254 0.075583056
0.014609215 0.31393176 -0.13448918 0.18292436 -0.15785493 -0.123442166 -0.08553063 0.1789503
-0.022538278 0.19646245 -0.07679047 -0.017598465 0.061772987 -0.4577163 -0.0903166 -0.00062580296
0.0033155715 0.2227851 -0.072431855 -0.058147848 0.077039704 0.17123905 -0.024565626 -0.0803813
-0.19047527 0.03626715 0.014905659 0.12926322 0.14644024 0.1240674 -0.13835283 0.18487455
-0.2177013 0.02872621 0.25860882 -0.09824546 0.17135623 0.033783086 0.16156794 -0.039630964
-0.26047876 0.15242913 0.008127827 -0.2953435 0.27163133 -0.018365223 0.15296519 0.14000538
0.0032159477 0.13951105 -0.13241625 -0.0260698 -0.08173979 0.19185928 0.47424513 -4.5464407e-05
0.021426596 0.093159266 0.5420472 0.08668402 -0.28717 0.031132927 -0.035612524 -0.34195238
0.1445399 -0.19956814 -0.07777477 0.15540615 0.3266592 -0.07324654 -0.08358122 0.00942894
0.061066803 0.22471155 0.12211701 0.0016884824 -0.04669523 -0.030862326 0.23835441 0.0049133813
-0.28785402 0.28776792 0.2150816 -0.08981791 0.40539977 0.23225102 0.039351236 -0.032255847
0.3147967 0.13753586 0.28236607 0.30597022 0.18967117 0.15106736 -0.11023463 0.14657226
0.0951985 0.20327277 0.029665427 0.20861028 0.09411587 -0.09375602 0.104008995 0.54328525
-0.12170062 -0.35260126 -0.049541783 0.089866556 0.2138838 -0.021304192 -0.045700785 0.10767659
-0.44642386 -0.16210298 -0.20479439 -0.06666642 -0.34315103 0.10538338 0.07803258 0.26221794
0.0382225 0.17667295 -0.078050874 0.31107798 0.025856892 -0.036379002 -0.035500832 0.10151833
0.1257528 -0.23069593 -0.20298347 -0.052785523 0.20905334 -0.1607517 0.36049595 -0.23893927
-0.048007675 0.13636123 -0.21560888 -0.0030048888 -0.0013659153 -0.105811685 -0.3937088 0.29399562
0.12473524 -0.3113783 -0.3120919 0.039812926 -0.37458444 0.038967796 0.078472815 -0.017491076
-0.11537799 -0.28695554 0.33094263 0.08877833 -0.24507114 -0.086481474 0.19289075 0.10943148
-0.05103234 -0.032663986 0.27093726 -0.08728324 -0.106413245 0.11918285 0.11351037 -0.23146734
0.029235223 0.2380589 0.0019450937 -0.05750698 0.015530522 -0.2036478 0.17252722 0.032015163
0.0387874 -0.38246197 -0.32557786 -0.21007887 -0.021816907 -0.24663751 -0.08165122 0.2819582
0.14757288 0.11950721 -0.020851023 0.06277258 0.040010452 -0.09609441 -0.035432056 0.09386732
0.06337524 0.20004685 -0.20233533 -0.047309756 0.042237367 0.10777067 -0.3430778 -0.1938922
0.018891186 0.09357616 0.14977649 0.116082676 0.35950023 -0.051779233 -0.13259968 -0.22959785

enc1.2.bias f4 [8]
00000000: 0f76 00bd f550 81ba c3e6 233d 4dbb 34bc
00000010: 08d3 993b 37b9 0d3d d00d f53c ff85 0a3c
-0.03136259 -0.0009866046 0.040014993 -0.011030984 0.0046943463 0.034600463 0.029913813 0.008454799

enc2.0.weight f4 [16, 8, 3, 3]
00000000: 4c21 483c 0aa5 13bd cedc 67bc 372f 0abe
00000010: ba57 4dbe f254 ba3d 2954 703d e175 adbd
00000020: 6798 833e b29f 28bb cc34 503d 0b7c 20bd
00000030: 41f1 62be 7012 9f3d 4404 4dbd f443 b0bd
00000040: 9ad5 25bd 983f 3b3e e24f 193c b665 f63d
00000050: 56ee 23be dae6 33bd c6cd 8fbc 12c3 02be
00000060: fea1 b33d c1bf 893e e332 e93d d81c 48bd
00000070: 8a20 cc3d 06c8 dc3d 7c1f cabc 0d7b 2abe
00000080: 0d49 3dbc 65b3 3bbe 3a59 1fbe 9b4e aabd
00000090: 2326 193e 104e 0dbd 11c0 4abe ee70 08bd
000000a0: 8a6a 3e3d c1b9 22bd 6b97 fdbd 1d89 ecbd
000000b0: bae7 7c3d 7d66 7c3d 6441 5f3d 1092 0d3e
000000c0: 0bca 643e 2f16 05bd 49bf 133e e876 333e
000000d0: 9b25 0fbd 7c84 ee3d 30e4 3c3e 8c2d 59bd
000000e0: 7e82 9fbe b057 36be 81a1 4e3e 38d8 87bd
000000f0: a8d4 bd3d 17df 593e f6b5 3c3e 42d9 c03b
00000100: 08a2 2cbe 42b7 cf3c 45bb cabc bea5 b6bb
00000110: a9d9 d93d c645 dbbd 7f6b 30be 4891 1a3b
00000120: 99ec 803b 497b 293d 9823 c4bc 81de 6bbd
00000130: b5ac c1bc 69ae e3bd 2ef2 75bd ac68 a43c
00000140: 3c6c fa3d b150 3abd c9be d63a 1181 903e
00000150: 38d9 493c 93a5 dcbd 2091 443b cb35 3ebd
00000160: 9043 333b 0dbb e1bd 2f99 583d 3ea9 743d
00000170: 5df3 273e d31e b53d 02f7 0a3d 343e 923d
00000180: 0ae0 3bbe 45e5 e03d f6d1 033d 0fcd 90bc
00000190: 2d46 b2bd c222 a93d a95c 3cbe cd4e 7b3d
000001a0: 26aa 933b 045b fe3d 3b20 6cbe 2def f13c
000001b0: 3be7 023e 12b7 4fbd 4e3b b1bc ebb7 05bd
000001c0: 809f cd3d 6acb 803d 612a 333e 7af5 753e
000001d0: 4dda 6b3c 4f13 7cbd 87b5 b7bd 8c9a 363e
000001e0: d770 313e 64b2 203e 5f2c 983d 4f94 05be
000001f0: 872c d13d bf7e fe3d 89f1 4e3e 2d8b efba
00000200: 7648 883d 18d7 cb3c 048b 453e 9ee9 febd
00000210: 63d2 9a3c de55 e3bc c04a 4c3e de06 88be
00000220: 3f20 163e 4904 4fbe 6178 31be 8251 1b3d
00000230: 5e4e fdbc e7ac 223d 2415 a1bb f863 d6bd
00000240: e5e4 2dbd 626c a3bc f0c4 3dbe c6ef d6bc
00000250: ca52 fe3d 64b3 603e 7c40 933e f54b 293e
00000260: c188 33be 13a8 22bd 9aed 21be b36f 13be
00000270: 2f15 013e d175 313e 251f cfbc 0ed8 4a3d
00000280: 3f5b ecbd 898c 6fbe 35cd 023e a9c0 b93b
00000290: 3391 35be 3e3e ccbd b851 2f3d 2183 1c3e
000002a0: 5fd0 8ebd 8722 10be bb79 c73d 6c45 3c3e
000002b0: 0605 70bc e13d ef3d ad0b 113e 0281 d5b9
000002c0: c044 43bd a7d9 3a3e c9c9 babc b68a acbd
000002d0: bace cc3d 09f7 a13d c676 fc3d 34f5 493e
000002e0: 9abb c13d 8287 c73e 26d6 9c3e 1eb1 263e
000002f0: 1352 723d f5d0 cabd 8426 193e 3a95 08be
00000300: 71c4 bdbd 11d1 89bd 9fe5 3f3e 36de 743e
00000310: 2226 a93d a425 cebd 0b58 e53d 5417 993d
00000320: cb93 d6bc 5a64 7d3d a918 1f3e 5cae aa3d
00000330: f8c5 e93d e019 b63d 8a59 22bc 813e 393e
00000340: bb1d 38be 3bbf ee3c ed86 073e 2ee4 29bc
00000350: c5e6 783e 8cb1 27be b43c c93c 9cf9 24be
00000360: a53f 30bd a1c3 433d 6f2e 1e3e 77c2 e9bc
00000370: f7d8 893d da70 823e e014 54b9 33eb 86bd
00000380: fcdb 47bd a16f bcbe 7768 09be c2b1 b23c
00000390: 4c9a 6cbd e8ae 51be 4317 213d 0f5e 243e
000003a0: bd77 99bb 0681 b53d 03aa 2d3d be7f 8dbd
000003b0: 42ee a9bd 674d 8cbd 844d b63d ceb3 fabd
000003c0: f6d7 463d f236 d03b 1311 063d 5bd1 e6bc
000003d0: 412d fbbd af2c 723e bb29 a5bc 9a4b 73bd
000003e0: 97e9 a43d 0912 4ebd 7aad 7a3e ec66 113e
000003f0: 9b84 9fbe e306 75be 8be6 ce3c f19b 9f3c
0.01221497 -0.036046065 -0.014151765 -0.13494574 -0.20052996 0.09098233 0.05867401 -0.08469749
0.2570221 -0.0025729951 0.0508316 -0.039180797 -0.22162344 0.077671885 -0.050052896 -0.08606711
-0.04048691 0.18285978 0.009357424 0.120311186 -0.16008887 -0.04392133 -0.017554175 -0.12769726
0.08771132 0.2690411 0.11386659 -0.048855633 0.09967144 0.10780339 -0.024673216 -0.16648503
-0.011553061 -0.18330152 -0.15561381 -0.08315774 0.14955954 -0.034498274 -0.1979983 -0.033310823
0.046488322 -0.03972793 -0.12382396 -0.1154959 0.06174443 0.061621178 0.05450572 0.1382525
0.22342698 -0.03249186 0.14428438 0.17525828 -0.034947973 0.11646363 0.18446422 -0.053021953
-0.31154245 -0.17806888 0.20178796 -0.06633037 0.092690766 0.21276508 0.18428788 0.005885274
-0.16858685 0.025355939 -0.0247475 -0.005573957 0.106372185 -0.107066676 -0.17228507 0.002358513
0.0039344546 0.04137734 -0.023942754 -0.057585243 -0.023641923 -0.111172505 -0.060045414 0.020069443
0.12227675 -0.04548711 0.0016383763 0.2822347 0.012319855 -0.10773768 0.0029993728 -0.04643802
0.0027353503 -0.11022005 0.052880462 0.059731714 0.1640143 0.0884377 0.03392697 0.071407706
-0.18347183 0.1098123 0.032182656 -0.017675905 -0.08704791 0.08258583 -0.18394722 0.061354447
0.0045063673 0.124197036 -0.2305917 0.029532993 0.1278352 -0.0507117 -0.021634724 -0.0326461
0.10040188 0.06288798 0.17496635 0.24019423 0.014395309 -0.06154185 -0.089701705 0.17832392
0.17328201 0.1569305 0.07430338 -0.13044856 0.10213571 0.12426519 0.20209326 -0.001827573
0.06654446 0.024882838 0.19291312 -0.12446903 0.018899148 -0.027750906 0.1995039 -0.2656774
0.14660738 -0.20216478 -0.17331077 0.03791953 -0.030921157 0.039715674 -0.0049158502 -0.10468286
-0.04245462 -0.019949142 -0.18532157 -0.02623738 0.124181345 0.21943432 0.28760135 0.16532882
-0.17532636 -0.03971107 -0.15813294 -0.14398079 0.12605737 0.173301 -0.025283406 0.049522452
-0.11540841 -0.23393454 0.12773593 0.005668719 -0.1773117 -0.09972809 0.042802542 0.15284397
-0.069733374 -0.14075671 0.09740015 0.18385857 -0.014649635 0.11681724 0.1416461 -0.00040722644
-0.047672987 0.1824709 -0.022801297 -0.084248945 0.100003675 0.07908446 0.12327342 0.19722444
0.0945961 0.38970572 0.30632132 0.16278502 0.059160303 -0.09903137 0.14956099 -0.13338175
-0.09265984 -0.067293294 0.18739937 0.23912892 0.082592264 -0.10065773 0.111984335 0.074751526
-0.02619352 0.06186328 0.15536751 0.08334038 0.11414713 0.08891654 -0.009909043 0.1809025
-0.17980091 0.02914392 0.13235064 -0.010369344 0.24306782 -0.16376323 0.024565078 -0.16110843
-0.043029446 0.04779399 0.154474 -0.02853511 0.06730836 0.25476724 -0.00020225672 -0.065878294
-0.048793778 -0.36803916 -0.13418756 0.021813277 -0.057764336 -0.20476878 0.039328825 0.16051506
-0.0046834634 0.088625 0.042398464 -0.069091305 -0.08297397 -0.06850701 0.08901504 -0.12241326
0.0485458 0.0063542062 0.032731127 -0.028176 -0.12264491 0.23649858 -0.0201615 -0.05939827
0.08052366 -0.05031017 0.24480239 0.14199418 -0.31155857 -0.23928408 0.025256416 0.019483538

enc2.0.bias f4 [16]
00000000: ffbc 0a3d 11cf 043d 4ab5 75bc 6f99 353d
00000010: 2bbb 283c ada1 1d3d 765c afbc 0178 ecbc
00000020: 2cc3 df3c 1c23 dd3b a6f6 033d b6f7 173d
00000030: 7496 003d 9db1 dd3c 2bff c73c da5b 1c3d
0.033871647 0.032424036 -0.014996836 0.04433578 0.010298531 0.038484264 -0.021406393 -0.028865816
0.027314745 0.00674857 0.032217644 0.03710147 0.031393483 0.027062232 0.024413666 0.038173534

enc2.2.weight f4 [16, 16, 3, 3]
00000000: 193a f337 9c6d 363d 01f6 b5bc 55fd f4bd
00000010: 2830 0d3e 88a8 683d 34d6 78bd c5c6 debc
00000020: f12a 2638 a79d fcbd a1f0 673e 66d7 e5bd
00000030: a41c 38be 09e9 253d d32c 343e f9cf 6ebe
00000040: 60b9 08bd a8b3 f6bc 3f95 fdbd b3fd 8cbd
00000050: 3fb8 02be 668a d9bd adb2 9e3e ab6b 323d
00000060: a90f 4abd cd19 173e ae32 8ebd c812 5a3e
00000070: b8fd 123e 30c6 88bd 425d 273e 6290 373e
00000080: 54ab c3bd 1565 9abd 35c4 a5be dee2 433e
00000090: f6c8 fcbc 7ed3 2abd f143 1e3e 71a9 20be
000000a0: 988e ebbd 6391 623e bfe0 5ebd 7340 cbbe
000000b0: 4c30 bdbd fb3d 373c 48d4 11bd 590b 003e
000000c0: 3dde b73c dca1 f8ba 3ad4 e2bd 3993 a6bd
000000d0: 3132 81be d146 a8bd 3e7d b83c 0300 ccbc
000000e0: cfa5 bfbd f608 043e 5e27 febd 41d9 273e
000000f0: 3b30 223d 6d7d e03d 9cf1 143d 0276 663d
00000100: 9512 d83d 32d6 793d 3d61 f3bd 7560 0bbc
00000110: 6060 1bbe 0557 e63d b825 233e 39b1 b3bc
00000120: 321b 7d3e f519 813c ec95 383e 3a61 b3bd
00000130: 3353 863d ec93 563e b40b 9238 ebae 52be
00000140: ae39 2d3e 4d63 59be b60a eebc 1575 47be
00000150: 24e7 123e 5a76 2c3e b632 953d e05b 79bd
00000160: a2dd 45be 8143 523e de35 643b f7a6 0fbe
00000170: 51ff db3d 86ab a2bd f3b0 ed3d 74d9 ae3c
00000180: 6cc0 84be d343 263d c977 3a3e a47a 053e
00000190: 0e22 25bd 5ff4 52bd ffa0 81bd d3df 123e
000001a0: d47d 813d 596f af3c 86d6 0abd ab06 8d3d
000001b0: 6276 b3bd e1a9 cf3c 5ff2 4b3e e4f4 56be
000001c0: 96dc 82bd b004 8ebd b0ab 21bb 2750 113e
000001d0: 7460 173e 80a2 cf3c 69bd cb3d ba61 24be
000001e0: 7983 193e c6aa 093e 1dcf 9bbd 5400 a53d
000001f0: fd33 c23c aa27 81bd c0c4 223e 5b0b 91bd
00000200: 368d d5bd 83bb f7bc 59eb a3bd 2be9 3d3d
00000210: 0de2 81be b13e 563d f163 ecbd 83a1 04be
00000220: 38e4 453d 4709 303e e8b8 02be 5c6c ec3d
00000230: 7cef 3cbd 87c8 8f3d f91c c6bc 97ff b93d
00000240: 7160 523c ec28 8f3d 5ca3 dd3d 3776 d4bc
00000250: 8e32 033e ee53 0a3e 6c81 403e 9999 a9bd
00000260: 0f4b 2c3e 0707 363e 250b b43d 6276 193c
00000270: 0adc 8dbe 7d19 de3d 1c38 e5bd d28e 143b
00000280: b15e 99bd 3a5d 08be a95d 183e b23c 783d
00000290: e546 fb3d 23c4 60be 5a9b 1abd 2cf9 1ebd
000002a0: bd16 29bd f751 34bd 899e 44bd c76e 53be
000002b0: 4140 25be 53f4 a1bd ee49 fa3d 58a7 fbbc
000002c0: cfb4 4abe b771 aabd 99c2 15bd c23b 453d
000002d0: 1437 9fbb 8910 083d 30fc 8d3d 5b02 ee3c
000002e0: aa25 893d ad41 493e 52ab 273e 19c4 103e
000002f0: 06fc 6bbc 1e24 103c 27c5 3d3e 8b62 ccbd
00000300: 24ff cbbd a71f 073d f78a 833d f8f2 4d3e
00000310: 0088 8e3e 49b4 03bc ff65 7bbd 715e 75bd
00000320: 951a 7fbd d549 18be 4f75 f43d 1a29 0c3e
00000330: 360d d2bd 6d9b 9abd 13c6 433e 53c1 fa3d
00000340: c953 0ebe 09ef f73d 4055 4fbb cbed ec3c
00000350: c091 3cbd 1454 a03d 3fc5 85bd cb6f 37bc
00000360: df8c 833d e016 2e3e f3d2 36be f29e 153b
00000370: cc9a a03e 88bd 063e 796e 80bd ddff b53c
00000380: 49c1 c4bc d84e 933e 4b6b bdbd b243 d6bd
00000390: 0abd cdbd 93bf e83c 17b4 bf3c 803d 26be
000003a0: 12e0 dbbe 16e2 98bd ff02 73bc 70ff 3abe
000003b0: 68f1 1c3d e677 363e 4b91 793d d012 85be
000003c0: 6931 21be 1739 bd3d 2f5b 3abd 828d 593d
000003d0: b05a 40be dba1 c2bd 3b27 4b3d 3a7f 19be
000003e0: 79c0 9b3e 2fe5 073e e1c0 c03e a847 81bd
000003f0: 6089 293d 3038 c23c cef8 d6bc 297b 0f3e
2.8994911e-05 0.044538125 -0.02221203 -0.11962382 0.13787901 0.05680135 -0.060751155 -0.02719439
3.9617476e-05 -0.12334757 0.22650386 -0.112227246 -0.17979676 0.040505443 0.17595224 -0.23321523
-0.033379912 -0.030114964 -0.12381982 -0.06884327 -0.12765597 -0.106221005 0.30995694 0.04355971
-0.04933134 0.14755936 -0.0694326 0.21296227 0.14354599 -0.06678426 0.16344169 0.17926171
-0.095541626 -0.07538811 -0.32376257 0.19129512 -0.030857544 -0.0417056 0.15455605 -0.15689637
-0.11501807 0.22125773 -0.054413553 -0.39697608 -0.092377275 0.011184211 -0.035602838 0.12504329
0.022444839 -0.0018969136 -0.11075635 -0.08133549 -0.25233606 -0.08216632 0.022520658 -0.02490235
-0.09357797 0.12894043 -0.124098524 0.1639147 0.039596777 0.10961423 0.03636323 0.056264885
0.10550419 0.06099529 -0.11883781 -0.008506884 -0.15173483 0.112470664 0.15932357 -0.021935092
0.24717405 0.015759448 0.1802594 -0.08758779 0.06558838 0.20954865 6.9640024e-05 -0.20574538
0.16916534 -0.21229286 -0.029057842 -0.19478257 0.14345986 0.16842023 0.07285063 -0.060878634
-0.19322827 0.20533563 0.0034822146 -0.14028536 0.10742057 -0.07942872 0.11606016 0.021343924
-0.25928056 0.040592026 0.18209757 0.13035065 -0.04031568 -0.05150258 -0.06329536 0.14343195
0.06322828 0.0214154 -0.03389599 0.068860374 -0.08762814 0.02534956 0.19916676 -0.20991856
-0.0638973 -0.06934488 -0.0024668984 0.14190732 0.14782888 0.02534604 0.099482365 -0.16052905
0.14991559 0.13444051 -0.07607863 0.08056703 0.02370643 -0.063063934 0.15895367 -0.07082244
-0.104273245 -0.03024078 -0.080038734 0.046364944 -0.25367776 0.05230588 -0.115425 -0.12952237
0.04831335 0.17191039 -0.12765849 0.115441054 -0.046126828 0.070206694 -0.024183737 0.09081953
0.012840376 0.06990227 0.10822174 -0.025935275 0.12812254 0.13508579 0.1879937 -0.082812496
0.16825508 0.17776118 0.08791188 0.009366604 -0.2770694 0.10844705 -0.11192343 0.0022668135
-0.07488764 -0.13316813 0.14879479 0.06060476 0.122693814 -0.2194982 -0.03774581 -0.038811848
-0.04128145 -0.04402348 -0.048002753 -0.20647727 -0.16137792 -0.07907929 0.12221132 -0.030719444
-0.19795536 -0.08322471 -0.036562536 0.048152693 -0.0048588607 0.033218894 0.069328666 0.029053858
0.06696637 0.1965396 0.16373947 0.14137305 -0.014403349 0.0087976735 0.18532239 -0.09979733
-0.099607736 0.03298917 0.0642299 0.20112216 0.27838135 -0.008038589 -0.061376568 -0.05990452
-0.06228121 -0.14871915 0.11936437 0.13687554 -0.10256426 -0.07549176 0.19118528 0.12243905
-0.13899149 0.12106139 -0.0031636506 0.028921982 -0.046037436 0.07828537 -0.06531762 -0.011196087
0.064233534 0.17000914 -0.17853908 0.0022830334 0.313681 0.13158238 -0.06271071 0.022216732
-0.024017947 0.2877109 -0.0924898 -0.104621306 -0.10045822 0.028411662 0.023401303 -0.16234398
-0.4294439 -0.074649975 -0.014832257 -0.18261504 0.03831616 0.17819175 0.060929578 -0.25990915
-0.15741505 0.09239405 -0.045497116 0.053113468 -0.18784595 -0.09503528 0.04959796 -0.1498994
0.30420282 0.1327102 0.37647155 -0.063124955 0.041390777 0.023708433 -0.026241686 0.14011826

enc2.2.bias f4 [16]
00000000: 8396 8f3c a431 033d edc1 36ba 3452 483c
00000010: a7ba 083d 9dcb cf3c aa63 b2bb 6902 a8bb
00000020: 7adc 6f3d a917 003d ecc5 4f3c d3a4 11bc
00000030: 262c 9d3c 4516 70bc 2b49 0e3d 361f ec3c
0.017527824 0.032029763 -0.0006971646 0.01222663 0.03338113 0.025365645 -0.00544401 -0.0051272404
0.058559872 0.031272564 0.012681466 -0.008889395 0.01918609 -0.014653747 0.034737747 0.028823476

bottleneck.0.weight f4 [32, 16, 3, 3]
00000000: 4539 bbbd 59bc 0a3d 31d1 4a3d 88cf 4e3d
00000010: bd05 9a3d 7303 13bd 0ac5 d63c 5205 693c
00000020: fc36 2dbe 1f67 91bc 0f06 39be e56f c03d
00000030: 91ee 96bc 6ff5 883d 7af6 043e 33fe 2fbe
00000040: 063f 5d3e b9cf fe3c 0502 1b3d 23af a83d
00000050: d0a0 b03d 625b 47bd 3e70 043e f7da 5d3e
00000060: 070f 12bd c485 86bc c756 d1bc 3a21 273d
00000070: d4ea 87bd c6d4 733b 6b46 33bd 7a60 cebd
00000080: 5ae0 07bd 2e87 003e 175c 31bc 87c6 abbd
00000090: 192a a2bd b252 9bbd 3d62 c9bb 1004 69bd
000000a0: 710a 293d 3bcf 31be 6575 cf3d 126b 0bbe
000000b0: 81ac 013e 8be7 c9bc bb0e db3d bce8 f43c
000000c0: 7f15 d0bd 73d9 7e3d f2f0 13bd 5165 f43d
000000d0: 87dc bb3d b64e 3ebd e850 bc3c 5df0 f03d
000000e0: 59a0 cb3b b906 923d 7d9d 15bd 07c3 0cbe
000000f0: 70f5 68bd c801 883e 0101 a03d 8840 93bd
00000100: a4ba de3c 79b6 5bbd 408c fa3c 6e5c 0e3e
00000110: f48e b33d c101 913c a395 a73a 78f9 42bd
00000120: d3a1 633c 815d 993c a9ba 23be 6404 c13d
00000130: a8f1 95bd 2775 5cbd 4ac1 19bd 91fb fa3d
00000140: 79d1 3e3e 7fc6 babd 5804 d23d 744d 673d
00000150: a1d4 f0bc a76f 613d a633 1f3e 9cb8 e2bd
00000160: e038 103d 008c bbbb fe00 913c 39fc bcbc
00000170: 9bac 7ebd ef17 e23d 454b 1a3e 02d9 f93d
00000180: ec15 76ba f6bf cd3d 3d9e 39bc 1b02 c7bc
00000190: 79c5 a33d b805 16bd 7b6e 82bb a0bf 623d
000001a0: 10ae a73b 9843 013d 53d0 8c3e 21cb cf3d
000001b0: 7f1b 703b 8a88 203d 5c15 1bbd 2010 1c3e
000001c0: 6e6f 903d e756 c8bd 8f7a 1cbd 8cfc 21bd
000001d0: 7501 47be 81aa a93d 6032 7c3d 62d9 e0bd
000001e0: 59bd 373e bcc2 0cbd 5d1c 293d 419e b0bb
000001f0: 508e 8e3c 61b5 633e 96ac 96bb e26e 323d
00000200: 2a17 18be 1c8c 673d d414 41bd d531 03bd
00000210: 870f ba3c b440 e4bd 9e1c 73bd 7f5d d13c
00000220: 9e40 2f3e f4a5 1c3d e772 783d 9fe1 3c3d
00000230: d372 213d ac1e c33d f115 4a3d fd17 153d
00000240: 0090 4d3c 465f b0bd a6e6 d13d d225 463c
00000250: 7e93 3f3d 63f3 4f3c 657c c5bc 2bfe 86bd
00000260: 3377 7e3d 6e46 763d 229b 8dbd be85 6a3b
00000270: 0caa 403d 938f 9039 ba0d 44be 6fde 5bbd
00000280: 86d5 9ebd 3ac0 783e 9551 11bc 3606 00be
00000290: 5392 a6bd 444e 5fbd d415 d0bd 3950 2b3c
000002a0: 5489 70bd 5edc 3d3d c840 b23d 08c1 89bd
000002b0: 6824 89bd 4dc0 1e3d ebf4 2c3d ebd7 57bd
000002c0: 8816 be3c 3a74 773d a557 303d 9669 de3d
000002d0: aba3 513d 23be b73c 0d55 e23d 3b9a f03d
000002e0: 115d b53d 761d bd3d f6e7 383d 8bf8 8dbc
000002f0: f4c6 c2bd aa75 1ebd 8da5 0d3a 4d43 7bbd
00000300: 8ebc fcbc 7759 c539 d613 81bd bf13 413d
00000310: c5b6 1fbd 0119 d23d 7324 f8bd 6292 55bd
00000320: 9206 e7bd 4cce 263d f0e6 a13d 21d6 19be
00000330: d4d6 ae3d d95c ed3d 5394 403e c5da 34be
00000340: cef7 5dbd 4c83 71be b268 d93d 8066 643e
00000350: 031a 5fbd 9f9a 2e3d 96de d03c 8741 66bd
00000360: ac12 50bd 8f71 f53d aab3 db3c c993 80bc
00000370: ea04 29bd 8014 a2bc ce59 b8bd eb0f 5f3e
00000380: f342 0e3e 47e8 2a3c 4700 ffbc e48d f6bd
00000390: 3d5d 4c3d 14d2 05be 1249 9ebd f659 56be
000003a0: 0f20 c73d ae45 02be 6c85 823d defe 8e3d
000003b0: b485 bbbd 3201 083e 5eab c7bc 68cf fcbd
000003c0: 6a24 5e3d 7c7e 33bc 2c6a 043e f571 39bd
000003d0: 7be5 aabc dd3e 2d3e 882c 933d 170d f7bc
000003e0: e8cf 903d abdf 323d 4a05 393a 3310 083e
000003f0: 6850 db3d 7e75 263e 9397 22bd 53e3 a9bd
-0.09141783 0.03387103 0.049515907 0.050490886 0.07520626 -0.03589196 0.026217002 0.01422246
-0.16915506 -0.017749367 -0.18068717 0.09396342 -0.018424304 0.06687438 0.12984648 -0.17186813
0.21606073 0.03110491 0.037843723 0.0823653 0.086244226 -0.048671134 0.12933442 0.2166556
-0.035658862 -0.016421206 -0.025554074 0.04080317 -0.06636587 0.003720568 -0.043768328 -0.10076995
-0.033172943 0.12551567 -0.010825179 -0.083874755 -0.07918186 -0.07584132 -0.006145744 -0.05688864
0.041269723 -0.17364208 0.10129813 -0.13615063 0.12663461 -0.024646541 0.10696169 0.029896133
-0.1016035 0.062219094 -0.036118455 0.11933387 0.09172922 -0.046461783 0.022987798 0.11764596
0.0062141833 0.071301885 -0.036527146 -0.13746272 -0.056874692 0.2656386 0.078126915 -0.07190043
0.027188607 -0.053640816 0.030584455 0.13902447 0.087675005 0.017701032 0.0012785684 -0.047601193
0.013893562 0.018721344 -0.15989174 0.094246656 -0.07321483 -0.053822663 -0.03753785 0.12255014
0.18634595 -0.091198914 0.10254735 0.05647035 -0.029398264 0.05503812 0.15547046 -0.11070368
0.03521049 -0.0057234764 0.017700668 -0.023069488 -0.06217633 0.11039721 0.15067776 0.12199594
-0.0009387422 0.10046379 -0.011329231 -0.024292996 0.07996649 -0.036626548 -0.0039804555 0.05535853
0.0051171854 0.031558603 0.2750269 0.10146166 0.0036637483 0.039192714 -0.037862167 0.15240526
0.070525035 -0.097822 -0.03820282 -0.039547488 -0.1943415 0.08284474 0.06157148 -0.109789625
0.17943324 -0.0343654 0.041286815 -0.005389959 0.017401844 0.2223716 -0.0045982106 0.043562777
-0.14852586 0.056530103 -0.047139004 -0.032029945 0.022712482 -0.11145154 -0.059353463 0.025557278
0.17114493 0.038244203 0.060656454 0.046113607 0.039416146 0.095273346 0.04933733 0.03639983
0.012546539 -0.08611922 0.10249071 0.012093978 0.04677152 0.012692305 -0.024107167 -0.065914474
0.062125396 0.06012576 -0.06914355 0.0035785283 0.04703717 0.0002757279 -0.19145861 -0.053678926
-0.0775557 0.24292079 -0.008869548 -0.1250237 -0.08133378 -0.054518 -0.101604134 0.010456138
-0.058724716 0.046352737 0.08703762 -0.06726271 -0.06696397 0.03875761 0.04222576 -0.05269615
0.023204103 0.060413577 0.043052334 0.10859983 0.051181477 0.022429531 0.110513784 0.11748167
0.08855642 0.09234135 0.04514309 -0.017330429 -0.095106035 -0.038686432 0.0005403392 -0.06134348
-0.030851629 0.00037641425 -0.063026115 0.047137972 -0.038992662 0.10258675 -0.12116327 -0.052141555
-0.1128055 0.040724084 0.07905376 -0.1502309 0.08537069 0.11589975 0.18806581 -0.17661579
-0.054191403 -0.23585242 0.10615672 0.22304726 -0.054468166 0.042627927 0.025496762 -0.056214835
-0.050799057 0.1198455 0.026819069 -0.01569547 -0.041264452 -0.019785166 -0.09001504 0.21783416
0.13892727 0.010431356 -0.031128062 -0.12038782 0.049893606 -0.1306842 -0.07728781 -0.20932755
0.097229116 -0.12721893 0.063731045 0.06982206 -0.09156361 0.13281706 -0.024373706 -0.12344247
0.054233946 -0.010955449 0.12931126 -0.045274694 -0.020861378 0.16918512 0.07186228 -0.030157609
0.07070905 0.043670338 0.0007057978 0.1328743 0.10708696 0.16255757 -0.039695334 -0.08295312

bottleneck.0.bias f4 [32]
00000000: 61ce 06bd cf70 a33c 00b5 e83c bbcd 183d
00000010: 7cdd f63c f2d6 de3c d27e 513d 899f 35bc
00000020: 14f2 d53c a556 6dbc 8561 5e3c e9b6 193d
00000030: 033b 2bbc af7d d33c 23dc 8abb dbcf f13c
00000040: 4901 0e3d b53c d73b 2f81 de3c 6c8f 643d
00000050: a20b 263a 4087 4d3d 8778 c93c 1257 50bc
00000060: 68f0 0d3d a363 a13c c18c e6bc f60a 3a3c
00000070: b75d c73c 6c8f dd3c e195 d13c 9756 e43c
-0.032911662 0.019951252 0.02840662 0.037305575 0.030134909 0.027202103 0.051146336 -0.011085399
0.026116408 -0.01448599 0.013573055 0.037527952 -0.010451081 0.025816767 -0.004237668 0.029518059
0.034669194 0.006568516 0.027161209 0.05580084 0.0006334131 0.050177813 0.024593605 -0.012716072
0.034653097 0.01970083 -0.028143289 0.011355152 0.024336679 0.027045928 0.025584163 0.02787332

bottleneck.2.weight f4 [32, 32, 3, 3]
00000000: d391 4bbc ec1d 11bd fbe1 48be b282 d6bd
00000010: 48c0 3dbe f9c8 b1bc 5a6c 92bd e7b6 fbbd
00000020: 93ac 7bbc 8ff4 793a 6724 38be 4b39 84bc
00000030: c713 af3b 0607 d03d ece9 8c3d b7ca 9c3d
00000040: eba9 08bd 1dac 71bc 044f 3fbd 7b3a 633e
00000050: e27c 223d 6e7f c0bd a238 913d d3d0 b3bc
00000060: 633f bc3d 30e1 8bbd b3b1 b73d b84e f0bc
00000070: f791 d13d 0791 cc3c 5e40 82bb 45e3 183e
00000080: c81b bb3d 0a97 613d da01 ee3d 5342 2e3d
00000090: 70ec 2e3d dec5 a1bb ed9c 873d 6f67 353c
000000a0: 585b 97bd dbbe 223e befc d0bb 2430 ff3c
000000b0: 4cb5 18be 1215 42be d144 24be 1fec 59bd
000000c0: a084 ad3d 8bf1 603d f0ee e83d b12f a3bd
000000d0: 5adf 65bd 87ae 543d 6fa8 833e aed5 a1bd
000000e0: ae0c 49bd 5af4 933d 6d3a b7bc 7694 55bd
000000f0: 0a71 37bd 45e3 03bc 6077 acbd b3ba 483c
00000100: 7d5c b63b 9d6a fe3d cb32 d63c 7ad6 9d3d
00000110: aaf4 f43c 363d 41bd 3a2b c23c 3ba2 783d
00000120: 6508 36be e06c 4a3c 1617 ecbd 2d46 543d
00000130: 2d4c 1bbc 605e db3c 364b 723d 75da aebd
00000140: 8b2a 0b3d ed31 3a3c d79f af3c c9c6 52bd
00000150: 4336 4dbd dd3f 5f3d 465d 7bbd 0f8b 8ebc
00000160: b3ed 69be 2561 ffbd 31df a0bc 7bcd d33c
00000170: aa59 12bd d3d0 a4bd 169d ff3d 8c31 983d
00000180: 8643 9e3c ef6a 7d3d 7b25 203d 6bf7 e73b
00000190: 0f3a ac3d 8c98 413e c9bd da3d eb4a 3d3e
000001a0: 5496 07bd 1b01 4c3d 88a7 f0bd 443b 013d
000001b0: c12c 50bd 793a 85bd 6f07 a0bc a730 c2bb
000001c0: b73c 43bd c199 bfbd 4057 f0bd 8001 ddbd
000001d0: 80b7 25be 91a7 ab3c 5a7d ad3d 7c12 d4bd
000001e0: 9a8b a4bd 7dde 413c 0825 4f3d beb2 52be
000001f0: f859 cd3c 0437 b73d 2c2c e53d 50d2 0c3d
00000200: 96b3 07be 4106 033e 54cd 193e 04aa 58be
00000210: 570d 96bd 420e 1a3e 3a71 1a3d 2f87 65bd
00000220: bb6a b13d 4760 983c ae23 d7bd 67cf fd3c
00000230: 03b8 043d 7b2a b93d 15d3 c2bd 53d7 d33d
00000240: da90 563e c267 14be 8c85 40bc 3154 58bd
00000250: c0ba 483d 86cb 953c eb1b e2bd e92a 473d
00000260: 378d d7bc a35f 8abc 5e06 40bd 48e3 d93d
00000270: c675 563c ba0a f4bc 056e 0d3d b9e0 d13c
00000280: 0ab9 e83d 5d2b 41bd d43e f4bc 0118 ecbd
00000290: 1a69 aebd e1b8 4ebe 4216 0c3d 2867 0ebe
000002a0: 3127 f53b 9d45 293e 86af 08bd 9281 b3bd
000002b0: 328b 65bd 29a5 09be 741e 553d 6b77 473d
000002c0: dcc2 1abe 8ecd d23c fdeb af3d cf14 243e
000002d0: e6f9 f8bc bc2d f8bd 4257 fe3d 2dbb d3bd
000002e0: 3fa5 19bd 7cf5 b3bd fdd4 a5bd d5c3 9d3d
000002f0: e7d6 e23d d1b1 83be 3276 263c 746c 323d
00000300: 858d 82bd c20c e03c e24a 033d 585b 1abe
00000310: cf45 d23d 86ef a83c 04d5 fa3c 5437 ebbd
00000320: 89f8 953c 3336 4fbd 9da8 3bbb ecfe 303e
00000330: 02b1 b23c 475e 0dbe bab4 833d afb3 463d
00000340: a8b6 6c3d 9aba c8bd a1bd a63c 1e58 2bbe
00000350: cd54 dbbb ef98 5ebd 7893 4abb f586 03be
00000360: a117 3a3c e9df 9b3c bb05 973c 97d2 4c3d
00000370: f779 f2bc e6ba e33d ea88 813c 02d3 6a3d
00000380: 0c6b 0c3d 350e f7bd a5ce 87bd 2cb2 e03b
00000390: 62ec 2fbd 251e d2bd bf8b d43d 5494 903d
000003a0: 8660 49bd 273f 353d f0a0 303d 362e fdbd
000003b0: 6322 9cbc f52c 2a3e 5df8 efbd cf16 b4bd
000003c0: af7f 073d 1339 2bbc efc7 9fbd 312a 5f3d
000003d0: 0291 4e3d 2e6a 293d dcb1 943c f5e1 983d
000003e0: d2ff 203e fe25 bbbd f9e5 f9bc 6ba3 b53c
000003f0: 1724 153e 3d1c 663e 5202 783e 310b 53bd
-0.012424904 -0.035428926 -0.19617455 -0.10474147 -0.1853038 -0.021702277 -0.07149573 -0.12290745
-0.015360969 0.0009535038 -0.17982636 -0.0161406 0.005342934 0.101575896 0.068805546 0.07655852
-0.03336517 -0.014750508 -0.046706215 0.22190277 0.03966988 -0.09399305 0.0709088 -0.021950161
0.091917776 -0.068300605 0.0896944 -0.029334411 0.10232919 0.024971498 -0.0039749583 0.14930446
0.09136158 0.055075683 0.11621447 0.04254372 0.042705953 -0.0049369177 0.06621728 0.011072024
-0.07390469 0.15893118 -0.0063777855 0.031150885 -0.1491291 -0.1895335 -0.16041876 -0.0532037
0.08472562 0.054917853 0.11373699 -0.07968081 -0.056121208 0.051924255 0.25714442 -0.07902084
-0.049084358 0.07224341 -0.022366727 -0.052143537 -0.044785537 -0.008049791 -0.084212065 0.012251544
0.0055652247 0.124226786 0.026147267 0.07706924 0.029901821 -0.047177516 0.023702253 0.06070159
-0.1777664 0.012355059 -0.11527841 0.051824737 -0.009478611 0.0267784 0.059153758 -0.08537761
0.03397612 0.011364442 0.021438522 -0.051459108 -0.050100576 0.054504264 -0.06136825 -0.017400293
-0.22844581 -0.12469701 -0.019637676 0.025854817 -0.03573004 -0.080476426 0.12481134 0.07431325
0.019319307 0.061869558 0.039098244 0.007079055 0.08409511 0.18905848 0.1068073 0.1848561
-0.03310235 0.04980574 -0.11750704 0.03155066 -0.05082393 -0.065052934 -0.019534795 -0.00592621
-0.047665324 -0.09355498 -0.117353916 -0.10791302 -0.16183281 0.020953925 0.084711745 -0.10355088
-0.080344394 0.0118328305 0.050572425 -0.20575997 0.025067315 0.0894604 0.11190066 0.034380257
-0.132521 0.12795354 0.15019733 -0.21158606 -0.07326763 0.15044501 0.037705638 -0.056037124
0.08662935 0.018600596 -0.10504852 0.030982686 0.03240205 0.09041306 -0.09512917 0.10343804
0.20953694 -0.14492705 -0.01175059 -0.052814666 0.049006224 0.018285524 -0.11040481 0.048624907
-0.026312454 -0.016891306 -0.046881072 0.106390536 0.013089603 -0.029790271 0.03452875 0.025619851
0.113634184 -0.047160495 -0.029815115 -0.11528016 -0.0851614 -0.20187713 0.034200914 -0.13906538
0.0074814786 0.16530462 -0.033370517 -0.08764948 -0.05604095 -0.1344191 0.052030995 0.04869787
-0.15113395 0.025732782 0.08589933 0.16023563 -0.030392598 -0.12118098 0.12418987 -0.10338435
-0.037511107 -0.08787057 -0.08097265 0.077033676 0.110761456 -0.257216 0.010160016 0.04356046
-0.06374649 0.027349833 0.032053836 -0.15073907 0.10267221 0.020622026 0.030619152 -0.114851624
0.018306987 -0.050588798 -0.0028634437 0.17284745 0.02181292 -0.13805495 0.06430955 0.048511203
0.057791382 -0.098012164 0.020354094 -0.16732833 -0.0066934587 -0.054345068 -0.0030910652 -0.12844451
0.011358173 0.019027667 0.01843535 0.05000552 -0.029599173 0.111196324 0.015812356 0.05733014
0.034281775 -0.12063257 -0.06631211 0.0068571772 -0.04295004 -0.10259656 0.10378217 0.07059541
-0.049164318 0.04424968 0.043122232 -0.1236233 -0.019059366 0.16618712 -0.117172934 -0.08793413
0.033080753 -0.010450619 -0.07801806 0.054483596 0.05043126 0.041361026 0.018151216 0.07464973
0.15722588 -0.09138106 -0.030505167 0.02217265 0.14564548 0.2247171 0.24219635 -0.051524345

bottleneck.2.bias f4 [32]
00000000: 8839 e73c a250 3d3d 9ab6 fc3c f51f 69bc
00000010: e559 10bc 9a5f 6cbc f5ed d23c 21b7 7cbb
00000020: 1029 143d c6d2 043c ea07 0c3d 36df 10bd
00000030: 36a0 18bd 0c9f ec3c eebe 5ebc ff96 db3c
00000040: 8e35 f93c 0729 72bc 0a06 103d c1c7 55bc
00000050: 60c1 ea3c 668b b93b 9979 40bd 5565 afbb
00000060: e4d1 f03c 5b7e 013d 0837 0abd 234d f13c
00000070: 27b5 ea3b be0a bfbc 20a0 d93c 522b cb3b
0.028225675 0.046219476 0.03084879 -0.014228811 -0.008810495 -0.01442709 0.025748232 -0.0038561302
0.036171973 0.008106893 0.034187235 -0.03536912 -0.037262164 0.028884433 -0.013595326 0.026805399
0.030421045 -0.0147802895 0.03516201 -0.013048113 0.028656662 0.0056623695 -0.046990965 -0.005352656
0.029396959 0.031614643 -0.03374389 0.029455727 0.0071627083 -0.023320552 0.026565611 0.0062002325

up1.weight f4 [32, 16, 2, 2]
00000000: 4681 943d 7785 743d 6c69 88be b3d0 ecbc
00000010: a7b8 e8bd de7f e63d a7f2 ab3d be5a 9d3e
00000020: 1b17 3ebe 2b8e a6bd 4b43 c73d c8f3 8e3c
00000030: 3cd1 9bbd 4129 953d b0e9 ed3d 0bef bcbd
00000040: b185 9b3b 7c90 993e 10a1 a83d de79 9fbd
00000050: 76db 033d bf41 28be c3e2 813c 443d b5bd
00000060: e669 0a3e 19d7 ea3d 906d 2abd f2f0 bfbd
00000070: d71f ac3c 6ba5 5bbe bbb2 693e ab42 763d
00000080: 225f 69be 9a39 e33d 8934 63be 1c4f b4bd
00000090: 6090 4a3d 4a49 6cbd d79a 3e3e b9ec 4d3e
000000a0: 7473 f4bd 8854 433e 6f2a a93d 5a05 0d3e
000000b0: 37a2 f83b 7531 d63d d9ab bdbd ad76 bdbc
000000c0: de4a c73d 229a 80be b184 04bd 1769 a93d
000000d0: d545 f73c c38e 6abd 8a1b 8f3e 222c 1c3e
000000e0: 4688 f2bd ae05 70be bf77 883d 3593 11bd
000000f0: 3a9f c03b bed1 623e 1ff8 c5bd 8b93 403d
00000100: 3cad 62be 5869 3fbe f418 d4bb 8b42 02be
00000110: c9f0 7abe e864 ebbd f7ee 44be 610b 7e39
00000120: be6c 993e a84d c03d f7f8 34bd e603 bfbd
00000130: 161e d43d 063a ffbc 6fb0 b73d 3ae5 eabd
00000140: 1ce3 19be eb50 dabd c175 6ebd c374 71be
00000150: 2a9c babc d99b 8abc e205 293d b69d 813d
00000160: 202a 03be b40b 9dbd 6ef8 27be 3c42 adbe
00000170: d66d 9a3d cfb9 cd3d 4f9a 41be 54c2 96bd
00000180: 0006 4cbe 2c2e 1abd 87c0 7abe bbc7 093e
00000190: d29f a83d 90f9 083e 07aa cd3d d2a2 943c
000001a0: 2330 b1bd 66b2 55be e8e7 9f3b af98 823d
000001b0: e4b1 0dbe 9ddf 51bc d567 6c3e a202 9a3b
000001c0: b0b1 a7bd e2f9 b43d 2036 533d bf88 b83d
000001d0: 5c4f e83d 737d ce3c b835 523e 9ce2 78bd
000001e0: d0df 3c3d 66c3 303e 7852 82bd f96d ccbd
000001f0: bab1 41be 653e ffbd f655 75be 7557 5bbd
00000200: 4e3c fbbc ad0b 80bd d0e5 f3bd 7881 823e
00000210: 85c0 23ba 52ac 44bd 5e22 18be 6d2a 9ebd
00000220: e55f 373d 189f 8f3d 23e1 5e3e 8877 7f3e
00000230: 415a f03d a51d 9b3d bfef a63e e209 95bc
00000240: f1cf 55bd a6c0 a1bc 0912 5abe 236c 4fbe
00000250: 272e 89bc 1f6c 0e3d 02b2 96bd a794 07bd
00000260: 38b8 2c3d 8d29 093e c75e 1bbd 7ecb 18be
00000270: 75e6 d4be b2b5 3bbd e034 abbd 1ad0 e0bc
00000280: 9d1e 433e d44a 64bc 45ea 1ebe 5711 b03e
00000290: 025f d53d 3f0f e93d 8aca 493e a58e 75bd
000002a0: f555 0f3d 30b6 89ba c4ca fd3c 2159 83bd
000002b0: ff9e 3f3d b84b a2bd bc03 bd3d 8435 c0bd
000002c0: fd36 a9bc 4611 df3c 585c 2dbd dd19 843e
000002d0: 0977 04bd e639 66bc 00d7 973a 4138 8f3e
000002e0: 78c1 cdbd 6e96 0a3e a868 84bd 376c 23be
000002f0: 4f2e db3d 749c ecbd 556d 33bd a7e9 1abe
00000300: e51c b9bd 5a5b 453d b5d9 123d 8fc6 d33d
00000310: a44a de3d e7cf 0f3e db36 8ebe 9a29 ac3d
00000320: 3419 19be 1278 39be 4200 56bd 7c2a c13d
00000330: 86c8 96be 95b7 66bb 5431 873d a129 273e
00000340: b50c a63d f9ec ddbd ef63 043e 0086 6bbd
00000350: 5c58 48bc d46f 75bc 024a a33d d96d c33d
00000360: c67a ffbc 7d23 fbbb 7b96 b83e 6d8c d53c
00000370: ff14 dabc 2b11 ff3d f5a0 b23c 8689 7abd
00000380: 8ca9 a2bb c73a 99bc 4d50 e83c eb52 73bd
00000390: fcdd b53d 5554 53be 742e 693d ee61 603e
000003a0: b903 ccbd ddd3 13bd 3408 103e 4c7b 49be
000003b0: bc0b f83c d810 23be 2d33 9b3d 9c88 a23d
000003c0: 36de c6bc 788d dc3d 2802 f83d 879e 07be
000003d0: caf6 023e 0188 d9bc 54cd 063e ce7e 0ebe
000003e0: f416 773e 5af9 6fbd afd1 fa3d 975f 68bd
000003f0: 917b 20be 8e6c a63d 946c ac3d 402b eb3c
0.072512195 0.059697594 -0.2664293 -0.02890811 -0.11363345 0.112548575 0.08395892 0.30733293
-0.18563502 -0.08132585 0.09729632 0.017450228 -0.07608268 0.07283259 0.11616838 -0.09225281
0.004746162 0.29993045 0.08233845 -0.07786916 0.032191716 -0.1643133 0.015855199 -0.08849576
0.1351696 0.11466808 -0.041608393 -0.093721285 0.021011276 -0.2144982 0.22822087 0.060122173
-0.22790197 0.11094971 -0.2218801 -0.088041514 0.049454093 -0.05768708 0.18613754 0.20109834
-0.119360834 0.19075215 0.08260047 0.13771573 0.007587697 0.10458652 -0.09261293 -0.023127878
0.09731077 -0.25117594 -0.032353107 0.082719974 0.030184666 -0.057265054 0.27950698 0.1525121
-0.11842398 -0.23439667 0.06663465 -0.03554078 0.0058783563 0.22150323 -0.09666466 0.047015708
-0.22136396 -0.18692529 -0.006472701 -0.12720697 -0.24505915 -0.11493856 -0.19231783 0.00024227567
0.29965776 0.09389812 -0.044182744 -0.093269154 0.10357301 -0.031155597 0.08969199 -0.11469503
-0.15028042 -0.10659965 -0.058217768 -0.23579697 -0.022779543 -0.016920017 0.041265376 0.06328909
-0.12809038 -0.07668248 -0.16403362 -0.33839595 0.07540481 0.10045206 -0.1890652 -0.07361284
-0.19924164 -0.03764169 -0.24487506 0.13455097 0.08233608 0.1337645 0.10042196 0.018144045
-0.086517595 -0.20868835 0.0048799403 0.06376778 -0.13837391 -0.012809661 0.23086484 0.004700021
-0.08188188 0.08836724 0.05156529 0.09010457 0.113432616 0.025206303 0.20528305 -0.060762987
0.04611188 0.17262039 -0.06363386 -0.09981913 -0.18915454 -0.12463073 -0.23958573 -0.053550202
-0.030668404 -0.06252227 -0.11909068 0.25489402 -0.0006246644 -0.0480159 -0.1485686 -0.07722936
0.044769187 0.070127666 0.2176557 0.24947941 0.117359646 0.075740136 0.32604787 -0.018193189
-0.05220026 -0.019745182 -0.21295942 -0.20256095 -0.01674564 0.03477108 -0.07358171 -0.03310075
0.042167872 0.13394757 -0.037932184 -0.14921376 -0.41582075 -0.045827575 -0.083596945 -0.02744298
0.19054647 -0.013933856 -0.15519054 0.3438823 0.10418512 0.11379861 0.19706169 -0.05995049
0.034994084 -0.0010506567 0.030980475 -0.06413484 0.04678249 -0.079245985 0.09229228 -0.09385207
-0.020656103 0.027229916 -0.042324394 0.25800982 -0.032340083 -0.01405189 0.0011584461 0.27972606
-0.10046667 0.13533947 -0.06465274 -0.1595925 0.10702192 -0.115532786 -0.04380544 -0.15128194
-0.09038714 0.048182823 0.035852153 0.103406064 0.1085408 0.14044152 -0.27776226 0.08406372
-0.1495102 -0.1811221 -0.05224634 0.094319314 -0.29449862 -0.0035204638 0.066012055 0.16324474
0.081078924 -0.108362146 0.12928747 -0.05750084 -0.012228098 -0.014980275 0.079731 0.09542436
-0.031186473 -0.0076641426 0.36052307 0.026067937 -0.02662134 0.124544464 0.021805266 -0.06116631
-0.004964059 -0.018704785 0.028358603 -0.05940525 0.08880231 -0.20637639 0.056929067 0.21912357
-0.099616475 -0.03609072 0.14065629 -0.1967594 0.030279033 -0.15924394 0.075781204 0.079362124
-0.02427588 0.107691705 0.12109786 -0.13244067 0.12789455 -0.02655411 0.13164264 -0.1391556
0.2412985 -0.05858741 0.12247025 -0.056731787 -0.15672137 0.08126174 0.08419147 0.028707147

up1.bias f4 [16]
00000000: d089 983c 2863 06bd eea2 de3c 6147 05bd
00000010: 5ea5 d8bc 884f f6bc f3c2 f5bc b4ca eebc
00000020: 9359 c1bc 7177 c63c 9133 99bc 7b0f cf3c
00000030: 3802 e83c 54ab d43c 4610 d8bc 5102 cfbc
0.018620402 -0.032809407 0.0271773 -0.032538775 -0.02644604 -0.03006722 -0.030000186 -0.02914939
-0.023602283 0.024226876 -0.018701347 0.025275936 0.02832137 0.025960602 -0.026374947 -0.02526966

dec1.0.weight f4 [16, 32, 3, 3]
00000000: 7e22 993d 3ee5 c13d 1209 a93d 55c6 b53d
00000010: 89bd f13d 7539 aebd ed09 773d e4ac 163e
00000020: a5b0 72be 209e e93c 9587 96bd 3855 a93b
00000030: 781e 50be 3d31 cd3d 4fdb 493e 6cd2 a6bd
00000040: af92 cc3c 70aa 0a3d b533 e63c 7319 d8bd
00000050: b5e0 2a3e 07d4 8f3d 7209 cd3c 1945 7e3d
00000060: fde7 ddbd 53fc 6cbb efac 893e 8667 e0bd
00000070: 4f05 163c f984 54be 0754 81be ca39 8fbc
00000080: 1cf0 03be 4519 d6bd 02ef 363d dc6a e33d
00000090: 2048 e33c 15e3 4e3e 3548 0cbd dd90 47bb
000000a0: 48da 59bd 2e87 473c b0ad fdbc bfa9 bcbd
000000b0: 0158 4f3e 8b25 143c 413f f93d 58d7 d83d
000000c0: efd0 b93d e842 cf3d 812c a93d 6ac6 3c3c
000000d0: 9211 333d fee5 a03c b4d7 cbbd 06d5 fb3d
000000e0: 4767 f7bc 7683 11be badd ee3d 0966 aa3d
000000f0: 2a2f 343e 98aa ec3d 0019 63bd 5fcf 9fbd
00000100: 3b17 e0bd 12f9 83be e794 8cbe 18ba baba
00000110: fea0 a8bc ff62 47be f23d 8abd d257 5ebe
00000120: 837b ef3c 9936 4bbe 1993 603e 9369 513d
00000130: 6399 acbd 54b9 5d3e 0e88 82be c09b 61be
00000140: dbbd 2e3e 0008 5c3e da13 3f3e 51d4 113d
00000150: e1d7 3fbd 6dd1 a83d 0eeb dcbc 87bf a23c
00000160: c131 c3bb e8fa de3d 9250 833d 8abe a8bd
00000170: 5dae aebd bdbf 153e b36b 20be 3cf2 f43d
00000180: 7d3a dabd b1e4 1cbd 7188 fcbd 8fc6 8ebd
00000190: e708 77bd 7e5c 9e3e ea92 29be 150e 0e3e
000001a0: 58d3 903d 8e09 943e 71a1 dcbd ad35 4d3d
000001b0: 786c e7bb 3258 c9bd 4dd8 43be eace 00b9
000001c0: dbe5 753c 4113 cb3d f040 cb3c f964 783d
000001d0: 0b5a dcbd 56ff fd3d c42e a9be ed5e c0bd
000001e0: 2bf1 d7bd bb55 3abd 4ef9 f13c a024 66be
000001f0: 9fb3 b13d a1dd 413e 1423 53bc 54da 2e39
00000200: def9 5b3d 9815 45be b9f7 30bd ee98 d13c
00000210: 538c 2f3e 91fa 2e3d 2ae4 4cbb 1291 1e3e
00000220: 8bde 4bbe 93fb 98bd 0bad 8b3d 0649 1b3b
00000230: a57e d3bc 8125 be3c d1e5 c03e 813d b53d
00000240: 0b2b 88bc e39a ff3d 7674 31bd babe 08bd
00000250: 978a 15bc 7716 f3bd be1d 8e3d 56f3 743c
00000260: 27e3 42be d16b 8a3d 0c95 1abe 79dc c83d
00000270: 2345 42bd 7d73 b4bd 0fc3 f03d e27f ca3d
00000280: df5d 73bd c023 50bd 897d 5e3c e353 3a3e
00000290: 4a84 9e3d 1bc1 803d d364 773e 634b 313e
000002a0: 36c7 2b3c 12d4 99bc 2609 0cbd 257e 2bbd
000002b0: d13f 963d 237b f0bb c73a a43c cd4f d03d
000002c0: 3344 a93c dba4 7fbe a595 ad3d 03eb b4bd
000002d0: 8e99 d63d 4979 89bd dc50 00bd 807d cd3d
000002e0: 4390 5a3d dd64 633e 8ced 8abd 7eca 80bd
000002f0: 1407 66be 3f1c c9bd 3007 65be 9900 6a3d
00000300: fed5 15bd 0b38 1dbc 348c 09be c64d 923e
00000310: c8d0 05bd 56f5 66bd d42e 93bd e535 41be
00000320: 3309 30be 05ac fbbc f49d 0dbe d464 b9bd
00000330: f11a dabc a443 f33d 3bcf 173d 45e7 9dbd
00000340: f9d1 e1bd 6d1e febd 25b9 10be 5840 153e
00000350: 8f50 ddbd 3d0c 10bc d0cc 463e 2ffe 943d
00000360: d2f7 11be 6a9c 7bbd e318 f2bd 05aa 943c
00000370: d796 07be 5615 143e a3de cabd 8cf6 34bd
00000380: e465 78bc 4230 2dbe ef19 febc 85ea 933e
00000390: e14f 293e c332 d13d 84c8 2f3c c586 cd3b
000003a0: 797d fa3d 9f99 323d 22b7 a0be 967c acbd
000003b0: 9548 243e 9885 2fbe ec0e 243c a5b3 b8bc
000003c0: e998 e33d 73ee 87be 1320 893d c4a7 7bbe
000003d0: beb9 91bb e8eb 3e3d dfab 9a3d e53d d0bd
000003e0: 48d3 ccbd 41fc c23d 250c a03c a34b 2cbd
000003f0: 3ae8 bfbd 176f 8e3d 53f5 113c a72f 06be
0.07477282 0.094675526 0.08253683 0.088757195 0.11803729 -0.08507053 0.0603122 0.1471439
-0.23700197 0.028517783 -0.07350079 0.0051676296 -0.20324123 0.10019157 0.19712566 -0.081456035
0.024972288 0.033853948 0.028100828 -0.10551729 0.16687281 0.07022863 0.025028918 0.062077615
-0.10835264 -0.003616114 0.2688975 -0.109572455 0.009156539 -0.2075385 -0.2525942 -0.01748361
-0.12884563 -0.104540385 0.04466153 0.11104366 0.027744353 0.20203812 -0.03424855 -0.0030451335
-0.053186685 0.012178225 -0.03096661 -0.09212064 0.20248415 0.009042154 0.12170268 0.105879486
0.09073054 0.10120183 0.082604416 0.011521915 0.04371793 0.019640919 -0.099532515 0.1229649
-0.030200614 -0.14210305 0.11663385 0.08320243 0.17596117 0.11555976 -0.055443764 -0.07803225
-0.10941931 -0.25775963 -0.27457353 -0.0014246134 -0.02058458 -0.19471358 -0.067500964 -0.21713188
0.0292337 -0.19845046 0.21931113 0.051126074 -0.08427694 0.21652728 -0.25494426 -0.2203207
0.17064612 0.21487427 0.18659917 0.03560287 -0.046836738 0.0824307 -0.026967552 0.019866718
-0.005956859 0.108877 0.06411852 -0.082394674 -0.08529351 0.14623924 -0.15666084 0.11960265
-0.10655687 -0.038304035 -0.12330712 -0.06971466 -0.060311224 0.3092994 -0.1655995 0.1387256
0.070715606 0.2891354 -0.1077298 0.050100017 -0.007062491 -0.09831275 -0.19125481 -0.00012284113
0.015008415 0.09915782 0.024811238 0.06064317 -0.10759362 0.12402217 -0.33043492 -0.09393106
-0.10544046 -0.045491915 0.029537823 -0.22474909 0.08676838 0.18932201 -0.012886781 0.00016675267
0.05370509 -0.19246519 -0.043204997 0.025585618 0.17143373 0.042719427 -0.0031263926 0.15485027
-0.19909112 -0.07469859 0.06820115 0.0023694648 -0.025817225 0.023211243 0.37675336 0.088496216
-0.016622087 0.12480714 -0.043323956 -0.033385016 -0.009127281 -0.11869519 0.069392666 0.014950594
-0.19031964 0.067588456 -0.1509592 0.09807677 -0.047429215 -0.0881109 0.117559545 0.09887673
-0.059415694 -0.050815344 0.013579735 0.18196063 0.07740076 0.06286832 0.24159555 0.17313914
0.010484507 -0.01877788 -0.034188412 -0.041868348 0.07336391 -0.007338898 0.020047558 0.10171471
0.020662403 -0.24965231 0.08475808 -0.088338874 0.10478507 -0.067125864 -0.031327114 0.10033703
0.053360235 0.22206445 -0.0678359 -0.06288622 -0.22463638 -0.09819841 -0.22366023 0.057129476
-0.036581032 -0.009595881 -0.1343239 0.2857496 -0.032669812 -0.056386314 -0.07186666 -0.18868215
-0.17191009 -0.030721674 -0.13829786 -0.090524346 -0.026624175 0.11878136 0.037062865 -0.07710127
-0.11026377 -0.12408147 -0.14133127 0.14575326 -0.10806381 -0.00879198 0.19414067 0.07275044
-0.14254692 -0.061428465 -0.11821153 0.018147478 -0.13241135 0.14461264 -0.09905746 -0.044180438
-0.015161011 -0.1691294 -0.031018225 0.28889862 0.16534378 0.1021476 0.010728959 0.0062721693
0.12230963 0.043603536 -0.3138972 -0.084222004 0.16043313 -0.17140806 0.010013323 -0.022546599
0.1111315 -0.2654911 0.06695571 -0.24575716 -0.004447191 0.046611696 0.07552313 -0.101680554
-0.10001236 0.0952077 0.019537041 -0.04206432 -0.093704656 0.069547825 0.0089085875 -0.13104115

dec1.0.bias f4 [16]
00000000: 5d3f b33c ff0f d03c 7d2b e63c 9c9d ee3c
00000010: 64f5 bfbc 9bd4 10bd 0bcb b93c 1e5d c53c
00000020: 5545 f33a c1a4 7db9 0199 583b de98 0bbc
00000030: 94b0 86bc 3fa9 b53c 95e6 97bb ad1a c73c
0.0218808 0.025398253 0.028096909 0.029127888 -0.023432441 -0.035359006 0.022679826 0.024092253
0.0018560091 -0.00024189336 0.0033050182 -0.008520333 -0.01644162 0.02217543 -0.004635642 0.024304712
