sampling-based_planning_framework/checkpoints/checkpoint_epoch_4.pth (torch, 385350 bytes, 75 tensors)

enc1.0.weight f4 [8, 1, 3, 3]
00000000: 1e6e c9bd 9a68 e13d ffd8 173d 79b2 0e3e
00000010: 7c65 f1bd df53 9c3d 4af5 133d db58 34be
00000020: dd96 99bd e99a 2f3e 975f ccbd afe8 943d
00000030: 5819 4e3e 3c0a 88bd 186b 093e 52f9 0abd
00000040: 3135 f33d 72d5 d6bc 32b9 333e f8b9 32be
00000050: 379e 72bd 8d7b 153e 66b8 76bd 4abf a8bd
00000060: 74a0 9bbe b27d d9bd 0f09 91bd d3c3 3a3d
00000070: 850d b73c 5e04 33be f608 423d 2b61 783d
00000080: 666c 573e 0d92 97bb 599e 88bd ed63 f9bc
00000090: 5fa0 48bc 290c 45bc 1b7f 05be 7736 54be
000000a0: 47c0 093e caec 8b3a 2a54 cabc 532e 6c3d
000000b0: b001 70be c07f 603e d449 6a3e 818e 5dbd
000000c0: 6ed8 af3e 5f35 a0ba f09d f7bd 9890 ce3d
000000d0: 893d a8be 4bd2 71be 966b 353c 2029 8b3b
000000e0: 06b7 6e3d e460 033e 7f25 85bd a787 f13e
000000f0: 1bf2 0abd 4e51 a93d 4fbc ed3c 2b1c aa3d
00000100: e1fd babe 7394 7a3d 70e7 01be 4841 25bd
00000110: 6c6a 613e 0fc1 603d 383e 3bbe e69e 8a3c
-0.09835456 0.11006279 0.037072178 0.1393527 -0.11786935 0.07633185 0.036122598 -0.1761202
-0.07499478 0.17148937 -0.0997917 0.072709434 0.20126855 -0.06642577 0.1341976 -0.033929177
0.1187538 -0.026224826 0.17551115 -0.17453754 -0.059232917 0.14597912 -0.06023445 -0.082396105
-0.30395854 -0.106196776 -0.07081806 0.04559691 0.022345314 -0.17482135 0.047371827 0.06063954
0.21037444 -0.004625565 -0.066708274 -0.030443156 -0.012245267 -0.012026825 -0.13036768 -0.20723902
0.13452254 0.0010675427 -0.024698336 0.057661366 -0.23438144 0.21923733 0.22879726 -0.05409098
0.3434481 -0.0012222937 -0.12090671 0.10086173 -0.32859448 -0.23615377 0.011073014 0.004246846
0.058280014 0.1282993 -0.065012924 0.47173807 -0.033922296 0.08267461 0.029020457 0.08306154
-0.3652182 0.06117673 -0.12685943 -0.04034546 0.22013253 0.054871615 -0.18285453 0.016921472

enc1.0.bias f4 [8]
00000000: 01d1 003d ef99 dd3b f099 f43c e697 8fbb
00000010: a542 8bba 3fd4 493a 425f 52bb 0863 173a
0.03144932 0.006762735 0.02985856 -0.0043821214 -0.001062472 0.00076991686 -0.0032100235 0.00057749497

enc1.2.weight f4 [8, 8, 3, 3]
00000000: 23ee e23d a6d8 473d bbab 88bd e0b4 87be
00000010: abf7 ef3e 3308 f43d 4b84 9bbd 3bfc af3c
00000020: 866c 0bbd 6a20 dfbd 3f5a 14be 9215 03be
00000030: 2c38 04be 92bd 12be 28ec 213e b21c 1c3e
00000040: b73d 0b3e 333d 74be 09e6 863d ddde 453e
00000050: d634 103e ce43 0fbe cd60 d83d 5303 0bbe
00000060: 6fbd 60be be49 af3d f2ec c1bc cd49 58bc
00000070: 26c1 e0bd 54ee 5dbe 4a26 ff3d 7ce4 00bd
00000080: 422c 5fbc 476b b6bd 8019 bcbc 00a1 62be
00000090: c191 d0bd 3fe5 5cb9 f063 013e f4dc 54be
000000a0: 589e 113d d85c 743d cd52 373d 7efb 5abc
000000b0: 3a92 3c3e 6028 4b3d 6577 aabe 3da1 103d
000000c0: ae33 7bbd 0615 8a3e aa9c a1be 46dc c33d
000000d0: 8b3b 57be e308 21be 3e0a f5bd ee5e b83d
000000e0: 2658 5fbc df70 a13d 3c28 c4bd 7a47 18bd
000000f0: 902f b03c 6fa5 e6be b06d 303c 4b9a 99bd
00000100: f249 a1bd 97ad 823e 9cf9 a0bd 04dd 6e3d
00000110: 3dff 373d e39c 343c 2f8c a0bd fc8d 94bd
00000120: 9fdc 4fbe 88e6 d2bb 3eee 263d 487a 183e
00000130: 07ae 2d3e dca9 6e3d 5d1f 34be de55 2a3e
00000140: a1b3 58be bff2 a7bd 8918 543e 5504 eabd
00000150: 61c5 1e3e 1d6b 50be 0577 bf3d b0d0 053d
00000160: c4d2 d3be 9bbd 063e c039 babc d4b4 8cbe
00000170: f462 6f3e 8417 40bd 0295 253e c555 8f3d
00000180: dfe8 373d d29e 283e e622 16be 8cc8 043e
00000190: 7521 7cbc 95e6 893e 622f 9a3e 84c1 d1bd
000001a0: ac15 483b a1a0 15bd 0464 d63e dd62 f73d
000001b0: 367b 3bbe 2b15 6c3d 60a6 abbd 4bf2 b4be
000001c0: 3eb5 d13d bc74 32be acb9 3b3d e344 bf3d
000001d0: e957 a63e 3f4b 0abe 967d a5be 4f4c 44bc
000001e0: 099d 783d db91 3f3e 3e9d cf3d 2ad0 493c
000001f0: a66d efbd 1088 10bd 31b7 7d3e be96 8dbd
00000200: d4e4 7dbe ba79 883e 8ba2 2f3e a415 07be
00000210: 40ae c63e b8f0 eb3d 4a15 853d 581c 403d
00000220: 5d31 773e 82e8 c9bd 2b55 663e 7872 313e
00000230: fb7c b63d ed77 063e 73dd 2bbe b37f 1b3d
00000240: a8bb 073e a4a5 253e 72e8 00bc bd11 183e
00000250: 1f0a aa3d 8530 d9bd c32e c93d bb61 053f
00000260: 7b81 40be 1fe7 bcbe 64ce 61be b5aa 4f3d
00000270: e651 7a3e 5387 d2bd 9faa 57bd 66cc 0c3e
00000280: 398a d2be ce89 27be d0b9 7ebe d7bf f4bd
00000290: afd0 a7be 9733 963d 81f6 703d 0c5b 7b3e
000002a0: 24d4 9a3d 3cbf 403e d4b7 96bd 8f1e 573e
000002b0: e9be 0fbe c42d c5bc 4d87 46bd 6cba aabc
000002c0: 50ab e4bb 0dbb 2bbe e431 e8bd 9fd7 7abe
000002d0: 7635 ba3d e4d0 67bd e2b7 363e 34c8 12be
000002e0: 5f6e 673b a575 0a3e 45ac 01bd 1587 31bd
000002f0: ef4b 493d 49e6 32be 5f1f 87be 772b 9d3e
00000300: 1e42 c93d 7d58 9abe 7ace 8abe 066a 913d
00000310: b3ab 68be dc84 0f3d 7ba9 a03d 450b debd
00000320: d6e1 3bbe 53a6 8ebe 3fe7 8b3e 7a79 4f3d
00000330: 73e6 3abe 6415 abbd feea 83bc 86d5 ec3c
00000340: 5e95 53be de35 273d 8560 963e 33e3 29be
00000350: 43a6 31be dfa0 8a3c af05 043e 6baf bd3c
00000360: 5411 d63c 0e62 8d3e a50a 41bc a703 18bd
00000370: f266 4d3d 7fba 4fbe ae66 393e 6b16 c3bb
00000380: f049 443d 2fdc 80be 2f67 c9be 1ca0 47be
00000390: 59c5 b3bb 9fc1 29be 19cb cebd 2497 3b3e
000003a0: 92b7 2a3e 24b4 743d d72f 05bd 6fa1 5e3d
000003b0: 677f a43d ca2a a4bd c937 57bc 2be1 e43d
000003c0: 0edb e9bb 3de6 503e 8db4 44be 9065 683b
000003d0: 973a be3b f253 f33d f4f7 e2bd b05b 01bc
000003e0: 2958 02bd 9ddc 1abd 1705 003e 49ec 063e
000003f0: ccd1 d23e 9eb2 f3bb 57e4 acbd 839e 40be
0.11080577 0.048790596 -0.0667338 -0.26505184 0.46868643 0.119156264 -0.07593592 0.021482578
-0.034039043 -0.10894854 -0.14487551 -0.12801197 -0.12912053 -0.14330128 0.15812743 0.15245321
0.13597761 -0.2385147 0.065868445 0.19323297 0.14082655 -0.13990709 0.10565338 -0.13575487
-0.21947263 0.08558987 -0.023672555 -0.013201189 -0.1097434 -0.21672946 0.12458475 -0.0314679
-0.013621392 -0.0890718 -0.022961378 -0.22131729 -0.1018405 -0.00021066236 0.1263578 -0.20787412
0.0355514 0.059658855 0.0447567 -0.0133656245 0.18415156 0.04959905 -0.33294216 0.03531002
-0.061328582 0.26969165 -0.31564838 0.09563498 -0.21018808 -0.15726046 -0.11964844 0.090024814
-0.013631856 0.078828566 -0.095779866 -0.03717754 0.021507055 -0.4504809 0.010768339 -0.07500132
-0.07875432 0.25523064 -0.07860109 0.058316246 0.04492115 0.011023733 -0.07839238 -0.07253644
-0.20299004 -0.006436173 0.04075455 0.14890397 0.16960917 0.05826746 -0.17590089 0.16634318
-0.21162273 -0.08200597 0.20712484 -0.114266075 0.15504982 -0.2035336 0.09348873 0.032669723
-0.4137174 0.13158266 -0.022732615 -0.2748171 0.23377591 -0.046897426 0.16170123 0.06998781
0.044899818 0.16466835 -0.1466175 0.12967128 -0.015388836 0.26933733 0.30114275 -0.10241988
0.0030530496 -0.03653014 0.4187318 0.120794035 -0.1830872 0.057637375 -0.08381343 -0.35341105
0.10239647 -0.17427343 0.045831367 0.09339311 0.32488945 -0.13505267 -0.32322377 -0.011981084
0.060696635 0.18707983 0.101374134 0.012317697 -0.11690836 -0.03528601 0.24776913 -0.069135174
-0.24794322 0.2665537 0.17151849 -0.13191849 0.38804817 0.11520523 0.06498201 0.04690203
0.24139924 -0.098588005 0.22493427 0.17328823 0.08910557 0.13131686 -0.16783695 0.03796358
0.13255179 0.16176468 -0.007867919 0.14850517 0.08302712 -0.106049575 0.09823372 0.5210225
-0.18799393 -0.3689508 -0.22051388 0.05069991 0.24445304 -0.10279717 -0.05265295 0.13749847
-0.4112108 -0.16361162 -0.2487557 -0.11950653 -0.327764 0.07334059 0.058828834 0.2454645
0.07559994 0.1882295 -0.07359281 0.21007751 -0.1403767 -0.024069674 -0.048468877 -0.020840846
-0.00697843 -0.16770573 -0.11337641 -0.24496315 0.09092228 -0.056595698 0.17843583 -0.14334184
0.003531359 0.1352144 -0.03165843 -0.043341715 0.04914468 -0.1747066 -0.26391122 0.30697224
0.09827064 -0.30145636 -0.27110654 0.071003005 -0.22721748 0.035038814 0.07844826 -0.10841993
-0.18347868 -0.2786127 0.27324864 0.05065296 -0.18251972 -0.08353689 -0.016103264 0.02891041
-0.20662448 0.040822856 0.29370514 -0.16590576 -0.1734858 0.016922412 0.12892793 0.023154935
0.02613131 0.27613872 -0.011782323 -0.03711286 0.050147004 -0.20285986 0.18105575 -0.0059536
0.047922075 -0.25167987 -0.39336535 -0.1949467 -0.005486172 -0.16577767 -0.100973316 0.18319374
0.16671589 0.059742108 -0.032516327 0.054353174 0.080321126 -0.08015974 -0.013135859 0.1117576
-0.007136709 0.20400329 -0.192095 0.0035460927 0.0058053243 0.11881246 -0.110824496 -0.007895395
-0.031822357 -0.03780805 0.12501942 0.13176073 0.41175687 -0.0074370643 -0.0844199 -0.18810467

enc1.2.bias f4 [8]
00000000: fa57 eebc 0b53 c23b 3e2b 073d 8c65 c2bb
00000010: a650 3b3a 407c f63c 1a91 d73c 6881 db3a
-0.029094685 0.0059303096 0.033000223 -0.0059325155 0.00071455014 0.030088544 0.026314307 0.001674694

enc2.0.weight f4 [16, 8, 3, 3]
00000000: a9b0 3f3c 4d88 44bd 95b7 1cbc 22e3 ecbd
00000010: 75a7 62be 34f1 c13d e9ff 723d 1f63 c1bd
00000020: 9935 883e 543e 0dbc 4b4e 3a3d 3c30 13bd
00000030: bdc1 57be b9c7 693d 2ef4 1bbd f038 a2bd
00000040: c9b7 5abd 3755 393e 7857 e7bc a0de de3d
00000050: 4b5d 4abe 8f6e 65bd e546 edbc c6e4 18be
00000060: 3bc1 b63d 7fc4 8a3e 2251 cd3d 7106 50bd
00000070: 80aa e53d ca7c f63d c69f 71bc 0014 1fbe
00000080: 8dc8 7ebc ae95 3abe 682d 20be 8b08 b4bd
00000090: f2e1 273e 6134 68bd 1c90 3dbe 5520 cabc
000000a0: a7a2 ba3c e32f 3cbd f6f8 0abe fa6f ffbd
000000b0: c678 8b3d 9d76 413d 8323 3d3d 6d67 0b3e
000000c0: 61d7 5d3e e9e9 22bd 82d5 103e 9c67 323e
000000d0: d3c1 39bd 6226 e13d 564c 3d3e 2596 6abd
000000e0: 827a 9bbe 3ddc 37be e773 4d3e 9c42 84bd
000000f0: 8cb5 b13d fa4e 563e 6a00 423e a40f 433b
00000100: fdd5 3cbe ab68 a93c 5b59 79bc 19f0 1cbc
00000110: 5e5a f63d 4c22 d2bd 6c35 27be defa 113b
00000120: ef78 9f3c b527 6a3d 1244 5cbc 17a7 f0bc
00000130: f939 29bd e7c3 f0bd 937e b1bd 48ca 11bb
00000140: 892d ed3d 338b 4fbd 681b 873b e113 a03e
00000150: b43f 793c 7812 b7bd a33c 003d a1ee 70bd
00000160: a20e 2fbc 478e aabd d570 d13c 5073 4f3c
00000170: 9c40 0b3e 7979 c03d 9e57 f63c d2c9 563d
00000180: e16a 61be c37e d43d b4b8 a1bb 617c e8bc
00000190: 4d2a a5bd 288a d93d 308b 49be f079 7e3d
000001a0: b871 563c eed1 da3d 58bb 81be 7d9b 043d
000001b0: 76cc 213e d48a 83bd c103 cbbc a62d 23bc
000001c0: d139 a53d 6843 853d a81a 2d3e db44 653e
000001d0: 4b59 8b3c f9ac 62bd 7dec a9bd 48fc 3e3e
000001e0: e26e 3b3e 9a1d 273e 5aa4 913d e287 04be
000001f0: c8a6 c13d 51e5 023e 8708 5a3e 6e13 b23b
00000200: 2018 933d cb34 343d 4163 493e 6b81 01be
00000210: b46f 343c e4b7 40bd 25c2 493e b98f 7cbe
00000220: 1135 223e dc9a 48be 3dfd 10be c45d 513d
00000230: 1fce ae39 d684 733d 9f94 793b 4f9b 7ebd
00000240: bb28 5fbd 9425 3ebb 019d 75be 2f0a ffbc
00000250: 497b a33b 0a4e 163e 41a1 583e 8279 b4bc
00000260: 2929 50be e7f5 12be 1603 d8bd a4b3 52be
00000270: 248d c63d ab87 523e 40f9 c7bd bfa3 da3c
00000280: c708 83bd 02f5 44be 8609 123e 3eb7 673d
00000290: 1af5 41be d8ae b4bd 26b2 f63d cfbc 0c3e
000002a0: a279 68bd db80 0dbe 9322 8e3d 408c 2c3e
000002b0: 7097 1abd d62e 013e 5e5a 163e b4ae e8bc
000002c0: 76d2 8dbd 292c 173e d413 7dbd df5c 9abd
000002d0: 59d7 3e3b d898 be3d dfe5 de3d 756f 653e
000002e0: 81b8 3d3d f761 b03e cc3f 903e de43 393e
000002f0: b8eb 183e 620f d9bd 9329 223e c7d0 25be
00000300: b2c3 c6bd 7826 afbd 8fcf 263e a639 553e
00000310: f604 4d3d ad30 e7bd 0db8 1c3d 5a85 833d
00000320: f29b cebc bab5 2c3d 31d6 133e a1e8 5c3d
00000330: dc24 d63d c4c8 e53d 420b e13c 2f31 363e
00000340: 8d98 1abe 63ab 013d 3ffc 3a3e ce8f 4fbd
00000350: 9fbd 633e 51e9 59be 4f0c e43c c119 afbd
00000360: 9c2a 113b 85fa 873d d9ce 3c3e c682 cebc
00000370: 60f2 d13d e763 973e 7f9c 323c bfa7 2fbd
00000380: 5b53 acbd 4fff 89be 2570 6cbd ed93 443c
00000390: aa3d 153c 2341 edbd 55fc ea3c 0644 af3d
000003a0: 16a7 0abb cc5c b03d 5562 b93d 7fc3 82bd
000003b0: dcde 1abe 9bd0 b9bd 0b44 083e bfbc 1abe
000003c0: fdf9 013d 8939 f83c 1a16 463c 22fd 683b
000003d0: 333d fabd b53b 773e d393 403c 4e6a 4fbd
000003e0: 8468 8f3d 767f e4bd c5bd 4a3e e344 d03d
000003f0: 1797 68be ffd1 52be 1bb6 ce3c ec67 ee3c
0.011699834 -0.04798155 -0.009565254 -0.1156676 -0.22134192 0.09469834 0.059326086 -0.09442734
0.26603392 -0.008620817 0.045484822 -0.03593467 -0.21069999 0.057075236 -0.038074665 -0.07921016
-0.053397927 0.18098913 -0.02823995 0.10882306 -0.19762151 -0.05601364 -0.02896447 -0.1493102
0.089235745 0.2710304 0.100252405 -0.050787393 0.11214161 0.120355204 -0.014747566 -0.15534973
-0.015550745 -0.18221161 -0.15642321 -0.08790692 0.16394785 -0.056690577 -0.18512005 -0.02467362
0.022782637 -0.045944106 -0.13571534 -0.1247253 0.06810145 0.04723226 0.046176445 0.13613673
0.21664192 -0.039773855 0.14143947 0.17422336 -0.04535086 0.10993649 0.18486151 -0.057272095
-0.30366904 -0.17955108 0.20063744 -0.06458017 0.086772054 0.20928565 0.1894547 0.0029763961
-0.18441005 0.020679792 -0.015219058 -0.009578728 0.12028955 -0.10260448 -0.16328973 0.0022274773
0.019466845 0.057166774 -0.013443964 -0.02937655 -0.041315053 -0.117561154 -0.0866672 -0.0022245813
0.11580951 -0.05066986 0.00412314 0.31265166 0.015212942 -0.089390695 0.031307828 -0.058821324
-0.010684641 -0.083279185 0.025566498 0.01266177 0.13598865 0.09398169 0.030071076 0.052438565
-0.22013427 0.103757404 -0.0049353484 -0.028379621 -0.08064709 0.10622054 -0.19682002 0.062128007
0.013088636 0.10684572 -0.25338244 0.032374848 0.15800652 -0.06422964 -0.024782063 -0.009959614
0.08067668 0.06506997 0.169047 0.22389548 0.017010352 -0.05534074 -0.0829706 0.18650925
0.18304017 0.16319886 0.07111426 -0.1294246 0.09455639 0.1278279 0.21292315 0.005434445
0.07182336 0.04399566 0.19666769 -0.12647025 0.01101296 -0.04705037 0.19702967 -0.24664201
0.15840556 -0.19590324 -0.14159103 0.051114812 0.00033341438 0.059452854 0.003808297 -0.062159833
-0.054482203 -0.0029014098 -0.23985673 -0.031132786 0.004989062 0.14678207 0.21155263 -0.022030596
-0.20328201 -0.14351617 -0.105474636 -0.2057634 0.09694889 0.20559566 -0.097643375 0.026689408
-0.063981585 -0.19234088 0.14261445 0.056571238 -0.18941155 -0.08822411 0.12045698 0.137439
-0.056756623 -0.13818686 0.06940188 0.16850376 -0.03774208 0.12615523 0.1468291 -0.028403617
-0.06924908 0.1476294 -0.061786488 -0.07537245 0.0029120056 0.093064964 0.10883688 0.22405799
0.046318535 0.3444974 0.28173673 0.18092296 0.1493367 -0.10598637 0.15836172 -0.16192923
-0.09705295 -0.08552259 0.16290115 0.20822772 0.05005356 -0.11288581 0.038261462 0.06421919
-0.025220845 0.042165495 0.14437176 0.05393279 0.10456249 0.11219934 0.027471188 0.177922
-0.15097256 0.031657588 0.18260287 -0.050674252 0.22240303 -0.2128041 0.0278379 -0.08549834
0.0022150641 0.0663958 0.18438281 -0.025208842 0.102513075 0.29568407 0.010901569 -0.042884585
-0.08414336 -0.26952597 -0.057724137 0.011998159 0.00910894 -0.115846895 0.028684774 0.08557896
-0.002115672 0.086114496 0.090519585 -0.06384944 -0.15124077 -0.090729915 0.13307206 -0.15111063
0.031732548 0.030300872 0.01209023 0.003555127 -0.12218704 0.2414387 0.011753994 -0.05063849
0.07002357 -0.11157124 0.19798954 0.10169389 -0.22713886 -0.2058792 0.025233319 0.029102288

enc2.0.bias f4 [16]
00000000: cfe8 e53c 7308 073d add5 96bc dcd8 143d
00000010: 004a a33b 8562 df3c ee23 b4bc 7dc8 bcbc
00000020: d9bb d53c 294b 873c 015b e93c 6685 083d
00000030: ae18 ef3c 7a72 e83c 0fc8 233c a1d1 e03c
0.028065113 0.032967042 -0.018412435 0.036339626 0.0049831867 0.027268657 -0.021989789 -0.023044819
0.02609055 0.016515331 0.028485777 0.033330344 0.029186573 0.0283749 0.009996428 0.027443709

enc2.2.weight f4 [16, 16, 3, 3]
00000000: cc2b c2ba 9aa9 4e3d 1d8d a7bc e915 c1bd
00000010: bec7 2a3e 6bf9 363d 1eed 61bd 6b0a 97bc
00000020: c80d af3c ac66 05be b486 6c3e 628b debd
00000030: aa53 31be 48a7 3e3d 3f1d 433e 802f 6ebe
00000040: 67a9 e3bc 0e1c cdbc 3dab d2bd 47b4 94bd
00000050: d7df 0fbe 8321 aebd 0c9d a43e 7b63 3e3d
00000060: 00db 0bbd dc2f 083e 2950 d4bd f303 423e
00000070: 65ad 153e 3a3d f0bc 42ab 1e3e f28d 2d3e
00000080: 986a e0bd b532 78bd 7d16 99be f226 2e3e
00000090: 8633 fdbc 6d75 8cbd d89c 053e a216 3cbe
000000a0: a159 04be 8567 703e ea6d d0bd 1827 cabe
000000b0: 5b54 aabd af84 aa3c f8cc ddbc a855 fd3d
000000c0: 5651 4b3c 6dc1 a5bb 8e09 ddbd 44cf c7bd
000000d0: 5ab3 81be d88d 9cbd 44f7 243c 2a6f 12bd
000000e0: 4f5a b7bd b1b1 f73d 6650 05be 0509 373e
000000f0: f36c 493d 74be e83d 1644 413d 206e 813d
00000100: a501 d93d 4b4c 9e3d 9919 12be c43f a3bc
00000110: 9ae2 14be d072 de3d 87a4 283e 4e1f 24bc
00000120: 3d8f 823e 7c19 263c 6d3e 313e 9100 bcbd
00000130: d766 843d 25ad 603e b380 81bc efbf 5abe
00000140: a825 413e 3d1f 79be 29a9 8cbd 6e0b 63be
00000150: 4d19 053e 07b4 0b3e c0fa d43d 229d 65bc
00000160: d5ce 55be e3b5 3c3e 3adb 78bc cec2 17be
00000170: 2e9e d73d 59a9 7abd e0f4 013e c382 203d
00000180: c5ef 80be db01 633d 914a 323e 4cec d13d
00000190: c605 4fbd 3784 86bd 497c 32bd 58f2 223e
000001a0: 401d c23d 1571 273d d209 e8bc 49c3 503d
000001b0: 8958 b7bd 4f1d 813c dc8c 523e 3f5c 5cbe
000001c0: 5b8d 7cbd 3f2c 95bd 4a0f e63b 0696 0f3e
000001d0: 0f7f 153e 0186 a73c 5a3c ba3d 9304 10be
000001e0: 7bdd 0f3e f171 1c3e 8ec8 5ebd 8c22 bd3d
000001f0: 2b95 b03c a058 6fbd 9580 1a3e 356c 95bd
00000200: 4834 cfbd 9195 c2bc 31e4 a5bd f34e 453d
00000210: 11de 72be 310b 533d b69b c5bd dd3a 0dbe
00000220: 68d6 d53c 8ac7 0f3e 43fc 06be 2362 083e
00000230: 3d7e 47bd b01f 1b3d 7368 93bd 067e aa3d
00000240: 42f7 da3c ea76 8e3d ed0d d53d 3a10 21bd
00000250: f59d c83d 72e4 133e 1474 303e 1f6e d3bd
00000260: 543d 373e e3f3 2e3e 990f bc3d d4c3 d13a
00000270: 2b21 92be 8445 f33d b99f e7bd b57c 2fbb
00000280: d0ad a5bd 20c2 01be e0f6 203e d9df a43d
00000290: 781e 0e3e 4f0e 56be 6860 8fbd 0d98 24bd
000002a0: 4c26 60bd a321 48bd 6ed5 8ebd 1002 40be
000002b0: 9145 fcbd 91cb a7bd 3e07 073e b026 37bc
000002c0: ffa5 5fbe 9c42 9ebd ba4b 56bd 169b 8d3d
000002d0: a66a 3fbc 7473 673d 57c0 db3d 518d 983c
000002e0: 9fcc a13d d752 5d3e 7e69 333e 4be2 0a3e
000002f0: 1446 ac3c 3b56 bbbc cee4 333e acff c3bd
00000300: 475d dabd 7e96 bd3c c481 a93d f6da 4e3e
00000310: 5352 853e 5114 d2bb 0771 88bd 76c0 59bd
00000320: 8c28 52bd 3dcf 13be 9110 f03d 04bd 023e
00000330: 2d8b c5bd 539b adbd 9a5a 323e fb07 ca3d
00000340: 15bf 0cbe fb4d 043e 7378 b8bb 3862 a43c
00000350: 993f febc fda9 9e3d ab93 bbbd 5d7e 88bc
00000360: a879 ae3d 6076 263e 62ac 33be 256a 993c
00000370: 8e6c a03e 638e 123e d4f6 91bd ceb7 a53c
00000380: 92a9 acbc 237b 763e 9c3a 22be 8887 73bd
00000390: e9bb 8ebd 0ba8 f63c c1df 43bd 1abb 91bd
000003a0: abc2 a8be 84e8 f7bd 9674 b9bc e9b2 54be
000003b0: c05b 743d 0c80 213e df53 1a3d eca0 96be
000003c0: 8c39 32be 3bb6 a73d 5388 5dbd aabf ba3d
000003d0: 8223 2dbe 624d a9bd 9a0a 8d3d 8757 1ebe
000003e0: 9c49 8c3e 8eca e53d 359b b93e 7a5f 9cbd
000003f0: 81d7 9b3c 851e c53c 09fa c5bc a20f 093e
-0.0014814078 0.050454713 -0.02045303 -0.09428007 0.16677758 0.044671457 -0.055157773 -0.018437585
0.021368876 -0.13027447 0.2309826 -0.10866429 -0.17317072 0.04654625 0.19054125 -0.23260307
-0.027790738 -0.025037792 -0.10286567 -0.07260948 -0.14050232 -0.085024856 0.32151067 0.04648159
-0.0341444 0.13299507 -0.10366852 0.18946819 0.14616926 -0.02932607 0.15495017 0.16948679
-0.10957831 -0.060595233 -0.2989997 0.17007044 -0.030908357 -0.06858335 0.13048112 -0.18368009
-0.12924816 0.2347699 -0.101772144 -0.3948295 -0.08316871 0.020815222 -0.027075276 0.12369853
0.012409529 -0.0050584585 -0.10792838 -0.0975633 -0.25332147 -0.07644242 0.010068718 -0.035750546
-0.08952772 0.12094439 -0.13018951 0.17874534 0.049176168 0.11364451 0.047184072 0.06319833
0.10596017 0.077293955 -0.14267577 -0.019927867 -0.14539567 0.108617425 0.16469012 -0.010017229
0.25499907 0.010137912 0.1730897 -0.091797955 0.06464928 0.2194105 -0.015808439 -0.2136228
0.18862021 -0.24328323 -0.06868202 -0.22172329 0.12997933 0.13642894 0.10399389 -0.014014514
-0.20879681 0.1842876 -0.015188986 -0.14820406 0.10528217 -0.06119666 0.12691069 0.039187204
-0.2518293 0.05542169 0.17411257 0.10250148 -0.050542615 -0.06568187 -0.04357556 0.1591276
0.09478235 0.040879328 -0.028324995 0.05096749 -0.089524336 0.015761046 0.20561546 -0.21519564
-0.061658245 -0.0728383 0.0070208656 0.14022073 0.1459925 0.02044964 0.090935424 -0.14064245
0.14049332 0.1527784 -0.054390483 0.09235105 0.021555504 -0.05843413 0.15088113 -0.072960295
-0.10117394 -0.02375296 -0.08100165 0.048170995 -0.23717524 0.051524345 -0.0964884 -0.13791986
0.026103213 0.14040962 -0.13182168 0.13318686 -0.048704375 0.037872016 -0.071976565 0.08324818
0.02672923 0.06956275 0.10403047 -0.039322115 0.09795753 0.14442614 0.1723178 -0.10323738
0.17894489 0.17085223 0.091826625 0.0016003796 -0.2854093 0.118784934 -0.113097616 -0.0026777212
-0.08089793 -0.12671709 0.15719175 0.08050508 0.1387881 -0.20903896 -0.0700081 -0.04018407
-0.054724023 -0.048860203 -0.06974302 -0.18750787 -0.12317956 -0.08193124 0.13186356 -0.011178657
-0.21840666 -0.077275485 -0.052318312 0.06914346 -0.011683142 0.05650659 0.10730045 0.018622072
0.079003565 0.21613632 0.17520711 0.13562886 0.02102951 -0.022868266 0.17567751 -0.0957025
-0.106623225 0.02314305 0.08276704 0.20200714 0.2603937 -0.0064111133 -0.06662183 -0.05316206
-0.0513082 -0.14434524 0.1172191 0.12767416 -0.09645686 -0.08476891 0.17417374 0.098648034
-0.13744767 0.12920372 -0.005629593 0.020066366 -0.031036185 0.077472664 -0.09159025 -0.016661817
0.08519298 0.16256094 -0.17546228 0.018727371 0.3133282 0.14312129 -0.07127157 0.020229246
-0.021076951 0.2407041 -0.1584267 -0.059455425 -0.06969435 0.030109426 -0.04782081 -0.07115765
-0.3296102 -0.12104896 -0.0226386 -0.20771374 0.059657812 0.15771502 0.037677642 -0.2941965
-0.17404765 0.081890546 -0.054085087 0.09118588 -0.16908076 -0.08266713 0.06886788 -0.15463077
0.2739991 0.11220275 0.36251226 -0.07635398 0.019023659 0.024062404 -0.024167078 0.1338487

enc2.2.bias f4 [16]
00000000: ec3a 793c 27a4 f23c e13a 8c3b 6e98 513c
00000010: 605b 043d 2157 f53c 53e2 60bb 11b6 efbb
00000020: 5a71 fe3c 7b59 fe3c 5b68 413c b3a4 b93b
00000030: d009 a93c 8351 29bc b136 fc3c a6af e73c
0.015211802 0.02961929 0.00427948 0.01279269 0.032313704 0.029948773 -0.0034314587 -0.007315405
0.03105991 0.031048527 0.011804665 0.0056653856 0.020634562 -0.010334375 0.030787798 0.028281998

bottleneck.0.weight f4 [32, 16, 3, 3]
00000000: b183 b5bd cab2 5a3d f402 733d fa71 a33c
00000010: cbe7 c33d c2dd 09bc 06ae cb3c 5e4e 62bc
00000020: efa4 35be 8f4a b2bc 4e4b 4dbe 1047 e93d
00000030: 4f07 19bc 48ce 833d c18d 083e 7dce 2dbe
00000040: f77a 3b3e 72e6 423d 5f1a 543d be29 e83d
00000050: 3086 b13d a3af 55bd e1ca 0c3e 3edb 703e
00000060: 58b7 28bd b7da b8ba f86a f23b 6374 7a3d
00000070: baa9 91bd 5400 323d 8595 41bd bc2c cbbd
00000080: 79e0 6b3c a940 ee3d 1850 b5bc 6c87 93bd
00000090: d1ad b9bd dd5b 90bd 4d8b 71bb acb7 82bd
000000a0: e595 5b3d 933f 39be da1e d23d 8116 f7bd
000000b0: 6687 e23d c1e5 69bd 4841 113e ca0b c43b
000000c0: 3dd3 dcbd 1feb c53d e626 acbd 0cd8 0b3e
000000d0: 219a db3d dd1a 8dbd f35a 6cbd 94c7 713e
000000e0: f669 a2bd 38ca ae3d 190c 923d 814c 38be
000000f0: c41c a2bd 4c84 883e d5bb d03d db27 51bd
00000100: 0a74 423d 16eb 1bbd 01f9 463d 8f51 2b3e
00000110: 4470 053e 36dc 4f3c ae75 4c3c fa67 87bb
00000120: a555 acbd 83d6 e03c 12b0 4abd 8f2d 53bc
00000130: 3be1 aebd 696f 48bd 2f25 a4bd 78ea 03bd
00000140: 5ee6 d43d a409 a2bd f7a0 f63d f37d 863d
00000150: 6125 e2bc 3cb5 9a3d 2051 1e3e d8d3 bfbd
00000160: 3eaa 193d b22c 8abb c00c 253d 79ef 2dbd
00000170: e26a 13bd 7d0e e73d d936 0b3e 3c81 1e3e
00000180: e683 22bd 0790 7e3d 29be f6bc c75d 8dbb
00000190: 16ef 1c3e f620 79bd 5660 90bb 3f04 ed3d
000001a0: ccaf b23a e34b 863d 479c 873e 2b44 b93d
000001b0: d06f ddbc cbc9 ec3c 422e 30bd 8d3a 0f3e
000001c0: e9ac 833d 27b2 a5bd a4d2 35bd 112a 01bd
000001d0: dbff 4dbe fa01 b53d ad7d 543d c6bf 24be
000001e0: 9ca0 b33d d268 12bd 8209 dd3d 3ef0 093d
000001f0: eb74 fe3c 5091 603e b3d1 19bd 6eb2 1e3d
00000200: 4e84 07be 8b5e 5a3d a78f 1dbd efc1 26bd
00000210: 6aed a73c 6d61 ccbd d6e1 71bd e7b2 47bb
00000220: b591 2a3e 383f 1b3d 2462 3c3d d566 5b3d
00000230: 82e6 2e3d cde4 c83d 36da 673d 8e86 5c3d
00000240: 0f29 a9bc 30ef febd 5506 ac3d e203 653c
00000250: 8b90 ea3c 63b9 66bc e0aa 1abd be42 cfbd
00000260: f3e4 3c3d 44cf a63d c3ab 5cbd 2267 0a3d
00000270: 631b 893d f697 c83b 6ba4 23be 9c1b 20bd
00000280: 107e 74bd f500 833e e6c9 f83b e567 fbbd
00000290: d4b3 96bd 4c52 99bd 5be9 d5bd 3bc1 083c
000002a0: d767 5ebd 8de8 583d f3bb bb3d 2eb0 ccbd
000002b0: 3dee 86bd 4f97 233d ff87 463d e6f6 71bd
000002c0: c551 8d3c a653 083d e63b ce3c 2ddd b73d
000002d0: 315e 293d dda5 123a 996f b13d 8883 fd3d
000002e0: 0db4 a43d 9c50 693d 6c0e 7a3d 5574 55bc
000002f0: 5aeb 94bd 3c7d 85bc 2ba5 ed3c c3e8 46bd
00000300: f653 8ebc 99ad f83c 4fde f1bc e44c 1e3d
00000310: 1dd3 34bd dffe 133e 846d 8dbd d560 94bd
00000320: 0d9e 26be 4ab0 db3c 8c34 333d 0272 2cbe
00000330: 61db 863d f382 643d 43ed 033e b67d 29be
00000340: 7ed6 ecbc 3013 55be 9dc0 bc3d aea8 5b3e
00000350: 209f 5abd bced 2d3d efee 863c 36ad 66bd
00000360: 1253 6f3c fdd4 413e fc9e 51bd 32f6 3d3e
00000370: 3c30 c23c 88be 9d3d 7ff5 48bd baff 4b3e
00000380: e626 ae3d b0b0 bc3c a56d 94bc 4767 d9bd
00000390: 873a 993d dc6e d7bd e74a 30bd 7894 57be
000003a0: 2681 cf3d 909a b4bd 1f01 aa3d 5d22 ba3d
000003b0: e434 ccbd 4071 2b3e 0e4f a0bc 041e 22be
000003c0: e536 243d 785e 85bb 9606 cf3d 2680 58bc
000003d0: a239 753c 064c 223e 36f9 133e f0c9 1b3b
000003e0: b10b 203e 29ff a93d 319d b8bc e3d7 0c3e
000003f0: 0bd8 913d 1fda 033e fc53 76bd ca3a a6bd
-0.08863009 0.053393163 0.05932899 0.01995181 0.095656954 -0.008414688 0.024863254 -0.0138126295
-0.17738698 -0.021764068 -0.20048258 0.11390507 -0.009340121 0.064358294 0.13335325 -0.169733
0.18308626 0.04758305 0.051782962 0.11336087 0.08668172 -0.052169453 0.13749267 0.23521134
-0.041190475 -0.0014103268 0.0073980056 0.06114615 -0.07112451 0.043457344 -0.047261734 -0.09920642
0.01439678 0.11633427 -0.022132918 -0.07203564 -0.09066356 -0.070487715 -0.0036856711 -0.06382689
0.053609747 -0.18090658 0.10259791 -0.12064839 0.110609815 -0.057103876 0.14185059 0.0059828507
-0.10782478 0.096639864 -0.08405857 0.13656634 0.10722757 -0.068898894 -0.057703923 0.2361129
-0.07930367 0.08534664 0.07131214 -0.17997934 -0.07915643 0.26663435 0.10192076 -0.0510634
0.047473945 -0.038065992 0.048577312 0.16730331 0.13031107 0.01268678 0.012479229 -0.004132268
-0.08414773 0.027446037 -0.04948432 -0.01288928 -0.08539053 -0.048934374 -0.08014905 -0.03220603
0.103955016 -0.07911995 0.1204242 0.06566992 -0.027605714 0.07554099 0.15460634 -0.09366578
0.03751587 -0.004216754 0.040295362 -0.042464707 -0.035990603 0.1128206 0.13595141 0.15478987
-0.03967657 0.062149074 -0.030119972 -0.0043141576 0.15325579 -0.06082245 -0.0044060154 0.115730755
0.0013632714 0.06557443 0.26486418 0.09046205 -0.027030855 0.028904816 -0.043012865 0.13987179
0.06429464 -0.080906205 -0.044390336 -0.03153426 -0.20117132 0.088382676 0.051877666 -0.16088781
0.08770868 -0.035744496 0.10792829 0.03367638 0.03106161 0.21930432 -0.0375535 0.038744383
-0.13234064 0.05331282 -0.038467076 -0.040712293 0.02049895 -0.0997952 -0.059053265 -0.0030471624
0.16657145 0.037902087 0.04599203 0.053564865 0.042700298 0.09809265 0.056604587 0.05383926
-0.020649461 -0.12447965 0.08399645 0.0139779765 0.028633377 -0.014082286 -0.037760615 -0.10120152
0.04611678 0.081450015 -0.053874742 0.03378976 0.06694677 0.006121631 -0.15980689 -0.03908883
-0.059690535 0.25586668 0.0075924275 -0.12275676 -0.07358518 -0.074864 -0.104449 0.008346851
-0.05429825 0.052956153 0.09166708 -0.09994541 -0.06588409 0.03993922 0.04846954 -0.05907335
0.017250905 0.0332829 0.025175046 0.08977733 0.041349594 0.00055941736 0.08663864 0.12378603
0.080421545 0.05696164 0.06104891 -0.013028224 -0.07271452 -0.016295068 0.029009422 -0.048561823
-0.01737402 0.030356215 -0.02952495 0.038647547 -0.044146646 0.14452694 -0.06905654 -0.07245032
-0.16271229 0.02681746 0.043751284 -0.16840366 0.06584812 0.055788945 0.12883477 -0.16551861
-0.028910872 -0.208081 0.092164256 0.21451065 -0.05337441 0.04246305 0.016471354 -0.05631753
0.014607208 0.18928905 -0.05117701 0.18550947 0.02370464 0.077023566 -0.04906225 0.1992177
0.08503513 0.02303347 -0.018118689 -0.10615402 0.07481866 -0.105191916 -0.043040182 -0.2105273
0.10132055 -0.08818543 0.08300995 0.090885855 -0.099710256 0.1674242 -0.019568946 -0.15831763
0.040091414 -0.0040700994 0.10108678 -0.013214147 0.014967354 0.15849313 0.14450535 0.0023771487
0.1562946 0.08300621 -0.022535892 0.13754229 0.07121285 0.12876175 -0.060138687 -0.08116682

bottleneck.0.bias f4 [32]
00000000: d002 e5bc e7ee db3c 3a8e ec3c 091f fe3c
00000010: fbcc ea3c a93f a93c f300 5f3c 94c8 3fbb
00000020: ceb7 e83c a194 2abc 1fce 8a3c 584c 193d
00000030: bc94 12bc 6057 cf3c 9ea3 01ba 3a67 003d
00000040: 684a 093d cece 8a3c dd0e e33c b09c 323d
00000050: 8305 7f3c 43ff 373d 63b7 bd3c a45e 50bc
00000060: 7e97 083d 6f52 c03c 3886 e6bc 7104 723c
00000070: aefd 373c 9d3f e93c f2d1 ab3c 4c0c 023d
-0.027955443 0.026847316 0.028876413 0.031020658 0.028662195 0.020660238 0.013611066 -0.002926384
0.028407957 -0.010411412 0.01694399 0.037426323 -0.008946594 0.025310218 -0.00049453403 0.031348445
0.033518225 0.016944315 0.027717048 0.04360646 0.015565279 0.04492117 0.023158735 -0.012717877
0.0333476 0.023476807 -0.028140172 0.014771567 0.011229916 0.028472716 0.020974133 0.03175001

bottleneck.2.weight f4 [32, 32, 3, 3]
00000000: de12 853c 7dd8 0f3c 29f9 44be 185c cdbd
00000010: da6c 37be c124 a93a c563 8dbd da21 f9bd
00000020: dec1 94bc c994 2e3c 626d 3ebe 8422 26bd
00000030: 5155 5d3c 74dc dc3d 7d48 883d a030 913d
00000040: 5241 24bd 5597 9abc 6931 41bd d65b 633e
00000050: f004 0f3d 8890 c2bd d127 8f3d a38d debc
00000060: 5071 c13d 16cc 98bd e0d8 df3d 9924 babc
00000070: 34d8 c03d 544e 843c fd6a 693b efe4 273e
00000080: 7003 b53d 6318 5c3d fb1d de3d 5f6c 083d
00000090: 1edb 2d3d 0aa4 2dbc 16fe 763d 0741 963c
000000a0: 1642 95bd 03ec 1c3e 4f0d 2fbc 5734 1a3d
000000b0: 045d 09be 77a1 2abe 0aec 14be 996d 99bd
000000c0: fa48 ef3d 2374 8a3d 5f87 083e c8cd 9abd
000000d0: 29aa 9dbd 333e 883d b1b5 aa3d 7e14 073d
000000e0: 6a62 3d3c 303a 5a3c 2d01 363a 0d09 a13d
000000f0: 531b 82bd 886d 60bd 3690 52bd e66c 1f3c
00000100: cabc 703c a5ee 0f3e a50c 213d 00f6 a43d
00000110: c6c8 0d3d 15b4 29bd 09bb dd3c 0943 933d
00000120: 7bdb 2ebe 01c8 aa3c 188f bfbd 411b 9e3d
00000130: 37cd bd3b 9323 4f3d 1a81 8b3d 6d98 80bd
00000140: 5665 3c3d b7ed 4bba 6871 0d3d 7716 903c
00000150: e28b 7ebd 083c 1e3d 034f 51bd 012c 45bc
00000160: 2881 4cbe c36f aabd 4792 a5bc eb1f d43c
00000170: 487c 0fbd 8d6c a5bd b1d6 fc3d 3d28 983d
00000180: 8d09 a13c 7708 753d 6a38 1c3d 2393 023d
00000190: d936 963d fbf7 fc3d 8129 153e 4ff3 3e3e
000001a0: 53d1 50bc 2d00 ed3d 5a7f c7bd f014 743d
000001b0: fd1f 90bc 8213 d2bc fc87 13bd 52ab 3dbc
000001c0: 2cc2 71bd bfc8 92bd 8abb 0bbe 8677 97bd
000001d0: 480d 05be 7505 bcbc 8727 833d fa3f f7bd
000001e0: 332c 97bd 4131 a83c 38ee 3d3d e9ee 4cbe
000001f0: 9431 8c3b 0f53 af3d 883f a13d ca15 533d
00000200: c2f1 1fbd 6653 ff3d 31bc 1d3e 9d0d a4bd
00000210: 0180 e3bd 1918 c43d f850 8c3d 64bd 51bd
00000220: 267a af3d 4301 913c deab c4bd e166 043d
00000230: 659f e93c 9bb7 b13d 35f1 9ebd c896 c93d
00000240: 500b 4c3e 93e5 19be a536 fabc c13a 4ebd
00000250: 758d 463d 7bad 813c 5b41 dbbd 9d8f 503d
00000260: ff66 16bd 4855 893b 5cf1 0dbd d4aa ff3d
00000270: 1abf 153d 57c3 16bd 0f91 143d 7075 2d3d
00000280: c02a 0f3e 0eb0 46bd 7856 35bc 4aef d6bd
00000290: 7b68 d0bd 9be0 4bbe 3268 fc3c a8d6 aebd
000002a0: 2939 903c e366 3d3e 54ee 05bc 1f97 f4bb
000002b0: 7862 8dbc 1b30 b4bd 5334 043d 1131 883d
000002c0: 867c f7bd 80e7 98bd f33b a03d fd16 e93d
000002d0: 1825 94bc c84c f5bd cb57 f13d a412 debd
000002e0: a3de 37bd f4dc 96bd caf2 9bbd 014a a93d
000002f0: 6eee 0d3e 8cb8 52be 3c7d c1bc 95e8 c43c
00000300: 5b95 19bd fbdd 83bc 3c38 d23c 989f 30be
00000310: 3da3 b33d e423 893c 7c20 743d ef65 8dbd
00000320: 9061 523d ebe8 8fba 9ed5 073d a617 313e
00000330: 6fa2 3f3d 3286 dfbd ad9c 113d 41bb 463d
00000340: 3abe 6c3d 2cc2 c8bd d0c3 a63c 4d5e 2bbe
00000350: 5f5c dbbb 81a0 5ebd 0a9b 4abb 248d 03be
00000360: 9b59 323c 810e 8f3c a389 a33c a916 4b3d
00000370: 9936 fdbc ad49 e63d 15b3 8b3c c43f 683d
00000380: c903 0e3d b461 ccbd 56b7 6cbd 6b52 8d3c
00000390: d3ab 86bd 0e7c e3bd 949b db3d aef8 693d
000003a0: 127a 45bd 5f8d 733d 7d39 7c3d cd94 08be
000003b0: 345a e5bc 03ee 253e 2036 08be f951 8cbd
000003c0: 646a 1c3d 6c48 a2bc 5847 96bd a9df 903d
000003d0: 82c1 a23d d5eb 873d 669a a73c 2462 813d
000003e0: 2a64 243e 0800 aebd 6da5 2bbc 678c 443d
000003f0: f869 0b3e 9208 7a3e f40b 8e3e 28d3 c3bc
0.016244348 0.008779642 -0.19235672 -0.10027331 -0.17912617 0.001290463 -0.06903795 -0.1216466
-0.01815885 0.01065559 -0.18596414 -0.04056026 0.013509111 0.107842356 0.06654451 0.070893526
-0.040101357 -0.018870989 -0.04716626 0.22203001 0.03491682 -0.095002234 0.06990016 -0.027167147
0.09445441 -0.07460801 0.109300375 -0.02272253 0.094162375 0.016150631 0.0035616749 0.16395925
0.08838546 0.053734194 0.10845562 0.033306476 0.042445295 -0.010598192 0.06030091 0.018341554
-0.072879955 0.15324406 -0.010684325 0.03764757 -0.13414389 -0.16663156 -0.14543167 -0.07491607
0.11683841 0.067604326 0.1333289 -0.07558781 -0.07698471 0.066524886 0.08335436 0.032978527
0.011559108 0.013319537 0.0006942924 0.078630544 -0.06352868 -0.054791957 -0.05140706 0.009730553
0.014693448 0.1405588 0.0393187 0.08054733 0.0346153 -0.041431505 0.027066724 0.0719052
-0.17075913 0.020847322 -0.09353465 0.07720042 0.005792286 0.050571036 0.068117335 -0.06279073
0.04599508 -0.0007779258 0.03453198 0.017588837 -0.06214512 0.03863147 -0.051100742 -0.012034417
-0.19971144 -0.08322098 -0.020211352 0.025894126 -0.035030633 -0.08077345 0.12345637 0.0742955
0.019657874 0.059822526 0.03813974 0.0318786 0.0733468 0.12351986 0.14566614 0.18647502
-0.012745219 0.11572299 -0.09741087 0.05959028 -0.017593378 -0.025644068 -0.036018357 -0.0115764905
-0.059023067 -0.071671955 -0.13645759 -0.07395844 -0.12993348 -0.02295182 0.064040236 -0.120727494
-0.07381477 0.020531299 0.04636976 -0.20013012 0.004278371 0.08560764 0.07873446 0.05153445
-0.039048918 0.12467079 0.1540382 -0.08010409 -0.11108399 0.09574909 0.06851381 -0.051206008
0.0856822 0.017700797 -0.096030936 0.032324675 0.028518388 0.08677598 -0.0776085 0.09843212
0.1992619 -0.15028982 -0.030543635 -0.050349 0.048474748 0.015829792 -0.10705825 0.05091821
-0.03671932 0.0041910745 -0.034654006 0.12483755 0.0365592 -0.036807384 0.03627115 0.042348325
0.13981152 -0.048507743 -0.011067979 -0.104948595 -0.10176178 -0.19909899 0.030811403 -0.08537036
0.017605381 0.1849628 -0.008174498 -0.007464304 -0.017258868 -0.08798238 0.032276463 0.06649984
-0.12084298 -0.0746603 0.078239344 0.11381338 -0.018084094 -0.119775355 0.11784323 -0.10843399
-0.044890057 -0.07366362 -0.07614668 0.08266068 0.13860485 -0.20578212 -0.023619287 0.024036685
-0.037495952 -0.01609706 0.02566158 -0.1724838 0.087713696 0.016740747 0.059601292 -0.06904208
0.051362574 -0.0010979449 0.033162706 0.17294177 0.046785768 -0.109142676 0.03554981 0.048518423
0.0577986 -0.0980266 0.020357043 -0.16735192 -0.006694361 -0.054352287 -0.0030915164 -0.1284681
0.010885621 0.01746297 0.019963091 0.049582157 -0.030909823 0.11244521 0.017053166 0.056701437
0.03467158 -0.09979573 -0.05779203 0.017251214 -0.065757416 -0.11107646 0.107230335 0.057121925
-0.04821212 0.059460994 0.061578263 -0.13338013 -0.027997114 0.16204076 -0.13301897 -0.068515725
0.0381874 -0.019809924 -0.073378265 0.0707391 0.07947065 0.06636778 0.020459365 0.06317547
0.16053835 -0.084961 -0.010476452 0.04798546 0.13614643 0.24417332 0.27743495 -0.023904398

bottleneck.2.bias f4 [32]
00000000: 4715 ee3c f4af 253d c5ac fc3c e1f7 68bc
00000010: 6122 10bc 2b13 6cbc eddd ec3c 3a14 3abc
00000020: 0024 0c3d ecc3 233c 70ae 0f3d d8e6 fbbc
00000030: 7885 04bd 1fca ec3c 9ff8 59bc ff22 e03c
00000040: 88bc 263c 5ee4 1dbc c59f 013d 9edd 7dbb
00000050: 4de5 043d dec9 36bb d217 18bd 2673 98bb
00000060: cca0 d33c 7fe0 013d 6eae e3bc 545a ba3c
00000070: bc43 9e3c 831f 4fbc bbaf e33c 68da cc3a
0.02906288 0.040451005 0.030844102 -0.014219255 -0.008797259 -0.014408867 0.028914416 -0.011357361
0.03421402 0.009995442 0.035078466 -0.030749723 -0.03235385 0.028904973 -0.013303905 0.027360437
0.010176785 -0.0096369665 0.03164651 -0.003873683 0.03244524 -0.0027891318 -0.03713209 -0.0046523986
0.02583351 0.031708237 -0.027793135 0.02274815 0.019319408 -0.01264179 0.027793756 0.0015629055

up1.weight f4 [32, 16, 2, 2]
00000000: 6b9a 923d 67aa 733d 7a97 85be c789 d2bc
00000010: e07c dfbd 7b36 013e 5261 a03d 5213 9e3e
00000020: 3079 41be 24e1 a9bd 2466 ce3d 46a5 903c
00000030: f212 b9bd 0c6f 963d e2d6 e33d 0044 b7bd
00000040: 7dfc 943b f2bf 983e 0a97 9e3d f11e a5bd
00000050: 45d6 263d d0ea 24be 395d a13c c01a b8bd
00000060: b191 063e 860f ed3d aca8 27bd 0363 bcbd
00000070: c429 163d 30e1 49be e15d 703e 899a a43d
00000080: 7bc0 61be 47b5 eb3d 728b 60be 7f58 afbd
00000090: fc2d 413d a467 66bd b23a 3e3e 824c 4e3e
000000a0: c114 ecbd a6c7 483e 6a03 a23d ddd8 083e
000000b0: c14e 4ebb 35de d73d a122 bdbd 1a27 9ebc
000000c0: 447b bd3d 6561 8abe b23e f6bc 967e 9e3d
000000d0: c148 f33c 0442 7bbd 92ba 8f3e a1a1 1b3e
000000e0: 0615 f2bd b65c 70be b3a4 833d 8d8a 1cbd
000000f0: eaba d93b e0ce 683e c154 c0bd 0369 513d
00000100: 717c 03be 8dd4 05be 8e62 e73d f786 a0bd
00000110: add5 70be ed38 23be 9e5b 59be 725f e23b
00000120: e9e5 913e ce64 c43d 752b 59bd f113 cdbd
00000130: d283 c83d be30 993c 7c95 2d3e b175 86bd
00000140: b4c3 2fbe 3c23 1bbe d16f 1dbd 6f48 88be
00000150: 7bc8 363c e006 13bd e47b 573d 006a 853d
00000160: a5ef 0cbe 894c c1bc b723 dfbd 349c c9be
00000170: edeb d93d 0605 ea3d 4751 6bbe 6e7f ebbd
00000180: ea67 42be c22d 08bd 5932 8cbe 9dd6 e33d
00000190: 0da3 183d dc78 1a3e 4fce 9d3d 9634 163d
000001a0: 7d97 f83c 4f7e d5bd 3d63 1cbc d387 043e
000001b0: 03e7 28be cf5b b9bc cfd4 823e 5e80 a93d
000001c0: a777 88bd 5e90 f73d 8423 8e3d dea6 f63d
000001d0: fc24 bf3d c5f1 e83c 3cc8 493e fb7a 97bd
000001e0: 7440 933d 1849 273e d3e2 6cbd 5a6e cdbd
000001f0: 63ed 2ebe 9134 e5bd e406 6fbe a6a6 2abd
00000200: d579 0bbd 483b 89bd 231e 02be fb55 7f3e
00000210: 56f6 c43b 0624 37bc aab4 17be a249 20bd
00000220: 5d3b 2b3d dcdd 8b3d 1f6f 5e3e 40a9 7f3e
00000230: e1c1 d23d 619c 9d3d 6a65 a33e 57b3 a7bc
00000240: a204 5cbd 0ce1 93bc a921 64be 0362 4fbe
00000250: be7a 61bc 836f 1d3d 3370 97bd 9fbd ebbc
00000260: 6f96 253d d415 0e3e 99c6 32bd 0a3a 19be
00000270: 9ec4 cebe 93b9 21bd 5984 62bd 7339 ddba
00000280: ee2d 423e e8bd c1bb 285f 1fbe 63e2 b53e
00000290: 6b38 d43d 8adc e93d 0a5a 413e 8c7f 89bd
000002a0: 680b 1b3d 4e48 57bc f6d7 223d b003 85bd
000002b0: 1a7d 513d 6270 a4bd dce1 b73d 0859 d9bd
000002c0: d7f0 e1bc 0b2e a23c 15a5 7cbd 05db 6a3e
000002d0: 8c7a 0fbd ca26 abbc 0e51 a4ba 63e5 8a3e
000002e0: fd95 c5bd 31fc 183e a6ba 46bd 40e3 06be
000002f0: 3baa ea3d 3dc3 dabd c93c 0cbd 6001 12be
00000300: 9716 b9bd d577 453d ffe4 123d 2dd2 d33d
00000310: 2253 de3d 95d4 0f3e 783f 8ebe 4c25 ac3d
00000320: 4723 19be a780 39be 6010 56bd 2c35 c13d
00000330: afcc 96be c968 66bb 6938 873d 5b34 273e
00000340: d80d a63d b5f5 ddbd a469 043e 9e90 6bbd
00000350: 28df 47bc 8b5d 75bc ed5c a33d 9479 c33d
00000360: 4e3c ffbc 8921 fabb e69e b83e aaa9 d53c
00000370: 7b31 dabc f322 ff3d b16e b23c 0d87 7abd
00000380: f435 a3bb 6c3e 99bc 0b5d e83c fb5f 73bd
00000390: dce1 b53d 1f5a 53be 7031 693d 1068 603e
000003a0: e601 ccbd b8df 13bd 2d14 103e e882 49be
000003b0: c270 f83c 560f 23be 2f43 9b3d a69a a23d
000003c0: f36d c6bc d19d dc3d d810 f83d 86a2 07be
000003d0: 41fb 023e ba8c d9bc d0d6 063e ba82 0ebe
000003e0: 2226 773e fc03 70bd c6e7 fa3d 8d53 68bd
000003f0: 3f7e 20be 8279 a63d a068 ac3d 132b eb3c
0.07158359 0.05948868 -0.2609213 -0.025700463 -0.1091249 0.12618439 0.078310624 0.30874115
-0.18893886 -0.08294895 0.100780755 0.017656934 -0.09036817 0.07345399 0.1112497 -0.08948517
0.0045467005 0.29833943 0.07743652 -0.08062542 0.040731687 -0.16105199 0.019697772 -0.08989477
0.13141514 0.115752265 -0.040932342 -0.091985725 0.036660925 -0.19714808 0.23473312 0.08037288
-0.22046082 0.11509185 -0.21928194 -0.08561801 0.047162995 -0.056251183 0.18577078 0.20146373
-0.11527396 0.1960741 0.079108074 0.13363977 -0.0031480046 0.105404295 -0.092351206 -0.019305754
0.09252027 -0.2702743 -0.030059192 0.07738988 0.029697778 -0.061342254 0.2807203 0.15198375
-0.11820416 -0.23472866 0.06427898 -0.03821807 0.0066445963 0.22735167 -0.093911655 0.051125538
-0.1284044 -0.13069363 0.11298095 -0.078382425 -0.23519011 -0.15939684 -0.21226355 0.0069083506
0.2849572 0.095895395 -0.05301996 -0.10013569 0.09790768 0.0187 0.16951555 -0.065654166
-0.17164499 -0.1515016 -0.038436715 -0.26617762 0.011156197 -0.03589523 0.052608386 0.065143585
-0.13763292 -0.023596065 -0.10895484 -0.39376986 0.106407024 0.114267394 -0.22980224 -0.11498915
-0.18984953 -0.033246763 -0.27382162 0.111249186 0.037264872 0.15085167 0.07705366 0.036671244
0.030345673 -0.10424482 -0.009545145 0.12942438 -0.16494374 -0.022626786 0.25552985 0.08276437
-0.06663447 0.12088083 0.06940368 0.12043546 0.09333226 0.028435597 0.1970529 -0.073965035
0.07190028 0.16336477 -0.057833504 -0.100308135 -0.17082743 -0.11191667 -0.23342472 -0.041662835
-0.034051735 -0.0670076 -0.12706809 0.24935143 0.006010811 -0.011178022 -0.14815012 -0.03913272
0.04180466 0.06829426 0.21722077 0.24966908 0.10290886 0.076958425 0.3191331 -0.020471258
-0.053715356 -0.018051647 -0.22278465 -0.20252232 -0.013762174 0.038436424 -0.07394447 -0.028776942
0.040426668 0.13875514 -0.04364643 -0.14963546 -0.40384382 -0.039483618 -0.055301998 -0.0016878083
0.18962833 -0.005912531 -0.15563643 0.35524282 0.103623234 0.114190176 0.18882003 -0.06713781
0.037852675 -0.013139797 0.039756738 -0.06494844 0.051144697 -0.08029248 0.08978626 -0.106126845
-0.027580662 0.019797346 -0.061680872 0.22935112 -0.03502898 -0.02089252 -0.0012536363 0.27128133
-0.096477486 0.14939953 -0.048517846 -0.13172626 0.1145825 -0.1068177 -0.034237657 -0.14258337
-0.09037512 0.048209984 0.03586292 0.10342822 0.108557 0.14045937 -0.27782798 0.08405551
-0.14954863 -0.18115483 -0.05226171 0.0943397 -0.29453036 -0.0035157672 0.06602556 0.16328566
0.08108109 -0.108378805 0.12930924 -0.057510965 -0.012199201 -0.014975916 0.079767086 0.095446736
-0.031156685 -0.0076333922 0.3605873 0.026081879 -0.026634922 0.12457838 0.021781297 -0.06116395
-0.004980797 -0.018706523 0.028364679 -0.059417706 0.0888097 -0.20639847 0.056931913 0.21914697
-0.099612996 -0.036102027 0.14070196 -0.19678843 0.030327205 -0.15923819 0.07581174 0.07939653
-0.02422235 0.107722886 0.12112588 -0.13245592 0.12791158 -0.026556361 0.13167882 -0.13917056
0.2413564 -0.05859755 0.122512385 -0.056720305 -0.15673159 0.081286445 0.08418393 0.028707063

up1.bias f4 [16]
00000000: b2d2 e13c 5de6 03bd 51d0 de3c 077d 52bc
00000010: be57 dbbc 8992 e5bc 3590 01bd 2176 bbbc
00000020: 0bed c4bc 7b4d ca3c b45a c6bc 3495 ec3c
00000030: 59e2 e83c d768 d93c ec0c c4bc 8f0c e3bc
0.027566288 -0.032202113 0.027198942 -0.012847192 -0.026775237 -0.028023975 -0.031631667 -0.022883477
-0.024038812 0.024695149 -0.024213172 0.02887974 0.028428243 0.02653925 -0.023931943 -0.02771595

dec1.0.weight f4 [16, 32, 3, 3]
00000000: 17bf d23d 0e08 ed3d 1f37 b43d 8f8b 803d
00000010: f4cd d33d 9f41 acbd cd9f 9e3d 4238 053e
00000020: 75c7 5fbe bee7 ef3c 0caa b0bd fb01 c5bb
00000030: a8f6 54be 9f10 963d 49fd 373e 4dbe 9ebd
00000040: dae2 343d 175d 743d 62c5 af3c accb f8bd
00000050: fd61 1b3e 5e16 983d a06a 023d 1b80 773d
00000060: f143 eabd ce7a e13a dbd9 893e ee42 6bbd
00000070: 8744 1f3d e700 3ebe 5159 67be 9699 ce3b
00000080: bdf0 f9bd 5402 c6bd 9afa 563d 6619 b53d
00000090: 229a edbb 0078 483e 6015 5bbc 2a17 90bc
000000a0: 7531 8bbd 8670 b63c 4d2c 19bd 8b13 b3bd
000000b0: 084f 583e 0170 b1bb 3809 f43d 39a4 f13d
000000c0: 642f 983d dc66 cb3d 1696 8b3d 5ba5 243c
000000d0: c05d 833d bbe9 023d baf7 2cbe 12be 603d
000000e0: 3268 86bd 2636 19be 51e4 9e3d 44a6 09bd
000000f0: 7515 673e 9a28 1a3e 029a 04be 90b0 b7bd
00000100: 926d 00be ea14 85be 9548 7ebe 4824 f03a
00000110: 4ef1 d2bc 3538 45be 0aa0 57bd 196a 6dbe
00000120: 0e73 c2bd 28f5 d8bb 5b74 0c3e 3e04 f53d
00000130: a7b4 d13d 1ae3 aa3d 6053 39be d5b7 11bd
00000140: 22ff aabb 3c6d 543e 9dc2 443e 3f84 543d
00000150: 079c 57bd 5940 a53d 394c e3bc d65d b83b
00000160: 0814 02bc 7948 e83d db54 f93d f244 eabc
00000170: 7161 9ebd 512e 363e d2c8 0ebe 0f76 e83d
00000180: 6611 cebd 048e 86bc d08a ddbd 6ce4 77bd
00000190: acca 66bd f356 973e 8479 08be 5c66 1e3e
000001a0: eec9 90bc a25a 843e 41e3 b6bd eda9 5bbc
000001b0: d29f 9dbc fca7 bebd 6678 33be d694 05bc
000001c0: 6966 28bb e202 c73d 6379 723c bdf4 703d
000001d0: 89c1 debd fd0c 8a3d db78 7cbe e528 7fbd
000001e0: 60ff bd3d 8e9f 18bd 8aca 6cbd 42c6 54be
000001f0: 29f3 14bd db1f 423d 1330 cfbc dd53 393b
00000200: 0fab 783d 726f 50be 3c4a 22bd dd43 da3c
00000210: 22a9 1c3e 9be8 323d 32d1 3c3b f19b 053e
00000220: 43d8 4ebe 3df7 7fbd 10b8 3a3d 4d8c 41bc
00000230: 1a7f dabc 7b23 593c 3f63 bb3e 9d40 af3d
00000240: 12b5 d4bb 5fbe dd3d ddf3 2fbd c42b f3bc
00000250: cefc 923c 835a 69bd a573 ae3d a6f3 893d
00000260: 7bf5 11be 0d95 4f3d c9b8 2ebe 959e d53d
00000270: 7ad1 83bd 7046 ebbd 8cdb ec3d f697 ac3d
00000280: e41f 5ebd c5df 3fbd 8ed7 ea3c 7fa5 3d3e
00000290: f2aa a43d a2e3 973d 02b7 823e c166 2d3e
000002a0: bcc4 f23c d047 50bc c28f 16bd cd3b 2ebd
000002b0: 7bca 913d 7408 aebb 1f28 7d3c 6f5f d23d
000002c0: c9a5 ac3c 7c49 89be e0b7 993d b1ac afbd
000002d0: 748d ca3d 029d 8cbd eaad 07bd ff80 9a3d
000002e0: 1857 423d d81a 623e 8366 bebd 2056 8dbd
000002f0: 9908 68be 6080 dfbd 4641 77be b08b 4f3d
00000300: 9ad1 3bbd 00a2 28bb f36b ebbd e4fa 913e
00000310: fc7a 1ebd 9b08 6dbd d518 8fbd a257 46be
00000320: 80cf 36be da45 0dbc eb40 03be ec7b 86bd
00000330: 3539 1bbd 8a2a 013e a328 2f3d 3ada eabd
00000340: 1efb 14be 8c39 1ebe fc25 2cbe f808 213e
00000350: a97e e7bd 2d34 04bd 2cdd 193e d321 3b3d
00000360: 4379 12be 06db 85bd 6e0f efbd d864 cd3c
00000370: 0a0e 06be db72 133e 8d17 bdbd 824b 1ebd
00000380: 7201 7cbc f6d5 2bbe 6325 ccbc beeb 943e
00000390: e57e 2e3e 7d58 c13d 498e fe3b 5945 233c
000003a0: 6062 083e f41c 303d 1c6f 9fbe 8f7e a8bd
000003b0: 8bec 223e 0f93 33be b10d 023d 5f09 44bd
000003c0: 685f ec3d 5af9 90be ecef 473d de72 74be
000003d0: fd5d 333d e9fc 923d 00ce 353d a47c ebbd
000003e0: 2b31 a0bd b6fa c33d 0dc0 123a 4829 23bc
000003f0: be00 aabd 775e 993d df63 073d 3622 12be
0.10290354 0.11573802 0.08799576 0.06276619 0.10342017 -0.08410954 0.07745323 0.13009742
-0.2185343 0.029285308 -0.08626184 -0.006012199 -0.20797217 0.07327389 0.17967714 -0.07751141
0.044161655 0.05965909 0.021456424 -0.12148222 0.15174098 0.07426141 0.031839967 0.060424905
-0.1143874 0.0017202736 0.26924023 -0.057436876 0.038883712 -0.18555032 -0.22592665 0.00630493
-0.1220412 -0.09668413 0.052485086 0.08842735 -0.00725104 0.19577026 -0.013371795 -0.01758917
-0.067965426 0.022270452 -0.037395764 -0.08743962 0.21123898 -0.0054149632 0.11915821 0.11798901
0.07430914 0.09931728 0.06815736 0.010049189 0.06414366 0.031961184 -0.16891375 0.054868765
-0.065628424 -0.14962062 0.07758392 -0.03360583 0.22566779 0.15054551 -0.12949374 -0.089692235
-0.12541798 -0.2599252 -0.24832375 0.001832136 -0.025749829 -0.19259723 -0.05264286 -0.23185004
-0.09494601 -0.006621022 0.13716261 0.119637 0.10239535 0.083440974 -0.18098211 -0.035575707
-0.0052184025 0.20744795 0.19214864 0.051883932 -0.052639034 0.08068914 -0.027746307 0.0056264205
-0.007939346 0.11341948 0.12174388 -0.028597329 -0.07733429 0.17791106 -0.13943794 0.11350643
-0.10061912 -0.01642514 -0.10817492 -0.060520574 -0.056345627 0.29558524 -0.13327605 0.15468735
-0.017674413 0.25850397 -0.08930064 -0.013407213 -0.019241247 -0.09309384 -0.17526397 -0.008153161
-0.0025695807 0.09717347 0.014799449 0.05882715 -0.10876758 0.067407586 -0.24655478 -0.06229486
0.092772245 -0.03726154 -0.057810344 -0.20778754 -0.036364708 0.04739366 -0.025291478 0.0028278746
0.06071001 -0.20355013 -0.039621577 0.026643688 0.15298894 0.04367886 0.0028811214 0.13047768
-0.20199685 -0.062491644 0.045585692 -0.0118132355 -0.026671935 0.013253088 0.36599156 0.08557246
-0.006491312 0.10827326 -0.042957176 -0.029683955 0.017942812 -0.056971084 0.08518151 0.067359254
-0.142538 0.050679255 -0.17062677 0.10430638 -0.06436439 -0.11488044 0.11565313 0.08427422
-0.054229632 -0.046844263 0.028667238 0.18520163 0.08040418 0.074164644 0.2553025 0.16933729
0.029634826 -0.012712434 -0.036758192 -0.0425375 0.07118698 -0.0053110663 0.01545146 0.10272109
0.021075146 -0.26813877 0.075057745 -0.0857786 0.09890261 -0.06865884 -0.03312484 0.07544135
0.04744634 0.22080553 -0.09296896 -0.06901193 -0.2265953 -0.109131575 -0.24145994 0.050670326
-0.04585419 -0.0025731325 -0.11495199 0.28511727 -0.038691506 -0.057869535 -0.06987158 -0.19369367
-0.17852592 -0.008622611 -0.12817733 -0.06566605 -0.037896354 0.12613884 0.042763364 -0.11467405
-0.14548919 -0.1545164 -0.16811365 0.15726078 -0.113034554 -0.03227632 0.15025777 0.045686554
-0.1430407 -0.06535916 -0.11672865 0.0250725 -0.13091293 0.14399283 -0.092330076 -0.03864623
-0.015381204 -0.16780838 -0.024920171 0.29086107 0.17040594 0.09440706 0.0077684266 0.009965264
0.13318777 0.04299636 -0.31139457 -0.08227264 0.15910546 -0.17536567 0.03175134 -0.0478605
0.11541635 -0.2831524 0.04881279 -0.23871943 0.043790806 0.07177145 0.04438591 -0.11498383
-0.07821878 0.09569304 0.0005598076 -0.009958573 -0.08300923 0.07488721 0.03305423 -0.14270863

dec1.0.bias f4 [16]
00000000: 1974 c13c 0996 c43c 2e98 ea3c ec57 f33c
00000010: a0fb b53b 7688 e5bc 03f4 cd3c 37a4 de3c
00000020: 0aa3 92bc 19a1 473b 5d2e cdbc cfc2 9eba
00000030: 3a00 5ebc 6bfb aa3c 7f64 d3bb 7a9b d63c
0.02361493 0.023997324 0.028637018 0.02970501 0.0055536777 -0.028019171 0.025140768 0.027177913
-0.017900009 0.0030461012 -0.025046522 -0.0012112501 -0.013549859 0.020871839 -0.006451189 0.026197184
