sampling-based_planning_framework/checkpoints/checkpoint_epoch_27.pth (torch, 385842 bytes, 75 tensors)

enc1.0.weight f4 [8, 1, 3, 3]
00000000: ab79 cebd 8b8d dd3d 72c2 2d3d 3801 103e
00000010: 7b63 f1bd cb9a a53d ebd2 193d 8bfe 35be
00000020: 49f1 8ebd 2fa9 2c3e c991 14be 97d7 483d
00000030: ae07 553e 4e8b 73bd 5f90 063e 2189 10bd
00000040: c14d 073e a6fe e1bc a4b3 2c3e 71f2 4bbe
00000050: a960 c2bd 32e6 1b3e 5ab5 7ebd 3e63 e2bd
00000060: 6ed1 acbe 617a 05be e728 8bbd 5879 303d
00000070: ade4 aa3c 643c 01be 7472 293d cd45 9b3d
00000080: 004d 873e 2ea0 45bc 62b2 333b 1ec9 1c3b
00000090: 3f2c 18bd ab56 af3c 8368 50bd b569 64be
000000a0: 9cdc 443e 48b3 e9bc b315 5bbd a6e0 dc3d
000000b0: b231 8cbe 293a 5d3e 3d6a 6e3e 0c1b 81bd
000000c0: 54a9 b83e 5bc0 1dbd ab0f debd 93c8 b03d
000000d0: a01d adbe c8fc 78be 2459 d43c b989 423c
000000e0: fd1f 923d ea1c e83d c7cb 9cbd 2b4a f53e
000000f0: 4a53 cdbc 966f c23d c430 713d a662 cc3d
00000100: 8b9c b3be a966 873d 2f9d 02be 6e34 5dbd
00000110: 18b8 643e 6b0c 5d3d 9b52 f1bd 74c6 d73c
-0.100818 0.10818013 0.042421766 0.14062965 -0.117865525 0.08086165 0.037554663 -0.17772882
-0.06979615 0.16861413 -0.14508738 0.049033727 0.20803711 -0.059459023 0.1314101 -0.035287026
0.13213255 -0.027587246 0.16865402 -0.19916703 -0.09491093 0.15224531 -0.06218467 -0.11054085
-0.33753532 -0.13034965 -0.06794911 0.043084472 0.020860994 -0.12620693 0.041368917 0.07581673
0.26425934 -0.012062116 0.0027419557 0.0023923586 -0.03715157 0.021403631 -0.05088092 -0.22305949
0.19224781 -0.02852787 -0.05348749 0.10785036 -0.27381665 0.21604218 0.23282714 -0.06303987
0.36066687 -0.038513523 -0.10842832 0.086320065 -0.33811665 -0.24315178 0.025921412 0.011873656
0.071350075 0.1133364 -0.07656055 0.47908148 -0.02506413 0.094939396 0.058884397 0.09979753
-0.3508037 0.06611378 -0.12755273 -0.05400508 0.22335851 0.05396692 -0.11783334 0.026339747

enc1.0.bias f4 [8]
00000000: 03bf 033d 4e15 cc3b c1cd f83c 38b1 3dbb
00000010: d9b7 f33c 5af0 283a fe95 0eba a0b9 e3b8
0.032164585 0.0062281257 0.030371549 -0.0028944742 0.029750751 0.00064445066 -0.00054392207 -0.00010858779

enc1.2.weight f4 [8, 8, 3, 3]
00000000: d9b6 e23d ad8e 653d c255 81bd bb81 83be
00000010: 8164 f33e 6950 fd3d 8f30 85bd 8bdd c03c
00000020: a9e6 eabc 3d52 d2bd 4b9c 0cbe 7d5c 02be
00000030: eb9c efbd 3282 0bbe fc41 253e 40cd 263e
00000040: a206 113e 3208 78be aa6c 893d 61fe 473e
00000050: 554e 183e 0934 06be 4001 e43d 6e04 01be
00000060: 27aa 64be 03bd bc3d 8820 3fbc 2d01 443b
00000070: 9def a7bd 7ffe 5bbe 0b96 093e 4914 c8bc
00000080: 006b 84bb 517c 8ebd a226 7bbc 937c 62be
00000090: d119 39bd adea 073d 9c60 273e d9e3 4dbe
000000a0: 63e9 b63d c42e a13d f454 623d 2a46 03bd
000000b0: 728e 2e3e 34b5 473d 5d40 a8be bbd3 423d
000000c0: e461 40bd a194 8d3e 93fe 98be ed99 e13d
000000d0: 85de 4fbe 9e71 22be 8f3a e0bd 27f9 d93d
000000e0: a683 86bc c6eb ad3d 3f4f b8bd 7874 11bd
000000f0: 7fa8 043d 4c85 e5be b51b 053c 9a28 88bd
00000100: 858e 77bd 9b38 803e b76a 5fbd 68fd 673d
00000110: 3352 413d 0ac9 ed3b 7664 7cbd d710 90bd
00000120: eb53 4abe b3d5 b8bb e12c 193d 3f55 163e
00000130: a542 223e 1b21 9d3d fbed 25be 90bf 323e
00000140: 334c 5abe 1a6b 64bd e468 753e 408a 00be
00000150: 0231 2e3e dc58 22be a25b de3d 0ec5 b23c
00000160: 9328 babe 8c55 153e 7c29 e6bb 6c53 90be
00000170: fcdc 743e 1f96 c4bc 34f6 1c3e 399a a53d
00000180: 22d2 393d db5c 233e 3969 0abe 36b6 bb3d
00000190: b025 68bc 3133 6e3e 437a b03e d5ab c8bd
000001a0: 90bd d1bb 7924 193c b12e f83e bd06 033e
000001b0: 053d 82be e732 673d cdd6 f7bc 8c44 adbe
000001c0: 4f20 083e 960f 23be 8c0b 7dbc ff7e 143e
000001d0: d319 c33e 5b4a 99bd 74f2 8bbe c281 5bba
000001e0: bd59 9d3d 4796 483e 60cf e83d b450 c93c
000001f0: 864c c1bd 8b65 a7bc d98b 793e 9fe1 1bbd
00000200: b0df 90be 1556 8f3e 3b47 2e3e 1ca8 ffbd
00000210: cc07 cc3e 703e 293e 8e81 6b3d ecb1 163d
00000220: 4717 963e d011 5abd 189b 7d3e 1bb9 4b3e
00000230: 2de1 d23d 9468 263e 5873 fcbd b82c 713d
00000240: 151a 0a3e 9e94 273e 3ac8 983b c547 2c3e
00000250: 91af c13d f1a4 dfbd 024e ce3d aaf8 053f
00000260: 1d7e 2dbe 8b4e b8be 9d02 30be d4ee 6d3d
00000270: e01b 813e 44e4 a3bd dfc2 62bd 9c3d 183e
00000280: 99c3 cebe c581 2abe e0f4 7bbe 5f15 e9bd
00000290: 9f4e aabe 52eb aa3d 2968 7a3d 5ba4 7d3e
000002a0: b496 a83d b9de 3a3e bcd9 9ebd a35f 7c3e
000002b0: 8219 98bd 2f69 71bc e7e7 6ebd de8e d33b
000002c0: f9d0 f13b 758d 1fbe b7d6 1cbe 784a 26be
000002d0: 6392 0f3e 7ded 91bd 8524 a93e c43d 58be
000002e0: 8414 1abd fb7c 193e 861f 0dbe e528 8b3a
000002f0: 5bb7 713c abd7 0abe b7e9 92be 87d3 9d3e
00000300: 1776 f63d 48b8 96be 1155 8cbe 95d7 a13d
00000310: b450 81be 3aff 273d ff19 b03d 46ef 9abd
00000320: dc3b 2ebe fe04 8fbe c0a5 953e 5884 2e3d
00000330: cec4 35be a6a2 aabd e1d5 583d 8af8 503d
00000340: ddc2 debd e8e0 bfbc 08b0 963e 9815 11be
00000350: dc83 22be d574 733d 1c4a 053e fda7 a23c
00000360: 0993 bc3c 9317 873e b1e0 64bc fe7c 41bd
00000370: 4eab 233d 2189 50be 5b26 313e a2e5 c6ba
00000380: c4ed f83c eaeb 91be 7ea0 bdbe 4afa 58be
00000390: 3023 f3bb 038a 3abe 08fa cfbd 5d79 4b3e
000003a0: 46d7 2d3e 4f9d 7b3d 453a 03bd 0924 573d
000003b0: faab 863d 6e7e aabd 0fb8 88bc c4ec d73d
000003c0: 2f50 3e3c 5273 503e aaf7 4abe 81de 1abd
000003d0: ec95 d63b 45c0 e13d 3168 04be f516 8cbd
000003e0: 69e3 48bd 3ebc 97bc eccd 0c3e b8d2 ce3d
000003f0: 788e c23e a723 56bd 93a2 d8bd ed2e 4dbe
0.11070032 0.05604427 -0.06315185 -0.25684914 0.47537616 0.12368853 -0.065034024 0.02354314
-0.02867444 -0.10269592 -0.13731496 -0.12730594 -0.116998516 -0.13623884 0.16138452 0.16289234
0.14162686 -0.24221876 0.06710179 0.19530632 0.14873631 -0.13105787 0.11133051 -0.12599346
-0.22330533 0.092157386 -0.011665471 0.0029907927 -0.081999995 -0.21483801 0.13436143 -0.024423735
-0.0040410757 -0.06957305 -0.015329035 -0.22117834 -0.045190636 0.03318279 0.16345447 -0.20106448
0.08931234 0.07870248 0.0552568 -0.032049336 0.17046526 0.048756793 -0.32861605 0.047565203
-0.046968356 0.27652457 -0.29881725 0.11015687 -0.20299728 -0.15863654 -0.10948669 0.10643225
-0.016420197 0.08492236 -0.0899949 -0.035511464 0.032387253 -0.4482826 0.008124282 -0.06648369
-0.06043865 0.25043187 -0.05454513 0.05663815 0.047197532 0.0072566317 -0.061619245 -0.07034462
-0.19758575 -0.0056407093 0.037396315 0.14680956 0.15845735 0.0767233 -0.16204064 0.17455888
-0.2131813 -0.055766203 0.23965794 -0.12552738 0.17010882 -0.1585421 0.10857321 0.021822479
-0.3635908 0.14583415 -0.0070239883 -0.28188646 0.23912424 -0.023997365 0.15328294 0.08086056
0.045366414 0.1595339 -0.13516702 0.09165613 -0.014169142 0.23261715 0.34468278 -0.09798399
-0.0064007714 0.009347075 0.48473123 0.12795539 -0.2543718 0.05644503 -0.030253792 -0.3384136
0.13293575 -0.15923914 -0.0154446475 0.1450157 0.3810564 -0.07484885 -0.27333415 -0.00083735224
0.07683132 0.19588576 0.11367679 0.024574615 -0.09438424 -0.020434162 0.24369754 -0.038056966
-0.2829566 0.27995363 0.1701936 -0.12483236 0.398497 0.16527724 0.0574966 0.036790773
0.29314634 -0.053239644 0.24766195 0.19894831 0.10296855 0.16250831 -0.123266876 0.058880538
0.13486512 0.16365287 0.0046625407 0.16824253 0.09457315 -0.10920132 0.100734726 0.52332556
-0.1694264 -0.35997424 -0.17188497 0.058089092 0.2521658 -0.080025226 -0.055361625 0.14867252
-0.40383604 -0.16651066 -0.24605131 -0.11381029 -0.33263108 0.08345665 0.06113449 0.24769728
0.08231869 0.18249024 -0.07756373 0.24645858 -0.0742674 -0.01473455 -0.058326628 0.00645624
0.007379648 -0.15581305 -0.15316282 -0.16239345 0.14020686 -0.071253754 0.33035675 -0.21117312
-0.03761722 0.14989083 -0.13781556 0.0010617046 0.014753188 -0.13558833 -0.28693935 0.30825445
0.120342426 -0.2943747 -0.2740865 0.07902447 -0.25256884 0.041014887 0.08598708 -0.07565169
-0.17015022 -0.27933496 0.2922802 0.04260668 -0.17750856 -0.08331804 0.052938346 0.051018275
-0.10877011 -0.023422673 0.29431176 -0.14168394 -0.15870613 0.05943759 0.13016552 0.019855494
0.02301933 0.26385173 -0.013969586 -0.047238342 0.03995829 -0.2036481 0.17299788 -0.0015174637
0.030386813 -0.285003 -0.37036508 -0.21189228 -0.007419966 -0.1821671 -0.101551116 0.19870515
0.16976652 0.061429318 -0.032037992 0.0525246 0.06575771 -0.08324896 -0.016689328 0.10543206
0.011615797 0.20356491 -0.19821039 -0.037809853 0.006548634 0.11023001 -0.12930371 -0.06840316
-0.049045 -0.018522378 0.13750428 0.10098785 0.3799932 -0.052280094 -0.105778836 -0.20037432

enc1.2.bias f4 [8]
00000000: 642c d1bc 0e2e 1d3b 715a 0b3d 874b 12bc
00000010: 1f29 193a 307c 013d 8da6 e13c f7c6 353b
-0.025533862 0.002398375 0.0340218 -0.00892914 0.00058426143 0.031612575 0.027545238 0.0027737

enc2.0.weight f4 [16, 8, 3, 3]
00000000: 4d46 383c 4443 46bd e1c9 21bc d707 f1bd
00000010: a353 62be 0eab c23d acfe 723d 6110 c1bd
00000020: 8750 883e ab4b 12bc 4af9 3c3d c9a6 03bd
00000030: 0c19 5abe b492 7d3d 42f7 12bd fe57 9dbd
00000040: daa3 44bd b7ca 383e 7dbc abbc f845 e43d
00000050: 0a5f 48be 05ad 5dbd 571d d6bc a351 15be
00000060: 4590 b93d 4c15 8d3e cb54 d43d df80 4ebd
00000070: 148c e23d 6224 f13d 1041 8ebc 765f 20be
00000080: b1e5 51bc 837a 38be e411 23be aaf8 aabd
00000090: 3506 263e 5478 63bd b9df 3cbe 13f5 dbbc
000000a0: c852 d43c 5f76 36bd e80f 08be 9913 f7bd
000000b0: ada7 873d b499 533d 2fff 4a3d c6d6 0d3e
000000c0: fa1a 603e 38ae 19bd f0ae 123e 85ee 333e
000000d0: 3094 2ebd 982d e53d 9909 3e3e 15fc 63bd
000000e0: c206 9bbe 5240 35be 6e28 503e 744e 81bd
000000f0: 78d3 b83d 2314 5a3e 22ba 423e 3c4f 6c3b
00000100: 7946 3abe 79ec b53c 1cc4 90bc c91a f8bb
00000110: 330f f73d 5e9a cebd 5f9a 26be 50c2 763b
00000120: 3d0d ad3c a90f 6b3d adbc 86bc 4c40 01bd
00000130: 938a 2abd 4a41 f1bd ba62 b0bd 0448 433a
00000140: 249c ee3d 1668 4abd 3b2c 0d3b 36d2 9c3e
00000150: 0378 063c 8bc9 c6bd 6ea8 cb3c 4b25 7ebd
00000160: 745a 5abc ffd8 b1bd 5cf9 093d dd66 b03c
00000170: 7247 193e 6d49 c03d 20ec 033d 35f7 8d3d
00000180: 9e86 58be a550 ea3d d41d 8a3c 1c53 f0bc
00000190: 8bb0 afbd cf59 c73d 2c15 4abe ede1 743d
000001a0: 4904 293c 3f1c de3d f4a3 77be 9877 f53c
000001b0: e0ca 1d3e 8c67 78bd b18e e2bc 3a1e aabc
000001c0: bd67 ac3d d9b7 833d 6156 2a3e e12d 6e3e
000001d0: ad4a 6d3c 1eff 63bd 5896 abbd d317 3f3e
000001e0: 1fce 383e d2e9 263e 25f3 923d e6f6 05be
000001f0: 24c2 c43d 72ad 043e 38ac 583e 8bcb 1c3c
00000200: d47e 9e3d 8770 2a3d 434c 4e3e 9018 f9bd
00000210: 3038 6b3c a66d 1abd b502 4d3e bc1d 81be
00000220: da9f 1b3e 840d 4fbe eebd 1fbe 2220 343d
00000230: 49c8 b6bb 6888 543d 8007 0d3b df59 8ebd
00000240: 04c9 94bd 5f7b 80bc 6ce2 85be 2aa3 07bd
00000250: fcc9 9b3c 2ade 1f3e f4a5 623e fd25 3a3b
00000260: cf6f 56be 9f97 fdbd 9c0a e6bd 01f5 4cbe
00000270: f8d1 bd3d 5a18 583e 0996 46bd 7c72 563c
00000280: e3a1 a0bd 34d5 3dbe 6b50 0d3e 80f5 413d
00000290: 7835 46be 0425 b0bd 318c ed3d 5792 173e
000002a0: a8a2 36bd bd9e 05be 8581 9e3d 2524 273e
000002b0: aa4b bfbc 1472 043e b6d0 153e f597 c7bb
000002c0: 23ab 31bd c3ca 2d3e ddc0 1dbd 737c cebd
000002d0: 6bb5 a73c 26d9 a93d 26ab cd3d 0f91 623e
000002e0: 3013 7d3d 798f b63e fd87 973e a37a 323e
000002f0: 14d3 e53d d34a d5bd 0de4 213e 965f 20be
00000300: 675a bfbd 8bad 9dbd 2b63 2d3e fe6a 5e3e
00000310: 0c15 703d 6173 d8bd ac28 543d e800 933d
00000320: f6c1 b5bc b21e 573d fb44 1e3e efc1 7d3d
00000330: 5470 e73d 79af e53d 3bde ca3c afe3 2c3e
00000340: eca5 1ebe 9aee fb3c 4cca 323e e032 a3bc
00000350: c54b 823e 875d 40be 442a ed3c a41b dbbd
00000360: 13f4 c73a 901f 8e3d 2e9f 3c3e 1629 d1bc
00000370: 1392 d33d f13c 973e 378f 9d3b 3550 38bd
00000380: d092 aebd 1ab3 90be 70f9 95bd c084 b13c
00000390: aeba 2c3c a9ea 03be 3fbc 103d 73df e73d
000003a0: debf d5ba f258 ab3d d633 b13d a29c 83bd
000003b0: fc36 0dbe efcd a5bd 9db5 003e f25e 0dbe
000003c0: cb54 123d 1109 f03c 65a3 a43c 4d07 c3bb
000003d0: ab9b e7bd eadc 773e f832 2f3c 7009 3cbd
000003e0: 6f47 913d 3c0b e8bd 8f98 513e 7d2b d13d
000003f0: 0c90 76be 0f88 5abe 1461 113d d3fc f53c
0.01124723 -0.048403993 -0.009874792 -0.117690735 -0.22102217 0.09505282 0.059324905 -0.09426952
0.26623937 -0.008929173 0.046136178 -0.03214148 -0.21298617 0.061907485 -0.035880335 -0.07682799
-0.048007824 0.1804608 -0.020963902 0.11146158 -0.19567505 -0.054120082 -0.026137037 -0.14581923
0.0906072 0.2755531 0.103677355 -0.05041587 0.11061874 0.117745176 -0.017365009 -0.15661415
-0.01281111 -0.18015485 -0.15924793 -0.0834821 0.16213305 -0.055534676 -0.18444718 -0.026850259
0.02591838 -0.04454648 -0.13287318 -0.12064285 0.066237785 0.051660255 0.04955977 0.13851461
0.2188529 -0.037519664 0.14324546 0.17571457 -0.04262179 0.11190337 0.18558349 -0.055660326
-0.30278593 -0.17700318 0.20327923 -0.06313792 0.090247095 0.21296744 0.19016317 0.003605797
-0.18190946 0.022207486 -0.017671637 -0.0075715524 0.12063446 -0.10088037 -0.16269825 0.003765244
0.021124477 0.05738798 -0.01644739 -0.03155546 -0.04163606 -0.11780031 -0.086125806 0.0007449391
0.11650875 -0.04941567 0.0021541256 0.30629128 0.008207324 -0.0970641 0.024860587 -0.062047284
-0.01332723 -0.08683967 0.033685073 0.021533424 0.1496866 0.09389005 0.03220761 0.069319166
-0.21145102 0.11441163 0.016859926 -0.029336505 -0.08578595 0.097339265 -0.19734639 0.059785772
0.010315963 0.10845231 -0.24183637 0.029964253 0.15409422 -0.060645625 -0.027655931 -0.020766366
0.08418224 0.064315505 0.16634513 0.23259689 0.014483136 -0.05566322 -0.08378285 0.18661432
0.18047379 0.16300133 0.071752824 -0.13082466 0.09607342 0.12956789 0.21159446 0.009570013
0.07739034 0.04161122 0.20146279 -0.12162888 0.014356658 -0.037702225 0.20020564 -0.25217998
0.15197697 -0.2022 -0.15599796 0.043975957 -0.005578075 0.0518879 0.0021519363 -0.06950735
-0.07264903 -0.015683828 -0.2614931 -0.03311459 0.019017212 0.15612093 0.22133619 0.002840399
-0.20941089 -0.12382435 -0.11232492 -0.20015337 0.09268564 0.2110304 -0.04848293 0.013088819
-0.078433774 -0.18538362 0.13800208 0.047353268 -0.19356334 -0.0860081 0.11599005 0.14801918
-0.044588715 -0.13048835 0.07739548 0.16322382 -0.02335151 0.12934142 0.14630398 -0.0060911127
-0.0433761 0.16971879 -0.038514007 -0.100823306 0.020472249 0.08293371 0.100424096 0.22125648
0.061785877 0.35656336 0.29595938 0.17429595 0.112219006 -0.10414662 0.1580965 -0.15661463
-0.09343415 -0.07699116 0.16932361 0.21720502 0.058613822 -0.10568882 0.0517966 0.07177907
-0.022187214 0.052519508 0.15456001 0.061952528 0.11300722 0.112151094 0.02476417 0.1688373
-0.15492982 0.030753423 0.17459983 -0.01992172 0.25448433 -0.18785678 0.028950818 -0.106986314
0.0015255235 0.06939614 0.18420097 -0.025532287 0.10330596 0.29538682 0.0048083323 -0.044998366
-0.08524096 -0.28261644 -0.07322967 0.021669745 0.010542555 -0.12882484 0.035335775 0.113219164
-0.0016307791 0.08366574 0.08652465 -0.0642636 -0.13790506 -0.08095919 0.1256928 -0.1380575
0.035725396 0.029301198 0.020097444 -0.005951798 -0.11308988 0.24205366 0.010693304 -0.045907438
0.07093703 -0.11330268 0.20468353 0.10213373 -0.24078387 -0.21340965 0.03549297 0.030027783

enc2.0.bias f4 [16]
00000000: 95c2 f53c dcbf 0b3d 7e02 8cbc 5a96 203d
00000010: 5a68 e23b 54a1 003d f288 acbc db9a c9bc
00000020: 2c06 db3c 463d 563c 4e69 003d e656 0b3d
00000030: c9df f53c e213 f93c 4c1a 763c cdb1 ea3c
0.03000001 0.03411852 -0.017091032 0.039205886 0.0069094123 0.031403854 -0.021061394 -0.024609974
0.026736341 0.013076132 0.031350426 0.03401842 0.030013936 0.030404989 0.015020918 0.028649235

enc2.2.weight f4 [16, 16, 3, 3]
00000000: 5c90 bcba 119b 433d 6046 8fbc 2f04 cdbd
00000010: 9573 233e 7a76 4c3d 7490 52bd 83a5 7fbc
00000020: 4ea3 b13c e292 01be 24a4 6c3e 2241 dfbd
00000030: f1f4 34be 2a80 3d3d 1e25 453e e1b4 6fbe
00000040: cb7c f3bc d772 bfbc 546c c5bd d9b3 82bd
00000050: 7a08 0ebe bbd1 a3bd b200 a23e 4f2d 2e3d
00000060: 4e0a f2bc 4869 113e 794f c3bd 0e8f 4a3e
00000070: 750c 1c3e 8d33 fbbc dbd4 1e3e 0acc 293e
00000080: 0529 dcbd a0c0 8fbd 705e 9cbe 85d5 323e
00000090: ddf2 1abd 66f9 81bd 9e79 023e 745d 3bbe
000000a0: 391f ffbd 2376 6c3e 9ecd c5bd 0dbe cbbe
000000b0: beea b1bd 0678 7e3c 0678 edbc e99c 023e
000000c0: 6b07 a33c 30a9 a2bb 9fda e4bd c0b1 b2bd
000000d0: eb47 83be 3d0a a0bd 996d 9b3c a953 18bd
000000e0: 33e6 c3bd 13d3 003e feb0 07be 7ae9 303e
000000f0: 0106 4b3d 9706 e93d 44bb 3e3d 27ad 763d
00000100: b330 d13d 9d02 9f3d 7b59 08be 15da a0bc
00000110: ea7b 15be ff9e e83d 5b59 243e 70d2 05bc
00000120: 703f 823e 6dd5 323c aed1 343e cf2d b6bd
00000130: ffd9 7a3d cc7b 603e c649 13bc 3b33 5ebe
00000140: 8748 3d3e 1eec 5abe b054 41bd 4ac9 69be
00000150: 5d56 173e fae5 153e c19d bf3d e108 9fbc
00000160: 5b9b 50be 57d3 413e 9ee8 7dbb 4b28 18be
00000170: 0de8 d93d e9d9 84bd cd80 fa3d c76d 1e3d
00000180: e406 81be c7c3 5c3d ed84 393e 7a94 e83d
00000190: a79d 48bd ef36 78bd 3fd5 65bd 26a1 1a3e
000001a0: 1dc9 bf3d 2efb 113d 453f ccbc ad36 6e3d
000001b0: 124f adbd bdcd aa3c c8d9 513e 9122 55be
000001c0: e6a4 6fbd 4438 98bd 0114 3d3c 5c75 163e
000001d0: 6260 183e 46b3 b23c a304 ae3d f6ae 10be
000001e0: e927 143e 39e9 123e 5ffb 62bd bf3f c93d
000001f0: 50aa 913c 4a7f 66bd b72d 223e adf4 95bd
00000200: 010d d9bd 416a b9bc dd5f a3bd af86 493d
00000210: f05a 73be c150 683d 4017 c3bd 0168 07be
00000220: 89fd 073d 0e17 183e 3227 ffbd 37dc 063e
00000230: dd0b 52bd 9240 5e3d e744 6dbd 735d b43d
00000240: 4ebe c43c bb61 8f3d 5a78 d93d 9891 1bbd
00000250: 2019 d33d c966 123e ebe9 333e 5b75 cbbd
00000260: 098d 323e 0589 303e ac2b ba3d 6321 653b
00000270: 09ca 92be 7651 ef3d d432 e6bd dfb9 97bb
00000280: 72c1 a5bd 4b25 01be ee13 273e b9f4 a03d
00000290: 8d22 053e 5076 4ebe 1130 90bd d198 30bd
000002a0: 88a2 63bd fb1c 54bd 1e5a 88bd 3f76 48be
000002b0: ff96 04be 9d5a a3bd 848d ff3d e169 6fbc
000002c0: 785a 5abe feab a5bd bfa5 5abd 34e9 883d
000002d0: 6a55 5dbc 531b 593d 3f19 d73d 01ae 9b3c
000002e0: fdfb a03d b238 5c3e 3731 343e cc44 0c3e
000002f0: cf90 8b3c c2c3 8ebc c520 363e 5f02 c2bd
00000300: 1842 d1bd a9c3 ce3c abcb a33d c613 503e
00000310: 6644 873e f035 0bbc bfaa 7dbd accc 5bbd
00000320: 6cd6 53bd ed1c 13be e201 ee3d 6887 043e
00000330: 1240 c8bd 6f05 a5bd ec0b 3a3e be81 d33d
00000340: fe9e 0abe d406 093e 14c4 2ebb df26 b53c
00000350: 0800 01bd 9543 a63d 286b a9bd d51d 6abc
00000360: cd3d a73d 5e68 263e 39d9 31be c2fd 7e3c
00000370: 85bf 9f3e 168c 0f3e a606 93bd 55cb 983c
00000380: 04a6 d8bc 131a 863e 7c0d 0fbe 9cdd 78bd
00000390: f202 76bd f857 ba3c 821c 11bd 26b7 bcbd
000003a0: 9cc8 adbe ff34 afbd f5ec afbc a51e 54be
000003b0: 5e6e 6b3d 49c1 1e3e 2827 203d 1b0b 94be
000003c0: 1755 35be b58b b13d c284 38bd 24d4 a73d
000003d0: 2725 2fbe f155 a9bd 7fd0 813d a7b4 1bbe
000003e0: d7d2 8f3e 1645 ec3d 6791 bb3e b2b2 8dbd
000003f0: 0510 b93c 23e0 c93c f3df cbbc bda2 0b3e
-0.0014386284 0.047755305 -0.017489612 -0.100105636 0.1596206 0.049917676 -0.051407292 -0.015603426
0.021684315 -0.12653688 0.2310949 -0.10901095 -0.17671563 0.046264805 0.1925244 -0.23408844
-0.029722592 -0.02337019 -0.096398026 -0.063819595 -0.13870421 -0.07998987 0.31641155 0.04252368
-0.02954593 0.14200318 -0.095366426 0.19781134 0.15239127 -0.03066423 0.15510885 0.16581741
-0.10750011 -0.07019162 -0.305408 0.17464264 -0.03782927 -0.06346397 0.12741706 -0.18297368
-0.12457127 0.2309194 -0.09658359 -0.39793435 -0.08687352 0.0155315455 -0.028987896 0.12755169
0.019900998 -0.0049640164 -0.11174511 -0.08725309 -0.25640807 -0.07814453 0.018973159 -0.03718916
-0.095653914 0.12580518 -0.13251111 0.17276564 0.049566273 0.1137821 0.04656531 0.060223725
0.10214367 0.0776417 -0.13315384 -0.01963524 -0.1459805 0.11358451 0.16049711 -0.008167848
0.25439024 0.0109151425 0.17658111 -0.08895456 0.061243054 0.21922225 -0.008989757 -0.2169923
0.18484698 -0.21379134 -0.047199905 -0.22830692 0.14779039 0.1463851 0.09356261 -0.019413413
-0.20371763 0.18928276 -0.0038743387 -0.1485912 0.10639963 -0.064868756 0.12231598 0.03867891
-0.2520057 0.053897645 0.18117113 0.11356445 -0.048978474 -0.060599264 -0.05611157 0.15100536
0.09364531 0.035639934 -0.024932513 0.05815761 -0.08462347 0.020850057 0.20493233 -0.20813967
-0.05850687 -0.07432607 0.011540414 0.14693207 0.14880517 0.021814 0.08496978 -0.14129242
0.1446835 0.1434678 -0.055415507 0.09826612 0.017781407 -0.056273736 0.15837751 -0.07322059
-0.105981834 -0.022633674 -0.07977269 0.04920071 -0.23765159 0.056717638 -0.09525919 -0.13223268
0.033200774 0.14852545 -0.12458648 0.13169943 -0.051280845 0.054260798 -0.05792704 0.088068865
0.024016526 0.070010625 0.10618658 -0.037980646 0.103075266 0.14297022 0.17569701 -0.09934493
0.17436613 0.17239769 0.09090361 0.0034962527 -0.28669766 0.11685459 -0.112401634 -0.004630312
-0.080935374 -0.12611882 0.16316196 0.07859177 0.13001461 -0.2016232 -0.07040418 -0.043114487
-0.055574924 -0.05178545 -0.066578135 -0.19576357 -0.12948225 -0.079762675 0.12478164 -0.014612646
-0.21323574 -0.080894455 -0.053380724 0.06685105 -0.013509134 0.053004574 0.10502862 0.01900387
0.07860563 0.21506003 0.17596899 0.13698119 0.017036824 -0.017427329 0.17785938 -0.094731085
-0.102176845 0.025239782 0.07997831 0.20320043 0.2641937 -0.008496746 -0.061930414 -0.053661987
-0.05171816 -0.14366503 0.11621453 0.12942278 -0.097778454 -0.08057677 0.1816861 0.10327481
-0.13537213 0.13381511 -0.0026667165 0.022113262 -0.03149417 0.08118359 -0.082723916 -0.014289339
0.081660844 0.1625075 -0.1736802 0.01556343 0.31200805 0.14018282 -0.071790025 0.018651644
-0.02644635 0.26191768 -0.13969988 -0.06075822 -0.060061403 0.022747025 -0.035427578 -0.0921462
-0.33942115 -0.0855503 -0.021475295 -0.20714815 0.0574783 0.1550342 0.039099842 -0.28914723
-0.1770824 0.08669225 -0.045048483 0.081947595 -0.17104016 -0.08268345 0.063385956 -0.15205632
0.28090546 0.115366146 0.3663437 -0.06918849 0.022590647 0.02464301 -0.02488706 0.13636298

enc2.2.bias f4 [16]
00000000: f651 8d3c 5653 f53c ed3b 433b e87e 503c
00000010: 7889 063d b2b5 ea3c 082e 40bb ea9f b3bb
00000020: 4113 543d a988 013d 1188 3b3c 0df4 bb3b
00000030: 7de0 a83c 1335 44bc 6e42 043d 3caa e73c
0.017250996 0.029946964 0.0029790357 0.012725569 0.032845944 0.028651092 -0.0029324312 -0.0054817097
0.051776174 0.03162447 0.011446015 0.00573588 0.020614857 -0.0119755445 0.032289915 0.028279416

bottleneck.0.weight f4 [32, 16, 3, 3]
00000000: 14ac babd 417f 4e3d 8c4b 693d 1871 e03c
00000010: d61c bc3d ef8b 9bbc 961b d33c 5381 dcbb
00000020: 4fec 33be 7556 bdbc ab78 51be 53cc e13d
00000030: 4bd6 63bc cfc0 823d 0118 0e3e 8b17 2dbe
00000040: 8c65 423e 88c0 4f3d 6a98 513d c475 da3d
00000050: 254f aa3d 2236 50bd ebbc 0b3e 2e9a 6b3e
00000060: f9be 1ebd b4a9 82bb 468e 3bbb 1551 663d
00000070: 8c5f 8cbd 131b 103d 12e4 34bd 7202 d7bd
00000080: 1f3f c0bb 67fe f83d bc9e 80bc 5ba6 9ebd
00000090: 6aff b4bd 759e 8cbd b560 cabb 9fd7 78bd
000000a0: 3542 543d e3ad 39be 58b3 ca3d f14f 00be
000000b0: 37f9 eb3d 2130 45bd 1ecc 023e ad41 2b3c
000000c0: 0eee debd 8b81 b13d 925d 81bd 6a97 003e
000000d0: 105f c63d 9ddb 5fbd 736b 893c 06d0 343e
000000e0: 87f9 10bd 1565 843d 076d eb3c 3f89 b8bd
000000f0: 93e0 c5bd 4e05 7d3e 7545 fa3d 65dd 4fbd
00000100: 05e9 413d c581 16bd eaeb 2f3d 407c 253e
00000110: fbbc f23d eff3 773c a0c5 d33b 6419 cebc
00000120: 7eec acbd 4cd2 e13b 5b36 13be 1e14 60bd
00000130: e89c 9abd 86d3 cebc b94c f4bd de58 263d
00000140: 8772 263e 42a0 a3bd 0f9a e83d e51b 893d
00000150: 247c dcbc 8060 8b3d 8b85 243e ea18 d0bd
00000160: 8293 033d 7002 0b3b 5e33 e63c 32ca 0bbd
00000170: a0cf 2bbd a26e e13d 2f02 103e 69ce 053e
00000180: 3686 e8bc fd06 a33d 0cf2 15bd ac79 cb3c
00000190: 5e87 043e 9334 7bbd a3e0 35bb dad4 ae3d
000001a0: 5f15 2c3c fab2 253d 02d2 873e bd12 e33d
000001b0: 62dd d6bc 5ca6 f83c a87c 35bd 1e56 103e
000001c0: 3e1f 863d ceb7 aebd 21bb 43bd 9da6 09bd
000001d0: ef3a 4dbe ea9c ab3d 97ed 513d 5b7b 2bbe
000001e0: 56a7 253e 2df7 36bd 3c82 b23d 16ac 553d
000001f0: fdbf 273d 84ca 653e f24c 08bd 3b02 2d3d
00000200: 095e 0abe 817c 633d bcf1 1cbd 3c87 22bd
00000210: a088 a13c 9d3f d1bd 8aff 67bd 5175 453b
00000220: e287 2c3e 1842 173d ea61 593d cbaa 5e3d
00000230: bf3c 333d c37f c73d 8a53 5f3d 8fec 5a3d
00000240: 5722 6dbc 298b f0bd d529 bb3d 294a 393c
00000250: d5e4 1e3d afd2 b9b9 a4c6 c6bc 8a99 b4bd
00000260: 3464 5b3d 43c7 a33d 15f8 57bd d03f e83c
00000270: 5ae6 833d e8fc 623b 706c 2dbe dfa3 33bd
00000280: f8b3 87bd 6670 7c3e fddd 403c 6956 00be
00000290: 2492 9dbd 07ac 8ebd a296 d3bd 2180 5e3c
000002a0: 181e 5abd 9e82 5f3d e718 c23d 633c bebd
000002b0: 3d38 90bd 000f 463d b94f 423d 8d20 5ebd
000002c0: ff8b d03c 97d3 4f3d 3451 0d3d 795c cd3d
000002d0: 446a 483d a1a0 603c 6f66 cd3d e807 fe3d
000002e0: 3a51 b43d c131 9c3d 0a60 5c3d 56e4 84bc
000002f0: b8a0 96bd f6c1 b5bc b4d5 fd3c 46b1 4cbd
00000300: 451f afbc 3c05 e93c 3113 11bd 8458 1d3d
00000310: 1b2e 1fbd 9f05 063e 093b c8bd 9573 6ebd
00000320: d4e2 17be 231b a23c 199f 703d 177e 0fbe
00000330: 5951 813d d5dd a63d a461 103e 7920 27be
00000340: cf4b 22bd d428 5cbe a78a cc3d 143a 603e
00000350: 0787 4bbd 899a 3c3d e51d b63c 12a9 51bd
00000360: bb9e d1bd 3ae4 f33d 292b 2dbc 2165 c83d
00000370: e535 47bb 775d 343d 84b2 33bd 4a51 603e
00000380: 4ff2 c53d 0fed 953c 793c 90bc 4d6f dcbd
00000390: e4ff 903d 97fd d8bd 6129 51bd f3b5 58be
000003a0: 20f7 d13d cfc3 cdbd 55dc 9b3d 32e1 9f3d
000003b0: e3d6 c2bd beb4 1a3e f148 a5bc 65b2 13be
000003c0: ea9c 593d 7a0d ffb9 8b04 ec3d 01af 38bd
000003d0: edd8 36bb 45b8 1f3e 7f19 f23d b696 a8bb
000003e0: 47f3 083e 121a 973d 8e2e 2cbc 80d6 0a3e
000003f0: 2ffe a13d 5f0b 0b3e 81b4 59bd 42eb a2bd
-0.091148525 0.050414328 0.056956813 0.027397677 0.091851875 -0.018987624 0.02576999 -0.006729284
-0.17570613 -0.023112515 -0.20456187 0.110253 -0.013906072 0.063844316 0.13876344 -0.16903512
0.1898405 0.05072072 0.051170744 0.10666993 0.08315877 -0.050832875 0.13646285 0.23008034
-0.038756344 -0.0039875153 -0.0028618737 0.05622967 -0.068541616 0.03518207 -0.044162817 -0.10498513
-0.0058668996 0.121578984 -0.01570069 -0.077465735 -0.08837779 -0.06866161 -0.006176079 -0.060752507
0.051820952 -0.18132739 0.09897488 -0.12530495 0.11522143 -0.048141602 0.12773177 0.01045267
-0.10885249 0.086672865 -0.06316675 0.1255776 0.096861005 -0.0546528 0.016774869 0.1765748
-0.035394218 0.06464592 0.028738512 -0.090105526 -0.09661975 0.24709055 0.12220279 -0.050748248
0.047341365 -0.03674485 0.042949595 0.16160679 0.118524514 0.015133842 0.0064627677 -0.025158592
-0.08443545 0.0068915244 -0.14376204 -0.054706685 -0.07549459 -0.025247347 -0.11928696 0.040612094
0.16254626 -0.07989551 0.11357509 0.066947736 -0.026914664 0.06805515 0.16066568 -0.10161002
0.032123096 0.002121117 0.028100666 -0.034128375 -0.041946054 0.1100743 0.14063333 0.1306702
-0.02838431 0.07960317 -0.036607787 0.024838291 0.12942263 -0.061329436 -0.0027752302 0.08536692
0.010503142 0.04045389 0.2652741 0.110875584 -0.02622861 0.030352764 -0.044308335 0.14095351
0.06548928 -0.08531152 -0.047785882 -0.03360616 -0.20042013 0.08379538 0.051251974 -0.16746275
0.16177115 -0.04466932 0.087162465 0.052166067 0.04095458 0.22440535 -0.033276506 0.042238455
-0.13512434 0.055538658 -0.038316473 -0.03967975 0.019718468 -0.102172114 -0.056640185 0.003012974
0.1684871 0.036928266 0.053071894 0.0543621 0.043759104 0.097411655 0.05452303 0.053448256
-0.014473519 -0.11745293 0.09138838 0.011309185 0.03879245 -0.0003544292 -0.024264641 -0.08818348
0.053562358 0.079969905 -0.052726824 0.02835074 0.064404204 0.0034635607 -0.16935897 -0.04385745
-0.06626123 0.24652252 0.011771676 -0.12532963 -0.0769389 -0.06966405 -0.10331465 0.013580353
-0.053251356 0.054567926 0.09477406 -0.092888616 -0.070419766 0.04835415 0.04743931 -0.05423026
0.02545738 0.050738897 0.03450127 0.100274034 0.048929468 0.013710172 0.10029303 0.12403852
0.08804555 0.07626677 0.053802527 -0.01622216 -0.073548734 -0.022187214 0.03098569 -0.04997375
-0.021377215 0.028444879 -0.035418693 0.038414493 -0.03886233 0.13088082 -0.09776885 -0.058215696
-0.14832622 0.01978833 0.058745477 -0.14012943 0.06314344 0.0814778 0.14099747 -0.16320981
-0.039623078 -0.2149995 0.09987383 0.21897155 -0.04968932 0.046045814 0.022231052 -0.05118663
-0.102353536 0.11908765 -0.010569372 0.09784914 -0.0030397114 0.044034448 -0.043871418 0.2190601
0.09665357 0.018301515 -0.01760696 -0.107634164 0.07080057 -0.105952434 -0.051064853 -0.21163158
0.102522135 -0.10047113 0.076103844 0.078066245 -0.09513643 0.1510801 -0.020176383 -0.14423521
0.05312816 -0.0004864743 0.11524304 -0.04508877 -0.0027900294 0.15597637 0.11821269 -0.0051449193
0.13374053 0.073780194 -0.010509146 0.13558388 0.0790981 0.13578556 -0.053150658 -0.07955028

bottleneck.0.bias f4 [32]
00000000: db9f eebc ce9c df3c 223a f53c 5656 0a3d
00000010: 00c0 ef3c 886e bc3c 5f1b 623c b83d 91bb
00000020: ec2b e73c e58d 2cbc 4770 7a3c 26fb 193d
00000030: bf50 0bbc d759 d03c 83c5 08ba c37e fe3c
00000040: 6d16 0b3d 5a8b 313c 4b27 d43c e3e6 563d
00000050: 3766 3c3c 4fbc 4d3d dfb8 cd3c 475d 50bc
00000060: ad41 053d c7e6 ad3c 93bf ecbc 5f4b 863c
00000070: a3fa 853c 8900 e33c e22d b93c 804b 043d
-0.02912896 0.02729645 0.029934946 0.033773743 0.029266357 0.023001924 0.013800471 -0.0044324063
0.028219186 -0.010531877 0.015285558 0.03759303 -0.008503138 0.025433464 -0.000521742 0.031066304
0.033956934 0.010836447 0.025897643 0.052466284 0.011498979 0.050228413 0.025112567 -0.012717552
0.032533336 0.021228207 -0.028899943 0.016393362 0.016354864 0.027710216 0.022604886 0.032298565

bottleneck.2.weight f4 [32, 32, 3, 3]
00000000: 0f17 a43b d44f 9fba 254d 41be cbd0 cfbd
00000010: 970b 38be 7514 14bc 7972 87bd 6eba f1bd
00000020: f720 adbc 1ebc c23b bbc6 3ebe 4b40 1cbd
00000030: 8db7 593c 685a e13d 4aa3 8a3d c679 a43d
00000040: eefc 0abd dde3 65bc b0f7 43bd b736 633e
00000050: 6984 0d3d 4d76 c1bd 5f40 903d af38 e0bc
00000060: e0a7 c13d c0e1 96bd 86fd d73d 2bc0 bfbc
00000070: b62e be3d 928b 8b3c f86b e63a b432 273e
00000080: 9c63 b53d 521f 593d 99e8 e03d 8938 0e3d
00000090: 93f0 2e3d a504 30bc 5afe 6c3d 8371 873c
000000a0: 2103 97bd 5a7b 1a3e 955d 19bc dfc7 143d
000000b0: ae8b 0abe 0f1b 30be 5755 18be 1c2a 90bd
000000c0: a1ee e23d 9596 8a3d a710 053e 5c91 97bd
000000d0: 426a 92bd 6d2f 873d 6f07 a83d 1520 023d
000000e0: e160 3d3c 2cfb 4d3c 2feb 803b 6425 a13d
000000f0: daba 81bd e9bb 5fbd 7aa7 51bd 7dbd 603c
00000100: 2610 863c b502 0d3e f7f2 1c3d 70b9 a53d
00000110: 0969 033d 90d7 25bd 4aa8 cc3c e2d5 8d3d
00000120: da09 30be 7618 9b3c 8dae c2bd 0d68 973d
00000130: 41b4 893b 3291 483d 8af4 883d 88e8 8ebd
00000140: c965 353d 7136 df3b 186b 823c 69c4 39bc
00000150: 0ece 38bd 8ed4 303d 66ed 63bd b59f c8bb
00000160: 2b19 53be 1e26 c0bd 6b27 a8bc 1feb d33c
00000170: 923d 11bd 0e9b a5bd d1be fc3d 306a 973d
00000180: dced a03c 3448 753d 273a 1b3d f978 c43c
00000190: b9cd 8b3d 3be6 063e 7145 093e 3dee 383e
000001a0: 3e4b 92bc ace8 c13d 1a90 dbbd 536e 563d
000001b0: ed8a 8dbc 910e 1dbd b701 17bd 94b3 90b9
000001c0: c266 6dbd 9800 8bbd e49b fcbd 27c2 9ebd
000001d0: 043c 0cbe 4532 b6bc c8ef 8b3d 9d25 ebbd
000001e0: 0c06 a1bd 55b3 af3c d964 433d 5045 51be
000001f0: 9054 343c 034e b33d 2880 f63d 13da 3e3d
00000200: d68f a0bd 3e54 133e 64fa 1f3e dac0 17be
00000210: bcb0 8dbd edbf 113e df5e 8f3d 6b55 59bd
00000220: 4040 ab3d 00ab 573c 1a9a c7bd 37c2 fb3c
00000230: a611 e63c 208e af3d 34ae a8bd 0e7e cd3d
00000240: 48c1 4c3e 1388 18be 856a e4bc eb0f 53bd
00000250: 8059 4d3d 8007 6c3c 9477 ddbd 9a19 4c3d
00000260: 55fa 0ebd 420d d2bc 8d5c 4abd d902 fb3d
00000270: 54c2 d03c 3f39 23bd 7c46 e33c 6c9f 163d
00000280: b502 093e 18e7 4fbd 2ea1 41bc 7bb5 debd
00000290: 41fd c1bd ceec 4cbe a105 e63c 1f21 b3bd
000002a0: e840 8c3c 227e 3a3e 03d1 37bc 1885 2bbd
000002b0: 2971 a0bc dd1f 15be 6767 683d e49e 483d
000002c0: 309e 20be 1c11 adbc 411d 873d b321 d13d
000002d0: 904f 99bc 27b4 f5bd a915 f53d 132c dcbd
000002e0: a044 36bd 1e2d acbd a997 9bbd 20f6 a23d
000002f0: 62d4 033e 54cf 6cbe f968 b8bb 4dd7 c73c
00000300: ef84 48bd bb5c 8a3b 8f7d f93c b53b 2dbe
00000310: ec18 c93d 8d2d 993c 25fb 3e3d 6b08 a3bd
00000320: a19c 5c3d 879f 66bc e93f e13c a2b4 393e
00000330: 1f55 1a3d 6408 f5bd 90e3 333d e4b9 463d
00000340: ddbc 6c3d cfc0 c8bd 73c2 a63c f05c 2bbe
00000350: 025b dbbb 249f 5ebd ad99 4abb c78b 03be
00000360: 1b60 343c 9efc 903c afd1 9d3c 6867 493d
00000370: 73ce fbbc 2fe7 e53d d7a1 883c 8020 683d
00000380: a3f5 083d fa21 cfbd aac5 77bd d6dc 603c
00000390: dbf4 77bd b16c e1bd 9121 d83d 57aa 7f3d
000003a0: 5ecb 4abd bf18 623d 553c 773d 05ca 10be
000003b0: 5989 19bd d9f3 353e f06c 03be 9ebe 9bbd
000003c0: 13ca 2c3d 79b2 42bc a4b2 9dbd 1e05 8e3d
000003d0: a9a0 953d 116a 653d 7e57 cb3c d0c4 853d
000003e0: bf35 243e 1525 a7bd 2937 7fbc fa0f 253d
000003f0: 2c16 263e ba76 803e ee37 953e dbfa afbc
0.0050076316 -0.0012154528 -0.18877085 -0.10147246 -0.17973171 -0.00903808 -0.06613631 -0.11803137
-0.021133883 0.0059428355 -0.18630497 -0.038147252 0.013288391 0.11003572 0.06769426 0.08031039
-0.03393262 -0.014031378 -0.047843635 0.22188841 0.034550104 -0.09446392 0.07043528 -0.027370779
0.09455848 -0.07367277 0.10546403 -0.023407063 0.09286253 0.017034326 0.0017579785 0.16327935
0.088568896 0.053008385 0.109818645 0.034721885 0.0427099 -0.010743295 0.057859756 0.016533619
-0.07373644 0.15086117 -0.009360691 0.036323424 -0.13529846 -0.17197822 -0.14876305 -0.07039282
0.11080671 0.067670025 0.12994634 -0.07400772 -0.07149173 0.066008426 0.08204543 0.031768877
0.011558742 0.012572091 0.003934286 0.0786846 -0.06334467 -0.054622564 -0.05118511 0.0137170525
0.016365122 0.13770564 0.038317647 0.0809201 0.03208259 -0.04048878 0.02498259 0.069255605
-0.17191258 0.018932562 -0.09505949 0.07392893 0.004202396 0.048966594 0.06687267 -0.069779456
0.044286523 0.00681191 0.015920207 -0.011338332 -0.045118384 0.043171458 -0.055646323 -0.006122554
-0.2061507 -0.0938227 -0.020526608 0.02586895 -0.03545911 -0.08086215 0.12341083 0.073933005
0.01964467 0.05988331 0.037897255 0.023983466 0.06826348 0.13173763 0.13405396 0.1805963
-0.017858144 0.09468207 -0.107208446 0.052351307 -0.017278159 -0.03834397 -0.03686687 -0.00027599616
-0.057959326 -0.067872226 -0.12334421 -0.07751875 -0.13694769 -0.022240767 0.06832844 -0.114817835
-0.078624815 0.021447817 0.047703598 -0.20436597 0.011006489 0.08755114 0.120361626 0.04659469
-0.078399345 0.14387605 0.1562286 -0.14819661 -0.06918475 0.1423337 0.07000517 -0.053059977
0.08361864 0.013163328 -0.097461894 0.030732257 0.028084587 0.0857203 -0.082363516 0.10033809
0.19995606 -0.14895658 -0.027882824 -0.051528852 0.050134182 0.014406085 -0.10813823 0.049829103
-0.034906704 -0.025641087 -0.04940467 0.122564025 0.025483288 -0.039849516 0.02774357 0.03677313
0.13379939 -0.050757498 -0.011818213 -0.108744584 -0.094721325 -0.20012209 0.028078856 -0.08746552
0.017120793 0.18212178 -0.011219266 -0.041874975 -0.019585209 -0.14562936 0.056739237 0.048979655
-0.15685344 -0.021126322 0.065973766 0.10211506 -0.018714696 -0.11997252 0.11967022 -0.10750594
-0.04449904 -0.08407043 -0.07597286 0.07957101 0.12873986 -0.23125964 -0.005627748 0.024394656
-0.0489549 0.00422248 0.030455379 -0.16917308 0.098192066 0.018698478 0.04662623 -0.0796059
0.05386031 -0.01407612 0.027496295 0.18135312 0.037678834 -0.11964491 0.043918192 0.048517123
0.0577973 -0.098024 0.020356392 -0.16734672 -0.0066941986 -0.054350987 -0.0030914352 -0.1284629
0.011009241 0.017698582 0.019265024 0.04917088 -0.030738091 0.112257354 0.016678734 0.05667162
0.033437382 -0.101139024 -0.06049124 0.013724526 -0.060536247 -0.11007059 0.10553277 0.062418308
-0.049510352 0.05519938 0.06036027 -0.14139564 -0.0374845 0.17768802 -0.12834525 -0.07604717
0.0421849 -0.0118833715 -0.077000886 0.0693457 0.07306034 0.056009356 0.024821993 0.0653168
0.16036128 -0.0816137 -0.015577116 0.04029844 0.16219395 0.2509058 0.29144233 -0.021481922

bottleneck.2.bias f4 [32]
00000000: ff59 f23c 9751 2b3d 9dff f93c 84f6 68bc
00000010: 0421 10bc d711 6cbc 03b1 df3c 2492 55bc
00000020: dd18 053d 5341 083c 9a9f 0d3d c0d2 04bd
00000030: a868 11bd d64b ed3c c24b 5abc 18ac e33c
00000040: 6fb4 963c 9092 0ebc bdde 053d 1e6a 90bb
00000050: 5b5d ff3c 8a1b eeba eb4b 28bd 9111 06bc
00000060: 40a8 db3c 9802 013d f5c8 eebc a64d d93c
00000070: eddb 863c e754 70bc 9c20 e13c b951 553b
0.02958393 0.041825857 0.030517394 -0.01421893 -0.008796934 -0.01440855 0.027306085 -0.013035331
0.032494415 0.008316356 0.034576036 -0.03242755 -0.0355002 0.028966825 -0.013323726 0.027792022
0.018396584 -0.008701935 0.032683123 -0.0044071814 0.031172445 -0.0018166166 -0.041088026 -0.008182899
0.026813626 0.031496614 -0.029148558 0.026526283 0.01646229 -0.01466868 0.02748137 0.0032549931

up1.weight f4 [32, 16, 2, 2]
00000000: 8bc1 963d aea2 7c3d c9a0 85be 585a d2bc
00000010: 175a e1bd 69e9 eb3d f15e a13d 0cef 9b3e
00000020: 1dac 3fbe 1ac7 a8bd c499 cd3d e773 913c
00000030: da7c bcbd 5981 943d f9e5 e53d 94da b5bd
00000040: 6c31 483b f6d4 983e 4250 9e3d 7f11 a5bd
00000050: c948 203d b7d6 25be 0dc1 9e3c 57b3 b9bd
00000060: 9e41 073e c329 ee3d a56a 26bd 86cc bbbd
00000070: b681 e03c e2d3 53be f7fd 6c3e 010d a03d
00000080: cda3 64be af06 e93d 646c 61be 91f0 b1bd
00000090: 32ed 413d 46a8 66bd 7173 3e3e f9a1 4e3e
000000a0: 91f2 ecbd 13fd 453e 2ed8 a33d 6595 083e
000000b0: 871f b7ba e20b db3d 8881 bcbd e966 9cbc
000000c0: 32cb b93d 3cd6 89be 4866 f1bc 290e 9f3d
000000d0: 5d2e fa3c d5ea 74bd a6db 8f3e 0c8d 1c3e
000000e0: 495c f5bd fc80 71be 2684 823d f202 1dbd
000000f0: cc37 be3b 1ec6 663e 13c4 c1bd 4229 4d3d
00000100: 84de 1abe a2ec 22be 115b 903d aa01 c8bd
00000110: 9e26 7dbe 0cd8 21be 723c 62be 2fe7 6b3b
00000120: 1a1a 953e 27b6 d33d 01ec 43bd 402c bbbd
00000130: 246b fb3d 5236 003c d62a 1a3e 7a74 92bd
00000140: d240 36be cb70 12be a513 42bd 6b69 8bbe
00000150: 2c64 cd3b f9ad 04bd b2f9 3f3d 970a 6f3d
00000160: ca8c e4bd 1b8e dabc 479e 1bbe 18b5 cabe
00000170: e1be da3d 5c01 e03d 105e 53be 0253 dabd
00000180: eb15 41be f569 11bd 095a 8abe 4155 e63d
00000190: 9e09 3a3d ed2c 173e bf8f ae3d 0e07 0b3d
000001a0: f515 9e3c f260 fbbd 3ddf 14bc ee10 fe3d
000001b0: c8b8 03be a711 e0bb d078 773e 111a 4c3d
000001c0: cb6f 94bd c4a4 f83d 2bf4 a03d f3cb 0a3e
000001d0: c450 c93d 887b 003d 1e32 4f3e 94dc 8fbd
000001e0: 17df 883d 4bd7 2d3e 0aa9 65bd c849 d2bd
000001f0: ab18 31be 39b4 f1bd 389d 6fbe fbb1 3ebd
00000200: 2a90 09bd ab23 87bd e9b8 00be 313f 803e
00000210: a55b 9e3b ca3b 75bc 633f 1abe f116 31bd
00000220: 8fd0 2c3d 0ac6 8b3d c50d 5f3e b670 803e
00000230: 1efb d53d 26e8 963d c731 a03e b35d b5bc
00000240: ade2 59bd a9f6 90bc b993 63be bd85 4ebe
00000250: 29dd 6bbc af46 203d 3108 9bbd 1563 efbc
00000260: d70b 283d 2953 0d3e c236 32bd 0183 18be
00000270: 30df cfbe da50 28bd 1b82 77bd 56dc febb
00000280: 4546 423e fe17 cdbb 6e03 1fbe e234 b63e
00000290: e48f d43d 65de e83d 1096 423e 30af 86bd
000002a0: 4717 153d 237a 71bc a0dd 193d 50cd 86bd
000002b0: b920 4e3d c8e8 a4bd d739 b83d be74 d8bd
000002c0: dbeb dcbc bd65 a83c c394 69bd b44b 6e3e
000002d0: 6a6e 0dbd f065 aabc 8ca4 78b9 b82e 8b3e
000002e0: adf4 c4bd 8b51 193e 5b5d 4fbd 44f2 07be
000002f0: fe14 e83d 7e33 ddbd 0e10 14bd 58c1 13be
00000300: 3a15 b9bd 7876 453d a2e3 123d d0d0 d33d
00000310: c551 de3d 38d3 0f3e 1b3e 8ebe ef23 ac3d
00000320: ea21 19be 4a7f 39be 030f 56bd cf33 c13d
00000330: 52cb 96be 6c67 66bb 0c37 873d fe32 273e
00000340: 7b0c a63d 58f4 ddbd 4768 043e 418f 6bbd
00000350: cbdd 47bc 2e5c 75bc 905b a33d 3778 c33d
00000360: f13a ffbc 2c20 fabb 899d b83e 4da8 d53c
00000370: 1e30 dabc 9621 ff3d 546d b23c b085 7abd
00000380: 9734 a3bb 0f3d 99bc ae5b e83c 9e5e 73bd
00000390: 7fe0 b53d c258 53be 1330 693d b366 603e
000003a0: 8900 ccbd 5bde 13bd d012 103e 8b81 49be
000003b0: 656f f83c f90d 23be d241 9b3d 4999 a23d
000003c0: 966c c6bc 749c dc3d 7b0f f83d 29a1 07be
000003d0: e4f9 023e 5d8b d9bc 73d5 063e 5d81 0ebe
000003e0: c524 773e 9f02 70bd 69e6 fa3d 3052 68bd
000003f0: e27c 20be 2578 a63d 4367 ac3d b629 eb3c
0.07361134 0.06167858 -0.26099232 -0.025677845 -0.110035114 0.11519129 0.07879437 0.30455816
-0.18718 -0.082411006 0.10039094 0.017755462 -0.09203501 0.072512336 0.112255044 -0.08879581
0.0030547036 0.29849976 0.07730152 -0.08059978 0.039131913 -0.16195188 0.019379163 -0.090674095
0.13208625 0.11629059 -0.040629048 -0.09169869 0.027405601 -0.20686296 0.23143755 0.0781498
-0.2232811 0.11378228 -0.22014004 -0.086884625 0.047345348 -0.05631282 0.18598725 0.20178975
-0.11569703 0.19334821 0.080002174 0.1333824 -0.0013971188 0.10695626 -0.092043936 -0.01909204
0.090719596 -0.2692126 -0.029467717 0.07766373 0.030539686 -0.059794266 0.28097266 0.1528818
-0.119804926 -0.2358436 0.063728616 -0.038332887 0.0058049913 0.22536513 -0.09461226 0.050088175
-0.15123945 -0.15910581 0.070486195 -0.097659424 -0.24721763 -0.15805072 -0.2209337 0.003599595
0.29121476 0.10337477 -0.047832493 -0.091392994 0.12276295 0.007825451 0.15055403 -0.071511224
-0.17798164 -0.1430084 -0.047382016 -0.27228865 0.006268045 -0.032392476 0.046868987 0.05835971
-0.11159666 -0.02667909 -0.15197097 -0.3959129 0.106809385 0.10937759 -0.20641351 -0.10660364
-0.18856017 -0.03550144 -0.27021816 0.1124673 0.045419328 0.14763232 0.08523511 0.033942275
0.01929758 -0.1227435 -0.009086427 0.12405573 -0.12863457 -0.006838042 0.2416718 0.049829546
-0.07247885 0.121408015 0.07859071 0.13554363 0.09829858 0.03136781 0.20233962 -0.07024494
0.06683176 0.16976659 -0.05606941 -0.10267979 -0.17294566 -0.11801953 -0.23399818 -0.046556454
-0.03358475 -0.065986 -0.12570538 0.2504821 0.004832702 -0.014967868 -0.15063243 -0.04323477
0.042191084 0.06824882 0.21782596 0.25085992 0.104482874 0.073684976 0.31287977 -0.022139406
-0.05319469 -0.017695742 -0.2222432 -0.20168205 -0.01439599 0.03912991 -0.07569922 -0.02922205
0.041026916 0.13801254 -0.043509252 -0.14893724 -0.40599966 -0.04109273 -0.060426813 -0.007777731
0.18972118 -0.0062589636 -0.15528652 0.3558722 0.103790075 0.113705434 0.19002557 -0.06576383
0.036399152 -0.014738592 0.037564874 -0.06582129 0.050324176 -0.08052212 0.08995407 -0.10569142
-0.026967933 0.020556325 -0.057026636 0.23271066 -0.034529127 -0.02080056 -0.00023712422 0.2718408
-0.09616981 0.14972512 -0.05062614 -0.13276011 0.11332129 -0.10800837 -0.036148123 -0.14429224
-0.09037252 0.048208684 0.03586162 0.10342562 0.1085544 0.14045417 -0.27781758 0.08405291
-0.14954343 -0.18114963 -0.05226041 0.0943371 -0.29451996 -0.003515686 0.06602296 0.16328046
0.08107849 -0.108376205 0.12930404 -0.057509664 -0.012198876 -0.014975591 0.079764485 0.095444135
-0.031156035 -0.0076332297 0.3605769 0.026081229 -0.026634272 0.12457578 0.021780647 -0.06116265
-0.0049806344 -0.018705873 0.028364029 -0.059416406 0.0888071 -0.20639327 0.056930613 0.21914177
-0.099610396 -0.036100727 0.14069676 -0.19678323 0.030326555 -0.15923299 0.075809136 0.07939393
-0.0242217 0.107720286 0.12112328 -0.13245071 0.12790638 -0.026555711 0.13167362 -0.13916536
0.2413512 -0.05859625 0.122509785 -0.056719005 -0.15672639 0.081283845 0.08418133 0.028706413

up1.bias f4 [16]
00000000: 386f d53c b744 08bd aa92 e43c 6357 9fbc
00000010: 4efb d7bc 7a16 e3bc 9e47 02bd c2c7 d1bc
00000020: e901 c0bc 2e94 c73c da13 ccbc 5056 e03c
00000030: df68 f33c dcb9 d73c 801d c4bc 4e33 dcbc
0.02605401 -0.033268657 0.027901966 -0.019450849 -0.026364949 -0.027720679 -0.03180658 -0.025607947
-0.02343841 0.02436265 -0.02491181 0.027384907 0.029713092 0.026333742 -0.023939848 -0.026879933

dec1.0.weight f4 [16, 32, 3, 3]
00000000: de6b c53d 2142 dd3d de4f b33d e92e 8d3d
00000010: a116 d63d a0d7 afbd 9f1b a43d 6f71 113e
00000020: fed7 5bbe 8cb4 ef3c cf49 aabd ea07 10bb
00000030: b830 54be 0e75 983d ee2b 373e e46e 9ebd
00000040: 2934 2d3d 97e9 663d 7b8d c13c 9ebb edbd
00000050: bb35 1f3e 451c 953d 9152 fc3c 4fb1 7b3d
00000060: 6b07 efbd 6518 08ba 2904 893e 6f35 a0bd
00000070: a10b b43c 834e 48be 8577 72be fd8a 6abb
00000080: 2385 00be 51a5 bebd 2804 533d 55bc bb3d
00000090: 668a 47b9 9003 493e 03e0 b7bc 0440 56bc
000000a0: 7754 7dbd 0fa3 b13c 6e66 10bd 3b70 b1bd
000000b0: 33dc 553e 7503 023a 03c0 003e 4c2b f13d
000000c0: fe65 a23d bc21 da3d fb62 983d 66da 1a3c
000000d0: 4e5b 7d3d d4ca f43c 3f38 1ebe 3625 c43d
000000e0: 13e6 dfbc 4e29 1fbe eab9 cc3d b809 7c3c
000000f0: 08b2 513e a116 123e 9b0e eebd 9650 b2bd
00000100: 1f02 f2bd 94d1 82be 85ef 84be cb49 a339
00000110: 92e2 c0bc 9a5c 4cbe f208 77bd 2266 6cbe
00000120: cb6c 69bd aa66 f2bd 9afa 2a3e 444b d33d
00000130: 6040 3e3d 2396 1a3e fb62 84be 5f08 d4bd
00000140: a69c a83d ca33 563e c7ac 463e 0350 4b3d
00000150: 1606 53bd 0941 ab3d c06b e6bc 1450 c03b
00000160: f15d 08bc 173e dd3d bba5 cc3d c734 6fbd
00000170: 5b9c b0bd ec8e 243e 19d4 23be 483b df3d
00000180: 2b3e c3bd 62bd debc 77e4 dbbd 7efe 74bd
00000190: 6d5a 82bd a571 a63e 2457 09be 5964 223e
000001a0: 6b0d 813c af4d 893e 7f5a acbd b8dc 7e3c
000001b0: 7393 76bc 5193 c6bd 9dd9 3bbe 769e 1bbb
000001c0: fed9 553b d1db bf3d 178e 943c ab8f 7c3d
000001d0: a121 dbbd 8e63 0f3d 0f41 9ebe ae4b 3cbd
000001e0: b07e f0bc 07de ecbc 1887 e23b be58 4cbe
000001f0: 53d9 453d d65a f53d 70d8 babc f5e9 5a3b
00000200: 9b05 6c3d f3d0 4ebe 82f9 25bd ea21 cf3c
00000210: 5a05 213e a52e 333d 3183 8e3a 9151 083e
00000220: b9fb 4dbe a9cf 89bd b034 4c3d 630d 16bc
00000230: 5a38 e7bc a8db 7e3c e841 bd3e 3956 b23d
00000240: 2d4e c8bb 2332 ec3d 2caa 26bd c7d2 ebbc
00000250: 970b 603c 35e5 88bd c20a 943d e8a3 473d
00000260: 2838 23be c675 653d f097 28be 43ca d63d
00000270: 27a5 7cbd 01ee d5bd 64cd f23d c3f3 b93d
00000280: 366a 47bd c68d 2fbd fa67 c53c 535a 3c3e
00000290: 65ef a43d 8477 843d 033a 803e 5f1b 2e3e
000002a0: 5faf bc3c 5fbc 87bc 4a2a 1dbd 641a 40bd
000002b0: a405 923d 17bb 1bbc fb3f 6f3c 7c3d d13d
000002c0: 3083 723c 884a 86be 4d98 983d 6a01 b4bd
000002d0: 6d69 da3d b5a9 8abd b337 fdbc d9be a83d
000002e0: 0f3b 4c3d d7f6 633e e3a2 abbd f7d6 86bd
000002f0: a7da 62be 2e8d d8bd 90c8 73be 3554 5a3d
00000300: 70b7 2dbd 9832 67bb 7ae2 ebbd 0b9f 923e
00000310: b708 17bd 2ce9 66bd c456 8abd a413 45be
00000320: f327 33be d3e6 30bc 972f 03be f065 90bd
00000330: b04b 0cbd c467 fb3d fc5d 2b3d f7e9 d1bd
00000340: 702d 05be ef51 1abe e6af 22be 75d0 213e
00000350: 3312 e5bd 374f cabc 203f 283e e417 503d
00000360: 991c 11be 35da 86bd 2206 eebd 96d9 d53c
00000370: 33b4 06be 2bf5 153e 4e69 bdbd 93db 13bd
00000380: ec8f 65bc 04c9 29be 3da8 d2bc c55b 953e
00000390: 30fa 2d3e 95f0 c53d 3f17 203c c79c 2e3c
000003a0: f888 073e 7935 353d 9d1b abbe fa28 a7bd
000003b0: 2bf0 203e 6738 33be 8acd f63c 48c7 09bd
000003c0: 8032 e83d 05fa 8dbe 02fd 593d 39bb 72be
000003d0: 0b10 103d 23e0 813d 23ac 863d 52d7 e4bd
000003e0: 5bcd a8bd a143 cd3d 5ab3 943b 4dc9 85bc
000003f0: b153 b0bd 404f 743d 7914 a33c 497c 10be
0.09639715 0.10803629 0.08755468 0.06893713 0.10453535 -0.08586049 0.08013081 0.14203428
-0.21469113 0.029260896 -0.08314859 -0.0021977373 -0.2072171 0.074442014 0.17887852 -0.077359945
0.042286072 0.056375112 0.023627033 -0.11608051 0.1554784 0.072807826 0.03080109 0.06144839
-0.11671337 -0.00051916233 0.26760986 -0.07822692 0.021978201 -0.195612 -0.23678406 -0.003578841
-0.12550788 -0.09308875 0.051517636 0.09166781 -0.00019029676 0.19630265 -0.022445684 -0.013076786
-0.06184813 0.021684198 -0.035253935 -0.086639844 0.2088478 0.00049596216 0.12573247 0.11775836
0.0792961 0.106509656 0.07440754 0.009451484 0.061854653 0.029881872 -0.15451144 0.0957741
-0.027331388 -0.155431 0.09996398 0.0153831765 0.2047807 0.14266445 -0.116238795 -0.08706777
-0.11816811 -0.2555052 -0.2596399 0.00031144763 -0.023545537 -0.199572 -0.060311265 -0.23085836
-0.05698852 -0.11835988 0.1669716 0.1031709 0.04644811 0.15096335 -0.25856766 -0.10353159
0.08233003 0.20918193 0.19401847 0.049636852 -0.051519476 0.08362014 -0.028127551 0.005868921
-0.008323179 0.10802858 0.09992548 -0.05839994 -0.086235724 0.16070145 -0.15998878 0.10899979
-0.09533342 -0.027189914 -0.107369356 -0.059813015 -0.063649036 0.3250858 -0.13412148 0.15858592
0.015753468 0.2681708 -0.08415698 0.015555553 -0.015049803 -0.09696067 -0.18344732 -0.0023745573
0.0032631154 0.093680985 0.01813416 0.06166045 -0.106997736 0.035007052 -0.3090901 -0.04597061
-0.029357284 -0.028914465 0.006913077 -0.19955727 0.04830296 0.11980216 -0.022808284 0.003340361
0.057622533 -0.20196895 -0.040521152 0.025284726 0.15724698 0.043745656 0.0010872838 0.13312365
-0.20115556 -0.06729061 0.049854934 -0.009158465 -0.028225113 0.0155553 0.36964345 0.08707852
-0.006112835 0.11533 -0.040689632 -0.02878703 0.013674638 -0.06684343 0.072286144 0.048740298
-0.1593939 0.05602052 -0.1646421 0.10487797 -0.06168094 -0.10445786 0.118555814 0.09079697
-0.048685275 -0.042859815 0.024097431 0.18393831 0.080534734 0.06468108 0.2504426 0.17002629
0.023032842 -0.016569315 -0.038370408 -0.046900168 0.07129982 -0.009505055 0.0146026565 0.10216805
0.014801785 -0.26228738 0.07450924 -0.08789332 0.106646396 -0.0677065 -0.030910349 0.08239526
0.04986101 0.2226213 -0.083806776 -0.0658397 -0.22153722 -0.10573803 -0.23806977 0.053302962
-0.042411268 -0.003527796 -0.11517806 0.28636965 -0.036873545 -0.056374714 -0.067548305 -0.19245774
-0.17495708 -0.01079722 -0.12811123 -0.07050693 -0.03425187 0.12275651 0.041837677 -0.102497034
-0.13005614 -0.15070318 -0.15887412 0.15802176 -0.11185112 -0.024695976 0.1643033 0.050804034
-0.14171065 -0.065845884 -0.116222635 0.02610473 -0.13154678 0.14644305 -0.09248601 -0.036098074
-0.014011364 -0.16580588 -0.025714988 0.29171577 0.1698997 0.09665028 0.009771167 0.010657496
0.13235843 0.04424045 -0.33419505 -0.081621125 0.15716617 -0.17501985 0.030127306 -0.033637315
0.11337757 -0.27729812 0.053219803 -0.23704232 0.03517155 0.06341579 0.06575801 -0.111738816
-0.082422934 0.10022665 0.004537982 -0.01633134 -0.08609713 0.05964589 0.019907223 -0.14109911

dec1.0.bias f4 [16]
00000000: b8f4 bb3c ee29 c43c e57e e43c 8cf6 f13c
00000010: 4125 abbb b9b6 fbbc 3b89 cc3c afe6 d93c
00000020: 70ca 73bc 9d40 443b 0692 07bc e743 73bb
00000030: d092 80bc e76c ab3c 1b40 99bb a04d db3c
0.02294384 0.023945775 0.02789254 0.029536508 -0.005222947 -0.030726777 0.02496778 0.026599256
-0.014879808 0.002994574 -0.008274561 -0.003711933 -0.015695006 0.020925952 -0.0046768314 0.026770413
