sampling-based_planning_framework/checkpoints/checkpoint_epoch_44.pth (torch, 386162 bytes, 75 tensors)

enc1.0.weight f4 [8, 1, 3, 3]
000000 1b a6 c9 bd aa 28 d4 3d cf 28 83 3d 44 3e 10 3e
       -0.09846135 0.103593186 0.06404268 0.14086252
000010 bd 90 e9 bd a5 73 ac 3d b4 03 08 3d 08 22 35 be
       -0.1140456 0.08420495 0.033206657 -0.17688763
000020 ec ca 8c bd 2b 07 1e 3e f0 9e 02 be c8 c6 50 3d
       -0.06874642 0.15432422 -0.12755942 0.050970823
000030 5d 52 68 3e e7 ce 85 bd 5e a1 0e 3e 6a e1 6f bd
       0.22687669 -0.06533604 0.13928744 -0.05856458
000040 10 e5 1d 3e ea f5 59 bd 33 4d 2f 3e 60 21 50 be
       0.15419412 -0.053213038 0.17119293 -0.20325232
000050 93 76 25 be ae ce 22 3e 20 6f 9f bd d0 27 16 be
       -0.16158514 0.15899155 -0.07784867 -0.14663625
000060 82 6a b9 be 1b 98 43 be f3 0d b4 bd 29 c6 5c 3d
       -0.36214072 -0.19100992 -0.08791723 0.053899918
000070 36 cd b3 3c 63 13 2e be bc a1 15 3d 32 cb 15 3e
       0.021948438 -0.16999583 0.036531195 0.14628294
000080 37 13 a7 3e 61 6c 6a bc b6 8a 80 b7 62 ba 04 3b
       0.32631847 -0.014308066 -1.5323381e-05 0.0020252694
000090 f0 6c b6 bd 2d f1 3a 3d 8c f8 8f bd 6b d8 8a be
       -0.08907497 0.04564016 -0.070298284 -0.2711824
0000a0 7d d2 62 3e c3 51 43 bd 3f 94 54 bd c1 1e dd 3d
       0.22150607 -0.047685396 -0.05189919 0.107968815
0000b0 63 58 9f be 5d ee 57 3e ff 68 6e 3e 22 79 0a bc
       -0.3112212 0.21087022 0.2328224 -0.008451732
0000c0 8f 53 c1 3e a7 4d 55 bd 9c cc c6 bd 03 65 94 3d
       0.37759063 -0.05207601 -0.09706995 0.07245829
0000d0 1b 6b 6e be 82 ad 81 be e3 7a a2 3c 3e be 22 3d
       -0.23283045 -0.25327688 0.019833988 0.03973221
0000e0 88 40 c2 3d 27 03 f8 3d 92 62 c8 bd 13 ca f9 3e
       0.094849646 0.12109976 -0.09784426 0.48786983
0000f0 78 3b 00 bd 30 3b db 3d bb 52 d7 3d 1e d2 f1 3d
       -0.031306714 0.107046485 0.105138265 0.11807655
000100 68 06 ae be bd 82 9e 3d dd dd 10 be d7 06 a1 bd
       -0.33989263 0.0773978 -0.14147134 -0.07862633
000110 14 03 65 3e 2c ec 7e 3d 7a 3d ec bd ed 5b 40 3d
       0.22364455 0.06223695 -0.11535163 0.046962667

enc1.0.bias f4 [8]
000000 6b 87 0d 3d 53 6b 40 3b eb ce 01 3d 61 1c 8a ba
       0.034552973 0.0029360845 0.031691473 -0.0010537022
000010 93 2f 43 3d b1 21 53 ba 36 5b 6a 3b bf 6e 50 3a
       0.047652792 -0.00080540316 0.0035759932 0.0007951073

enc1.2.weight f4 [8, 8, 3, 3]
000000 1e f2 85 3d 7d 73 89 3d 39 76 8b bd 49 5f 76 be
       0.06540321 0.06711481 -0.068096586 -0.24059786
000010 88 08 fb 3e fc cd 12 3e 02 28 14 bd 44 c0 4a bb
       0.49029946 0.1433639 -0.036170967 -0.0030937353
000020 df 99 9f bc c8 a7 b1 bd ad c4 e9 bd 73 8d e5 bd
       -0.019482551 -0.0867458 -0.11414466 -0.1120862
000030 0b e0 88 bd ef 03 e7 bd 83 0e 31 3e 51 1f 39 3e
       -0.06683358 -0.11280047 0.17290692 0.18078353
000040 b7 de 25 3e ff 88 8e be 39 d5 7a 3d 29 18 2e 3e
       0.1619824 -0.27838895 0.0612385 0.17001404
000050 f1 4e 0c 3e 04 2d f7 bd 6d ff f4 3d 33 7a cf bd
       0.13701989 -0.12069133 0.11962781 -0.101307295
000060 25 cb 5a be 77 0e f2 3d ca 4e 06 3d c9 29 76 3d
       -0.21366556 0.11819165 0.032789983 0.060098443
000070 19 1d 7b 3d 4d e2 70 be 1f 60 3d 3e fb d6 52 3b
       0.061307047 -0.23523827 0.18493699 0.0032171595
000080 33 e6 a7 3c f0 40 c6 bc 55 1a 8b 3c dd b5 33 be
       0.02049551 -0.024200886 0.01698033 -0.17549844
000090 fa 0b 04 3d 87 15 8a 3d 42 59 25 3e d7 97 41 be
       0.032237984 0.06742387 0.1614733 -0.18905579
0000a0 30 3b 64 3d e9 3b 5e 3d 7e 39 1a 3c 78 9f 1d bd
       0.055720508 0.054256354 0.009413121 -0.03848216
0000b0 01 47 1a 3e a2 30 a6 3c 33 1a a3 be e5 28 a2 3d
       0.15066148 0.020286862 -0.31855926 0.07917956
0000c0 99 54 ea ba 5b 68 9b 3e b0 e9 3c be 57 96 22 3e
       -0.0017877995 0.30353054 -0.1844852 0.15877663
0000d0 5e 57 34 be 40 e7 0c be a8 76 a9 bd ff 82 21 3e
       -0.17611453 -0.1376009 -0.08274585 0.15772627
0000e0 62 05 c2 bc 9f e7 1a 3e 6f c1 a3 bd d2 ad eb bc
       -0.023684207 0.15127419 -0.07995879 -0.028769407
0000f0 16 22 68 3d 4a ba e8 be f3 9f 54 bd 22 58 6b bc
       0.056673132 -0.45454627 -0.051910352 -0.014364274
000100 54 69 7f bc c6 f0 6e 3e 8b 64 80 bd f8 9b 16 bd
       -0.015589077 0.23334035 -0.06269177 -0.036769837
000110 96 84 64 3d 4c bd c7 3d d7 c9 f8 bc bb 39 9e bd
       0.055790506 0.097529024 -0.030369682 -0.07725855
000120 31 0f 4a be cc 91 b3 3c 97 e9 b6 3c 91 22 04 3e
       -0.19732358 0.021920107 0.022328181 0.12903811
000130 34 35 17 3e 8f cd e3 3d 4a fe 0d be 29 9a 39 3e
       0.14766389 0.111231916 -0.13866535 0.18125214
000140 15 35 62 be f1 6f c4 3b 31 ec 84 3e 47 73 ef bd
       -0.22090562 0.00599479 0.2596145 -0.11691909
000150 bc 25 2a 3e 26 7e 56 bc 6c f9 13 3e 68 c1 98 bc
       0.16615957 -0.0130916 0.14450616 -0.01864691
000160 4e 17 92 be f0 0c 1f 3e 18 91 cb 3a a6 8b 97 be
       -0.28533405 0.15532279 0.0015530912 -0.2959873
000170 3a ff 85 3e cf 39 99 bc 97 55 20 3e d4 f7 ed 3d
       0.26171285 -0.018704323 0.1565765 0.11619535
000180 e9 8a 17 3c f1 b0 19 3e 69 2d 04 be 3b f9 94 bb
       0.009249427 0.15008904 -0.12907948 -0.004546312
000190 8b ed 72 bd 66 30 59 3e 64 97 e2 3e a5 5c 30 bd
       -0.05930857 0.21209869 0.44256127 -0.043057103
0001a0 8f c6 e0 3b d2 81 95 3d aa 39 0c 3f ee 57 c8 3d
       0.0068596075 0.07300152 0.5477549 0.09782396
0001b0 46 09 8b be f4 2d 1a 3d b0 77 07 bd 75 49 ac be
       -0.27155513 0.03764148 -0.033073127 -0.33649793
0001c0 e0 9e 17 3e ec a1 44 be c5 d6 6f bd 19 9c 1f 3e
       0.148067 -0.19202393 -0.05855443 0.1558689
0001d0 7c c9 ae 3e cc 92 95 bd 00 97 f5 bd 9e 9c 8e 3b
       0.34138095 -0.0730339 -0.119916916 0.0043521663
0001e0 a1 55 71 3d a3 20 6e 3e a4 43 00 3e 0d 4a 43 3c
       0.058919553 0.23254637 0.12525803 0.011919511
0001f0 17 25 5c bd 03 c1 af bc ac 1d 74 3e 49 a7 fa bb
       -0.05374631 -0.02145434 0.23839444 -0.0076493365
000200 2f 40 92 be e3 b2 93 3e e9 6b 49 3e e8 8f c2 bd
       -0.28564593 0.28847417 0.1967007 -0.09500104
000210 93 6d d3 3e 63 e1 58 3e 87 4a 29 3d c3 8a af bc
       0.41294536 0.21179728 0.04133084 -0.021428471
000220 a0 37 aa 3e 98 40 d5 3d ae fb 8e 3e 4a 06 88 3e
       0.33245564 0.10412711 0.2792639 0.26567298
000230 a8 bf 27 3e e4 37 22 3e cb 8b b9 bd 85 3b eb 3d
       0.16381705 0.15841633 -0.090598665 0.11485962
000240 a9 07 d4 3d 63 5b 40 3e 59 79 e9 3c c7 7f 4f 3e
       0.103530236 0.18784861 0.028500246 0.20263587
000250 5e b3 c9 3d f2 6e d7 bd 77 78 d1 3d 45 eb 08 3f
       0.09848665 -0.10519208 0.10228055 0.5348399
000260 d6 f4 08 be f1 ce b5 be 17 96 92 bd 9c 7e a9 3d
       -0.13374647 -0.35509446 -0.071575336 0.08276102
000270 f6 15 67 3e a5 a5 f2 bc 0b 39 58 bd e1 6b 05 3e
       0.22566971 -0.029620001 -0.052788775 0.13029434
000280 8f ec df be 9d 6a 31 be b9 e6 60 be c8 a5 ab bd
       -0.43735167 -0.17325826 -0.21963014 -0.0838123
000290 8d 30 b2 be cb ff b1 3d 72 a0 99 3d 60 a8 84 3e
       -0.34802666 0.08691367 0.07501306 0.2590971
0002a0 ed 5b 58 3d d8 d3 32 3e 0b e5 a3 bd 85 e2 a0 3e
       0.052822042 0.17463624 -0.08002671 0.3142282
0002b0 5f 37 bf 3c 1a ec 9b bc 9d 7b 93 bd e9 77 a0 3d
       0.023341833 -0.01903348 -0.07201312 0.07835371
0002c0 4a 4a b9 3d fa 27 43 be 1d 8a 5a be 41 fc 79 bd
       0.09047373 -0.19058219 -0.21341749 -0.061031584
0002d0 f9 3c 4f 3e 81 0a 14 be 50 0a b9 3e 28 e0 75 be
       0.20238103 -0.14457132 0.3614068 -0.2401129
0002e0 1b c5 5c bd 58 dd 12 3e 8c f7 55 be 9b ca 94 bb
       -0.053898912 0.14342248 -0.20895213 -0.004540754
0002f0 42 31 cc 3a 37 47 fb bd 4e 12 b4 be 61 df 99 3e
       0.0015578645 -0.122694425 -0.35170215 0.30053237
000300 d6 5a 05 3e c2 0d 97 be 46 99 99 be c4 29 6a 3d
       0.13022932 -0.29502684 -0.2999975 0.057168737
000310 e8 99 b3 be cd d7 1c 3d fa 8f ae 3d f0 a5 ca bc
       -0.3507836 0.03829174 0.08523555 -0.024737328
000320 c2 7e 02 be 71 58 93 be c6 86 a7 3e 59 7a 82 3d
       -0.12743667 -0.28778413 0.3272001 0.06370992
000330 b7 f1 59 be 2d 59 b5 bd 52 ce 38 3e a7 27 d0 3d
       -0.21283613 -0.088548996 0.18047455 0.10163813
000340 29 26 7c bd b1 5d 36 bd 4d 88 8c 3e 51 d0 c0 bd
       -0.06155983 -0.044522945 0.2744774 -0.09414733
000350 15 ef d8 bd dc f7 df 3d ac 1a f8 3d 7d af 29 be
       -0.10592476 0.10935947 0.12114462 -0.1657085
000360 5e 4d df 3c 8d 6b 7b 3e 37 ab 36 bb c6 a4 5a bd
       0.027258571 0.24552746 -0.0027873048 -0.053379796
000370 f5 75 ba 3c db ac 4f be e4 6b 30 3e 1d 84 9e 3c
       0.022761324 -0.20280783 0.17228657 0.019350106
000380 90 f9 03 3d 26 8b b5 be 55 08 ad be 9a fc 57 be
       0.032220423 -0.35457724 -0.3379542 -0.21092454
000390 f8 e3 e7 bc d6 f8 66 be 5a 7b b9 bd f5 bf 88 3e
       -0.028306946 -0.22555861 -0.090567306 0.26708952
0003a0 be ab 1c 3e 79 60 ca 3d 77 29 c5 bc bb 63 73 3d
       0.1529989 0.09881682 -0.024067624 0.059421282
0003b0 a9 c9 44 3d b7 ff ba bd 00 66 df bc 28 a0 c9 3d
       0.04804388 -0.09130805 -0.027270317 0.098450005
0003c0 7f c9 4e 3d f8 27 4c 3e 1b 0d 4d be e7 6d 24 bd
       0.05048513 0.19937122 -0.2002453 -0.040143874
0003d0 10 67 f7 3c 74 03 e3 3d fe 46 88 be ca 92 20 be
       0.030200511 0.11084643 -0.26616663 -0.15680996
0003e0 1f ef 45 bc 92 d5 81 3d 45 bc 1b 3e 0d 06 e2 3d
       -0.012080937 0.063395634 0.15208538 0.1103631
0003f0 9c c7 bb 3e 17 34 4e bd e9 c6 00 be 4c a3 64 be
       0.36675727 -0.050342645 -0.12575878 -0.22327918

enc1.2.bias f4 [8]
000000 d7 b2 d4 bc 9a f8 a4 ba 48 a5 19 3d a9 74 1f bc
       -0.025964184 -0.0012586296 0.03751114 -0.009732404
000010 46 25 4d 3b 15 e0 09 3d 41 41 ed 3c b2 44 e9 3b
       0.0031302734 0.033660967 0.02896178 0.007118785

enc2.0.weight f4 [16, 8, 3, 3]
000000 ba 5b 88 3c 79 87 2b bd 26 81 5a bc d7 5e 03 be
       0.016645301 -0.041877244 -0.013336455 -0.12829147
000010 6b ee 57 be f4 86 c0 3d 46 c0 80 3d 94 f5 b7 bd
       -0.21087043 0.0940074 0.06286673 -0.08982387
000020 98 92 87 3e 89 59 80 bb 96 5c 45 3d d2 05 07 bd
       0.2647903 -0.0039169234 0.048184 -0.032964535
000030 60 06 61 be 94 b2 99 3d f6 66 2b bd 10 04 a7 bd
       -0.21975088 0.07504764 -0.041846238 -0.08155072
000040 a1 81 21 bd 87 4f 3b 3e c2 a6 51 3b 18 93 f3 3d
       -0.039430264 0.18292056 0.0031990265 0.1189329
000050 4c ff 33 be 87 c7 36 bd 95 70 93 bc 02 b5 07 be
       -0.17577857 -0.044623878 -0.01799802 -0.13252643
000060 6e 74 bc 3d 6d ef 8d 3e 65 96 e2 3d b9 0e 4d bd
       0.09201895 0.2772173 0.11063842 -0.05006287
000070 3d 3b d6 3d c3 26 e3 3d ef e1 a3 bc 3c af 23 be
       0.104605176 0.110913776 -0.020005194 -0.15984815
000080 b8 9a 4c bc f4 d0 3a be 89 07 24 be 53 66 ad bd
       -0.01248806 -0.18243772 -0.160185 -0.084667824
000090 34 d6 21 3e 96 d5 3a bd 70 cc 44 be 05 50 ff bc
       0.15804368 -0.045613848 -0.19218612 -0.031166086
0000a0 48 6a 1c 3d 02 ea 25 bd 88 b7 00 be ee 6a ee bd
       0.038187295 -0.04050637 -0.12570012 -0.11641489
0000b0 19 d8 86 3d 04 96 73 3d 0f be 5b 3d a0 50 0e 3e
       0.06584186 0.059469238 0.05364805 0.13897943
0000c0 a0 15 64 3e ce 6a 08 bd 81 b6 13 3e cc 0e 34 3e
       0.22273874 -0.033304982 0.14425088 0.1758377
0000d0 0d 70 18 bd 16 62 ec 3d 58 67 3f 3e 77 2d 5d bd
       -0.037216235 0.11542146 0.18691766 -0.053998437
0000e0 06 df 9d be bc f8 33 be f3 82 50 3e 8a b8 81 bd
       -0.30834216 -0.17575353 0.20362453 -0.06334026
0000f0 1e 2b c0 3d 66 34 5c 3e ac 7c 3f 3e 22 b2 04 3c
       0.09383224 0.21504363 0.18699902 0.008099111
000100 56 6e 31 be 80 5a cb 3c 4a db a9 bc 5f f8 8d bb
       -0.17327246 0.024823427 -0.020734448 -0.0043325867
000110 95 d6 e9 3d 1d a1 d1 bd 8c df 29 be bf 23 94 3b
       0.114178814 -0.10235808 -0.16589183 0.004520863
000120 5c c0 6d 3c 5f 20 43 3d d6 7b b2 bc 3a 5d 4b bd
       0.014511194 0.047638293 -0.021787565 -0.049649455
000130 f6 5b fd bc d4 bc e6 bd 9e 27 92 bd ad b8 b6 3c
       -0.03092764 -0.11266485 -0.07136463 0.022304857
000140 ac 4a f2 3d 09 c0 41 bd 22 17 6a 3b 9a a7 95 3e
       0.11830649 -0.04730228 0.0035719355 0.29229432
000150 8d a7 ec 3b ce 6e da bd 94 ac 10 3c 76 54 3b bd
       0.007222122 -0.106656656 0.008830208 -0.045734845
000160 96 a1 6f bb 56 42 da bd a6 eb 45 3d 4e e4 43 3d
       -0.0036564819 -0.10657184 0.048320435 0.04782515
000170 41 87 21 3e e5 4b b0 3d 23 3e 11 3d 87 7c 9a 3d
       0.15774252 0.08608226 0.03545965 0.07543283
000180 ff 35 46 be 7c fd eb 3d 98 23 18 3d 93 2a bc bc
       -0.19356535 0.11522958 0.03714332 -0.02296952
000190 6a 52 b2 bd f9 02 b2 3d 5e 9f 3f be 59 5e 78 3d
       -0.087071255 0.08691973 -0.18713138 0.060636852
0001a0 8b 32 0a 3b 98 7a f3 3d 14 90 6e be d5 bd db 3c
       0.0021087255 0.11888617 -0.23297149 0.026823917
0001b0 03 33 0d 3e 52 2c 65 bd e3 8b cc bc 9c 27 01 bd
       0.1378899 -0.05595047 -0.024969047 -0.031531915
0001c0 cb 3e c5 3d 14 89 80 3d bc ea 2f 3e 86 24 79 3e
       0.096311174 0.062761456 0.17179388 0.24330339
0001d0 04 f7 49 3c 8c c4 75 bd 2b 6e b4 bd e2 7e 39 3e
       0.0123269595 -0.060001895 -0.08810075 0.18114808
0001e0 2a 13 33 3e 34 7a 22 3e 30 c4 96 3d b4 ba 05 be
       0.1748778 0.1586693 0.073616385 -0.13059503
0001f0 04 13 cb 3d bc 7e 01 3e 11 91 53 3e 11 fb c8 3b
       0.09915736 0.12646002 0.20660807 0.006133445
000200 f5 49 92 3d 32 db fb 3c 0b df 4a 3e a9 f5 f9 bd
       0.071430124 0.030744169 0.19811647 -0.12205059
000210 b7 e2 8f 3c 67 74 ec bc 0c 9d 49 3e 74 8d 85 be
       0.01756416 -0.028864099 0.19688815 -0.26084483
000220 4e 66 17 3e 0b 2e 52 be 4c 16 2f be 8c ff 15 3d
       0.1478512 -0.20525376 -0.1709835 0.03662066
000230 25 0e ca bc 5e 7b 3c 3d 85 17 88 ba 7a a0 c4 bd
       -0.024664948 0.04601609 -0.0010382986 -0.09600921
000240 4c 87 82 bd 34 04 4b bc cb c3 6f be a6 28 4e bd
       -0.06373462 -0.012391139 -0.23414533 -0.050331734
000250 01 d0 c4 3d c5 65 4f 3e e8 a4 82 3e 72 72 fe 3d
       0.09609986 0.20253666 0.25516438 0.124241725
000260 0f e7 41 be a2 2e 67 bd 6d 47 1a be c4 59 28 be
       -0.18935798 -0.056440957 -0.1506631 -0.16440493
000270 83 48 f3 3d 1e 83 3f 3e 33 ed 12 bd a9 81 2d 3d
       0.11879065 0.18702361 -0.035870742 0.04235998
000280 06 45 bd bd 3a b6 64 be 32 e6 05 3e 2c 0e 8c 3c
       -0.09241681 -0.22335139 0.13076094 0.017096601
000290 f3 b7 3e be 4c 03 cc bd 85 47 7d 3d 97 85 20 3e
       -0.18624859 -0.09961566 0.061835784 0.1567596
0002a0 4e 64 64 bd b3 57 09 be ff e9 bb 3d 0e c2 32 3e
       -0.05575972 -0.13412361 0.091754906 0.17456838
0002b0 91 00 98 bb 9d 65 04 3e 46 55 19 3e 08 68 bc 39
       -0.0046387394 0.12929387 0.14973935 0.00035935664
0002c0 92 78 4f bd 7a 5c 3b 3e 13 53 8b bc 99 b1 b8 bd
       -0.050652094 0.18296996 -0.017007386 -0.09018249
0002d0 9e 53 a9 3d c6 59 a5 3d 97 ff e3 3d c3 89 53 3e
       0.08267902 0.080737635 0.11132734 0.2065802
0002e0 da 99 a9 3d 74 91 c1 3e f4 e6 9a 3e 93 22 28 3e
       0.08281298 0.37806284 0.30254328 0.16419439
0002f0 de 7b 8a 3d a2 04 ce bd 40 99 1c 3e b1 38 10 be
       0.06761907 -0.100594774 0.15292835 -0.14084126
000300 1b 98 ba bd c2 0a 8c bd 2a e9 37 3e 39 37 6f 3e
       -0.09111043 -0.068379894 0.17960039 0.2336091
000310 6f 21 99 3d a3 43 d3 bd de cf b6 3d 6b 0e 96 3d
       0.0747708 -0.10315635 0.08926366 0.07326969
000320 29 da d5 bc eb a3 69 3d 89 f0 1f 3e bc 67 9a 3d
       -0.026105003 0.05704109 0.156191 0.07539317
000330 0f f4 e8 3d d2 b0 c9 3d 04 2c 35 3b 41 eb 34 3e
       0.113746755 0.09848179 0.0027644644 0.17667867
000340 0a 0d 31 be 1e 85 d1 3c 71 da 12 3e a1 83 31 bc
       -0.1729013 0.02557617 0.14341141 -0.010834605
000350 ca 3b 7f 3e ca 1c 28 be b6 08 30 3d 5f 93 0f be
       0.24925151 -0.16417232 0.042977057 -0.14021061
000360 50 44 a8 bc 2d e0 8c 3d 07 82 30 3e fb 0f b1 bc
       -0.020540386 0.06878696 0.17237101 -0.021614065
000370 a0 2f b7 3d 2d 0a 8d 3e df 2b 28 bc 32 84 79 bd
       0.089446306 0.27546826 -0.010264366 -0.060917087
000380 da c2 81 bd 41 a7 aa be 4c 71 f1 bd 27 6f bd 3c
       -0.06335993 -0.3333073 -0.11789188 0.02312429
000390 9a 72 f6 bc 44 f6 3b be 29 31 12 3d 09 48 1b 3e
       -0.030083943 -0.18355662 0.035691414 0.15164198
0003a0 00 3e 36 bb ce fd b9 3d cb d7 65 3d 20 10 8c bd
       -0.002780795 0.090816125 0.056114 -0.06839013
0003b0 1b 3f c7 bd 0c f0 91 bd 10 c7 c4 3d 47 63 00 be
       -0.09728833 -0.071258634 0.09608281 -0.12537871
0003c0 11 5a 19 3d 64 f6 37 3c 20 a4 d2 3c a6 44 c2 bc
       0.03743941 0.011228178 0.025713027 -0.023714375
0003d0 14 52 f8 bd 02 3d 75 3e 18 05 18 bc 2a a2 61 bd
       -0.1212503 0.23949054 -0.009278558 -0.055086292
0003e0 de 60 a0 3d 69 dd ae bd 61 6c 6a 3e 3f 91 f9 3d
       0.07830976 -0.085383244 0.22892906 0.121859066
0003f0 ab 5b 8f be 07 a4 65 be 43 64 07 3d 2e 9f c5 3c
       -0.27999625 -0.22425853 0.0330546 0.024123754

enc2.0.bias f4 [16]
000000 ae a6 06 3d bf 5d 07 3d 1c c7 7f bc 60 3f 2e 3d
       0.032873802 0.033048388 -0.015611436 0.042540908
000010 f0 d6 ff 3b 06 a0 15 3d f1 89 ae bc 07 c7 df bc
       0.007807605 0.036529563 -0.02130601 -0.027316583
000020 9f c0 dc 3c 8c 3c 15 3c be 15 00 3d 75 e3 13 3d
       0.026947318 0.009108674 0.031270735 0.03610559
000030 e7 31 f9 3c 9c 0c e3 3c 55 5d b0 3c d4 ab 0f 3d
       0.030419303 0.027715974 0.02152888 0.035075977

enc2.2.weight f4 [16, 16, 3, 3]
000000 ac ee 4c bb ff e6 35 3d b2 65 aa bc aa 68 e7 bd
       -0.003127019 0.04440975 -0.020800445 -0.1129926
000010 51 60 13 3e 09 d5 5a 3d 21 cf 5b bd e2 9b ac bc
       0.1439221 0.053425822 -0.05366433 -0.021070424
000020 e1 dd 17 3c 51 b2 fe bd d3 37 69 3e e8 17 e2 bd
       0.009269209 -0.12436355 0.22775201 -0.11039716
000030 a5 9d 38 be d4 65 32 3d 6c ce 3c 3e 5d bd 6e be
       -0.18028887 0.043554142 0.18438119 -0.23314424
000040 8f b7 01 bd e8 18 df bc 24 a3 e1 bd f0 d2 7e bd
       -0.031669196 -0.027233556 -0.11017445 -0.062212884
000050 33 d1 04 be d9 a9 c7 bd 00 ee 9f 3e 02 08 34 3d
       -0.12970428 -0.09749193 0.31236267 0.04395295
000060 f5 74 2b bd 92 2d 1b 3e da 1f 9b bd 64 20 56 3e
       -0.041859586 0.15154102 -0.075744346 0.20910794
000070 fa ac 19 3e 70 b9 5a bd 17 81 23 3e fe 06 2c 3e
       0.15007392 -0.053399503 0.15967213 0.16799542
000080 ac 93 d6 bd 08 67 a0 bd 29 05 a4 be 46 f8 3b 3e
       -0.10477385 -0.07832152 -0.32035187 0.18356428
000090 6a 0a 18 bd 09 59 65 bd 53 4d 0b 3e e2 6a 2c be
       -0.037119307 -0.055993114 0.13603716 -0.16837648
0000a0 0b 2c f3 bd 6f bc 63 3e 8d f9 91 bd de 13 cc be
       -0.11873635 0.2223985 -0.07127676 -0.39858907
0000b0 72 ec b7 bd fd e0 40 3c 5a f4 0c bd ce 0a 01 3e
       -0.08980645 0.011772391 -0.03441272 0.12601778
0000c0 a7 a6 c7 3c f0 4d 81 bb 88 66 e7 bd 8d 7f a9 bd
       0.024371458 -0.0039460585 -0.11298853 -0.082762815
0000d0 1c c2 83 be 01 23 a2 bd 95 99 bb 3c 8c 75 ef bc
       -0.2573403 -0.07916833 0.022900382 -0.029230855
0000e0 05 68 bd bd ff c8 02 3e ae 99 01 be c4 03 2d 3e
       -0.09248356 0.12771986 -0.1265628 0.16895968
0000f0 7d 40 36 3d 06 bb e7 3d 6e 76 22 3d 5c 5e 63 3d
       0.044495095 0.11314969 0.039663725 0.05550991
000100 9b e8 d5 3d 2d c4 8f 3d ff e3 f6 bd cc f3 35 bc
       0.104447566 0.070198394 -0.120552056 -0.011105489
000110 e5 fd 18 be ca 53 e8 3d dc 98 21 3e 0b c3 98 bc
       -0.14940603 0.113441065 0.15780967 -0.018647691
000120 e2 3a 80 3e 86 b3 4b 3c ff 4c 36 3e 68 55 b0 bd
       0.25044924 0.012432938 0.17802809 -0.0861004
000130 6b 66 81 3d bb 4d 5b 3e db 70 3d 3a f3 c9 57 be
       0.06318363 0.2141637 0.00072265946 -0.21073131
000140 2b b5 32 3e 8d 7b 52 be c8 fc 08 bd 2e ae 56 be
       0.17451923 -0.20554943 -0.033444196 -0.20964882
000150 be 8c 17 3e 34 b7 25 3e 55 23 a2 3d 30 e6 46 bd
       0.14799783 0.16183168 0.07916895 -0.048559368
000160 37 f3 43 be 15 0d 4d 3e a5 40 bc 3a f3 81 13 be
       -0.19135748 0.20024522 0.0014362527 -0.1440504
000170 3a 1b dc 3d c1 eb 9a bd 0c 6e f1 3d 85 ab da 3c
       0.107473806 -0.07564498 0.11788568 0.026693115
000180 04 96 82 be 70 22 34 3d 61 7b 39 3e e1 51 02 3e
       -0.25505078 0.043978155 0.18113472 0.12726547
000190 63 09 2c bd 45 c3 5e bd 5e a6 86 bd a0 e6 13 3e
       -0.04200114 -0.054385442 -0.06574701 0.14443445
0001a0 3c a7 95 3d e0 06 e1 3c 2a 84 d5 bc a7 6a 81 3d
       0.07307288 0.027469099 -0.026063997 0.063191704
0001b0 e8 ad b2 bd 9f 82 ce 3c 2c 94 4e 3e c7 83 53 be
       -0.08724576 0.02520877 0.2017371 -0.20655738
0001c0 48 14 80 bd 4c 7e 97 bd 7d df f8 3a bd fd 12 3e
       -0.06253868 -0.07397136 0.0018987503 0.14354606
0001d0 2b 9d 17 3e 0b e2 cc 3c 6d 30 c0 3d 40 5c 1d be
       0.14806049 0.02501013 0.093842365 -0.15367222
0001e0 c1 90 18 3e fc 4b 0e 3e 38 8b 8c bd f9 94 b8 3d
       0.14898969 0.13896173 -0.06862491 0.09012789
0001f0 43 e7 a7 3c 57 04 82 bd 48 ff 24 3e 8d c2 94 bd
       0.020496016 -0.06348484 0.16113007 -0.0726367
000200 a1 12 dc bd 9b 3d e9 bc a6 cc a7 bd 6a 34 3e 3d
       -0.10745741 -0.028471759 -0.081933305 0.046436705
000210 c8 b2 7c be 39 1b 5b 3d 6c 47 e1 bd 09 03 09 be
       -0.24677575 0.05349276 -0.10999951 -0.13380064
000220 d7 d2 20 3d 68 c2 26 3e 1d 28 ff bd 0e 06 f6 3d
       0.039263573 0.16285098 -0.12458823 0.120128736
000230 13 a1 43 bd df f4 86 3d 11 01 19 bd da e6 c0 3d
       -0.047761034 0.06589674 -0.037354533 0.094190314
000240 8f 63 96 3c c6 c0 90 3d 76 27 dd 3d 35 49 fb bc
       0.01835802 0.070680186 0.10798542 -0.030674556
000250 b3 cc f6 3d 27 1b 0c 3e c7 f9 3d 3e ee 00 b1 bd
       0.12050762 0.13682233 0.18552314 -0.086427554
000260 af 1d 2d 3e 12 76 35 3e f1 a7 b9 3d 40 9e 11 3c
       0.16905855 0.17720821 0.090652354 0.008887827
000270 93 cf 90 be 08 ef e5 3d 51 c4 e0 bd d4 d6 26 bb
       -0.28283367 0.11227232 -0.109749444 -0.0025457637
000280 8a 1c 9b bd bf 58 04 be 9e 4f 1e 3e 23 4f 77 3d
       -0.07573803 -0.12924479 0.15460059 0.060378205
000290 a5 60 f4 3d 16 af 52 be 39 66 4b bd ed 4e 15 bd
       0.11932496 -0.20574602 -0.049658034 -0.036452223
0002a0 37 56 37 bd cf 49 37 bd 49 ba 5c bd 1b 96 4f be
       -0.044759955 -0.044748124 -0.053888593 -0.20272104
0002b0 e5 64 16 be 4b e4 a4 bd 12 ea f7 3d d8 33 ca bc
       -0.14686926 -0.08051356 0.12105192 -0.024682924
0002c0 77 9d 4e be 62 dd a5 bd 04 2c 2f bd 30 81 66 3d
       -0.20177256 -0.08098866 -0.042766586 0.056275547
0002d0 49 6d e3 bb 04 c2 24 3d 4a 2c af 3d b1 2f bc 3c
       -0.006940518 0.04022409 0.08553369 0.02297196
0002e0 2e b7 93 3d 2b 7a 54 3e c2 1c 2e 3e 7a ef 0e 3e
       0.07212673 0.20749728 0.17003158 0.1395854
0002f0 f0 85 96 b9 94 22 b6 ba dd c0 3b 3e aa b2 c7 bd
       -0.0002871002 -0.0013895803 0.1833529 -0.09750874
000300 f7 60 c9 bd 6c 72 ef 3c 67 8f 8b 3d fd 56 4f 3e
       -0.09832948 0.029229365 0.06814461 0.20248027
000310 28 f5 8b 3e db 26 0d bc 94 af 7a bd 02 01 70 bd
       0.27335477 -0.008615221 -0.0612026 -0.05859471
000320 e9 f6 6c bd 59 73 16 be a7 8f f1 3d c5 f5 09 3e
       -0.05785266 -0.14692439 0.11794978 0.1347266
000330 cc a7 cf bd fb 65 98 bd 54 f3 40 3e 59 ad e5 3d
       -0.101394266 -0.07441326 0.18842822 0.11214704
000340 0c 46 0d be 60 05 04 3e a2 8d 6b bb c5 bd cf 3c
       -0.13796252 0.12892675 -0.0035942574 0.025359044
000350 36 98 31 bd a2 83 a7 3d 1b 53 91 bd 24 a3 7a bc
       -0.04335805 0.08179404 -0.07095929 -0.015297685
000360 6f 28 94 3d 11 3c 2a 3e 7f db 32 be fe bd 05 3c
       0.072342746 0.16624476 -0.17466544 0.008162973
000370 e1 4c a0 3e 93 9f 0a 3e 95 b5 89 bd ad be b1 3c
       0.31308654 0.13537435 -0.06724087 0.021697367
000380 14 dd e6 bc bd 06 8f 3e be bc e7 bd 1c d5 ad bd
       -0.02818159 0.27934828 -0.113152966 -0.08487913
000390 99 27 a2 bd 57 4e 2e 3c 16 d2 2f 3c 29 7d 12 be
       -0.07917709 0.010638795 0.010731241 -0.14305557
0003a0 1f af ca be 52 2f 6f bd 45 93 6e bc bf 7f 43 be
       -0.39586732 -0.058394738 -0.014561479 -0.190917
0003b0 48 12 4c 3d 73 df 2a 3e a4 74 5b 3d 7e 31 8b be
       0.04982212 0.16686802 0.053578034 -0.27186197
0003c0 5f 4c 27 be 8e 2e c0 3d 39 f4 34 bd 56 cb 77 3d
       -0.16337727 0.093838796 -0.04417822 0.06049665
0003d0 1b a1 35 be cb a3 b4 bd 49 81 5d 3d 9f 16 15 be
       -0.17737238 -0.088203035 0.054078374 -0.1455941
0003e0 cc 54 9b 3e ee fd 01 3e 5a a0 c1 3e be c0 82 bd
       0.30338132 0.12694523 0.3781765 -0.06384419
0003f0 6c 71 00 3d 65 24 bb 3c b4 fd df bc 5c 56 0f 3e
       0.031358168 0.022844503 -0.027342655 0.13997787

enc2.2.bias f4 [16]
000000 e8 25 8e 3c 9c ff ff 3c c4 a7 8c 3a c3 47 4f 3c
       0.01735206 0.031249814 0.001073115 0.012651387
000010 77 01 08 3d 41 da d8 3c db 2b 6a bb 77 97 b0 bb
       0.033204522 0.02647126 -0.0035731706 -0.0053891498
000020 ea 18 69 3d 0b c7 fe 3c 9f 0b 4e 3c 23 df 98 bb
       0.056908526 0.03110077 0.012576013 -0.004665272
000030 d7 2e 9d 3c 99 19 66 bc ce 4c 0b 3d 18 f1 e6 3c
       0.019187374 -0.014044189 0.034008794 0.028191134

bottleneck.0.weight f4 [32, 16, 3, 3]
000000 f9 c6 bc bd ce 5e 1e 3d b1 fa 47 3d 8d 7e 37 3d
       -0.092176385 0.03866463 0.048823062 0.044798423
000010 d1 dd ae 3d b3 06 fb bc 07 51 b2 3c 32 4a 0c 3c
       0.08538402 -0.030642843 0.021767152 0.008562611
000020 5e f9 30 be df d3 a5 bc 67 0b 45 be af 1c d2 3d
       -0.17282626 -0.02024263 -0.19242631 0.10259377
000030 90 3c ae bc c1 3e 80 3d ab 2d 0a 3e f2 6a 2d be
       -0.021269113 0.06261969 0.13493983 -0.16935328
000040 82 c6 54 3e 01 9c 27 3d a6 ab 29 3d 86 b7 ba 3d
       0.2077885 0.04092026 0.041423462 0.091170356
000050 87 95 a5 3d ad f1 4b bd 52 c3 07 3e 45 2c 61 3e
       0.08085161 -0.049791027 0.13258103 0.21989544
000060 af b3 0e bd 6c 3c 31 bc c5 b8 83 bc 69 ab 33 3d
       -0.03483933 -0.010817628 -0.016079316 0.04386464
000070 44 80 89 bd b6 bf 2e 3c 23 0d 27 bd ce 87 d2 bd
       -0.06713918 0.010665825 -0.040784013 -0.10279809
000080 ef a8 c5 bc 26 67 fb 3d ac 97 4b bc f6 35 aa bd
       -0.024128405 0.122755334 -0.012426298 -0.083110735
000090 f7 a1 a8 bd 78 54 97 bd 9c 03 ae bb e5 eb 72 bd
       -0.08234017 -0.07389158 -0.005310489 -0.059306998
0000a0 aa 94 32 3d 28 85 34 be 0e e3 c7 3d af 96 0a be
       0.04359881 -0.1762892 0.09760104 -0.13534044
0000b0 47 12 f8 3d f8 c4 03 bd 12 62 df 3d ac 9a b7 3c
       0.12112861 -0.032170266 0.10907377 0.02241262
0000c0 f7 03 da bd 4b fe 8e 3d 1f 36 30 bd 84 9f f8 3d
       -0.106452875 0.06982096 -0.043020364 0.121398
0000d0 3d 55 bd 3d fb 94 40 bd 4f a0 ea 3c 43 d0 f9 3d
       0.092447735 -0.04701708 0.028640894 0.12197926
0000e0 3c 4e 10 3c ca 4e 8e 3d cf 80 d6 bc 27 5e d9 bd
       0.008807715 0.069486216 -0.026184468 -0.10613661
0000f0 db 95 71 bd e6 ec 8c 3e 64 fa b3 3d 60 9e 7e bd
       -0.058980804 0.2752449 0.087879926 -0.062162757
000100 63 d3 0d 3d bf dd 42 bd d7 00 0e 3d e8 71 14 3e
       0.034625422 -0.047574755 0.03466877 0.14496577
000110 09 67 bf 3d 3f 04 ac 3c 3f 8e 9e 3b 76 89 2b bd
       0.09345824 0.020998118 0.0048387344 -0.04187914
000120 d5 4e 3c bc 40 17 6d 3c 8a c2 24 be 6b 7f 86 3d
       -0.011493404 0.014470875 -0.16089836 0.06567272
000130 8f 45 a0 bd 66 a7 ed bc 2c a6 85 bd 40 76 d8 3d
       -0.07825767 -0.029010486 -0.065258354 0.105694294
000140 cd 73 52 3e 3d 99 b2 bd 51 b3 d2 3d e0 9b 6e 3d
       0.20551987 -0.08720634 0.10288108 0.058254123
000150 a2 45 e6 bc 3e 58 6c 3d 98 9b 21 3e ae b5 e0 bd
       -0.028109375 0.05770134 0.1578201 -0.10972153
000160 8f a6 08 3d 17 61 08 bb 64 3e 9b 3c 9e 98 d4 bc
       0.033361968 -0.0020809823 0.018950649 -0.02595168
000170 fd 35 6f bd 0e 58 e5 3d 90 e7 19 3e 55 1f f9 3d
       -0.058401097 0.11198436 0.1502974 0.12164179
000180 ff 88 16 bc 72 83 c5 3d 0d d8 a0 bc 08 65 94 3a
       -0.009187936 0.09644212 -0.019634271 0.0011321614
000190 0c c8 b7 3d 85 a8 70 bd 73 34 e1 39 bd e1 80 3d
       0.08973703 -0.058754463 0.00042954422 0.06293056
0001a0 ba af 9b 3b f5 97 06 3d dc f0 90 3e 1b 61 e6 3d
       0.004751173 0.03285976 0.2830876 0.1124899
0001b0 04 fe 37 bc 41 8e 0b 3d fd 13 32 bd 6b e5 15 3e
       -0.011229996 0.03407121 -0.043476094 0.14638297
0001c0 0b 51 8d 3d 7b eb bd bd 5d c7 32 bd ec 81 16 bd
       0.06900223 -0.0927343 -0.04364716 -0.036744997
0001d0 eb 9f 48 be 36 52 94 3d 09 88 69 3d e2 19 02 be
       -0.19592254 0.07242243 0.0570145 -0.12705186
0001e0 46 8f 42 3e 70 6b ef bc 65 33 82 3d c8 cb 1b 3c
       0.18999967 -0.029226035 0.06357459 0.009509034
0001f0 9d d0 04 3d af 67 57 3e 67 5d 81 bc 68 c2 30 3d
       0.03242551 0.21035646 -0.015791608 0.04315415
000200 3e 6d 11 be 81 6a 60 3d d2 ca 33 bd 52 1f 0f bd
       -0.14201829 0.05478907 -0.043894596 -0.03494198
000210 51 49 97 3c 84 ef e4 bd b9 61 74 bd be 84 87 3c
       0.018467577 -0.111784965 -0.059663508 0.016542789
000220 2d e0 2b 3e e3 9c 20 3d 49 2a 6c 3d c3 ad 43 3d
       0.16784735 0.03921212 0.057657514 0.047773134
000230 b9 5a 31 3d 29 6e c2 3d a7 bf 45 3d b3 7e 25 3d
       0.04329941 0.09493668 0.048278477 0.040404033
000240 53 02 84 ba ca 11 c8 bd 8b d4 c6 3d 8c 8a 35 3c
       -0.0010071493 -0.09769018 0.09708508 0.011080395
000250 42 0e 37 3d 86 d2 60 3c a1 e6 a4 bc 4c 64 97 bd
       0.04469133 0.013722068 -0.020129504 -0.07392177
000260 19 a8 80 3d 00 ca 8e 3d 0a 9c 7a bd ec 08 0f 3c
       0.06282062 0.06972122 -0.061183967 0.0087301545
000270 bc 2b 58 3d ff 46 fb ba 65 35 43 be 44 08 53 bd
       0.052776083 -0.0019170939 -0.19063337 -0.051521555
000280 1e b3 95 bd 46 7b 74 3e 5c a7 d2 3a 60 a9 ff bd
       -0.073095545 0.2387515 0.0016071605 -0.124834776
000290 62 f0 ae bd 4d b1 7a bd 9f b4 d3 bd 35 45 25 3c
       -0.08541943 -0.061204243 -0.10337185 0.010087301
0002a0 18 91 65 bd 1d 74 51 3d 4b 8b b7 3d d9 0d a0 bd
       -0.056046575 0.051136125 0.08962115 -0.07815141
0002b0 2d 84 93 bd c5 c7 27 3d e3 31 30 3d 22 67 55 bd
       -0.07202945 0.040962 0.043016326 -0.05210031
0002c0 00 50 e5 3c 17 8f 7e 3d 1f 5d 2b 3d 5d 59 de 3d
       0.027992249 0.06214818 0.041836854 0.108568884
0002d0 5c c3 50 3d 97 ac 98 3c c0 d2 e1 3d 37 54 f3 3d
       0.05096756 0.018636985 0.110265255 0.11881297
0002e0 ec 29 b3 3d f9 be b5 3d 25 09 41 3d c0 da a9 bc
       0.0874823 0.08874316 0.04712786 -0.020734191
0002f0 80 9b b9 bd 21 f0 08 bd df 6b 54 3c e3 91 80 bd
       -0.090628624 -0.03343213 0.012965172 -0.06277826
000300 ed 8d e0 bc 59 f2 3c 3c 22 98 79 bd e1 60 2a 3d
       -0.027411425 0.01153239 -0.0609361 0.041596297
000310 56 a0 15 bd 7d 8b e2 3d 1a f2 dc bd 83 f9 3c bd
       -0.03652986 0.110617615 -0.10788365 -0.04613639
000320 83 e1 18 be da ba b5 3c 19 01 a0 3d 23 df 20 be
       -0.14929776 0.022183824 0.07812709 -0.1571012
000330 ae 92 93 3d 19 4b e5 3d 76 d9 38 3e 85 38 2f be
       0.07205711 0.11195964 0.18051705 -0.17111404
000340 b7 41 4d bd 1b 90 70 be 61 11 d3 3d 8d 90 64 3e
       -0.0501115 -0.23492472 0.10306049 0.22320767
000350 1f f8 53 bd 09 60 3a 3d d0 26 d7 3c 65 aa 54 bd
       -0.0517503 0.045501743 0.026263624 -0.051920313
000360 7f 1e 9f bd 88 39 d6 3d fd 01 16 3c 68 c4 44 3c
       -0.077694885 0.10460192 0.0091557475 0.0120097175
000370 a4 a4 ec bc fb 08 60 bb a7 0d a0 bd f1 27 62 3e
       -0.0288871 -0.003418504 -0.07815104 0.22085549
000380 21 28 05 3e 1c 6a 3c 3c db 66 d6 bc b4 e5 f1 bd
       0.13003589 0.011499908 -0.026172092 -0.118113905
000390 c5 cb 68 3d af ab f9 bd dc fa 91 bd 86 5c 5a be
       0.056834955 -0.12190949 -0.07127926 -0.21324357
0003a0 47 c4 cb 3d 43 f8 f5 bd c5 74 88 3d 01 bc 89 3d
       0.09949546 -0.12010243 0.06662897 0.06725312
0003b0 83 c4 bf bd c7 00 0b 3e a8 19 c1 bc 23 02 04 be
       -0.093636535 0.13574515 -0.023571804 -0.1289144
0003c0 c2 9b 6f 3d cf 83 0a bc 53 6c fc 3d 66 49 4a bd
       0.05849815 -0.008454277 0.12325349 -0.049386404
0003d0 6e 6a 9a bc a1 cf 17 3e e9 e3 af 3d 18 f9 96 bc
       -0.018849578 0.14825298 0.08588392 -0.018429324
0003e0 b9 70 b5 3d 00 44 65 3d 29 56 c5 39 0a d3 0e 3e
       0.08859391 0.055973053 0.00037638962 0.13947693
0003f0 fb 50 be 3d 46 5c 19 3e 39 c1 2f bd aa 69 aa bd
       0.092927895 0.14976606 -0.04290888 -0.08320935

bottleneck.0.bias f4 [32]
000000 e6 c8 01 bd ed f0 b4 3c 61 cf ea 3c ca 63 15 3d
       -0.031685732 0.022087539 0.02866334 0.03647212
000010 5b 36 f4 3c 23 d5 cd 3c 3c 95 2d 3d 91 34 0e bc
       0.029811075 0.025126046 0.04237865 -0.008679525
000020 3b 9b de 3c ce 4b 50 bc 48 cb 5b 3c 96 a5 18 3d
       0.027173629 -0.012713386 0.013415165 0.03726729
000030 53 6f 0c bc 5d 72 d4 3c 47 d6 86 bb ca 38 fa 3c
       -0.008571464 0.025933439 -0.0041148993 0.030544657
000040 48 96 0b 3d 24 c0 f8 3b cf 27 d8 3c 63 40 5e 3d
       0.034078866 0.0075912643 0.02638617 0.054260623
000050 d4 0d 8d 3b 3f a3 51 3d bd bf c4 3c 1a 59 50 bc
       0.004304627 0.051181074 0.02401721 -0.012716556
000060 d2 c7 09 3d 85 5a a4 3c dc 07 ec bc bf 93 48 3c
       0.03363783 0.020062694 -0.028812341 0.012242257
000070 24 0c a3 3c 7d 55 e3 3c 15 14 c4 3c f6 fd f7 3c
       0.01990325 0.027750725 0.023935357 0.030272465

bottleneck.2.weight f4 [32, 32, 3, 3]
000000 3c 11 3d bc 05 5f ec bc 7a 47 43 be 51 71 dc bd
       -0.0115397535 -0.028853903 -0.19070235 -0.10763801
000010 99 3b 3d be 1d a6 67 bc 40 0f 96 bd e7 b9 fb bd
       -0.18479766 -0.014138726 -0.073271275 -0.122913174
000020 32 6d 3f bc 14 cd 31 3b b7 81 38 be 2b 75 bb bc
       -0.011683749 0.0027130293 -0.18018232 -0.022883018
000030 76 1f 91 3b 5f 86 d5 3d 18 6a 8d 3d 88 40 a0 3d
       0.0044287993 0.1042602 0.069050014 0.07824808
000040 b4 9c 17 bd 32 ff 8d bc ea c9 43 bd 40 61 63 3e
       -0.037014678 -0.0173336 -0.047799982 0.22205067
000050 60 4c 18 3d 7e 55 c1 bd bd 03 93 3d 32 6b c4 bc
       0.037182212 -0.094401345 0.071784474 -0.023976896
000060 93 d0 be 3d a1 b9 8c bd ff 84 be 3d e4 08 d0 bc
       0.09317126 -0.068713434 0.09302711 -0.025394864
000070 33 35 c7 3d 0c f2 8a 3c 77 51 28 bb 2d e5 1e 3e
       0.09726944 0.01696112 -0.0025683322 0.15517111
000080 0f 6c ae 3d c3 40 5c 3d 43 33 ed 3d f0 1a 2a 3d
       0.08516704 0.0537727 0.11582043 0.041529596
000090 d9 e2 2b 3d 38 1e 0f bc 6a b9 7e 3d af ba 45 3c
       0.041964386 -0.008735232 0.062188543 0.012068435
0000a0 67 d9 97 bd fe f3 1d 3e 62 41 ff bb 95 1d 0b 3d
       -0.07414513 0.15425107 -0.0077897767 0.03396376
0000b0 02 7e 18 be 8c e6 3c be fc f5 1e be 4a a8 70 bd
       -0.14891818 -0.18447322 -0.15523523 -0.058754243
0000c0 ac b1 be 3d ee 13 68 3d f9 f8 eb 3d ba 29 9a bd
       0.09311232 0.05665963 0.11522097 -0.0752749
0000d0 d0 38 79 bd a3 17 5d 3d 48 a4 75 3e ca 0e 67 bd
       -0.060845196 0.05397762 0.2398845 -0.05641059
0000e0 f6 bf 42 bc d4 75 7a 3d e4 0d 0c bd d3 79 e6 bc
       -0.011886587 0.061147526 -0.034192935 -0.028134262
0000f0 b6 ed dd bc fe 94 14 bd 28 71 c5 bd a5 b4 6b 3c
       -0.027090888 -0.036274903 -0.096407235 0.014386331
000100 d4 3a 0b 3c e1 8e 01 3e 87 50 e5 3c 53 72 9e 3d
       0.008497912 0.1265216 0.0279925 0.07736649
000110 ab ac fd 3c 89 77 31 bd b4 dc c3 3c bc d9 7f 3d
       0.030966124 -0.04332689 0.02390895 0.062463507
000120 9a 9c 34 be 92 7b 53 3c 48 dc e3 bd 15 47 71 3d
       -0.17637864 0.012907879 -0.11126 0.05890568
000130 9f 6a 09 bc d5 1b 09 3d c0 cc 82 3d 5d 17 a7 bd
       -0.008387237 0.03347381 0.06386709 -0.08158753
000140 4a 1a 15 3d 35 89 02 3c 48 e6 54 3c d2 99 2a bd
       0.036402024 0.007967283 0.012994356 -0.0416506
000150 23 f6 30 bd ad 2e 53 3d 78 ba 75 bd 2d b7 88 bc
       -0.043203484 0.051558185 -0.059992284 -0.016688908
000160 ba 0a 68 be 90 49 ef bd 02 f0 a1 bc f9 0d d5 3c
       -0.22660342 -0.11683953 -0.019767765 0.02600764
000170 a8 24 12 bd 22 ec a4 bd ee eb fd 3d 31 1d 98 3d
       -0.03567949 -0.08052851 0.12398516 0.07427443
000180 c7 62 9f 3c 0b 6d 7b 3d 0e 45 20 3d a3 7d 3d 3c
       0.01945628 0.06138329 0.039128356 0.011565599
000190 34 34 ad 3d 05 84 28 3e db a1 e9 3d d7 cf 3a 3e
       0.084572226 0.16456611 0.114078246 0.18243347
0001a0 8d 74 10 bd 51 3a 77 3d f0 89 ee bd 55 25 0a 3d
       -0.0352674 0.06035835 -0.11647403 0.03372701
0001b0 3e 16 23 bd 13 cb 6f bd 5b 01 ce bc dd 12 99 bb
       -0.039816134 -0.058543276 -0.02514713 -0.004671438
0001c0 fc 9d 59 bd 77 1a b1 bd d4 f6 fc bd c9 ed d3 bd
       -0.05312918 -0.08647626 -0.12351766 -0.10348088
0001d0 03 83 22 be fa 98 aa ba e5 b0 9c 3d fd 82 e3 bd
       -0.1587029 -0.0013015561 0.076509275 -0.111089684
0001e0 b3 28 b5 bd 04 86 48 3c 4e af 44 3d d5 30 53 be
       -0.088456534 0.012238983 0.048018746 -0.20624097
0001f0 13 ae 93 3c 3c 4b b4 3d af 63 f2 3d a2 db 09 3d
       0.018027341 0.08803412 0.118354194 0.033656724
000200 2c c7 04 be 87 e4 02 3e ea 8b 15 3e 63 61 56 be
       -0.12966603 0.12782489 0.14604154 -0.20935588
000210 a2 ae 94 bd dd 63 14 3e 01 48 18 3d 09 fa 68 bd
       -0.07259871 0.1449122 0.037178043 -0.056879077
000220 a1 1a ac 3d 0f d9 7f 3c 50 97 d0 bd 50 02 05 3d
       0.084035166 0.015615716 -0.101851106 0.03247291
000230 1d b8 00 3d fb b6 b0 3d f6 af bd bd bd 83 d0 3d
       0.031425584 0.08628651 -0.092620775 0.10181377
000240 90 39 52 3e c6 de 16 be 73 22 a1 bc dc b5 57 bd
       0.20529771 -0.14733419 -0.019669747 -0.05266367
000250 6e 9b 48 3d a0 33 6c 3c 0b 6b df bd a7 d4 4d 3d
       0.048976354 0.014416605 -0.10909089 0.05025163
000260 17 5c e6 bc c1 75 94 bc ba 10 53 bd 72 ff ef 3d
       -0.028120084 -0.018122556 -0.051529624 0.11718644
000270 05 a6 6e 3c 91 66 17 bd 83 e4 25 3d f9 c9 d5 3c
       0.014565949 -0.03696305 0.04050113 0.026097285
000280 1b 33 f8 3d 45 fc 3b bd ea b0 af bc 3c 00 e7 bd
       0.121191226 -0.04589488 -0.021446664 -0.112793416
000290 2f 9d b3 bd 38 3e 4d be 31 51 ee 3c ee b5 02 be
       -0.08770215 -0.20043266 0.02909145 -0.12764713
0002a0 50 9d 13 3c 4d 62 2c 3e 09 e9 e3 bc 5e 98 a2 bd
       0.009009674 0.16834374 -0.02782108 -0.07939218
0002b0 b1 32 21 bd a9 e7 0d be e0 fb 3c 3d 10 52 3c 3d
       -0.039354984 -0.13857903 0.046138644 0.0459767
0002c0 6a 66 25 be 1a 1d e4 3b 4c 43 90 3d 87 33 0e 3e
       -0.16152349 0.006961477 0.07044086 0.13886844
0002d0 64 bb cd bc a0 1c f6 bd 68 bc fe 3d b2 7b d6 bd
       -0.025113769 -0.120171785 0.124382794 -0.10472812
0002e0 4f 69 22 bd bd 9c b6 bd 86 07 a4 bd bf 6a a1 3d
       -0.03965121 -0.08916614 -0.080092475 0.07881688
0002f0 54 e0 ec 3d f1 50 83 be 8c 35 bd 3b c5 2d 11 3d
       0.11566225 -0.2564769 0.0057742056 0.03544404
000300 a1 87 85 bd da 56 93 3c 1f 1c ea 3c 9f ae 25 be
       -0.0652001 0.01798575 0.028577862 -0.16179894
000310 97 a3 c7 3d 69 02 9c 3c ba 47 0e 3d 59 e1 de bd
       0.09747999 0.019044118 0.034736373 -0.108828254
000320 fd 9b c3 3c 61 f5 34 bd c5 3c b3 3a 74 c8 35 3e
       0.023878092 -0.044179324 0.0013674727 0.17752248
000330 06 49 8c 3c 94 34 0a be 07 ad 7a 3d b7 b5 46 3d
       0.017124664 -0.1349662 0.061200168 0.04851314
000340 b0 b8 6c 3d a2 bc c8 bd a9 bf a6 3c 26 5a 2b be
       0.05779332 -0.09801604 0.020355063 -0.16733608
000350 d5 56 db bb f7 9a 5e bd 80 95 4a bb fd 88 03 be
       -0.006693701 -0.054347005 -0.0030911863 -0.12845226
000360 eb e8 39 3c 21 c5 98 3c 5a b0 94 3c e8 10 49 3d
       0.011347036 0.018648686 0.018150497 0.04908839
000370 b4 d5 f7 bc c8 af e4 3d 8d 50 83 3c 18 e6 68 3d
       -0.030253269 0.1116634 0.01602962 0.05686006
000380 bf be 08 3d 44 ff ec bd 48 cd 8c bd 42 3c 83 3c
       0.033385035 -0.115721256 -0.06875092 0.016019944
000390 82 fd 3e bd 68 91 d6 bd ae a1 cf 3d 8b 73 8c 3d
       -0.046628483 -0.10476953 0.1013826 0.068579756
0003a0 10 1f 4c bd 6c f6 3c 3d 94 c8 24 3d 15 38 08 be
       -0.04983431 0.046133444 0.04023035 -0.13302644
0003b0 a3 4b bf bc cd 3e 32 3e 62 53 f4 bd 23 90 a9 bd
       -0.023351496 0.17406769 -0.119299665 -0.08279445
0003c0 1d 2d f1 3c 14 3b 65 bc 24 a6 9f bd 7e 8f 6c 3d
       0.029440457 -0.013991136 -0.07795361 0.057754032
0003d0 21 d3 68 3d 40 3a 4a 3d 74 b0 af 3c ba 23 94 3d
       0.056841973 0.049371958 0.021446444 0.07233377
0003e0 c7 eb 23 3e fd dd b4 bd ba b7 e4 bc ea a5 d5 3c
       0.1600791 -0.088314034 -0.027919639 0.02608009
0003f0 28 a8 1a 3e 6c a4 69 3e 08 cd 80 3e 1a e2 2b bd
       0.15103209 0.22816628 0.25156426 -0.041963674

bottleneck.2.bias f4 [32]
000000 81 78 e0 3c d4 d8 36 3d fb d0 fb 3c fd 21 69 bc
       0.02740121 0.044640377 0.030739298 -0.014229295
000010 62 2c 10 bc 8c bf 6b bc 2e 4c d5 3c bd b4 c9 bb
       -0.008799644 -0.01438893 0.026037302 -0.006155579
000020 d6 37 0a 3d b4 e8 10 3c 89 20 07 3d 96 ba 0b bd
       0.033744656 0.008844543 0.032990012 -0.03411349
000030 66 75 15 bd 69 92 ed 3c a1 57 5e bc 56 c1 da 3c
       -0.036488913 0.029000478 -0.013570697 0.026703518
000040 9b c4 d5 3c 87 b1 4d bc 61 97 0d 3d 81 00 1d bc
       0.026094725 -0.012554533 0.034568194 -0.00958264
000050 d6 fd ed 3c 88 fa cd 3a 72 ad 35 bd 2b fe d5 bb
       0.029051702 0.0015714923 -0.044354863 -0.0065305433
000060 84 cd dd 3c d0 5f 00 3d bc 8e 05 bd 1c 5e ec 3c
       0.027075537 0.031341374 -0.032606825 0.028853469
000070 da e9 2b 3c 36 31 a5 bc 4f 81 d7 3c 80 62 82 3b
       0.010492766 -0.020165067 0.026306776 0.0039790273

up1.weight f4 [32, 16, 2, 2]
000000 12 ee 97 3d ab 4c 81 3d 49 00 87 be a7 29 d9 bc
       0.07418455 0.063134514 -0.26367405 -0.02650912
000010 7f cd e2 bd ba 0a ec 3d a0 62 ab 3d 6d 8a 9c 3e
       -0.110743515 0.115254834 0.083684206 0.3057436
000020 7f bd 3f be 6a 8f ac bd 0b fe c6 3d f4 a4 85 3c
       -0.18724631 -0.084257916 0.097164236 0.016314007
000030 93 a4 aa bd 4e 47 9d 3d f6 4e e6 3d 10 5c ba bd
       -0.08332171 0.07679616 0.11245529 -0.09099591
000040 49 c5 80 3b 7e 84 99 3e d3 e0 a6 3d 0c c7 9f bd
       0.003929768 0.29983896 0.081483506 -0.07801637
000050 5b 65 14 3d 9b 61 25 be f3 93 96 3c c9 bc b5 bd
       0.036229473 -0.16150515 0.018381095 -0.088738985
000060 d8 37 08 3e 26 fd ea 3d 20 5f 27 bd c9 a7 bd bd
       0.13302553 0.114740655 -0.040862203 -0.09260518
000070 b2 02 94 3c 60 9b 5b be a1 52 68 3e 52 9f 84 3d
       0.018067691 -0.2144599 0.2268777 0.064757004
000080 3d ce 66 be 64 77 e8 3d d6 c2 61 be 00 39 b1 bd
       -0.22539611 0.11350897 -0.2204698 -0.0865345
000090 56 1f 47 3d 50 b8 6d bd b9 40 3e 3e 78 e9 4d 3e
       0.04861387 -0.058037102 0.18579377 0.20108593
0000a0 8a e6 f3 bd 27 67 42 3e 5f 24 a7 3d f9 21 0b 3e
       -0.11909206 0.18984662 0.08161234 0.13587178
0000b0 3d b1 7b 3b 48 f9 d7 3d 23 51 be bd 47 bd b3 bc
       0.0038405203 0.105455935 -0.09292819 -0.02194084
0000c0 55 39 c2 3d 3d fd 82 be bc 8a f8 bc 96 d7 a6 3d
       0.094835915 -0.2558383 -0.030339591 0.081465885
0000d0 51 5c ee 3c a5 de 6f bd 3a c2 8e 3e a9 0e 1c 3e
       0.029096754 -0.05856194 0.27882558 0.15239967
0000e0 57 9e f1 bd e2 f0 6e be f7 b4 87 3d 96 52 11 bd
       -0.11797779 -0.23334077 0.06626313 -0.03547915
0000f0 0b 83 d7 3b af 2d 64 3e ab fe c2 bd 1e 3a 45 3d
       0.006576901 0.22283052 -0.0952123 0.048151128
000100 90 6e 4f be 1d 8b 37 be 23 2e b0 3c a3 5d 01 be
       -0.2025702 -0.17924161 0.021506375 -0.12633376
000110 5d 4c 7f be bf 9e 0c be 2b 51 55 be 43 0d 61 bb
       -0.24931474 -0.13732432 -0.20831744 -0.003434018
000120 09 37 98 3e 75 d0 c7 3d 86 ee 2b bd 9f b1 bb bd
       0.29729488 0.09756557 -0.04197552 -0.09164738
000130 d1 10 fb 3d 67 e5 00 bd 40 65 e7 3d 45 de d7 bd
       0.12259067 -0.031468775 0.11298609 -0.105404414
000140 a4 67 20 be 33 ca f8 bd 68 9c 69 bd a2 a0 7e be
       -0.15664536 -0.121479414 -0.057033926 -0.24865964
000150 27 76 78 bc 04 90 be bc af b8 32 3d 8d e4 6f 3d
       -0.015164888 -0.023262031 0.04363316 0.058567572
000160 62 82 f1 bd 59 4f a9 bd d5 4e 1b be 17 39 b5 be
       -0.11792447 -0.082670875 -0.15166791 -0.3539512
000170 b0 84 ad 3d 4a 05 d6 3d c6 4d 3e be d3 91 ae bd
       0.08472574 0.104502276 -0.18584356 -0.085239075
000180 92 48 4f be 56 87 2c bd c6 a3 82 be 8f 0f 03 3e
       -0.20242527 -0.042121254 -0.25515574 0.12798904
000190 48 93 8e 3d 67 56 10 3e c0 f9 b9 3d f6 16 c5 3c
       0.069616854 0.1409546 0.09080839 0.0240588
0001a0 f5 df 6f bd 42 ad 3b be 91 5b d7 bb 4b 69 a0 3d
       -0.05856319 -0.18327811 -0.006572195 0.07832583
0001b0 d7 56 01 be 19 da af bb 30 25 68 3e ac e9 dd 3b
       -0.12630783 -0.0053665754 0.22670436 0.0067722406
0001c0 e2 d9 a6 bd 93 09 de 3d c9 84 7e 3d 50 9a e4 3d
       -0.081470266 0.1084167 0.062138353 0.11162245
0001d0 9a 5f dc 3d 95 06 cc 3c a7 8b 51 3e ea 1d 85 bd
       0.10760422 0.024905482 0.2046343 -0.06499846
0001e0 99 86 60 3d 02 6d 31 3e 29 c6 6b bd d4 f0 ce bd
       0.054815862 0.1732674 -0.057562027 -0.10104528
0001f0 03 5f 37 be df 15 f5 bd e1 ea 6f be cb 19 4b bd
       -0.17907338 -0.11967062 -0.23429443 -0.049585145
000200 51 15 03 bd d7 d5 84 bd c8 6d fb bd c7 46 81 3e
       -0.03200275 -0.06486099 -0.122767985 0.2524931
000210 11 93 83 3a e1 d1 f2 bc 08 b0 18 be 95 ee 6e bd
       0.0010038336 -0.029641094 -0.149109 -0.058333
000220 98 a3 33 3d d6 68 8b 3d ae fe 5d 3e a4 80 7f 3e
       0.043857187 0.06807105 0.21679184 0.24951416
000230 6d a7 e9 3d 3b 17 99 3d 57 ef a0 3e 23 de ec bc
       0.11408887 0.07475134 0.31432602 -0.028914517
000240 b7 b8 55 bd 30 7b 97 bc a2 79 5e be 47 22 4e be
       -0.05217811 -0.018491358 -0.21726087 -0.20130263
000250 78 57 76 bc b9 94 17 3d 81 80 98 bd 62 37 02 bd
       -0.015035503 0.037007067 -0.07446385 -0.0317911
000260 3a fd 2b 3d 55 51 0c 3e c1 9c 24 bd 59 2d 17 be
       0.041989543 0.137029 -0.040188555 -0.14763393
000270 56 a5 d3 be ba d6 35 bd d1 89 99 bd 0f 81 8e bc
       -0.4133708 -0.044394232 -0.074969895 -0.017395524
000280 01 dc 42 3e a1 e7 1a bc 0b 2f 1f be 9c a7 b3 3e
       0.19029237 -0.009454639 -0.15545289 0.35088813
000290 c6 ec d4 3d 03 61 e9 3d 47 62 46 3e e9 b2 7f bd
       0.103967234 0.11395457 0.19373427 -0.06242648
0002a0 54 48 0d 3d a4 af 0b bc 6c a5 08 3d c2 91 87 bd
       0.034492806 -0.008525763 0.033360884 -0.06619598
0002b0 a3 61 43 3d fa ee a3 bd e6 d6 bc 3d f0 9b cc bd
       0.047700536 -0.080045655 0.09220676 -0.0999068
0002c0 b9 87 bc bc fe 57 cb 3c 77 b6 47 bd 5a 40 80 3e
       -0.023013936 0.024822231 -0.048757996 0.25049096
0002d0 e4 a6 07 bd 04 09 90 bc b1 da 2b 37 1d 07 8d 3e
       -0.033118144 -0.017582424 1.0243312e-05 0.2754449
0002e0 32 e1 c7 bd 5b 2e 13 3e 71 a0 6f bd 3a 6b 16 be
       -0.097597495 0.14373152 -0.05850262 -0.14689341
0002f0 a6 78 e0 3d 47 58 e6 bd 1d ef 1c bd 85 3f 18 be
       0.10960512 -0.11247306 -0.038313974 -0.14867981
000300 ed 1e b9 bd 62 5d 45 3d bd db 12 3d 97 c8 d3 3d
       -0.09039102 0.04818476 0.03585409 0.10340994
000310 ac 4c de 3d ef d1 0f 3e e3 38 8e be a2 2b ac 3d
       0.10854468 0.14044927 -0.27777776 0.0840676
000320 3c 1b 19 be 1a 7a 39 be 4a 02 56 bd 84 2c c1 3d
       -0.14951795 -0.18112984 -0.052248277 0.09432319
000330 8e ca 96 be 9d b9 66 bb 5c 33 87 3d a9 2b 27 3e
       -0.29451412 -0.003520585 0.06601593 0.16325249
000340 bd 0e a6 3d 01 ef dd bd f7 65 04 3e 08 88 6b bd
       0.0810828 -0.10836602 0.12929522 -0.057502776
000350 64 5a 48 bc dc 71 75 bc 0a 4c a3 3d e1 6f c3 3d
       -0.012228582 -0.0149807595 0.07973488 0.095428236
000360 ce 7c ff bc 85 25 fb bb 83 98 b8 3e 75 8e d5 3c
       -0.031187441 -0.007664385 0.36053857 0.026068905
000370 07 17 da bc 33 13 ff 3d fd a2 b2 3c 8e 8b 7a bd
       -0.026622308 0.12454834 0.021806234 -0.061168246
000380 94 ab a2 bb cf 3c 99 bc 55 52 e8 3c f3 54 73 bd
       -0.0049643014 -0.018705754 0.028359571 -0.059407186
000390 04 e0 b5 3d 5d 56 53 be 7c 30 69 3d f6 63 60 3e
       0.08880618 -0.20638414 0.056931004 0.21913132
0003a0 c1 05 cc bd e5 d5 13 bd 3c 0a 10 3e 54 7d 49 be
       -0.09962035 -0.036092658 0.14066404 -0.19676715
0003b0 c4 0d f8 3c e0 12 23 be 35 35 9b 3d a4 8a a2 3d
       0.030280001 -0.15925169 0.07578508 0.079366
0003c0 3e e0 c6 bc 80 8f dc 3d 30 04 f8 3d 8f a0 07 be
       -0.024276849 0.10769558 0.12110174 -0.13244842
0003d0 d2 f8 02 3e 09 8a d9 bc 5c cf 06 3e d6 80 0e be
       0.1279023 -0.026555078 0.13165039 -0.13916335
0003e0 fc 18 77 3e 62 fb 6f bd b7 d3 fa 3d 9f 61 68 bd
       0.24130625 -0.058589347 0.12247413 -0.056733724
0003f0 99 7d 20 be 96 6e a6 3d 9c 6e ac 3d 48 2d eb 3c
       -0.15672912 0.08126561 0.084195346 0.028708115

up1.bias f4 [16]
000000 16 cb ab 3c e0 f1 07 bd 39 44 dc 3c 19 37 02 bd
       0.020970862 -0.033189654 0.026888 -0.031790826
000010 c2 83 d5 bc 30 a1 ee bc 05 70 fe bc dc 38 e7 bc
       -0.026063804 -0.029129595 -0.031059274 -0.028225355
000020 01 cb c1 bc 29 ef c3 3c 97 91 a9 bc 46 2b d9 3c
       -0.02365637 0.023917751 -0.020699305 0.026509892
000030 3a 45 ee 3c 14 cf d4 3c 19 3c cf bc 5d b8 ce bc
       0.029085744 0.025977649 -0.025297211 -0.025234396
