sampling-based_planning_framework/checkpoints/checkpoint_epoch_48.pth (torch, 386226 bytes, 75 tensors)

enc1.0.weight f4 [8, 1, 3, 3]
0	0xbdcdd4a9	-0.10050327
1	0x3dd2ce4a	0.10293253
2	0x3d8764b0	0.066110015
3	0x3e10800e	0.14111349
4	0xbde89728	-0.11356956
5	0x3dac7043	0.0841985
6	0x3d05d8e7	0.032677557
7	0xbe346db6	-0.17619976
8	0xbd8a4cb9	-0.06752915
9	0x3e1a9e60	0.15099478
10	0xbe03fac3	-0.12888627
11	0x3d4d3d52	0.050107308
12	0x3e6fb010	0.23407006
13	0xbd8b9e4a	-0.068173006
14	0x3e10b9bf	0.14133357
15	0xbd7ec6df	-0.062201377
16	0x3e1f123c	0.155343
17	0xbd83dff5	-0.06439201
18	0x3e2f354e	0.17110178
19	0xbe501f8f	-0.20324539
20	0xbe33fcd6	-0.17576918
21	0x3e243fa9	0.1603991
22	0xbda54951	-0.080706246
23	0xbe1cb850	-0.15304685
24	0xbeba64b6	-0.3640496
25	0xbe450897	-0.19241558
26	0xbdb44193	-0.0880157
27	0x3d5ec6d8	0.05438885
28	0x3cb9f410	0.022699386
29	0xbe3df8ac	-0.18551892
30	0x3d22afde	0.0397185
31	0x3e1fa558	0.15590417
32	0x3eaa1f9f	0.3322725
33	0xbc79827e	-0.015228866
34	0xb9e58925	-0.00043780464
35	0x3aa6bada	0.0012720481
36	0xbdca5a5f	-0.09880518
37	0x3d4a11bf	0.04933333
38	0xbd9304fd	-0.07178686
39	0xbe901e08	-0.28147912
40	0x3e65caec	0.2244069
41	0xbd4d696c	-0.050149366
42	0xbd50f748	-0.051017076
43	0x3dd1b68b	0.102398954
44	0xbe9dee52	-0.30845886
45	0x3e5ad0a2	0.2136865
46	0x3e6c821e	0.23096511
47	0xbbe99530	-0.0071283802
48	0x3ec0a953	0.37629184
49	0xbd855622	-0.06510569
50	0xbdc4cfa7	-0.09609919
51	0x3da78442	0.08179523
52	0xbe501458	-0.2032026
53	0xbe85f4a4	-0.26163208
54	0x3c91c8b1	0.017795892
55	0x3d2f5b64	0.042811766
56	0x3dcd60a1	0.10028196
57	0x3e015ed7	0.12633835
58	0xbdd0ae81	-0.10189534
59	0x3efa0d3d	0.48838225
60	0xbd0e3e85	-0.034727592
61	0x3ddaf18e	0.10690604
62	0x3dddfcd4	0.10839239
63	0x3dfa35a2	0.12217261
64	0xbeaf7ee9	-0.34276512
65	0x3da9f50c	0.08298692
66	0xbe155b73	-0.14585666
67	0xbda61af2	-0.08110608
68	0x3e62b07f	0.2213764
69	0x3d8426cb	0.06452712
70	0xbdfeb3f8	-0.1243667
71	0x3d4c0ce2	0.049816974

enc1.0.bias f4 [8]
0	0x3d0f3144	0.034959093
1	0x3aaaeaf2	0.001303999
2	0x3d026cb3	0.031841945
3	0xb979f956	-0.00023839375
4	0x3d4eae4d	0.050459195
5	0xb97a05fc	-0.00023844087
6	0x3b3b24ba	0.0028555826
7	0xb9e6e68c	-0.0004404079

enc1.2.weight f4 [8, 8, 3, 3]
0	0x3d6b4f06	0.05744841
1	0x3d84b88c	0.06480512
2	0xbd9123ce	-0.07086907
3	0xbe75a9d4	-0.23990566
4	0x3efa9a41	0.4894581
5	0x3e1923fe	0.14955136
6	0xbcf5ebde	-0.030019697
7	0xbbf059ed	-0.0073349387
8	0xbccad597	-0.02476005
9	0xbdab2126	-0.08355932
10	0xbdd7c9a2	-0.10536505
11	0xbde3a5c5	-0.111156024
12	0xbd2e7e7e	-0.0426011
13	0xbde12746	-0.10993819
14	0x3e3be325	0.18348368
15	0x3e3d8278	0.18506801
16	0x3e27a664	0.16372067
17	0xbe8dfacf	-0.27730414
18	0x3d7ffcbb	0.062496882
19	0x3e26992f	0.16269372
20	0x3e01528a	0.12629142
21	0xbdee75ce	-0.11643563
22	0x3df6b66f	0.12046515
23	0xbdb9fb96	-0.09081189
24	0xbe560db8	-0.20903671
25	0x3dfab381	0.12241269
26	0x3d339ed6	0.04385265
27	0x3d3ded57	0.046368923
28	0x3d85f4f9	0.065408655
29	0xbe7d9add	-0.24766107
30	0x3e534a8a	0.20633903
31	0x3c282d22	0.010264667
32	0x3cd3b621	0.025843682
33	0xbcbad4a7	-0.022806479
34	0x3cb3bb17	0.021939797
35	0xbe51606f	-0.20446943
36	0x3cf78ee0	0.030219495
37	0x3d8ddc85	0.069268264
38	0x3e1f2e52	0.15545014
39	0xbe3c864c	-0.18410605
40	0x3d45eaf1	0.04831976
41	0x3d26aa08	0.0406895
42	0xba1c3d80	-0.0005960092
43	0xbd4b8e57	-0.049696293
44	0x3e139905	0.14413841
45	0x3cc4e3e0	0.02403444
46	0xbea17663	-0.31535634
47	0x3da1c681	0.0789919
48	0x3bf2ce38	0.007409837
49	0x3e9d129a	0.30678254
50	0xbe2964a1	-0.16542293
51	0x3e2cb8e4	0.16867405
52	0xbe2d66b9	-0.16933717
53	0xbe0d2694	-0.13784248
54	0xbda9f1bd	-0.08298061
55	0x3e2289b0	0.15872836
56	0xbcc1c2cb	-0.023652455
57	0x3e3f74f9	0.18696965
58	0xbda8a381	-0.08234311
59	0xbcc9663e	-0.024584886
60	0x3d64db24	0.05587305
61	0xbee9a8f7	-0.45636722
62	0xbd91fcf9	-0.07128329
63	0xbb8a98b6	-0.0042296303
64	0xbc67c1e0	-0.0141453445
65	0x3e6c32e0	0.23066282
66	0xbd7de303	-0.061984073
67	0xbd5395b4	-0.05165644
68	0x3d7e10ba	0.06202767
69	0x3e0dd9b5	0.1385258
70	0xbcfd55bc	-0.03092467
71	0xbd9396c7	-0.07206493
72	0xbe4a72b5	-0.1977032
73	0x3cd149bc	0.025547855
74	0x3c9b88d4	0.018986143
75	0x3e034771	0.12820221
76	0x3e15e40f	0.14637779
77	0x3deb7a17	0.11497896
78	0xbe0ddf6b	-0.13854758
79	0x3e39ce3e	0.18145081
80	0xbe626070	-0.221071
81	0x3c849f5b	0.016189268
82	0x3e84efc5	0.2596418
83	0xbde6d0f8	-0.112703264
84	0x3e2b1088	0.16705525
85	0x3ba7e168	0.005123306
86	0x3e19d858	0.15023935
87	0xbcddda48	-0.027081624
88	0xbe8d3508	-0.27579522
89	0x3e1f02bd	0.15528388
90	0x3b4168fa	0.0029512034
91	0xbe986613	-0.29765376
92	0x3e870a79	0.26375178
93	0xbca3c186	-0.01998974
94	0x3e1f0604	0.15529639
95	0x3dfb46d1	0.122693665
96	0x3ba3cee4	0.0049990285
97	0x3e15a6d5	0.14614423
98	0xbe05123b	-0.12995236
99	0xbc6f19e3	-0.014593574
100	0xbd84e21b	-0.06488439
101	0x3e52c040	0.2058115
102	0x3ee969f6	0.45588654
103	0xbce69f94	-0.028152265
104	0x3c5152e9	0.012776115
105	0x3d9d8b32	0.07692565
106	0x3f0c38c1	0.547741
107	0x3dc36122	0.09540011
108	0xbe8e11e4	-0.27748024
109	0x3d0e77ad	0.0347821
110	0xbd0cf9ba	-0.034417845
111	0xbead151c	-0.33805168
112	0x3e153629	0.14571442
113	0xbe48ba04	-0.1960221
114	0xbd87ec31	-0.06636847
115	0x3e1e26c4	0.15444475
116	0x3eabea30	0.33577108
117	0xbd982e10	-0.07430661
118	0xbde27ab7	-0.11058562
119	0x3b9edbe9	0.0048479927
120	0x3d723e2e	0.05914133
121	0x3e6dacb3	0.23210411
122	0x3dffe1df	0.12494253
123	0x3c107809	0.008817681
124	0xbd4d6ba9	-0.0501515
125	0xbcc6cef1	-0.0242686
126	0x3e73dcac	0.23814648
127	0xbab423d8	-0.0013743592
128	0xbe934fe2	-0.28771883
129	0x3e93cf14	0.28868926
130	0x3e4fcbf2	0.20292643
131	0xbdba9a26	-0.09111433
132	0x3ed1f2dc	0.410056
133	0x3e5ff490	0.21870637
134	0x3d261864	0.040550604
135	0xbcc7dda7	-0.024397684
136	0x3eaa9166	0.33314055
137	0x3df03b74	0.1173009
138	0x3e8fb4fe	0.28067774
139	0x3e8f7e51	0.2802606
140	0x3e2b310d	0.1671793
141	0x3e2029e8	0.15640986
142	0xbdc5ae3a	-0.09652372
143	0x3e01eb09	0.12687315
144	0x3dce9d37	0.1008858
145	0x3e46b978	0.19406688
146	0x3cf869cd	0.030323887
147	0x3e5263a1	0.20545818
148	0x3dc83148	0.09775025
149	0xbdd0cfa4	-0.10195854
150	0x3dd2f598	0.103007495
151	0x3f09e3e5	0.53863364
152	0xbe052fb7	-0.13006483
153	0xbeb4b12a	-0.35291415
154	0xbd867ed8	-0.06567162
155	0x3db132d9	0.086522765
156	0x3e62281a	0.2208561
157	0xbcdb29cf	-0.026753334
158	0xbd4c74ab	-0.04991595
159	0x3dfc95f6	0.1233329
160	0xbee1477e	-0.43999857
161	0xbe2de6d3	-0.16982584
162	0xbe5c2390	-0.21497941
163	0xbda1a26c	-0.07892308
164	0xbeb0c801	-0.3452759
165	0x3db9d676	0.09074108
166	0x3d9c36c6	0.07627635
167	0x3e86801c	0.26269615
168	0x3d41418c	0.04718165
169	0x3e3377c1	0.17526151
170	0xbd9ff377	-0.07810109
171	0x3ea10933	0.3145233
172	0x3ce5a1d6	0.028031271
173	0xbc9f1644	-0.019419797
174	0xbd83ac17	-0.06429308
175	0x3db0c5cc	0.08631477
176	0x3dd12d58	0.10213727
177	0xbe53f6ea	-0.20699659
178	0xbe56f9bb	-0.20993702
179	0xbd640ca1	-0.055676106
180	0x3e53d6bf	0.20687388
181	0xbe15fbe9	-0.14646877
182	0x3eb8d9ff	0.36103818
183	0xbe73e8fd	-0.23819347
184	0xbd4987c6	-0.04920175
185	0x3e1199da	0.14218846
186	0xbe57db08	-0.21079648
187	0xbb9acf13	-0.004724392
188	0x3af5bec4	0.0018748869
189	0xbdfce7c2	-0.12348892
190	0xbeba00cd	-0.36328736
191	0x3e99e3df	0.30056664
192	0x3e029728	0.12752974
193	0xbe991ded	-0.29905644
194	0xbe9bc5be	-0.30424303
195	0x3d532f44	0.051558748
196	0xbeb6e6f0	-0.35723066
197	0x3d1570ed	0.036484648
198	0x3dae0f49	0.08499009
199	0xbcbced15	-0.023062268
200	0xbdf9eebe	-0.122037396
201	0xbe9347d5	-0.2876574
202	0x3ea8603e	0.32885927
203	0x3d8ed493	0.06974139
204	0xbe671304	-0.22565848
205	0xbdb18f6f	-0.08669936
206	0x3e3d6628	0.18496001
207	0x3ddaf668	0.106915295
208	0xbd8148a8	-0.06312686
209	0xbd27d392	-0.040973254
210	0x3e8bfc79	0.2734106
211	0xbdbaa2da	-0.09113093
212	0xbdd92e57	-0.10604542
213	0x3de185ee	0.11011873
214	0x3df8ec16	0.12154405
215	0xbe4a7d6c	-0.19774407
216	0x3ce3efa1	0.027824225
217	0x3e789a7e	0.24277684
218	0xbad785ef	-0.0016443114
219	0xbd610672	-0.054937787
220	0x3ca44085	0.020050297
221	0xbe4fd3cf	-0.20295642
222	0x3e2f9c25	0.17149408
223	0x3cc8fd18	0.024534747
224	0x3d0e5ade	0.034754626
225	0xbebafe00	-0.36521912
226	0xbea90b0b	-0.33016238
227	0xbe57f560	-0.21089697
228	0xbcc20829	-0.023685532
229	0xbe6ea9f1	-0.23307015
230	0xbdb34224	-0.0875285
231	0x3e8c6fff	0.27429196
232	0x3e1c206a	0.1524674
233	0x3dd8d977	0.10588353
234	0xbcbd1bb1	-0.023084493
235	0x3d7b9749	0.061423574
236	0x3d3848a5	0.044991154
237	0xbdbeae3c	-0.09310576
238	0xbcfbfebd	-0.030761117
239	0x3dc5b75b	0.09654113
240	0x3d5e8c9d	0.054333318
241	0x3e4c501f	0.19952439
242	0xbe4e1486	-0.20125017
243	0xbd14aad2	-0.03629572
244	0x3d225c62	0.039638884
245	0x3de3f20c	0.11130151
246	0xbe97549b	-0.29556736
247	0xbe2c1f1c	-0.16808742
248	0x38bcfc3a	9.0115194e-05
249	0x3da387c4	0.079848796
250	0x3e1dbcf8	0.15404117
251	0x3deb1f18	0.1148054
252	0x3eba876d	0.36431447
253	0xbd50d7c7	-0.05098703
254	0xbe030fa0	-0.12798929
255	0xbe676130	-0.22595668

enc1.2.bias f4 [8]
0	0xbce8d1ef	-0.028420417
1	0xbb094959	-0.002094826
2	0x3d1db5c2	0.038503416
3	0xbc276f33	-0.010219383
4	0x3b381ca3	0.002809324
5	0x3d0b0e08	0.033948928
6	0x3cef91e5	0.029244373
7	0x3bef667d	0.0073059187

enc2.0.weight f4 [16, 8, 3, 3]
0	0x3c6cf20a	0.0144620035
1	0xbd279d19	-0.040921304
2	0xbc67ba23	-0.0141435
3	0xbe0765a5	-0.13222368
4	0xbe5423b3	-0.20716743
5	0x3dbcbb1f	0.09215378
6	0x3d761330	0.060076892
7	0xbdb68128	-0.08911353
8	0x3e85db1e	0.26143736
9	0xbb7ea324	-0.0038854564
10	0x3d47015c	0.04858528
11	0xbd1301e5	-0.03589048
12	0xbe638486	-0.22218522
13	0x3d9997d3	0.07499661
14	0xbd33ffd7	-0.04394516
15	0xbdab784d	-0.08372555
16	0xbd2f9378	-0.042865247
17	0x3e3b34a1	0.18281795
18	0x3b84cdf9	0.004052874
19	0x3df12564	0.1177471
20	0xbe309727	-0.1724516
21	0xbd3c9ec1	-0.046049837
22	0xbc946585	-0.018114815
23	0xbe070738	-0.13186347
24	0x3db65485	0.089028396
25	0x3e8be038	0.27319503
26	0x3de2048e	0.11036025
27	0xbd4d0b74	-0.05005975
28	0x3dd3d126	0.10342626
29	0x3de1063f	0.109875195
30	0xbcbe550a	-0.02323391
31	0xbe261481	-0.16218759
32	0xbc5ea50e	-0.013589157
33	0xbe3cb688	-0.18429005
34	0xbe220a20	-0.15824175
35	0xbdae80f2	-0.08520688
36	0x3e1e9248	0.1548549
37	0xbd308528	-0.043095738
38	0xbe477a76	-0.19480309
39	0xbd03745d	-0.032093395
40	0x3d254936	0.040353023
41	0xbd252f61	-0.040328387
42	0xbe00f5f3	-0.12593822
43	0xbdefca72	-0.11708535
44	0x3d847645	0.064678706
45	0x3d752491	0.059849326
46	0x3d5ba7cc	0.05362682
47	0x3e0d6f15	0.13811906
48	0x3e63d137	0.22247778
49	0xbd0979dc	-0.03356348
50	0x3e13726e	0.1439912
51	0x3e334031	0.17504956
52	0xbd18a06b	-0.03726236
53	0x3dec5e93	0.11541476
54	0x3e3da352	0.18519333
55	0xbd607a11	-0.05480391
56	0xbe9eceb6	-0.31017083
57	0xbe35e4d4	-0.17763072
58	0x3e4eba57	0.2018827
59	0xbd8445cc	-0.06458625
60	0x3dbdef9d	0.09274218
61	0x3e5a07a7	0.21291982
62	0x3e3d8cf1	0.18510796
63	0x3beab57b	0.0071627474
64	0xbe30379b	-0.17208712
65	0x3cc6558e	0.024210718
66	0xbcbab39b	-0.02279072
67	0xbba666aa	-0.0050781565
68	0x3de43b90	0.11144173
69	0xbdd5f8ae	-0.104478225
70	0xbe2cc5b9	-0.168723
71	0x3b5c6b3b	0.003363325
72	0x3c1cbadb	0.009566034
73	0x3d3aa63f	0.0455687
74	0xbcbd1f9e	-0.023086365
75	0xbd588c26	-0.05286803
76	0xbcde78e9	-0.027157264
77	0xbde942a3	-0.11389663
78	0xbd8b0c45	-0.067894496
79	0x3cb4adb7	0.02205549
80	0x3df0a78d	0.11750708
81	0xbd3dc860	-0.04633367
82	0x3b873767	0.0041264775
83	0x3e957248	0.29188752
84	0x3c2d50fb	0.010578389
85	0xbddc6cb7	-0.10762923
86	0x3be5c412	0.007011899
87	0xbd355646	-0.04427173
88	0xbb15d752	-0.0022863937
89	0xbddc012f	-0.10742413
90	0x3d4a7d1b	0.049435716
91	0x3d57ec22	0.05271543
92	0x3e23e185	0.16003998
93	0x3db1e80f	0.0868684
94	0x3d0f733c	0.035022005
95	0x3d960b7b	0.073264085
96	0xbe40efac	-0.18841428
97	0x3de6f084	0.112763435
98	0x3d123cb3	0.03570242
99	0xbca98d07	-0.02069713
100	0xbdafbf31	-0.08581389
101	0x3dad92b5	0.08475248
102	0xbe3f30d0	-0.18670964
103	0x3d7929f8	0.06083104
104	0x3ab3f073	0.0013728276
105	0x3df61462	0.120156065
106	0xbe6c661c	-0.23085827
107	0x3ce2d52a	0.027689535
108	0x3e09b623	0.13448386
109	0xbd5b73ad	-0.053577114
110	0xbcc1dae8	-0.023663953
111	0xbcf68ad3	-0.030095493
112	0x3dc9858b	0.098399244
113	0x3d7f44e0	0.062321544
114	0x3e325277	0.1741427
115	0x3e7861a8	0.24256003
116	0x3c407028	0.01174549
117	0xbd77b431	-0.06047458
118	0xbdb5c8d5	-0.08876196
119	0x3e38bbb5	0.18040355
120	0x3e32f6eb	0.17477004
121	0x3e219b98	0.1578201
122	0x3d97e4cd	0.07416687
123	0xbe05a128	-0.13049757
124	0x3dcd5231	0.100254424
125	0x3e010c52	0.12602356
126	0x3e529903	0.20566182
127	0x3b66e240	0.003523007
128	0x3d8f2f5d	0.06991456
129	0x3cf406a1	0.029788317
130	0x3e498cc3	0.19682603
131	0xbdfb9cb0	-0.12285745
132	0x3c9d478a	0.019199152
133	0xbce8da25	-0.028424332
134	0x3e4a1bdd	0.19737191
135	0xbe86167b	-0.26189026
136	0x3e174ad5	0.1477464
137	0xbe5061ff	-0.20349883
138	0xbe2f6b98	-0.17130888
139	0x3d17f4d1	0.03709871
140	0xbcdf9d10	-0.027296573
141	0x3d3a940a	0.045551337
142	0xbafbb770	-0.0019204449
143	0xbdc91e54	-0.09820238
144	0xbd6d0e04	-0.057874694
145	0xbc935dff	-0.017989157
146	0xbe5c91c9	-0.21539988
147	0xbd279f7a	-0.040923573
148	0x3de1c7a0	0.110244036
149	0x3e561cc4	0.2090941
150	0x3e88a077	0.26684925
151	0x3e0c43ba	0.1369771
152	0xbe40c1ac	-0.1882388
153	0xbd539b9b	-0.05166207
154	0xbe20c615	-0.15700562
155	0xbe2097e9	-0.15682949
156	0x3df7d336	0.12100832
157	0x3e376832	0.17910841
158	0xbd0c09e4	-0.03418912
159	0x3d3c770c	0.04601197
160	0xbdd734ef	-0.10508143
161	0xbe6b7cbd	-0.22996803
162	0x3e047a7e	0.12937352
163	0x3c5781c5	0.013153498
164	0xbe3a43b9	-0.18189897
165	0xbdcd5baa	-0.10027249
166	0x3d6844c1	0.056706194
167	0x3e202ad2	0.15641335
168	0xbd756aa1	-0.059916142
169	0xbe093ba3	-0.13401656
170	0x3dbe7fd8	0.09301728
171	0x3e36b2e5	0.1784168
172	0xbbc77306	-0.00608671
173	0x3e01ae73	0.12664203
174	0x3e14e4ff	0.1454048
175	0xba5fa975	-0.0008532026
176	0xbd521d58	-0.051297516
177	0x3e392549	0.1808063
178	0xbc861b6e	-0.016370501
179	0xbdb42c43	-0.08797505
180	0x3db696fd	0.089155175
181	0x3da8b907	0.08238416
182	0x3dedfa11	0.11619962
183	0x3e52632f	0.20545648
184	0x3dabf20a	0.08395775
185	0x3ec40e05	0.38291946
186	0x3e9ba032	0.30395657
187	0x3e24fca6	0.16112003
188	0x3d870d0d	0.06594286
189	0xbdcd874b	-0.10035571
190	0x3e1bb949	0.152074
191	0xbe0d3258	-0.13788736
192	0xbdbbb69e	-0.09165691
193	0xbd8a9d9f	-0.06768345
194	0x3e3a8ca6	0.18217716
195	0x3e71b653	0.23604707
196	0x3d9dd01d	0.0770571
197	0xbdd1315e	-0.10214494
198	0x3dc4a74a	0.0960222
199	0x3d98a836	0.07453959
200	0xbccb4fff	-0.024818419
201	0x3d71f5e8	0.059072405
202	0x3e207f5b	0.15673582
203	0x3da25deb	0.0792807
204	0x3deb0f27	0.114774995
205	0x3dc24c92	0.09487261
206	0xba5adf44	-0.0008349309
207	0x3e345507	0.1761056
208	0xbe34e9cc	-0.17667311
209	0x3cdb8162	0.026795093
210	0x3e0d933c	0.13825697
211	0xbc4e8d3f	-0.012606918
212	0x3e7ef81c	0.24899334
213	0xbe2853fe	-0.1643829
214	0x3d1402e4	0.03613557
215	0xbe15fd4b	-0.14647405
216	0xbcd0c654	-0.025485195
217	0x3d819acf	0.063283555
218	0x3e29d94e	0.16586801
219	0xbcd348c0	-0.025791526
220	0x3daa9dfc	0.083309144
221	0x3e89de1a	0.26927263
222	0xbbe5b135	-0.00700965
223	0xbd6cb225	-0.05778708
224	0xbd5ab6db	-0.05339704
225	0xbeafcfc4	-0.343382
226	0xbdfc18be	-0.12309407
227	0x3cb3a20e	0.02192786
228	0xbd26b43f	-0.04069924
229	0xbe413800	-0.18869019
230	0x3d1780be	0.036988012
231	0x3e1f0884	0.15530592
232	0x3b040267	0.0020143033
233	0x3dbbffce	0.0917965
234	0x3d55e511	0.052220408
235	0xbd8bccdb	-0.068261825
236	0xbdbd4cd5	-0.0924317
237	0xbd8fc593	-0.07020106
238	0x3dc12918	0.09431666
239	0xbe011fa3	-0.12609725
240	0x3d1be2ff	0.038058277
241	0x3c3c3b6a	0.011488775
242	0x3ce3e3f6	0.027818661
243	0xbcc6c59d	-0.024264151
244	0xbdfa3630	-0.12217367
245	0x3e73d4d2	0.23811653
246	0xbc709712	-0.0146844555
247	0xbd6792e6	-0.056536578
248	0x3da08d33	0.078394316
249	0xbd95bde7	-0.073116116
250	0x3e70b1a9	0.23505272
251	0x3e049669	0.12948002
252	0xbe93d983	-0.28876886
253	0xbe6a8731	-0.22903134
254	0x3cf8166a	0.030284125
255	0x3ca971fe	0.020684239

enc2.0.bias f4 [16]
0	0x3d0673ad	0.03282516
1	0x3d06f81b	0.032951456
2	0xbc7a2e6e	-0.015269859
3	0x3d31a106	0.043366455
4	0x3c0c1414	0.008549709
5	0x3d16a622	0.03677953
6	0xbcadc171	-0.021210404
7	0xbce34fe5	-0.027748058
8	0x3cdc361a	0.026881266
9	0x3be48a49	0.0069744927
10	0x3d00f5e5	0.031484503
11	0x3d14ac15	0.036296923
12	0x3cfca13b	0.0308386
13	0x3ce0852b	0.02740725
14	0x3cba6b9c	0.02275639
15	0x3d14b6da	0.036307193

enc2.2.weight f4 [16, 16, 3, 3]
0	0xbaed58ca	-0.0018108126
1	0x3d35eeea	0.0444173
2	0xbca984c5	-0.020693192
3	0xbdeb3109	-0.11483962
4	0x3e119486	0.14216813
5	0x3d5e0ff2	0.054214425
6	0xbd63b06e	-0.05558818
7	0xbcb8bb9f	-0.022550402
8	0x3be123e1	0.006870732
9	0xbdfe260f	-0.12409603
10	0x3e69684e	0.22793695
11	0xbde1e571	-0.110300906
12	0xbe388cf0	-0.18022513
13	0x3d300b3c	0.042979464
14	0x3e3a97a8	0.18221915
15	0xbe6e52ca	-0.23273769
16	0xbd05972b	-0.032614868
17	0xbce1c818	-0.027561232
18	0xbde81e99	-0.11333961
19	0xbd842ea4	-0.064542085
20	0xbe043ed4	-0.12914592
21	0xbdcc47c1	-0.099746235
22	0x3e9f8363	0.31154928
23	0x3d30c150	0.043153107
24	0xbd36d2a6	-0.044634484
25	0x3e19624d	0.14978905
26	0xbd98bb70	-0.07457626
27	0x3e582390	0.21107316
28	0x3e18bcd7	0.14915787
29	0xbd68d82c	-0.056846783
30	0x3e250272	0.16114214
31	0x3e2fd462	0.17170861
32	0xbdd02b82	-0.101645485
33	0xbda29dd9	-0.07940263
34	0xbea500de	-0.32227224
35	0x3e3e6317	0.18592487
36	0xbd10dfe7	-0.03536978
37	0xbd54d871	-0.051964227
38	0x3e12c13f	0.1433153
39	0xbe297ca8	-0.16551459
40	0xbdee287b	-0.11628815
41	0x3e62f9c2	0.22165588
42	0xbd86d145	-0.06582884
43	0xbecbf1f7	-0.39833042
44	0xbdb86ddd	-0.0900533
45	0x3c35b613	0.011090773
46	0xbd0ece50	-0.034864724
47	0x3e0144b6	0.12623867
48	0x3cc4245d	0.02394312
49	0xbb445356	-0.0029956899
50	0xbde4a5d8	-0.11164445
51	0xbda6f698	-0.08152503
52	0xbe82caab	-0.25545248
53	0xbda2e253	-0.07953324
54	0x3cb67271	0.022271367
55	0xbce43e86	-0.027861845
56	0xbdbcf738	-0.09226841
57	0x3e02b7e3	0.1276546
58	0xbe013f2a	-0.12621751
59	0x3e2b2940	0.16714954
60	0x3d30c14d	0.043153096
61	0x3de5df39	0.11224217
62	0x3d20d9f5	0.03927036
63	0x3d615ad3	0.055018257
64	0x3dd65dab	0.104670845
65	0x3d8c50af	0.06851327
66	0xbdf6c61d	-0.12049506
67	0xbc321341	-0.010868848
68	0xbe197054	-0.14984256
69	0x3de72fc8	0.112884104
70	0x3e221561	0.15828468
71	0xbca0f6ff	-0.019649027
72	0x3e7f3b80	0.24925041
73	0x3c5f6a75	0.013636221
74	0x3e36e5cc	0.17861098
75	0xbdb0f7bb	-0.08641001
76	0x3d82a4db	0.063791
77	0x3e59fdcb	0.2128822
78	0x3adf33cb	0.0017028985
79	0xbe55946b	-0.20857398
80	0x3e31078c	0.17288035
81	0xbe54b533	-0.20772247
82	0xbd02fd1f	-0.031979676
83	0xbe52dd1b	-0.20592158
84	0x3e16078b	0.14651315
85	0x3e2811c8	0.16413033
86	0x3d9d6aa9	0.076863594
87	0xbd5a90de	-0.053360812
88	0xbe4483fc	-0.19190973
89	0x3e4e3fb5	0.2014149
90	0x3aa794f5	0.0012785482
91	0xbe12ca98	-0.14335096
92	0x3ddc5b08	0.1075955
93	0xbd9d3b5a	-0.07677336
94	0x3df0414d	0.11731205
95	0x3ccab799	0.02474575
96	0xbe82f033	-0.25573882
97	0x3d341eb1	0.043974582
98	0x3e3a9bde	0.18223521
99	0x3e04768e	0.1293585
100	0xbd221c12	-0.03957755
101	0xbd56f4ac	-0.05247943
102	0xbd875bcd	-0.066093065
103	0x3e12ccb3	0.14335899
104	0x3d8dbf50	0.069212556
105	0x3cdb9b3c	0.02680742
106	0xbcdfabbe	-0.027303573
107	0x3d8857f3	0.066574
108	0xbdb2b68d	-0.08726225
109	0x3cca62c9	0.024705308
110	0x3e4d7174	0.2006281
111	0xbe5479c6	-0.20749578
112	0xbd823b7d	-0.06359003
113	0xbd961544	-0.07328275
114	0x39d5736d	0.00040712525
115	0x3e12ba33	0.14328842
116	0x3e17ea8b	0.14835565
117	0x3cc8162d	0.024424637
118	0x3dc3f334	0.09567872
119	0xbe1ed408	-0.15510571
120	0x3e18b42b	0.14912479
121	0x3e0c9ef7	0.13732515
122	0xbd9167e4	-0.07099894
123	0x3db2c3ee	0.08728777
124	0x3cb3a01b	0.02192693
125	0xbd814e0c	-0.063137144
126	0x3e240fad	0.16021605
127	0xbd9543f6	-0.07288353
128	0xbddc574f	-0.1075884
129	0xbceae275	-0.028672436
130	0xbda60436	-0.08106272
131	0x3d3dca6d	0.046335626
132	0xbe7e66d0	-0.24843907
133	0x3d5b3fc8	0.053527623
134	0xbde425e2	-0.11140038
135	0xbe0707a8	-0.13186514
136	0x3d2fbd42	0.0429051
137	0x3e29ad8a	0.16570106
138	0xbe00aa59	-0.12564982
139	0x3df2da42	0.118580356
140	0xbd447f88	-0.047973186
141	0x3d8905d4	0.06690565
142	0xbd07fd29	-0.033200417
143	0x3dc1097e	0.094256386
144	0x3c8c1532	0.01709995
145	0x3d8f66b7	0.07002013
146	0x3dde30ee	0.10849176
147	0xbcf2d434	-0.029642202
148	0x3dfcc1d1	0.12341655
149	0x3e0b4db0	0.13603854
150	0x3e3e831c	0.18604702
151	0xbdae1d1e	-0.085016474
152	0x3e2d2c30	0.16911387
153	0x3e3668ce	0.17813417
154	0x3db87eaf	0.09008538
155	0x3c1169b7	0.008875302
156	0xbe8ffbe8	-0.28121877
157	0x3de35deb	0.11101898
158	0xbde276e7	-0.11057835
159	0xbaf1cf6e	-0.001844866
160	0xbd9b0fe8	-0.07571393
161	0xbe0585c6	-0.13039312
162	0x3e1a1c82	0.15049937
163	0x3d7006e3	0.058600318
164	0x3df51360	0.11966586
165	0xbe58f9a0	-0.21188974
166	0xbd34fa6b	-0.04418413
167	0xbd168cc3	-0.036755335
168	0xbd261e05	-0.040555973
169	0xbd348fc9	-0.044082437
170	0xbd581157	-0.05275091
171	0xbe52912a	-0.20563188
172	0xbe1a61ab	-0.1507632
173	0xbda79af4	-0.08183852
174	0x3df8b908	0.12144667
175	0xbcd7c4e7	-0.026339008
176	0xbe4e4de9	-0.20146908
177	0xbda3c871	-0.079972155
178	0xbd24adda	-0.04020486
179	0x3d5d6d7d	0.054059494
180	0xbbbb671f	-0.00571908
181	0x3d1bd571	0.03804535
182	0x3da63c7c	0.08117005
183	0x3ccb717c	0.024834387
184	0x3d8ee453	0.06977143
185	0x3e52b6fb	0.20577614
186	0x3e2b845b	0.16749708
187	0x3e110caf	0.14164995
188	0xbb618138	-0.0034409296
189	0x3b0b3a64	0.002124452
190	0x3e3ccce0	0.18437529
191	0xbdc9803c	-0.09838912
192	0xbdc9fc01	-0.09862519
193	0x3cf4e0af	0.029892294
194	0x3d8886ba	0.06666322
195	0x3e4edb82	0.20200923
196	0x3e8cf0ae	0.27527374
197	0xbc05677e	-0.00814235
198	0xbd78e9ca	-0.060769834
199	0xbd72de8b	-0.059294265
200	0xbd723c96	-0.05913981
201	0xbe16d1ff	-0.14728545
202	0x3df23cb9	0.11827988
203	0x3e0b3a2b	0.13596408
204	0xbdcfb83c	-0.10142562
205	0xbd97e380	-0.07416439
206	0x3e42d9c9	0.19028391
207	0x3deb3c17	0.114860706
208	0xbe0cc780	-0.13747978
209	0x3e03380c	0.12814349
210	0xbb85c5a2	-0.0040823976
211	0x3cd80267	0.026368333
212	0xbd30a2c2	-0.043123968
213	0x3da5c4b2	0.08094157
214	0xbd8b9804	-0.06816104
215	0xbc47a198	-0.012184523
216	0x3d924812	0.071426526
217	0x3e2aea47	0.16690932
218	0xbe349d54	-0.17638141
219	0x3be3019b	0.0069276816
220	0x3ea01eb7	0.31273434
221	0x3e093c87	0.13401996
222	0xbd875451	-0.06607879
223	0x3cb374c8	0.021906272
224	0xbce7baac	-0.028287254
225	0x3e8f9026	0.28039664
226	0xbdd89cf3	-0.10576811
227	0xbdc1062a	-0.09425004
228	0xbdb100f3	-0.08642759
229	0x3c2a86f6	0.010408154
230	0x3c8e34c5	0.017359147
231	0xbe14b4e7	-0.14522134
232	0xbecfb73a	-0.40569478
233	0xbd796462	-0.060886748
234	0xbc818417	-0.015810056
235	0xbe40fc30	-0.18846202
236	0x3d45eba6	0.048320435
237	0x3e2f6553	0.17128496
238	0x3d646606	0.05576136
239	0xbe88c67e	-0.26713938
240	0xbe24e798	-0.16103971
241	0x3dc14b14	0.09438148
242	0xbd31dfaf	-0.043426212
243	0x3d67ee2a	0.056623615
244	0xbe3999e3	-0.1812511
245	0xbdb9acf7	-0.090661936
246	0x3d54f657	0.05199274
247	0xbe15cb71	-0.14628388
248	0x3e9b9bcb	0.30392298
249	0x3e032df2	0.12810495
250	0x3ec20d12	0.37900597
251	0xbd81244d	-0.06305752
252	0x3d06d5fe	0.032918923
253	0x3cbcef11	0.023063214
254	0xbcda1175	-0.026619652
255	0x3e0eff65	0.13964613

enc2.2.bias f4 [16]
0	0x3c8f74f7	0.017511828
1	0x3d009f35	0.03140183
2	0x3a2f83b8	0.0006695348
3	0x3c513da1	0.012771041
4	0x3d08502d	0.033279587
5	0x3cd4e825	0.025989601
6	0xbb99c2ce	-0.004692412
7	0xbbade77c	-0.005307136
8	0x3d6a3ba7	0.057185795
9	0x3cff2a2f	0.031148044
10	0x3c51031b	0.012757088
11	0xbbd48e1f	-0.0064866687
12	0x3c9d9691	0.019236835
13	0xbc76f75f	-0.015073626
14	0x3d0b82ec	0.034060404
15	0x3ce640e6	0.028107118

bottleneck.0.weight f4 [32, 16, 3, 3]
0	0xbdbed786	-0.093184516
1	0x3d19919c	0.03749238
2	0x3d4733d6	0.04863342
3	0x3d401607	0.046896007
4	0x3da86f89	0.08224399
5	0xbd01b349	-0.03166512
6	0x3cbaafd4	0.02278892
7	0x3c220ffd	0.009891507
8	0xbe3001f7	-0.1718825
9	0xbc9f7f3e	-0.019469853
10	0xbe42a76f	-0.19009183
11	0x3dcd9ee2	0.1004007
12	0xbca88481	-0.020570995
13	0x3d82f6a9	0.06394703
14	0x3e08f019	0.1337284
15	0xbe2dab55	-0.16959889
16	0x3e57dd69	0.21080555
17	0x3d17d30b	0.0370665
18	0x3d22b23d	0.039720763
19	0x3db5dec3	0.08880379
20	0x3dab0b21	0.08351732
21	0xbd4d1777	-0.050071206
22	0x3e06f628	0.13179839
23	0x3e5fb177	0.21845041
24	0xbd134b2e	-0.03596037
25	0xbc4f7ea7	-0.012664474
26	0xbc9cc524	-0.019136973
27	0x3d2cdf22	0.042204984
28	0xbd8713f7	-0.06595605
29	0x3c05ddfc	0.008170601
30	0xbd2cb0a2	-0.042160638
31	0xbdd28546	-0.10279326
32	0xbcdc5766	-0.026897144
33	0x3dfd8680	0.123791695
34	0xbc3d690d	-0.011560691
35	0xbda9df59	-0.08294553
36	0xbda3a8e2	-0.07991196
37	0xbd96e47d	-0.073677994
38	0xbb836150	-0.0040094033
39	0xbd6c0f24	-0.057631627
40	0x3d31116a	0.043229498
41	0xbe330f9c	-0.17486423
42	0x3dcae49d	0.09906886
43	0xbe0a8d77	-0.13530527
44	0x3dfc9505	0.12333111
45	0xbce95d42	-0.028486852
46	0x3dda5e3e	0.106625065
47	0x3cd26e85	0.025687465
48	0xbdd2cb40	-0.10292673
49	0x3d8a42b5	0.067510046
50	0xbd2399ce	-0.0399416
51	0x3df7a46d	0.120919086
52	0x3dbdad65	0.09261588
53	0xbd3e5699	-0.046469305
54	0x3ce7a9a5	0.028279135
55	0x3df6d33f	0.12052011
56	0x3c5c1d32	0.013434695
57	0x3d986040	0.07440233
58	0xbce92898	-0.02846174
59	0xbdee7811	-0.116439946
60	0xbd67eebf	-0.05662417
61	0x3e8c8162	0.2744246
62	0x3da73cbe	0.081658825
63	0xbd848f2d	-0.06472621
64	0x3d061426	0.03273406
65	0xbd4a72b0	-0.04942578
66	0x3d088fc2	0.033340223
67	0x3e12e15e	0.14343783
68	0x3dbad941	0.09123469
69	0x3ca17d2d	0.019713009
70	0x3b86d329	0.0041145277
71	0xbd30a1fe	-0.043123238
72	0xbbe3bdb1	-0.006950103
73	0x3c360889	0.011110433
74	0xbe26d4a1	-0.16292049
75	0x3da0798e	0.07835685
76	0xbd9e5cd8	-0.07732552
77	0xbd257179	-0.04039142
78	0xbd51dd6f	-0.051236566
79	0x3de2d65c	0.11076042
80	0x3e4a8bb3	0.19779854
81	0xbdb404bd	-0.08789966
82	0x3dd17cf1	0.10228909
83	0x3d6df3d8	0.058093876
84	0xbcdeb3d2	-0.027185354
85	0x3d695f2a	0.05697552
86	0x3e216621	0.15761615
87	0xbde0f07e	-0.1098337
88	0x3d0f7d99	0.03503189
89	0xbb3ff021	-0.0029287415
90	0x3c9925d3	0.018694794
91	0xbcbea97a	-0.023274172
92	0xbd73461f	-0.059393045
93	0x3de24dfb	0.1105003
94	0x3e1a6c42	0.1508036
95	0x3df6b605	0.12046436
96	0xbbaeb1d1	-0.005331256
97	0x3dc9f789	0.09861667
98	0xbc8aff9e	-0.01696759
99	0xbc201940	-0.009771645
100	0x3daec167	0.08532982
101	0xbd506895	-0.050880987
102	0xb9a1ea0a	-0.00030882686
103	0x3d79b4ea	0.06096355
104	0x3b89a0e0	0.004200086
105	0x3d08c06b	0.03338663
106	0x3e8fd9a3	0.2809573
107	0x3ddd489e	0.10804866
108	0xbbeeeda9	-0.007291515
109	0x3d1076b4	0.035269454
110	0xbd28c4ed	-0.041203428
111	0x3e17febf	0.14843272
112	0x3d8e6715	0.06953255
113	0xbdc1c378	-0.09461111
114	0xbd2c603f	-0.042083975
115	0xbd19b2af	-0.03752392
116	0xbe48149d	-0.19539113
117	0x3d981428	0.074257195
118	0x3d759c00	0.059963226
119	0xbe011978	-0.12607372
120	0x3e40214d	0.18762703
121	0xbd044f55	-0.03230222
122	0x3d5f2a65	0.05448379
123	0x3bda4272	0.006660753
124	0x3cccdd8b	0.025007984
125	0x3e5b1293	0.21393804
126	0xbc36683a	-0.011133248
127	0x3d32114d	0.04347353
128	0xbe12c51f	-0.14333008
129	0x3d657fbf	0.05603003
130	0xbd35f750	-0.04442531
131	0xbd08e56d	-0.033421922
132	0x3ca652f6	0.02030323
133	0xbde3f12c	-0.11129984
134	0xbd72f850	-0.05931884
135	0x3ca3469a	0.019931126
136	0x3e2d3c75	0.16917594
137	0x3d249165	0.04017772
138	0x3d741667	0.059591677
139	0x3d43abae	0.04777115
140	0x3d2f43a0	0.0427891
141	0x3dc3af35	0.095549025
142	0x3d4736fd	0.048636425
143	0x3d20ec20	0.039287686
144	0x3b165e8c	0.0022944538
145	0xbdc27c24	-0.09496334
146	0x3dcb5396	0.09928052
147	0x3c351bc8	0.011053987
148	0x3d382f5a	0.044967033
149	0x3c64fecb	0.013976763
150	0xbcade053	-0.02122513
151	0xbd9306bf	-0.07179021
152	0x3d822eac	0.06356558
153	0x3d87f805	0.06639103
154	0xbd7f32c8	-0.06230429
155	0x3c053923	0.008131298
156	0x3d51aa02	0.051187523
157	0xba0f1643	-0.00054583343
158	0xbe43c105	-0.191166
159	0xbd5a043f	-0.053226706
160	0xbd974adb	-0.073873244
161	0x3e760196	0.24024042
162	0xba9b8ff5	-0.0011868464
163	0xbe00710e	-0.12543127
164	0xbdb024a1	-0.086007364
165	0xbd75221d	-0.059846986
166	0xbdd3dcd3	-0.10344853
167	0x3c37fe5e	0.011230079
168	0xbd702ef0	-0.058638513
169	0x3d43e273	0.04782338
170	0x3db6a70d	0.08918581
171	0xbd9a6eb7	-0.075406484
172	0xbd91f35e	-0.07126497
173	0x3d29dd67	0.04147091
174	0x3d29f03c	0.04148887
175	0xbd5af2a9	-0.053454075
176	0x3ce0255f	0.02736157
177	0x3d7d6fc0	0.06187415
178	0x3d2cab3e	0.042155497
179	0x3ddf738f	0.10910713
180	0x3d54463c	0.051824793
181	0x3ca69e3a	0.02033912
182	0x3de1276c	0.10993847
183	0x3df42c48	0.119225085
184	0x3db6695c	0.089068145
185	0x3db9150a	0.09037216
186	0x3d3e911d	0.04652511
187	0xbc946d71	-0.018118592
188	0xbdbb544f	-0.0914694
189	0xbd12fb5d	-0.03588425
190	0x3c1d8ecb	0.009616564
191	0xbd81a6f6	-0.063306734
192	0xbcf23c94	-0.029569902
193	0x3c1ebfe5	0.009689306
194	0xbd81e3d0	-0.0634228
195	0x3d3117c2	0.043235548
196	0xbd145614	-0.036214903
197	0x3ddf20d4	0.10894933
198	0xbded1e1e	-0.1157801
199	0xbd3e413f	-0.046448942
200	0xbe0f86c6	-0.14016256
201	0x3cc417df	0.023937164
202	0x3da54681	0.08070088
203	0xbe1ac6d6	-0.15114912
204	0x3d9784aa	0.073983505
205	0x3de8d15c	0.11368057
206	0x3e3ee0c1	0.18640424
207	0xbe3175d1	-0.173301
208	0xbd518859	-0.051155422
209	0xbe6fbe53	-0.23412447
210	0x3dd3bc19	0.10338611
211	0x3e641f93	0.2227767
212	0xbd504111	-0.050843302
213	0x3d34a384	0.044101253
214	0x3ccea540	0.025225282
215	0xbd596b52	-0.053080864
216	0xbd924cef	-0.0714358
217	0x3ddd5831	0.10807837
218	0x3c7cf972	0.015440332
219	0xba1a797e	-0.00058927375
220	0xbd0c04cb	-0.03418426
221	0xbc1ebd24	-0.009688649
222	0xbdad0031	-0.08447302
223	0x3e60870e	0.2192652
224	0x3e099a3d	0.13437743
225	0x3c3a5e3a	0.011375004
226	0xbcdfc7d0	-0.027316958
227	0xbdf1884f	-0.11793577
228	0x3d5ba285	0.053621788
229	0xbdfdb561	-0.12388111
230	0xbd9642b9	-0.07336945
231	0xbe597898	-0.21237409
232	0x3dcc5cd7	0.09978645
233	0xbdf8dd88	-0.12151629
234	0x3d888a07	0.066669516
235	0x3d8a5977	0.06755345
236	0xbdbefa54	-0.0932509
237	0x3e0a391e	0.13498351
238	0xbcca13c2	-0.024667624
239	0xbe0211bc	-0.12702078
240	0x3d6d8341	0.0579865
241	0xbc141f5a	-0.009040678
242	0x3dff38c8	0.12462002
243	0xbd42a938	-0.04752466
244	0xbc90482d	-0.017612541
245	0x3e1edb16	0.15513262
246	0x3da109ac	0.07863173
247	0xbcabb887	-0.020962013
248	0x3da91268	0.08255464
249	0x3d49a958	0.049233764
250	0xb842d07c	-4.644737e-05
251	0x3e0dc2ef	0.13843893
252	0x3dc78ac3	0.097432636
253	0x3e1d0a1c	0.15335888
254	0xbd2a50c3	-0.041580927
255	0xbdaab02a	-0.08334382

bottleneck.0.bias f4 [32]
0	0xbd025a0f	-0.031824168
1	0x3cb14a73	0.021641945
2	0x3cea832d	0.028627003
3	0x3d1837c7	0.03716257
4	0x3cf481eb	0.029847106
5	0x3cd1797a	0.02557062
6	0x3d3b1b6f	0.04568046
7	0xbc1cd0e0	-0.009571284
8	0x3cdf0cf1	0.02722785
9	0xbc56428f	-0.013077392
10	0x3c5ca0ef	0.013466104
11	0x3d193178	0.037400693
12	0xbc102786	-0.008798486
13	0x3cd6ae09	0.026206033
14	0xbb79637b	-0.003805368
15	0x3cfa5383	0.0305574
16	0x3d0b054f	0.03394061
17	0x3c01abba	0.007914478
18	0x3cd64542	0.026156072
19	0x3d60bc9e	0.05486738
20	0x3b7cd652	0.0038579893
21	0x3d52432e	0.0513336
22	0x3cc4b12d	0.024010265
23	0xbc505872	-0.0127163995
24	0x3d0b5825	0.034019608
25	0x3ca2ea6e	0.019887175
26	0xbce966ce	-0.028491404
27	0x3c4239df	0.011854618
28	0x3cb37988	0.021908537
29	0x3cdfce24	0.027319975
30	0x3cc7c16f	0.024384229
31	0x3cf18880	0.029484034

bottleneck.2.weight f4 [32, 32, 3, 3]
0	0xbc3d5c21	-0.01155761
1	0xbcf78026	-0.030212473
2	0xbe4517cd	-0.1924736
3	0xbdd986ff	-0.106214516
4	0xbe3cc269	-0.18433537
5	0xbc89e965	-0.016834924
6	0xbd94e7c8	-0.07270771
7	0xbdfaf1e0	-0.12253165
8	0xbc485b7e	-0.012228845
9	0x3b3ca23b	0.002878322
10	0xbe3790dd	-0.17926355
11	0xbca79639	-0.020457374
12	0x3b7c92a6	0.0038539558
13	0x3dd3a492	0.10334124
14	0x3d8d0e16	0.06887452
15	0x3d9fcda6	0.07802896
16	0xbd179ad4	-0.03701289
17	0xbc87f3ab	-0.016595682
18	0xbd433249	-0.047655378
19	0x3e631887	0.22177325
20	0x3d1a647a	0.03769348
21	0xbdc124d4	-0.094308525
22	0x3d92871b	0.071546756
23	0xbcc05306	-0.023477089
24	0x3dbe3c39	0.0928883
25	0xbd8c27c0	-0.06843519
26	0x3dbc3cc9	0.09191281
27	0xbcd91a2b	-0.026501736
28	0x3dc90b0f	0.098165624
29	0x3c96b62a	0.01839741
30	0xbb6566de	-0.003500394
31	0x3e1d20cf	0.15344547
32	0x3db19ff3	0.08673086
33	0x3d5bf66c	0.053701803
34	0x3dee356f	0.116312854
35	0x3d2b7344	0.041857973
36	0x3d2ba5d6	0.0419062
37	0xbc071c50	-0.008246496
38	0x3d815a3f	0.06316041
39	0x3c3f3a95	0.011671682
40	0xbd9831f5	-0.074314035
41	0x3e1ff75b	0.15621702
42	0xbbf56394	-0.0074886773
43	0x3d0a26c1	0.033728365
44	0xbe18cb73	-0.1492136
45	0xbe3e51af	-0.18585847
46	0xbe209fdd	-0.15685983
47	0xbd674331	-0.056460563
48	0x3dbc7c5b	0.092034064
49	0x3d64a035	0.055816848
50	0x3dea73f0	0.114478946
51	0xbd9aa006	-0.07550053
52	0xbd758909	-0.05994514
53	0x3d5b31cd	0.05351429
54	0x3e813513	0.25235805
55	0xbd83851b	-0.06421872
56	0xbcb60017	-0.02221684
57	0x3d846364	0.0646427
58	0xbd016222	-0.031587727
59	0xbd330f6e	-0.043715887
60	0xbd0205f3	-0.031743955
61	0xbcef18e8	-0.02918668
62	0xbdc64a87	-0.09682184
63	0x3c66ac1a	0.014079118
64	0x3bfd0970	0.0077220723
65	0x3e013409	0.12617506
66	0x3ce481fd	0.027894014
67	0x3d9e73c4	0.07736924
68	0x3cfcbab5	0.030850748
69	0xbd33ab55	-0.043864567
70	0x3cc30cc3	0.023809796
71	0x3d7e1ddc	0.062040195
72	0xbe3599bb	-0.17734425
73	0x3c4425ea	0.01197193
74	0xbde6e443	-0.11274006
75	0x3d664532	0.056218334
76	0xbc1ac1f3	-0.009445655
77	0x3d014c4a	0.031566896
78	0x3d7fe186	0.062470935
79	0xbda9ec52	-0.08297028
80	0x3d12c8bc	0.035835966
81	0x3c24a7bc	0.010049757
82	0x3c812211	0.015763314
83	0xbd351397	-0.044208135
84	0xbd317d72	-0.043332525
85	0x3d5bafec	0.05363457
86	0xbd73af2a	-0.05949322
87	0xbc81b4cd	-0.015833283
88	0xbe67ff2b	-0.22655933
89	0xbdf30184	-0.118655235
90	0xbca16a1f	-0.019703923
91	0x3cd4cf93	0.025977885
92	0xbd1286b7	-0.035773005
93	0xbda4ea94	-0.08052555
94	0x3dfde589	0.12397296
95	0x3d980fe8	0.07424909
96	0x3c9ebb8c	0.019376539
97	0x3d7bee52	0.061506577
98	0x3d20a786	0.039222263
99	0x3c2d896b	0.010591845
100	0x3da87cdf	0.08226942
101	0x3e311b54	0.17295581
102	0x3de4d660	0.11173701
103	0x3e3bc7a1	0.18337871
104	0xbd0f7152	-0.03502018
105	0x3d6ee1b9	0.058320735
106	0xbdee7c04	-0.11644748
107	0x3d04a630	0.03238505
108	0xbd27c444	-0.040958658
109	0xbd74fd21	-0.059811715
110	0xbcb9905c	-0.022651844
111	0xbb93c2b0	-0.0045092925
112	0xbd50984e	-0.0509265
113	0xbdb5c964	-0.08876303
114	0xbdf885d6	-0.12134902
115	0xbdd71f7f	-0.10504054
116	0xbe2367ad	-0.15957518
117	0x3ba8d514	0.005152354
118	0x3da584a6	0.08081941
119	0xbddfb87a	-0.10923858
120	0xbdb02bf8	-0.086021364
121	0x3c51034b	0.012757133
122	0x3d469e86	0.048491023
123	0xbe531078	-0.20611751
124	0x3c9efebf	0.019408582
125	0x3db51f99	0.088439174
126	0x3df42371	0.119208224
127	0x3d121170	0.03566116
128	0xbe065ea8	-0.13122046
129	0x3e0549d0	0.13016438
130	0x3e16cdd6	0.14726958
131	0xbe57fe01	-0.21092989
132	0xbd8fda80	-0.070240974
133	0x3e15242f	0.14564584
134	0x3d191d02	0.03738118
135	0xbd683774	-0.05669351
136	0x3daccb0b	0.08437165
137	0x3c869aec	0.016431294
138	0xbdd352a8	-0.103185
139	0x3d04a79c	0.032386407
140	0x3d02e666	0.031958006
141	0x3db3027b	0.087407075
142	0xbdbdcace	-0.092671975
143	0x3dd1d4c6	0.102456614
144	0x3e531020	0.2061162
145	0xbe16911e	-0.14703795
146	0xbc92f186	-0.017937433
147	0xbd59369d	-0.0530306
148	0x3d47e1cb	0.048799317
149	0x3c7990c8	0.015232272
150	0xbde02632	-0.10944785
151	0x3d4bb978	0.049737424
152	0xbcdf547b	-0.027261963
153	0xbc9b367f	-0.018946884
154	0xbd52d8d9	-0.051476333
155	0x3de8f7a1	0.113753565
156	0x3c5f96c0	0.013646781
157	0xbd0ea134	-0.034821704
158	0x3d19c4db	0.03754125
159	0x3cc896af	0.024485914
160	0x3df372be	0.1188712
161	0xbd38eb35	-0.045146186
162	0xbcc88e12	-0.024481807
163	0xbde7e882	-0.11323644
164	0xbdb1804d	-0.086670496
165	0xbe4cccd2	-0.20000008
166	0x3cfc5cae	0.030805912
167	0xbe06d055	-0.1316541
168	0x3c26ff7d	0.010192749
169	0x3e2b707a	0.16742125
170	0xbcf4511f	-0.029823838
171	0xbda5be4c	-0.08092937
172	0xbd28b0ee	-0.04118436
173	0xbe0d29b0	-0.13785434
174	0x3d380f76	0.04493662
175	0x3d31f967	0.04345074
176	0xbe21ff75	-0.15820105
177	0x3c2487ff	0.01004219
178	0x3d964eff	0.07339286
179	0x3e13e92d	0.14444418
180	0xbcdb1a2c	-0.026745878
181	0xbdf76aea	-0.12080939
182	0x3dfdf596	0.124003574
183	0xbdd5d59c	-0.104411334
184	0xbd1ea62f	-0.038732704
185	0xbdb63bb9	-0.0889811
186	0xbda4256f	-0.080149524
187	0x3da0e826	0.07856779
188	0x3de9c458	0.11414403
189	0xbe83be01	-0.257309
190	0x3bef368c	0.0073002037
191	0x3d1e3042	0.03862024
192	0xbd867832	-0.06565894
193	0x3cae0d1a	0.021246482
194	0x3cf8ed60	0.030386627
195	0xbe238848	-0.15969956
196	0x3dca3881	0.098740585
197	0x3ca1cb83	0.019750362
198	0x3d09b21d	0.033617128
199	0xbde4336c	-0.111426204
200	0x3cb9c762	0.022678081
201	0xbd3d3a6c	-0.046198294
202	0x39e455e5	0.00043551545
203	0x3e34d993	0.17661123
204	0x3c8fe4bc	0.017565124
205	0xbe0b6287	-0.13611804
206	0x3d7eee5b	0.062239032
207	0x3d46b50f	0.048512515
208	0x3d6cb808	0.057792693
209	0xbdc8bbfa	-0.09801479
210	0x3ca6bf01	0.02035475
211	0xbe2b597e	-0.16733357
212	0xbbdb562d	-0.0066936226
213	0xbd5e9a4f	-0.05434638
214	0xbb4a94d8	-0.0030911472
215	0xbe038855	-0.12844975
216	0x3c352f54	0.011058647
217	0x3c98dc46	0.018659722
218	0x3c93df12	0.018050704
219	0x3d498b7a	0.04920528
220	0xbcf65ca5	-0.030073473
221	0x3de40e31	0.11135519
222	0x3c8251b2	0.015908096
223	0x3d69520d	0.056963015
224	0x3d08b9de	0.03338038
225	0xbdeecbb1	-0.11659945
226	0xbd8ad211	-0.06778348
227	0x3c614b9c	0.013750937
228	0xbd3810e7	-0.044937994
229	0xbdd61943	-0.10454037
230	0x3dd16ac7	0.10225444
231	0x3d8e3ca4	0.0694516
232	0xbd48a733	-0.04898758
233	0x3d3bf2ad	0.04588573
234	0x3d2d3acf	0.042292412
235	0xbe03e2e9	-0.12879528
236	0xbcad1759	-0.021129297
237	0x3e316b3f	0.17326067
238	0xbdf1e817	-0.11811846
239	0xbdabd62a	-0.08390458
240	0x3cf72a18	0.030171439
241	0xbc5ff2c2	-0.013668718
242	0xbd9e9daf	-0.077449195
243	0x3d68cab4	0.056833938
244	0x3d5dde94	0.054167345
245	0x3d3f8ad2	0.04676325
246	0x3cab4002	0.020904545
247	0x3d94aea6	0.07259874
248	0x3e23418b	0.15942971
249	0xbdb56914	-0.08857933
250	0xbce9c54f	-0.028536467
251	0x3ccdede1	0.025137844
252	0x3e19c282	0.15015605
253	0x3e6972f2	0.22797754
254	0x3e7f4be1	0.2493129
255	0xbd2fe49c	-0.04294263

bottleneck.2.bias f4 [32]
0	0x3ce387d9	0.027774738
1	0x3d37d788	0.04488328
2	0x3cfa84ed	0.030580962
3	0xbc692155	-0.014229138
4	0xbc1046d9	-0.008805954
5	0xbc6be4c1	-0.014397801
6	0x3cd6aa9f	0.026204405
7	0xbb930490	-0.004486628
8	0x3d0db7c2	0.034599073
9	0x3c11fdb5	0.008910586
10	0x3d06a84f	0.032875355
11	0xbd0b7b05	-0.034052867
12	0xbd144f2c	-0.036208317
13	0x3cec9a6f	0.028882233
14	0xbc5e56f9	-0.013570541
15	0x3cdb5f0e	0.026778724
16	0x3ce14e6d	0.027503217
17	0xbc588a95	-0.013216634
18	0x3d0e1f7d	0.034698
19	0xbc32d819	-0.0109157795
20	0x3ced7cb7	0.028990133
21	0x3b5d99f9	0.0033813699
22	0xbd391570	-0.04518646
23	0xbbbb5c52	-0.0057177925
24	0x3ce0e83f	0.027454494
25	0x3d00b658	0.031423897
26	0xbd0668f3	-0.03281493
27	0x3cec7056	0.02886216
28	0x3c12ac0f	0.008952155
29	0xbcacf4f1	-0.02111289
30	0x3cd6af38	0.026206598
31	0x3b9a3ddd	0.0047070817

up1.weight f4 [32, 16, 2, 2]
0	0x3d976f8c	0.07394323
1	0x3d802cb0	0.062585235
2	0xbe877844	-0.26458943
3	0xbcdf9fe4	-0.027297921
4	0xbde46217	-0.11151522
5	0x3dea1649	0.11430032
6	0x3dabf409	0.083961554
7	0x3e9cc617	0.3061988
8	0xbe3f6c82	-0.18693736
9	0xbdab10df	-0.08352827
10	0x3dc6d219	0.09708042
11	0x3c877432	0.016534898
12	0xbda2fed3	-0.0795876
13	0x3d9c8086	0.076417014
14	0x3de89d9f	0.11358189
15	0xbdbb3b3f	-0.0914216
16	0x3b8e8220	0.004349008
17	0x3e999417	0.29995796
18	0x3da796fc	0.08183095
19	0xbd9fbb25	-0.07799367
20	0x3d10da0b	0.035364192
21	0xbe25f914	-0.16208297
22	0x3c921c0e	0.017835643
23	0xbdb58acd	-0.08864365
24	0x3e08cd20	0.13359499
25	0x3deb2499	0.1148159
26	0xbd2895ad	-0.041158367
27	0xbdbe2c2f	-0.09285771
28	0x3c9479a0	0.018124402
29	0xbe5c51a8	-0.21515524
30	0x3e688fed	0.22711153
31	0x3d82a45d	0.06379006
32	0xbe673497	-0.22578655
33	0x3de7440f	0.11292278
34	0xbe621879	-0.22079648
35	0xbdb1f04c	-0.08688411
36	0x3d4863ba	0.04892323
37	0xbd6d6fc5	-0.05796792
38	0x3e3e5e50	0.18590665
39	0x3e4df179	0.20111646
40	0xbdf3da39	-0.11906857
41	0x3e428990	0.18997788
42	0x3da7c661	0.08192135
43	0x3e0bc393	0.13648824
44	0x3ba0b148	0.004903946
45	0x3dd7e8fa	0.10542484
46	0xbdbe1e8a	-0.092831686
47	0xbcb582b2	-0.022157047
48	0x3dc3e95e	0.09565996
49	0xbe8268e6	-0.25470656
50	0xbcfb8e44	-0.030707486
51	0x3da7bd52	0.08190407
52	0x3cf0fad1	0.029416474
53	0xbd6ded2a	-0.058087505
54	0x3e8ed760	0.27898693
55	0x3e1c078e	0.15237257
56	0xbdf1a625	-0.11799268
57	0xbe6f3ae9	-0.23362316
58	0x3d88098a	0.066424444
59	0xbd1146f7	-0.035468068
60	0x3bc9b7ff	0.0061559672
61	0x3e638fd9	0.22222842
62	0xbdc3d397	-0.09561842
63	0x3d444398	0.047916025
64	0xbe577ac9	-0.21042933
65	0xbe3c41dc	-0.18384498
66	0x3c444c1c	0.0119810365
67	0xbe02dcfa	-0.12779608
68	0xbe7eba5e	-0.24875781
69	0xbe057797	-0.13033901
70	0xbe51d744	-0.20492274
71	0xba48306f	-0.00076366117
72	0x3e988c74	0.29794657
73	0x3dc4eaf0	0.09615123
74	0xbd2f3dbe	-0.04278349
75	0xbdbf2097	-0.09332388
76	0x3deb85e0	0.11500144
77	0xbd080c86	-0.03321507
78	0x3dd2a91a	0.1028616
79	0xbde5b4d9	-0.112161346
80	0xbe1cc63f	-0.1531
81	0xbdecb228	-0.11557418
82	0xbd72f495	-0.059315283
83	0xbe7ae2b4	-0.24500543
84	0xbc999142	-0.018746022
85	0xbcadbd9e	-0.02120858
86	0x3d2d9b7c	0.04238461
87	0x3d750bac	0.059825584
88	0xbdfa7407	-0.12229162
89	0xbda946a5	-0.082654275
90	0xbe21acca	-0.1578857
91	0xbeb11a2b	-0.34590277
92	0x3da370f9	0.07980532
93	0x3dd7664f	0.10517561
94	0xbe44c09e	-0.19214103
95	0xbda563cd	-0.08075676
96	0xbe4d93f2	-0.20075968
97	0xbd2576e7	-0.040396597
98	0xbe8159f4	-0.2526394
99	0x3e05fde2	0.1308513
100	0x3d92dc12	0.07170881
101	0x3e0d8e3a	0.13823786
102	0x3dc188cc	0.0944992
103	0x3cb25a89	0.021771686
104	0xbd8c948e	-0.06864272
105	0xbe43dd35	-0.19127353
106	0xbb55fdb8	-0.003265245
107	0x3d9a1904	0.075243026
108	0xbe08473c	-0.13308424
109	0xbc18f67d	-0.009336111
110	0x3e67b36c	0.22627038
111	0x3ba21a3d	0.0049469755
112	0xbda844af	-0.08216225
113	0x3dcd4dd6	0.10024612
114	0x3d6f6378	0.05844447
115	0x3dd2c29e	0.102910265
116	0x3ddfd8b2	0.10930003
117	0x3cc8ab8b	0.02449586
118	0x3e51dc2a	0.20494142
119	0xbd842e3a	-0.064541295
120	0x3d564f63	0.052321803
121	0x3e32027d	0.17383762
122	0xbd736b13	-0.059428286
123	0xbdcdeb1e	-0.10054611
124	0xbe3a8b4e	-0.18217203
125	0xbdf617fe	-0.12016295
126	0xbe70faba	-0.23533145
127	0xbd4d41f9	-0.050111745
128	0xbd02d717	-0.031943407
129	0xbd83ca96	-0.064351246
130	0xbdfa0319	-0.12207622
131	0x3e819a3f	0.25312993
132	0x3a4e1d21	0.0007862617
133	0xbd1041ac	-0.03521888
134	0xbe186acc	-0.1488449
135	0xbd7d3502	-0.06181813
136	0x3d369d7e	0.04458379
137	0x3d8d623f	0.069035046
138	0x3e5ebd11	0.2175181
139	0x3e7f4ca3	0.24931578
140	0x3def7d5d	0.11693833
141	0x3d99f39b	0.07517167
142	0x3ea14ff6	0.31506318
143	0xbce0ab82	-0.027425531
144	0xbd55650d	-0.052098323
145	0xbc9be0ef	-0.019028155
146	0xbe5c9ee8	-0.21544993
147	0xbe4e6add	-0.20157953
148	0xbc804e6d	-0.015662396
149	0x3d143ddf	0.036191817
150	0xbd98117d	-0.074252106
151	0xbd0287c7	-0.03186777
152	0x3d2d2c6f	0.042278703
153	0x3e0b3b1d	0.13596769
154	0xbd1fd577	-0.039021935
155	0xbe16de6c	-0.14733285
156	0xbed40a8d	-0.414143
157	0xbd39a73b	-0.0453255
158	0xbd9df8db	-0.07713481
159	0xbc9b96ff	-0.018992899
160	0x3e43177c	0.19051927
161	0xbc369d1b	-0.011145855
162	0xbe1f4e2c	-0.15557164
163	0x3eb2fda7	0.34959146
164	0x3dd525af	0.10407578
165	0x3de9556a	0.113932446
166	0x3e476acf	0.19474338
167	0xbd7c2596	-0.061559282
168	0x3d0cf4cc	0.034413144
169	0xbbd1a1f0	-0.0063974783
170	0x3d04bb23	0.03240503
171	0xbd87bc72	-0.0662774
172	0x3d41ef4b	0.04734735
173	0xbda37f15	-0.07983223
174	0x3dbc65c6	0.09199099
175	0xbdc93dbb	-0.09826227
176	0xbcb89abd	-0.022534722
177	0x3ccb5837	0.024822338
178	0xbd4125c6	-0.047155164
179	0x3e81450d	0.25247994
180	0xbd05e830	-0.032692134
181	0xbc881c9d	-0.016615206
182	0x39c29340	0.00037112273
183	0x3e8d836e	0.27639335
184	0xbdca6332	-0.09882201
185	0x3e10361d	0.14083143
186	0xbd7a1076	-0.061050855
187	0xbe1a9d13	-0.15098982
188	0x3ddef214	0.108860165
189	0xbde81719	-0.113325305
190	0xbd21ccba	-0.039501883
191	0xbe18d4a6	-0.14924869
192	0xbdb91e45	-0.090389766
193	0x3d455cba	0.048184134
194	0x3d12db15	0.035853464
195	0x3dd3c7ef	0.10340869
196	0x3dde4c04	0.108543426
197	0x3e0fd147	0.14044677
198	0xbe8e383b	-0.27777275
199	0x3dac2afa	0.08406635
200	0xbe191a94	-0.14951545
201	0xbe397972	-0.18112734
202	0xbd5601a2	-0.05224765
203	0x3dc12bdc	0.09432194
204	0xbe96c9e6	-0.2945091
205	0xbb66b8f5	-0.0035205458
206	0x3d8732b4	0.06601468
207	0x3e272b01	0.16324998
208	0x3da60e15	0.08108155
209	0xbdddee59	-0.10836477
210	0x3e04654f	0.12929271
211	0xbd6b8760	-0.05750215
212	0xbc4859bc	-0.012228426
213	0xbc757134	-0.014980603
214	0x3da34b62	0.079733625
215	0x3dc36f39	0.095426984
216	0xbcff7c26	-0.031187128
217	0xbbfb24dd	-0.0076643066
218	0x3eb897db	0.36053357
219	0x3cd58dcd	0.026068592
220	0xbcda165f	-0.026621995
221	0x3dff128b	0.12454709
222	0x3cb2a255	0.021805922
223	0xbd7a8ae6	-0.06116762
224	0xbba2aaec	-0.004964223
225	0xbc993c27	-0.01870544
226	0x3ce851ad	0.028359259
227	0xbd73544b	-0.05940656
228	0x3db5df5c	0.08880493
229	0xbe5355b5	-0.20638163
230	0x3d692fd4	0.056930378
231	0x3e60634e	0.21912882
232	0xbdcc0519	-0.0996191
233	0xbd13d53d	-0.03609203
234	0x3e100994	0.14066154
235	0xbe497cac	-0.19676465
236	0x3cf80d1c	0.030279689
237	0xbe231238	-0.15924919
238	0x3d9b348d	0.07578383
239	0x3da289fc	0.07936475
240	0xbcc6df96	-0.024276536
241	0x3ddc8ed8	0.10769433
242	0x3df80388	0.121100485
243	0xbe079fe7	-0.13244592
244	0x3e02f82a	0.1278998
245	0xbcd98961	-0.026554765
246	0x3e06ceb4	0.13164788
247	0xbe0e802e	-0.13916084
248	0x3e771854	0.24130374
249	0xbd6ffaba	-0.05858872
250	0x3dfad30f	0.122472875
251	0xbd6860f7	-0.056733098
252	0xbe207cf1	-0.15672661
253	0x3da66dee	0.08126436
254	0x3dac6df4	0.084194094
255	0x3ceb2ca0	0.028707802

up1.bias f4 [16]
0	0x3ca31261	0.019906225
1	0xbd06b3a1	-0.03288615
2	0x3cda44c7	0.026644124
3	0xbd054f0a	-0.03254608
4	0xbcd5b05c	-0.026085071
5	0xbcf14e99	-0.029456424
6	0xbcfa17ab	-0.030528864
7	0xbce963b1	-0.02848992
8	0xbcc19b61	-0.02363366
9	0x3cc3a681	0.023883106
10	0xbc9ffddb	-0.019530227
11	0x3cd900f8	0.02648972
12	0x3ceb8d1f	0.028753815
13	0x3cd3c99f	0.025852976
14	0xbcd14352	-0.025544796
15	0xbcce7335	-0.02520142
