sampling-based_planning_framework/checkpoints/checkpoint_epoch_39.pth (torch, 386034 bytes, 75 tensors)

enc1.0.weight f4 [8, 1, 3, 3]
000000 52 3f ca bd 9e 8b d5 3d 65 ac 6f 3d fc 00 10 3e
       -0.09875359 0.104270205 0.058514018 0.14062876
000010 ed d5 eb bd a7 ea ab 3d 3e 93 0d 3d ce 42 35 be
       -0.115154125 0.08394366 0.03456425 -0.17701265
000020 b5 57 8d bd 01 00 24 3e 3b ca 11 be 6e ed 49 3d
       -0.069014944 0.16015626 -0.14237301 0.049298696
000030 45 2d 60 3e a9 ff 79 bd ab f5 08 3e a7 24 3f bd
       0.21892269 -0.061034832 0.13374965 -0.046665814
000040 94 b4 19 3e ae ad 18 bd 33 a7 2f 3e ee 2c 50 be
       0.15010291 -0.03727501 0.17153625 -0.2032964
000050 48 9f 0f be 49 f5 20 3e 42 e1 95 bd d5 a2 0d be
       -0.14025605 0.15718569 -0.07318355 -0.13831647
000060 b8 b5 b8 be 0c 1d 37 be 56 ff a6 bd 07 49 53 3d
       -0.3607614 -0.17882174 -0.0815417 0.051583316
000070 e0 7f a0 3c 1d b3 2b be 8e 39 0a 3d 93 3c 04 3e
       0.019592226 -0.16767545 0.033746295 0.12913732
000080 b6 23 9f 3e 4d 60 94 bc 54 db 45 ba 52 a2 09 39
       0.31081933 -0.018112326 -0.0007547636 0.00013125807
000090 e3 0e 9b bd 66 13 24 3d 32 f1 aa bd 78 66 87 be
       -0.07571199 0.040057562 -0.083467856 -0.26445365
0000a0 58 c6 5f 3e b6 8b 37 bd b5 21 6d bd d3 23 d5 3d
       0.21853006 -0.044810973 -0.057893474 0.104072236
0000b0 ed db 9b be c8 a6 53 3e 13 e5 6f 3e 00 ae bb bc
       -0.30441228 0.20669091 0.23427229 -0.022910118
0000c0 33 a0 c1 3e ee 6d 5c bd 5c 45 ca bd d4 91 88 3d
       0.37817535 -0.053815775 -0.098765105 0.066684395
0000d0 99 4d 84 be 61 a7 7c be 13 0f b3 3c 17 09 f8 3c
       -0.25840452 -0.24673225 0.021857774 0.030277772
0000e0 df 3a ae 3d ea 21 e8 3d ec 77 ab bd 45 fb f9 3e
       0.085073225 0.113345936 -0.08372483 0.48824516
0000f0 bf 82 03 bd 0a 01 d4 3d 29 17 bc 3d 59 34 e1 3d
       -0.03210711 0.10351761 0.09184105 0.10996313
000100 3b ad aa be 60 96 90 3d c2 93 0b be a9 1a 8e bd
       -0.3333529 0.07059932 -0.13630584 -0.06938679
000110 0b d7 67 3e e9 92 74 3d 46 30 ed bd 39 61 21 3d
       0.22640626 0.059710417 -0.11581473 0.03939936

enc1.0.bias f4 [8]
000000 be 7e 0b 3d ea e4 1b 3b d8 fc 00 3d 67 7a ac b8
       0.034056418 0.0023787566 0.03149113 -8.224398e-05
000010 fe 07 39 3d db 5b b1 b9 06 09 8e ba 5a 3b 9d 39
       0.045173638 -0.00033828508 -0.001083643 0.00029989594

enc1.2.weight f4 [8, 8, 3, 3]
000000 78 fc 9e 3d 62 92 7e 3d f4 c7 87 bd 24 3f 7c be
       0.07762998 0.06215132 -0.06629935 -0.24633461
000010 6b d9 fa 3e e4 28 08 3e 35 33 39 bd 64 a8 2d 3c
       0.48994002 0.13296849 -0.04521485 0.0105992295
000020 b3 0d 92 bc 4f ef b7 bd fe 72 f7 bd 93 ab f2 bd
       -0.017828798 -0.08981191 -0.1208248 -0.118491314
000030 4e 51 b3 bd ed 59 f5 bd 87 4c 29 3e ea 5b 34 3e
       -0.08755742 -0.119800426 0.16533099 0.17613187
000040 21 38 21 3e d5 aa 8e be 06 d9 82 3d b0 28 36 3e
       0.15744068 -0.2786471 0.0638905 0.17788959
000050 a0 df 14 3e 1b b7 fd bd fd 1b ec 3d 9c 84 e6 bd
       0.14538431 -0.1238844 0.11528776 -0.11255762
000060 2e ec 5d be a4 fb e2 3d 8b a4 55 3c 92 5c 95 3d
       -0.21672127 0.11083153 0.013039718 0.07293047
000070 4f 9f 51 3d 77 22 65 be 63 56 1f 3e a5 ff 0b 3a
       0.05117732 -0.22376429 0.15560298 0.0005340523
000080 96 dd a1 3c 39 68 ee bc 81 4b 81 3b fe 8b 3f be
       0.01975898 -0.029102432 0.0039457683 -0.18705747
000090 05 a8 a2 3c 1f 84 84 3d ba 8e 33 3e 32 39 48 be
       0.019855509 0.064705126 0.17534915 -0.19553068
0000a0 3e 73 7a 3d bb d8 a2 3d 09 b4 d6 3c 9b 47 29 bd
       0.06114506 0.07951494 0.026208894 -0.041328054
0000b0 13 15 22 3e 5a c1 00 3d 91 ac a7 be 31 e0 8e 3d
       0.15828352 0.031434394 -0.32748845 0.06976355
0000c0 8f f0 85 bc 48 aa 97 3e 21 65 5c be b7 c3 13 3e
       -0.016350059 0.29622102 -0.21522953 0.14430128
0000d0 b1 9e 3c be 7f df 17 be 9a 95 a9 bd 28 86 1f 3e
       -0.18419911 -0.1483135 -0.08280487 0.1557852
0000e0 62 28 c7 bc f4 95 d9 3d b5 0f 9a bd e9 ba 02 bd
       -0.024311248 0.106243044 -0.07522527 -0.031916533
0000f0 2c b5 42 3d 52 34 e5 be 90 50 ee bc 9a 18 ca bc
       0.04753606 -0.4476648 -0.02909115 -0.024669934
000100 70 4c 7a bc 79 fc 6d 3e 74 f8 62 bd 46 19 8f 3c
       -0.015277013 0.23240842 -0.055412725 0.017468106
000110 e9 bb 4b 3d f9 3f a8 3c 49 83 0a bd 73 4c a8 bd
       0.049739752 0.020538317 -0.03381661 -0.082177065
000120 f7 a6 4a be 42 9f 3f 3c 5e a9 e0 3c db 99 05 3e
       -0.19790255 0.011695685 0.02742451 0.13046972
000130 a5 e6 19 3e 8d f2 cf 3d 8c b4 11 be b4 a5 37 3e
       0.1502939 0.10153685 -0.1422903 0.17934304
000140 0e e3 5e be 1c 0a 1c bc 78 4f 84 3e 08 e3 00 be
       -0.21766302 -0.009523895 0.2584188 -0.12586606
000150 a5 57 2a 3e 89 a8 46 bd 65 ac 09 3e cd d4 45 bc
       0.16634996 -0.04850057 0.1344467 -0.012074661
000160 7b c7 99 be 05 3d 1e 3e 02 35 4e 39 a7 d0 95 be
       -0.30035004 0.15452965 0.00019665438 -0.29260752
000170 7e 1e 82 3e f8 9c 99 bc c7 b3 20 3e 35 ab d7 3d
       0.2541389 -0.018751606 0.1569358 0.10530702
000180 e5 67 7d 3c a4 65 1f 3e 01 e2 03 be d3 20 d5 3c
       0.015466665 0.15566117 -0.12879182 0.026016628
000190 72 36 19 bd 3a 04 5e 3e 91 27 d4 3e 00 95 87 bd
       -0.03740544 0.216813 0.41436437 -0.06620216
0001a0 6a ce 78 b8 fb 34 87 3d 34 cb 0b 3f f5 d4 e2 3d
       -5.9320046e-05 0.06601902 0.5460694 0.110757746
0001b0 87 a6 86 be 1d fd 2c 3d c1 8e 04 bd ba 62 ac be
       -0.26298925 0.042233575 -0.032362703 -0.33669072
0001c0 ec c0 15 3e 9c a3 3e be 78 b4 47 bd c3 8f 22 3e
       0.14624375 -0.186171 -0.048756093 0.15875153
0001d0 80 f7 b2 3e 74 13 8e bd 05 6c 25 be d3 14 f2 3a
       0.34954453 -0.06937304 -0.16154487 0.0018469341
0001e0 ea 3a 7c 3d 07 82 6f 3e c0 7f fe 3d 7f c8 4c 3c
       0.061579622 0.23389445 0.1242671 0.012498974
0001f0 7d 1c 7e bd 4c b4 8c bc d4 ef 76 3e 8d 16 90 bc
       -0.062038887 -0.017175816 0.24114925 -0.017588878
000200 79 bc 92 be 7d 15 93 3e 7a 8c 41 3e a1 05 d1 bd
       -0.28659418 0.28727332 0.18901244 -0.10206152
000210 67 e3 d2 3e b0 b8 4d 3e 3c 57 3c 3d d2 6b 3a bc
       0.4118912 0.20089984 0.04598163 -0.011378245
000220 d2 2b a7 3e 7b da 4e 3d 09 d0 8b 3e 8a 28 79 3e
       0.3265062 0.050501328 0.27307156 0.2433187
000230 2c 54 1a 3e 05 79 28 3e 51 64 be bd 9d db c9 3d
       0.15071172 0.16452415 -0.092964776 0.09856341
000240 e8 5e e6 3d a8 0c 3a 3e 3f 48 e2 3c f5 63 4c 3e
       0.11248571 0.1816889 0.02762234 0.19960006
000250 e9 32 ce 3d d9 1c dd bd fb 09 d7 3d e5 0a 08 3f
       0.10068304 -0.10796518 0.104999505 0.53141624
000260 43 58 13 be c6 ad b5 be 9f 99 af bd 6c a8 9b 3d
       -0.14389138 -0.3548414 -0.08574223 0.07600483
000270 91 cd 72 3e 06 0d 2b bd 35 27 5d bd 65 97 10 3e
       0.2371123 -0.041760467 -0.05399247 0.14120252
000280 b6 c7 d8 be 4d 01 32 be 79 77 6a be 0e 03 bb bd
       -0.42339867 -0.17383309 -0.22897138 -0.09131442
000290 7c 5d af be 7b 1c ae 3d 12 10 96 3d 67 53 84 3e
       -0.3425101 0.08501526 0.07327284 0.2584488
0002a0 af 6b 8b 3d 31 70 35 3e 43 2d a2 bd ad f8 9f 3e
       0.068076484 0.17718579 -0.07918789 0.31244412
0002b0 9a fa b7 3c 7d 08 bc bc fe ff 9d bd a7 c9 6a 3d
       0.022458363 -0.022953266 -0.07714842 0.057321217
0002c0 b4 59 82 3d 80 99 2f be 76 fe 52 be bf 61 98 bd
       0.06364766 -0.171484 -0.20604882 -0.074405186
0002d0 3c 8c 4a 3e 52 6d f9 bd 19 57 ba 3e a5 2e 71 be
       0.19780058 -0.12179054 0.36394575 -0.2355295
0002e0 a7 5e 5a bd e0 16 19 3e 5c 6c 4c be 4f 96 75 ba
       -0.053312924 0.14950132 -0.19963211 -0.0009368406
0002f0 a8 35 26 3c 8c 4b 01 be c1 b2 a7 be 62 23 9b 3e
       0.010144629 -0.12626475 -0.32753566 0.30300432
000300 b5 25 0b 3e 72 c2 90 be 2a 6f 93 be 63 b0 8f 3d
       0.13588603 -0.2827335 -0.2879575 0.07016065
000310 60 3f a6 be a1 e8 11 3d cf 3e b6 3d 88 62 e4 bc
       -0.32470226 0.035622243 0.088986985 -0.027879015
000320 76 7c 12 be f7 91 91 be 42 73 a3 3e bd 90 4c 3d
       -0.1430529 -0.28431675 0.31923872 0.04994272
000330 4f 5e 4d be 1b e1 ad bd 48 d1 1e 3e 4b 44 b9 3d
       -0.20055507 -0.08490201 0.15509522 0.09046229
000340 69 06 7f bd db 5e 85 bd 07 c8 8e 3e 65 1f d3 bd
       -0.062261973 -0.06512233 0.27886984 -0.103087224
000350 8b f0 ef bd 7a 08 d2 3d e2 bf f9 3d 51 b1 e3 bd
       -0.11715802 0.10255523 0.12194802 -0.11117805
000360 3c e0 d6 3c 66 2d 80 3e 12 7c ae bb 73 b4 53 bd
       0.02622997 0.25034636 -0.005324849 -0.05168576
000370 58 cf e6 3c 87 75 4f be 48 93 2f 3e b6 b3 49 3c
       0.028175041 -0.20259677 0.17146027 0.012310913
000380 95 eb fa 3c 35 97 ab be ca aa b0 be 10 b4 58 be
       0.030629912 -0.335138 -0.34505302 -0.21162438
000390 1c 09 ca bc 93 58 5a be 57 35 c7 bd 0a f8 7a 3e
       -0.024662547 -0.21322851 -0.09726971 0.24508682
0003a0 2f ed 21 3e fc 53 b1 3d f5 7c d1 bc f0 58 6d 3d
       0.15813135 0.08658597 -0.02557228 0.057946146
0003b0 f0 61 57 3d be b0 b3 bd 05 14 b8 bc 3e 53 cf 3d
       0.052583635 -0.08773945 -0.022470484 0.10123299
0003c0 b4 ea 26 3d f3 ec 4e 3e 5e 1e 4c be 05 13 0e bd
       0.040751174 0.20207576 -0.19933459 -0.034686107
0003d0 e3 51 9b 3c 97 fa e7 3d 9e 1d 61 be f0 f9 09 be
       0.018959945 0.11327093 -0.21983954 -0.1347425
0003e0 ce e6 ec bc d4 54 12 3d 71 99 11 3e 21 03 da 3d
       -0.02891865 0.03572543 0.1421869 0.10645128
0003f0 c3 22 be 3e ce 8d 4e bd d9 f1 f6 bd 31 56 5f be
       0.37135896 -0.050428204 -0.120578475 -0.21810223

enc1.2.bias f4 [8]
000000 f4 2c ca bc f0 02 4f ba 9f 68 17 3d 24 17 15 bc
       -0.024679638 -0.0007896861 0.03696501 -0.009099755
000010 58 fd f2 3a 19 97 08 3d 20 65 eb 3c 0d 3b ba 3b
       0.0018538637 0.033347223 0.028734744 0.005683309

enc2.0.weight f4 [16, 8, 3, 3]
000000 cb 7b 63 3c 1c 94 36 bd 70 e9 4e bc 74 42 01 be
       0.013884495 -0.04457484 -0.012628898 -0.12623006
000010 77 25 5d be e1 64 c3 3d 97 e2 7e 3d 28 6e ba bd
       -0.21596323 0.095407255 0.06222781 -0.09103042
000020 1d 46 87 3e 37 2a 94 bb fa 8a 3d 3d 6a a3 01 bd
       0.2642068 -0.004521634 0.046275117 -0.031649984
000030 c9 85 5d be 82 77 95 3d 29 d7 1a bd 06 4f 9e bd
       -0.21633066 0.07298185 -0.03780285 -0.07729916
000040 43 a2 21 bd 05 30 3a 3e bd a2 5a bb c7 90 ef 3d
       -0.039461385 0.1818238 -0.003336116 0.11697536
000050 00 81 3c be f5 c6 3c bd c6 47 9a bc a0 44 0a be
       -0.18408585 -0.046088178 -0.018833052 -0.13502741
000060 01 4c bf 3d bb eb 8e 3e 37 11 df 3d f1 01 4c bd
       0.093406685 0.27914223 0.10891955 -0.04980654
000070 75 a1 db 3d 87 67 e5 3d 82 82 97 bc 9a d6 21 be
       0.10724155 0.11201387 -0.018494848 -0.1580452
000080 0a 95 51 bc 32 42 37 be dc e1 23 be 21 75 ac bd
       -0.012791881 -0.17896345 -0.16004127 -0.08420778
000090 19 3b 24 3e 8f 95 50 bd 16 7e 43 be df 8c f0 bc
       0.16038169 -0.05092388 -0.19091067 -0.029364048
0000a0 23 d9 0c 3d 28 57 2a bd 29 01 01 be 4b 20 ee bd
       0.034386765 -0.041587025 -0.12598099 -0.11627253
0000b0 95 98 85 3d c6 de 6b 3d af d2 59 3d 21 a7 0e 3e
       0.06523243 0.0575855 0.05317944 0.13930942
0000c0 96 66 63 3e e9 f1 0a bd a4 ab 13 3e bf 9a 34 3e
       0.22207102 -0.03392211 0.14420944 0.17637156
0000d0 d7 6d 1e bd 2c 6c eb 3d c9 9d 3f 3e f5 a9 5f bd
       -0.03867897 0.114952415 0.18712534 -0.054605443
0000e0 d2 2d 9d be 1a 49 33 be d0 5c 51 3e 06 e5 80 bd
       -0.3069902 -0.17508355 0.20445561 -0.06293683
0000f0 a9 a8 c0 3d 95 ff 5c 3e 78 01 41 3e 9d e8 fb 3b
       0.09407169 0.21581872 0.18848217 0.007687642
000100 68 81 34 be f4 cd c3 3c cd aa 99 bc 69 32 71 bb
       -0.1762749 0.023901917 -0.018758202 -0.0036803728
000110 49 dd f0 3d 96 89 ca bd fe a0 27 be 84 5b a2 3b
       0.11760957 -0.09889524 -0.16370007 0.004954757
000120 40 57 92 3c 71 d6 53 3d c3 77 b5 bc cc 07 2d bd
       0.01786387 0.05171818 -0.022151833 -0.042243764
000130 55 d6 0b bd 33 70 e9 bd 30 57 9a bd b7 87 94 3c
       -0.03413995 -0.113983534 -0.07536161 0.01813112
000140 b9 27 ed 3d da a5 42 bd a2 ac db 3a 4a 63 98 3e
       0.11579842 -0.04752145 0.0016759823 0.29763252
000150 cb 20 e5 3b c1 37 db bd 1a d5 4f 3c fd 91 49 bd
       0.0069924346 -0.107039936 0.012685085 -0.04921149
000160 41 3e ec bb e0 43 cd bd 43 04 36 3d 88 e0 1a 3d
       -0.0072095697 -0.10022712 0.044437658 0.037811786
000170 2e 49 21 3e 09 3e b5 3d 5d da 0a 3d 01 e7 a0 3d
       0.15750572 0.08849723 0.033899654 0.078565605
000180 06 83 4b be 47 ba eb 3d 73 2b 1d 3d d8 a6 da bc
       -0.198742 0.11510139 0.038371515 -0.026690885
000190 0f e6 b1 bd 9b 0f b4 3d ce 44 42 be 11 b2 7a 3d
       -0.08686458 0.08792039 -0.1897156 0.061204974
0001a0 12 df 6a 3b 1e 80 f0 3d 6c 40 6b be 47 d1 e3 3c
       0.0035838527 0.117431864 -0.22973794 0.027809752
0001b0 5c a6 12 3e 40 a5 6f bd 42 85 df bc b8 e2 e9 bc
       0.14321274 -0.058507204 -0.027285222 -0.02855049
0001c0 9f a0 bf 3d 9e d9 7e 3d 1e b4 2d 3e bb ec 77 3e
       0.09356808 0.062219255 0.1696324 0.242114
0001d0 98 07 2f 3c 21 05 71 bd 68 20 b2 bd a8 66 3b 3e
       0.010682963 -0.058842782 -0.08697587 0.18300879
0001e0 45 49 34 3e 48 62 23 3e ef bb 94 3d 15 c5 05 be
       0.17606075 0.1595546 0.07262408 -0.13063462
0001f0 9b 36 c9 3d 32 4c 03 3e 1d 61 55 3e 23 c3 00 3c
       0.09824868 0.12822035 0.20837827 0.007859024
000200 dc c5 9a 3d 11 cd 0a 3d e6 43 4d 3e 98 50 f7 bd
       0.0755727 0.033886973 0.20045432 -0.12075919
000210 85 ff 8f 3c 10 ac f4 bc 72 39 4a 3e 83 5b 84 be
       0.017577896 -0.029867202 0.19748476 -0.25851068
000220 d3 9f 16 3e 59 e7 51 be 15 d5 2b be 8f 08 18 3d
       0.14709406 -0.20498408 -0.16780503 0.037117537
000230 f3 6e a7 bc ad 2b 4b 3d 0f 2a 16 3a ff eb b4 bd
       -0.020438647 0.0496022 0.0005728313 -0.08834075
000240 2d 31 a4 bd 31 b8 63 bc d6 a7 7e be c3 ea 54 bd
       -0.08017192 -0.013898895 -0.24868712 -0.0519817
000250 9b 45 98 3d 55 28 44 3e ea 4d 7b 3e 1b a5 bb 3d
       0.07435151 0.1915601 0.2454144 0.09162351
000260 fd a9 5c be 25 0f 91 bd ed 3f 0e be 59 aa 32 be
       -0.2154922 -0.07082967 -0.13891573 -0.17447795
000270 a1 42 e2 3d 87 e9 4a 3e fc fb 21 bd 4b 9f 16 3d
       0.11047865 0.19815646 -0.03954695 0.036773007
000280 4f 4e ac bd bc 9f 57 be bb 3f 06 3e 88 93 e1 3c
       -0.08413374 -0.21057028 0.13110249 0.027536169
000290 f8 22 40 be e7 6a c6 bd c9 32 a7 3d 5b de 1e 3e
       -0.1876334 -0.09688359 0.081639834 0.1551451
0002a0 e6 6a 52 bd c1 e2 01 be b3 27 b5 3d 53 5c 2e 3e
       -0.051371478 -0.12684156 0.08845463 0.17027406
0002b0 2e d0 d8 b9 9e a6 07 3e bf 48 18 3e c1 9b ef ba
       -0.00041353836 0.13247153 0.148715 -0.0018280671
0002c0 d0 bb 44 bd 99 78 3d 3e 6a b3 36 bc 0e b6 c3 bd
       -0.048030674 0.18503036 -0.011151174 -0.095562086
0002d0 0a c1 88 3d 2c f9 a2 3d 73 16 ed 3d 4d 36 59 3e
       0.06677444 0.07957682 0.115765475 0.2121212
0002e0 f1 11 a2 3d 3d e7 bf 3e e1 0d 9b 3e f1 40 28 3e
       0.07913578 0.37481108 0.30284026 0.16431023
0002f0 e5 53 8e 3d 97 9e d0 bd 8f 05 1f 3e 3a 20 15 be
       0.06949595 -0.101864986 0.15529464 -0.14563075
000300 a3 a2 b8 bd b4 46 8d bd 48 63 34 3e 50 ba 6b 3e
       -0.090153955 -0.06898251 0.17615998 0.23020291
000310 70 51 8f 3d c8 45 d3 bd e9 f8 9c 3d ef ca 97 3d
       0.06997955 -0.10316044 0.07664663 0.074117534
000320 18 a2 b6 bc e8 90 6f 3d d9 6a 23 3e 3c 63 96 3d
       -0.02229409 0.058487803 0.15958728 0.07343146
000330 95 37 ec 3d f8 64 d2 3d 6c 8a 1d 3c f6 42 2f 3e
       0.11534039 0.102731645 0.009615522 0.17115387
000340 42 73 2b be 71 a1 fa 3c 9a 05 19 3e 61 45 12 bc
       -0.16743186 0.03059456 0.14943543 -0.008927674
000350 07 ab 81 3e ef b6 29 be 21 68 34 3d 7a 36 08 be
       0.25325796 -0.1657369 0.044044618 -0.13302031
000360 18 e9 4a bc fd 37 92 3d 95 86 37 3e c5 d0 a3 bc
       -0.012384675 0.07139585 0.17922433 -0.01999701
000370 d9 27 c6 3d c8 2e 91 3e 47 19 0a bc da 43 60 bd
       0.09675569 0.28356004 -0.008428878 -0.05475221
000380 8f 94 87 bd b4 7e a3 be a4 71 d9 bd ee 54 c6 3c
       -0.06620132 -0.31932604 -0.10617378 0.02421042
000390 fe b3 7f bc 1d 30 29 be 0d 16 1e 3d bc 47 14 3e
       -0.015606878 -0.1652226 0.038595248 0.1448049
0003a0 ef c7 75 3b f6 6b c0 3d 4a 20 82 3d e4 d6 8d bd
       0.0037503203 0.09395592 0.06353815 -0.06925753
0003b0 7b cf e4 bd bf f4 9a bd 60 06 d6 3d 39 c6 01 be
       -0.11172386 -0.07566213 0.10450435 -0.12673272
0003c0 72 a6 01 3d c3 e2 98 3c c4 a7 ac 3c 41 a2 a7 bc
       0.031652875 0.018662816 0.02107609 -0.02046311
0003d0 da 35 f2 bd 88 24 77 3e a5 65 a2 bb a1 9e 4d bd
       -0.118266776 0.2413503 -0.0049559646 -0.05020011
0003e0 18 9a a7 3d de ae c8 bd 88 7a 63 3e 97 72 ef 3d
       0.08183688 -0.09798978 0.2221471 0.11691778
0003f0 ff 1b 88 be 69 7f 62 be 9a e2 14 3d 6f 16 e7 3c
       -0.2658386 -0.22118916 0.036348917 0.02820894

enc2.0.bias f4 [16]
000000 0a 04 04 3d b0 8b 09 3d a2 04 81 bc 71 19 2a 3d
       0.032230414 0.033580482 -0.01574928 0.04152817
000010 52 fd 0d 3c a8 63 12 3d b7 35 ad bc 16 8f d7 bc
       0.008666353 0.03573957 -0.021143777 -0.026313346
000020 3f 95 dc 3c 82 6e 32 3c b8 9e 00 3d b1 57 12 3d
       0.026926635 0.010890605 0.031401366 0.03572816
000030 19 b7 f7 3c d0 f1 e6 3c 47 bf a6 3c fe a6 09 3d
       0.030238675 0.028191477 0.02035488 0.03360652

enc2.2.weight f4 [16, 16, 3, 3]
000000 57 e4 34 bb 60 fb 33 3d cd 11 a9 bc 55 15 e2 bd
       -0.0027601921 0.0439409 -0.02063837 -0.11039225
000010 f6 ca 15 3e bc f3 4f 3d 24 bd 5b bd 50 04 a9 bc
       0.14628205 0.050769553 -0.053647175 -0.02063194
000020 c3 e1 53 3c 78 a2 01 be cb 3f 69 3e 4b ea e1 bd
       0.012932244 -0.12659633 0.22778241 -0.11031016
000030 5e 25 3a be d3 0e 35 3d 09 e1 3f 3e 64 6a 6f be
       -0.18178317 0.04420359 0.18738188 -0.23380429
000040 99 72 04 bd f1 06 de bc a4 0b db bd bb 43 81 bd
       -0.03233585 -0.02710292 -0.1069558 -0.06311747
000050 99 e8 06 be 05 f5 b9 bd e1 0b a1 3e c0 1d 34 3d
       -0.13174666 -0.09079937 0.31454375 0.043973684
000060 fa a9 1b bd 7f c9 19 3e ac 18 a8 bd cb 53 54 3e
       -0.0380039 0.15018271 -0.08207831 0.2073509
000070 8e db 1b 3e 86 14 38 bd 12 24 20 3e 16 22 29 3e
       0.15220472 -0.044941448 0.1563876 0.16516909
000080 e3 ea dc bd 9c 44 9f bd 77 86 a2 be 55 8c 37 3e
       -0.107869886 -0.07776758 -0.31743214 0.17924626
000090 67 e1 28 bd dd 29 84 bd 34 f7 05 3e 19 33 38 be
       -0.041230585 -0.06453297 0.13082582 -0.17988242
0000a0 d9 3d f9 bd 76 36 65 3e 85 8b ad bd 66 41 cc be
       -0.1217 0.22384056 -0.08473877 -0.39893645
0000b0 df e4 b7 bd d2 7d 3c 3c dd c6 0c bd 6c 68 fd 3d
       -0.089792006 0.011504607 -0.03436934 0.123734325
0000c0 1d 9c bb 3c 6a 29 d8 bb ef 35 e8 bd d5 6c ad bd
       0.022901589 -0.006596734 -0.11338412 -0.08468024
0000d0 33 ef 83 be bf 5c a3 bd 1e b3 b7 3c 3e ee 05 bd
       -0.25768432 -0.07976674 0.022424277 -0.03269791
0000e0 78 ce bf bd 7a f4 03 3e e6 ab 02 be bc de 2d 3e
       -0.09365553 0.12886229 -0.12760887 0.16979498
0000f0 b2 c1 42 3d b7 3a e9 3d b5 ef 21 3d 7c 5a 61 3d
       0.047548003 0.11388152 0.039535243 0.055017933
000100 53 c3 d2 3d 92 d4 94 3d 26 56 fa bd cd b2 67 bc
       0.102911614 0.07267107 -0.12223463 -0.0141417505
000110 46 2d 19 be 81 dc eb 3d 53 bc 21 3e e8 2a 87 bc
       -0.14958677 0.11516667 0.15794496 -0.016499951
000120 57 cf 80 3e 2a 8a 18 3c e4 4a 35 3e 39 b8 b1 bd
       0.25158188 0.009310285 0.1770435 -0.08677716
000130 e2 0f 74 3d 92 0f 5c 3e 4d 18 08 bb 90 50 5c be
       0.05958546 0.21490315 -0.0020766438 -0.21515107
000140 30 f5 33 3e 2c 06 51 be 77 aa 0e bd cf a4 5b be
       0.17574 -0.2041251 -0.034830537 -0.21449588
000150 6a 83 1a 3e f9 ef 23 3e dc 12 ae 3d 53 4a 1f bd
       0.15089193 0.16009511 0.08499691 -0.03888924
000160 c6 90 43 be b9 98 4a 3e 71 1a 1d 3a b1 cf 16 be
       -0.19098195 0.19784822 0.0005993015 -0.14727665
000170 f9 b4 dc 3d f1 87 94 bd a2 f8 f0 3d 18 37 e7 3c
       0.10776705 -0.07252491 0.11766173 0.028224513
000180 28 3e 82 be 2b 48 37 3d 05 ed 38 3e ae 4c fc 3d
       -0.25438046 0.04474656 0.18059166 0.12319313
000190 99 bb 36 bd 05 6c 66 bd 4a 24 83 bd 05 02 16 3e
       -0.0446125 -0.05625536 -0.06403406 0.14649208
0001a0 66 94 a0 3d d4 af f3 3c 9f b8 da bc 21 ae 73 3d
       0.07840805 0.029746927 -0.026699362 0.059492234
0001b0 28 ea b1 bd 48 ce c7 3c f5 ab 4d 3e 3f 48 52 be
       -0.0868724 0.024390355 0.20085128 -0.20535372
0001c0 0d c2 7a bd d9 35 9a bd 25 f7 97 3b e2 7f 14 3e
       -0.061220217 -0.07529802 0.004637616 0.14501908
0001d0 37 b8 17 3e 95 c7 c2 3c 87 66 b5 3d a4 ef 19 be
       0.14816366 0.023776809 0.08857446 -0.15032822
0001e0 1c 62 19 3e c0 23 0d 3e 12 ae 87 bd c4 17 c3 3d
       0.14978832 0.13783169 -0.06624998 0.09526017
0001f0 52 e0 8c 3c 91 6b 82 bd 55 ea 25 3e 33 36 96 bd
       0.017196808 -0.06368173 0.16202672 -0.073345564
000200 2c 71 de bd 1e 95 de bc 37 c6 aa bd 24 a0 39 3d
       -0.108614296 -0.027170714 -0.08338588 0.045318738
000210 1b c7 79 be fc a9 5e 3d 2a b5 d9 bd b8 f9 09 be
       -0.24392359 0.05436133 -0.106302574 -0.13474166
000220 d3 8c 0f 3d f8 80 21 3e b3 5b fc bd bf 58 fe 3d
       0.03504641 0.15771854 -0.12322178 0.12419271
000230 ff a8 40 bd 66 18 77 3d bb d5 3a bd 2a c5 bc 3d
       -0.047036167 0.060326003 -0.045613986 0.092172936
000240 e6 65 ad 3c b7 89 91 3d 23 4a de 3d aa 57 07 bd
       0.021166753 0.07106345 0.10853984 -0.033042587
000250 75 ba ee 3d fc 1a 0e 3e 9e 28 3b 3e 8e 59 b6 bd
       0.116566576 0.13877481 0.18277213 -0.089038
000260 cc 6d 2f 3e 8f 63 35 3e 12 20 bd 3d a2 0c 1b 3c
       0.17131728 0.1771376 0.092346326 0.009463461
000270 c1 43 91 be cc 38 e9 3d 9e 1a df bd f4 e3 69 bb
       -0.28372005 0.11387786 -0.10893749 -0.003568885
000280 e4 5e 9d bd 9f 8f 01 be ef 04 1f 3e 99 20 8b 3d
       -0.076841146 -0.12652443 0.15529226 0.06793327
000290 24 0c f6 3d bd 2e 4b be a9 b6 63 bd a9 a0 1a bd
       0.120140344 -0.19842048 -0.05559412 -0.037750874
0002a0 b9 83 3f bd 0d b1 2e bd 35 af 53 bd ce 2d 4d be
       -0.04675648 -0.042649318 -0.051680762 -0.20037004
0002b0 bf 2d 0c be 70 f1 9d bd e6 a5 f8 3d f8 7f aa bc
       -0.13689326 -0.07712066 0.121410176 -0.020812973
0002c0 d3 5a 53 be 1c da a8 bd 0c 6a 38 bd 96 05 76 3d
       -0.20640115 -0.08244726 -0.04502301 0.06006392
0002d0 83 34 1c bc 54 dd 33 3d 7b 4b c1 3d 20 58 b2 3c
       -0.009534004 0.043912247 0.09438225 0.021770537
0002e0 47 5e 9b 3d 80 f2 58 3e 28 f9 30 3e 74 30 0e 3e
       0.07586341 0.21186256 0.17282546 0.13885671
0002f0 1c 5d b5 3b 4c 0a d5 bb ff 2f 3a 3e 34 06 c5 bd
       0.005534781 -0.0065014716 0.18182372 -0.09620324
000300 5b 16 c7 bd 6c 84 f0 3c ee 7a 92 3d 34 89 51 3e
       -0.09721061 0.029360019 0.07152353 0.20462495
000310 de dc 8a 3e 15 4d 12 bc 4d c6 74 bd fb be 67 bd
       0.27121633 -0.008929511 -0.059759427 -0.056578618
000320 97 f1 5e bd 6c bf 12 be 7f 92 f1 3d 10 1b 0a 3e
       -0.054429617 -0.14330834 0.1179552 0.13486886
000330 bf 02 cc bd 78 5b 97 bd 20 c7 41 3e ea 81 dd 3d
       -0.09961461 -0.07390493 0.18923616 0.10815795
000340 d2 b4 0b be ed 19 09 3e e4 41 10 bb 00 0f da 3c
       -0.13643196 0.13388796 -0.002201193 0.02661848
000350 2a 8c 19 bd 3c 6e ac 3d 56 ee 93 bd 37 99 4f bc
       -0.037487186 0.08419463 -0.07223193 -0.012670807
000360 73 15 9b 3d fb d5 29 3e e5 e3 30 be e8 b0 2a 3c
       0.075724505 0.16585533 -0.17274435 0.010418154
000370 90 13 a0 3e cf 5f 0b 3e 49 07 8d bd 1c 20 b1 3c
       0.31264925 0.13610767 -0.06886155 0.021621756
000380 62 f2 e7 bc 80 fb 8c 3e 0c f3 f5 bd 90 d0 9e bd
       -0.02831382 0.2753563 -0.12009248 -0.07754624
000390 5a ab 84 bd 8c 25 54 3c 12 85 30 ba 38 29 03 be
       -0.06477995 0.012948405 -0.0006733696 -0.12808692
0003a0 f5 1c c0 be 8e 3f 64 bd 16 96 3a bc 00 ea 45 be
       -0.37522092 -0.055724673 -0.011388322 -0.19327545
0003b0 1c c4 5d 3d 6b f8 27 3e af 7a 59 3d e7 97 8b be
       0.054142103 0.16403358 0.053095516 -0.2726433
0003c0 9a fc 2a be a7 97 c2 3d 22 f1 21 bd 36 65 8a 3d
       -0.16697922 0.09501582 -0.039536603 0.06757586
0003d0 10 a3 30 be db bd ad bd 73 55 66 3d 13 1f 15 be
       -0.17249703 -0.08483478 0.056233834 -0.14562635
0003e0 f0 15 99 3e f9 4b fd 3d 3c f7 c0 3e 1f c8 81 bd
       0.2989955 0.12368006 0.37688625 -0.06336998
0003f0 76 ba d9 3c 7b af c5 3c 64 6b dc bc 52 b5 0e 3e
       0.02657817 0.024131527 -0.026906677 0.13936356

enc2.2.bias f4 [16]
000000 29 af 89 3c 78 2e ff 3c f8 5d 02 3b fc e0 50 3c
       0.016807156 0.031150088 0.0019892436 0.012748953
000010 3c b9 07 3d 42 ec e0 3c 4f 8a 4d bb 3c 28 ab bb
       0.033135638 0.027456407 -0.0031362956 -0.005223302
000020 71 25 65 3d cf 28 ff 3c 00 d5 4d 3c e2 6e d9 ba
       0.05594391 0.031147389 0.01256299 -0.0016588832
000030 70 f1 a0 3c 22 6e 59 bc a0 f1 08 3d b2 f8 e6 3c
       0.019646376 -0.013270887 0.033433557 0.028194759

bottleneck.0.weight f4 [32, 16, 3, 3]
000000 c6 e1 c2 bd 40 9f 2d 3d fe cd 47 3d 9b 7f 2c 3d
       -0.09515719 0.0423882 0.048780434 0.04211388
000010 4e 9c b6 3d 63 81 f7 bc 47 7b b6 3c 4c a7 c1 3b
       0.089165315 -0.030213064 0.02227558 0.005909836
000020 04 93 31 be ae fa b0 bc 50 39 4c be 09 df d8 3d
       -0.17341238 -0.021603908 -0.19943738 0.105894156
000030 df a5 9b bc 9a 2a 7f 3d 5e 85 0c 3e b3 97 2b be
       -0.018999992 0.062296487 0.1372275 -0.16757087
000040 e1 d7 4d 3e 82 1b 40 3d ed d8 38 3d 13 d2 c3 3d
       0.20101883 0.046901233 0.04512875 0.09561553
000050 60 28 a1 3d 27 84 49 bd d0 bb 08 3e 63 5d 62 3e
       0.07869029 -0.049198296 0.13352895 0.22105937
000060 b5 58 14 bd 4d 6b f8 bb 38 3a 46 bc ea a3 42 3d
       -0.03621741 -0.0075811506 -0.012098841 0.047519602
000070 dc 34 89 bd c8 a5 73 3c 46 c4 24 bd b8 ac d5 bd
       -0.06699535 0.014871068 -0.040226243 -0.10433334
000080 fa 0d 99 bc f3 65 fa 3d 07 40 36 bc 6f 8a a9 bd
       -0.018683422 0.122264765 -0.011123664 -0.08278357
000090 44 0b af bd f7 6f 93 bd 70 4d 84 bb aa 56 76 bd
       -0.085470706 -0.0719909 -0.0040375516 -0.060141243
0000a0 96 96 3b 3d 7f 62 36 be 81 da c4 3d 18 b6 08 be
       0.045797907 -0.17811011 0.09611989 -0.13350713
0000b0 5a 10 f5 3d 0e f6 0c bd 8a 2d e1 3d 64 f4 9e 3c
       0.119660094 -0.034414344 0.10995014 0.019403644
0000c0 7c a6 d8 bd 07 3e 97 3d ea 7d 42 bd 89 ef f9 3d
       -0.105786294 0.07384878 -0.047483362 0.12203891
0000d0 f9 1e bb 3d 62 bf 3e bd fc c2 12 3d e4 fe fd 3d
       0.09136767 -0.046569236 0.035830483 0.12402132
0000e0 54 04 dd bb d0 b9 77 3d 75 a2 29 bc 8c c6 bb bd
       -0.0067449007 0.06047994 -0.010353674 -0.09168729
0000f0 8c 45 91 bd 9a 48 88 3e d3 d5 bf 3d 98 99 65 bd
       -0.07093343 0.2661789 0.093669556 -0.05605468
000100 5e f5 20 3d c0 6a 43 bd 76 22 15 3d ed 32 18 3e
       0.0392965 -0.047709227 0.036409818 0.14863177
000110 a5 d0 c8 3d f6 9a a6 3c 4e 2e c6 3b f2 1f 21 bd
       0.09805421 0.020337563 0.0060480004 -0.039337106
000120 2e 83 a4 bc 60 40 28 39 22 20 34 be e1 86 32 3d
       -0.020082083 0.0001604571 -0.17590383 0.04358566
000130 1d 43 9a bd 05 56 cf bc ef d1 a3 bd 7a 96 b8 3d
       -0.07532332 -0.025309572 -0.07999026 0.09013076
000140 7b 70 51 3e d9 cb ad bd 4a 82 d3 3d f2 04 7a 3d
       0.20453064 -0.084861465 0.10327585 0.061039872
000150 91 9f dc bc 7f 7c 71 3d c8 68 22 3e ec bb de bd
       -0.026931556 0.05895662 0.15860283 -0.10875687
000160 47 96 00 3d 46 ba d6 38 0f 79 a4 3c 8b 0a da bc
       0.031393316 0.00010239011 0.020077256 -0.026616355
000170 30 50 65 bd aa f0 e4 3d 8f 04 18 3e 1d cf f8 3d
       -0.055984676 0.111787155 0.14845489 0.12148879
000180 af f4 56 bc 34 78 c2 3d e6 b1 d9 bc 76 9a ac 3c
       -0.013119861 0.09495583 -0.026574086 0.021069746
000190 43 2a bf 3d 19 16 87 bd f0 0a 3a 3b e6 25 85 3d
       0.09334233 -0.06596012 0.0028387867 0.06501369
0001a0 1c c4 b7 3b a2 a5 0d 3d 7a 19 8f 3e ab 1d e8 3d
       0.005608095 0.034581788 0.27949125 0.11333784
0001b0 e8 35 99 bc 1b ec 0a 3d 05 de 2d bd bf 91 13 3e
       -0.018702462 0.033916574 -0.042448062 0.14411066
0001c0 44 fa 8a 3d 99 7a b6 bd 46 70 3c bd 89 70 13 bd
       0.06786016 -0.089101024 -0.04600551 -0.035995994
0001d0 2a 9a 49 be 3c 81 8c 3d 8e 3a 44 3d aa 3c 15 be
       -0.19687715 0.06860587 0.047907405 -0.14573923
0001e0 88 2f 3c 3e 73 d3 0a bd 3e 9e 8e 3d f8 e2 d8 3c
       0.18377507 -0.03389306 0.06963776 0.026475415
0001f0 a4 74 2b 3d cf 0a 5e 3e 3d 4f c2 bc c6 1a 2e 3d
       0.041859284 0.2168381 -0.023719424 0.042506002
000200 02 3b 0d be 66 f6 5b 3d 16 4d 2e bd 66 06 14 bd
       -0.13792041 0.05370178 -0.042553984 -0.036138915
000210 fa e6 90 3c a0 b3 e3 bd c2 11 71 bd e8 87 3b 3c
       0.017688263 -0.11118245 -0.058854826 0.011445977
000220 2c dc 29 3e 24 5b 20 3d 23 6f 67 3d fc 3d 4b 3d
       0.16587895 0.03914942 0.056502473 0.04961966
000230 fa c5 34 3d e8 95 c2 3d 3d 03 49 3d 75 e3 31 3d
       0.044134118 0.095012486 0.049075354 0.04342981
000240 75 3d 8a bb 6f 05 d5 bd f3 00 c7 3d cd 8e 1e 3c
       -0.004218752 -0.10401427 0.09716978 0.009677601
000250 8c 09 35 3d c9 36 3b 3c f8 e0 8d bc cf 07 9e bd
       0.044198558 0.011426636 -0.017319188 -0.07716333
000260 bd 13 80 3d 08 8f 93 3d 1e 06 71 bd 2a 0f 5e 3c
       0.06253765 0.072050154 -0.058843724 0.01355342
000270 f0 30 63 3d a2 c1 13 bb 8b 16 3f be c2 ea 50 bd
       0.055466592 -0.0022545834 -0.18660943 -0.051005132
000280 b4 a7 96 bd 2b 77 72 3e 9c ee e1 3b 0c 8b ff bd
       -0.073562056 0.23678271 0.0068948995 -0.12477693
000290 ba 53 ac bd 45 c9 81 bd af b3 d4 bd de bc 53 3c
       -0.08414407 -0.06337217 -0.103858344 0.012923447
0002a0 02 23 5f bd 44 22 53 3d 9a 5d bc 3d e5 97 a8 bd
       -0.054476745 0.05154635 0.091975406 -0.082320966
0002b0 e5 78 96 bd f1 fa 35 3d 0c e3 33 3d 2f 29 5a bd
       -0.073472776 0.04442877 0.0439177 -0.053261932
0002c0 e3 b0 e7 3c f7 f9 7b 3d 28 2b 23 3d 6e 22 db 3d
       0.028282588 0.061517682 0.03983608 0.10699926
0002d0 0e 84 4a 3d 4c 20 89 3c 99 65 dc 3d 71 39 f2 3d
       0.049442343 0.016739033 0.10761566 0.11827362
0002e0 09 e9 b1 3d c0 1d ae 3d 6f ca 3b 3d 7d bf b7 bc
       0.08687026 0.08501768 0.045847353 -0.022430176
0002f0 44 60 b4 bd 6d f8 ff bc b9 60 a3 3c 50 a7 79 bd
       -0.08807424 -0.031246388 0.019943582 -0.060950577
000300 8c 96 dc bc e1 7e 83 3c e9 17 64 bd ad 8b 1b 3d
       -0.026927255 0.016051712 -0.055686865 0.037975002
000310 c9 30 1a bd 46 6d ee 3d 49 5b d5 bd f1 30 18 bd
       -0.03764418 0.11641936 -0.10417802 -0.03715605
000320 92 80 1b be 6f 42 8f 3c 37 cd 96 3d 9f 6f 13 be
       -0.15185764 0.017487733 0.073633604 -0.14398049
000330 a8 fe 81 3d b2 05 d8 3d 26 3c 32 3e 80 0a 2c be
       0.063474 0.10547961 0.17405757 -0.1680088
000340 10 9f 3f bd 62 49 6c be bd 77 d1 3d fc 3d 63 3e
       -0.046782553 -0.23074868 0.102279164 0.22191614
000350 5d 55 4a bd df f9 39 3d 2b 7f ca 3c 98 91 4e bd
       -0.049397815 0.04540431 0.024718842 -0.050431818
000360 e3 9c cd bd 04 7d ca 3d fd 62 0e 3b c9 1e f8 3c
       -0.100396894 0.09887126 0.0021726482 0.030288117
000370 79 b2 fa bc 95 41 36 3c d7 ae 89 bd 19 5b 61 3e
       -0.03060268 0.011124034 -0.06722801 0.22007407
000380 d6 64 f6 3d 3c cd 39 3c d6 08 c4 bc 03 4b ef bd
       0.12030952 0.011340436 -0.023929995 -0.11684229
000390 e1 1c 74 3d e5 ce f0 bd 15 c0 88 bd 93 bb 5b be
       0.059597854 -0.11758212 -0.06677262 -0.21458273
0003a0 67 8e cc 3d 4c 17 eb bd 2e db 8d 3d ba 71 8c 3d
       0.099880986 -0.11479053 0.06926571 0.06857629
0003b0 8d 31 bf bd d3 32 0d 3e 57 c7 c6 bc 00 cc 07 be
       -0.09335623 0.13788919 -0.024264975 -0.13261414
0003c0 54 b4 72 3d 7a ac c2 bb 78 d2 f4 3d 2e b0 61 bd
       0.059254006 -0.005940971 0.11954206 -0.05509966
0003d0 bc cc 4b bc da 86 18 3e aa 33 ba 3d 28 46 7f bc
       -0.012438949 0.14895192 0.090918854 -0.015580691
0003e0 40 45 d6 3d 1d 2b 7c 3d b5 29 97 bb 6e 91 0f 3e
       0.10462427 0.061564554 -0.004613126 0.14020321
0003f0 16 e3 b2 3d 0e 46 13 3e 6a 3f 3b bd 19 6f aa bd
       0.087347195 0.14382192 -0.045714773 -0.083219714

bottleneck.0.bias f4 [32]
000000 e9 f0 fd bc b9 c8 bc 3c 82 8d ee 3c df 57 12 3d
       -0.030998664 0.02304493 0.02912021 0.03572833
000010 8e 53 f2 3c 18 c7 c7 3c 06 82 08 3d 6a ca fa bb
       0.029580858 0.024386927 0.033327125 -0.007653524
000020 0e 3f e2 3c 58 ce 46 bc 01 85 5e 3c 94 53 1a 3d
       0.027617957 -0.012134157 0.013581515 0.037677363
000030 c4 66 0a bc 5a 69 d9 3c e3 9a 35 bb de 1a fd 3c
       -0.008447353 0.026539493 -0.0027710728 0.0308966
000040 5d 68 0b 3d 38 4f 14 3c 9e ff d5 3c 72 12 5d 3d
       0.034035075 0.00905209 0.026122864 0.05397267
000050 dd ad e1 3b d8 4e 4d 3d d4 2c cb 3c 9e 5a 50 bc
       0.006887181 0.05012402 0.02480165 -0.012716917
000060 a8 72 08 3d dc b3 a6 3c b0 b0 e7 bc b3 f3 59 3c
       0.03331247 0.020349436 -0.028282493 0.013302731
000070 4d 7c 9b 3c bb 87 e2 3c 43 ca c3 3c e6 8f fc 3c
       0.01898017 0.027652612 0.023900157 0.030830335

bottleneck.2.weight f4 [32, 32, 3, 3]
000000 1f b4 df bb 44 64 a2 bc 25 43 40 be f8 b9 d3 bd
       -0.006826892 -0.019823201 -0.18775614 -0.10338205
000010 86 57 39 be f7 53 41 bc 73 12 89 bd 55 a4 f5 bd
       -0.18099794 -0.011799804 -0.06692972 -0.119942345
000020 0c 91 54 bc 65 01 64 3b 72 f7 38 be 6b d8 de bc
       -0.012974035 0.003479087 -0.18063143 -0.027202806
000030 e3 0c 86 3b dd 91 d7 3d fa 9e 8d 3d 21 15 a6 3d
       0.0040908917 0.10525868 0.06915088 0.08109499
000040 a0 8a 13 bd 5d aa 78 bc a7 ab 45 bd e5 c1 62 3e
       -0.036020875 -0.0151773365 -0.048259404 0.22144277
000050 4a 81 13 3d 95 b7 c1 bd 16 dc 90 3d 58 4c c8 bc
       0.03601197 -0.094588436 0.07073228 -0.024450466
000060 dc cb bf 3d 97 5c 90 bd 6f 37 c6 3d 0e 07 c9 bc
       0.09365055 -0.0704891 0.09678542 -0.024539497
000070 0e 4e c0 3d 05 4b 89 3c 9a f1 ae ba b3 94 21 3e
       0.09389888 0.016759405 -0.0013347149 0.1577938
000080 ac ee b0 3d 0f 8f 5b 3d df 9d eb 3d a1 e4 25 3d
       0.08639273 0.05360323 0.11504721 0.04050124
000090 1f 8d 2a 3d 93 3a 27 bc 44 8f 74 3d 19 13 53 3c
       0.04163849 -0.010206836 0.05970694 0.012882971
0000a0 06 a4 98 bd 19 f5 1b 3e 41 a5 0e bc 49 ad 0b 3d
       -0.0745316 0.15230216 -0.008706392 0.034100804
0000b0 6f 1b 13 be dd cf 39 be 83 c1 1c be cf 44 77 bd
       -0.14365934 -0.181457 -0.15308194 -0.060368355
0000c0 03 d4 cc 3d ee 0f 79 3d a9 16 f4 3d 79 d1 97 bd
       0.100013755 0.060806207 0.119183846 -0.074130006
0000d0 1f 3c 83 bd d4 1a 71 3d e5 18 34 3e c8 bf 33 3c
       -0.064079516 0.058863476 0.17587622 0.010971017
0000e0 fe 4d 1c 3c 4f 06 a5 3d b1 82 75 bb 26 98 1c 3d
       0.009540079 0.08057844 -0.0037461931 0.038231038
0000f0 27 93 52 bc 27 c5 d1 bc 31 62 87 bd 52 00 7a 3c
       -0.012852467 -0.025606705 -0.066105254 0.015258865
000100 c9 20 4b 3c f1 ec 05 3e c1 84 02 3d b8 78 a1 3d
       0.012397953 0.13078667 0.031864885 0.078843534
000110 54 7f 01 3d 0b 4e 24 bd d6 97 c7 3c 2c cc 83 3d
       0.03161557 -0.04011349 0.024364393 0.06435427
000120 af 3c 33 be 77 68 72 3c 46 bd d9 bd 7b 2b 81 3d
       -0.17503618 0.014795414 -0.10631804 0.06307121
000130 63 25 9a bb 22 18 1e 3d c5 ff 83 3d 37 fd a1 bd
       -0.004704164 0.038597234 0.064452685 -0.07909625
000140 25 ef 1e 3d 0c 8c 21 3c 7f 78 24 3c 33 1e 10 bd
       0.038802285 0.00986005 0.010038494 -0.03518505
000150 cf 61 23 bd 5f ee 4c 3d 46 72 6c bd 6b 95 55 bc
       -0.0398882 0.050032016 -0.057726167 -0.013036112
000160 f4 c7 60 be 03 ec dc bd a2 bf a3 bc 5e d3 d4 3c
       -0.21951276 -0.10787203 -0.019988839 0.025979694
000170 c5 b4 11 bd 95 28 a5 bd 70 1a fd 3d c3 31 98 3d
       -0.035572786 -0.08064381 0.12358558 0.07431366
000180 6f 68 a0 3c 3c a7 78 3d a1 e9 1f 3d 42 66 4c 3c
       0.019581048 0.060706362 0.039041165 0.012475552
000190 ea d9 9f 3d 55 b0 1e 3e cb 09 ed 3d 4f 3b 37 3e
       0.07805236 0.15496953 0.115741335 0.17893718
0001a0 c4 2f fc bc 84 72 8f 3d c8 09 e8 bd 70 50 27 3d
       -0.030784495 0.07004264 -0.113299906 0.040848196
0001b0 a4 96 06 bd 63 99 5d bd 3b e1 04 bd 22 7a 80 bb
       -0.032858506 -0.05410136 -0.03244136 -0.0039208094
0001c0 67 20 69 bd 41 a5 a6 bd c1 3e 00 be 25 33 be bd
       -0.056915667 -0.081369884 -0.12523939 -0.09287099
0001d0 1d fc 1c be 65 ce 37 bc b8 84 9a 3d b4 b2 e7 bd
       -0.15330549 -0.011218642 0.07544845 -0.11313382
0001e0 c9 ce ac bd 5b 45 94 3c a2 6c 41 3d c5 d1 51 be
       -0.08437879 0.018099478 0.04722274 -0.20490177
0001f0 e6 23 87 3c 7b 59 b0 3d ea 07 fe 3d 20 2d 20 3d
       0.01649661 0.08610817 0.12403853 0.039105535
000200 c4 c8 f0 bd 4c d4 0d 3e 56 fd 20 3e fc 03 42 be
       -0.11757043 0.13850516 0.1572164 -0.18946832
000210 e0 21 78 bd 38 47 1a 3e 0a 8a 43 3d f7 8a 66 bd
       -0.06057918 0.1506623 0.047739066 -0.05628487
000220 4c a2 a9 3d 48 4f 6a 3c 68 a0 cd bd ad cc fe 3c
       0.08282909 0.014301129 -0.10040361 0.031103456
000230 60 06 00 3d ad 09 af 3d f9 e8 b6 bd 8c dd d1 3d
       0.03125608 0.085467674 -0.08931155 0.10247335
000240 9c af 4f 3e 7b 35 18 be f7 ed b8 bc 22 f9 56 bd
       0.20281833 -0.14864151 -0.022574408 -0.052483685
000250 45 34 49 3d 88 87 4d 3c 83 e8 dd bd 85 01 4d 3d
       0.049122114 0.01254452 -0.10835364 0.050050277
000260 e7 99 f9 bc 0d 2c a6 bc 6c 59 4f bd b9 d8 ec 3d
       -0.030468894 -0.020284677 -0.05062239 0.11564774
000270 82 25 84 3c e6 21 21 bd 7a 4f 15 3d 82 ea f9 3c
       0.016131166 -0.03933897 0.036452748 0.03050733
000280 df 8c 01 3e 2c c0 43 bd 11 4a 96 bc 2e a8 e2 bd
       0.12651394 -0.04779069 -0.018345864 -0.11067234
000290 35 c6 b7 bd 20 3d 4f be ee d0 df 3c a7 60 ec bd
       -0.08973352 -0.20238161 0.027321305 -0.115418725
0002a0 ac c3 5a 3c 3c ad 30 3e 12 66 bb bc 61 44 8d bd
       0.013352316 0.17253584 -0.02287582 -0.06897808
0002b0 5d 22 03 bd 24 4d 12 be a4 ea 43 3d 76 a7 08 3d
       -0.032015193 -0.1428724 0.047831193 0.03336283
0002c0 f7 c9 2a be a6 41 60 3b e9 1e 84 3d 4e 57 05 3e
       -0.16678606 0.0034218817 0.06451208 0.13021585
0002d0 fc b1 c1 bc d7 ee f6 bd 8b 4b 00 3e 53 81 d7 bd
       -0.02364444 -0.12057274 0.12528817 -0.105227135
0002e0 61 f8 29 bd f3 11 b5 bd 7d 52 a1 bd d3 66 a1 3d
       -0.04149664 -0.08841314 -0.078770615 0.0788094
0002f0 5c 13 f3 3d cf bb 80 be 84 80 fa 3b 42 a5 08 3d
       0.11868927 -0.25143287 0.007644715 0.033360727
000300 94 e1 75 bd c1 f7 89 3c 5f be 06 3d 6e 85 2a be
       -0.06002958 0.016841771 0.032896396 -0.16652462
000310 3c 1b c8 3d dc 7b a9 3c 2b c2 25 3d 87 51 c8 bd
       0.097708195 0.020688944 0.040468376 -0.09781175
000320 40 91 10 3d 99 bd 14 bd b3 b1 05 3c 42 3d 39 3e
       0.03529477 -0.036313627 0.008160043 0.18089774
000330 af 19 c7 3c f2 bc 02 be ce a8 6a 3d 3b b7 46 3d
       0.02430424 -0.1276739 0.05728989 0.048514586
000340 34 ba 6c 3d 26 be c8 bd 7b c0 a6 3c f8 5a 2b be
       0.057794765 -0.09801893 0.020355454 -0.1673392
000350 59 58 db bb 7b 9c 5e bd 04 97 4a bb cf 89 03 be
       -0.0066938815 -0.05434845 -0.0030912766 -0.12845539
000360 e6 e9 36 3c a3 d3 97 3c 2e 71 96 3c 0a 02 48 3d
       0.011164164 0.018533533 0.018364515 0.04883007
000370 59 d0 f9 bc 14 00 e5 3d 92 b9 85 3c 56 e8 68 3d
       -0.030494856 0.111816555 0.016323838 0.056862198
000380 af 22 08 3d a4 94 dc bd 0b 01 86 bd b3 cb 8c 3c
       0.0332362 -0.107705384 -0.06543168 0.017186975
000390 8d 45 42 bd 39 fd d9 bd ea 16 d2 3d a6 aa 86 3d
       -0.04742961 -0.106440015 0.10258277 0.06575517
0003a0 78 5c 50 bd 27 fa 46 3d f6 78 45 3d 3f ff 0c be
       -0.050869435 0.048578408 0.04821106 -0.13769244
0003b0 61 d8 ec bc e6 68 38 3e 4c e8 fa bd 57 72 a3 bd
       -0.028911771 0.18008766 -0.12251338 -0.07980793
0003c0 79 9b f4 3c 4e 61 5b bc 60 22 97 bd 58 d8 7c 3d
       0.029859291 -0.013389898 -0.073796034 0.06172976
0003d0 be 5c 75 3d 7a d3 4c 3d a5 3f c1 3c c3 15 90 3d
       0.0599029 0.050006367 0.023589918 0.07035401
0003e0 9c d4 24 3e c0 5a ad bd 8b 7b c7 bc 89 be f7 3c
       0.16096729 -0.08464575 -0.024350902 0.030242221
0003f0 58 59 25 3e 0e 3c 73 3e 3f 66 88 3e 03 5d 0e bd
       0.16147363 0.23753378 0.26640508 -0.03475667

bottleneck.2.bias f4 [32]
000000 31 96 e7 3c 33 8c 33 3d c0 f8 f9 3c 81 23 69 bc
       0.028269859 0.043834876 0.030514121 -0.014229656
000010 3c 1f 10 bc 2e 0f 6c bc 3f dd d9 3c f3 17 e7 bb
       -0.008796509 -0.014407916 0.026594756 -0.0070524155
000020 aa fe 07 3d 48 f1 0f 3c a5 ec 06 3d e8 62 0a bd
       0.03320185 0.008785553 0.032940526 -0.03378573
000030 ee 8c 15 bd f0 40 ed 3c 93 3f 5b bc 10 db df 3c
       -0.036511354 0.028961629 -0.0133818565 0.027326137
000040 69 b0 c0 3c 97 ce 3c bc 90 e5 0a 3d 70 92 04 bc
       0.023521619 -0.011523864 0.033910334 -0.008091554
000050 2f 4b f7 3c 2d c6 3e 3a f9 64 33 bd f4 5d f5 bb
       0.030187218 0.00072774553 -0.043797467 -0.0074880067
000060 67 b2 e0 3c e2 cb ff 3c b3 73 01 bd 9e ed e8 3c
       0.027428819 0.031225149 -0.03160448 0.028433617
000070 cb 88 48 3c 32 c9 97 bc b3 e0 db 3c 92 12 6f 3b
       0.012239645 -0.018528555 0.026840543 0.0036479575

up1.weight f4 [32, 16, 2, 2]
000000 91 e4 97 3d a6 5f 80 3d 62 7a 86 be 76 0b d6 bc
       0.074166425 0.062682435 -0.26265246 -0.026128512
000010 01 fc e1 bd 72 a4 eb 3d 13 97 a9 3d 47 02 9d 3e
       -0.11034394 0.11505975 0.08280768 0.306658
000020 de 75 3f be d3 c6 ac bd 9a f1 c7 3d 0a 29 85 3c
       -0.18697307 -0.0843636 0.09762879 0.01625492
000030 a0 d5 ad bd a0 94 9d 3d 40 11 e6 3d 29 88 b7 bd
       -0.08488011 0.076943636 0.11233759 -0.08961517
000040 ee 63 4a 3b 0e 55 99 3e 75 57 a4 3d 25 70 a1 bd
       0.0030882317 0.29947704 0.080244936 -0.07882718
000050 26 1f 16 3d 83 78 25 be 59 37 9b 3c 1b 34 b7 bd
       0.0366508 -0.16159253 0.01894729 -0.08945485
000060 5f 63 07 3e ab 6c eb 3d f9 f7 25 bd e2 81 bd bd
       0.13221501 0.11495336 -0.04051969 -0.09253289
000070 d4 65 a3 3c b1 83 58 be 16 6e 69 3e 18 f8 8d 3d
       0.019946016 -0.21143986 0.227959 0.06932086
000080 84 ff 66 be bc d8 e7 3d c8 8d 61 be 9d 49 b1 bd
       -0.22558409 0.11320636 -0.22026742 -0.08656619
000090 36 e6 45 3d ff bf 6b bd f9 8d 3e 3e b6 41 4e 3e
       0.04831525 -0.05755615 0.18608846 0.20142254
0000a0 6f f3 f2 bd 9d 0e 43 3e 9a 23 a7 3d bb e1 09 3e
       -0.118628375 0.19048543 0.08161087 0.13465016
0000b0 f9 97 24 3b 12 06 da 3d d6 a5 bd bd 79 a1 ad bc
       0.0025114997 0.10645689 -0.09260146 -0.02119516
0000c0 f9 5c bf 3d 40 59 84 be 40 4c ed bc a1 f5 a5 3d
       0.09343905 -0.25849342 -0.028967023 0.081034906
0000d0 ac 19 f3 3c a3 48 71 bd 33 d8 8e 3e 91 46 1c 3e
       0.029675327 -0.058907162 0.27899322 0.15261294
0000e0 67 94 f4 bd bc 15 70 be b2 ac 85 3d 02 7e 14 bd
       -0.11942368 -0.23445791 0.0652708 -0.036252983
0000f0 ae 2e ce 3b b9 e3 64 3e 3f 28 c2 bd 8c 8b 47 3d
       0.0062921857 0.22352494 -0.094803326 0.048717067
000100 48 fe 41 be b8 dc 31 be d4 4e 14 3d 51 c6 fe bd
       -0.18944657 -0.17369354 0.03620799 -0.124401696
000110 42 43 7f be 19 29 13 be 7b 3c 5a be ab ee 07 bb
       -0.24928 -0.14371146 -0.21312134 -0.0020741622
000120 e8 71 96 3e df b0 cc 3d 5e c4 2b bd a8 40 b8 bd
       0.2938378 0.09994673 -0.041935317 -0.08996707
000130 a1 58 02 3e d7 83 8d bc be 52 02 3e 8f 7d bf bd
       0.12729122 -0.01727478 0.12726876 -0.0935012
000140 c2 65 2b be f9 62 06 be aa f1 5b bd cd 82 84 be
       -0.16738036 -0.13123693 -0.053697266 -0.25881043
000150 d1 fd e5 bb c3 74 c5 bc 2a 53 3f 3d ac 00 6c 3d
       -0.0070187827 -0.024103528 0.04671017 0.05761783
000160 66 65 f0 bd e8 28 99 bd c9 13 19 be 90 8c be be
       -0.1173809 -0.074785054 -0.14948954 -0.37216616
000170 ff 5f bf 3d 63 f1 d4 3d ea 3b 3f be 1b 5e ba bd
       0.09344482 0.10397603 -0.18675199 -0.090999804
000180 4a 3e 49 be df d7 24 bd f2 8c 82 be a9 e0 f9 3d
       -0.19652668 -0.040244933 -0.25498158 0.12201054
000190 2e 29 85 3d 8a 6c 12 3e 22 8e b4 3d d0 30 ee 3c
       0.06501995 0.14299217 0.08816172 0.02907601
0001a0 9a 95 fe bc 83 f3 2b be 17 c7 06 bc b0 94 c2 3d
       -0.031077195 -0.16792111 -0.008226178 0.09501016
0001b0 c6 9d f4 bd 54 27 66 bb 15 22 68 3e f0 0f 09 3c
       -0.119441554 -0.0035118656 0.22669251 0.008365616
0001c0 15 b2 98 bd d2 51 ec 3d 10 18 92 3d f9 f6 fd 3d
       -0.074558415 0.115390435 0.07133496 0.12400622
0001d0 94 0c d2 3d 00 38 d2 3c 7a ea 50 3e 44 42 87 bd
       0.10256305 0.025661469 0.20401946 -0.06604436
0001e0 4c 7f 78 3d 19 40 32 3e 82 ff 60 bd a1 ae d0 bd
       0.060668275 0.17407264 -0.05493117 -0.10189558
0001f0 52 61 33 be ec 5f f3 bd 47 09 70 be 80 dc 4e bd
       -0.17517594 -0.1188353 -0.23441039 -0.050503254
000200 1e 6b 07 bd 30 05 87 bd 70 59 fe bd c1 66 80 3e
       -0.03306114 -0.06592786 -0.124194026 0.25078395
000210 7a 23 f1 3a 1f 50 ae bc 50 96 19 be 56 31 45 bd
       0.0018397414 -0.02127844 -0.14998746 -0.048142754
000220 0c 3c 30 3d 2b ea 89 3d 0c 45 5e 3e e2 29 7f 3e
       0.043026015 0.06734117 0.21706027 0.24918321
000230 b8 75 e3 3d 2f 93 98 3d 6b 9a 9e 3e 2a 75 e2 bc
       0.111064374 0.07449948 0.30977187 -0.027643759
000240 b5 61 56 bd 59 0d 93 bc 58 6f 60 be 2c d3 4d be
       -0.052339274 -0.0179507 -0.21917474 -0.20100087
000250 f9 68 76 bc 8a f6 1b 3d 72 66 9b bd 7e f4 fc bc
       -0.015039676 0.038076915 -0.07587899 -0.030878302
000260 21 b9 28 3d 10 7c 0c 3e 47 4a 2a bd 1a 63 17 be
       0.041192178 0.13719201 -0.041574743 -0.14783898
000270 7e d8 d2 be 52 05 2c bd 8d a2 91 bd c5 3f 3a bc
       -0.41180795 -0.04199726 -0.07111082 -0.011367743
000280 66 a3 42 3e 2d f6 f8 bb c6 00 1f be 26 12 b5 3e
       0.19007644 -0.007597706 -0.15527639 0.3536541
000290 8a fc d4 3d fb 52 e9 3d 3a ea 44 3e a4 ae 82 bd
       0.103997305 0.113927804 0.19229975 -0.06380966
0002a0 0a 71 0e 3d c9 07 3c bc ff d5 0e 3d 66 3b 87 bd
       0.03477577 -0.0114764655 0.03487205 -0.06603126
0002b0 04 e7 46 3d 8d 68 a4 bd 6c a9 bc 3d 79 b9 d2 bd
       0.048560157 -0.08027754 0.09212002 -0.10289282
0002c0 1e ff c5 bc 3a 43 b9 3c 7e 2e 4f bd 51 e6 79 3e
       -0.0241695 0.022615064 -0.050581448 0.24404265
0002d0 d1 58 09 bd 69 e2 9c bc 6c 7a 21 ba 92 d8 8b 3e
       -0.033531968 -0.01915093 -0.0006159905 0.27313668
0002e0 89 da c5 bd ad 3c 17 3e 54 c3 63 bd 40 77 0f be
       -0.09660823 0.1476924 -0.0556062 -0.14010334
0002f0 dd 4d e3 3d 62 84 e2 bd 52 9d 16 bd 05 1d 16 be
       0.110988356 -0.11060406 -0.036771126 -0.14659508
000300 bf 1f b9 bd e6 5e 45 3d 8f dc 12 3d 1b ca d3 3d
       -0.09039258 0.048186205 0.035854872 0.10341283
000310 30 4e de 3d c1 d2 0f 3e b5 39 8e be 74 2c ac 3d
       0.10854757 0.1404524 -0.27778402 0.08406916
000320 0e 1c 19 be ec 7a 39 be ce 03 56 bd 08 2e c1 3d
       -0.14952108 -0.18113297 -0.052249722 0.09432608
000330 60 cb 96 be 1b bb 66 bb 2e 34 87 3d 7b 2c 27 3e
       -0.29452038 -0.0035206738 0.06601749 0.16325562
000340 8f 0f a6 3d 85 f0 dd bd c9 66 04 3e 8c 89 6b bd
       0.08108436 -0.10836891 0.12929834 -0.05750422
000350 df 5b 48 bc 60 73 75 bc dc 4c a3 3d 65 71 c3 3d
       -0.012228935 -0.014981121 0.07973644 0.09543113
000360 4e 7e ff bc f2 26 fb bb 55 99 b8 3e f9 8f d5 3c
       -0.031188156 -0.0076645548 0.36054483 0.026069628
000370 8b 18 da bc b7 14 ff 3d cd a3 b2 3c 12 8d 7a bd
       -0.026623031 0.12455123 0.021806622 -0.06116969
000380 70 ac a2 bb a1 3d 99 bc d9 53 e8 3c 77 56 73 bd
       -0.004964404 -0.018706145 0.028360294 -0.05940863
000390 d6 e0 b5 3d e1 57 53 be 00 32 69 3d 7a 65 60 3e
       0.08880775 -0.20638992 0.05693245 0.2191371
0003a0 45 07 cc bd b7 d6 13 bd 0e 0b 10 3e d8 7e 49 be
       -0.09962324 -0.03609344 0.14066717 -0.19677293
0003b0 4e 0f f8 3c b2 13 23 be 07 36 9b 3d 76 8b a2 3d
       0.030280735 -0.15925482 0.07578664 0.07936756
0003c0 b9 e1 c6 bc 04 91 dc 3d b4 05 f8 3d 61 a1 07 be
       -0.024277555 0.10769847 0.12110463 -0.13245155
0003d0 a4 f9 02 3e 8d 8b d9 bc 2e d0 06 3e a8 81 0e be
       0.12790543 -0.0265558 0.13165352 -0.13916647
0003e0 80 1a 77 3e e6 fc 6f bd 3b d5 fa 3d 23 63 68 bd
       0.24131203 -0.058590792 0.12247702 -0.05673517
0003f0 6b 7e 20 be 68 6f a6 3d 6e 6f ac 3d cc 2e eb 3c
       -0.15673225 0.08126718 0.08419691 0.028708838

up1.bias f4 [16]
000000 b4 35 b6 3c 66 8f 08 bd a0 53 df 3c 5e 97 ef bc
       0.022242405 -0.03333988 0.027261555 -0.029246982
000010 de 4a d5 bc e2 4f eb bc 88 fc 01 bd c2 43 e2 bc
       -0.026036676 -0.028724615 -0.031734973 -0.0276202
000020 78 b1 c0 bc d6 a0 c4 3c 83 47 b7 bc d8 97 d7 3c
       -0.023522124 0.024002474 -0.022372967 0.026317522
000030 45 08 f0 3c 97 67 d6 3c 36 44 cb bc 79 93 d2 bc
       0.029300818 0.026172442 -0.024812799 -0.025705086
