sampling-based_planning_framework/checkpoints/checkpoint_epoch_55.pth (torch, 386354 bytes, 75 tensors)

enc1.0.weight f4 [8, 1, 3, 3]
0	0xbdd175ab	-0.102275215
1	0x3dd2c6cf	0.10291826
2	0x3d89f159	0.067354865
3	0x3e107b00	0.14109421
4	0xbde802eb	-0.113286816
5	0x3dab521c	0.083652705
6	0x3d026770	0.031836927
7	0xbe35b51d	-0.1774487
8	0xbd89f608	-0.0673638
9	0x3e182d58	0.14861047
10	0xbdfecc7e	-0.124413475
11	0x3d49e7ac	0.049293205
12	0x3e72cd93	0.23711233
13	0xbd94eafc	-0.07271382
14	0x3e125bde	0.14292857
15	0xbd782ecf	-0.060591515
16	0x3e1f3a59	0.15549602
17	0xbd991dd2	-0.07476391
18	0x3e2f5a44	0.17124277
19	0xbe504c0f	-0.20341514
20	0xbe3aafdc	-0.18231148
21	0x3e24f3d5	0.1610864
22	0xbdaa94bf	-0.08329152
23	0xbe207041	-0.15667821
24	0xbeba9c37	-0.36447307
25	0xbe4680a9	-0.19385017
26	0xbdcbaad6	-0.09944694
27	0x3d6258be	0.055260412
28	0x3cbb7034	0.022880651
29	0xbe47c22d	-0.19507666
30	0x3d2c1e97	0.04202136
31	0x3e2716fa	0.16317359
32	0x3eac2227	0.33619806
33	0xbc691521	-0.014226229
34	0x391d1c7b	0.00014983297
35	0x39e1de6d	0.00043081064
36	0xbdca26ae	-0.09870659
37	0x3d408ea6	0.04701104
38	0xbdac4465	-0.08411483
39	0xbe8eb14a	-0.27869636
40	0x3e682a4d	0.22672386
41	0xbd544f90	-0.05183369
42	0xbd54e475	-0.051975686
43	0x3dd1e41d	0.10248587
44	0xbe9994d7	-0.29996368
45	0x3e5ad7c3	0.21371369
46	0x3e6b626e	0.22986767
47	0xbc1fbba9	-0.0097493315
48	0x3ec02f3c	0.37536037
49	0xbd818241	-0.06323672
50	0xbdc0bbbc	-0.094108075
51	0x3daeb606	0.08530812
52	0xbe3f01da	-0.1865305
53	0xbe85b325	-0.2611324
54	0x3c8ffa97	0.017575545
55	0x3d41f7e0	0.047355533
56	0x3dd332a5	0.10312394
57	0x3e038fe8	0.12847865
58	0xbdd89fed	-0.105773784
59	0x3efa5a32	0.4889694
60	0xbd1026bf	-0.0351932
61	0x3dde2aad	0.108479835
62	0x3de83a27	0.11339217
63	0x3dffd610	0.12492001
64	0xbea22f59	-0.31676748
65	0x3db08bb0	0.08620393
66	0xbe1c06ba	-0.15236941
67	0xbdb4cba0	-0.08827901
68	0x3e5fb6b2	0.21847036
69	0x3d8602cb	0.065435015
70	0xbdf73e5a	-0.120724395
71	0x3d5c8f2d	0.05384748

enc1.0.bias f4 [8]
0	0x3d10e8de	0.03537833
1	0x3b08b980	0.002086252
2	0x3d03b7b9	0.032157633
3	0xb9408570	-0.00018360256
4	0x3d5468ff	0.051857945
5	0x38b0d0a7	8.4311985e-05
6	0x3b0a3973	0.0021091371
7	0x3942ce13	0.0001857805

enc1.2.weight f4 [8, 8, 3, 3]
0	0x3d48a986	0.048989795
1	0x3d86e097	0.06585806
2	0xbd95fddb	-0.0732381
3	0xbe77aa38	-0.24186027
4	0x3efafeaf	0.49022433
5	0x3e1f3ff6	0.15551743
6	0xbccea8c8	-0.025226966
7	0xbc33afa9	-0.010967174
8	0xbcc91aa7	-0.024548842
9	0xbdabd71c	-0.08390638
10	0xbdc0914c	-0.09402713
11	0xbde292cf	-0.11063158
12	0xbd20d27f	-0.039263245
13	0xbdd8590a	-0.10563858
14	0x3e3cc7d3	0.18435602
15	0x3e3f92aa	0.18708292
16	0x3e295431	0.16536023
17	0xbe8abe84	-0.27098477
18	0x3d810ee2	0.06301667
19	0x3e262b7b	0.16227524
20	0x3df60b7e	0.12013911
21	0xbde74dc0	-0.112941265
22	0x3df8a7e8	0.121414006
23	0xbdbb0dc5	-0.09133486
24	0xbe53a35b	-0.20667784
25	0x3e018b00	0.1265068
26	0x3d614919	0.055001352
27	0x3d09120d	0.03346448
28	0x3d94552c	0.07242808
29	0xbe81c2e0	-0.2534399
30	0x3e5db81c	0.21652263
31	0x3c6e52d5	0.014546116
32	0x3ce7c2bf	0.028291104
33	0xbc8fb831	-0.017543884
34	0x3cf8d582	0.030375246
35	0xbe41f447	-0.1894084
36	0x3d071fba	0.03298924
37	0x3d8ac04c	0.06774959
38	0x3e2224a1	0.15834285
39	0xbe3695c0	-0.17830563
40	0x3d33fc06	0.04394152
41	0x3d189a1a	0.037256338
42	0xbb306ce7	-0.002692038
43	0xbd51b66f	-0.051199373
44	0x3e1252e2	0.1428943
45	0x3cbdcac1	0.02316797
46	0xbe9fa3f3	-0.3117977
47	0x3d9b37bf	0.07578992
48	0x3c16ff50	0.009216145
49	0x3e9e397f	0.3090324
50	0xbe1b81ae	-0.15186188
51	0x3e32dfe2	0.17468217
52	0xbe28cdd8	-0.16484773
53	0xbe034ef6	-0.1282309
54	0xbdb1fa7f	-0.086903565
55	0x3e2add23	0.1668592
56	0xbcc4b35a	-0.024011303
57	0x3e47f1ba	0.19525805
58	0xbda4ebb2	-0.08052768
59	0xbcbddadc	-0.02317565
60	0x3d771209	0.060319934
61	0xbeecb6ba	-0.4623316
62	0xbd9c6747	-0.07636886
63	0xbbed0ad2	-0.007233956
64	0xbbda0afb	-0.006654141
65	0x3e691834	0.22763139
66	0xbd8c09ed	-0.06837831
67	0xbd5c7b17	-0.053828325
68	0x3d84a7e6	0.064773366
69	0x3e1e3d7c	0.15453142
70	0xbcdc6a16	-0.026906054
71	0xbd9c0086	-0.07617287
72	0xbe46e58e	-0.19423506
73	0x3cf654a5	0.030069659
74	0x3c922ecb	0.017844578
75	0x3e03a5d0	0.12856221
76	0x3e166bcc	0.14689559
77	0x3df29f04	0.11846736
78	0xbe0cc4dc	-0.13746971
79	0x3e39e2fe	0.18152997
80	0xbe603970	-0.2189691
81	0x3caf9090	0.021431237
82	0x3e848336	0.25881356
83	0xbddabafd	-0.106801964
84	0x3e2b34d0	0.16719365
85	0x3c899429	0.016794281
86	0x3e1cd9a4	0.15317398
87	0xbcff7304	-0.031182773
88	0xbe8b53f7	-0.27212498
89	0x3e1ed3f6	0.15510544
90	0x3bac4413	0.0052571385
91	0xbe97bea2	-0.2963763
92	0x3e895248	0.26820588
93	0xbc989af1	-0.01862857
94	0x3e1eb1f7	0.15497576
95	0x3e0345d5	0.12819608
96	0x3ba2713a	0.0049573453
97	0x3e133e36	0.143792
98	0xbe0568a4	-0.13028198
99	0xbca2c951	-0.019871386
100	0xbd875e6c	-0.066098064
101	0x3e512d9d	0.20427556
102	0x3eebe5e5	0.46073833
103	0xbcb508ea	-0.022098977
104	0x3c2ef91f	0.010679512
105	0x3dad3109	0.08456618
106	0x3f0c3f6f	0.5478429
107	0x3dc07eef	0.09399211
108	0xbe8f7d07	-0.28025076
109	0x3d0b6724	0.03403391
110	0xbd07373d	-0.033011664
111	0xbead88c2	-0.338934
112	0x3e14ba89	0.14524283
113	0xbe487db3	-0.195792
114	0xbd8fae0e	-0.0701562
115	0x3e203327	0.15644513
116	0x3eaa900f	0.33313033
117	0xbd937b16	-0.07201211
118	0xbdc74f8d	-0.0973197
119	0x3bc85161	0.0061132167
120	0x3d72586e	0.059166364
121	0x3e6a6ec0	0.2289381
122	0x3dfee26d	0.12445531
123	0x3bcd6712	0.0062683905
124	0xbd530482	-0.05151797
125	0xbcd7a81f	-0.026325284
126	0x3e7451c4	0.23859316
127	0x3b5186a4	0.0031971121
128	0xbe93d3c8	-0.28872514
129	0x3e93463e	0.28764528
130	0x3e54bf0e	0.20776007
131	0xbdbdd40d	-0.09268961
132	0x3ed202a5	0.41017643
133	0x3e643012	0.22283962
134	0x3d244f33	0.040114593
135	0xbcdc62b7	-0.02690254
136	0x3ea877a3	0.32903776
137	0x3e01383d	0.1261911
138	0x3e900790	0.2813077
139	0x3e943f6d	0.2895464
140	0x3e32bc4d	0.17454644
141	0x3e1f0dbe	0.15532586
142	0xbdce02a0	-0.100590944
143	0x3e091f03	0.13390736
144	0x3dc9acfd	0.09847448
145	0x3e4ab824	0.19796807
146	0x3cf3f58b	0.02978017
147	0x3e526eb9	0.2055005
148	0x3dc6a95b	0.09700271
149	0xbdcbc21c	-0.09949133
150	0x3dd293a1	0.10282064
151	0x3f0a1a1a	0.5394608
152	0xbe01b167	-0.1266533
153	0xbeb3e865	-0.3513824
154	0xbd71b513	-0.059010576
155	0x3db32937	0.087480955
156	0x3e5d981d	0.21640058
157	0xbcb9ae96	-0.022666257
158	0xbd505936	-0.05086633
159	0x3df2018a	0.118167
160	0xbee28196	-0.4423949
161	0xbe2d6441	-0.16932775
162	0xbe57b885	-0.21066482
163	0xbd978c8e	-0.073998556
164	0xbeb0cdab	-0.34531912
165	0x3dc45b45	0.09587721
166	0x3d9e3aa8	0.077260315
167	0x3e8603bb	0.2617472
168	0x3d2d3c0b	0.04229359
169	0x3e33b995	0.17551263
170	0xbda0aca6	-0.0784543
171	0x3ea0d1ba	0.3141001
172	0x3cbb6bd6	0.022878569
173	0xbcef547b	-0.029215088
174	0xbd784560	-0.060613036
175	0x3dbf8af8	0.09352678
176	0x3de93ea5	0.113889016
177	0xbe6032a9	-0.21894325
178	0xbe59817e	-0.21240804
179	0xbd6d34c3	-0.057911646
180	0x3e563887	0.20920001
181	0xbe1ddfe7	-0.15417443
182	0x3eb869b2	0.3601814
183	0xbe73602a	-0.23767152
184	0xbd4f3724	-0.050589696
185	0x3e0fe23d	0.14051147
186	0xbe59025f	-0.21192311
187	0xbbb44134	-0.005500937
188	0xb9e9888b	-0.00044542956
189	0xbded2f82	-0.11581327
190	0xbebecbbb	-0.3726481
191	0x3e98d5ae	0.29850525
192	0x3e00cc8e	0.12578031
193	0xbe9b63c0	-0.3034954
194	0xbe9eb02c	-0.30993783
195	0x3d3e64a3	0.046482693
196	0xbebb0918	-0.36530375
197	0x3d10a495	0.035313208
198	0x3da7f45f	0.08200907
199	0xbcb40bee	-0.021978345
200	0xbdf40ee3	-0.11916902
201	0xbe951447	-0.29117033
202	0x3ea91b92	0.33028847
203	0x3d9d42cf	0.07678758
204	0xbe6e8331	-0.23292233
205	0xbdb3921a	-0.08768101
206	0x3e42c5d3	0.19020776
207	0x3ddbbf85	0.10729889
208	0xbd6f8a94	-0.058481768
209	0xbd25cd1b	-0.040478807
210	0x3e8a3a03	0.26997384
211	0xbdb553bd	-0.088538624
212	0xbdd462ad	-0.103703834
213	0x3ddd43ea	0.10803969
214	0x3df585d2	0.11988415
215	0xbe5cf7e4	-0.21578938
216	0x3ce9b281	0.0285275
217	0x3e76c9e9	0.2410046
218	0xb9efefb4	-0.00045764225
219	0xbd63b907	-0.055596378
220	0x3c939a4f	0.018017916
221	0xbe4fc618	-0.2029041
222	0x3e303a23	0.17209677
223	0x3cda8a52	0.026677284
224	0x3d14609a	0.03622494
225	0xbebec88d	-0.37262383
226	0xbea78336	-0.32717294
227	0xbe578df7	-0.21050249
228	0xbcdfab36	-0.02730332
229	0xbe747906	-0.23874292
230	0xbdaec8d7	-0.08534401
231	0x3e8efa9d	0.27925578
232	0x3e18f106	0.14935693
233	0x3de2e575	0.11078922
234	0xbcb7410a	-0.02236988
235	0x3d80894c	0.06276187
236	0x3d30f5a9	0.04320303
237	0xbdc0f939	-0.094225354
238	0xbd0613fb	-0.0327339
239	0x3dc399aa	0.095507935
240	0x3d6e0d57	0.05811819
241	0x3e4be0f6	0.19910035
242	0xbe4e5461	-0.20149375
243	0xbd1f85c8	-0.038945943
244	0x3d2475fe	0.04015159
245	0x3ddf58a2	0.10905577
246	0xbea34b18	-0.3189323
247	0xbe3454ee	-0.17610523
248	0x3c46ac1c	0.012125995
249	0x3dad1133	0.08450546
250	0x3e1b9ee2	0.15197328
251	0x3dea39c9	0.11436803
252	0x3eb989d1	0.36237958
253	0xbd535783	-0.05159713
254	0xbe051c3a	-0.12999049
255	0xbe6a07eb	-0.22854583

enc1.2.bias f4 [8]
0	0xbced54fd	-0.02897119
1	0xbaae35ee	-0.0013291219
2	0x3d1feb4c	0.039042756
3	0xbc2cd14b	-0.010547946
4	0x3b8c42b3	0.004280412
5	0x3d0c4650	0.034246743
6	0x3cf23619	0.029566811
7	0x3bff2a81	0.0077870493

enc2.0.weight f4 [16, 8, 3, 3]
0	0x3c5c6ea0	0.013454109
1	0xbd23c3c9	-0.039981637
2	0xbc66ff08	-0.01409889
3	0xbe07f9c9	-0.13278879
4	0xbe519593	-0.20467214
5	0x3dbc8a88	0.0920611
6	0x3d72c373	0.059268426
7	0xbdb4943d	-0.08817337
8	0x3e850e8b	0.25987658
9	0xbb3d8e30	-0.0028923862
10	0x3d4ad7c2	0.04952217
11	0xbd17dcd5	-0.037075836
12	0xbe62ae56	-0.22136816
13	0x3d9be9e0	0.076129675
14	0xbd3d4bec	-0.046214983
15	0xbdada432	-0.084785834
16	0xbd2f0062	-0.042724974
17	0x3e39a15f	0.18127964
18	0x3bbf12e2	0.0058311084
19	0x3df1e12f	0.118105285
20	0xbe2cc07f	-0.16870306
21	0xbd37590a	-0.04476265
22	0xbc9548c5	-0.018223176
23	0xbe04f543	-0.12984185
24	0x3db582dc	0.0886285
25	0x3e8b28c0	0.27179527
26	0x3de5380a	0.11192329
27	0xbd49d3d1	-0.04927427
28	0x3dd25398	0.102698505
29	0x3de0c956	0.10975902
30	0xbcc4c911	-0.024021657
31	0xbe28b045	-0.16473491
32	0xbc602a94	-0.013682026
33	0xbe3c70fc	-0.18402475
34	0xbe221347	-0.15827666
35	0xbdae8e85	-0.08523277
36	0x3e1c4aba	0.15262881
37	0xbd26128f	-0.040545043
38	0xbe492676	-0.19643578
39	0xbd039147	-0.03212097
40	0x3d2f0b2c	0.042735264
41	0xbd25b54b	-0.040456098
42	0xbe00b80d	-0.1257021
43	0xbdef0560	-0.11670947
44	0x3d8255f5	0.06364051
45	0x3d7817b6	0.060569488
46	0x3d5c2acb	0.053751748
47	0x3e0d82eb	0.13819472
48	0x3e6422ed	0.22278948
49	0xbd0878fb	-0.0333185
50	0x3e137600	0.14400482
51	0x3e335519	0.17512931
52	0xbd157118	-0.036484808
53	0x3decf351	0.115698464
54	0x3e3d4be8	0.18485987
55	0xbd5ebe40	-0.054380655
56	0xbe9f14f0	-0.31070662
57	0xbe35f64e	-0.17769739
58	0x3e4e4a84	0.20145613
59	0xbd85d971	-0.06535614
60	0x3dbdf28c	0.09274778
61	0x3e59d3ef	0.21272253
62	0x3e3cbc82	0.18431285
63	0x3bdb8d2e	0.0067001795
64	0xbe2ee67e	-0.17080113
65	0x3cc834bf	0.024439214
66	0xbcbd70da	-0.0231251
67	0xbba98145	-0.005172881
68	0x3de08c4f	0.10964262
69	0xbdd80e4d	-0.10549603
70	0xbe2deb6a	-0.16984335
71	0x3b2bcd2d	0.0026214824
72	0x3bdb2d48	0.0066887476
73	0x3d3263a1	0.043552045
74	0xbcb0f723	-0.021602219
75	0xbd633eed	-0.055479933
76	0xbcd5b3ab	-0.026086649
77	0xbde93ba5	-0.113883294
78	0xbd868cf0	-0.065698504
79	0x3cb5adf3	0.022177672
80	0x3df26c04	0.118370086
81	0xbd3dc9b1	-0.046334926
82	0x3b976e72	0.0046213204
83	0x3e93f0d2	0.2889467
84	0x3c25bab2	0.010115312
85	0xbdde5067	-0.10855179
86	0x3ba28a7c	0.0049603563
87	0xbd3a7cc5	-0.045529146
88	0xbafd3fd1	-0.0019321387
89	0xbde0d149	-0.10977418
90	0x3d5302ba	0.051516272
91	0x3d664531	0.05621833
92	0x3e25359b	0.1613373
93	0x3db2e0b9	0.08734269
94	0x3d0f6a2e	0.03501337
95	0x3d931bde	0.071830496
96	0xbe3f2d55	-0.18669637
97	0x3de4a148	0.111635745
98	0x3d087fe4	0.03332509
99	0xbca01c29	-0.019544678
100	0xbdb0d48a	-0.086342886
101	0x3daaf408	0.083473265
102	0xbe3ed35c	-0.18635315
103	0x3d76cbd3	0.060252976
104	0x3962915c	0.0002160719
105	0x3df7b5ea	0.12095244
106	0xbe6d2fe1	-0.23162796
107	0x3cde3dd6	0.027129095
108	0x3e069338	0.13142097
109	0xbd53ee2b	-0.051740807
110	0xbcb08160	-0.021546066
111	0xbcfa4159	-0.030548738
112	0x3dcb2c45	0.09920553
113	0x3d7e8aab	0.062143963
114	0x3e32b1cd	0.17450638
115	0x3e770b01	0.24125291
116	0x3c416f06	0.011806255
117	0xbd7a06ff	-0.06104183
118	0xbdb5ffe1	-0.08886696
119	0x3e383070	0.17987227
120	0x3e324f55	0.17413075
121	0x3e21435f	0.15748356
122	0x3d98c587	0.0745955
123	0xbe056d91	-0.13030078
124	0x3dcef918	0.101061046
125	0x3e005ed1	0.1253617
126	0x3e513ff9	0.2043456
127	0x3b0ee8cb	0.0021806236
128	0x3d8ce53c	0.068796605
129	0x3ce5405c	0.02798479
130	0x3e480426	0.19532833
131	0xbdfcc183	-0.12341597
132	0x3c9acb9a	0.018895913
133	0xbcea1d93	-0.028578555
134	0x3e4a63b9	0.19764604
135	0xbe86da5d	-0.26338473
136	0x3e17b4e9	0.14815105
137	0xbe4fb089	-0.20282187
138	0xbe3051fc	-0.17218775
139	0x3d184748	0.037177354
140	0xbcf1c2ee	-0.029511895
141	0x3d32ce50	0.043653786
142	0xbb5d9dc9	-0.003381597
143	0xbdcf688d	-0.10127363
144	0xbd53da02	-0.05172158
145	0xbc8be5da	-0.017077375
146	0xbe4faa74	-0.20279866
147	0xbd1a1b78	-0.037623852
148	0x3dee3d49	0.11632783
149	0x3e5b1b72	0.21397188
150	0x3e8c5276	0.27406663
151	0x3e1cc252	0.15308502
152	0xbe3a05ed	-0.18166323
153	0xbd3b19d0	-0.045678914
154	0xbe20fd99	-0.1572174
155	0xbe1abcf9	-0.1511115
156	0x3dfa70d0	0.122285485
157	0x3e338181	0.1752987
158	0xbceba326	-0.028764319
159	0x3d4792b0	0.048723876
160	0xbde02c26	-0.10945921
161	0xbe6aeeb5	-0.22942622
162	0x3e05202b	0.13000552
163	0x3c4186da	0.011811936
164	0xbe38b003	-0.18035893
165	0xbdcd63c1	-0.10028792
166	0x3d51c857	0.05121645
167	0x3e1de114	0.15417892
168	0xbd834cc4	-0.06411126
169	0xbe0aad1d	-0.135426
170	0x3dc23cab	0.09484228
171	0x3e3824b6	0.17982754
172	0xbc0c6221	-0.008568318
173	0x3df89eda	0.121396735
174	0x3e12e02f	0.14343332
175	0x39e5346e	0.00043717347
176	0xbd4828cc	-0.048867032
177	0x3e3968a0	0.18106318
178	0xbc83122e	-0.01599988
179	0xbdaf0dd5	-0.0854756
180	0x3dbf9cbd	0.09356067
181	0x3da7d0c7	0.08194118
182	0x3df56152	0.11981453
183	0x3e512d24	0.20427376
184	0x3db3162f	0.087444656
185	0x3ec51a0c	0.38496435
186	0x3e9cc61e	0.306199
187	0x3e263a20	0.1623311
188	0x3d85d6b6	0.065350935
189	0xbdcc6a9d	-0.09981272
190	0x3e1ae364	0.15125805
191	0xbe0b52d7	-0.1360582
192	0xbdbc498f	-0.09193718
193	0xbd89eda2	-0.06734778
194	0x3e3cfa71	0.18454911
195	0x3e73101d	0.23736615
196	0x3da1ee2d	0.079067566
197	0xbdcfd5f0	-0.10148227
198	0x3dd0a66a	0.10187991
199	0x3d9960fb	0.07489201
200	0xbccc95ef	-0.024973838
201	0x3d76ce5b	0.06025539
202	0x3e209921	0.15683414
203	0x3da6e64a	0.08149393
204	0x3deba979	0.11506934
205	0x3dbdae83	0.09261801
206	0xbb865e74	-0.004100615
207	0x3e372755	0.17886098
208	0xbe3423d0	-0.17591786
209	0x3cde3a3b	0.027127376
210	0x3e0b6a66	0.13614807
211	0xbc4a52c8	-0.012348838
212	0x3e7c7324	0.24653298
213	0xbe26ce43	-0.1628962
214	0x3d0177cb	0.031608384
215	0xbe1b4f54	-0.1516698
216	0xbcf3ce15	-0.029761354
217	0x3d68e275	0.05685659
218	0x3e239635	0.15975268
219	0xbcd70258	-0.026246235
220	0x3d9e671f	0.077345125
221	0x3e872b04	0.26400006
222	0xbba43ab3	-0.0050118803
223	0xbd74a58f	-0.0597282
224	0xbd55b1c3	-0.05217148
225	0xbeb3871d	-0.3506402
226	0xbe0334e9	-0.12813152
227	0x3ca6bd33	0.02035389
228	0xbd3dee40	-0.04636979
229	0xbe46533b	-0.19367687
230	0x3d1b4907	0.03791144
231	0x3e20e889	0.15713705
232	0xbafdd527	-0.0019365893
233	0x3db70d34	0.08938065
234	0x3d4a7ba4	0.04943432
235	0xbd8e32ee	-0.06943308
236	0xbdb4ecb5	-0.08834211
237	0xbd8bfcd8	-0.068353355
238	0x3dbedce2	0.09319474
239	0xbdff3d04	-0.1246281
240	0x3d2ee5c2	0.042699583
241	0x3c2991cc	0.010349702
242	0x3d02604f	0.03183013
243	0xbcccbc2a	-0.024992067
244	0xbdfc67a0	-0.123244524
245	0x3e72c428	0.2370764
246	0xbc82a169	-0.015946107
247	0xbd6c6dd0	-0.057721913
248	0x3da0fb6f	0.07860457
249	0xbd8255c0	-0.06364012
250	0x3e7336f0	0.23751426
251	0x3e067dd6	0.1313394
252	0xbe97ff1a	-0.29686815
253	0xbe7020c0	-0.23449993
254	0x3ce132af	0.027489988
255	0x3ca4c146	0.020111691

enc2.0.bias f4 [16]
0	0x3d07f5e6	0.03319349
1	0x3d06bc4d	0.03289442
2	0xbc77af7b	-0.015117521
3	0x3d34538f	0.044025
4	0x3c17a29a	0.009255076
5	0x3d1a6f95	0.03770407
6	0xbcaed1cd	-0.021340275
7	0xbce6ac19	-0.028158234
8	0x3cde90df	0.02716869
9	0x3bd7bbe4	0.0065836776
10	0x3d02640e	0.0318337
11	0x3d158a85	0.036509056
12	0x3cfcdcf2	0.030867074
13	0x3cdeaff7	0.027183516
14	0x3cbe8817	0.023258252
15	0x3d17243f	0.0368998

enc2.2.weight f4 [16, 16, 3, 3]
0	0xbaf59fea	-0.0018739675
1	0x3d371e92	0.04470689
2	0xbcaa2d63	-0.020773595
3	0xbdee921a	-0.116489604
4	0x3e0ffcd2	0.14061287
5	0x3d61259a	0.0549675
6	0xbd68b972	-0.05681748
7	0xbccb65f9	-0.024828898
8	0x3b938c66	0.004502821
9	0xbdfda480	-0.123848915
10	0x3e6899b4	0.22714883
11	0xbde2d4d3	-0.11075749
12	0xbe38dd1b	-0.18053095
13	0x3d2dd68b	0.042440932
14	0x3e387ea5	0.18017061
15	0xbe6e7124	-0.23285347
16	0xbd059c5d	-0.032619823
17	0xbcea76ff	-0.028621195
18	0xbdee6bf2	-0.11641683
19	0xbd8853c8	-0.06656605
20	0xbe04e226	-0.12976894
21	0xbdcfbc80	-0.101433754
22	0x3e9f476f	0.31109187
23	0x3d30e5b3	0.04318781
24	0xbd3a10d0	-0.04542619
25	0x3e19f19c	0.15033573
26	0xbd957085	-0.07296852
27	0x3e58ee8b	0.21184747
28	0x3e1795e5	0.14803274
29	0xbd791484	-0.06081058
30	0x3e247e36	0.1606377
31	0x3e31f0aa	0.17376962
32	0xbdcbd9d2	-0.09953655
33	0xbda0d00b	-0.07852181
34	0xbea53ce2	-0.32273012
35	0x3e40fe27	0.18846951
36	0xbd0ea7f0	-0.034828126
37	0xbd44967e	-0.047995083
38	0x3e170861	0.1474929
39	0xbe27624a	-0.16346088
40	0xbdec18fd	-0.11528204
41	0x3e630607	0.22170268
42	0xbd7f0914	-0.062264517
43	0xbecbc68c	-0.39799917
44	0xbdb9e9fa	-0.090778306
45	0x3c2f6ec6	0.010707563
46	0xbd119d05	-0.035550136
47	0x3e00e487	0.12587176
48	0x3cc0f070	0.02355215
49	0xbb3e8b8f	-0.0029074883
50	0xbde52109	-0.111879416
51	0xbda742de	-0.08167051
52	0xbe8283a7	-0.25491068
53	0xbda412f4	-0.080114275
54	0x3cb522e4	0.022111364
55	0xbce33c95	-0.027738849
56	0xbdbda881	-0.09260655
57	0x3e02e613	0.12783079
58	0xbe0090f1	-0.12555291
59	0x3e2a386a	0.16623083
60	0x3d2bcea4	0.041945115
61	0x3de45de8	0.11150724
62	0x3d1d6065	0.038422007
63	0x3d5f21f0	0.054475725
64	0x3dd6a9a0	0.10481572
65	0x3d869790	0.06571877
66	0xbdf63bd4	-0.1202313
67	0xbc236ceb	-0.009974699
68	0xbe1aafae	-0.15106079
69	0x3de6d36b	0.112707935
70	0x3e225d27	0.15855847
71	0xbca80099	-0.020508097
72	0x3e7defc3	0.24798493
73	0x3c641cd4	0.013922889
74	0x3e37bede	0.17943904
75	0xbdb22e67	-0.08700257
76	0x3d83edfe	0.06441878
77	0x3e58f6de	0.21187922
78	0x3a8aeb06	0.0010598607
79	0xbe54bbd8	-0.20774782
80	0x3e2fb4e9	0.17158855
81	0xbe5475e4	-0.20748097
82	0xbd023e16	-0.03179749
83	0xbe4f7800	-0.2026062
84	0x3e15f851	0.14645506
85	0x3e2997a1	0.16561748
86	0x3d9a2524	0.07526615
87	0xbd651b59	-0.055934284
88	0xbe4473d4	-0.1918481
89	0x3e4fdfa7	0.2030016
90	0x3af10e4d	0.0018391103
91	0xbe11b5af	-0.14229463
92	0x3ddc100f	0.107452504
93	0xbd9ec9ad	-0.0775331
94	0x3def3c0c	0.11681375
95	0x3cc416b0	0.0239366
96	0xbe836a40	-0.25667
97	0x3d2ddef6	0.04244896
98	0x3e3a8b2e	0.18217155
99	0x3e04d508	0.1297189
100	0xbd24c3c2	-0.04022575
101	0xbd5388ba	-0.051644064
102	0xbd84e780	-0.064894676
103	0x3e12e464	0.14344937
104	0x3d87beb5	0.06628171
105	0x3cd0526d	0.025429929
106	0xbcf11653	-0.02942959
107	0x3d896179	0.067080446
108	0xbdb3a55e	-0.08771776
109	0x3cc9388a	0.024563093
110	0x3e4c4f24	0.19952065
111	0xbe54c8c3	-0.2077971
112	0xbd82165f	-0.06351923
113	0xbd94adaf	-0.0725969
114	0xba09e5a6	-0.00052603555
115	0x3e1266e1	0.14297058
116	0x3e177e7c	0.14794344
117	0x3cc3c5a0	0.023897946
118	0x3dc5d45d	0.09659646
119	0xbe2067ac	-0.15664548
120	0x3e1866a3	0.14882903
121	0x3e0b7a2d	0.13620825
122	0xbd9564db	-0.07294627
123	0x3dae04f3	0.08497038
124	0x3cbc19ea	0.022961576
125	0xbd830bde	-0.06398748
126	0x3e245888	0.16049397
127	0xbd9448a8	-0.072404206
128	0xbdda9a47	-0.10673957
129	0xbceb2aee	-0.028706994
130	0xbda5e255	-0.0809981
131	0x3d3e65e2	0.04648388
132	0xbe7fa1de	-0.24964091
133	0x3d58e3d2	0.05295164
134	0xbde75a8c	-0.11296567
135	0xbe056099	-0.1302513
136	0x3d39eae1	0.045390014
137	0x3e2c42d2	0.16822365
138	0xbe0043e3	-0.12525897
139	0x3df2dda4	0.11858681
140	0xbd41a95d	-0.047280658
141	0x3d8ab3c9	0.067725725
142	0xbced072f	-0.02893409
143	0x3dc09b65	0.09404639
144	0x3c7c82d5	0.015412052
145	0x3d8ed71c	0.069746226
146	0x3ddd35bf	0.10801267
147	0xbcebedec	-0.028799973
148	0x3dffaf73	0.12484636
149	0x3e0a6810	0.13516259
150	0x3e3ee241	0.18640997
151	0xbdac181f	-0.08403038
152	0x3e2c6439	0.16835107
153	0x3e3671dd	0.17816873
154	0x3db64d19	0.08901424
155	0x3c11c825	0.008897816
156	0xbe8f7690	-0.28020144
157	0x3de12885	0.109940566
158	0xbde449b3	-0.111468695
159	0xba8f7705	-0.0010945505
160	0xbd9b245f	-0.075752966
161	0xbe068189	-0.13135351
162	0x3e180037	0.14843832
163	0x3d6b0d22	0.05738557
164	0x3df70bda	0.120628074
165	0xbe5baff6	-0.21453843
166	0xbd31e7b4	-0.04343386
167	0xbd1be778	-0.038062543
168	0xbd1b070a	-0.03784851
169	0xbd3041b3	-0.043031406
170	0xbd49fbfe	-0.049312584
171	0xbe51d214	-0.20490295
172	0xbe1d72a4	-0.15375763
173	0xbda26903	-0.07930186
174	0x3df8437c	0.121222466
175	0xbce61090	-0.02808407
176	0xbe4c8059	-0.19970836
177	0xbda8b18c	-0.082369894
178	0xbd2412e7	-0.04005709
179	0x3d522f42	0.0513146
180	0xbbced515	-0.0063120225
181	0x3d1013ad	0.035175014
182	0x3d9e60c8	0.07733303
183	0x3ccce135	0.02500973
184	0x3d8bac83	0.068200134
185	0x3e4f548f	0.202471
186	0x3e29bcd7	0.16575943
187	0x3e10433c	0.14088148
188	0xbbfb076b	-0.0076607964
189	0x3b80e7dc	0.00393389
190	0x3e3cc3cc	0.18434066
191	0xbdcc2c3d	-0.09969375
192	0xbdcca8ae	-0.099931106
193	0x3cf9b2e1	0.030480804
194	0x3d853a8f	0.0650531
195	0x3e4eda4f	0.20200466
196	0x3e8d838c	0.27639425
197	0xbc0d5324	-0.008625779
198	0xbd79f812	-0.061027594
199	0xbd73f7bd	-0.059562434
200	0xbd78099b	-0.060556035
201	0xbe15e427	-0.14637814
202	0x3df4d400	0.11954498
203	0x3e0beb96	0.13664088
204	0xbdcef4e5	-0.10105304
205	0xbd96cd6f	-0.07363402
206	0x3e440dea	0.19145933
207	0x3deffa0d	0.11717615
208	0xbe0d8a11	-0.138222
209	0x3e00757d	0.12544818
210	0xbb5fa20f	-0.0034123694
211	0x3ce17948	0.027523652
212	0xbd32af43	-0.043624174
213	0x3da73faf	0.081664436
214	0xbd867e32	-0.065670386
215	0xbc321e7c	-0.010871526
216	0x3d8d4818	0.068985164
217	0x3e2bcfe3	0.16778521
218	0xbe364d89	-0.17803015
219	0x3b9dec2a	0.0048194127
220	0x3ea039b0	0.31294012
221	0x3e07b442	0.13252357
222	0xbd861f5a	-0.065489486
223	0x3cb0d7c5	0.021587262
224	0xbce253c3	-0.027627831
225	0x3e91e5b8	0.28495574
226	0xbdc9b5de	-0.098491415
227	0xbdc725c8	-0.09724003
228	0xbdb32d68	-0.08748895
229	0x3cbfd63d	0.023417586
230	0x3ccc1285	0.024911175
231	0xbe1a5785	-0.15072449
232	0xbed4cdbb	-0.4156321
233	0xbd7c1ab9	-0.061548922
234	0xbc739baa	-0.014868656
235	0xbe3e76fb	-0.18600075
236	0x3d3770a4	0.044785157
237	0x3e32abb6	0.17448315
238	0x3d6c49eb	0.05768768
239	0xbe872206	-0.26393145
240	0xbe235162	-0.15949014
241	0x3dbf6c61	0.093468435
242	0xbd32ddff	-0.043668743
243	0x3d617070	0.05503887
244	0xbe3be7fc	-0.18350214
245	0xbdbd22d7	-0.09235161
246	0x3d50c045	0.050964613
247	0xbe1816ca	-0.14852443
248	0x3e9bf3de	0.30459493
249	0x3e035fe0	0.12829542
250	0x3ec11e1a	0.37718278
251	0xbd8107be	-0.06300305
252	0x3d0ee6a7	0.034887936
253	0x3cbb624a	0.022874016
254	0xbcd93bc6	-0.02651776
255	0x3e0fb876	0.1403521

enc2.2.bias f4 [16]
0	0x3c8f51e5	0.017495105
1	0x3d012ce7	0.031536963
2	0x38ebc3a0	0.00011242111
3	0x3c4db351	0.012554959
4	0x3d088b55	0.033336002
5	0x3cd4ac39	0.025961028
6	0xbb9a579a	-0.00471015
7	0xbbabba33	-0.0052407025
8	0x3d6dbe42	0.058042772
9	0x3cffe0bc	0.031235091
10	0x3c52df16	0.012870571
11	0xbbe7d347	-0.007074747
12	0x3c9c90b9	0.019111978
13	0xbc77a5e8	-0.015115239
14	0x3d0ced79	0.03440616
15	0x3cea0975	0.028568963

bottleneck.0.weight f4 [32, 16, 3, 3]
0	0xbdbc3e20	-0.09191537
1	0x3d177676	0.036978208
2	0x3d4875d1	0.048940483
3	0x3d479033	0.048721503
4	0x3da3f62c	0.08005938
5	0xbd0c53af	-0.034259494
6	0x3cc661ba	0.024216522
7	0x3c48a154	0.012245495
8	0xbe2f214f	-0.1710255
9	0xbc979855	-0.018505255
10	0xbe3f545b	-0.18684523
11	0x3dca13ea	0.098670796
12	0xbca82dc0	-0.020529628
13	0x3d848742	0.06471111
14	0x3e082ff1	0.13299538
15	0xbe2e53a0	-0.17024088
16	0x3e5a2428	0.21302855
17	0x3d1121b4	0.035432532
18	0x3d21ac59	0.039471004
19	0x3db3f53b	0.087870084
20	0x3dad7be7	0.08470898
21	0xbd47c8f3	-0.048775624
22	0x3e06fb12	0.13181713
23	0x3e5f6bbc	0.21818441
24	0xbd10d861	-0.035362605
25	0xbc688ccd	-0.014193726
26	0xbcb75fc6	-0.022384536
27	0x3d2cc717	0.042182054
28	0xbd85b874	-0.06529322
29	0x3bda2c9c	0.00665815
30	0xbd2d37b5	-0.042289454
31	0xbdd2ce95	-0.10293309
32	0xbcfd74fc	-0.030939572
33	0x3dffb93d	0.12486503
34	0xbc398392	-0.011322873
35	0xbdaaa75b	-0.08332702
36	0xbda4ed91	-0.08053125
37	0xbd99d0cf	-0.0751053
38	0xbba4ff36	-0.0050353063
39	0xbd6b94b5	-0.057514865
40	0x3d2eb4a5	0.042652745
41	0xbe32a6e9	-0.17446484
42	0x3dcc9030	0.09988439
43	0xbe0b4c52	-0.13603333
44	0x3dff779e	0.12473987
45	0xbcdb53b4	-0.026773311
46	0x3dd97cea	0.106195286
47	0x3cdb9af7	0.026807291
48	0xbdd32131	-0.10309065
49	0x3d878804	0.0661774
50	0xbd1e9afd	-0.038722027
51	0x3df6260f	0.12018978
52	0x3dbe29a7	0.09285288
53	0xbd3e7994	-0.046502665
54	0x3ceae7da	0.028675009
55	0x3df94cf3	0.1217288
56	0x3c3df1dc	0.011593308
57	0x3d96a591	0.07355798
58	0xbcfcbbb2	-0.030851219
59	0xbdfc8666	-0.12330322
60	0xbd6c9545	-0.057759542
61	0x3e8ace47	0.27110502
62	0x3d9dfb0a	0.077138975
63	0xbd8927e2	-0.0669706
64	0x3d0240be	0.031800024
65	0xbd501cf8	-0.050808877
66	0x3d073e35	0.03301831
67	0x3e1222ba	0.1427106
68	0x3db7ebcd	0.08980522
69	0x3ca02f17	0.019553704
70	0x3b3f521d	0.002919323
71	0xbd3aa40d	-0.045566607
72	0x3b72faf0	0.003707584
73	0x3c806b3c	0.015676133
74	0xbe2561d1	-0.16150595
75	0x3db14a3e	0.08656739
76	0xbd9e2ad0	-0.077230096
77	0xbd3a4919	-0.045479868
78	0xbd31c863	-0.043403994
79	0x3decb04a	0.11557062
80	0x3e494dc0	0.19658566
81	0xbdb65ed7	-0.08904808
82	0x3dd12602	0.102123275
83	0x3d69dcd4	0.057095364
84	0xbce90029	-0.02844246
85	0x3d6492d5	0.055804092
86	0x3e2085af	0.15675996
87	0xbde32407	-0.11090856
88	0x3d0f2af5	0.034953076
89	0xbb75bff4	-0.0037498446
90	0x3c93e1c9	0.018051999
91	0xbcba9801	-0.02277756
92	0xbd75a632	-0.05997295
93	0x3de1ee5f	0.11031794
94	0x3e1981c2	0.14990905
95	0x3df77bd3	0.120841645
96	0xbb5c5e83	-0.003362567
97	0x3dcac0f2	0.09900083
98	0xbc6cad52	-0.01444562
99	0xbc67a279	-0.014137858
100	0x3dad372c	0.08457789
101	0xbd36cc94	-0.044628695
102	0xba36c908	-0.0006972705
103	0x3d6eb05f	0.05827367
104	0x3bca00c4	0.006164642
105	0x3d06a4f8	0.03287217
106	0x3e8e59c0	0.2780285
107	0x3ddb2e46	0.10702185
108	0xbb93e4a0	-0.004513338
109	0x3d12c5ce	0.035833173
110	0xbd2771ea	-0.04088012
111	0x3e1915e9	0.14949764
112	0x3d8e7b0a	0.069570616
113	0xbdc5a385	-0.096503295
114	0xbd25cb15	-0.040476877
115	0xbd19b7c5	-0.037528772
116	0xbe4729e5	-0.19449575
117	0x3da6b57a	0.08140083
118	0x3d814875	0.06312648
119	0xbdf3e4f4	-0.11908904
120	0x3e4121c8	0.18860543
121	0xbd027ba5	-0.031856198
122	0x3d4581d7	0.048219528
123	0x3ab15ee9	0.0013532314
124	0x3cbe40e2	0.023224298
125	0x3e5e2ff8	0.21697986
126	0xbc1d9271	-0.009617434
127	0x3d302677	0.043005433
128	0xbe14d032	-0.14532545
129	0x3d6516e2	0.055930026
130	0xbd3aa767	-0.045569804
131	0xbd072e93	-0.0330034
132	0x3caa6401	0.020799639
133	0xbde4d386	-0.111731574
134	0xbd724cc8	-0.059155256
135	0x3cb2f13c	0.021843545
136	0x3e2d90b0	0.16949725
137	0x3d1e8c74	0.038708165
138	0x3d7768c9	0.060402665
139	0x3d423340	0.047412157
140	0x3d29c299	0.04144535
141	0x3dc347a2	0.09535147
142	0x3d44ec07	0.048076656
143	0x3d1eea7d	0.038797844
144	0x3bca3ff3	0.006172174
145	0xbdbafbf8	-0.091300905
146	0x3dccc590	0.099986196
147	0x3c4bc974	0.012438167
148	0x3d3bbf65	0.045836825
149	0x3c53b0fc	0.012920614
150	0xbcb22ce6	-0.021749925
151	0xbd8ea69e	-0.069653735
152	0x3d81646f	0.06317984
153	0x3d833b3d	0.06407783
154	0xbd85f4f9	-0.065408655
155	0x3bd21507	0.006411198
156	0x3d4922ea	0.049105562
157	0xbae55c9b	-0.0017498912
158	0xbe451482	-0.19246104
159	0xbd58610f	-0.052826937
160	0xbd9b0442	-0.075691715
161	0x3e7671b2	0.24066809
162	0xbb7c8592	-0.0038531763
163	0xbe007391	-0.12544085
164	0xbdacce62	-0.08437802
165	0xbd6b1954	-0.0573972
166	0xbdd21235	-0.10257379
167	0x3c32e309	0.010918387
168	0xbd6d982d	-0.058006454
169	0x3d409a2b	0.047022026
170	0x3db2da05	0.0873299
171	0xbd9350a2	-0.07193114
172	0xbd8e80bf	-0.0695815
173	0x3d251054	0.040298775
174	0x3d2e82c7	0.042605188
175	0xbd58e35c	-0.0529512
176	0x3ccfaa3c	0.025349729
177	0x3d7c2ccb	0.061566155
178	0x3d2ef437	0.04271337
179	0x3ddf5d5a	0.10906477
180	0x3d4fc408	0.05072406
181	0x3ca807dd	0.020511562
182	0x3de0c643	0.109753154
183	0x3df0beeb	0.11755165
184	0x3db3aaf8	0.08772844
185	0x3db93b0e	0.09044467
186	0x3d32eb63	0.043681514
187	0xbca2de6c	-0.01988145
188	0xbdc00265	-0.09375457
189	0xbd17a66e	-0.037023954
190	0x3bbca5ad	0.005757055
191	0xbd81dfa8	-0.06341487
192	0xbcf7682f	-0.030201046
193	0x3bb5ffc8	0.005554173
194	0xbd832ed0	-0.06405413
195	0x3d372046	0.044708513
196	0xbd1bb94c	-0.03801851
197	0x3dd9bf03	0.10632136
198	0xbdf09580	-0.11747265
199	0xbd520618	-0.051275343
200	0xbe0a569c	-0.13509601
201	0x3cf6841a	0.030092288
202	0x3da1ca7b	0.07899948
203	0xbe1b3296	-0.15156016
204	0x3da1ead0	0.07906115
205	0x3de74959	0.11293287
206	0x3e3fb524	0.18721443
207	0xbe330d27	-0.17485486
208	0xbd55d5d0	-0.05220586
209	0xbe70ac48	-0.2350322
210	0x3dd5cbf5	0.10439292
211	0x3e64473f	0.22292803
212	0xbd568b05	-0.052378673
213	0x3d342f7e	0.043990605
214	0x3ccfef8c	0.02538278
215	0xbd5fd1bd	-0.05464338
216	0xbd727d4a	-0.059201516
217	0x3de5ef0f	0.112272374
218	0x3c9e80aa	0.019348461
219	0xbbb5538b	-0.0055336407
220	0xbd180aa8	-0.037119538
221	0xbc599e56	-0.013282379
222	0xbdada120	-0.08477998
223	0x3e5fad7a	0.2184352
224	0x3e0b172c	0.13583058
225	0x3c2f486b	0.010698418
226	0xbcef2f8c	-0.029197477
227	0xbdf4b999	-0.119494624
228	0x3d543ac6	0.051813863
229	0xbe01bba2	-0.12669232
230	0xbd9a376c	-0.07530102
231	0xbe5877d4	-0.21139461
232	0x3dc9c34e	0.098517045
233	0xbdfe6923	-0.12422397
234	0x3d85e4c9	0.06537778
235	0x3d8bbec6	0.068234965
236	0xbdbe0206	-0.0927773
237	0x3e09deea	0.13463941
238	0xbcc4c1b9	-0.024018155
239	0xbe00ab15	-0.12565263
240	0x3d68f8d6	0.056877933
241	0xbc1d8e48	-0.009616442
242	0x3e00e367	0.12586747
243	0xbd36cb24	-0.044627324
244	0xbca4f123	-0.020134514
245	0x3e2386cf	0.15969394
246	0x3d9f299b	0.077716075
247	0xbccc93b2	-0.02497277
248	0x3d9d7c6c	0.07689747
249	0x3d4762d8	0.04867825
250	0xb96c883d	-0.00022557467
251	0x3e0b2e57	0.13591896
252	0x3dcd4a46	0.10023932
253	0x3e201b06	0.15635309
254	0xbd27007c	-0.040771946
255	0xbdabcbc3	-0.08388474

bottleneck.0.bias f4 [32]
0	0xbd0433f7	-0.03227612
1	0x3caa0abc	0.020757072
2	0x3cea1ba5	0.028577635
3	0x3d18fb1c	0.03734885
4	0x3cf4b71a	0.029872466
5	0x3cd6e8de	0.026234087
6	0x3d4557d9	0.04817948
7	0xbc22fafe	-0.0099475365
8	0x3cdc085f	0.02685946
9	0xbc5d77c4	-0.013517324
10	0x3c62d2cc	0.013844203
11	0x3d199bb4	0.037502006
12	0xbc1e90b1	-0.009678052
13	0x3cd42a38	0.025899038
14	0xbb7dde23	-0.003873714
15	0x3cf71434	0.030161
16	0x3d0c3262	0.034227736
17	0x3beae200	0.0071680546
18	0x3cd7dff8	0.026351914
19	0x3d618633	0.055059623
20	0x3b1db747	0.002406554
21	0x3d5233d4	0.05131896
22	0x3cc57a60	0.024106205
23	0xbc5057d8	-0.012716256
24	0x3d0bfafb	0.0341749
25	0x3ca15e66	0.019698333
26	0xbceb19f0	-0.028698891
27	0x3c3c9a4c	0.011511397
28	0x3cba2058	0.0227205
29	0x3cdd5ab7	0.027020795
30	0x3ccb4148	0.024811402
31	0x3cec6310	0.02885583

bottleneck.2.weight f4 [32, 32, 3, 3]
0	0xbc3f09cb	-0.01166005
1	0xbd04b4b7	-0.032398906
2	0xbe466060	-0.19372702
3	0xbdd79811	-0.10527051
4	0xbe3d056f	-0.18459104
5	0xbc9781bc	-0.01849448
6	0xbd9448dc	-0.07240459
7	0xbdf9fbdf	-0.12206244
8	0xbc5a37d4	-0.0133189745
9	0x3b31b0ee	0.0027113515
10	0xbe376b83	-0.17912106
11	0xbc96d08f	-0.018409995
12	0x3b9624f3	0.0045820414
13	0x3dd2a7fb	0.10285946
14	0x3d8dd0aa	0.06924565
15	0x3d9ea046	0.077454135
16	0xbd1216df	-0.035666343
17	0xbc844d0b	-0.016150018
18	0xbd423a4b	-0.047418874
19	0x3e6344a7	0.22194158
20	0x3d1cf936	0.038323604
21	0xbdc107fc	-0.09425351
22	0x3d9296f3	0.071576975
23	0xbcbd383e	-0.023098107
24	0x3dbd4c8d	0.092431165
25	0xbd8c06dc	-0.06837246
26	0x3dba01d3	0.09082379
27	0xbcde13b4	-0.027109005
28	0x3dcc7d55	0.09984843
29	0x3ca95aa1	0.020673098
30	0xbb82ada9	-0.003987987
31	0x3e1bbcd4	0.15208751
32	0x3db53c8b	0.08849438
33	0x3d5c722e	0.053819828
34	0x3deef8bb	0.11668535
35	0x3d2d2e35	0.042280395
36	0x3d2c5e8f	0.042082366
37	0xbbea4baf	-0.0071501355
38	0x3d842f40	0.06454325
39	0x3c3eb7d9	0.011640512
40	0xbd97c854	-0.074112564
41	0x3e20e3bb	0.15711872
42	0xbbfa01a4	-0.00762959
43	0x3d057b18	0.032588094
44	0xbe19286f	-0.1495683
45	0xbe3f66c7	-0.1869155
46	0xbe217844	-0.15768534
47	0xbd628746	-0.055304788
48	0x3db742c2	0.0894828
49	0x3d640243	0.05566622
50	0x3de9d17f	0.11416911
51	0xbd9d0d02	-0.07668497
52	0xbd7007be	-0.058601134
53	0x3d5760c2	0.05258251
54	0x3e8529ac	0.26008356
55	0xbd9781da	-0.07397814
56	0xbd0a9a5f	-0.033838626
57	0x3d87c42c	0.06629214
58	0xbcc5ede9	-0.024161296
59	0xbd43acf5	-0.047772367
60	0xbd158f79	-0.03651378
61	0xbc8aa1ee	-0.016922917
62	0xbdcaca3c	-0.099018544
63	0x3c5ecb08	0.013598211
64	0x3be192b6	0.0068839444
65	0x3e002d61	0.1251731
66	0x3ce00f74	0.027351119
67	0x3d9e620f	0.07733547
68	0x3cfa0c67	0.030523492
69	0xbd381fe9	-0.044952307
70	0x3cc1fa28	0.023678854
71	0x3d7cf520	0.061757207
72	0xbe3589b6	-0.17728314
73	0x3c44a434	0.01200204
74	0xbde9d26f	-0.1141709
75	0x3d60113e	0.054703943
76	0xbc22ed5d	-0.009944287
77	0x3cf3d544	0.029764779
78	0x3d785773	0.060630273
79	0xbdacf187	-0.08444505
80	0x3d10836f	0.035281595
81	0x3c386c51	0.011256293
82	0x3c8f9b19	0.017530011
83	0xbd43a20a	-0.047761954
84	0xbd38999f	-0.04506838
85	0x3d5eb961	0.05437601
86	0xbd77be28	-0.06048408
87	0xbc831597	-0.016001506
88	0xbe68bdf9	-0.22728719
89	0xbdf79321	-0.120886095
90	0xbca101ad	-0.01965412
91	0x3cd4d82a	0.025981981
92	0xbd1292f0	-0.03578466
93	0xbda4eda5	-0.080531396
94	0x3dfe84be	0.12427662
95	0x3d980552	0.0742289
96	0x3c9e5a1f	0.019330082
97	0x3d7cbb6e	0.061702184
98	0x3d20ae06	0.03922846
99	0x3c14a619	0.009072804
100	0x3daa26ee	0.083082065
101	0x3e36d49c	0.17854542
102	0x3ddf8180	0.10913372
103	0x3e3ca4f4	0.184223
104	0xbd0ce5c9	-0.034398828
105	0x3d6326b7	0.055456843
106	0xbdeed2e1	-0.11661316
107	0x3d053d34	0.03252907
108	0xbd332b0c	-0.043742225
109	0xbd7b67f2	-0.061378427
110	0xbcb04711	-0.021518262
111	0xbb86503b	-0.0040989197
112	0xbd4b3b11	-0.049616877
113	0xbdb994dc	-0.09061596
114	0xbdf408a6	-0.11915712
115	0xbddae22a	-0.106876686
116	0xbe248caf	-0.16069292
117	0x3c288dab	0.0102876825
118	0x3da971bc	0.08273646
119	0xbddba457	-0.10724705
120	0xbdad34f9	-0.08457369
121	0x3c51275f	0.012765734
122	0x3d4c2cf4	0.04984756
123	0xbe52a9ab	-0.20572536
124	0x3cba07ed	0.022708857
125	0x3db74310	0.08948338
126	0x3deefe7c	0.11669633
127	0x3d1306a6	0.035895012
128	0xbe07b656	-0.1325315
129	0x3e05d12f	0.13068078
130	0x3e196e76	0.14983544
131	0xbe57f5cf	-0.21089862
132	0xbd90863d	-0.07056854
133	0x3e16ada9	0.14714684
134	0x3d18a96e	0.037270956
135	0xbd66ba74	-0.05633016
136	0x3dadb628	0.08482009
137	0x3c8e7182	0.01738811
138	0xbdd5ca9d	-0.10439036
139	0x3d039ea1	0.032133702
140	0x3d055130	0.03254813
141	0x3db474b7	0.08811324
142	0xbdbf7ec4	-0.093503505
143	0x3dd30a06	0.10304646
144	0x3e542e06	0.20720682
145	0xbe15c458	-0.1462568
146	0xbc82ab14	-0.015950717
147	0xbd59156f	-0.052998956
148	0x3d495967	0.049157526
149	0x3c82dcde	0.015974458
150	0xbde0b415	-0.10971848
151	0x3d4a7fe9	0.04943839
152	0xbcde1c11	-0.027112992
153	0xbc98375b	-0.018581083
154	0xbd4bf580	-0.049794674
155	0x3de0cbd1	0.10976375
156	0x3c62c2d4	0.013840396
157	0xbd0711df	-0.032976028
158	0x3d1a7462	0.037708648
159	0x3cc85a1e	0.024457034
160	0x3deef1e0	0.11667228
161	0xbd38ecc1	-0.04514766
162	0xbcd94ea9	-0.026526766
163	0xbde9c2a5	-0.114140786
164	0xbdb144ca	-0.086556986
165	0xbe4d0798	-0.20022428
166	0x3d03ce8d	0.032179404
167	0xbe0a1d9e	-0.1348786
168	0x3c258b2e	0.010103984
169	0x3e2b03f2	0.16700724
170	0xbcfe5fe9	-0.031051593
171	0xbda83b52	-0.082144395
172	0xbd32ebfc	-0.043682083
173	0xbe09661e	-0.13417861
174	0x3d4787f3	0.048713636
175	0x3d49b129	0.04924122
176	0xbe1ec898	-0.15506208
177	0x3c8aca50	0.016942173
178	0x3da146df	0.07874846
179	0x3e1955ab	0.14974086
180	0xbce5616f	-0.028000562
181	0xbdf7e63a	-0.12104459
182	0x3dfe363d	0.12412689
183	0xbdd507a7	-0.1040185
184	0xbd1c6d00	-0.038189888
185	0xbdb6839d	-0.08911822
186	0xbda4c33c	-0.080450505
187	0x3d9ffd21	0.078119524
188	0x3de7a32f	0.11310422
189	0xbe83986d	-0.2570223
190	0x3c01ab24	0.007914338
191	0x3d2d93c9	0.042377267
192	0xbd8356e5	-0.06413058
193	0x3cbdab55	0.023152987
194	0x3d03a4be	0.032139532
195	0xbe1fad40	-0.15593433
196	0x3dcc1c02	0.099662796
197	0x3ca54641	0.020175101
198	0x3d069763	0.032859217
199	0xbde75ddc	-0.11297199
200	0x3caa27a9	0.020770865
201	0xbd465c90	-0.04842812
202	0xbadaa71d	-0.0016681884
203	0x3e33cd7c	0.17558855
204	0x3c9aa991	0.018879684
205	0xbe0bf231	-0.13666607
206	0x3d825834	0.0636448
207	0x3d46b475	0.04851194
208	0x3d6cb76e	0.05779212
209	0xbdc8bb60	-0.09801364
210	0x3ca6be67	0.020354463
211	0xbe2b58e4	-0.16733128
212	0xbbdb5593	-0.006693551
213	0xbd5e99b5	-0.054345805
214	0xbb4a943e	-0.0030911113
215	0xbe0387bb	-0.12844746
216	0x3c36615d	0.011131612
217	0x3c9aba20	0.01888758
218	0x3c94359c	0.01809197
219	0x3d4a88e2	0.049446948
220	0xbcf4e01f	-0.029892026
221	0x3de3e9f4	0.111286074
222	0x3c816a3a	0.015797723
223	0x3d696fcd	0.056991387
224	0x3d097897	0.03356227
225	0xbdf1cbfc	-0.11806485
226	0xbd89f083	-0.06735327
227	0x3c43c80c	0.01194955
228	0xbd349986	-0.044091724
229	0xbdd4d134	-0.10391465
230	0x3dd13e80	0.10216999
231	0x3d8f8858	0.070084274
232	0xbd4874a5	-0.048939366
233	0x3d39431b	0.045230012
234	0x3d314a08	0.043283492
235	0xbe01bc1d	-0.12669416
236	0xbca52d2a	-0.020163137
237	0x3e2f12cf	0.17097019
238	0xbdf00cfa	-0.11721225
239	0xbdacd9bf	-0.08439969
240	0x3d021434	0.03175755
241	0xbc510e4a	-0.012759754
242	0xbd9fec86	-0.07808785
243	0x3d652afd	0.0559492
244	0x3d56996c	0.05239241
245	0x3d34c89e	0.044136636
246	0x3ca62c34	0.02028475
247	0x3d953f31	0.072874434
248	0x3e224b19	0.1584896
249	0xbdb80c5c	-0.08986732
250	0xbcf3562e	-0.02970418
251	0x3cc74d7f	0.024328945
252	0x3e1902ad	0.14942427
253	0x3e684a04	0.22684485
254	0x3e7c3c3d	0.24632354
255	0xbd3d2984	-0.04618217

bottleneck.2.bias f4 [32]
0	0x3ce53186	0.027977716
1	0x3d3a5bb9	0.04549763
2	0x3cfb50f0	0.030678242
3	0xbc6920bb	-0.014228995
4	0xbc105b7b	-0.008810873
5	0xbc6c2560	-0.014413208
6	0x3cd46792	0.025928292
7	0xbb7832bf	-0.0037872044
8	0x3d122088	0.035675555
9	0x3c0c8d0e	0.008578552
10	0x3d099206	0.033586524
11	0xbd0cdb3e	-0.034388773
12	0xbd16cf6b	-0.036818903
13	0x3ced0526	0.028933119
14	0xbc5ebfb4	-0.01359551
15	0x3cdc8ca7	0.026922537
16	0x3ce7aaf7	0.028279765
17	0xbc612386	-0.01374138
18	0x3d0f3d0b	0.034970324
19	0xbc41daaa	-0.011831919
20	0x3ceea3dc	0.029130869
21	0x3b837be5	0.004012572
22	0xbd3b183b	-0.045677405
23	0xbbb3380a	-0.005469327
24	0x3ce5e48b	0.02806308
25	0x3d00c85e	0.031441085
26	0xbd07108a	-0.032974757
27	0x3cef606f	0.029220788
28	0x3c105a65	0.008810614
29	0xbcb2a2f3	-0.021806216
30	0x3cd9164e	0.026499894
31	0x3baa2ed0	0.0051935688

up1.weight f4 [32, 16, 2, 2]
0	0x3d968f15	0.073515095
1	0x3d7cb0f7	0.061692204
2	0xbe87d1d5	-0.26527277
3	0xbce46239	-0.027878867
4	0xbde5e551	-0.11225379
5	0x3de92681	0.11384297
6	0x3dabd8cb	0.08390959
7	0x3e9cd8cf	0.30634162
8	0xbe3ee30b	-0.18641298
9	0xbda99607	-0.082805686
10	0x3dc6f9da	0.09715624
11	0x3c89f9b2	0.016842697
12	0xbd9e1e38	-0.077206075
13	0x3d9b8c98	0.075951755
14	0x3de9a426	0.11408262
15	0xbdbba487	-0.091622405
16	0x3b935161	0.004495785
17	0x3e99918b	0.29993853
18	0x3da8147c	0.08207032
19	0xbd9f815c	-0.07788345
20	0x3d0cea5b	0.034403186
21	0xbe26ab08	-0.1627618
22	0x3c8b7849	0.01702513
23	0xbdb57a65	-0.088612355
24	0x3e09320d	0.13397999
25	0x3deafb52	0.11473717
26	0xbd297ddc	-0.041379794
27	0xbdbea84c	-0.09309444
28	0x3c9bb3da	0.019006658
29	0xbe5c08f5	-0.21487792
30	0x3e6866bb	0.22695439
31	0x3d7f728f	0.06236511
32	0xbe6800ca	-0.22656551
33	0x3de602be	0.11230992
34	0xbe62694c	-0.2211048
35	0xbdb2993d	-0.08720634
36	0x3d49305d	0.04911839
37	0xbd6d2792	-0.057899065
38	0x3e3e8359	0.18604793
39	0x3e4df199	0.20111693
40	0xbdf44c03	-0.119285606
41	0x3e42d55a	0.190267
42	0x3da7fec4	0.082028896
43	0x3e0c30f7	0.13690554
44	0x3bbc224e	0.005741394
45	0x3dd77107	0.10519605
46	0xbdbe1d8e	-0.09282981
47	0xbcb81e1d	-0.022475297
48	0x3dc4b7eb	0.09605392
49	0xbe81c578	-0.2534597
50	0xbd00176a	-0.03127233
51	0x3da83a44	0.08214238
52	0x3cf3d542	0.029764775
53	0xbd6c9dd7	-0.057767715
54	0x3e8ef11a	0.2791832
55	0x3e1c16d3	0.15243082
56	0xbdf1ed39	-0.11812825
57	0xbe6f9287	-0.2339574
58	0x3d8830f5	0.06649963
59	0xbd1157b2	-0.035484023
60	0x3bc4a449	0.0060010296
61	0x3e634630	0.22194743
62	0xbdc4960e	-0.09598933
63	0x3d42e4c1	0.047581438
64	0xbe5ab4de	-0.21358058
65	0xbe3d94c3	-0.1851378
66	0x3bb2e00f	0.005458839
67	0xbe01f6fa	-0.1269187
68	0xbe7dca1f	-0.24784134
69	0xbe007ed9	-0.12548389
70	0xbe4cf99d	-0.20017095
71	0xbae19cdf	-0.0017212889
72	0x3e9936ae	0.2992453
73	0x3dc34edc	0.095365256
74	0xbd33ec3c	-0.043926463
75	0xbdbf39f2	-0.09337224
76	0x3de4777f	0.111556046
77	0xbcfd8243	-0.030945903
78	0x3dcb5842	0.09928943
79	0xbde774b3	-0.113015555
80	0xbe1a0f5c	-0.15044922
81	0xbde2e0d0	-0.11078036
82	0xbd736c3a	-0.059429385
83	0xbe777074	-0.24163991
84	0xbcae944b	-0.021310946
85	0xbca27bd4	-0.019834436
86	0x3d2bfea8	0.041990906
87	0x3d7c0368	0.061526686
88	0xbdfceb76	-0.12349598
89	0xbda0462c	-0.07825884
90	0xbe237a92	-0.15964726
91	0xbeb07929	-0.34467438
92	0x3d9e7b18	0.07738322
93	0x3dce574a	0.10075243
94	0xbe3f9fde	-0.18713328
95	0xbda0de1e	-0.078548655
96	0xbe4df22d	-0.20111914
97	0xbd272168	-0.040803343
98	0xbe800a06	-0.25007647
99	0x3e0824e6	0.13295326
100	0x3d9b1ecb	0.07574233
101	0x3e0be03b	0.13659756
102	0x3dc5bcc6	0.09655146
103	0x3ca97307	0.020684732
104	0xbd9be723	-0.07612445
105	0xbe49fc13	-0.19725065
106	0xba6b9ce5	-0.00089879177
107	0x3d8b8a8a	0.068135336
108	0xbe0a2b19	-0.13493003
109	0xbc01128d	-0.007877958
110	0x3e6a61b7	0.22888838
111	0x3bae784c	0.005324399
112	0xbda7d92a	-0.08195718
113	0x3dc60113	0.09668174
114	0x3d64bdd9	0.055845115
115	0x3dc9d490	0.09854996
116	0x3de2d333	0.11075439
117	0x3cc3dbdc	0.023908548
118	0x3e5204e8	0.20509684
119	0xbd836dc8	-0.064174235
120	0x3d4c114d	0.049821187
121	0x3e3168c2	0.17325118
122	0xbd755bd0	-0.059902012
123	0xbdcc106c	-0.0996407
124	0xbe3d752a	-0.18501726
125	0xbdf87a76	-0.121327326
126	0xbe71b208	-0.2360307
127	0xbd4e8d3b	-0.050427657
128	0xbd00e0e9	-0.03146449
129	0xbd82bf6d	-0.06384168
130	0xbdf7a8c5	-0.12092737
131	0x3e820c34	0.25399935
132	0xb6d1684b	-6.2408267e-06
133	0xbd22b7b3	-0.03972597
134	0xbe1826b3	-0.14858513
135	0xbd89fa61	-0.06737209
136	0x3d37f38c	0.04491
137	0x3d8e7a96	0.06956975
138	0x3e5e7f79	0.21728314
139	0x3e7ef73f	0.24899004
140	0x3df08c44	0.117455035
141	0x3d9b0c37	0.07570689
142	0x3ea32bd1	0.31869367
143	0xbcc53911	-0.024075063
144	0xbd55ac7b	-0.052166443
145	0xbc9da8c0	-0.019245505
146	0xbe5b965f	-0.21444081
147	0xbe4e78d4	-0.2016328
148	0xbc833aa8	-0.01601918
149	0x3d11bcad	0.035580326
150	0xbd97958e	-0.07401572
151	0xbd03c689	-0.03217176
152	0x3d2dd820	0.04244244
153	0x3e0a6f0f	0.13518928
154	0xbd1d2d7b	-0.03837345
155	0xbe174ce9	-0.14775433
156	0xbed4716a	-0.41492778
157	0xbd3c2d76	-0.045941792
158	0xbda3155c	-0.07963058
159	0xbcb1d238	-0.021706685
160	0x3e432c3b	0.19059841
161	0xbc49907f	-0.012302517
162	0xbe1f3fe8	-0.15551722
163	0x3eb21913	0.34784755
164	0x3dd509c4	0.10402253
165	0x3de930f1	0.11386288
166	0x3e484757	0.19558464
167	0xbd79a25d	-0.060945857
168	0x3d0e02f0	0.03467077
169	0xbb94ccbb	-0.0045410073
170	0x3d028baf	0.031871494
171	0xbd86e063	-0.06585767
172	0x3d4122a7	0.047152188
173	0xbda2cc3f	-0.07949113
174	0x3dbd2489	0.09235484
175	0xbdc6007d	-0.09668062
176	0xbcb3fa08	-0.02196981
177	0x3cd001fb	0.02539157
178	0xbd3b3bea	-0.045711435
179	0x3e825f9c	0.2546357
180	0xbd04f896	-0.032463633
181	0xbc80da92	-0.015729222
182	0x3a248fd3	0.0006277535
183	0x3e8e0659	0.27739218
184	0xbdcbf198	-0.0995819
185	0x3e0e26f1	0.13882042
186	0xbd80788e	-0.06272994
187	0xbe1dc6c7	-0.15407859
188	0x3dddb1b2	0.10824908
189	0xbde97e80	-0.11401081
190	0xbd264fdd	-0.040603507
191	0xbe198247	-0.14991103
192	0xbdb91dab	-0.09038862
193	0x3d455c20	0.04818356
194	0x3d12da7b	0.03585289
195	0x3dd3c755	0.10340754
196	0x3dde4b6a	0.10854228
197	0x3e0fd0ad	0.14044447
198	0xbe8e37a1	-0.27776816
199	0x3dac2a60	0.0840652
200	0xbe1919fa	-0.14951316
201	0xbe3978d8	-0.18112504
202	0xbd560108	-0.052247077
203	0x3dc12b42	0.09432079
204	0xbe96c94c	-0.29450452
205	0xbb66b85b	-0.00352051
206	0x3d87321a	0.06601353
207	0x3e272a67	0.16324769
208	0x3da60d7b	0.0810804
209	0xbdddedbf	-0.10836362
210	0x3e0464b5	0.12929042
211	0xbd6b86c6	-0.057501577
212	0xbc485922	-0.012228282
213	0xbc75709a	-0.01498046
214	0x3da34ac8	0.07973248
215	0x3dc36e9f	0.09542584
216	0xbcff7b8c	-0.031186841
217	0xbbfb2443	-0.007664235
218	0x3eb89741	0.36052898
219	0x3cd58d33	0.026068306
220	0xbcda15c5	-0.026621709
221	0x3dff11f1	0.12454594
222	0x3cb2a1bb	0.021805635
223	0xbd7a8a4c	-0.061167046
224	0xbba2aa52	-0.0049641514
225	0xbc993b8d	-0.018705154
226	0x3ce85113	0.028358972
227	0xbd7353b1	-0.059405986
228	0x3db5dec2	0.08880378
229	0xbe53551b	-0.20637934
230	0x3d692f3a	0.056929804
231	0x3e6062b4	0.21912652
232	0xbdcc047f	-0.09961795
233	0xbd13d4a3	-0.036091458
234	0x3e1008fa	0.14065924
235	0xbe497c12	-0.19676235
236	0x3cf80c82	0.030279402
237	0xbe23119e	-0.15924689
238	0x3d9b33f3	0.07578268
239	0x3da28962	0.0793636
240	0xbcc6defc	-0.02427625
241	0x3ddc8e3e	0.10769318
242	0x3df802ee	0.12109934
243	0xbe079f4d	-0.13244362
244	0x3e02f790	0.1278975
245	0xbcd988c7	-0.026554478
246	0x3e06ce1a	0.13164559
247	0xbe0e7f94	-0.13915855
248	0x3e7717ba	0.24130145
249	0xbd6ffa20	-0.058588147
250	0x3dfad275	0.12247173
251	0xbd68605d	-0.056732524
252	0xbe207c57	-0.15672432
253	0x3da66d54	0.081263214
254	0x3dac6d5a	0.08419295
255	0x3ceb2c06	0.028707515

up1.bias f4 [16]
0	0x3ca00b23	0.01953656
1	0xbd06f9af	-0.03295296
2	0x3cdd9aa6	0.027051281
3	0xbd047e95	-0.03234728
4	0xbcd721ec	-0.026261292
5	0xbcf39a79	-0.029736744
6	0xbcf515f4	-0.029917695
7	0xbcebb10f	-0.028770952
8	0xbcc18874	-0.023624636
9	0x3cc501c5	0.024048695
10	0xbc9eee86	-0.019400846
11	0x3cd4c93d	0.025974864
12	0x3ce78e79	0.028266178
13	0x3cd4dee4	0.025985189
14	0xbcd4be09	-0.025969522
15	0xbccf699d	-0.025318915
