sampling-based_planning_framework/checkpoints/checkpoint_epoch_21.pth (torch, 385714 bytes, 75 tensors)

enc1.0.weight f4 [8, 1, 3, 3]
-0.1006112 0.108468205 0.040871996 0.14044666 -0.1179415 0.08016157 0.037679907 -0.17745462
-0.07046816 0.16937006 -0.14414178 0.052512553 0.20764464 -0.059521202 0.13155425 -0.033279315
0.12996297 -0.028074494 0.16938019 -0.19565678 -0.08946025 0.15148474 -0.06144121 -0.10504749
-0.32870406 -0.12479825 -0.068905085 0.04304749 0.021054389 -0.11870635 0.043153476 0.07072203
0.2572463 -0.0107265 -0.0002581619 0.0024231267 -0.032987352 0.016772514 -0.042509202 -0.2192948
0.18641856 -0.021934481 -0.049243607 0.10581551 -0.27144316 0.21774502 0.23229206 -0.0647765
0.3566557 -0.027522584 -0.11069736 0.0916313 -0.34438694 -0.24444279 0.026206236 0.009315585
0.069806404 0.11508679 -0.07593426 0.4775027 -0.023285909 0.09251182 0.05393457 0.09708859
-0.3578822 0.066769056 -0.12773575 -0.05121903 0.2229661 0.05418673 -0.12800935 0.02504056
00000000: 3f0d cebd 9424 de3d 6569 273d 40d1 0f3e
00000010: 508b f1bd c02b a43d 3f56 1a3d aab6 35be
00000020: 9c51 90bd 586f 2d3e e799 13be 6717 573d
00000030: cca0 543e 81cc 73bd 28b6 063e e44f 08bd
00000040: 0315 053e 7bfc e5bc 0072 2d3e 405a 48be
00000050: f036 b7bd d11e 1b3e c7a9 7bbd 2323 d7bd
00000060: e64b a8be 3a96 ffbd 1c1e 8dbd 9152 303d
00000070: 417a ac3c 511c f3bd b3c1 303d b6d6 903d
00000080: c9b5 833e 34be 2fbc e759 87b9 52cd 1e3b
00000090: bf1d 07bd 8366 893c 211e 2ebd d18e 60be
000000a0: 82e4 3e3e f1af b3bc aab3 49bd cdb5 d83d
000000b0: 99fa 8abe 8df8 5e3e f8dd 6d3e 8ba9 84bd
000000c0: 939b b63e 0b77 e1bc 4cb5 e2bd 31a9 bb3d
000000d0: 7c53 b0be 364f 7abe 76ae d63c 65a0 183c
000000e0: a9f6 8e3d 9fb2 eb3d 6c83 9bbd 3c7b f43e
000000f0: 17c2 bebc d676 bd3d 7fea 5c3d 62d6 c63d
00000100: 563c b7be 37be 883d 29cd 02be 0ccb 51bd
00000110: 3a51 643e e8f2 5d3d e214 03be dc21 cd3c

enc1.0.bias f4 [8]
0.03194648 0.00663874 0.030245014 -0.003236751 0.025673104 0.0009549534 0.0008015009 -2.0533838e-05
00000000: 50da 023d ca89 d93b 64c4 f73c ac1f 54bb
00000010: 6750 d23c d655 7a3a d11b 523a 1540 acb7

enc1.2.weight f4 [8, 8, 3, 3]
0.11254424 0.05362543 -0.063852094 -0.25867474 0.47272176 0.121850014 -0.06742277 0.02276799
-0.030362848 -0.10496982 -0.13995036 -0.12727845 -0.12025017 -0.13886622 0.15929545 0.16118991
0.13948025 -0.24078132 0.06728474 0.19546898 0.14559579 -0.13437921 0.109496154 -0.12985386
-0.22137162 0.08990039 -0.0154182315 -0.0055857305 -0.09505701 -0.21450327 0.13082932 -0.027180813
-0.010347943 -0.07404144 -0.018113472 -0.22138612 -0.061150383 0.017365906 0.14740124 -0.20460868
0.087900765 0.07015585 0.04095305 -0.025931135 0.16472629 0.050362464 -0.3297974 0.042711593
-0.049879555 0.27372694 -0.30677485 0.106686465 -0.20589904 -0.15847477 -0.11410844 0.09931
-0.014915494 0.0832471 -0.092317246 -0.03716196 0.029586622 -0.44945008 0.007944502 -0.07093592
-0.067567 0.25310352 -0.054231253 0.05726456 0.04511898 0.012393334 -0.06904054 -0.07406818
-0.19758268 -0.0062541403 0.03887131 0.148741 0.16081291 0.0730656 -0.16524424 0.17364593
-0.21284604 -0.06168104 0.2337941 -0.12295366 0.16940492 -0.17098767 0.10550739 0.02583492
-0.3739866 0.14371863 -0.0096847555 -0.28106526 0.2376066 -0.02610408 0.15412739 0.07807996
0.0476542 0.16060962 -0.13687848 0.10074099 -0.0106756585 0.23887782 0.33595482 -0.09872628
-0.0048567406 0.0007177821 0.47334033 0.1285848 -0.2500387 0.059933648 -0.031146495 -0.33815548
0.12917347 -0.15445852 -0.006813707 0.13917711 0.38456956 -0.08377074 -0.2894491 -0.0010454617
0.07619349 0.19163746 0.11208384 0.0245162 -0.09948166 -0.022645479 0.24514818 -0.041658733
-0.27896455 0.27814624 0.17047663 -0.1272544 0.3961309 0.15797254 0.05911806 0.04211312
0.28631413 -0.06443229 0.24363825 0.19455661 0.09703131 0.1590395 -0.12917754 0.05273412
0.1355533 0.1625977 0.00178024 0.16402179 0.092471674 -0.108645216 0.10061076 0.52300775
-0.17308968 -0.35951984 -0.18422113 0.05603017 0.25257 -0.08500634 -0.054957923 0.14777872
-0.40295446 -0.16289519 -0.24661376 -0.11591739 -0.3306853 0.083399184 0.06003187 0.24717917
0.08273587 0.1836347 -0.07691242 0.23743145 -0.08979315 -0.018845186 -0.0544222 -6.3231804e-05
0.0016364591 -0.1573784 -0.14204118 -0.17780745 0.13181037 -0.06523313 0.32233256 -0.20358118
-0.030811504 0.14932866 -0.12302983 0.0021160913 0.02053559 -0.13903287 -0.28357682 0.30851623
0.11687585 -0.2969418 -0.273586 0.07879102 -0.24500336 0.041496743 0.08458074 -0.08393531
-0.17391983 -0.27862164 0.28808862 0.04261171 -0.17681493 -0.08266142 0.037870027 0.04643076
-0.122803345 -0.016078494 0.29548514 -0.1470741 -0.1642789 0.051013403 0.13147259 0.034695104
0.023280524 0.2655146 -0.013998387 -0.04602714 0.041879795 -0.2033008 0.17419612 -0.0025115362
0.032608237 -0.27857515 -0.37685475 -0.21064177 -0.006267189 -0.17970525 -0.10101696 0.19311269
0.16998991 0.060331635 -0.032161824 0.052473728 0.06806286 -0.08234365 -0.016353322 0.10613407
0.007665913 0.20388205 -0.19738199 -0.04060043 0.0017352654 0.11182544 -0.12273457 -0.059470844
-0.050453663 -0.024199363 0.13667221 0.10555135 0.3812206 -0.050872363 -0.103324845 -0.19688408
00000000: 987d e63d 57a6 5b3d e3c4 82bd 0471 84be
00000010: 9608 f23e 808c f93d f314 8abd f083 ba3c
00000020: 82bb f8bc 6bfa d6bd 264f 0fbe 4855 02be
00000030: b945 f6bd f232 0ebe 591e 233e f80e 253e
00000040: e9d3 0e3e 618f 76be 95cc 893d 0529 483e
00000050: 1017 153e b49a 09be 853f e03d 69f8 04be
00000060: 3eaf 62be b21d b83d c09c 7cbc 8108 b7bb
00000070: 40ad c2bd bfa6 5bbe 1ff8 053e 4caa debc
00000080: 6b8a 29bc 0aa3 97bd b462 94bc 0bb3 62be
00000090: d378 7abd f242 8e3c 5af0 163e f084 51be
000000a0: 5105 b43d dfad 8f3d 63be 273d 886d d4bc
000000b0: 02ae 283e df48 4e3d 34db a8be 5af2 2e3d
000000c0: 814e 4cbd f025 8c3e 9811 9dbe 6f7e da3d
000000d0: 33d7 52be 3647 22be b0b1 e9bd 0b63 cb3d
000000e0: 1e60 74bc 757d aa3d d310 bdbd 2437 18bd
000000f0: a55f f23c 521e e6be a829 023c da46 91bd
00000100: 9160 8abd c996 813e 9721 5ebd 3e8e 6a3d
00000110: aece 383d 690d 4b3c 2065 8dbd 0fb1 97bd
00000120: 1d53 4abe 88ef ccbb 8637 1f3d 904f 183e
00000130: 24ac 243e 6ba3 953d c935 29be 3dd0 313e
00000140: 50f4 59be 42a5 7cbd b867 6f3e 21cf fbbd
00000150: 7c78 2d3e 6417 2fbe 4214 d83d c1a3 d33c
00000160: 2c7b bfbe fa2a 133e cfac 1ebc c9e7 8fbe
00000170: 254f 733e 39d8 d5bc 92d3 1d3e 63e8 9f3d
00000180: 0d31 433d d976 243e df29 0cbe 4b51 ce3d
00000190: f5e8 2ebc 639c 743e 4502 ac3e 0131 cabd
000001a0: 4b25 9fbb 8b29 3c3a aa59 f23e bcab 033e
000001b0: 1305 80be fc7c 753d ef26 ffbc b722 adbe
000001c0: 0d46 043e 602a 1ebe 8445 dfbb 7284 0e3e
000001d0: 4de6 c43e fe8f abbd ac32 94be e007 89ba
000001e0: 550b 9c3d 9c3c 443e 368c e53d 33d6 c83c
000001f0: 0abd cbbd 0383 b9bc 2008 7b3e 59a2 2abd
00000200: 71d4 8ebe 2f69 8e3e 6d91 2e3e fa4e 02be
00000210: abd1 ca3e 8ec3 213e c725 723d cf7e 2c3d
00000220: c497 923e 14f5 83bd 4e7c 793e d939 473e
00000230: 5ab8 c63d 40db 223e 1e47 04be bcff 573d
00000240: 7cce 0a3e 0380 263e f156 e93a 54f5 273e
00000250: ca61 bd3d 6281 debd 040d ce3d d6e3 053f
00000260: 6c3e 31be fc12 b8be 77a4 3cbe e47f 653d
00000270: db50 813e ce17 aebd 8f1b 61bd 4e53 173e
00000280: 0c50 cebe ffcd 26be 5188 7cbe 1966 edbd
00000290: 954f a9be 31cd aa3d fae3 753d 891c 7d3e
000002a0: 6c71 a93d bc0a 3c3e 4284 9dbd 3b21 733e
000002b0: 79e5 b7bd 3861 9abc d0e9 5ebd 519b 84b8
000002c0: 757e d63a ce27 21be 3e73 11be 2813 36be
000002d0: 4cf9 063e f298 85bd c608 a53e 9677 50be
000002e0: 6868 fcbc 9de9 183e 10f7 fbbd 1fae 0a3b
000002f0: 413a a83c a25e 0ebe fb30 91be d7f5 9d3e
00000300: 9b5c ef3d c108 98be 7713 8cbe 305d a13d
00000310: 29e2 7abe 7df8 293d ab38 ad3d 47e6 abbd
00000320: 0a18 32be 7fa7 8ebe 5a80 933e 9e89 2e3d
00000330: f90e 35be 644a a9bd 9a1d 1b3d 2e2e 3e3d
00000340: 5280 fbbd 0cb7 83bc d449 973e 989a 16be
00000350: ba38 28be 6ef3 503d c0a0 063e 741c 0e3d
00000360: ccb6 be3c 88f1 873e 7e59 65bc f486 3cbd
00000370: 268a 2b3d 162e 50be 7860 323e 9698 24bb
00000380: 3790 053d 67a1 8ebe 1bf3 c0be 7ab2 57be
00000390: fe5c cdbb a704 38be fbe1 cebd 55bf 453e
000003a0: d611 2e3e 4e1e 773d 1ebc 03bd b1ee 563d
000003b0: 8a64 8b3d caa3 a8bd 67f7 85bc d25c d93d
000003c0: 5732 fb3b 75c6 503e 811e 4abe a34c 26bd
000003d0: d871 e33a bc04 e53d 435c fbbd b397 73bd
000003e0: 80a8 4ebd be3d c6bc cdf3 0b3e 4e2b d83d
000003f0: 592f c33e 8a5f 50bd fa9b d3bd fb9b 49be

enc1.2.bias f4 [8]
-0.026686078 0.0032361173 0.033833105 -0.0084402505 0.00075765484 0.031295728 0.027297983 0.0023951828
00000000: c39c dabc 0a15 543b 9594 0a3d fa48 0abc
00000010: 5b9d 463a f32f 003d 05a0 df3c 80f8 1c3b

enc2.0.weight f4 [16, 8, 3, 3]
0.011226862 -0.048321374 -0.00974234 -0.1169265 -0.22113277 0.09491003 0.05924054 -0.09428487
0.26628283 -0.008882021 0.04614074 -0.032758173 -0.21239215 0.06034499 -0.03638717 -0.077187054
-0.04981992 0.18015414 -0.02284141 0.110743456 -0.19607958 -0.05476202 -0.026902586 -0.14661576
0.090209484 0.27446002 0.10280563 -0.05064435 0.11107306 0.11852182 -0.017337287 -0.1564824
-0.01314651 -0.18086803 -0.1587722 -0.084259875 0.1627721 -0.05553093 -0.18365523 -0.02614257
0.025241297 -0.044916928 -0.1336629 -0.12160087 0.066675685 0.05078824 0.048897948 0.13821748
0.21842012 -0.03805172 0.14294757 0.17546721 -0.043240067 0.11136621 0.18546097 -0.05590093
-0.30230817 -0.17749943 0.2027994 -0.06314636 0.089500986 0.21223938 0.19008449 0.0034673638
-0.18250404 0.021880355 -0.0173096 -0.008232053 0.12056292 -0.101318434 -0.16295898 0.0033112816
0.020846047 0.057529785 -0.015418752 -0.030519731 -0.041664727 -0.11781183 -0.08627582 -0.00032037686
0.11635307 -0.049610022 0.003224832 0.30698368 0.009509555 -0.09482162 0.025926454 -0.062836975
-0.013238567 -0.08595638 0.03139237 0.020282412 0.14819102 0.09446833 0.032616597 0.06653164
-0.21315485 0.112723045 0.0120658865 -0.028892094 -0.08533773 0.09890765 -0.1979313 0.0598767
0.011151597 0.10707221 -0.24498293 0.03038801 0.15516208 -0.05998769 -0.026705613 -0.018620273
0.083416544 0.06472533 0.16574627 0.23054239 0.015482609 -0.055378605 -0.08332642 0.18681473
0.18113703 0.1632532 0.07166389 -0.13061488 0.09570786 0.12948598 0.2120427 0.009573828
0.07716295 0.04254776 0.20114204 -0.122215666 0.013518819 -0.039260104 0.20034374 -0.25102887
0.15337208 -0.20156048 -0.1532674 0.04548777 -0.0040546837 0.05199747 0.0020500328 -0.067583874
-0.06715122 -0.012651308 -0.2554248 -0.031798735 0.015643839 0.15405592 0.21842588 -0.0048377654
-0.20708631 -0.13160546 -0.1097621 -0.2015098 0.092261694 0.21140443 -0.053435147 0.011491302
-0.07736263 -0.1867244 0.13976933 0.050734926 -0.19267653 -0.08436149 0.119200274 0.146421
-0.04532808 -0.1319927 0.07590195 0.16237551 -0.02615542 0.1295046 0.1464429 -0.006811669
-0.043508038 0.16502464 -0.045103766 -0.099617675 0.012792466 0.08373431 0.09838989 0.22055443
0.058876947 0.35515186 0.29289728 0.17696267 0.12201165 -0.10413542 0.15849896 -0.15761492
-0.0937399 -0.07850557 0.16860954 0.21561103 0.057324022 -0.10628949 0.048458885 0.07124019
-0.022335872 0.050731998 0.15287726 0.060466643 0.112063065 0.11363304 0.027099269 0.16947111
-0.15357189 0.031997304 0.1772887 -0.023155853 0.25233567 -0.19362786 0.02751453 -0.10271056
0.0018160772 0.06881067 0.18434897 -0.025661329 0.10322643 0.2957557 0.007248624 -0.04479967
-0.085247666 -0.27924618 -0.0697728 0.019622188 0.011676576 -0.12523244 0.033985466 0.10778672
-0.0029624435 0.0823591 0.087743 -0.06439238 -0.14156212 -0.082685515 0.1275221 -0.14082679
0.03604268 0.029519863 0.018794384 -0.0040720133 -0.11464059 0.24171533 0.012182067 -0.046183016
0.07063786 -0.11283927 0.20148845 0.10049077 -0.23801373 -0.21252716 0.03406634 0.030249262
00000000: dff0 373c a2ec 45bd 569e 1fbc 2977 efbd
00000010: a170 62be 3160 c23d 35a6 723d 6d18 c1bd
00000020: 3956 883e e585 11bc 13fe 3c3d 6f2d 06bd
00000030: 547d 59be 4f2c 773d b70a 15bd 3f14 9ebd
00000040: f90f 4cbd 547a 383e e91d bbbc 77cd e23d
00000050: 16c9 48be 244e 60bd d062 dcbc 7122 16be
00000060: c0bf b83d 0686 8c3e c28b d23d 7370 4fbd
00000070: 467a e33d 91bb f23d ed06 8ebc ec3c 20be
00000080: 7664 57bc 7835 39be 2e95 22be 7190 acbd
00000090: bbad 263e 6774 63bd 1e10 3cbe f128 d6bc
000000a0: d6c6 ce3c d0fa 37bd edde 08be e009 f9bd
000000b0: 438d 883d 5407 503d 3749 483d e288 0d3e
000000c0: 86a9 5f3e 1fdc 1bbd d960 123e adad 333e
000000d0: 7f1c 31bd f813 e43d 7be9 3d3e 60f8 64bd
000000e0: 23c8 9abe 69c2 35be a5aa 4f3e e152 81bd
000000f0: 4b4c b73d 4855 593e 82a5 423e b63c 633b
00000100: 57e2 3abe 6e3e b33c ddcc 8dbc bcdf 06bc
00000110: b1e9 f63d 0a80 cfbd b8de 26be 1602 593b
00000120: 54c5 aa3c 5aa4 6b3d ef9e 7cbc 8404 fabc
00000130: a2a8 2abd 5447 f1bd 61b1 b0bd 41f8 a7b9
00000140: 854a ee3d e133 4bbd b457 533b f72c 9d3e
00000150: f7cd 1b3c d631 c2bd b763 d43c acb0 80bd
00000160: 93e6 58bc e609 b0bd 4995 003d 4d27 a63c
00000170: 63bf 173e 9d78 c13d fb98 053d be41 883d
00000180: 4445 5abe 57db e63d ffaf 453c 1daf ecbc
00000190: 8cc5 aebd 1890 ca3d 81ae 4abe 4541 753d
000001a0: 30b5 363c ad48 db3d cedc 7abe 47f0 f83c
000001b0: cfe2 1e3e a7b5 75bd bbc5 dabc 8b89 98bc
000001c0: 4bd6 aa3d b78e 843d 64b9 293e 4e13 6c3e
000001d0: c5aa 7d3c add4 62bd 0ba7 aabd 5c4c 3f3e
000001e0: fc7b 393e d92b 273e 84c4 923d e8bf 05be
000001f0: 7c02 c43d f997 043e b921 593e 8cdb 1c3c
00000200: 9c07 9e3d 8f46 2e3d 2ef8 4d3e 354c fabd
00000210: 097e 5d3c 34cf 20bd e926 4d3e db86 80be
00000220: 920d 1d3e df65 4ebe 21f2 1cbe 6251 3a3d
00000230: 27dd 84bb 4dfb 543d d859 063b 6a69 8abd
00000240: 9486 89bd 6f47 4fbc 0ac7 82be 643f 02bd
00000250: 8227 803c d6c0 1d3e 09ab 5f3e 1e86 9ebb
00000260: 6f0e 54be 95c3 06be f4ca e0bd 9658 4ebe
00000270: b3f3 bc3d 677a 583e d0de 5abd 0446 3c3c
00000280: 4c70 9ebd ae34 3fbe b11f 0f3e 6dcf 4f3d
00000290: ff4c 45be b8c5 acbd 461f f43d 63ef 153e
000002a0: f0a9 39bd 1829 07be 7b72 9b3d c445 263e
000002b0: e443 d6bc db9c 043e 21f5 153e 6c34 dfbb
000002c0: 7c35 32bd 38fc 283e babe 38bd 5a04 ccbd
000002d0: 7e97 513c e57c ab3d a380 c93d 05d9 613e
000002e0: f428 713d 77d6 b53e a2f6 953e b435 353e
000002f0: 3ee1 f93d f344 d5bd 8d4d 223e ce65 21be
00000300: b4fa bfbd 87c7 a0bd fba7 2c3e 23c9 5c3e
00000310: 98cc 6a3d 4eae d9bd d37c 463d 60e6 913d
00000320: b8f9 b6bc 5bcc 4f3d db8b 1c3e dfab 773d
00000330: 5281 e53d 70b8 e83d 49ff dd3c d689 2d3e
00000340: f341 1dbe 9b0f 033d 2b8b 353e 58b1 bdbc
00000350: 2432 813e 6246 46be 2766 e13c ea59 d2bd
00000360: 7009 ee3a 9cec 8c3d fac5 3c3e b537 d2bc
00000370: 6168 d33d 4b6d 973e de85 ed3b dc7f 37bd
00000380: 5496 aebd 5bf9 8ebe 0be5 8ebd b6be a03c
00000390: 1c4f 3f3c ef3c 00be 5834 0b3d 49bf dc3d
000003a0: 8e25 42bb e3ab a83d 9ab2 b33d 27e0 83bd
000003b0: a9f5 10be 0657 a9bd 2795 023e e634 10be
000003c0: 7da1 133d a4d3 f13c aef6 993c 866e 85bb
000003d0: b0c8 eabd 3984 773e 4b97 473c 672a 3dbd
000003e0: 95aa 903d 4618 e7bd fd52 4e3e 1bce cd3d
000003f0: dfb9 73be b8a0 59be 2689 0b3d 4dcd f73c

enc2.0.bias f4 [16]
0.02963783 0.034029316 -0.01716131 0.038626518 0.006656377 0.030766137 -0.021137996 -0.024415437
0.026493128 0.013405971 0.031037405 0.033760127 0.029922152 0.030258283 0.014118265 0.028223885
00000000: 09cb f23c 5362 0b3d e095 8cbc d736 1e3d
00000010: bd1d da3b 4409 fc3c 9729 adbc e202 c8bc
00000020: 1e08 d93c b8a4 5b3c 2842 fe3c 0f48 0a3d
00000030: 4d1f f53c 38e0 f73c 4c50 673c c735 e73c

enc2.2.weight f4 [16, 16, 3, 3]
-0.0016291547 0.048273694 -0.017576154 -0.09875718 0.16126195 0.04897274 -0.051806696 -0.015835196
0.021558234 -0.12737831 0.23085716 -0.109022394 -0.17630395 0.04587808 0.19224279 -0.23436894
-0.029623233 -0.023644282 -0.09688004 -0.065717176 -0.14094166 -0.08128719 0.31590372 0.04249592
-0.030462215 0.13950704 -0.0979924 0.19586056 0.15179558 -0.029701412 0.15465093 0.16666186
-0.10722261 -0.06881874 -0.30405447 0.17349884 -0.03675555 -0.06385936 0.12862264 -0.18355305
-0.12637709 0.23249143 -0.09730251 -0.39739707 -0.08657222 0.015966946 -0.028679822 0.12671992
0.018430633 -0.0053255847 -0.11174421 -0.088771306 -0.2562386 -0.07845425 0.0167451 -0.038220905
-0.095957816 0.12454731 -0.13334326 0.17340267 0.04917545 0.11372502 0.04761194 0.06005719
0.10142469 0.07715735 -0.13559331 -0.020484433 -0.1457757 0.112718195 0.16130476 -0.0076799607
0.254356 0.010531621 0.17581312 -0.08968741 0.061602667 0.21899575 -0.010561972 -0.21716921
0.18576935 -0.21888067 -0.052172817 -0.22976962 0.14459161 0.14358899 0.09464962 -0.019258987
-0.20618513 0.18920623 -0.005387346 -0.14917569 0.10575099 -0.064492956 0.123248376 0.039323144
-0.25222132 0.054583233 0.18009804 0.11123621 -0.04967876 -0.061259497 -0.054278027 0.15224972
0.09491091 0.035878666 -0.024898546 0.05752829 -0.08552276 0.019780846 0.20491952 -0.20968035
-0.058917027 -0.07438367 0.01131211 0.14613762 0.14836146 0.020348184 0.084549986 -0.14119054
0.14299576 0.14458989 -0.05490019 0.09691918 0.018561197 -0.055428457 0.1566708 -0.07331203
-0.10512502 -0.022676347 -0.07948642 0.049248867 -0.23773436 0.056209818 -0.09461667 -0.1326423
0.03284599 0.14708324 -0.12571241 0.13202035 -0.05199213 0.052266963 -0.060449738 0.086121544
0.024538206 0.06987054 0.10540263 -0.038254347 0.10156229 0.14320931 0.1748169 -0.100275986
0.17525026 0.17194343 0.09112417 0.0028496883 -0.2865491 0.11722276 -0.112974435 -0.0043298393
-0.08119521 -0.12638296 0.1625436 0.0792772 0.13249063 -0.20269458 -0.07117549 -0.042631876
-0.05542041 -0.051775582 -0.06767698 -0.1943292 -0.12861168 -0.080408156 0.12627184 -0.0140724415
-0.21447435 -0.08020697 -0.053983416 0.06678132 -0.013232712 0.054122396 0.10558498 0.019106435
0.0789571 0.21512352 0.17610301 0.13671558 0.018003916 -0.018324245 0.17740245 -0.09468746
-0.10338962 0.025020355 0.08095606 0.2030515 0.26363966 -0.008197715 -0.06261638 -0.053173587
-0.051588167 -0.14376715 0.11644804 0.1287252 -0.097545795 -0.08161997 0.18014418 0.10288814
-0.13538167 0.13288377 -0.003176997 0.021662788 -0.031455085 0.080357134 -0.084438324 -0.014812961
0.0825337 0.16250092 -0.17414907 0.016403235 0.31228283 0.14074598 -0.071624614 0.018913787
-0.025516018 0.257557 -0.14259885 -0.058057457 -0.061691687 0.025893189 -0.037916593 -0.08663272
-0.33676368 -0.092770085 -0.022379603 -0.20815308 0.05762544 0.15550672 0.03847176 -0.29065952
-0.17724083 0.085147336 -0.04698669 0.084106125 -0.17063862 -0.0831172 0.06452444 -0.1530981
0.2789272 0.114658594 0.36495084 -0.07072684 0.021830982 0.024506552 -0.024705742 0.13563691
00000000: 5c89 d5ba a3ba 453d defb 8fbc 3441 cabd
00000010: da21 253e a497 483d 4233 54bd d0b8 81bc
00000020: e59a b03c 766f 02be d265 6c3e 2247 dfbd
00000030: 0689 34be a7ea 3b3d 4bdb 443e 69fe 6fbe
00000040: 6cac f2bc a7b1 c1bc 0b69 c6bd ba96 86bd
00000050: 0353 10be e679 a6bd 22be a13e 3410 2e3d
00000060: e58b f9bc efda 0e3e 3db0 c8bd ac8f 483e
00000070: 4d70 1b3e 6050 f3bc d05c 1e3e 68a9 2a3e
00000080: 8797 dbbd d7f0 8cbd 07ad 9bbe aea9 313e
00000090: fd8c 16bd b2c8 82bd a7b5 033e 55f5 3bbe
000000a0: ff68 01be 3c12 6e3e 8a46 c7bd a177 cbbe
000000b0: c74c b1bd 1dcd 823c f2f1 eabc dec2 013e
000000c0: d7fb 963c 3e82 aebb 26da e4bd bbcd b5bd
000000d0: b531 83be 9fac a0bd 052d 893c 868d 1cbd
000000e0: 8885 c4bd a912 ff3d 238b 08be 7890 313e
000000f0: 326c 493d aae8 e83d bd04 433d 87fe 753d
00000100: bfb7 cf3d ac04 9e3d f9d8 0abe f8ce a7bc
00000110: 3a46 15be ccd8 e63d 132d 253e 2ea8 fbbb
00000120: f33a 823e d28c 2c3c 5b08 343e 08ae b7bd
00000130: 1453 7c3d 6c40 603e 1f0c 2dbc 9b61 5ebe
00000140: 523a 3e3e 4122 60be 2ab3 55bd ba48 6bbe
00000150: d30f 143e fe08 133e a9d7 c13d 06c5 9dbc
00000160: 3222 53be 47bf 413e 5588 b0bb 83c1 18be
00000170: fa93 d83d e214 84bd a569 fc3d 4e11 213d
00000180: 2723 81be ab92 5f3d 9f6b 383e cfcf e33d
00000190: f57b 4bbd 3deb 7abd a352 5ebd 5ae7 1b3e
000001a0: a760 c23d 82f5 123d 09f8 cbbc c9a2 6b3d
000001b0: 8f26 afbd 710b a23c 6cd6 513e 72b6 56be
000001c0: fb52 71bd 7756 98bd 6e56 393c 1aa5 153e
000001d0: 11ec 173e 3cb1 a63c 8b28 ad3d 4194 10be
000001e0: 7b6d 123e 5f0f 143e 06df 60bd 907d c63d
000001f0: a70d 983c f308 63bd 4f6e 203e 9e24 96bd
00000200: c94b d7bd bfc3 b9bc c7c9 a2bd 2eb9 493d
00000210: a370 73be 443c 663d 62c6 c1bd 62d3 07be
00000220: 8489 063d fd9c 163e c1ba 00be 5830 073e
00000230: b3f5 54bd e215 563d 259a 77bd 7e60 b03d
00000240: 5904 c93c 4918 8f3d 56dd d73d 97b0 1cbd
00000250: e4ff cf3d 76a5 123e 3403 333e 7f5d cdbd
00000260: ce74 333e f011 303e 4f9f ba3d d6c1 3a3b
00000270: 90b6 92be 7d12 f03d 245f e7bd 53e1 8dbb
00000280: ad49 a6bd 896a 01be d471 263e 165c a23d
00000290: a0ab 073e 2b8f 4fbe 75c4 91bd c39e 2ebd
000002a0: 8300 63bd a212 54bd 3a9a 8abd 3cfe 46be
000002b0: c8b2 03be 08ad a4bd 684d 013e 1990 66bc
000002c0: 2a9f 5bbe 8d43 a4bd b71d 5dbd a5c4 883d
000002d0: 04ce 58bc 72af 5d3d f03c d83d 1985 9c3c
000002e0: 43b4 a13d 5749 5c3e 5954 343e 2bff 0b3e
000002f0: f37c 933c ba1c 96bc fda8 353e 80eb c1bd
00000300: f0bd d3bd 7df7 cc3c 4acc a53d bbec 4f3e
00000310: c7fb 863e b54f 06bc 043d 80bd 8ccc 59bd
00000320: 1d4e 53bd b237 13be 4f7c ee3d 8ad0 033e
00000330: 17c6 c7bd 5f28 a7bd b777 383e 04b7 d23d
00000340: 7ea1 0abe af12 083e 2a35 50bb 2976 b13c
00000350: 0cd7 00bd 4892 a43d 00ee acbd 10b2 72bc
00000360: 6e07 a93d a466 263e 2254 32be 1460 863c
00000370: 89e3 9f3e b71f 103e edaf 92bd 16f1 9a3c
00000380: f806 d1bc 83de 833e 6f05 12be a8cd 6dbd
00000390: 6cb0 7cbd f41d d43c 6e4e 1bbd 7f6c b1bd
000003a0: 4a6c acbe 3efe bdbd 6e55 b7bc 1526 55be
000003b0: a708 6c3d 273d 1f3e 9094 1d3d 53d1 94be
000003c0: 9f7e 35be ba61 ae3d 1e75 40bd d53f ac3d
000003d0: e4bb 2ebe 5a39 aabd 6425 843d c0c5 1cbe
000003e0: 8ccf 8e3e 20d2 ea3d d6da ba3e 3cd9 90bd
000003f0: e3d6 b23c f7c1 c83c b263 cabc 67e4 0a3e

enc2.2.bias f4 [16]
0.016797246 0.029833833 0.0030007304 0.012785163 0.032757588 0.028671117 -0.0034748574 -0.005671795
0.050745778 0.031756945 0.01139263 0.0060260445 0.020524425 -0.0117259305 0.032105613 0.028361443
00000000: 619a 893c 1566 f43c e7a7 443b dc78 513c
00000010: d22c 063d b1df ea3c 6fba 63bb 77da b9bb
00000020: ceda 4f3d 9213 023d 27a8 3a3c 2076 c53b
00000030: d722 a83c 1e1e 40bc 2d81 033d 4256 e83c

bottleneck.0.weight f4 [32, 16, 3, 3]
-0.090613104 0.05190169 0.05813449 0.025573779 0.092611454 -0.017102672 0.026624005 -0.0080262665
-0.17646568 -0.022912942 -0.2041985 0.110770136 -0.012834024 0.06405386 0.1376862 -0.16932255
0.18814464 0.05039556 0.051841788 0.10864214 0.08491443 -0.050984196 0.13687523 0.23176707
-0.03971189 -0.0038854133 -0.0013778963 0.0575908 -0.06847134 0.038076833 -0.045264494 -0.10441148
-0.0033175882 0.121680945 -0.0160934 -0.07788347 -0.08853617 -0.06861524 -0.0060559204 -0.060747664
0.05232988 -0.18134294 0.0997719 -0.124370106 0.11478442 -0.050336614 0.13161045 0.009778212
-0.10872958 0.08932275 -0.0660676 0.12700889 0.098702416 -0.055946875 0.008288632 0.18850581
-0.03616444 0.06778381 0.037476227 -0.09659916 -0.0969279 0.24828629 0.1222638 -0.049947873
0.048496228 -0.035099506 0.044156358 0.16335925 0.12161295 0.014497666 0.0068684514 -0.022728434
-0.09716343 0.009757549 -0.1367675 -0.066564575 -0.07559394 -0.02892201 -0.11687521 0.03608238
0.15345892 -0.07955564 0.1156241 0.06715969 -0.02670636 0.06997273 0.15991496 -0.09984625
0.033150233 0.0013794944 0.029905181 -0.03550191 -0.039212096 0.11013517 0.13932364 0.13461244
-0.030426202 0.07723392 -0.036740027 0.019922588 0.136451 -0.05911894 -0.0043187723 0.09170477
0.010809742 0.04392959 0.26481152 0.10911495 -0.026395103 0.029880546 -0.044465493 0.14103517
0.06530887 -0.08456678 -0.046749063 -0.0326828 -0.20026928 0.087201 0.054696463 -0.16629776
0.15287246 -0.04516941 0.088683546 0.052602638 0.038889084 0.2207283 -0.034283 0.041584738
-0.13496794 0.05570411 -0.03818133 -0.039889317 0.02018952 -0.10137719 -0.056502048 0.002026002
0.16853774 0.036659367 0.05233359 0.054625235 0.043447472 0.097942784 0.0553264 0.05413587
-0.015907835 -0.119108975 0.08940929 0.012113931 0.037590705 -0.0024671422 -0.026407214 -0.09074695
0.05180374 0.0808537 -0.05285319 0.029658569 0.06524769 0.0033657278 -0.16718473 -0.043091375
-0.06519902 0.24844532 0.0109294085 -0.12566267 -0.076467715 -0.07105905 -0.10362665 0.012625299
-0.053109124 0.054628205 0.094237335 -0.0947544 -0.070075825 0.047309503 0.048429195 -0.054069933
0.024263343 0.048185233 0.033183992 0.099053636 0.048461232 0.0125208935 0.09837478 0.12431006
0.08698165 0.073537774 0.054598637 -0.01685532 -0.07312209 -0.021328617 0.031313617 -0.049129922
-0.021130068 0.027706472 -0.033714876 0.038712222 -0.040230654 0.13297549 -0.098536365 -0.061271027
-0.1494146 0.019133171 0.050798204 -0.14617251 0.06409851 0.075877056 0.13624674 -0.16388701
-0.038980342 -0.21359558 0.099115536 0.21844402 -0.050509583 0.046255197 0.022129385 -0.051850475
-0.095338754 0.12680566 -0.0142820105 0.10855753 -0.0026802728 0.048942864 -0.04092918 0.21483049
0.09470158 0.019457264 -0.017246433 -0.10701715 0.07194773 -0.10553243 -0.049448006 -0.21126255
0.101938844 -0.09839923 0.07656352 0.07957518 -0.09574364 0.15389058 -0.01852791 -0.14598718
0.05090967 -0.000214928 0.11409035 -0.0417204 -0.0023622864 0.15823372 0.12322722 -0.0074665537
0.13585447 0.07642363 -0.01387046 0.13487577 0.07789114 0.1349196 -0.054312114 -0.07971799
00000000: 5d93 b9bd de96 543d 6e1e 6e3d 1a80 d13c
00000010: 13ab bd3d e71a 8cbc 961a da3c 9a80 03bc
00000020: 6bb3 34be ecb3 bbbc 6919 51be 74db e23d
00000030: cc45 52bc ac2e 833d 9cfd 0c3e e462 2dbe
00000040: fda8 403e 936b 4e3d 0e58 543d c57f de3d
00000050: 9ee7 ad3d ced4 50bd 0529 0c3e 5954 6d3e
00000060: efa8 22bd 6ba2 7ebb 879a b4ba 55e4 6b3d
00000070: b43a 8cbd 74f6 1b3d 4367 39bd b0d5 d5bd
00000080: e56b 59bb dc33 f93d 4ed6 83bc 5e81 9fbd
00000090: 7452 b5bd 2686 8cbd be70 c6bb 8bd2 78bd
000000a0: db57 563d f7b1 39be 3655 cc3d c1b5 febd
000000b0: 1814 eb3d c42d 4ebd e4c4 063e cb34 203c
000000c0: 9dad debd d9ee b63d 734e 87bd 9e0e 023e
000000d0: 7e24 ca3d 8d28 65bd 0bcd 073c ab07 413e
000000e0: 2a21 14bd 3dd2 8a3d ac80 193d c8d5 c5bd
000000f0: 2382 c6bd c33e 7e3e 7165 fa3d 2496 4cbd
00000100: fba3 463d 80c4 0fbd 4cdd 343d a647 273e
00000110: 3610 f93d 9e87 6d3c bf10 e13b fb30 babc
00000120: 9ffd c6bd 20de 1f3c c80c 0cbe 0253 88bd
00000130: ffd0 9abd daed ecbc 455c efbd 1ecb 133d
00000140: 5624 1d3e 11ee a2bd 54cc ec3d 058b 893d
00000150: 4cc7 dabc dd4d 8f3d bfc0 233e 317c ccbd
00000160: 8ac8 073d 27d0 b43a b6fb f43c 736a 11bd
00000170: dd9c 20bd 8c8e e13d dbaa 0e3e d8d7 093e
00000180: 5f40 f9bc d12c 9e3d b67c 16bd b234 a33c
00000190: d0b9 0b3e b426 72bd 7d84 8dbb b6cf bb3d
000001a0: 581b 313c 84ef 333d 6095 873e a977 df3d
000001b0: 8b3a d8bc 0cc8 f43c 7321 36bd 866b 103e
000001c0: a8c0 853d 5931 adbd f27b 3fbd 66de 05bd
000001d0: 6413 4dbe 7096 b23d 6609 603d f649 2abe
000001e0: 998a 1c3e 8f03 39bd b89f b53d dd75 573d
000001f0: 294a 1f3d 9906 623e 556c 0cbd c254 2a3d
00000200: 0935 0abe fe29 643d 0764 1cbd fb62 23bd
00000210: 7e64 a53c d89e cfbd b16e 67bd acc6 043b
00000220: 2895 2c3e 2228 163d bf5b 563d b6be 5f3d
00000230: faf5 313d 3a96 c83d ef9d 623d 93bd 5d3d
00000240: 2651 82bc 68ef f3bd 381c b73d 8279 463c
00000250: b6f8 193d c7af 21bb f153 d8bc 89d9 b9bd
00000260: 2930 543d a096 a53d 967c 58bd 87f6 f23c
00000270: 95a0 853d 8b93 5c3b 7932 2bbe 9580 30bd
00000280: 1087 85bd 7368 7e3e 4311 333c b7ad 00be
00000290: 1b9b 9cbd 6887 91bd 363a d4bd 58da 4e3c
000002a0: f488 59bd d3c1 5f3d 81ff c03d 980e c2bd
000002b0: ea83 8fbd 9cc7 413d b15d 463d 6f78 5dbd
000002c0: ebc3 c63c e15d 453d f0eb 073d a2dc ca3d
000002d0: 497f 463d 6f24 4d3c b778 c93d 4696 fe3d
000002e0: 6f23 b23d f99a 963d d2a2 5f3d 2b14 8abc
000002f0: 09c1 95bd 5ab9 aebc b542 003d 753c 49bd
00000300: f718 adbc aff8 e23c 9c18 0abd b590 1e3d
00000310: e6c8 24bd ba2a 083e 6fcd c9bd 54f7 7abd
00000320: 2400 19be 2bbd 9c3c c711 503d 3fae 15be
00000330: 1446 833d 6e65 9b3d 4484 0b3e ffd1 27be
00000340: daa9 1fbd cdb8 5abe 16fd ca3d caaf 5f3e
00000350: 23e3 4ebd 1776 3d3d af48 b53c 2a61 54bd
00000360: f740 c3bd 58d9 013e 18ff 69bc 6953 de3d
00000370: 84a7 2fbb 5078 483d 5ba5 27bd 86fc 5b3e
00000380: e7f2 c13d d764 9f3c 6448 8dbc cf2b dbbd
00000390: 5559 933d 6321 d8bd fe89 4abd 3655 58be
000003a0: 50c5 d03d 8985 c9bd 56cd 9c3d 50f8 a23d
000003b0: 3e15 c4bd 7e95 1d3e d8c7 97bc aa7d 15be
000003c0: a886 503d 4c5e 61b9 34a8 e93d 03e3 2abd
000003d0: 97d0 1abb 0508 223e 8d5e fc3d fea9 f4bb
000003e0: 6f1d 0b3e fe83 9c3d ed40 63bc e01c 0a3e
000003f0: 6485 9f3d 5d28 0a3e 6176 5ebd 2f43 a3bd

bottleneck.0.bias f4 [32]
-0.028811125 0.02745109 0.029777825 0.03350487 0.029137645 0.022634843 0.013492196 -0.003992883
0.028376138 -0.010355498 0.015332179 0.0375214 -0.008668744 0.025434472 -0.0003664968 0.03126369
0.03386777 0.011799788 0.026200188 0.051886823 0.01212099 0.05000796 0.02470287 -0.012717577
0.032518283 0.021538654 -0.028876677 0.016225075 0.015899701 0.027687581 0.022494953 0.032409873
00000000: 4f05 ecbc 1ce1 e03c a0f0 f33c 673c 093d
00000010: 12b2 ee3c b56c b93c 5f0e 5d3c bbd6 82bb
00000020: 1375 e83c 1baa 29bc d233 7b3c 0ab0 193d
00000030: 5907 0ebc f45b d03c 5e26 c0b9 5b0e 003d
00000040: eeb8 0a3d e653 413c c7a1 d63c 4787 543d
00000050: 1e97 463c 26d5 4c3d ac5d ca3c 625d 50bc
00000060: e431 053d d571 b03c c88e ecbc 73ea 843c
00000070: 1740 823c 11d1 e23c 5647 b83c 37c0 043d

bottleneck.2.weight f4 [32, 32, 3, 3]
0.0056565274 0.0010646967 -0.18972261 -0.10205299 -0.17978002 -0.008172757 -0.06666286 -0.11818251
-0.02192156 0.0075803935 -0.18622352 -0.038920734 0.0148202665 0.11087593 0.06813652 0.07900544
-0.034391765 -0.0143042635 -0.04766415 0.22193079 0.034607787 -0.094521545 0.07029156 -0.027596619
0.094521545 -0.07414861 0.10653676 -0.023214389 0.09337527 0.016910251 0.0020102598 0.1634779
0.088857055 0.05299224 0.10909394 0.034073267 0.042637873 -0.010533359 0.05814872 0.017179664
-0.07343929 0.15121439 -0.009756198 0.036459558 -0.1353812 -0.17095359 -0.14914803 -0.07170935
0.11198155 0.066893764 0.13048404 -0.07417383 -0.073454686 0.066174395 0.082236804 0.031930976
0.011558767 0.012689963 0.0034481424 0.07868142 -0.06334487 -0.054622665 -0.05118546 0.012903108
0.01591901 0.13846667 0.038790923 0.08082589 0.032387484 -0.0409334 0.025309067 0.06995158
-0.17169328 0.019294877 -0.09430039 0.07477666 0.0045604864 0.049712233 0.0667993 -0.068294354
0.044799693 0.0049339477 0.017055523 -0.008068342 -0.04649671 0.042014714 -0.055217817 -0.0060701827
-0.20474212 -0.09153603 -0.020507187 0.02586558 -0.035379313 -0.08085258 0.12342056 0.07397158
0.01964583 0.05983419 0.037873857 0.025657112 0.06782107 0.12982778 0.13641347 0.18086602
-0.017390264 0.09936799 -0.10662696 0.053023398 -0.016226057 -0.03730038 -0.037386015 -0.0013516479
-0.058651783 -0.06782181 -0.124989994 -0.0764454 -0.13435541 -0.022810841 0.06756732 -0.115729585
-0.07715887 0.021648852 0.0476846 -0.20404169 0.009543008 0.087462366 0.119524464 0.04673001
-0.07110431 0.14346708 0.15309353 -0.14348955 -0.07117738 0.13997243 0.07468617 -0.052575987
0.084094204 0.013747942 -0.09708245 0.031015463 0.027820453 0.085753955 -0.081477486 0.09948706
0.19967058 -0.14910407 -0.02848415 -0.05133445 0.049825497 0.015244602 -0.10807072 0.04980135
-0.035711545 -0.02521806 -0.04769247 0.12334931 0.026449358 -0.039394274 0.02703035 0.03711332
0.1348641 -0.050766263 -0.011178903 -0.10829866 -0.09629339 -0.19936192 0.028176853 -0.086446315
0.017449725 0.18271773 -0.010237194 -0.03459065 -0.015038525 -0.14366561 0.05551138 0.055710934
-0.15111032 -0.026093451 0.07113201 0.102218755 -0.01830528 -0.1201535 0.11884861 -0.10786018
-0.045008212 -0.08258142 -0.07550976 0.08006261 0.13061611 -0.22801946 -0.0079388935 0.022901105
-0.04622715 0.0026335854 0.029543137 -0.17174697 0.096792884 0.017041791 0.04675269 -0.07898395
0.053851422 -0.01159528 0.030211838 0.18128242 0.03895676 -0.11942783 0.04125957 0.048517223
0.057797402 -0.098024204 0.020356443 -0.16734712 -0.006694211 -0.054351088 -0.0030914415 -0.1284633
0.010975161 0.017610068 0.019385725 0.049227525 -0.030763231 0.11222884 0.016686864 0.056637313
0.033563662 -0.10069576 -0.06052621 0.013273722 -0.061881766 -0.11065067 0.105454415 0.061626125
-0.04930618 0.056286193 0.06113314 -0.14123307 -0.037305832 0.17644829 -0.1288859 -0.07441307
0.04242717 -0.013788647 -0.077650346 0.07020242 0.07523497 0.05815403 0.02433111 0.06465184
0.15975033 -0.08157718 -0.014320715 0.041930344 0.15869562 0.24903078 0.2917836 -0.021030823
00000000: 645a b93b 4b8d 8b3a a546 42be 2801 d1bd
00000010: 4118 38be 07e7 05bc 8a86 88bd ac09 f2bd
00000020: d894 b3bc f364 f83b 61b1 3ebe 596b 1fbd
00000030: b4d0 723c eb12 e33d 298b 8b3d 9bcd a13d
00000040: 61de 0cbd 6e5c 6abc 7c3b 43bd d341 633e
00000050: e5c0 0d3d 8394 c1bd 05f5 8f3d 4e12 e2bc
00000060: 8394 c13d 3adb 97bd f22f da3d 1a2c bebc
00000070: 893b bf3d 5e87 8a3c 90be 033b c066 273e
00000080: b0fa b53d 640e 593d a56c df3d 6990 0b3d
00000090: 0da5 2e3d 1c94 2cbc 5a2d 6e3d 5ebc 8c3c
000000a0: 5767 96bd f2d7 1a3e 76d8 1fbc 9e56 153d
000000b0: 5fa1 0abe 750e 2fbe 43ba 18be 5adc 92bd
000000c0: 9556 e53d 99ff 883d 9c9d 053e 73e8 97bd
000000d0: 696f 96bd 7186 873d c56b a83d 0eca 023d
000000e0: fc60 3d3c 90e9 4f3c 3bfa 613b b923 a13d
000000f0: f5ba 81bd 04bc 5fbd d8a7 51bd 8f67 533c
00000100: 9568 823c 35ca 0d3e 3be3 1e3d 0b88 a53d
00000110: bda8 043d c8a9 27bd f654 cf3c c642 8f3d
00000120: 5dd0 2fbe 4a10 9e3c 9020 c1bd 8124 993d
00000130: 2270 953b 0e9f 4b3d 12ce 883d e9dd 8bbd
00000140: e27f 373d f4ac a13b 06b8 8b3c 1431 04bc
00000150: 5673 3ebd 9f17 2c3d 142c 62bd 62e8 c6bb
00000160: eba7 51be 3e77 bbbd b0fe a7bc 0ee4 d33c
00000170: e6e9 10bd 0a96 a5bd ebc3 fc3d 697e 973d
00000180: 4bf0 a03c b214 753d 9e21 1b3d dd2e d23c
00000190: c6e5 8a3d 93f1 043e f9af 0b3e f134 393e
000001a0: 0776 8ebc 7281 cb3d 3c5f dabd 102f 593d
000001b0: 82ec 84bc 49c8 18bd 1422 19bd c729 b1ba
000001c0: da3c 70bd 29e6 8abd c1fa ffbd 688f 9cbd
000001d0: 7794 09be cddd babc bc60 8a3d a203 edbd
000001e0: 7805 9ebd ef58 b13c ed50 433d 4ef0 50be
000001f0: 475a 1c3c 781f b33d 3ec9 f43d f867 3f3d
00000200: 239f 91bd 09e9 123e 8dc4 1c3e edee 12be
00000210: 72c5 91bd ef54 0f3e 10f5 983d eb59 57bd
00000220: 9539 ac3d 0c3f 613c 2ad3 c6bd 2414 fe3c
00000230: b8e7 e33c c59f af3d abdd a6bd dfbf cb3d
00000240: 7276 4c3e bdae 18be 9857 e9bc 1244 52bd
00000250: d215 4c3d 7fc4 793c 2f54 ddbd 80fc 4b3d
00000260: 4546 12bd 1b96 cebc 2e59 43bd 909e fc3d
00000270: 53ac d83c e45b 21bd c16e dd3c 2304 183d
00000280: d119 0a3e 49f0 4fbd b827 37bc b0cb ddbd
00000290: 7835 c5bd 8825 4cbe 25d3 e63c c40a b1bd
000002a0: baf2 8e3c 5b1a 3b3e e7b9 27bc edae 0dbd
000002b0: 2564 76bc 141d 13be e75f 633d 2631 643d
000002c0: aabc 1abe efc1 d5bc a9ad 913d 1158 d13d
000002d0: f4f4 95bc 0a13 f6bd e666 f33d cce5 dcbd
000002e0: 885a 38bd 7320 a9bd dca4 9abd def7 a33d
000002f0: 3bc0 053e ef7d 69be 2212 02bc 199b bb3c
00000300: ae58 3dbd 3b98 2c3b 7304 f23c 70de 2fbe
00000310: 593b c63d 3a9b 8b3c c07f 3f3d 56c2 a1bd
00000320: 4f93 5c3d 21fa 3dbc d17e f73c 19a2 393e
00000330: 2091 1f3d 9496 f4bd cbff 283d ffb9 463d
00000340: f8bc 6c3d eac0 c8bd 8ec2 a63c 0b5d 2bbe
00000350: 1d5b dbbb 3f9f 5ebd c899 4abb e28b 03be
00000360: 29d1 333c fd42 903c d0ce 9e3c cda2 493d
00000370: 2c03 fcbc 3cd8 e53d e4b2 883c 87fc 673d
00000380: 0d7a 093d 9439 cebd 55ea 77bd 067a 593c
00000390: bc77 7dbd d29c e2bd 7cf8 d73d ad6b 7c3d
000003a0: 47f5 49bd 5a8c 663d be66 7a3d 679f 10be
000003b0: 00ce 18bd dcae 343e aafa 03be e165 98bd
000003c0: 1dc8 2d3d c7e9 61bc 2507 9fbd 49c6 8f3d
000003d0: cb14 9a3d ec32 6e3d 0952 c73c 2f68 843d
000003e0: 9795 233e f011 a7bd 6fa1 6abc 27bf 2b3d
000003f0: 1b81 223e ed01 7f3e a964 953e d548 acbc

bottleneck.2.bias f4 [32]
0.029528374 0.041747373 0.030473908 -0.014218955 -0.008796959 -0.014408575 0.0273854 -0.013706118
0.03227781 0.008563297 0.034749467 -0.03200573 -0.035250537 0.028935613 -0.013323751 0.02766219
0.016830638 -0.008403428 0.03264452 -0.0041160826 0.03129478 -0.0025071634 -0.04072863 -0.008144796
0.026616361 0.031591382 -0.028764678 0.02593482 0.017044356 -0.0144985 0.0275629 0.0031324474
00000000: 7de5 f13c 4bff 2a3d 6ba4 f93c 9ff6 68bc
00000010: 1f21 10bc f211 6cbc 5957 e03c a08f 60bc
00000020: bd35 043d 124d 0c3c 7555 0e3d 7118 03bd
00000030: de62 10bd 610a ed3c dd4b 5abc d19b e23c
00000040: 68e0 893c 88ae 09bc 43b6 053d 34e0 86bb
00000050: f52e 003d 394f 24bb 10d3 26bd c071 05bc
00000060: 8e0a da3c f765 013d e7a3 ebbc 4275 d43c
00000070: 9ba0 8b3c 1e8b 6dbc 97cb e13c bf49 4d3b

up1.weight f4 [32, 16, 2, 2]
0.0734443 0.06150013 -0.26059353 -0.025566757 -0.109744966 0.116679326 0.07833134 0.30450487
-0.18777375 -0.082380615 0.10073399 0.01786565 -0.09151512 0.07223049 0.112007536 -0.08886509
0.0031978262 0.2983614 0.07703416 -0.08072374 0.039795514 -0.16177362 0.019757966 -0.09065873
0.13204925 0.116323695 -0.040526915 -0.091465384 0.030248588 -0.20439695 0.23224936 0.079586335
-0.22263207 0.11391343 -0.22008722 -0.08676524 0.0472929 -0.056176998 0.18588609 0.20179161
-0.11544693 0.19396149 0.07958354 0.1333227 -0.0018001846 0.10687316 -0.092001624 -0.01889722
0.09089641 -0.2702024 -0.0296854 0.07729042 0.030424463 -0.060041595 0.28116778 0.15279843
-0.11953518 -0.23579873 0.063707985 -0.038459044 0.0058853817 0.22582504 -0.09461044 0.050291657
-0.14643204 -0.15556611 0.07251834 -0.093351446 -0.24621166 -0.16139606 -0.22142857 0.005043259
0.29097968 0.102592975 -0.04949115 -0.09213522 0.11609909 0.009514368 0.15444806 -0.07249803
-0.17761144 -0.14252384 -0.046425812 -0.2716658 0.0069604283 -0.034120746 0.04621278 0.05933406
-0.11713159 -0.02011864 -0.15094322 -0.39956352 0.10555756 0.109564476 -0.21014512 -0.10976292
-0.19107138 -0.03611033 -0.27283725 0.11043258 0.042857733 0.14820369 0.0856411 0.033587433
0.02315949 -0.11996038 -0.008974217 0.12378703 -0.13400196 -0.0074920706 0.24239044 0.059482966
-0.073604226 0.12115045 0.0777361 0.13507481 0.09811177 0.031267434 0.20174083 -0.071480244
0.067702405 0.16854905 -0.056982014 -0.10205335 -0.17326489 -0.1173175 -0.23398408 -0.04528655
-0.033650193 -0.06612652 -0.12591578 0.25045744 0.0051314095 -0.014344704 -0.15031753 -0.04269901
0.04208155 0.06830564 0.21783902 0.2509733 0.1045514 0.07415648 0.31426534 -0.021836348
-0.05333997 -0.017712286 -0.22246099 -0.20183492 -0.014201412 0.039120037 -0.07550235 -0.029133672
0.040964518 0.1381846 -0.04371917 -0.14918138 -0.4050706 -0.040753104 -0.059585802 -0.007061778
0.18969996 -0.00606366 -0.15536074 0.3557721 0.10373454 0.11374995 0.18975073 -0.06600983
0.036715433 -0.014684179 0.038081028 -0.06549493 0.050675515 -0.08051233 0.089688554 -0.105805404
-0.027104951 0.020549925 -0.057962965 0.23167405 -0.0347086 -0.02093862 -0.0003016658 0.2718023
-0.096186616 0.14965974 -0.050066426 -0.13242637 0.11360888 -0.10766149 -0.03604734 -0.14391877
-0.09037272 0.048208784 0.03586172 0.10342582 0.1085546 0.14045458 -0.27781838 0.084053114
-0.14954384 -0.18115003 -0.05226051 0.0943373 -0.29452077 -0.0035156922 0.06602316 0.16328086
0.08107869 -0.108376406 0.12930444 -0.057509765 -0.012198901 -0.014975616 0.07976469 0.09544434
-0.031156085 -0.0076332423 0.3605777 0.026081279 -0.026634322 0.12457598 0.021780698 -0.06116275
-0.004980647 -0.018705923 0.02836408 -0.059416506 0.0888073 -0.20639367 0.056930713 0.21914217
-0.0996106 -0.036100827 0.14069717 -0.19678363 0.030326605 -0.15923339 0.07580934 0.07939413
-0.02422175 0.10772049 0.12112348 -0.13245112 0.12790678 -0.026555762 0.13167402 -0.13916576
0.2413516 -0.05859635 0.122509986 -0.056719106 -0.15672679 0.081284046 0.08418153 0.028706463
00000000: f769 963d 8fe7 7b3d 846c 85be 6071 d1bc
00000010: f8c1 e0bd 92f5 ee3d 2e6c a03d 10e8 9b3e
00000020: c347 40be 2bb7 a8bd 9f4d ce3d fc5a 923c
00000030: 476c bbbd 94ed 933d 3564 e53d e6fe b5bd
00000040: 9f92 513b d3c2 983e 16c4 9d3d 7d52 a5bd
00000050: 9f00 233d fca7 25be 75db a13c 49ab b9bd
00000060: eb37 073e 1e3b ee3d 8dff 25bd 3452 bbbd
00000070: e3cb f73c 6f4d 51be c7d2 6d3e 29fe a23d
00000080: a9f9 63be 724b e93d 8b5e 61be f9b1 b1bd
00000090: 33b6 413d da19 66bd ec58 3e3e 76a2 4e3e
000000a0: 716f ecbd d79d 463e b2fc a23d bf85 083e
000000b0: 2cf4 ebba 51e0 da3d 596b bcbd 58ce 9abc
000000c0: e627 ba3d f857 8abe cc2e f3bc 714a 9e3d
000000d0: b93c f93c 2dee 75bd 39f5 8f3e 3177 1c3e
000000e0: dcce f4bd 3975 71be 5579 823d 3b87 1dbd
000000f0: 29da c03b ae3e 673e 1ec3 c1bd a0fe 4d3d
00000100: 48f2 15be b94c 1fbe 7f84 943d 0b2f bfbd
00000110: e91e 7cbe 0245 25be 2cbe 62be ec41 a53b
00000120: 4afb 943e 441c d23d 3bb7 4abd 64b1 bcbd
00000130: 5cc5 ed3d 27e2 1b3c a227 1e3e d979 94bd
00000140: c6df 35be c5f1 11be fe28 3ebd c817 8bbe
00000150: 4e14 e43b 32c2 0bbd 9d49 3d3d 4508 733d
00000160: b0e2 efbd d9cf a4bc dc90 1abe 9793 ccbe
00000170: 902e d83d 5763 e03d 4830 57be 62cb e0bd
00000180: 37a8 43be 6de8 13bd 53b1 8bbe 7a2a e23d
00000190: 978b 2f3d b5c2 173e 9a64 af3d fa92 093d
000001a0: f9b8 bd3c caad f5bd 9808 13bc 0e84 fd3d
000001b0: cf37 09be 0b80 f5bb 3335 783e 69a4 733d
000001c0: d0bd 96bd ba1d f83d 1b34 9f3d 0d51 0a3e
000001d0: d3ee c83d 4812 003d 2695 4e3e 3c64 92bd
000001e0: 8fa7 8a3d 1f98 2c3e f965 69bd 5901 d1bd
000001f0: 5a6c 31be 2844 f0bd 8699 6fbe 647e 39bd
00000200: c9d4 09bd 576d 87bd 11f0 00be f53b 803e
00000210: 6225 a83b 0d06 6bbc d7ec 19be 28e5 2ebd
00000220: b45d 2c3d d4e3 8b3d 3111 5f3e 937f 803e
00000230: 0b1f d63d 5adf 973d 63e7 a03e 24e2 b2bc
00000240: 037b 5abd 5b19 91bc d0cc 63be d0ad 4ebe
00000250: 0aad 68bc 553c 203d faa0 9abd bda9 eebc
00000260: 69ca 273d 4480 0d3e df12 33bd 01c3 18be
00000270: 6a65 cfbe baec 26bd 3e10 74bd 7d66 e7bb
00000280: b540 423e abb1 c6bb e316 1fbe c327 b63e
00000290: c672 d43d bcf5 e83d 044e 423e 2930 87bd
000002a0: ec62 163d e995 70bc dafa 1b3d 3522 86bd
000002b0: 2191 4f3d a6e3 a4bd a2ae b73d 81b0 d8bd
000002c0: 340b debc 5158 a83c 936a 6dbd f63b 6d3e
000002d0: 9b2a 0ebd 7887 abbc e628 9eb9 ac29 8b3e
000002e0: 7dfd c4bd 6740 193e 7412 4dbd c79a 07be
000002f0: c6ab e83d a17d dcbd 60a6 13bd 715f 13be
00000300: 5515 b9bd 9376 453d bde3 123d ebd0 d33d
00000310: e051 de3d 53d3 0f3e 363e 8ebe 0a24 ac3d
00000320: 0522 19be 657f 39be 1e0f 56bd ea33 c13d
00000330: 6dcb 96be 8767 66bb 2737 873d 1933 273e
00000340: 960c a63d 73f4 ddbd 6268 043e 5c8f 6bbd
00000350: e6dd 47bc 495c 75bc ab5b a33d 5278 c33d
00000360: 0c3b ffbc 4720 fabb a49d b83e 68a8 d53c
00000370: 3930 dabc b121 ff3d 6f6d b23c cb85 7abd
00000380: b234 a3bb 2a3d 99bc c95b e83c b95e 73bd
00000390: 9ae0 b53d dd58 53be 2e30 693d ce66 603e
000003a0: a400 ccbd 76de 13bd eb12 103e a681 49be
000003b0: 806f f83c 140e 23be ed41 9b3d 6499 a23d
000003c0: b16c c6bc 8f9c dc3d 960f f83d 44a1 07be
000003d0: fff9 023e 788b d9bc 8ed5 063e 7881 0ebe
000003e0: e024 773e ba02 70bd 84e6 fa3d 4b52 68bd
000003f0: fd7c 20be 4078 a63d 5e67 ac3d d129 eb3c

up1.bias f4 [16]
0.026407037 -0.03295323 0.027782127 -0.018239835 -0.026374815 -0.02760276 -0.031742025 -0.024924552
-0.023419606 0.024380097 -0.02482833 0.027650097 0.029600266 0.026245054 -0.023863042 -0.026941808
00000000: 9253 d83c f7f9 06bd 5897 e33c b56b 95bc
00000010: ff0f d8bc 2f1f e2bc ed03 02bd 932e ccbc
00000020: 79da bfbc c5b8 c73c c864 cbbc 7582 e23c
00000030: 427c f23c deff d63c 6d7c c3bc 11b5 dcbc

dec1.0.weight f4 [16, 32, 3, 3]
0.09748739 0.10898802 0.08734617 0.068195455 0.10433017 -0.08578749 0.07998036 0.1404847
-0.21426076 0.029075546 -0.08408452 -0.003008001 -0.20731106 0.073906854 0.17873651 -0.07783275
0.04238966 0.056862026 0.023408579 -0.117017716 0.15474494 0.073099226 0.030953787 0.061208695
-0.11645378 -0.00027142308 0.26761866 -0.074515685 0.024103109 -0.19431518 -0.23442955 -0.002678124
-0.12614529 -0.09241543 0.052276522 0.09051003 -0.0016837836 0.19656324 -0.020585112 -0.014084101
-0.06296808 0.022507997 -0.03558043 -0.08667412 0.20973799 -0.000982247 0.12518735 0.1183697
0.07793315 0.10579442 0.07391541 0.009383307 0.06256321 0.030489 -0.15832642 0.094119035
-0.029871838 -0.15450138 0.10035411 0.010549108 0.20889837 0.1462656 -0.12062911 -0.08742535
-0.119193316 -0.25584537 -0.25794464 8.173247e-05 -0.02414517 -0.19862233 -0.05984949 -0.23216258
-0.060803417 -0.09456154 0.16249824 0.10458732 0.05946665 0.1450806 -0.2515019 -0.09462595
0.06386817 0.20853236 0.19396694 0.05032921 -0.05217253 0.08324625 -0.028108383 0.005344652
-0.008402419 0.10873516 0.10366052 -0.054527137 -0.085134 0.16415529 -0.15763533 0.10870868
-0.09461803 -0.025494898 -0.107882686 -0.061626036 -0.062044416 0.32275924 -0.13520348 0.15895085
0.011623051 0.26468927 -0.084469505 0.010614207 -0.015410509 -0.096071616 -0.18187399 -0.003291082
0.0026021018 0.09478386 0.01746161 0.06118151 -0.10671427 0.032220185 -0.2996199 -0.043229885
-0.016293423 -0.027442882 -5.699151e-05 -0.20142415 0.038739875 0.11110462 -0.023549939 0.0033213387
0.05853142 -0.2024658 -0.040512227 0.025655327 0.15637428 0.043770965 0.0016803758 0.13234314
-0.20125318 -0.06632164 0.048650708 -0.009695584 -0.02771217 0.014952718 0.3689091 0.087130204
-0.0069130454 0.11311814 -0.040752094 -0.02802294 0.015179896 -0.06347918 0.074068554 0.051801022
-0.15581551 0.054674547 -0.16607283 0.10495417 -0.062726684 -0.10601011 0.11803628 0.089416884
-0.049683522 -0.044086106 0.02525767 0.18409006 0.08099234 0.066371255 0.2513023 0.1701936
0.024274321 -0.015957648 -0.037773326 -0.04564226 0.07130702 -0.00857377 0.0147982 0.10231885
0.0156215355 -0.26358056 0.07440056 -0.08736186 0.10515472 -0.06831 -0.031421233 0.081784114
0.04935773 0.22268064 -0.08603061 -0.0667878 -0.22226585 -0.1063939 -0.23888913 0.05289172
-0.04333681 -0.0034779639 -0.11511282 0.2859568 -0.037605815 -0.05689098 -0.06792204 -0.19292231
-0.1754804 -0.010126475 -0.1278895 -0.069631204 -0.035088036 0.12365625 0.042302456 -0.10509696
-0.13337639 -0.15153351 -0.16030326 0.15765406 -0.11230377 -0.02653155 0.16087544 0.048892587
-0.14215249 -0.06589224 -0.11622742 0.025875926 -0.13148198 0.14607418 -0.092596434 -0.036561165
-0.01435264 -0.16599654 -0.025291894 0.29167163 0.17010039 0.0961753 0.009575874 0.010722955
0.13276526 0.04419975 -0.33095288 -0.08097803 0.15775885 -0.17537181 0.031246932 -0.038407244
0.11505445 -0.27780098 0.05255989 -0.23723638 0.037919015 0.06460056 0.06199 -0.112246566
-0.08156915 0.09928658 0.004010544 -0.014262443 -0.0857545 0.062076792 0.022435123 -0.14035809
00000000: 78a7 c73d 1c35 df3d 8ce2 b23d 0faa 8b3d
00000010: 0eab d53d 5ab1 afbd becc a33d 39db 0f3e
00000020: 2c67 5bbe d72f ee3c 8134 acbd e221 45bb
00000030: 5a49 54be 7a5c 973d b406 373e c766 9fbd
00000040: c8a0 2d3d 28e8 683d 59c3 bf3c fca6 efbd
00000050: 7575 1e3e 0cb5 953d cc92 fd3c f8b5 7a3d
00000060: 527f eebd ca4d 8eb9 5005 893e ae9b 98bd
00000070: e273 c53c 8ffa 46be 4d0e 70be 7783 2fbb
00000080: 3b2c 01be 4d44 bdbd e81f 563d 535d b93d
00000090: 67b2 dcba e047 493e 1ca2 a8bc 00c1 66bc
000000a0: 69f5 80bd b162 b83c c9bc 11bd 3382 b1bd
000000b0: 8ec5 563e bdbe 80ba 1d31 003e d06b f23d
000000c0: 6a9b 9f3d bfaa d83d f660 973d 71bc 193c
000000d0: 2421 803d 11c4 f93c 5220 22be 7bc1 c03d
000000e0: c9b5 f4bc 9c35 1ebe 7586 cd3d 2ad6 2c3c
000000f0: 74e9 553e a6c6 153e 650c f7bd 100c b3bd
00000100: a01b f4bd 2afe 82be 5211 84be c967 ab38
00000110: 17cc c5bc a763 4bbe bd24 75bd 07bc 6dbe
00000120: 010d 79bd 7ba9 c1bd f065 263e e031 d63d
00000130: 4d93 733d 0290 143e dbc4 80be 40cb c1bd
00000140: 51cd 823d 8289 553e 459f 463e 0026 4e3d
00000150: ddb2 55bd 037d aa3d 8d43 e6bc 3122 af3b
00000160: 4daa 09bc 8ab0 de3d f74b d43d d957 5fbd
00000170: bc5a aebd 5318 283e 286b 21be a8a2 de3d
00000180: 19c7 c1bd adda d0bc 99f1 dcbd 956b 7cbd
00000190: 4922 7ebd b340 a53e c872 0abe 03c4 223e
000001a0: 9c6e 3e3c 5a85 873e 59fe acbd 36e7 2d3c
000001b0: 5c7c 7cbc 32c1 c4bd 2d3d 3abe 32af 57bb
000001c0: 0688 2a3b 0a1e c23d a60b 8f3c 7799 7a3d
000001d0: 038d dabd 50f9 033d c867 99be d211 31bd
000001e0: c979 85bc e5cf e0bc 2b0a 6fb8 2242 4ebe
000001f0: b4ad 1e3d d28a e33d cdeb c0bc d1aa 593b
00000200: a4be 6f3d 3253 4fbe 26f0 25bd 1f2b d23c
00000210: 9420 203e 2f49 333d 0e40 dc3a f684 073e
00000220: 5015 4ebe a4d3 87bd f745 473d 3ada 1ebc
00000230: a204 e3bc 3ffc 743c a7e1 bc3e 5271 b23d
00000240: d486 e2bb 7caa e73d abeb 26bd 5d90 e5bc
00000250: 19b5 783c 5f01 82bd 41b1 973d 4f2d 543d
00000260: 1a8e 1fbe 6bf2 5f3d ff0e 2abe 36f2 d63d
00000270: d976 80bd d41b d9bd 01bd f13d 3320 b73d
00000280: f380 4bbd a293 34bd 2ce9 ce3c 1b82 3c3e
00000290: 50df a53d a7ed 873d b2aa 803e 3b47 2e3e
000002a0: f1da c63c 9db9 82bc 34b8 1abd 61f3 3abd
000002b0: 6a09 923d ff78 0cbc 2674 723c 8c8c d13d
000002c0: 78f1 7f3c 08f4 86be 525f 983d c6ea b2bd
000002d0: 5c5b d73d 1de6 8bbd 8db3 00bd 6e7e a73d
000002e0: 552b 4a3d 6506 643e d130 b0bd 0bc8 88bd
000002f0: a999 63be 0ce5 d9bd 5a9f 74be fda4 583d
00000300: f081 31bd 8dee 63bb 45c0 ebbd ee68 923e
00000310: 8e08 1abd 8406 69bd b61a 8bbd 6d8d 45be
00000320: 22b1 33be 84e9 25bc 77f5 02be ce9a 8ebd
00000330: 79b8 0fbd 7d3f fd3d 5745 2d3d 133d d7bd
00000340: d293 08be 9a2b 1bbe 8a26 24be 1170 213e
00000350: 85ff e5bd b158 d9bc 88bc 243e 9843 483d
00000360: 6c90 11be 83f2 86bd a408 eebd c0f9 d33c
00000370: 36a3 06be 7894 153e 33a3 bdbd 29c1 15bd
00000380: 5627 6bbc fffa 29be f230 cfbc fc55 953e
00000390: cc2e 2e3e 8ef7 c43d 20e4 1c3c 55af 2f3c
000003a0: 9ef3 073e cc0a 353d a872 a9be cfd7 a5bd
000003b0: 898b 213e ab94 33be 91f9 ff3c ea50 1dbd
000003c0: aba1 eb3d ee3b 8ebe 0a49 573d 18ee 72be
000003d0: f850 1b3d 4c4d 843d 3ae9 7d3d 87e1 e5bd
000003e0: ba0d a7bd c356 cb3d e26a 833b 06ad 69bc
000003f0: 0ea0 afbd 3c44 7e3d ddc9 b73c 08ba 0fbe

dec1.0.bias f4 [16]
0.023087034 0.023451079 0.028001681 0.029549437 -0.0035552217 -0.029728085 0.025027616 0.026576705
-0.015454025 0.0033566016 -0.012091809 -0.0032780953 -0.015360216 0.020866351 -0.004768868 0.026668534
00000000: 0521 bd3c 7a1c c03c c863 e53c a911 f23c
00000010: b9fe 68bb 5088 f3bc b706 cd3c 64b7 d93c
00000020: e132 7dbc 6efa 5b3b b91c 46bc 50d5 56bb
00000030: 6aa9 7bbc e9ef aa3c 2a44 9cbb f877 da3c
