sampling-based_planning_framework/checkpoints/checkpoint_epoch_97.pth (torch, 387122 bytes, 75 tensors)

enc1.0.weight f4 [8, 1, 3, 3]
000000 3b 8c dc bd 42 7b d4 3d 66 39 97 3d 82 a3 13 3e
       -0.10768934 0.10375072 0.07383995 0.14417842
000010 f1 d4 f2 bd 4c 8e ae 3d 18 fd e7 3c 84 fb 39 be
       -0.118570216 0.08523235 0.028318927 -0.18162352
000020 5b 2d 96 bd 23 0c 0e 3e 88 f9 e9 bd ae 2c 37 3d
       -0.073328696 0.13871817 -0.114245474 0.044720344
000030 29 72 80 3e cb 89 b2 bd d6 4b 19 3e 05 e2 90 bd
       0.25087097 -0.08717688 0.14970335 -0.0707436
000040 1d 41 28 3e e2 d0 c7 bd e0 23 2c 3e 0c 35 4a be
       0.16431089 -0.09756638 0.1681056 -0.19746798
000050 1e 9a 4f be 2c 03 2e 3e d4 d7 e1 bd e0 39 22 be
       -0.20273635 0.16993397 -0.11027494 -0.1584239
000060 2c 85 be be 25 1b 54 be ba 0b 03 be e2 04 6f 3d
       -0.37210977 -0.2071348 -0.12797442 0.058354266
000070 e0 fc 06 3d 05 1c 69 be 6b b2 69 3d 4b 40 41 3e
       0.032956004 -0.22764595 0.05705492 0.18872182
000080 2b 53 ba 3e 84 4a d2 bc 4a f9 3a 38 ab ba 6f bc
       0.36391577 -0.025670297 4.4578024e-05 -0.014631907
000090 a9 68 fb bd f1 b6 84 3d 9a 2e a6 bd b3 e7 92 be
       -0.12275822 0.06480206 -0.08114357 -0.28692397
0000a0 56 38 6a 3e 1e 99 6d bd c6 66 6e bd e4 2e dc 3d
       0.22873053 -0.058007352 -0.05820348 0.10751131
0000b0 22 1e a6 be 02 76 63 3e 74 ec 6c 3e 75 de a1 3b
       -0.32444865 0.22212985 0.23137075 0.004939849
0000c0 c1 20 bf 3e 41 2d 9a bd 6e 30 b0 bd db 6d cb 3d
       0.37329677 -0.07528163 -0.08602987 0.09933063
0000d0 20 c4 23 be 24 0c 7c be fd 61 37 3c 15 11 58 3d
       -0.15992785 -0.24614006 0.011192796 0.052750666
0000e0 4c d1 ec 3d 40 b0 06 3e ee 5c f8 bd aa 87 fc 3e
       0.11563358 0.13153172 -0.121271 0.49322253
0000f0 bc e0 2f bd 13 9e fb 3d 46 75 fc 3d 13 72 14 3e
       -0.042938933 0.1228601 0.12327056 0.14496641
000100 32 8c ae be bb 18 ba 3d e0 5f 2e be 69 db b8 bd
       -0.34091336 0.09086748 -0.17028761 -0.09026224
000110 55 7b 52 3e 88 b7 87 3d f9 30 eb bd 31 bd 75 3d
       0.2055486 0.06626803 -0.1148395 0.05999488

enc1.0.bias f4 [8]
000000 98 fd 15 3d 69 b4 07 39 a6 ec 05 3d c1 03 42 ba
       0.0366188 0.00012941811 0.03269639 -0.0007401072
000010 6f af 6d 3d c4 81 7c 3a e0 b9 90 3b 66 80 23 ba
       0.058028635 0.00096323737 0.0044166893 -0.00062370894

enc1.2.weight f4 [8, 8, 3, 3]
000000 e5 e1 15 3d 03 78 80 3d 82 43 af bd 45 0f 83 be
       0.036592383 0.062728904 -0.08557798 -0.25597587
000010 ca 4e fd 3e ab 20 2f 3e 9b 16 3e bc a6 72 00 bd
       0.49474174 0.17102306 -0.011602069 -0.031359337
000020 f5 70 d6 bc 0b b1 8e bd c9 2f ac bd 41 1f a6 bd
       -0.026176909 -0.06967362 -0.08407552 -0.0811143
000030 aa 8d 5b 3a ba 7a b3 bd 31 34 43 3e 2c e4 3b 3e
       0.00083752966 -0.087636426 0.19062878 0.1834876
000040 20 ac 3b 3e 41 3b 89 be 87 c8 95 3d a9 73 20 3e
       0.18327379 -0.2680302 0.07313638 0.15669121
000050 a0 61 ca 3d 03 ca b0 bd 00 93 02 3e cf 02 dd bd
       0.09881902 -0.08632281 0.12751389 -0.10791551
000060 94 74 46 be c2 7d 20 3e fa 3c 87 3d fe 3e 8a 3b
       -0.19380409 0.15672973 0.06603427 0.004218935
000070 94 17 e2 3d 56 54 98 be f5 d2 67 3e ac a3 ee bb
       0.110396534 -0.29751843 0.22639067 -0.007282695
000080 6e 56 33 3d be 33 bb 3b fd 6e 8b 3d e4 b2 4a be
       0.043783598 0.0057129553 0.06808279 -0.19794804
000090 dc 1f 26 3d 66 45 9b 3d b9 4a 21 3e df ae 20 be
       0.040557727 0.07581596 0.1575116 -0.15691708
0000a0 bf d6 fd 3c 1b 36 86 3c d3 b6 87 ba f5 f2 60 bd
       0.030986188 0.016383221 -0.0010354168 -0.054919202
0000b0 e0 84 06 3e e9 4e 35 3d 15 6f 91 be c3 a5 9e 3d
       0.13136625 0.044264708 -0.2840506 0.0774646
0000c0 e0 c1 8a 3c 10 ac a5 3e ca 21 e9 bd 70 2a 4a 3e
       0.01693815 0.32357836 -0.11383398 0.19742751
0000d0 d1 7b 16 be 20 9d ec bd ef 4d a1 bd e7 10 3c 3e
       -0.1469567 -0.11553407 -0.07876193 0.18365823
0000e0 86 27 ad bc 78 f9 45 3e b1 82 9f bd a4 36 3e bc
       -0.02113701 0.19333446 -0.07788599 -0.011609707
0000f0 07 33 8f 3d dc f8 f4 be a8 ad e4 bd e9 6a e6 bb
       0.069921546 -0.47846115 -0.11165935 -0.0070317877
000100 48 e0 15 3c 75 eb 5f 3e f1 20 73 bd 85 5f b1 bd
       0.009147711 0.21867163 -0.059357587 -0.08660797
000110 8e e9 c7 3d 3d 3b 50 3e 61 8d 28 bc 7a d4 ce bd
       0.09761344 0.20335098 -0.010287614 -0.100991204
000120 37 cf 3b be 83 a3 3d 3d 6e 75 69 3c 40 6b 08 3e
       -0.18340765 0.046298515 0.014249189 0.13322163
000130 1d 10 18 3e 1f 8c 0a 3e 6a 8e 0d be 75 ce 46 3e
       0.14849897 0.13530014 -0.13823858 0.19414695
000140 b4 e2 5a be d6 cb 2e 3d 2e d0 8b 3e eb 54 a5 bd
       -0.21375543 0.04267486 0.27307266 -0.080728374
000150 79 18 38 3e 14 5e 81 3d 7a ae 37 3e 4b 5a 58 bd
       0.17978086 0.06316772 0.17937651 -0.052820485
000160 10 e2 76 be 55 bf 17 3e d1 b3 7d 3c e3 f1 94 be
       -0.24109674 0.14819081 0.015484766 -0.29090795
000170 74 57 8c 3e 90 d4 8b bc 84 cd 15 3e e4 1f 28 3e
       0.2741047 -0.017069131 0.14629179 0.16418415
000180 ea c9 94 ba db 26 07 3e f2 16 0b be 0e e7 cf bc
       -0.0011351679 0.13198416 -0.13582972 -0.02537873
000190 af 5b bc bd 34 8f 38 3e 97 90 ff 3e bd 74 0a 3d
       -0.09197175 0.18023378 0.49915 0.033802737
0001a0 4d 12 a4 3c 56 4c e2 3d 46 16 0a 3f fd ce ba 3d
       0.020028258 0.11049716 0.53940237 0.09121511
0001b0 52 c4 98 be 18 6a db 3c 9f 3f 0d bd 78 c9 b1 be
       -0.2983728 0.026783988 -0.034484502 -0.3472402
0001c0 34 ea 0f 3e d2 53 54 be 8a 20 b4 bd 55 f7 1b 3e
       0.14054185 -0.207351 -0.08795269 0.15231068
0001d0 62 61 a1 3e 2b b5 97 bd b3 19 90 bd 51 08 99 3c
       0.3151961 -0.07407602 -0.07036152 0.018680723
0001e0 75 85 83 3d 53 9b 5e 3e 3a 80 f7 3d a8 00 8a bb
       0.06421939 0.21738939 0.12085004 -0.004211504
0001f0 80 64 06 bd aa 90 2a bd 49 fb 77 3e f5 b6 99 3c
       -0.032810688 -0.04164187 0.24216951 0.018763999
000200 c1 5a 8f be 86 01 94 3e f2 75 66 3e 67 83 b3 bd
       -0.27998927 0.28907412 0.2250593 -0.087652974
000210 3e 21 cb 3e 2e d8 7f 3e a8 28 3d 3d 52 c1 30 bd
       0.396738 0.2498481 0.04618135 -0.043153115
000220 2b dc 97 3e 59 d8 18 3e 82 16 92 3e 27 1d ad 3e
       0.29660162 0.1492628 0.28532797 0.33811304
000230 c9 ef 4e 3e fa 77 0e 3e 2e eb 08 be 05 d0 30 3e
       0.20208658 0.13912955 -0.13370964 0.17266853
000240 1a e2 b2 3d 6e 46 5b 3e c6 fc f7 3c 62 cc 56 3e
       0.08734532 0.21413586 0.030271899 0.20976403
000250 7b 94 b7 3d 88 00 a9 bd cb 00 d5 3d 1f cc 0b 3f
       0.08963867 -0.082520545 0.10400542 0.5460834
000260 91 58 f3 bd 9b 74 b3 be 9f c1 08 bd f8 73 c6 3d
       -0.11882127 -0.350499 -0.033387776 0.09690088
000270 0d af 4e 3e 4d 16 9d bc 00 86 e9 bc 27 73 ac 3d
       0.20183964 -0.019175673 -0.028506279 0.08420401
000280 2d 4d e8 be 1a a3 22 be 53 af 49 be 3f 62 6f bd
       -0.4537138 -0.15882531 -0.19695787 -0.058443304
000290 cf 92 af be 7a d8 ef 3d 59 72 9b 3d e8 e2 83 3e
       -0.34291694 0.117112115 0.075901695 0.25759053
0002a0 49 ff fe 3c 3e e1 34 3e c5 f2 a9 bd f4 c6 9b 3e
       0.031127589 0.17664048 -0.08298258 0.30425227
0002b0 e0 a2 e2 3c 9a 85 34 bd 07 1e 2d 3a e6 65 f0 3d
       0.027665555 -0.044072725 0.00066039007 0.117381856
0002c0 8f 1e 19 3e 4a b4 87 be 6f fb 3b be e8 34 6f bd
       0.14953063 -0.26504737 -0.18357633 -0.058400065
0002d0 8b d6 53 3e 71 db 32 be 26 8b b7 3e 5a 5c 77 be
       0.2068731 -0.17466523 0.3584835 -0.24156323
0002e0 4a d4 51 bd 3d b5 02 3e 9d 24 60 be b9 11 d2 bb
       -0.051227845 0.1276445 -0.21888967 -0.006410804
0002f0 94 d1 92 bb c7 2d b0 bd 3b 40 d7 be c4 6d 95 3e
       -0.00448055 -0.08602481 -0.4204119 0.29185307
000300 09 c2 ed 3d e6 8e a4 be 4c bb a4 be b3 07 cf 3c
       0.11609275 -0.32140273 -0.32174146 0.025272226
000310 aa 8c c7 be ee 34 22 3d 25 20 93 3d 57 f4 27 bc
       -0.38974506 0.03960126 0.071838655 -0.010251126
000320 64 c3 c7 bd f1 fc 93 be 5b ba a9 3e a0 c7 e0 3d
       -0.09754065 -0.28903916 0.3314999 0.109755754
000330 5b fe 8c be ef 23 a6 bd 87 66 3f 3e 95 0f f2 3d
       -0.27537808 -0.081123225 0.18691455 0.11819378
000340 c4 b3 02 bd 83 81 85 bc e7 cc 87 3e 1c 0d af bd
       -0.03190972 -0.016297108 0.26523516 -0.08547422
000350 07 27 c5 bd a5 5b e8 3d ee e0 e2 3d fb 43 85 be
       -0.096265845 0.11345605 0.11078058 -0.26028427
000360 71 2d f0 3c 7d 7a 6e 3e df 09 e1 3b de 99 73 bd
       0.029318543 0.23288913 0.006867632 -0.05947291
000370 a4 40 22 3c 07 f9 52 be b0 5f 33 3e 06 ba 24 3d
       0.009903107 -0.20602809 0.1751697 0.04021647
000380 11 0e 35 3d ce 69 cd be 3d 0d a1 be 7c ab 55 be
       0.044202868 -0.40119785 -0.31455413 -0.20866197
000390 45 ec bb bc 6d ff 85 be 2a 9c 8e bd 85 b3 95 3e
       -0.02293981 -0.26171437 -0.0696338 0.29238525
0003a0 b8 55 13 3e 76 2b 09 3e 49 42 83 bc 2c 6d 82 3d
       0.14388168 0.13395485 -0.016022818 0.06368479
0003b0 ee 89 09 3d ff 07 c9 bd 36 08 23 bd b4 a2 b9 3d
       0.033578806 -0.09815978 -0.039802752 0.09064236
0003c0 05 e7 97 3d 5d 6d 4e 3e 15 7e 52 be 1d 3e 19 bd
       0.0741711 0.20158906 -0.20555909 -0.03741275
0003d0 d0 26 52 3d 4a 1c cf 3d 29 4f c7 be dd 7d 58 be
       0.051306546 0.101128176 -0.38927582 -0.21141763
0003e0 12 b4 e1 3c 93 1d c2 3d 8f ae 17 3e 17 41 00 3e
       0.027551685 0.09478297 0.14812683 0.1252483
0003f0 d9 b7 b6 3e 3b 60 56 bd f6 13 0c be 85 6c 6f be
       0.3568714 -0.052337866 -0.1367949 -0.2338124

enc1.2.bias f4 [8]
000000 39 29 10 bd 8a 09 73 39 3f a6 26 3d 89 7c 40 bc
       -0.035195563 0.0002317784 0.04068589 -0.0117484415
000010 d1 44 96 3b 35 52 0f 3d 0c 8f f6 3c 8a fe 15 3c
       0.0045858403 0.034990508 0.030097507 0.009154925

enc2.0.weight f4 [16, 8, 3, 3]
000000 27 91 2d 3c d6 f3 1d bd 1f 88 95 bc 9b 18 14 be
       0.010593689 -0.03856262 -0.018253384 -0.14462511
000010 17 cd 3d be 82 95 b2 3d 04 de 6c 3d cb 63 a0 bd
       -0.18535267 0.087199226 0.057828918 -0.07831534
000020 87 50 78 3e 97 b4 00 3b ad d3 5a 3d 04 44 3b bd
       0.24249469 0.001963889 0.053424526 -0.04571916
000030 0e cf 61 be 71 d3 a6 3d 20 e8 6d bd 83 13 bb bd
       -0.22051641 0.08145798 -0.0580827 -0.09134581
000040 f3 4d 40 bd ff eb 37 3e 12 e7 33 3c d7 98 f7 3d
       -0.04694934 0.17961119 0.010980384 0.12089699
000050 03 00 19 be 2b 25 33 bd 92 91 74 bc 16 7c fb bd
       -0.1494141 -0.043736618 -0.014927285 -0.12279527
000060 9f a7 af 3d 83 e9 85 3e a5 71 f0 3d 34 02 48 bd
       0.08576893 0.26154718 0.11740426 -0.048830226
000070 5a 42 bc 3d 6b ed ca 3d eb 7a f2 bc f6 92 33 be
       0.09192343 0.09908565 -0.029599627 -0.1753653
000080 6f 27 d4 bb 95 e3 3d be a1 7b 1e be 90 09 a6 bd
       -0.0064744274 -0.18543847 -0.15476848 -0.08107293
000090 4c fe 10 3e 15 3e d6 bc a4 fd 4c be 28 9a 0c bd
       0.14159507 -0.02615265 -0.20018631 -0.034326702
0000a0 1e bd 66 3d bc ca 20 bd cc ed f0 bd 63 27 e8 bd
       0.0563327 -0.039255843 -0.11764106 -0.113356374
0000b0 cb 88 62 3d 76 87 82 3d 63 db 61 3d 64 cc 0c 3e
       0.055306237 0.063734934 0.055140864 0.13749844
0000c0 0e 89 65 3e a6 90 01 bd 5e 8f 14 3e 57 8d 32 3e
       0.22415563 -0.031632088 0.14507815 0.1743673
0000d0 e7 f2 04 bd b0 62 f1 3d 41 12 3d 3e a2 b9 50 bd
       -0.032458212 0.11786401 0.18463995 -0.050958283
0000e0 99 eb a0 be 32 d9 38 be e1 fc 4c 3e 8f 82 8d bd
       -0.31429747 -0.18051603 0.2001834 -0.06909668
0000f0 83 93 ba 3d 75 53 59 3e 67 25 3b 3e 07 d0 28 3b
       0.09110167 0.21223243 0.18275987 0.002575876
000100 0a b7 2b be 25 96 c6 3c a5 02 ef bc 91 c5 b0 bb
       -0.16769043 0.024241516 -0.029176066 -0.0053946455
000110 03 f1 cd 3d 03 29 e2 bd 0c 6f 38 be 77 40 08 bb
       0.10055735 -0.110429786 -0.18011111 -0.0020790377
000120 4a 07 d8 bb 0a 7d 17 3d 94 48 87 bc 1a 5c 8e bd
       -0.006592666 0.03698448 -0.0165141 -0.06951161
000130 62 a2 84 bc 15 64 e0 bd 5c fb 5d bd fa 4c 78 3c
       -0.016190711 -0.10956589 -0.054194793 0.015155071
000140 4c 28 02 3e dc e2 3c bd d6 7c 51 3b c0 76 8c 3e
       0.12710685 -0.046114787 0.0031965277 0.2743435
000150 8e 91 0f 3c 69 b8 d5 bd 7e 68 48 3b ec 3b 5d bd
       0.00876273 -0.10435564 0.003057986 -0.054012224
000160 37 2b 02 3c 05 95 ea bd d0 a1 61 3d a1 b0 88 3d
       0.0079448735 -0.114542045 0.055085957 0.06674314
000170 da ed 2d 3e cf cd b8 3d 9a 6f 06 3d fc c1 96 3d
       0.16985264 0.0902363 0.032821275 0.07361218
000180 7a 4d 34 be 24 b1 d5 3d 21 3d e5 3c 8f 90 7a bc
       -0.1760768 0.104341775 0.02798325 -0.0152932545
000190 e5 8f bc bd d4 cd a6 3d 45 1e 35 be 5d df 7a 3d
       -0.09207133 0.08144727 -0.17687328 0.061248172
0001a0 17 2b 61 3c 92 1b 06 3e 2f 39 6d be ea ea 0a 3d
       0.013743184 0.13096455 -0.23166345 0.033915438
0001b0 33 a1 ef 3d 0e 21 26 bd e4 75 6f bc fc e1 11 bd
       0.11700668 -0.040558867 -0.01461551 -0.035615906
0001c0 71 0d d7 3d 19 2d 80 3d f1 8a 32 3e 59 2f 72 3e
       0.105006106 0.06258602 0.17435814 0.23650874
0001d0 5d 27 8f 3c fd 4c 7f bd 47 2e b9 bd 9a 00 33 3e
       0.017474825 -0.06232928 -0.0904203 0.17480698
0001e0 1a 3b 2e 3e 7b 1e 1f 3e 7a 9b 99 3d 12 44 08 be
       0.17014733 0.15538971 0.07500358 -0.13307217
0001f0 7c e7 d1 3d 87 2e f4 3d 1b 27 48 3e 0d 8b 47 bc
       0.1024923 0.11922937 0.19546168 -0.012179148
000200 8c 44 7a 3d 08 cb 86 3c 36 b2 3f 3e b4 d3 03 be
       0.061100528 0.016454235 0.18720326 -0.12873727
000210 15 9a 82 3c ad ac ed bc 4e 42 4c 3e 5a e1 8b be
       0.015942613 -0.029013002 0.19947168 -0.27320367
000220 1e ce 15 3e 34 3d 46 be 64 1b 36 be 28 00 2c 3d
       0.14629409 -0.19359285 -0.17783886 0.041992337
000230 03 22 09 bd e8 19 ff 3c 05 a8 26 bc d2 1a e2 bd
       -0.0334797 0.031140283 -0.010171895 -0.11040272
000240 9c e2 08 bd 94 e6 e0 bc 7b 2b 17 be 3c 23 37 bb
       -0.033419237 -0.027453698 -0.1476268 -0.0027944585
000250 dc bc 0e 3e 85 d6 6b 3e 99 f1 a2 3e 00 2c 33 3e
       0.13939232 0.23031051 0.3182495 0.17497253
000260 bd 99 18 be a3 5a fe bc 59 d2 24 be 72 e1 0c be
       -0.14902397 -0.031049078 -0.16095866 -0.13757876
000270 02 89 03 3e c4 92 2f 3e aa b7 8e bc f1 53 5b 3d
       0.12845233 0.1714583 -0.017421562 0.05354685
000280 94 f9 04 be 8d 37 76 be 03 20 fb 3d a5 11 a1 ba
       -0.12985831 -0.24044628 0.12261965 -0.0012288584
000290 09 ce 32 be aa e7 c6 bd e4 f9 e3 3c e1 16 15 3e
       -0.17461409 -0.09712155 0.027829118 0.14559509
0002a0 f4 09 a7 bd 41 cc 15 be 60 8c ce 3d ce 8c 4e 3e
       -0.08156195 -0.14628698 0.10085368 0.201709
0002b0 7e c1 9f bc 4f 48 ef 3d 80 5a 09 3e 60 b2 8a bb
       -0.019501444 0.11683714 0.1341343 -0.0042326897
0002c0 75 e6 0e bd 4d 80 3a 3e d2 df f5 bc 0d 1d 82 bd
       -0.03488775 0.18213005 -0.030013952 -0.06353197
0002d0 c4 d4 d4 3d fa f4 91 3d 8f 4d fd 3d 59 bd 48 3e
       0.10392144 0.07126804 0.12368309 0.1960348
0002e0 5b be df 3d 84 f1 c7 3e e1 c5 9e 3e fc e7 25 3e
       0.10924979 0.3905145 0.31010345 0.16201776
0002f0 cf 65 54 3d 91 16 c4 bd 92 9a 14 3e 73 68 01 be
       0.051854905 -0.09574617 0.14512089 -0.126375
000300 56 24 c2 bd 3c 72 84 bd e1 cb 48 3e 2c bb 79 3e
       -0.09479587 -0.06467101 0.19609024 0.24387807
000310 f1 fc b9 3d 29 47 ca bd 0e 3d 07 3e ea 3f 99 3d
       0.09081448 -0.09876854 0.13206884 0.07482894
000320 ad 71 e4 bc 4d 01 88 3d b6 5c 1d 3e ee 21 b9 3d
       -0.027886236 0.06640873 0.15367398 0.09039675
000330 19 2f ef 3d 38 7c a2 3d 28 c5 9b bc 43 8b 3b 3e
       0.11678905 0.07933849 -0.01901491 0.18314843
000340 b3 5a 3e be 2b 59 f0 3c 14 2b 02 3e af c9 d2 bb
       -0.18589287 0.029339394 0.12711746 -0.006432734
000350 2c c5 71 3e 12 a9 25 be b1 a6 fa 3b e2 62 34 be
       0.23610371 -0.16177776 0.0076492657 -0.17615846
000360 ec c8 82 bd 2d 69 56 3c 62 52 09 3e 50 a0 07 bd
       -0.06385979 0.013086599 0.13410333 -0.03311187
000370 17 88 0c 3d 83 35 70 3e f4 37 2f 3c 9b a2 9e bd
       0.034309473 0.23457913 0.010694493 -0.07745858
000380 51 b0 5b bd c2 bd cb be f2 75 1c be b3 64 c7 3c
       -0.053634945 -0.3979321 -0.15279368 0.02434001
000390 d4 c8 9a bd 62 54 61 be ee bf 2b 3d 27 69 25 3e
       -0.07557836 -0.22004846 0.041931085 0.16153394
0003a0 26 a7 eb bb 89 fa b1 3d 01 94 09 3d 09 54 93 bd
       -0.0071915565 0.08690364 0.033588413 -0.07193763
0003b0 f0 61 9b bd 1a 76 8e bd 46 4b a7 3d 55 47 f9 bd
       -0.075870395 -0.0695612 0.08168654 -0.12171809
0003c0 5d 08 6a 3d 27 11 56 3b f2 b2 00 3d 2b 8c 08 bd
       0.057136882 0.0032664032 0.031420656 -0.0333368
0003d0 d7 75 f6 bd dc 7d 6f 3e 76 6a d3 bc 17 bc 6a bd
       -0.12034195 0.23387855 -0.0258076 -0.057308283
0003e0 6d 97 a6 3d ad 2c fb bc dc a1 82 3e 89 17 18 3e
       0.08134351 -0.030660952 0.25514114 0.14852728
0003f0 5e c2 ad be 38 11 85 be d8 b9 95 3c 10 60 73 3c
       -0.33937353 -0.259897 0.018277094 0.014854446

enc2.0.bias f4 [16]
000000 16 a1 0f 3d f5 b6 fc 3c 8a 63 6f bc af 5f 38 3d
       0.035065733 0.03084896 -0.014611134 0.045013126
000010 84 9a 3f 3c 51 f9 22 3d 84 16 af bc a9 4a ff bc
       0.011694554 0.039788548 -0.021373041 -0.03116353
000020 4b 42 e6 3c 66 7a ce 3b b8 9e 04 3d b9 62 1e 3d
       0.028107783 0.006301212 0.03237793 0.038668368
000030 58 4a 05 3d 93 62 d3 3c 31 79 cd 3c fd e4 27 3d
       0.032541603 0.02580384 0.025082203 0.040989865

enc2.2.weight f4 [16, 16, 3, 3]
000000 6c 28 d6 3b 46 63 44 3d d0 fc a8 bc 50 f8 fa bd
       0.0065355804 0.047946237 -0.020628363 -0.12254393
000010 89 ac 0b 3e c0 1a 80 3d 46 27 87 bd 8a 4b 00 bd
       0.13640036 0.06255102 -0.06599288 -0.03132204
000020 18 c9 51 bc 69 d1 f5 bd 19 34 66 3e 5b ab ec bd
       -0.012804292 -0.120028324 0.22480811 -0.11556121
000030 69 ef 37 be 46 b3 1c 3d 14 44 2d 3e 5a c8 70 be
       -0.17962421 0.038256906 0.16920501 -0.23513928
000040 10 89 0d bd 42 de 03 bd e6 bc 0a be c4 e7 90 bd
       -0.03455454 -0.032194383 -0.13548622 -0.07075456
000050 b5 e7 fe bd 71 2c ee bd 20 51 9c 3e 16 fc 2b 3d
       -0.12446538 -0.1162957 0.30530643 0.041988455
000060 5f e3 41 bd af 07 14 3e 29 34 81 bd ec 20 5c 3e
       -0.04733598 0.14456056 -0.06308777 0.21496934
000070 c3 cf 0f 3e f8 a5 97 bd 4e 6a 2f 3e 1b 3a 4b 3e
       0.14044099 -0.07404703 0.17130396 0.19846384
000080 99 f6 b0 bd 52 ea 8b bd 67 0a a4 be 79 2d 50 3e
       -0.08640785 -0.068318024 -0.32039186 0.20329846
000090 b3 42 bf bc 97 fd cd bc 3f 33 38 3e 9e ca 15 be
       -0.023347234 -0.025145335 0.17988299 -0.14628074
0000a0 7f 5a dd bd 80 11 6d 3e 1b 21 2d bd 7e cc ca be
       -0.108082764 0.23151207 -0.0422679 -0.3960914
0000b0 c7 53 cd bd 58 03 5d 3c e8 a8 02 bd a0 bb fc 3d
       -0.10025745 0.013489567 -0.031899363 0.12340474
0000c0 89 a9 ae 3c de 04 44 ba 51 e2 d8 bd 01 9c a1 bd
       0.021321075 -0.0007477532 -0.105900414 -0.078910835
0000d0 f9 ff 7d be 9d 72 b3 bd 31 44 b5 3c 45 2f c4 bc
       -0.24804677 -0.08762095 0.022127243 -0.023948321
0000e0 8d 85 cb bd 22 46 06 3e 5d 61 fd bd 7c 31 21 3e
       -0.09937582 0.13112691 -0.12372086 0.15741533
0000f0 e8 a9 18 3d 33 07 da 3d 22 ad 08 3d 10 56 66 3d
       0.03727141 0.106459044 0.033368237 0.05623442
000100 8e 52 d2 3d 94 b4 4b 3d b4 4a f1 bd 81 e6 2c bc
       0.10269652 0.04973276 -0.117818266 -0.010553003
000110 80 64 1e be 5c cf e7 3d 12 df 22 3e 79 fe c5 bc
       -0.15468025 0.113188475 0.15905407 -0.024169194
000120 c2 8f 7b 3e 2c 9d a6 3c 41 d2 3c 3e dc bb b4 bd
       0.24566558 0.020338617 0.1843958 -0.08824894
000130 32 25 89 3d 7a 8d 54 3e 4d 27 0c bb f4 42 50 be
       0.066965476 0.20757094 -0.002138573 -0.2033804
000140 84 29 27 3e c0 7c 60 be f3 42 db bc f5 27 3f be
       0.1632443 -0.21922588 -0.026765322 -0.18667586
000150 88 cc 12 3e f3 47 32 3e 0f 55 85 3d d8 28 8d bd
       0.14335835 0.17410259 0.06510364 -0.06892556
000160 75 f5 46 be 5b 67 59 3e 77 56 fc 3b 0a f5 0e be
       -0.19429572 0.21230833 0.007700737 -0.13960662
000170 9e 90 db 3d 0e a8 9e bd e8 dc ee 3d 75 ee 9d 3c
       0.10720943 -0.07746898 0.11663228 0.019278744
000180 57 3d 87 be b7 52 0e 3d eb 7d 3b 3e 01 16 04 3e
       -0.26413986 0.03474685 0.18309753 0.12899019
000190 c8 b6 1f bd 74 8c 47 bd ee 13 6f bd 71 2d 18 3e
       -0.038992673 -0.04871793 -0.058368616 0.14861085
0001a0 39 f8 72 3d a2 7b 6e 3c f8 5c 1b bd 53 fc 9a 3d
       0.059318755 0.014555844 -0.03793046 0.07567658
0001b0 8b db b2 bd 79 47 de 3c cf 64 49 3e 6d 45 5a be
       -0.08733281 0.02713369 0.19667362 -0.21315546
0001c0 49 92 86 bd ea c6 81 bd d0 6a 95 b9 cd ad 11 3e
       -0.065708704 -0.06336768 -0.00028499076 0.14226456
0001d0 25 4e 15 3e b3 ba cc 3c b7 d6 cf 3d 43 6c 2d be
       0.14580591 0.024991369 0.101483755 -0.1693583
0001e0 6f 26 1b 3e 01 fa 04 3e 74 b4 a3 bd cf f6 91 3d
       0.1515138 0.12985994 -0.07993403 0.07127153
0001f0 a6 12 cc 3c 27 fc 7d bd 3a 98 20 3e 10 ff 89 bd
       0.024911236 -0.06200805 0.1568307 -0.067381024
000200 14 fb c8 bd c3 ff dc bc 1a b0 9b bd 54 23 41 3d
       -0.09813514 -0.026977425 -0.07601948 0.047152832
000210 cb e4 83 be d9 fc 61 3d 9b ae f1 bd 90 75 f1 bd
       -0.25760493 0.055172775 -0.118008815 -0.117900014
000220 03 59 85 3d f3 7f 3d 3e f8 40 02 be d9 d9 e5 3d
       0.06511118 0.1850584 -0.12720096 0.11223192
000230 69 fc 17 bd b9 d4 a3 3d b5 10 12 bc 5a e4 a6 3d
       -0.03710595 0.07999558 -0.008915116 0.08149023
000240 e0 ef 71 3b 7b a5 88 3d b2 93 dd 3d 92 e3 9c bc
       0.0036916658 0.06672188 0.10819186 -0.019151483
000250 5e e7 08 3e dd 13 07 3e cb 84 42 3e ab cb a5 bd
       0.1336951 0.13191171 0.18995969 -0.08095487
000260 39 60 27 3e b4 c2 36 3e ba eb b0 3d 33 30 13 3c
       0.163453 0.17847711 0.08638711 0.00898366
000270 11 8c 8a be d5 ea d6 3d 9b d3 e6 bd f8 18 dd 3b
       -0.27059987 0.104940094 -0.11270829 0.0067473613
000280 2f 79 9b bd cc 0a 09 be 1c 49 12 3e 02 bb 7a 3d
       -0.07591473 -0.13383025 0.14285702 0.0612135
000290 1a 5f 03 3e 8a e6 75 be 0e a2 13 bd 75 20 38 bd
       0.12829247 -0.24013725 -0.03604322 -0.04495283
0002a0 51 ec 25 bd 11 55 24 bd cb 1b 12 bd 5b 95 5a be
       -0.040508572 -0.04012019 -0.035671037 -0.21346037
0002b0 c2 92 39 be 96 3a a0 bd 7b 38 f9 3d 95 11 1a bd
       -0.1812239 -0.078236744 0.12168976 -0.037614424
0002c0 74 4a 4c be 96 00 ad bd c0 b0 f0 bc 54 ff 35 3d
       -0.19950277 -0.084473774 -0.029381156 0.044432953
0002d0 e8 36 fd b9 9f 7f bc 3c c4 0d 47 3d fe ac 10 3d
       -0.0004829683 0.023010073 0.048597112 0.03532123
0002e0 b1 ea 6a 3d a0 55 3e 3e ea e8 1f 3e 24 8f 0a 3e
       0.057352725 0.18587351 0.15616193 0.13531166
0002f0 dd 9d a1 bc 84 5a aa 3c 4b 56 3f 3e e8 30 cd bd
       -0.019728595 0.020795114 0.18685262 -0.10019094
000300 92 8e d0 bd ab 8d 0e 3d 69 90 79 3d 9d 98 4b 3e
       -0.10183443 0.034803074 0.060928736 0.19882436
000310 c1 2a 90 3e 4f 8c 1b bc 7d ea 80 bd 5d 8e 7e bd
       0.2815762 -0.009493901 -0.06294725 -0.062147487
000320 31 bc 8a bd 2e d2 1b be 7f b1 f4 3d ff 57 0b 3e
       -0.06774176 -0.15216896 0.11947917 0.13607787
000330 da 61 cf bd 70 55 9b bd dd eb 44 3e bd e4 0d 3e
       -0.101260856 -0.07584655 0.192306 0.13856788
000340 90 af 0d be a4 2c f2 3d 8e 7c 08 bb 50 5f ea 3c
       -0.13836503 0.11824921 -0.0020826194 0.028609902
000350 90 30 4b bd a3 33 96 3d 92 b3 81 bd f1 39 4f bc
       -0.04960686 0.07334068 -0.063330784 -0.012648092
000360 d7 31 58 3d 40 05 32 3e 80 37 3c be b6 e9 0b bc
       0.052781906 0.17384815 -0.18380547 -0.008539608
000370 49 d4 a1 3e 4c 65 02 3e 10 47 74 bd c5 19 b6 3c
       0.31607273 0.12733954 -0.059638083 0.022229085
000380 59 10 a9 bc 1f d2 94 3e f6 36 ad bd 43 fd 01 be
       -0.020637678 0.2906656 -0.084577486 -0.12694268
000390 ea ef fb bd 0e ef 42 3d 05 e9 ed 3c 6d 37 2f be
       -0.12301619 0.04759126 0.029041776 -0.17110987
0003a0 d6 72 e1 be 03 73 ae bd 59 eb 95 bc 12 06 3c be
       -0.44032925 -0.085180305 -0.0183007 -0.1836169
0003b0 98 ac cc 3c 4e 7e 40 3e c6 66 89 3d 10 5a 80 be
       0.024984643 0.18798181 0.067090556 -0.25068712
0003c0 a4 87 1b be 7b fd b2 3d e6 ec 47 bd c8 c6 2a 3d
       -0.15188462 0.08739754 -0.04880991 0.04169348
0003d0 49 23 51 be 7f 2d d8 bd 98 e2 33 3d 6e 33 20 be
       -0.20423616 -0.10555553 0.04391727 -0.15644619
0003e0 82 a1 9a 3e 9e 8b 0c 3e 44 1d be 3e b7 50 7e bd
       0.30201346 0.13725135 0.37131703 -0.062088694
0003f0 dc 7a 59 3d 63 60 c9 3c e0 f1 cb bc dc 86 0d 3e
       0.053095683 0.024582094 -0.024895608 0.13820976

enc2.2.bias f4 [16]
000000 1a da 98 3c bd 2a 06 3d 02 0e 11 bb 2f b9 3d 3c
       0.018658686 0.032755602 -0.0022133593 0.011579796
000010 92 f4 09 3d 94 74 c0 3c 4d 2c e4 bb bd aa 9f bb
       0.033680506 0.023493089 -0.006963289 -0.0048726485
000020 de 7d 71 3d 9b 93 ff 3c 7f 5c 61 3c 20 32 51 bc
       0.058957927 0.031198313 0.013754963 -0.012768298
000030 fb 22 9a 3c d5 6f 7d bc 90 11 11 3d 12 4b f2 3c
       0.018815508 -0.015468557 0.03541714 0.029576812

bottleneck.0.weight f4 [32, 16, 3, 3]
000000 0d 32 b2 bd fe b6 e0 3c 69 f8 61 3d 48 39 60 3d
       -0.08700953 0.027431007 0.055168543 0.054742128
000010 62 00 8e 3d 50 71 29 bd 86 78 cf 3c 16 83 bc 3c
       0.06933667 -0.04136783 0.025326025 0.023011725
000020 31 3a 20 be 9e c4 93 bc e3 82 2d be 93 8a aa 3d
       -0.15647198 -0.01803809 -0.1694446 0.08327212
000030 81 b1 63 bc 48 fd 88 3d b9 f4 fd 3d 56 14 30 be
       -0.013897301 0.066889346 0.12400193 -0.17195258
000040 2d a3 61 3e 3e b9 c1 3c cd bb 28 3d 41 46 9e 3d
       0.22034903 0.0236479 0.041194726 0.077282436
000050 b1 eb b9 3d 31 e1 40 bd ed df 04 3e c0 30 58 3e
       0.09078158 -0.04708976 0.12976046 0.21112347
000060 f4 ae 10 bd 09 26 a2 bc b4 60 07 bd 02 1c 21 3d
       -0.0353231 -0.019793527 -0.033051208 0.03933335
000070 fd ab 85 bd 00 19 a0 b8 80 55 33 bd be f1 c4 bd
       -0.06526945 -7.634051e-05 -0.04378271 -0.09616421
000080 da 33 27 bd d5 02 03 3e 32 71 72 bb a0 1a 9e bd
       -0.040820934 0.12794049 -0.003699374 -0.07719922
000090 cb 24 9e bd c7 33 a0 bd f5 16 3a bc cb 5a 67 bd
       -0.077218615 -0.07822376 -0.011358012 -0.05648307
0000a0 fd be 21 3d 18 e0 2e be 11 3f d2 3d 4c 6c 0d be
       0.03948878 -0.17077672 0.10265935 -0.13810843
0000b0 29 ff 00 3e 80 92 b9 bc 80 48 d8 3d 20 e7 18 3d
       0.12597336 -0.022652864 0.10560703 0.037329793
0000c0 01 cc c5 bd ab ba 61 3d 6f c8 ea bc 98 49 f9 3d
       -0.09658051 0.05510966 -0.028660027 0.1217224
0000d0 3a a9 b3 3d 69 3d 31 bd e7 52 7b 3c 08 0a dd 3d
       0.08772512 -0.043271456 0.01533959 0.10792929
0000e0 da 86 06 bc 35 dc 8e 3d 49 4b 11 bd 4e 92 24 be
       -0.008210862 0.06975595 -0.03547219 -0.16071436
0000f0 5d 61 7d bd 68 1b 85 3e 87 2c ad 3d df 91 9a bd
       -0.06186043 0.25997472 0.084557585 -0.07547354
000100 07 b4 ba 3c 9a bd 74 bd 86 a4 f2 3c 3b b8 09 3e
       0.022790922 -0.05975113 0.029619467 0.13449185
000110 63 79 a5 3d b3 46 91 3c 3f 1f 81 ba b9 4a 59 bd
       0.08079793 0.017733907 -0.0009851231 -0.053049777
000120 73 15 d9 3c 6c 6a db 3c 3f 64 1e be dc a6 d8 3d
       0.026499486 0.026784144 -0.15467928 0.10578701
000130 65 95 65 bd 5c d1 69 bd 5b ed e4 bc 5b 3c 12 3e
       -0.056050677 -0.057084426 -0.027945211 0.14280836
000140 a9 aa 46 3e a8 dc c3 bd 8a e9 ce 3d f2 12 62 3d
       0.19401039 -0.09563571 0.10103138 0.05519385
000150 7a 86 ff bc 3a 83 52 3d 47 a8 1c 3e 4d 4f e3 bd
       -0.031192053 0.05139468 0.15298568 -0.1109911
000160 c2 01 07 3d c3 d4 02 bc 57 d7 60 3c d5 aa c6 bc
       0.03296066 -0.007985297 0.013723216 -0.024251381
000170 ef ab 81 bd a6 11 e2 3d b4 30 1b 3e 25 93 ff 3d
       -0.06331622 0.110385224 0.15155298 0.124792375
000180 c3 47 3d 3b 8b 23 dc 3d 15 77 49 ba b6 a7 2d bd
       0.0028881885 0.10748967 -0.0007685286 -0.04239627
000190 b8 1a 96 3d 0d 4d 95 bc 75 93 02 bc 0e 67 5a 3d
       0.07329315 -0.018225217 -0.007969727 0.053320937
0001a0 c4 2a 78 3c 8d 1a 08 3d 4f ef 89 3e 3e c7 d2 3d
       0.015146915 0.033228446 0.2694039 0.10291909
0001b0 cc af 9b 3c 78 35 33 3d 02 3f 13 bd bd 56 25 3e
       0.019004725 0.043752164 -0.03594876 0.1614637
0001c0 7d 68 9c 3d b5 2e cd bd 40 41 1d bd 4b dd 36 bd
       0.07637117 -0.10018674 -0.038392305 -0.044644635
0001d0 ee 21 43 be 13 cb b5 3d f7 85 80 3d a5 55 c6 bd
       -0.19055912 0.08876624 0.06275552 -0.09684304
0001e0 83 51 26 3e 7c 64 22 bd bc 51 e3 3c 11 31 60 bc
       0.16242032 -0.03964661 0.027748935 -0.013683573
0001f0 74 db 32 3c 68 fa 6d 3e c1 e4 0b 3b 63 31 33 3d
       0.0109165795 0.23240054 0.0021346065 0.04374827
000200 67 26 1f be cf a6 61 3d 1d 7e 52 bd e5 f0 ed bc
       -0.15541993 0.05509072 -0.051389802 -0.029045532
000210 7d 97 d4 3c 39 3e e5 bd 59 dd 77 bd 67 e7 ff 3c
       0.025951141 -0.11193509 -0.060513828 0.03123827
000220 b3 76 30 3e b7 1f 15 3d 23 92 72 3d ea 6a 35 3d
       0.1723278 0.0364072 0.059221398 0.044291414
000230 de ee 21 3d 6e 81 bd 3d bd 80 4b 3d 2f e1 0b 3d
       0.039534442 0.092532024 0.04968332 0.0341503
000240 2f ed ce 3c d8 e4 94 bd 9c 22 d7 3d a6 b4 82 3c
       0.025259582 -0.07270211 0.10504648 0.01595528
000250 53 2f 49 3d fa cf 2a 3c dc 67 ee bc 08 4b 73 bd
       0.049117398 0.010425562 -0.029102258 -0.059397727
000260 ef 37 71 3d f3 3e 57 3d 8b 52 a2 bd 01 d3 7b bb
       0.058891233 0.052550267 -0.079259 -0.0038425329
000270 81 53 2f 3d eb 5e d0 3a a2 c7 43 be a5 79 53 bd
       0.042804245 0.0015897428 -0.19119123 -0.05162968
000280 43 f8 9f bd d6 ba 7e 3e 78 d9 68 bc ad 9d f7 bd
       -0.07811024 0.2487596 -0.014212005 -0.12090621
000290 d5 ef 9a bd 04 60 42 bd a3 09 ca bd e5 c7 18 3c
       -0.075652756 -0.04745485 -0.09865119 0.009325002
0002a0 22 94 6e bd 46 2a 34 3d 71 b2 a8 3d dc 4a 7a bd
       -0.05824674 0.043985628 0.0823716 -0.061106548
0002b0 08 d7 80 bd 05 e6 06 3d 5f 8a 2d 3d c3 b1 5c bd
       -0.06291014 0.032934207 0.04236829 -0.053880464
0002c0 5e 47 85 3c a3 ef 64 3d 52 9f 26 3d 94 7c d4 3d
       0.016269382 0.055892598 0.040679283 0.10375324
0002d0 43 31 4b 3d 27 84 c9 3c db 77 e1 3d d1 64 e7 3d
       0.049607527 0.024599148 0.11009189 0.11298526
0002e0 1d 43 b7 3d 31 03 c5 3d 4b e9 32 3d bd ee 8d bc
       0.08948348 0.09619749 0.043679517 -0.017325753
0002f0 a0 f2 c7 bd 3e 11 20 bd c6 de 66 bc c5 b2 6e bd
       -0.09763074 -0.039078943 -0.014091199 -0.058275957
000300 a3 0a f0 bc f6 3a 4f bc 04 e4 82 bd 7a b1 56 3d
       -0.029301947 -0.012648335 -0.06391147 0.05241535
000310 a4 a1 25 bd d4 b0 c3 3d f5 c8 f9 bd 12 8b 80 bd
       -0.040437356 0.09555212 -0.12196533 -0.062765256
000320 8d 8c b3 bd cd 95 6c 3d 3f f7 8a 3d 61 95 17 be
       -0.08767042 0.05776005 0.0678544 -0.14803077
000330 1a 65 c1 3d 6e 87 ed 3d b8 95 3c 3e 8d 78 37 be
       0.09443112 0.11598097 0.18416488 -0.1791708
000340 01 fd 6a bd 7f 6b 77 be d1 95 de 3d 82 47 63 3e
       -0.05737019 -0.241621 0.10868419 0.22195247
000350 aa 70 7e bd 45 42 28 3d d2 ab c4 3c d5 b9 82 bd
       -0.062119164 0.041078825 0.024007712 -0.06383101
000360 1e 33 fc bc 52 e5 00 3e e6 7c 0a 3d 9b 0f 95 bc
       -0.030786093 0.12587479 0.03381052 -0.018195918
000370 52 fd 4b bd 38 df 1f bd 88 5e ba bd 1e ec 60 3e
       -0.049802132 -0.039031237 -0.09100062 0.21965072
000380 aa 1f 1d 3e 4c 76 06 3c 5b 20 1c bd 13 d2 fe bd
       0.1534411 0.008206915 -0.038116794 -0.12442412
000390 77 e5 36 3d 4d 0e 11 be aa 51 ab bd f1 98 53 be
       0.04465243 -0.14165612 -0.083651856 -0.20663811
0003a0 fb cf c0 3d 90 d0 08 be da a1 72 3d 1d 8d 92 3d
       0.09414669 -0.1336081 0.059236385 0.071558215
0003b0 bd 0f b8 bd 9e 5a 03 3e 98 70 cf bc c3 47 f7 bd
       -0.08987377 0.12827536 -0.025322244 -0.12074234
0003c0 56 11 46 3d 30 71 71 bc 59 a1 08 3e 43 ac 1f bd
       0.048356377 -0.014736459 0.13342799 -0.03898264
0003d0 83 9a f7 bc 1c 01 3c 3e 6c f9 89 3d 5c bf 36 bd
       -0.030225044 0.18359798 0.067370266 -0.04461609
0003e0 c4 1d 5c 3d 9e 5d 1b 3d ef 23 4f 3a 64 a0 f4 3d
       0.053739324 0.037931077 0.0007901778 0.119446546
0003f0 a5 f6 f1 3d 13 a1 30 3e 03 a1 24 bd 43 7e a4 bd
       0.11814622 0.17248945 -0.040192615 -0.08031895

bottleneck.0.bias f4 [32]
000000 e7 a3 0d bd 16 18 8a 3c fd 4b e1 3c 87 b0 1c 3d
       -0.034580138 0.016857188 0.027502054 0.038254287
000010 bb 8f fb 3c be 0b e2 3c f4 c6 5e 3d ba d9 60 bc
       0.030708184 0.02759349 0.054388955 -0.013723785
000020 c7 40 cd 3c c1 5d 7f bc 82 1c 4e 3c f4 9d 1a 3d
       0.025055302 -0.0155863175 0.012580039 0.037748292
000030 55 4f 38 bc 04 3f db 3c da c0 83 bb 7b bc ed 3c
       -0.011249383 0.026763447 -0.0040207924 0.029020539
000040 bc ef 0f 3d d8 b2 e5 3b db b8 e7 3c 9e 5f 6b 3d
       0.035140738 0.007009845 0.028286388 0.057464235
000050 e2 fe 14 bb 66 2f 4e 3d 22 8a cb 3c fb 54 50 bc
       -0.002273493 0.05033817 0.02484614 -0.012715573
000060 49 75 12 3d 5b 1f 9b 3c 3b 78 df bc 21 db 20 3c
       0.035756383 0.01893585 -0.02727901 0.009817869
000070 0b 65 d4 3c de 28 d8 3c 2f 19 dd 3c 68 33 d8 3c
       0.025927087 0.026386674 0.026989548 0.0263917

bottleneck.2.weight f4 [32, 32, 3, 3]
000000 53 a6 21 bc f9 23 1a bd 6a dc 46 be 1d ab da bd
       -0.009866315 -0.037631962 -0.19420019 -0.106771685
000010 f2 77 3e be 77 95 e3 bc fc 4b 97 bd 61 cb 01 be
       -0.18600443 -0.027781231 -0.0738754 -0.12675239
000020 da 7c e5 bc a9 2e 2e bc f0 3d 44 be 24 b0 d5 bc
       -0.028013635 -0.010631242 -0.19164252 -0.026084967
000030 48 bc c2 38 d7 5a c1 3d f8 90 6b 3d 56 31 95 3d
       9.285711e-05 0.094411545 0.0575113 0.07284801
000040 ed f7 1c bd 55 ba d8 bc 6e 0b 42 bd 3b de 5d 3e
       -0.038322378 -0.026456038 -0.04737418 0.21666805
000050 8f b0 09 3d 70 ef c3 bd fa 54 84 3d 25 f3 e7 bc
       0.033615645 -0.095671535 0.064615205 -0.028314183
000060 91 4a bd 3d 5d 1d 95 bd 15 a5 aa 3d 4d 75 0d bd
       0.09242738 -0.07280991 0.08332268 -0.034535695
000070 f6 f0 c2 3d b2 7d b1 3c 6e d7 09 ba 34 6d 13 3e
       0.09518616 0.021666382 -0.0005258237 0.14397126
000080 44 81 bb 3d 6e a7 71 3d eb 62 e7 3d 53 59 25 3d
       0.09155515 0.058997564 0.11298164 0.04036839
000090 8c 70 28 3d d4 d8 c1 bb 4e 27 65 3d 17 64 e7 3b
       0.041122958 -0.0059157405 0.055945687 0.007061492
0000a0 d2 f7 a3 bd 5f 0a 19 3e e6 bd ca bb d1 4f d4 3c
       -0.08006252 0.14945363 -0.0061871884 0.025916966
0000b0 4a c2 1b be b7 1b 4a be 27 e4 2a be b8 ec 6c bd
       -0.15210834 -0.19737135 -0.16688596 -0.05784294
0000c0 d0 b4 9a 3d 05 c8 52 3d 66 58 df 3d 46 1d b3 bd
       0.075540185 0.051460285 0.109055325 -0.08745818
0000d0 b2 62 6a bd be 77 44 3d 75 e5 82 3e 58 56 c4 bd
       -0.05722303 0.047965758 0.25565687 -0.09586781
0000e0 22 56 65 bd 37 af a4 3d 53 25 83 bc 7b 9a 85 bd
       -0.055990346 0.08041232 -0.016009009 -0.065236054
0000f0 13 3a 2a bd b6 64 8d bc b7 af d2 bd 3d a5 1d 3c
       -0.04155929 -0.017259937 -0.10287421 0.009621915
000100 b9 8f e2 3b 89 23 00 3e 40 ac b2 3c 0f ea 9e 3d
       0.0069141057 0.12513556 0.02181065 0.07759487
000110 f0 ce d6 3c b0 39 5b bd 93 cb b2 3c 0a 66 60 3d
       0.026221722 -0.053521812 0.021825587 0.054784812
000120 1b c2 3b be 93 6d 33 3c 30 45 fb bd ce ff 35 3d
       -0.18335764 0.0109514175 -0.12269056 0.044433407
000130 51 11 2a bc 21 7d 8d 3c 35 87 55 3d 1f b3 b6 bd
       -0.010380105 0.01727158 0.052130897 -0.089208834
000140 4b 50 e4 3c ee db 30 3c 03 2c dc 3c 46 98 68 bd
       0.027870318 0.010794623 0.026876455 -0.056785844
000150 88 36 71 bd de 2a 61 3d f4 04 7f bd 7c f0 cd bc
       -0.058889896 0.054972522 -0.062260583 -0.025139086
000160 9f 5d 6f be a6 4a 08 be ac 62 a0 bc 87 62 d3 3c
       -0.23375557 -0.13309726 -0.0195783 0.025803817
000170 dc 44 13 bd 3a 0f a3 bd 01 34 00 3e 4d 3c 95 3d
       -0.03595434 -0.079618886 0.12519838 0.07286892
000180 ec a8 a2 3c 0d af 7b 3d a9 63 1c 3d 6f 36 07 bb
       0.019855939 0.06144624 0.03818098 -0.002063181
000190 5e 38 91 3d 09 29 3f 3e 16 13 c6 3d b2 db 36 3e
       0.07090829 0.18667997 0.09671609 0.17857245
0001a0 15 a8 14 bd e1 8a 25 3d ff 3e ff bd 0d 60 e7 3c
       -0.036293108 0.04041565 -0.124631874 0.028244043
0001b0 c2 4e 7a bd 4b 5b 88 bd 8e d3 a8 bc 1a 90 47 bc
       -0.061110266 -0.06658038 -0.02060869 -0.012180353
0001c0 a7 2f 53 bd 61 64 c8 bd f6 4e f6 bd 0f cc e9 bd
       -0.051559117 -0.09784771 -0.12026779 -0.11415874
0001d0 9b 7b 27 be e8 eb 14 3d 1a fa a3 3d a0 fc d5 bd
       -0.16355745 0.03635779 0.080066875 -0.10448575
0001e0 f3 59 96 bd 4c e9 a4 3b 95 1a 3d 3d a5 de 51 be
       -0.07341375 0.005032694 0.04616793 -0.20495088
0001f0 5c 2e d6 3c 9e b5 b2 3d e7 05 d9 3d e7 27 08 3d
       0.026145153 0.08726047 0.10596829 0.03324118
000200 fd 7c fe bd 7c 0a f4 3d 4d 18 16 3e 61 cd 56 be
       -0.124261834 0.11916062 0.14657708 -0.20976783
000210 81 87 a7 bd 82 7a 17 3e 79 0c dd 3c 68 b3 62 bd
       -0.08180142 0.14792827 0.026983486 -0.055346876
000220 04 92 af 3d 7f 12 3a 3c 86 52 da bd 09 86 cf 3c
       0.08572772 0.011356949 -0.10660271 0.025332468
000230 38 14 cb 3c d5 78 bd 3d cb 0d ce bd 74 c5 c8 3d
       0.024789914 0.092515625 -0.100612246 0.09803286
000240 3c 60 54 3e a1 39 18 be 3b b2 48 bc 53 03 56 bd
       0.20739836 -0.14865734 -0.012249525 -0.052249264
000250 dc 41 3a 3d 56 b4 93 3c de 2f e3 bd ed 2b 43 3d
       0.045472965 0.018030327 -0.11093114 0.047649313
000260 ed 20 de bc 99 82 60 bc 0f 6d 4c bd 35 24 ac 3d
       -0.02711531 -0.013703012 -0.049908694 0.084053434
000270 d0 3c 06 3c b5 0f f8 bc f0 8e 94 3c f2 be 94 3c
       0.00819321 -0.030280927 0.018134564 0.018157456
000280 d9 f9 d5 3d 91 ae 7a bd 3a e4 04 bd fe 98 fb bd
       0.10448045 -0.061201636 -0.032444216 -0.1228504
000290 76 5b b0 bd 5a ab 55 be 20 8b 05 3d 70 7f 0e be
       -0.08611195 -0.20866147 0.032603383 -0.13915801
0002a0 35 8d 15 bb 47 16 24 3e 8a 5e 0d bd b4 58 d2 bd
       -0.0022819762 0.16024123 -0.034513988 -0.10270825
0002b0 a8 3b 9f bd f3 81 12 be 4b ab 4b 3d ef aa 37 3d
       -0.077750504 -0.14307384 0.049723905 0.04484075
0002c0 9a 1f 20 be ca 9f f9 3c 7a 1f a4 3d a4 99 22 3e
       -0.15637055 0.030471701 0.08013816 0.15878922
0002d0 c9 2f 08 bd ba fa f7 bd 64 4d fb 3d 42 9e d1 bd
       -0.033248696 -0.12108369 0.122706205 -0.102352634
0002e0 ce f2 14 bd a6 e7 b1 bd f9 8f a6 bd 9c 6d 9a 3d
       -0.03636437 -0.086867616 -0.08132929 0.075404376
0002f0 b8 86 dc 3d 23 dd 85 be 84 83 5a 3b c9 ed 2d 3d
       0.10767883 -0.26145276 0.003334255 0.042463098
000300 06 c9 8d bd 1b fc bf 3c ae 66 ae 3c 97 eb 19 be
       -0.06923108 0.023435643 0.021289196 -0.15031277
000310 0f cd c6 3d 14 04 0a 3c fc ee e2 3c aa 83 e6 bd
       0.097070806 0.008423824 0.027701847 -0.11255582
000320 e7 26 b9 3c 56 62 58 bd 07 b1 eb ba 31 d4 2c 3e
       0.022601558 -0.052828155 -0.0017981835 0.1687782
000330 79 45 ad 3c 2a f8 11 be d2 01 67 3d 98 b1 46 3d
       0.021151291 -0.14254823 0.05639822 0.04850921
000340 91 b4 6c 3d 83 b8 c8 bd 8a bb a6 3c 07 56 2b be
       0.05778939 -0.09800818 0.020353097 -0.16732036
000350 b6 52 db bb d8 96 5e bd 61 91 4a bb de 84 03 be
       -0.0066932095 -0.054343075 -0.0030909406 -0.12843654
000360 61 8f 2c 3c c0 4e 98 3c c1 bb 85 3c e1 7b 4d 3d
       0.010532231 0.018592238 0.01632488 0.05016697
000370 e2 cb f3 bc cc 5b db 3d 52 b3 84 3c 80 d4 6f 3d
       -0.029760305 0.10710868 0.016198788 0.058552265
000380 b5 65 f9 3c b5 98 f2 bd 6c 65 89 bd c1 38 a9 bb
       0.030444006 -0.11845533 -0.06708798 -0.0051642363
000390 67 81 41 bd db ed cf bd a9 f2 d9 3d b6 0b 88 3d
       -0.04724255 -0.10152789 0.10641987 0.06642859
0003a0 7a b3 51 bd 88 21 2a 3d 82 c2 22 3d e8 e2 ff bd
       -0.051196553 0.041535884 0.03973628 -0.12494451
0003b0 c0 c8 a3 bc 78 51 20 3e 30 f2 f8 bd 6e 75 c5 bd
       -0.019993186 0.15656078 -0.121555686 -0.096415386
0003c0 46 68 f0 3c bc cd 94 bc f8 a4 af bd 24 29 48 3d
       0.029346596 -0.018164508 -0.08576387 0.04886736
0003d0 37 e7 47 3d ae f3 f1 3c 48 ab 29 3c 2e 2c 9a 3d
       0.048804488 0.02953514 0.010355778 0.07527958
0003e0 63 8d 1b 3e 00 35 cc bd 74 fb 0c bd c8 29 80 3c
       0.15190654 -0.099710464 -0.034419492 0.015644923
0003f0 28 2e 19 3e f4 66 73 3e 16 07 84 3e d3 3b 75 bd
       0.14959013 0.23769742 0.25786656 -0.059871506

bottleneck.2.bias f4 [32]
000000 27 ba d9 3c 13 b2 41 3d 66 eb f8 3c 40 5b 69 bc
       0.026578022 0.047288965 0.030385684 -0.014242947
000010 3d 90 10 bc e0 d4 35 bc 42 9f d1 3c 6e c6 79 ba
       -0.008823452 -0.011098117 0.025588635 -0.00095281645
000020 73 7b 1b 3d 71 15 f0 3b 76 26 0e 3d bb 59 19 bd
       0.037959527 0.0073267748 0.034704648 -0.03743909
000030 0c 30 1b bd 7f 44 ec 3c 3f ab 5e bc 03 64 dc 3c
       -0.037887618 0.028841255 -0.013590633 0.026903158
000040 51 53 0a 3d 13 6c 86 bc d6 03 11 3d ad d8 80 bc
       0.033770863 -0.016408956 0.03540405 -0.015728319
000050 61 92 e9 3c ff de 0f 3c f7 e1 4d bd 56 25 40 bb
       0.028512182 0.008781194 -0.050264325 -0.002931913
000060 4b 7d f1 3c 5a db 01 3d e1 fe 0d bd f1 88 f2 3c
       0.02947869 0.03170333 -0.0346669 0.029606314
000070 19 aa c1 3b d4 b3 cf bc 95 4e df 3c 66 2d 08 3c
       0.00591017 -0.025354303 0.02725915 0.008311605

up1.weight f4 [32, 16, 2, 2]
000000 85 0b 92 3d ba 72 6a 3d c8 e8 88 be eb 73 f3 bc
       0.071311034 0.057238318 -0.26740098 -0.02971836
000010 fb 96 ec bd c1 23 e2 3d 60 6a ad 3d 76 e7 9d 3e
       -0.11552235 0.11041976 0.08467555 0.30840653
000020 6f 9c 3d be 8e a5 a2 bd e7 3e c6 3d b3 f4 8e 3c
       -0.18516706 -0.07941733 0.096799664 0.017450666
000030 31 79 9d bd 92 de 88 3d 20 01 f4 3d 21 9c bc bd
       -0.07689131 0.06683077 0.11914277 -0.09209467
000040 14 63 b7 3b 41 b0 99 3e 40 c4 a9 3d 4f 65 9f bd
       0.005596528 0.30017284 0.08289385 -0.07782995
000050 e0 bc f5 3c 7a ad 2a be b5 e6 7d 3c d7 20 b5 bd
       0.02999729 -0.16667739 0.015496899 -0.08844154
000060 99 1a 0c 3e 0f b7 eb 3d 37 bf 2c bd d5 99 c0 bd
       0.13682021 0.11509525 -0.042174544 -0.09404341
000070 6f 19 c7 3c aa 03 59 be cd dd 69 3e 5c dc 6c 3d
       0.02430412 -0.21192804 0.22838517 0.05782734
000080 ef 05 6b be 15 81 de 3d c5 17 64 be 0c e9 b6 bd
       -0.22951482 0.10864464 -0.22274692 -0.08931169
000090 6a 27 4b 3d d9 2e 6c bd 9a 32 3e 3e 78 b1 4d 3e
       0.049598135 -0.057661865 0.1857399 0.2008723
0000a0 48 e3 f3 bd b3 c8 43 3e 38 9f aa 3d 9c 6a 0e 3e
       -0.11908585 0.1911953 0.0833115 0.13907856
0000b0 ec 68 2d 3c 9a 55 d5 3d 4a c8 bc bd 06 5d be bc
       0.010584097 0.10416718 -0.092178896 -0.023237716
0000c0 60 e1 ca 3d 85 cd 7f be 41 24 07 bd e5 d6 a9 3d
       0.09906268 -0.24980743 -0.03299356 0.08292941
0000d0 f5 b5 fb 3c 4b b1 67 bd d6 1f 8f 3e 86 12 1c 3e
       0.030726412 -0.056565564 0.27953976 0.15241441
0000e0 29 05 f3 bd 22 8c 70 be c7 cd 89 3d f3 cb 10 bd
       -0.118662186 -0.23490956 0.06728702 -0.03535075
0000f0 6d f3 b8 3b 51 ab 62 3e fc 95 c7 bd 1f 61 3f 3d
       0.005644253 0.22135665 -0.09745404 0.04672348
000100 a8 2f 69 be 21 b2 45 be 13 ba b4 bc 1d 01 05 be
       -0.22772086 -0.19306232 -0.022061383 -0.12988706
000110 5d d3 70 be 04 33 c2 bd ea 4e 3e be c4 27 a3 3b
       -0.23518129 -0.09482387 -0.18584791 0.0049791057
000120 f1 5b 98 3e e7 42 b8 3d a1 11 47 bd c9 6a c2 bd
       0.29757646 0.089971356 -0.048600797 -0.09493024
000130 11 9b c1 3d b8 c5 f0 bc f0 57 ae 3d 2b 02 de bd
       0.09453405 -0.029391155 0.085128665 -0.10840257
000140 ac 8f 15 be c9 2a c9 bd 69 30 65 bd 03 80 6b be
       -0.14605588 -0.09822614 -0.05595437 -0.22998051
000150 8a 38 a5 bc 8f 1a 52 bc aa 58 27 3d 07 16 8a 3d
       -0.020168561 -0.012823715 0.04085604 0.06742483
000160 a8 1a 0f be b6 6c 9c bd 20 23 32 be 2b 0a a6 be
       -0.13975012 -0.076379225 -0.17396212 -0.32429633
000170 ce 40 94 3d 80 d5 bc 3d 4b dc 39 be fb b7 82 bd
       0.07238923 0.092204094 -0.18150441 -0.06382748
000180 88 1a 45 be a7 01 0a bd 7c 90 71 be 7a e0 0d 3e
       -0.19248402 -0.033692982 -0.23590273 0.13855162
000190 60 46 b5 3d e9 66 04 3e 3d 82 dd 3d 3f ea 56 3c
       0.088513136 0.12929882 0.108158566 0.013117372
0001a0 71 d7 d4 bd 5b 21 69 be 02 a7 4d 3c 49 4e 77 3d
       -0.10392655 -0.2276663 0.012552025 0.060377393
0001b0 e1 03 10 be 0b 31 6a bc 5e 30 72 3e a3 e6 1a 3c
       -0.1406398 -0.014293919 0.23651263 0.009454402
0001c0 43 7f ad bd 48 0c 9d 3d 08 42 36 3d 61 b1 97 3d
       -0.08471539 0.07668358 0.044496566 0.07406879
0001d0 dd 7f ed 3d 5f a2 ed 3c 4d f5 50 3e e2 81 5c bd
       0.115966536 0.029008089 0.20406075 -0.053834803
0001e0 0c e2 1c 3d 5a 12 2d 3e 3c 36 8d bd 52 be cb bd
       0.038301513 0.16901532 -0.0689511 -0.0994841
0001f0 2e 32 4a be a7 df 09 be b8 aa 77 be 37 3e 79 bd
       -0.19745705 -0.13464223 -0.24186218 -0.06085035
000200 5d d9 ef bc b3 a9 77 bd 56 1c eb bd bc d9 83 3e
       -0.029278452 -0.060464572 -0.11480014 0.25752056
000210 22 e1 18 38 3a 67 75 bd 84 9a 17 be 8c 58 b3 bd
       3.6449295e-05 -0.059912898 -0.14805037 -0.08757123
000220 a7 e7 34 3d fe 3f 91 3d f3 35 61 3e 41 20 7f 3e
       0.044166233 0.07092284 0.21993236 0.24914648
000230 78 6e db 3d 79 de 9e 3d 38 f1 a9 3e 9b 67 bb bb
       0.107144296 0.07757277 0.33191848 -0.005719138
000240 d8 29 52 bd 70 6d a2 bc fc c4 54 be c5 bd 4c be
       -0.051309437 -0.019827574 -0.20778269 -0.19994266
000250 9f 16 91 bc 19 5e 0b 3d 03 bc 93 bd 41 99 05 bd
       -0.017710982 0.034025285 -0.07213595 -0.032616857
000260 58 5e 2d 3d b7 50 05 3e 3c 0f 1c bd db dd 1b be
       0.0423263 0.13019072 -0.038100466 -0.1522135
000270 a3 1b d5 be 88 5f 32 bd 36 98 b2 bd 05 21 03 bd
       -0.41622648 -0.043548137 -0.08720438 -0.03201391
000280 50 67 43 3e bd ba 8c bc be 7d 1d be 63 31 ad 3e
       0.1908238 -0.017178888 -0.15379998 0.33826742
000290 a7 96 d5 3d 7b e9 e6 3d 5a 39 4c 3e 60 52 70 bd
       0.10429125 0.112750016 0.19943753 -0.05867231
0002a0 4a 1c 0d 3d 6f 7c 68 3b 32 dd e3 3c 3d 8f 7e bd
       0.034450807 0.0035474559 0.027815435 -0.06214832
0002b0 f8 4c 3c 3d 87 ab a0 bd c9 4c ba 3d 02 3d bb bd
       0.04597184 -0.07845216 0.09096677 -0.09142496
0002c0 eb e4 a6 bc 75 ef e9 3c bf cf 16 bd ae c9 85 3e
       -0.020372828 0.028556565 -0.036819216 0.26130432
0002d0 df f2 03 bd e3 d5 41 bc 07 af d9 3a 6b 8c 90 3e
       -0.03221404 -0.01183078 0.0016607948 0.2823213
0002e0 81 15 cf bd c0 b2 07 3e 68 b8 86 bd 45 7c 28 be
       -0.101115234 0.13251781 -0.065781415 -0.16453655
0002f0 e0 36 d8 3d 77 dc f0 bd 1b 4a 4d bd 3f 6d 1d be
       0.105573416 -0.117608 -0.0501195 -0.15373705
000300 5c 0a b9 bd 74 5f 45 3d 61 ce 12 3d 80 a6 d3 3d
       -0.09035179 0.048186734 0.03584135 0.10334492
000310 ae 39 de 3d f9 bf 0f 3e 1f 2c 8e be 7f 17 ac 3d
       0.10850845 0.14038076 -0.27768037 0.08402919
000320 8b 00 19 be 5e 46 39 be fc a4 55 bd 8d 75 c1 3d
       -0.14941613 -0.18093249 -0.052159294 0.09446249
000330 94 c5 96 be 33 46 6b bb 0e 3a 87 3d 26 42 27 3e
       -0.29447615 -0.0035899996 0.0660287 0.16333827
000340 59 1b a6 3d e5 d1 dd bd e3 65 04 3e 99 47 6b bd
       0.08110685 -0.1083105 0.12929492 -0.057441328
000350 4e ee 47 bc ca 96 75 bc 9f 6a a3 3d a8 6f c3 3d
       -0.012202812 -0.014989564 0.07979321 0.09542781
000360 4a 36 fe bc d1 0a f7 bb cc b7 b8 3e c3 44 d6 3c
       -0.031031746 -0.007539131 0.36077726 0.026155835
000370 89 49 da bc 9e fe fe 3d b0 e4 b2 3c dc 1b 7a bd
       -0.026646392 0.12450908 0.021837562 -0.061061725
000380 83 4a a0 bb 59 c0 98 bc eb 75 e8 3c a1 12 73 bd
       -0.004891695 -0.018646406 0.02837654 -0.059343938
000390 47 e8 b5 3d 01 47 53 be 78 41 69 3d a0 66 60 3e
       0.08882194 -0.20632555 0.0569472 0.21914148
0003a0 42 3a cc bd 95 67 14 bd 41 cb 0f 3e d5 af 49 be
       -0.09972049 -0.036231596 0.14042379 -0.19695981
0003b0 71 53 f6 3c 8b 48 23 be 39 c2 9a 3d e9 f3 a1 3d
       0.030069085 -0.15945642 0.07556576 0.0790785
0003c0 a3 4b c7 bc a4 73 dc 3d 68 aa f7 3d db be 07 be
       -0.024328059 0.10764244 0.12093049 -0.132564
0003d0 7c 00 03 3e 59 16 d9 bc 96 e0 06 3e d4 69 0e be
       0.12793154 -0.026499914 0.1317161 -0.13907558
0003e0 ac fa 76 3e 31 62 70 bd e0 a0 fa 3d 8f c9 69 bd
       0.24119061 -0.058687393 0.12237716 -0.057076987
0003f0 13 89 20 be 88 ff a5 3d c9 53 ac 3d 3e 81 ea 3c
       -0.1567729 0.08105379 0.08414418 0.02862608

up1.bias f4 [16]
000000 06 be 92 3c 4a 6f 00 bd 0b a7 d7 3c 8c aa 12 bd
       0.017912876 -0.031356134 0.02632477 -0.035807177
000010 27 a2 e0 bc 89 fc fb bc f8 31 e2 bc 42 63 f0 bc
       -0.02742107 -0.030760067 -0.027611718 -0.029344205
000020 7e f4 bf bc b8 47 c6 3c f6 63 87 bc 67 dc d1 3c
       -0.023432013 0.02420412 -0.016527157 0.025617791
000030 ec 35 d7 3c 4d 81 cf 3c 6e c2 df bc 47 c6 c6 bc
       0.02627083 0.02533021 -0.027314391 -0.024264468
