sampling-based_planning_framework/checkpoints/checkpoint_epoch_66.pth (torch, 386546 bytes, 75 tensors)

enc1.0.weight f4 [8, 1, 3, 3]
0	0xbdd2da20	-0.1029551
1	0x3dd32f0d	0.103117086
2	0x3d8ae238	0.06781429
3	0x3e1063e6	0.14100608
4	0xbde7d594	-0.11320034
5	0x3dac0e8c	0.08401212
6	0x3d01d258	0.03169474
7	0xbe35a15f	-0.1773734
8	0xbd89af23	-0.06722858
9	0x3e1781d6	0.14795622
10	0xbe006208	-0.12537396
11	0x3d4859d9	0.04891381
12	0x3e734b4d	0.23759194
13	0xbd96e392	-0.07367624
14	0x3e130b0d	0.14359684
15	0xbd7aa8ca	-0.061196126
16	0x3e1f14d8	0.15535295
17	0xbd9c8b2b	-0.07643732
18	0x3e2f343c	0.1710977
19	0xbe506407	-0.20350657
20	0xbe3b9fe2	-0.18322709
21	0x3e253356	0.16132864
22	0xbdaced06	-0.08443646
23	0xbe2051f3	-0.15656261
24	0xbebae9e5	-0.36506572
25	0xbe46116d	-0.19342585
26	0xbdcb3a3c	-0.09923217
27	0x3d63592a	0.055504955
28	0x3cbec0bf	0.023285268
29	0xbe498fe8	-0.19683802
30	0x3d2eb674	0.04265447
31	0x3e280673	0.1640871
32	0x3eadd0ee	0.33948463
33	0xbc6afeb7	-0.014342955
34	0xb8cbe09a	-9.7216296e-05
35	0xb989cc5d	-0.0002628294
36	0xbdcc35de	-0.09971212
37	0x3d446c82	0.047955044
38	0xbda993ec	-0.08280167
39	0xbe8ebb3f	-0.27877232
40	0x3e6824e9	0.2267033
41	0xbd566d3d	-0.05235027
42	0xbd5688c2	-0.052376516
43	0x3dd30ce0	0.1030519
44	0xbe9a3f6b	-0.3012651
45	0x3e5b56b1	0.21419789
46	0x3e6b4477	0.22975336
47	0xbc2211da	-0.009891951
48	0x3ebffa15	0.37495485
49	0xbd80c721	-0.06287981
50	0xbdbe38f4	-0.09288207
51	0x3db181bf	0.08667325
52	0xbe3b7eb1	-0.18310048
53	0xbe84fa0a	-0.25972015
54	0x3c9120a5	0.017715761
55	0x3d424c2f	0.047435936
56	0x3dd46464	0.103707105
57	0x3e046fa9	0.1293322
58	0xbddaac58	-0.10677403
59	0x3efa7ec9	0.48924854
60	0xbd13ceef	-0.03608602
61	0x3ddf00dc	0.10888836
62	0x3deae642	0.114696994
63	0x3e006bd5	0.12541135
64	0xbea2996c	-0.31757677
65	0x3db12c89	0.086510725
66	0xbe1e3438	-0.15449607
67	0xbdb5debe	-0.08880375
68	0x3e5ed928	0.21762526
69	0x3d8624ac	0.06549963
70	0xbdf8b9e8	-0.12144834
71	0x3d5fbe10	0.054624617

enc1.0.bias f4 [8]
0	0x3d117f1a	0.035521604
1	0x3addb47a	0.0016914748
2	0x3d03c388	0.032168895
3	0x3877169a	5.891044e-05
4	0x3d56d1ce	0.05244618
5	0xb991f2b4	-0.00027837383
6	0x3b17d412	0.0023167175
7	0x37b6989e	2.1767159e-05

enc1.2.weight f4 [8, 8, 3, 3]
0	0x3d4182f3	0.047244024
1	0x3d86c326	0.0658019
2	0xbd96ac85	-0.07357124
3	0xbe77aab9	-0.2418622
4	0x3efb023e	0.49025148
5	0x3e208518	0.15675771
6	0xbccc8d9d	-0.02496987
7	0xbc3cb01c	-0.011516597
8	0xbcc9e252	-0.02464405
9	0xbdaada13	-0.083423756
10	0xbdb9bbc8	-0.090690196
11	0xbddfe1fd	-0.10931776
12	0xbd1009ec	-0.035165712
13	0xbdd771dc	-0.10519764
14	0x3e3e38cf	0.18576358
15	0x3e40d300	0.1883049
16	0x3e2a3d57	0.16624962
17	0xbe89e2d8	-0.2693088
18	0x3d82a28f	0.06378662
19	0x3e24e7cb	0.16104047
20	0x3df29267	0.1184433
21	0xbde5e3ef	-0.112251155
22	0x3df70de4	0.12063196
23	0xbdbbd739	-0.0917191
24	0xbe524f2b	-0.20538013
25	0x3e027d9e	0.12743232
26	0x3d66bdef	0.05633348
27	0x3d06c1c0	0.03289962
28	0x3d9bbfb1	0.076049216
29	0xbe834315	-0.25637117
30	0x3e5e6612	0.21718624
31	0x3c733b67	0.014845706
32	0x3cfb8322	0.030702177
33	0xbc7281ac	-0.014801424
34	0x3d0422f4	0.032259896
35	0xbe41b623	-0.18917136
36	0x3d04442b	0.032291573
37	0x3d8bcdb8	0.06826347
38	0x3e22b28e	0.15888426
39	0xbe3614ad	-0.17781325
40	0x3d30eb9e	0.043193452
41	0x3d13b139	0.036057685
42	0xbb3b1ef9	-0.0028552397
43	0xbd533abd	-0.05156969
44	0x3e11402a	0.14184633
45	0x3ccbcf41	0.0248791
46	0xbe9f588c	-0.31122243
47	0x3d9cef07	0.07662778
48	0x3c3261ce	0.010887576
49	0x3e9e6da3	0.3094302
50	0xbe171d38	-0.1475724
51	0x3e340248	0.17578995
52	0xbe27a11b	-0.1637005
53	0xbe011262	-0.12604669
54	0xbdb1ed94	-0.086878926
55	0x3e2e03fe	0.1699371
56	0xbcc4f8d7	-0.024044437
57	0x3e4a9f75	0.1978739
58	0xbda41eb0	-0.08013666
59	0xbcb4e51f	-0.02208191
60	0x3d7afbbc	0.06127523
61	0xbeec2fb8	-0.46130157
62	0xbd9f5618	-0.07780093
63	0xbb7c7c89	-0.0038526377
64	0xbb7870f3	-0.003790912
65	0x3e67bea3	0.22631316
66	0xbd8bdb08	-0.06828886
67	0xbd55f886	-0.052238964
68	0x3d88cbc3	0.066794895
69	0x3e243902	0.16037372
70	0xbcdc58ce	-0.026897814
71	0xbd9dc323	-0.07703235
72	0xbe463c34	-0.19358903
73	0x3cfddd4b	0.03098931
74	0x3c8cea77	0.017201645
75	0x3e03af63	0.12859873
76	0x3e164f4a	0.14678684
77	0x3df4b4e4	0.11948565
78	0xbe0cea53	-0.13761263
79	0x3e3a3dd4	0.18187648
80	0xbe6056e8	-0.21908152
81	0x3cc01c01	0.023450853
82	0x3e84addb	0.2591389
83	0xbdd7b804	-0.10533145
84	0x3e2be787	0.1678754
85	0x3ca28fb2	0.01984391
86	0x3e1e9410	0.15486169
87	0xbd060b90	-0.03272587
88	0xbe8a44fa	-0.2700575
89	0x3e1e4ff7	0.15460192
90	0x3bc04fb0	0.0058688745
91	0xbe97b42c	-0.29629648
92	0x3e899353	0.26870212
93	0xbc982947	-0.01857437
94	0x3e1e58fe	0.15463635
95	0x3e05473e	0.13015458
96	0x3b901e2a	0.004398127
97	0x3e12075c	0.1426062
98	0xbe05cd70	-0.1306665
99	0xbcaa09b3	-0.020756578
100	0xbd8c1e87	-0.0684176
101	0x3e4f620a	0.20252243
102	0x3eed6cab	0.4637197
103	0xbc9568d8	-0.01823847
104	0x3c4aafb9	0.012370997
105	0x3dae5ab9	0.08513398
106	0x3f0c1070	0.5471258
107	0x3dbe818c	0.09302053
108	0xbe903a86	-0.2816965
109	0x3d096fe0	0.033553958
110	0xbd08ff71	-0.033446733
111	0xbeadbf1f	-0.33934876
112	0x3e1489d4	0.14505702
113	0xbe490d73	-0.19634037
114	0xbd923f72	-0.071410075
115	0x3e1ff5a7	0.15621053
116	0x3eaa13ef	0.33218333
117	0xbd92d1ea	-0.07168944
118	0xbdc27408	-0.094947875
119	0x3bcf84ec	0.006332984
120	0x3d7404ba	0.05957482
121	0x3e6a245f	0.22865437
122	0x3dfebf43	0.12438824
123	0x3bb155ab	0.0054118237
124	0xbd4ffde9	-0.050779257
125	0xbcddc094	-0.027069367
126	0x3e74ad39	0.23894204
127	0x3b7e978a	0.0038847649
128	0xbe93b213	-0.28846797
129	0x3e935557	0.28776047
130	0x3e567102	0.20941547
131	0xbdbc2285	-0.091862716
132	0x3ed1abfe	0.40951532
133	0x3e665c3d	0.22496124
134	0x3d2174b3	0.039417934
135	0xbce3cb17	-0.027806802
136	0x3ea7747b	0.32706055
137	0x3e03e264	0.1287933
138	0x3e904f9c	0.28185737
139	0x3e95a142	0.29224592
140	0x3e34f3ef	0.17671178
141	0x3e1e0fc4	0.15435702
142	0xbdcfefaa	-0.10153134
143	0x3e0bb445	0.13642986
144	0x3dc8a7e3	0.09797647
145	0x3e4c2679	0.19936551
146	0x3cf69f90	0.030105382
147	0x3e536129	0.20642532
148	0x3dc69721	0.09696794
149	0xbdc960a8	-0.09832889
150	0x3dd315f0	0.103069186
151	0x3f0a546b	0.5403506
152	0xbe0048e4	-0.12527806
153	0xbeb3f63a	-0.35148793
154	0xbd6831eb	-0.05668823
155	0x3db4a35c	0.08820221
156	0x3e5cc24e	0.21558496
157	0xbcb14d3a	-0.02164327
158	0xbd4bc2e2	-0.0497464
159	0x3dee8ac0	0.11647558
160	0xbee2e26a	-0.44313365
161	0xbe2c08c2	-0.16800216
162	0xbe564702	-0.20925525
163	0xbd9483d5	-0.072517075
164	0xbeb0644d	-0.34451523
165	0x3dc7765c	0.09739372
166	0x3d9ec664	0.07752684
167	0x3e864b50	0.26229334
168	0x3d2983bf	0.04138541
169	0x3e340af8	0.17582309
170	0xbda0093f	-0.078142636
171	0x3ea1023f	0.31447026
172	0x3cc71482	0.024301771
173	0xbcecc273	-0.028901314
174	0xbd695f77	-0.056975808
175	0x3dc3c669	0.09559328
176	0x3defcd45	0.11709074
177	0xbe627a1a	-0.2211689
178	0xbe57dfb9	-0.21081437
179	0xbd67259d	-0.056432355
180	0x3e56e2ef	0.20985006
181	0xbe1ecbd0	-0.15507436
182	0x3eb8a3d6	0.36062497
183	0xbe732c38	-0.23747337
184	0xbd4ba39e	-0.049716584
185	0x3e0faddf	0.1403117
186	0xbe591f9e	-0.21203467
187	0xbb9e4b1f	-0.0048307325
188	0xb870f7b7	-5.745116e-05
189	0xbdebb3b0	-0.11508882
190	0xbebfd871	-0.3746982
191	0x3e98c77c	0.29839694
192	0x3e0053e8	0.12532008
193	0xbe9ba596	-0.3039977
194	0xbe9eb5f0	-0.30998182
195	0x3d3854db	0.0450028
196	0xbebbd41a	-0.36685258
197	0x3d13c06c	0.03607218
198	0x3da78310	0.08179295
199	0xbca5bfb8	-0.02023302
200	0xbdf11b0b	-0.11772736
201	0xbe94bdac	-0.29050958
202	0x3ea97243	0.33094987
203	0x3da34c56	0.07973544
204	0xbe7017e5	-0.23446615
205	0xbdb23e71	-0.08703316
206	0x3e43c5ae	0.19118378
207	0x3dde0b74	0.10842028
208	0xbd6633ab	-0.05620162
209	0xbd1da89b	-0.038490873
210	0x3e8a4277	0.27003834
211	0xbdb39651	-0.08768905
212	0xbdd348f3	-0.10316648
213	0x3de0e992	0.1098205
214	0x3df56603	0.11982348
215	0xbe60a80f	-0.2193911
216	0x3cea0e35	0.028571228
217	0x3e764512	0.24049786
218	0xb6c6cdfd	-5.92484e-06
219	0xbd65664d	-0.056005765
220	0x3c90a544	0.01765693
221	0xbe4fccbe	-0.20292947
222	0x3e305d1b	0.17223017
223	0x3ce27e25	0.027648041
224	0x3d1662c4	0.036715284
225	0xbebf4a19	-0.3736122
226	0xbea73ea9	-0.32664993
227	0xbe575272	-0.21027544
228	0xbcd4e1dc	-0.025986604
229	0xbe757145	-0.2396899
230	0xbdac7268	-0.08420259
231	0x3e8f98f6	0.28046387
232	0x3e1916a6	0.14950046
233	0x3de6d65d	0.11271355
234	0xbcb5a487	-0.02217318
235	0x3d80c8b1	0.06288279
236	0x3d2e7fa9	0.042602215
237	0xbdc1e4a1	-0.09467436
238	0xbd07f10a	-0.033188857
239	0x3dc2b4c7	0.09507137
240	0x3d715dd6	0.05892738
241	0x3e4c3a45	0.19944103
242	0xbe4eacf8	-0.2018317
243	0xbd209fbd	-0.03921484
244	0x3d210781	0.039313797
245	0x3ddf3b27	0.10899954
246	0xbea5028c	-0.32228506
247	0xbe3716a0	-0.17879725
248	0x3c557052	0.0130272675
249	0x3db1ff6f	0.08691298
250	0x3e1b9028	0.1519171
251	0x3dec5748	0.11540085
252	0x3eb9573b	0.36199364
253	0xbd542ef4	-0.05180259
254	0xbe05e1fb	-0.13074486
255	0xbe6a0660	-0.22853994

enc1.2.bias f4 [8]
0	0xbcf1fd78	-0.029539809
1	0xbab05e59	-0.0013455852
2	0x3d211e91	0.03933579
3	0xbc2ebd9c	-0.010665324
4	0x3b8ae56c	0.004238775
5	0x3d0ca3a9	0.034335766
6	0x3cf318a4	0.029674836
7	0x3c015bee	0.007895453

enc2.0.weight f4 [16, 8, 3, 3]
0	0x3c592d14	0.013255376
1	0xbd225187	-0.03962853
2	0xbc609f0d	-0.013709796
3	0xbe08c182	-0.13355067
4	0xbe51104a	-0.2041637
5	0x3dbc303c	0.091888875
6	0x3d71d76a	0.059043325
7	0xbdb3e757	-0.08784359
8	0x3e84ccc2	0.25937468
9	0xbb38d483	-0.0028202839
10	0x3d4be10f	0.04977518
11	0xbd18cc45	-0.03730418
12	0xbe62f186	-0.22162446
13	0x3d9c1962	0.07622029
14	0xbd3f3b5f	-0.04668748
15	0xbdae78cd	-0.08519135
16	0xbd2e9519	-0.04262266
17	0x3e39fe1a	0.18163338
18	0x3bcf905a	0.0063343467
19	0x3df275e8	0.11838895
20	0xbe2b5ae2	-0.16733888
21	0xbd378a5a	-0.044809677
22	0xbc955144	-0.018227227
23	0xbe048bb0	-0.12943912
24	0x3db50282	0.08838369
25	0x3e8ad674	0.2711674
26	0x3de5cf7a	0.11221214
27	0xbd495791	-0.049155775
28	0x3dd18c2f	0.10231816
29	0x3de01884	0.10942176
30	0xbcc7ada9	-0.0243748
31	0xbe2905b2	-0.16506079
32	0xbc5f9111	-0.013645426
33	0xbe3c3f81	-0.183836
34	0xbe218b74	-0.15775853
35	0xbdae4122	-0.08508517
36	0x3e1bc758	0.15212762
37	0xbd22b2f6	-0.03972145
38	0xbe49337a	-0.19648543
39	0xbd04d081	-0.032425407
40	0x3d3181b0	0.04333657
41	0xbd25353b	-0.040333968
42	0xbe00ac21	-0.12565662
43	0xbdeea7a6	-0.1165307
44	0x3d81f2b6	0.063451216
45	0x3d785195	0.060624678
46	0x3d5c4296	0.05377444
47	0x3e0d73cf	0.13813709
48	0x3e642415	0.22279389
49	0xbd086c92	-0.033306666
50	0x3e137e18	0.1440357
51	0x3e33425a	0.1750578
52	0xbd14deb0	-0.036345184
53	0x3ded18d7	0.115770034
54	0x3e3d091b	0.18460505
55	0xbd5eba4c	-0.054376885
56	0xbe9f340a	-0.3109439
57	0xbe364684	-0.17800337
58	0x3e4e0704	0.20119864
59	0xbd866043	-0.06561329
60	0x3dbd7dc3	0.09252503
61	0x3e59bc43	0.21263222
62	0x3e3c9995	0.18417962
63	0x3bdabbea	0.006675233
64	0xbe2e6fcc	-0.17034835
65	0x3ccad315	0.024758855
66	0xbcc027ae	-0.02345642
67	0xbbad8eeb	-0.005296578
68	0x3ddf8835	0.10914651
69	0xbdd8a0ca	-0.10577543
70	0xbe2e47bf	-0.17019556
71	0x3b1eb2c7	0.0024215446
72	0x3bc31415	0.0059533217
73	0x3d305e9c	0.043058977
74	0xbcb0334c	-0.021508835
75	0xbd65f00e	-0.056137137
76	0xbcd16a1c	-0.025563292
77	0xbde7a278	-0.11310285
78	0xbd84e47f	-0.06488895
79	0x3cb5f3f9	0.022211062
80	0x3df395db	0.11893817
81	0xbd3db537	-0.046315398
82	0x3b90fb90	0.00442452
83	0x3e93b49b	0.2884873
84	0x3c27da3a	0.0102449
85	0xbdde53c5	-0.108558215
86	0x3ba38c50	0.004991092
87	0xbd3a5a45	-0.045496244
88	0xbab85ef4	-0.0014066384
89	0xbde1aa77	-0.11018842
90	0x3d53e73b	0.05173419
91	0x3d6901ce	0.056886487
92	0x3e254587	0.16139804
93	0x3db2d290	0.08731568
94	0x3d10023c	0.03515838
95	0x3d928db9	0.07155938
96	0xbe3e64e6	-0.18593177
97	0x3de39481	0.11112309
98	0x3d06bebc	0.032896742
99	0xbc9ed27b	-0.019387474
100	0xbdb05571	-0.08610047
101	0x3dab1030	0.08352697
102	0xbe3e8975	-0.18607123
103	0x3d7738f2	0.06035704
104	0x3a31ccf9	0.00067825575
105	0x3df8bb2f	0.121450774
106	0xbe6d1869	-0.23153843
107	0x3cdeca5f	0.027196107
108	0x3e05f8f1	0.13083245
109	0xbd53a58d	-0.051671553
110	0xbcaed8e2	-0.021343652
111	0xbcfd3f17	-0.030913873
112	0x3dcbd5cd	0.09952889
113	0x3d7fa292	0.0624109
114	0x3e32dcd3	0.1746705
115	0x3e770db6	0.24126324
116	0x3c451329	0.012028494
117	0xbd7a5e6d	-0.061125208
118	0xbdb60a30	-0.08888662
119	0x3e3810b5	0.17975123
120	0x3e323d26	0.17406139
121	0x3e213082	0.1574116
122	0x3d98fe0e	0.07470332
123	0xbe055dad	-0.13024016
124	0x3dcf6729	0.10127098
125	0x3e003c1b	0.12522928
126	0x3e50dc12	0.2039645
127	0x3ab9de3c	0.0014180611
128	0x3d8c2894	0.06843677
129	0x3cdf86ee	0.02728602
130	0x3e476a76	0.19474205
131	0xbdfd4494	-0.12366596
132	0x3c99d2f2	0.018777344
133	0xbcea994e	-0.028637554
134	0x3e4a7a37	0.19773184
135	0xbe8711a1	-0.26380637
136	0x3e179772	0.14803866
137	0xbe4f5c8a	-0.20250145
138	0xbe30a3df	-0.17250012
139	0x3d195525	0.037434716
140	0xbcf1f5fe	-0.029536244
141	0x3d3065ad	0.043065716
142	0xbb6f491d	-0.0036512085
143	0xbdd0c2aa	-0.10193379
144	0xbd4a6c15	-0.04941948
145	0xbc8881ae	-0.016663399
146	0xbe4c6dce	-0.19963762
147	0xbd115da7	-0.035489704
148	0x3df049c2	0.11732818
149	0x3e5c2f67	0.21502458
150	0x3e8d3c5a	0.27585107
151	0x3e1e7a9b	0.15476458
152	0xbe386d25	-0.18010385
153	0xbd351245	-0.044206876
154	0xbe21c7b2	-0.15798834
155	0xbe191491	-0.14949252
156	0x3dfc451a	0.123178676
157	0x3e333928	0.17502272
158	0xbce61e17	-0.02809052
159	0x3d4b25b0	0.04959649
160	0xbde21f7f	-0.11041164
161	0xbe6bc1f4	-0.23023206
162	0x3e04dbb0	0.12974429
163	0x3c332242	0.010933461
164	0xbe379e52	-0.17931488
165	0xbdccdbc2	-0.10002853
166	0x3d4afa0f	0.04955488
167	0x3e1e1b38	0.1544007
168	0xbd849f56	-0.064757034
169	0xbe0b8208	-0.13623822
170	0x3dc42c77	0.095787935
171	0x3e38d26c	0.1804902
172	0xbc1cec34	-0.0095778
173	0x3df75c20	0.12078118
174	0x3e12b1b4	0.14325601
175	0x39162bf5	0.0001432149
176	0xbd45f477	-0.048328843
177	0x3e394053	0.18090944
178	0xbc8a357c	-0.016871206
179	0xbdafe3d1	-0.085883744
180	0x3dc26947	0.09492736
181	0x3da8051e	0.08204101
182	0x3df6a115	0.12042443
183	0x3e504b95	0.20341332
184	0x3db63146	0.08896117
185	0x3ec54288	0.38527322
186	0x3e9cc715	0.30620638
187	0x3e26bb67	0.16282426
188	0x3d8422af	0.06451928
189	0xbdcb8bbd	-0.09938762
190	0x3e1ac3a7	0.15113698
191	0xbe0a9700	-0.13534164
192	0xbdbc34b9	-0.091897435
193	0xbd895cfe	-0.0670719
194	0x3e3dac68	0.18522799
195	0x3e737002	0.23773196
196	0x3da340bd	0.07971332
197	0xbdcf7b8b	-0.10130986
198	0x3dd4b020	0.10385156
199	0x3d999654	0.07499376
200	0xbccb5c4f	-0.02482429
201	0x3d793d57	0.060849514
202	0x3e20a505	0.1568795
203	0x3da7b995	0.08189694
204	0x3dec090b	0.11525162
205	0x3dbce0b9	0.0922255
206	0xbba5acc7	-0.005055997
207	0x3e37b276	0.17939171
208	0xbe3499d3	-0.17636804
209	0x3cdef17e	0.027214762
210	0x3e0a8177	0.1352595
211	0xbc493a51	-0.01228197
212	0x3e7b6091	0.24548556
213	0xbe272070	-0.16320968
214	0x3cf64b3d	0.030065173
215	0xbe1d8a22	-0.15384725
216	0xbd00b912	-0.031426497
217	0x3d61da54	0.055139855
218	0x3e225f15	0.15856583
219	0xbcde779e	-0.027156647
220	0x3d9a6d85	0.075404204
221	0x3e8658ab	0.26239523
222	0xbb77449b	-0.00377301
223	0xbd78a5f5	-0.060705144
224	0xbd54247a	-0.0517926
225	0xbeb51fb8	-0.35375762
226	0xbe04729a	-0.12934342
227	0x3ca66e12	0.020316157
228	0xbd48ba99	-0.04900608
229	0xbe481496	-0.19539103
230	0x3d1a6fc8	0.03770426
231	0x3e20e616	0.15712771
232	0xbb1862f9	-0.0023252352
233	0x3db7915c	0.08963272
234	0x3d4604d1	0.048344437
235	0xbd8e56c8	-0.06950146
236	0xbdb361d9	-0.08758897
237	0xbd8c481a	-0.0684969
238	0x3dbd072b	0.09229883
239	0xbdff8a97	-0.12477606
240	0x3d317179	0.043321107
241	0x3c235146	0.009968108
242	0x3d01b31c	0.031664953
243	0xbccfa70c	-0.025348209
244	0xbdfccb42	-0.12343456
245	0x3e7294c1	0.23689558
246	0xbc8b1a58	-0.016980335
247	0xbd6f3bb0	-0.05840653
248	0x3da0c77e	0.0785055
249	0xbd7b8cd6	-0.06141361
250	0x3e74ebd2	0.23918083
251	0x3e08ad96	0.13347468
252	0xbe993f3c	-0.29931056
253	0xbe71640d	-0.23573323
254	0x3cdbaf3f	0.026816962
255	0x3c9ea422	0.019365374

enc2.0.bias f4 [16]
0	0x3d082919	0.03324232
1	0x3d0689df	0.032846328
2	0xbc75d8cf	-0.0150053045
3	0x3d347db8	0.044065207
4	0x3c1dc0da	0.009628499
5	0x3d1b24f2	0.03787703
6	0xbcaf0532	-0.021364782
7	0xbce72be5	-0.028219173
8	0x3cded2bc	0.027200095
9	0x3bd07688	0.0063617863
10	0x3d02f0a5	0.031967778
11	0x3d15ea38	0.03660032
12	0x3cfd6900	0.030933857
13	0x3cde8ca9	0.027166681
14	0x3cc08be0	0.023504198
15	0x3d1883f4	0.037235215

enc2.2.weight f4 [16, 16, 3, 3]
0	0xbac1efcd	-0.0014796198
1	0x3d384831	0.044990722
2	0xbcac0875	-0.021000126
3	0xbdef827f	-0.11694812
4	0x3e0ff72b	0.14059131
5	0x3d622537	0.055211272
6	0xbd6c8ddc	-0.057752475
7	0xbcce930d	-0.025216604
8	0x3b811d96	0.0039402945
9	0xbdfd4274	-0.123661906
10	0x3e683ea9	0.22680153
11	0xbde368da	-0.11103983
12	0xbe38846e	-0.18019268
13	0x3d2d6ce9	0.042340193
14	0x3e37cb53	0.17948656
15	0xbe6e5f74	-0.232786
16	0xbd05a300	-0.032626152
17	0xbcec0b7e	-0.028814074
18	0xbdf0a665	-0.11750487
19	0xbd8885bb	-0.06666132
20	0xbe044a30	-0.12918925
21	0xbdd1605c	-0.10223457
22	0x3e9f4ab1	0.31111673
23	0x3d323c3f	0.043514486
24	0xbd3ad60c	-0.045614287
25	0x3e195229	0.14972748
26	0xbd9533db	-0.07285281
27	0x3e58fb9b	0.2118973
28	0x3e16e7f3	0.14736919
29	0xbd7d6e95	-0.061873037
30	0x3e2506d3	0.16115884
31	0x3e32c232	0.17456892
32	0xbdcb93c7	-0.09940296
33	0xbd9f2488	-0.0777064
34	0xbea54ab4	-0.32283556
35	0x3e40fe3f	0.18846987
36	0xbd091111	-0.03346354
37	0xbd42a494	-0.047520235
38	0x3e180846	0.14846906
39	0xbe25f2c5	-0.1620589
40	0xbdea62be	-0.11444615
41	0x3e62febd	0.22167487
42	0xbd77de86	-0.06051495
43	0xbecb7e80	-0.3974495
44	0xbdba7ef7	-0.09106248
45	0x3c32c044	0.0109100975
46	0xbd10e261	-0.03537214
47	0x3e00833b	0.1255006
48	0x3cbfd335	0.023416141
49	0xbb2c6946	-0.0026307865
50	0xbde479ee	-0.11156069
51	0xbda77889	-0.08177287
52	0xbe8234d3	-0.25430927
53	0xbda45c22	-0.080253854
54	0x3cb57d84	0.022154577
55	0xbcdef9e2	-0.027218763
56	0xbdbd6c92	-0.09249224
57	0x3e02fce0	0.12791777
58	0xbe00507f	-0.12530707
59	0x3e2a0fe8	0.1660763
60	0x3d2998ee	0.04140561
61	0x3de37b3d	0.1110749
62	0x3d1c9f6f	0.038237985
63	0x3d606de0	0.054792285
64	0x3dd75378	0.10513967
65	0x3d857ac3	0.065175556
66	0xbdf60cd0	-0.120141625
67	0xbc1d94ec	-0.009618025
68	0xbe1a81aa	-0.15088525
69	0x3de621f1	0.112369426
70	0x3e228dae	0.15874359
71	0xbca81efe	-0.02052259
72	0x3e7daeda	0.24773732
73	0x3c699589	0.014256843
74	0x3e37aa97	0.17936169
75	0xbdb2595d	-0.08708451
76	0x3d84508c	0.064606756
77	0x3e5880dc	0.21142906
78	0x3a756998	0.0009361743
79	0xbe541c27	-0.20713864
80	0x3e2f54f3	0.1712225
81	0xbe55b8e8	-0.20871317
82	0xbd012b7a	-0.031535603
83	0xbe4df6e0	-0.20113707
84	0x3e15845a	0.1460127
85	0x3e29b012	0.16571072
86	0x3d997204	0.0749245
87	0xbd672089	-0.056427512
88	0xbe44fe63	-0.19237666
89	0x3e4fe36d	0.203016
90	0x3af6da17	0.0018833306
91	0xbe116379	-0.14198102
92	0x3ddc68c3	0.10762169
93	0xbd9f1323	-0.07767322
94	0x3def23e0	0.116767645
95	0x3cc154e0	0.023600042
96	0xbe83b7d1	-0.25726178
97	0x3d2c325f	0.042040225
98	0x3e3a8b4a	0.18217197
99	0x3e04b86c	0.12960976
100	0xbd24af91	-0.040206496
101	0xbd5252fd	-0.051348675
102	0xbd83cfa3	-0.06436088
103	0x3e12cb26	0.14335307
104	0x3d85e45a	0.06537695
105	0x3ccc1fe9	0.02491756
106	0xbcf6c298	-0.030122086
107	0x3d89f3d9	0.067359634
108	0xbdb3d11a	-0.08780117
109	0x3ccbce06	0.024878513
110	0x3e4c71e9	0.19965328
111	0xbe557914	-0.20846969
112	0xbd823b2a	-0.06358941
113	0xbd937d26	-0.072016045
114	0xba8ef7d9	-0.0010907605
115	0x3e1211fe	0.14264676
116	0x3e177ac5	0.14792927
117	0x3cc4a100	0.024002552
118	0x3dc737b4	0.097274214
119	0xbe211254	-0.15729648
120	0x3e1888ef	0.14895986
121	0x3e0b77eb	0.13619964
122	0xbd95b826	-0.07310514
123	0x3dac711f	0.08420014
124	0x3cbe53c6	0.023233306
125	0xbd82ab9e	-0.0638039
126	0x3e23f4a6	0.16011295
127	0xbd93b6b7	-0.072125845
128	0xbdd9aa59	-0.10628194
129	0xbceda2d3	-0.029008305
130	0xbda5ca85	-0.08095268
131	0x3d3e85ef	0.046514448
132	0xbe802d8a	-0.25034744
133	0x3d5736f0	0.052542627
134	0xbde8665b	-0.11347648
135	0xbe04dc01	-0.1297455
136	0x3d3c8f05	0.04603483
137	0x3e2cfea2	0.1689401
138	0xbe00b73f	-0.12569903
139	0x3df1f80e	0.11814891
140	0xbd418f5e	-0.047255866
141	0x3d8b8b7f	0.06813716
142	0xbce6a3af	-0.028154222
143	0x3dbf91ad	0.09353957
144	0x3c73ec08	0.014887817
145	0x3d8e967f	0.069622986
146	0x3ddd844a	0.10816248
147	0xbce98854	-0.02850739
148	0x3e006090	0.12536836
149	0x3e0aa079	0.13537778
150	0x3e3f16ad	0.18660994
151	0xbdab9d99	-0.08379669
152	0x3e2cb309	0.16865171
153	0x3e366f42	0.17815879
154	0x3db5c95b	0.08876296
155	0x3c126e60	0.008937448
156	0xbe8f4106	-0.27979296
157	0x3de08717	0.10963266
158	0xbde4d3f9	-0.11173243
159	0xba4851eb	-0.0007641601
160	0xbd9ae773	-0.07563677
161	0xbe069953	-0.13144426
162	0x3e183514	0.14863998
163	0x3d6d308a	0.05790762
164	0x3df7668d	0.12080107
165	0xbe5c8562	-0.21535257
166	0xbd2e7ee6	-0.04260149
167	0xbd1f53b7	-0.038898196
168	0xbd1accb4	-0.037792876
169	0xbd30fa70	-0.043207586
170	0xbd497f83	-0.04919387
171	0xbe52957b	-0.20564835
172	0xbe1ebe43	-0.15502267
173	0xbda1e854	-0.07905641
174	0x3df80e3a	0.121120885
175	0xbce91a2d	-0.028454864
176	0xbe4bd424	-0.19905144
177	0xbda981a3	-0.08276679
178	0xbd21fab3	-0.039545726
179	0x3d4fe718	0.050757498
180	0xbbcf0f53	-0.0063189655
181	0x3d0d4c7f	0.03449678
182	0x3d9c2c67	0.076256566
183	0x3ccf8fe2	0.025337163
184	0x3d8ae21b	0.067814074
185	0x3e4eef85	0.20208557
186	0x3e291064	0.16510159
187	0x3e1008e9	0.14065899
188	0xbc025f0f	-0.007957234
189	0x3b9e8114	0.0048371647
190	0x3e3cf627	0.18453275
191	0xbdcc19b6	-0.099658415
192	0xbdccb686	-0.09995751
193	0x3cfd2c78	0.030904993
194	0x3d85133c	0.06497809
195	0x3e4ec531	0.2019241
196	0x3e8dafe5	0.2767326
197	0xbc0be3cf	-0.0085382005
198	0xbd79148a	-0.060810603
199	0xbd748208	-0.05969432
200	0xbd79f766	-0.061026953
201	0xbe162821	-0.14663745
202	0x3df48787	0.11939912
203	0x3e0bc861	0.13650657
204	0xbdcf3d9f	-0.10119175
205	0xbd974221	-0.0738566
206	0x3e444a94	0.19169074
207	0x3df25a7c	0.11833665
208	0xbe0d8010	-0.13818383
209	0x3dffd967	0.12492638
210	0xbb5bb136	-0.0033522374
211	0x3ce2a5df	0.027666984
212	0xbd32e77d	-0.043677796
213	0x3da64cbe	0.08120106
214	0xbd863e37	-0.06554835
215	0xbc2a6a06	-0.0104012545
216	0x3d8baecb	0.068204485
217	0x3e2bfb7c	0.16795152
218	0xbe367245	-0.17817028
219	0x3b8f9a6d	0.0043824227
220	0x3ea04410	0.31301928
221	0x3e078222	0.13233235
222	0xbd855ebc	-0.0651221
223	0x3cb27669	0.021784978
224	0xbcdef363	-0.027215665
225	0x3e925f44	0.28588307
226	0xbdc6906f	-0.09695517
227	0xbdcb4679	-0.09925551
228	0xbdb6d1f0	-0.08926761
229	0x3cc5a85c	0.024128132
230	0x3cc60220	0.024170935
231	0xbe1c05cf	-0.15236591
232	0xbed5b4e2	-0.41739565
233	0xbd8272fd	-0.063695885
234	0xbc773e2c	-0.0150905065
235	0xbe3df595	-0.18550713
236	0x3d33cbd8	0.043895572
237	0x3e336568	0.17519152
238	0x3d6dfc9c	0.058102235
239	0xbe86b086	-0.26306552
240	0xbe22ce0f	-0.15898918
241	0x3dbfae45	0.09359411
242	0xbd3190ed	-0.043351103
243	0x3d5e4cfd	0.05427264
244	0xbe3c80d4	-0.18408519
245	0xbdbe3c94	-0.09288898
246	0x3d4e2551	0.050328556
247	0xbe18781b	-0.14889567
248	0x3e9be29d	0.3044633
249	0x3e03c089	0.12866415
250	0x3ec1349a	0.37735444
251	0xbd7fc66d	-0.062445093
252	0x3d13ed61	0.036115054
253	0x3cbd7712	0.023128066
254	0xbcd7c7ca	-0.026340384
255	0x3e0fc69a	0.14040604

enc2.2.bias f4 [16]
0	0x3c8f5c0c	0.017499946
1	0x3d018372	0.031619497
2	0x38c3eb5a	9.342162e-05
3	0x3c4e02e0	0.012573928
4	0x3d089a65	0.033350367
5	0x3cd44583	0.025912052
6	0xbb951518	-0.0045496337
7	0xbba9e9fe	-0.0051853647
8	0x3d6ebe98	0.058287233
9	0x3cffe2eb	0.031236133
10	0x3c54fe33	0.013000059
11	0xbbeb9cf3	-0.0071903407
12	0x3c9d0386	0.01916672
13	0xbc7500e8	-0.014953829
14	0x3d0d2c71	0.03446621
15	0x3cea92e9	0.028634505

bottleneck.0.weight f4 [32, 16, 3, 3]
0	0xbdbc305d	-0.09188912
1	0x3d161f9e	0.036651246
2	0x3d488601	0.04895592
3	0x3d48db3d	0.049037207
4	0x3da1f057	0.07907169
5	0xbd0e0ebc	-0.03468202
6	0x3cc86a23	0.024464672
7	0x3c4d4af8	0.012530081
8	0xbe2e96cc	-0.17049712
9	0xbc951147	-0.018196715
10	0xbe3e2963	-0.18570475
11	0x3dc8ddf1	0.09807957
12	0xbca1f3ce	-0.019769575
13	0x3d858647	0.06519752
14	0x3e07e129	0.13269486
15	0xbe2e7199	-0.17035522
16	0x3e5aab6c	0.21354455
17	0x3d0d99f8	0.034570664
18	0x3d20ab19	0.03922567
19	0x3db2c7d8	0.087295234
20	0x3dae7445	0.085182704
21	0xbd475c68	-0.04867211
22	0x3e069f6c	0.13146752
23	0x3e5e9cf7	0.21739565
24	0xbd1154cc	-0.03548126
25	0xbc6bc2b8	-0.014389686
26	0xbcbca224	-0.023026533
27	0x3d2c19ee	0.042016916
28	0xbd85bbe2	-0.065299764
29	0x3bbbe3ed	0.005733958
30	0xbd2f196d	-0.042748857
31	0xbdd22c05	-0.10262302
32	0xbd0076d5	-0.031363327
33	0x3dffeca1	0.12496305
34	0xbc33b522	-0.010968478
35	0xbda9bc77	-0.082879
36	0xbda415a7	-0.08011942
37	0xbd99994a	-0.07499941
38	0xbb9c2442	-0.0047650645
39	0xbd693c2d	-0.056942154
40	0x3d2e9307	0.042620685
41	0xbe321652	-0.17391327
42	0x3dce284a	0.10066278
43	0xbe0b2975	-0.13590033
44	0x3e001807	0.12509166
45	0xbcd5a7d4	-0.026081003
46	0x3dd9601c	0.106140345
47	0x3ce3b29f	0.027795134
48	0xbdd20d93	-0.10256495
49	0x3d86277a	0.06550498
50	0xbd1d638c	-0.038425013
51	0x3df66b73	0.12032213
52	0x3dbe4d29	0.09292061
53	0xbd3e8b5a	-0.046519615
54	0x3ced432d	0.028962696
55	0x3df93252	0.12167801
56	0x3c3e3274	0.011608709
57	0x3d976e44	0.073940784
58	0xbd02aa2e	-0.031900577
59	0xbe01a10a	-0.12659088
60	0xbd6cbb1d	-0.057795633
61	0x3e89f753	0.26946506
62	0x3d9ce76f	0.0766133
63	0xbd8aa479	-0.06769652
64	0x3cff64ed	0.031176055
65	0xbd5268dc	-0.051369533
66	0x3d05f4fb	0.032704335
67	0x3e119bb3	0.14219551
68	0x3db6a320	0.089178324
69	0x3c9eb6c7	0.019374264
70	0x3b3de594	0.002897595
71	0xbd3a9ab4	-0.045557693
72	0x3bc42b1e	0.0059865853
73	0x3c85c0d8	0.016327307
74	0xbe2438b2	-0.16037253
75	0x3db61085	0.088898696
76	0xbd9c7f19	-0.076414295
77	0xbd3df5d9	-0.046377037
78	0xbd299ab3	-0.0414073
79	0x3deeb052	0.11654724
80	0x3e47f4e1	0.19527008
81	0xbdb6a81f	-0.08918785
82	0x3dd19540	0.10233545
83	0x3d6a479e	0.057197206
84	0xbce71372	-0.028207514
85	0x3d641ee8	0.055693537
86	0x3e208f08	0.15679562
87	0xbde2c289	-0.11072261
88	0x3d1003cd	0.035159875
89	0xbb8203a5	-0.0039677196
90	0x3c93413f	0.017975448
91	0xbcb8db47	-0.022565497
92	0xbd774283	-0.060366165
93	0x3de1737b	0.11008354
94	0x3e19cd82	0.15019801
95	0x3df86512	0.12128653
96	0xbb3d6ac5	-0.002890275
97	0x3dcbd74f	0.09953176
98	0xbc58dc4a	-0.013236115
99	0xbc7e961a	-0.015538717
100	0x3dabcec9	0.083890505
101	0xbd3097ef	-0.043113645
102	0xba36acc4	-0.0006968493
103	0x3d6c9864	0.05776252
104	0x3bbe6683	0.00581056
105	0x3d08ac83	0.033367645
106	0x3e8e49d2	0.27790695
107	0x3dd9a84e	0.10627805
108	0xbb5c5433	-0.0033619523
109	0x3d155a14	0.03646286
110	0xbd24fa67	-0.040277865
111	0x3e19a61d	0.15004773
112	0x3d8f5edc	0.07000515
113	0xbdc53845	-0.09629873
114	0xbd23c343	-0.039981138
115	0xbd1b8d9a	-0.03797684
116	0xbe46d71b	-0.19417994
117	0x3da72cae	0.08162819
118	0x3d811688	0.063031256
119	0xbdf2613b	-0.118349515
120	0x3e3fc51a	0.18727532
121	0xbd06fe1b	-0.032957178
122	0x3d3caa14	0.046060637
123	0x3a78707d	0.0009477211
124	0x3cb7c063	0.022430604
125	0x3e5f165e	0.21785876
126	0xbc0a4643	-0.008439603
127	0x3d310b45	0.043223638
128	0xbe14feda	-0.14550343
129	0x3d673f76	0.056457005
130	0xbd3b230e	-0.045687728
131	0xbd059226	-0.03261008
132	0x3cb13d2d	0.021635616
133	0xbde48032	-0.11157264
134	0xbd724648	-0.059149057
135	0x3cb98829	0.022647934
136	0x3e2df6d5	0.1698869
137	0x3d1f366c	0.03887026
138	0x3d799d15	0.06094082
139	0x3d41f240	0.04735017
140	0x3d2966dc	0.04135786
141	0x3dc3e328	0.09564811
142	0x3d45a119	0.048249338
143	0x3d1d7ebe	0.03845095
144	0x3be32442	0.0069318125
145	0xbdb94fa5	-0.09048394
146	0x3dcddd95	0.10052029
147	0x3c4b22e1	0.0123984525
148	0x3d3b6e01	0.045759205
149	0x3c4e9d85	0.012610798
150	0xbcb3b7a3	-0.02193815
151	0xbd8cda9e	-0.068776354
152	0x3d818c73	0.06325617
153	0x3d8207ae	0.06349121
154	0xbd87418d	-0.066043
155	0x3bc82876	0.006108339
156	0x3d47552d	0.048665214
157	0xbaf561e7	-0.0018721194
158	0xbe450a76	-0.19242272
159	0xbd59b495	-0.053150732
160	0xbd9b8279	-0.07593245
161	0x3e76a963	0.24088053
162	0xbb9effc1	-0.0048522656
163	0xbe002278	-0.12513149
164	0xbdabe3b2	-0.08393039
165	0xbd6a3de3	-0.057187926
166	0xbdd1a5ba	-0.10236688
167	0x3c355ed2	0.01106997
168	0xbd6f1e38	-0.05837843
169	0x3d3ed933	0.046593856
170	0x3db20c12	0.086937085
171	0xbd929126	-0.07156591
172	0xbd8dc8c8	-0.069230616
173	0x3d24f3d0	0.04027158
174	0x3d2d61f4	0.042329744
175	0xbd597936	-0.05309411
176	0x3ccc5682	0.024943594
177	0x3d7c2ad7	0.061564293
178	0x3d2f9459	0.042866085
179	0x3ddfa0af	0.1091932
180	0x3d50b50a	0.050953902
181	0x3ca9a0bf	0.020706533
182	0x3de08d40	0.10964441
183	0x3df161d3	0.117862366
184	0x3db41c6d	0.08794484
185	0x3db95ca9	0.09050877
186	0x3d331962	0.04372538
187	0xbc9fe625	-0.019518921
188	0xbdc08a4e	-0.094013795
189	0xbd17f5bd	-0.03709959
190	0x3b9cdeb5	0.004787291
191	0xbd81f29c	-0.06345102
192	0xbcf6ad20	-0.03011185
193	0x3b9ade62	0.004726217
194	0xbd83d836	-0.06437723
195	0x3d39084d	0.045173932
196	0xbd1c32dc	-0.03813444
197	0x3dd8a24e	0.10577832
198	0xbdf01502	-0.11722757
199	0xbd52aac8	-0.0514324
200	0xbe07d4e7	-0.1326481
201	0x3d03530a	0.032061614
202	0x3da22fe5	0.079192914
203	0xbe1b4e49	-0.15166582
204	0x3da3615d	0.07977555
205	0x3de81406	0.11331944
206	0x3e3f8807	0.18704234
207	0xbe339661	-0.17537834
208	0xbd5679b9	-0.052362178
209	0xbe70d7ae	-0.23519775
210	0x3dd5b11c	0.104341716
211	0x3e643972	0.22287539
212	0xbd577adc	-0.052607402
213	0x3d33268c	0.043737933
214	0x3ccef093	0.0252612
215	0xbd616bc4	-0.055034414
216	0xbd6b1026	-0.057388447
217	0x3de8b7c0	0.113631725
218	0x3cab1993	0.020886218
219	0xbbd1154c	-0.0063807126
220	0xbd184e52	-0.037184067
221	0xbc6945e6	-0.0142378565
222	0xbdae500b	-0.08511361
223	0x3e6074ce	0.21919557
224	0x3e0bf1b7	0.13666426
225	0x3c30d70f	0.010793461
226	0xbcf1e1e0	-0.02952665
227	0xbdf50baa	-0.11965115
228	0x3d52ef52	0.051497765
229	0xbe02566d	-0.12728281
230	0xbd9b1aaf	-0.07573449
231	0xbe582166	-0.2110649
232	0x3dc97a91	0.09837831
233	0xbdff8453	-0.12476411
234	0x3d84bb6b	0.0648106
235	0x3d8bef1e	0.06832717
236	0xbdbd3149	-0.09237916
237	0x3e095f23	0.13415198
238	0xbcc5f85c	-0.024166279
239	0xbe004506	-0.1252633
240	0x3d682637	0.05667707
241	0xbc20f623	-0.009824309
242	0x3e016ce7	0.12639199
243	0xbd34aacb	-0.044108193
244	0xbca45c52	-0.020063553
245	0x3e2497ae	0.16073486
246	0x3d9dce18	0.07705325
247	0xbcd1561a	-0.025553752
248	0x3d9b2d56	0.075770065
249	0x3d4460b9	0.047943804
250	0x39197b9c	0.00014637265
251	0x3e0ab652	0.13546112
252	0x3dcf55ba	0.10123773
253	0x3e20e2b4	0.1571148
254	0xbd2630ef	-0.04057401
255	0xbdab2c33	-0.0835804

bottleneck.0.bias f4 [32]
0	0xbd04230f	-0.032259997
1	0x3ca8affe	0.020591732
2	0x3cea6067	0.028610421
3	0x3d18ffac	0.037353203
4	0x3cf59372	0.029977534
5	0x3cd862fd	0.026414389
6	0x3d49c77e	0.049262516
7	0xbc247f1f	-0.010040074
8	0x3cd97a45	0.02654756
9	0xbc5ed032	-0.013599442
10	0x3c617ef1	0.013763175
11	0x3d198407	0.037479427
12	0xbc1c661d	-0.00954583
13	0x3cd4a742	0.025958661
14	0xbb8074ae	-0.0039201593
15	0x3cf6961b	0.030100873
16	0x3d0c3a81	0.03423548
17	0x3be9b5aa	0.0071322517
18	0x3cd9ecc2	0.026602153
19	0x3d620e2d	0.0551893
20	0x3b0c9a30	0.0021454208
21	0x3d52b3e4	0.05144109
22	0x3cc61d70	0.024183959
23	0xbc5057d8	-0.012716256
24	0x3d0c17df	0.034202453
25	0x3ca107eb	0.019657096
26	0xbceaa449	-0.02864279
27	0x3c3c02a2	0.011475237
28	0x3cba5288	0.022744432
29	0x3cddc76f	0.027072636
30	0x3ccc4a38	0.024937734
31	0x3ceb3efe	0.02871656

bottleneck.2.weight f4 [32, 32, 3, 3]
0	0xbc3ea5ee	-0.01163624
1	0xbd06b21f	-0.032884713
2	0xbe46be7f	-0.19408606
3	0xbdd73321	-0.10507799
4	0xbe3d46f2	-0.18484095
5	0xbc99cd4d	-0.018774653
6	0xbd93f0aa	-0.072236374
7	0xbdfa1c32	-0.12212409
8	0xbc5a19c2	-0.013311805
9	0x3b1e6d39	0.0024173988
10	0xbe3762ba	-0.17908755
11	0xbc8f9eff	-0.01753187
12	0x3b98affc	0.004659651
13	0x3dd262ce	0.10272752
14	0x3d8db95f	0.06920122
15	0x3d9e1cbd	0.07720325
16	0xbd11b7d1	-0.03557569
17	0xbc852e7b	-0.016257515
18	0xbd41f443	-0.047352087
19	0x3e632d95	0.22185357
20	0x3d1d5c7a	0.03841827
21	0xbdc10765	-0.094252385
22	0x3d927114	0.07150474
23	0xbcbc0e20	-0.022955954
24	0x3dbd4458	0.09241551
25	0xbd8bd650	-0.06827986
26	0x3db988ac	0.09059271
27	0xbce2bbdf	-0.027677475
28	0x3dcd52d9	0.100255676
29	0x3cad5694	0.021159448
30	0xbb8e9a86	-0.0043519167
31	0x3e1b0958	0.15140283
32	0x3db59c15	0.08867661
33	0x3d5c7d36	0.053830348
34	0x3def00c2	0.116700664
35	0x3d2dae5f	0.04240262
36	0x3d2c475e	0.04206025
37	0xbbe2af5b	-0.0069178767
38	0x3d84f5c3	0.06492188
39	0x3c3cd016	0.011524221
40	0xbd978df6	-0.07400124
41	0x3e2136bb	0.15743534
42	0xbbf95670	-0.007609181
43	0x3d04ebb5	0.03245135
44	0xbe19659a	-0.14980164
45	0xbe3fb97d	-0.18723102
46	0xbe2202df	-0.15821408
47	0xbd61bfc9	-0.05511454
48	0x3db5d690	0.08878815
49	0x3d6328af	0.05545872
50	0x3de95562	0.113932386
51	0xbd9d8fda	-0.07693453
52	0xbd6e5628	-0.058187634
53	0x3d5683da	0.052371837
54	0x3e8697e4	0.26287758
55	0xbd959093	-0.07302966
56	0xbd1474df	-0.03624427
57	0x3d87bb1c	0.06627485
58	0xbcb6cb79	-0.02231382
59	0xbd4c438a	-0.049869098
60	0xbd15d116	-0.036576353
61	0xbc840ec0	-0.016120315
62	0xbdcd90ca	-0.10037382
63	0x3c5d7d9f	0.01351872
64	0x3bd7bb97	0.0065836417
65	0x3dffd9d2	0.12492718
66	0x3cdf75fb	0.027277937
67	0x3d9e3c0b	0.07726296
68	0x3cf86e34	0.030325986
69	0xbd393745	-0.045218725
70	0x3cc211a7	0.023690058
71	0x3d7c584a	0.061607637
72	0xbe35cff2	-0.17755106
73	0x3c3fbcf8	0.0117027685
74	0xbdea809a	-0.1145031
75	0x3d5da7ac	0.054114982
76	0xbc27f2e8	-0.010250784
77	0x3cef0f36	0.029182058
78	0x3d774c43	0.060375463
79	0xbdad5abb	-0.08464571
80	0x3d0f98e0	0.035057902
81	0x3c3bcb0c	0.011461984
82	0x3c945922	0.018108908
83	0xbd46b70f	-0.048514422
84	0xbd3933ad	-0.045215297
85	0x3d5fcee1	0.054640654
86	0xbd77a800	-0.06046295
87	0xbc832091	-0.01600674
88	0xbe68d6dd	-0.22738214
89	0xbdf8646e	-0.121285304
90	0xbca0c57a	-0.019625414
91	0x3cd4ad6c	0.0259616
92	0xbd12de7a	-0.0358567
93	0xbda4e5b4	-0.08051625
94	0x3dfeb103	0.12436106
95	0x3d97e41b	0.074165545
96	0x3c9e521c	0.019326262
97	0x3d7ce88b	0.061745208
98	0x3d20859c	0.03918992
99	0x3c0e791f	0.00869587
100	0x3daafc87	0.08348947
101	0x3e381140	0.1797533
102	0x3ddea6c3	0.10871651
103	0x3e3d182e	0.18466255
104	0xbd0c751d	-0.034291375
105	0x3d6078fb	0.054802876
106	0xbdee9ede	-0.11651395
107	0x3d04b15a	0.032395698
108	0xbd361c62	-0.04446066
109	0xbd7c7689	-0.06163648
110	0xbcac3240	-0.021020055
111	0xbb8d084f	-0.004303969
112	0xbd496fc1	-0.049178842
113	0xbdba7420	-0.0910418
114	0xbdf3fb35	-0.11913148
115	0xbddb82d6	-0.10718314
116	0xbe24d133	-0.16095428
117	0x3c40738d	0.011746299
118	0x3daa140f	0.08304607
119	0xbdda787d	-0.106675126
120	0xbdabf3a1	-0.08396078
121	0x3c4eab1b	0.012614037
122	0x3d4d6f5b	0.050155025
123	0xbe52b4bb	-0.20576756
124	0x3cbc60c5	0.022995362
125	0x3db77d4e	0.08959447
126	0x3dee935b	0.116491996
127	0x3d14b4f4	0.036305383
128	0xbe08118f	-0.13287948
129	0x3e05b74e	0.13058206
130	0x3e19a861	0.15005638
131	0xbe58467c	-0.21120638
132	0xbd91d258	-0.07120198
133	0x3e16c1dc	0.14722389
134	0x3d179782	0.037009723
135	0xbd6669a0	-0.056253076
136	0x3dae6963	0.08516195
137	0x3c9116f0	0.017711133
138	0xbdd62744	-0.10456708
139	0x3d04041d	0.032230485
140	0x3d06a4cb	0.032872003
141	0x3db4f839	0.08836407
142	0xbdbfbfb6	-0.09362738
143	0x3dd37c0f	0.10326397
144	0x3e546b42	0.2074404
145	0xbe159c01	-0.14610292
146	0xbc79e119	-0.015251421
147	0xbd5918a1	-0.053002004
148	0x3d4928f3	0.049111318
149	0x3c85c0fc	0.016327374
150	0xbde112d9	-0.10989923
151	0x3d49ceee	0.04926961
152	0xbcde30d3	-0.02712289
153	0xbc99bade	-0.018765863
154	0xbd4ac71a	-0.049506284
155	0x3dde20d1	0.10846103
156	0x3c616cc4	0.013758842
157	0xbd04d1e2	-0.032426722
158	0x3d19cda4	0.03754963
159	0x3cc757b7	0.024333818
160	0x3dee6d79	0.11641974
161	0xbd384a22	-0.044992574
162	0xbcdd7259	-0.027032064
163	0xbdea9d02	-0.11455728
164	0xbdb17fa7	-0.08666926
165	0xbe4cc178	-0.19995677
166	0x3d056ee0	0.03257644
167	0xbe0b139f	-0.13581704
168	0x3c26e481	0.0101863155
169	0x3e2aff7e	0.16699025
170	0xbd00924a	-0.031389512
171	0xbdab2901	-0.0835743
172	0xbd3a5dc4	-0.045499578
173	0xbe08c66e	-0.13356945
174	0x3d46194d	0.048363972
175	0x3d49ad5a	0.049237587
176	0xbe1e6e2d	-0.15471716
177	0x3c922b2f	0.017842857
178	0x3da448d6	0.08021705
179	0x3e1ae099	0.1512474
180	0xbce80b0c	-0.02832558
181	0xbdf7f2c6	-0.12106852
182	0x3dfd8dbe	0.12380551
183	0xbdd4e58c	-0.10395345
184	0xbd1b74d5	-0.037953217
185	0xbdb646cd	-0.08900223
186	0xbda4d9fe	-0.08049391
187	0x3d9fcdd9	0.07802934
188	0x3de710f2	0.11282529
189	0xbe83c09e	-0.25732893
190	0x3c0d1432	0.008610772
191	0x3d3233cc	0.04350643
192	0xbd8598ef	-0.065233104
193	0x3cc0f88a	0.023556013
194	0x3d052742	0.032508142
195	0xbe1f0e6f	-0.1553285
196	0x3dcba7c0	0.09944105
197	0x3ca4db18	0.020124003
198	0x3d048217	0.032350626
199	0xbde88e99	-0.11355323
200	0x3ca4b437	0.020105464
201	0xbd488a6e	-0.04896014
202	0xbaf6a63c	-0.0018817852
203	0x3e334c0f	0.17509483
204	0x3c9d4b7e	0.019201037
205	0xbe0c087e	-0.13675115
206	0x3d82e7e8	0.06391889
207	0x3d46b475	0.04851194
208	0x3d6cb76e	0.05779212
209	0xbdc8bb60	-0.09801364
210	0x3ca6be67	0.020354463
211	0xbe2b58e4	-0.16733128
212	0xbbdb5593	-0.006693551
213	0xbd5e99b5	-0.054345805
214	0xbb4a943e	-0.0030911113
215	0xbe0387bb	-0.12844746
216	0x3c353fb4	0.011062551
217	0x3c9b1f36	0.018935781
218	0x3c93d8ef	0.018047778
219	0x3d4aba66	0.04949417
220	0xbcf43e42	-0.029814843
221	0x3de3cfe8	0.11123639
222	0x3c813ec3	0.015776997
223	0x3d69ae9c	0.057051286
224	0x3d09f5f8	0.03368184
225	0xbdf24499	-0.1182949
226	0xbd89cb6d	-0.067282535
227	0x3c36468c	0.011125218
228	0xbd32cfe8	-0.043655306
229	0xbdd43d32	-0.103632346
230	0x3dd17cd3	0.102288865
231	0x3d8fdcaf	0.07024514
232	0xbd480416	-0.04883202
233	0x3d388544	0.045048967
234	0x3d31ac19	0.043377016
235	0xbe01315f	-0.1261649
236	0xbca26772	-0.019824717
237	0x3e2e7df8	0.17040241
238	0xbdef50be	-0.11685322
239	0xbdace396	-0.08441846
240	0x3d0273b0	0.03184861
241	0xbc507f9a	-0.012725735
242	0xbd9fd833	-0.078049086
243	0x3d647723	0.05577768
244	0x3d548aa9	0.05189005
245	0x3d32dd6f	0.043668207
246	0x3ca4f9e0	0.020138681
247	0x3d95820a	0.073001936
248	0x3e2214ad	0.158282
249	0xbdb8760c	-0.09006891
250	0xbcf43462	-0.029810134
251	0x3cc536dc	0.02407401
252	0x3e18eb3c	0.14933485
253	0x3e676802	0.2259827
254	0x3e7b428d	0.24537106
255	0xbd3dc1ab	-0.046327274

bottleneck.2.bias f4 [32]
0	0x3ce55a3f	0.027997134
1	0x3d3afa0a	0.045648612
2	0x3cfba373	0.030717587
3	0xbc6920bb	-0.014228995
4	0xbc105c64	-0.00881109
5	0xbc6c2560	-0.014413208
6	0x3cd3dbd0	0.02586165
7	0xbb7cd112	-0.0038576764
8	0x3d1322d4	0.035921887
9	0x3c0a8489	0.00845445
10	0x3d09befb	0.0336294
11	0xbd0d5181	-0.034501556
12	0xbd1674f2	-0.03673262
13	0x3ceceb08	0.028920665
14	0xbc5ebfb4	-0.01359551
15	0x3cdbd287	0.026833786
16	0x3cebe74c	0.028796814
17	0xbc64ef54	-0.013973076
18	0x3d0f98f5	0.03505798
19	0xbc436cd8	-0.011927806
20	0x3ced831f	0.028993187
21	0x3b8e1fc6	0.004337284
22	0xbd3b5115	-0.045731623
23	0xbbaf8185	-0.005356016
24	0x3ce69338	0.028146371
25	0x3d012dd3	0.031537842
26	0xbd07ab97	-0.033122625
27	0x3cef7e7e	0.02923512
28	0x3c0932c9	0.0083739245
29	0xbcb4f79d	-0.022090727
30	0x3cd9633f	0.026536582
31	0x3bad0e04	0.005281212

up1.weight f4 [32, 16, 2, 2]
0	0x3d964c85	0.07338814
1	0x3d7b9a9c	0.061426744
2	0xbe87e823	-0.26544294
3	0xbce565b7	-0.028002603
4	0xbde63822	-0.11241175
5	0x3de8aede	0.11361478
6	0x3dabce8d	0.08389006
7	0x3e9ce56f	0.30643794
8	0xbe3edc81	-0.18638803
9	0xbda9382c	-0.08262667
10	0x3dc6f8bf	0.09715413
11	0x3c8aa9ab	0.016926607
12	0xbd9d5608	-0.07682425
13	0x3d9af1d8	0.07565659
14	0x3dea4c84	0.114403754
15	0xbdbbc777	-0.09168904
16	0x3b94fcba	0.004546729
17	0x3e999489	0.29996136
18	0x3da8318c	0.08212575
19	0xbd9f7fc0	-0.07788038
20	0x3d0beca1	0.034161214
21	0xbe26e465	-0.16298063
22	0x3c8a34c6	0.016870867
23	0xbdb568f8	-0.08857912
24	0x3e0957cf	0.13412403
25	0x3deb005a	0.114746764
26	0xbd29aed1	-0.041426484
27	0xbdbed694	-0.09318271
28	0x3c9ed46f	0.019388406
29	0xbe5bfaa2	-0.21482328
30	0x3e688767	0.22707902
31	0x3d7e21bb	0.062043887
32	0xbe6831a9	-0.22675194
33	0x3de598be	0.11210774
34	0xbe628482	-0.2212086
35	0xbdb2d420	-0.08731866
36	0x3d495f3a	0.04916308
37	0xbd6d149c	-0.057880983
38	0x3e3e8710	0.1860621
39	0x3e4ded88	0.20110142
40	0xbdf4634f	-0.11933004
41	0x3e42edb8	0.19035995
42	0x3da81c16	0.08208482
43	0x3e0c55ab	0.13704555
44	0x3bc5367b	0.0060184575
45	0x3dd741d1	0.105106
46	0xbdbe04f3	-0.09278288
47	0xbcb8b57e	-0.02254748
48	0x3dc526b4	0.09626523
49	0xbe818ede	-0.25304312
50	0xbd00e459	-0.03146777
51	0x3da8975c	0.082319945
52	0x3cf44426	0.029817652
53	0xbd6c4435	-0.057682235
54	0x3e8ef8ce	0.27924198
55	0x3e1c18ed	0.15243883
56	0xbdf1e32f	-0.1181091
57	0xbe6f9b9f	-0.23399208
58	0x3d8842b3	0.06653347
59	0xbd115170	-0.035478055
60	0x3bc2f341	0.0059494083
61	0x3e632578	0.22182262
62	0xbdc4d3e3	-0.09610727
63	0x3d4289c4	0.047494665
64	0xbe5c94f9	-0.21541204
65	0xbe3e28c0	-0.18570232
66	0x3b455003	0.0030107505
67	0xbe01c8e3	-0.12674288
68	0xbe7dae30	-0.24773479
69	0xbdfcc715	-0.123426594
70	0xbe4bd409	-0.19905104
71	0xbad84f25	-0.0016503079
72	0x3e995105	0.29944625
73	0x3dc2cf41	0.09512187
74	0xbd34755f	-0.044057246
75	0xbdbedfa1	-0.093199976
76	0x3de2e966	0.110796735
77	0xbcfa11f3	-0.030526137
78	0x3dc9b796	0.09849469
79	0xbde80566	-0.11329155
80	0xbe19c71a	-0.15017357
81	0xbde20773	-0.11036577
82	0xbd712282	-0.0588708
83	0xbe773eab	-0.24145
84	0xbcb47f13	-0.02203325
85	0xbc9d8c8a	-0.019232053
86	0x3d2adee9	0.04171649
87	0x3d7d387d	0.06182145
88	0xbdff796f	-0.124743335
89	0xbda0d297	-0.07852667
90	0xbe244045	-0.16040142
91	0xbeafb9ea	-0.3432153
92	0x3d9d1050	0.07669127
93	0x3dce16d2	0.100629464
94	0xbe4009e6	-0.18753776
95	0xbd9ff26c	-0.0780991
96	0xbe4daabe	-0.20084664
97	0xbd268b2f	-0.04066008
98	0xbe7f1eec	-0.2491414
99	0x3e08617a	0.13318434
100	0x3d9d67bc	0.076858014
101	0x3e0b608a	0.13611045
102	0x3dc7d50d	0.09757433
103	0x3ca93ade	0.020657953
104	0xbd9ff5ad	-0.07810531
105	0xbe4bbfcb	-0.19897382
106	0x3a16a3fb	0.0005746481
107	0x3d8a0b33	0.06740417
108	0xbe0b1d4b	-0.13585393
109	0xbc0bb378	-0.008526675
110	0x3e6b35bc	0.22969717
111	0x3baf3ae7	0.005347598
112	0xbda75b93	-0.08171763
113	0x3dc3fa58	0.09569234
114	0x3d60e79f	0.05490839
115	0x3dc6cb68	0.097067654
116	0x3de3f25a	0.11130209
117	0x3cc5c3ae	0.024141159
118	0x3e52129d	0.20514913
119	0xbd822b1e	-0.0635588
120	0x3d482aa2	0.048868783
121	0x3e311088	0.17291462
122	0xbd78005c	-0.060547218
123	0xbdcc8694	-0.09986606
124	0xbe3e690d	-0.18594761
125	0xbdf9f257	-0.12204426
126	0xbe724027	-0.23657285
127	0xbd516041	-0.051117186
128	0xbd001a33	-0.031274986
129	0xbd8262f0	-0.06366527
130	0xbdf6e059	-0.1205451
131	0x3e822b26	0.25423545
132	0xb9171524	-0.00014408358
133	0xbd273628	-0.04082313
134	0xbe18311e	-0.14862487
135	0xbd8c63d8	-0.06854981
136	0x3d37c4a8	0.04486528
137	0x3d8e81f4	0.0695838
138	0x3e5e7a39	0.21726312
139	0x3e7ec5dc	0.24880165
140	0x3df1c2bd	0.118047215
141	0x3d9b4849	0.07582147
142	0x3ea3f239	0.3202074
143	0xbcbb3ae7	-0.022855235
144	0xbd55bae5	-0.05218019
145	0xbc9e5590	-0.019327909
146	0xbe5b65f0	-0.21425605
147	0xbe4eaf19	-0.20183982
148	0xbc8402c0	-0.016114593
149	0x3d113118	0.03544721
150	0xbd973f76	-0.07385151
151	0xbd042c52	-0.03226883
152	0x3d2daf05	0.04240324
153	0x3e0a3411	0.13496424
154	0xbd1cc04e	-0.038269334
155	0xbe1787de	-0.14797923
156	0xbed4830d	-0.41506234
157	0xbd3c0f0b	-0.045912784
158	0xbda40ae3	-0.08009889
159	0xbcb83468	-0.022485927
160	0x3e432c1c	0.19059795
161	0xbc4db480	-0.012555242
162	0xbe1f31cd	-0.15546341
163	0x3eb1d66c	0.34733903
164	0x3dd50902	0.10402109
165	0x3de92d30	0.11385572
166	0x3e48803b	0.19580166
167	0xbd78c336	-0.060733043
168	0x3d0e2ede	0.034712665
169	0xbb81a0fd	-0.003955959
170	0x3d02197f	0.031762596
171	0xbd866ddb	-0.06563922
172	0x3d41146e	0.047138624
173	0xbda282bb	-0.07935091
174	0x3dbd748e	0.09250747
175	0xbdc50d2c	-0.09621653
176	0xbcb1d037	-0.02170573
177	0x3cd18c7e	0.025579687
178	0xbd38f160	-0.04515207
179	0x3e82a2f3	0.25514945
180	0xbd04e7cd	-0.032447625
181	0xbc7d9c03	-0.015479091
182	0x3a399579	0.0007079463
183	0x3e8e318d	0.2777218
184	0xbdcc4dc8	-0.09975773
185	0x3e0da130	0.1383102
186	0xbd8102af	-0.0629934
187	0xbe1e868d	-0.15481015
188	0x3ddd47f4	0.108047396
189	0xbde9e3b9	-0.11420388
190	0xbd280301	-0.04101849
191	0xbe19c32d	-0.1501586
192	0xbdb91dab	-0.09038862
193	0x3d455c20	0.04818356
194	0x3d12da7b	0.03585289
195	0x3dd3c755	0.10340754
196	0x3dde4b6a	0.10854228
197	0x3e0fd0ad	0.14044447
198	0xbe8e37a1	-0.27776816
199	0x3dac2a60	0.0840652
200	0xbe1919fa	-0.14951316
201	0xbe3978d8	-0.18112504
202	0xbd560108	-0.052247077
203	0x3dc12b42	0.09432079
204	0xbe96c94c	-0.29450452
205	0xbb66b85b	-0.00352051
206	0x3d87321a	0.06601353
207	0x3e272a67	0.16324769
208	0x3da60d7b	0.0810804
209	0xbdddedbf	-0.10836362
210	0x3e0464b5	0.12929042
211	0xbd6b86c6	-0.057501577
212	0xbc485922	-0.012228282
213	0xbc75709a	-0.01498046
214	0x3da34ac8	0.07973248
215	0x3dc36e9f	0.09542584
216	0xbcff7b8c	-0.031186841
217	0xbbfb2443	-0.007664235
218	0x3eb89741	0.36052898
219	0x3cd58d33	0.026068306
220	0xbcda15c5	-0.026621709
221	0x3dff11f1	0.12454594
222	0x3cb2a1bb	0.021805635
223	0xbd7a8a4c	-0.061167046
224	0xbba2aa52	-0.0049641514
225	0xbc993b8d	-0.018705154
226	0x3ce85113	0.028358972
227	0xbd7353b1	-0.059405986
228	0x3db5dec2	0.08880378
229	0xbe53551b	-0.20637934
230	0x3d692f3a	0.056929804
231	0x3e6062b4	0.21912652
232	0xbdcc047f	-0.09961795
233	0xbd13d4a3	-0.036091458
234	0x3e1008fa	0.14065924
235	0xbe497c12	-0.19676235
236	0x3cf80c82	0.030279402
237	0xbe23119e	-0.15924689
238	0x3d9b33f3	0.07578268
239	0x3da28962	0.0793636
240	0xbcc6defc	-0.02427625
241	0x3ddc8e3e	0.10769318
242	0x3df802ee	0.12109934
243	0xbe079f4d	-0.13244362
244	0x3e02f790	0.1278975
245	0xbcd988c7	-0.026554478
246	0x3e06ce1a	0.13164559
247	0xbe0e7f94	-0.13915855
248	0x3e7717ba	0.24130145
249	0xbd6ffa20	-0.058588147
250	0x3dfad275	0.12247173
251	0xbd68605d	-0.056732524
252	0xbe207c57	-0.15672432
253	0x3da66d54	0.081263214
254	0x3dac6d5a	0.08419295
255	0x3ceb2c06	0.028707515

up1.bias f4 [16]
0	0x3c9f27f9	0.01942824
1	0xbd06f655	-0.032949764
2	0x3cdd9265	0.027047345
3	0xbd0414e9	-0.032246504
4	0xbcd7d4aa	-0.026346523
5	0xbcf3ca73	-0.029759621
6	0xbcf5f176	-0.030022364
7	0xbcec87d9	-0.028873371
8	0xbcc11ac0	-0.023572326
9	0x3cc52e3c	0.024069898
10	0xbc9e2f18	-0.019309565
11	0x3cd3996b	0.025829991
12	0x3ce7eeaa	0.028312046
13	0x3cd4ec2d	0.025991524
14	0xbcd5295e	-0.026020702
15	0xbccf95a1	-0.025339903
