sampling-based_planning_framework/checkpoints/checkpoint_epoch_9.pth (torch, 385414 bytes, 75 tensors)

enc1.0.weight f4 [8, 1, 3, 3]
-0.10018979 0.10909274 0.038955167 0.14027038 -0.11811289 0.07914343 0.03777725 -0.17708336
-0.07161676 0.17052622 -0.13925768 0.05731565 0.2056318 -0.06052442 0.13207078 -0.03186334
0.12639755 -0.029877357 0.17163536 -0.18858033 -0.0809038 0.15003213 -0.060621656 -0.09774938
-0.3172533 -0.119092286 -0.06972844 0.043539714 0.021607254 -0.112751864 0.045142177 0.06429764
0.24676518 -0.008845829 -0.028133601 0.0021616013 -0.020171529 0.0066891825 -0.035212576 -0.22061676
0.17575288 -0.012459721 -0.04168542 0.10197091 -0.2526267 0.2194747 0.2314584 -0.064855024
0.3512669 -0.014383385 -0.11408881 0.09699982 -0.3466656 -0.24101736 0.024268553 0.0062936167
0.06747611 0.11861695 -0.07456525 0.47528028 -0.023888245 0.08910708 0.046564575 0.09360422
-0.37126186 0.066948734 -0.12765534 -0.04940633 0.22141229 0.055077203 -0.14773239 0.02349852
00000000: 4e30 cdbd 046c df3d 748f 1f3d 0aa3 0f3e
00000010: 2ce5 f1bd f315 a23d 51bc 1a3d 5755 35be
00000020: cfab 92bd 6d9e 2e3e 9199 0ebe d1c3 6a3d
00000030: 2591 523e 74e8 77bd 903d 073e 2283 02bd
00000040: 5c6e 013e 5cc1 f4bc 2ec1 2f3e 341b 41be
00000050: e4b0 a5bd 06a2 193e 6a4e 78bd d430 c8bd
00000060: 066f a2be a8e6 f3bd c9cd 8ebd b356 323d
00000070: b201 b13c 73ea e6bd 01e7 383d 7bae 833d
00000080: 03b0 7c3e 19ee 10bc 7078 e6bc a7a9 0d3b
00000090: c33e a5bc ee30 db3b 103b 10bd 5ce9 61be
000000a0: 90f8 333e dc23 4cbc 55be 2abd 20d6 d03d
000000b0: 4958 81be fabd 603e 6e03 6d3e b6d2 84bd
000000c0: 41d9 b33e 4aa8 6bbc 65a7 e9bd d7a7 c63d
000000d0: 277e b1be 41cd 76be d8ce c63c af3a ce3b
000000e0: ea30 8a3d 72ed f23d aab5 98bd f057 f33e
000000f0: 48b1 c3bc c67d b63d 7fba 3e3d 92b3 bf3d
00000100: 0916 bebe 6b1c 893d 15b8 02be 4b5e 4abd
00000110: e7b9 623e a298 613d 2947 17be f87f c03c

enc1.0.bias f4 [8]
0.03157139 0.007459337 0.029913917 -0.0037710818 0.020121116 0.0019522515 0.00017860571 -7.946828e-05
00000000: 0051 013d 746d f43b 080e f53c 4124 77bb
00000010: 0ad5 a43c b1e2 ff3a 1b48 3b39 35a8 a6b8

enc1.2.weight f4 [8, 8, 3, 3]
0.11301585 0.051579844 -0.064875655 -0.26111197 0.47078276 0.12085286 -0.07054436 0.022797292
-0.031958487 -0.106823556 -0.14193335 -0.12734003 -0.1252793 -0.14104927 0.15885602 0.15856685
0.13773622 -0.23919082 0.0671416 0.19547372 0.14358039 -0.13756192 0.107715294 -0.13245633
-0.22019929 0.08786935 -0.01890636 -0.009903651 -0.10270362 -0.21503952 0.1274792 -0.02928233
-0.011646904 -0.080233 -0.020417979 -0.22139944 -0.07620569 0.0081760585 0.13551381 -0.20605622
0.08540222 0.06308571 0.039891466 -0.024691645 0.15741044 0.05064365 -0.33125743 0.039414715
-0.054996155 0.27165002 -0.31133366 0.10212153 -0.20805986 -0.15816437 -0.11701202 0.09475868
-0.0141044995 0.08084793 -0.094026774 -0.036963396 0.02650914 -0.45036525 0.009812561 -0.073256515
-0.07293992 0.25450635 -0.059169512 0.05815286 0.045246717 0.012683395 -0.073946014 -0.072686166
-0.19819118 -0.0065516396 0.040498644 0.15025464 0.16374227 0.06748969 -0.17008312 0.17263602
-0.21285616 -0.069628544 0.22607075 -0.11965086 0.16694923 -0.18624057 0.101919375 0.03034227
-0.38678148 0.14007077 -0.014032338 -0.27973145 0.23608474 -0.030776221 0.15559715 0.07499502
0.04884602 0.16173294 -0.14026774 0.11222494 -0.010213998 0.2472147 0.32405847 -0.098912545
-0.002254034 -0.012503698 0.45825592 0.12934412 -0.23814057 0.06312287 -0.034770824 -0.33814168
0.12129056 -0.1457105 0.010745307 0.12580712 0.38616273 -0.09891628 -0.30782607 -0.0026604703
0.07321141 0.1877591 0.108666666 0.021422869 -0.10567563 -0.026687736 0.24663122 -0.048654314
-0.27163002 0.27514696 0.17151071 -0.12921034 0.39274767 0.1485908 0.061596017 0.046647605
0.2746909 -0.079248995 0.23769072 0.19080056 0.09022035 0.1517996 -0.13646059 0.046297975
0.13495968 0.16101474 -0.0030222281 0.15768063 0.089576125 -0.107995845 0.09938482 0.5222965
-0.17832685 -0.36187255 -0.20122294 0.05342448 0.25116476 -0.08984826 -0.054597765 0.1450317
-0.401903 -0.1623981 -0.24760084 -0.11816621 -0.3291877 0.081404895 0.05891902 0.2455329
0.081449695 0.18516049 -0.07616026 0.22407989 -0.112557 -0.023052035 -0.050488662 -0.0069587035
-0.002890141 -0.15976307 -0.12543029 -0.20585 0.115011595 -0.061313253 0.30527243 -0.18873763
-0.021839164 0.14886984 -0.09588357 0.0023209215 0.035977338 -0.14878035 -0.2799155 0.30725518
0.1109941 -0.3003968 -0.2733918 0.07680477 -0.23629569 0.0411686 0.08169028 -0.09436382
-0.17767864 -0.27848753 0.28371894 0.044726055 -0.17750086 -0.08056824 0.014063405 0.038863264
-0.14638077 -0.0026438865 0.2945942 -0.15265349 -0.17065008 0.03946437 0.13503353 0.036810335
0.023630295 0.26894033 -0.013763612 -0.043935064 0.04512222 -0.20309989 0.17673746 -0.0037455093
0.03634183 -0.26738387 -0.3839574 -0.20810176 -0.00430403 -0.17356609 -0.10088481 0.18739097
0.17069559 0.05938325 -0.0324522 0.052612126 0.07160118 -0.081415094 -0.014338732 0.10731705
0.0021965643 0.20498475 -0.19601476 -0.037555467 -0.003946861 0.11401058 -0.112171434 -0.041934885
-0.050010953 -0.029937912 0.13496092 0.11262138 0.38807315 -0.04864371 -0.09886558 -0.18807419
00000000: db74 e73d 6345 533d 87dd 84bd 78b0 85be
00000010: 700a f13e b481 f73d 9079 90bd 63c1 ba3c
00000020: e7e6 02bd 4fc6 dabd fa56 11be 6d65 02be
00000030: 3849 00be 386f 10be 27ab 223e 595f 223e
00000040: b90a 0d3e 70ee 74be 8981 893d 432a 483e
00000050: bd06 133e 08dd 0cbe d699 dc3d a2a2 07be
00000060: ec7b 61be d9f4 b33d 83e1 9abc ec42 22bc
00000070: 4756 d2bd 5233 5cbe e889 023e 7fe1 efbc
00000080: a8d2 3ebc 3351 a4bd 9b43 a7bc 89b6 62be
00000090: bb11 9cbd e0f4 053c 22c4 0a3e 6700 53be
000000a0: 5ce7 ae3d 1533 813d 3c65 233d 2246 cabc
000000b0: 3430 213e b76f 4f3d 939a a9be 5371 213d
000000c0: a643 61bd b615 8b3e 2067 9fbe 1825 d13d
000000d0: a50d 55be d7f5 21be ffa3 efbd d710 c23d
000000e0: 8f16 67bc 9993 a53d 1c91 c0bd ee66 17bd
000000f0: b229 d93c 4696 e6be ddc4 203c 8307 96bd
00000100: 8661 95bd a84e 823e bb5b 72bd b131 6e3d
00000110: 9f54 393d 04ce 4f3c 0271 97bd 7cdc 94bd
00000120: a1f2 4abe 23af d6bb e8e1 253d 5adc 193e
00000130: 0eac 273e 0938 8a3d 452a 2ebe 7fc7 303e
00000140: f7f6 59be 6999 8ebd 177f 673e 830b f5bd
00000150: bdf4 2a3e d9b5 3ebe 1bbb d03d 5a90 f83c
00000160: 3908 c6be b66e 0f3e e4e7 65bc f638 8fbe
00000170: 33c0 713e 6a1e fcbc dc54 1f3e fd96 993d
00000180: c412 483d 529d 253e 59a2 0fbe 30d6 e53d
00000190: 9d58 27bc da25 7d3e feea a53e a992 cabd
000001a0: 6ab8 13bb 4fdc 4cbc 85a0 ea3e c972 043e
000001b0: 1fdb 73be 9046 813d da6b 0ebd e820 adbe
000001c0: 2f67 f83d 2235 15be 160d 303c 95d3 003e
000001d0: 1fb7 c53e 9e94 cabd 619b 9dbe 495b 2ebb
000001e0: ddef 953d ec43 403e a18c de3d 037f af3c
000001f0: 776c d8bd 3da0 dabc e58c 7c3e bf49 47bd
00000200: 1713 8bbe 10e0 8c3e 81a0 2f3e b74f 04be
00000210: 3916 c93e 3028 183e 1b4c 7c3d 8f11 3f3d
00000220: 49a4 8c3e 4c4d a2bd 3265 733e 3961 433e
00000230: 72c5 b83d 5b71 1b3e 53bc 0bbe f2a2 3d3d
00000240: df32 0a3e 0ce1 243e 9310 46bb 0877 213e
00000250: b073 b73d ed2c ddbd 458a cb3d 39b5 053f
00000260: 509b 36be 5c47 b9be 630d 4ebe a1d3 5a3d
00000270: ab98 803e 5d02 b8bd e8a1 5fbd 3183 143e
00000280: 3bc6 cdbe b04b 26be 138b 7dbe 2001 f2bd
00000290: 4a8b a8be 9cb7 a63d 1255 713d fa6c 7b3e
000002a0: 19cf a63d b69a 3d3e e9f9 9bbd 3375 653e
000002b0: 4984 e6bd 9fd7 bcbc 33cd 4ebd d605 e4bb
000002c0: 8568 3dbb ee98 23be cc70 00be 58ca 52be
000002d0: 338b eb3d 9b23 7bbd ab4c 9c3e 7044 41be
000002e0: 0ce8 b2bc 5671 183e 9b5e c4bd 9a1a 183b
000002f0: f95c 133d e059 18be 1651 8fbe 8d50 9d3e
00000300: e050 e33d 9ccd 99be 03fa 8bbe d24b 9d3d
00000310: 7ff7 71be 68a0 283d 3c4d a73d d241 c1bd
00000320: 64f1 35be eb95 8ebe 9c43 913e ab32 373d
00000330: c9c2 35be f600 a5bd 326a 663c 162f 1f3d
00000340: d7e4 15be 0e45 2dbb 0dd5 963e 3251 1cbe
00000350: e5be 2ebe 64a5 213d 3b46 0a3e 6fc6 163d
00000360: 5294 c13c 8cb2 893e c680 61bc 41f5 33bd
00000370: 14d2 383d 6bf9 4fbe aafa 343e 3877 75bb
00000380: 2cdb 143d 8ae6 88be 1096 c4be a118 55be
00000390: d208 8dbb 4fbb 31be b29c cebd 6be3 3f3e
000003a0: d3ca 2e3e da3b 733d 99ec 04bd d07f 573d
000003b0: a4a3 923d f5bc a6bd 00ed 6abc 0bc9 db3d
000003c0: 3cf4 0f3b 86e7 513e 18b8 48be c3d3 19bd
000003d0: ab54 81bb 617e e93d 23ba e5bd eac3 2bbd
000003e0: 49d8 4cbd 5a40 f5bc 3233 0a3e 0aa6 e63d
000003f0: 86b1 c63e a03e 47bd 0a7a cabd 8596 40be

enc1.2.bias f4 [8]
-0.027586952 0.004226656 0.03346507 -0.0076990677 0.0011087622 0.030727874 0.02688213 0.0018622787
00000000: 08fe e1bc c37f 8a3b ab12 093d 7648 fcbb
00000010: e353 913a 06b9 fb3c ea37 dc3c b417 f43a

enc2.0.weight f4 [16, 8, 3, 3]
0.0114068175 -0.048184693 -0.009640196 -0.1163232 -0.2211969 0.09488078 0.059159193 -0.0943393
0.26613948 -0.00866414 0.04595498 -0.033524193 -0.21146415 0.058658574 -0.037076402 -0.07806787
-0.051934693 0.17999667 -0.025054475 0.109488405 -0.19710605 -0.05554073 -0.028049912 -0.1481617
0.08950856 0.2726261 0.10140638 -0.05063643 0.11177214 0.11904211 -0.016890662 -0.15634039
-0.013901129 -0.18184455 -0.15830043 -0.08543936 0.16355002 -0.055319 -0.18307619 -0.025154777
0.024390921 -0.045663346 -0.134786 -0.12312214 0.06686724 0.04935783 0.047756974 0.13751875
0.21765019 -0.03886824 0.14231257 0.17486273 -0.044259895 0.110549174 0.18506333 -0.056577045
-0.30244726 -0.17839177 0.20187058 -0.063784316 0.088089176 0.21079227 0.18957677 0.0034781033
-0.18314315 0.021227282 -0.016586961 -0.008888996 0.12022134 -0.10210614 -0.16344365 0.002612787
0.020195782 0.05748193 -0.01465633 -0.030021196 -0.041606188 -0.1177558 -0.086580545 -0.0012070711
0.11610775 -0.0498318 0.0047454755 0.30877778 0.011423935 -0.092241876 0.027303202 -0.063460834
-0.012845334 -0.085068665 0.027982779 0.0177548 0.14444807 0.09385698 0.03181768 0.061348688
-0.21654506 0.10935069 0.0049616112 -0.02853898 -0.08397675 0.1010112 -0.19833788 0.05997006
0.011627183 0.105697714 -0.24883097 0.031099083 0.15614118 -0.05965259 -0.025259193 -0.015900034
0.08283429 0.06479593 0.16516823 0.22775573 0.015909003 -0.055560637 -0.08316028 0.18664446
0.18163072 0.16320837 0.07109394 -0.13062416 0.09498196 0.1287413 0.21183659 0.008535183
0.0756977 0.04277146 0.19981553 -0.12400617 0.011768315 -0.04222259 0.19922456 -0.24926668
0.15572648 -0.19952357 -0.14936505 0.047666777 -0.0024438428 0.052839898 0.0023486665 -0.06518635
-0.06066759 -0.0077719707 -0.24769907 -0.030318188 0.012541283 0.15210882 0.21557425 -0.012714728
-0.20725642 -0.13822399 -0.10595736 -0.19964528 0.092700735 0.21050642 -0.06211496 0.010034851
-0.07765906 -0.1889948 0.14232387 0.055520695 -0.19023824 -0.08318297 0.122256644 0.14379962
-0.048154857 -0.13391772 0.07353848 0.1640473 -0.028230187 0.13052168 0.1454771 -0.011040561
-0.047563955 0.15543818 -0.056655724 -0.09861012 0.006406557 0.08693918 0.10057264 0.22142237
0.054585453 0.35393512 0.28637293 0.17893624 0.13552363 -0.10375507 0.15913579 -0.15867203
-0.09375742 -0.08040921 0.16733502 0.2139164 0.055384398 -0.107447445 0.04528203 0.0709971
-0.022144428 0.048354886 0.15085311 0.05912086 0.11000507 0.11443058 0.029567393 0.17329536
-0.15015826 0.03374664 0.18081288 -0.030387105 0.24703577 -0.20412366 0.02431321 -0.09898719
0.0018091425 0.06832042 0.1844497 -0.02598065 0.10308013 0.2958861 0.009227241 -0.04379347
-0.08492002 -0.2756455 -0.06566706 0.016736858 0.010969163 -0.1218974 0.03168622 0.09957029
-0.0039217784 0.0831845 0.08838088 -0.06511455 -0.14674015 -0.08597144 0.12888172 -0.14576094
0.034378845 0.02963632 0.01581758 -0.0018132684 -0.117113 0.24127144 0.012576449 -0.047719095
0.07042514 -0.11227686 0.20035239 0.099646 -0.23548655 -0.21024232 0.031644206 0.029153753
00000000: a9e3 3a3c 505d 45bd eaf1 1dbc dc3a eebd
00000010: 7181 62be db50 c23d e950 723d f734 c1bd
00000020: 6f43 883e 09f4 0dbc 4a3b 3c3d aa50 09bd
00000030: 0f8a 58be f943 703d 6ddd 17bd 0ce2 9fbd
00000040: 79b9 54bd 0c51 383e 0b3f cdbc 753b e03d
00000050: 2bd6 49be ad7e 63bd eec8 e5bc b3b7 17be
00000060: 4450 b73d a695 8b3e 26ae cf3d 2568 4fbd
00000070: cbe8 e43d 5acc f33d 495e 8abc b217 20be
00000080: 90c1 63bc 7535 3abe 8219 22be d5fa aebd
00000090: a879 273e 2d96 62bd 5378 3bbe 6411 cebc
000000a0: 78cf c73c 7d09 3bbd 5705 0abe 7627 fcbd
000000b0: b1f1 883d 702b 4a3d d19c 433d b7d1 0c3e
000000c0: b1df 5e3e 4e34 1fbd 63ba 113e 370f 333e
000000d0: dd49 35bd 9b67 e23d 3e81 3d3e 55bd 67bd
000000e0: 5eda 9abe 55ac 36be 29b7 4e3e 5aa1 82bd
000000f0: 1968 b43d eed9 573e 6a20 423e e4f0 633b
00000100: e189 3bbe d6e4 ad3c 61e1 87bc 27a3 11bc
00000110: 9b36 f63d 061d d1bd c65d 27be 4b3b 2b3b
00000120: a071 a53c 2c72 6b3d 1b21 70bc 03ef f5bc
00000130: 406b 2abd f429 f1bd 2451 b1bd 9636 9eba
00000140: e6c9 ed3d 6e1c 4cbd ef7f 9b3b 1f18 9e3e
00000150: 752b 3b3c 4fe9 bcbd f7aa df3c c1f7 81bd
00000160: 3c75 52bc 7b38 aebd 243c e53c 8472 913c
00000170: 32ea 133e 1738 c03d 4153 023d c348 7b3d
00000180: fdbd 5dbe 41f3 df3d 0395 a23b 94ca e9bc
00000190: 01fc abbd f6de ce3d 1619 4bbe 2aa3 753d
000001a0: f17f 3e3c 0b78 d83d 8ccd 7ebe 81c3 fe3c
000001b0: 79e3 1f3e 4656 74bd 5eec cebc ca40 82bc
000001c0: 06a5 a93d bbb3 843d dc21 293e cc38 693e
000001d0: 9953 823c 8d93 63bd f04f aabd ba1f 3f3e
000001e0: 67fd 393e 1820 273e b399 913d 57c2 05be
000001f0: e785 c23d c2d4 033e b1eb 583e 27d7 0b3c
00000200: 6507 9b3d 2031 2f3d 719c 4c3e f2f6 fdbd
00000210: e4cf 403c 98f1 2cbd 8601 4c3e c43f 7fbe
00000220: c376 1f3e e84f 4cbe 27f3 18be 3d3e 433d
00000230: e128 20bb a66e 583d 16ec 193b 6c80 85bd
00000240: 947e 78bd 04ac febb d3a4 7dbe d95d f8bc
00000250: f479 4d3c 6ac2 1b3e 7fbf 5c3e 6f51 50bc
00000260: 073b 54be 978a 0dbe 2c00 d9bd d06f 4cbe
00000270: e2d9 bd3d ff8e 573e 426c 7ebd 3769 243c
00000280: b70b 9fbd da87 41be 59bd 113e ab69 633d
00000290: d0cd 42be d55b aabd b161 fa3d 3540 133e
000002a0: 073e 45bd ba21 09be 589b 963d 04fc 273e
000002b0: fe42 e7bc 7aa7 053e f3f7 143e 78e3 34bc
000002c0: 6cd2 42bd 302b 1f3e d50f 68bd 1af4 c9bd
000002d0: 18ee d13b 2b0d b23d 07f9 cd3d 8cbc 623e
000002e0: ff94 5f3d fc36 b53e 799f 923e 103b 373e
000002f0: b5c6 0a3e 8a7d d4bd 7ef4 223e ec7a 22be
00000300: e403 c0bd 95ad a4bd df59 2b3e e70c 5b3e
00000310: c0da 623d 680d dcbd a679 393d ed66 913d
00000320: 3b68 b5bc c60f 463d 3d79 1a3e b728 723d
00000330: 574a e13d 945a ea3d 5137 f23c 5774 313e
00000340: 16c3 19be eb39 0a3d 0327 393e 61ee f8bc
00000350: f2f6 7c3e cb05 51be 7f2c c73c ccb9 cabd
00000360: c020 ed3a 94eb 8b3d 62e0 3c3e 5fd5 d4bc
00000370: ad1b d33d 627e 973e db2d 173c c860 33bd
00000380: 8cea adbd 6821 8dbe 747c 86bd bc1b 893c
00000390: 01b8 333c 58a5 f9bd 69c9 013d 82eb cb3d
000003a0: 4382 80bb a35c aa3d 0901 b53d c75a 85bd
000003b0: 0d43 16be cb11 b0bd 92f9 033e 5b42 15be
000003c0: d5d0 0c3d dec7 f23c df93 813c 31ab edba
000003d0: f1d8 efbd dc0f 773e 730d 4e3c 1975 43bd
000003e0: 0e3b 903d 69f1 e5bd 2d29 4d3e 3413 cc3d
000003f0: 6323 71be c349 57be 5b9d 013d dad3 ee3c

enc2.0.bias f4 [16]
0.028976453 0.033552576 -0.017179588 0.03762972 0.005278403 0.02962317 -0.0214 -0.02417997
0.026233561 0.013883929 0.030137835 0.033483285 0.029625252 0.029965868 0.012805465 0.027767805
00000000: 0760 ed3c 6d6e 093d 35bc 8cbc 9f21 1a3d
00000010: 74f6 ac3b 4aac f23c 0e4f afbc 1315 c6bc
00000020: c4e7 d63c 6b79 633c 9fe3 f63c c525 093d
00000030: a8b0 f23c fb7a f53c 03ce 513c 4f79 e33c

enc2.2.weight f4 [16, 16, 3, 3]
-0.0018571693 0.049151067 -0.018595316 -0.097226545 0.16318224 0.046875197 -0.052939314 -0.016825674
0.021144867 -0.12897801 0.23041096 -0.10922763 -0.1758478 0.045242697 0.19143896 -0.23467945
-0.02958245 -0.02445375 -0.09959605 -0.069356896 -0.14325163 -0.08399366 0.3150279 0.041984748
-0.032335617 0.13583708 -0.10226543 0.19352461 0.1511133 -0.029216278 0.15433235 0.1687513
-0.10773227 -0.06647602 -0.3018336 0.17192024 -0.035749614 -0.06467932 0.12987079 -0.1841488
-0.1293072 0.23378237 -0.09885985 -0.3972914 -0.0863073 0.016306795 -0.029127624 0.12561171
0.015501753 -0.0059203007 -0.111245476 -0.09196932 -0.25591102 -0.078277364 0.012978022 -0.039230984
-0.094748795 0.12233109 -0.13379635 0.1747748 0.048254922 0.11316826 0.04800545 0.059603788
0.10113726 0.077075474 -0.13902238 -0.021137863 -0.1450748 0.11070356 0.16186334 -0.007196968
0.25401795 0.009857259 0.17467076 -0.0909086 0.06211987 0.21871537 -0.012798452 -0.21658619
0.1868645 -0.22778729 -0.060173124 -0.22980055 0.13957265 0.13996907 0.09656372 -0.019429304
-0.20912872 0.18781434 -0.00810519 -0.14957406 0.10466936 -0.064068824 0.12412501 0.039260626
-0.2532057 0.05409884 0.17765512 0.10824404 -0.04997256 -0.0625519 -0.051183064 0.15453087
0.09523467 0.037092876 -0.02599115 0.055157114 -0.087519534 0.01770895 0.20458375 -0.21226305
-0.060243 -0.07463947 0.010078181 0.14427635 0.14709176 0.018364409 0.08503029 -0.14073016
0.14052673 0.1465787 -0.054270174 0.09459327 0.019361125 -0.055429645 0.15427302 -0.07380412
-0.10432359 -0.022992952 -0.080163546 0.048464093 -0.238383 0.05432753 -0.09526952 -0.13406147
0.030935545 0.14437005 -0.12776111 0.132015 -0.052698188 0.04793882 -0.063882284 0.08368591
0.024991589 0.06902742 0.10423898 -0.039127298 0.099352755 0.14321464 0.17346765 -0.10193447
0.17605194 0.17093691 0.09093675 0.0016609691 -0.2867262 0.11732818 -0.113907844 -0.0042137736
-0.08174285 -0.12699921 0.16188769 0.07976938 0.13511823 -0.2054808 -0.07256915 -0.042953353
-0.055824883 -0.05127122 -0.06905125 -0.1929592 -0.12801395 -0.08123728 0.127519 -0.014378765
-0.21655379 -0.0801562 -0.054681264 0.066820815 -0.013359609 0.054984428 0.10593863 0.01868217
0.07882811 0.21516596 0.17567286 0.13558389 0.01877471 -0.020270595 0.17651743 -0.094915785
-0.104896225 0.024271116 0.08169576 0.2023928 0.26212332 -0.008081459 -0.06367371 -0.0529303
-0.05173328 -0.14402527 0.11644148 0.12762931 -0.097417995 -0.08303464 0.17749146 0.101918586
-0.13588639 0.13133748 -0.004029217 0.020781493 -0.031902585 0.079067856 -0.08732856 -0.016347457
0.08320073 0.16205958 -0.17519177 0.017011179 0.3121582 0.14109884 -0.071891524 0.018846544
-0.024353916 0.2523429 -0.14669338 -0.05738387 -0.06467888 0.028018896 -0.042516354 -0.08085715
-0.33377555 -0.10375602 -0.024203567 -0.20996872 0.05684922 0.1550208 0.037132833 -0.29352787
-0.17744535 0.08294246 -0.050699998 0.086062714 -0.17122194 -0.08433183 0.06522889 -0.15512952
0.27599993 0.113027364 0.36321554 -0.07316416 0.020687673 0.024060734 -0.02479423 0.13457584
00000000: 436c f3ba a152 493d 3455 98bc b61e c7bd
00000010: 3f19 273e 3500 403d e5d6 58bd ffd5 89bc
00000020: 0038 ad3c d012 04be daf0 6b3e bcb2 dfbd
00000030: 7211 34be 6850 393d 9308 443e cf4f 70be
00000040: e556 f2bc 3b53 c8bc 04f9 cbbd fd0a 8ebd
00000050: 8eb0 12be de04 acbd 564b a13e 33f8 2b3d
00000060: 5a72 04bd e018 0b3e 8a70 d1bd 512b 463e
00000070: 72bd 1a3e fa56 efbc 4d09 1e3e 24cd 2c3e
00000080: bda2 dcbd 9424 88bd ef89 9abe dc0b 303e
00000090: 306e 12bd 9776 84bd d9fc 043e 8191 3cbe
000000a0: 1b69 04be a564 6f3e 0877 cabd c769 cbbe
000000b0: e2c1 b0bd d495 853c 0e9d eebc 5ba0 003e
000000c0: 11fb 7d3c 15ff c1bb abd4 e3bd 695a bcbd
000000d0: c506 83be e24f a0bd c5a1 543c abb0 20bd
000000e0: a80b c2bd b988 fa3d e901 09be 2af8 323e
000000f0: f4a6 453d c3c4 e73d 5da1 443d 1a23 743d
00000100: 0d21 cf3d bfd9 9d3d e25b 0ebe 5029 adbc
00000110: 7d8e 14be 8cb8 e23d 81bf 253e 8bd4 ebbb
00000120: a40e 823e 5780 213c e4dc 323e 4a2e babd
00000130: 6871 7e3d ecf6 5f3e 99b0 51bc c5c8 5dbe
00000140: 6859 3f3e 1241 69be 1878 76bd d650 6bbe
00000150: 22ec 0e3e 0d54 0f3e 33c3 c53d 342a 9fbc
00000160: d725 56be 6752 403e a1cb 04bc f129 19be
00000170: e45c d63d 8436 83bd 4135 fe3d c0cf 203d
00000180: 2da4 81be bf96 5d3d 39eb 353e 0daf dd3d
00000190: 07b0 4cbd 361b 80bd 55a5 51bd 573d 1e3e
000001a0: 650a c33d b3ee 173d 64eb d4bc 6dec 613d
000001b0: 713d b3bd 5c12 913c 677e 513e 7c5b 59be
000001c0: 5dc1 76bd 94dc 98bd f41e 253c 2ebd 133e
000001d0: 399f 163e f570 963c 5c24 ae3d 911b 10be
000001e0: 3de6 0f3e ba18 163e 674a 5ebd 1eba c13d
000001f0: 399b 9e3c 320a 63bd bff9 1d3e 9d26 97bd
00000200: 9ba7 d5bd b75b bcbc c92c a4bd 4982 463d
00000210: ac1a 74be 8b86 5e3d ab1c c3bd 6947 09be
00000220: 8a6c fd3c bed5 133e cfd3 02be f12e 073e
00000230: 0eda 57bd 7f5b 443d b7d4 82bd 8563 ab3d
00000240: 29bb cc3c 3f5e 8d3d 3f7b d53d f243 20bd
00000250: 7579 cb3d dca6 123e 81a1 313e 05c3 d0bd
00000260: f646 343e 160a 2f3e 0c3d ba3d e0b4 d93a
00000270: c7cd 92be c249 f03d 8448 e9bd b213 8abb
00000280: cc68 a7bd 150c 02be e3c5 253e 215e a33d
00000290: 6f5c 0a3e 8f69 52be 229f 94bd dbef 2fbd
000002a0: a2a8 64bd c501 52bd be6a 8dbd 1997 45be
000002b0: 1716 03be bb5f a6bd 5794 023e e994 6bbc
000002c0: 47c0 5dbe ef28 a4bd 76f9 5fbd 5ad9 883d
000002d0: 43e2 5abc 5a37 613d 5af6 d83d 5a0b 993c
000002e0: a270 a13d 7754 5c3e 96e3 333e 81d6 0a3e
000002f0: 6ccd 993c 850e a6bc fcc0 343e 3563 c2bd
00000300: d5d3 d6bd 38d4 c63c 1b50 a73d 0f40 4f3e
00000310: 0735 863e 1968 04bc 5d67 82bd 71cd 58bd
00000320: 47e6 53bd 5c7b 13be df78 ee3d 42b1 023e
00000330: 1683 c7bd 110e aabd 52c0 353e b1ba d03d
00000340: cd25 0bbe 557d 063e 8607 84bb f33d aa3c
00000350: 49ac 02bd 54ee a13d 51d9 b2bd 1aeb 85bc
00000360: 2565 aa3d f2f2 253e 7965 33be 075b 8b3c
00000370: 33d3 9f3e 377c 103e dd3b 93bd 1164 9a3c
00000380: dd81 c7bc 1733 813e ca36 16be 590b 6bbd
00000390: 5c76 84bd e287 e53c a125 2ebd 6f98 a5bd
000003a0: a1e4 aabe 097e d4bd 8f46 c6bc 0a02 57be
000003b0: bada 683d c6bd 1e3e 9918 183d 4949 96be
000003c0: 3cb4 35be bddd a93d cdaa 4fbd a641 b03d
000003d0: ce54 2fbe 2bb6 acbd b996 853d 46da 1ebe
000003e0: dd4f 8d3e e47a e73d 63f7 b93e 17d7 95bd
000003f0: 3279 a93c 041b c53c 451d cbbc 40ce 093e

enc2.2.bias f4 [16]
0.015880415 0.0294661 0.0028502636 0.012596504 0.032640453 0.028824018 -0.004483123 -0.006335941
0.045632057 0.031522535 0.011442414 0.005743914 0.020309145 -0.010954708 0.031798888 0.028084708
00000000: a517 823c e462 f13c 7dcb 3a3b 9161 4e3c
00000010: ffb1 053d 5920 ec3c 29e7 92bb ba9d cfbb
00000020: aee8 3a3d c61d 013d f678 3b3c 7137 bc3b
00000030: 5d5f a63c 607b 33bc 8d3f 023d e711 e63c

bottleneck.0.weight f4 [32, 16, 3, 3]
-0.09118702 0.05258172 0.0587659 0.021691475 0.09313161 -0.014601335 0.025834307 -0.010167757
-0.17696708 -0.022551605 -0.20356119 0.110890664 -0.01152127 0.06376253 0.13547668 -0.17008689
0.185108 0.048717767 0.051423352 0.109836034 0.08551543 -0.05257986 0.13639139 0.23279431
-0.042788044 -0.004507127 0.00041664124 0.05682281 -0.070245385 0.040076043 -0.05003451 -0.10542472
2.949025e-06 0.11840212 -0.01830274 -0.07726914 -0.08947898 -0.07003103 -0.0064373426 -0.061288264
0.052013043 -0.18238673 0.10066188 -0.12413805 0.112241134 -0.054070905 0.13507506 0.0070352685
-0.10857392 0.09210415 -0.072707884 0.12949583 0.10073328 -0.060539283 -0.012842392 0.20247641
-0.045413207 0.07245451 0.04989009 -0.112536065 -0.09458441 0.2513887 0.11629524 -0.050832875
0.04784909 -0.0357465 0.043782137 0.16391572 0.12408751 0.011118175 0.0069139106 -0.018895568
-0.12061477 0.0113166375 -0.12704164 -0.08758146 -0.07775783 -0.042677052 -0.11057478 0.024656896
0.1353726 -0.08026511 0.11692128 0.06551444 -0.027482769 0.071579546 0.15700491 -0.0978434
0.03425592 -0.0015768417 0.030656723 -0.039272383 -0.03767007 0.10695033 0.13544817 0.13979393
-0.036284633 0.07132522 -0.036244754 0.009250908 0.14402942 -0.06095073 -0.0075375685 0.10169769
0.0072241863 0.050257456 0.26746964 0.10419148 -0.027236924 0.028459396 -0.044746567 0.14084838
0.06422139 -0.08411501 -0.045604743 -0.03276522 -0.20121077 0.0855027 0.057556152 -0.16883986
0.13109583 -0.04674184 0.08853035 0.045446362 0.038558345 0.22084118 -0.035628308 0.04000546
-0.13515061 0.05557958 -0.038632974 -0.041067626 0.020564098 -0.10129088 -0.057988383 0.00014634196
0.16771561 0.035776485 0.050940476 0.05428025 0.042325366 0.09849916 0.055634093 0.053916585
-0.017272597 -0.12049675 0.08771473 0.013332083 0.035540994 -0.005424652 -0.02971724 -0.09420997
0.04916521 0.081665255 -0.053132214 0.031578384 0.06618152 0.003823688 -0.1644276 -0.041395985
-0.063271485 0.2519224 0.0097496 -0.12469209 -0.07427394 -0.072230265 -0.10348325 0.011562253
-0.052871 0.05474242 0.09395885 -0.09557281 -0.06827038 0.04557215 0.049796615 -0.053942263
0.022991722 0.044360604 0.031062083 0.09673386 0.04721603 0.010029535 0.09532258 0.124311954
0.08516066 0.06902718 0.05643143 -0.016186383 -0.07230934 -0.019944392 0.031715624 -0.046969283
-0.019922916 0.027871855 -0.03082496 0.03960417 -0.040895384 0.13723487 -0.095444284 -0.065708205
-0.14607072 0.021627933 0.04231964 -0.15204677 0.06562568 0.069420785 0.13269947 -0.16404429
-0.036238205 -0.21056451 0.098346815 0.218188 -0.05141727 0.046155866 0.02176849 -0.052726798
-0.07080532 0.14614223 -0.021392254 0.1275751 0.0015822878 0.058649223 -0.0387215 0.20984007
0.093601696 0.02140052 -0.016817966 -0.10603924 0.073485486 -0.10515837 -0.047174867 -0.21066824
0.10166384 -0.09527339 0.078676075 0.08305845 -0.09703751 0.15850782 -0.017032497 -0.14909084
0.047471657 -0.00035103565 0.11173849 -0.033313528 0.0010745747 0.16266997 0.13168757 -0.008350326
0.14094467 0.08037502 -0.018064352 0.1343084 0.076137125 0.13332723 -0.05616627 -0.08019661
00000000: 43c0 babd ee5f 573d 83b4 703d 52b2 b13c
00000010: c9bb be3d 703a 6fbc 78a2 d33c aa96 26bc
00000020: dc36 35be 25be b8bc 5872 50be a51a e33d
00000030: b5c3 3cbc ee95 823d 66ba 0a3e 422b 2ebe
00000040: f48c 3d3e 488c 473d 4ba1 523d b7f1 e03d
00000050: b722 af3d fb5d 57bd 2faa 0b3e a261 6e3e
00000060: 8442 2fbd 86b0 93bb a470 da39 09bf 683d
00000070: d0dc 8fbd c726 243d fdf0 4cbd eae8 d7bd
00000080: dde7 4536 d07c f23d a1ef 95bc 483f 9ebd
00000090: c140 b7bd 6e6c 8fbd 58f0 d2bb 6709 7bbd
000000a0: a10b 553d 96c3 3abe d127 ce3d 173c febd
000000b0: aede e53d 7479 5dbd 1e51 0a3e 1c88 e63b
000000c0: 015c debd 1aa1 bc3d dfe7 94bd 8e9a 043e
000000d0: 404d ce3d 0af8 77bd e568 52bc fa55 4f3e
000000e0: 3303 3abd 0863 943d 8d59 4c3d 4f79 e6bd
000000f0: 79b5 c1bd 05b6 803e 332c ee3d 2236 50bd
00000100: 68fd 433d ec6a 12bd e654 333d 86d9 273e
00000110: 9821 fe3d 0229 363c 168e e23b e1ca 9abc
00000120: e004 f7bd 6b69 393c 3417 02be e95d b3bd
00000130: 7f3f 9fbd 22ce 2ebd 0875 e2bd 42fd c93c
00000140: 1d9f 0a3e 0962 a4bd 6d74 ef3d 6f2c 863d
00000150: 8b23 e1bc 4c98 923d e5c5 203e 1f62 c8bd
00000160: f04f 0c3d 07ae ceba cf23 fb3c 14dc 20bd
00000170: ee4b 1abd c608 db3d edb2 0a3e 2426 0f3e
00000180: 329f 14bd f512 923d 6175 14bd 1f91 173c
00000190: 737c 133e 79a7 79bd b5fd f6bb e146 d03d
000001a0: deb8 ec3b c3da 4d3d c8f1 883e 5862 d53d
000001b0: f81f dfbc ae23 e93c 2d48 37bd 8f3a 103e
000001c0: 8186 833d 7e44 acbd 0acc 3abd d334 06bd
000001d0: 320a 4ebe 0a1c af3d 00c0 6b3d 5be4 2cbe
000001e0: fc3d 063e 5f74 3fbd 664f b53d f725 3a3d
000001f0: 5bef 1d3d 3124 623e fdee 11bd c4dc 233d
00000200: ec64 0abe 6aa7 633d 9c3d 1ebd 8736 28bd
00000210: 0a76 a83c 9871 cfbd 3a85 6dbd 5f73 1939
00000220: a4bd 2b3e 5d8a 123d f6a6 503d f854 5e3d
00000230: 5d5d 2d3d edb9 c93d 93e0 633d a3d7 5c3d
00000240: 437f 8dbc 00c7 f6bd c8a3 b33d cf6e 5a3c
00000250: 6f93 113d 47c1 b1bb 9271 f3bc 28f1 c0bd
00000260: 7661 493d 1d40 a73d 2aa1 59bd 5658 013d
00000270: 2d8a 873d d796 7a3b b55f 28be d68e 29bd
00000280: 7b94 81bd f9fb 803e c9bc 1f3c 915e ffbd
00000290: ef1c 98bd 76ed 93bd 07ef d3bd 9b6f 3d3c
000002a0: 438f 58bd 9639 603d 7f6d c03d adbb c3bd
000002b0: 57d1 8bbd dda9 3a3d 89f7 4b3d 90f2 5cbd
000002c0: 2359 bc3c 77b3 353d e975 fe3c 671c c63d
000002d0: 9965 413d eb52 243c 7c38 c33d 4497 fe3d
000002e0: b668 ae3d 1f5e 8d3d a524 673d 4e99 84bc
000002f0: eb16 94bd 6c62 a3bc 3ee8 013d dd62 40bd
00000300: 6235 a3bc 8453 e43c a084 fcbc fb37 223d
00000310: eb81 27bd 4c87 0c3e 4b78 c3bd 0692 86bd
00000320: 9093 15be 102d b13c 5c57 2d3d 26b2 1bbe
00000330: c266 863d 7c2c 8e3d 5fe2 073e 3afb 27be
00000340: 836e 14bd 399e 57be 0e6a c93d ad6c 5f3e
00000350: ea9a 52bd ef0d 3d3d d553 b23c 0ef8 57bd
00000360: 6102 91bd 4fa6 153e cf3e afbc 0ca3 023e
00000370: c564 cf3a 2b3a 703d 709a 1ebd 51e0 563e
00000380: 3fb2 bf3d 2550 af3c d5c5 89bc 1a2b d9bd
00000390: 8f7f 963d 465d d7bd 6f3a 41bd 6ab9 57be
000003a0: 2235 d03d b21e c3bd ec20 a13d 8c1a aa3d
000003b0: 9abb c6bd e04f 223e bc87 8bbc 45ab 18be
000003c0: a471 423d 350b b8b9 26d7 e43d c473 08bd
000003d0: bed8 8c3a f592 263e 1bd9 063e cecf 08bc
000003e0: cd53 103e a99b a43d b1fb 93bc 2488 093e
000003f0: c8ed 9b3d ef86 083e 9a0e 66bd 1f3e a4bd

bottleneck.0.bias f4 [32]
-0.029215457 0.027684193 0.029642856 0.0329293 0.029126257 0.02251884 0.012964544 -0.0038146295
0.028592335 -0.010451599 0.015618911 0.037451297 -0.008865504 0.025041811 -0.0009795886 0.031247515
0.03392036 0.0138993235 0.026705625 0.050097138 0.012629673 0.04897469 0.02462984 -0.012717681
0.032683387 0.02216932 -0.028944165 0.014654562 0.015081128 0.027592722 0.022243917 0.032493968
00000000: 4155 efbc f6c9 e23c 93d5 f23c e0e0 063d
00000010: 309a ee3c 6e79 b83c 3d69 543c ddfe 79bb
00000020: 793a ea3c 2f3d 2bbc 76e6 7f3c 8866 193d
00000030: 9e40 11bc 7c24 cd3c 8a65 80ba cafa ff3c
00000040: 13f0 0a3d fdb9 633c c1c5 da3c a832 4d3d
00000050: b0ec 4e3c af99 483d 85c4 c93c d25d 50bc
00000060: 04df 053d 6f9c b53c 501c edbc b019 703c
00000070: d616 773c 220a e23c e038 b63c 6518 053d

bottleneck.2.weight f4 [32, 32, 3, 3]
0.007960624 0.0066201366 -0.18781011 -0.101824544 -0.17840843 -0.0033753994 -0.0662718 -0.11812051
-0.020467479 0.00895203 -0.18648729 -0.039914798 0.015133788 0.110504664 0.06775933 0.07657532
-0.03539534 -0.0156773 -0.047388297 0.22205095 0.03474453 -0.09473386 0.07007311 -0.027705936
0.0945125 -0.074500345 0.10796155 -0.02269269 0.09380181 0.016628802 0.0026600058 0.1638491
0.08878307 0.053151093 0.1087733 0.033594906 0.042617537 -0.010342046 0.058749434 0.018023977
-0.07308079 0.15124488 -0.010075569 0.03669101 -0.13591345 -0.16844708 -0.14895195 -0.07323235
0.11462037 0.06649112 0.13145038 -0.07438664 -0.075150564 0.066410065 0.08256056 0.03217793
0.011558872 0.012888304 0.0026669432 0.078681596 -0.063348025 -0.05462575 -0.051189356 0.011794986
0.015583599 0.13985206 0.039547786 0.08094986 0.033458058 -0.041278288 0.025901148 0.07089818
-0.17137815 0.019901028 -0.09376884 0.07579907 0.0050632968 0.05056016 0.06687112 -0.066548996
0.045218 0.0032704296 0.02110005 0.0007451388 -0.049005028 0.040951286 -0.0522435 -0.0055733197
-0.20247552 -0.08770161 -0.020429926 0.025880499 -0.0352039 -0.08082141 0.123452716 0.074148014
0.019645834 0.059826598 0.038011737 0.029309096 0.07018462 0.12653653 0.1399714 0.18171968
-0.016846795 0.10603574 -0.10532122 0.054307397 -0.014983992 -0.034724634 -0.03693209 -0.003797557
-0.058357023 -0.06742658 -0.12720397 -0.07465678 -0.13040218 -0.023001801 0.06629768 -0.11744534
-0.07528317 0.021687197 0.04749066 -0.20279464 0.0075979023 0.086944595 0.11719318 0.04797667
-0.058487408 0.14504962 0.15192956 -0.12781285 -0.07341479 0.1377161 0.08641568 -0.051829893
0.085092776 0.0148723805 -0.09651512 0.031412996 0.027585763 0.08622407 -0.08025542 0.09838175
0.19942732 -0.1496576 -0.02943471 -0.05084024 0.049377244 0.015862357 -0.10784722 0.050157826
-0.036365096 -0.01985619 -0.042299576 0.12689263 0.02980761 -0.03729061 0.02913235 0.039198738
0.136525 -0.051642485 -0.0107807405 -0.10790722 -0.0991292 -0.19906849 0.028392304 -0.08580582
0.01729501 0.18325646 -0.009513046 -0.020585608 -0.0077643176 -0.1306821 0.048177853 0.066287346
-0.13850188 -0.041130386 0.075718194 0.10648703 -0.018002866 -0.1203009 0.117970884 -0.10807897
-0.045084123 -0.079453595 -0.07512192 0.08098196 0.1338496 -0.22274902 -0.011406625 0.021565862
-0.042735916 -0.0010815593 0.027240977 -0.16899553 0.09568037 0.01595942 0.04882498 -0.0756573
0.056445833 -0.007165378 0.035022642 0.18226852 0.042490587 -0.11640361 0.038637616 0.04851764
0.05779782 -0.09802504 0.020356651 -0.16734879 -0.0066942633 -0.054351505 -0.0030914675 -0.12846497
0.010993813 0.017578289 0.019622648 0.049345963 -0.030796878 0.112262785 0.016726382 0.05659164
0.033833005 -0.09944782 -0.060340766 0.01378215 -0.063204855 -0.11126378 0.10585805 0.060666047
-0.048729207 0.0577169 0.06274864 -0.13868462 -0.033438835 0.17370664 -0.12948482 -0.071076944
0.043655146 -0.015481695 -0.07662458 0.07109182 0.07740568 0.061162647 0.023422364 0.064174995
0.15967247 -0.08212641 -0.012583358 0.04427736 0.1523549 0.24632913 0.29434097 -0.02063209
00000000: 476d 023c bbed d83b 4b51 40be 6389 d0bd
00000010: b3b0 36be ce35 5dbb 82b9 87bd 2ae9 f1bd
00000020: 6aab a7bc 89ab 123c 86f6 3ebe b37d 23bd
00000030: b5f3 773c 4550 e23d 67c5 8a3d 85d3 9c3d
00000040: b4fa 10bd ae6d 80bc 3b1a 42bd 5361 633e
00000050: 4850 0e3d d303 c2bd 7e82 8f3d 8ff7 e2bc
00000060: c58f c13d a393 98bd f21a dd3d 05e6 b9bc
00000070: 2a1b c03d 2039 883c 7e53 2e3b 0fc8 273e
00000080: e6d3 b53d f6b4 593d 89c4 de3d d09a 093d
00000090: ba8f 2e3d af71 29bc 3fa3 703d 05a7 933c
000000a0: 62ab 95bd f0df 1a3e 0014 25bc 5049 163d
000000b0: e52c 0bbe 647d 2cbe dc86 18be d8fa 95bd
000000c0: 16be ea3d 7f2c 883d ee9a 063e 0658 98bd
000000d0: 8ae8 99bd 0002 883d 8315 a93d 01cd 033d
000000e0: 6c61 3d3c 7729 533c e2c7 2e3b d123 a13d
000000f0: 9cbc 81bd 40bf 5fbd eeab 51bd c23f 413c
00000100: 5a52 7f3c 6135 0f3e dcfc 213d 0ac9 a53d
00000110: 510b 093d 6c13 29bd a52e d43c 1133 913d
00000120: c17d 2fbe 7b07 a33c e109 c0bd 8b3c 9b3d
00000130: 03ea a53b 2c18 4f3d baf3 883d d74a 88bd
00000140: 8236 393d b454 563b 03da ac3c 6b55 433a
00000150: 7fb9 48bd 89bc 273d 48fd 55bd 65a0 b6bb
00000160: be55 4fbe e79c b3bd a95c a7bc 5703 d43c
00000170: f731 10bd b285 a5bd c7d4 fc3d eada 973d
00000180: 4df0 a03c bc0c 753d 32b2 1b3d a119 f03c
00000190: f4bc 8f3d cb92 013e aa54 0f3e b914 3a3e
000001a0: 4a02 8abc 4429 d93d a7b2 d7bd 6f71 5e3d
000001b0: 6b7f 75bc 6b3b 0ebd 1a46 17bd 6fe0 78bb
000001c0: c607 6fbd f216 8abd c241 02be a7e5 98bd
000001d0: 2688 05be 466e bcbc 14c7 873d 2f87 f0bd
000001e0: 102e 9abd 59a9 b13c 9185 423d 66a9 4fbe
000001f0: d3f7 f83b 0210 b23d fa02 f03d 2f83 443d
00000200: 7e90 6fbd e387 143e 6c93 1b3e 5fe1 02be
00000210: 7e5a 96bd 7305 0d3e b4fa b03d 954b 54bd
00000220: 1f45 ae3d 49ab 733c b8a9 c5bd eaaa 003d
00000230: 8afb e13c 3f96 b03d f45c a4bd 5f7c c93d
00000240: ad36 4c3e d83f 19be 1021 f1bc db3d 50bd
00000250: cb3f 4a3d c6f1 813c 01df dcbd 4b72 4d3d
00000260: 91f3 14bd 73a9 a2bc 5242 2dbd 24f0 013e
00000270: 172f f43c 0abe 18bd f7a6 ee3c db8e 203d
00000280: 36cd 0b3e 1287 53bd b4a1 30bc 76fe dcbd
00000290: 4004 cbbd 9cd8 4bbe fa96 e83c f6ba afbd
000002a0: 44ae 8d3c 95a7 3b3e 9bdc 1bbc 26a3 a8bc
000002b0: d16b febb 87d1 05be 2456 453d a9c1 873d
000002c0: 70d3 0dbe 5678 28bd 2412 9b3d df15 da3d
000002d0: bf7a 93bc 5160 f6bd b89a f13d 8258 ddbd
000002e0: 21aa 38bd 91b8 a2bd 85d9 99bd dfd9 a53d
000002f0: df0f 093e 5218 64be dae2 3abc e4aa b03c
00000300: db0b 2fbd 1cc3 8dba 7828 df3c 2a0d 2dbe
00000310: 12f4 c33d 54bd 823c b4fc 473d 37f2 9abd
00000320: bf33 673d 8ccb eabb e773 0f3d 99a4 3a3e
00000330: 9c0a 2e3d 0465 eebd 7a42 1e3d 6fba 463d
00000340: 68bd 6c3d 5ac1 c8bd fec2 a63c 7b5d 2bbe
00000350: 8d5b dbbb af9f 5ebd 389a 4abb 528c 03be
00000360: 651f 343c 5800 903c adbf a03c fe1e 4a3d
00000370: bc49 fcbc 08ea e53d c405 893c a3cc 673d
00000380: 7a94 0a3d 4cab cbbd e127 77bd 87ce 613c
00000390: 8c71 81bd 44de e3bd 1bcc d83d f67c 783d
000003a0: 4798 47bd 8e68 6c3d 5c82 803d 5703 0ebe
000003b0: 29f7 08bd 27e0 313e ab97 04be ca90 91bd
000003c0: bdcf 323d efa6 7dbc 59ed 9cbd 9798 913d
000003d0: df86 9e3d af85 7a3d 42e0 bf3c 2e6e 833d
000003e0: 2e81 233e e431 a8bd 6e2a 4ebc 2d5c 353d
000003f0: ec02 1c3e b43d 7c3e dcb3 963e a104 a9bc

bottleneck.2.bias f4 [32]
0.029562235 0.041051146 0.030419327 -0.01421906 -0.0087970635 -0.01440868 0.027846795 -0.0148110315
0.033297572 0.008642546 0.03537149 -0.031835712 -0.034946486 0.028901434 -0.013303915 0.027656414
0.015314791 -0.008397501 0.03244251 -0.004184257 0.03166987 -0.0034733994 -0.040177863 -0.007348124
0.026258959 0.031793244 -0.028575003 0.025631176 0.017344985 -0.014759885 0.027723871 0.0029356775
00000000: 802c f23c 3f25 283d f431 f93c 0ff7 68bc
00000010: 8f21 10bc 6212 6cbc f61e e43c f8a9 72bc
00000020: 0963 083d 7799 0d3c b2e1 103d 2a66 02bd
00000030: 0c24 0fbd b3c2 ec3c aaf8 59bc b48f e23c
00000040: e4ea 7a3c ac95 09bc 70e2 043d 171c 89bb
00000050: 44b8 013d f9a1 63bb 8b91 24bd 88c8 f0bb
00000060: 071d d73c a239 023d 2016 eabc 79f8 d13c
00000070: 1217 8e3c 72d3 71bc 2c1d e33c 7f64 403b

up1.weight f4 [32, 16, 2, 2]
0.07296913 0.061000805 -0.2604132 -0.025462434 -0.1096307 0.11956055 0.07792813 0.30541137
-0.18840566 -0.08249376 0.10095437 0.01805114 -0.0905304 0.07196734 0.111257754 -0.08936364
0.0037078995 0.29823813 0.07694379 -0.08083076 0.040265407 -0.16142684 0.019935066 -0.09047446
0.13209055 0.1161751 -0.04052023 -0.091508746 0.033695348 -0.20173612 0.23296574 0.08053602
-0.22166769 0.11445395 -0.21986653 -0.0864439 0.047284108 -0.05611951 0.18579315 0.20168361
-0.11524009 0.19474196 0.079096116 0.13335872 -0.0023411284 0.10638893 -0.092074834 -0.018932926
0.09115887 -0.2708364 -0.029890629 0.07696848 0.030149937 -0.060475826 0.28120354 0.15258622
-0.119172364 -0.2355838 0.06373635 -0.038584623 0.00621817 0.22645147 -0.09448509 0.05052234
-0.1364509 -0.1507444 0.07818201 -0.08930847 -0.24417672 -0.16502288 -0.2200075 0.005686319
0.2902411 0.1010876 -0.052282415 -0.09463498 0.102142066 0.012621064 0.16124639 -0.06927546
-0.17655301 -0.14279057 -0.043613985 -0.26974252 0.007729749 -0.03652136 0.046653643 0.059878476
-0.12661745 -0.013857196 -0.14514676 -0.40057442 0.10073457 0.11330606 -0.21872473 -0.11123673
-0.1951117 -0.03574294 -0.27612922 0.10897873 0.039062604 0.14957352 0.0843971 0.035377793
0.026127657 -0.11652975 -0.009204362 0.12212021 -0.14274885 -0.010588381 0.24581155 0.07384936
-0.07488374 0.12021717 0.07561418 0.13280292 0.09785632 0.030933423 0.20060216 -0.07235015
0.0688879 0.16708413 -0.057418786 -0.10123354 -0.17366707 -0.116559446 -0.23401408 -0.04392145
-0.03381785 -0.066576175 -0.12646244 0.24978094 0.0055784173 -0.012984422 -0.1496557 -0.04175107
0.04199265 0.06836009 0.21796606 0.25095657 0.1038103 0.075050965 0.31567043 -0.021800956
-0.053452216 -0.01768222 -0.22267467 -0.20193434 -0.013931592 0.039118376 -0.07534276 -0.029071247
0.040805925 0.13834704 -0.043839596 -0.14948 -0.40420076 -0.040279407 -0.058635764 -0.0055559506
0.18963967 -0.0057266545 -0.15554994 0.3555959 0.10367729 0.11376805 0.18942161 -0.06642031
0.0371152 -0.014430717 0.038924985 -0.06493292 0.050961085 -0.08043173 0.08942198 -0.10584214
-0.027430078 0.020408731 -0.059596594 0.23056863 -0.03487559 -0.021146813 -0.00039982793 0.27172932
-0.096248925 0.14981474 -0.049540415 -0.13187805 0.113943644 -0.10715509 -0.03589189 -0.14336571
-0.09037355 0.0482092 0.035862137 0.10342666 0.108555436 0.14045624 -0.27782172 0.08405395
-0.1495455 -0.1811517 -0.052260928 0.094338134 -0.2945241 -0.0035157183 0.066024 0.16328253
0.08107953 -0.10837724 0.12930611 -0.057510182 -0.012199005 -0.01497572 0.07976552 0.09544517
-0.031156294 -0.0076332944 0.36058104 0.026081488 -0.026634531 0.124576814 0.021780906 -0.06116317
-0.004980699 -0.018706132 0.028364288 -0.059416924 0.088808134 -0.20639534 0.05693113 0.21914384
-0.09961143 -0.036101244 0.14069884 -0.1967853 0.030326813 -0.15923506 0.07581017 0.07939497
-0.024221959 0.10772132 0.12112431 -0.13245279 0.12790845 -0.02655597 0.13167569 -0.13916743
0.24135327 -0.058596767 0.12251082 -0.056719523 -0.15672846 0.08128488 0.08418237 0.028706672
00000000: d770 953d fbdb 793d e154 85be 9896 d0bc
00000010: 0f86 e0bd 29dc f43d c998 9f3d e15e 9c3e
00000020: 6aed 40be 7df2 a8bd 2ac1 ce3d fcdf 933c
00000030: 0168 b9bd 9d63 933d 1bdb e33d 4904 b7bd
00000040: 3b00 733b abb2 983e b594 9d3d 998a a5bd
00000050: 57ed 243d 144d 25be dd4e a33c ac4a b9bd
00000060: bf42 073e 36ed ed3d 8af8 25bd f068 bbbd
00000070: 2204 0a3d ea93 4ebe 928e 6e3e 12f0 a43d
00000080: dbfc 62be d566 ea3d b124 61be 8009 b1bd
00000090: fbac 413d 92dd 65bd 8f40 3e3e 2686 4e3e
000000a0: ff02 ecbd 706a 473e 25fd a13d 308f 083e
000000b0: 9e6d 19bb 70e2 d93d bb91 bcbd 3919 9bbc
000000c0: 80b1 ba3d 12ab 8abe 31dd f4bc a7a1 9d3d
000000d0: 00fd f63c 80b5 77bd e9f9 8f3e 903f 1c3e
000000e0: a410 f4bd e13c 71be 3488 823d e90a 1ebd
000000f0: cac1 cb3b e5e2 673e 6681 c1bd 83f0 4e3d
00000100: c9b9 0bbe bd5c 1abe e41d a03d 5ce7 b6bd
00000110: 7609 7abe c2fb 28be a549 61be 4d54 ba3b
00000120: 7b9a 943e 0407 cf3d 1626 56bd fccf c1bd
00000130: dc2f d13d 94c8 4e3c c61d 253e 4be0 8dbd
00000140: 50ca 34be b137 12be 94a4 32bd b11b 8abe
00000150: d649 fd3b 6c97 15bd e417 3f3d 2243 753d
00000160: 01a8 01be 4b09 63bc 5aa1 14be 1718 cdbe
00000170: ed4d ce3d 020d e83d 60f9 5fbe 15d0 e3bd
00000180: 5dcb 47be 3067 12bd cf60 8dbe 3e30 df3d
00000190: 1c00 203d cd29 193e 63d8 ac3d 4ee8 103d
000001a0: ab09 d63c 26a7 eebd e4cd 16bc 291a fa3d
000001b0: c12c 12be e47a 2dbc 06b6 7b3e 553e 973d
000001c0: a55c 99bd 6b34 f63d 9bdb 9a3d 7dfd 073e
000001d0: e568 c83d 1768 fd3c a76a 4d3e 512c 94bd
000001e0: 1915 8d3d 1a18 2b3e f62f 6bbd 8853 cfbd
000001f0: c8d5 31be b8b6 eebd 63a1 6fbe fae6 33bd
00000200: 9684 0abd 1759 88bd 5f7f 01be 93c6 7f3e
00000210: 28cb b63b 9dbc 54bc 583f 19be 2c03 2bbd
00000220: 7c00 2c3d 6000 8c3d 7f32 5f3e 617d 803e
00000230: 7f9a d43d 52b4 993d 8e9f a13e eb97 b2bc
00000240: b6f0 5abd 4eda 90bc d404 64be e0c7 4ebe
00000250: 5541 64bc 973a 203d 4e4d 9abd d326 eebc
00000260: 1d24 273d d9aa 0d3e 2691 33bd 4911 19be
00000270: 67f3 cebe 05fc 24bd 0e2c 70bd b10e b6bb
00000280: e730 423e a9a6 bbbb 7c48 1fbe aa10 b63e
00000290: c254 d43d 39ff e83d bdf7 413e 5f07 88bd
000002a0: 1c06 183d d06e 6cbc ce6f 1f3d 8dfb 84bd
000002b0: 92bc 503d 64b9 a4bd df22 b73d c4c3 d8bd
000002c0: 0bb5 e0bc 3630 a73c 8f1b 74bd 2f1a 6c3e
000002d0: b5d9 0ebd 153c adbc ff9f d1b9 1b20 8b3e
000002e0: 281e c5bd 0969 193e e4ea 4abd 0a0b 07be
000002f0: 495b e93d 2174 dbbd 6003 13bd 76ce 12be
00000300: c515 b9bd 0377 453d 2de4 123d 5bd1 d33d
00000310: 5052 de3d c3d3 0f3e a63e 8ebe 7a24 ac3d
00000320: 7522 19be d57f 39be 8e0f 56bd 5a34 c13d
00000330: ddcb 96be f767 66bb 9737 873d 8933 273e
00000340: 060d a63d e3f4 ddbd d268 043e cc8f 6bbd
00000350: 56de 47bc b95c 75bc 1b5c a33d c278 c33d
00000360: 7c3b ffbc b720 fabb 149e b83e d8a8 d53c
00000370: a930 dabc 2122 ff3d df6d b23c 3b86 7abd
00000380: 2235 a3bb 9a3d 99bc 395c e83c 295f 73bd
00000390: 0ae1 b53d 4d59 53be 9e30 693d 3e67 603e
000003a0: 1401 ccbd e6de 13bd 5b13 103e 1682 49be
000003b0: f06f f83c 840e 23be 5d42 9b3d d499 a23d
000003c0: 216d c6bc ff9c dc3d 0610 f83d b4a1 07be
000003d0: 6ffa 023e e88b d9bc fed5 063e e881 0ebe
000003e0: 5025 773e 2a03 70bd f4e6 fa3d bb52 68bd
000003f0: 6d7d 20be b078 a63d ce67 ac3d 412a eb3c

up1.bias f4 [16]
0.026637929 -0.032482117 0.027652698 -0.016511211 -0.026382709 -0.027702281 -0.0314975 -0.023874668
-0.02348843 0.024492146 -0.024466375 0.027967544 0.028956488 0.026352854 -0.024069466 -0.027167944
00000000: c937 da3c f80b 05bd e987 e23c 8542 87bc
00000010: 8d20 d8bc e5ef e2bc 8603 01bd cf94 c3bc
00000020: cf6a c0bc c1a3 c83c b56d c8bc 311c e53c
00000030: 2836 ed3c f1e1 d73c 542d c5bc 4f8f debc

dec1.0.weight f4 [16, 32, 3, 3]
0.099129975 0.110746264 0.087704055 0.06665411 0.10390285 -0.08520469 0.079869464 0.13765548
-0.21432215 0.029173866 -0.08487576 -0.003776073 -0.20747729 0.07352849 0.17888293 -0.077948526
0.04287081 0.057708424 0.022916006 -0.11840456 0.15395099 0.073516056 0.031225422 0.060968753
-0.11599907 0.00017236953 0.26788244 -0.069053 0.028013261 -0.19171342 -0.2316322 -0.00079295656
-0.12608758 -0.0918769 0.053681217 0.08996591 -0.0032070365 0.19709864 -0.017437987 -0.015132189
-0.06437509 0.023460768 -0.0358733 -0.08657664 0.21107315 -0.0019943493 0.124614 0.11940798
0.07713616 0.10525907 0.07325894 0.009965975 0.064052425 0.031506304 -0.15902705 0.091088004
-0.03313015 -0.15013151 0.10178306 0.0036408224 0.2164417 0.15372291 -0.12502538 -0.08798567
-0.12056628 -0.25623205 -0.25498268 0.0005256781 -0.02450798 -0.19699007 -0.05796022 -0.23275006
-0.066781774 -0.050069023 0.15400553 0.1214218 0.086326815 0.12816116 -0.22909167 -0.0713211
0.0307957 0.20855258 0.19429307 0.051757816 -0.051997963 0.083400935 -0.027309077 0.005666436
-0.007585225 0.11069756 0.10948901 -0.047892917 -0.08354293 0.16915627 -0.15265355 0.10976782
-0.094593644 -0.02233704 -0.10761999 -0.062062003 -0.05847036 0.31858173 -0.1351729 0.16094996
0.005246521 0.26124445 -0.08316462 0.0037300987 -0.0161008 -0.09456416 -0.17924729 -0.0044086943
0.0017152529 0.09656685 0.016650751 0.06081631 -0.10644773 0.032422483 -0.2826935 -0.039121408
0.0068119913 -0.024414921 -0.011344181 -0.2020394 0.022874428 0.095189266 -0.024050998 0.0035872005
0.059927598 -0.20287107 -0.04014213 0.02635731 0.155296 0.04388584 0.0025104347 0.13170892
-0.20105895 -0.06455458 0.047534574 -0.0100968 -0.02664841 0.014411493 0.36801276 0.0871787
-0.007973824 0.11020893 -0.040732875 -0.027231367 0.016905356 -0.059441492 0.077149406 0.056508165
-0.15091626 0.052746594 -0.16809615 0.10481068 -0.064213865 -0.109116405 0.11687844 0.087366655
-0.05148363 -0.04567139 0.027016098 0.18460229 0.0815855 0.069264546 0.25276116 0.17060141
0.026256854 -0.014860258 -0.03698798 -0.044359963 0.07113315 -0.0074078813 0.01475302 0.102535546
0.017254695 -0.2653795 0.07459844 -0.086684674 0.10229721 -0.06919631 -0.032387473 0.080208525
0.04783808 0.22219306 -0.08878772 -0.06817393 -0.2234863 -0.107572764 -0.24015355 0.052048836
-0.044550303 -0.003382123 -0.115329295 0.28551927 -0.038397208 -0.057561547 -0.069168866 -0.19394608
-0.17688823 -0.010631131 -0.1283387 -0.06955606 -0.03666961 0.12423022 0.04209406 -0.10933472
-0.13838479 -0.1528146 -0.1623964 0.15711021 -0.11240421 -0.02974871 0.15579286 0.04721691
-0.14302258 -0.06593325 -0.11660461 0.025076615 -0.13155843 0.14501616 -0.09285281 -0.037484705
-0.015104493 -0.16623029 -0.024772478 0.29175037 0.17038077 0.095591836 0.009221103 0.01074208
0.13320631 0.04418003 -0.32562676 -0.08079825 0.15755004 -0.17526999 0.0316858 -0.044079933
0.11509321 -0.27893448 0.051385127 -0.23746344 0.041476723 0.06674113 0.055972476 -0.113051936
-0.07982727 0.09818004 0.0039152396 -0.011664265 -0.08481777 0.067682825 0.026395729 -0.13852987
00000000: a804 cb3d f0ce e23d 2f9e b33d f381 883d
00000010: 04cb d43d cc7f aebd 9a92 a33d 8ff5 0c3e
00000020: 4477 5bbe 08fe ee3c 58d3 adbd fe77 77bb
00000030: ed74 54be 1b96 963d 162d 373e 7aa3 9fbd
00000040: 4d99 2f3d ab5f 6c3d 59ba bb3c 177e f2bd
00000050: 54a5 1d3e 968f 963d 75cc ff3c 5fba 793d
00000060: ec90 edbd 18be 3439 e327 893e a96b 8dbd
00000070: 117c e53c 8650 44be fe30 6dbe 6ade 4fba
00000080: 1a1d 01be f529 bcbd d6e0 5b3d 0c40 b83d
00000090: 252d 52bb 3ad4 493e 1cda 8ebc 00ed 77bc
000000a0: 16d7 83bd cc30 c03c e2ef 12bd 184f b1bd
000000b0: 8f23 583e a1b3 02bb a035 ff3d 2c8c f43d
000000c0: 90f9 9d3d 1192 d73d c808 963d 5448 233c
000000d0: eb2d 833d c10c 013d fdd7 22be 598c ba3d
000000e0: 7bb3 07bd 13bc 19be a373 d03d dd9a 6e3b
000000f0: e5a2 5d3e 8a69 1d3e a706 00be d531 b4bd
00000100: 74eb f6bd d930 83be 178d 82be a9cd 093a
00000110: f6c4 c8bc c4b7 49be b267 6dbd 0856 6ebe
00000120: e2c4 88bd 2d15 4dbd a0b3 1d3e feab f83d
00000130: 1dcc b03d ae3c 033e 0297 6abe cc10 92bd
00000140: 4447 fc3c cf8e 553e c3f4 463e 0100 543d
00000150: d1fb 54bd 1cce aa3d 49b7 dfbc 83ad b93b
00000160: 7b8d f8bb 67b5 e23d c63b e03d 5d2b 44bd
00000170: 8e18 abbd 4d37 2d3e 3651 1cbe f3cd e03d
00000180: 50ba c1bd 2bfc b6bc df67 dcbd ba34 7ebd
00000190: 9e7e 6fbd 251d a33e c46a 0abe 11d0 243e
000001a0: 02eb ab3b d5c1 853e 3652 aabd ac74 743b
000001b0: d3e5 83bc dbaa c1bd 9a8c 37be cf76 90bb
000001c0: 56d2 e03a d7c4 c53d 2867 883c 861a 793d
000001d0: 4401 dabd 70cd 043d 34bd 90be c53d 20bd
000001e0: 2037 df3b cd01 c8bc f2dc 39bc 6be3 4ebe
000001f0: 2763 bb3c 97f2 c23d 9906 c5bc 3d17 6b3b
00000200: a476 753d 6fbd 4fbe 136c 24bd 49eb d73c
00000210: ea05 1f3e a3c1 333d 1b86 243b b4de 063e
00000220: 66e2 4dbe 3135 84bd 9db3 423d 0c6d 25bc
00000230: c44d dabc 2f1e 6c3c 2b6c bc3e bf8a b23d
00000240: a4a4 02bc 38b5 e13d 84d7 26bd 5114 dfbc
00000250: 1a7d 8a3c ec78 73bd 8200 9e3d 1b75 673d
00000260: cb89 1abe d00c 583d 6621 2cbe fba6 d63d
00000270: 8f82 83bd 6c78 dfbd f75d ef3d 4aed b23d
00000280: 80e0 52bd ec11 3bbd dd50 dd3c 6208 3d3e
00000290: 4c16 a73d 92da 8d3d e969 813e 23b2 2e3e
000002a0: 9d18 d73c 7178 73bc b580 17bd cbb2 35bd
000002b0: 42ae 913d d0bd f2bb a7b6 713c 28fe d13d
000002c0: b859 8d3c d2df 87be 11c7 983d bc87 b1bd
000002d0: 3381 d13d ccb6 8dbd baa8 04bd 5e44 a43d
000002e0: ddf1 433d 9486 633e 56d6 b5bd c69e 8bbd
000002f0: 98d9 64be 1c4f dcbd d0ea 75be 2931 553d
00000300: 617a 36bd 9ca6 5dbb c431 ecbd 952f 923e
00000310: 6446 1dbd a8c5 6bbd 68a8 8dbd cd99 46be
00000320: 3022 35be 322e 2ebc 386b 03be 6873 8ebd
00000330: df32 16bd 6a6c fe3d d26a 2c3d e2ea dfbd
00000340: beb4 0dbe 6e7b 1cbe 3e4b 26be 80e1 203e
00000350: 2e34 e6bd 91b3 f3bc 2a88 1f3e 8566 413d
00000360: 8374 12be 0308 87bd 66ce eebd 796d cd3c
00000370: 41b7 06be 1e7f 143e 9d29 bebd 9089 19bd
00000380: d678 77bc 4638 2abe a7ef cabc 4e60 953e
00000390: 4c78 2e3e a7c5 c33d 1c14 173c 8dff 2f3c
000003a0: 3c67 083e 1ef6 343d 8db8 a6be 8e79 a5bd
000003b0: cc54 213e fa79 33be f8c8 013d 298d 34bd
000003c0: fdb5 eb3d 80d0 8ebe 3679 523d 9e29 73be
000003d0: 7fe3 293d 93af 883d 6543 653d c687 e7bd
000003e0: 7b7c a3bd 9e12 c93d 694b 803b 791b 3fbc
000003f0: f0b4 adbd 4b9d 8a3d db3b d83c c6da 0dbe

dec1.0.bias f4 [16]
0.023380678 0.022688437 0.0282019 0.029478705 -0.0008107632 -0.029220443 0.024988495 0.02641478
-0.015860055 0.0033068003 -0.019477777 -0.002979436 -0.014945323 0.020761058 -0.0055229436 0.026564296
00000000: d688 bf3c 1add b93c ac07 e73c 537d f13c
00000010: 6689 54ba b65f efbc acb4 cc3c cf63 d83c
00000020: f2ec 81bc e7b6 583b dc8f 9fbc a442 43bb
00000030: 3add 74bc 1813 aa3c cff9 b4bb 5e9d d93c
