sampling_based_planning_framework/checkpoints/checkpoint_epoch_34.pth (torch, 385970 bytes, 75 tensors)

enc1.0.weight f4 [8, 1, 3, 3]
00000000: 0964 cebd c92e da3d 2d1f 503d a6d2 103e
00000010: 19d7 eebd 5b8e aa3d daee 103d 5850 37be
00000020: 4b2c 8cbd 7ce5 283e d805 12be ba5e 3b3d
00000030: e519 563e b895 75bd d69e 063e fc7f 22bd
00000040: 0123 113e 4bc1 fbbc 7397 2d3e c034 4dbe
00000050: 7161 f0bd 421e 203e 8957 88bd df80 02be
00000060: 33e8 b6be ac18 22be 2ec3 9abd 2855 3b3d
00000070: c523 9e3c 6dee 1cbe 52db 0f3d a818 d43d
00000080: d9c6 943e fc1f 83bc cdaa e03a efb1 cd3a
00000090: 547b 63bd 8b3d 063d b97f 8fbd 9c51 80be
000000a0: 21f5 583e c4d5 1fbd 21d8 8abd 6649 e43d
000000b0: 3ae3 8cbe faaf 543e 4903 713e e788 2fbd
000000c0: 5c4f c03e db1f 62bd 52a5 c5bd 27fd 8c3d
000000d0: a70e 9ebe 3893 73be 6ec4 cd3c 8c05 973c
000000e0: 4ac5 9c3d 4707 e13d 3aeb 9cbd b08b f83e
000000f0: bcf3 e2bc 5b86 ce3d 3f72 9f3d d338 d83d
00000100: 5b9b acbe 68b8 813d 8998 04be 89c9 7ebd
00000110: 8832 673e fe10 673d acf9 d4bd 2bbe fe3c
-0.10077674 0.10653455 0.05081098 0.14142856 -0.1166212 0.083279334 0.035384037 -0.17901742
-0.06844386 0.16493791 -0.14260042 0.045744635 0.20908315 -0.059957236 0.13146529 -0.039672837
0.14173509 -0.030731818 0.16952305 -0.20039654 -0.117373355 0.15636542 -0.06657321 -0.12744473
-0.3572403 -0.15829724 -0.07556759 0.04573551 0.019304166 -0.15325327 0.03512127 0.10356265
0.2905796 -0.016006462 0.0017140746 0.0015693287 -0.055537537 0.032773536 -0.07006783 -0.25062263
0.2118726 -0.039022222 -0.067795046 0.11146812 -0.2751711 0.20770255 0.2353641 -0.04285517
0.37560546 -0.05520616 -0.09650673 0.068842225 -0.30870554 -0.23786628 0.025118079 0.018435262
0.076548174 0.10987716 -0.076620534 0.48544073 -0.027704112 0.1008422 0.077854626 0.10557713
-0.33712277 0.06334001 -0.12948813 -0.062203918 0.2257787 0.05641269 -0.10399184 0.031096539

enc1.0.bias f4 [8]
00000000: e827 073d 8044 a33b d22b fa3c 1c33 99ba
00000010: 9716 1e3d 35f4 b2b9 6db1 53b9 484c 0b3a
0.032997042 0.004982531 0.030538473 -0.0011688205 0.038595762 -0.00034132754 -0.00020188624 0.0005313796

enc1.2.weight f4 [8, 8, 3, 3]
00000000: 6845 be3d a9e3 6e3d 95b0 85bd 1570 80be
00000010: adea f83e c782 043e c5c0 5bbd c133 a53c
00000020: b903 a9bc 24af c3bd 7e57 00be 2e1b ffbd
00000030: bb03 d7bd fba0 01be 2058 2a3e d9d8 2d3e
00000040: d908 1a3e baed 85be 32e5 833d aea9 413e
00000050: 1508 1d3e 64a3 04be 9ff9 e73d fbae f1bd
00000060: 209b 61be 3e42 d13d 0a3d 263b 0afe 513d
00000070: 422f 1e3c 45ad 5dbe 9434 153e 1966 c0bb
00000080: d277 9b3c 4b58 37bd b5b8 9fbb e88b 4cbe
00000090: 0a15 20bb 3c68 723d 915f 413e cee4 47be
000000a0: 8f1d 943d 400b be3d b0df 4e3d 5031 2bbd
000000b0: 3d61 263e 3723 2d3d 2df0 a8be 866f 773d
000000c0: 7336 0bbd 0e73 933e 6491 7ebe a9ed 033e
000000d0: 1772 44be e5e8 1abe 2777 b7bd d075 103e
000000e0: f930 b3bc 5d60 c03d cb87 a0bd 5d76 f9bc
000000f0: fb0e 283d 20dd e5be 8c78 8ebb d18f 42bd
00000100: 2e54 d0bc da67 743e 3361 63bd ed03 483d
00000110: 2066 543d c10f 60bc 132f 2abd d35d 98bd
00000120: 44cf 4bbe 88ce 9b3a 1282 fd3c 145d 0d3e
00000130: 8aee 1c3e a478 ba3d 81a4 1abe 1d2f 353e
00000140: 51db 5cbe 816e 15bd 163a 813e f961 09be
00000150: 7735 2d3e 3467 ccbd 5b71 f83d f5d8 2b3b
00000160: 3013 a5be ff38 1b3e 40f4 1fbb fae4 92be
00000170: 2e92 7b3e 4ad0 95bc 78f2 1e3e 627e be3d
00000180: 39a4 ef3c 84ac 213e 50d5 05be c1c6 4e3d
00000190: 21aa c4bc 0963 5e3e 81a5 c33e 1c13 b4bd
000001a0: fd9d 18bc b2ca 2a3d c023 063f 3e01 f73d
000001b0: 840e 84be 7d47 433d c168 efbc f6db acbe
000001c0: 1987 113e 630c 34be 5dc1 18bd 3608 223e
000001d0: 69c1 b93e c6ec 94bd c478 65be 4311 04bb
000001e0: 23a8 913d 7efc 5f3e 22fe f63d 3824 9d3c
000001f0: a083 98bd fc71 84bc 479a 743e cd9c c8bc
00000200: 0356 97be f8f1 913e a4e5 333e ee50 ebbd
00000210: 0f37 d03e 24e1 413e f36e 503d 9f46 f93b
00000220: 0af6 a03e 5ac1 05bc 9e38 863e 1224 633e
00000230: 91c7 f83d 973f 2d3e eb60 d2bd 2936 a43d
00000240: 563c 003e 45db 2d3e 2232 943c 51c9 3e3e
00000250: 7914 ce3d 0705 e2bd b3f5 d43d 5af8 063f
00000260: f13e 1fbe f517 b7be a4d3 f0bd b391 8a3d
00000270: 8044 7d3e ce62 69bd b6cf 62bd a555 183e
00000280: a022 d2be fb6b 33be 4c94 75be d3e8 d2bd
00000290: 4a0e aebe c0be ab3d 7706 883d 6a15 813e
000002a0: 0cd5 9d3d f3ff 363e e819 a3bd 2438 933e
000002b0: 023a 49b8 b4c2 02bc 7982 92bd 0619 123d
000002c0: 5657 133d 3735 1fbe 5bd3 3ebe 69c7 bebd
000002d0: d1b0 303e b73e cbbd a0bc b63e 98d6 6ebe
000002e0: 6620 59bd 3a80 1a3e 9b2f 39be fa89 4dbb
000002f0: 985d 193c 3e19 00be 0721 9ebe 3897 9c3e
00000300: 8851 073e f27c 91be 5b4c 8dbe b518 a13d
00000310: f0ec 92be cbb2 1f3d 64db b83d f78b 1bbd
00000320: c590 1ebe cf03 90be c2c4 9e3e 21ae 2e3d
00000330: 386b 3cbe 8bcc a8bd d56c f43d 11e9 953d
00000340: a0c4 71bd df2b 50bd 9a0f 953e 7e6f f0bd
00000350: d3d1 0cbe 5584 b53d e426 023e bffc 29bd
00000360: 8867 c83c 090d 843e b3ae 2bbc 4e2d 4dbd
00000370: 63b0 0a3d 0b60 50be e341 2f3e 1767 c53b
00000380: 339f e73c afe1 9ebe bfdc b3be e08a 5abe
00000390: a937 81bc 67ef 48be c486 d0bd d4fc 623e
000003a0: fe30 2b3e cacd 923d 1d9e edbc 8464 633d
000003b0: b0c0 723d 8ffd aebd 243d 8cbc 8292 d43d
000003c0: 8c42 e13c a218 513e 0ef6 4bbe 670d fdbc
000003d0: 3f70 6e3c d053 de3d 0873 2bbe 72af debd
000003e0: e29f 3bbd 20fc cf3b 889b 0f3e f244 ca3d
000003f0: 5662 c13e 440e 55bd 0f26 e9bd 0d30 55be
0.09290582 0.058322582 -0.06527821 -0.25085512 0.48616543 0.12940513 -0.053650636 0.02016628
-0.020631658 -0.0955489 -0.12533376 -0.12456356 -0.104987584 -0.12659065 0.1663518 0.16977252
0.15042438 -0.26157933 0.064402 0.18912384 0.15335114 -0.12952954 0.11326908 -0.11800953
-0.22031832 0.10217713 0.0025365972 0.05126766 0.009654822 -0.21648128 0.14570838 -0.005871546
0.018978033 -0.044761937 -0.0048743137 -0.19975245 -0.0024426603 0.059181437 0.18884112 -0.19520876
0.072322 0.092794895 0.050506294 -0.041795075 0.16248031 0.04226991 -0.3299574 0.06040909
-0.033987474 0.28798717 -0.2486015 0.12883629 -0.19184147 -0.15127905 -0.089582734 0.14107442
-0.021873938 0.0939338 -0.078384005 -0.030451948 0.04102991 -0.44895267 -0.0043478664 -0.047500435
-0.025430765 0.23867741 -0.05551262 0.04883187 0.051855206 -0.013675631 -0.0415488 -0.074397705
-0.19903284 0.0011887113 0.030945811 0.13805038 0.1532537 0.091050416 -0.15101816 0.17693754
-0.21568038 -0.036482338 0.2523963 -0.1341628 0.16914926 -0.09980622 0.12130996 0.0026221846
-0.322412 0.15158461 -0.002440706 -0.2869032 0.24567482 -0.018287797 0.15522182 0.09301449
0.029253112 0.15788466 -0.13069654 0.050482515 -0.024006905 0.21717466 0.38212207 -0.08792707
-0.009315011 0.04169721 0.523983 0.12060784 -0.25792325 0.0476756 -0.029224755 -0.33761567
0.14211692 -0.1758285 -0.03729378 0.15823445 0.36280373 -0.072717234 -0.2240935 -0.002015189
0.07112148 0.21873662 0.12060191 0.01918231 -0.074469805 -0.016167633 0.23886977 -0.024488831
-0.2955781 0.2850492 0.1756807 -0.114900455 0.40667006 0.1893354 0.05088706 0.0076072956
0.31437713 -0.008163774 0.2621507 0.22181728 0.12147439 0.16918789 -0.10272392 0.08018143
0.12523016 0.16978176 0.018090311 0.18631484 0.100624986 -0.11036115 0.10398426 0.52722704
-0.15551354 -0.35760465 -0.11759117 0.06766071 0.24733162 -0.056978993 -0.05537387 0.14876421
-0.41042042 -0.1752166 -0.23982352 -0.10298314 -0.33995277 0.08385992 0.06641858 0.2521165
0.07706651 0.17871074 -0.079639256 0.2875377 -4.797616e-05 -0.007980991 -0.07153792 0.035668395
0.035971962 -0.15547644 -0.18635313 -0.09315378 0.1725495 -0.09924071 0.35690784 -0.23324049
-0.053009413 0.15087977 -0.18084566 -0.0031362758 0.009360693 -0.12509629 -0.30884573 0.3058412
0.13214695 -0.28415638 -0.27597317 0.078660406 -0.28696394 0.03898887 0.090262204 -0.037975278
-0.15484913 -0.28127906 0.3100949 0.04264653 -0.18400276 -0.082421385 0.119348206 0.073198445
-0.059025407 -0.05082309 0.29113466 -0.117400154 -0.13751917 0.08863131 0.12710148 -0.041500803
0.02446343 0.25791195 -0.010478663 -0.050092034 0.03385962 -0.20349137 0.17114978 0.006024252
0.028274154 -0.31031558 -0.35129353 -0.21342039 -0.015773611 -0.19622575 -0.101819545 0.22166759
0.16717908 0.071681574 -0.029006058 0.05551578 0.059265792 -0.08544456 -0.017118998 0.10379507
0.027497552 0.20419553 -0.19918081 -0.03089018 0.014553129 0.1085583 -0.167431 -0.10873307
-0.045806773 0.0063471943 0.14024174 0.098764315 0.37770337 -0.052015558 -0.11384212 -0.20819111

enc1.2.bias f4 [8]
00000000: 899d c3bc 4266 da39 b558 103d ffce 13bc
00000010: 7321 093b aa7a 053d e0f0 e53c 884e 8f3b
-0.02387883 0.00041656388 0.035240848 -0.00902152 0.0020924478 0.032587685 0.02806896 0.0043733753

enc2.0.weight f4 [16, 8, 3, 3]
00000000: d303 4d3c 1e51 42bd dcfe 2bbc 6a1b fbbd
00000010: dac0 60be 6a19 c53d bb4e 7a3d 7d02 c0bd
00000020: da32 873e 0ee8 e5bb 493a 3e3d 740f ffbc
00000030: a985 5bbe 8c8b 8d3d 9b9b 12bd 6756 9cbd
00000040: 4717 29bd 4ebe 393e 5084 48bc 419e eb3d
00000050: fd75 44be 3ead 4ebd 8802 b1bc a42b 0fbe
00000060: e384 bd3d 979f 8e3e b2d7 db3d 7944 4bbd
00000070: 17d1 de3d 7df5 e93d 11c4 8bbc ee6e 21be
00000080: 9512 47bc 791d 36be e4e6 23be 6b62 a8bd
00000090: cba5 243e 1bcf 60bd 7dd4 40be 69d5 ebbc
000000a0: 4e15 f83c 6c1d 2fbd a804 03be 8e4e f2bd
000000b0: 2116 863d bc5a 623d 6b1a 553d c5b5 0e3e
000000c0: 652b 623e 06ca 10bd 9497 133e 57a1 343e
000000d0: adaf 24bd 1579 e93d b6ea 3e3e fa00 62bd
000000e0: 3858 9cbe 02a5 33be 464d 513e f3fb 80bd
000000f0: ddd9 be3d c747 5c3e 569d 423e 14a5 bb3b
00000100: 476a 37be a2c5 bc3c 3f14 92bc 34b1 9dbb
00000110: 1c3a f53d 175c cabd eec3 26be 9b39 a33b
00000120: d925 b33c 2be6 5c3d c007 a5bc aa5f 16bd
00000130: 6b20 20bd 8afa eebd d7e6 a7bd c1ff 343c
00000140: f118 ee3d c35a 4abd 2102 3d39 742a 9b3e
00000150: 6b01 c53b 80ce d4bd 8698 a03c 6dc4 61bd
00000160: 15b4 3abc 2218 bfbd 7a3d 203d 9b69 e13c
00000170: 42cc 1f3e 0329 ba3d d2bb 043d 6b2a a13d
00000180: 1f25 51be 50cd ef3d 45b6 043d 91f2 ecbc
00000190: ec6a b0bd 7f26 bd3d 5362 45be 5d79 7f3d
000001a0: e4b2 0b3c 2c6a e93d 5bcb 6cbe 038a e73c
000001b0: eba4 183e f260 79bd 017f debc 0a07 d2bc
000001c0: 8e15 b73d e63a 813d db86 2d3e 952c 763e
000001d0: fe57 4e3c 3306 6bbd 4192 b0bd 0962 3d3e
000001e0: 7355 363e cac1 243e 2ced 933d f204 06be
000001f0: 117d c63d df24 043e 4ad8 563e 4270 093c
00000200: 0adf 9c3d 2926 1a3d d278 4e3e e8ac f6bd
00000210: 09e7 8d3c 03f2 03bd 2ec8 4b3e b300 83be
00000220: 8297 173e ef1b 51be 9524 27be 8307 233d
00000230: 82c7 50bc 47ee 523d 8365 e43a 7122 a3bd
00000240: a135 b6bd eaa3 b3bc 2cd5 89be 2e50 36bd
00000250: 199a 453d 30f0 303e 9fac 703e f557 343d
00000260: 27e6 68be cbd6 babd a5e4 03be 0d37 47be
00000270: 79e0 d13d f2cb 513e 83fb 24bd 3aae c63c
00000280: caab a8bd aed1 47be 2e5f 083e 856b 163d
00000290: b33d 47be 30a1 b8bd 70e2 cb3d 354b 1c3e
000002a0: cbef 39bd a0a0 02be 79fb a93d 39b7 2b3e
000002b0: b566 c5bb d473 063e f7a1 173e ec6e 1bbb
000002c0: 295b 46bd 42ec 363e 076b 8bbc 023d d4bd
000002d0: 34ac 4b3d d1f9 9f3d 92bd d63d 7c95 5f3e
000002e0: 51cb 953d b601 bb3e 9414 9b3e b4b0 293e
000002f0: d0b6 a53d 909b d3bd b522 203e b6b0 1abe
00000300: d7d1 babd 442e 92bd 6cbb 313e a1b3 653e
00000310: 3612 843d 61da d4bd 6f51 823d e67d 943d
00000320: fab2 b8bc 5f57 6b3d e656 223e c944 8d3d
00000330: 5025 ed3d 5a1a db3d 1b73 803c 253e 2d3e
00000340: 3081 27be 59b9 cd3c 85a9 273e f575 34bc
00000350: 78cb 823e fa42 30be ebb4 173d e596 fbbd
00000360: 6ecb 72bb 8e0c 923d cea1 3a3e d45e bcbc
00000370: a50e d23d 6e6f 953e 86ad 19bc 5e71 4ebd
00000380: 942f 9dbd 6ff0 99be 6690 bcbd 1094 cb3c
00000390: 615d b4ba 9759 17be b32a 223d 28c9 063e
000003a0: b56e c23a e28e b03d ceb4 9b3d ade6 8cbd
000003b0: cd4e 00be dfa1 a1bd 8652 e93d 01ee 04be
000003c0: 9295 f63c 1f7b c03c 4ad3 a63c 09ed 7ebc
000003d0: bd45 eabd ce02 793e 824c 2a3a 265a 47bd
000003e0: 7e38 a23d 6005 e6bd 34fe 593e 4e04 e03d
000003f0: 3aba 80be 1280 5fbe 1700 183d 7785 ef3c
0.012513119 -0.04744064 -0.010497775 -0.12261088 -0.21948567 0.09623988 0.06111024 -0.093754746
0.26405984 -0.0070161885 0.046442304 -0.031135298 -0.21437706 0.06911382 -0.03579293 -0.076336674
-0.041281965 0.18139002 -0.012238577 0.11504794 -0.19185634 -0.050458185 -0.021607652 -0.13981491
0.09253862 0.27856132 0.107345 -0.049625847 0.108797245 0.11423776 -0.017061265 -0.15764973
-0.012150426 -0.1778468 -0.16006047 -0.08221897 0.1607887 -0.05488501 -0.18831058 -0.028788285
0.030283596 -0.04275267 -0.12794745 -0.11831389 0.065471895 0.055262312 0.052027147 0.13936527
0.22086866 -0.035348915 0.14413291 0.17639671 -0.0402066 0.11400048 0.18644223 -0.055176713
-0.30536056 -0.17543414 0.20439634 -0.062980555 0.09318898 0.21511756 0.19005331 0.005726466
-0.17911635 0.023043457 -0.01783192 -0.004812384 0.11973974 -0.09880846 -0.16285679 0.0049812323
0.021868633 0.053930443 -0.020145297 -0.036712326 -0.039093416 -0.1166888 -0.08198326 0.011047305
0.11625851 -0.049402963 0.00018025238 0.30305827 0.006012132 -0.10390949 0.019603979 -0.055118967
-0.011395474 -0.09330775 0.03912113 0.027516177 0.15605262 0.090898536 0.032405682 0.07869419
-0.20424317 0.11709082 0.03240039 -0.028924258 -0.08614144 0.09235858 -0.19275789 0.0623716
0.008526538 0.11397204 -0.23124449 0.028264051 0.14906661 -0.06088347 -0.02716017 -0.025638122
0.08939658 0.06310062 0.16945975 0.24040444 0.012594221 -0.05737896 -0.08621646 0.18494429
0.17806034 0.1608955 0.07222971 -0.13087824 0.09691823 0.1290469 0.20980945 0.008388581
0.07659729 0.03763405 0.20163277 -0.12044698 0.01732208 -0.032213222 0.19900581 -0.2558647
0.1480389 -0.20420812 -0.16322549 0.039802086 -0.012742879 0.05149677 0.0017425272 -0.079655536
-0.08896948 -0.021928746 -0.2692045 -0.04451006 0.048242662 0.17279124 0.2350335 0.044029195
-0.22744046 -0.09123 -0.1288019 -0.19454594 0.10247893 0.20487955 -0.040278923 0.024253
-0.08235891 -0.1951358 0.13317558 0.036723632 -0.1945713 -0.09015119 0.09955299 0.15263064
-0.0453947 -0.12756586 0.08299918 0.16769113 -0.0060242065 0.13130122 0.14807878 -0.0023717238
-0.04842678 0.17863563 -0.017018808 -0.10363199 0.049724773 0.078113206 0.104853764 0.21834368
0.0731417 0.36524743 0.30289137 0.16571313 0.08091509 -0.103324056 0.1563824 -0.15106472
-0.09122055 -0.07137731 0.17356652 0.22431804 0.06448786 -0.10393215 0.063631885 0.07250576
-0.02254628 0.05745637 0.15853462 0.06897885 0.115793824 0.106983855 0.015679887 0.16918238
-0.16357875 0.025112795 0.1637326 -0.011014451 0.2554586 -0.1721305 0.03703777 -0.1228464
-0.0037047523 0.07131301 0.18225786 -0.022994436 0.102566995 0.29186577 -0.00937975 -0.050401084
-0.076750904 -0.3006625 -0.09207229 0.024850875 -0.0013760739 -0.1478027 0.039591502 0.13162673
0.0014834019 0.08621003 0.07602845 -0.068799354 -0.1253006 -0.078922026 0.11392693 -0.12981416
0.030100618 0.023496209 0.020364422 -0.015559443 -0.11439083 0.24317476 0.0006496386 -0.048669957
0.07920931 -0.11231494 0.21288377 0.10938321 -0.2514208 -0.21826199 0.03710946 0.029238446

enc2.0.bias f4 [16]
00000000: 089c 003d 84c8 0a3d 63c3 87bc f315 253d
00000010: 383a f93b 30df 0a3d 7dcb acbc 6c8f d0bc
00000020: a157 dd3c 0240 503c a02a 013d 9a54 0f3d
00000030: dc7e f63c be82 ee3c 18fb 933c 5fca ff3c
0.031398803 0.033882633 -0.01657266 0.040304136 0.007605817 0.033904254 -0.021093125 -0.025459014
0.027019324 0.012710573 0.03153479 0.03499279 0.030089788 0.029115077 0.018064067 0.031224428

enc2.2.weight f4 [16, 16, 3, 3]
00000000: 64bb 0abb 4e9c 3b3d deaa 96bc 2c35 d8bd
00000010: 74a0 1c3e 6be4 523d b3c8 54bd 2043 8ebc
00000020: cd4b 9a3c 1247 01be a5a8 6b3e ae1c dfbd
00000030: 698d 38be 66d9 3c3d 9dc6 443e 3f33 70be
00000040: 0ce9 f8bc a9dd c5bc 210d c8bd 839e 7cbd
00000050: 1b06 09be cccc a7bd 06b6 a13e 983a 303d
00000060: b006 fabc 3cce 173e b14d b4bd 41e3 4f3e
00000070: 68f0 1c3e afcc 12bd d25b 1f3e 40e8 283e
00000080: 86e9 ddbd 4691 9abd 921f 9fbe e550 363e
00000090: 49de 2ebd 7346 82bd 885d 013e ce92 3cbe
000000a0: 705a f9bd c85d 663e a74c c2bd a943 ccbe
000000b0: 47f5 b3bd 7a30 563c 0366 febc cbd3 013e
000000c0: 8b34 bd3c 4ca6 c8bb 5024 e6bd 5bf4 aebd
000000d0: d144 84be 55dd 9fbd 7596 bc3c 9755 0fbd
000000e0: 7a6e c0bd f765 033e 1851 05be 146e 2f3e
000000f0: 7639 4b3d 8858 e83d 6f97 2a3d 78b4 6b3d
00000100: a2c5 d33d 7dbb 9e3d d200 01be 35b3 8cbc
00000110: b368 17be 02a5 ea3d f60a 213e 8faa 58bc
00000120: c5f5 813e 2fca 2d3c 3464 363e 3afc b2bd
00000130: 9c59 763d 9ee3 5f3e b4c8 9cbb f718 5ebe
00000140: 9a88 393e 04c5 4ebe 4e5c 1dbd 95e2 64be
00000150: cfee 1c3e 4bbb 1d3e a17a b43d 783e d4bc
00000160: 5f61 48be 3915 453e 5662 65b8 3bb5 18be
00000170: d710 de3d 7971 8bbd dafa f33d b0ab 0b3d
00000180: e217 81be 29c9 463d 9887 393e 7c93 f63d
00000190: 4b06 3fbd 0e31 6abd a52c 7ebd e94b 193e
000001a0: d874 b23d 19de 083d ff95 c9bc 7cca 733d
000001b0: 9bf9 abbd 975a c33c 3f77 4f3e a839 51be
000001c0: 85a5 73bd 19b3 9bbd a0b7 1a3c 7533 163e
000001d0: a883 173e c9e3 c53c 1f9d b03d ac56 13be
000001e0: 5372 183e eece 0e3e f1f1 73bd 498a c93d
000001f0: e5bb 783c 469d 78bd a837 263e 9d15 97bd
00000200: 770a ddbd a6cf c6bc 2d13 a9bd abdf 413d
00000210: 83f7 74be 26e3 673d 389e cebd e40e 08be
00000220: 2f20 0b3d 3dd5 1c3e 8cda f9bd aafa 023e
00000230: 05bf 46bd 5b93 713d e976 4dbd 3695 bc3d
00000240: fd5c b73c 3b09 923d 7ccb dd3d d418 11bd
00000250: 7970 e23d f67d 113e 5460 383e ffd3 c1bd
00000260: 427d 303e 0600 333e 304b bb3d 8809 dd3b
00000270: f817 92be e850 ed3d 99b5 e2bd 7abb 96bb
00000280: 7c44 a1bd 5efe 00be 8897 233e 46bb 943d
00000290: c9b3 fc3d 2228 4cbe 1aeb 87bd 9248 2abd
000002a0: 6acf 61bd 5d12 56bd 6b1a 7dbd 0e66 4bbe
000002b0: 57aa 08be 82f6 a2bd 3961 f93d 0de8 86bc
000002c0: 90cf 55be 6a64 a7bd 44b8 44bd b5e8 843d
000002d0: c20c 47bc 60d7 433d 8107 cb3d 719e a33c
000002e0: a58d a03d e29e 5a3e f643 343e 7f0a 0e3e
000002f0: 0ec5 483c ca88 3fbc 60a7 383e 49b2 c4bd
00000300: e401 cabd f8d6 e03c 057f 9c3d 3ae9 503e
00000310: 4fe5 883e 28fc 0ebc ce21 79bd 373c 62bd
00000320: ffd1 55bd 0601 14be 72ee ec3d 30ab 063e
00000330: af20 cdbd 14dd 9fbd 8285 3d3e 31a4 d73d
00000340: ef4d 0abe 7feb 093e a1e2 3fbb 16cb c33c
00000350: f460 0ebd be6e a83d 256e a0bd c440 6dbc
00000360: 7f9b a13d 7ff3 273e 7765 30be ca77 563c
00000370: 58d0 9f3e 233a 0e3e 8279 90bd 2f49 a03c
00000380: ecf5 e7bc 63d9 893e d01f 08be 92e2 8dbd
00000390: fd7e 7ebd ff16 aa3b 7c20 d4bc a0ce edbd
000003a0: e3e2 b7be 732c 8abd eeee 78bc b483 4cbe
000003b0: 1806 673d 60e9 203e 20b0 343d 1a11 90be
000003c0: 0d34 32be bcdf bb3d b2e2 20bd bd8f 973d
000003d0: 627a 2fbe fe9a a8bd d078 743d 6136 17be
000003e0: b249 943e d730 f53d 3236 be3e 2717 87bd
000003f0: 5069 c53c 5d45 cc3c c6c0 d5bc 3277 0c3e
-0.0021168822 0.04580336 -0.018392023 -0.10557017 0.15295583 0.051487368 -0.051949214 -0.017365992
0.018834973 -0.12624767 0.23013552 -0.10894142 -0.18022694 0.046105765 0.1921639 -0.23457049
-0.030384563 -0.024153547 -0.09768129 -0.061674606 -0.13381235 -0.08193359 0.31584185 0.04302463
-0.030520767 0.14824766 -0.08803881 0.20301534 0.15326083 -0.035839733 0.1556237 0.16494846
-0.10835557 -0.0754724 -0.31078774 0.17804296 -0.042692456 -0.06361093 0.12633336 -0.18415377
-0.12175453 0.22496712 -0.094872765 -0.3989537 -0.08787017 0.013073081 -0.031054502 0.12678449
0.023096344 -0.0061233398 -0.11237395 -0.08542701 -0.25833753 -0.078058876 0.023020962 -0.034993734
-0.09396072 0.12831865 -0.13019216 0.17131835 0.049615346 0.11345011 0.041648325 0.057545155
0.1034043 0.07750604 -0.12597969 -0.017175296 -0.14786033 0.11457254 0.15726838 -0.013224258
0.2538282 0.010607286 0.17811662 -0.08739515 0.060144052 0.21864173 -0.004784668 -0.21689211
0.18118516 -0.20192343 -0.038418107 -0.22352059 0.15325473 0.15403478 0.08812452 -0.025908694
-0.19568394 0.19246377 -5.4689437e-05 -0.14912884 0.10843056 -0.068087526 0.119130805 0.03409928
-0.25213534 0.048531685 0.18118131 0.12039849 -0.04663686 -0.05717569 -0.062054295 0.14970364
0.087136924 0.033414934 -0.024607657 0.059519276 -0.08397218 0.023846908 0.20260333 -0.2043215
-0.059484024 -0.076025195 0.009443194 0.14668067 0.14796317 0.024156468 0.086237185 -0.14388531
0.14887361 0.13946125 -0.059556905 0.09840829 0.015181516 -0.060696863 0.16232169 -0.07377169
-0.10793012 -0.024268936 -0.082556106 0.047332447 -0.23922543 0.05661311 -0.100887716 -0.1328693
0.03396624 0.15315719 -0.12199888 0.12790933 -0.048522014 0.05897842 -0.05016223 0.09208147
0.022383207 0.07130667 0.10829827 -0.03542407 0.11056609 0.14208207 0.18005496 -0.09464263
0.17235282 0.17480478 0.091452 0.006745521 -0.28533912 0.11587697 -0.11069793 -0.0045999857
-0.078743905 -0.12597033 0.15975773 0.07262282 0.12338979 -0.19937184 -0.06636639 -0.041573115
-0.055129446 -0.052263606 -0.061792772 -0.1986315 -0.1334623 -0.07957174 0.12176747 -0.016468072
-0.2087996 -0.08173449 -0.048027292 0.06489698 -0.012149038 0.04781282 0.09913541 0.019973012
0.078395166 0.21349671 0.1760405 0.13871191 0.012254013 -0.011690328 0.18032598 -0.09604318
-0.09863642 0.027446255 0.076414146 0.20401469 0.2673745 -0.008727111 -0.060823254 -0.055233207
-0.05220222 -0.14453515 0.11568917 0.1315124 -0.100159995 -0.07805839 0.1850796 0.10529364
-0.13506292 0.13468741 -0.0029279368 0.02390055 -0.03476043 0.082242474 -0.078335084 -0.014480773
0.07890987 0.1640148 -0.17226206 0.013090083 0.3121364 0.13889365 -0.07054426 0.019566147
-0.028315507 0.26923665 -0.13293386 -0.069279805 -0.062132824 0.0051907296 -0.025894396 -0.11611676
-0.35915288 -0.06746759 -0.015193684 -0.19972116 0.056402296 0.15714025 0.04411328 -0.28138047
-0.17402668 0.09173533 -0.039278693 0.07400463 -0.17136529 -0.082326874 0.05968553 -0.14766838
0.28962475 0.11972206 0.37150723 -0.06596213 0.024098068 0.024935419 -0.026092898 0.13717344

enc2.2.bias f4 [16]
00000000: 4775 903c 4db6 fa3c 3353 2c3b 7a31 4f3c
00000010: fc42 073d b961 e53c 8c94 59bb e0db afbb
00000020: 48a1 5f3d ad4f ff3c 6f3c 443c e368 0f3b
00000030: 33fa a53c afb2 51bc 91c3 063d 7a8b e73c
0.017634047 0.030604506 0.0026294708 0.0126460735 0.033022866 0.0280007 -0.0033200113 -0.0053667873
0.05459717 0.031165922 0.011977299 0.0021882586 0.020260906 -0.012798949 0.03290135 0.02826475

bottleneck.0.weight f4 [32, 16, 3, 3]
00000000: 58eb c0bd bb30 3b3d eaae 553d 030c 0d3d
00000010: 23d0 ba3d ae5c e0bc a32d b03c 7419 c8b9
00000020: 0126 34be 3e09 c4bc ec15 51be b960 dd3d
00000030: a8d6 8fbc ba04 7f3d 58f4 0d3e 2a76 2cbe
00000040: a1d1 473e 080f 4a3d bd9e 453d 11a8 cf3d
00000050: 55b8 a13d fc9b 4dbd f87d 0a3e 8e09 663e
00000060: 6a14 17bd 4bee 9bbb bbe6 0dbc 8435 513d
00000070: 2149 8abd 3fc5 c93c ace5 29bd 86a9 d6bd
00000080: 7bf1 61bc 567e f73d c6e4 5bbc 1eb8 a5bd
00000090: ae87 b2bd 30ae 90bd 4677 babb 213f 79bd
000000a0: 2d09 463d 03dc 37be 3193 c53d ecb0 05be
000000b0: 5ef8 ef3d 8508 24bd 3079 ee3d 2dba 573c
000000c0: 69fb ddbd 0e33 a13d 010e 5fbd 3b66 fc3d
000000d0: 46c8 b93d 4884 4abd 1c80 0c3d 09d8 133e
000000e0: d2e7 f0bc a2f9 6e3d 8cf0 b73b 9031 a9bd
000000f0: 2839 aebd 237f 813e 035f da3d a72d 5abd
00000100: 4168 353d 2eba 30bd 3590 1f3d 3dae 1d3e
00000110: c2fc d93d 782c 983c 5963 c53b db80 0dbd
00000120: 9940 4bbd 2f6c 943a c42a 35be e982 79bb
00000130: 9bbc 92bd e005 11bd da02 dbbd 9aaf 883d
00000140: a274 3b3e 878d a8bd 0a34 db3d 8c46 823d
00000150: 7961 debc 66a1 7e3d c2b5 233e 4576 dabd
00000160: 5b63 f53c eb9b dd3a 112d b43c fe52 ecbc
00000170: 997c 4bbd e07c e23d 9aef 143e 5ff8 fa3d
00000180: 32f1 b0bc 4248 b53d 9807 0dbd 3974 ea3c
00000190: c852 de3d 0eba 90bd 0d82 05bb a50f 913d
000001a0: a387 a53b b792 063d e0f2 8b3e aaed e23d
000001b0: 8ea9 c0bc e354 013d 68df 34bd 41bb 113e
000001c0: 8e71 883d 6f42 b2bd a43c 49bd c171 13bd
000001d0: 62b5 4bbe 12d3 943d fadc 483d a407 22be
000001e0: 9d69 363e 6e03 1bbd 6f00 9e3d 8fe8 173d
000001f0: cf32 383d 8bd0 5d3e 1a01 edbc 4a74 2d3d
00000200: 2ff9 0abe 3a02 5f3d ae5d 26bd 0a0c 1abd
00000210: 22a8 963c 78ca dbbd 715e 6bbd 6287 fa3b
00000220: e7e4 2a3e 3d4e 1c3d bf76 633d d158 553d
00000230: 3b9b 363d 83c0 c53d f3b6 4f3d 7ca9 453d
00000240: 0d50 23bc c590 e3bd 7547 c33d 0e5f 143c
00000250: c81f 263d cf98 c83b 2137 a0bc 5ff2 a9bd
00000260: 2fc1 703d 251f 9c3d 75ae 61bd 8e8b a93c
00000270: f3b7 753d 74d8 d53a 094d 37be 10fd 47bd
00000280: 2098 8fbd e431 763e 9cf4 363c 9079 febd
00000290: 3909 a6bd 427b 86bd 010e d5bd 126d 563c
000002a0: d57b 5bbd 414a 593d 2476 c03d fe1f b1bd
000002b0: f570 94bd f0b0 403d b78f 383d 124b 60bd
000002c0: 3877 e63c fb56 6c3d f580 173d a57f d53d
000002d0: 240b 4a3d 8fee 823c 48e7 d73d a5bf f73d
000002e0: 55ee b53d bd3d a93d 2cb3 493d c190 96bc
000002f0: 162a a5bd b404 d9bc 4941 d33c 3708 69bd
00000300: dfbb c6bc ef35 c43c c3bf 46bd 7651 143d
00000310: da45 17bd 7b98 f93d 747c c8bd 59e3 35bd
00000320: 4f42 24be 494c 853c d1ee 933d 80b6 11be
00000330: 3e41 6f3d de6a c83d 4c57 1f3e 5ecb 27be
00000340: 557f 30bd ca7d 66be 8182 cf3d c0a0 613e
00000350: 99d2 4abd 47b5 393d ea6e bd3c c890 4cbd
00000360: fbd2 debd d902 ce3d e29d dfbb 1c58 713d
00000370: 28bd 96bc 982f cc3c 08ce 68bd 80c3 643e
00000380: 3261 d93d b179 693c 954d aabc a27a e7bd
00000390: bc97 843d da57 e3bd 8446 76bd aae0 5bbe
000003a0: 2bd3 cf3d 6393 dfbd 5c8b 963d d5b0 953d
000003b0: 93fc bdbd 5c1e 123e 47e9 c5bc af34 0cbe
000003c0: 67d1 713d 6c6a 89bb 04dc f03d eee4 4dbd
000003d0: d4f1 fbbb 8499 153e 0712 d33d 6a05 e5bb
000003e0: dbbc ed3d 3958 873d f087 88bb ba9c 0d3e
000003f0: 3457 a93d 4beb 0e3e 9998 46bd 2b2f a5bd
-0.09419888 0.04570077 0.052168764 0.034435283 0.0912173 -0.027387943 0.021506136 -0.00038165937
-0.17592622 -0.023930188 -0.20418519 0.10809464 -0.01755841 0.062260367 0.13862741 -0.16841951
0.19513561 0.04933074 0.048247088 0.10139478 0.07896487 -0.050197586 0.13524616 0.22464582
-0.036884703 -0.0047586313 -0.008660967 0.051076427 -0.067522295 0.024630187 -0.041478798 -0.10481553
-0.013790484 0.120846435 -0.013421243 -0.08091758 -0.08717285 -0.07064474 -0.005690488 -0.06085122
0.048348594 -0.17955022 0.09647215 -0.13055772 0.11717294 -0.040047187 0.116442084 0.013166946
-0.10838968 0.07871066 -0.054456715 0.123241864 0.09071402 -0.04944256 0.034301862 0.1443788
-0.029407416 0.058343537 0.005613392 -0.082614064 -0.085069954 0.2529231 0.10662653 -0.053266194
0.044288877 -0.043146305 0.038955886 0.15398498 0.10643913 0.018575892 0.006023806 -0.034546714
-0.049622152 0.0011323745 -0.17692095 -0.0038072413 -0.0716488 -0.035405993 -0.10693903 0.06674118
0.1830621 -0.08230119 0.10703285 0.06361112 -0.027146088 0.06216564 0.15987304 -0.106670894
0.029954603 0.0016907429 0.021994146 -0.028848168 -0.049679372 0.11058974 0.14544526 0.12254404
-0.021599386 0.08851673 -0.03443107 0.028619872 0.10855633 -0.07066737 -0.0020371706 0.07083062
0.0050515695 0.032854762 0.27333736 0.11080487 -0.02351835 0.031575095 -0.04415837 0.14231588
0.06662284 -0.087040775 -0.049130097 -0.035997156 -0.19893411 0.07266821 0.049038865 -0.15823227
0.17813726 -0.037845068 0.077149265 0.03708702 0.04497033 0.21661584 -0.02893119 0.04234723
-0.13571618 0.054445483 -0.040616684 -0.037609138 0.018390719 -0.10731977 -0.057463113 0.0076455334
0.16688882 0.03816055 0.055533167 0.052086655 0.044581633 0.09655859 0.050711583 0.048257336
-0.009967816 -0.11111597 0.09535114 0.009055866 0.040557653 0.006121732 -0.019557538 -0.08298182
0.058777984 0.07623128 -0.055098016 0.020696428 0.05998988 0.0016315118 -0.1790048 -0.048825324
-0.070114374 0.2404247 0.011166718 -0.1242553 -0.08107228 -0.06566478 -0.10403062 0.013087528
-0.053584892 0.05304933 0.093975335 -0.0864868 -0.07248107 0.04704374 0.045058932 -0.054759093
0.02813302 0.05770014 0.036988217 0.10424737 0.04932703 0.015982894 0.1054216 0.120971
0.08883349 0.08263729 0.049243137 -0.01837957 -0.08064668 -0.0264915 0.025787966 -0.0568926
-0.024259506 0.023951499 -0.048522722 0.0362105 -0.03693185 0.121872865 -0.097893625 -0.04440627
-0.1604092 0.016271727 0.07223285 -0.14229774 0.05841183 0.09786008 0.15560645 -0.16386172
-0.043090183 -0.22508922 0.101323135 0.22033978 -0.049517248 0.045338895 0.023124177 -0.04994276
-0.10880085 0.10059137 -0.006824241 0.05892192 -0.018400744 0.024925038 -0.05683711 0.22340202
0.10614242 0.014250205 -0.020788947 -0.11302687 0.064742535 -0.11100741 -0.060125843 -0.21472421
0.10147699 -0.10916784 0.073507994 0.07309119 -0.0927669 0.14269394 -0.024159087 -0.13691972
0.059037592 -0.0041935947 0.11760715 -0.050267152 -0.0076887403 0.14609343 0.10306173 -0.006989171
0.11608287 0.06608624 -0.0041665956 0.13829318 0.08268586 0.13956945 -0.048485372 -0.08065637

bottleneck.0.bias f4 [32]
00000000: 1c89 f8bc 1914 d03c c351 f23c 0d3e 0e3d
00000010: b80b f03c ab9f c13c 489e b13c 7fee cbbb
00000020: e0b0 e73c df1c 3abc 3fbf 723c 246f 1a3d
00000030: c602 0dbc f292 d43c f4b6 c0ba d51f fc3c
00000040: b8e7 0b3d b974 153c e93a d63c 8d0f 583d
00000050: d08e 0b3c 3828 523d 6182 cb3c 215c 50bc
00000060: 82aa 063d 8b71 a93c 3705 eebc 11c8 733c
00000070: c8ee 8c3c b9a4 e23c 096f bd3c d3d8 023d
-0.030338816 0.025400208 0.029580003 0.034727145 0.029302463 0.023635706 0.02168192 -0.0062234993
0.028282583 -0.0113594225 0.014816104 0.03770365 -0.008606618 0.025948975 -0.0014702962 0.030776897
0.03415653 0.009122067 0.026151137 0.052749205 0.008517936 0.051307887 0.024842443 -0.012717278
0.032877453 0.020684024 -0.029055221 0.0148792425 0.017203704 0.027666437 0.023124235 0.03194506

bottleneck.2.weight f4 [32, 32, 3, 3]
00000000: e847 34bb b3e7 3dbc 2d95 3fbe d09a d3bd
00000010: a5b8 37be 1713 32bc 20e1 87bd a73f f2bd
00000020: 3331 8bbc 46f2 4d3b 4272 3cbe 34c1 09bd
00000030: cff4 c23b ba81 d93d e0fa 883d 4406 a43d
00000040: e2bb 17bd ade2 84bc 124f 47bd 6cbd 623e
00000050: ff80 0f3d c355 c2bd 08bb 903d 4b49 d0bc
00000060: 5180 c13d 971f 94bd fc95 cc3d 627d c6bc
00000070: e8fc bc3d d04c 893c 5968 a537 1b0b 253e
00000080: 500a b03d 810c 593d d056 e73d 1bd6 173d
00000090: 966c 2c3d b47c 34bc 3c11 6c3d 0f89 673c
000000a0: 2a8b 98bd f3e1 193e 776c 05bc 22d8 0f3d
000000b0: 811d 0fbe 5677 35be 3d5c 1bbe 4af3 87bd
000000c0: 67f0 d83d 404a 823d 43b5 fe3d e465 94bd
000000d0: a98c 8abd ba73 7e3d 4c5b e43d 9343 153d
000000e0: cc0e 3b3c d5d9 843c a43f 78bc e2e2 913d
000000f0: da59 6bbd d4e5 0abd d124 27bd aafe 773c
00000100: 3d99 7b3c 133f 093e 6283 0e3d b162 a33d
00000110: 10a2 013d c768 21bd acb5 c03c a27a 863d
00000120: e461 32be 8f1c 853c f5e1 cebd 1815 8b3d
00000130: 05d6 9939 213f 323d 6c7d 863d 00e1 9bbd
00000140: e41e 253d 7f10 193c efdf 2c3c 8e98 cbbc
00000150: 946a 2dbd c7f4 3c3d c986 68bd c270 2cbc
00000160: 11ee 5abe 2d1e d0bd b5f7 a6bc 2b39 d43c
00000170: f95d 11bd 8471 a5bd 27e5 fc3d c9a1 973d
00000180: 20d9 a03c 28b4 763d f617 1d3d 3cb0 8a3c
00000190: a63f 913d 6f54 0f3e 838d fd3d b73b 333e
000001a0: 2988 ccbc 6527 a33d d02b e4bd 5604 3e3d
000001b0: f5fd cbbc 491d 4abd 186c 1bbd c0b4 fcba
000001c0: c4b2 75bd 81b5 97bd e879 00be 95d0 b0bd
000001d0: 310f 17be ae3a 9abc 4790 933d de7d e8bd
000001e0: abfb acbd b132 a03c 5c9f 3d3d 527b 51be
000001f0: d66f 6a3c df13 ad3d aa5c fe3d 3112 273d
00000200: cc28 d0bd ac17 113e 8232 213e 8a8f 2fbe
00000210: 1d72 82bd 9d78 153e b1ed 5f3d d9f1 60bd
00000220: 2698 a93d 0b0a 4f3c 43f3 c9bd 80bc f53c
00000230: 4e0b ef3c 9d66 ae3d 4736 b1bd de4b d03d
00000240: 0502 4e3e 93b7 18be 3cf4 d3bc 4371 56bd
00000250: 393b 4a3d 3c9f 383c b41d debd 4d3f 4b3d
00000260: 6853 05bd 5f50 d8bc 7bad 5abd 1681 ed3d
00000270: eb3f 9f3c 31fa 1abd a91f 033d 5ff1 0b3d
00000280: 25f5 063e f3f3 50bd c0e4 79bc 4b2c e4bd
00000290: c2ec bebd 8bdc 4fbe 4d4b ce3c cc09 cdbd
000002a0: ebf3 723c 98e0 343e 2c89 8cbc eb3e 82bd
000002b0: 4472 01bd 92f2 15be b7c1 583d 59a6 f03c
000002c0: 39b9 2bbe f4a3 1bbc 5b06 5f3d be64 e73d
000002d0: bf4a a9bc 3bd9 f5bd 6803 fe3d ccfe d8bd
000002e0: 5a7c 30bd af8b b2bd eb2a 9fbd eb8b a13d
000002f0: 7531 fb3d 8671 7bbe 41e6 663b 7748 e13c
00000300: 0f93 75bd 0258 263c 4b7a 003d a33b 2cbe
00000310: 62eb c83d 2fa0 973c 7865 2b3d d7a3 b5bd
00000320: bd77 373d 4c08 dbbc e48b 883c be75 393e
00000330: 6d56 e53c fa99 fdbd 0f3c 533d beb8 463d
00000340: b7bb 6c3d a9bf c8bd 4dc1 a63c ca5b 2bbe
00000350: dc59 dbbb fe9d 5ebd 8798 4abb a18a 03be
00000360: ec8c 343c 7210 933c 98d3 973c 035e 483d
00000370: aee7 fabc 018c e53d 571e 873c 7667 683d
00000380: bd04 083d 796b d6bd f90e 81bd 3b27 803c
00000390: af1a 59bd 00c1 dfbd f760 d53d 9c76 833d
000003a0: 7f9c 52bd 0c14 523d 1ceb 583d e790 11be
000003b0: 1104 0abd d19f 373e 03b9 03be 45e4 a4bd
000003c0: 217e 0e3d 32a1 3abc 69f4 98bd 26d7 873d
000003d0: cd43 853d 7f39 523d 5f73 ce3c 673c 8a3d
000003e0: 443e 253e 29d5 abbd c695 afbc c72d 0b3d
000003f0: 5c51 263e 6d30 7c3e cb61 8f3e a44c ebbc
-0.002750868 -0.011590886 -0.1870925 -0.103322625 -0.1794153 -0.010868809 -0.06634736 -0.11828547
-0.016991233 0.0031424924 -0.18402961 -0.03363152 0.0059495936 0.106204465 0.066884756 0.080090076
-0.037044413 -0.016221369 -0.04865939 0.22142571 0.03503513 -0.09489014 0.070669234 -0.025425574
0.094483025 -0.07232588 0.09989545 -0.024229709 0.092279255 0.01676026 1.9718123e-05 0.16117518
0.08595717 0.05299044 0.11295855 0.03706942 0.042095743 -0.01101606 0.057633623 0.014131798
-0.074484184 0.15027599 -0.008143536 0.03511823 -0.13976099 -0.17721304 -0.15171905 -0.066382006
0.10592728 0.06361818 0.12436917 -0.072459966 -0.0676511 0.062122084 0.11150226 0.036441397
0.011417102 0.016217152 -0.015151892 0.071233526 -0.057458736 -0.033910587 -0.040806595 0.0151364
0.015356359 0.13402967 0.034793265 0.07977808 0.031648695 -0.039406564 0.023524128 0.06566359
-0.17420155 0.01624897 -0.10101692 0.06791133 0.0002934189 0.043517236 0.06566891 -0.07611275
0.040312663 0.009342312 0.010551437 -0.024853017 -0.04233797 0.046131875 -0.056769166 -0.01052493
-0.21379878 -0.101620056 -0.020381788 0.025906166 -0.03549001 -0.08078292 0.12348395 0.07403905
0.019634783 0.060230404 0.03835293 0.016929738 0.07092218 0.13997053 0.12380507 0.17503248
-0.02496727 0.07966498 -0.11141169 0.046390854 -0.02490137 -0.049344335 -0.037944883 -0.0019279942
-0.059984937 -0.07407666 -0.12546504 -0.08633534 -0.14751889 -0.018826809 0.07205253 -0.11352132
-0.08446439 0.019555422 0.046294555 -0.20457199 0.01430889 0.08451056 0.12420018 0.040788833
-0.101640314 0.14169186 0.15741923 -0.171446 -0.06369422 0.14596792 0.05467004 -0.054918144
0.08280973 0.012636672 -0.098608516 0.02999711 0.029180195 0.08515666 -0.08652931 0.101707205
0.20117958 -0.14913778 -0.025873296 -0.05235411 0.049372885 0.011268433 -0.10845509 0.049620915
-0.032550246 -0.026405511 -0.0533881 0.11596887 0.019439658 -0.037836257 0.032012615 0.034165736
0.13179453 -0.051013898 -0.015252292 -0.11141261 -0.09322502 -0.20298974 0.02518239 -0.10011634
0.014828662 0.176638 -0.017155252 -0.06359657 -0.031603113 -0.14643314 0.052919116 0.029376196
-0.16769876 -0.009499539 0.05444942 0.11298512 -0.020665525 -0.12004324 0.124029934 -0.10595474
-0.04308734 -0.08718049 -0.07771858 0.07888015 0.122652926 -0.24555025 0.0035232457 0.027500374
-0.0599547 0.010152819 0.031366628 -0.16819625 0.09810521 0.018508999 0.041844815 -0.088691406
0.044791926 -0.026737355 0.016668268 0.18111321 0.027995313 -0.12382884 0.05157095 0.048516028
0.057796206 -0.09802181 0.020355845 -0.16734233 -0.0066940617 -0.05434989 -0.0030913667 -0.12845851
0.0110199265 0.017952178 0.018533513 0.04891778 -0.030628052 0.11208344 0.01649396 0.056739293
0.033207644 -0.104697175 -0.06301684 0.015643707 -0.053003963 -0.10925484 0.10418885 0.06419107
-0.051418778 0.05128865 0.052958593 -0.14215432 -0.033695284 0.17932059 -0.12863545 -0.080513515
0.034788255 -0.011390971 -0.074684925 0.06632833 0.065070726 0.051324364 0.025201498 0.06749802
0.16137034 -0.083902664 -0.021433722 0.033979204 0.16241974 0.24627848 0.28004298 -0.028723069

bottleneck.2.bias f4 [32]
00000000: f329 ea3c f7be 2d3d 8ce0 f93c 5ef5 68bc
00000010: de1f 10bc b110 6cbc a9cb db3c 3c25 2dbc
00000020: bd39 053d 24d1 073c 9d91 093d 3c39 09bd
00000030: 286b 14bd ba07 ef3c b844 5bbc 2cda e13c
00000040: 9ace af3c d776 1cbc 6544 083d 416a b2bb
00000050: 69ec f93c e7f6 aab9 c84c 2dbd 51ce fdbb
00000060: fdc4 df3c c4da ff3c acf5 f6bc 3986 df3c
00000070: dde6 673c e48b 89bc 9a4f de3c 7e28 4b3b
0.028584456 0.042418446 0.03050258 -0.014218656 -0.00879666 -0.014408276 0.026830511 -0.010567959
0.032525767 0.008289609 0.033586133 -0.03350185 -0.036235005 0.029178489 -0.013383083 0.027569853
0.02146082 -0.009549818 0.03326835 -0.0054447954 0.030508237 -0.00032608883 -0.042309552 -0.007745542
0.027315611 0.031232245 -0.030146442 0.027285682 0.014154163 -0.016790338 0.027137566 0.0030999477

up1.weight f4 [32, 16, 2, 2]
00000000: 4aaa 983d ca95 7f3d 0d0d 86be cbec d3bc
00000010: 1269 e2bd a9cb e63d e078 a63d a5d6 9c3e
00000020: 26ed 3ebe 243c abbd 1d74 c93d 169b 863c
00000030: 58bf b3bd a45c 993d be1b e73d 9fed b4bd
00000040: c1ff 363b 1821 993e 804e a13d 7f2d a3bd
00000050: c07e 193d 2add 25be 132e 9e3c 1498 b8bd
00000060: 7c6f 073e 8b00 ed3d 82d4 25bd 71e6 bcbd
00000070: ef2f b73c 39cd 57be 2415 6b3e 4e63 973d
00000080: 1b55 66be aebb e73d 7989 61be 9ee3 b1bd
00000090: 6732 433d ee52 69bd 3c89 3e3e e164 4e3e
000000a0: 6dbf efbd 64ab 433e 0306 a63d 4ee8 083e
000000b0: 41ed 633a 19c1 db3d 16db bcbd 8f8b a5bc
000000c0: e22b bb3d 6cd9 86be 8950 ecbc 2873 a33d
000000d0: cd7a f83c 95f1 71bd 8623 8f3e a35e 1c3e
000000e0: c020 f6bd 2efd 70be 4fd2 833d 48b9 17bd
000000f0: 10d8 c53b dc8f 653e 03fc c0bd dd0b 4b3d
00000100: f63a 32be b867 2dbe bd71 3e3d 39ee eebd
00000110: f9b2 7ebe 5e22 19be bbf5 5ebe 2d56 7b3a
00000120: 1585 953e d24a d23d 1dee 2ebd 4efb b6bd
00000130: 298a 073e 8f28 00bc 1512 0e3e 23e8 aabd
00000140: 4d7f 34be e5ec 0bbe 1c3d 56bd 054f 89be
00000150: 1dfa 2d3a 04bd dcbc fbdc 463d 468a 683d
00000160: 5a5a dabd 7383 61bd d6da 1abe 3673 c6be
00000170: 8d07 d83d 6421 da3d 0f7e 43be 603c c8bd
00000180: 9820 43be eacf 13bd 867e 85be 1377 f53d
00000190: 2132 6c3d 9211 163e fb7d b13d 1d78 003d
000001a0: 477c 46bb 9fb1 15be dcc0 06bc 01df ea3d
000001b0: e33e f3bd 0448 a3bb 900a 703e e320 8e3c
000001c0: cefa 95bd 48fa fb3d 5d78 9d3d dd4b 093e
000001d0: 5e95 ca3d 6da6 de3c 2884 503e e845 8bbd
000001e0: b4fd 813d 9fb5 313e 02a0 60bd bb18 d2bd
000001f0: 3b18 30be 20f5 f1bd 32cc 6fbe 9596 4abd
00000200: 860e 09bd 1559 87bd 3573 00be 0aa8 7f3e
00000210: 6123 573b 366b 8abc 89a6 1abe c593 36bd
00000220: 9011 2e3d 6191 8a3d 6e1d 5f3e 1008 803e
00000230: f6a5 d83d 1638 963d dfe0 9d3e 5b93 d1bc
00000240: 488f 57bd 9faa 8fbc 129b 62be 1246 4ebe
00000250: a274 75bc 14d7 1e3d 6a76 9cbd ea79 f5bc
00000260: b107 283d 9cf4 0c3e 0cc4 2fbd a9ae 17be
00000270: 68c7 d1be 5079 29bd 96e2 86bd 54d5 1cbc
00000280: 384f 423e cc51 e0bb 8122 1fbe 8105 b63e
00000290: a7f7 d43d dafe e83d d290 433e f0f1 84bd
000002a0: 8cdf 103d 12fe 68bc 5e3b 153d 0b49 87bd
000002b0: 1e72 493d 8e8b a4bd 0ab2 ba3d 7f8d d6bd
000002c0: bfbc d5bc 4ff7 a83c a3da 5bbd 37f7 733e
000002d0: d663 0abd b9ac a4bc 46f6 11b9 8448 8b3e
000002e0: 9d1c c5bd c065 193e 3d48 5bbd f5ae 0abe
000002f0: 1785 e53d 6b90 dfbd 008a 15bd 811f 15be
00000300: 1414 b9bd 5275 453d 7ce2 123d aacf d33d
00000310: 9f50 de3d 12d2 0f3e f53c 8ebe c922 ac3d
00000320: c420 19be 247e 39be dd0d 56bd a932 c13d
00000330: 2cca 96be 4666 66bb e635 873d d831 273e
00000340: 550b a63d 32f3 ddbd 2167 043e 1b8e 6bbd
00000350: a5dc 47bc 085b 75bc 6a5a a33d 1177 c33d
00000360: cb39 ffbc 061f fabb 639c b83e 27a7 d53c
00000370: f82e dabc 7020 ff3d 2e6c b23c 8a84 7abd
00000380: 7133 a3bb e93b 99bc 885a e83c 785d 73bd
00000390: 59df b53d 9c57 53be ed2e 693d 8d65 603e
000003a0: 63ff cbbd 35dd 13bd aa11 103e 6580 49be
000003b0: 3f6e f83c d30c 23be ac40 9b3d 2398 a23d
000003c0: 706b c6bc 4e9b dc3d 550e f83d 03a0 07be
000003d0: bef8 023e 378a d9bc 4dd4 063e 3780 0ebe
000003e0: 9f23 773e 7901 70bd 43e5 fa3d 0a51 68bd
000003f0: bc7b 20be ff76 a63d 1d66 ac3d 9028 eb3c
0.07454355 0.06239871 -0.26181832 -0.025869748 -0.11055197 0.11269314 0.08128524 0.3063251
-0.18645152 -0.0836108 0.098366 0.016431373 -0.0877673 0.07488373 0.11284588 -0.08834385
0.0027923437 0.2990806 0.07876301 -0.07967662 0.037474394 -0.16197649 0.01930908 -0.090133816
0.13226122 0.11572369 -0.040485866 -0.09223641 0.022361724 -0.2107438 0.22957283 0.07391988
-0.22493403 0.11315094 -0.22025098 -0.08685993 0.04765549 -0.056963854 0.18607038 0.2015567
-0.117064334 0.19108349 0.081066154 0.13369867 0.00086947164 0.1073019 -0.09221475 -0.020208148
0.09139229 -0.26337755 -0.028846996 0.07980949 0.030331993 -0.05906828 0.2795679 0.15270476
-0.12017965 -0.2353408 0.064365976 -0.037041932 0.0060377195 0.22418159 -0.094230674 0.04957186
-0.17405304 -0.16934097 0.046495188 -0.11666531 -0.2487296 -0.14954516 -0.21773426 0.00095877313
0.29203096 0.10268177 -0.04270755 -0.08934651 0.13236298 -0.00782217 0.13874085 -0.08345058
-0.17626686 -0.13664587 -0.052304372 -0.268181 0.0006636696 -0.026945598 0.048550587 0.056772493
-0.106617644 -0.055057 -0.15122542 -0.38759774 0.10548315 0.106509 -0.19091056 -0.097771406
-0.19055402 -0.036086954 -0.26073092 0.11985602 0.057664994 0.1465514 0.08666607 0.03136455
-0.0030286477 -0.14618538 -0.008224692 0.11468316 -0.11877229 -0.00498295 0.2344153 0.017349666
-0.07323228 0.12303597 0.07688973 0.13407846 0.09891771 0.027178967 0.20362914 -0.06800443
0.06347218 0.17354439 -0.054840095 -0.10258623 -0.17196743 -0.11814332 -0.23417738 -0.049460012
-0.033461116 -0.06608788 -0.12543948 0.24966446 0.0032827484 -0.016896825 -0.1510259 -0.044574518
0.042497218 0.0676601 0.2178857 0.2500615 0.105785295 0.07334916 0.30835626 -0.02558296
-0.052626878 -0.017537413 -0.22129467 -0.20143917 -0.014981421 0.038779333 -0.07639773 -0.02996536
0.04102296 0.13765186 -0.042911574 -0.14812721 -0.40972447 -0.04137546 -0.065861866 -0.009572346
0.18975532 -0.0068456884 -0.15540506 0.35551074 0.103987984 0.11376734 0.19098213 -0.064914584
0.03536944 -0.014220731 0.03643357 -0.06605729 0.049181096 -0.080344304 0.091159895 -0.10476207
-0.026090978 0.020625738 -0.053675305 0.23824774 -0.033786617 -0.020101892 -0.00013920022 0.27203763
-0.09624598 0.14980221 -0.05353569 -0.13543303 0.112070255 -0.109162174 -0.03650856 -0.14562799
-0.09037033 0.04820759 0.035860524 0.10342343 0.10855221 0.14044979 -0.27780882 0.08405072
-0.14953905 -0.18114525 -0.052259315 0.09433491 -0.2945112 -0.0035156175 0.06602077 0.16327608
0.0810763 -0.108374014 0.12929966 -0.05750857 -0.012198602 -0.014975317 0.079762295 0.095441945
-0.031155488 -0.007633093 0.36056814 0.026080681 -0.026633725 0.12457359 0.0217801 -0.061161555
-0.0049804975 -0.018705325 0.028363481 -0.05941531 0.08880491 -0.20638889 0.056929518 0.21913739
-0.099608205 -0.03609963 0.14069238 -0.19677885 0.030326007 -0.15922861 0.075806946 0.07939174
-0.024221152 0.107718095 0.121121086 -0.13244633 0.127902 -0.026555164 0.13166924 -0.13916098
0.24134682 -0.058595154 0.122507595 -0.05671791 -0.15672201 0.081281655 0.08417914 0.028705865

up1.bias f4 [16]
00000000: 69fb c33c 2fbe 08bd 67f6 e03c 6ff1 d3bc
00000010: 1c5f d5bc 0960 e6bc c05b 02bd 3a06 debc
00000020: 664e c0bc 6d58 c53c 612e c3bc 95c0 db3c
00000030: 0543 f73c fbc6 d53c c9b9 c5bc c32c d5bc
0.023923593 -0.0333845 0.027461244 -0.02587196 -0.026046328 -0.028121965 -0.03182578 -0.027102578
-0.023474883 0.024090016 -0.023825826 0.026825229 0.030183325 0.026095858 -0.02413644 -0.02602232

dec1.0.weight f4 [16, 32, 3, 3]
00000000: e8b5 bc3d 8d2a d73d a0f3 b43d 4f15 923d
00000010: 258c d93d f096 afbd 4976 a53d f7cf 173e
00000020: a5d6 5dbe 09c2 f73c 16c6 a1bd e543 843a
00000030: a8a8 53be 1d4b 9f3d 6e00 383e 324a 9dbd
00000040: 1bf9 273d abba 5a3d eb82 c33c 0961 e9bd
00000050: eb24 213e c2f4 913d 7d18 f23c b1a7 7e3d
00000060: 7244 f0bd 2c5f 02bb 2f26 893e 9c90 b7bd
00000070: a6c0 883c 764d 4bbe 5702 7abe 8a5f c7bb
00000080: 76b6 fabd ae22 bfbd bbd0 523d 5971 cc3d
00000090: 5aac e23b 4c8e 483e 38ae e1bc 682b 1dbc
000000a0: 5815 6fbd 3532 973c 7383 11bd 0c33 b2bd
000000b0: a445 533e 9c58 aa3b 52d6 003e 3188 ed3d
000000c0: a868 ab3d 1bb9 db3d ded9 9b3d b370 0a3c
000000d0: bba9 693d 1abc dd3c 13ba 13be 6eb9 cb3d
000000e0: 863f 96bc 3c7a 24be 3c56 c43d a96a 0a3d
000000f0: 6a07 423e 1878 ff3d edc3 cabd 94d2 b0bd
00000100: 510a eebd 5e03 83be 1559 87be 7ace 903a
00000110: 3050 aebc 83b3 4dbe e339 7abd 5d48 66be
00000120: ae1a 47bd e9b0 44be 75c1 3d3e c603 e13d
00000130: 5a85 873b 369b 2f3e 2856 81be 45d1 04be
00000140: 800d 033e 8248 583e 73d3 453e f98b 413d
00000150: 630e 48bd 70c6 ad3d 4384 dabc 8485 163c
00000160: 8c9e f9bb e820 db3d c5c6 b53d 0471 8cbd
00000170: 14af b7bd ecc2 1b3e b077 27be 0a5f e03d
00000180: 775d c5bd 8c29 01bd faad dbbd 1fa2 6cbd
00000190: a5ab 95bd 1251 a73e 60a8 08be 3bbc 1d3e
000001a0: 1715 f93c 328f 913e 3dbd afbd 6078 f33c
000001b0: 2e75 62bc 0962 cbbd 88fc 3fbe 70b5 d83a
000001c0: 608e c43b 7ead ba3d 56f8 a83c 430f 813d
000001d0: 5d06 debd 8801 663d b9bb adbe 78a4 81bd
000001e0: 252c 97bd 61cb 21bd 857a fb3c 7cb4 46be
000001f0: 8ade a73d 9d71 1f3e 47b0 9abc e30f 723b
00000200: 5d91 623d 14a5 4cbe 6fa9 26bd 3d8c c73c
00000210: 88cf 233e 4b9c 303d 5095 5aba f788 0c3e
00000220: c12e 4dbe 1ba1 8ebd 5e21 613d 16ab d1bb
00000230: 4aca eebc 5b76 8b3c f563 be3e 9f52 b23d
00000240: 582c 89ba 82a5 f23d 43e9 2fbd 2ea3 f7bc
00000250: 8773 7c3b fabb a9bd e272 8b3d cced 0c3d
00000260: 194d 32be c5a6 763d 899c 23be 06ab d33d
00000270: 9a2e 72bd 1785 ccbd 2274 f23d dbcf bf3d
00000280: a76d 44bd ac84 2abd 2054 a93c 578e 3b3e
00000290: df33 a13d b27d 7c3d bcb0 7d3e 87c8 2d3e
000002a0: 4a7d a23c 32ca 91bc 1c5d 20bd 5892 4fbd
000002b0: a19a 953d b2d1 55bc a026 7b3c 715d d23d
000002c0: 42c9 6a3c 98ca 83be 6122 a13d 6e5d b6bd
000002d0: 5e23 e53d bdcd 86bd f4fc ddbc 2013 b03d
000002e0: f741 463d 6bc7 643e 95b8 9bbd d77c 81bd
000002f0: 8f57 60be 7325 d4bd bcc6 70be 2662 603d
00000300: 7741 22bd ec62 87bb adb2 eebd 7f67 933e
00000310: 1f2e 0ebd 124d 60bd 4abe 89bd a4e5 43be
00000320: 7a2c 33be 5d3d 7fbc ce9a 05be c9e4 9fbd
00000330: 8cc8 03bd e700 f33d 98b9 1d3d 03ec bfbd
00000340: 90c0 f8bd 03a4 14be 5a4b 1ebe f44d 1f3e
00000350: 9d88 e2bd f1d0 95bc dcef 333e 89f9 763d
00000360: edae 10be 7cd0 84bd d559 efbd 59d3 ce3c
00000370: bae3 06be 8cdd 143e 33d1 bebd f6a8 10bd
00000380: 7b16 6abc 7188 29be c4c5 e8bc 6b37 953e
00000390: 4ac2 2c3e 8ba7 c73d 981d 233c 7754 273c
000003a0: 35d6 043e 77b0 363d 43f0 b0be db77 abbd
000003b0: 6f38 1e3e dcdb 30be ce0f ec3c 23d8 9bbc
000003c0: 7c90 d13d c93f 8cbe 4a2e 6a3d d922 73be
000003d0: c130 d73c 9702 743d 8f2c 9d3d 51a9 debd
000003e0: f5ad aebd 7021 d13d 6eef 0b3c 219a cbbc
000003f0: c97f b6bd 55dd 723d ce29 5a3c 7d4b 12be
0.09214383 0.10506163 0.0883553 0.071329705 0.106224336 -0.08573711 0.08079202 0.14825426
-0.21663912 0.03024389 -0.0789911 0.0010091035 -0.20669806 0.077779986 0.17968914 -0.07680167
0.04100905 0.053400677 0.023866137 -0.11395461 0.1573674 0.07126762 0.029552693 0.06217164
-0.11731805 -0.0019893153 0.26786944 -0.08963129 0.016693424 -0.19853768 -0.24414955 -0.006084387
-0.12241833 -0.093327865 0.051468592 0.09982557 0.0069175186 0.19585532 -0.027548894 -0.009592868
-0.058369964 0.018456558 -0.03552575 -0.08701143 0.20632035 0.0051985513 0.12581757 0.11598242
0.08369571 0.107286654 0.07609914 0.008449721 0.057046633 0.027067233 -0.1442645 0.09947477
-0.018340837 -0.16062254 0.095867604 0.033793125 0.1894814 0.12474078 -0.09900651 -0.086339146
-0.116230614 -0.25588506 -0.26435152 0.0011047863 -0.02127847 -0.2008801 -0.06109036 -0.22488542
-0.048609428 -0.19208111 0.18530829 0.10987048 0.00413577 0.17149052 -0.25261045 -0.12970455
0.12798119 0.2112141 0.19318943 0.04725263 -0.048841845 0.084851146 -0.026674395 0.009187106
-0.007617777 0.10699636 0.08875803 -0.068574935 -0.089689404 0.15211076 -0.16354251 0.10955627
-0.09636968 -0.031533763 -0.10726543 -0.0577718 -0.07308129 0.3267904 -0.1334548 0.15403835
0.030405564 0.28429562 -0.08581016 0.029720485 -0.013821883 -0.09930808 -0.18748677 0.0016533565
0.0059984177 0.09115122 0.020626228 0.06301739 -0.108410574 0.056153804 -0.33932284 -0.06330198
-0.07381467 -0.039500598 0.03069807 -0.19404787 0.08196743 0.15570684 -0.018882884 0.0036935739
0.05531441 -0.19984847 -0.04068893 0.024358863 0.15997136 0.043117803 -0.00083382893 0.13724123
-0.20037366 -0.06964322 0.054963462 -0.006398569 -0.029149193 0.01702421 0.37185636 0.08707165
-0.0010465486 0.11847974 -0.042947065 -0.030229177 0.0038521008 -0.08287807 0.068090215 0.03440647
-0.17412223 0.060217638 -0.15977682 0.103353545 -0.059126474 -0.099863224 0.11838557 0.09365817
-0.047956135 -0.041630432 0.020669997 0.18316017 0.07871222 0.06164331 0.2477445 0.16971026
0.019835133 -0.01779661 -0.039151296 -0.050676674 0.07304884 -0.013050484 0.015329033 0.10271729
0.01433021 -0.25740504 0.078678854 -0.08904539 0.111883864 -0.0658221 -0.027098157 0.08597398
0.048402753 0.22341697 -0.076035656 -0.063226394 -0.21908401 -0.10358705 -0.23513311 0.0547811
-0.039613213 -0.0041316655 -0.116551735 0.287899 -0.034711953 -0.054761 -0.06725748 -0.1913057
-0.17497435 -0.015578595 -0.13047335 -0.07807309 -0.03217368 0.118654065 0.038507074 -0.093711875
-0.121461034 -0.1451569 -0.15458432 0.1555708 -0.11061213 -0.018288108 0.17571968 0.06029657
-0.14129229 -0.06485078 -0.11687056 0.025247263 -0.13172808 0.14537638 -0.09317245 -0.035317384
-0.014287586 -0.16555955 -0.028414614 0.29143843 0.1687099 0.09748753 0.009955786 0.010213009
0.12972338 0.044601884 -0.34558305 -0.0837247 0.15451215 -0.1727137 0.02881613 -0.01902396
0.10232636 -0.27392414 0.05717305 -0.23743762 0.026268365 0.059572782 0.076745145 -0.10872138
-0.085292734 0.10211456 0.008540971 -0.024853768 -0.08911092 0.05929311 0.013315631 -0.14286609

dec1.0.bias f4 [16]
00000000: 6c84 b83c 6e40 c83c ee39 e13c a5c6 ee3c
00000010: aa0e 4ebc 9c8c 09bd 1dab c73c e003 d53c
00000020: f8f0 45bc 8233 18ba 1d92 b5ba 3956 a0bb
00000030: 26d5 86bc 67dc aa3c 8930 8ebb 4240 d93c
0.022524081 0.024444785 0.027493443 0.029147455 -0.012576738 -0.03358136 0.024373585 0.026002824
-0.012081377 -0.0005806015 -0.0013852749 -0.004893091 -0.016459059 0.02085705 -0.004339282 0.026519898
