sampling_based_planning_framework/checkpoints/checkpoint_epoch_17.pth (torch, 385650 bytes, 75 tensors)

enc1.0.weight f4 [8, 1, 3, 3]
0	0xbdce0021	-0.10058618
1	0x3dde2ba3	0.10848167
2	0x3d2734e7	0.040821936
3	0x3e0fd11b	0.14044611
4	0xbdf18996	-0.117938206
5	0x3da42005	0.0801392
6	0x3d1a5e0a	0.03768734
7	0xbe35b59e	-0.17745063
8	0xbd9067a4	-0.07051018
9	0x3e2d7571	0.16939332
10	0xbe13b6a2	-0.14425138
11	0x3d57a48c	0.05264716
12	0x3e549084	0.20758253
13	0xbd73e67e	-0.059545986
14	0x3e06b94c	0.13156623
15	0xbd082abd	-0.033243883
16	0x3e04f71e	0.12984893
17	0xbce67139	-0.02813016
18	0x3e2d7e0a	0.16942611
19	0xbe483251	-0.19550444
20	0xbdb6bc7a	-0.08922668
21	0x3e1b1a67	0.1514679
22	0xbd7b889f	-0.06140959
23	0xbdd6baa7	-0.1048482
24	0xbea820b1	-0.32837442
25	0xbdff14db	-0.1245515
26	0xbd8d07ff	-0.06886291
27	0x3d305dfd	0.043058384
28	0x3cac9d88	0.02107121
29	0xbdf2c28c	-0.11853513
30	0x3d310e28	0.04322639
31	0x3d907dbe	0.070552334
32	0x3e8391e2	0.25697237
33	0xbc2eea48	-0.010675974
34	0xba60ab9c	-0.00085704937
35	0x3b146c64	0.0022647614
36	0xbd05eea0	-0.032698274
37	0x3c88141a	0.016611148
38	0xbd2ce1a4	-0.042207375
39	0xbe60c0e0	-0.21948576
40	0x3e3ea682	0.18618205
41	0xbcb1b038	-0.021690473
42	0xbd48f01e	-0.04905712
43	0x3dd8d75f	0.10587954
44	0xbe8aec73	-0.2713352
45	0x3e5f0e63	0.21782832
46	0x3e6dd608	0.23226178
47	0xbd84f8b1	-0.064927466
48	0x3eb6860a	0.3564914
49	0xbcdee4fb	-0.027208796
50	0xbde2d2f5	-0.11075393
51	0x3dbc049c	0.09180567
52	0xbeb070a5	-0.3446094
53	0xbe7a2bff	-0.24430846
54	0x3cd69535	0.026194194
55	0x3c1721ce	0.009224368
56	0x3d8ee161	0.06976581
57	0x3debeabb	0.11519381
58	0xbd9b6fe8	-0.07589704
59	0x3ef473ce	0.47744602
60	0xbcbef20b	-0.023308774
61	0x3dbd32ab	0.0923818
62	0x3d5c3bad	0.05376785
63	0x3dc6b24b	0.097019754
64	0xbeb744c5	-0.35794654
65	0x3d88c3e1	0.06677986
66	0xbe02cbf5	-0.12773116
67	0xbd517722	-0.051139005
68	0x3e6446b4	0.22292596
69	0x3d5e0453	0.054203343
70	0xbe038fe7	-0.12847863
71	0x3cccbcb2	0.02499232

enc1.0.bias f4 [8]
0	0x3d02ceb5	0.031935412
1	0x3bda1922	0.006655828
2	0x3cf7b386	0.03023697
3	0xbb5508d3	-0.003250648
4	0x3cd0e8ac	0.025501572
5	0x3a86366a	0.0010239605
6	0x3a6b2222	0.0008969625
7	0xb85749a0	-5.1328563e-05

enc1.2.weight f4 [8, 8, 3, 3]
0	0x3de672e6	0.11252384
1	0x3d5b5bf6	0.053554498
2	0xbd82e8e1	-0.063920744
3	0xbe847c38	-0.2587602
4	0x3ef1fcf7	0.4726331
5	0x3df96f68	0.12179452
6	0xbd8a48f8	-0.06752199
7	0x3cb9fb93	0.022702968
8	0xbcf97882	-0.03045297
9	0xbdd726b4	-0.10505429
10	0xbe0f6170	-0.14002013
11	0xbe0264f5	-0.12733825
12	0xbdf68d65	-0.120386876
13	0xbe0e46fd	-0.13894267
14	0x3e2308ab	0.15921275
15	0x3e24f116	0.16107592
16	0x3e0ec1f7	0.13941179
17	0xbe768c1d	-0.24076886
18	0x3d89c61d	0.0672724
19	0x3e481bb7	0.19541822
20	0x3e14f1dc	0.14545387
21	0xbe09b810	-0.1344912
22	0x3de01f01	0.109434135
23	0xbe052515	-0.13002427
24	0xbe62a706	-0.22134027
25	0x3db7f59a	0.08982392
26	0xbc7f24f0	-0.015572771
27	0xbbc32116	-0.005954872
28	0xbdc34916	-0.095354244
29	0xbe5bb0e0	-0.21454191
30	0x3e05dd6b	0.13072746
31	0xbcdf87fe	-0.027286526
32	0xbc2bf899	-0.010496282
33	0xbd97fd09	-0.074213095
34	0xbc951ccb	-0.018202206
35	0xbe62b409	-0.2213899
36	0xbd7ce6a6	-0.0617434
37	0x3c878d92	0.016546998
38	0x3e168a82	0.14701274
39	0xbe51a2ef	-0.2047231
40	0x3db3767d	0.08762834
41	0x3d8f0fc7	0.06985431
42	0x3d24ca5a	0.04023204
43	0xbcd324c8	-0.025774375
44	0x3e283da9	0.16429771
45	0x3d4e56a4	0.050375596
46	0xbea8e29f	-0.32985398
47	0x3d2e2991	0.04252011
48	0xbd4cd1c1	-0.050004724
49	0x3e8c19bd	0.27363387
50	0xbe9d2f69	-0.30700234
51	0x3dda379e	0.106551394
52	0xbe52f074	-0.20599538
53	0xbe224402	-0.15846255
54	0xbdea0fc6	-0.1142879
55	0x3dcb1b53	0.09917321
56	0xbc7456f3	-0.014913308
57	0x3daa5b64	0.08318213
58	0xbdbd3535	-0.09238664
59	0xbd186288	-0.03720334
60	0x3cf15cab	0.029463133
61	0xbee62453	-0.44949588
62	0x3c02ccd7	0.007983408
63	0xbd91adfb	-0.07113262
64	0xbd8ab7cc	-0.06773338
65	0x3e819988	0.25312448
66	0xbd5e9f56	-0.054351173
67	0x3d6a9761	0.057273272
68	0x3d388618	0.045049757
69	0x3c4d4295	0.012528081
70	0xbd8de850	-0.06929076
71	0xbd97c063	-0.07409742
72	0xbe4a572f	-0.1975982
73	0xbbcd5ab4	-0.006266916
74	0x3d1f6bdb	0.03892122
75	0x3e18609f	0.14880608
76	0x3e24bbd6	0.16087279
77	0x3d955b50	0.07292807
78	0xbe2952a4	-0.16535431
79	0x3e31c74c	0.17361182
80	0xbe59f09f	-0.21283196
81	0xbd7d895c	-0.061898574
82	0x3e6f3996	0.23361811
83	0xbdfba814	-0.12287918
84	0x3e2d6ecb	0.16936795
85	0xbe2f7954	-0.17136127
86	0x3dd7e3e8	0.105415165
87	0x3cd4b695	0.025965968
88	0xbebfaa9f	-0.3743486
89	0x3e131654	0.14363986
90	0xbc20cbe1	-0.0098142335
91	0xbe8fe334	-0.2810303
92	0x3e733f3e	0.23754594
93	0xbcd69bb2	-0.026197288
94	0x3e1dde04	0.15416723
95	0x3d9fbe3a	0.07799955
96	0x3d437bf1	0.04772562
97	0x3e247e33	0.16063766
98	0xbe0c3be7	-0.13694726
99	0x3dcee58f	0.101023786
100	0xbc2f1e36	-0.010688355
101	0x3e74c510	0.23903298
102	0x3eabdcd0	0.33566904
103	0xbdca2b71	-0.09871567
104	0xbb9c35a8	-0.0047671385
105	0x39de8d9b	0.00042448644
106	0x3ef22415	0.47293153
107	0x3e03b0c7	0.12860404
108	0xbe7fd660	-0.24984121
109	0x3d75cd70	0.060010374
110	0xbcffa2e2	-0.031205598
111	0xbead279e	-0.33819288
112	0x3e041d85	0.12901886
113	0xbe1dfe84	-0.15429121
114	0xbbd593fa	-0.0065178843
115	0x3e0e40e2	0.13891938
116	0x3ec4ee35	0.38462988
117	0xbdac3e8e	-0.08410369
118	0xbe946698	-0.28984523
119	0xba8a9696	-0.0010573443
120	0x3d9c04f0	0.07618129
121	0x3e441ffd	0.19152828
122	0x3de56445	0.112007655
123	0x3cc8c835	0.024509529
124	0xbdcc1455	-0.099648155
125	0xbcba195e	-0.022717174
126	0x3e7b11f9	0.24518575
127	0xbd2b532b	-0.041827362
128	0xbe8ec1e1	-0.27882293
129	0x3e8e6113	0.27808437
130	0x3e2e9869	0.17050327
131	0xbe025b9b	-0.12730257
132	0x3ecac754	0.396052
133	0x3e217ced	0.15770312
134	0x3d726988	0.059182674
135	0x3d2d07a1	0.042243604
136	0x3e927585	0.28605285
137	0xbd84ca9a	-0.06483956
138	0x3e7956e6	0.24349555
139	0x3e4718d1	0.1944306
140	0x3dc668fe	0.096879944
141	0x3e22b4fa	0.1588935
142	0xbe048668	-0.12941897
143	0x3d5749e5	0.052560706
144	0x3e0acd96	0.13554987
145	0x3e266f1a	0.1625332
146	0x3ad8a81e	0.0016529595
147	0x3e27c5a1	0.16383983
148	0x3dbd3380	0.092383385
149	0xbdde87cc	-0.10865745
150	0x3dcdfe49	0.10058267
151	0x3f05e15e	0.5229701
152	0xbe3164dc	-0.17323631
153	0xbeb81105	-0.35950485
154	0xbe3d1a11	-0.18466975
155	0x3d652b1f	0.055949327
156	0x3e815226	0.25257987
157	0xbdae4c8e	-0.085106954
158	0xbd61289f	-0.05497038
159	0x3e174af5	0.14774688
160	0xbece4917	-0.40290138
161	0xbe26c77e	-0.16287038
162	0xbe7c9112	-0.24664715
163	0xbded9810	-0.11601269
164	0xbea94f61	-0.33068374
165	0x3daabb3d	0.08336494
166	0x3d75a6ad	0.059973408
167	0x3e7d0b6f	0.24711393
168	0x3da964d3	0.08271184
169	0x3e3c0ef4	0.18365079
170	0xbd9d869c	-0.0769169
171	0x3e72c448	0.23707688
172	0xbdb93c74	-0.09044734
173	0xbc9b00d1	-0.018921288
174	0xbd5e4523	-0.054265153
175	0xb96f1b7a	-0.00022803052
176	0x3abefecd	0.0014571786
177	0xbe212995	-0.15738519
178	0xbe110888	-0.1416341
179	0xbe36c151	-0.17847182
180	0x3e067df9	0.13133992
181	0xbd858a22	-0.06520487
182	0x3ea4e2a1	0.32204154
183	0xbe503e2d	-0.20336218
184	0xbcfbbae6	-0.030728769
185	0x3e18e823	0.14932303
186	0xbdfb1272	-0.122593775
187	0x3b013bcc	0.001971948
188	0x3ca9a8b5	0.020710329
189	0xbe0e775d	-0.13912721
190	0xbe912423	-0.28347883
191	0x3e9df633	0.30851898
192	0x3def24ba	0.11676927
193	0xbe98156f	-0.29703853
194	0xbe8c137e	-0.2735862
195	0x3da15d5b	0.07879134
196	0xbe7a9a69	-0.24472965
197	0x3d2a1636	0.04152509
198	0x3dad14be	0.08451222
199	0xbdac6a61	-0.08418728
200	0xbe3231ff	-0.17401884
201	0xbe8ea5ee	-0.2786097
202	0x3e93730c	0.2879871
203	0x3d2e7593	0.042592596
204	0xbe3503a3	-0.17677169
205	0xbda9307d	-0.082612015
206	0x3d18a54c	0.037267014
207	0x3d3d70a9	0.04625002
208	0xbdfc68ec	-0.123247
209	0xbc818246	-0.01580919
210	0x3e974c97	0.2955062
211	0xbe16baec	-0.14719743
212	0xbe287672	-0.16451433
213	0x3d4fcc6f	0.050732072
214	0x3e06bb86	0.13157472
215	0x3d0e9296	0.034807764
216	0x3cbedbae	0.02329811
217	0x3e87fcfc	0.265602
218	0xbc65378c	-0.013990294
219	0xbd3c4e44	-0.045973077
220	0x3d2bd5f3	0.041952085
221	0xbe50273d	-0.20327468
222	0x3e326d1d	0.17424436
223	0xbb274393	-0.0025522455
224	0x3d05ea67	0.032694247
225	0xbe8e8213	-0.27833614
226	0xbec1036b	-0.3769792
227	0xbe57a0ef	-0.21057485
228	0xbbcc41dc	-0.006233437
229	0xbe37dce8	-0.17955363
230	0xbdcedaa2	-0.10100295
231	0x3e458fba	0.19293109
232	0x3e2e12f6	0.1699942
233	0x3d76fb11	0.06029803
234	0xbd03bd7a	-0.03216312
235	0x3d56faf8	0.052485436
236	0x3d8b919b	0.068148814
237	0xbda89043	-0.08230641
238	0xbc858c99	-0.016302394
239	0x3dd96ff6	0.10617058
240	0x3bf70ba2	0.0075392285
241	0x3e50cd64	0.2039085
242	0xbe4a1358	-0.19733942
243	0xbd26199b	-0.040551763
244	0x3ad0be4d	0.0015925855
245	0x3de529f1	0.1118964
246	0xbdfacb13	-0.122457646
247	0xbd7223fe	-0.059116356
248	0xbd4e6076	-0.05038496
249	0xbcc774c7	-0.024347676
250	0x3e0bdf6a	0.13659444
251	0x3dd86819	0.1056673
252	0x3ec34385	0.3813745
253	0xbd5020c7	-0.05081251
254	0xbdd37784	-0.1032553
255	0xbe496b87	-0.19669925

enc1.2.bias f4 [8]
0	0xbcdb007b	-0.026733628
1	0x3b55986f	0.0032592078
2	0x3d0a7f1e	0.033812635
3	0xbc09e7cc	-0.008417081
4	0x3a4410b5	0.0007479296
5	0x3d002245	0.031282682
6	0x3cdf8594	0.027285375
7	0x3b1d2784	0.0023979852

enc2.0.weight f4 [16, 8, 3, 3]
0	0x3c37eb2b	0.011225502
1	0xbd45e5fd	-0.048315037
2	0xbc1f88c6	-0.009737199
3	0xbdef69ba	-0.116900876
4	0xbe627146	-0.22113523
5	0x3dc25f36	0.09490816
6	0x3d72a53a	0.059239604
7	0xbdc11892	-0.094285145
8	0x3e88567a	0.26628476
9	0xbc118091	-0.00888075
10	0x3d3d0b9c	0.04615365
11	0xbd063bf3	-0.032772016
12	0xbe59771f	-0.21236847
13	0x3d7708d4	0.060311154
14	0xbd151d53	-0.03640492
15	0xbd9e161c	-0.07719061
16	0xbd4c2c5a	-0.049846984
17	0x3e387e3c	0.18016905
18	0xbcbb8d71	-0.022894593
19	0x3de2c5e5	0.11072902
20	0xbe48cae2	-0.19608644
21	0xbd605064	-0.054764166
22	0xbcdc7965	-0.026913354
23	0xbe162a67	-0.14664613
24	0x3db8c1cc	0.09021339
25	0x3e8c8394	0.27444136
26	0x3dd27fd8	0.102782905
27	0xbd4f7048	-0.05064419
28	0x3de3825a	0.11108847
29	0x3df2c2c9	0.118535586
30	0xbc8de891	-0.01732281
31	0xbe2039a1	-0.15646984
32	0xbc57b4b6	-0.013165643
33	0xbe3939f0	-0.18088508
34	0xbe228d2e	-0.15874168
35	0xbdac9c28	-0.08428222
36	0x3e26b18b	0.16278665
37	0xbd636816	-0.055519186
38	0xbe3c0932	-0.18362883
39	0xbcd5f5fe	-0.026118275
40	0x3cce99ec	0.02521988
41	0xbd380a76	-0.04493185
42	0xbe08e537	-0.13368689
43	0xbdf91416	-0.12162034
44	0x3d8898f9	0.06669802
45	0x3d4fee60	0.05076444
46	0x3d483a05	0.048883457
47	0x3e0d8802	0.13821414
48	0x3e5fa79e	0.21841285
49	0xbd1be52a	-0.038060345
50	0x3e12605b	0.14294569
51	0x3e33adf7	0.17546831
52	0xbd3126d7	-0.04324993
53	0x3de40fcc	0.111358255
54	0x3e3dea2f	0.18546365
55	0xbd64f8bf	-0.055901285
56	0xbe9ac5ce	-0.30229038
57	0xbe35c363	-0.17750315
58	0x3e4faa1d	0.20279737
59	0xbd81521e	-0.06314491
60	0x3db7453a	0.08948751
61	0x3e59542c	0.21223515
62	0x3e42a957	0.1900991
63	0x3b6306c9	0.0034641495
64	0xbe3ae4fa	-0.1825141
65	0x3cb31e84	0.021865137
66	0xbc8dade2	-0.017294828
67	0xbc07104d	-0.0082436325
68	0x3df6e559	0.12055463
69	0xbdcf8732	-0.10133208
70	0xbe26dd89	-0.16295446
71	0x3b5874d7	0.0033028626
72	0x3caaa37f	0.020829914
73	0x3d6bac05	0.057537097
74	0xbc7c355d	-0.015393582
75	0xbcf9cdb0	-0.030493587
76	0xbd2aa754	-0.041663483
77	0xbdf142fa	-0.11780353
78	0xbdb0b2d8	-0.08627862
79	0xb9b72bb3	-0.00034937038
80	0x3dee492b	0.116350494
81	0xbd4b3901	-0.04961491
82	0x3b567dcc	0.003272879
83	0x3e9d32ac	0.30702722
84	0x3c1ccbd6	0.009570083
85	0xbdc2017d	-0.0947294
86	0x3cd4bf53	0.025970137
87	0xbd80aae3	-0.06282594
88	0xbc5836c5	-0.013196652
89	0xbdafeb0a	-0.08589752
90	0x3d004000	0.031311035
91	0x3ca5cda3	0.020239657
92	0x3e17b3fc	0.14814752
93	0x3dc17713	0.0944654
94	0x3d059746	0.03261497
95	0x3d8812ac	0.066441864
96	0xbe5a571b	-0.2132229
97	0x3de6c7e0	0.11268592
98	0x3c431569	0.01190696
99	0xbcec8f59	-0.028876947
100	0xbdaeb5c7	-0.08530765
101	0x3dcaacab	0.09896215
102	0xbe4aab50	-0.19791913
103	0x3d754ce0	0.059887767
104	0x3c377859	0.011198127
105	0x3ddb3a50	0.107044816
106	0xbe7aea99	-0.24503554
107	0x3cf95a55	0.030438581
108	0x3e1eec51	0.15519835
109	0xbd7596cd	-0.059958268
110	0xbcda6a60	-0.026662052
111	0xbc97eb92	-0.018544946
112	0x3daad277	0.08340924
113	0x3d849740	0.06474161
114	0x3e29baca	0.1657516
115	0x3e6c05da	0.23049107
116	0x3c7e6aa5	0.015528356
117	0xbd62c58f	-0.055364188
118	0xbdaa9ddc	-0.083308905
119	0x3e3f4f36	0.1868256
120	0x3e398237	0.1811608
121	0x3e272fbd	0.16326804
122	0x3d92c352	0.07166161
123	0xbe05bcb0	-0.1306026
124	0x3dc3fc3f	0.095695965
125	0x3e049689	0.1294805
126	0x3e59241b	0.2120518
127	0x3c1ccbca	0.0095700715
128	0x3d9e0178	0.07715124
129	0x3d2e6701	0.0425787
130	0x3e4df55a	0.20113125
131	0xbdfa58b8	-0.12223953
132	0x3c5d1086	0.013492709
133	0xbd210018	-0.03930673
134	0x3e4d2755	0.20034535
135	0xbe808054	-0.25097907
136	0x3e1d1d7e	0.15343282
137	0xbe4e5b9d	-0.20152135
138	0xbe1cd5c0	-0.15315914
139	0x3d3a8ffb	0.045547467
140	0xbb830ef8	-0.003999587
141	0x3d551bd1	0.05202848
142	0x3b085872	0.002080467
143	0xbd8a38e1	-0.0674913
144	0xbd892f50	-0.06698477
145	0xbc4d8d20	-0.012545854
146	0xbe82af70	-0.25524473
147	0xbd021692	-0.031759806
148	0x3c7e2107	0.015510804
149	0x3e1da9de	0.1539683
150	0x3e5f8987	0.21829806
151	0xbba8ab82	-0.0051473984
152	0xbe540c6e	-0.20707867
153	0xbe07031c	-0.1318478
154	0xbde0b230	-0.109714866
155	0xbe4e628f	-0.20154785
156	0x3dbce30d	0.09222994
157	0x3e586ee8	0.21136057
158	0xbd5b9f98	-0.053618997
159	0x3c39db74	0.011343826
160	0xbd9e8e37	-0.07741969
161	0xbe3f3343	-0.18671899
162	0x3e0f22c2	0.13978103
163	0x3d5041fa	0.05084417
164	0xbe454a8b	-0.19266717
165	0xbdacc0b4	-0.08435193
166	0x3df44ff8	0.11929315
167	0x3e15d917	0.14633594
168	0xbd3a05ab	-0.04541556
169	0xbe073911	-0.13205363
170	0x3d9b4caf	0.075829856
171	0x3e26423b	0.16236202
172	0xbcd74442	-0.026277665
173	0x3e04a23e	0.12952515
174	0x3e15eeb0	0.14641833
175	0xbbe0a882	-0.006856025
176	0xbd3240f6	-0.043518983
177	0x3e28b6d0	0.16475987
178	0xbd3a048b	-0.04541449
179	0xbdcbe709	-0.09956176
180	0x3c4e73ff	0.012600898
181	0x3daba4c7	0.08381038
182	0x3dc99308	0.09842497
183	0x3e61d5fa	0.22054282
184	0x3d706f08	0.058699638
185	0x3eb5cbfe	0.35507196
186	0x3e95dd05	0.29270187
187	0x3e3540a2	0.17700437
188	0x3dfab1af	0.12240922
189	0xbdd54bf3	-0.10414877
190	0x3e2249c9	0.1584846
191	0xbe2172e1	-0.15766479
192	0xbdc004fd	-0.093759514
193	0xbda0ef61	-0.07858158
194	0x3e2c9cab	0.16856639
195	0x3e5cb8d8	0.21554887
196	0x3d6a883b	0.057258826
197	0xbdd9c18c	-0.10632619
198	0x3d460152	0.048341103
199	0x3d91d851	0.07121337
200	0xbcb71ac1	-0.022351624
201	0x3d4f6ffa	0.0506439
202	0x3e1c768b	0.15279596
203	0x3d775fe8	0.060394198
204	0x3de55f90	0.11199868
205	0x3de8c2f4	0.11365309
206	0x3cde981a	0.027172137
207	0x3e2d92b5	0.16950496
208	0xbe1d3a9a	-0.15354386
209	0x3d03435e	0.03204667
210	0x3e359d92	0.1773589
211	0xbcbf07b1	-0.023319097
212	0x3e812925	0.25226703
213	0xbe4691ac	-0.19391507
214	0x3ce0ab80	0.027425528
215	0xbdd1f41c	-0.10251638
216	0x3aee9fa5	0.0018205537
217	0x3d8ce652	0.068798676
218	0x3e3cc775	0.18435462
219	0xbcd23034	-0.02565775
220	0x3dd369fd	0.1032295
221	0x3e976dd0	0.29575968
222	0x3bf0650d	0.007336265
223	0xbd376235	-0.044771392
224	0xbdae9731	-0.08524931
225	0xbe8eee0e	-0.27915996
226	0xbd8ea6ac	-0.06965384
227	0x3ca04175	0.019562462
228	0x3c403f22	0.011733802
229	0xbe001c92	-0.12510899
230	0x3d0b06cd	0.033942033
231	0x3ddc62bb	0.10761019
232	0xbb415d89	-0.0029505214
233	0x3da8d47b	0.082436524
234	0x3db3c705	0.08778194
235	0xbd83d429	-0.06436951
236	0xbe111228	-0.14167082
237	0xbda96a95	-0.08272282
238	0x3e02ac27	0.12760983
239	0xbe104daf	-0.14092134
240	0x3d139b39	0.036036704
241	0x3cf21c63	0.029554551
242	0x3c998f56	0.018745106
243	0xbb83d755	-0.0040234723
244	0xbdeae476	-0.11469357
245	0x3e7780db	0.24170248
246	0x3c488e5c	0.012240972
247	0xbd3d2aae	-0.04618328
248	0x3d90a6dc	0.07063076
249	0xbde6fb42	-0.112783924
250	0x3e4e4b20	0.20145845
251	0x3dcdc7f2	0.10047902
252	0xbe73a2cb	-0.2379257
253	0xbe5991de	-0.2124705
254	0x3d0b5ba3	0.03402294
255	0x3cf7ff50	0.03027311

enc2.0.bias f4 [16]
0	0x3cf2be1e	0.02963167
1	0x3d0b5f41	0.034026388
2	0xbc8cac9a	-0.017172147
3	0x3d1e2a91	0.038614813
4	0x3bd94453	0.0066304593
5	0x3cfc01e6	0.030762624
6	0xbcad3dfa	-0.021147717
7	0xbcc80797	-0.024417682
8	0x3cd8eba0	0.026479542
9	0x3c5b36a7	0.013379729
10	0x3cfe0a5e	0.031010803
11	0x3d0a3b3d	0.0337479
12	0x3cf517ea	0.02991863
13	0x3cf7c9d7	0.030247612
14	0x3c668fd7	0.01407238
15	0x3ce71ff3	0.028213477

enc2.2.weight f4 [16, 16, 3, 3]
0	0xbad898e0	-0.0016525052
1	0x3d45ad2b	0.04826085
2	0xbc90549e	-0.017618474
3	0xbdca2eec	-0.09872231
4	0x3e252b24	0.16129738
5	0x3d484778	0.048896283
6	0xbd544e0b	-0.05183224
7	0xbc81ec64	-0.01585979
8	0x3cb04aea	0.021520097
9	0xbe027a84	-0.12742049
10	0x3e6c5e42	0.23082832
11	0xbddf5158	-0.10904187
12	0xbe34880d	-0.17630024
13	0x3d3bc936	0.045846187
14	0x3e44d2c9	0.19221033
15	0xbe700039	-0.23437585
16	0xbcf2c16c	-0.029633246
17	0xbcc1f394	-0.023675717
18	0xbdc68552	-0.096933976
19	0xbd86b123	-0.06576755
20	0xbe106694	-0.1410163
21	0xbda6908b	-0.08133038
22	0x3ea1bf1d	0.3159112
23	0x3d2e1711	0.042502467
24	0xbcf9fe76	-0.030516844
25	0x3e0ec743	0.139432
26	0xbdc8ca6e	-0.098042354
27	0x3e4876a0	0.19576502
28	0x3e1b615c	0.15173858
29	0xbcf35abf	-0.029706357
30	0x3e1e53f4	0.15461713
31	0x3e2aa392	0.1666396
32	0xbddba8a5	-0.10725526
33	0xbd8cdfd9	-0.06878633
34	0xbe9bad0f	-0.3040547
35	0x3e319209	0.17340864
36	0xbd1670a5	-0.03672852
37	0xbd82ec53	-0.063927315
38	0x3e03ae47	0.1285945
39	0xbe3bfaf5	-0.18357451
40	0xbe0187e3	-0.12649493
41	0x3e6e086a	0.23245397
42	0xbdc755df	-0.097331755
43	0xbecb7b53	-0.39742526
44	0xbdb16682	-0.0866213
45	0x3c82f82a	0.015987474
46	0xbceb02a4	-0.028687783
47	0x3e01b97e	0.12668416
48	0x3c968d7b	0.01837801
49	0xbbae8c01	-0.0053267484
50	0xbde4e4dd	-0.11176465
51	0xbdb5e3c5	-0.08881334
52	0xbe833071	-0.25622895
53	0xbda0b456	-0.07846896
54	0x3c88ca29	0.01669796
55	0xbd1c9849	-0.038231168
56	0xbdc4846b	-0.09595569
57	0x3dff037d	0.12451837
58	0xbe088915	-0.13333543
59	0x3e319b8a	0.1734449
60	0x3d495c89	0.049160514
61	0x3de8f412	0.11374678
62	0x3d43452c	0.04767339
63	0x3d761ce1	0.060086135
64	0x3dcfb700	0.10142326
65	0x3d9dfb41	0.077139385
66	0xbe0ae5e1	-0.13564254
67	0xbca7bdf2	-0.020476315
68	0xbe154389	-0.14576544
69	0x3de6d750	0.11271536
70	0x3e253d92	0.16136768
71	0xbbfa4dd0	-0.0076386705
72	0x3e82374f	0.25432822
73	0x3c2bf12b	0.010494511
74	0x3e33fb98	0.17576444
75	0xbdb7bdd6	-0.08971755
76	0x3d7c4e8b	0.061598342
77	0x3e603611	0.21895625
78	0xbc2dc18a	-0.010605225
79	0xbe5e6311	-0.21717478
80	0x3e3e3785	0.18575867
81	0xbe604d02	-0.21904376
82	0xbd5620d9	-0.05227742
83	0xbe6b45fb	-0.22975914
84	0x3e13f0b5	0.14447291
85	0x3e12f679	0.14351834
86	0x3dc20824	0.09474209
87	0xbc9e1ed9	-0.019301819
88	0xbe5338d3	-0.20627145
89	0x3e41c562	0.18922952
90	0xbbb2f3a1	-0.0054611717
91	0xbe18c80d	-0.14920063
92	0x3dd881c8	0.10571629
93	0xbd8417d6	-0.06449859
94	0x3dfc731a	0.123266414
95	0x3d211836	0.03932973
96	0xbe812775	-0.25225416
97	0x3d5f9661	0.054586772
98	0x3e385f42	0.18005088
99	0x3de39e11	0.11114133
100	0xbd4baab2	-0.049723335
101	0xbd7b2969	-0.06131879
102	0xbd5e1c4a	-0.054226197
103	0x3e1bed5f	0.15227269
104	0x3dc26aa3	0.094929956
105	0x3d12f250	0.03587562
106	0xbccc3f14	-0.024932422
107	0x3d6b6a80	0.057474613
108	0xbdaf3866	-0.08555679
109	0x3ca1c072	0.019745085
110	0x3e51d64d	0.20491906
111	0xbe56c348	-0.20972931
112	0xbd714ff6	-0.058914147
113	0xbd985295	-0.07437626
114	0x3c38df3c	0.011283692
115	0x3e159d31	0.14610745
116	0x3e17ee84	0.1483708
117	0x3ca65bdd	0.020307476
118	0x3dad29e1	0.084552534
119	0xbe1097b0	-0.14120364
120	0x3e1260a0	0.14294672
121	0x3e141eef	0.14464925
122	0xbd60dcf6	-0.054898225
123	0x3dc6750f	0.09690296
124	0x3c9877a1	0.018611731
125	0xbd62fad1	-0.05541498
126	0x3e205d36	0.15660557
127	0xbd9627fe	-0.07331847
128	0xbdd741a6	-0.10510568
129	0xbcb9f3a3	-0.022699183
130	0xbda2cee1	-0.07949615
131	0x3d49b7ac	0.04924743
132	0xbe7379b5	-0.23776896
133	0x3d660d07	0.056164768
134	0xbdc1c55e	-0.09461473
135	0xbe07e47f	-0.13270758
136	0x3d064482	0.032780178
137	0x3e168999	0.14700927
138	0xbe00cdfc	-0.12578577
139	0x3e072b37	0.13200079
140	0xbd552a5d	-0.052042354
141	0x3d559546	0.05214431
142	0xbd781a69	-0.06057206
143	0x3db032c5	0.086034335
144	0x3cc91b1c	0.02454906
145	0x3d8f0be5	0.069846906
146	0x3dd7c8b6	0.105363294
147	0xbd1cc864	-0.038277045
148	0x3dcfe0b1	0.10150278
149	0x3e12a448	0.14320481
150	0x3e32f96b	0.17477958
151	0xbdcd76d2	-0.10032429
152	0x3e33796b	0.17526786
153	0x3e300c25	0.17192133
154	0x3dba9c66	0.09111862
155	0x3b384e5f	0.0028122885
156	0xbe92b785	-0.2865564
157	0x3df01449	0.11722619
158	0xbde76e85	-0.11300377
159	0xbb8df1c0	-0.0043317974
160	0xbda6505a	-0.081207946
161	0xbe016f35	-0.12640078
162	0x3e266caa	0.1625239
163	0x3da262e3	0.079290174
164	0x3e07bc20	0.13255358
165	0xbe4f9d84	-0.20274931
166	0xbd91dd9f	-0.07122349
167	0xbd2ea182	-0.042634495
168	0xbd630f14	-0.0554343
169	0xbd53fdc1	-0.05175567
170	0xbd8aa704	-0.06770137
171	0xbe46f58a	-0.19429603
172	0xbe03b0d9	-0.12860431
173	0xbda4c457	-0.08045261
174	0x3e0154f6	0.12630066
175	0xbc66eef1	-0.014095054
176	0xbe5bb28c	-0.21454829
177	0xbda444de	-0.08020948
178	0xbd5d4599	-0.05402145
179	0x3d88bf47	0.06677108
180	0xbc58e1de	-0.013237445
181	0x3d5dc96f	0.05414718
182	0x3dd8418d	0.10559378
183	0x3c9c6ebc	0.019095771
184	0x3da1b1e8	0.07895261
185	0x3e5c468d	0.21511288
186	0x3e345371	0.17609955
187	0x3e0bf75e	0.13668582
188	0x3c938a72	0.018010352
189	0xbc96854b	-0.018374106
190	0x3e35a466	0.17738494
191	0xbdc1f287	-0.094700865
192	0xbdd3d388	-0.10343081
193	0x3ccccfb6	0.025001388
194	0x3da5d62e	0.08097492
195	0x3e4fe755	0.2030309
196	0x3e86f68e	0.2635998
197	0xbc06693a	-0.008203799
198	0xbd804b25	-0.06264333
199	0xbd59c070	-0.05316204
200	0xbd535ace	-0.05160027
201	0xbe1338c9	-0.1437713
202	0x3dee7d44	0.11644986
203	0x3e03c7cf	0.1286919
204	0xbdc7c356	-0.09754054
205	0xbda73936	-0.08165209
206	0x3e386543	0.18007378
207	0x3dd2a8bf	0.10286092
208	0xbe0aa447	-0.1353923
209	0x3e080567	0.13283311
210	0xbb51752a	-0.0031960704
211	0x3cb1472b	0.02164038
212	0xbd00e679	-0.031469796
213	0x3da48165	0.080324925
214	0xbdad1804	-0.08451846
215	0xbc7394df	-0.014867037
216	0x3da912a9	0.08255512
217	0x3e266163	0.16248088
218	0xbe325c83	-0.17418103
219	0x3c868649	0.016421454
220	0x3e9fe395	0.3122832
221	0x3e1021c5	0.14075382
222	0xbd92b349	-0.07163102
223	0x3c9aebd1	0.018911274
224	0xbcd0d530	-0.02549228
225	0x3e83ca62	0.25740343
226	0xbe1221b2	-0.14270666
227	0xbd6d9a6c	-0.058008596
228	0xbd7d120b	-0.061784785
229	0x3cd515a0	0.026011288
230	0xbd1bab5b	-0.038005214
231	0xbdb104a6	-0.08643465
232	0xbeac5ae4	-0.33663094
233	0xbdbe8b54	-0.093039185
234	0xbcb7a396	-0.022416871
235	0xbe55347b	-0.20820801
236	0x3d6bf3f0	0.057605684
237	0x3e1f38c0	0.15548992
238	0x3d1d7164	0.038438216
239	0xbe94da5d	-0.29072848
240	0xbe357e6c	-0.17724007
241	0x3dae4193	0.08508601
242	0xbd40f046	-0.047104143
243	0x3dac6039	0.084167905
244	0xbe2ec0c8	-0.17065728
245	0xbdaa5067	-0.08316117
246	0x3d842dba	0.06454034
247	0xbe1cd3b9	-0.15315141
248	0x3e8ec569	0.27884987
249	0x3deabd09	0.11461837
250	0x3ebad456	0.36490124
251	0xbd910168	-0.07080346
252	0x3cb28b40	0.021794915
253	0x3cc8aa08	0.02449514
254	0xbcca6548	-0.024706498
255	0x3e0adbe2	0.13560441

enc2.2.bias f4 [16]
0	0x3c8961e9	0.01677032
1	0x3cf450f5	0.02982376
2	0x3b436817	0.002981668
3	0x3c51503c	0.012775477
4	0x3d062aea	0.03275577
5	0x3ceab8b4	0.028652526
6	0xbb612a72	-0.0034357575
7	0xbbba4798	-0.005684804
8	0x3d4fdd38	0.05074808
9	0x3d02201c	0.031768903
10	0x3c3a67d2	0.011377292
11	0x3bc5386a	0.006018688
12	0x3ca7fb65	0.020505616
13	0xbc40d8f6	-0.0117704775
14	0x3d037d49	0.032101903
15	0x3ce852dd	0.028359825

bottleneck.0.weight f4 [32, 16, 3, 3]
0	0xbdb9995e	-0.090624556
1	0x3d54ada3	0.051923405
2	0x3d6e2d21	0.058148507
3	0x3cd0f141	0.025505664
4	0x3dbdbe8b	0.09264859
5	0xbc8b74c5	-0.017023453
6	0x3cda31d1	0.026635082
7	0xbc042787	-0.008066065
8	0xbe34b82b	-0.1764838
9	0xbcbba243	-0.02290452
10	0xbe511542	-0.20418265
11	0x3de2dce2	0.11077286
12	0xbc51ed6f	-0.012812956
13	0x3d8327bd	0.06404064
14	0x3e0cece8	0.13762248
15	0xbe2d6cee	-0.16936085
16	0x3e4095b5	0.18807109
17	0x3d4e38d2	0.050347157
18	0x3d546374	0.05185266
19	0x3dde9ca9	0.10869724
20	0x3dadfc65	0.08495406
21	0xbd50ef77	-0.05100962
22	0x3e0c282d	0.13687201
23	0x3e6d5d70	0.23180175
24	0xbd22cc21	-0.039745454
25	0xbb7df661	-0.003875159
26	0xbaad3b05	-0.0013216442
27	0x3d6bd457	0.05757555
28	0xbd8c5467	-0.06852036
29	0x3d1c35e5	0.038137335
30	0xbd39ae78	-0.045332402
31	0xbdd5d1cd	-0.10440407
32	0xbb525544	-0.003209428
33	0x3df921e5	0.12164668
34	0xbc840302	-0.016114715
35	0xbd9f7c22	-0.07787348
36	0xbdb566e5	-0.08857516
37	0xbd8c9dc8	-0.06866032
38	0xbbc7854e	-0.006088889
39	0xbd78ee07	-0.060773876
40	0x3d564081	0.05230761
41	0xbe39bb76	-0.18137917
42	0x3dcc4bb5	0.099753775
43	0xbdfec12d	-0.12439189
44	0x3deaec20	0.114708185
45	0xbd4e8428	-0.050419003
46	0x3e06df54	0.1317113
47	0x3c1f5a69	0.009726145
48	0xbddec17b	-0.10876747
49	0x3db70d2f	0.089380614
50	0xbd87a03b	-0.066223584
51	0x3e0213e1	0.12702896
52	0x3dca35ea	0.098735645
53	0xbd659a4d	-0.056055356
54	0x3c02ad38	0.007975869
55	0x3e417080	0.18890572
56	0xbd144d67	-0.03620663
57	0x3d8ae06f	0.067810886
58	0x3d1aaf22	0.037764676
59	0xbdc67edf	-0.096921675
60	0xbdc6a21b	-0.09698888
61	0x3e7e550f	0.24837135
62	0x3dfa289b	0.12214776
63	0xbd4c9ba8	-0.049953133
64	0x3d46b0f2	0.048508592
65	0xbd0fa99f	-0.035073873
66	0x3d34e1ac	0.04416053
67	0x3e274ca7	0.16337834
68	0x3df93813	0.121688984
69	0x3c6cfa56	0.014463982
70	0x3be1b0d5	0.006887535
71	0xbcb975a7	-0.022639109
72	0xbdc8148a	-0.097695425
73	0x3c221c27	0.009894407
74	0xbe0bce6e	-0.13652965
75	0xbd895f74	-0.06707659
76	0xbd9a842d	-0.07544742
77	0xbcee05f2	-0.02905557
78	0xbdef7a0c	-0.116932005
79	0x3d1345bb	0.035955172
80	0x3e1cb898	0.15304792
81	0xbda2f82a	-0.0795749
82	0x3decdc05	0.11565403
83	0x3d897880	0.06712437
84	0xbcdb0fd7	-0.026740951
85	0x3d8f5c4e	0.070000276
86	0x3e23ad8e	0.15984175
87	0xbdcc7515	-0.09983269
88	0x3d07caa0	0.033152223
89	0x3aa9740e	0.0012928264
90	0x3cf51121	0.029915394
91	0xbd11b8d8	-0.03557667
92	0xbd206f72	-0.039168783
93	0x3de17b7e	0.110098824
94	0x3e0e9ae9	0.13926281
95	0x3e0a0119	0.13476981
96	0xbcfa1235	-0.03052626
97	0x3d9df86c	0.07713398
98	0xbd166e80	-0.036726475
99	0x3ca1bfb8	0.019744739
100	0x3e0bfed8	0.13671434
101	0xbd7210e6	-0.059098147
102	0xbb909294	-0.0044120047
103	0x3dbc5009	0.09194953
104	0x3c30f01a	0.010799432
105	0x3d346c1a	0.044048406
106	0x3e8796fc	0.2648238
107	0x3ddf2b6c	0.10896954
108	0xbcd89588	-0.02643849
109	0x3cf45561	0.029825868
110	0xbd36411d	-0.04449569
111	0x3e106768	0.14101946
112	0x3d85b1c5	0.065280475
113	0xbdad3251	-0.08456863
114	0xbd3f7eff	-0.046751972
115	0xbd05f297	-0.032702055
116	0xbe4d1dc8	-0.20030892
117	0x3db2c140	0.08728266
118	0x3d609ae9	0.054835234
119	0xbe2a600b	-0.166382
120	0x3e1c3193	0.15253286
121	0xbd38e162	-0.045136817
122	0x3db5d106	0.08877759
123	0x3d576b58	0.052592605
124	0x3d1f80b6	0.038941108
125	0x3e62023b	0.22071163
126	0xbd0ca78c	-0.034339473
127	0x3d2a2041	0.041534666
128	0xbe0a3c02	-0.13499454
129	0x3d641bd3	0.055690598
130	0xbd1c7c4c	-0.038204476
131	0xbd2394dc	-0.039936885
132	0x3ca53cc3	0.020170575
133	0xbdcfaa03	-0.10139849
134	0xbd67a9ec	-0.056558535
135	0x3b017d72	0.001975861
136	0x3e2c8d3e	0.16850755
137	0x3d160322	0.03662408
138	0x3d56373a	0.052298762
139	0x3d5faec9	0.054610047
140	0x3d31cc8c	0.04340796
141	0x3dc88d46	0.09792571
142	0x3d628823	0.05530561
143	0x3d5d9e18	0.054105848
144	0xbc82c159	-0.015961336
145	0xbdf404dc	-0.11914989
146	0x3db70e2c	0.0893825
147	0x3c46d14f	0.012134864
148	0x3d19c2ab	0.037539165
149	0xbb25e313	-0.0025312349
150	0xbcd8e51f	-0.026476441
151	0xbdba065e	-0.09083246
152	0x3d53f6f8	0.0517492
153	0x3da5a508	0.08088118
154	0xbd588bad	-0.05286758
155	0x3cf327f8	0.029682145
156	0x3d85a6d4	0.065259606
157	0x3b5bbfaa	0.0033530989
158	0xbe2b241f	-0.16712998
159	0xbd3068ee	-0.04306882
160	0xbd8579d3	-0.06517377
161	0x3e7e757d	0.24849506
162	0x3c32a329	0.010903158
163	0xbe00ab96	-0.12565455
164	0xbd9c8547	-0.07642608
165	0xbd919f4f	-0.07110464
166	0xbdd43626	-0.103618905
167	0x3c4edcad	0.012625855
168	0xbd5982b7	-0.053103175
169	0x3d5fc414	0.054630354
170	0x3dc0f5f5	0.094219126
171	0xbdc230f8	-0.09481996
172	0xbd8f74c2	-0.07004692
173	0x3d41bedb	0.047301155
174	0x3d466fa9	0.04844633
175	0xbd5d80b4	-0.05407782
176	0x3cc6599e	0.024212655
177	0x3d44faca	0.048090734
178	0x3d07a4af	0.03311604
179	0x3dcabc34	0.09899178
180	0x3d463cb5	0.04839774
181	0x3c4bb373	0.012432921
182	0x3dc93e75	0.09826366
183	0x3dfe8a38	0.12428707
184	0x3db1f92c	0.08690104
185	0x3d96562f	0.07340657
186	0x3d5fa3c9	0.054599557
187	0xbc8a59a6	-0.01688845
188	0xbd95c427	-0.07312804
189	0xbcae9c85	-0.021314869
190	0x3d003c8d	0.031307746
191	0xbd4924b4	-0.04910727
192	0xbcad2aad	-0.021138513
193	0x3ce2bc37	0.027677638
194	0xbd09d9ad	-0.033654857
195	0x3d1e792e	0.038689785
196	0xbd24ff29	-0.040282402
197	0x3e08400e	0.13305685
198	0xbdc9d202	-0.09854509
199	0xbd7b42c8	-0.061342984
200	0xbe18e881	-0.14932443
201	0x3c9ca245	0.019120345
202	0x3d4f291d	0.050576318
203	0xbe15ccfa	-0.14628974
204	0x3d8339b7	0.064074926
205	0x3d9b041b	0.075691424
206	0x3e0b6db6	0.1361607
207	0xbe27d8da	-0.16391316
208	0xbd1f7a11	-0.03893477
209	0xbe5aa5ab	-0.2135226
210	0x3dcaeb5b	0.09908172
211	0x3e5fad3a	0.21843424
212	0xbd4ef803	-0.05052949
213	0x3d3d67d9	0.046241615
214	0x3cb50ed8	0.022101805
215	0xbd54914f	-0.05189639
216	0xbdc27906	-0.0949574
217	0x3e02425d	0.12720628
218	0xbc6a25a8	-0.0142912045
219	0x3ddf021b	0.108890735
220	0xbb3158c2	-0.002706096
221	0x3d496df5	0.04917713
222	0xbd273d50	-0.040829957
223	0x3e5bb69e	0.21456382
224	0x3dc1f9f7	0.09471505
225	0x3c9fa26f	0.019486634
226	0xbc8d4b86	-0.017247926
227	0xbddb25f8	-0.10700601
228	0x3d93629f	0.07196545
229	0xbdd82915	-0.10554711
230	0xbd4a6482	-0.049412258
231	0xbe585895	-0.21127541
232	0x3dd0aefe	0.10189627
233	0xbdc969f2	-0.098346606
234	0x3d9cc679	0.07655043
235	0x3da305f6	0.07960121
236	0xbdc42bb5	-0.09578649
237	0x3e1da7f4	0.153961
238	0xbc979178	-0.018501982
239	0xbe15949f	-0.14607476
240	0x3d502ec1	0.050825838
241	0xb9737453	-0.0002321762
242	0x3de98476	0.11402218
243	0xbd2a196b	-0.041528147
244	0xbb147e95	-0.0022658457
245	0x3e22426d	0.15845652
246	0x3dfcc5f8	0.12342447
247	0xbbf6145c	-0.0075097512
248	0x3e0b4562	0.13600686
249	0x3d9cad9f	0.07650303
250	0xbc657065	-0.014003848
251	0x3e0a1b05	0.1348687
252	0x3d9f5cee	0.07781397
253	0x3e0a1877	0.13485895
254	0xbd5ec77f	-0.054389473
255	0xbda35594	-0.07975307

bottleneck.0.bias f4 [32]
0	0xbcec23c5	-0.02882565
1	0x3ce0caf5	0.027440527
2	0x3cf3e2ad	0.029771173
3	0x3d094742	0.033515222
4	0x3ceeace6	0.029135179
5	0x3cb96ac1	0.022633912
6	0x3c5ce270	0.013481721
7	0xbb8344d9	-0.00400601
8	0x3ce8943e	0.028391
9	0xbc29b9f5	-0.010359277
10	0x3c7b4750	0.015336826
11	0x3d19b323	0.037524354
12	0xbc0e62e4	-0.00869057
13	0x3ccfe676	0.025378447
14	0xb9b976d2	-0.00035374478
15	0x3d0010c2	0.03126598
16	0x3d0abd75	0.033872087
17	0x3c417960	0.011808723
18	0x3cd6a151	0.026199969
19	0x3d54979a	0.05190239
20	0x3c46a89d	0.0121251615
21	0x3d4cbb48	0.049983293
22	0x3cca6a9e	0.024709042
23	0xbc505d62	-0.012717577
24	0x3d0534c2	0.032521017
25	0x3cb05d64	0.021528907
26	0xbcec92d3	-0.028878605
27	0x3c84c833	0.016208744
28	0x3c823b05	0.015897283
29	0x3ce2b65f	0.027674852
30	0x3cb83f08	0.022490993
31	0x3d04be78	0.032408208

bottleneck.2.weight f4 [32, 32, 3, 3]
0	0x3bbc6324	0.005749123
1	0x3a9f0971	0.0012133551
2	0xbe423c5c	-0.18968338
3	0xbdd0e348	-0.101996005
4	0xbe380897	-0.17972027
5	0xbc0418f4	-0.00806259
6	0xbd886207	-0.06659322
7	0xbdf1eda5	-0.11812905
8	0xbcb335c0	-0.021876216
9	0x3bfca99b	0.0077106482
10	0xbe3e9d9c	-0.1861481
11	0xbd1f4049	-0.038879666
12	0x3c747130	0.014919564
13	0x3de33b10	0.1109525
14	0x3d8bbe5b	0.06823417
15	0x3da1cebd	0.0790076
16	0xbd0c82e2	-0.034304507
17	0xbc6915c8	-0.014226384
18	0xbd432f4b	-0.047652524
19	0x3e6342fa	0.22193518
20	0x3d0dcea7	0.034620907
21	0xbdc18fa0	-0.094512224
22	0x3d8ff778	0.07029623
23	0xbce20690	-0.02759102
24	0x3dc19859	0.09452886
25	0xbd97e05a	-0.074158385
26	0x3dda460f	0.10657894
27	0xbcbe0528	-0.023195818
28	0x3dbf4bb2	0.093406096
29	0x3c8ac0e7	0.016937686
30	0x3b04c810	0.0020260848
31	0x3e276981	0.1634884
32	0x3db60958	0.08888501
33	0x3d5913e5	0.05299749
34	0x3ddf6404	0.10907748
35	0x3d0b93f6	0.034076653
36	0x3d2eb274	0.042650655
37	0xbc2c2802	-0.0105075855
38	0x3d6e609c	0.058197603
39	0x3c8d0692	0.017215047
40	0xbd965902	-0.07341196
41	0x3e1ae2b0	0.15125537
42	0xbc1fde12	-0.0097575355
43	0x3d156163	0.03646983
44	0xbe0a9f68	-0.13537371
45	0xbe2ef527	-0.17085706
46	0xbe18b40d	-0.14912434
47	0xbd92e895	-0.07173268
48	0x3de58e09	0.11208732
49	0x3d8901e1	0.066898115
50	0x3e05af03	0.13055043
51	0xbd97dbbe	-0.07414959
52	0xbd9687cb	-0.07350119
53	0x3d87971d	0.066206194
54	0x3da86f5a	0.082243636
55	0x3d02d06b	0.031937044
56	0x3c3d60fc	0.011558767
57	0x3c4ff9cf	0.012693836
58	0x3b60f3f0	0.0034325086
59	0x3da123b9	0.07868142
60	0xbd81baf5	-0.06334487
61	0xbd5fbc04	-0.054622665
62	0xbd51a7d8	-0.05118546
63	0x3c5368e8	0.01290343
64	0x3c827e76	0.015929442
65	0x3e0ddb16	0.13853106
66	0x3d1f1f09	0.038847957
67	0x3da59a1f	0.08086037
68	0x3d04dd42	0.03243757
69	0xbd2797fa	-0.04091642
70	0x3ccfb77a	0.025356043
71	0x3d8f5f4e	0.070006
72	0xbe2fc7c4	-0.17166048
73	0x3c9e6480	0.019335032
74	0xbdc1031a	-0.0942442
75	0x3d994b4a	0.074850634
76	0x3b96e100	0.004604459
77	0x3d4bec47	0.04978588
78	0x3d88d919	0.06682033
79	0xbd8bb710	-0.06822026
80	0x3d37c07f	0.044861313
81	0x3ba369ed	0.0049869926
82	0x3c8cb971	0.01717827
83	0xbc010b49	-0.007876226
84	0xbd3e2980	-0.046426296
85	0x3d2c4511	0.042058054
86	0xbd61c6a8	-0.055121094
87	0xbbc2f04a	-0.005949055
88	0xbe5185b8	-0.20461166
89	0xbdbb2ab2	-0.09139003
90	0xbca7fbc1	-0.020505788
91	0x3cd3e50f	0.02586606
92	0xbd10e894	-0.035378054
93	0xbda595a9	-0.08085186
94	0x3dfcc41b	0.12342092
95	0x3d977e3e	0.07397126
96	0x3ca0f0a2	0.019645993
97	0x3d7513d1	0.05983335
98	0x3d1b1f80	0.037871838
99	0x3cd31d76	0.025770884
100	0x3d8af3d3	0.06784787
101	0x3e04eebd	0.12981696
102	0x3e0bcff2	0.13653544
103	0x3e393dcc	0.1808998
104	0xbc8e3610	-0.017359763
105	0x3dcbf667	0.09959107
106	0xbdda3ddb	-0.10656329
107	0x3d597ceb	0.053097647
108	0xbc83d0c6	-0.016090762
109	0xbd183dd7	-0.03716835
110	0xbd18db2d	-0.037318397
111	0xbaaa507c	-0.0012993957
112	0xbd6fdf1b	-0.05856238
113	0xbd8ac2b4	-0.06775418
114	0xbdffefde	-0.12496923
115	0xbd9c45cd	-0.07630501
116	0xbe095df2	-0.13414744
117	0xbcbaeb37	-0.022817237
118	0x3d8a5c16	0.06755845
119	0xbded14ef	-0.115762584
120	0xbd9de335	-0.07709352
121	0x3cb176f4	0.021663167
122	0x3d436caf	0.04771107
123	0xbe50e711	-0.20400645
124	0x3c1bef72	0.009517537
125	0x3db333af	0.08750092
126	0x3df4e551	0.11957801
127	0x3d3fbd1e	0.046811216
128	0xbd911bec	-0.07085404
129	0x3e130934	0.1435898
130	0x3e1cc7a5	0.15310533
131	0xbe12a269	-0.14319767
132	0xbd91c593	-0.071177624
133	0x3e0f613a	0.14001933
134	0x3d99c636	0.07508509
135	0xbd573ec2	-0.052550085
136	0x3dac47a3	0.08412101
137	0x3c61d7e6	0.013784384
138	0xbdc6c7a7	-0.097060494
139	0x3cfe383e	0.031032678
140	0x3ce3d85b	0.027813127
141	0x3dafaaf3	0.08577528
142	0xbda6c4e7	-0.08143025
143	0x3dcbb74b	0.0994707
144	0x3e4c7818	0.19967687
145	0xbe18abc5	-0.14909275
146	0xbce94db0	-0.028479427
147	0xbd523938	-0.0513241
148	0x3d4c0792	0.049811907
149	0x3c7a91ed	0.0152935805
150	0xbddd51cb	-0.108066164
151	0x3d4bfc03	0.049800884
152	0xbd12660d	-0.035741854
153	0xbccdbc55	-0.025114218
154	0xbd42d493	-0.047566008
155	0x3dfcd633	0.12345543
156	0x3cd9a3fd	0.026567454
157	0xbd2108bf	-0.03931498
158	0x3cddd725	0.027080128
159	0x3d185020	0.03718579
160	0x3e0a2d45	0.13493831
161	0xbd4fe33f	-0.05075383
162	0xbc36aafd	-0.011149165
163	0xbdddbc06	-0.10826878
164	0xbdc55579	-0.09635443
165	0xbe4c1b42	-0.19932273
166	0x3ce6ffa7	0.028198076
167	0xbdb0fb24	-0.08641651
168	0x3c8f53da	0.017496038
169	0x3e3b245e	0.18275592
170	0xbc26f89c	-0.010191109
171	0xbd0b7140	-0.03404355
172	0xbc705ae1	-0.014670105
173	0xbe12e173	-0.14343815
174	0x3d630895	0.055428106
175	0x3d65b5ae	0.056081466
176	0xbe1a9124	-0.15094429
177	0xbcd53b59	-0.026029276
178	0x3d92b287	0.07162958
179	0x3dd171ac	0.10226759
180	0xbc95e2ff	-0.018296717
181	0xbdf619d6	-0.120166466
182	0x3df35537	0.11881488
183	0xbddce48e	-0.10785781
184	0xbd385dc0	-0.045011282
185	0xbda900eb	-0.08252128
186	0xbd9a9b5b	-0.07549163
187	0x3da40135	0.08008043
188	0x3e05d1f5	0.13068374
189	0xbe6945ab	-0.22780482
190	0xbc00a7c7	-0.007852501
191	0x3cbc4361	0.022981348
192	0xbd3c65c4	-0.04599549
193	0x3b32ca52	0.0027281237
194	0x3cf2e6c0	0.029651046
195	0xbe2fd723	-0.17171912
196	0x3dc665da	0.096873954
197	0x3c8c7ac3	0.017148381
198	0x3d40051b	0.04687987
199	0xbda17cc6	-0.07885127
200	0x3d5d1db1	0.053983394
201	0xbc3b225c	-0.011421766
202	0x3cf9028d	0.030396724
203	0x3e39be24	0.18138939
204	0x3d20535e	0.039142005
205	0xbdf44d0a	-0.119287565
206	0x3d28fe0d	0.041257907
207	0x3d46b9ff	0.048517223
208	0x3d6cbcf8	0.057797402
209	0xbdc8c0ea	-0.098024204
210	0x3ca6c28e	0.020356443
211	0xbe2b5d0b	-0.16734712
212	0xbbdb5b1d	-0.006694211
213	0xbd5e9f3f	-0.054351088
214	0xbb4a99c8	-0.0030914415
215	0xbe038be2	-0.1284633
216	0x3c33df94	0.010978598
217	0x3c9042c0	0.017609954
218	0x3c9edf7d	0.019393677
219	0x3d49a886	0.049232982
220	0xbcfc02f2	-0.030763123
221	0x3de5d7c8	0.11222798
222	0x3c88b3c8	0.016687289
223	0x3d67faff	0.056635853
224	0x3d097f57	0.033568706
225	0xbdce2836	-0.100662634
226	0xbd77dcd0	-0.060513318
227	0x3c597195	0.013271709
228	0xbd7d863f	-0.061895605
229	0xbde295d1	-0.110637315
230	0x3dd7f93b	0.10545584
231	0x3d7c6c8b	0.061626952
232	0xbd49d187	-0.049272086
233	0x3d66b6d3	0.0563267
234	0x3d7afd26	0.061276577
235	0xbe107ee5	-0.14110906
236	0xbd186086	-0.037201427
237	0x3e34b985	0.17648895
238	0xbe03e9a3	-0.12882094
239	0xbd981b6a	-0.07427104
240	0x3d2e4b23	0.042552125
241	0xbc615a68	-0.013754465
242	0xbd9edd8f	-0.07757103
243	0x3d8fe002	0.07025148
244	0x3d9a3da0	0.07531285
245	0x3d6ea46f	0.058262285
246	0x3cc78e66	0.024359893
247	0x3d847165	0.06466941
248	0x3e239624	0.15975243
249	0xbda700a5	-0.0815442
250	0xbc695ba9	-0.014243045
251	0x3d2c19b9	0.04201672
252	0x3e227af7	0.1586722
253	0x3e7efb67	0.2490059
254	0x3e956cd4	0.29184592
255	0xbcaae73a	-0.02086221

bottleneck.2.bias f4 [32]
0	0x3cf224aa	0.029558498
1	0x3d2b04c4	0.04175259
2	0x3cf9aa38	0.030476674
3	0xbc68f69f	-0.014218955
4	0xbc10211f	-0.008796959
5	0xbc6c11f2	-0.014408575
6	0x3ce05bd3	0.027387535
7	0xbc5f19cf	-0.013616993
8	0x3d044730	0.032294452
9	0x3c0c3553	0.008557635
10	0x3d0e6ad0	0.034769833
11	0xbd0310a3	-0.031998288
12	0xbd106ce7	-0.035260107
13	0x3ced0d03	0.028936869
14	0xbc5a4bdd	-0.013323751
15	0x3ce274ed	0.027643645
16	0x3c895e6e	0.01676866
17	0xbc09f506	-0.008420235
18	0x3d05c576	0.032659017
19	0xbb871d9a	-0.004123402
20	0x3d003316	0.03129872
21	0xbb25d06e	-0.0025301236
22	0xbd26cb62	-0.040721305
23	0xbc0551c1	-0.008137167
24	0x3cda04cb	0.026613614
25	0x3d016a61	0.03159559
26	0xbceba5ef	-0.028765647
27	0x3cd47ae0	0.025937498
28	0x3c8b47ed	0.01700207
29	0xbc6c6469	-0.0144282365
30	0x3ce1c8c9	0.027561562
31	0x3b4db994	0.003139113

up1.weight f4 [32, 16, 2, 2]
0	0x3d96674d	0.07343922
1	0x3d7be21c	0.06149493
2	0xbe856b24	-0.26058304
3	0xbcd1706c	-0.025566302
4	0xbde0c0ee	-0.109742984
5	0x3def01bb	0.11670252
6	0x3da063a2	0.078315035
7	0x3e9be77b	0.30450043
8	0xbe404c15	-0.18779023
9	0xbda8b578	-0.082377374
10	0x3dce5237	0.10074275
11	0x3c926501	0.017870428
12	0xbdbb5f18	-0.09148997
13	0x3d93eae6	0.07222538
14	0x3de55b03	0.11199
15	0xbdb606e2	-0.088880315
16	0x3b521757	0.0032057369
17	0x3e98c278	0.29835868
18	0x3d9dbf73	0.07702532
19	0xbda55559	-0.080729194
20	0x3d230e69	0.039808664
21	0xbe25a6d6	-0.16176924
22	0x3ca1eb3e	0.019765493
23	0xbdb9aa1a	-0.090656474
24	0x3e07397d	0.13205524
25	0x3dee3c9d	0.11632655
26	0xbd25fac6	-0.04052236
27	0xbdbb51be	-0.091464505
28	0x3cf887f1	0.03033826
29	0xbe513e2e	-0.20433876
30	0x3e6dd73c	0.23226637
31	0x3da3149a	0.07962914
32	0xbe63f3c3	-0.22260956
33	0x3de94ce3	0.11391618
34	0xbe615e3f	-0.22008608
35	0xbdb1b0c6	-0.08676295
36	0x3d41b448	0.04729107
37	0xbd661361	-0.056170825
38	0x3e3e5876	0.18588433
39	0x3e4ea23e	0.20179078
40	0xbdec67af	-0.115432136
41	0x3e46a3e6	0.1939846
42	0x3da2f65c	0.079571456
43	0x3e08852d	0.13332053
44	0xbaed1f2f	-0.0018090958
45	0x3ddadeeb	0.106870495
46	0xbdbc6abf	-0.09200048
47	0xbc9ac1b3	-0.018891191
48	0x3dba2553	0.0908915
49	0xbe8a5c83	-0.27023706
50	0xbcf3429d	-0.02969485
51	0x3d9e467d	0.07728288
52	0x3cf937ca	0.03042211
53	0xbd75f622	-0.060049184
54	0x3e8ff5fa	0.28117353
55	0x3e1c763e	0.15279481
56	0xbdf4caef	-0.11952769
57	0xbe7175e5	-0.2358013
58	0x3d8276ec	0.06370339
59	0xbd1d8cee	-0.03846448
60	0x3bc1118e	0.0058919853
61	0x3e674240	0.22583866
62	0xbdc1c27d	-0.09460924
63	0x3d4e064d	0.050298978
64	0xbe15ab87	-0.14616214
65	0xbe1f31c6	-0.15546331
66	0x3d94d036	0.072662756
67	0xbdbee854	-0.09321657
68	0xbe7c20fb	-0.24621956
69	0xbe257052	-0.16156128
70	0xbe62bd5d	-0.22142549
71	0x3ba58be4	0.0050520767
72	0x3e94fd6b	0.29099593
73	0x3dd226df	0.1026132
74	0xbd4afb28	-0.049555928
75	0xbdbcb7d2	-0.092147484
76	0x3ded3b10	0.11583531
77	0x3c1dd790	0.009633914
78	0x3e1e4c22	0.1545873
79	0xbd94b7ad	-0.07261596
80	0xbe35e102	-0.17761615
81	0xbe11ec6a	-0.14250341
82	0xbd3dfe7c	-0.046385273
83	0xbe8b1ab7	-0.2716882
84	0x3be3de35	0.0069539794
85	0xbd0c2b6d	-0.0342211
86	0x3d3d344e	0.04619246
87	0x3d731347	0.059344556
88	0xbdf02ac6	-0.117269084
89	0xbca2cabf	-0.019872067
90	0xbe1a8314	-0.15089065
91	0xbecc9b83	-0.39962396
92	0x3dd80714	0.10548225
93	0x3de05894	0.10954395
94	0xbe5752f0	-0.21027732
95	0xbde1015d	-0.10986588
96	0xbe43d502	-0.19124225
97	0xbd142c7c	-0.036175236
98	0xbe8bc0ed	-0.27295628
99	0x3de1e1d6	0.11029403
100	0x3d2f3750	0.04277736
101	0x3e17d15a	0.14825955
102	0x3daf5a73	0.08562174
103	0x3d09ae0b	0.033613246
104	0x3cbe42d0	0.023225218
105	0xbdf56f6f	-0.11984145
106	0xbc128494	-0.008942742
107	0x3dfd7d26	0.12377386
108	0xbe095f54	-0.13415271
109	0xbbf6d794	-0.007533023
110	0x3e785b3a	0.2425355
111	0x3d74fe21	0.05981267
112	0xbd96d8ff	-0.073656075
113	0x3df822ea	0.12116034
114	0x3d9f3026	0.077728555
115	0x3e0a4f59	0.13506831
116	0x3dc8f61a	0.09812565
117	0x3d0010d5	0.031266052
118	0x3e4e8a71	0.20169999
119	0xbd927a70	-0.07152259
120	0x3d8aa8ef	0.06770503
121	0x3e2c84a3	0.16847472
122	0xbd698778	-0.05701396
123	0xbdd1001f	-0.10205101
124	0xbe316f4d	-0.17327614
125	0xbdf03d18	-0.11730403
126	0xbe6f929d	-0.23395772
127	0xbd39497a	-0.04523609
128	0xbd09d67f	-0.033651825
129	0xbd877156	-0.06613414
130	0xbe00f2f5	-0.12592681
131	0x3e803a70	0.25044584
132	0x3ba8701e	0.0051403185
133	0xbc6ac6ce	-0.014329625
134	0xbe19e956	-0.15030417
135	0xbd2ec5c2	-0.042669065
136	0x3d2c5b85	0.042079467
137	0x3d8be6d4	0.06831136
138	0x3e5f116f	0.21783994
139	0x3e808013	0.25097713
140	0x3dd61740	0.10453653
141	0x3d97edcd	0.07418404
142	0x3ea0eeb6	0.31432122
143	0xbcb2d6ec	-0.021830998
144	0xbd5a7f9b	-0.05334435
145	0xbc911a91	-0.017712863
146	0xbe63ce1f	-0.22246598
147	0xbe4eb110	-0.20184731
148	0xbc689938	-0.014196686
149	0x3d203a5d	0.03911816
150	0xbd9a9c06	-0.0754929
151	0xbcee9fec	-0.029128991
152	0x3d27c8e3	0.040963065
153	0x3e0d8264	0.13819271
154	0xbd331541	-0.04372144
155	0xbe18c43e	-0.1491861
156	0xbecf6243	-0.40504655
157	0xbd26e78b	-0.04074816
158	0xbd73f4db	-0.059559684
159	0xbbe6c408	-0.0070424117
160	0x3e423ff8	0.18969715
161	0xbbc6926f	-0.0060599367
162	0xbe1f1740	-0.15536213
163	0x3eb62702	0.35576636
164	0x3dd4724f	0.10373365
165	0x3de8f780	0.11375332
166	0x3e424bb6	0.18974194
167	0xbd8734d7	-0.06601875
168	0x3d166eea	0.03672687
169	0xbc7077f1	-0.014677034
170	0x3d1c0e4b	0.03809957
171	0xbd86194b	-0.06547793
172	0x3d4f9bca	0.05068568
173	0xbda4e2af	-0.08051049
174	0x3db7abbb	0.08968302
175	0xbdd8b02d	-0.10580478
176	0xbcde1c0f	-0.027112989
177	0x3ca8536d	0.020547593
178	0xbd6d8e5d	-0.057997096
179	0x3e6d347b	0.23164551
180	0xbd0e2dcf	-0.034711655
181	0xbcab8bc4	-0.020940669
182	0xb9a04ded	-0.00030575637
183	0x3e8b2920	0.27179813
184	0xbdc4ff12	-0.09618963
185	0x3e193e40	0.14965153
186	0xbd4d0269	-0.050051127
187	0xbe0798aa	-0.1324183
188	0x3de8b08e	0.113618
189	0xbddc7974	-0.10765353
190	0xbd139ff8	-0.03604123
191	0xbe135ab1	-0.14390065
192	0xbdb91555	-0.09037272
193	0x3d457693	0.048208784
194	0x3d12e3bd	0.03586172
195	0x3dd3d0eb	0.10342582
196	0x3dde51e0	0.1085546
197	0x3e0fd353	0.14045458
198	0xbe8e3e36	-0.27781838
199	0x3dac240a	0.084053114
200	0xbe192205	-0.14954384
201	0xbe397f65	-0.18115003
202	0xbd560f1e	-0.05226051
203	0x3dc133ea	0.0943373
204	0xbe96cb6d	-0.29452077
205	0xbb666787	-0.0035156922
206	0x3d873727	0.06602316
207	0x3e273319	0.16328086
208	0x3da60c96	0.08107869
209	0xbdddf473	-0.108376406
210	0x3e046862	0.12930444
211	0xbd6b8f5c	-0.057509765
212	0xbc47dde6	-0.012198901
213	0xbc755c49	-0.014975616
214	0x3da35bab	0.07976469
215	0x3dc37852	0.09544434
216	0xbcff3b0c	-0.031156085
217	0xbbfa2047	-0.0076332423
218	0x3eb89da4	0.3605777
219	0x3cd5a868	0.026081279
220	0xbcda3039	-0.026634322
221	0x3dff21b1	0.12457598
222	0x3cb26d6f	0.021780698
223	0xbd7a85cb	-0.06116275
224	0xbba334b2	-0.004980647
225	0xbc993d2a	-0.018705923
226	0x3ce85bc9	0.02836408
227	0xbd735eb9	-0.059416506
228	0x3db5e09a	0.0888073
229	0xbe5358dd	-0.20639367
230	0x3d69302e	0.056930713
231	0x3e6066ce	0.21914217
232	0xbdcc00a4	-0.0996106
233	0xbd13de76	-0.036100827
234	0x3e1012eb	0.14069717
235	0xbe4981a6	-0.19678363
236	0x3cf86f80	0.030326605
237	0xbe230e14	-0.15923339
238	0x3d9b41ed	0.07580934
239	0x3da29964	0.07939413
240	0xbcc66cb1	-0.02422175
241	0x3ddc9c8f	0.10772049
242	0x3df80f96	0.12112348
243	0xbe07a144	-0.13245112
244	0x3e02f9ff	0.12790678
245	0xbcd98b78	-0.026555762
246	0x3e06d58e	0.13167402
247	0xbe0e8178	-0.13916576
248	0x3e7724e0	0.2413516
249	0xbd7002ba	-0.05859635
250	0x3dfae684	0.122509986
251	0xbd68524b	-0.056719106
252	0xbe207cfd	-0.15672679
253	0x3da67840	0.081284046
254	0x3dac675e	0.08418153
255	0x3ceb29d1	0.028706463

up1.bias f4 [16]
0	0x3cd865da	0.026415754
1	0xbd070157	-0.032960262
2	0x3ce3afd9	0.027793812
3	0xbc959edd	-0.018264228
4	0xbcd8189f	-0.026378928
5	0xbce23040	-0.027610898
6	0xbd01fa4f	-0.031732854
7	0xbccc1e16	-0.02491669
8	0xbcbff276	-0.023431044
9	0x3cc7c050	0.024383694
10	0xbccb4e27	-0.02481754
11	0x3ce2928c	0.02765777
12	0x3cf25f6c	0.029586516
13	0x3cd7049a	0.026247311
14	0xbcc39ca2	-0.0238784
15	0xbcdcbbe2	-0.026945058
