sampling_based_planning_framework/checkpoints/checkpoint_epoch_19.pth (torch, 385714 bytes, 75 tensors)

enc1.0.weight f4 [8, 1, 3, 3]
00000000: ae04 cebd 0728 de3d 244b 273d a7d1 0f3e
00000010: 5f89 f1bd d924 a43d 9159 1a3d e0b5 35be
00000020: 795b 90bd 7272 2d3e 2494 13be d252 573d
00000030: 8e9e 543e fdd2 73bd 9ab7 063e 2729 08bd
00000040: e109 053e 9651 e6bc c078 2d3e f645 48be
00000050: 3cf2 b6bd 361d 1b3e f092 7bbd 75ec d6bd
00000060: 4534 a8be 5e54 ffbd 1d0f 8dbd 1f57 303d
00000070: 658a ac3c fde9 f2bd 26ea 303d a7a5 903d
00000080: e1a1 833e f846 2fbc 7810 1aba 7347 1c3b
00000090: 04b9 06bd ce20 893c f841 2dbd 90a7 60be
000000a0: 20bd 3e3e 72a8 b2bc 4f9d 49bd 2e9a d83d
000000b0: 43ec 8abe c903 5f3e 3bda 6d3e cfc2 84bd
000000c0: fb90 b63e 26e1 dfbc a3b9 e2bd 9cd7 bb3d
000000d0: c75c b0be 1e40 7abe 4496 d63c cadf 173c
000000e0: 1aeb 8e3d 74d9 eb3d 137d 9bbd 1277 f43e
000000f0: b098 bebc 6d59 bd3d 558e 5c3d 93c3 c63d
00000100: 2c43 b7be 5abc 883d f1c7 02be 91b7 51bd
00000110: 4b4d 643e 1000 5e3d 3f43 03be 7910 cd3c
-0.10059486 0.10847478 0.040843144 0.1404482 -0.117937796 0.08014841 0.037683073 -0.17745161
-0.07048697 0.16938189 -0.1441198 0.052569218 0.20763609 -0.059527386 0.13155976 -0.03324237
0.1299205 -0.028115075 0.16940594 -0.19557938 -0.08932921 0.15147862 -0.061419427 -0.10494319
-0.32852378 -0.12467264 -0.06887648 0.043051835 0.021062085 -0.11861036 0.04319205 0.07062846
0.2570944 -0.010698073 -0.0005877088 0.0023846298 -0.03289129 0.016739275 -0.04229924 -0.2193892
0.18626833 -0.021808837 -0.049222287 0.105762824 -0.27133378 0.21778788 0.2322778 -0.06482469
0.35657486 -0.027329039 -0.11070564 0.091719836 -0.34445783 -0.24438521 0.0261947 0.009269664
0.06978436 0.11516085 -0.075922154 0.47747093 -0.023266166 0.09245572 0.053846676 0.097052716
-0.35793436 0.0667655 -0.12771584 -0.051200453 0.2229511 0.05419928 -0.12818621 0.025032269

enc1.0.bias f4 [8]
00000000: 8fd8 023d 4713 da3b fdbb f73c 879f 54bb
00000010: 8d7e d13c b156 813a 4d60 5e3a bf3d 18b8
0.031944808 0.00665513 0.030241007 -0.0032443719 0.02557304 0.0009867755 0.0008482978 -3.629713e-05

enc1.2.weight f4 [8, 8, 3, 3]
00000000: f275 e63d 8d80 5b3d 5ed7 82bd 5277 84be
00000010: 1003 f23e f97c f93d e82f 8abd a020 ba3c
00000020: cb1f f9bc 810e d7bd 0d58 0fbe 395d 02be
00000030: df62 f6bd 353c 0ebe 1114 233e fefd 243e
00000040: eecb 0e3e 2d8e 76be abc8 893d 861f 483e
00000050: 4504 153e e9a9 09be bc2f e03d 590e 05be
00000060: a7ac 62be 970a b83d 400d 7ebc 0680 bcbb
00000070: c6f8 c2bd 83ad 5bbe 4fec 053e c90f dfbc
00000080: d3b4 2abc f3cd 97bd bdb7 94bc bdb3 62be
00000090: b09c 7bbd 41eb 8a3c bbbb 163e 1893 51be
000000a0: c99b b33d e256 8f3d ff11 263d 77d7 d3bc
000000b0: a767 283e 1c57 4e3d 8bde a8be a19b 2e3d
000000c0: 1989 4cbd 5f20 8c3e 5c1f 9dbe 0f5b da3d
000000d0: a8e3 52be 6943 22be 71dc e9bd 1441 cb3d
000000e0: 0563 74bc cb6f aa3d a521 bdbd b44b 18bd
000000f0: 3bd5 f13c f01f e6be cb8c 023c e371 91bd
00000100: 5388 8abd e297 813e a264 5ebd c990 6a3d
00000110: a1ac 383d dd88 4b3c 0ca7 8dbd d5b1 97bd
00000120: 0b53 4abe bee5 ccbb df52 1f3d 435a 183e
00000130: 30b6 243e 1883 953d 2b41 29be 7bcc 313e
00000140: 5bf0 59be 6c13 7dbd 864b 6f3e f0b6 fbbd
00000150: 7c75 2d3e f547 2fbe 33fc d73d 5554 d43c
00000160: f391 bfbe f120 133e 0a8f 1fbc 5ee4 8fbe
00000170: 5d49 733e 3127 d6bc abda 1d3e 45d4 9f3d
00000180: 8d6b 433d f67d 243e 5c32 0cbe 3297 ce3d
00000190: 4916 2fbc 4bb6 743e 36ee ab3e 3b38 cabd
000001a0: 4916 9dbb 1718 1b3a 4640 f23e 57ad 033e
000001b0: 0be9 7fbe 3eb8 753d 0042 ffbc 8322 adbe
000001c0: 2533 043e a50e 1ebe 2ed0 d9bb 8269 0e3e
000001d0: 7eeb c43e 2ce2 abbd fe4d 94be 761d 8bba
000001e0: 6d10 9c3d ee2e 443e 1c77 e53d 260a c93c
000001f0: 2deb cbbd e0d0 b9bc b40c 7b3e f20c 2bbd
00000200: 29c8 8ebe c164 8e3e 5d93 2e3e 0950 02be
00000210: e0cd ca3e 61a0 213e 4047 723d 3dce 2c3d
00000220: fa83 923e b14e 84bd 2569 793e 9d22 473e
00000230: 8096 c63d 13ca 223e 8260 04be 859f 573d
00000240: 74cd 0a3e d279 263e ba3b e13a 62de 273e
00000250: d844 bd3d 9b7e debd de0a ce3d 33e3 053f
00000260: 3455 31be d414 b8be 49dd 3cbe 0148 653d
00000270: e350 813e 2a44 aebd 871f 61bd 5a4f 173e
00000280: fc4c cebe 66c8 26be 0a8d 7cbe f67a edbd
00000290: ff4e a9be 9fc4 aa3d 88cb 753d 1816 7d3e
000002a0: 3a6d a93d dc0e 3c3e 6b7f 9dbd 72eb 723e
000002b0: b99e b8bd 82b4 9abc 1888 5ebd 456d 39b9
000002c0: ef7a c73a e72d 21be 0137 11be a570 36be
000002d0: 8bc4 063e fb86 85bd 29f4 a43e 3352 50be
000002e0: 4791 fbbc 43e4 183e c076 fbbd 0ea1 093b
000002f0: 7c25 a93c 1370 0ebe a52a 91be 90f5 9d3e
00000300: fd3b ef3d b211 98be 7113 8cbe b75c a13d
00000310: 90ba 7abe fbf5 293d 9220 ad3d 8e2e acbd
00000320: 9d28 32be cda5 8ebe d576 933e e079 2e3d
00000330: ba09 35be fd3b a9bd 1dca 193d c1c1 3d3d
00000340: a306 fcbd 95ad 82bc a24c 973e f9af 16be
00000350: 7260 28be 8f4c 503d 80aa 063e d982 0e3d
00000360: c9e0 be3c b3f7 873e fb1e 65bc e15e 3cbd
00000370: cab6 2b3d d227 50be 7b68 323e dc23 25bb
00000380: 73c7 053d 5692 8ebe ebfc c0be d0a8 57be
00000390: 2d16 ccbb 89f3 37be 86db cebd 33aa 453e
000003a0: 7014 2e3e b704 773d c0b1 03bd 9afe 563d
000003b0: b77e 8b3d b395 a8bd 7cc3 85bc fe6a d93d
000003c0: 4170 f93b c5ca 503e e115 4abe 0f5f 26bd
000003d0: ccea d63a 0b16 e53d b716 fbbd 9edb 72bd
000003e0: 7a97 4ebd 49d7 c6bc d8ea 0b3e e747 d83d
000003f0: 2739 c33e 7129 50bd e87e d3bd 7980 49be
0.11252965 0.053589392 -0.06388734 -0.25872284 0.47267962 0.1218204 -0.06747419 0.022720635
-0.030410668 -0.10500813 -0.13998432 -0.12730874 -0.12030577 -0.13890155 0.15925623 0.16112515
0.1394498 -0.24077673 0.067277275 0.19543275 0.1455241 -0.13443722 0.109466046 -0.12993754
-0.22136174 0.08986395 -0.015506089 -0.0057525663 -0.09520106 -0.21452908 0.13078426 -0.027229207
-0.010419088 -0.074123286 -0.01815402 -0.22138877 -0.061428726 0.01695788 0.14720051 -0.20466268
0.08769948 0.069989935 0.040544506 -0.025859578 0.1644579 0.050376043 -0.32982287 0.042628888
-0.049935434 0.27368447 -0.30687988 0.10661899 -0.20594656 -0.15846027 -0.11418999 0.09924522
-0.014916186 0.08322104 -0.09234933 -0.03718157 0.029520622 -0.4494624 0.007968138 -0.071018
-0.06764283 0.2531119 -0.05429519 0.057266984 0.045086507 0.0124227675 -0.06916627 -0.07406966
-0.19758241 -0.0062529733 0.03889739 0.14878182 0.16085124 0.07300395 -0.16528766 0.1736316
-0.21283095 -0.0617861 0.23368654 -0.12290752 0.16939348 -0.17117293 0.1054615 0.025919119
-0.37416038 0.14368035 -0.009738693 -0.28103918 0.23758455 -0.026141735 0.15415446 0.07804159
0.04770999 0.16063675 -0.13691086 0.10087432 -0.010686466 0.23897664 0.33580178 -0.09874006
-0.0047939164 0.00059163704 0.47314662 0.12859093 -0.24991243 0.05999016 -0.031159401 -0.33815393
0.12910135 -0.15435274 -0.0066471314 0.13907436 0.38460916 -0.08392748 -0.28965753 -0.0010613638
0.076203205 0.19158527 0.11204359 0.024540972 -0.099569656 -0.022682607 0.24516565 -0.041760392
-0.27887085 0.27811244 0.17048402 -0.12725843 0.39610195 0.15783836 0.05914998 0.04218887
0.28616315 -0.06460322 0.24356516 0.19446798 0.09696674 0.15897398 -0.1292744 0.052642364
0.13554937 0.16257408 0.0017183938 0.16393426 0.092416465 -0.10863992 0.100606665 0.52299803
-0.17317659 -0.3595339 -0.18443789 0.05597687 0.25257024 -0.08509095 -0.054961707 0.14776364
-0.4029311 -0.16287383 -0.24663177 -0.115957186 -0.33068082 0.08338284 0.060008556 0.2471546
0.082727864 0.18365043 -0.07690319 0.23722628 -0.09014649 -0.018884901 -0.054329008 -0.00017683681
0.0015219132 -0.15740167 -0.14181139 -0.17816408 0.13160913 -0.06519886 0.3221753 -0.20343857
-0.030708922 0.14930825 -0.12278509 0.0021000537 0.020647757 -0.1390994 -0.28352848 0.30851412
0.11681364 -0.29701 -0.27358583 0.07879012 -0.2448523 0.04149435 0.08453478 -0.08407317
-0.17398305 -0.2786087 0.288016 0.042596698 -0.17679492 -0.08263395 0.037546266 0.046327356
-0.12305953 -0.015951911 0.29550654 -0.14715566 -0.16443041 0.050854262 0.13150978 0.034792755
0.023300545 0.26556167 -0.013984437 -0.04598892 0.041922368 -0.2032769 0.17422669 -0.0025198376
0.032660913 -0.2784602 -0.3769296 -0.2106049 -0.0062282295 -0.17963995 -0.101004645 0.19303207
0.16999984 0.06030723 -0.032151937 0.0524889 0.06811278 -0.08231678 -0.016328566 0.1061611
0.0076122587 0.2038985 -0.19734909 -0.040618 0.0016396879 0.11185845 -0.12260192 -0.059291475
-0.050437428 -0.024272578 0.13663805 0.10560589 0.3812954 -0.05082077 -0.1032694 -0.19677915

enc1.2.bias f4 [8]
00000000: 4ed3 dabc 2167 553b 2c8d 0a3d 92f8 09bc
00000010: 4ec9 483a b02a 003d 3d99 df3c 76fb 1d3b
-0.026712086 0.003256269 0.03382604 -0.00842108 0.0007659391 0.03129071 0.02729475 0.0024106181

enc2.0.weight f4 [16, 8, 3, 3]
00000000: 6fee 373c d2e8 45bd 5293 1fbc d570 efbd
00000010: 0971 62be da5f c23d 7aa7 723d 7c18 c1bd
00000020: 2b56 883e 809b 11bc 8002 3d3d bc2d 06bd
00000030: c27b 59be 2715 773d 4c13 15bd bc16 9ebd
00000040: 4826 4cbd 587a 383e 0b6d bbbc 49c7 e23d
00000050: a1cb 48be 0656 60bd 3878 dcbc b327 16be
00000060: 9abc b83d fd83 8c3e 6580 d23d 3272 4fbd
00000070: b180 e33d bbc0 f23d 1aff 8dbc cf3b 20be
00000080: 5da8 57bc eb37 39be 1891 22be 5d9a acbd
00000090: 32af 263e cf6f 63bd f40a 3cbe 0b15 d6bc
000000a0: adb3 ce3c affc 37bd 68e2 08be c710 f9bd
000000b0: 0e91 883d 53f5 4f3d ce3d 483d b287 0d3e
000000c0: 63a7 5f3e 06e5 1bbd db5f 123e a0ac 333e
000000d0: 1027 31bd e80f e43d f9e7 3d3e a8fd 64bd
000000e0: cbc6 9abe d5c4 35be 42a9 4f3e bd53 81bd
000000f0: ce45 b73d bb52 593e 8da5 423e 0014 633b
00000100: 1ae3 3abe 0d3b b33c dec1 8dbc f4fd 06bc
00000110: 41e7 f63d 3b84 cfbd 0adf 26be 9f63 583b
00000120: 94b2 aa3c daa8 6b3d cd6a 7cbc 5bea f9bc
00000130: 08a8 2abd 4c47 f1bd 48b2 b0bd 52b4 b1b9
00000140: 5448 ee3d a737 4bbd c837 553b c62f 9d3e
00000150: 8828 1c3c a61d c2bd 6087 d43c ebb5 80bd
00000160: a5bb 58bc b3fd afbd f06b 003d 0af4 a53c
00000170: bfb7 173e ca79 c13d 508f 053d 6c28 883d
00000180: e34d 5abe a9c8 e63d 9646 443c 429e ecbc
00000190: d5bc aebd d89c ca3d 01af 4abe f641 753d
000001a0: 26e0 363c 1c3f db3d 91e5 7abe 5018 f93c
000001b0: e5e8 1e3e f3a1 75bd 6895 dabc 0b3a 98bc
000001c0: 79d2 aa3d 3891 843d 3cb6 293e 9b09 6c3e
000001d0: 55f4 7d3c 20d0 62bd 52a3 aabd e24c 3f3e
000001e0: 607e 393e c82c 273e 31c3 923d 18bf 05be
000001f0: 45fe c33d c096 043e 7622 593e 4fe9 1c3c
00000200: 7f03 9e3d a656 2e3d f1f5 4d3e c252 fabd
00000210: fb3b 5d3c caeb 20bd c925 4d3e 9a83 80be
00000220: bf15 1d3e eb60 4ebe abe5 1cbe 8e6a 3a3d
00000230: 3619 84bb 37fd 543d 98b6 063b 9653 8abd
00000240: 3858 89bd a070 4ebc 32bb 82be 8829 02bd
00000250: 4953 7f3c 65b3 1d3e 1f9b 5f3e 9774 a3bb
00000260: d50e 54be f3df 06be 44b3 e0bd 3b55 4ebe
00000270: 5dfc bc3d 407c 583e d114 5bbd eab6 3b3c
00000280: 3b72 9ebd 7e23 3fbe 6122 0f3e 820e 503d
00000290: aa47 45be 40bc acbd d93c f43d d1e6 153e
000002a0: 94cd 39bd ba2e 07be b765 9b3d 2847 263e
000002b0: d7a0 d6bc 7fa4 043e a1f4 153e 0ad3 debb
000002c0: 4937 32bd d3d7 283e 3639 39bd 8cea cbbd
000002d0: cbfd 4f3c 668d ab3d ea92 c93d 0bdd 613e
000002e0: d3d8 703d 75d5 b53e 3aed 953e f23b 353e
000002f0: 5661 fa3d 4044 d5bd 9b4c 223e 596b 21be
00000300: e6fa bfbd fad9 a0bd 78a4 2c3e 77c2 5c3e
00000310: 1eb2 6a3d 78b3 d9bd 384c 463d 9ae4 913d
00000320: 6ef7 b6bc 2caa 4f3d 6c82 1c3e ea90 773d
00000330: f676 e53d c2bf e83d 3362 de3c 0a8e 2d3e
00000340: ae3b 1dbe 4d49 033d a398 353e 8134 bebc
00000350: 3230 813e 6268 46be e549 e13c 3d0c d2bd
00000360: 25a0 ee3a 5fe9 8c3d c8c6 3c3e e029 d2bc
00000370: 9269 d33d 936d 973e 9fd5 ee3b 6c73 37bd
00000380: 6397 aebd 3af3 8ebe cdc3 8ebd ac7d a03c
00000390: 54b6 3f3c f32e 00be ec0c 0b3d 6b89 dc3d
000003a0: deac 44bb 74a3 a83d 93b7 b33d 82df 83bd
000003b0: 9a05 11be 4866 a9bd 6e9e 023e 1543 10be
000003c0: b99b 133d 7dcb f13c c4a0 993c 7f7d 84bb
000003d0: 62d7 eabd fc80 773e 172d 483c fa44 3dbd
000003e0: 1f9d 903d 9e0a e7bd 3647 4e3e 75be cd3d
000003f0: 8faa 73be 039b 59be 6071 0b3d cbe9 f73c
0.011226281 -0.048317738 -0.009739714 -0.11691443 -0.22113432 0.094909385 0.05924175 -0.09428498
0.2662824 -0.008887172 0.046144962 -0.03275846 -0.21238616 0.060322907 -0.036395356 -0.0771918
-0.049841195 0.1801542 -0.022879144 0.11073167 -0.19608928 -0.05476954 -0.026912794 -0.14663582
0.09020348 0.2744445 0.102783956 -0.050646015 0.1110853 0.11853167 -0.017333556 -0.15647815
-0.0131626995 -0.18087737 -0.15875661 -0.0842788 0.16277769 -0.05552655 -0.18363553 -0.026133081
0.02523216 -0.044918712 -0.13367617 -0.12161403 0.06668292 0.05077107 0.048887067 0.13821295
0.21841197 -0.03806021 0.14294378 0.1754632 -0.043250144 0.111358464 0.18545522 -0.055905968
-0.30229792 -0.17750867 0.2027941 -0.063148 0.08948861 0.21222965 0.19008465 0.0034649372
-0.18250695 0.021878744 -0.017304357 -0.008239258 0.12055827 -0.10132643 -0.1629602 0.0033018363
0.020837106 0.057534076 -0.015406323 -0.030507257 -0.041664153 -0.11781177 -0.086277544 -0.0003389442
0.11634889 -0.04961362 0.003253447 0.3070051 0.009531148 -0.09478311 0.025943458 -0.06284698
-0.013228332 -0.08593311 0.031352937 0.020257968 0.14816187 0.094470575 0.032607377 0.06648335
-0.21318774 0.11268742 0.01197972 -0.028884057 -0.085321106 0.09893197 -0.19793321 0.05987736
0.01116184 0.107053965 -0.24501635 0.0304071 0.1551853 -0.0599689 -0.02668257 -0.018582365
0.08340926 0.06473011 0.16573423 0.23050539 0.015500148 -0.055374265 -0.08331932 0.18681672
0.18114614 0.16325676 0.07166136 -0.13061178 0.095699824 0.12948132 0.21204552 0.0095771095
0.077155106 0.042563103 0.2011335 -0.12222816 0.01350307 -0.039287366 0.20033945 -0.25100404
0.15340327 -0.20154159 -0.15321986 0.045511775 -0.0040313257 0.051999297 0.0020555612 -0.06754224
-0.067062795 -0.012600094 -0.25533444 -0.03177789 0.015583822 0.15400465 0.21836518 -0.004988264
-0.20708783 -0.13171367 -0.10971692 -0.201497 0.09227822 0.21141148 -0.05348665 0.011457184
-0.077366315 -0.18665883 0.13977958 0.050795086 -0.19265619 -0.08434343 0.11925668 0.1463883
-0.04536207 -0.13201419 0.0758776 0.16238081 -0.026199741 0.12953375 0.146441 -0.00680006
-0.043509755 0.1648858 -0.045220576 -0.09956846 0.012694786 0.08376579 0.09842475 0.22056977
0.05880053 0.35514417 0.29282552 0.17698649 0.122255966 -0.10413408 0.15849535 -0.15763606
-0.09374027 -0.07854076 0.16859615 0.21558557 0.057298772 -0.10629934 0.04841253 0.071236804
-0.02233478 0.050699398 0.15284127 0.060440935 0.112043306 0.113647 0.027146434 0.16948715
-0.15354797 0.032052327 0.17734008 -0.023218395 0.25232083 -0.19375756 0.027501056 -0.102562405
0.0018205686 0.068804495 0.18435204 -0.025654733 0.1032287 0.29575786 0.007288649 -0.04478781
-0.085249685 -0.27919942 -0.0697094 0.019591175 0.011701185 -0.1251791 0.03394787 0.10768398
-0.0030010263 0.08234301 0.087752484 -0.06439115 -0.14162293 -0.08271462 0.12755749 -0.1408809
0.03603718 0.029515976 0.018753417 -0.0040432806 -0.11466862 0.24170297 0.0122177815 -0.04620836
0.070612185 -0.11281322 0.20144352 0.100460924 -0.23795532 -0.21250539 0.03404367 0.030262848

enc2.0.bias f4 [16]
00000000: d0bd f23c 365f 0b3d aa99 8cbc b62b 1e3d
00000010: e0cc d93b 8d05 fc3c 9629 adbc 6af5 c7bc
00000020: bafd d83c db7e 5b3c ac22 fe3c 4640 0a3d
00000030: a320 f53c cfd8 f73c 4936 673c 6724 e73c
0.029631525 0.034026347 -0.017163116 0.038615905 0.0066467375 0.030764366 -0.021137994 -0.024409015
0.026488174 0.013396944 0.031022392 0.033752702 0.029922789 0.03025475 0.014112064 0.0282156

enc2.2.weight f4 [16, 16, 3, 3]
00000000: 64f2 d6ba 1eb8 453d fd26 90bc a938 cabd
00000010: 2126 253e 1d6d 483d 8942 54bd b9d3 81bc
00000020: 5a74 b03c 8d74 02be bf62 6c3e 2b4b dfbd
00000030: 4a88 34be d0dc 3b3d 9fd7 443e 1fff 6fbe
00000040: 75b0 f2bc 1ecc c1bc e47b c6bd 0fa6 86bd
00000050: c35a 10be 5786 a6bd 32be a13e 7c1c 2e3d
00000060: 4ea8 f9bc 4dd2 0e3e 82b7 c8bd de84 483e
00000070: d36a 1b3e 2356 f3bc 235a 1e3e e0a8 2a3e
00000080: 219e dbbd 7ce6 8cbd cbac 9bbe a69e 313e
00000090: 1e82 16bd c5d4 82bd 15b3 033e 57f8 3bbe
000000a0: 7777 01be 200b 6e3e 2f4d c7bd c67a cbbe
000000b0: 8d55 b1bd eee1 823c cdf2 eabc f6bf 013e
000000c0: 13bd 963c 8e82 aebb 42de e4bd e0d8 b5bd
000000d0: ff30 83be 54b0 a0bd 2aeb 883c 9192 1cbd
000000e0: 3b83 c4bd 9809 ff3d 1f89 08be b797 313e
000000f0: ce68 493d fcf0 e83d e425 433d 470b 763d
00000100: 75b7 cf3d 8d00 9e3d badf 0abe 3cc6 a7bc
00000110: 1145 15be 9bd9 e63d 1836 253e f0eb fabb
00000120: 2839 823e 644f 2c3c 5a02 343e e5b6 b7bd
00000130: 5551 7c3d 913c 603e 8877 2dbc 5c62 5ebe
00000140: f638 3e3e 3a3c 60be 7af2 55bd 5d45 6bbe
00000150: 1201 143e da00 133e bff4 c13d d4d0 9dbc
00000160: 2d2b 53be bcc2 413e 8dd3 b1bb aac3 18be
00000170: 9a8c d83d 7411 84bd 3e72 fc3d c815 213d
00000180: 7f25 81be 7d9d 5f3d ac65 383e 66b9 e33d
00000190: a88f 4bbd 180a 7bbd 4a30 5ebd adeb 1b3e
000001a0: 4167 c23d fbfb 123d e51f ccbc 5786 6b3d
000001b0: 7630 afbd 29de a13c dfd6 513e febc 56be
000001c0: f454 71bd 1a54 98bd 9138 393c 7da0 153e
000001d0: 6aed 173e c784 a63c e62b ad3d 9394 10be
000001e0: 0c67 123e c918 143e cdd8 60bd f07b c63d
000001f0: e346 983c e0ff 62bd e465 203e 2525 96bd
00000200: 1e44 d7bd 35d1 b9bc 5aca a2bd 28bb 493d
00000210: 6574 73be f824 663d 88c6 c1bd 3ddc 07be
00000220: 5163 063d 6a92 163e 5bc5 00be a82e 073e
00000230: d109 55bd 7ed7 553d d3d4 77bd eb4c b03d
00000240: 4815 c93c 5415 8f3d 94d5 d73d aab8 1cbd
00000250: 1ef1 cf3d b9a5 123e c5ff 323e 1568 cdbd
00000260: 4778 333e f00f 303e 35a0 ba3d 74d9 393b
00000270: a1b6 92be 9914 f03d 1964 e7bd 5fca 8dbb
00000280: c54a a6bd cc6b 01be 8e71 263e 9460 a23d
00000290: 0eb4 073e 5f93 4fbe 85ce 91bd c594 2ebd
000002a0: 6a04 63bd 2d08 54bd 949b 8abd 3cf7 46be
000002b0: c4ad 03be a2b4 a4bd 0653 013e 077a 66bc
000002c0: a0a5 5bbe 9242 a4bd d12b 5dbd d1c6 883d
000002d0: f7c2 58bc 0dc1 5d3d 4e40 d83d df83 9c3c
000002e0: 96b6 a13d a447 5c3e cc54 343e 66fc 0b3e
000002f0: 5e8a 933c 494e 96bc 8ca7 353e 37eb c1bd
00000300: cec7 d3bd 18ed cc3c 28d3 a53d b6ea 4f3e
00000310: 7af9 863e de54 06bc 0544 80bd d6c4 59bd
00000320: c350 53bd dd37 13be da7d ee3d 8dcd 033e
00000330: e8c3 c7bd 382f a7bd f16f 383e 0faf d23d
00000340: 7ca2 0abe fd0d 083e 1dad 50bb bc63 b13c
00000350: 51d9 00bd 3d8c a43d b000 adbd 9d04 73bc
00000360: e40e a93d c065 263e 6956 32be 1076 863c
00000370: 03e4 9f3e 1d22 103e 0fb0 92bd f5f2 9a3c
00000380: 6be6 d0bc a8d6 833e 6f13 12be b4b3 6dbd
00000390: 00d0 7cbd b199 d43c b87a 1bbd 4f37 b1bd
000003a0: 8961 acbe 4a3e bebd e164 b7bc 2f2b 55be
000003b0: a503 6c3d 5b3c 1f3e 118d 1d3d 24d4 94be
000003c0: 1b7d 35be 4856 ae3d e1a1 40bd 5a55 ac3d
000003d0: 0fbc 2ebe 9341 aabd 202e 843d daca 1cbe
000003e0: 74cb 8e3e 8bcb ea3d bfd8 ba3e dae6 90bd
000003f0: 85b4 b23c acb5 c83c 585f cabc 13e1 0a3e
-0.0016399142 0.04827129 -0.017596716 -0.09874088 0.16127826 0.048932184 -0.051821265 -0.015848028
0.021539856 -0.12739773 0.23084544 -0.10903009 -0.17630115 0.04586488 0.19222878 -0.23437165
-0.029625157 -0.023656901 -0.09691599 -0.06574642 -0.14097123 -0.08131092 0.3159042 0.042507634
-0.030475762 0.13947411 -0.09800626 0.19581935 0.15177469 -0.02970416 0.15464072 0.16665983
-0.1072352 -0.06879899 -0.30405268 0.17345676 -0.036745183 -0.06388239 0.12861283 -0.18356453
-0.12643228 0.23246431 -0.097315185 -0.39742106 -0.08658896 0.015976872 -0.02868023 0.12670884
0.018400704 -0.005325622 -0.11175205 -0.08879256 -0.2562332 -0.07846132 0.016713697 -0.038225714
-0.09595343 0.12453002 -0.13333558 0.17343031 0.049172215 0.11374089 0.047643557 0.06006935
0.101424135 0.07714949 -0.13561907 -0.020480268 -0.14577128 0.11271974 0.16133916 -0.0076575205
0.25434232 0.010516975 0.17579022 -0.08970431 0.061601 0.21898104 -0.0105875805 -0.21717209
0.18576416 -0.21897975 -0.052233197 -0.22975679 0.14453533 0.14355794 0.0947051 -0.019264616
-0.20621939 0.18921942 -0.00542683 -0.1491839 0.105736926 -0.064486414 0.123264775 0.039327413
-0.2522392 0.054593552 0.18007535 0.11119346 -0.04969755 -0.061288923 -0.05424527 0.15226622
0.0949235 0.03588484 -0.024917552 0.057501163 -0.08554165 0.019759255 0.20492123 -0.20970532
-0.05891891 -0.07437916 0.01130499 0.14612003 0.1483666 0.020326985 0.084556386 -0.14119177
0.14297122 0.1446258 -0.054894257 0.09691608 0.018588489 -0.055419803 0.15663868 -0.073313035
-0.10511039 -0.022682765 -0.07948752 0.04925075 -0.2377487 0.0561876 -0.09461695 -0.13267608
0.03280956 0.1470429 -0.12575285 0.13201392 -0.052011315 0.052207462 -0.0605057 0.08608421
0.02454628 0.0698649 0.10538784 -0.038262047 0.10153411 0.1432103 0.17480381 -0.10029618
0.17526351 0.1719358 0.09112588 0.0028358372 -0.2865496 0.11722679 -0.11298389 -0.004327103
-0.0811973 -0.12638777 0.16254255 0.07928577 0.13252279 -0.20271061 -0.071194686 -0.042622346
-0.05542413 -0.05176561 -0.067679554 -0.1943025 -0.12859255 -0.080422655 0.12629327 -0.0140671795
-0.214499 -0.0802051 -0.053996865 0.06678546 -0.013230077 0.054139186 0.1055914 0.01910585
0.07896154 0.21511704 0.17610472 0.13670501 0.018010315 -0.018347876 0.17739695 -0.09468692
-0.10340844 0.025015399 0.080969155 0.20304379 0.2636221 -0.008198945 -0.06262974 -0.053166233
-0.051590692 -0.14376779 0.11645098 0.1287138 -0.09754163 -0.08163303 0.18011452 0.10287296
-0.13538545 0.13286586 -0.0031841465 0.021654002 -0.03145725 0.08034561 -0.08447397 -0.014832643
0.08254793 0.16249752 -0.17415775 0.016413718 0.31228647 0.14075513 -0.07162487 0.018914679
-0.025500497 0.25749707 -0.14265226 -0.058032706 -0.0617218 0.025952192 -0.03795883 -0.086531274
-0.33668163 -0.092892244 -0.02238697 -0.20817254 0.057620663 0.15550368 0.03846461 -0.290681
-0.17723505 0.085125506 -0.04702938 0.08414717 -0.17063926 -0.083132885 0.0645411 -0.15311757
0.27889597 0.11464604 0.3649349 -0.070752814 0.021814594 0.02450069 -0.024703667 0.13562422

enc2.2.bias f4 [16]
00000000: 5980 893c 3860 f43c a8a4 443b cb89 513c
00000010: 532b 063d c4d1 ea3c 0d23 64bb caed b9bb
00000020: fc90 4f3d e313 023d d390 3a3c 5410 c53b
00000030: 7c0f a83c a786 40bc c67a 033d fa56 e83c
0.016784834 0.029831037 0.003000537 0.0127892 0.03275616 0.028664477 -0.003481093 -0.0056740986
0.050675377 0.031757247 0.011387068 0.0060139094 0.020515196 -0.011750854 0.032099508 0.028361786

bottleneck.0.weight f4 [32, 16, 3, 3]
00000000: cb8e b9bd a9ae 543d 3b2a 6e3d 3044 d13c
00000010: 40b3 bd3d 7dd2 8bbc 9e2f da3c 1af9 03bc
00000020: 23b7 34be 95aa bbbc 7e16 51be 73e0 e23d
00000030: d00d 52bc c430 833d c8f8 0c3e fd65 2dbe
00000040: 63a1 403e 255c 4e3d 3b69 543d c692 de3d
00000050: 9af6 ad3d 39d3 50bd ae2b 0c3e 6e5a 6d3e
00000060: 4db5 22bd d784 7ebb cb8a b1ba a9f2 6b3d
00000070: a739 8cbd 3d22 1c3d 2986 39bd 07d4 d5bd
00000080: b16a 56bb 252c f93d 3700 84bc 0182 9fbd
00000090: 9f5c b5bd c390 8cbd eda1 c6bb e2d7 78bd
000000a0: cb56 563d 9fb4 39be 7157 cc3d feaf febd
000000b0: 0307 eb3d 8a54 4ebd 65d2 063e 24ed 1f3c
000000c0: 66b2 debd d203 b73d fa71 87bd a012 023e
000000d0: 2a37 ca3d b355 65bd 6f83 053c 4b37 413e
000000e0: e651 14bd 78e7 8a3d db1a 1a3d 932f c6bd
000000f0: 3c9f c6bd d64b 7e3e b848 fa3d b182 4cbd
00000100: 42be 463d 9fac 0fbd 30f0 343d dd4d 273e
00000110: 4e27 f93d 3a45 6d3c 9d39 e13b 94cb b9bc
00000120: 7571 c7bd 5390 213c 05e9 0bbe 60d6 88bd
00000130: 7bc1 9abd 3666 edbc 1f5a efbd 5978 133d
00000140: 39f4 1c3e c3ec a2bd 8ed9 ec3d d286 893d
00000150: 04d9 dabc 8659 8f3d e4b9 233e a376 ccbd
00000160: 05d7 073d 40fb b03a d929 f53c 1f70 11bd
00000170: 3f73 20bd 3387 e13d 5da5 0e3e cbea 093e
00000180: 129e f9bc 3611 9e3d c07a 16bd 239c a23c
00000190: badd 0b3e cd23 72bd f963 8fbb 110c bc3d
000001a0: a2d2 303c 3a12 343d fd92 873e f059 df3d
000001b0: 4361 d8bc 7c99 f43c 662a 36bd 316b 103e
000001c0: 86bb 853d ba2e adbd 816d 3fbd d0d9 05bd
000001d0: 2016 4dbe f0ca b23d b583 603d 564b 2abe
000001e0: b763 1c3e 56fb 38bd aba8 b53d 895c 573d
000001f0: fd1b 1f3d abf9 613e 1b8d 0cbd 563d 2a3d
00000200: aa36 0abe a725 643d b669 1cbd 1a72 23bd
00000210: 3569 a53c ee9b cfbd 077e 67bd d11d 033b
00000220: a291 2c3e 7f19 163d ad4d 563d f5ba 5f3d
00000230: 67e6 313d 9e9a c83d 78a4 623d 46bc 5d3d
00000240: a966 82bc 06f5 f3bd b914 b73d 66f2 463c
00000250: 6ee6 193d 0c2a 24bb 959f d8bc c4f0 b9bd
00000260: b812 543d 3d9d a53d 7787 58bd ae15 f33c
00000270: daa2 853d f672 5c3b 0d28 2bbe 8872 30bd
00000280: cd7b 85bd 0572 7e3e 6fdf 323c ccaa 00be
00000290: 0e8f 9cbd e58c 91bd f431 d4bd dfe6 4e3c
000002a0: e475 59bd 2cca 5f3d 00fa c03d c412 c2bd
000002b0: 6670 8fbd 12cb 413d b380 463d 4871 5dbd
000002c0: c18b c63c b833 453d bdce 073d 2cce ca3d
000002d0: c165 463d c084 4c3c 065f c93d c18e fe3d
000002e0: 7c11 b23d 917d 963d 39a4 5f3d 332c 8abc
000002f0: 11ba 95bd dea0 aebc 033f 003d 1825 49bd
00000300: a422 adbc 04e6 e23c 95e4 09bd 8384 1e3d
00000310: 19e4 24bd 9138 083e 04c5 c9bd 932a 7bbd
00000320: 98f2 18be 34c0 9c3c 9496 4f3d 8eb5 15be
00000330: ad3c 833d fb2d 9b3d f375 0b3e 5bd0 27be
00000340: 7780 1fbd efab 5abe 3eff ca3d 89b0 5f3e
00000350: 57eb 4ebd a87e 3d3d 6b36 b53c d17b 54bd
00000360: efb6 c2bd 8711 023e 907a 6abc 9ec6 de3d
00000370: 33a4 30bb b2e9 483d e87a 27bd 43db 5b3e
00000380: 7af0 c13d 8e99 9f3c 6d43 8dbc d424 dbbd
00000390: 2a62 933d 9823 d8bd d56b 4abd f755 58be
000003a0: 23bc d03d ee70 c9bd 37d4 9c3d 8f0c a33d
000003b0: 8e1b c4bd 74a4 1d3e 7d87 97bc e388 15be
000003c0: b068 503d eb82 5db9 0899 e93d 5251 2abd
000003d0: dded 17bb da23 223e f29c fc3d e3a4 f5bb
000003e0: 1330 0b3e 559d 9c3d 8e74 64bc 081a 0a3e
000003f0: 5876 9f3d ee22 0a3e 5297 5ebd d64b a3bd
-0.09060439 0.05192438 0.058145743 0.02554521 0.09262705 -0.017068142 0.026634034 -0.008054996
-0.17647986 -0.022908488 -0.20418736 0.110779665 -0.012820676 0.06405786 0.13766778 -0.16933437
0.18811564 0.050380845 0.051858168 0.108678386 0.08494301 -0.050982688 0.13688537 0.23179027
-0.039723683 -0.0038836503 -0.0013545392 0.057604466 -0.06846934 0.03811859 -0.04529396 -0.10440832
-0.0032717402 0.12166623 -0.016113384 -0.07788468 -0.08855557 -0.068635486 -0.0060617835 -0.060752757
0.052328866 -0.18135308 0.099776156 -0.124359116 0.11475947 -0.05037359 0.13166197 0.009761129
-0.108738706 0.089362755 -0.06613536 0.12702417 0.09873803 -0.055989932 0.008149012 0.18868749
-0.036210917 0.067824304 0.037623268 -0.09677043 -0.0969834 0.24833617 0.12220901 -0.049929325
0.048521288 -0.035076734 0.044174373 0.16338296 0.121657 0.014481837 0.006873323 -0.022680081
-0.09738437 0.00986107 -0.13663109 -0.06681514 -0.07556435 -0.028979402 -0.11687111 0.036003444
0.15327539 -0.07955315 0.11564933 0.06715168 -0.02671481 0.06999497 0.1598888 -0.09983566
0.033164043 0.0013502613 0.029927181 -0.035507318 -0.039172407 0.11012115 0.13930269 0.13468473
-0.030470882 0.077181265 -0.036738157 0.019849842 0.136588 -0.059116174 -0.0043759313 0.09181989
0.010792406 0.043962695 0.2647933 0.10905826 -0.026413566 0.029858343 -0.044474028 0.1410339
0.06529908 -0.08456178 -0.04673529 -0.032678425 -0.20027971 0.087301135 0.054813106 -0.16630301
0.15272413 -0.045161568 0.088700615 0.052578483 0.03884505 0.22067897 -0.034314256 0.0415624
-0.13497415 0.05569997 -0.03818675 -0.039903738 0.020191768 -0.10137163 -0.056516673 0.0020006786
0.1685243 0.03664541 0.05232017 0.054621655 0.04343262 0.09795116 0.05533263 0.05413463
-0.015918093 -0.11911969 0.089394994 0.012142753 0.03757327 -0.0025049476 -0.026443282 -0.090791255
0.051775664 0.080866314 -0.052863564 0.029673424 0.06525202 0.0033637858 -0.16714497 -0.043077976
-0.06517754 0.24848182 0.0109175285 -0.12565154 -0.07644473 -0.071069516 -0.1036109 0.012628286
-0.053090945 0.054636165 0.09422684 -0.094762355 -0.0700386 0.047312804 0.04846258 -0.05406311
0.024236562 0.048145026 0.033156145 0.099026054 0.048436884 0.012482822 0.098325774 0.12429572
0.08694741 0.07348169 0.054599974 -0.016866779 -0.0731088 -0.021316942 0.031310093 -0.04910764
-0.021134682 0.02769757 -0.03366526 0.03870059 -0.040256593 0.13302828 -0.09852031 -0.0613199
-0.14936292 0.019134618 0.050680712 -0.14620039 0.06408057 0.075771295 0.13619213 -0.16388075
-0.038940873 -0.2135465 0.09911965 0.21844687 -0.050517406 0.046263367 0.022120675 -0.051875893
-0.09507548 0.12701999 -0.014311448 0.10877727 -0.002695334 0.049050994 -0.040888697 0.2147036
0.094696954 0.0194824 -0.017244065 -0.10700384 0.07196458 -0.10553664 -0.049419243 -0.21126543
0.10192134 -0.09835993 0.07657664 0.0796138 -0.09575568 0.15394765 -0.018497223 -0.14603
0.050881088 -0.00021124973 0.114061415 -0.04158146 -0.002318255 0.15833989 0.123346224 -0.0074964627
0.13592558 0.07647196 -0.013943804 0.13486493 0.07786244 0.13489887 -0.05434353 -0.07973449

bottleneck.0.bias f4 [32]
00000000: 5004 ecbc b5e3 e03c e4e8 f33c 3236 093d
00000010: e0ad ee3c ef67 b93c f3f7 5c3c 00df 82bb
00000020: 0974 e83c ef96 29bc 9e3e 7b3c c0ad 193d
00000030: 8731 0ebc 243e d03c 3e6e bab9 0f07 003d
00000040: 15bc 0a3d ed0d 413c b4a1 d63c d28f 543d
00000050: 868c 463c b3ae 4c3d bd59 ca3c 625d 50bc
00000060: 7f33 053d e073 b03c f098 ecbc 49ee 843c
00000070: e82f 823c 7cc7 e23c e545 b83c 9cbc 043d
-0.02881065 0.02745233 0.029774137 0.03349895 0.029135644 0.022632567 0.01348685 -0.003993869
0.028375642 -0.010350927 0.015334753 0.037519217 -0.0086788 0.025420256 -0.0003555882 0.03125673
0.033870775 0.011783105 0.026200153 0.05189497 0.012118464 0.049971294 0.024700994 -0.012717577
0.032519814 0.021539629 -0.02888152 0.016226904 0.015891984 0.027683012 0.022494266 0.032406434

bottleneck.2.weight f4 [32, 32, 3, 3]
00000000: a3fd b93b 050c 933a 3142 42be 4902 d1bd
00000010: 2314 38be b2fb 04bc 1286 88bd 8a07 f2bd
00000020: 9473 b3bc 87da f93b eaab 3ebe 5a65 1fbd
00000030: 9396 733c 3521 e33d f39b 8b3d 2fc5 a13d
00000040: 82de 0cbd 9a78 6abc 2e38 43bd 2e42 633e
00000050: 22c9 0d3d 8794 c1bd 18f5 8f3d 1213 e2bc
00000060: 3394 c13d 5ddf 97bd b739 da3d cb19 bebc
00000070: 7d43 bf3d a198 8a3c 486a 043b 1168 273e
00000080: a1fe b53d d113 593d 9368 df3d 098c 0b3d
00000090: 15aa 2e3d bb62 2cbc bd40 6e3d bcda 8c3c
000000a0: 6662 96bd 34da 1a3e 21f2 1fbc 0256 153d
000000b0: c9a2 0abe 0c03 2fbe feb7 18be f9e8 92bd
000000c0: 9c6b e53d 12fc 883d 62a1 053e 14e8 97bd
000000d0: 7a7e 96bd 0787 873d 9d6d a83d 59cd 023d
000000e0: fc60 3d3c f8f1 4f3c f873 613b b923 a13d
000000f0: f5ba 81bd 04bc 5fbd d8a7 51bd d43d 533c
00000100: d361 823c accf 0d3e 31f6 1e3d 0c8c a53d
00000110: f3bd 043d e4ae 27bd ca70 cf3c 744c 8f3d
00000120: 85cc 2fbe 5c27 9e3c d916 c1bd 9033 993d
00000130: dace 953b d6ba 4b3d c0d0 883d 52ce 8bbd
00000140: 9f94 373d d958 a13b 0608 8c3c d4e7 02bc
00000150: 8e85 3ebd 3009 2c3d c111 62bd 8899 c6bb
00000160: 749f 51be c858 bbbd eefe a7bc bae4 d33c
00000170: 6be8 10bd 0196 a5bd 08c4 fc3d 817e 973d
00000180: 2af0 a03c 3114 753d fd1f 1b3d 4c95 d23c
00000190: 43e5 8a3d d9e5 043e 66bc 0b3e 5336 393e
000001a0: 4669 8ebc 8abc cb3d 994e dabd 6a47 593d
000001b0: 468c 84bc 299e 18bd 3124 19bd c5fb b1ba
000001c0: 7a33 70bd 7ee2 8abd b302 00be a07f 9cbd
000001d0: fd82 09be dafe babc e457 8a3d 2c12 edbd
000001e0: 6df8 9dbd 325a b13c 0158 433d 39eb 50be
000001f0: 5c01 1c3c c521 b33d e4b7 f43d c263 3f3d
00000200: 2962 91bd 7aef 123e a3b9 1c3e 48da 12be
00000210: a7d9 91bd 0a4a 0f3e 9615 993d 774b 57bd
00000220: d73f ac3d 3c86 613c a4ce c6bd fb20 fe3c
00000230: f6e2 e33c dba2 af3d b0d2 a6bd 76b9 cb3d
00000240: 2e76 4c3e 5dae 18be 9a4f e9bc 7e3d 52bd
00000250: 9f0e 4c3d a028 7a3c c251 ddbd 5afd 4b3d
00000260: 5a5b 12bd d5ef cdbc 171a 43bd a8c3 fc3d
00000270: d435 d93c 2249 21bd c5b1 dd3c c029 183d
00000280: 0120 0a3e 5df3 4fbd 00f8 36bc 31cb ddbd
00000290: 714b c5bd 4423 4cbe add1 e63c 1706 b1bd
000002a0: 0b0d 8f3c be1d 3b3e 286e 27bc eec6 0cbd
000002b0: 8d99 74bc be08 13be ba14 633d 66c7 643d
000002c0: 46a2 1abe 7328 d6bc 9aee 913d 4154 d13d
000002d0: 8aee 95bc d614 f6bd 4e5e f33d 30ea dcbd
000002e0: 755f 38bd 7810 a9bd 75a2 9abd 8bfd a33d
000002f0: 5eca 053e ca62 69be f8bc 01bc 8b7b bb3c
00000300: ad0d 3dbd e03c 2d3b 27e5 f13c 34e9 2fbe
00000310: d636 c63d c36c 8b3c e692 3f3d a0bb a1bd
00000320: 37b9 5c3d 1029 3dbc f1ef f73c d8ad 393e
00000330: 43d9 1f3d 0f7d f4bd a4f1 283d ffb9 463d
00000340: f8bc 6c3d eac0 c8bd 8ec2 a63c 0b5d 2bbe
00000350: 1d5b dbbb 3f9f 5ebd c899 4abb e28b 03be
00000360: fdd4 333c 1041 903c 6dd6 9e3c d3a4 493d
00000370: 2b04 fcbc 31d8 e53d fdb3 883c e5fb 673d
00000380: a87c 093d 1834 cebd 75e3 77bd e766 593c
00000390: f58e 7dbd dda1 e2bd e5f3 d73d f359 7c3d
000003a0: c4ed 49bd 7e9e 663d f197 7a3d af94 10be
000003b0: 29aa 18bd 11ac 343e 9cf8 03be f14b 98bd
000003c0: ede7 2d3d 4a6b 62bc 3d06 9fbd 31cf 8f3d
000003d0: 2826 9a3d 646b 6e3d ea52 c73c 3e64 843d
000003e0: 7593 233e ba14 a7bd 0e36 6abc 6ee5 2b3d
000003f0: 236c 223e 2af9 7e3e 8d64 953e 5f2e acbc
0.005675988 0.0011218792 -0.18970563 -0.10205514 -0.17976432 -0.008116649 -0.06666197 -0.11817844
-0.021905698 0.0076249274 -0.18620268 -0.038915016 0.014867443 0.11090318 0.06816854 0.07898938
-0.034391887 -0.01431098 -0.047661 0.22193214 0.034615643 -0.094521575 0.0702917 -0.027596984
0.09452095 -0.0741565 0.106555395 -0.023205658 0.09339044 0.016918482 0.002020495 0.16348292
0.08886457 0.052997414 0.10908618 0.034069095 0.04264267 -0.010521586 0.058167208 0.017194144
-0.07342987 0.151223 -0.009762318 0.036458977 -0.1353866 -0.17091006 -0.14913937 -0.07173342
0.112021655 0.066887036 0.13049844 -0.07417312 -0.07348342 0.06617551 0.08224032 0.031934116
0.011558767 0.012691967 0.0034401398 0.07868142 -0.06334487 -0.054622665 -0.05118546 0.012893159
0.015915787 0.13848752 0.038809005 0.080833524 0.032407712 -0.040938273 0.025322337 0.06997004
-0.17167862 0.019305877 -0.09428186 0.07480538 0.004571778 0.049738728 0.06680441 -0.06826462
0.04481947 0.0049239215 0.01709367 -0.007989842 -0.046514086 0.04200095 -0.055192713 -0.006060783
-0.20470983 -0.09147793 -0.020507302 0.025865901 -0.0353779 -0.080852516 0.123420775 0.073971756
0.01964577 0.05983371 0.037872303 0.025705956 0.067820095 0.12978305 0.13646087 0.1808713
-0.017384183 0.0994807 -0.106595226 0.05304662 -0.016180169 -0.03726021 -0.03738803 -0.0013579061
-0.058642842 -0.06781481 -0.1250103 -0.0764153 -0.13428874 -0.0228266 0.06755045 -0.11575732
-0.07713399 0.021649454 0.04769135 -0.2040223 0.0095218085 0.087466754 0.11949137 0.046725996
-0.07098801 0.14349166 0.1530519 -0.1434108 -0.07121592 0.13993087 0.0747482 -0.052562203
0.08410614 0.013764914 -0.09707382 0.031021586 0.027818184 0.08575984 -0.08145654 0.09947483
0.19966957 -0.14910264 -0.02848034 -0.051328175 0.04981863 0.015268475 -0.1080661 0.04980216
-0.03573165 -0.025138775 -0.047632303 0.12342006 0.026514925 -0.039376386 0.027062306 0.03714919
0.13488771 -0.0507692 -0.011167526 -0.10829771 -0.0963353 -0.19935328 0.028176153 -0.0864374
0.017462274 0.18273064 -0.010219134 -0.0343694 -0.0149291875 -0.14358804 0.05543969 0.055854224
-0.15100965 -0.026142335 0.07125588 0.10221148 -0.01830222 -0.12015693 0.118832216 -0.10786855
-0.04501291 -0.08255094 -0.075505175 0.08007344 0.13065478 -0.22791591 -0.007918589 0.022886058
-0.04615562 0.002643399 0.029528214 -0.17178804 0.09678428 0.017019635 0.046770953 -0.07897115
0.053887572 -0.011545435 0.03026578 0.18132722 0.039025556 -0.119379155 0.04124607 0.048517223
0.057797402 -0.098024204 0.020356443 -0.16734712 -0.006694211 -0.054351088 -0.0030914415 -0.1284633
0.010976073 0.01760915 0.019389356 0.049229454 -0.030763706 0.11222876 0.016687388 0.05663671
0.033566147 -0.1006853 -0.060519654 0.013269163 -0.061903913 -0.11066029 0.10544566 0.06160922
-0.049299017 0.056303494 0.06118006 -0.14119218 -0.037271652 0.17643763 -0.12887806 -0.0743636
0.04245751 -0.013819525 -0.07764862 0.070219405 0.07526809 0.058207884 0.024331529 0.06464432
0.15974219 -0.0815825 -0.014295114 0.041966848 0.15861563 0.24899736 0.29178277 -0.021018205

bottleneck.2.bias f4 [32]
00000000: c2ee f13c 9807 2b3d faa6 f93c 9ff6 68bc
00000010: 1f21 10bc f211 6cbc 175b e03c 7d62 5fbc
00000020: 1723 043d 2938 0c3c 1365 0e3d 6f0f 03bd
00000030: a267 10bd d30b ed3c dd4b 5abc c18f e23c
00000040: 9381 893c 25b0 09bc 69bc 053d dfed 86bb
00000050: 9c30 003d 942b 25bb 04dc 26bd 0b99 05bc
00000060: 4e12 da3c 3567 013d f297 ebbc a181 d43c
00000070: 72bb 8b3c ef15 6dbc 96c8 e13c ba69 4d3b
0.029532794 0.04175529 0.030475128 -0.014218955 -0.008796959 -0.014408575 0.027387185 -0.013634321
0.032260027 0.0085583115 0.03476436 -0.03199714 -0.035255082 0.028936302 -0.013323751 0.027656438
0.016785419 -0.008403813 0.032650385 -0.004117712 0.031296358 -0.0025202977 -0.040737167 -0.008154164
0.026620056 0.031592567 -0.028758977 0.025940718 0.017057154 -0.014470561 0.027561467 0.0031343536

up1.weight f4 [32, 16, 2, 2]
00000000: 6b69 963d 79e4 7b3d a86b 85be 0f6f d1bc
00000010: dabe e0bd c700 ef3d 6268 a03d 69e8 9b3e
00000020: 2e4b 40be 2db7 a8bd b54e ce3d 595d 923c
00000030: 125d bbbd f3eb 933d 3b60 e53d 6e02 b6bd
00000040: 0fda 513b 84c2 983e edc2 9d3d 2053 a5bd
00000050: c70b 233d dea6 25be 9aed a13c 49aa b9bd
00000060: 0a38 073e e23a ee3d 05fe 25bd f550 bbbd
00000070: bb37 f83c 1644 51be ebd3 6d3e fe07 a33d
00000080: 2ef6 63be 7b4d e93d c45d 61be 66b0 b1bd
00000090: bdb3 413d 8e18 66bd 4d58 3e3e 28a2 4e3e
000000a0: 846d ecbd 669f 463e 88f9 a23d 4485 083e
000000b0: 7dcb ecba e5de da3d e56b bcbd 5ec9 9abc
000000c0: a929 ba3d 9959 8abe 7e31 f3bc 8247 9e3d
000000d0: 1636 f93c 01f4 75bd 5ff5 8f3e 7776 1c3e
000000e0: 7ccb f4bd 8874 71be e77a 823d 4887 1dbd
000000f0: 9602 c13b 4b41 673e e0c2 c1bd ee01 4e3d
00000100: 74da 15be 0146 1fbe f996 943d 6c17 bfbd
00000110: 7f1f 7cbe 1356 25be 95bd 62be 6a9f a53b
00000120: c1fc 943e 051f d23d 51d6 4abd b9b6 bcbd
00000130: 3d8e ed3d 2f5b 1d3c 4b3f 1e3e 2291 94bd
00000140: 25dd 35be 77eb 11be 4707 3ebd 5619 8bbe
00000150: 21b3 e33b 29f7 0bbd d939 3d3d 2904 733d
00000160: 1026 f0bd dfba a3bc 5a8d 1abe 579e ccbe
00000170: cd16 d83d d958 e03d 2146 57be 35e9 e0bd
00000180: 9fc3 43be 7dfb 13bd e7b8 8bbe 6f03 e23d
00000190: b159 2f3d 3fc8 173e 0465 af3d 0ca2 093d
000001a0: 0de6 bd3c 5788 f5bd 0ced 12bc 646b fd3d
000001b0: 7653 09be 80c9 f5bb b83f 783e 5f3f 743d
000001c0: 76d3 96bd ae1e f83d 6b26 9f3d 0c4f 0a3e
000001d0: cef4 c83d 9107 003d 3791 4e3e dd73 92bd
000001e0: 90a9 8a3d e691 2c3e 3579 69bd dffa d0bd
000001f0: 7770 31be f33b f0bd fd99 6fbe ef61 39bd
00000200: c9d5 09bd 726f 87bd 7bf1 00be 243b 803e
00000210: b04f a83b fbea 6abc 04eb 19be 74d9 2ebd
00000220: e55c 2c3d 15e6 8b3d 2c11 5f3e e57f 803e
00000230: a01c d63d ede5 973d 32ea a03e 9bdd b2bc
00000240: 817d 5abd fd1c 91bc a5cd 63be 7daf 4ebe
00000250: 6da0 68bc 303b 203d 0a9e 9abd 57a5 eebc
00000260: 46c9 273d 3d81 0d3e 7714 33bd 66c3 18be
00000270: b563 cfbe 0deb 26bd 6d01 74bd 0118 e7bb
00000280: 6640 423e 91aa c6bb 0e17 1fbe 5d27 b63e
00000290: 7872 d43d 6ef6 e83d c44c 423e 4d32 87bd
000002a0: 4068 163d 9f88 70bc 9603 1c3d a91e 86bd
000002b0: 0e97 4f3d 1ee3 a4bd cdac b73d 3bb0 d8bd
000002c0: 4212 debc 985b a83c 997b 6dbd f138 6d3e
000002d0: ba2c 0ebd 9589 abbc fc93 9fb9 6e29 8b3e
000002e0: 86fe c4bd 9b3e 193e 9508 4dbd fa99 07be
000002f0: 4cae e83d cc7b dcbd 37a2 13bd 075d 13be
00000300: 5515 b9bd 9376 453d bde3 123d ebd0 d33d
00000310: e051 de3d 53d3 0f3e 363e 8ebe 0a24 ac3d
00000320: 0522 19be 657f 39be 1e0f 56bd ea33 c13d
00000330: 6dcb 96be 8767 66bb 2737 873d 1933 273e
00000340: 960c a63d 73f4 ddbd 6268 043e 5c8f 6bbd
00000350: e6dd 47bc 495c 75bc ab5b a33d 5278 c33d
00000360: 0c3b ffbc 4720 fabb a49d b83e 68a8 d53c
00000370: 3930 dabc b121 ff3d 6f6d b23c cb85 7abd
00000380: b234 a3bb 2a3d 99bc c95b e83c b95e 73bd
00000390: 9ae0 b53d dd58 53be 2e30 693d ce66 603e
000003a0: a400 ccbd 76de 13bd eb12 103e a681 49be
000003b0: 806f f83c 140e 23be ed41 9b3d 6499 a23d
000003c0: b16c c6bc 8f9c dc3d 960f f83d 44a1 07be
000003d0: fff9 023e 788b d9bc 8ed5 063e 7881 0ebe
000003e0: e024 773e ba02 70bd 84e6 fa3d 4b52 68bd
000003f0: fd7c 20be 4078 a63d 5e67 ac3d d129 eb3c
0.07344326 0.061497185 -0.26058698 -0.025565652 -0.10973902 0.1167007 0.078324094 0.30450752
-0.18778679 -0.08238063 0.10073606 0.017866777 -0.09148611 0.07222738 0.11199995 -0.08887182
0.0032020842 0.29835904 0.07703195 -0.080724955 0.039806154 -0.16176936 0.019766618 -0.090656824
0.13204971 0.11632325 -0.040525455 -0.09146301 0.030300012 -0.20436129 0.23225372 0.07960509
-0.22261879 0.11391731 -0.22008425 -0.086762235 0.047290552 -0.05617576 0.18588372 0.20179045
-0.11544326 0.19396743 0.079577506 0.13332087 -0.0018066015 0.10687045 -0.09200267 -0.018894847
0.09089977 -0.27021483 -0.029686686 0.07728483 0.030421298 -0.060047153 0.2811689 0.15279566
-0.11952874 -0.2357961 0.06371098 -0.038459092 0.005890201 0.22583501 -0.094609976 0.05029481
-0.14634115 -0.15554048 0.07255358 -0.09330639 -0.2462139 -0.16146116 -0.22142632 0.005054404
0.29099086 0.10259823 -0.049520794 -0.09214539 0.115993954 0.009604259 0.15453832 -0.072542444
-0.17760141 -0.14249979 -0.04639366 -0.27167767 0.006948844 -0.034171257 0.046197746 0.05933014
-0.1172601 -0.019986568 -0.15092984 -0.39964554 0.10551224 0.10954446 -0.21022846 -0.10981981
-0.19117592 -0.03612851 -0.27289507 0.11035811 0.042810146 0.14822482 0.08564189 0.033601806
0.023180986 -0.119888954 -0.008967649 0.12373999 -0.13410744 -0.0075008273 0.24243057 0.059630748
-0.07364552 0.12115227 0.077709995 0.13506716 0.09812318 0.031257216 0.20172583 -0.071510054
0.06770623 0.16852531 -0.057000358 -0.102041 -0.17328058 -0.117301844 -0.23398586 -0.045259412
-0.033651147 -0.066130534 -0.12592117 0.2504512 0.0051364526 -0.01433825 -0.15031058 -0.04268785
0.04208078 0.06830994 0.21783894 0.25097576 0.104546785 0.07416902 0.31428677 -0.021834185
-0.053342346 -0.017714018 -0.22246416 -0.20184131 -0.014198405 0.039118946 -0.07549675 -0.029131575
0.040963434 0.13818832 -0.04372069 -0.14918289 -0.40505758 -0.040751506 -0.059571672 -0.007052422
0.18969879 -0.0060628136 -0.15536138 0.35576907 0.10373396 0.11375128 0.18974596 -0.06601391
0.036720514 -0.0146810105 0.038089357 -0.06548817 0.050681166 -0.08051132 0.08968506 -0.10580488
-0.027108315 0.020551488 -0.0579792 0.23166253 -0.034710623 -0.020939628 -0.000304371 0.27180046
-0.09618859 0.14965288 -0.050057013 -0.13242331 0.113613695 -0.107658 -0.036043372 -0.14390956
-0.09037272 0.048208784 0.03586172 0.10342582 0.1085546 0.14045458 -0.27781838 0.084053114
-0.14954384 -0.18115003 -0.05226051 0.0943373 -0.29452077 -0.0035156922 0.06602316 0.16328086
0.08107869 -0.108376406 0.12930444 -0.057509765 -0.012198901 -0.014975616 0.07976469 0.09544434
-0.031156085 -0.0076332423 0.3605777 0.026081279 -0.026634322 0.12457598 0.021780698 -0.06116275
-0.004980647 -0.018705923 0.02836408 -0.059416506 0.0888073 -0.20639367 0.056930713 0.21914217
-0.0996106 -0.036100827 0.14069717 -0.19678363 0.030326605 -0.15923339 0.07580934 0.07939413
-0.02422175 0.10772049 0.12112348 -0.13245112 0.12790678 -0.026555762 0.13167402 -0.13916576
0.2413516 -0.05859635 0.122509986 -0.056719106 -0.15672679 0.081284046 0.08418153 0.028706463

up1.bias f4 [16]
00000000: 985d d83c b4f8 06bd f69f e33c ee5a 95bc
00000010: c613 d8bc 8923 e2bc 6100 02bd c420 ccbc
00000020: cedd bfbc c4ba c73c 0b5e cbbc 2d85 e23c
00000030: 376a f23c 54ff d63c 0d86 c3bc cdb8 dcbc
0.026411816 -0.032952026 0.027786236 -0.018231835 -0.026376616 -0.027604835 -0.031738643 -0.024917968
-0.023421194 0.024381049 -0.024825117 0.027651394 0.029591663 0.026244797 -0.023867631 -0.026943589

dec1.0.weight f4 [16, 32, 3, 3]
00000000: c4b1 c73d a23e df3d 12e2 b23d 71a3 8b3d
00000010: 0caa d53d 11af afbd 82cd a33d f1d3 0f3e
00000020: e665 5bbe 5539 ee3c f836 acbd 6555 45bb
00000030: cd48 54be ab5a 973d 9c07 373e 9269 9fbd
00000040: f8a6 2d3d 11f6 683d 06b8 bf3c 29b2 efbd
00000050: 4371 1e3e 9fb6 953d f48e fd3c b5ac 7a3d
00000060: 5a7d eebd 2518 8cb9 9f05 893e ed7b 98bd
00000070: fec7 c53c caf1 46be 1803 70be b7c8 2dbb
00000080: 6f2a 01be c23d bdbd 0d35 563d 0c59 b93d
00000090: 8611 dfba 144b 493e 1f4b a8bc fff2 66bc
000000a0: 3dfc 80bd 278b b83c 7dbf 11bd ba7f b1bd
000000b0: 2dcb 563e 161c 83ba a730 003e f174 f23d
000000c0: f894 9f3d 92a8 d83d 7d5f 973d 35d6 193c
000000d0: e02c 803d 65e8 f93c 6a30 22be 73b0 c03d
000000e0: 9927 f5bc 3030 1ebe 538d cd3d ce56 2b3c
000000f0: 36ff 553e 7ddb 153e 8429 f7bd eb0f b3bd
00000100: ee26 f4bd 4fff 82be 5a0d 84be f183 aa38
00000110: 7fd4 c5bc b95e 4bbe 1913 75bd 17be 6dbe
00000120: 596d 79bd d4c4 c0bd 196c 263e 096b d63d
00000130: 69a9 743d 7178 143e a7a6 80be 8269 c1bd
00000140: af1a 823d d188 553e 91a1 463e 803d 4e3d
00000150: d8b2 55bd ad7f aa3d f829 e6bc 3b2c af3b
00000160: 987f 09bc 2fbe de3d c16f d43d 3207 5fbd
00000170: 4d50 aebd 8628 283e e85b 21be 7da7 de3d
00000180: 71bf c1bd c081 d0bc 14f1 dcbd 3783 7cbd
00000190: f01d 7ebd 7e3b a53e a373 0abe a1c4 223e
000001a0: 2c74 3d3c 6782 873e d8fa acbd 24d7 2c3c
000001b0: 2584 7cbc c6b4 c4bd b633 3abe 396d 58bb
000001c0: 2a20 2a3b fe2a c23d 18fc 8e3c 5b98 7a3d
000001d0: 5788 dabd 33ab 033d c456 99be cf0c 31bd
000001e0: ef9d 83bc c5be e0bc 54a7 4ab9 4a44 4ebe
000001f0: 65f4 1d3d 9e31 e33d 39f6 c0bc eb0b 5a3b
00000200: fad4 6f3d bb53 4fbe 62e9 25bd 7f44 d23c
00000210: 961d 203e 364c 333d d808 de3a e682 073e
00000220: d513 4ebe eec6 87bd d635 473d 08e4 1ebc
00000230: fde5 e2bc 1fe3 743c 97e0 bc3e 9773 b23d
00000240: b732 e3bb 9993 e73d 3fed 26bd fa7e e5bc
00000250: 8d23 793c 57e6 81bd d6bd 973d a163 543d
00000260: c27c 1fbe 3ada 5f3d 3c16 2abe 48f1 d63d
00000270: 4e7f 80bd 7f2c d9bd 12b9 f13d 9f12 b73d
00000280: 1e95 4bbd 12ad 34bd 6119 cf3c 9283 3c3e
00000290: 47e3 a53d c601 883d 0cad 803e 6347 2e3e
000002a0: 8116 c73c 8e9b 82bc 85ac 1abd 30da 3abd
000002b0: d009 923d 010f 0cbc 3b92 723c 7c8e d13d
000002c0: e42b 803c fef5 86be 5461 983d a1e1 b2bd
000002d0: 9446 d73d 75eb 8bbd cac4 00bd d575 a73d
000002e0: dd2d 4a3d 9206 643e e54b b0bd 4fd1 88bd
000002f0: 339f 63be 7ceb d9bd 70a3 74be b59d 583d
00000300: 968d 31bd 7fc3 63bb cfbd ebbd 2f68 923e
00000310: ad11 1abd 7c0b 69bd 6c21 8bbd 5c91 45be
00000320: 0fb6 33be 28a7 25bc cdf7 02be 1295 8ebd
00000330: 1dcd 0fbd 2f43 fd3d 0c45 2d3d 175f d7bd
00000340: 67a5 08be 9532 1bbe c42e 24be cc6f 213e
00000350: e407 e6bd a7c6 d9bc 4ca9 243e 0d1b 483d
00000360: 4e92 11be 00f5 86bd cb08 eebd 25f0 d33c
00000370: 12a3 06be ea92 153e 0da3 bdbd 76cc 15bd
00000380: 333b 6bbc 41fc 29be d51d cfbc 9955 953e
00000390: e32f 2e3e 12f3 c43d f9cf 1c3c 31af 2f3c
000003a0: 99f5 073e 2007 353d 8068 a9be d8d3 a5bd
000003b0: 7e95 213e e196 33be 2911 003d 3ea3 1dbd
000003c0: 53b7 eb3d 913d 8ebe 7558 573d d9ed 72be
000003d0: 7f8a 1b3d 6d5c 843d da95 7d3d 10e7 e5bd
000003e0: 2006 a7bd be4f cb3d 0624 833b fe1a 69bc
000003f0: 269e afbd 107a 7e3d 223d b83c 2ab5 0fbe
0.09750703 0.10900618 0.08734526 0.06818283 0.104328245 -0.08578313 0.07998182 0.14045693
-0.2142559 0.029080072 -0.08408922 -0.0030110714 -0.20730896 0.073903404 0.17873996 -0.07783808
0.042395562 0.056875292 0.023403179 -0.11703903 0.15472893 0.07310223 0.030951954 0.061199863
-0.11645003 -0.0002672087 0.267621 -0.07445512 0.024143215 -0.19428173 -0.2343868 -0.002651734
-0.12613843 -0.09240295 0.052296687 0.090501875 -0.0017018772 0.19657546 -0.020543633 -0.014096021
-0.06298111 0.02252729 -0.035583008 -0.0866694 0.20975943 -0.0010002877 0.1251856 0.11838711
0.077920854 0.10579027 0.0739126 0.00938945 0.06258559 0.030506322 -0.15838781 0.09408655
-0.029926108 -0.1544807 0.10036721 0.010457708 0.20898136 0.1463451 -0.12068465 -0.087432705
-0.11921488 -0.2558541 -0.25791436 8.130808e-05 -0.024149178 -0.19860353 -0.059832666 -0.23217045
-0.060895298 -0.09412542 0.16252173 0.10469634 0.059731875 0.1449907 -0.25127146 -0.09443952
0.06352746 0.20852973 0.1939757 0.05035162 -0.05217251 0.083251335 -0.028096184 0.005345849
-0.008392237 0.108761184 0.10372878 -0.05445022 -0.0851141 0.16421708 -0.15757716 0.108717896
-0.09460343 -0.025452495 -0.107881695 -0.061648574 -0.06204027 0.3227195 -0.13520674 0.1589532
0.011563342 0.26466677 -0.08446282 0.01054934 -0.015412365 -0.09604792 -0.18183789 -0.0033024086
0.0025959113 0.09480856 0.017454192 0.061180454 -0.10670536 0.03214569 -0.2994901 -0.043225106
-0.01606652 -0.027434716 -0.00019326556 -0.20143238 0.03856315 0.11093448 -0.023554908 0.0033271264
0.05855272 -0.20246784 -0.040505774 0.025667427 0.15636286 0.043773852 0.0016939892 0.13233528
-0.20124753 -0.0662974 0.048635326 -0.009697922 -0.027697558 0.014946728 0.36890098 0.08713453
-0.006933536 0.11307449 -0.0407536 -0.028014649 0.01520623 -0.06342762 0.07409255 0.051852826
-0.15574935 0.054651476 -0.16610044 0.104952395 -0.062742814 -0.1060419 0.118028775 0.089390986
-0.049702756 -0.044110365 0.025280656 0.18409565 0.0809999 0.06640963 0.25132024 0.1701942
0.024302723 -0.015943315 -0.037762184 -0.045618236 0.07130778 -0.008548499 0.014805372 0.10232255
0.015645929 -0.26359552 0.07440439 -0.087344415 0.105115086 -0.06832019 -0.031437673 0.081767716
0.049360145 0.22268131 -0.08608226 -0.066805474 -0.22228698 -0.10640618 -0.23890471 0.052884776
-0.043347917 -0.0034753976 -0.115108125 0.2859511 -0.037614513 -0.056895718 -0.06793484 -0.19293731
-0.17549919 -0.010110654 -0.12789841 -0.06962027 -0.03510772 0.1236633 0.042302176 -0.10516184
-0.13344346 -0.15156014 -0.16033465 0.15765303 -0.11231974 -0.026583983 0.16080207 0.048853923
-0.14215967 -0.06589699 -0.11622771 0.025871346 -0.13148144 0.14606825 -0.09259615 -0.036571942
-0.014357376 -0.16600133 -0.02528278 0.29166868 0.17010455 0.096166745 0.009571069 0.010722921
0.13277282 0.044196248 -0.3308754 -0.080970466 0.15779683 -0.17538024 0.031266365 -0.038485758
0.11509576 -0.27781346 0.052574594 -0.23723544 0.037973877 0.06462941 0.061910488 -0.11225712
-0.08155465 0.09927319 0.004002097 -0.014227627 -0.08575086 0.062128127 0.022490088 -0.14033952

dec1.0.bias f4 [16]
00000000: d329 bd3c 8508 c03c 426a e53c 2612 f23c
00000010: 8b11 67bb ec3d f3bc 5909 cd3c 02bf d93c
00000020: 8ea8 7dbc e462 5c3b 92eb 46bc 4c2f 57bb
00000030: cc86 7bbc 5beb aa3c eb65 9cbb 2675 da3c
0.023091232 0.023441562 0.02800477 0.02954967 -0.003525826 -0.029692613 0.025028871 0.026580337
-0.015482081 0.003362828 -0.012141125 -0.0032834588 -0.015351962 0.02086418 -0.0047728918 0.026667189
