sampling_based_planning_framework/checkpoints/checkpoint_epoch_45.pth (torch, 386162 bytes, 75 tensors)

enc1.0.weight f4 [8, 1, 3, 3]
-0.09913652 0.10307728 0.064808264 0.14097199 -0.11417309 0.08427083 0.032881457 -0.17648745
-0.06867303 0.1536328 -0.12881427 0.05092454 0.22840893 -0.06546838 0.13961735 -0.06001345
0.15480947 -0.05485015 0.17133972 -0.20292884 -0.16527325 0.15957658 -0.07919962 -0.14790483
-0.3631126 -0.19111948 -0.08819641 0.053967383 0.021777594 -0.17113072 0.037434127 0.14924131
0.32811517 -0.013923127 0.0006712111 0.0008823513 -0.095327206 0.046020806 -0.07084475 -0.2749874
0.22139993 -0.048871443 -0.051138483 0.105900794 -0.3068027 0.2109983 0.23237139 -0.008351478
0.37783462 -0.056126896 -0.09791947 0.07392603 -0.22615175 -0.25554106 0.018822826 0.04195192
0.09618851 0.12254267 -0.09940053 0.4880752 -0.030118344 0.10616158 0.10618693 0.11972246
-0.3459857 0.07884089 -0.14297093 -0.07914493 0.22353274 0.06360033 -0.11739562 0.04931366
00000000: 1608 cbbd 2e1a d33d 32ba 843d f65a 103e
00000010: 95d3 e9bd 2f96 ac3d b5ae 063d 20b9 34be
00000020: 72a4 8cbd eb51 1d3e e3e7 03be 4096 503d
00000030: 08e4 693e 4914 86bd daf7 0e3e aad0 75bd
00000040: 6086 1e3e 8daa 60bd ae73 2f3e 94cc 4fbe
00000050: 643d 29be 0b68 233e 6933 a2bd 5d74 17be
00000060: e5e9 b9be d3b4 43be 52a0 b4bd e70c 5d3d
00000070: ed66 b23c e43c 2fbe 8754 193d b7d2 183e
00000080: b6fe a73e d41d 64bc 37f4 2f3a 984d 673a
00000090: e93a c3bd 5080 3c3d 0d17 91bd 26cb 8cbe
000000a0: aab6 623e 6c2d 48bd 9676 51bd 84e2 d83d
000000b0: 3e15 9dbe f00f 583e c4f2 6d3e a3d4 08bc
000000c0: 8a73 c13e 51e5 65bd 018a c8bd 8866 973d
000000d0: 5394 67be 47d6 82be 5432 9a3c c7d5 2b3d
000000e0: 7bfe c43d a7f7 fa3d 8192 cbbd fee4 f93e
000000f0: bfba f6bc 3e6b d93d 8878 d93d 0d31 f53d
00000100: 0a25 b1be 5577 a13d f966 12be bd16 a2bd
00000110: c4e5 643e e440 823d 1d6d f0bd 1ffd 493d

enc1.0.bias f4 [8]
0.034543037 0.0024381918 0.03171587 -0.0006872517 0.049182028 -0.0005569316 0.0018713159 8.074602e-05
00000000: 007d 0d3d 12ca 1f3b 80e8 013d ae28 34ba
00000010: 1873 493d 0cff 11ba f146 f53a 3056 a938

enc1.2.weight f4 [8, 8, 3, 3]
0.06335478 0.067445196 -0.06809376 -0.24010943 0.49054095 0.14633726 -0.033024747 -0.0048070806
-0.01956196 -0.08648313 -0.11310043 -0.11024085 -0.06438285 -0.111068994 0.17699051 0.18286008
0.16270845 -0.27631214 0.06030473 0.1678731 0.13462113 -0.1207182 0.12027819 -0.097979575
-0.21316382 0.11969676 0.037296932 0.05363013 0.06309267 -0.23647645 0.19204062 0.00638859
0.02402953 -0.022675218 0.020102793 -0.1850845 0.034282617 0.068505526 0.16081826 -0.18572119
0.054885756 0.05087688 0.008163305 -0.03961574 0.1491333 0.018972933 -0.31689933 0.08022443
-0.0009216557 0.30485973 -0.17892706 0.16249126 -0.17411295 -0.13350521 -0.08266574 0.15839471
-0.022080341 0.15975899 -0.08009691 -0.0263463 0.05880161 -0.45575032 -0.056361698 -0.011393337
-0.014281987 0.23458214 -0.0613741 -0.042711336 0.059638534 0.11118018 -0.029691448 -0.07702399
-0.19738896 0.022932323 0.021417046 0.12841004 0.14767516 0.11216697 -0.13828889 0.18153042
-0.22118717 0.009690884 0.2592948 -0.11595814 0.16617507 -0.0077323 0.14607935 -0.020928666
-0.28163853 0.1544802 0.0022892354 -0.29647473 0.26191702 -0.019277956 0.15629624 0.11782788
0.008047255 0.1490868 -0.12947257 -0.00677188 -0.05852586 0.20986447 0.44638288 -0.03899002
0.0074888878 0.07285145 0.54728067 0.09650341 -0.27322224 0.036853775 -0.03295837 -0.33693436
0.1470945 -0.19280119 -0.060688224 0.15535936 0.33999145 -0.072660394 -0.11849442 0.004495612
0.05874571 0.23345323 0.12519006 0.012192557 -0.05249215 -0.022422424 0.23883373 -0.005250081
-0.28769687 0.28822953 0.19876456 -0.094956554 0.4117496 0.21396725 0.03984771 -0.023171727
0.33373442 0.10643094 0.2800399 0.27045023 0.1630567 0.15621546 -0.09202354 0.1183546
0.10263901 0.18954542 0.029534465 0.20404394 0.09840708 -0.104555145 0.101920925 0.53515345
-0.13261299 -0.3535802 -0.07090938 0.084433064 0.22485785 -0.028526427 -0.052429892 0.12894128
-0.43893507 -0.17271957 -0.21831274 -0.08236638 -0.3468303 0.08867034 0.07544033 0.2607089
0.05232194 0.17472257 -0.07948125 0.31552005 0.02488687 -0.02034027 -0.07103674 0.080375195
0.091990106 -0.19478782 -0.21451803 -0.061798993 0.2028527 -0.14441912 0.36090696 -0.24039122
-0.053039975 0.14295208 -0.21024425 -0.0046380023 0.0011469974 -0.121879674 -0.3559922 0.30079672
0.1303727 -0.2956343 -0.30179867 0.055785414 -0.3554223 0.037254885 0.08547778 -0.026059927
-0.12628458 -0.28782108 0.3273889 0.06331393 -0.2158113 -0.08929029 0.1802867 0.104536645
-0.0640643 -0.04459519 0.2738594 -0.09361319 -0.10682799 0.11075688 0.12012589 -0.1776157
0.027194109 0.2447376 -0.0024497064 -0.053866923 0.022086155 -0.20265599 0.17223696 0.02047785
0.032911357 -0.3572741 -0.33589402 -0.21090211 -0.027197355 -0.22776777 -0.0898817 0.2693999
0.15219711 0.10124132 -0.023964992 0.059629593 0.04682922 -0.09199851 -0.028380252 0.09765146
0.051761623 0.19948503 -0.20080681 -0.039981633 0.036895547 0.1129985 -0.27375978 -0.16079253
-0.0071374234 0.06745612 0.15088041 0.111394085 0.36571097 -0.05072412 -0.12620573 -0.22422694
00000000: 27c0 813d b520 8a3d be74 8bbd 3fdf 75be
00000010: 2f28 fb3e 6fd9 153e f544 07bd b784 9dbb
00000020: 6740 a0bc 111e b1bd 33a1 e7bd f4c5 e1bd
00000030: 28db 83bd 2478 e3bd 003d 353e ac3f 3b3e
00000040: 0b9d 263e c978 8dbe 1802 773d ede6 2b3e
00000050: 1fda 093e 1b3b f7bd 6954 f63d 84a9 c8bd
00000060: 9e47 5abe 9323 f53d abc4 183d 44ab 5b3d
00000070: bb36 813d e226 72be 4ca6 443e 6157 d13b
00000080: 94d9 c43c 61c1 b9bc 9dae a43c cb86 3dbe
00000090: ee6b 0c3d a04c 8c3d 8bad 243e b22d 3ebe
000000a0: e3cf 603d 4664 503d 62bf 053c 1d44 22bd
000000b0: 66b6 183e 206d 9b3c a140 a2be b54c a43d
000000c0: 449b 71ba 9316 9c3e a838 37be 1c64 263e
000000d0: aa4a 32be 97b5 08be a84c a9bd 3932 223e
000000e0: d5e1 b4bc dc97 233e d909 a4bd 32d4 d7bc
000000f0: f5d9 703d 1b58 e9be 86db 66bd 1eab 3abc
00000100: fffe 69bc 4d36 703e 6963 7bbd 15f2 2ebd
00000110: 8947 743d 6fb2 e33d 7b3b f3bc c1be 9dbd
00000120: 5520 4abe 91dc bb3c cd72 af3c ec7d 033e
00000130: 2838 173e ccb7 e53d 9a9b 0dbe 1ce3 393e
00000140: e47e 62be 83c6 1e3c 4ac2 843e 767b edbd
00000150: cc29 2a3e 3c5f fdbb d395 153e 9872 abbc
00000160: ed32 90be 0f30 1e3e ff06 163b 89cb 97be
00000170: fd19 863e ceec 9dbc 1f0c 203e be4f f13d
00000180: a2d8 033c 36aa 183e 7594 04be a6e6 ddbb
00000190: d0b8 6fbd b6e6 563e 4c8c e43e 00b4 1fbd
000001a0: 5865 f53b 2433 953d 961a 0c3f 94a3 c53d
000001b0: c9e3 8bbe fcf3 163d 5bff 06bd a982 acbe
000001c0: f19f 163e ad6d 45be 3794 78bd 8616 1f3e
000001d0: 5c13 ae3e f9ce 94bd 34ad f2bd ed4f 933b
000001e0: 579f 703d 5d0e 6f3e d331 003e 4ac3 473c
000001f0: 0202 57bd 3baf b7bc d490 743e df08 acbb
00000200: 014d 93be d292 933e f088 4b3e 9578 c2bd
00000210: d8d0 d23e 3b1a 5b3e 5a37 233d a2d2 bdbc
00000220: 3ddf aa3e 77f8 d93d 6461 8f3e 7478 8a3e
00000230: 56f8 263e f2f6 1f3e d676 bcbd e663 f23d
00000240: 6734 d23d 3218 423e 43f2 f13c e5f0 503e
00000250: a789 c93d 0221 d6bd ebbb d03d d1ff 083f
00000260: b3cb 07be 7708 b5be f038 91bd 3eeb ac3d
00000270: 2341 663e 41b0 e9bc bac0 56bd 2f09 043e
00000280: 19bc e0be 66dd 30be 608d 5fbe b4af a8bd
00000290: be93 b1be cc98 b53d 7680 9a3d a37b 853e
000002a0: 884f 563d 79ea 323e 11c7 a2bd d88b a13e
000002b0: 8ddf cb3c a3a0 a6bc b67b 91bd c09b a43d
000002c0: 4f65 bc3d 7576 47be 9daa 5bbe f120 7dbd
000002d0: 9eb8 4f3e 9be2 13be ccc8 b83e 1e29 76be
000002e0: 7240 59bd 0862 123e 454a 57be 62fa 97bb
000002f0: d956 963a 0d9c f9bd 9c44 b6be 0702 9a3e
00000300: 6c80 053e 615d 97be 5b85 9abe 3f7f 643d
00000310: e9f9 b5be 9498 183d f90e af3d a17b d5bc
00000320: bf50 01be 495d 93be 859f a73e bcaa 813d
00000330: a3fd 5cbe d4dd b6bd 149d 383e 4f17 d63d
00000340: 2534 83bd 72a9 36bd 4d37 8c3e 46b8 bfbd
00000350: a2c8 dabd 81d4 e23d 9004 f63d e4e0 35be
00000360: 2ec6 de3c 7e9c 7a3e 418b 20bb 90a3 5cbd
00000370: 06ee b43c 0d85 4fbe e35e 303e 2ac1 a73c
00000380: 0fce 063d a1ec b6be 4dfa abbe b9f6 57be
00000390: fdcc debc f43b 69be e613 b8bd c9ee 893e
000003a0: 8fd9 1b3e 9c57 cf3d 3b52 c4bc 293e 743d
000003b0: ffcf 3f3d b769 bcbd b47d e8bc 7dfd c73d
000003c0: ff03 543d ce45 4c3e 4da0 4dbe c8c3 23bd
000003d0: c91f 173d c26b e73d 3e2a 8cbe cca6 24be
000003e0: 0ce1 e9bb 6f26 8a3d 6580 1a3e 9522 e43d
000003f0: 783e bb3e 18c4 4fbd 133c 01be bf9b 65be

enc1.2.bias f4 [8]
-0.026261318 -0.0015353295 0.03775068 -0.009994993 0.0033183866 0.033689953 0.028983476 0.006498348
00000000: fa21 d7bc 1c3d c9ba 75a0 1a3d 0ac2 23bc
00000010: 4a79 593b 7afe 093d c16e ed3c 18f0 d43b

enc2.0.weight f4 [16, 8, 3, 3]
0.016320212 -0.04204197 -0.013803915 -0.12925738 -0.21041583 0.09308611 0.062799245 -0.08960692
0.26406312 -0.003968615 0.047835726 -0.034218933 -0.2204637 0.07483572 -0.04309613 -0.08204176
-0.040597618 0.18190144 0.0035730994 0.11811033 -0.17472224 -0.04528403 -0.018596608 -0.13303755
0.09093919 0.27593848 0.11047723 -0.050029047 0.10384913 0.11085061 -0.02120703 -0.16097656
-0.012588538 -0.18296118 -0.16041914 -0.08510394 0.15721874 -0.04558459 -0.19317083 -0.031375676
0.038353812 -0.04065714 -0.12574601 -0.11665324 0.06535306 0.059372213 0.053433865 0.13844028
0.22248676 -0.0334985 0.14384322 0.17541061 -0.03735271 0.11505567 0.18635376 -0.054612197
-0.30921865 -0.17661107 0.20286068 -0.06397834 0.09312562 0.21422724 0.18606001 0.0079227155
-0.17336215 0.02452055 -0.021376366 -0.0049335454 0.11307186 -0.10275008 -0.16701722 0.0039001976
0.012305401 0.04649088 -0.022541277 -0.051310066 -0.03011237 -0.11305463 -0.07041579 0.023057899
0.118062794 -0.04759023 0.0032841687 0.29132247 0.007170768 -0.107242465 0.007832596 -0.046185754
-0.0031290478 -0.10730741 0.04781245 0.048343856 0.15811272 0.08519164 0.034828246 0.074490786
-0.19301063 0.11524923 0.036288325 -0.022688227 -0.086967975 0.08620115 -0.187226 0.06052101
0.0019627076 0.119182795 -0.23265244 0.027279576 0.13676508 -0.05573154 -0.025308669 -0.03183734
0.09658562 0.06275345 0.17217676 0.24330752 0.012396527 -0.06059228 -0.0882786 0.18066527
0.1745323 0.1583889 0.073502846 -0.13063963 0.09928518 0.12592536 0.20580967 0.005298865
0.070517115 0.029985892 0.19779691 -0.12216345 0.017587068 -0.028967416 0.19686398 -0.26168835
0.14750727 -0.20543805 -0.17172268 0.036365774 -0.025612826 0.045601353 -0.0014005301 -0.09654746
-0.059339043 -0.016004587 -0.22842096 -0.047904212 0.099618435 0.20613413 0.2597187 0.1282143
-0.190976 -0.053747613 -0.15218356 -0.16253981 0.11820916 0.18518724 -0.035221078 0.041979805
-0.095337674 -0.22575451 0.12987818 0.016462622 -0.18528457 -0.09976509 0.060728624 0.1572519
-0.056621633 -0.1330917 0.09178807 0.17582618 -0.005587099 0.12951373 0.14908656 -0.00040467686
-0.04983628 0.18127212 -0.017406575 -0.08951377 0.08531764 0.079637155 0.11271811 0.20488217
0.08363251 0.38108876 0.30304298 0.16374303 0.06755712 -0.10007982 0.15303065 -0.1399633
-0.091087155 -0.068032116 0.18003984 0.23442256 0.075380385 -0.10305606 0.091552705 0.073790394
-0.02516103 0.057664447 0.15693982 0.07667878 0.11430428 0.09785022 0.0019776237 0.1769928
-0.17465049 0.026549611 0.14108518 -0.011766871 0.2497467 -0.1641302 0.0409554 -0.14249557
-0.022570264 0.06803584 0.17104797 -0.02411728 0.08803085 0.27430362 -0.011551358 -0.05877612
-0.0584217 -0.33677056 -0.11907115 0.023370696 -0.03356109 -0.18500821 0.036631346 0.15306494
0.00031562173 0.09151193 0.054510906 -0.067890555 -0.09560519 -0.07140539 0.09533922 -0.12496964
0.036986012 0.0110826995 0.026342424 -0.024261465 -0.12086139 0.23971555 -0.011240013 -0.05485132
0.07887344 -0.08061918 0.2317724 0.12319029 -0.28310543 -0.22495924 0.032248307 0.022459812
00000000: f7b1 853c 3334 2cbd d129 62bc 0c5c 04be
00000010: 3f77 57be eea3 be3d e49c 803d d583 b7bd
00000020: 4833 873e 280b 82bb 65ef 433d 2729 0cbd
00000030: 3cc1 61be 7843 993d 9185 30bd 8305 a8bd
00000040: b049 26bd 5f44 3a3e a92a 6a3b d4e3 f13d
00000050: 63ea 32be bf7b 39bd ea57 98bc ff3a 08be
00000060: 533e ba3d cf47 8d3e e341 e23d 42eb 4cbd
00000070: daae d43d a505 e33d 5eba adbc 0ad7 24be
00000080: 2840 4ebc 2d5a 3bbe ea44 24be f94a aebd
00000090: f3fd 203e e8b6 3abd 93ce 45be c883 00bd
000000a0: e318 1d3d 1a88 26bd 90c3 00be e5e7 eebd
000000b0: d3d7 853d 4730 733d 78dd 5a3d 4ac3 0d3e
000000c0: 92d3 633e b935 09bd a34b 133e d79e 333e
000000d0: 28ff 18bd 4fa2 eb3d 85d3 3e3e 0ab1 5fbd
000000e0: e851 9ebe 88d9 34be b6ba 4f3e 1307 83bd
000000f0: a5b8 be3d 635e 5b3e 8486 3e3e 47ce 013c
00000100: d985 31be 52df c83c 7d1d afbc 94a9 a1bb
00000110: 3892 e73d a26e d2bd 9006 2bbe 759a 7f3b
00000120: 989c 493c 396d 3e3d 7ca8 b8bc 812a 52bd
00000130: 38ae f6bc 3089 e7bd 2736 90bd ebe3 bc3c
00000140: e8ca f13d f9ed 42bd 353b 573b 3828 953e
00000150: c3f8 ea3b f0a1 dbbd 4a54 003c 462d 3dbd
00000160: b610 4dbb fdc3 dbbd fdd6 433d 3504 463d
00000170: 4de8 213e f478 ae3d 10a8 0e3d a08e 983d
00000180: 94a4 45be ca07 ec3d 11a3 143d a9dc b9bc
00000190: 441c b2bd 3b8a b03d 2cb8 3fbe e1e4 773d
000001a0: c5a0 003b 1c16 f43d 713c 6ebe 6b79 df3c
000001b0: 250c 0c3e c146 64bd 2054 cfbc df67 02bd
000001c0: aece c53d e184 803d 1b4f 303e 9b25 793e
000001d0: ce1a 4b3c 9c2f 78bd 69cb b4bd 5100 393e
000001e0: 98b8 323e b330 223e a988 963d 65c6 05be
000001f0: 0756 cb3d 94f2 003e c5bf 523e 1aa2 ad3b
00000200: 476b 903d f9a4 f53c 468b 4a3e d530 fabd
00000210: c112 903c 134d edbc b696 493e 04fc 85be
00000220: 250c 173e 5a5e 52be 12d8 2fbe 47f4 143d
00000230: fdd1 d1bc 7cc8 3a3d fe91 b7ba adba c5bd
00000240: 7f0d 73bd 0d1c 83bc 2fe7 69be 3537 44bd
00000250: c004 cc3d d314 533e d9f9 843e 9c4a 033e
00000260: 368f 43be 7526 5cbd 02d6 1bbe d670 26be
00000270: a517 f23d b9a1 3d3e fa43 10bd 04f3 2b3d
00000280: 6640 c3bd 312c 67be c9fe 043e 9fdc 863c
00000290: 3dbb 3dbe a451 ccbd 94be 783d a406 213e
000002a0: 16ec 67bd 3149 08be 62fb bb3d c70b 343e
000002b0: fc13 b7bb 3f9f 043e 26aa 183e cf2a d4b9
000002c0: 2121 4cbd 669f 393e 3c98 8ebc ff52 b7bd
000002d0: 04bb ae3d ce18 a33d c1d8 e63d a2cc 513e
000002e0: 8547 ab3d 111e c33e 7328 9b3e 41ac 273e
000002f0: 635b 8a3d a6f6 ccbd 11b4 1c3e 8a52 0fbe
00000300: e78b babd 6c54 8bbd 5d5c 383e 780c 703e
00000310: 0861 9a3d 0e0f d3bd fc7f bb3d 6b1f 973d
00000320: 811e cebc 8e31 6c3d d5b4 203e c409 9d3d
00000330: 5d18 ea3d b265 c83d 059b 013b 9a3d 353e
00000340: 94d7 32be 927e d93c a278 103e d6c9 40bc
00000350: 99bd 7f3e bf11 28be d9c0 273d 5cea 11be
00000360: 46e5 b8bc 6056 8b3d 3327 2f3e 9a91 c5bc
00000370: 8549 b43d 8671 8c3e e841 3dbc 3bbf 70bd
00000380: 984b 6fbd 316d acbe 93db f3bd e773 bf3c
00000390: 5a77 09bd cb72 3dbe c00a 163d 0ebd 1c3e
000003a0: 087a a539 9b6a bb3d d446 5f3d 340a 8bbd
000003b0: a7cc c3bd fd3c 92bd 3541 c33d 15f0 ffbd
000003c0: a57e 173d 3694 353c 11cc d73c fbbf c6bc
000003d0: 2d86 f7bd fe77 753e 0828 38bc c7ab 60bd
000003e0: 6688 a13d ab1b a5bd be55 6d3e 314b fc3d
000003f0: 32f3 90be b75b 66be cd16 043d a4fd b73c

enc2.0.bias f4 [16]
0.032775734 0.03289722 -0.015452664 0.042737555 0.008251749 0.03678509 -0.021358525 -0.027547628
0.026923083 0.009081705 0.031295918 0.036099337 0.030439485 0.027450932 0.022184255 0.035532534
00000000: d93f 063d 3cbf 063d 2c2d 7dbc 930d 2f3d
00000010: 5832 073c f6ab 163d 13f8 aebc 90ab e1bc
00000020: cc8d dc3c 6ecb 143c 2630 003d e6dc 133d
00000030: 3a5c f93c c7e0 e03c c1bb b53c 908a 113d

enc2.2.weight f4 [16, 16, 3, 3]
-0.0029164697 0.044094134 -0.021117453 -0.11360601 0.14362799 0.05367882 -0.05441475 -0.021794751
0.007992633 -0.12449419 0.22757268 -0.11063079 -0.1807464 0.04318909 0.18366948 -0.2330722
-0.031931214 -0.027675956 -0.11173872 -0.06332836 -0.12988357 -0.09836589 0.3121309 0.043971665
-0.04289796 0.15153643 -0.07506292 0.20968574 0.14971438 -0.05398578 0.16011468 0.16789526
-0.10472628 -0.07851361 -0.32162663 0.18449283 -0.036544062 -0.055825394 0.13737842 -0.1671791
-0.11920288 0.22279996 -0.06884644 -0.39913702 -0.089639395 0.011617141 -0.034688614 0.12574014
0.024396908 -0.0041395985 -0.11282141 -0.08234901 -0.25742626 -0.07934186 0.022787536 -0.028813818
-0.09267513 0.1275642 -0.12629516 0.1684708 0.043993782 0.11289761 0.03910948 0.05533927
0.10443583 0.06944412 -0.120228626 -0.010954023 -0.14964582 0.11350494 0.15773217 -0.018953623
0.24993396 0.012592385 0.17782061 -0.086155735 0.06318204 0.21365586 0.0007475686 -0.21015106
0.17383608 -0.20577335 -0.033092372 -0.20799392 0.14759858 0.16223635 0.078795634 -0.050274476
-0.19129512 0.2005785 0.0011301844 -0.14389311 0.10737276 -0.076224074 0.11769565 0.025660476
-0.25557348 0.04379051 0.18071003 0.12754922 -0.041203987 -0.05381613 -0.066660225 0.14402446
0.07233001 0.026635988 -0.026615992 0.06299598 -0.0874029 0.025048757 0.201176 -0.20671019
-0.06273505 -0.07361864 0.0012563327 0.14310998 0.14829196 0.024720654 0.09429238 -0.15471669
0.14864098 0.13856925 -0.069664665 0.0889453 0.02090777 -0.06401529 0.16067883 -0.0726442
-0.10740719 -0.028925147 -0.08185319 0.04624523 -0.2477795 0.053140033 -0.11107733 -0.13344601
0.04009513 0.1630438 -0.12512177 0.11973323 -0.047887996 0.06590804 -0.03627931 0.09393072
0.01810149 0.07037699 0.10788809 -0.03049312 0.1214232 0.13646448 0.1856258 -0.08574655
0.16896047 0.17731903 0.09040557 0.008574165 -0.28234416 0.11179447 -0.11005319 -0.0024395688
-0.07583214 -0.12962787 0.15232313 0.058582768 0.11856291 -0.20840792 -0.04951483 -0.037112042
-0.044102706 -0.044929396 -0.053734586 -0.20295614 -0.14762814 -0.08039286 0.121347 -0.025170485
-0.20143802 -0.08060745 -0.0423653 0.054805342 -0.0065959306 0.039837807 0.08437308 0.02357577
0.07157147 0.20675865 0.16975003 0.13996732 -0.0011405206 -0.0008819262 0.18357877 -0.09777464
-0.09862311 0.02916247 0.06746923 0.20207061 0.27392116 -0.008714657 -0.061713617 -0.0590017
-0.05844569 -0.14742157 0.117821306 0.1349234 -0.101599544 -0.074322 0.18898767 0.112472504
-0.13811699 0.12846781 -0.0042131236 0.025379874 -0.043514837 0.08129744 -0.070154615 -0.014606218
0.07222055 0.16664805 -0.17533794 0.007835971 0.31298915 0.13479933 -0.06702203 0.021693313
-0.028573262 0.27763897 -0.1133282 -0.08817726 -0.08291845 0.0076765567 0.012157159 -0.14360231
-0.40145165 -0.058737114 -0.015431326 -0.19100358 0.048687875 0.16779092 0.053839907 -0.2709258
-0.16270696 0.09387231 -0.043825097 0.059361514 -0.17821062 -0.089288406 0.053610537 -0.14594398
0.30374497 0.12738954 0.37815887 -0.06318909 0.031171098 0.02259009 -0.0273859 0.13936654
00000000: 3e22 3fbb 0d9c 343d 82fe acbc 45aa e8bd
00000010: 3713 133e 53de 5b3d 00e2 5ebd e88a b2bc
00000020: 88f3 023c cff6 febd d008 693e 6592 e2bd
00000030: 9615 39be 0be7 303d da13 3c3e 7baa 6ebe
00000040: 4eca 02bd b0b8 e2bc 45d7 e4bd 4db2 81bd
00000050: 3300 05be 0e74 c9bd 9fcf 9f3e a21b 343d
00000060: c5b5 2fbd 5e2c 1b3e 97ba 99bd dcb7 563e
00000070: ba4e 193e 3120 5dbd 1af5 233e bcec 2b3e
00000080: bb7a d6bd becb a0bd 3fac a4be b0eb 3c3e
00000090: 3aaf 15bd 2ba9 64bd eeac 0c3e ff30 2bbe
000000a0: a420 f4bd ac25 643e 5dff 8cbd b05b ccbe
000000b0: dc94 b7bd d255 3e3c a615 0ebd 06c2 003e
000000c0: 06dc c73c 78a5 87bb e90e e7bd 99a6 a8bd
000000d0: 60cd 83be fc7d a2bd edac ba3c f50a ecbc
000000e0: 75cc bdbd 31a0 023e 8553 01be 9c83 2c3e
000000f0: d332 343d dd36 e73d 4331 203d 6eab 623d
00000100: 74e2 d53d b838 8e3d 6d3a f6bd 8178 33bc
00000110: c13c 19be 4775 e83d 8b84 213e a144 9bbc
00000120: b0ee 7f3e 4a50 4e3c 9b16 363e 6b72 b0bd
00000130: 9665 813d 9ac8 5a3e 7bf8 433a d731 57be
00000140: 1602 323e 40b6 52be de8b 07bd 5cfc 54be
00000150: 1524 173e 4921 263e 9b5f a13d 9cec 4dbd
00000160: dee2 43be 7364 4d3e b222 943a b758 13be
00000170: 40e6 db3d 5e1b 9cbd 6b0a f13d eb35 d23c
00000180: 87da 82be ae5d 333d 0d0c 393e 439c 023e
00000190: 83c5 28bd 4d6e 5cbd 2885 88bd 267b 133e
000001a0: c221 943d b733 da3c c809 dabc 0904 813d
000001b0: 4b00 b3bd 0d33 cd3c 1501 4e3e d6ab 53be
000001c0: 3c7b 80bd 5fc5 96bd 88ab a43a 6c8b 123e
000001d0: d9d9 173e f882 ca3c 5d1c c13d 0d6e 1ebe
000001e0: 5735 183e 19e5 0d3e 59ac 8ebd f428 b63d
000001f0: c646 ab3c 731a 83bd fe88 243e 7bc6 94bd
00000200: 4df8 dbbd 6ef4 ecbc a5a2 a7bd a36b 3d3d
00000210: e9b9 7dbe 5da9 593d 837c e3bd 12a6 08be
00000220: cb3a 243d f4f4 263e ec1f 00be b236 f53d
00000230: 3426 44bd cbfa 863d 9d99 14bd c05e c03d
00000240: 9349 943c d021 903d 6ef4 dc3d b5cc f9bc
00000250: baac f83d 58bd 0b3e b114 3e3e e39b afbd
00000260: f903 2d3e 1f93 353e 8e26 b93d a87a 0c3c
00000270: 6a8f 90be 80f4 e43d 9163 e1bd 2ce1 1fbb
00000280: e24d 9bbd 2bbd 04be 98fa 1b3e 7cf4 6f3d
00000290: 1cd1 f23d e368 55be 10d0 4abd cc02 18bd
000002a0: 0aa5 34bd e307 38bd cc18 5cbd bcd3 4fbe
000002b0: d52b 17be 03a5 a4bd c784 f83d 5532 cebc
000002c0: c545 4ebe 8515 a5bd 3d87 2dbd 917b 603d
000002d0: ad22 d8bb f82c 233d cbcb ac3d f921 c13c
000002e0: 1094 923d 8ab8 533e f4d2 2d3e 9853 0f3e
000002f0: 857d 95ba 1131 67ba 13fc 3b3e 123e c8bd
00000300: eafa c9bd 22e6 ee3c 4f2d 8a3d 99eb 4e3e
00000310: 653f 8c3e ecc7 0ebc 6bc7 7cbd c4ab 71bd
00000320: bf64 6fbd aef5 16be 4c4c f13d 5c29 0a3e
00000330: 6c13 d0bd 2236 98bd fc85 413e fc57 e63d
00000340: 8a6e 0dbe 118d 033e 3e0e 8abb 74e9 cf3c
00000350: 9d3c 32bd 467f a63d 39ad 8fbd eb4e 6fbc
00000360: 5ee8 933d c9a5 2a3e ca8b 33be 7262 003c
00000370: 1d40 a03e d608 0a3e d942 89bd 2db6 b13c
00000380: 7912 eabc b226 8e3e 9e18 e8bd 4796 b4bd
00000390: 26d1 a9bd a08b fb3b d22e 473c 7c0c 13be
000003a0: 128b cdbe 5496 70bd acd3 7cbc 7196 43be
000003b0: f06c 473d 62d1 2b3e 3c87 5c3d c9b6 8abe
000003c0: a79c 26be 2040 c03d f281 33bd 0f25 733d
000003d0: d87c 36be d7dc b6bd b996 5b3d 5772 15be
000003e0: 7684 9b3e 6772 023e 0a9e c13e 4869 81bd
000003f0: 885a ff3c da0e b93c 6558 e0bc 1ab6 0e3e

enc2.2.bias f4 [16]
0.017252015 0.031222356 0.00095891004 0.012450965 0.033200994 0.026349578 -0.003695767 -0.0054586115
0.05723782 0.030982973 0.0128612025 -0.0056343973 0.019316342 -0.0140748825 0.034091845 0.02812726
00000000: 1954 8d3c 07c6 ff3c 5d5f 7b3a 22ff 4b3c
00000010: c4fd 073d 12db d73c ae34 72bb 27de b2bb
00000020: 3472 6a3d 01d0 fd3c cbb7 523c c0a0 b8bb
00000030: 4e3d 9e3c 569a 66bc e4a3 0b3d 246b e63c

bottleneck.0.weight f4 [32, 16, 3, 3]
-0.09133242 0.03878809 0.048493877 0.0456726 0.08514354 -0.030504543 0.02204272 0.009154107
-0.17241603 -0.020216502 -0.19249038 0.1018605 -0.021605555 0.06259511 0.1342843 -0.1690377
0.20828725 0.039413564 0.04087936 0.09071397 0.08148104 -0.049926832 0.13255575 0.21951143
-0.035145465 -0.011387124 -0.01684374 0.043824468 -0.06655888 0.009923931 -0.040764496 -0.102380864
-0.024544429 0.12311785 -0.011920466 -0.082204 -0.08232399 -0.07446954 -0.005195941 -0.059618954
0.042686023 -0.17652796 0.097373165 -0.13617593 0.121265955 -0.031803675 0.10814962 0.023804976
-0.10537573 0.068866976 -0.041635517 0.12178066 0.09261381 -0.047020108 0.028697295 0.12184595
0.013752261 0.072437674 -0.027208645 -0.107322864 -0.056763582 0.27556372 0.08857609 -0.06292511
0.03384405 -0.048107866 0.034601882 0.14491697 0.0931137 0.020702397 0.0049215783 -0.04174991
-0.010445751 0.016102465 -0.16002063 0.067013636 -0.07702011 -0.033510864 -0.061601117 0.108901896
0.20655705 -0.087907925 0.10211568 0.058210246 -0.028424416 0.05698637 0.15767786 -0.10989868
0.03371101 -0.002593356 0.018957742 -0.025147924 -0.059065413 0.111694 0.15109861 0.1210195
-0.008465884 0.09727161 -0.01861811 -0.0030396858 0.088945106 -0.05508064 -0.00045887104 0.06304158
0.0065203183 0.033151783 0.28354606 0.11430486 -0.010454998 0.03456479 -0.043036576 0.1463868
0.06874617 -0.09351627 -0.04355397 -0.03732067 -0.19587626 0.07362 0.059792787 -0.12811333
0.18871178 -0.028038101 0.061902985 0.0076304204 0.031022709 0.21269585 -0.015382658 0.04261455
-0.14270745 0.054160673 -0.044778686 -0.03528098 0.018293452 -0.11237226 -0.060632303 0.017008565
0.16753854 0.039255485 0.057649575 0.046945654 0.042568505 0.09462323 0.04768755 0.039458122
0.00092047517 -0.09611329 0.0982607 0.011604629 0.045019846 0.0139162885 -0.020527715 -0.07346856
0.06209361 0.068322144 -0.06208637 0.0073391316 0.052181907 -0.0022292198 -0.19189154 -0.052218914
-0.0742462 0.23874074 0.0016750853 -0.1244627 -0.085039735 -0.060405403 -0.10334126 0.010582841
-0.0564298 0.050986163 0.08911904 -0.07672041 -0.07155521 0.041267786 0.04270033 -0.05222438
0.027598104 0.06212182 0.04186699 0.10804448 0.050336134 0.017920993 0.1095362 0.11782947
0.08675106 0.08859814 0.045916118 -0.021409458 -0.0912843 -0.034746107 0.011557114 -0.06359399
-0.028036073 0.010357165 -0.062348146 0.042163562 -0.03692063 0.109751396 -0.10870473 -0.046814613
-0.14771493 0.023639115 0.07915073 -0.15770248 0.07312947 0.11247259 0.18154319 -0.17110005
-0.050282963 -0.2350082 0.1033859 0.22305167 -0.05205092 0.045512952 0.026119983 -0.052915227
-0.075728506 0.105606824 0.01340394 0.008317248 -0.029630361 -0.0050821835 -0.07960542 0.22130798
0.13110454 0.010605696 -0.027198639 -0.11899406 0.055246383 -0.123283304 -0.07289143 -0.21357758
0.098658845 -0.12163822 0.06675993 0.067320414 -0.09353566 0.13504082 -0.024025824 -0.1286278
0.058041234 -0.008757938 0.12316192 -0.047915235 -0.0188205 0.15102145 0.08503355 -0.01901567
0.08630665 0.05489833 0.00051095034 0.13845156 0.09359746 0.15020871 -0.042913385 -0.083866395
00000000: 7e0c bbbd 43e0 1e3d 84a1 463d 3113 3b3d
00000010: bc5f ae3d aae4 f9bc ef92 b43c 1cfb 153c
00000020: d48d 30be 149d a5bc 331c 45be 3d9c d03d
00000030: 22fe b0bc dd31 803d d381 093e 3818 2dbe
00000040: 4149 553e 1e70 213d 1e71 273d 3fc8 b93d
00000050: 88df a63d 1480 4cbd b2bc 073e 9bc7 603e
00000060: b1f4 0fbd 0f91 3abc e2fb 89bc 4981 333d
00000070: 0650 88bd fc97 223c acf8 26bd 0fad d1bd
00000080: 6611 c9bc 3625 fc3d 0f4e 43bc 925a a8bd
00000090: 7b99 a8bd 7c83 98bd b642 aabb 0133 74bd
000000a0: 8ad7 2e3d bfc3 34be 956b c73d b471 0bbe
000000b0: 495a f83d 9244 02bd 8c7d dd3d a702 c33c
000000c0: 3bcf d7bd 210a 8d3d 018a 2abd 2368 f93d
000000d0: 4fac bd3d 2898 40bd 9716 eb3c 5f8a f93d
000000e0: 2a51 613c 345a 943d aae4 debc 17cc dbbd
000000f0: ee80 68bd b016 8d3e 6267 b53d e1de 80bd
00000100: 0fa0 0a3d c10c 45bd b4ba 0d3d 1d65 143e
00000110: 65b2 be3d 1398 a93c 3145 a13b f401 2bbd
00000120: a824 2bbc 51e9 833c 73dc 23be 723e 893d
00000130: b8bc 9dbd b042 09bd 7451 7cbd f507 df3d
00000140: b183 533e 1209 b4bd 0722 d13d de6d 6e3d
00000150: 52da e8bc 8a6a 693d 4e76 213e 8f12 e1bd
00000160: 8e14 0a3d 4bf5 29bb 444d 9b3c 0503 cebc
00000170: 93ee 71bd d3bf e43d 98b9 1a3e 12d9 f73d
00000180: 7eb4 0abc 5636 c73d 0285 98bc 7735 47bb
00000190: da28 b63d 3d9c 61bd a194 f0b9 f21b 813d
000001a0: 65a8 d53b 2aca 073d f32c 913e ab18 ea3d
000001b0: 714b 2bbc cf93 0d3d 1f47 30bd 6ce6 153e
000001c0: cbca 8c3d 7585 bfbd a665 32bd 8fdd 18bd
000001d0: c993 48be 15c6 963d 48e9 743d 2430 03be
000001e0: a93d 413e 29b0 e5bc fc8d 7d3d 9b08 fa3b
000001f0: 5623 fe3c f1cc 593e 8b07 7cbc 988c 2e3d
00000200: e721 12be 95d7 5d3d db69 37bd ca82 10bd
00000210: 26dc 953c 6d23 e6bd 9459 78bd 8c55 8b3c
00000220: 398f 2b3e 5cca 203d f621 6c3d 164a 403d
00000230: 505c 2e3d d3c9 c13d 0554 433d d79e 213d
00000240: 0b4c 713a 0bd7 c4bd e83c c93d 5821 3e3c
00000250: bb66 383d 2501 643c bd29 a8bc af76 96bd
00000260: df55 7e3d 7bec 8b3d 474e 7ebd 197d f03b
00000270: b2bc 553d 1a18 12bb 377f 44be 80e3 55bd
00000280: 640e 98bd 7478 743e 898e db3a 4de6 febd
00000290: 5029 aebd a86b 77bd 95a4 d3bd a763 2d3c
000002a0: ef22 67bd ded6 503d 0b84 b63d 971f 9dbd
000002b0: 8a8b 92bd 6908 293d 8be6 2e3d 3be9 55bd
000002c0: 6b15 e23c 7373 7e3d b97c 2b3d 6d46 dd3d
000002d0: 432d 4e3d 0ccf 923c 8454 e03d 9450 f13d
000002e0: 8aaa b13d f172 b53d 8a12 3c3d e362 afbc
000002f0: 43f3 babd ef51 0ebd 0d5a 3d3c 913d 82bd
00000300: e8ab e5bc 19b1 293c c560 7fbd b3b3 2c3d
00000310: 163a 17bd 57c5 e03d 96a0 debd aec0 3fbd
00000320: 9542 17be d1a6 c13c c719 a23d c27c 21be
00000330: e7c4 953d 0758 e63d 75e6 393e da34 2fbe
00000340: 82f5 4dbd fda5 70be fdbb d33d a867 643e
00000350: 5833 55bd ca6b 3a3d 93f9 d53c a3bd 58bd
00000360: 8c17 9bbd 6448 d83d 339c 5b3c 1145 083c
00000370: 5fbb f2bc 7288 a6bb 2b08 a3bd 8f9e 623e
00000380: 4540 063e 83c3 2d3c aecf debc 28b3 f3bd
00000390: 084a 623d f57b fcbd 1a48 95bd 15b4 5abe
000003a0: a60d ca3d 761d f9bd 6eb9 883d 49df 893d
000003b0: a08f bfbd 2448 0a3e ced1 c4bc 02b7 03be
000003c0: a5bc 6d3d 747d 0fbc 513c fc3d c442 44bd
000003d0: 732d 9abc 5ea5 1a3e 1226 ae3d c0c6 9bbc
000003e0: 8ac1 b03d 12dd 603d 4cf1 053a 3fc6 0d3e
000003f0: 06b0 bf3d 50d0 193e f2c5 2fbd 25c2 abbd

bottleneck.0.bias f4 [32]
-0.03196116 0.021511879 0.028698944 0.036791034 0.029648928 0.025348997 0.043639988 -0.009106979
0.026973696 -0.012936159 0.013120777 0.03747364 -0.008557906 0.026337327 -0.003929185 0.03053166
0.034085564 0.0072004995 0.026343046 0.054530803 0.004297725 0.0503727 0.024079768 -0.012716517
0.033649568 0.020105314 -0.028844265 0.011960079 0.02080957 0.027561031 0.024180211 0.029702878
00000000: b5e9 02bd ae39 b03c 0c1a eb3c 32b2 163d
00000010: 4fe2 f23c b3a8 cf3c d8bf 323d 7035 15bc
00000020: f1f7 dc3c 2ff2 53bc 87f8 563c f67d 193d
00000030: 7636 0cbc 61c1 d73c 65c0 80bb 881d fa3c
00000040: 4e9d 0b3d 2bf2 eb3b 5fcd d73c b15b 5f3d
00000050: eed3 8c3b 9b53 4e3d ef42 c53c f058 50bc
00000060: 21d4 093d e6b3 a43c cf4a ecbc 35f4 433c
00000070: d578 aa3c acc7 e13c 9415 c63c 7353 f33c

bottleneck.2.weight f4 [32, 32, 3, 3]
-0.0107021695 -0.028416865 -0.19031008 -0.10675027 -0.1839626 -0.014166134 -0.07279922 -0.12222638
-0.011435945 0.0027997175 -0.1797446 -0.021936215 0.0046121413 0.10420961 0.06917575 0.07906029
-0.036766108 -0.016954368 -0.047610212 0.2220496 0.03731776 -0.09421166 0.07178986 -0.023814034
0.093359455 -0.06847951 0.09290857 -0.02545878 0.09762189 0.017621769 -0.0024902432 0.15506291
0.085962705 0.054034267 0.116658315 0.0423047 0.042242896 -0.008305346 0.06304878 0.012084968
-0.07400684 0.15540873 -0.0074682725 0.034488868 -0.14836845 -0.18435737 -0.15582542 -0.058011994
0.09350809 0.056717403 0.11513464 -0.07434907 -0.06013181 0.054156028 0.23713428 -0.056148577
-0.01317681 0.063988894 -0.030044118 -0.034125738 -0.026814241 -0.036112633 -0.09431607 0.014909776
0.008781795 0.12692097 0.028480938 0.07784271 0.031501777 -0.042957414 0.024235189 0.06280384
-0.17607301 0.013220819 -0.11121176 0.058863055 -0.0078122052 0.033847895 0.064122654 -0.081355855
0.037178166 0.009987394 0.014931354 -0.041323412 -0.042105388 0.05324481 -0.05854107 -0.015928136
-0.22575247 -0.11637552 -0.019706424 0.026004974 -0.035710867 -0.08049301 0.12398376 0.07426685
0.01945226 0.061431237 0.039171413 0.01281473 0.08524746 0.16816467 0.114177406 0.18378745
-0.034220602 0.060875673 -0.11574756 0.03434856 -0.039107103 -0.05804442 -0.023255615 -0.0038414188
-0.05206874 -0.08615288 -0.12221431 -0.10374047 -0.1578814 0.0005877886 0.07851243 -0.10982324
-0.08772385 0.012959417 0.048536167 -0.20608428 0.019106785 0.08807183 0.11976471 0.03497299
-0.12920572 0.12895349 0.14654364 -0.20963028 -0.07121326 0.1450572 0.036777064 -0.0566858
0.08439222 0.01624534 -0.102077454 0.032720137 0.032113954 0.08690284 -0.09245035 0.102322705
0.20580779 -0.14709003 -0.019133387 -0.052663118 0.049056876 0.014705093 -0.109014384 0.05043081
-0.027576176 -0.017899131 -0.050690155 0.1172973 0.015456317 -0.036000058 0.040035818 0.026294252
0.12101174 -0.045707285 -0.022141756 -0.11216081 -0.08736963 -0.1995323 0.030388396 -0.12843066
0.009868024 0.16831122 -0.028125409 -0.07960813 -0.039071254 -0.13791093 0.04756689 0.04621438
-0.16069621 0.010228767 0.0720282 0.14150466 -0.02560171 -0.12033765 0.12427396 -0.10468023
-0.03946992 -0.088960975 -0.08007941 0.07871604 0.115185544 -0.2560918 0.0065426803 0.037547056
-0.06424976 0.019205878 0.029190034 -0.16012636 0.09875715 0.019371778 0.03538055 -0.10842446
0.024561914 -0.043786917 0.0021649492 0.1784872 0.018115727 -0.13416009 0.06275426 0.048512984
0.057793163 -0.098015726 0.020354984 -0.16733545 -0.0066936812 -0.05434685 -0.0030911765 -0.12845163
0.011408065 0.018760351 0.018191693 0.049149193 -0.03016652 0.11157466 0.015965182 0.056889363
0.033355016 -0.11554568 -0.068366684 0.015153697 -0.045955334 -0.10450044 0.10193082 0.06903369
-0.04955818 0.04623094 0.04198015 -0.13087623 -0.021654842 0.17488217 -0.11826796 -0.08234091
0.030288545 -0.013391901 -0.07685516 0.05836037 0.056836158 0.049376085 0.021834083 0.07297428
0.16074681 -0.088070326 -0.027751848 0.02635875 0.15302032 0.22959706 0.25174132 -0.040714804
00000000: 2758 2fbc 7cca e8bc a5e0 42be e39f dabd
00000010: b160 3cbe 1319 68bc c217 95bd d351 fabd
00000020: d45d 3bbc 777b 373b f80e 38be 94b3 b3bc
00000030: 7221 973b d96b d53d 04ac 8d3d 5cea a13d
00000040: 0f98 16bd e3e3 8abc ed02 43bd f860 633e
00000050: 82da 183d 0bf2 c0bd 9006 933d a615 c3bc
00000060: 3e33 bf3d fc3e 8cbd d946 be3d ee8e d0bc
00000070: fced c73d 875b 903c 5933 23bb d0c8 1e3e
00000080: 370d b03d 0953 5d3d 8eea ee3d b147 2d3d
00000090: e306 2d3d 2513 08bc b81f 813d 0800 463c
000000a0: e690 97bd 7723 1f3e 69b8 f4bb 3344 0d3d
000000b0: e6ed 17be 2ec8 3cbe b390 1fbe fc9d 6dbd
000000c0: 2b81 bf3d 8250 683d b6cb eb3d 5344 98bd
000000d0: c64c 76bd b6d2 5d3d 54d3 723e 0dfc 65bd
000000e0: 8ce3 57bc 9c0c 833d 151f f6bc 6ec7 0bbd
000000f0: 8aa9 dbbc d7ea 13bd c928 c1bd 2248 743c
00000100: 85e1 0f3c 92f7 013e db50 e93c 006c 9f3d
00000110: 0208 013d 1df4 2fbd e088 c63c 4d9f 803d
00000120: 7c4c 34be 229c 583c fec2 e3bd 631a 713d
00000130: 87fd ffbb 17a4 0a3d bd52 833d e69d a6bd
00000140: 2248 183d 2ba2 233c a3a2 743c bd42 29bd
00000150: b376 2cbd 3b17 5a3d c3c8 6fbd b97b 82bc
00000160: a82b 67be 4a56 eebd 5e6f a1bc 6208 d53c
00000170: 8f45 12bd 85d9 a4bd 33eb fd3d 3819 983d
00000180: 595a 9f3c 529f 7b3d 3472 203d e0f4 513c
00000190: 3896 ae3d 5c33 2c3e d8d5 e93d c732 3c3e
000001a0: e72a 0cbd c558 793d 0f0d edbd 13b1 0c3d
000001b0: c52e 20bd fcbf 6dbd 8f82 bebc 50c0 7bbb
000001c0: 0846 55bd ec70 b0bd 7f4b fabd e275 d4bd
000001d0: a9ab 21be d315 1a3a 20cb a03d 02eb e0bd
000001e0: 90a8 b3bd bc53 543c dccd 463d c207 53be
000001f0: d585 9c3c 015f b43d 3347 f53d d73f 0f3d
00000200: 814e 04be 620c 043e 890f 163e 52a9 56be
00000210: 42d8 91bd e089 143e 8ca3 163d 5f2f 68bd
00000220: d4d5 ac3d f314 853c fc0d d1bd 8d05 063d
00000230: ec89 033d 1efa b13d 9c56 bdbd 918e d13d
00000240: 47bf 523e c59e 16be 9fbd 9cbc 48b5 57bd
00000250: ddef 483d a1ed 703c ef42 dfbd 8990 4e3d
00000260: 6fe7 e1bc 33a1 92bc 7ba0 4fbd 9139 f03d
00000270: 7e3c 7d3c cc74 13bd 99fc 233d 0b67 d73c
00000280: 01d5 f73d 9037 3bbd a162 b5bc 91b4 e5bd
00000290: d9ee b2bd 3252 4cbe 16f1 f83c 5483 03be
000002a0: 7ead 213c c759 2c3e 4267 e6bc 9609 a3bd
000002b0: 2e09 20bd 8638 0dbe 80d5 423d 4a4b 3d3d
000002c0: 8c8d 24be 8f96 273c 8583 933d 99e6 103e
000002d0: adba d1bc 9673 f6bd 5983 fe3d 9762 d6bd
000002e0: 36ab 21bd 2c31 b6bd ac00 a4bd e035 a13d
000002f0: 66e6 eb3d 771e 83be fb63 d63b f1ca 193d
00000300: 6195 83bd a555 9d3c f01f ef3c 2af8 23be
00000310: 3041 ca3d 90b1 9e3c 32eb 103d a50d debd
00000320: 1136 c93c e959 33bd d2e1 0d3b 59c5 363e
00000330: 6f67 943c 4361 09be 4e85 803d 8db5 463d
00000340: 86b8 6c3d 78bc c8bd 7fbf a63c fc59 2bbe
00000350: ab56 dbbb cd9a 5ebd 5695 4abb d388 03be
00000360: e5e8 3a3c 4faf 993c bf06 953c aa50 493d
00000370: c71f f7bc 4181 e43d 6ac9 823c d204 693d
00000380: 459f 083d 37a3 ecbd d503 8cbd 3647 783c
00000390: a93b 3cbd 5404 d6bd 1bc1 d03d 8961 8d3d
000003a0: 85fd 4abd a75c 3d3d 61f3 2b3d 6b04 06be
000003b0: 7f65 b1bc 5014 333e 7936 f2bd 5aa2 a8bd
000003c0: af1f f83c b469 5bbc 3d66 9dbd 490b 6f3d
000003d0: 08cd 683d 943e 4a3d 64dd b23c 8a73 953d
000003e0: d09a 243e 375e b4bd d857 e3bc 4eee d73c
000003f0: 5cb1 1c3e 7e1b 6b3e 3de4 803e 91c4 26bd

bottleneck.2.bias f4 [32]
0.027980044 0.044712584 0.03071016 -0.014229256 -0.008804215 -0.014386768 0.02602274 -0.0052810856
0.03451998 0.008797755 0.03291417 -0.03400764 -0.036487803 0.02887778 -0.013570658 0.02667377
0.026482098 -0.013419725 0.03467717 -0.010200837 0.02922143 0.0023908275 -0.044466846 -0.006213227
0.027416069 0.03136453 -0.03269052 0.029116847 0.01005978 -0.020411145 0.026305983 0.0044335867
00000000: 6836 e53c 8b24 373d e093 fb3c d321 69bc
00000010: 8e3f 10bc 7bb6 6bbc a42d d53c f50c adbb
00000020: d364 0d3d 7624 103c 02d1 063d 984b 0bbd
00000030: 3c74 15bd 1891 ec3c 7757 5ebc f382 da3c
00000040: fcf0 d83c 68de 5bbc a609 0e3d 6921 27bc
00000050: c861 ef3c 6eaf 1c3b de22 36bd 5398 cbbb
00000060: aa97 e03c 1878 003d 7fe6 05bd 7486 ee3c
00000070: c7d1 243c 4635 a7bc a57f d73c 9f47 913b

up1.weight f4 [32, 16, 2, 2]
0.07404886 0.06287366 -0.26399344 -0.02676425 -0.110909395 0.11508448 0.083672196 0.30594996
-0.18723656 -0.084113844 0.097200915 0.01638228 -0.08219295 0.07668129 0.1127631 -0.091061085
0.0041065514 0.29990363 0.08154339 -0.07802996 0.03596557 -0.16168427 0.018091017 -0.0887284
0.13306466 0.114648774 -0.040962648 -0.09277192 0.018064138 -0.21438861 0.2269126 0.06451831
-0.22566031 0.11337446 -0.22066523 -0.08665989 0.048761573 -0.057949305 0.18585375 0.20112668
-0.11907154 0.18999311 0.08170565 0.13603486 0.004195422 0.10547001 -0.09288556 -0.02196414
0.09514974 -0.2555906 -0.030459506 0.081635006 0.029236404 -0.05842786 0.27891403 0.15239182
-0.11804429 -0.23338602 0.0662067 -0.035507735 0.0064021987 0.22259934 -0.09532438 0.048084438
-0.20622264 -0.17992598 0.018532032 -0.12681621 -0.24810468 -0.13597926 -0.20698467 -0.0032869198
0.29719567 0.09689285 -0.04174865 -0.09222066 0.12064357 -0.0309927 0.10889029 -0.10781264
-0.15518732 -0.118687406 -0.058072146 -0.24812602 -0.016549388 -0.023225388 0.04258658 0.058402028
-0.11855793 -0.082742475 -0.15280624 -0.3514598 0.08415502 0.1045808 -0.18737169 -0.08419482
-0.2025121 -0.042601507 -0.2547715 0.12908953 0.07052864 0.13998833 0.09186845 0.022997988
-0.060306627 -0.1862971 -0.0053626276 0.07657604 -0.12924878 -0.0063836006 0.2248767 0.0071031284
-0.08267514 0.105063476 0.060566887 0.10915996 0.10838928 0.024789084 0.20504227 -0.06511501
0.054164417 0.1732983 -0.058011957 -0.1006222 -0.17987405 -0.119858496 -0.23439799 -0.049476203
-0.031782374 -0.06473667 -0.12235027 0.2526066 0.00079667725 -0.031408273 -0.14940466 -0.05985586
0.04403936 0.068450294 0.21717292 0.2499587 0.11469026 0.074621975 0.3148385 -0.028717808
-0.05214413 -0.01858824 -0.21698484 -0.20138013 -0.015285758 0.036735307 -0.074540846 -0.031807855
0.042092826 0.13679975 -0.03995344 -0.14736307 -0.41366103 -0.044513527 -0.07569446 -0.018276572
0.19018796 -0.010078942 -0.15558356 0.3501767 0.10402884 0.1140574 0.19400188 -0.062206294
0.03443517 -0.007874578 0.03287154 -0.06613774 0.04768224 -0.079909615 0.092146754 -0.099612914
-0.022966295 0.024883311 -0.048693765 0.25031397 -0.032864433 -0.017118648 0.00039124687 0.27598128
-0.09804939 0.14268221 -0.059411637 -0.14837988 0.109287694 -0.11290775 -0.038806386 -0.14927669
-0.090390705 0.048184603 0.035853934 0.103409626 0.108544365 0.14044864 -0.2777765 0.084067285
-0.14951733 -0.18112922 -0.05224812 0.094322875 -0.29451287 -0.0035205751 0.066015616 0.16325186
0.081082486 -0.10836571 0.12929459 -0.05750262 -0.012228543 -0.01498072 0.079734564 0.09542792
-0.031187363 -0.007664365 0.36053732 0.026068827 -0.02662223 0.124548025 0.021806156 -0.06116809
-0.004964282 -0.018705675 0.028359493 -0.05940703 0.08880587 -0.20638351 0.056930847 0.2191307
-0.09962004 -0.0360925 0.14066342 -0.19676653 0.030279923 -0.15925106 0.075784765 0.079365686
-0.02427677 0.10769527 0.121101424 -0.1324478 0.12790167 -0.026555 0.13164976 -0.13916272
0.24130562 -0.05858919 0.12247381 -0.056733567 -0.15672849 0.0812653 0.08419503 0.028708037
00000000: eea6 973d e8c3 803d 262a 87be b340 dbbc
00000010: 7724 e3bd 69b1 eb3d 545c ab3d 79a5 9c3e
00000020: f1ba 3fbe e143 acbd 4611 c73d 2234 863c
00000030: c754 a8bd 150b 9d3d 57f0 e63d 3c7e babd
00000040: 4090 863b f88c 993e 3900 a73d 2cce 9fbd
00000050: a250 133d 9090 25be 9d33 943c 3cb7 b5bd
00000060: 1a42 083e facc ea3d 73c8 27bd 34ff bdbd
00000070: 3efb 933c b088 5bbe c75b 683e 2d22 843d
00000080: 7f13 67be de30 e83d 11f6 61be be7a b1bd
00000090: 37ba 473d 405c 6dbd 7250 3e3e 27f4 4d3e
000000a0: c8db f3bd 8e8d 423e 4b55 a73d b94c 0b3e
000000b0: c079 893b a900 d83d c93a bebd 24ee b3bc
000000c0: dedd c23d c5dc 82be 3786 f9bc 4130 a73d
000000d0: 2f81 ef3c 0d52 6fbd d2cd 8e3e 9a0c 1c3e
000000e0: 34c1 f1bd bffc 6ebe 6197 873d 8f70 11bd
000000f0: 89c9 d13b 15f1 633e 6e39 c3bd 30f4 443d
00000100: 072c 53be 843e 38be 7dd0 973c 1cdc 01be
00000110: 270f 7ebe 263e 0bbe caf3 53be 5d69 57bb
00000120: 082a 983e c26f c63d a200 2bbd 2fde bcbd
00000130: fa13 f73d 67e4 fdbc df01 df3d e0cc dcbd
00000140: 6de9 1ebe 6212 f3bd 0fdd 6dbd bf14 7ebe
00000150: 9592 87bc 2b43 bebc 446f 2e3d f736 6f3d
00000160: 80ce f2bd e374 a9bd 3d79 1cbe 8af2 b3be
00000170: 7859 ac3d 752e d63d 5dde 3fbe 556e acbd
00000180: 555f 4fbe eb7e 2ebd 6971 82be 0c30 043e
00000190: 5271 903d 1a59 0f3e 8725 bc3d 4766 bc3c
000001a0: 1504 77bd abc4 3ebe fbb8 afbb e6d3 9c3d
000001b0: cb59 04be 862d d1bb 1446 663e 5cc1 e83b
000001c0: 9551 a9bd 852b d73d fc14 783d 428f df3d
000001d0: 33fb dd3d 7a12 cb3c 9af6 513e 055b 85bd
000001e0: 82db 5d3d 1c75 313e f29d 6dbd 0313 cebd
000001f0: e730 38be 5f78 f5bd 0706 70be 8fa7 4abd
00000200: 3c2e 02bd a994 84bd c792 fabd a755 813e
00000210: 1bd8 503a f6a5 00bd 89fd 18be 6b2b 75bd
00000220: 9e62 343d ab2f 8c3d 9462 5e3e 2cf5 7f3e
00000230: bae2 ea3d 68d3 983d 8332 a13e 9c41 ebbc
00000240: 1595 55bd 5d46 98bc 4631 5ebe 9836 4ebe
00000250: 1e71 7abc c377 163d dfa8 98bd f448 02bd
00000260: 8769 2c3d 3c15 0c3e 38a6 23bd 58e6 16be
00000270: 61cb d3be d153 36bd b205 9bbd c0b8 95bc
00000280: a2c0 423e 2622 25bc 4c51 1fbe 5c4a b33e
00000290: 130d d53d ed96 e93d 6ea8 463e 07cc 7ebd
000002a0: e50b 0d3d 6004 01bc 4fa4 063d 3973 87bd
000002b0: 744e 433d a7a7 a3bd 70b7 bc3d db01 ccbd
000002c0: d023 bcbc 16d8 cb3c 1d73 47bd 2729 803e
000002d0: db9c 06bd 683c 8cbc 4420 cd39 6b4d 8d3e
000002e0: 1ece c8bd 491b 123e 9e59 73bd e5f0 17be
000002f0: 3ad2 df3d 2e3c e7bd 72f3 1ebd fddb 18be
00000300: c31e b9bd 385d 453d 93db 123d 6dc8 d33d
00000310: 824c de3d c5d1 0f3e b938 8ebe 782b ac3d
00000320: 121b 19be f079 39be 2002 56bd 5a2c c13d
00000330: 64ca 96be 73b9 66bb 3233 873d 7f2b 273e
00000340: 930e a63d d7ee ddbd cd65 043e de87 6bbd
00000350: 3a5a 48bc b271 75bc e04b a33d b76f c33d
00000360: a47c ffbc 5b25 fbbb 5998 b83e 4b8e d53c
00000370: dd16 dabc 0913 ff3d d3a2 b23c 648b 7abd
00000380: 6aab a2bb a53c 99bc 2b52 e83c c954 73bd
00000390: dadf b53d 3356 53be 5230 693d cc63 603e
000003a0: 9705 ccbd bbd5 13bd 120a 103e 2a7d 49be
000003b0: 9a0d f83c b612 23be 0b35 9b3d 7a8a a23d
000003c0: 14e0 c6bc 568f dc3d 0604 f83d 65a0 07be
000003d0: a8f8 023e df89 d9bc 32cf 063e ac80 0ebe
000003e0: d218 773e 38fb 6fbd 8dd3 fa3d 7561 68bd
000003f0: 6f7d 20be 6c6e a63d 726e ac3d 1e2d eb3c

up1.bias f4 [16]
0.020407459 -0.03305913 0.026849562 -0.032256182 -0.026092883 -0.029456962 -0.030646393 -0.028386544
-0.023795156 0.023991738 -0.020245988 0.026457125 0.028731504 0.026052557 -0.02548857 -0.025283206
00000000: 8b2d a73c 0369 07bd 9df3 db3c 0f1f 04bd
00000010: bec0 d5bc ba4f f1bc 250e fbbc e68a e8bc
00000020: 0fee c2bc 528a c43c eada a5bc 9dbc d83c
00000030: 555e eb3c 2c6c d53c 68cd d0bc ba1e cfbc

dec1.0.weight f4 [16, 32, 3, 3]
0.08300088 0.099011146 0.08538318 0.078598976 0.11120577 -0.08713676 0.07267796 0.15009731
-0.22631489 0.029264504 -0.076811485 0.003510787 -0.20419201 0.088286094 0.18716332 -0.07662501
0.033415947 0.045393754 0.02651572 -0.10959991 0.16362768 0.07050342 0.027057176 0.06346261
-0.113630764 -0.002922343 0.26782775 -0.10188746 0.011589456 -0.20211303 -0.2508367 -0.0141526405
-0.12689866 -0.09941891 0.048363026 0.10928625 0.019155268 0.19934353 -0.031671137 -0.006016075
-0.054377276 0.014403765 -0.03427034 -0.08935505 0.2031266 0.008147789 0.12378143 0.11105338
0.0885385 0.10469332 0.07954483 0.010277683 0.048521034 0.022596495 -0.11921549 0.11189398
-0.026136331 -0.15061413 0.10524605 0.06344438 0.17919634 0.114613235 -0.07591239 -0.08147387
-0.112077445 -0.25639352 -0.27113673 0.00027074778 -0.020309914 -0.19849995 -0.06490093 -0.21955557
-0.005226858 -0.22829053 0.19064315 0.0682037 -0.054333255 0.19766772 -0.24676557 -0.17914633
0.17166595 0.21288095 0.18902494 0.040284306 -0.04683379 0.08443867 -0.026050009 0.016595706
-0.0060085407 0.10786653 0.0733676 -0.07705847 -0.0882496 0.14647718 -0.15978199 0.11392295
-0.10160977 -0.038889952 -0.11585243 -0.06465235 -0.071161434 0.3164301 -0.14743671 0.14575201
0.05361607 0.29678175 -0.09681983 0.045503523 -0.010368106 -0.099997334 -0.1910786 0.002986122
0.012385399 0.095069215 0.023332324 0.06250634 -0.10751859 0.09500825 -0.34614778 -0.080183245
-0.10961 -0.04514546 0.040125657 -0.21157226 0.09818521 0.18548913 -0.0148549555 0.0024681422
0.054693162 -0.19651873 -0.042195156 0.024610598 0.16628864 0.042617343 -0.0025360535 0.14661716
-0.19878599 -0.0719832 0.06367611 -0.0006198669 -0.02702892 0.020199448 0.37535655 0.08820645
-0.0037375374 0.120536104 -0.04351273 -0.030526707 -0.006119382 -0.108823255 0.06691756 0.017452877
-0.19265227 0.0652929 -0.1537207 0.101217605 -0.055415943 -0.09377576 0.11704038 0.09520985
-0.054747954 -0.045549214 0.017265882 0.18244518 0.07766307 0.06265439 0.24480885 0.17063099
0.015758902 -0.018278068 -0.037402954 -0.04740511 0.07234352 -0.011941514 0.019241562 0.102930725
0.016628763 -0.2519258 0.08241507 -0.08936673 0.111435026 -0.06578256 -0.023398304 0.09702352
0.04560623 0.22833201 -0.06951895 -0.06242992 -0.22004968 -0.1000022 -0.23035339 0.055991467
-0.03692141 -0.007907501 -0.12492562 0.28735885 -0.034463163 -0.055596437 -0.06923346 -0.19044545
-0.1735428 -0.022988206 -0.13516726 -0.086659454 -0.029252607 0.11455339 0.034921035 -0.0839859
-0.11574628 -0.13300149 -0.14673793 0.14941539 -0.10650981 -0.01425274 0.1841171 0.067798026
-0.1411202 -0.062261544 -0.11799903 0.020225983 -0.1318253 0.1425855 -0.09628993 -0.039518088
-0.015748879 -0.16781646 -0.031162998 0.29100132 0.16578251 0.09924473 0.010646313 0.0076403767
0.12520385 0.045329634 -0.33441392 -0.08611156 0.15309033 -0.16997066 0.020628685 -0.016428152
0.10016546 -0.2693563 0.060831796 -0.24398181 0.011227388 0.051600818 0.07649105 -0.103364594
-0.09396146 0.09846284 0.019849444 -0.03479039 -0.095423125 0.06363421 0.007087102 -0.13672587
00000000: 5efc a93d 5bc6 ca3d 60dd ae3d 80f8 a03d
00000010: dabf e33d c274 b2bd 2fd8 943d 1cb3 193e
00000020: 17bf 67be 1dbc ef3c 574f 9dbd 3b15 663b
00000030: b617 51be 57cf b43d bea7 3f3e 93ed 9cbd
00000040: 29df 083d cdee 393d 7f37 d93c eb75 e0bd
00000050: 048e 273e 1964 903d 03a7 dd3c aff8 813d
00000060: 3fb7 e8bd c884 3fbb b820 893e 5faa d0bd
00000070: b4e1 3d3c b8f6 4ebe ab6d 80be 7ae0 67bc
00000080: b9f1 01be 249c cbbd 4f18 463d 78d1 df3d
00000090: 82eb 9c3c b620 4c3e 98b9 01bd 7f22 c5bb
000000a0: b5ba 5ebd c5fd 6b3c 0e5f 0cbd c8ff b6bd
000000b0: 6b00 503e 4e7e 053c 1e81 fd3d f46f e33d
000000c0: ac53 b53d 7469 d63d 66e8 a23d ba63 283c
000000d0: febd 463d 491c b93c 4027 f4bd ac28 e53d
000000e0: dc1b d6bc 973a 1abe 3e8b d73d 21ef 813d
000000f0: 3f7f 373e 58ba ea3d f577 9bbd c6db a6bd
00000100: dc88 e5bd 0346 83be 6fd2 8abe 27f3 8d39
00000110: fa60 a6bc 9243 4bbe c7ea 84bd 2dd3 60be
00000120: 1046 abbb fec4 69be f537 433e 62ae 8b3d
00000130: 8c8c 5ebd 6869 4a3e 1db0 7cbe 2372 37be
00000140: 33c9 2f3e 77fd 593e c18f 413e 2801 253d
00000150: cad4 3fbd 2eee ac3d d466 d5bc b8f3 873c
00000160: 4be3 c4bb 21e9 dc3d c141 963d d5d0 9dbd
00000170: 35bc b4bd 1dfe 153e e49d 23be 7050 e93d
00000180: c818 d0bd 124b 1fbd 0a44 edbd 7468 84bd
00000190: 16bd 91bd 2003 a23e a6f9 16be 0440 153e
000001a0: 869c 5b3d c7f3 973e 7a49 c6bd e761 3a3d
000001b0: fdde 29bc 67cb ccbd 1caa 43be d0b2 433b
000001c0: 21ec 4a3c a6b3 c23d 6e23 bf3c 5303 803d
000001d0: b532 dcbd af93 c23d 483a b1be 1d37 a4bd
000001e0: 357b e0bd 72ea 38bd cd5a 243d 66a6 58be
000001f0: 5415 c93d ddf0 3d3e 3362 73bc 8ec0 213b
00000200: f005 603d 353c 49be d4d4 2cbd 2a9c c93c
00000210: 9247 2a3e 868f 2e3d eb33 26bb cf22 163e
00000220: 8e8e 4bbe ee6b 93bd 9f68 823d 907e 22ba
00000230: c16b ddbc 5079 a53c bc2e c03e 95a5 b43d
00000240: 79f1 74bb a2db f63d 683a 32bd 2513 fabc
00000250: 1985 c8bb bade debd 130c 893d 56f9 8e3c
00000260: a346 45be 49b8 853d f668 1dbe 2d4b cf3d
00000270: d4fb 62bd 810d c0bd deb2 ef3d 62fd c23d
00000280: 643f 60bd d091 3abd 2e71 8d3c e9d2 3a3e
00000290: d10d 9f3d f250 803d 2caf 7a3e e4b9 2e3e
000002a0: d018 813c e3bb 95bc d733 19bd dc2b 42bd
000002b0: d728 943d 57a6 43bc 7ba0 9d3c 58cd d23d
000002c0: 0b39 883c 6bfc 80be 3bc9 a83d e705 b7bd
000002d0: 0c38 e43d 02b9 86bd cdad bfbc 44b4 c63d
000002e0: 99cd 3a3d decf 693e f45f 8ebd 84b6 7fbd
000002f0: b454 61be f4cd ccbd c2e1 6bbe 4f57 653d
00000300: e83a 17bd 778e 01bc 01d9 ffbd b320 933e
00000310: 3f29 0dbd 17b9 63bd 46ca 8dbd 2204 43be
00000320: 34b5 31be c351 bcbc 4969 0abe 837a b1bd
00000330: 2aa3 efbc f89a ea3d 5c09 0f3d cd00 acbd
00000340: 630c edbd 8b31 08be 7842 16be 5900 193e
00000350: d121 dabd 5384 69bc 3189 3c3e b1d9 8a3d
00000360: d081 10be f605 7fbd 7aa9 f1bd f6b0 a53c
00000370: 36fd 06be ef01 123e a833 c5bd b8dd 21bd
00000380: cb03 81bc 14d8 2bbe 8b49 ffbc 20fe 943e
00000390: e4c2 293e d240 cb3d e06d 2e3c 205c fa3b
000003a0: 7035 003e 91ab 393d 4d38 abbe 425b b0bd
000003b0: b6c3 1c3e ca0c 2ebe 7dfd a83c 5594 86bc
000003c0: 8c23 cd3d 12e9 89be c32a 793d 5ed6 79be
000003d0: 14f3 373c 615b 533d 57a7 9c3d d1b0 d3bd
000003e0: de6e c0bd e3a6 c93d 4d9b a23c 5e80 0ebd
000003f0: 336d c3bd a752 823d ec3a e83b de01 0cbe

dec1.0.bias f4 [16]
0.022165459 0.025383167 0.02760297 0.029102283 -0.01983753 -0.03619971 0.022877954 0.024698753
-0.003260913 -0.0025354126 0.0028317494 -0.007132907 -0.016305963 0.021585934 -0.004445947 0.02497642
00000000: 5694 b53c 5cf0 cf3c a01f e23c e967 ee3c
00000010: 5182 a2bc 2646 14bd 8c6a bb3c 0a55 ca3c
00000020: 0bb5 55bb 2a29 26bb df94 393b 29bb e9bb
00000030: 1594 85bc fcd4 b03c 4eaf 91bb 599b cc3c
