sampling_based_planning_framework/checkpoints/checkpoint_epoch_31.pth (torch, 385906 bytes, 75 tensors)

enc1.0.weight f4 [8, 1, 3, 3]
-0.10105749 0.10738268 0.046093762 0.14123796 -0.1173587 0.08238578 0.03681836 -0.17786847
-0.06939273 0.16681471 -0.14156353 0.04630833 0.20917714 -0.05914305 0.13151014 -0.040497456
0.13422173 -0.027327465 0.16820675 -0.19907546 -0.10915513 0.15387486 -0.06521783 -0.12160547
-0.35479227 -0.1413588 -0.06613809 0.04437975 0.0202089 -0.13975698 0.037693415 0.08911404
0.2803231 -0.01409927 0.0011043466 0.000119199765 -0.05199258 0.022381833 -0.06658726 -0.24399863
0.20454082 -0.035999257 -0.063031636 0.114946485 -0.27741373 0.21160667 0.23382027 -0.05649481
0.36998513 -0.04903895 -0.10152369 0.077050686 -0.32794487 -0.2381223 0.02639226 0.016225215
0.07289012 0.110621795 -0.077483825 0.48273066 -0.023973504 0.09751251 0.06892866 0.10407049
-0.33438903 0.0654048 -0.1287845 -0.058027573 0.22420245 0.05475399 -0.1051293 0.031524412
00000000: 3bf7 cebd 73eb db3d d0cc 3c3d afa0 103e
00000010: c259 f0bd e0b9 a83d d9ce 163d 2723 36be
00000020: c71d 8ebd 7ad1 2a3e 08f6 10be cead 3d3d
00000030: 8832 563e fc3f 72bd 98aa 063e a9e0 25bd
00000040: 6c71 093e d9dd dfbc 643e 2c3e 70da 4bbe
00000050: ba8c dfbd 5f91 1d3e ed90 85bd 4a0c f9bd
00000060: 55a7 b5be 5cc0 10be 6873 87bd 8ac7 353d
00000070: 238d a53c 741c 0fbe 6964 1a3d 6c81 b63d
00000080: 8286 8f3e a000 67bc b9bf 903a e3fa f938
00000090: 2cf6 54bd 1b5a b73c e75e 88bd c7da 79be
000000a0: 2673 513e f573 13bd bb16 81bd 1069 eb3d
000000b0: 2c09 8ebe 6baf 583e 956e 6f3e 1a67 67bd
000000c0: b16e bd3e 11dd 48bd a7eb cfbd c0cc 9d3d
000000d0: 64e8 a7be 55d6 73be 9534 d83c beea 843c
000000e0: 6a47 953d ae8d e23d d7af 9ebd 7928 f73e
000000f0: 1564 c4bc a4b4 c73d 782a 8d3d e922 d53d
00000100: 0a35 abbe f4f2 853d 15e0 03be 52ae 6dbd
00000110: 5495 653e b845 603d 084e d7bd be1f 013d

enc1.0.bias f4 [8]
0.03203971 0.005481509 0.030478954 -0.0020209048 0.037492756 0.00031900135 -0.0034247243 -0.000894043
00000000: 123c 033d 3b9e b33b 00af f93c 2871 04bb
00000010: 0192 193d a33f a739 5771 60bb 365e 6aba

enc1.2.weight f4 [8, 8, 3, 3]
0.10398133 0.05938068 -0.063750476 -0.2524453 0.48115152 0.12669955 -0.059567578 0.022239532
-0.023763904 -0.098884836 -0.12988828 -0.12687919 -0.1105865 -0.13080144 0.16421191 0.16493553
0.1463176 -0.25201297 0.06602688 0.19302589 0.15377775 -0.12947994 0.11284804 -0.12074652
-0.22128296 0.09696992 -0.004199237 0.024322752 -0.03781113 -0.21784225 0.14070056 -0.014786042
0.009095369 -0.057227664 -0.009891376 -0.21226121 -0.01969547 0.051948246 0.1932101 -0.19641103
0.08214475 0.09793112 0.055376012 -0.03355684 0.16713525 0.04708435 -0.32778525 0.056737844
-0.039832454 0.2822753 -0.275511 0.11896107 -0.19761018 -0.15144788 -0.09996309 0.1283873
-0.020612342 0.08902152 -0.08302452 -0.032936126 0.036232516 -0.44599977 0.0032294213 -0.05190329
-0.041524228 0.24307147 -0.057554204 0.07294912 0.049853373 -0.0046579856 -0.051166553 -0.06813148
-0.19770694 -0.0033841005 0.03364148 0.14263387 0.15498428 0.084737614 -0.1559829 0.17608312
-0.21394922 -0.048712827 0.24722663 -0.1318319 0.17151506 -0.1294854 0.11540671 0.012731084
-0.33897778 0.15016927 -0.0060258075 -0.28390837 0.24263382 -0.019408505 0.15373857 0.08695328
0.038208153 0.1585349 -0.13183345 0.068078615 -0.024824578 0.2178027 0.36466688 -0.09558627
-0.0074033192 0.027935117 0.5074659 0.12710313 -0.2573648 0.051776085 -0.03167851 -0.3388862
0.14043818 -0.17012691 -0.03021169 0.15554313 0.3703483 -0.072587125 -0.24715066 -0.0020719308
0.076388225 0.20670266 0.1170426 0.02361146 -0.0836576 -0.01699579 0.24004945 -0.034796134
-0.29414278 0.2834415 0.16942321 -0.11810393 0.40368032 0.17928874 0.055972286 0.020415572
0.30089033 -0.031739432 0.25594485 0.20412302 0.1134573 0.16934241 -0.11237065 0.07332116
0.12940302 0.16386859 0.009999883 0.1756533 0.098429576 -0.11192834 0.10111453 0.5233981
-0.1635072 -0.3587246 -0.1479674 0.06367492 0.24941516 -0.06907537 -0.05645922 0.14979659
-0.40737173 -0.17646246 -0.24514434 -0.110259235 -0.33676338 0.08116996 0.062245443 0.24890643
0.08004186 0.17930843 -0.08019993 0.26925984 -0.038675353 -0.006675179 -0.06835688 0.021293739
0.01943456 -0.15555222 -0.17671728 -0.12968455 0.15126483 -0.084977545 0.34265786 -0.22964828
-0.05477932 0.14907587 -0.16721104 -0.008409768 0.0056677596 -0.12998818 -0.30027595 0.3074225
0.12590626 -0.28770274 -0.2751749 0.08017051 -0.26915464 0.03969733 0.08962354 -0.058292862
-0.1609071 -0.2815566 0.30159548 0.03945986 -0.18074267 -0.08489892 0.08332387 0.0628612
-0.081824765 -0.034423076 0.292059 -0.1289135 -0.14720748 0.07041318 0.12745899 -0.01451708
0.022465644 0.2606149 -0.0127851805 -0.04980771 0.036956634 -0.20398813 0.17171066 0.0015998521
0.027686225 -0.29592356 -0.3580181 -0.21212874 -0.0097908145 -0.18549342 -0.101429366 0.2093378
0.17096287 0.06557152 -0.03170165 0.05300808 0.061067462 -0.08533638 -0.016514981 0.10365502
0.0192765 0.2047653 -0.19963554 -0.031218866 0.013770702 0.10988143 -0.14128166 -0.08470408
-0.04678579 -0.003287562 0.14145276 0.09642915 0.37969446 -0.054699827 -0.11147892 -0.20367919
00000000: 2af4 d43d 2839 733d 9c8f 82bd 8340 81be
00000010: 7e59 f63e 87bd 013e 22fd 73bd ae2f b63c
00000020: 85ac c2bc 2284 cabd 6f01 05be 9eec 01be
00000030: 2d7b e2bd d0f0 05be 2b27 283e dce4 283e
00000040: 48d4 153e d807 81be 1a39 873d 94a8 453e
00000050: ea77 1d3e 6496 04be e01c e73d f449 f7bd
00000060: 0098 62be 2a98 c63d c199 89bb 8240 c73c
00000070: d8df 1abd 0a12 5fbe cf13 103e 2841 72bc
00000080: be04 153c 8e67 6abd 700f 22bc 015b 59be
00000090: 6558 a1bc afc7 543d ded8 453e f91f 49be
000000a0: 823b a83d 1c90 c83d f5d1 623d e672 09bd
000000b0: 8125 2b3e 85db 403d 78d3 a7be f165 683d
000000c0: 5b27 23bd 6386 903e c70f 8dbe dda1 f33d
000000d0: 535a 4abe 2715 1bbe 73b9 ccbd f677 033e
000000e0: 37db a8bc ea50 b63d c208 aabd 08e8 06bd
000000f0: 8c68 143d 155a e4be b3a4 533b 8b98 54bd
00000100: 4f15 2abd bae7 783e f5bd 6bbd 5966 953d
00000110: 0d33 4c3d 04a2 98bb 0594 51bd 8488 8bbd
00000120: b073 4abe c9c7 5dbb a6cb 093d 9d0e 123e
00000130: 33b4 1e3e ea8a ad3d fbb9 1fbe 224f 343e
00000140: 8115 5bbe 1a87 47bd fa28 7d3e f1fe 06be
00000150: a5a1 2f3e d297 04be 5a5a ec3d 0996 503c
00000160: 7f8e adbe f9c5 193e 2374 c5bb 705c 91be
00000170: 0075 783e 96fe 9ebc a56d 1d3e 9014 b23d
00000180: 2780 1c3d f956 223e 59ff 06be cd6c 8b3d
00000190: ea5c cbbc ac07 5f3e 9eb5 ba3e bcc2 c3bd
000001a0: 8b97 f2bb 30d8 e43c 49e9 013f 5327 023e
000001b0: 52c5 83be 2913 543d 53c1 01bd 7e82 adbe
000001c0: 07cf 0f3e c035 2ebe 827e f7bc b346 1f3e
000001d0: 4b9e bd3e 8fa8 94bd 1015 7dbe 3bc9 07bb
000001e0: 6e71 9c3d dda9 533e 08b4 ef3d d26c c13c
000001f0: ad54 abbd c13a 8bbc 86cf 753e 6486 0ebd
00000200: e299 96be 3f1f 913e 477d 2d3e 79e0 f1bd
00000210: 30af ce3e 7897 373e 3243 653d 8f3e a73c
00000220: 4c0e 9a3e 3501 02bd 340b 833e a005 513e
00000230: 4d5c e83d 1968 2d3e 9522 e6bd 6829 963d
00000240: 3a82 043e 2bcd 273e 8dd6 233c 75de 333e
00000250: 7295 c93d af3a e5bd 2215 cf3d 6bfd 053f
00000260: 6e6e 27be c0aa b7be c484 17be ff67 823d
00000270: b066 7f3e 6377 8dbd c841 67bd 4764 193e
00000280: 0793 d0be 93b2 34be 1e07 7bbe 98cf e1bd
00000290: 406c acbe 703c a63d 14f5 7e3d 54e1 7e3e
000002a0: fdec a33d a19c 373e dc3f a4bd 6ddc 893e
000002b0: 0c6a 1ebd 76bb dabb b1fe 8bbd 3570 ae3c
000002c0: 3a35 9f3c 1549 1fbe 60f5 34be 07cc 04be
000002d0: 2be5 1a3e b508 aebd da70 af3e eb28 6bbe
000002e0: 4860 60bd 58a7 183e 5f39 2bbe 20c9 09bc
000002f0: 9db8 b93b 9f1b 05be c5bd 99be 7b66 9d3e
00000300: 92ed 003e c64d 93be b9e3 8cbe 7030 a43d
00000310: a3ce 89be ab99 223d 8c8c b73d 7fc4 6ebd
00000320: d5c4 24be 3028 90be b96a 9a3e aaa0 213d
00000330: 9b14 39be 7cdf adbd b5a5 aa3d 5fbd 803d
00000340: be93 a7bd 36ff 0cbd c288 953e e701 04be
00000350: 8fbd 16be c934 903d 9c84 023e 0cd9 6dbc
00000360: df09 b83c 516f 853e ef78 51bc 2b03 4cbd
00000370: d75f 173d 44e2 50be ebd4 2f3e 21b2 d13a
00000380: 39ce e23c 4b83 97be 264e b7be 4738 59be
00000390: a769 20bc fdf1 3dbe 33ba cfbd a65c 563e
000003a0: e410 2f3e 5c4a 863d 97d9 01bd 001f 593d
000003b0: e021 7a3d d7c4 aebd 6d4a 87bc 1549 d43d
000003c0: c0e9 9d3c ffad 513e 426d 4cbe b5be ffbc
000003d0: 839e 613c 8409 e13d 24ac 10be 5579 adbd
000003e0: 75a2 3fbd 2374 57bb fed8 103e a57c c53d
000003f0: 5067 c23e ed0c 60bd 0f4f e4bd 4791 50be

enc1.2.bias f4 [8]
-0.024052877 0.0013225595 0.033842474 -0.009689777 0.0010545882 0.03190722 0.027614757 0.0014732517
00000000: 8a0a c5bc bc59 ad3a 689e 0a3d dfc1 1ebc
00000010: 1c3a 8a3a 25b1 023d 5838 e23c 201a c13a

enc2.0.weight f4 [16, 8, 3, 3]
0.011598254 -0.047803275 -0.009985134 -0.12029879 -0.22050838 0.09560708 0.060005344 -0.09445929
0.2653272 -0.007930832 0.046413235 -0.03133402 -0.21319778 0.06571509 -0.035428368 -0.0765237
-0.0444406 0.18138666 -0.017256245 0.112983294 -0.19428395 -0.052835587 -0.024411587 -0.14325504
0.091397375 0.27670413 0.10593412 -0.04988957 0.10980918 0.11598854 -0.017038003 -0.1572851
-0.012437945 -0.17875853 -0.1596155 -0.08179575 0.16164432 -0.055360015 -0.18637395 -0.027795585
0.02786705 -0.04402447 -0.13050781 -0.11964941 0.06549385 0.05328004 0.05073189 0.13877596
0.21965265 -0.03661549 0.14359145 0.17590088 -0.041566 0.11280363 0.1859355 -0.05562644
-0.30427444 -0.17627531 0.20379727 -0.0630358 0.091571294 0.21390957 0.19017196 0.004764424
-0.18048438 0.02249619 -0.01772942 -0.0062903943 0.12028845 -0.09979321 -0.16267917 0.0047752056
0.021294914 0.05648754 -0.018843537 -0.03471863 -0.040411044 -0.11692317 -0.08563156 0.004892929
0.11684211 -0.048941664 0.0011776816 0.30534288 0.0072087036 -0.10073909 0.022848526 -0.05985655
-0.013234285 -0.08977819 0.037194602 0.022632478 0.15330894 0.09213317 0.03205379 0.074828796
-0.20752706 0.11547769 0.024327245 -0.029560812 -0.08528804 0.09458235 -0.19600625 0.06137954
0.009367837 0.11091712 -0.23547581 0.028936626 0.15173455 -0.05982439 -0.027782084 -0.023060212
0.08749037 0.06455159 0.16751954 0.23689497 0.013094193 -0.05710738 -0.085214294 0.18560466
0.17863312 0.16191699 0.071743146 -0.13149945 0.09642787 0.1292629 0.21018773 0.009118047
0.0767821 0.03904478 0.20152439 -0.12108839 0.015249255 -0.03472177 0.19936445 -0.2539524
0.15018845 -0.2031827 -0.16018285 0.04211101 -0.008752281 0.051499445 0.002492781 -0.07424641
-0.08156268 -0.019072365 -0.2707316 -0.037855227 0.031010574 0.16026469 0.22815017 0.022909936
-0.21913885 -0.106120884 -0.117407724 -0.19580294 0.09571138 0.20863222 -0.040355977 0.017473003
-0.08200167 -0.18961693 0.13662234 0.042898465 -0.19394663 -0.08670619 0.10855785 0.15229556
-0.043442555 -0.12891406 0.08176702 0.16628715 -0.01250811 0.13117816 0.14774062 -0.0048504034
-0.045693073 0.17577352 -0.022876732 -0.10305132 0.035866175 0.08226563 0.10056965 0.22171871
0.067829 0.3599605 0.30018568 0.1701625 0.09340024 -0.103488505 0.1579505 -0.15365882
-0.09188877 -0.073033236 0.17241275 0.22121379 0.062135376 -0.10453489 0.057739843 0.07219029
-0.021931723 0.05643691 0.15771343 0.06632453 0.115297146 0.11044664 0.020853233 0.1702883
-0.15718018 0.028351666 0.16931227 -0.0151626775 0.25611475 -0.17796966 0.032585114 -0.11579449
-0.0011614858 0.070533924 0.18359928 -0.024990477 0.10357542 0.29402056 -0.0034552738 -0.04726948
-0.08547489 -0.29211757 -0.08357237 0.023991758 0.005203775 -0.13840485 0.038167216 0.121774055
-0.0025338377 0.08068095 0.0801419 -0.0657494 -0.1325749 -0.080515705 0.120607734 -0.13242747
0.031976447 0.024802584 0.020984394 -0.012371299 -0.11346693 0.24306679 0.0048554246 -0.048088137
0.075052135 -0.11634637 0.20692174 0.102165826 -0.24604645 -0.21605715 0.037812073 0.02940687
00000000: 9a06 3e3c 5ecd 43bd b098 23bc 365f f6bd
00000010: f3cc 61be a5cd c33d 2ac8 753d df73 c1bd
00000020: f7d8 873e 52f0 01bc ce1b 3e3d 1a58 00bd
00000030: 8550 5abe a295 863d 561d 11bd 75b8 9cbd
00000040: 5907 36bd 6dbd 393e f85c 8dbc c963 e73d
00000050: 5ff2 46be 216a 58bd cffa c7bc 73b1 12be
00000060: 8c2e bb3d 2aac 8d3e fdf3 d83d 0159 4cbd
00000070: a3e3 e03d 668b ed3d 4893 8bbc 580f 21be
00000080: 86c8 4bbc 7a0c 37be 3f72 23be 8884 a7bd
00000090: 1786 253e 2fc1 62bd d0d8 3ebe 91b3 e3bc
000000a0: 7149 e43c 0153 34bd d7a3 05be c00a f5bd
000000b0: a421 863d 2c3c 5a3d 3ecc 4f3d 491b 0e3e
000000c0: a0ec 603e 20fa 15bd a309 133e 5c1f 343e
000000d0: 1c41 2abd 9705 e73d e065 3e3e 8dd8 63bd
000000e0: dcc9 9bbe 8481 34be 3bb0 503e ea18 81bd
000000f0: bb89 bb3d 1c0b 5b3e 70bc 423e e31e 9c3b
00000100: e6d0 38be ee49 b83c 4a3d 91bc a71f cebb
00000110: ca59 f63d 6260 ccbd 5e95 26be 5479 9c3b
00000120: ac72 ae3c 7b5f 673d c35d 9abc 1f35 0ebd
00000130: 0d86 25bd 6a75 efbd 995f afbd dd54 a03b
00000140: eb4a ef3d 0e77 48bd 705c 9a3a e755 9c3e
00000150: fd36 ec3b 4c50 cebd d52c bb3c 242c 75bd
00000160: 9dd4 58bc a1dd b7bd 5e59 183d bf67 b93c
00000170: 05fd 1c3e 51b0 bc3d d64a 033d d73f 993d
00000180: f981 54be 917f ec3d ee49 c73c 8429 f2bc
00000190: 7fab aebd 64b4 c13d ddb5 48be 1d69 7b3d
000001a0: 8e7b 193c 8428 e33d 9220 71be 810c ed3c
000001b0: 4d60 1b3e 6b0a 75bd 4197 e3bc c5e8 bcbc
000001c0: 272e b33d a033 843d 3e8a 2b3e 9894 723e
000001d0: 0789 563c 6ee9 69bd d584 aebd 260f 3e3e
000001e0: 9aeb 363e 91cd 253e 12ee 923d cba7 06be
000001f0: fa7b c53d 7e5d 043e 743b 573e dc63 153c
00000200: ef3f 9d3d 6bed 1f3d 695c 4e3e 31fd f7bd
00000210: 03d8 793c 6a38 0ebd 3226 4c3e 0d06 82be
00000220: 00cb 193e 200f 50be f906 24be 987c 2c3d
00000230: ba65 0fbc 15f1 523d ed5d 233b 800e 98bd
00000240: 560a a7bd a63d 9cbc 559d 8abe 150e 1bbd
00000250: e309 fe3c 6d1c 243e 33a0 693e 9ead bb3c
00000260: ef65 60be e855 d9bd 7673 f0bd 9180 48be
00000270: 5404 c43d afa3 553e 4f4c 25bd 8b23 8f3c
00000280: 7ef0 a7bd f12a 42be bae6 0b3e 4db6 2f3d
00000290: f299 46be 0493 b1bd 9453 de3d 5ef3 1b3e
000002a0: d2f0 31bd 0c02 04be 7875 a73d 2e47 2a3e
000002b0: d1ee 4cbc 9153 063e 5149 173e 22f0 9ebb
000002c0: a928 3bbd f9fd 333e fc67 bbbc 920c d3bd
000002d0: 69e8 123d e27a a83d 76f7 cd3d 3b0a 633e
000002e0: eee9 8a3d be4c b83e f0b1 993e 143f 2e3e
000002f0: a048 bf3d c8f1 d3bd c7bd 213e bd58 1dbe
00000300: 2e30 bcbd 7392 95bd f88c 303e de85 623e
00000310: aa81 7e3d 6316 d6bd 9d80 6c3d 81d8 933d
00000320: 28aa b3bc 642a 673d a17f 213e 28d5 873d
00000330: e920 ec3d d931 e23d 66d4 aa3c 0e60 2e3e
00000340: d7f3 20be c141 e83c 3260 2d3e e16c 78bc
00000350: 7921 833e ae3d 36be f877 053d a925 edbd
00000360: ff3c 98ba 1774 903d 7301 3c3e d4b8 ccbc
00000370: 5a1f d43d dd89 963e e071 62bb a49d 41bd
00000380: 760d afbd 6f90 95be fe27 abbd 5d8a c43c
00000390: 6e84 aa3b 00ba 0dbe 3a55 1c3d ad64 f93d
000003a0: be0e 26bb 0e3c a53d 7021 a43d 9fa7 86bd
000003b0: b7c1 07be 6be5 a4bd 3001 f73d 119b 07be
000003c0: bcf9 023d ca2e cb3c 77e7 ab3c fdb0 4abc
000003d0: 5a61 e8bd 80e6 783e 411a 9f3b 11f8 44bd
000003e0: efb4 993d 0147 eebd 4be3 533e 513c d13d
000003f0: 9af3 7bbe 163e 5dbe d5e0 1a3d ade6 f03c

enc2.0.bias f4 [16]
0.03057546 0.03382758 -0.016552547 0.03956224 0.0066975025 0.03259661 -0.021054547 -0.025136575
0.026818318 0.012548924 0.031120528 0.034324765 0.029902544 0.029657047 0.016581293 0.029786183
00000000: 6379 fa3c ca8e 0a3d 3599 87bc 040c 223d
00000010: b976 db3b 0684 053d 967a acbc 38eb cdbc
00000020: 17b2 db3c 019a 4d3c 7af0 fe3c 2098 0c3d
00000030: 2ef6 f43c 56f3 f23c 7ed5 873c 2702 f43c

enc2.2.weight f4 [16, 16, 3, 3]
-0.0017456046 0.046664968 -0.0178253 -0.10357774 0.15548767 0.050225087 -0.05163757 -0.016113799
0.02015227 -0.12641366 0.23041405 -0.1095084 -0.17944802 0.046133924 0.19265464 -0.23475942
-0.03041499 -0.02397332 -0.09691615 -0.062824406 -0.1358125 -0.08110285 0.3147017 0.041770883
-0.030767689 0.14425008 -0.09202616 0.20155448 0.15295123 -0.033235233 0.15614052 0.16557764
-0.10768385 -0.0735011 -0.30845284 0.1753124 -0.03960916 -0.06324447 0.125438 -0.18446778
-0.12215461 0.22781505 -0.09729263 -0.39893436 -0.08834578 0.013257838 -0.030255212 0.12701824
0.0216488 -0.0063743806 -0.11254333 -0.08616803 -0.25840667 -0.078914 0.020757591 -0.036622055
-0.09539451 0.12629993 -0.13202341 0.17152034 0.04893015 0.11321706 0.043972094 0.057862923
0.10215248 0.07738949 -0.12987244 -0.019163394 -0.1475827 0.11375696 0.1581971 -0.011380057
0.25422034 0.011272264 0.17747201 -0.08844307 0.060605656 0.21911144 -0.0068625985 -0.21747765
0.18269414 -0.20701298 -0.0426607 -0.22696371 0.14991875 0.149246 0.08997409 -0.023716852
-0.20122029 0.19097476 -0.002223446 -0.14968695 0.107193746 -0.06740761 0.11958343 0.035569277
-0.2527368 0.05111538 0.18140304 0.11754878 -0.04816306 -0.058861837 -0.060407043 0.14985745
0.0899776 0.034268092 -0.025087863 0.05853317 -0.08456534 0.021703657 0.20344284 -0.20629828
-0.05973701 -0.076048784 0.01045561 0.14642265 0.14794874 0.022882741 0.08501804 -0.14263105
0.14629716 0.14061731 -0.05821014 0.09866469 0.015924754 -0.058748897 0.16034286 -0.07408878
-0.107697435 -0.024227941 -0.081910685 0.04788584 -0.23887849 0.056711458 -0.09770214 -0.13294344
0.033685695 0.15104726 -0.12299679 0.1290237 -0.050587423 0.057081908 -0.05429802 0.090179496
0.022277337 0.06983722 0.10647628 -0.03714274 0.10599028 0.14281043 0.17760277 -0.0978878
0.17270733 0.17315559 0.09082278 0.0046522343 -0.28646508 0.115708165 -0.11229288 -0.0053120684
-0.08026885 -0.12682547 0.16251583 0.076600805 0.12599477 -0.20101966 -0.07023047 -0.04317143
-0.0571454 -0.053958014 -0.06557432 -0.19859098 -0.13279203 -0.08078265 0.12218327 -0.017255316
-0.21210858 -0.082909845 -0.05192282 0.065699235 -0.013664166 0.049527477 0.10144727 0.018618803
0.076833956 0.21430829 0.17550722 0.13737124 0.013356059 -0.01465922 0.17906179 -0.096182175
-0.100238 0.025863746 0.077430926 0.20330057 0.26470962 -0.009094988 -0.060617752 -0.054119702
-0.052526515 -0.14401308 0.11524561 0.12936513 -0.09921496 -0.079870395 0.18253884 0.10473057
-0.13529573 0.133951 -0.0025690447 0.022658529 -0.03386369 0.08159329 -0.08187899 -0.015393606
0.07999881 0.16250022 -0.17354019 0.013967894 0.31159633 0.13862188 -0.071631365 0.018247789
-0.027881792 0.26710165 -0.13347022 -0.06456791 -0.0593759 0.01393024 -0.03557336 -0.10629968
-0.34830952 -0.0782248 -0.01896739 -0.20563138 0.055797014 0.15419465 0.03962807 -0.28694952
-0.17717588 0.0875247 -0.04303344 0.07687071 -0.17279164 -0.08316502 0.060135048 -0.15106927
0.28438443 0.11628046 0.36805454 -0.06808253 0.023186162 0.025049 -0.025714984 0.13644978
00000000: c5cc e4ba c423 3f3d 5d06 92bc 9120 d4bd
00000010: 2938 1f3e d2b8 4d3d eb81 53bd 1601 84bc
00000020: 6016 a53c 9572 01be a9f1 6b3e f145 e0bd
00000030: 39c1 37be edf6 3c3d 4247 453e c664 70be
00000040: db28 f9bc b263 c4bc f97b c6bd 15aa 80bd
00000050: 6f12 0bbe 4019 a6bd 9520 a13e f217 2b3d
00000060: 850c fcbc 4bb6 133e 3678 bcbd 4c64 4e3e
00000070: 3f9f 1c3e ab21 08bd 4de3 1f3e 2f8d 293e
00000080: 5a89 dcbd bf87 96bd 88ed 9dbe 1885 333e
00000090: 373d 22bd 5186 81bd d272 003e 1fe5 3cbe
000000a0: 322c fabd 5948 693e 5c41 c7bd 2041 ccbe
000000b0: a2ee b4bd 6737 593c c7d9 f7bc 1211 023e
000000c0: d358 b13c 2ee0 d0bb 1e7d e6bd dd78 b0bd
000000d0: e14d 84be aa9d a1bd d30b aa3c 0201 16bd
000000e0: 325e c3bd c554 013e 2531 07be 07a3 2f3e
000000f0: fb6a 483d 59de e73d 151c 343d ac01 6d3d
00000100: 5235 d13d 627e 9e3d 48fd 04be 8dfc 9cbc
00000110: eb1f 17be 69f9 e83d 6cfe 213e 6b73 3abc
00000120: 2b29 823e 4daf 383c 39bb 353e a421 b5bd
00000130: a33d 783d c05e 603e a6df e0bb 76b2 5ebe
00000140: 2c14 3b3e 36fb 53be fcbc 2ebd 2d69 68be
00000150: 4d84 193e f2d3 183e 5644 b83d d849 c2bc
00000160: b10c 4ebe e38e 433e 3cb7 11bb 8947 19be
00000170: 6588 db3d 000d 8abd 28e8 f43d 17b1 113d
00000180: b866 81be 5c5e 513d b8c1 393e 6abd f03d
00000190: a146 45bd 1c19 71bd 606d 77bd 3b74 193e
000001a0: 2d46 b83d b35c 0c3d 1085 cdbc 7ac0 6f3d
000001b0: 9830 adbd decb b13c 5253 503e db3f 53be
000001c0: ccae 74bd 77bf 9bbd 024e 2b3c d2ef 153e
000001d0: e07f 173e 9674 bb3c f01d ae3d e00d 12be
000001e0: ecce 153e fcfd 0f3e c16d 6ebd b710 ca3d
000001f0: a174 823c afa2 70bd eb30 243e dcbb 97bd
00000200: 7990 dcbd ad79 c6bc cac0 a7bd f123 443d
00000210: 909c 74be 464a 683d 0f18 c8bd 5322 08be
00000220: 03fa 093d 22ac 1a3e bee5 fbbd ca1e 043e
00000230: c234 4fbd b8ce 693d 9a67 5ebd 07b0 b83d
00000240: f67e b63c d106 8f3d 3c10 da3d fc22 18bd
00000250: 6f11 d93d e63c 123e 80dd 353e 6679 c8bd
00000260: 31da 303e b34f 313e 4b01 ba3d c571 983b
00000270: 8dab 92be 67f8 ec3d cff9 e5bd dc10 aebb
00000280: ff63 a4bd 89de 01be 8d6a 263e e2e0 9c3d
00000290: c604 013e 19d8 4dbe fed4 8fbd 86d4 30bd
000002a0: 4c11 6abd 1403 5dbd d44b 86bd 6f5b 4bbe
000002b0: a2fa 07be 6071 a5bd 393b fa3d 055b 8dbc
000002c0: fe32 59be a3cc a9bd 06ad 54bd 528d 863d
000002d0: abdf 5fbc 53dd 4a3d 96c3 cf3d 7686 983c
000002e0: 1f5b 9d3d a273 5b3e 2ab8 333e 0cab 0c3e
000002f0: 5fd3 5a3c 3a2d 70bc f95b 373e 29fb c4bd
00000300: 9549 cdbd 35e0 d33c 1b94 9e3d 062e 503e
00000310: 0588 873e 2503 15bc 524a 78bd 9fac 5dbd
00000320: 0b26 57bd 2a78 13be e405 ec3d 4b78 043e
00000330: 3731 cbbd 1793 a3bd 76eb 3a3e fb7c d63d
00000340: f78a 0abe 732a 093e 6b5d 28bb 619e b93c
00000350: a7b4 0abd 621a a73d 2cb0 a7bd 7735 7cbc
00000360: 6bd6 a33d 7566 263e 85b4 31be 98d9 643c
00000370: 8e89 9f3e e5f2 0d3e 77b3 92bd 637c 953c
00000380: 5b68 e4bc 8cc1 883e 6bac 08be 2e3c 84bd
00000390: 2534 73bd a93b 643c 5fb5 11bd a6b3 d9bd
000003a0: a055 b2be 5334 a0bd 8061 9bbc 0891 52be
000003b0: 698b 643d 34e5 1d3e 0b51 223d 0ceb 92be
000003c0: 986d 35be 2640 b33d d543 30bd 646e 9d3d
000003d0: 4bf0 30be 6c52 aabd 2b50 763d e7b1 1abe
000003e0: d69a 913e 7324 ee3d a571 bc3e da6e 8bbd
000003f0: e8f0 bd3c 8f33 cd3c 3ba8 d2bc 7eb9 0b3e

enc2.2.bias f4 [16]
0.01723619 0.030021748 0.0025889634 0.012345561 0.03285755 0.028231481 -0.0032834853 -0.0054541337
0.05245256 0.031062286 0.011580074 0.0034025018 0.020326653 -0.012476814 0.032647114 0.028127003
00000000: e932 8d3c 2bf0 f53c 99ab 293b 0945 4a3c
00000010: a395 063d b545 e73c be2f 57bb 97b8 b2bb
00000020: 7fd8 563d 5676 fe3c 5aba 3d3c 82fc 5e3b
00000030: 1584 a63c 8d6b 4cbc fbb8 053d 9a6a e63c

bottleneck.0.weight f4 [32, 16, 3, 3]
-0.09203586 0.0479589 0.05410051 0.030811109 0.09084171 -0.024145314 0.02359432 -0.0047229393
-0.1767552 -0.024360247 -0.20518744 0.108397275 -0.015686022 0.062947296 0.13876283 -0.16883078
0.19237156 0.05078641 0.04908146 0.102420166 0.07904032 -0.050561793 0.13553715 0.22610383
-0.037753306 -0.0046726675 -0.007317717 0.053869583 -0.06895295 0.028769076 -0.04272988 -0.105742894
-0.011903749 0.1211626 -0.014883181 -0.07993738 -0.08841969 -0.068969496 -0.005620232 -0.061728124
0.050513998 -0.18037853 0.0971452 -0.12837513 0.116012245 -0.046185322 0.12067618 0.011002097
-0.10915197 0.0820287 -0.058868047 0.12346683 0.09376669 -0.05241748 0.024034202 0.1565104
-0.036094874 0.06091758 0.014602516 -0.08701117 -0.090076715 0.24943848 0.114271864 -0.05264228
0.04452198 -0.04162938 0.040240847 0.15699367 0.11051378 0.015982265 0.0052213804 -0.03208471
-0.06655105 0.0025224246 -0.16190617 -0.029078342 -0.07688243 -0.036418762 -0.113485396 0.05388726
0.17093962 -0.08248452 0.1092154 0.064520255 -0.027869942 0.06398851 0.15952942 -0.10484119
0.029597444 0.0015317622 0.024824185 -0.032801516 -0.047418866 0.11035837 0.1422498 0.12461446
-0.024654072 0.08445009 -0.03616625 0.023634328 0.1157437 -0.068819195 -0.0031212838 0.07478364
0.0062350314 0.03593552 0.26833355 0.109548 -0.02561958 0.031215446 -0.044043627 0.14106163
0.06602413 -0.08658884 -0.049363066 -0.035439998 -0.20016983 0.07625392 0.045693353 -0.16631201
0.17260723 -0.041965067 0.07978046 0.04741985 0.042672727 0.21998583 -0.032069463 0.04254439
-0.13510223 0.05434063 -0.039204534 -0.038280554 0.01874902 -0.10487607 -0.056916956 0.0046262927
0.16806148 0.037770674 0.054140974 0.05378133 0.04439207 0.09657808 0.052379973 0.050791297
-0.01178991 -0.11408666 0.093613185 0.010758674 0.040282186 0.0031046374 -0.021864703 -0.08655781
0.05468328 0.077773854 -0.053750586 0.024621569 0.06258897 0.0015992001 -0.17470507 -0.046300285
-0.06870241 0.24393716 0.011408545 -0.1254459 -0.07972032 -0.06774718 -0.10382288 0.014157687
-0.05321662 0.054273468 0.09432572 -0.08981271 -0.071827024 0.048702873 0.046701938 -0.05376096
0.026979752 0.054656353 0.03464645 0.10075464 0.049469344 0.015655572 0.10343677 0.12188842
0.08843664 0.07984512 0.050954588 -0.01671765 -0.07590101 -0.02488048 0.028335901 -0.05350862
-0.023208974 0.02601453 -0.04252551 0.0369737 -0.037413053 0.1265447 -0.10091548 -0.05394593
-0.15647069 0.016484229 0.06389454 -0.14245048 0.060882308 0.090440966 0.14639609 -0.1635396
-0.042169414 -0.22093907 0.10067993 0.21968983 -0.049486887 0.045581456 0.022236152 -0.051244702
-0.1089277 0.10609439 -0.0061889505 0.078398794 -0.010097905 0.030578932 -0.050858036 0.22270733
0.09814597 0.015687848 -0.019508036 -0.11073257 0.067514904 -0.10842607 -0.056274787 -0.21348906
0.101757504 -0.10565274 0.07474221 0.07421538 -0.093960844 0.14700292 -0.021557128 -0.13966316
0.057269346 -0.0025049404 0.11587462 -0.05163755 -0.008770867 0.14828846 0.10835775 -0.0053420914
0.121825255 0.06920013 -0.0060506617 0.13430673 0.08120854 0.13800088 -0.050336536 -0.07988713
00000000: 4c7d bcbd 8d70 443d 7f98 5d3d 9467 fc3c
00000010: 380b ba3d 65cc c5bc e048 c13c e3c2 9abb
00000020: 51ff 34be 248f c7bc a81c 52be 64ff dd3d
00000030: f97f 80bc 83ea 803d d817 0e3e fae1 2cbe
00000040: 0dfd 443e 6905 503d a409 493d aac1 d13d
00000050: e4df a13d e219 4fbd 40ca 0a3e c387 673e
00000060: 36a3 1abd 2d1d 99bb 76c9 efbb 5aa6 5c3d
00000070: 3437 8dbd 20ad eb3c 8705 2fbd bb8f d8bd
00000080: f107 43bc 1924 f83d 96d8 73bc 36b6 a3bd
00000090: 6215 b5bd e13f 8dbd ec29 b8bb a1d6 7cbd
000000a0: c4e7 4e3d 26b5 38be 10f4 c63d c574 03be
000000b0: d497 ed3d d22c 3dbd 1325 f73d 2442 343c
000000c0: 118b dfbd aafe a73d 9f1f 71bd 2ddc fc3d
000000d0: c008 c03d b6b3 56bd 60e3 c43c 4344 203e
000000e0: 38d8 13bd b684 793d 643f 6f3c ea32 b2bd
000000f0: 247a b8bd cd6c 7f3e 5e07 ea3d 6e9f 57bd
00000100: ae5c 363d 9283 2abd 96d3 243d f3c2 203e
00000110: 0c55 e23d 3ded 823c 1d18 ab3b 426b 03bd
00000120: eb4b 88bd 434f 253b bbca 25be b435 eebc
00000130: 8974 9dbd d72b 15bd 086b e8bd e3b8 5c3d
00000140: cc0a 2f3e a5ed a8bd 53ac df3d 3223 843d
00000150: 814f e4bc 680c 833d ae5b 233e fab6 d6bd
00000160: 5776 f23c 69c5 c83a 175c cb3c e25a 06bd
00000170: 493a 42bd 9203 e23d eea9 113e de35 ff3d
00000180: 56f7 c9bc 2bf4 ac3d 1023 14bd c79c c13c
00000190: 080b ed3d 14f1 8cbd 748e 4cbb 2a28 993d
000001a0: 3c4f cc3b 2031 133d 0463 893e b45a e03d
000001b0: 27e0 d1bc 89b7 ff3c 1767 34bd 7672 103e
000001c0: a937 873d 7d55 b1bd ed30 4abd 8829 11bd
000001d0: 52f9 4cbe 042b 9c3d f428 3b3d b24d 2abe
000001e0: f3bf 303e 90e3 2bbd f063 a33d 513b 423d
000001f0: 99c9 2e3d f743 613e 455b 03bd 0743 2e3d
00000200: 3d58 0abe 4894 5e3d ef94 20bd 12cc 1cbd
00000210: 8b97 993c 44c9 d6bd c121 69bd 2898 973b
00000220: 4f18 2c3e 6cb5 1a3d edc2 5d3d d049 5c3d
00000230: 76d4 353d baca c53d 628c 563d 890a 503d
00000240: 772a 41bc 44a6 e9bd 45b8 bf3d 2645 303c
00000250: effe 243d 2c77 4b3b 9b1d b3bc 3945 b1bd
00000260: 93fb 5f3d e647 9f3d 9329 5cbd 2cb3 c93c
00000270: a52e 803d 409c d13a e3e5 32be 5ea5 3dbd
00000280: d9b3 8cbd aaca 793e e8ea 3a3c e474 00be
00000290: 6844 a3bd 09bf 8abd 17a1 d4bd a5f5 673c
000002a0: acf9 59bd db4d 5e3d d82d c13d baef b7bd
000002b0: 0c1a 93bd aa7c 473d 884a 3f3d 7434 5cbd
000002c0: a404 dd3c 57df 5f3d 70e9 0d3d 7358 ce3d
000002d0: 5ea0 4a3d 1d40 803c a8d6 d33d a3a0 f93d
000002e0: 451e b53d d785 a33d c2b5 503d 74f3 88bc
000002f0: fd71 9bbd 26d2 cbbc b120 e83c db2b 5bbd
00000300: bf20 bebc 6c1c d53c 3b2f 2ebd bc71 173d
00000310: 6e3e 19bd ef94 013e c6ac cebd 68f6 5cbd
00000320: da39 20be ef09 873c 24db 823d 8ade 11be
00000330: ba5f 793d 1d39 b93d dbe8 153e ed76 27be
00000340: d6b9 2cbd da3d 62be 4731 ce3d 5ff6 603e
00000350: c3b2 4abd 9fb3 3a3d 9728 b63c f7e5 51bd
00000360: 7c15 dfbd 0448 d93d aecc cabb 8c8f a03d
00000370: af71 25bc ab80 fa3c 8450 50bd 640d 643e
00000380: c100 c93d cd83 803c 51cf 9fbc c2c7 e2bd
00000390: 4145 8a3d 7d0e debd 6480 66bd e09c 5abe
000003a0: 3d66 d03d 7760 d8bd 7212 993d 3cfe 973d
000003b0: 8b6e c0bd ef87 163e 9398 b0bc dc03 0fbe
000003c0: 4393 6a3d ed29 24bb ac4f ed3d e581 53bd
000003d0: afb3 0fbc eed8 173e abea dd3d b60c afbb
000003e0: 857f f93d ccb8 8d3d a144 c6bb b487 093e
000003f0: aa50 a63d 1a50 0d3e af2d 4ebd dd9b a3bd

bottleneck.0.bias f4 [32]
-0.03006715 0.026359737 0.029793605 0.033986073 0.029340897 0.023600684 0.008942871 -0.005512235
0.027937619 -0.011149966 0.015039078 0.037486713 -0.008422154 0.026247447 -0.0015254241 0.030688709
0.034402687 0.009625369 0.025990315 0.052051853 0.009897353 0.05111658 0.024931869 -0.012717395
0.032743633 0.02072423 -0.029142689 0.015215986 0.017114837 0.027832357 0.022960506 0.032231838
00000000: 624f f6bc 60f0 d73c b811 f43c fb34 0b3d
00000010: 525c f03c 3956 c13c 1f85 123c fb9f b4bb
00000020: 6fdd e43c 59ae 36bc 7766 763c ab8b 193d
00000030: 13fd 09bc e304 d73c bdf0 c7ba e366 fb3c
00000040: d5e9 0c3d b9b3 1d3c a4e9 d43c 5334 553d
00000050: 8228 223c 9e5f 513d eb3d cc3c 9f5c 50bc
00000060: 301e 063d dcc5 a93c a6bc eebc 794c 793c
00000070: 6a34 8c3c af00 e43c ac17 bc3c 8805 043d

bottleneck.2.weight f4 [32, 32, 3, 3]
0.0014839397 -0.004773017 -0.18501107 -0.102476075 -0.17856175 -0.007929613 -0.0654205 -0.11690237
-0.017243644 0.0024979003 -0.18749009 -0.03767389 0.00957228 0.10776864 0.066231884 0.082446285
-0.034895968 -0.015295223 -0.04816477 0.22155353 0.03471307 -0.09454557 0.07049248 -0.026322715
0.095023595 -0.07286419 0.1030165 -0.023667874 0.09225128 0.0164259 0.0011618888 0.1626009
0.08724961 0.05311245 0.111596465 0.035996433 0.04260255 -0.010886254 0.056938946 0.015546193
-0.074198745 0.149709 -0.008203573 0.03570533 -0.13734479 -0.17392386 -0.15093234 -0.06846397
0.10806998 0.06552896 0.12790193 -0.07294523 -0.06892218 0.0645339 0.08616945 0.031433947
0.011534386 0.023013743 0.011464523 0.077743806 -0.04526636 -0.039865416 -0.045969255 0.015106641
0.016590696 0.13627648 0.03670752 0.08071218 0.03214834 -0.03933701 0.024267083 0.06780818
-0.17273271 0.018223306 -0.097903304 0.07176661 0.0036172941 0.046843294 0.066863805 -0.07281258
0.0419482 0.009733951 0.014155873 -0.016718308 -0.04275734 0.04498282 -0.05516172 -0.007911718
-0.20949726 -0.09642751 -0.02045243 0.025887758 -0.035540942 -0.08082614 0.12342351 0.07400121
0.01965476 0.05999809 0.038127888 0.021396296 0.068604045 0.13500495 0.12910192 0.17605892
-0.020928942 0.08485821 -0.1107461 0.04892162 -0.021321293 -0.043647364 -0.037545044 -7.364758e-05
-0.058899652 -0.07029495 -0.12331099 -0.08115242 -0.14136511 -0.020845842 0.06906028 -0.11458074
-0.082002416 0.02017325 0.046902828 -0.20463438 0.013505563 0.086051576 0.124070406 0.042546663
-0.087592654 0.14274967 0.15689303 -0.15615264 -0.065212116 0.14537323 0.06368675 -0.05358475
0.08362656 0.01280219 -0.09779275 0.030108575 0.02861214 0.0853038 -0.08534562 0.10085619
0.20067747 -0.14913014 -0.02685859 -0.051501233 0.05022689 0.012523694 -0.108256765 0.049588006
-0.033631384 -0.028753327 -0.05107744 0.11920526 0.022105837 -0.038486782 0.029204467 0.035277598
0.13269682 -0.052096795 -0.012807217 -0.109893404 -0.09329749 -0.20235017 0.025766304 -0.093150854
0.014644059 0.17897029 -0.01418254 -0.059020225 -0.032220423 -0.14481424 0.05486675 0.036795538
-0.16280788 -0.013140088 0.061080758 0.106837444 -0.01924755 -0.11958752 0.12200955 -0.106426045
-0.043483038 -0.08568084 -0.07686976 0.07937024 0.12611026 -0.23934154 -0.0016758441 0.023288758
-0.053528443 0.007629214 0.029714696 -0.16559125 0.10045616 0.02012052 0.044934392 -0.082791805
0.05149638 -0.019671828 0.023171581 0.18265162 0.03170125 -0.12173379 0.048094183 0.048516497
0.057796676 -0.09802275 0.02035608 -0.16734421 -0.0066941204 -0.05435036 -0.003091396 -0.12846039
0.011040096 0.017859468 0.01891663 0.049084138 -0.030655952 0.11223763 0.016565071 0.05669799
0.033228602 -0.103176765 -0.061374478 0.014460439 -0.056845248 -0.10973559 0.10473028 0.0638133
-0.05041235 0.05389455 0.05600794 -0.14251064 -0.03446819 0.17910385 -0.12837836 -0.07823128
0.039826296 -0.009851878 -0.07431811 0.06851133 0.070498876 0.05407276 0.025960436 0.066768974
0.1613023 -0.08217416 -0.018569143 0.037250225 0.16572714 0.25077075 0.28869393 -0.02550128
00000000: c180 c23a f866 9cbb 8b73 3dbe fade d1bd
00000010: e4d8 36be 35eb 01bc 2ffb 85bd 826a efbd
00000020: 8b42 8dbc d0b3 233b 67fd 3fbe f04f 1abd
00000030: 0dd5 1c3c ceb5 dc3d 95a4 873d 99d9 a83d
00000040: 13ef 0ebd d198 7abc 6c48 45bd eede 623e
00000050: 4b2f 0e3d 1ca1 c1bd 5d5e 903d bca2 d7bc
00000060: bb9b c23d d239 95bd 51fa d23d 21e3 c1bc
00000070: 3dee bc3d 9c8f 863c 854a 983a da80 263e
00000080: ecaf b23d 718c 593d b08c e43d ff70 133d
00000090: 0380 2e3d 425c 32bc d038 693d 76b5 7e3c
000000a0: 83f5 97bd 514d 193e 4768 06bc c13f 123d
000000b0: 1da4 0cbe 1919 32be 028e 1abe d736 8cbd
000000c0: cb53 dd3d 0c34 863d b9f8 023e 4f64 95bd
000000d0: 1227 8dbd 592a 843d 9c79 b03d e2c0 003d
000000e0: b9fa 3c3c 5187 bc3c b2d5 3b3c 2538 9f3d
000000f0: 3869 39bd eb49 23bd 424a 3cbd d881 773c
00000100: 36e9 873c 108c 0b3e a05a 163d 6d4c a53d
00000110: faad 033d d81f 21bd c3cb c63c 04df 8a3d
00000120: d8e0 30be 0b49 953c 8781 c8bd 5ffa 923d
00000130: 2010 6d3b c1de 3f3d e4ef 883d c31e 95bd
00000140: e0d1 2b3d 267b 1f3c 09ee 673c d5f4 88bc
00000150: 5222 2fbd e83f 383d 41f1 61bd 27a0 01bc
00000160: 7386 56be c97b c5bd db8b a7bc 9012 d43c
00000170: 6193 11bd 2d88 a5bd 77c5 fc3d f28d 973d
00000180: 0503 a13c 8fc0 753d fd2b 1c3d 4947 af3c
00000190: 4780 8c3d bd3e 0a3e 4b33 043e ca48 343e
000001a0: 2c73 abbc 24ca ad3d dace e2bd 0962 483d
000001b0: fea9 aebc 94c7 32bd d5c8 19bd 3e73 9ab8
000001c0: c340 71bd ccf6 8fbd 798a fcbd 3d33 a6bd
000001d0: 04c2 10be e6c4 aabc 7a6f 8d3d 4fa9 eabd
000001e0: e2f0 a7bd 5f42 a53c 2e1d 403d ad8b 51be
000001f0: 7046 5d3c cf3b b03d a018 fe3d 6945 2e3d
00000200: c763 b3bd f82c 123e 91a8 203e 7ae6 1fbe
00000210: ee8d 85bd b8dc 143e 336e 823d af7b 5bbd
00000220: 6744 ab3d 47c0 513c 9147 c8bd 42a6 f63c
00000230: 0264 ea3c c2b3 ae3d afc9 aebd b18d ce3d
00000240: 657e 4d3e 92b5 18be 8c06 dcbc f5f2 52bd
00000250: b6ba 4d3d 2e30 4d3c b9b5 ddbd cb1c 4b3d
00000260: 10c1 09bd 198c ebbc 9436 51bd e321 f43d
00000270: 4d17 b53c 51a4 1dbd 353e ef3c 3e7f 103d
00000280: ade1 073e 7363 55bd 5dd5 51bc cb0f e1bd
00000290: c112 bfbd e234 4fbe db13 d33c e0c5 bebd
000002a0: a3ed 6f3c fd43 373e e25d 68bc 31bf 71bd
000002b0: 90f9 03bd 2f4a 14be f5bb 603d ebb6 163d
000002c0: 1cb7 26be 8649 57bc d12f 7a3d 97cd da3d
000002d0: 0aad 9dbc 4dea f4bd 25e0 f93d e6f5 d9bd
000002e0: 451b 32bd 7079 afbd e56d 9dbd dd8c a23d
000002f0: 0c23 013e f315 75be ffa7 dbba 11c8 be3c
00000300: a440 5bbd 7cfe f93b 3c6c f33c c190 29be
00000310: f6bb cd3d cad3 a43c 200d 383d c08e a9bd
00000320: deed 523d d026 a1bc 54d2 bd3c 0709 3b3e
00000330: 2bd9 013d 914f f9bd 68fe 443d 3cb9 463d
00000340: 35bc 6c3d 27c0 c8bd cbc1 a63c 485c 2bbe
00000350: 5a5a dbbb 7c9e 5ebd 0599 4abb 1f8b 03be
00000360: 85e1 343c 054e 923c 0cf7 9a3c 730c 493d
00000370: 3122 fbbc d8dc e53d 79b3 873c 273c 683d
00000380: b71a 083d 574e d3bd ce63 7bbd 7aeb 6c3c
00000390: 90d6 68bd 0ebd e0bd d47c d63d 8cb0 823d
000003a0: 2e7d 4ebd 88c0 5c3d 9568 653d 4fee 11be
000003b0: 842e 0dbd 0067 373e 9e75 03be b937 a0bd
000003c0: e620 233d c569 21bc 1834 98bd ab4f 8c3d
000003d0: b761 903d 667b 5d3d fbaa d43c 2cbe 883d
000003e0: 6e2c 253e ed4a a8bd 511e 98bc b193 183d
000003f0: 60b4 293e 0665 803e b1cf 933e 0fe8 d0bc

bottleneck.2.bias f4 [32]
0.029274855 0.042803198 0.030465512 -0.014218774 -0.008796778 -0.014408394 0.027027246 -0.011457048
0.032028586 0.008036309 0.033860046 -0.03340275 -0.036233366 0.029093137 -0.013332058 0.0272753
0.019350013 -0.010056106 0.033429805 -0.005101621 0.031100284 -0.0012438202 -0.041714948 -0.008303037
0.027223587 0.031215962 -0.030025387 0.027501838 0.014967117 -0.015734058 0.027296111 0.0029275035
00000000: d2d1 ef3c 6852 2f3d cf92 f93c dcf5 68bc
00000010: 5c20 10bc 2f11 6cbc 3e68 dd3c 58b6 3bbc
00000020: 6830 033d b9aa 033c d5b0 0a3d 52d1 08bd
00000030: 7069 14bd bb54 ee3c b46e 5abc 7370 df3c
00000040: eb83 9e3c 5ec2 24bc b1ed 083d 802b a7bb
00000050: 06c6 fe3c ae07 a3ba 4bdd 2abd 7609 08bc
00000060: 0004 df3c 9eb8 ff3c cdf7 f5bc 894b e13c
00000070: a438 753c b6e4 80bc 189c df3c 5cdb 3f3b

up1.weight f4 [32, 16, 2, 2]
0.07442298 0.062191512 -0.26134837 -0.025661003 -0.11051136 0.112587966 0.07991285 0.30472475
-0.18639837 -0.08284634 0.09956425 0.017335786 -0.090207495 0.07377978 0.11251737 -0.08863348
0.0028919159 0.2989086 0.077940196 -0.08010537 0.038048282 -0.1621281 0.019184375 -0.09053931
0.13243523 0.116475545 -0.040441502 -0.091820315 0.023762105 -0.2097033 0.23035209 0.075793326
-0.22418337 0.11354826 -0.22017096 -0.08688304 0.04750424 -0.056617122 0.18606369 0.2016745
-0.11631178 0.19204663 0.08062917 0.13351732 -0.00037866476 0.10719996 -0.0920754 -0.019612033
0.09039411 -0.26704833 -0.029361231 0.07832563 0.030658036 -0.059268426 0.28035843 0.15291104
-0.120220445 -0.23566158 0.06375875 -0.03784234 0.0057970425 0.22465794 -0.09449702 0.049762767
-0.16331902 -0.1663053 0.055907167 -0.10967502 -0.2478485 -0.15395573 -0.21872829 0.00322562
0.29208395 0.103039116 -0.044795945 -0.09012022 0.12954909 -1.756605e-05 0.1433658 -0.07639493
-0.1789667 -0.14001867 -0.04834966 -0.27098817 0.0036672 -0.029289642 0.047442246 0.05600071
-0.10663357 -0.045357913 -0.15273485 -0.39429477 0.109005995 0.108183 -0.19580401 -0.10122912
-0.18670544 -0.03834568 -0.2661793 0.116385184 0.052318715 0.14716591 0.08608047 0.03227827
0.0074992725 -0.13426833 -0.007874454 0.12367206 -0.12305322 -0.008335823 0.23830158 0.033419427
-0.07290219 0.12375681 0.077990316 0.13695003 0.099077836 0.029746857 0.20319031 -0.069333665
0.06444739 0.17173615 -0.055311453 -0.10310542 -0.17235915 -0.118430495 -0.23341301 -0.047832876
-0.033664946 -0.06612801 -0.12576516 0.25002807 0.0041865692 -0.015352986 -0.15109032 -0.044075113
0.04242189 0.06790409 0.21773182 0.25050202 0.103573635 0.07282932 0.30997768 -0.024141133
-0.05295028 -0.017440513 -0.22200297 -0.20150939 -0.014851277 0.039018158 -0.076243676 -0.029599166
0.04105591 0.13793136 -0.0431358 -0.14835057 -0.40799475 -0.041034248 -0.062459085 -0.008839189
0.18968077 -0.0064180386 -0.15525056 0.35606742 0.10393179 0.113689385 0.19050537 -0.06542092
0.03596543 -0.0147209605 0.03703083 -0.066050254 0.04962886 -0.08041417 0.09054474 -0.10524688
-0.026766403 0.020213054 -0.0551469 0.2353084 -0.034144815 -0.020571858 -0.000330076 0.27182955
-0.096272446 0.150117 -0.052241914 -0.13369629 0.11265652 -0.10849281 -0.036148984 -0.14495462
-0.090371266 0.048208058 0.035860993 0.10342437 0.10855315 0.14045167 -0.27781257 0.08405166
-0.14954093 -0.18114713 -0.052259784 0.09433585 -0.29451495 -0.0035156468 0.06602171 0.16327795
0.08107724 -0.10837495 0.12930153 -0.05750904 -0.012198719 -0.014975434 0.07976323 0.09544288
-0.031155722 -0.0076331515 0.3605719 0.026080916 -0.02663396 0.12457453 0.021780334 -0.061162025
-0.004980556 -0.01870556 0.028363716 -0.05941578 0.08880585 -0.20639077 0.056929987 0.21913926
-0.099609144 -0.0361001 0.14069426 -0.19678073 0.030326242 -0.15923049 0.075807884 0.07939268
-0.024221387 0.107719034 0.121122025 -0.13244821 0.12790388 -0.026555398 0.13167112 -0.13916285
0.2413487 -0.058595624 0.12250853 -0.05671838 -0.15672389 0.08128259 0.08418008 0.0287061
00000000: 136b 983d 87bc 7e3d 74cf 85be 0637 d2bc
00000010: c853 e2bd 8594 e63d 59a9 a33d e204 9c3e
00000020: 37df 3ebe 58ab a9bd 57e8 cb3d c703 8e3c
00000030: b5be b8bd da19 973d 826f e63d 7885 b5bd
00000040: 4c86 3d3b 8c0a 993e 1c9f 9f3d 490e a4bd
00000050: 84d8 1b3d e904 26be 8d28 9d3c ac6c b9bd
00000060: 1a9d 073e bb8a ee3d fda5 25bd 4a0c bcbd
00000070: bfa8 c23c 76bc 56be 6be1 6b3e 8839 9b3d
00000080: 5390 65be fd8b e83d 7f74 61be bcef b1bd
00000090: ce93 423d 5be7 67bd 7b87 3e3e c383 4e3e
000000a0: df34 eebd dfa7 443e e820 a53d c4b8 083e
000000b0: 8687 c6b9 a78b db3d 0792 bcbd 6aa9 a0bc
000000c0: 8c20 b93d 8fba 88be f786 f0bc 3069 a03d
000000d0: 9026 fb3c 73c3 72bd 248b 8f3e b694 1c3e
000000e0: 2336 f6bd 4551 71be f393 823d 9200 1bbd
000000f0: 1ef5 bd3b bb0c 663e a787 c1bd 0bd4 4b3d
00000100: 1a3d 27be f04b 2abe eafe 643d 4c9d e0bd
00000110: ffcb 7dbe 92a6 1dbe 4ffa 5fbe ec64 533b
00000120: 078c 953e 2c06 d33d f47b 37bd f390 b8bd
00000130: 84a8 043e ce5a 93b7 7cce 123e f274 9cbd
00000140: 0c43 37be 0e61 0fbe 4b0a 46bd f6be 8abe
00000150: 6855 703b d5f0 efbc cd52 423d 0061 653d
00000160: b362 dabd 38c9 39bd 8666 1cbe 01e1 c9be
00000170: 893e df3d 0c8f dd3d d980 48be 3651 cfbd
00000180: b62f 3fbe 5c10 1dbd a748 88be 5b5b ee3d
00000190: 264c 563d a9b2 163e f54a b03d 3836 043d
000001a0: 75bc f53b a37d 09be db03 01bc c747 fd3d
000001b0: 5403 fcbd fa92 08bc 5405 743e cfe2 083d
000001c0: be4d 95bd 3674 fd3d 63b9 9f3d a13c 0c3e
000001d0: 52e9 ca3d aeaf f33c 1f11 503e cffe 8dbd
000001e0: fefc 833d 9adb 2f3e 438e 62bd ef28 d3bd
000001f0: eb7e 30be b08b f2bd d203 6fbe 68ec 43bd
00000200: 41e4 09bd 1f6e 87bd 95c8 00be ae03 803e
00000210: 7d2f 893b 178b 7bbc 6cb7 1abe 1b88 34bd
00000220: 93c2 2d3d 4d11 8b3d 17f5 5e3e cd41 803e
00000230: 6a1e d43d 8a27 953d 65b5 9e3e a0c3 c5bc
00000240: 65e2 58bd 68df 8ebc bf54 63be 7a58 4ebe
00000250: c552 73bc 81d1 1f3d a525 9cbd f379 f2bc
00000260: 3e2a 283d e13d 0d3e 2aaf 30bd 36e9 17be
00000270: b0e4 d0be 8713 28bd 19d5 7fbd 3fd2 10bc
00000280: ad3b 423e 694e d2bb 01fa 1ebe 784e b63e
00000290: 31da d43d fbd5 e83d d713 433e 67fb 85bd
000002a0: 7d50 133d 2f30 71bc a4ad 173d 5b45 87bd
000002b0: a247 4b3d 2fb0 a4bd 856f b93d ad8b d7bd
000002c0: 3745 dbbc d995 a53c b7e1 61bd aff4 703e
000002d0: 6fdb 0bbd 5086 a8bc 0d0e adb9 3e2d 8b3e
000002e0: 7d2a c5bd 45b8 193e 9efb 55bd aee7 08be
000002f0: 76b8 e63d 7a31 debd f510 14bd fc6e 14be
00000300: 9214 b9bd d075 453d fae2 123d 28d0 d33d
00000310: 1d51 de3d 90d2 0f3e 733d 8ebe 4723 ac3d
00000320: 4221 19be a27e 39be 5b0e 56bd 2733 c13d
00000330: aaca 96be c466 66bb 6436 873d 5632 273e
00000340: d30b a63d b0f3 ddbd 9f67 043e 998e 6bbd
00000350: 23dd 47bc 865b 75bc e85a a33d 8f77 c33d
00000360: 493a ffbc 841f fabb e19c b83e a5a7 d53c
00000370: 762f dabc ee20 ff3d ac6c b23c 0885 7abd
00000380: ef33 a3bb 673c 99bc 065b e83c f65d 73bd
00000390: d7df b53d 1a58 53be 6b2f 693d 0b66 603e
000003a0: e1ff cbbd b3dd 13bd 2812 103e e380 49be
000003b0: bd6e f83c 510d 23be 2a41 9b3d a198 a23d
000003c0: ee6b c6bc cc9b dc3d d30e f83d 81a0 07be
000003d0: 3cf9 023e b58a d9bc cbd4 063e b580 0ebe
000003e0: 1d24 773e f701 70bd c1e5 fa3d 8851 68bd
000003f0: 3a7c 20be 7d77 a63d 9b66 ac3d 0e29 eb3c

up1.bias f4 [16]
0.024833737 -0.033476397 0.027917007 -0.02321618 -0.026177995 -0.027980419 -0.031753805 -0.026413964
-0.023424547 0.024213366 -0.024372062 0.026746292 0.0296914 0.026265334 -0.024282955 -0.026401745
00000000: 1f70 cb3c 8c1e 09bd 35b2 e43c dc2f bebc
00000010: 3c73 d6bc 3137 e5bc 4710 02bd 1962 d8bc
00000020: d6e4 bfbc 1c5b c63c eba7 c7bc 0a1b db3c
00000030: 613b f33c 662a d73c 0ced c6bc 7948 d8bc

dec1.0.weight f4 [16, 32, 3, 3]
0.094275676 0.1065593 0.088149294 0.07037025 0.10552519 -0.08587851 0.08089112 0.14564519
-0.21533298 0.029508375 -0.081160195 -0.0005483572 -0.20740482 0.075700216 0.17903043 -0.07717772
0.041624043 0.05495044 0.02382682 -0.11463588 0.15636985 0.072072715 0.030346608 0.0617109
-0.117026664 -0.0012584638 0.26772383 -0.083692744 0.01896042 -0.19791405 -0.24017508 -0.0049577327
-0.12373602 -0.09255802 0.051623855 0.09583963 0.0030826782 0.1958109 -0.025322506 -0.011501923
-0.06006049 0.020278487 -0.035596114 -0.08692712 0.20749848 0.0028473453 0.12569857 0.11706463
0.08113807 0.10727757 0.07552857 0.008299043 0.05941635 0.028399497 -0.15136231 0.09778295
-0.021512818 -0.16080692 0.09681437 0.025050098 0.19384214 0.13135906 -0.1078434 -0.08680977
-0.11703678 -0.25590524 -0.2622581 0.00063068495 -0.022639107 -0.20052603 -0.06093922 -0.22802171
-0.051246736 -0.16157056 0.1770261 0.10755098 0.023050433 0.16175564 -0.26190424 -0.121389285
0.10680005 0.21005641 0.19356936 0.04823164 -0.050562266 0.084056616 -0.027619783 0.0070487866
-0.008510508 0.107197925 0.09451107 -0.06400127 -0.08870752 0.15658152 -0.16213292 0.109584324
-0.0955631 -0.029361963 -0.10711042 -0.059057012 -0.07059288 0.3270067 -0.13507669 0.15549663
0.024188062 0.27446213 -0.08585679 0.023772676 -0.0144323865 -0.09827676 -0.18573637 -0.00037987522
0.004595697 0.09216348 0.019111 0.06226885 -0.10755002 0.045249246 -0.32925543 -0.056352377
-0.0551212 -0.036205154 0.020470414 -0.1948713 0.06825782 0.14136449 -0.0208778 0.0033890153
0.056219585 -0.20105037 -0.040850498 0.024761315 0.15850906 0.043357942 0.00017911998 0.13479716
-0.20093316 -0.06867724 0.052171722 -0.007903451 -0.028795192 0.016060742 0.37068462 0.087140165
-0.0028348328 0.11827892 -0.042379376 -0.031418674 0.007468412 -0.07655695 0.070862934 0.042314786
-0.16698495 0.0586078 -0.16201942 0.104635336 -0.060176898 -0.10186833 0.1187292 0.09251266
-0.048036024 -0.041341525 0.021712221 0.18320984 0.07934381 0.062205147 0.2486739 0.16949725
0.020866415 -0.0175669 -0.03892941 -0.048548397 0.072256796 -0.011396407 0.015332481 0.10247784
0.0145269865 -0.25924376 0.07655725 -0.08804116 0.11023081 -0.06644167 -0.028731832 0.08382153
0.049600746 0.22228463 -0.079034105 -0.064183295 -0.21987422 -0.104273416 -0.23636699 0.054103125
-0.040853903 -0.0037222402 -0.11571078 0.28761536 -0.035229925 -0.055285215 -0.066630125 -0.19113025
-0.17410749 -0.012848913 -0.12872535 -0.0739474 -0.03262284 0.121052705 0.040784962 -0.097112454
-0.12446512 -0.14776576 -0.15661448 0.15588886 -0.111384235 -0.020476246 0.17176703 0.05608375
-0.14124124 -0.06519008 -0.116574794 0.026109472 -0.13153604 0.1462534 -0.09243452 -0.0350719
-0.0138541525 -0.1658452 -0.02720623 0.29160565 0.16932742 0.097252905 0.009873631 0.010219742
0.13070722 0.04421048 -0.34091744 -0.08274283 0.15667197 -0.17254078 0.029963097 -0.02284404
0.106995694 -0.27589923 0.05480781 -0.23707725 0.030486058 0.061480734 0.07355211 -0.109768145
-0.08280894 0.101460256 0.005353643 -0.02102685 -0.087806106 0.058529105 0.015623712 -0.14314501
00000000: 9b13 c13d c33b da3d 9e87 b43d 471e 903d
00000010: 971d d83d 12e1 afbd 3eaa a53d 0324 153e
00000020: 4080 5cbe 8cbb f13c 5137 a6bd a1bf 0fba
00000030: ee61 54be b708 9b3d c153 373e 5a0f 9ebd
00000040: f97d 2a3d b613 613d 7730 c33c 37c6 eabd
00000050: 6b1f 203e dc9a 933d 7399 f83c 92c4 7c3d
00000060: adab efbd 0af3 a4ba 1913 893e 1a67 abbd
00000070: e252 9b3c fba9 4abe 75f0 75be 7a74 a2bb
00000080: 4f69 fdbd 0f8f bdbd 8973 533d 9147 c43d
00000090: c206 4a3b a782 483e 2571 cfbc 9072 3cbc
000000a0: fd01 76bd 121f a63c 3bcd 11bd d906 b2bd
000000b0: 7b7a 543e 879a 3a3b 20b7 003e 95bf ef3d
000000c0: b72b a63d 58b4 db3d b9ae 9a3d b6f8 073c
000000d0: 8f5e 733d 10a6 e83c b9fe 1abe 6d42 c83d
000000e0: a63b b0bc 92aa 24be 9d46 c63d dd35 cd3c
000000f0: 8e7e 463e fd82 063e 00dd dcbd 52c9 b1bd
00000100: fbb0 efbd 0306 83be b246 86be 8d54 253a
00000110: a675 b9bc b256 4dbe 679b 79bd 867e 69be
00000120: 19e8 51bd c172 25be 5446 353e b043 dc3d
00000130: 43d4 bc3c 45a3 253e 5018 86be f29a f8bd
00000140: fcb9 da3d 0719 573e 0c37 463e 8a8e 453d
00000150: 611a 4fbd e025 ac3d e242 e2bc 82f9 e63b
00000160: a86f 0bbc 968a db3d 058f c13d 1913 83bd
00000170: 4aac b5bd e856 203e 2c06 26be bf6d e03d
00000180: 96b6 c3bd 8088 f0bc b55c dbbd c4e5 71bd
00000190: 0093 90bd 6c6d a73e 8b51 0abe 823a 1f3e
000001a0: 0b26 c63c 4d86 8c3e afd5 afbd eabe c23c
000001b0: d175 6cbc 5345 c9bd ad31 3ebe fd29 c7b9
000001c0: 8097 963b 35c0 bc3d ac8e 9c3c 9f0d 7f3d
000001d0: 2f43 dcbd 4657 393d 2b94 a8be c0d1 66bd
000001e0: c4c6 61bd db4b 14bd 92b1 a73c 588c 47be
000001f0: c2ca 8b3d dac1 103e ec07 abbc 3e1a 5e3b
00000200: 8246 663d 26e0 4dbe da52 27bd 3ed8 ca3c
00000210: 3350 223e 1998 313d 27d2 3b39 4408 0a3e
00000220: 6cc1 4dbe a7a6 8cbd 04b2 553d 7a7d 01bc
00000230: e5e3 ebbc d191 833c 60ca bd3e 8b76 b23d
00000240: 9ac8 39bb 383c f23d ff95 2dbd deb0 00bd
00000250: 95b9 f43b e4c9 9cbd 9620 913d 4552 2d3d
00000260: 1afe 2abe bc0e 703d 6be8 25be 0d4b d63d
00000270: 0d7c 76bd 58a0 d0bd 4b28 f33d 4777 bd3d
00000280: 6cc1 44bd bb55 29bd d4dd b13c 5c9b 3b3e
00000290: 027f a23d d3ca 7e3d 5fa4 7e3e b090 2d3e
000002a0: 0bf0 aa3c 76e8 8fbc 7274 1fbd afda 46bd
000002b0: 5ffb 933d ffb7 3abc 1635 7b3c e7df d13d
000002c0: 9902 6e3c 99bb 84be 0cca 9c3d ec4e b4bd
000002d0: b1c0 e13d 9212 88bd 055f ebbc 9faa ab3d
000002e0: 272a 4b3d 959e 633e a2dc a1bd 8872 83bd
000002f0: b526 61be 4d8d d5bd 300a 72be 3d9b 5d3d
00000300: 6c56 27bd d4f0 73bb c6f9 ecbd 5242 933e
00000310: 414d 10bd c072 62bd 6075 88bd a6b7 43be
00000320: 3c49 32be 3f84 52bc 94d0 03be bc71 97bd
00000330: 879f 05bd 7bea f73d 220e 273d e5e2 c6bd
00000340: 92e7 febd e84f 17be 8c5f 20be 54a1 1f3e
00000350: 6b1d e4bd cdbd a7bc b2e3 2f3e 13b8 653d
00000360: 8ba1 10be 6082 85bd c4be eebd 88e3 d53c
00000370: 62b1 06be 74c3 153e 4f4e bdbd 8da7 0fbd
00000380: 87fc 62bc 53d3 29be 9adf debc 564d 953e
00000390: 2b64 2d3e 882c c73d 03c5 213c b470 273c
000003a0: 1dd8 053e 0c16 353d bb8c aebe 1375 a9bd
000003b0: 9e6e 203e 88ae 30be 2b75 f53c 6d23 bbbc
000003c0: 8f20 db3d aa42 8dbe 277e 603d 61c4 72be
000003d0: e6bd f93c 39d3 7b3d 7da2 963d 1fce e0bd
000003e0: bc97 a9bd 65ca cf3d 9d6d af3b 8040 acbc
000003f0: b0d3 b3bd 37bc 6f3d 99fa 7f3c 9b94 12be

dec1.0.bias f4 [16]
0.022701353 0.023908872 0.027598144 0.029244987 -0.008946719 -0.03197423 0.024717342 0.026569897
-0.014204552 0.001165905 -0.003805131 -0.00483762 -0.016374515 0.020860266 -0.004554742 0.026692742
00000000: 30f8 b93c 8adc c33c 8115 e23c 2f93 ef3c
00000010: 4295 12bc 69f7 02bd 067c ca3c 1da9 d93c
00000020: 36ba 68bc 48d1 983a 815f 79bb e684 9ebb
00000030: d923 86bc 26e3 aa3c f23f 95bb bdaa da3c
