sampling_based_planning_framework/checkpoints/checkpoint_epoch_83.pth (torch, 386866 bytes, 75 tensors)

enc1.0.weight f4 [8, 1, 3, 3]
-0.10673549 0.10363136 0.072987586 0.14363563 -0.11599507 0.08464257 0.027939063 -0.18143597
-0.07141202 0.1413067 -0.11941081 0.04520119 0.24956547 -0.082742386 0.147684 -0.064879484
0.161911 -0.08897069 0.16983223 -0.20254202 -0.20291837 0.16637607 -0.102880694 -0.15155569
-0.36885163 -0.19860612 -0.12206205 0.058138013 0.030099941 -0.21846709 0.054136463 0.18329823
0.35778174 -0.019050049 -0.0024340893 -0.010068994 -0.11849783 0.06011045 -0.080738515 -0.28645614
0.22813849 -0.056704458 -0.05807188 0.10435288 -0.31943673 0.21954374 0.23039953 0.007704809
0.37410486 -0.071276814 -0.08481335 0.09559418 -0.1620142 -0.2558685 0.012647109 0.053710736
0.11350341 0.13068101 -0.11687948 0.49181515 -0.0427768 0.116112925 0.120885275 0.13931161
-0.33050367 0.09106933 -0.16553655 -0.09253919 0.20784256 0.06693482 -0.120939076 0.055534374
00000000: 2398 dabd ae3c d43d 847a 953d 3815 133e
00000010: d38e edbd 1559 ad3d 76e0 e43c 5aca 39be
00000020: 7740 92bd b4b2 103e a88d f4bd e224 393d
00000030: 178e 7f3e d774 a9bd 793a 173e 89df 84bd
00000040: ffcb 253e 4436 b6bd 80e8 2d3e 2d67 4fbe
00000050: d5c9 4fbe 7d5e 2a3e 1db3 d2bd 6a31 1bbe
00000060: 1fda bcbe 675f 4bbe abfb f9bd 2022 6e3d
00000070: 2794 f63c d6b5 5fbe 32be 5d3d 88b2 3b3e
00000080: 2b2f b73e d90e 9cbc 3e85 1fbb 6cf8 24bc
00000090: feae f2bd 6036 763d 3c5a a5bd 61aa 92be
000000a0: 239d 693e ef42 68bd c8dc 6dbd f6b6 d53d
000000b0: 368d a3be 13d0 603e dbed 6b3e 9f78 fc3b
000000c0: ac8a bf3e 94f9 91bd 9fb2 adbd e2c6 c33d
000000d0: 0de7 25be 3201 83be d235 4f3c caff 5b3d
000000e0: 7a74 e83d 3ed1 053e 825e efbd 32cf fb3e
000000f0: ba36 2fbd 9dcc ed3d b392 f73d b4a7 0e3e
00000100: c737 a9be 8f82 ba3d 6a82 29be 3085 bdbd
00000110: aed4 543e 1f15 893d e8ae f7bd 0378 633d

enc1.0.bias f4 [8]
0.036016386 0.0007303355 0.032013778 0.0017004063 0.056616247 0.0020072884 0.0022782325 -0.00030048325
00000000: eb85 133d fc73 3f3a e120 033d 2be0 de3a
00000010: 70e6 673d b68c 033b 664e 153b 2e8a 9db9

enc1.2.weight f4 [8, 8, 3, 3]
0.03741228 0.062030543 -0.08256292 -0.25265843 0.49367008 0.1676507 -0.014473204 -0.023727328
-0.026330959 -0.073709436 -0.085598074 -0.08877631 -0.0067649707 -0.09160143 0.18959188 0.18551868
0.17939895 -0.26876786 0.06609238 0.15639776 0.10415948 -0.09528002 0.1250887 -0.102312624
-0.1989257 0.14782931 0.06311914 0.011421862 0.10325488 -0.28238183 0.2284372 0.0009677433
0.03797006 0.00088895066 0.057994448 -0.19328693 0.03590291 0.073556304 0.15834197 -0.16246617
0.03328501 0.021845145 -0.004238817 -0.0549121 0.1344791 0.03527012 -0.29598373 0.074313395
0.015059243 0.31990543 -0.11910561 0.19232939 -0.1494897 -0.11487018 -0.08087227 0.1831632
-0.020044059 0.19785048 -0.075731665 -0.016008768 0.06709377 -0.46516374 -0.10763515 -0.0044711926
0.0055818656 0.22248401 -0.060629144 -0.07692956 0.08542377 0.1916267 -0.0137702525 -0.093232736
-0.18722858 0.04067469 0.01507331 0.13157436 0.14748661 0.13017567 -0.13935271 0.19034898
-0.21614647 0.03906463 0.2645253 -0.083992906 0.17861503 0.051514875 0.17527622 -0.0488775
-0.24557564 0.151681 0.011155853 -0.2939856 0.27197972 -0.018097179 0.14886299 0.15367213
-0.0006444899 0.13502255 -0.13391092 -0.021781282 -0.08995105 0.1878379 0.49205673 0.025353622
0.02519988 0.1036268 0.54034346 0.08720812 -0.29520017 0.029019086 -0.037511036 -0.34573844
0.1436529 -0.20614843 -0.08393335 0.15311535 0.31841704 -0.07358276 -0.0753297 0.01663872
0.06337259 0.2248504 0.12323365 -0.0034912492 -0.0346203 -0.03566813 0.24489692 0.008294931
-0.27533042 0.2911369 0.22078305 -0.08560125 0.40047875 0.24159218 0.041923556 -0.034358874
0.3020582 0.15023151 0.28640488 0.32043248 0.20072922 0.14542723 -0.123418435 0.16280882
0.08892158 0.20907433 0.028853897 0.20976657 0.09178534 -0.088389255 0.1027123 0.54409814
-0.1208552 -0.34935907 -0.041059524 0.0964575 0.20740494 -0.018646182 -0.036130752 0.09548438
-0.44619378 -0.16001709 -0.20171492 -0.062439803 -0.3444884 0.11099587 0.07646185 0.25870198
0.03439365 0.1757038 -0.08301374 0.30964115 0.024102742 -0.040357832 -0.012037146 0.11348084
0.14256138 -0.251523 -0.19709454 -0.056189004 0.20602787 -0.1708564 0.3579737 -0.24197409
-0.0517803 0.13028029 -0.21882248 -0.0064771306 -0.004883099 -0.09594079 -0.40970972 0.2927193
0.12163972 -0.3145581 -0.3195954 0.033133235 -0.3835367 0.037821095 0.07556228 -0.014083966
-0.10151055 -0.28869253 0.33252805 0.104141325 -0.2631084 -0.08314345 0.19032387 0.11650688
-0.04157079 -0.014389739 0.2666292 -0.085551806 -0.09555509 0.11364915 0.112473965 -0.24865521
0.02978945 0.23530728 0.00541093 -0.05764449 0.011778122 -0.20429856 0.17408735 0.038010847
0.042218585 -0.39540052 -0.31476495 -0.21031356 -0.02028619 -0.25811866 -0.07392292 0.28926072
0.14404939 0.1255116 -0.018165853 0.065295115 0.036158577 -0.09689991 -0.037880786 0.092317045
0.07119706 0.19983526 -0.20353161 -0.036801472 0.05107143 0.10359437 -0.3751327 -0.207903
0.029079355 0.09360434 0.14810145 0.11895999 0.35794127 -0.051981326 -0.13516857 -0.23292638
00000000: 9e3d 193d bd13 7e3d c016 a9bd 725c 81be
00000010: 53c2 fc3e a0ac 2b3e 0421 6dbc d05f c2bc
00000020: 06b4 d7bc f9f4 96bd 0b4e afbd 5bd0 b5bd
00000030: b0ac ddbb 8899 bbbd 6024 423e 9cf8 3d3e
00000040: 5cb4 373e f19b 89be 715b 873d bc26 203e
00000050: 9151 d53d 2c22 c3bd 4117 003e 4889 d1bd
00000060: 2eb3 4bbe 9160 173e 9c44 813d c322 3b3c
00000070: 4b77 d33d 5a94 90be 71eb 693e 27b0 7d3a
00000080: 7e86 1b3d 7808 693a 968b 6d3d 02ed 45be
00000090: ee0e 133d b0a4 963d 6624 223e 885d 26be
000000a0: dd55 083d 97f4 b23c c6e5 8abb 83eb 60bd
000000b0: e4b4 093e 6777 103d 2e8b 97be 9f31 983d
000000c0: 0bbb 763c a5ca a33e a4ed f3bd fff1 443e
000000d0: d413 19be 0f41 ebbd 5ca0 a5bd 228f 3b3e
000000e0: 7033 a4bc 5199 4a3e 3419 9bbd d224 83bc
000000f0: 7568 893d f129 eebe d16f dcbd 1583 92bb
00000100: 15e8 b63b d9d2 633e 4456 78bd 3f8d 9dbd
00000110: a8f2 ae3d ca39 443e a09c 61bc cef0 bebd
00000120: d9b8 3fbe 819a 263d 0bf6 763c 6ebb 063e
00000130: bb06 173e c54c 053e 7ab2 0ebe d8ea 423e
00000140: 8055 5dbe 3c02 203d dc6f 873e 7904 acbd
00000150: dce6 363e 4301 533d 9c7b 333e c633 48bd
00000160: 2e78 7bbe 4452 1b3e 0ac7 363c 4885 96be
00000170: ed40 8b3e 8940 94bc 8a6f 183e 3a5c 1d3e
00000180: fcf2 28ba 5a43 0a3e f21f 09be a96e b2bc
00000190: 4238 b8bd 9458 403e dcee fb3e 66b2 cf3c
000001a0: fb6f ce3c 4a3a d43d f353 0a3f 2c9a b23d
000001b0: 7a24 97be 6fb9 ed3c 2ca5 19bd a104 b1be
000001c0: bf19 133e 9318 53be 40e5 abbd 45ca 1c3e
000001d0: 8f07 a33e 8fb2 96bd 7546 9abd ed4d 883c
000001e0: 7dc9 813d 2f3f 663e ed61 fc3d 71cd 64bb
000001f0: 04ce 0dbd bf18 12bd 42c6 7a3e 76e7 073c
00000200: 1cf8 8cbe e50f 953e f414 623e b54f afbd
00000210: 8d0b cd3e f163 773e 09b8 2b3d e4bb 0cbd
00000220: 5fa7 9a3e 4ad6 193e a9a3 923e ba0f a43e
00000230: f68b 4d3e e0ea 143e cec2 fcbd 5bb7 263e
00000240: 841c b63d 9517 563e 025f ec3c 0ccd 563e
00000250: f4f9 bb3d 6d05 b5bd d45a d23d 044a 0b3f
00000260: ee82 f7bd 31df b2be 082e 28bd 828b c53d
00000270: f661 543e e1bf 98bc d7fd 13bd 518d c33d
00000280: 8373 e4be 85db 23be 5b8e 4ebe e1c0 7fbd
00000290: c960 b0be cd51 e33d 0898 9c3d 9674 843e
000002a0: 5be0 0c3d b2eb 333e 1c03 aabd 4989 9e3e
000002b0: 1d73 c53c 414e 25bd 7337 45bc a568 e83d
000002c0: 9cfb 113e 9fc7 80be 27d3 49be 7126 66bd
000002d0: f8f8 523e fbf4 2ebe 5448 b73e 0ec8 77be
000002e0: 9417 54bd 3268 053e 0013 60be 1c3e d4bb
000002f0: 6702 a0bb 9b7c c4bd 79c5 d1be 4edf 953e
00000300: 3f1e f93d c20d a1be 02a2 a3be b7b6 073d
00000310: ec5e c4be 4bea 1a3d 66c0 9a3d 6fc0 66bc
00000320: c3e4 cfbd 82cf 93be 1e41 aa3e 0c48 d53d
00000330: 25b6 86be 1d47 aabd 43e4 423e 299b ee3d
00000340: 2246 2abd f1c2 6bbc 9f83 883e c935 afbd
00000350: 63b2 c3bd e3c0 e83d c058 e63d 799f 7ebe
00000360: 0109 f43c 64f4 703e 2c4e b13b a11c 6cbd
00000370: 06f9 403c a433 51be f443 323e 43b1 1b3d
00000380: 65ed 2c3d f071 cabe df28 a1be 705c 57be
00000390: 392f a6bc 2128 84be e664 97bd fb19 943e
000003a0: af81 133e 1d86 003e 8ed0 94bc 72b9 853d
000003b0: 041b 143d 7673 c6bd e228 1bbd b810 bd3d
000003c0: c4cf 913d 9da1 4c3e 976a 50be 24bd 16bd
000003d0: 4730 513d 4929 d43d 6511 c0be 86e4 54be
000003e0: d437 ee3c a2b3 bf3d e8a7 173e 4ca1 f33d
000003f0: 1444 b73e 5fea 54bd a169 0abe 4184 6ebe

enc1.2.bias f4 [8]
-0.03420754 -0.0010049224 0.039776918 -0.011305683 0.004798558 0.034709185 0.029628797 0.008545631
00000000: 351d 0cbd 9ab7 83ba 1fed 223d 793b 39bc
00000010: 393d 9d3b 382b 0e3d 17b8 f23c f902 0c3c

enc2.0.weight f4 [16, 8, 3, 3]
0.011878466 -0.03769505 -0.015198715 -0.14134265 -0.19194618 0.08749663 0.059464306 -0.08109473
0.24966419 0.00011786317 0.051921662 -0.044808008 -0.22146142 0.07943854 -0.0560391 -0.087071985
-0.043146685 0.18307649 0.010659248 0.12115598 -0.15238972 -0.04320269 -0.01548985 -0.12416142
0.08783613 0.26583976 0.117335506 -0.048672024 0.09455416 0.102388375 -0.027091883 -0.17124844
-0.008770315 -0.18244967 -0.15305865 -0.08091734 0.14535806 -0.029626219 -0.19900194 -0.034203388
0.05098054 -0.04014038 -0.12009651 -0.11640302 0.059800327 0.0635659 0.055713695 0.1385183
0.22440772 -0.031430572 0.14493077 0.17530334 -0.03285309 0.11785931 0.18535478 -0.050791454
-0.31198275 -0.17880908 0.20174357 -0.06696909 0.09260318 0.21332945 0.18403101 0.0036154212
-0.16861771 0.024513826 -0.027311726 -0.0055109975 0.1024115 -0.108046755 -0.17579928 0.0010294857
-0.004319652 0.038760293 -0.01450408 -0.06431387 -0.019258447 -0.109880604 -0.057011228 0.0140742175
0.12105233 -0.04727708 0.0041566663 0.27920073 0.008521749 -0.10629378 0.0024189558 -0.05337076
0.003874653 -0.11486793 0.051842045 0.06509182 0.16848823 0.08819659 0.03457856 0.07276713
-0.18083432 0.10496993 0.028508296 -0.01667096 -0.0909959 0.081428625 -0.18014969 0.059429456
0.006707275 0.1273376 -0.2319213 0.030034555 0.120767936 -0.044440147 -0.015959255 -0.035358794
0.103915416 0.06278956 0.17286743 0.2366161 0.014171293 -0.06296937 -0.09033791 0.17623809
0.1706003 0.15557167 0.07436684 -0.13303536 0.10149799 0.12094015 0.19653122 -0.009001721
0.06263503 0.018568689 0.18889834 -0.1280634 0.016670112 -0.028801167 0.19829564 -0.2705431
0.14660627 -0.1953153 -0.17631474 0.03960508 -0.033281922 0.033213817 -0.010231125 -0.110262915
-0.036015846 -0.030320618 -0.16183057 -0.008908903 0.13118882 0.22843076 0.30740476 0.1693686
-0.16123572 -0.034279153 -0.15951361 -0.13836953 0.12702215 0.17258553 -0.018026294 0.051897753
-0.12630637 -0.23851341 0.12560998 0.0023761243 -0.17391779 -0.09805121 0.035117768 0.15096699
-0.07524754 -0.14370935 0.10295801 0.19417843 -0.01847964 0.12168933 0.1375938 -0.0044913823
-0.035926383 0.18371698 -0.025645882 -0.072367765 0.10419726 0.070762075 0.12470755 0.19698
0.10073876 0.3898371 0.30945793 0.16106011 0.057387337 -0.097320415 0.14761207 -0.12859292
-0.09350314 -0.065661475 0.1933101 0.2420099 0.08768541 -0.09887967 0.124430545 0.07548909
-0.026563153 0.06542767 0.15538724 0.08866652 0.11670991 0.08369783 -0.014079075 0.18317693
-0.18480548 0.030395452 0.12887353 -0.010255699 0.24043643 -0.1624692 0.012008092 -0.17095254
-0.057179146 0.024690442 0.13994715 -0.03643415 0.05032747 0.24031678 0.0007963378 -0.07371693
-0.056789525 -0.38905546 -0.14543186 0.022776002 -0.07082216 -0.21489298 0.041792385 0.15842377
-0.008876186 0.08798121 0.036646586 -0.07173759 -0.080323674 -0.07043139 0.08411618 -0.12251822
0.05389762 0.0035014907 0.032166757 -0.030055452 -0.12126064 0.23336609 -0.027764479 -0.05624353
0.08005258 -0.039674636 0.25243974 0.14564866 -0.32684112 -0.25162497 0.020856349 0.015649902
00000000: e69d 423c 2066 1abd 0804 79bc 21bc 10be
00000010: 8a8d 44be 6f31 b33d d890 733d fe14 a6bd
00000020: f8a7 7f3e 4f2d f738 cfab 543d 9a88 37bd
00000030: c8c6 62be acb0 a23d 4189 65bd cc52 b2bd
00000040: 94ba 30bd 6778 3b3e 20a4 2e3c a020 f83d
00000050: 0d0c 1cbe 4ef5 30bd 24c9 7dbc 5848 febd
00000060: 6ee3 b33d 261c 883e 994d f03d 515c 47bd
00000070: 9da5 c13d ffb0 d13d ccef ddbc c05b 2fbe
00000080: 5eb1 0fbc 16d4 3abe 68bb 1cbe feb7 a5bd
00000090: bed8 143e afb2 f2bc 2ac7 4bbe da18 0cbd
000000a0: f9d0 503d 3d6a 24bd 29f5 f5bd b564 eebd
000000b0: 30f1 743d d72e 823d 0b34 643d bed7 0d3e
000000c0: 23cb 653e 58bd 00bd bb68 143e b882 333e
000000d0: f690 06bd 3960 f13d a5cd 3d3e b30a 50bd
000000e0: 34bc 9fbe ba19 37be de95 4e3e 1727 89bd
000000f0: bca6 bd3d 0973 5a3e a072 3c3e b4f0 6c3b
00000100: 1faa 2cbe 38d1 c83c d7bc dfbc 9995 b4bb
00000110: 1fbd d13d 9e47 ddbd ba04 34be cfef 863a
00000120: de8b 8dbb 1dc3 1e3d 85a2 6dbc feb6 83bd
00000130: e4c3 9dbc 1509 e1bd 9b84 69bd 8c97 663c
00000140: 49ea f73d 9da5 41bd a534 883b 66f3 8e3e
00000150: ce9e 0b3c 8eb0 d9bd 5887 1e3b 4c9b 5abd
00000160: e4ed 7d3b e13f ebbd 5358 543d dc4e 853d
00000170: 2e88 2c3e 6aa0 b43d 40a2 0d3d ef06 953d
00000180: a22c 39be 7afa d63d 3b8a e93c 8991 88bc
00000190: 0f5c babd 0dc4 a63d 2979 38be 4d6c 733d
000001a0: b3c8 db3b ca64 023e c77c 6dbe 070b f63c
000001b0: 2e55 f73d df06 36bd fcbc 82bc 62d4 10bd
000001c0: 9bd1 d43d d097 803d 2904 313e 7e4b 723e
000001d0: b62e 683c 16f6 80bd 1503 b9bd c277 343e
000001e0: d8b1 2e3e 2e4e 1f3e a44d 983d 6c3a 08be
000001f0: 2ede cf3d 78af f73d 7b3f 493e f47b 13bc
00000200: cb46 803d 5d1d 983c 916e 413e 0d23 03be
00000210: c28f 883c 6df0 ebbc 030e 4b3e a084 8abe
00000220: f41f 163e bc00 48be da8b 34be f038 223d
00000230: a052 08bd 360b 083d 73a0 27bc 86d1 e1bd
00000240: 5a85 13bd f262 f8bc eab6 25be a6f6 11bc
00000250: 5d56 063e c1e9 693e 2864 9d3e f66e 2d3e
00000260: fa1a 25be 4c68 0cbd 8957 23be beb0 0dbe
00000270: 1812 023e 43ba 303e e1ab 93bc bd92 543d
00000280: 7556 01be dc3c 74be e79f 003e c0b8 1b3b
00000290: 8117 32be 13cf c8bd a6d7 0f3d 1797 1a3e
000002a0: 621b 9abd 8b28 13be a6db d23d b6d6 463e
000002b0: 9d62 97bc 4138 f93d 64e5 0c3e 722c 93bb
000002c0: 8b27 13bd 4e20 3c3e 5017 d2bc 8d35 94bd
000002d0: 6065 d53d b5eb 903d ac66 ff3d 20b5 493e
000002e0: 1f50 ce3d ba98 c73e 4571 9e3e f1ec 243e
000002f0: fc0e 6b3d ed4f c7bd 9e27 173e ddad 03be
00000300: 937e bfbd 8679 86bd 15f3 453e 71d1 773e
00000310: 6994 b33d 6d81 cabd 71d5 fe3d 069a 9a3d
00000320: f89a d9bc f1fe 853d d51d 1f3e cb96 b53d
00000330: 9b05 ef3d c569 ab3d ecab 66bc bc92 3b3e
00000340: a63d 3dbe e2ff f83c 6cf7 033e 8507 28bc
00000350: f834 763e 535e 26be 97bd 443c 2f0e 2fbe
00000360: ae34 6abd 9c43 ca3c 4e4e 0f3e fa3b 15bd
00000370: 2d24 4e3d 9a15 763e 53c1 503a e7f8 96bd
00000380: 229c 68bd 4732 c7be 17ec 14be bd94 ba3c
00000390: 350b 91bd e80c 5cbe 7e2e 2b3d d739 223e
000003a0: 6c6d 11bc 7e2f b43d bb1a 163d 28eb 92bd
000003b0: bd80 a4bd 553e 90bd 1b45 ac3d d5ea fabd
000003c0: c0c3 5c3d 4479 653b 4ac1 033d da36 f6bc
000003d0: 8057 f8bd 85f7 6e3e 5572 e3bc 9e5f 66bd
000003e0: 9bf2 a33d df81 22bd c83f 813e ec24 153e
000003f0: b857 a7be fdd4 80be efda aa3c 3934 803c

enc2.0.bias f4 [16]
0.034997754 0.031143185 -0.014435529 0.044359762 0.011005029 0.039184224 -0.021562707 -0.030284243
0.027621299 0.0058932407 0.0319135 0.0378637 0.032157693 0.026053559 0.024467122 0.03984627
00000000: ce59 0f3d fe1f ff3c ff82 6cbc 95b2 353d
00000010: 704e 343c a37f 203d 46a4 b0bc a916 f8bc
00000020: 1046 e23c 161c c13b bbb7 023d f816 1b3d
00000030: c9b7 033d 466e d53c 466f c83c d835 233d

enc2.2.weight f4 [16, 16, 3, 3]
0.0033716282 0.045679852 -0.02180871 -0.123011105 0.13654372 0.060431406 -0.06514843 -0.030387182
-0.006731238 -0.121678986 0.22545755 -0.11372446 -0.17954817 0.038828455 0.17272119 -0.23462102
-0.03428878 -0.0315252 -0.13004528 -0.06958862 -0.12662654 -0.11169136 0.30708882 0.041915905
-0.047191866 0.14635585 -0.0654987 0.2136772 0.1430396 -0.06950487 0.16874097 0.19044189
-0.09047919 -0.07293277 -0.3211714 0.19756633 -0.028730797 -0.030662723 0.16847888 -0.15066476
-0.10887565 0.23042642 -0.046967957 -0.3940745 -0.096827604 0.011356955 -0.032908212 0.12501776
0.021760749 -0.00040601668 -0.10762269 -0.080792464 -0.25128108 -0.08485954 0.021973407 -0.024400467
-0.09670803 0.12996969 -0.12450642 0.1597038 0.039149646 0.10763287 0.03466262 0.05593828
0.10389463 0.05480743 -0.11835431 -0.009514375 -0.15317057 0.11307703 0.15882252 -0.02334707
0.24586372 0.018038265 0.18287975 -0.08852428 0.06570092 0.20900495 -0.0021199116 -0.20525046
0.16678189 -0.21571423 -0.026776986 -0.1904461 0.14489426 0.17155507 0.06710699 -0.062333323
-0.19230568 0.20906247 0.005444967 -0.1397878 0.10719144 -0.078715414 0.116447195 0.019777277
-0.26194128 0.037927043 0.18364692 0.13085575 -0.03850413 -0.04826992 -0.06124551 0.14521353
0.05979612 0.017583093 -0.035686124 0.07341844 -0.087359816 0.025959736 0.19819319 -0.21196334
-0.065650314 -0.06653977 -0.0008830047 0.14167279 0.1470502 0.024060875 0.10039847 -0.16560972
0.14943448 0.13171546 -0.07805901 0.07507942 0.024004523 -0.061450303 0.15768369 -0.06952706
-0.101477824 -0.028276244 -0.077773176 0.046747915 -0.25562102 0.05398512 -0.1169351 -0.123512745
0.057701744 0.18077448 -0.12739776 0.11245511 -0.041463487 0.07647457 -0.015577111 0.085920125
0.0076212985 0.0678677 0.10876663 -0.0215182 0.13124363 0.1333317 0.1887644 -0.081872776
0.16423227 0.17823039 0.08769361 0.010244102 -0.27337748 0.106154405 -0.11355094 0.004712015
-0.07589531 -0.13458993 0.14476977 0.0609606 0.12584296 -0.23288855 -0.037652135 -0.043015245
-0.03817428 -0.040869314 -0.040022478 -0.20886889 -0.17586318 -0.082474895 0.12242523 -0.037797157
-0.19979881 -0.08207056 -0.03287513 0.045155033 -0.005167184 0.028164057 0.054859094 0.030761916
0.059417784 0.18687546 0.1596679 0.13777971 -0.020370802 0.016606035 0.18643078 -0.10046244
-0.10115031 0.033287324 0.06262374 0.19974433 0.28062433 -0.009159115 -0.06225758 -0.06119802
-0.06644045 -0.15037653 0.119551934 0.13540888 -0.1015136 -0.07510727 0.19163258 0.13202465
-0.13814162 0.117573775 -0.0029850658 0.027940786 -0.050881002 0.0757474 -0.063795276 -0.013076073
0.05815382 0.17134698 -0.18154602 -0.004110427 0.3148774 0.12967426 -0.06099387 0.021474466
-0.022167537 0.29002538 -0.08906871 -0.118502416 -0.11510618 0.03848162 0.028848138 -0.16659445
-0.43863827 -0.080758445 -0.018640237 -0.18365832 0.028476793 0.18437222 0.065955326 -0.25389412
-0.1539927 0.08919528 -0.047279768 0.045032617 -0.19911103 -0.1020041 0.045045342 -0.15495808
0.30282274 0.1351906 0.37246692 -0.06297047 0.048153076 0.023884788 -0.026556714 0.13899106
00000000: 89f6 5c3b cc1a 3b3d 2ea8 b2bc 3fed fbbd
00000010: 1ed2 0b3e ec86 773d 8a6c 85bd 8aee f8bc
00000020: b891 dcbb d532 f9bd 58de 663e 5fe8 e8bd
00000030: 7adb 37be 960a 1f3d d3dd 303e 7e40 70be
00000040: 6472 0cbd 9120 01bd 972a 05be 7a84 8ebd
00000050: 63aa 01be 71be e4bd bf3a 9d3e 03b0 2b3d
00000060: 424c 41bd 4fde 153e 2f24 86bd 32ce 5a3e
00000070: f978 123e 9258 8ebd 6fca 2c3e 3303 433e
00000080: 274d b9bd c75d 95bd 9470 a4be d44e 4a3e
00000090: d95c ebbc 6430 fbbc ba85 2c3e dd47 1abe
000000a0: 32fa debd e7f4 6b3e 7961 40bd 22c4 c9be
000000b0: 8d4d c6bd 8612 3a3c c3ca 06bd a804 003e
000000c0: 9943 b23c a3de d4b9 4969 dcbd 8576 a5bd
000000d0: eaa7 80be d7ca adbd 9301 b43c 7de3 c7bc
000000e0: dc0e c6bd c616 053e 39fd febd 6589 233e
000000f0: 615b 203d 9f6e dc3d 64fa 0d3d 8a1f 653d
00000100: b5c6 d43d c17d 603d bf63 f2bd 2ee2 1bbc
00000110: bfd8 1cbe ee94 e73d 5fa2 223e 5b42 bfbc
00000120: b3c3 7b3e fcc4 933c d444 3b3e 384c b5bd
00000130: 348e 863d 6505 563e 37ee 0abb 2d2d 52be
00000140: dfc8 2a3e 31e4 5cbe 695b dbbc 4d04 43be
00000150: 295f 143e 22ac 2f3e 646f 893d 3a51 7fbd
00000160: c8eb 44be 7914 563e b26b b23b 8824 0fbe
00000170: 3087 db3d 8c35 a1bd de7b ee3d f503 a23c
00000180: 2b1d 86be 6359 1b3d f00d 3c3e 0dff 053e
00000190: 82b6 1dbd aeb6 45bd 92dc 7abd dbb2 143e
000001a0: c7ec 743d 6b0a 903c 9d2b 12bd 685c 963d
000001b0: b4e9 b2bd 83a9 d43c 28f3 4a3e eb0c 59be
000001c0: ac73 86bd 0146 88bd 7179 67ba ac12 113e
000001d0: 5494 163e 501b c53c b79d cd3d 9895 29be
000001e0: 5a05 193e 6be0 063e 67dd 9fbd 3dc3 993d
000001f0: 22a5 c43c 50b3 7bbd d577 213e 3464 8ebd
00000200: 9bd3 cfbd 95a3 e7bc 8b47 9fbd be7a 3f3d
00000210: c2e0 82be 801f 5d3d ab7b efbd 40f4 fcbd
00000220: aa58 6c3d f21c 393e 8f74 02be dd4e e63d
00000230: 9ed5 29bd b39e 9c3d 2437 7fbc e4f6 af3d
00000240: 16bc f93b 38fe 8a3d 0ac1 de3d f046 b0bc
00000250: bb64 063e 1b88 083e 744b 413e eaac a7bd
00000260: 812c 283e 0782 363e b598 b33d e1d6 273c
00000270: 22f8 8bbe 7b67 d93d 658d e8bd 3f67 9a3b
00000280: 006f 9bbd f1d1 09be 873e 143e d2b1 793d
00000290: fadc 003e 567a 6ebe 2039 1abd c130 30bd
000002a0: a25c 1cbd 9566 27bd 9cee 23bd bae1 55be
000002b0: 7a15 34be 99e8 a8bd 14ba fa3d 31d1 1abd
000002c0: 0f98 4cbe 9c14 a8bd 13a8 06bd 7cf4 383d
000002d0: 7b51 a9bb 4fb8 e63c eeb3 603d 6a00 fc3c
000002e0: 1060 733d 485c 3f3e fb7f 233e 2016 0d3e
000002f0: abe0 a6bc 6109 883c b6e7 3e3e 40bf cdbd
00000300: e527 cfbd 4a58 083d e040 803d c789 4c3e
00000310: fead 8f3e 1d10 16bc ce01 7fbd c6aa 7abd
00000320: ee11 88bd 4efc 19be a5d7 f43d a0a8 0a3e
00000330: 5de6 cfbd d7d1 99bd 553b 443e 7831 073e
00000340: ff74 0dbe 85ca f03d 18a1 43bb 13e4 e43c
00000350: 9968 50bd 7421 9b3d 19a7 82bd 063d 56bc
00000360: b332 6e3d 9575 2f3e 33e7 39be c3b0 86bb
00000370: 9c37 a13e 54c9 043e b5d4 79bd 38eb af3c
00000380: b298 b5bc 357e 943e a869 b6bd 65b1 f2bd
00000390: cabc ebbd e79e 1d3d ee52 ec3c bc97 2abe
000003a0: 3295 e0be af64 a5bd 69b3 98bc ed10 3cbe
000003b0: 2a48 e93c 12cc 3c3e 9613 873d 69fe 81be
000003c0: 43b0 1dbe 04ac b63d 6ea8 41bd 1f74 383d
000003d0: c3e3 4bbe 87e7 d0bd 7781 383d 55ad 1ebe
000003e0: 950b 9b3e 686f 0a3e fcb3 be3e a9f6 80bd
000003f0: 293c 453d 08aa c33c 778d d9bc ac53 0e3e

enc2.2.bias f4 [16]
0.018041993 0.03247303 -0.0020492298 0.0114862295 0.033531994 0.024307324 -0.0066936053 -0.005023098
0.05879201 0.03099261 0.013298083 -0.011187316 0.018697668 -0.016090387 0.035069764 0.029302767
00000000: cdcc 933c 7102 053d 5f4c 06bb bd30 3c3c
00000010: d858 093d 2720 c73c 0856 dbbb cd98 a4bb
00000020: e4cf 703d 37e4 fd3c 34e0 593c 014b 37bc
00000030: da2b 993c fdcf 83bc 50a5 0f3d 5b0c f03c

bottleneck.0.weight f4 [32, 16, 3, 3]
-0.08879477 0.029270913 0.052469134 0.052237995 0.07179533 -0.04042594 0.02344075 0.018620817
-0.16177478 -0.016408 -0.17277858 0.088182695 -0.013978748 0.06960396 0.12674579 -0.17115924
0.22039706 0.027283667 0.04101598 0.081414506 0.092283785 -0.046876125 0.13039663 0.21362881
-0.035542317 -0.018563248 -0.032074995 0.040056556 -0.06573634 0.0013101457 -0.04430004 -0.09860617
-0.040306307 0.12660763 -0.0059891483 -0.08058452 -0.077258475 -0.07677524 -0.009808607 -0.05587965
0.04152685 -0.17085002 0.10307065 -0.13659485 0.12733088 -0.023412207 0.106473945 0.032299858
-0.09780298 0.059050906 -0.032009758 0.11995053 0.08858865 -0.04562008 0.019425912 0.11285781
-0.0041498546 0.07222921 -0.034509275 -0.15297242 -0.061149117 0.26120245 0.077285014 -0.07346865
0.0255364 -0.055272758 0.03017286 0.13569357 0.08276239 0.01754255 -0.00049660803 -0.053044636
0.02003738 0.022209778 -0.16415606 0.09911329 -0.062285386 -0.059516482 -0.033252645 0.13418317
0.18781443 -0.093630664 0.101813704 0.05476505 -0.030295314 0.053294938 0.15324105 -0.11122072
0.033746697 -0.008024591 0.015886309 -0.024243882 -0.06137052 0.11031244 0.15005264 0.12244186
0.0014525306 0.105072826 -0.0054977317 -0.034630306 0.0763421 -0.025425008 -0.008319767 0.053239428
0.008551524 0.029586354 0.2703551 0.09705025 0.0119487075 0.040832397 -0.038251057 0.15761079
0.0743878 -0.09948036 -0.037513796 -0.04235541 -0.19289176 0.090367705 0.06734346 -0.10165799
0.17190453 -0.035707068 0.031034298 -0.01160749 0.013806009 0.22683379 -1.9037898e-05 0.043318946
-0.15276378 0.05709268 -0.048347514 -0.028924558 0.026272308 -0.110799626 -0.05897451 0.02796925
0.17080474 0.036506426 0.05926323 0.046160847 0.040299617 0.093825795 0.04947138 0.03587189
0.022209274 -0.075989395 0.103638925 0.01451341 0.045942582 0.0108019095 -0.026584096 -0.063487574
0.05980647 0.05629104 -0.075016245 -0.00038081384 0.045668487 0.0042304345 -0.18892336 -0.05144509
-0.0771855 0.24723727 -0.011020277 -0.12121398 -0.080870904 -0.04928342 -0.0990174 0.0079932725
-0.058681577 0.043978035 0.083363846 -0.06290723 -0.06375983 0.033964783 0.04124652 -0.05523999
0.018257441 0.058080632 0.04029943 0.105562426 0.04982285 0.024132859 0.111747794 0.11542012
0.09123521 0.096240595 0.04525583 -0.013565599 -0.095003955 -0.03916613 -0.009634532 -0.06072905
-0.029213851 -0.007921186 -0.064726524 0.048194103 -0.040179916 0.09687683 -0.122311205 -0.05786731
-0.101053186 0.050271526 0.075696 -0.14848831 0.08750137 0.117234856 0.18377113 -0.17705907
-0.05506917 -0.24176455 0.10807116 0.22259763 -0.05963501 0.041714873 0.024611076 -0.060820147
-0.040084586 0.122451425 0.02787444 -0.019574536 -0.048054997 -0.032680795 -0.09244921 0.21718457
0.144854 0.008962115 -0.035757165 -0.12297578 0.04675238 -0.13694082 -0.080449134 -0.20778964
0.09655844 -0.13039836 0.06183682 0.071871616 -0.08999793 0.12960842 -0.025493857 -0.12233236
0.051627163 -0.013512696 0.13261198 -0.04276724 -0.026988989 0.17087081 0.06724673 -0.039749127
0.05661609 0.037175797 -0.00055798545 0.12413513 0.11379751 0.16981862 -0.039412823 -0.08172796
00000000: 08da b5bd 8ec9 ef3c e0e9 563d 82f7 553d
00000010: 6e09 933d ac95 25bd d106 c03c af8a 983c
00000020: 4aa8 25be 126a 86bc deec 30be 2199 b43d
00000030: 1e07 65bc 858c 8e3d a6c9 013e 5e44 2fbe
00000040: c4af 613e ff81 df3c 5f00 283d a6bc a63d
00000050: 48ff bc3d 2e01 40bd b286 053e 83c1 5a3e
00000060: d294 11bd f411 98bc 1261 03bd 5812 243d
00000070: c6a0 86bd 32b9 ab3a f573 35bd 08f2 c9bd
00000080: 3a18 25bd 6ea5 013e 9e40 c4bb 7f09 a5bd
00000090: b139 9ebd 563c 9dbd 48b4 20bc 0fe2 64bd
000000a0: 0f18 2a3d 4ff3 2ebe b416 d33d 85df 0bbe
000000b0: 0763 023e f5ca bfbc 030f da3d db4c 043d
000000c0: ee4c c8bd 5ddf 713d aa1c 03bd a0a8 f53d
000000d0: f76d b53d 1fdc 3abd 1723 9f3c ff21 e73d
000000e0: 81fb 87bb e8ec 933d 9959 0dbd cda4 1cbe
000000f0: 7f77 7abd 54bc 853e 9b47 9e3d bb76 96bd
00000100: b631 d13c b065 62bd 132d f73c 41f3 0a3e
00000110: 547f a93d 65b5 8f3c cd2e 02ba 5545 59bd
00000120: 6e25 a43c 48f1 b53c 8718 28be e9fb ca3d
00000130: f61e 7fbd 8ec7 73bd ed33 08bd 5067 093e
00000140: 6d52 403e 6fc1 bfbd b483 d03d 5151 603d
00000150: e12d f8bc cb4b 5a3d 39eb 1c3e b0c7 e3bd
00000160: fa39 0a3d 9379 03bc 0124 823c 1b9b c6bc
00000170: a85f 7bbd 7deb e13d 66a7 193e ccc2 fa3d
00000180: d762 be3a 6c30 d73d 5126 b4bb 82d8 0dbd
00000190: 3f59 9c3d 1b48 d0bc a24f 08bc 9611 5a3d
000001a0: b11b 0c3c 155f f23c fc6b 8a3e 48c2 c63d
000001b0: 83c4 433c df3f 273d 24ad 1cbd b964 213e
000001c0: a258 983d 5cbc cbbd 11a8 19bd de7c 2dbd
000001d0: 6b85 45be b412 b93d 5eeb 893d 1032 d0bd
000001e0: be07 303e 9341 12bd a43b fe3c 572d 3ebc
000001f0: 9932 623c 1e47 683e 93b3 9fb7 356f 313d
00000200: 1c6e 1cbe 04da 693d 0b08 46bd 32f3 ecbc
00000210: 0639 d73c eaea e2bd 418f 71bd c51f e53c
00000220: 70e7 2e3e c387 153d 00be 723d 2813 3d3d
00000230: 3611 253d bd27 c03d 80a2 4a3d 67ee 123d
00000240: 39f0 b53c 54a0 9bbd a540 d43d a7c9 6d3c
00000250: 4a2e 3c3d 7efa 303c e4c6 d9bc c605 82bd
00000260: a1f7 743d 6f91 663d 1ea2 99bd f8a7 c7b9
00000270: e10e 3b3d 759f 8a3b 2075 41be 16b8 52bd
00000280: 6e13 9ebd c42b 7d3e 648e 34bc 093f f8bd
00000290: a59f a5bd 69dd 49bd a2c9 cabd 37f6 023c
000002a0: 185c 70bd 5022 343d aaba aa3d 81d5 80bd
000002b0: 8494 82bd a81e 0b3d 1cf2 283d 5443 62bd
000002c0: a190 953c f5e5 6d3d 0411 253d 1d31 d83d
000002d0: 0b13 4c3d 46b2 c53c 07dc e43d 6261 ec3d
000002e0: 87d9 ba3d ca19 c53d 2d5e 393d 3f42 5ebc
000002f0: 6f91 c2bd aa6c 20bd 28da 1dbc 06bf 78bd
00000300: e351 efbc ddc7 01bc 578f 84bd 2e67 453d
00000310: b293 24bd 5c67 c63d 4c7e fabd 4606 6dbd
00000320: f9f4 cebd 84e9 4d3d 8106 9b3d 520d 18be
00000330: eb33 b33d d418 f03d 802e 3c3e f94e 35be
00000340: 3690 61bd 2091 77be 6a54 dd3d a2f0 633e
00000350: d743 74bd 37dd 2a3d 2b9d c93c 8c1e 79bd
00000360: bc2f 24bd d0c7 fa3d f058 e43c c75a a0bc
00000370: 51d5 44bd 4cdc 05bd 0356 bdbd a265 5e3e
00000380: 9b54 143e d6d5 123c 1b76 12bd bada fbbd
00000390: 6c7f 3f3d 373a 0cbe 84c2 a4bd cfc6 54be
000003a0: 6ec0 c53d 2687 05be 9b48 7d3d 6d31 933d
000003b0: d650 b8bd 12b8 043e 7ed8 d0bc 6389 fabd
000003c0: 0177 533d 5b64 5dbc 6fcb 073e b42c 2fbd
000003d0: 0318 ddbc c2f8 2e3e a7b8 893d fbcf 22bd
000003e0: 46e6 673d a645 183d c545 12ba 8f3a fe3d
000003f0: ab0e e93d efe4 2d3e 576f 21bd fd60 a7bd

bottleneck.0.bias f4 [32]
-0.033829954 0.018435119 0.027887397 0.037670553 0.03089069 0.027349 0.05318629 -0.012759446
0.024898307 -0.0151085025 0.013184322 0.037463896 -0.009945339 0.02614767 -0.0042727273 0.028610919
0.034478195 0.0065813614 0.027992161 0.056369103 -0.00076152827 0.050497256 0.024433983 -0.012715759
0.03548469 0.018731114 -0.027073437 0.010013565 0.025758447 0.02654257 0.026436608 0.026995882
00000000: 4791 0abd 3f05 973c 1c74 e43c 704c 1a3d
00000010: 790e fd3c 030b e03c ded9 593d ff0c 51bc
00000020: 89f7 cb3c a789 77bc 0e03 583c be73 193d
00000030: c6f1 22bc a333 d63c 3c02 8cbb 7261 ea3c
00000040: 0239 0d3d 76a8 d73b d14f e53c 4ae3 663d
00000050: 4ca1 47ba 36d6 4e3d c729 c83c c255 50bc
00000060: 6558 113d fe71 993c 1dc9 ddbc f00f 243c
00000070: 6103 d33c ce6f d93c 9691 d83c 7826 dd3c

bottleneck.2.weight f4 [32, 32, 3, 3]
-0.015052649 -0.0406492 -0.1929969 -0.10860909 -0.18578883 -0.02201159 -0.072417736 -0.12266268
-0.019047134 -0.009609529 -0.18758811 -0.020351978 0.0058710496 0.10008524 0.06485982 0.07863899
-0.03179471 -0.018932309 -0.04697964 0.21937482 0.036927164 -0.093987405 0.06978768 -0.02477875
0.092216395 -0.068035774 0.08759213 -0.031663887 0.09595471 0.019803423 -0.0038123657 0.14290391
0.08878626 0.054378174 0.110673316 0.03774321 0.043207806 -0.0039131697 0.059328664 0.010573005
-0.078054786 0.15160598 -0.0065551456 0.02404973 -0.15491514 -0.194917 -0.16396879 -0.057275575
0.07604464 0.052315295 0.10961829 -0.08960006 -0.057656743 0.047266684 0.260603 -0.0921922
-0.053413667 0.07547143 -0.0163257 -0.05613242 -0.03794626 -0.007509539 -0.09023975 0.007957235
0.0038938394 0.12330047 0.020676924 0.07605248 0.026357483 -0.053725082 0.021203991 0.05597492
-0.18256296 0.012180972 -0.12105941 0.045714296 -0.011716752 0.017269036 0.052993745 -0.090639345
0.025894541 0.007670916 0.02139597 -0.057496596 -0.060645062 0.050684955 -0.06474031 -0.025133574
-0.23585472 -0.13192952 -0.019744808 0.025831908 -0.03593488 -0.080112 0.12515172 0.07326267
0.01953093 0.061584007 0.03812276 0.0032408775 0.07299453 0.18476185 0.094916455 0.1760483
-0.03961773 0.037680183 -0.12720612 0.024612525 -0.062962994 -0.07008933 -0.024577172 -0.012872221
-0.052886933 -0.09924214 -0.119543366 -0.11238862 -0.16566457 0.030637057 0.07738027 -0.10821049
-0.07722015 0.004040422 0.044206202 -0.20494986 0.02461821 0.08454228 0.10441102 0.028448971
-0.13133095 0.11792128 0.14458865 -0.21293806 -0.08100645 0.15339035 0.036378037 -0.055546615
0.087158345 0.013616781 -0.10627181 0.026076782 0.026649576 0.09336463 -0.101578005 0.098624185
0.21006146 -0.14512864 -0.012583739 -0.052445505 0.048573956 0.01859101 -0.11179282 0.046518523
-0.030869637 -0.015851991 -0.047504526 0.09698414 0.014885857 -0.025259774 0.02869164 0.0276217
0.11259123 -0.05035772 -0.03235986 -0.12549087 -0.08876481 -0.21047485 0.028734764 -0.14150004
-0.003931683 0.15892164 -0.036038622 -0.103041925 -0.07157701 -0.14045006 0.05130888 0.05364931
-0.15008724 0.032337397 0.08861657 0.16611116 -0.032230582 -0.121008694 0.12404964 -0.102462925
-0.036688793 -0.087571874 -0.08120339 0.07592225 0.10843234 -0.26168203 0.0030494262 0.042804424
-0.065563485 0.026697665 0.028822847 -0.14396062 0.10488843 0.018718166 0.02427328 -0.11718116
0.017525578 -0.056224182 -0.005606546 0.1675958 0.019027352 -0.14206004 0.058974274 0.04850995
0.05779013 -0.09800966 0.020353468 -0.16732332 -0.006693302 -0.054343816 -0.003090987 -0.1284395
0.011156539 0.01927639 0.017714532 0.050503343 -0.0289088 0.110340126 0.015878936 0.05805675
0.034458056 -0.11916307 -0.06828359 -0.0005003979 -0.04812147 -0.10410225 0.10620405 0.067028955
-0.051877312 0.043264285 0.036360126 -0.12732409 -0.021820223 0.15571718 -0.11917603 -0.09480924
0.030810138 -0.013233371 -0.08304769 0.046772573 0.04752496 0.032849714 0.010489576 0.07334532
0.15278853 -0.09834204 -0.034247797 0.015449173 0.14414898 0.22861345 0.24879967 -0.06272547
00000000: 639f 76bc c77f 26bd fba0 45be 716e debd
00000010: 6d3f 3ebe a651 b4bc c04f 94bd 9236 fbbd
00000020: bc08 9cbc 4971 1dbc 1917 40be 31b9 a6bc
00000030: ef61 c03b 7ef9 cc3d 3ad5 843d 7b0d a13d
00000040: 2b3b 02bd ee17 9bbc b96d 40bd cba3 603e
00000050: f040 173d 787c c0bd d8ec 8e3d cefc cabc
00000060: f3db bc3d 5756 8bbd 8163 b33d feb1 01bd
00000070: e783 c43d ca3a a23c e2d8 79bb 6755 123e
00000080: 92d5 b53d a6bb 5e3d b1a8 e23d a098 1a3d
00000090: abfa 303d 0c3a 80bb 9d02 733d 663a 2d3c
000000a0: 30db 9fbd 993e 1b3e 8ccc d6bb f003 c53c
000000b0: 13a2 1ebe 5298 47be 6fe7 27be cb99 6abd
000000c0: 4bbd 9b3d 9048 563d 8e7f e03d 3c80 b7bd
000000d0: 7a29 6cbd b69a 413d c26d 853e 44cf bcbd
000000e0: 4ac8 5abd c490 9a3d 79bd 85bc 1ceb 65bd
000000f0: 8a6d 1bbd 9412 f6bb 9ecf b8bd 105f 023c
00000100: c92f 7f3b f584 fc3d a762 a93c 67c1 9b3d
00000110: a6eb d73c d50e 5cbd feb3 ad3c f545 653d
00000120: c9f1 3abe b392 473c ffed f7bd ea3e 3b3d
00000130: 9ff7 3fbc cb77 8d3c f80f 593d 1fa1 b9bd
00000140: ca20 d43c 4f5c fb3b 9a46 af3c 8d81 6bbd
00000150: f566 78bd 079b 4f3d 9196 84bd ede4 cdbc
00000160: e683 71be 8818 07be ddbf a1bc 709d d33c
00000170: 7430 13bd c311 a4bd c627 003e bd0a 963d
00000180: 54ff 9f3c 833f 7c3d 9c26 1c3d e764 543b
00000190: 287e 953d 3632 3d3e 8f63 c23d 0146 343e
000001a0: 3346 22bd 8956 1a3d 5242 02be 35a0 c93c
000001b0: bef2 80bd ff8a 8fbd 1156 c9bc 02e6 52bc
000001c0: f89f 58bd 773f cbbd 27d3 f4bd 012c e6bd
000001d0: f9a3 29be 91fa fa3c 8c79 9e3d 769d ddbd
000001e0: 9925 9ebd 8465 843b 9011 353d 60de 51be
000001f0: 21ac c93c 8124 ad3d 72d5 d53d d10d e93c
00000200: 9f7b 06be b680 f13d 0c0f 143e 6f0c 5abe
00000210: b6e6 a5bd 5c12 1d3e 2301 153d d984 63bd
00000220: 1380 b23d eb18 5f3c 09a5 d9bd fa9e d53c
00000230: 3650 da3c f535 bf3d 2108 d0bd 7afb c93d
00000240: 5a1a 573e 9a9c 14be 072c 4ebc 19d1 56bd
00000250: 7cf5 463d 2c4c 983c a2f3 e4bd 358a 3e3d
00000260: 52e2 fcbc 09dc 81bc 1b94 42bd 9f9f c63d
00000270: cfe3 733c 96ed cebc bb0a eb3c e746 e23c
00000280: 3b96 e63d e643 4ebd c68b 04bd ae80 00be
00000290: 53ca b5bd b886 57be 2b65 eb3c 63e5 10be
000002a0: 59d5 80bb 5bbc 223e 3c9d 13bd a507 d3bd
000002b0: f896 92bd 24d2 0fbe 4329 523d 61bf 5b3d
000002c0: 78b0 19be 3874 043d 9b7c b53d 0b19 2a3e
000002d0: 3704 04bd 68d3 f7bd bd0d fe3d 15d8 d1bd
000002e0: fd46 16bd e258 b3bd f74d a6bd 207d 9b3d
000002f0: c611 de3d 30fb 85be e2d8 473b b153 2f3d
00000300: 2646 86bd 10b5 da3c e41d ec3c 6a6a 13be
00000310: bfcf d63d d756 993c c2d8 c63c adfc efbd
00000320: cd91 8f3c 544b 66bd 1eb7 b7bb 3c9e 2b3e
00000330: 40df 9b3c 3078 11be 028f 713d 5fb2 463d
00000340: 58b5 6c3d 4ab9 c8bd 51bc a63c ce56 2bbe
00000350: 7d53 dbbb 9f97 5ebd 2892 4abb a585 03be
00000360: ebc9 363c 85e9 9d3c 111e 913c 98dc 4e3d
00000370: 26d2 ecbc 01fa e13d 8b14 823c eacc 6d3d
00000380: e423 0d3d c50b f4bd 44d8 8bbd 222d 03ba
00000390: 051b 45bd 8f33 d5bd 8281 d93d 7a46 893d
000003a0: 4e7d 54bd e435 313d 5bee 143d 3f61 02be
000003b0: 53c0 b2bc 5374 1f3e 9012 f4bd 592b c2bd
000003c0: 8b65 fc3c c8d0 58bc e814 aabd 9994 3f3d
000003d0: 88a9 423d 6c8d 063d 78dc 2b3c 1236 963d
000003e0: 9974 1c3e 8d67 c9bd 6b47 0cbd 871e 7d3c
000003f0: ca9b 133e a519 6a3e 57c5 7e3e 3676 80bd

bottleneck.2.bias f4 [32]
0.025058433 0.046932496 0.03093244 -0.01422588 -0.008816913 -0.012954121 0.026150845 -0.0015452206
0.036870826 0.007027849 0.03469128 -0.036883663 -0.0377227 0.028713683 -0.013595013 0.026197117
0.032132667 -0.015112034 0.034592498 -0.014625524 0.028830564 0.00716957 -0.048889674 -0.0036816713
0.02841787 0.031364646 -0.034046523 0.029328812 0.006139249 -0.024500841 0.026823983 0.0072935997
00000000: 5847 cd3c 4a3c 403d 0766 fd3c aa13 69bc
00000010: d074 10bc 863d 54bc 4c3a d63c 0089 caba
00000020: dd05 173d df49 e63b 7218 0e3d 5313 17bd
00000030: 1e83 1abd f538 eb3c 9ebd 5ebc 569b d63c
00000040: 8b9d 033d 7798 77bc ddb0 0d3d e59f 6fbc
00000050: 132e ec3c b6ee ea3b 8a40 48bd 3248 71bb
00000060: 98cc e83c 3778 003d 5e74 0bbd fa42 f03c
00000070: c12b c93b fdb5 c8bc f8bd db3c 26ff ee3b

up1.weight f4 [32, 16, 2, 2]
0.07247044 0.058955956 -0.26674935 -0.02904379 -0.11455644 0.1113048 0.08424697 0.30698052
-0.18586817 -0.08045342 0.09694906 0.017888192 -0.07574551 0.07058668 0.11842808 -0.09191969
0.005396053 0.30037427 0.08266283 -0.07773343 0.03183119 -0.16497633 0.01606368 -0.08838293
0.13621579 0.115025416 -0.04186229 -0.09392713 0.021905163 -0.21248068 0.22832537 0.058304504
-0.22810248 0.11067391 -0.22218223 -0.08873004 0.049471047 -0.057876572 0.18582082 0.20090835
-0.119369425 0.19036554 0.08281345 0.13837042 0.009201916 0.10418256 -0.09260386 -0.023552794
0.098430604 -0.25012156 -0.032778647 0.082680345 0.03040872 -0.056865085 0.27975318 0.15270278
-0.117816575 -0.23408282 0.06725708 -0.035462845 0.0054815984 0.2209938 -0.09766586 0.046470612
-0.22665608 -0.18962641 -0.015082358 -0.12840152 -0.23991498 -0.10421487 -0.18820876 0.001315974
0.30020022 0.09253011 -0.04598146 -0.095850125 0.09406596 -0.029187335 0.083076976 -0.11019578
-0.14438778 -0.10130417 -0.055197574 -0.22911774 -0.021645676 -0.012539872 0.040905386 0.06580235
-0.13465911 -0.07867938 -0.17024213 -0.33216566 0.076491125 0.092359506 -0.18874009 -0.065285005
-0.19580741 -0.033488635 -0.24004781 0.13910015 0.0848669 0.1283325 0.10507623 0.015254359
-0.09875262 -0.22126766 0.00891475 0.060319137 -0.14441445 -0.013750466 0.23213637 0.0065918863
-0.08425402 0.078420915 0.045821957 0.078776926 0.11469048 0.026561715 0.20559052 -0.058637977
0.04282361 0.17193635 -0.06595199 -0.097469814 -0.195198 -0.1294564 -0.24018171 -0.056576524
-0.02986284 -0.061427124 -0.11704294 0.25482985 -0.001417801 -0.05646584 -0.14934051 -0.08630243
0.045589935 0.071021564 0.2197093 0.25023365 0.109381884 0.07573904 0.33029455 -0.012002769
-0.051415484 -0.019563712 -0.21044067 -0.20115805 -0.018312631 0.0337286 -0.07391932 -0.033640243
0.041868825 0.13157296 -0.037458267 -0.15117207 -0.41773582 -0.04473527 -0.08543431 -0.029590765
0.19003505 -0.0157872 -0.1546748 0.34038016 0.104475945 0.11327011 0.19888212 -0.05861142
0.034806143 0.0023277197 0.029752389 -0.06274429 0.045022685 -0.079097286 0.09140858 -0.092658676
-0.021359194 0.026256822 -0.040304683 0.25857642 -0.03145123 -0.01243202 0.002540937 0.2819175
-0.10190958 0.13258074 -0.06691583 -0.16366899 0.10507444 -0.11762786 -0.048067827 -0.15272522
-0.0903833 0.04818287 0.03585047 0.10340353 0.10853743 0.14043579 -0.2777564 0.08406025
-0.14950392 -0.18111336 -0.052243777 0.09431969 -0.29448575 -0.0035211842 0.06601042 0.16323818
0.081076674 -0.108357206 0.12928267 -0.05749834 -0.012227126 -0.014979833 0.07973094 0.09542257
-0.03117902 -0.007658948 0.36051947 0.026069412 -0.026620954 0.12453979 0.02180916 -0.06116301
-0.004961805 -0.018702539 0.02835867 -0.059401628 0.088800535 -0.20637095 0.056928128 0.21911813
-0.09961428 -0.03609346 0.14064789 -0.19675857 0.0302763 -0.15924193 0.07577601 0.07935598
-0.024273796 0.10768984 0.121092364 -0.13243876 0.12789047 -0.026552957 0.13163981 -0.13914949
0.24129225 -0.058588434 0.12246731 -0.05673258 -0.15671754 0.0812549 0.08418682 0.028705947
00000000: 626b 943d cd7b 713d 5f93 88be 3eed edbc
00000010: 919c eabd c5f3 e33d ad89 ac3d 8d2c 9d3e
00000020: 3a54 3ebe c3c4 a4bd 3b8d c63d 428a 923c
00000030: 7620 9bbd c08f 903d 6c8a f23d 6440 bcbd
00000040: 60d1 b03b a8ca 993e 214b a93d b432 9fbd
00000050: 6c61 023d 8eef 28be fb97 833c 1c02 b5bd
00000060: 277c 0b3e 7292 eb3d cb77 2bbd de5c c0bd
00000070: 7572 b33c 8994 59be 20ce 693e b4d0 6e3d
00000080: b293 69be 01a9 e23d bd83 63be 18b8 b5bd
00000090: 27a2 4a3d fc0f 6dbd d047 3e3e ebba 4d3e
000000a0: f577 f4bd 2fef 423e 199a a93d fab0 0d3e
000000b0: a2c3 163c ab5d d53d 18a7 bdbd caf1 c0bc
000000c0: fc95 c93d ef0f 80be e742 06bd 5054 a93d
000000d0: b51b f93c 5deb 68bd cf3b 8f3e 1e5e 1c3e
000000e0: d149 f1bd 68b3 6fbe 14be 893d 7d41 11bd
000000f0: fb9e b33b 334c 623e 0a05 c8bd f857 3e3d
00000100: 8818 68be 6d2d 42be ff1b 77bc b07b 03be
00000110: 46ac 75be 9b6e d5bd ccb9 40be c37c ac3a
00000120: d8b3 993e 6d80 bd3d 0e57 3cbd 124d c4bd
00000130: a7a5 c03d 471a efbc 4324 aa3d 53ae e1bd
00000140: 64da 13be 9078 cfbd da16 62bd d79d 6abe
00000150: 4652 b1bc 0974 4dbc 688c 273d 62c3 863d
00000160: 14e4 09be a822 a1bd f453 2ebe 9e11 aabe
00000170: 61a7 9c3d fb26 bd3d 1545 41be 25b4 85bd
00000180: bd81 48be 612b 09bd 18cf 75be 4570 0e3e
00000190: b3ce ad3d 9869 033e 3532 d73d 6bed 793c
000001a0: d03e cabd fd93 62be 2c0f 123c 3311 773d
000001b0: 62e1 13be a249 61bc 28b5 6d3e c000 d83b
000001c0: 5f8d acbd 259b a03d ceaf 3b3d cc55 a13d
000001d0: d8e2 ea3d f497 d93c 5286 523e 602e 70bd
000001e0: cf67 2f3d 1510 303e d611 87bd 419e c7bd
000001f0: fce1 47be 3890 04be 32f2 75be c9bc 67bd
00000200: eaa2 f4bc 029b 7bbd 35b4 efbd 0f79 823e
00000210: 82d5 b9ba ba48 67bd b8ec 18be 54bf b0bd
00000220: 83bc 3a3d c173 913d 7afb 603e a01e 803e
00000230: 9c03 e03d 121d 9b3d 5e1c a93e 43a7 44bc
00000240: 0b99 52bd 1444 a0bc c27d 57be 60fc 4dbe
00000250: 5f04 96bc 0027 0a3d 0363 97bd 5aca 09bd
00000260: a57e 2b3d 10bb 063e d76d 19bd dacc 1abe
00000270: 78e1 d5be 553c 37bd 2ff8 aebd 5568 f2bc
00000280: 8c98 423e 2854 81bc 1263 1ebe 4f46 ae3e
00000290: 7cf7 d53d 29fa e73d c1a7 4b3e 8712 70bd
000002a0: e390 0e3d a88c 183b 48bb f33c 1480 80bd
000002b0: b569 383d c2fd a1bd 6c34 bb3d d5c3 bdbd
000002c0: 7af9 aebc 8c18 d73c 8616 25bd 2164 843e
000002d0: 01d3 00bd acaf 4bbc d985 263b 7e57 903e
000002e0: f8b5 d0bd 3fc3 073e 2b0b 89bd d898 27be
000002f0: 4531 d73d e0e6 f0bd c5e2 44bd 0064 1cbe
00000300: e11a b9bd 675b 453d f1d7 123d 3bc5 d33d
00000310: df48 de3d 66ce 0f3e 1636 8ebe c827 ac3d
00000320: 8e17 19be c875 39be 92fd 55bd ae2a c13d
00000330: d6c6 96be abc3 66bb 7930 873d e927 273e
00000340: 870b a63d 62ea ddbd ad62 043e 6183 6bbd
00000350: 4954 48bc f96d 75bc fa49 a33d e96c c33d
00000360: 256b ffbc eaf7 fabb 0296 b83e 858f d53c
00000370: 3014 dabc b80e ff3d 20a9 b23c 1086 7abd
00000380: a396 a2bb 1136 99bc 7150 e83c 1f4f 73bd
00000390: 0edd b53d e852 53be 782d 693d 8160 603e
000003a0: 9202 ccbd bcd6 13bd 0006 103e 147b 49be
000003b0: 0106 f83c 5110 23be 7430 9b3d 6385 a23d
000003c0: d7d9 c6bc 7e8c dc3d 46ff f73d 079e 07be
000003d0: b8f5 023e 9685 d9bc 96cc 063e 347d 0ebe
000003e0: 5115 773e 6dfa 6fbd 24d0 fa3d 6c60 68bd
000003f0: 907a 20be f868 a63d 246a ac3d bc28 eb3c

up1.bias f4 [16]
0.017745197 -0.031565994 0.026610984 -0.0357692 -0.02720598 -0.030617232 -0.028082356 -0.028897978
-0.023461318 0.024186688 -0.016843548 0.02555229 0.02645971 0.025500566 -0.02716463 -0.024500377
00000000: 605e 913c 584b 01bd 47ff d93c ba82 12bd
00000010: 13df debc fdd0 fabc f80c e6bc 74bb ecbc
00000020: f331 c0bc 2923 c63c 7bfb 89bc 0953 d13c
00000030: 09c2 d83c 90e6 d03c 5c88 debc 04b5 c8bc

dec1.0.weight f4 [16, 32, 3, 3]
0.07070348 0.092794135 0.08271032 0.095986575 0.12173301 -0.08510124 0.05155419 0.14531766
-0.24442515 0.027271511 -0.06831093 0.009443671 -0.20500778 0.10558966 0.20205404 -0.08623171
0.017538475 0.02121767 0.026555419 -0.10633409 0.16371669 0.06894057 0.022654016 0.05815937
-0.10518841 -0.0037830903 0.27087045 -0.11284412 0.01014256 -0.20946059 -0.25320312 -0.01788771
-0.12757392 -0.10699654 0.0435396 0.11176071 0.03358509 0.2043816 -0.03395817 6.327376e-05
-0.053492617 0.0116375135 -0.028630165 -0.09507669 0.20189466 0.0074153235 0.1225647 0.10472377
0.09038987 0.09934311 0.08480415 0.011569361 0.04152884 0.01741307 -0.0934087 0.12886797
-0.038535528 -0.14242268 0.12140421 0.0899417 0.17515837 0.12259847 -0.04020839 -0.07896839
-0.11007358 -0.26085183 -0.27676076 -0.0022236358 -0.020013222 -0.19219743 -0.06778789 -0.21363679
0.034446448 -0.17843689 0.24127325 0.04076535 -0.098539434 0.22809379 -0.25701427 -0.23897019
0.1729496 0.21621673 0.18642266 0.034295656 -0.047107384 0.08202219 -0.026985856 0.022054307
-0.0053238147 0.109521 0.06122649 -0.083659165 -0.08364883 0.14945187 -0.15276259 0.12505801
-0.111058936 -0.039193302 -0.12713912 -0.08102167 -0.054147467 0.30496764 -0.17910965 0.13252643
0.08238505 0.28127968 -0.1102355 0.05728 -0.002621871 -0.09564374 -0.19109742 -0.0020233786
0.016684271 0.10224856 0.027180107 0.05943232 -0.10730115 0.12770073 -0.32804796 -0.10835195
-0.108024955 -0.055385944 0.026166465 -0.2364453 0.077632904 0.19367783 -0.010878806 -9.7794604e-05
0.055116802 -0.18839449 -0.043143857 0.027128661 0.17389746 0.040948994 -0.005405331 0.16096236
-0.19878547 -0.07521633 0.07226267 0.004272078 -0.023287995 0.025571225 0.37534025 0.08584369
-0.028818449 0.120242365 -0.048643056 -0.040681396 -0.01647623 -0.12687741 0.06890761 0.009282552
-0.1914975 0.069578454 -0.14540769 0.09847728 -0.041722536 -0.082363464 0.11901036 0.10175927
-0.059514686 -0.052819617 0.013148395 0.18115003 0.075444296 0.06681451 0.24020638 0.17648347
0.009289277 -0.018996561 -0.032056756 -0.03968825 0.07599458 -0.003041759 0.020452602 0.10078238
0.023400059 -0.24620901 0.09036137 -0.08712758 0.09984927 -0.06848258 -0.036928006 0.094262846
0.052855697 0.21444386 -0.07022851 -0.06562509 -0.22957467 -0.09890621 -0.2183673 0.058400698
-0.03696064 -0.009559203 -0.13914007 0.284673 -0.02957518 -0.056131743 -0.074561164 -0.18719234
-0.17262332 -0.036791652 -0.13855354 -0.09308306 -0.024040133 0.12299479 0.03862231 -0.07557164
-0.10648082 -0.120121926 -0.1393176 0.14523247 -0.10824216 -0.0051411986 0.20147271 0.07576512
-0.1438565 -0.05920254 -0.11631923 0.020203674 -0.13215713 0.1489161 -0.10043742 -0.044480912
-0.013023431 -0.16813327 -0.030674698 0.2868097 0.16586249 0.10487323 0.010047823 0.0062853964
0.11981222 0.04171921 -0.29943073 -0.082352005 0.16982196 -0.1781778 0.0063117924 -0.023382595
0.11752663 -0.26186466 0.07429302 -0.24272317 -0.010159628 0.04475062 0.08087427 -0.09951732
-0.1042708 0.09463054 0.024387792 -0.049014736 -0.08959515 0.07281966 0.012333246 -0.12833042
00000000: fccc 903d da0a be3d 0764 a93d 9c94 c43d
00000010: 284f f93d 8f49 aebd 7d2a 533d 27ce 143e
00000020: 964a 7abe 8168 df3c 9ae6 8bbd a1b9 1a3c
00000030: 8fed 51be 643f d83d 41e7 4e3e 409a b0bd
00000040: d9ac 8f3c aed0 ad3c c08a d93c b0c5 d9bd
00000050: 59a5 273e b730 8d3d ea94 b93c 8538 6e3d
00000060: 056d d7bd b9ed 77bb 88af 8a3e d11a e7bd
00000070: fb2c 263c d67c 56be d7a3 81be 3f89 92bc
00000080: bda2 02be 0121 dbbd 9456 323d cde2 e43d
00000090: 8590 093d 6949 513e b917 0bbd d7b1 8438
000000a0: 131b 5bbd 45ab 3e3c cf89 eabc 91b7 c2bd
000000b0: 79bd 4e3e 3efc f23b 3403 fb3d 6a79 d63d
000000c0: 531e b93d 6774 cb3d ccad ad3d 6b8d 3d3c
000000d0: 251a 2a3d dba5 8e3c 0f4d bfbd f7f5 033e
000000e0: 6ed7 1dbd 40d7 11be c5a2 f83d 5b33 b83d
000000f0: b75c 333e e814 fb3d 8eb1 24bd 2eba a1bd
00000100: 426e e1bd 5f8e 85be 96b3 8dbe 6bba 11bb
00000110: c5f2 a3bc 67cf 44be 61d4 8abd 9ac3 5abe
00000120: b817 0d3d 29b8 36be 5610 773e 91f9 263d
00000130: 0bcf c9bd 6b91 693e 6097 83be 9ab4 74be
00000140: b319 313e eb67 5d3e 95e5 3e3e 9a79 0c3d
00000150: acf3 40bd 40fb a73d 7111 ddbc 3cab b43c
00000160: 6573 aebb 8c4c e03d a1c8 7a3d 7f55 abbd
00000170: 1450 abbd e909 193e cc6d 1cbe 350f 003e
00000180: de72 e3bd 2889 20bd c230 02be b0ee a5bd
00000190: bcc9 5dbd b824 9c3e 8568 37be 02b5 073e
000001a0: 7eb9 a83d e403 903e 26c3 e1bd 6f9e 6a3d
000001b0: b2d3 2bbb dde0 c3bd 0baf 43be a99a 04bb
000001c0: 74ad 883c b167 d13d d1a8 de3c 4e6f 733d
000001d0: b5c0 dbbd fbc3 023e e7f5 a7be a1e7 ddbd
000001e0: 303c ddbd 5fdc 62bd 0e5b d63c b71e 72be
000001f0: 00fe 9e3d 7b53 463e 053d 32bc 1417 cdb8
00000200: 28c2 613d 7cea 40be 9db7 30bd ed3c de3c
00000210: 2d12 323e 22ba 273d 341f b1bb 51d3 243e
00000220: 6b8e 4bbe 050b 9abd 73fe 933d cafc 8b3b
00000230: 77c6 bebc bf7a d13c 992c c03e d1ce af3d
00000240: ab14 ecbc a141 f63d f13d 47bd 89a1 26bd
00000250: 29f9 86bc 27ec 01be 6f1f 8d3d d815 183c
00000260: ec17 44be 267f 8e3d c1e5 14be 75ae c93d
00000270: 40e5 2abd 2dae a8bd b4bb f33d 2a67 d03d
00000280: acc5 73bd 6259 58bd 5e6c 573c 657f 393e
00000290: 8a82 9a3d 0cd6 883d a9f8 753e 15b8 343e
000002a0: 0d32 183c ad9e 9bbc f24d 03bd 2590 22bd
000002b0: 0ca3 9b3d 3f58 47bb 378c a73c fe66 ce3d
000002c0: 7bb1 bf3c 371e 7cbe 620f b93d f26f b2bd
000002d0: c67d cc3d 9840 8cbd d241 17bd e10c c13d
000002e0: 377f 583d 2c97 5b3e f7d3 8fbd 7266 86bd
000002f0: 9f15 6bbe 578f cabd ad9b 5fbe 9235 6f3d
00000300: 0a64 17bd 349e 1cbc bc7a 0ebe a9c0 913e
00000310: a647 f2bc 66ea 65bd 86b3 98bd 59af 3fbe
00000320: 2bc4 30be d8b2 16bd fbe0 0dbe 55a2 bebd
00000330: d0ef c4bc b1e4 fb3d 6d32 1e3d 4ec5 9abd
00000340: 9e12 dabd 7c02 f6bd 46a9 0ebe d2b7 143e
00000350: 11ae ddbd 8077 a8bb dd4e 4e3e be2a 9b3d
00000360: 1e4f 13be 5d7e 72bd c738 eebd 2d82 a53c
00000370: 3354 07be 767d 183e 22b2 cdbd 9e31 36bd
00000380: 3b60 55bc 212b 2cbe 8149 fbbc b9d8 923e
00000390: dbd7 293e c7c7 d63d a09f 243c baf5 cd3b
000003a0: 1c60 f53d c3e1 2a3d fc4e 99be 2ba8 a8bd
000003b0: cfe5 2d3e 3e74 36be 27d3 ce3b db8c bfbc
000003c0: cdb1 f03d 2013 86be f026 983d 6c8c 78be
000003d0: 9174 26bc 6d4c 373d 69a1 a53d bdcf cbbd
000003e0: ee8b d5bd a8cd c13d e8c8 c73c adc3 48bd
000003f0: a97d b7bd 7922 953d 6211 4a3c 0d69 03be

dec1.0.bias f4 [16]
0.021708455 0.02458955 0.028216846 0.029130287 -0.02365087 -0.03229981 0.022436535 0.023091113
0.002469339 -0.0009412435 0.004139209 -0.009133601 -0.015608994 0.022440396 -0.0045891204 0.023146186
00000000: eed5 b13c 0670 c93c 0427 e73c a4a2 ee3c
00000010: 78bf c1bc ce4c 04bd d3cc b73c 9329 bd3c
00000020: a2d4 213b c8bd 76ba 34a2 873b 19a5 15bc
00000030: debc 7fbc ecd4 b73c 5560 96bb 129d bd3c
