sampling_based_planning_framework/checkpoints/checkpoint_epoch_89.pth (torch, 386930 bytes, 75 tensors)

enc1.0.weight f4 [8, 1, 3, 3]
000000 0e 21 dd bd e0 d0 d4 3d 98 6f 96 3d 43 9f 13 3e
       -0.1079732 0.10391402 0.073455036 0.14416222
000010 43 3d f1 bd 77 a8 ae 3d f5 61 e6 3c 5e e2 3a be
       -0.11779263 0.08528226 0.028122881 -0.18250415
000020 bd 93 97 bd dd 3f 0f 3e 3a b2 e8 bd 61 e1 3a 3d
       -0.07401226 0.13989206 -0.11362119 0.045625094
000030 b0 be 7f 3e 31 73 b0 bd 43 1f 19 3e b7 f5 8f bd
       0.24975085 -0.08615721 0.14953332 -0.07029288
000040 c1 ec 29 3e 58 4f c2 bd b6 ff 2c 3e f6 77 48 be
       0.1659422 -0.0948779 0.16894421 -0.19577011
000050 81 8a 4e be b5 49 2e 3e f3 70 d9 bd fd b1 22 be
       -0.20170023 0.17020305 -0.106172465 -0.1588821
000060 73 75 be be ad 76 51 be 6a 6f 03 be 67 f5 6d 3d
       -0.37198982 -0.20455427 -0.1283547 0.058095362
000070 ce 31 03 3d 40 b4 64 be 95 ac 63 3d 2e 55 3f 3e
       0.03202992 -0.22334385 0.05558451 0.18684837
000080 4c 1d ba 3e 24 0a c3 bc ac 1d f7 37 e1 d6 4f bc
       0.36350477 -0.023808546 2.9458512e-05 -0.0126855085
000090 65 3c f7 bd b8 9f 81 3d 30 54 a9 bd 08 bb 92 be
       -0.12072066 0.06329292 -0.082680106 -0.2865832
0000a0 00 fe 68 3e fa 71 6b bd a1 c7 6b bd af 2c d9 3d
       0.22753143 -0.057481743 -0.057563428 0.10604226
0000b0 14 3d a6 be 58 b8 62 3e 10 41 6c 3e 83 0a 92 3b
       -0.32468474 0.22140634 0.23071694 0.0044568195
0000c0 1b 8c bf 3e 16 96 97 bd d2 18 ad bd 57 3c ca 3d
       0.3741158 -0.074016735 -0.08452 0.0987479
0000d0 01 cd 27 be 31 50 80 be 30 05 37 3c 8d cb 58 3d
       -0.16386797 -0.2506118 0.01117067 0.052928496
0000e0 e4 0a ea 3d 1c 3d 06 3e 28 b0 f7 bd 09 27 fc 3e
       0.114278585 0.13109249 -0.12094146 0.4924853
0000f0 49 a9 28 bd c0 97 f8 3d cf 39 fc 3d 56 e0 12 3e
       -0.041177068 0.12138319 0.123157136 0.1434339
000100 4e d9 ae be f7 43 ba 3d 4f 65 2d be de ca b9 bd
       -0.34150165 0.090949945 -0.16933177 -0.09071897
000110 61 fa 52 3e b3 e8 88 3d c1 5f ee bd bf d7 76 3d
       0.20603324 0.06685009 -0.11639357 0.060264345

enc1.0.bias f4 [8]
000000 b8 0b 15 3d c5 dd 86 39 15 b5 04 3d 73 26 b0 ba
       0.03638813 0.00025723703 0.032399256 -0.0013439193
000010 f7 6e 6b 3d c8 43 e1 3a 2e 0d 90 3b f6 d0 93 ba
       0.05747887 0.0017186338 0.0043961024 -0.0011277485

enc1.2.weight f4 [8, 8, 3, 3]
000000 b0 50 15 3d 53 ec 7f 3d 9d 3f ad bd 39 9e 82 be
       0.036453903 0.062481236 -0.08459399 -0.2551134
000010 c5 7d fd 3e 91 35 2e 3e ab 43 4b bc d5 8b f1 bc
       0.49510017 0.17012621 -0.01240627 -0.029485622
000020 fc c1 d1 bc 81 ed 8e bd 96 c3 b0 bd e4 0a ab bd
       -0.025605194 -0.06978894 -0.08631055 -0.083516866
000030 3a e2 e9 ba 22 7c b5 bd e8 fe 42 3e f2 74 3b 3e
       -0.001784391 -0.08861567 0.19042552 0.1830633
000040 b4 ae 3a 3e 58 c9 89 be 2e 83 92 3d ca 5e 20 3e
       0.18230706 -0.26911426 0.07153927 0.15661159
000050 40 5e cf 3d 68 c6 b3 bd 56 99 02 3e 03 a7 d8 bd
       0.10125399 -0.08778077 0.12753806 -0.1057873
000060 a2 14 48 be 5d 50 1e 3e 7d e5 86 3d de b5 e5 3b
       -0.19539121 0.15460344 0.0658674 0.0070102056
000070 d8 37 de 3d 5f ad 95 be a3 62 68 3e 20 d1 ca bb
       0.10850495 -0.29233834 0.22693877 -0.0061894804
000080 55 4f 32 3d 84 48 59 3b 28 0e 84 3d d3 0a 4b be
       0.04353269 0.0033154795 0.064480126 -0.19828348
000090 f9 63 20 3d 0e 6b 9a 3d ad d3 20 3e 9e c3 21 be
       0.03915784 0.0753995 0.15705748 -0.15797278
0000a0 40 5f 00 3d fc 62 8f 3c 6f 3a fa ba ec fd 61 bd
       0.031340837 0.017503254 -0.0019090901 -0.0551738
0000b0 64 89 07 3e a5 1e 2a 3d 5c c3 93 be 47 f2 9c 3d
       0.13236004 0.04153313 -0.28859985 0.07663398
0000c0 55 3b 88 3c 38 72 a5 3e ad 59 ed bd c7 8b 48 3e
       0.016629854 0.32313704 -0.1158937 0.19584571
0000d0 02 3c 17 be af fd ee bd 93 2e a2 bd 46 fb 3a 3e
       -0.14768985 -0.1166948 -0.079190396 0.18259916
0000e0 c5 da ad bc 57 1a 46 3e 26 cf 9e bd 2d 8c 45 bc
       -0.021222482 0.19345985 -0.07754354 -0.012057346
0000f0 e5 af 8b 3d 60 d7 f3 be a0 bf e2 bd 96 d0 b4 bb
       0.068206586 -0.47625256 -0.11071706 -0.0055180294
000100 e7 5a e7 3b df 02 60 3e d8 8b 7b bd d2 86 ad bd
       0.007060397 0.21876095 -0.061412662 -0.084729806
000110 38 cd c4 3d a2 56 4c 3e 54 1b 2f bc 5a 33 ca bd
       0.09609455 0.19954923 -0.010687668 -0.09873076
000120 28 a5 3d be 75 06 34 3d 00 79 60 3c 07 1b 08 3e
       -0.18520033 0.04395147 0.013700724 0.1329156
000130 20 39 17 3e e9 97 09 3e 78 3c 0e be 26 36 46 3e
       0.14767885 0.13436855 -0.13890254 0.19356593
000140 b1 49 5c be 35 41 23 3d c5 11 8b 3e e5 9a ad bd
       -0.21512486 0.03985711 0.27161995 -0.084768094
000150 c4 3a 38 3e ee 51 6c 3d 9a 0d 37 3e 12 d9 54 bd
       0.17991167 0.05769532 0.17876282 -0.051964827
000160 ac b6 77 be 2e 5a 17 3e c6 b7 61 3c 4a 98 95 be
       -0.24190778 0.14780495 0.013776725 -0.2921775
000170 f2 d3 8b 3e 4b 97 91 bc 7f 63 16 3e c4 a7 25 3e
       0.2731014 -0.017772337 0.14686392 0.16177279
000180 29 61 bc ba 7a 1f 08 3e 82 1d 0a be ae 41 d8 bc
       -0.0014372218 0.13293257 -0.13487819 -0.026398506
000190 61 de be bd a5 9f 36 3e 4d 1f ff 3e 76 d0 f9 3c
       -0.09319759 0.17834337 0.49828568 0.03049491
0001a0 85 eb bb 3c eb d5 da 3d 28 ce 09 3f 34 88 b6 3d
       0.022939453 0.10685333 0.53830194 0.089126974
0001b0 12 56 98 be 88 42 df 3c ed 3e 12 bd 1a 8e b1 be
       -0.29753166 0.027253404 -0.035704542 -0.34678727
0001c0 73 ea 10 3e e2 e3 53 be 53 ba b1 bd 24 90 1b 3e
       0.14151935 -0.20692399 -0.08678117 0.15191704
0001d0 2c db a1 3e c5 fa 98 bd 70 b6 95 bd 62 34 87 3c
       0.31612527 -0.074697055 -0.07310188 0.01650447
0001e0 dd b3 82 3d 2a 14 5f 3e e5 b2 f8 3d 8c 9d 65 bb
       0.063819624 0.21785036 0.121434964 -0.0035036532
0001f0 e0 10 03 bd f3 50 27 bd 1f 0d 77 3e f5 a8 7b 3c
       -0.031998515 -0.040848684 0.24126099 0.015360107
000200 82 b6 90 be b7 50 94 3e 4b d3 62 3e 0e 2b af bd
       -0.28264242 0.2896783 0.22150914 -0.08553134
000210 e3 f7 ca 3e 96 47 7d 3e 7f 9f 38 3d df aa 2c bd
       0.39642248 0.24734339 0.045073982 -0.042155143
000220 26 ce 98 3e da b1 17 3e 86 bd 91 3e 73 dc a9 3e
       0.2984478 0.14813939 0.28464907 0.33176002
000230 52 d8 4d 3e f3 27 0f 3e a5 e8 05 be 9d ca 30 3e
       0.20102051 0.13980083 -0.13077028 0.17264791
000240 09 cd b2 3d de 6c 59 3e 9b f6 ed 3c ce f8 56 3e
       0.087305136 0.21232936 0.029048255 0.20993349
000250 73 54 b8 3d 03 cf ac bd e2 e9 d4 3d 72 b1 0b 3f
       0.090004824 -0.08437922 0.10396172 0.54567635
000260 9d 65 f5 bd a9 ca b3 be 84 6c 0f bd 0a 3f c6 3d
       -0.11982272 -0.35115555 -0.035015598 0.096799925
000270 e5 c7 4f 3e 6a 81 9a bc f8 c9 00 bd d4 dc b2 3d
       0.20291097 -0.018860538 -0.031442612 0.08733526
000280 57 6d e7 be 79 32 23 be be 4f 4b be c2 d3 74 bd
       -0.45200607 -0.15937223 -0.19854638 -0.05977226
000290 90 d9 af be 61 6d eb 3d 29 33 9b 3d a6 57 84 3e
       -0.34345675 0.11495472 0.075781174 0.2584812
0002a0 28 52 02 3d a0 60 34 3e cf 0f a9 bd 7b 8d 9c 3e
       0.03181663 0.17614985 -0.082549684 0.3057669
0002b0 4d 37 df 3c 14 dd 31 bd e8 3f cd ba 93 26 ef 3d
       0.02724805 -0.043423727 -0.0015659304 0.11677279
0002c0 5c 4a 16 3e 15 ed 85 be d7 3a 40 be 39 95 69 bd
       0.14676803 -0.26157442 -0.18772446 -0.057027075
0002d0 78 8b 53 3e 78 8f 31 be db 8b b7 3e 0a 9a 77 be
       0.20658672 -0.17339885 0.3584889 -0.24179855
0002e0 19 2a 52 bd ea 81 03 3e d8 83 60 be 07 31 da bb
       -0.05130968 0.12842527 -0.21925294 -0.0066586765
0002f0 c2 90 95 bb 6d 6f b9 bd e5 d4 d5 be 3e 66 95 3e
       -0.0045643756 -0.09054456 -0.41763988 0.29179567
000300 16 bb ef 3d eb 61 a3 be d9 da a3 be ae cc e4 3c
       0.11705606 -0.31910643 -0.32002905 0.02792963
000310 a2 9e c5 be 6c d5 1f 3d 64 5c 95 3d 0d 96 34 bc
       -0.3859759 0.039021894 0.07293013 -0.011022103
000320 65 48 ce bd 3b 67 93 be 9a e6 a9 3e fd 37 db 3d
       -0.10072402 -0.28789696 0.33183748 0.10704038
000330 06 39 8b be ac fe a6 bd 5b 8f 40 3e c5 b9 f1 3d
       -0.27191943 -0.081540436 0.18804686 0.11803011
000340 10 c1 0f bd 3c 74 a0 bc 07 7f 88 3e d2 6e ae bd
       -0.035096228 -0.019586675 0.26659414 -0.08517231
000350 5c ad c8 bd 5c 92 e6 3d dc cd e3 3d 98 dd 83 be
       -0.09798691 0.112583846 0.11123249 -0.25755
000360 7f e2 ee 3c 01 a7 6e 3e d1 96 d6 3b a6 86 73 bd
       0.029160736 0.23305894 0.0065487404 -0.059454583
000370 40 c3 25 3c 9e ef 52 be 52 20 32 3e ae 2f 1f 3d
       0.010117352 -0.20599219 0.17395142 0.03886383
000380 68 6c 2f 3d eb 9c cc be 64 c1 a0 be cb fb 54 be
       0.042827994 -0.3996347 -0.31397545 -0.20799176
000390 84 cc ac bc ee b0 85 be ab 34 92 bd 6e 01 95 3e
       -0.021093614 -0.2611155 -0.07138952 0.29102653
0003a0 9d 7e 13 3e 19 96 07 3e 62 d0 8c bc 71 d0 82 3d
       0.14403768 0.13240851 -0.017189208 0.06387413
0003b0 f6 0d 0a 3d ff 26 c9 bd b9 eb 21 bd da 70 b9 3d
       0.03370472 -0.09821891 -0.039531443 0.09054728
0003c0 49 9e 93 3d e0 f7 4d 3e 84 b5 52 be 49 d7 1d bd
       0.07207925 0.20114088 -0.20577055 -0.03853539
0003d0 c7 61 56 3d 16 0e d1 3d 8b ee c4 be 22 82 58 be
       0.05233934 0.10207765 -0.38463244 -0.21143392
0003e0 2e 7f d4 3c 14 4c c2 3d 45 66 17 3e 3e 8f fd 3d
       0.02593955 0.09487167 0.14785106 0.12380837
0003f0 5f a2 b6 3e cb 64 58 bd 2d c0 0c be d3 37 6f be
       0.35670754 -0.0528305 -0.13745184 -0.23361139

enc1.2.bias f4 [8]
000000 dc b8 0d bd c2 7d 3c b9 af 36 25 3d 40 20 44 bc
       -0.034600124 -0.00017975926 0.040335353 -0.01197058
000010 fd 13 8a 3b a9 2e 0f 3d 52 ff f3 3c 26 ad 14 3c
       0.0042138086 0.034956608 0.029784832 0.009074485

enc2.0.weight f4 [16, 8, 3, 3]
000000 9b f9 2c 3c 00 64 1a bd 64 c6 8b bc 82 32 13 be
       0.010557557 -0.037693024 -0.017062373 -0.14374736
000010 3b e8 3f be d4 7a b0 3d bb b0 6d 3d 13 60 a2 bd
       -0.18740933 0.086171776 0.05802987 -0.07928481
000020 97 6a 79 3e 17 f2 17 3a 13 72 5a 3d d6 c4 3d bd
       0.24357067 0.0005796267 0.053331446 -0.046330296
000030 ad f7 62 be 5f 88 a5 3d c6 9f 6e bd 6c f7 b8 bd
       -0.22164793 0.08082651 -0.05825784 -0.09031567
000040 07 3e 3f bd 34 e4 36 3e 2e fb 2c 3c 7c d2 f7 3d
       -0.046690013 0.1786049 0.010557933 0.121006936
000050 ff 52 1a be fc 5d 33 bd fd 0b 7b bc dc 96 fc bd
       -0.15070723 -0.043790802 -0.015322682 -0.12333462
000060 78 c8 b0 3d b3 5c 86 3e 0a c0 ee 3d e8 3e 45 bd
       0.086319864 0.262426 0.11657722 -0.048155695
000070 2c 98 bd 3d 60 d0 cc 3d 6c c9 ea bc c2 fc 32 be
       0.0925754 0.10000682 -0.028660499 -0.17479232
000080 bc f9 fb bb 5e 94 3d be b5 d4 1f be e5 86 a8 bd
       -0.0076896828 -0.18513629 -0.15608485 -0.08228854
000090 cc 04 12 3e 9f 5e db bc 3f 50 4c be 48 f9 0a bd
       0.14259642 -0.026778517 -0.19952486 -0.03392914
0000a0 21 45 61 3d 37 44 24 bd 26 af f2 bd 9e 00 ea bd
       0.054997567 -0.040104117 -0.11849813 -0.11425899
0000b0 c5 91 66 3d 4c 8f 82 3d b8 06 63 3d 21 01 0d 3e
       0.05629136 0.06374988 0.05542633 0.13769962
0000c0 fc a0 65 3e 96 41 01 bd c4 81 14 3e 2b cf 32 3e
       0.22424692 -0.03155669 0.14502627 0.17461841
0000d0 56 bd 05 bd c3 62 f1 3d 4c 59 3d 3e a2 24 50 bd
       -0.032651268 0.117864154 0.18491095 -0.050816186
0000e0 71 99 a0 be 45 4e 38 be 02 6b 4d 3e 44 09 8d bd
       -0.31367067 -0.17998607 0.20060351 -0.06886533
0000f0 29 46 bb 3d 73 6f 59 3e ff 01 3b 3e ce 65 3b 3b
       0.09144241 0.21233921 0.1826248 0.0028594616
000100 3c 1a 2c be 2a 26 c3 3c 76 09 ea bc ea 9a b8 bb
       -0.16806883 0.023821909 -0.028568964 -0.0056337016
000110 29 9b cd 3d 69 8a e1 bd 4f d7 37 be 7a 28 05 bb
       0.1003936 -0.11012728 -0.17953227 -0.0020318315
000120 68 ad cf bb 85 8f 17 3d 74 6e 85 bc cb c7 8b bd
       -0.0063378103 0.037002105 -0.01628802 -0.06825217
000130 03 c5 87 bc 51 04 e1 bd b8 94 5e bd 2c de 80 3c
       -0.016573435 -0.109871514 -0.054341048 0.01573094
000140 a2 a7 fe 3d fd dd 3e bd 7c d3 48 3b 3a 59 8d 3e
       0.12434317 -0.046598423 0.0030643633 0.27607137
000150 23 cc 0e 3c ac 11 d7 bd 3d f1 51 3b 85 93 58 bd
       0.008715662 -0.105014175 0.0032034658 -0.05287506
000160 03 a0 c2 3b 64 a1 eb bd 13 51 5f 3d 76 77 85 3d
       0.005939485 -0.11505392 0.054520678 0.06516926
000170 4e 47 2d 3e b9 fd b8 3d a7 be 06 3d 1b 48 97 3d
       0.16921732 0.09032769 0.032896664 0.073868
000180 21 a1 35 be 2f 88 d6 3d f8 6d e6 3c 38 f6 80 bc
       -0.17737247 0.10475194 0.028128609 -0.015742406
000190 06 96 ba bd 67 74 a9 3d a0 d0 35 be f2 cb 7b 3d
       -0.09110646 0.08274155 -0.17755365 0.061473794
0001a0 2f 86 4d 3c c5 5a 05 3e 43 19 6d be 11 26 08 3d
       0.012544199 0.13022907 -0.23154168 0.033239428
0001b0 eb 33 f0 3d ed 68 2c bd 56 e9 73 bc 0a fe 11 bd
       0.117286526 -0.042092253 -0.014887175 -0.03564266
0001c0 6f 68 d6 3d 1c 13 7f 3d b2 c1 32 3e de 7c 72 3e
       0.10469138 0.062274083 0.17456701 0.23680446
0001d0 d0 d8 84 3c bb 6e 80 bd ca 6c b9 bd 82 5c 33 3e
       0.016216666 -0.0627112 -0.09053953 0.17515758
0001e0 ca 0f 2e 3e 58 2a 1f 3e 8b 34 99 3d 8d 26 08 be
       0.1699821 0.15543497 0.07480725 -0.13295956
0001f0 49 fb d0 3d b8 f7 f4 3d 13 6a 48 3e cc c6 35 bc
       0.10204179 0.11961311 0.19571714 -0.01109476
000200 d0 5d 7b 3d 9a 55 8a 3c 36 3e 40 3e 07 b6 03 be
       0.061368763 0.016886521 0.18773732 -0.12862407
000210 04 66 84 3c c5 5e ef bc 24 73 4b 3e a6 c5 8b be
       0.016161926 -0.029219994 0.19868141 -0.2729923
000220 ef e5 15 3e 1b 5a 47 be 93 b5 35 be 8e e1 28 3d
       0.14638494 -0.19467966 -0.17745046 0.04123073
000230 09 2f 08 bd ca 24 04 3d f4 ac 29 bc 82 c9 e1 bd
       -0.03324798 0.032261647 -0.010356177 -0.11024763
000240 2b 90 0a bd cd c2 de bc d3 4c 1c be 33 a3 8f bb
       -0.033828896 -0.027192498 -0.15263681 -0.0043834685
000250 94 4e 0c 3e 0d 86 6b 3e e3 86 a1 3e 06 55 33 3e
       0.1370185 0.23000355 0.31548223 0.17512903
000260 b4 11 1c be 79 42 06 bd 5b 44 24 be eb 18 0c be
       -0.15241128 -0.032778237 -0.160417 -0.1368138
000270 3e 2b 02 3e b7 55 30 3e fd 0f 87 bc a5 92 5a 3d
       0.12711808 0.17220198 -0.016487116 0.053362507
000280 e0 25 04 be 41 33 75 be ae 7f fc 3d 3b 61 0b b9
       -0.12905073 -0.23945333 0.123290405 -0.00013292294
000290 52 6b 32 be b0 15 c8 bd 1d f3 f8 3c 8d fb 17 3e
       -0.17423752 -0.097697616 0.030389363 0.14842053
0002a0 35 ad a3 bd 05 b5 14 be 78 c2 cf 3d a1 b9 4b 3e
       -0.07992021 -0.14522178 0.10144514 0.1989503
0002b0 ff ac 96 bc 27 0b f1 3d 2d 19 0a 3e a4 e4 17 bb
       -0.018393038 0.11769705 0.13486166 -0.0023177052
0002c0 99 11 0f bd 84 34 3a 3e 0a 94 e9 bc ec 71 83 bd
       -0.03492889 0.18184096 -0.028512973 -0.06418213
0002d0 89 13 d6 3d 41 b6 94 3d 5e cb ff 3d fc 6d 48 3e
       0.10452945 0.07261325 0.12489961 0.19573206
0002e0 d4 3e db 3d a6 48 c8 3e 58 cb 9e 3e b6 9e 27 3e
       0.10705343 0.39117926 0.31014514 0.16369137
0002f0 09 e3 58 3d 8a 3c c5 bd 37 77 15 3e d0 cb 01 be
       0.052950893 -0.096306875 0.14596258 -0.12675405
000300 3a 50 c1 bd 82 83 84 bd 17 04 48 3e 50 d0 79 3e
       -0.0943913 -0.064703956 0.1953281 0.24395871
000310 ab e7 b8 3d 3b d5 c9 bd d1 b0 04 3e e7 ba 99 3d
       0.09028562 -0.098551236 0.12958075 0.07506352
000320 ac 35 e1 bc 08 8a 86 3d ce 2b 1d 3e a8 e3 b6 3d
       -0.027491413 0.06569296 0.15348741 0.08930141
000330 2a 00 ef 3d da c9 a4 3d d1 9d 8e bc e8 15 3b 3e
       0.11669953 0.08046313 -0.017409237 0.18270075
000340 06 a1 3d be e0 ac f7 3c 20 a6 02 3e f7 bb d0 bb
       -0.18518457 0.0302338 0.12758684 -0.0063700634
000350 f7 b6 74 3e 01 38 25 be b0 80 25 3c 7e 94 31 be
       0.2389792 -0.16134645 0.010101482 -0.17341802
000360 ac 09 77 bd 20 14 95 3c 1b 65 0c 3e a2 1f 06 bd
       -0.06031196 0.018198073 0.13710444 -0.03274501
000370 b1 20 23 3d 14 54 72 3e 9e 6c e1 3b 5d cc 9d bd
       0.0398261 0.23664886 0.0068794033 -0.07704995
000380 f9 f4 58 bd 17 41 c9 be fe ba 19 be 77 3a c3 3c
       -0.052968 -0.39307472 -0.15012738 0.02383159
000390 94 49 95 bd 6c e5 5f be 0d ef 2a 3d bd 0a 25 3e
       -0.072894245 -0.21864861 0.041731883 0.16117378
0003a0 a7 8c d6 bb db 2d b3 3d 1c 4a 0e 3d 89 5d 92 bd
       -0.006547529 0.087489806 0.034738645 -0.07146747
0003b0 55 4b 9c bd 3f 69 8e bd 12 31 a9 3d 08 0c fa bd
       -0.07631556 -0.06953668 0.082613125 -0.12209326
0003c0 2b d4 63 3d f7 d5 41 3b fb 52 02 3d 6e 47 01 bd
       0.05562226 0.0029576996 0.031817418 -0.03156226
0003d0 7c 61 f8 bd ae 48 6f 3e 8d 63 d3 bc ac dc 6a bd
       -0.12127969 0.23367569 -0.025804305 -0.057339355
0003e0 26 36 a5 3d 60 0f 09 bd 85 0d 82 3e a0 df 16 3e
       0.080669686 -0.03346193 0.2540094 0.14733744
0003f0 e2 81 ab be 1f 71 83 be dc db a1 3c 3d e8 80 3c
       -0.3349753 -0.25672242 0.019758157 0.01573574

enc2.0.bias f4 [16]
000000 8b 94 0f 3d 97 20 fd 3c e7 8c 6e bc da bf 37 3d
       0.03505377 0.03089933 -0.014559961 0.0448607
000010 ac 14 34 3c 50 56 20 3d 9d b3 b0 bc 48 71 ff bc
       0.010991257 0.039144814 -0.021570021 -0.031181946
000020 7f b1 e6 3c 8d 3a d6 3b 09 33 04 3d dc 0e 1d 3d
       0.028160809 0.0065377415 0.032275233 0.03834425
000030 f8 02 05 3d 3d 66 d1 3c 87 4e cd 3c a3 12 27 3d
       0.032473534 0.025561446 0.025061859 0.040789258

enc2.2.weight f4 [16, 16, 3, 3]
000000 bc 92 a8 3b 0c c0 3f 3d 1f 0b ac bc 52 49 fa bd
       0.005144445 0.04681401 -0.021001397 -0.12221016
000010 cb 5d 0b 3e 59 55 7e 3d ae 73 85 bd 7f 66 fe bc
       0.13609998 0.062093113 -0.06516205 -0.031054733
000020 87 6c 36 bc c9 b1 f6 bd b0 56 66 3e 96 e4 eb bd
       -0.011134273 -0.120456286 0.22494006 -0.11518209
000030 26 90 37 be cf e3 1e 3d d8 3c 2e 3e ed 47 70 be
       -0.17926082 0.038791474 0.17015398 -0.23464938
000040 2b b3 0b bd 14 9a 02 bd 6a 4c 08 be 8e 66 8e bd
       -0.034106415 -0.03188522 -0.133104 -0.069531545
000050 4c ef ff bd 0f 4f eb bd 27 5d 9c 3e c2 c1 2d 3d
       -0.12496814 -0.114896886 0.3053982 0.04242111
000060 ab cd 44 bd d7 c6 14 3e b6 20 82 bd 20 b4 5b 3e
       -0.048047703 0.14528976 -0.06353895 0.21455431
000070 9b a6 10 3e ce f3 96 bd d0 1f 2d 3e 45 24 48 3e
       0.14126055 -0.07370721 0.16906667 0.19545086
000080 d8 80 b3 bd 43 4c 8f bd bc 9b a4 be 84 7a 4f 3e
       -0.08764809 -0.06996968 -0.32150066 0.2026158
000090 ac 18 c7 bc a0 26 e1 bc 11 33 34 3e 55 85 16 be
       -0.024303757 -0.027484238 0.17597605 -0.146993
0000a0 95 06 e0 bd 54 38 6c 3e d8 6a 35 bd a0 97 ca be
       -0.109387554 0.23068362 -0.044291347 -0.39568806
0000b0 1d 19 cd bd 26 f6 53 3c a3 57 03 bd ea 54 fe 3d
       -0.100145556 0.012937104 -0.032066 0.1241854
0000c0 a4 5d b3 3c 29 f7 a5 b9 ce f0 d9 bd e9 04 a2 bd
       0.021895237 -0.000316554 -0.10641633 -0.07911093
0000d0 7d 16 7f be 7c 90 b1 bd 11 c7 b7 3c 76 10 c2 bc
       -0.24910922 -0.08670136 0.02243379 -0.02368949
0000e0 95 1d ca bd 36 fd 05 3e 8e 97 fd bd d6 bd 21 3e
       -0.098689236 0.13084874 -0.123824224 0.15795073
0000f0 97 d2 19 3d 73 83 da 3d 3f 80 09 3d 26 8f 67 3d
       0.03755435 0.10669603 0.03356957 0.056533
000100 86 5f d3 3d 2a 1e 53 3d 18 29 f1 bd 69 86 27 bc
       0.10320954 0.05154244 -0.11775416 -0.010224917
000110 87 ad 1d be b0 6f e7 3d 06 8d 22 3e e5 b6 c2 bc
       -0.15398227 0.113005996 0.15874109 -0.023768852
000120 df 89 7b 3e 6c 26 9f 3c 52 41 3c 3e 47 71 b4 bd
       0.24564312 0.0194275 0.18384293 -0.088106684
000130 53 e3 88 3d 85 d9 54 3e 79 b3 be ba 3f d7 50 be
       0.06683984 0.20786102 -0.0014549337 -0.2039461
000140 fb 3f 28 3e ae 73 5f be a5 a1 da bc 7e c7 40 be
       0.16430657 -0.21821472 -0.026688406 -0.188261
000150 cf c4 12 3e 91 c5 31 3e 4d fc 84 3d ad 21 8c bd
       0.14332889 0.17360522 0.06493435 -0.06842361
000160 04 91 46 be ab 72 58 3e ee ec e8 3b b3 1d 0f be
       -0.19391257 0.21137492 0.0071083223 -0.13976173
000170 5f 4a db 3d 09 0f a0 bd 9c 13 ef 3d 20 82 a1 3c
       0.107075445 -0.07815368 0.11673662 0.019715369
000180 b7 09 87 be f4 fa 0f 3d 34 8a 3b 3e 98 d8 04 3e
       -0.263746 0.035151437 0.18314439 0.12973249
000190 a6 fd 1f bd 2a f9 48 bd 66 74 70 bd 0a 9f 17 3e
       -0.039060257 -0.049065746 -0.058704756 0.14806762
0001a0 83 e3 73 3d 52 67 81 3c 6a f0 19 bd fa eb 99 3d
       0.059543144 0.015796337 -0.037582792 0.07515712
0001b0 f6 c6 b2 bd c7 23 dd 3c c5 88 4a 3e fc d1 59 be
       -0.08729355 0.026994599 0.19778736 -0.21271509
0001c0 15 c1 86 bd ac 6c 83 bd c1 f4 14 ba a0 40 11 3e
       -0.06579796 -0.06417212 -0.0005682223 0.14184809
0001d0 6c 80 15 3e 79 a1 cb 3c 30 bd ce 3d 28 4e 2c be
       0.1459977 0.02485727 0.100946784 -0.16826689
0001e0 3a 32 1b 3e 99 98 05 3e ba 7a a2 bd 6c ff 94 3d
       0.15155879 0.13046493 -0.079335645 0.0727528
0001f0 b7 e9 c7 3c c1 95 7c bd ba bd 20 3e 30 28 8b bd
       0.024403436 -0.061666254 0.15697375 -0.067947745
000200 2c ba ca bd 87 10 e2 bc 29 e2 9c bd a0 f6 3f 3d
       -0.09898791 -0.027595771 -0.07660324 0.04686606
000210 9a a2 83 be 8d d3 61 3d 33 de f1 bd d5 57 f5 bd
       -0.25709993 0.05513339 -0.11809959 -0.11979643
000220 11 35 81 3d 27 2b 3c 3e ea ee 02 be 92 e3 e5 3d
       0.0630895 0.18375836 -0.12786451 0.11225046
000230 b0 c2 1f bd 62 60 a0 3d ec 5c 39 bc 4d 07 aa 3d
       -0.039004028 0.078308836 -0.011313658 0.08302174
000240 8e 68 a1 3b d5 28 89 3d 31 a6 de 3d 5f 46 a2 bc
       0.004925794 0.06697241 0.10871542 -0.019808946
000250 fc 98 07 3e b6 18 07 3e d6 1d 42 3e cc 53 a6 bd
       0.13241953 0.1319302 0.18956694 -0.08121452
000260 5a 6a 27 3e 5e e2 35 3e 79 b9 b1 3d 2e 3c 15 3c
       0.16349164 0.17762133 0.08677954 0.009108586
000270 e2 38 8b be 91 a6 d6 3d 78 f8 e6 bd 70 06 c8 3b
       -0.27191836 0.10480989 -0.112778604 0.006104283
000280 97 eb 9b bd 5c ec 08 be a2 05 13 3e 04 58 7a 3d
       -0.076132946 -0.13371414 0.14357617 0.061119094
000290 a0 9a 01 3e 7a 40 73 be e7 a1 12 bd 60 67 37 bd
       0.12656641 -0.23755065 -0.035798933 -0.04477632
0002a0 d7 39 25 bd 79 a1 26 bd d7 36 19 bd 7a 35 58 be
       -0.040338363 -0.040681336 -0.037405815 -0.2111415
0002b0 f0 55 35 be a8 8f a0 bd 0c 81 fa 3d 5c 08 11 bd
       -0.17708564 -0.078399 0.12231645 -0.035408363
0002c0 0b f7 4b be 50 4e ac bd c2 5d f4 bc 62 ab 36 3d
       -0.19918458 -0.084133744 -0.029829863 0.044597037
0002d0 10 10 41 bb 8e 33 d8 3c 05 25 54 3d cc e3 09 3d
       -0.0029459037 0.02639177 0.051793117 0.03366451
0002e0 5f d3 6e 3d 9f d9 40 3e 24 1c 20 3e 00 56 0b 3e
       0.058307048 0.18833016 0.15635735 0.13607025
0002f0 98 19 98 bc e0 3c 99 3c 91 69 3e 3e a3 ae cc bd
       -0.018566892 0.018705785 0.18594958 -0.09994247
000300 1f 95 d0 bd cb b8 0b 3d 4c 67 7c 3d 8d 8a 4b 3e
       -0.101846926 0.03411178 0.06162195 0.19877072
000310 f0 e2 8f 3e bc e2 1b bc 8f 92 81 bd 45 94 80 bd
       0.28102827 -0.009514507 -0.06326782 -0.0627828
000320 ea 82 89 bd 72 9f 1b be 3a 5e f3 3d aa 87 0b 3e
       -0.06714423 -0.15197542 0.11883207 0.1362597
000330 ec 8b d0 bd ba 49 9c bd c5 fd 44 3e e4 13 0a 3e
       -0.10182938 -0.0763125 0.1923743 0.1348415
000340 e2 22 0f be a3 31 f2 3d f0 b7 44 bb ab dc e6 3c
       -0.1397815 0.11825874 -0.0030016862 0.028181395
000350 32 ef 48 bd 1a 04 96 3d 44 71 82 bd 1e ce 47 bc
       -0.04905624 0.07325001 -0.0636926 -0.012195138
000360 fa 14 5f 3d 9b 78 31 3e cc 71 3b be fc 42 e2 bb
       0.054463364 0.17331164 -0.18305129 -0.006904958
000370 35 98 a1 3e a5 7a 02 3e c3 9f 75 bd 4e de b3 3c
       0.31561437 0.12742098 -0.059966814 0.02195659
000380 3c 68 af bc a8 ac 94 3e 74 f2 b0 bd 3c 1d ff bd
       -0.021412008 0.29037976 -0.08639994 -0.12456748
000390 2b 07 f8 bd d6 33 37 3d e9 f2 de 3c 59 86 2f be
       -0.12110742 0.04472717 0.027215438 -0.17141093
0003a0 ff 50 e2 be 9d 0d ad bd 43 8f 98 bc b7 17 3d be
       -0.4420242 -0.08449862 -0.018623 -0.18466078
0003b0 c4 3d d5 3c 5a 47 3e 3e 03 ce 86 3d 1d ec 80 be
       0.026030429 0.18581906 0.06582262 -0.2518014
0003c0 26 9c 1c be e3 62 b2 3d 85 e4 47 bd 33 1d 33 3d
       -0.15293941 0.087102674 -0.048801918 0.04372902
0003d0 e5 f0 4d be 5e 21 d6 bd fe 44 35 3d 82 db 1e be
       -0.20111425 -0.10455583 0.04425525 -0.15513423
0003e0 f8 de 9a 3e f0 b2 0b 3e 90 5c be 3e e0 b1 7d bd
       0.30248237 0.13642478 0.37179995 -0.061937213
0003f0 6b 21 52 3d 2c de c2 3c 96 17 d4 bc 1d a3 0d 3e
       0.0513014 0.02378758 -0.025890153 0.13831754

enc2.2.bias f4 [16]
000000 f9 a2 97 3c 23 5b 05 3d 36 8a 15 bb 2a 25 3e 3c
       0.018510329 0.032557618 -0.0022817976 0.01160554
000010 ba 91 09 3d 0d de c0 3c cc 44 ea bb cc e4 a8 bb
       0.03358624 0.023543382 -0.0071493145 -0.005154228
000020 e1 84 71 3d e1 bf fd 3c de 29 5a 3c 65 29 4b bc
       0.058964614 0.030975284 0.013315646 -0.012400006
000030 cf 4f 9d 3c f5 ec 80 bc 84 71 11 3d 19 45 f2 3c
       0.019203095 -0.01573799 0.035508648 0.029573964

bottleneck.0.weight f4 [32, 16, 3, 3]
000000 84 4b b5 bd e8 a7 e2 3c d9 97 5f 3d 29 e5 5d 3d
       -0.08852294 0.027667955 0.054588173 0.054173622
000010 9e 30 90 3d ea 51 24 bd d0 9a c9 3c 5c 55 b4 3c
       0.07040523 -0.04011718 0.024609953 0.022013359
000020 59 6a 21 be c2 13 87 bc 88 cc 2e be 9c 4e ac 3d
       -0.15763225 -0.016488913 -0.1707021 0.08413431
000030 79 9c 59 bc df c7 89 3d b1 73 fe 3d 00 20 2f be
       -0.013281935 0.067275755 0.1242441 -0.17102051
000040 69 b5 61 3e 1e ea ce 3c 48 9e 25 3d a5 18 a0 3d
       0.22041859 0.02525812 0.040434152 0.078172006
000050 f2 39 bb 3d d0 76 42 bd 25 4e 05 3e c7 91 59 3e
       0.091419116 -0.04747659 0.13018091 0.21247016
000060 9e f0 12 bd 88 25 9b bc 78 90 03 bd 06 3d 1e 3d
       -0.035874 -0.018938795 -0.032120198 0.038632415
000070 9b 27 86 bd 58 4e 46 3a d5 44 36 bd 08 00 c5 bd
       -0.06550523 0.0007564775 -0.044499237 -0.096191466
000080 c6 1e 23 bd e1 e6 01 3e cc 13 82 bb 90 17 9f bd
       -0.03982427 0.1268573 -0.003969645 -0.07768166
000090 26 7c 9d bd f5 d7 9e bd 8d f4 37 bc be 39 64 bd
       -0.07689695 -0.07756034 -0.011227739 -0.05571913
0000a0 1f fb 23 3d e4 07 2f be 73 30 d3 3d 23 2a 0d be
       0.04003441 -0.17092854 0.10311975 -0.13785605
0000b0 70 b2 00 3e ff d3 ba bc 09 62 d8 3d b3 b4 11 3d
       0.12568069 -0.022806166 0.10565574 0.03557272
0000c0 14 85 c6 bd 13 a7 64 3d 66 b2 f1 bc d5 57 f9 3d
       -0.096933514 0.055823397 -0.029504012 0.12174956
0000d0 05 1b b5 3d 49 0a 31 bd 30 e6 88 3c b6 f5 e1 3d
       0.08843044 -0.0432227 0.016711324 0.11033194
0000e0 69 29 17 bc e2 12 92 3d 63 1b 12 bd 90 5e 22 be
       -0.009226182 0.07132508 -0.03567065 -0.15856385
0000f0 6e d9 74 bd ec 02 86 3e 1d 75 ac 3d 0f eb 99 bd
       -0.05977767 0.26174104 0.08420775 -0.07515537
000100 aa 36 c0 3c b7 1c 6f bd 20 99 f3 3c 7b 4a 0a 3e
       0.023463566 -0.058376994 0.029736102 0.13504975
000110 67 55 a7 3d 3b 92 91 3c 54 9a b9 b9 8e cc 56 bd
       0.08170586 0.017769923 -0.00035400933 -0.052441172
000120 f8 02 c7 3c 0f 13 e0 3c 0c 2d 1f be 99 3f d5 3d
       0.024293408 0.027352838 -0.15544528 0.10412521
000130 9a 71 69 bd 29 8e 64 bd b5 10 f3 bc 68 15 11 3e
       -0.056993105 -0.055799637 -0.029671052 0.14168322
000140 b2 86 46 3e 26 37 c2 bd ba d2 cf 3d 1c ac 60 3d
       0.1938732 -0.09483175 0.10147615 0.054851636
000150 8d 0a f8 bc d5 d1 54 3d bd f5 1c 3e 98 14 e2 bd
       -0.030278469 0.051957924 0.15328117 -0.11039084
000160 77 d4 08 3d a1 2f fd bb e0 1c 60 3c f2 2a ca bc
       0.033405747 -0.007726625 0.013678759 -0.024678681
000170 19 9d 80 bd 14 7c e0 3d 45 f6 1a 3e b6 91 fe 3d
       -0.06279964 0.10961166 0.15133007 0.12430136
000180 cc 6d fa 3a f6 96 db 3d 84 9e 1f bb d0 60 25 bd
       0.0019106208 0.10722153 -0.0024355957 -0.04037553
000190 99 c0 99 3d a4 16 a3 bc a5 92 f5 bb 0e 9d 5c 3d
       0.07507438 -0.019908257 -0.007494288 0.053860717
0001a0 a3 7c 6e 3c 51 83 09 3d a2 b8 8a 3e 9d 49 d2 3d
       0.014556083 0.0335725 0.2709399 0.10267947
0001b0 0b fc 8a 3c dd ef 31 3d 4a 6a 14 bd 93 68 24 3e
       0.016965887 0.043441642 -0.036234178 0.16055517
0001c0 2b be 9b 3d ab 40 cd bd aa 85 1d bd ad d4 33 bd
       0.07604631 -0.100221 -0.03845755 -0.043903995
0001d0 79 08 44 be 23 27 b5 3d 37 e5 83 3d 6b 22 c9 bd
       -0.19143857 0.08845355 0.06440204 -0.09821018
0001e0 7c 86 28 3e 56 a8 19 bd 96 de ef 3c 65 63 5f bc
       0.16457552 -0.037514053 0.029280942 -0.013634537
0001f0 8f 88 5f 3c ae 5a 6e 3e 50 d1 12 3b 51 89 34 3d
       0.013643398 0.23276779 0.0022402592 0.044076268
000200 9d 53 1e be 17 8e 65 3d 74 be 4e bd 9c 40 f0 bc
       -0.15461583 0.05604371 -0.0504746 -0.029327683
000210 58 5a d9 3c f4 02 e5 bd 18 01 79 bd ee b9 00 3d
       0.026532337 -0.11182204 -0.06079206 0.031427316
000220 7a f4 30 3e 71 38 15 3d f9 44 76 3d c5 7b 38 3d
       0.1728076 0.03643078 0.06012437 0.04503991
000230 d1 8b 21 3d e6 15 c0 3d bb 84 4b 3d 7b 9c 0b 3d
       0.03943998 0.09379177 0.04968713 0.03408478
000240 53 90 ca 3c fe 08 96 bd 99 fc d4 3d ba 07 7e 3c
       0.024727022 -0.07325934 0.10399742 0.015504772
000250 7c 4f 46 3d 92 42 26 3c 77 36 e9 bc b8 aa 77 bd
       0.048415646 0.010147708 -0.028468354 -0.060465544
000260 d4 2a 71 3d 55 95 5e 3d c0 4a 9f bd 9f 22 4b bb
       0.058878735 0.054341633 -0.07777929 -0.0030995978
000270 cf 2c 34 3d d8 e8 09 3b 7d 2c 43 be ea ca 51 bd
       0.043988045 0.0021043327 -0.1905994 -0.051218905
000280 84 6b 9f bd e9 76 7e 3e 30 b8 53 bc 15 9f f7 bd
       -0.07784179 0.24850048 -0.012922332 -0.12090889
000290 dc 90 9f bd 71 9f 42 bd 20 95 c9 bd 69 3e 0d 3c
       -0.077913016 -0.047515336 -0.098428965 0.008620837
0002a0 89 16 6e bd 19 ee 35 3d f4 92 a8 3d 5b 9d 7b bd
       -0.05812696 0.04441652 0.08231154 -0.061429363
0002b0 51 df 80 bd 42 76 07 3d 95 7a 2c 3d 0e 2d 5c bd
       -0.06292594 0.033071764 0.04210909 -0.053753905
0002c0 9d 9a 8b 3c 1f c3 66 3d 99 c0 27 3d 9d 6a d5 3d
       0.017041499 0.056338426 0.04095516 0.104207255
0002d0 27 b9 49 3d 36 7d c6 3c a7 fb e2 3d 57 5d e8 3d
       0.04924884 0.024229627 0.11083155 0.11345928
0002e0 fe e4 b6 3d 6d 6d c5 3d 74 2c 37 3d 64 6c 8b bc
       0.089303955 0.09640012 0.04472013 -0.017019458
0002f0 fc 5f c6 bd d1 f9 1c bd 6f 9a 4e bc 4a 54 6e bd
       -0.09686276 -0.03832418 -0.012610062 -0.058185853
000300 38 c1 e9 bc 32 c4 3b bc 89 d8 81 bd 6b 7b 53 3d
       -0.028534517 -0.011460351 -0.06340129 0.051631372
000310 b3 5e 25 bd a4 9e c5 3d 8d 9a f4 bd 20 00 81 bd
       -0.040373515 0.09649399 -0.11943541 -0.06298852
000320 e7 0d bb bd dd e2 69 3d 41 7e 8e 3d ce b1 17 be
       -0.09133511 0.05710112 0.06957675 -0.14813921
000330 eb e2 bf 3d 73 62 ec 3d 76 98 3c 3e 89 88 36 be
       0.09369453 0.11542215 0.18417534 -0.17825522
000340 a5 69 69 bd 75 97 77 be c9 05 df 3d 6f 97 63 3e
       -0.056985516 -0.2417887 0.10889775 0.22225736
000350 ba c2 7c bd 40 ed 29 3d db 08 c8 3c 2f 5e 81 bd
       -0.061709143 0.041486025 0.024418285 -0.06316792
000360 8b 5c 02 bd e9 72 00 3e b5 55 01 3d 04 0e 91 bc
       -0.031826537 0.12543835 0.031575877 -0.017706878
000370 ce 56 4a bd fc 19 17 bd 01 40 b8 bd 76 e9 60 3e
       -0.04939919 -0.036890015 -0.08996583 0.21964058
000380 0e 71 1a 3e 3f 3b 0c 3c cc dd 19 bd 5d b6 fd bd
       0.1508219 0.008559047 -0.037565038 -0.12388299
000390 ee f5 3a 3d dd dc 0f be ae 46 a9 bd ad 87 53 be
       0.045644693 -0.14049096 -0.08265434 -0.20657225
0003a0 94 c7 c1 3d 08 f3 07 be 1e 9e 76 3d f6 9d 93 3d
       0.09461895 -0.13276303 0.060209386 0.07207863
0003b0 8c 76 b8 bd d4 98 03 3e e4 97 cb bc 4e 77 f8 bd
       -0.09006986 0.12851268 -0.0248527 -0.121321306
0003c0 62 14 48 3d 25 2b 63 bc 49 0f 08 3e c5 a2 1e bd
       0.048847564 -0.013865267 0.13287081 -0.038729448
0003d0 f7 84 f9 bc 0a 9d 37 3e b2 82 8c 3d 0b 15 34 bd
       -0.03045891 0.17931 0.06860866 -0.04396538
0003e0 17 e2 58 3d df 15 1f 3d b4 5a 7d 39 e5 94 f4 3d
       0.05294999 0.038839217 0.0002416175 0.11942462
0003f0 5f 02 ef 3d 54 17 30 3e b9 df 22 bd c6 9a a6 bd
       0.11670374 0.17196399 -0.03976414 -0.081349894

bottleneck.0.bias f4 [32]
000000 d9 b0 0c bd 92 fc 8d 3c da f2 e2 3c 91 37 1b 3d
       -0.034348343 0.017332349 0.027703691 0.03789479
000010 03 fc fa 3c 3b 69 e2 3c 05 9e 5e 3d c5 64 5d bc
       0.030637747 0.027638068 0.054349918 -0.013512795
000020 44 d0 cf 3c 89 24 7a bc 30 04 54 3c 4c 16 1b 3d
       0.025367863 -0.0152675 0.0129404515 0.03786306
000030 e9 ba 38 bc 17 af da 3c 4f 4c 8b bb 11 7c eb 3c
       -0.011275032 0.026694817 -0.00425104 0.028745683
000040 d3 4d 10 3d 16 bb e7 3b ba 99 e8 3c aa c8 6b 3d
       0.03523047 0.007071863 0.028393615 0.057564415
000050 e8 84 f3 ba 16 9b 50 3d dc 94 ca 3c fb 54 50 bc
       -0.0018579038 0.05092915 0.024729185 -0.012715573
000060 6b 4c 11 3d d1 10 9d 3c d9 3e df bc 7a e2 1f 3c
       0.03547327 0.019173058 -0.027251648 0.009758586
000070 96 b0 d4 3c 7e 7a da 3c 79 88 d9 3c 16 0f d8 3c
       0.025963109 0.026669737 0.026554333 0.026374381

bottleneck.2.weight f4 [32, 32, 3, 3]
000000 80 97 36 bc 9c a4 1d bd 06 01 47 be 87 81 dc bd
       -0.011144519 -0.03848706 -0.19433984 -0.10766893
000010 36 fd 3e be 8a 38 e6 bc 3f e3 98 bd a3 52 02 be
       -0.1865128 -0.028103132 -0.07465219 -0.12726836
000020 5a aa e7 bc b4 c6 31 bc af bb 44 be 55 df d9 bc
       -0.028279472 -0.010850597 -0.1921222 -0.02659575
000030 f9 a9 10 3a 97 7a c1 3d 29 99 6a 3d ce 4c 95 3d
       0.0005518492 0.0944721 0.05727497 0.0729004
000040 56 31 1c bd e8 f5 db bc a5 24 42 bd ce f9 5d 3e
       -0.038132988 -0.026850656 -0.04739823 0.21677324
000050 c9 85 09 3d c6 d5 c3 bd f0 e0 84 3d 87 ed e8 bc
       0.033574853 -0.095622584 0.06488216 -0.028433574
000060 78 68 bd 3d c0 2c 95 bd 2c 05 ab 3d 63 1d 0b bd
       0.092484415 -0.07283926 0.08350596 -0.033963572
000070 74 bf c1 3d fb aa aa 3c dc 18 65 ba 40 37 13 3e
       0.09460345 0.020833483 -0.0008739361 0.14376545
000080 0f 85 b9 3d aa 34 6d 3d 48 70 e5 3d 5c 20 22 3d
       0.09058582 0.057911552 0.112030566 0.03958164
000090 8f 2e 28 3d ab 9a c4 bb 84 71 64 3d f9 ed ef 3b
       0.041060027 -0.005999883 0.05577232 0.0073220697
0000a0 db 7e a4 bd 52 7f 18 3e 25 a8 d2 bb 04 7b d2 3c
       -0.08032008 0.14892319 -0.006428736 0.025693424
0000b0 6a 76 1c be 0e 43 49 be a3 78 2a be 52 ae 6e bd
       -0.15279546 -0.19654486 -0.16647582 -0.058271714
0000c0 d9 59 9b 3d 19 d1 4e 3d dc d6 de 3d 46 9f b3 bd
       0.075854965 0.05049238 0.10880825 -0.08770613
0000d0 fe ad 6e bd 77 38 42 3d ff bb 83 3e 87 f5 c1 bd
       -0.0582714 0.04741713 0.25729367 -0.09470659
0000e0 c5 a5 65 bd 04 fc a3 3d 71 f3 78 bc 89 d1 85 bd
       -0.056066293 0.080070525 -0.01519476 -0.06534106
0000f0 61 45 28 bd 44 ae 88 bc 12 d3 d0 bd 4f be 17 3c
       -0.04108179 -0.016684659 -0.101965085 0.009261682
000100 3d f5 c7 3b 14 19 fe 3d bd 3d ae 3c 0b fd 9d 3d
       0.0061022327 0.12407127 0.021269673 0.0771428
000110 be 55 d5 3c 80 ba 5b bd 09 81 ae 3c 22 8d 5e 3d
       0.026041862 -0.053644657 0.021301763 0.054333813
000120 2b e1 3b be 31 6e 31 3c 6d 9d fc bd ac 20 35 3d
       -0.18347614 0.010829494 -0.12334714 0.04422061
000130 18 dc 30 bc dc d3 8c 3c 0a a0 53 3d b2 cb b7 bd
       -0.010794662 0.017190866 0.051666297 -0.08974399
000140 8c 13 df 3c 52 9e 29 3c c0 32 d1 3c ca b1 69 bd
       0.027231 0.010352688 0.025536895 -0.05705432
000150 1d 50 73 bd 0b fe 5b 3d 84 69 82 bd fe 40 d2 bc
       -0.059402574 0.05370907 -0.06367782 -0.025665756
000160 15 23 70 be 33 a8 08 be ca 3b a1 bc f5 a7 d3 3c
       -0.23450883 -0.13345413 -0.01968183 0.025836924
000170 e9 1e 13 bd 8e 68 a3 bd fa 0a 00 3e 49 42 95 3d
       -0.03591815 -0.079789266 0.12504187 0.072880335
000180 ac 30 a2 3c 33 3d 7c 3d 0e 08 1d 3d 2d ca 02 bb
       0.0197986 0.0615818 0.03833776 -0.0019956932
000190 3a 62 90 3d 28 dd 3d 3e 79 60 c5 3d ee c0 35 3e
       0.07049985 0.18541396 0.09637541 0.17749378
0001a0 b8 c9 18 bd 73 7f 23 3d 0c 97 00 be c8 99 dd 3c
       -0.03730175 0.039916467 -0.1255762 0.027050868
0001b0 f8 78 7b bd 76 14 8a bd e9 85 b1 bc 94 6e 4e bc
       -0.06139466 -0.06742184 -0.021670299 -0.012599606
0001c0 2a 18 56 bd 49 97 c8 bd 98 1b f8 bd ec 78 ea bd
       -0.05226914 -0.0979448 -0.12114638 -0.11448845
0001d0 b0 f1 27 be 4e ff 08 3d f2 b5 a1 3d 3a a1 d8 bd
       -0.1640079 0.033446603 0.078960314 -0.105776265
0001e0 14 8d 99 bd 5b d2 a2 3b c5 06 3b 3d 49 96 51 be
       -0.07497612 0.004968924 0.045660753 -0.20467485
0001f0 cf dd d1 3c 68 f1 b0 3d 76 f9 d8 3d 91 03 03 3d
       0.025618462 0.086397946 0.10594456 0.031985823
000200 3e da 00 be b7 0f f3 3d 9b 71 15 3e 02 e5 57 be
       -0.12583253 0.11868232 0.14594118 -0.21083453
000210 fe 3d a8 bd 16 5a 17 3e 0a 3d de 3c c4 96 64 bd
       -0.08214949 0.14780459 0.027128715 -0.055807844
000220 92 13 af 3d a6 27 39 3c af 7e da bd 06 cf cc 3c
       0.085486546 0.011300957 -0.10668694 0.02500106
000230 96 91 c5 3c bf 2f bc 3d 76 e1 ce bd 24 a7 c7 3d
       0.024117272 0.09188794 -0.10101597 0.097486764
000240 5f 29 54 3e f7 38 18 be 85 cb 57 bc 0f 33 57 bd
       0.20718907 -0.1486548 -0.013171081 -0.052538928
000250 1e 0e 3a 3d ab 58 8f 3c 7f 06 e3 bd bc 2c 43 3d
       0.04542362 0.017498335 -0.110852234 0.047650084
000260 4d 0f e5 bc 00 fa 6d bc ca 33 4f bd d8 0e ae 3d
       -0.027961398 -0.014524937 -0.0505865 0.08498925
000270 15 89 00 3c 74 0f fb bc 84 b9 97 3c 52 8b 94 3c
       0.007845183 -0.030647017 0.018521078 0.01813284
000280 56 47 d6 3d 6e 00 7b bd 1f 0a 05 bd 41 b8 fc bd
       0.10462825 -0.061279707 -0.032480355 -0.12339831
000290 f5 b4 b1 bd bc 40 56 be 5d 67 01 3d e7 a7 0e be
       -0.08677093 -0.20923132 0.031592716 -0.13931237
0002a0 43 31 34 bb fe c1 23 3e 1f cd 0e bd c9 5f d4 bd
       -0.0027495183 0.15991971 -0.034863587 -0.10369832
0002b0 9d 5b a0 bd 29 5b 13 be 7e fa 49 3d b8 9d 38 3d
       -0.07829974 -0.14390244 0.049311154 0.045072287
0002c0 c1 81 20 be ca c3 ec 3c f7 73 a3 3d c6 37 22 3e
       -0.15674497 0.028901953 0.07981103 0.15841588
0002d0 00 a4 05 bd ee 10 f8 bd 77 c5 fc 3d 8c a5 d1 bd
       -0.032627106 -0.12112604 0.12342351 -0.10236654
0002e0 a6 b4 15 bd c8 23 b2 bd 33 7c a6 bd 58 83 9a 3d
       -0.036549233 -0.08698231 -0.08129158 0.07544583
0002f0 0a fb dc 3d 2f 1a 86 be 2b 89 0a 3b 5a 05 28 3d
       0.107900694 -0.26191851 0.0021138887 0.04102073
000300 c0 72 8e bd 20 f6 b8 3c b0 00 a9 3c 0a 6f 1a be
       -0.069554806 0.022578299 0.02063021 -0.1508142
000310 76 f7 c6 3d 13 a6 11 3c 1d 87 db 3c 1f e2 e8 bd
       0.09715168 0.008889693 0.026797825 -0.11371254
000320 e7 5e b0 3c 03 5d 5c bd 5b 6e 39 bb 94 e4 2c 3e
       0.021529628 -0.05379964 -0.0028294537 0.1688407
000330 5c 83 a1 3c ba 86 12 be 7e d2 65 3d 98 b1 46 3d
       0.019715957 -0.14309207 0.056108944 0.04850921
000340 91 b4 6c 3d 83 b8 c8 bd 8a bb a6 3c 07 56 2b be
       0.05778939 -0.09800818 0.020353097 -0.16732036
000350 b6 52 db bb d8 96 5e bd 61 91 4a bb de 84 03 be
       -0.0066932095 -0.054343075 -0.0030909406 -0.12843654
000360 cc aa 2c 3c 9c 9b 96 3c 08 05 85 3c 54 dd 4c 3d
       0.010538768 0.018384747 0.01623775 0.050015762
000370 6d be f5 bc c4 28 db 3d 56 e5 83 3c cb 5d 6f 3d
       -0.029998029 0.10701135 0.016100567 0.058439057
000380 bc 2c f8 3c 2e 68 f3 bd 54 79 89 bd ff e6 75 bb
       0.030294769 -0.11885105 -0.06712595 -0.0037521718
000390 e1 b2 42 bd f9 b7 d1 bd f6 1a d8 3d 15 1c 88 3d
       -0.047533873 -0.10240168 0.105520174 0.06645981
0003a0 85 6c 52 bd 95 9a 2a 3d 08 89 1d 3d eb 22 01 be
       -0.051373024 0.041651327 0.03846076 -0.12610976
0003b0 ce 5f aa bc 8d 75 1f 3e 67 c6 fa bd 3b 8b c6 bd
       -0.020797636 0.15572186 -0.122448735 -0.09694525
0003c0 2f 53 ec 3c bf 9d 98 bc 63 ea b0 bd b1 b2 46 3d
       0.028848259 -0.018629907 -0.08638456 0.048510257
0003d0 f2 43 46 3d 8d 7c f6 3c da 57 29 3c e7 56 98 3d
       0.04840464 0.030088687 0.010335887 0.0743845
0003e0 21 4b 1b 3e 89 b7 cc bd fc 09 0d bd 9f 30 7b 3c
       0.15165378 -0.09995944 -0.03443335 0.015331416
0003f0 fb 3c 18 3e e7 1d 72 3e 17 18 83 3e 9b e8 77 bd
       0.14867012 0.2364422 0.25604317 -0.060524564

bottleneck.2.bias f4 [32]
000000 7a 62 d4 3c 2d a8 40 3d d3 37 f4 3c 40 5b 69 bc
       0.025925864 0.047035385 0.029811775 -0.014242947
000010 e2 99 10 bc 2e 75 76 bc b5 80 d4 3c 3d da 7d ba
       -0.008825751 -0.015042586 0.025940279 -0.0009683704
000020 7b 8d 1a 3d 57 d5 e5 3b 4b ce 0d 3d c5 5c 1a bd
       0.037732583 0.0070139575 0.034620564 -0.03768613
000030 88 d4 1b bd 1d 7c eb 3c 55 c6 5e bc fd 83 da 3c
       -0.038044482 0.028745705 -0.013597091 0.026674265
000040 cb 8d 05 3d 44 6c 82 bc 9d ab 10 3d 71 8d 7e bc
       0.032605927 -0.015920766 0.035319913 -0.015536652
000050 97 d1 e9 3c d2 0a 02 3c 64 f2 4b bd ed 3f 56 bb
       0.028542323 0.00793715 -0.04979171 -0.0032691911
000060 89 0f f2 3c f5 ae 01 3d be fa 0c bd 39 82 ef 3c
       0.029548423 0.031660993 -0.034418814 0.0292369
000070 64 e6 cb 3b df e8 cd bc 14 e2 de 3c 91 6f 02 3c
       0.006222533 -0.025135456 0.027207412 0.00796117

up1.weight f4 [32, 16, 2, 2]
000000 8c c2 92 3d 27 a8 6c 3d 6f d1 88 be e3 3f f2 bc
       0.07166013 0.05777755 -0.26722285 -0.02957148
000010 e0 17 ec bd 28 17 e3 3d be 39 ad 3d 17 ec 9d 3e
       -0.11527991 0.11088401 0.08458279 0.30844185
000020 49 ca 3d be 82 9e a3 bd ad 53 c6 3d a8 29 8e 3c
       -0.18534197 -0.07989217 0.09683929 0.017353848
000030 e3 d6 9b bd ab 80 8b 3d 89 28 f3 3d dd 4a bc bd
       -0.07609346 0.06811651 0.11872966 -0.091939665
000040 22 56 b3 3b 3c b3 99 3e 97 90 a9 3d 99 67 9f bd
       0.0054729143 0.30019557 0.082795314 -0.077834316
000050 1e eb f9 3c 64 1d 2a be 4c 2a 80 3c 30 fd b4 bd
       0.03050762 -0.16612774 0.015645169 -0.08837354
000060 0c 08 0c 3e f5 98 eb 3d 92 83 2c bd 01 9a c0 bd
       0.13674945 0.115037836 -0.042117663 -0.09404374
000070 8b 93 c0 3c bf 67 59 be f3 b4 69 3e 17 a2 6e 3d
       0.023507854 -0.21230982 0.22822933 0.05826005
000080 cb 77 6a be c7 0a e0 3d 2b e9 63 be 4d 71 b6 bd
       -0.2289726 0.109395556 -0.22256915 -0.08908329
000090 36 23 4b 3d 3a 68 6c bd 1b 30 3e 3e 8a b4 4d 3e
       0.049594127 -0.057716586 0.18573038 0.20088401
0000a0 9d 38 f4 bd 9c 47 43 3e 89 4c aa 3d 35 36 0e 3e
       -0.119248606 0.19070286 0.08315379 0.13887866
0000b0 05 f3 26 3c 85 57 d5 3d a0 f5 bc bd f7 fb bd bc
       0.010189776 0.10417084 -0.09226537 -0.023191435
0000c0 f9 6b ca 3d 10 e9 7f be 00 b5 06 bd 72 b7 a9 3d
       0.098838754 -0.2499125 -0.03288746 0.082869425
0000d0 ec 4b fb 3c b0 18 68 bd e0 17 8f 3e c9 0c 1c 3e
       0.03067585 -0.05666417 0.27947903 0.15239252
0000e0 6b 8b f2 bd 42 3d 70 be 54 d7 89 3d cc 66 10 bd
       -0.11842998 -0.23460868 0.06730524 -0.035254285
0000f0 7d ca b9 3b a2 aa 62 3e 70 65 c7 bd 72 9d 3f 3d
       0.0056698904 0.22135404 -0.097361445 0.04678101
000100 ee b8 68 be 84 35 45 be 33 d2 9b bc b8 e8 04 be
       -0.22726795 -0.19258696 -0.01902113 -0.129794
000110 c1 95 72 be 7c 08 c5 bd 34 65 3f be 63 8c 9e 3b
       -0.23689939 -0.09620759 -0.1869095 0.0048385127
000120 dc 53 98 3e 78 86 b8 3d 10 49 44 bd 97 dc c3 bd
       0.2975148 0.09010023 -0.04792124 -0.095635585
000130 19 c8 c4 3d 4e 30 f4 bc c9 73 ae 3d e8 2d de bd
       0.09608478 -0.02980819 0.08518178 -0.108486
000140 70 d6 15 be 32 cd c9 bd e7 50 6b bd 7a 21 6c be
       -0.14632583 -0.09853591 -0.0574502 -0.23059645
000150 0c 82 aa bc 9e 14 59 bc 49 87 29 3d 27 e3 88 3d
       -0.020813964 -0.013249544 0.041388784 0.06683951
000160 29 16 0d be 2e 1a a0 bd 9b 70 31 be 19 5d a7 be
       -0.13777985 -0.078174934 -0.17328112 -0.32688215
000170 66 ac 98 3d 41 19 c0 3d 9e c7 3b be d2 13 81 bd
       0.074547574 0.09379817 -0.18337867 -0.063026085
000180 04 94 45 be 52 32 0d bd c2 3e 73 be 2b 2b 0e 3e
       -0.19294745 -0.034471817 -0.23754409 0.13883655
000190 4d a9 b2 3d ad 6d 04 3e ab 7d d9 3d e9 c2 67 3c
       0.08723698 0.12932463 0.106196724 0.014145591
0001a0 72 82 d0 bd 71 19 67 be 5a ae 3f 3c 88 f1 7a 3d
       -0.101811305 -0.22568299 0.0116992835 0.0612655
0001b0 45 ca 0f be 12 ae 58 bc 01 b2 71 3e a4 7b 14 3c
       -0.14042003 -0.013225095 0.2360306 0.009062681
0001c0 73 78 ac bd 48 22 9e 3d 13 4d 37 3d 02 4c 9b 3d
       -0.08421411 0.077213824 0.044751238 0.07582857
0001d0 df fe eb 3d df aa e6 3c e9 b0 50 3e 6a 8f 63 bd
       0.11523222 0.02815765 0.20379986 -0.055556692
0001e0 8e 42 21 3d 91 fe 2d 3e 56 35 8b bd b6 1a ca bd
       0.039370112 0.1699164 -0.067972824 -0.09868376
0001f0 c5 33 49 be 20 1e 08 be de 45 77 be e7 97 75 bd
       -0.19648655 -0.13292742 -0.24147746 -0.05995932
000200 c3 99 f0 bc 81 31 78 bd 56 8e eb bd 20 a8 83 3e
       -0.029370194 -0.060594086 -0.11501758 0.25714207
000210 de 7c f1 38 c0 70 72 bd 6e 74 17 be be 4a b1 bd
       0.00011515034 -0.059189558 -0.14790508 -0.08656834
000220 ed bd 34 3d 0c 47 91 3d dd ba 60 3e 29 f6 7e 3e
       0.04412644 0.07093629 0.21946283 0.2489859
000230 22 55 dd 3d 45 82 9e 3d 93 71 a9 3e d4 f0 de bb
       0.108072534 0.07739691 0.33094463 -0.0068036113
000240 e8 66 52 bd 87 16 a2 bc a7 31 55 be 7b c8 4c be
       -0.05136767 -0.019786132 -0.20819722 -0.19998352
000250 db 7d 8e bc e8 4a 0c 3d 18 59 93 bd 86 dd 04 bd
       -0.017393997 0.034251124 -0.07194728 -0.032437824
000260 68 1e 2e 3d ab b5 05 3e 0a 1e 1c bd 80 77 1b be
       0.042509466 0.13057582 -0.038114585 -0.15182304
000270 ab eb d4 be 34 ed 33 bd f5 7c b2 bd dd 17 fd bc
       -0.4158605 -0.043927386 -0.0871524 -0.030895168
000280 9e a4 43 3e a4 4e 89 bc a5 7e 1d be c1 a8 ad 3e
       0.19105765 -0.016761132 -0.15380342 0.33917812
000290 3c 5e d5 3d 3c 97 e6 3d ac ac 4b 3e 8c 7a 71 bd
       0.104183644 0.112593144 0.19890088 -0.05895476
0002a0 94 86 0d 3d 6f 88 5b 3b 31 4e e6 3c 74 0e 7f bd
       0.03455217 0.0033498069 0.028113456 -0.062269643
0002b0 04 ff 3c 3d 8d ab a0 bd 48 5c ba 3d ae 4a bb bd
       0.04614164 -0.07845221 0.090996325 -0.091451034
0002c0 72 d4 a6 bc f6 85 eb 3c b8 ef 19 bd 8e 95 85 3e
       -0.020364974 0.028750401 -0.03758213 0.26090664
0002d0 8d b6 04 bd f3 7f 47 bc 4c 6d a9 3a a2 53 90 3e
       -0.032400656 -0.012176502 0.001292625 0.28188807
0002e0 3d a3 ce bd 3f 06 08 3e 5a e6 85 bd 12 c2 27 be
       -0.10089729 0.13283633 -0.06538077 -0.16382626
0002f0 b8 d0 d8 3d ce fd ef bd db 9f 48 bd fd c6 1c be
       0.10586685 -0.11718331 -0.048980575 -0.15310283
000300 5c 0a b9 bd 74 5f 45 3d 61 ce 12 3d 80 a6 d3 3d
       -0.09035179 0.048186734 0.03584135 0.10334492
000310 ae 39 de 3d f9 bf 0f 3e 1f 2c 8e be 7f 17 ac 3d
       0.10850845 0.14038076 -0.27768037 0.08402919
000320 8b 00 19 be 5e 46 39 be fc a4 55 bd 8d 75 c1 3d
       -0.14941613 -0.18093249 -0.052159294 0.09446249
000330 94 c5 96 be 33 46 6b bb 0e 3a 87 3d 26 42 27 3e
       -0.29447615 -0.0035899996 0.0660287 0.16333827
000340 59 1b a6 3d e5 d1 dd bd e3 65 04 3e 99 47 6b bd
       0.08110685 -0.1083105 0.12929492 -0.057441328
000350 4e ee 47 bc ca 96 75 bc 9f 6a a3 3d a8 6f c3 3d
       -0.012202812 -0.014989564 0.07979321 0.09542781
000360 4a 36 fe bc d3 0a f7 bb cc b7 b8 3e c3 44 d6 3c
       -0.031031746 -0.007539132 0.36077726 0.026155835
000370 89 49 da bc 9e fe fe 3d b0 e4 b2 3c dc 1b 7a bd
       -0.026646392 0.12450908 0.021837562 -0.061061725
000380 83 4a a0 bb 59 c0 98 bc eb 75 e8 3c a1 12 73 bd
       -0.004891695 -0.018646406 0.02837654 -0.059343938
000390 47 e8 b5 3d 01 47 53 be 78 41 69 3d a0 66 60 3e
       0.08882194 -0.20632555 0.0569472 0.21914148
0003a0 42 3a cc bd 95 67 14 bd 41 cb 0f 3e d5 af 49 be
       -0.09972049 -0.036231596 0.14042379 -0.19695981
0003b0 71 53 f6 3c 8b 48 23 be 39 c2 9a 3d e9 f3 a1 3d
       0.030069085 -0.15945642 0.07556576 0.0790785
0003c0 a3 4b c7 bc a4 73 dc 3d 68 aa f7 3d db be 07 be
       -0.024328059 0.10764244 0.12093049 -0.132564
0003d0 7c 00 03 3e 59 16 d9 bc 96 e0 06 3e d4 69 0e be
       0.12793154 -0.026499914 0.1317161 -0.13907558
0003e0 ac fa 76 3e 31 62 70 bd e0 a0 fa 3d 8f c9 69 bd
       0.24119061 -0.058687393 0.12237716 -0.057076987
0003f0 13 89 20 be 88 ff a5 3d c9 53 ac 3d 3e 81 ea 3c
       -0.1567729 0.08105379 0.08414418 0.02862608

up1.bias f4 [16]
000000 5e ed 92 3c aa 8b 00 bd d2 79 d6 3c 70 65 10 bd
       0.017935451 -0.031383194 0.026181135 -0.03525299
000010 35 d7 de bc e6 ee f9 bc 24 a4 e5 bc aa 11 ec bc
       -0.027202228 -0.030509423 -0.02803237 -0.028817017
000020 02 32 be bc 85 0d c5 3c d7 a4 86 bc 59 09 d4 3c
       -0.023217205 0.024054298 -0.016436024 0.025883364
000030 e5 4b d8 3c 08 52 d0 3c 38 61 de bc 6f 68 c8 bc
       0.026403377 0.02542974 -0.027145967 -0.02446386
