sampling_based_planning_framework/checkpoints/checkpoint_epoch_96.pth (torch, 387058 bytes, 75 tensors)

enc1.0.weight f4 [8, 1, 3, 3]
-0.10771383 0.103744864 0.07384621 0.14414977 -0.11856498 0.08523182 0.0283305 -0.18159868
-0.073344216 0.13874698 -0.11428696 0.04476374 0.25077438 -0.08716088 0.14972372 -0.07075718
0.16421866 -0.097466566 0.16812111 -0.19740222 -0.20274113 0.16989182 -0.11024188 -0.15839969
-0.37210977 -0.20704295 -0.12789303 0.058382943 0.032904882 -0.22765133 0.05701065 0.1886919
0.36385658 -0.025637621 -9.55162e-06 -0.014738928 -0.12272148 0.06477611 -0.081200905 -0.28679556
0.22875923 -0.05791282 -0.057994787 0.10746325 -0.3244472 0.22212991 0.23132011 0.0047911713
0.37326545 -0.07532432 -0.08592466 0.099332206 -0.16005489 -0.24634431 0.011237223 0.052844547
0.1156996 0.13156925 -0.1212059 0.49319777 -0.043042395 0.12276281 0.12313797 0.14493866
-0.34086642 0.09089621 -0.17016937 -0.09025762 0.20556237 0.06623786 -0.11502109 0.059978716
00000000: 1299 dcbd 3078 d43d af3c 973d ff9b 133e
00000010: 32d2 f2bd 058e ae3d 5d15 e83c 01f5 39be
00000020: 7e35 96bd b013 0e3e 480f eabd 2f5a 373d
00000030: 8065 803e 6781 b2bd 2d51 193e 24e9 90bd
00000040: f028 283e 8d9c c7bd f127 2c3e cf23 4abe
00000050: 5f9b 4fbe 1ff8 2d3e 7fc6 e1bd 8733 22be
00000060: 2c85 bebe 1103 54be 64f6 02be f422 6f3d
00000070: 45c7 063d 6e1d 69be 0084 693d 7338 413e
00000080: 694b ba3e fd05 d2bc e53f 20b7 8b7b 71bc
00000090: 6655 fbbd 56a9 843d a94c a6bd ded6 92be
000000a0: dc3f 6a3e fe35 6dbd f18b 6dbd b115 dc3d
000000b0: f21d a6be 0676 633e 2edf 6c3e 42ff 9c3b
000000c0: a61c bf3e a343 9abd 45f9 afbd af6e cb3d
000000d0: 6ee5 23be af41 7cbe 541c 383c 8673 583d
000000e0: e9f3 ec3d 17ba 063e cd3a f8bd 6b84 fc3e
000000f0: 394d 30bd 116b fb3d c32f fc3d cd6a 143e
00000100: 0b86 aebe cb27 ba3d e140 2ebe fdd8 b8bd
00000110: f17e 523e b7a7 873d 2d90 ebbd 3eac 753d

enc1.0.bias f4 [8]
0.03660929 0.00013717648 0.03268309 -0.0007589898 0.058030777 0.00091856776 0.004449049 -0.0006377467
00000000: 9ff3 153d 08d7 0f39 b4de 053d f1f6 46ba
00000010: aeb1 6d3d 0acc 703a 54c9 913b 752e 27ba

enc1.2.weight f4 [8, 8, 3, 3]
0.03653434 0.06271837 -0.08559141 -0.25607452 0.49470046 0.17096011 -0.011679729 -0.03144
-0.02618462 -0.06973285 -0.08420657 -0.08127476 0.00070848764 -0.08769792 0.19050375 0.18345217
0.1831992 -0.26802918 0.073055886 0.15660687 0.09878078 -0.0864021 0.1274823 -0.10802715
-0.19387113 0.1566492 0.06599545 0.004144254 0.11030406 -0.2974462 0.22623491 -0.0075226272
0.043754637 0.005757288 0.06806016 -0.19810016 0.040490136 0.07568023 0.15747568 -0.1569863
0.030903418 0.016327433 -0.0010725338 -0.054947603 0.13130033 0.04421539 -0.28420067 0.07742231
0.016871605 0.32350835 -0.11401286 0.19734779 -0.14706092 -0.115662076 -0.07889594 0.18358938
-0.021119041 0.19316863 -0.0779756 -0.011595468 0.06987381 -0.4786785 -0.11154082 -0.0070836563
0.009172552 0.2186585 -0.059588864 -0.08669353 0.09761266 0.20324816 -0.010354486 -0.10106526
-0.18339956 0.046269696 0.014280504 0.13318123 0.14850682 0.13527074 -0.13818368 0.19415066
-0.21372733 0.042666968 0.27290276 -0.080738306 0.17973927 0.06308954 0.17937177 -0.052769564
-0.24114895 0.14820868 0.01544696 -0.29093188 0.2741151 -0.017109595 0.14632863 0.16414247
-0.0011096993 0.13204773 -0.13578796 -0.025382942 -0.09207649 0.18017627 0.4990956 0.03375677
0.020187296 0.110476695 0.53940904 0.09125064 -0.2983244 0.026828473 -0.034513302 -0.34719256
0.14058551 -0.20735855 -0.08787234 0.15232702 0.3151925 -0.07408616 -0.07038914 0.018693393
0.06416363 0.21746522 0.120833136 -0.0041993316 -0.032771163 -0.041602504 0.24222006 0.01860786
-0.27991903 0.28906977 0.22500686 -0.087546125 0.3967629 0.24976271 0.046241034 -0.04317357
0.2965509 0.14925358 0.2853538 0.33791655 0.20221935 0.13905373 -0.13371429 0.17267798
0.08740503 0.21414897 0.030261245 0.20975697 0.08968536 -0.0824715 0.10405315 0.54610425
-0.11877267 -0.35050425 -0.03344459 0.09684685 0.20184293 -0.019135337 -0.028547341 0.084228866
-0.45365 -0.15880606 -0.19690874 -0.05842507 -0.3429277 0.11710862 0.075960495 0.25758526
0.031208158 0.17667712 -0.08294437 0.3041729 0.027635561 -0.04405684 0.0005960718 0.11737877
0.14958273 -0.2649583 -0.18374568 -0.058454987 0.20692475 -0.17461841 0.3585358 -0.2414961
-0.051177498 0.12771992 -0.21884064 -0.0063471785 -0.0044491864 -0.08611527 -0.4203413 0.29180047
0.11607514 -0.32146147 -0.32177344 0.025280474 -0.38970852 0.039650735 0.07180569 -0.01022303
-0.09756246 -0.2890682 0.331533 0.10980961 -0.275283 -0.0811189 0.1869317 0.11807955
-0.03193842 -0.016235065 0.26533782 -0.08544358 -0.09625753 0.113471486 0.11077449 -0.2602435
0.02924455 0.23283592 0.0067961263 -0.059532873 0.009851366 -0.2060808 0.17510104 0.040115733
0.04413499 -0.40119672 -0.3145876 -0.20866929 -0.023026237 -0.26169354 -0.06969568 0.29232663
0.14384061 0.13384624 -0.016110484 0.06362348 0.033523362 -0.09821814 -0.039850265 0.090589955
0.07408981 0.20155361 -0.20560369 -0.037422977 0.051236037 0.101118505 -0.38914263 -0.21144058
0.027550854 0.094750874 0.14805974 0.12513757 0.35680428 -0.05242558 -0.13690215 -0.23389085
00000000: 08a5 153d 7d72 803d 8d4a afbd 331c 83be
00000010: 6149 fd3e 2b10 2f3e 565c 3fbc 3bc7 00bd
00000020: 2181 d6bc 19d0 8ebd 7f74 acbd 6273 a6bd
00000030: cdb9 393a f89a b3bd 6a13 433e e3da 3b3e
00000040: 9298 3b3e 1f3b 89be 539e 953d 8d5d 203e
00000050: 944d ca3d 96f3 b0bd b88a 023e 573d ddbd
00000060: 2786 46be a668 203e 9f28 873d 86cc 873b
00000070: 18e7 e13d de4a 98be 20aa 673e 5f80 f6bb
00000080: 1038 333d a2a7 bc3b 2063 8b3d c5da 4abe
00000090: fcd8 253d 3dfe 9a3d 4e41 213e 04c1 20be
000000a0: 2a29 fd3c 1cc1 853c 4394 8cba bd10 61bd
000000b0: 9873 063e 321b 353d c082 91be 978f 9e3d
000000c0: 5236 8a3c e3a2 a53e 937f e9bd 8a15 4a3e
000000d0: 2397 16be 3de0 ecbd 3294 a1bd dbfe 3b3e
000000e0: d701 adbc ffcd 453e acb1 9fbd ebfa 3dbc
000000f0: 001a 8f3d 5915 f5be 836f e4bd 041e e8bb
00000100: 7948 163c 04e8 5f3e 7413 74bd 618c b1bd
00000110: 25e9 c73d 4920 503e dda5 29bc 4efb cebd
00000120: 18cd 3bbe 4b85 3d3d c6f8 693c a960 083e
00000130: 2c12 183e 6a84 0a3e 0680 0dbe 6ecf 463e
00000140: 56db 5abe 8fc3 2e3d e9b9 8b3e 205a a5bd
00000150: 920d 383e 1735 813d 3cad 373e e624 58bd
00000160: c0ef 76be 04c4 173e 3f15 7d3c 06f5 94be
00000170: d058 8c3e 6c29 8cbc 2cd7 153e f714 283e
00000180: 5473 91ba 8537 073e 000c 0bbe e3ef cfbc
00000190: 9992 bcbd 2180 383e 7589 ff3e 8a44 0a3d
000001a0: d45f a53c 9b41 e23d b616 0a3f 9ee1 ba3d
000001b0: fabd 98be 63c7 db3c d25d 0dbd 39c3 b1be
000001c0: a6f5 0f3e cd55 54be 6af6 b3bd 9dfb 1b3e
000001d0: e960 a13e 7cba 97bd 2e28 90bd e322 993c
000001e0: 3968 833d 34af 5e3e 5d77 f73d 8c9a 89bb
000001f0: 0e3b 06bd 6367 2abd 8908 783e 836f 983c
00000200: 8c51 8fbe f400 943e 3368 663e 624b b3bd
00000210: 8224 cb3e ccc1 7f3e 3d67 3d3d c5d6 30bd
00000220: 85d5 973e eed5 183e e519 923e 6603 ad3e
00000230: 9712 4f3e 1a64 0e3e 66ec 08be 7fd2 303e
00000240: 6901 b33d de49 5b3e 6ee6 f73c 88ca 563e
00000250: f5ac b73d d1e6 a8bd d119 d53d 7dcd 0b3f
00000260: 163f f3bd 4b75 b3be 32fd 08bd a457 c63d
00000270: eaaf 4e3e b6c1 9cbc 1ddc e9bc 2f80 ac3d
00000280: d044 e8be 0e9e 22be 72a2 49be 204f 6fbd
00000290: 3894 afbe a5d6 ef3d 2d91 9b3d 37e2 833e
000002a0: 40a8 ff3c d9ea 343e bdde a9bd 8dbc 9b3e
000002b0: f963 e23c f274 34bd b441 1c3a 4864 f03d
000002c0: 372c 193e 9da8 87be d427 3cbe 7f6e 6fbd
000002d0: 15e4 533e 2bcf 32be 0192 b73e c14a 77be
000002e0: 7f9f 51bd 03c9 023e c317 60be fefb cfbb
000002f0: 7bca 91bb 345d b0bd fa36 d7be df66 953e
00000300: ceb8 ed3d 9996 a4be 7dbf a4be ff18 cf3c
00000310: e087 c7be cf68 223d dd0e 933d 7f7e 27bc
00000320: d4ce c7bd bf00 94be b2be a93e dce3 e03d
00000330: e5f1 8cbe aa21 a6bd 066b 3f3e b1d3 f13d
00000340: dcd1 02bd 66ff 84bc 5cda 873e 0bfd aebd
00000350: ab22 c5bd bd63 e83d bcdd e23d a33e 85be
00000360: 4492 ef3c 8a6c 6e3e 0ab2 de3b bed8 73bd
00000370: a067 213c d806 53be b04d 333e 6550 243d
00000380: e4c6 343d a869 cdbe a011 a1be 67ad 55be
00000390: 85a1 bcbc b2fc 85be 9cbc 8ebd d6ab 953e
000003a0: f44a 133e fd0e 093e 22fa 83bc 074d 823d
000003b0: cb4f 093d 9826 c9bd 083a 23bd 3a87 b93d
000003c0: 66bc 973d 1264 4e3e c689 52be d648 19bd
000003d0: e1dc 513d 3817 cf3d b43d c7be e183 58be
000003e0: 54b2 e13c bf0c c23d f99c 173e 1024 003e
000003f0: 0daf b63e 34bc 56bd 1430 0cbe 1581 6fbe

enc1.2.bias f4 [8]
-0.03523587 0.00024338151 0.04071275 -0.011806408 0.004571382 0.034990758 0.030091163 0.009127281
00000000: 7d53 10bd 3a34 7f39 6ac2 263d aa6f 41bc
00000010: 88cb 953b 7852 0f3d be81 f63c 978a 153c

enc2.0.weight f4 [16, 8, 3, 3]
0.010665363 -0.038595818 -0.01819218 -0.14453904 -0.18542321 0.08721171 0.05784834 -0.078293264
0.24257736 0.001977093 0.0533956 -0.045612305 -0.22050263 0.081400715 -0.057992 -0.09133747
-0.046975683 0.17967606 0.011016082 0.1209401 -0.14936365 -0.04369137 -0.014930026 -0.12274474
0.08581801 0.26159376 0.11745861 -0.048833147 0.091994464 0.0991848 -0.029603247 -0.17530529
-0.0064093457 -0.18544452 -0.15479636 -0.081071295 0.14164542 -0.026185768 -0.20013504 -0.034293767
0.05631933 -0.039227776 -0.11765494 -0.11334445 0.05538035 0.06377335 0.055169113 0.13753462
0.22419177 -0.031608667 0.14511807 0.1744061 -0.032435402 0.11789995 0.18469688 -0.050930437
-0.31423885 -0.1804537 0.2002201 -0.069050044 0.091151476 0.21226332 0.18280548 0.0026113847
-0.16771905 0.024308456 -0.029138424 -0.0054084505 0.10059181 -0.11041101 -0.18009411 -0.0020139292
-0.006675262 0.036994632 -0.01644873 -0.06949473 -0.016184244 -0.109582044 -0.054201405 0.015138972
0.12704477 -0.04614458 0.0031778337 0.27442607 0.008766128 -0.10439066 0.003057954 -0.054008238
0.00788281 -0.11451254 0.055009235 0.06669509 0.1698553 0.0902026 0.032781478 0.073632985
-0.17610948 0.10433689 0.027982356 -0.015300293 -0.09201177 0.081502564 -0.17690632 0.06124188
0.013716438 0.13088877 -0.2316668 0.033916436 0.11697216 -0.040566772 -0.014547307 -0.0355832
0.105039075 0.06258158 0.17435485 0.2365302 0.017495686 -0.062349208 -0.090445876 0.17482002
0.17013574 0.1553776 0.07500108 -0.13308397 0.10247616 0.11923294 0.19546966 -0.01215454
0.06111758 0.016452126 0.18720692 -0.1287381 0.015950168 -0.029026425 0.19944637 -0.27324083
0.14628436 -0.1935706 -0.17785373 0.04197481 -0.03346726 0.031156136 -0.010167809 -0.110381365
-0.033475645 -0.027463151 -0.14759196 -0.0028439285 0.13938545 0.2303419 0.31816098 0.17497547
-0.14910676 -0.031021638 -0.16079961 -0.13750286 0.12844142 0.17152087 -0.01736446 0.05351962
-0.12982774 -0.24034344 0.12265135 -0.0011433052 -0.17454126 -0.09711027 0.027921217 0.14570628
-0.08150717 -0.14622949 0.10092028 0.20177151 -0.019414866 0.11691595 0.13416493 -0.004219133
-0.03492656 0.18204205 -0.030033136 -0.06348502 0.10392328 0.07134085 0.12376628 0.19613867
0.10929115 0.39049593 0.3101056 0.16208515 0.05189781 -0.09574097 0.14515883 -0.12636147
-0.09478167 -0.064644344 0.19610558 0.24389306 0.09081589 -0.09874895 0.13201576 0.074843846
-0.027832586 0.066387475 0.15367793 0.09041248 0.11681076 0.079380885 -0.018984536 0.18314971
-0.18579403 0.029447062 0.12713191 -0.0063945362 0.23616345 -0.16177562 0.0077437432 -0.17604306
-0.06372528 0.013181164 0.13415197 -0.033104643 0.034374293 0.23467194 0.010594678 -0.07737663
-0.053609222 -0.3978459 -0.15269706 0.024320265 -0.07559063 -0.2199333 0.041922778 0.16155349
-0.0071424446 0.08686612 0.033570398 -0.071961984 -0.07596063 -0.06960513 0.08168449 -0.121791035
0.057066884 0.0032257675 0.031367403 -0.03330848 -0.120351434 0.23389578 -0.025810126 -0.057351045
0.08128211 -0.030622017 0.25512904 0.14843026 -0.33927026 -0.25985909 0.018315677 0.014799004
00000000: c6bd 2e3c a616 1ebd c407 95bc 0b02 14be
00000010: 95df 3dbe 0e9c b23d 62f2 6c3d 3858 a0bd
00000020: 3366 783e 1e92 013b 58b5 5a3d f8d3 3abd
00000030: 71cb 61be 6bb5 a63d 0589 6dbd 240f bbbd
00000040: 9369 40bd 00fd 373e cc7c 343c 71af f73d
00000050: c9f2 18be b9f5 32bd 119d 74bc 9861 fbbd
00000060: 5ac1 af3d 9eef 853e 248e f03d 4405 48bd
00000070: 9867 bc3d 6721 cb3d 8282 f2bc 3b83 33be
00000080: 7d05 d2bb 2be5 3dbe f082 1ebe b508 a6bd
00000090: 7f0b 113e 8983 d6bc 33f0 4cbe 9f77 0cbd
000000a0: 19af 663d 4ead 20bd 13f5 f0bd 2321 e8bd
000000b0: 82d6 623d 9a9b 823d 02f9 613d e0d5 0c3e
000000c0: 8792 653e 1778 01bd d599 143e 8397 323e
000000d0: fcda 04bd 8775 f13d 2e21 3d3e 6f9c 50bd
000000e0: eae3 a0be dbc8 38be 7f06 4d3e 1c6a 8dbd
000000f0: a0ad ba3d 8e5b 593e 5c31 3b3e c423 2b3b
00000100: 8bbe 2bbe 8722 c73c b4b3 eebc 5f39 b1bb
00000110: 1403 ce3d 2b1f e2bd 976a 38be 20fc 03bb
00000120: 28bc dabb af87 173d 7dbf 86bc 4153 8ebd
00000130: d294 84bc 8d6c e0bd 4b02 5ebd 7309 783c
00000140: 0618 023e 1902 3dbd 3443 503b 9381 8c3e
00000150: ce9f 0f3c c5ca d5bd f467 483b be37 5dbd
00000160: e726 013c 8d85 eabd 5d51 613d 6f97 883d
00000170: 8cee 2d3e 24bc b83d df45 063d e4cc 963d
00000180: 0b56 34be 94ae d53d 413b e53c 15ae 7abc
00000190: ab70 bcbd d1ea a63d ee26 35be c4d8 7a3d
000001a0: e9ba 603c b507 063e 103a 6dbe f6eb 0a3d
000001b0: 1a8f ef3d 5829 26bd d457 6ebc b1bf 11bd
000001c0: ba1e d73d c52a 803d 148a 323e f934 723e
000001d0: 1d53 8f3c e261 7fbd b03b b9bd 0504 333e
000001e0: 1038 2e3e 4e1b 1f3e 2b9a 993d 2a47 08be
000001f0: 05df d13d 6630 f43d 3329 483e d623 47bc
00000200: 6d56 7a3d 9cc6 863c 2cb3 3f3e ecd3 03be
00000210: eda9 823c d3c8 edbc ab3b 4c3e 39e6 8bbe
00000220: 91cb 153e 5f37 46be 4a1f 36be c7ed 2b3d
00000230: f714 09bd 273b ff3c e296 26bc a00f e2bd
00000240: c21d 09bd 67fa e0bc 5922 17be 3461 3abb
00000250: 0fbb 0e3e bfde 6b3e ffe5 a23e c52c 333e
00000260: 71af 18be 1721 febc a7a8 24be 8dcd 0cbe
00000270: 2686 033e 2ba3 2f3e e93f 8ebc 6437 5b3d
00000280: 90f1 04be 971c 76be a230 fb3d f5da 95ba
00000290: f2ba 32be c0e1 c6bd 09bb e43c 0734 153e
000002a0: 3bed a6bd 2fbd 15be 4baf ce3d 319d 4e3e
000002b0: ed0b 9fbc a171 ef3d 8862 093e a740 8abb
000002c0: 270f 0fbd 3b69 3a3e 0d08 f6bc 6f04 82bd
000002d0: bbd5 d43d 271b 923d 2d79 fd3d 93d8 483e
000002e0: 0ad4 df3d 15ef c73e 29c6 9e3e a6f9 253e
000002f0: cc92 543d d713 c4bd 84a4 143e e764 01be
00000300: e41c c2bd 4164 84bd e7cf 483e 1abf 793e
00000310: aefd b93d e43c cabd 242f 073e bb47 993d
00000320: 2a01 e4bc 28f6 873d bf5d 1d3e 2e2a b93d
00000330: 7b3a ef3d 7292 a23d 7585 9bbc 998b 3b3e
00000340: ca40 3ebe f73a f13c de2e 023e 4289 d1bb
00000350: d5d4 713e 82a8 25be 3abf fd3b a244 34be
00000360: 6682 82bd cff5 573c 225f 093e bc98 07bd
00000370: 0fcc 0c3d d74d 703e 4d95 2d3c a377 9ebd
00000380: 5895 5bbd 75b2 cbbe 9e5c 1cbe 4b3b c73c
00000390: 43cf 9abd 3236 61be 38b7 2b3d 476e 253e
000003a0: 2b0b eabb dde6 b13d 1d81 093d ce60 93bd
000003b0: 3f91 9bbd 228d 8ebd 334a a73d 946d f9bd
000003c0: f7be 693d 6667 533b 1b7b 003d 796e 08bd
000003d0: d07a f6bd 6082 6f3e c26f d3bc eee8 6abd
000003e0: 3c77 a63d 06db fabc 46a0 823e 1afe 173e
000003f0: d5b4 adbe 400c 85be c20a 963c 8677 723c

enc2.0.bias f4 [16]
0.035087764 0.030843398 -0.01459881 0.0449708 0.0116207525 0.039781205 -0.021376591 -0.031175476
0.028087463 0.0062628454 0.0323949 0.038679976 0.032522157 0.025801558 0.025119146 0.04099861
00000000: 30b8 0f3d 4bab fc3c d92f 6fbc 4d33 383d
00000010: f864 3e3c 9ef1 223d f61d afbc b663 ffbc
00000020: ae17 e63c 8e38 cd3b 84b0 043d e56e 1e3d
00000030: f435 053d ca5d d33c abc6 cd3c 29ee 273d

enc2.2.weight f4 [16, 16, 3, 3]
0.0064499965 0.047881324 -0.02068321 -0.12264132 0.13632503 0.062496915 -0.066049054 -0.031376027
-0.012811212 -0.12010267 0.22477002 -0.115581304 -0.17968057 0.038208455 0.16917394 -0.23519833
-0.034622334 -0.032244656 -0.1355369 -0.070847586 -0.124582216 -0.11635197 0.305261 0.041867882
-0.047397513 0.14445978 -0.06323563 0.21488184 0.1404121 -0.07404338 0.1712127 0.19837801
-0.086482935 -0.0684726 -0.32044405 0.20323472 -0.023433924 -0.025248902 0.1797692 -0.14638436
-0.108159 0.23141849 -0.042399723 -0.39618903 -0.100297175 0.013377923 -0.0319978 0.12333276
0.021199416 -0.00084072584 -0.10597496 -0.079039305 -0.24817036 -0.087720625 0.022015756 -0.024051828
-0.099452406 0.13101861 -0.12383165 0.15731618 0.037210714 0.106357574 0.033279154 0.0561143
0.10258896 0.0496698 -0.117939524 -0.010670336 -0.15477517 0.11307987 0.15894252 -0.02426877
0.24563259 0.020296391 0.18433596 -0.088323645 0.06693167 0.2075494 -0.0021763723 -0.20345473
0.16321139 -0.21930915 -0.026890662 -0.18682931 0.14328934 0.17397536 0.064965874 -0.0689361
-0.19437702 0.2121708 0.00759615 -0.13970907 0.10708515 -0.077570304 0.11650519 0.019172424
-0.26419804 0.034672137 0.18302733 0.12894453 -0.039010756 -0.048767462 -0.05842305 0.14850892
0.05922745 0.0145241115 -0.037993435 0.07562012 -0.08741523 0.027020888 0.19659148 -0.21323307
-0.065803975 -0.06348094 -0.0003713452 0.14218853 0.14571135 0.024893165 0.10138091 -0.16940819
0.1513824 0.12976126 -0.080026574 0.07121451 0.024806648 -0.06210915 0.15675156 -0.067498475
-0.09826893 -0.027068077 -0.07614109 0.047045875 -0.25764367 0.055082846 -0.11807108 -0.11798565
0.06500313 0.18493539 -0.1272805 0.112242915 -0.037207462 0.079926714 -0.009021253 0.08137912
0.0037079141 0.066741936 0.108201 -0.01916254 0.13371226 0.13191544 0.1899604 -0.08090114
0.16349861 0.17850015 0.08640054 0.0090163965 -0.2706134 0.10494578 -0.11268105 0.006755149
-0.07591418 -0.13382769 0.14291322 0.06126677 0.12829614 -0.2399851 -0.035960928 -0.044879418
-0.04037726 -0.040077355 -0.035662286 -0.21346025 -0.18119563 -0.07821061 0.121685356 -0.037591215
-0.19948305 -0.08442689 -0.029370831 0.044461112 -0.00047349225 0.0230175 0.048702765 0.03530866
0.05735364 0.18592334 0.15620653 0.13535802 -0.019698622 0.020801796 0.18687679 -0.100180306
-0.10179934 0.034821738 0.060957402 0.19887102 0.2816295 -0.009457212 -0.06289831 -0.062124405
-0.06772593 -0.15209843 0.11952001 0.13611755 -0.10123637 -0.075797915 0.1923627 0.13856834
-0.13832921 0.11826775 -0.0020421217 0.028640307 -0.049591452 0.07340632 -0.063257165 -0.012594022
0.052798647 0.17385472 -0.18378432 -0.008518473 0.31609258 0.12736657 -0.05964634 0.02224456
-0.02063895 0.29073465 -0.084524885 -0.12684281 -0.12284843 0.04762884 0.029124983 -0.17092015
-0.44025618 -0.085064895 -0.018245902 -0.18357313 0.025052685 0.18800606 0.067137375 -0.25067484
-0.15187858 0.08744477 -0.04875576 0.04169085 -0.20420575 -0.105512045 0.043914497 -0.1563789
0.30208093 0.1372719 0.37134662 -0.06205195 0.053105943 0.024604501 -0.024899313 0.13826112
00000000: 7e5a d33b 351f 443d d66f a9bc 5f2b fbbd
00000010: ca98 0b3e c4fc 7f3d ba44 87bd 2684 00bd
00000020: 1ee6 51bc 63f8 f5bd 1d2a 663e e4b5 ecbd
00000030: 2ffe 37be 7880 1c3d ef3b 2d3e d5d7 70be
00000040: 26d0 0dbd f912 04bd 2fca 0abe 8a18 91bd
00000050: f624 ffbd f149 eebd 2b4b 9c3e a87d 2b3d
00000060: e523 42bd 44ed 133e af81 81bd fc09 5c3e
00000070: 31c8 0f3e 0ea4 97bd 6252 2f3e 9b23 4b3e
00000080: f71d b1bd 5d3b 8cbd 3e11 a4be c31c 503e
00000090: 80f8 bfbc c9d6 cebc 6b15 383e c8e5 15be
000000a0: 7782 ddbd f8f8 6c3e 55ab 2dbd 4ad9 cabe
000000b0: 9b68 cdbd 132f 5b3c 2010 03bd e395 fc3d
000000c0: 66aa ad3c 2864 5cba 6609 d9bd 5cdf a1bd
000000d0: 5f20 7ebe dfa6 b3bd 635a b43c 5708 c5bc
000000e0: b4ad cbbd be29 063e 739b fdbd 7e17 213e
000000f0: 436a 183d 00d2 d93d b94f 083d 1cd8 653d
00000100: 291a d23d 8f72 4b3d 478a f1bd a2d2 2ebc
00000110: 627d 1ebe 6b96 e73d d4c1 223e 4dcf c6bc
00000120: 1c87 7b3e 9e44 a63c 91c2 3c3e 07e3 b4bd
00000130: 7913 893d d487 543e 78a1 0ebb 7056 50be
00000140: e320 273e 9492 60be ce49 dcbc 2f50 3fbe
00000150: 71ba 123e 9926 323e d40c 853d 5f2e 8dbd
00000160: c50a 47be 4d43 593e 20e9 f83b e50f 0fbe
00000170: 764f db3d 2edd 9ebd 469a ee3d 7d0f 9d3c
00000180: f744 87be 5f04 0e3d 846b 3b3e 090a 043e
00000190: bec9 1fbd 64c0 47bd 024d 6fbd b912 183e
000001a0: 7c98 723d 8af6 6d3c 019f 1bbd b9de 9a3d
000001b0: c206 b3bd e95a dd3c 474f 493e c559 5abe
000001c0: 3cc4 86bd 4c02 82bd 1cb1 c2b9 df99 113e
000001d0: 5b35 153e c0ec cb3c cba0 cf3d 5779 2dbe
000001e0: fd03 1b3e 23e0 043e f9e4 a3bd ead8 913d
000001f0: 5037 cb3c 2a66 7ebd 7b83 203e a43c 8abd
00000200: 3941 c9bd dfbd ddbc dcef 9bbd 2db3 403d
00000210: dfe9 83be 8d9e 613d 40cf f1bd 76a2 f1bd
00000220: 5c20 853d b45f 3d3e d255 02be 9ddf e53d
00000230: da66 18bd 9eb0 a33d e1cd 13bc 19aa a63d
00000240: 7a00 733b ffaf 883d 7c98 dd3d c2fa 9cbc
00000250: deeb 083e d714 073e fb84 423e 7faf a5bd
00000260: 2e6c 273e bec8 363e c4f2 b03d 82b9 133c
00000270: d78d 8abe d0ed d63d 53c5 e6bd 4c5a dd3b
00000280: e578 9bbd 200a 09be d857 123e ddf2 7a3d
00000290: 1060 033e a7be 75be c44b 13bd 7bd3 37bd
000002a0: a062 25bd 2728 24bd 9e12 12bd 5395 5abe
000002b0: 598b 39be e22c a0bd 2c36 f93d 3ff9 19bd
000002c0: 4945 4cbe 01e8 acbd 199b f0bc db1c 363d
000002d0: 0e3f f8b9 328f bc3c 8d7c 473d d09f 103d
000002e0: a7eb 6a3d b062 3e3e 9bf4 1f3e 4b9b 0a3e
000002f0: 015f a1bc 8768 aa3c a15c 3f3e 552b cdbd
00000300: 2c7c d0bd 3da1 0e3d 78ae 793d d8a4 4b3e
00000310: be31 903e 6cf2 1abc d4d0 80bd 2976 7ebd
00000320: e4b3 8abd b1bf 1bbe e8c6 f43d 6662 0b3e
00000330: 0455 cfbd f03b 9bbd bafa 443e dce4 0d3e
00000340: 2ca6 0dbe 5d36 f23d 1ed5 05bb 149f ea3c
00000350: 6820 4bbd 0d56 963d f98c 81bd 2857 4ebc
00000360: 6543 583d f906 323e f531 3cbe 1191 0bbc
00000370: e3d6 a13e 626c 023e b84f 74bd 393a b63c
00000380: 0413 a9bc 2cdb 943e 621b adbd 15e3 01be
00000390: f597 fbbd 7516 433d 8497 ee3c b105 2fbe
000003a0: 4269 e1be 8136 aebd 6e78 95bc 98fa 3bbe
000003b0: 4a3b cd3c a984 403e 527f 893d 7458 80be
000003c0: 0f86 1bbe 3e16 b33d 1fb4 47bd 06c4 2a3d
000003d0: 501b 51be b316 d8bd b0df 333d ca21 20be
000003e0: 5aaa 9a3e 0191 0c3e 2521 be3e 2f2a 7ebd
000003f0: 9e85 593d 618f c93c a5f9 cbbc 5394 0d3e

enc2.2.bias f4 [16]
0.01860696 0.032766502 -0.0022287664 0.011547146 0.033679005 0.02352858 -0.00702643 -0.004856135
0.05891448 0.03117419 0.0137709845 -0.012808455 0.018788936 -0.01544754 0.035432886 0.02956353
00000000: a06d 983c 2b36 063d 7f10 12bb 3e30 3d3c
00000010: fff2 093d 02bf c03c f83d e6bb 3720 9fbb
00000020: 4f50 713d 0461 ff3c b29f 613c 8eda 51bc
00000030: 41eb 993c ae17 7dbc 1322 113d 372f f23c

bottleneck.0.weight f4 [32, 16, 3, 3]
-0.086958714 0.02750148 0.055139676 0.054759853 0.06938537 -0.041347135 0.025359616 0.02302308
-0.15648253 -0.018041702 -0.16948661 0.08335147 -0.013929941 0.06691088 0.123989284 -0.17196211
0.22032823 0.023673775 0.041247416 0.07739109 0.09081734 -0.04703759 0.12980261 0.21114612
-0.035290845 -0.019765204 -0.03300699 0.03937258 -0.06522115 -6.972749e-05 -0.043780178 -0.09614976
-0.04079535 0.12796299 -0.0036810816 -0.077183574 -0.07723643 -0.07824305 -0.011353535 -0.056485955
0.039469916 -0.17077823 0.1026535 -0.13811886 0.12595908 -0.022633612 0.105615325 0.037361976
-0.09657569 0.055137005 -0.028641906 0.121717036 0.08775938 -0.04326405 0.015502616 0.10797355
-0.008089381 0.069885105 -0.035366014 -0.16065747 -0.0617752 0.26001963 0.08448595 -0.075404115
0.022853872 -0.05969477 0.029664565 0.13452809 0.08083178 0.01776521 -0.0009380317 -0.053000458
0.02655058 0.026842237 -0.15461516 0.10581247 -0.055989005 -0.056998834 -0.027898435 0.14289026
0.19403471 -0.095614895 0.10100051 0.05520969 -0.031162687 0.051404316 0.15301667 -0.11097721
0.03297604 -0.007970267 0.013745155 -0.024202082 -0.0632739 0.11039836 0.15158744 0.124815494
0.0028981792 0.1075247 -0.0007470372 -0.042243324 0.07332866 -0.018251551 -0.007897412 0.053384725
0.015220377 0.033280384 0.26952225 0.10297977 0.018984944 0.043710414 -0.035986543 0.16141333
0.07632577 -0.100224674 -0.038372003 -0.04464896 -0.190597 0.08887773 0.06282938 -0.09682534
0.16249691 -0.039631918 0.02780968 -0.013621807 0.010992718 0.23248984 0.0020830866 0.043700296
-0.15541801 0.05508602 -0.05140786 -0.029046092 0.025930626 -0.111980245 -0.06053327 0.031226685
0.17227139 0.0363831 0.059235573 0.04428081 0.03953961 0.09255145 0.049639598 0.034132555
0.025230173 -0.07270069 0.10505251 0.015902162 0.049081028 0.010427937 -0.029083781 -0.059399042
0.058940373 0.05257858 -0.079250865 -0.0038536238 0.04282962 0.0016013384 -0.1911812 -0.05165941
-0.07814677 0.24873048 -0.014275411 -0.12093742 -0.07571307 -0.0474809 -0.09864491 0.009317262
-0.05828136 0.044001587 0.08239528 -0.061140794 -0.062908 0.03295292 0.042320173 -0.053892877
0.016294636 0.055892576 0.040714297 0.10379657 0.04961757 0.024559045 0.11007737 0.113011256
0.08945678 0.09614665 0.04369554 -0.017373485 -0.09768245 -0.039075896 -0.014096723 -0.05832261
-0.029290743 -0.012649121 -0.06391829 0.052377813 -0.040461276 0.095588 -0.12194199 -0.06281378
-0.08780467 0.057788577 0.06790435 -0.14800136 0.094446555 0.11592128 0.18420693 -0.17920074
-0.05737251 -0.24164635 0.10866089 0.22196499 -0.062096056 0.041064207 0.024020959 -0.0637996
-0.030746214 0.12591751 0.03381594 -0.01820163 -0.04976053 -0.03900454 -0.09100289 0.21972106
0.15347427 0.008210516 -0.038116504 -0.12444568 0.044661142 -0.14165886 -0.08366728 -0.20665134
0.09411873 -0.13362162 0.05921107 0.071541555 -0.0898774 0.128226 -0.025346786 -0.12076807
0.04832987 -0.014722902 0.13343804 -0.0389306 -0.030152293 0.18353023 0.067388006 -0.044546213
0.053767126 0.037929546 0.00081631046 0.11949129 0.11815551 0.17247765 -0.04017841 -0.08033929
00000000: 6917 b2bd c94a e13c 24da 613d de4b 603d
00000010: eb19 8e3d 9d5b 29bd f8be cf3c e69a bc3c
00000020: f53c 20be 31cc 93bc e68d 2dbe 2db4 aa3d
00000030: 683a 64bc 9208 893d 18ee fd3d d616 30be
00000040: b99d 613e 81ef c13c 0df3 283d 387f 9e3d
00000050: 71fe b93d 7daa 40bd faea 043e b036 583e
00000060: 228d 10bd a3ea a1bc 5632 07bd 2445 213d
00000070: ab92 85bd a93a 92b8 d852 33bd 2aea c4bd
00000080: 0619 27bd bb08 033e 4d3e 71bb 6c12 9ebd
00000090: 222e 9ebd e43d a0bd 2d04 3abc d15d 67bd
000000a0: 35ab 213d 7de0 2ebe 003c d23d 086f 0dbe
000000b0: 6bfb 003e 206a b9bc d94c d83d df08 193d
000000c0: 7ac9 c5bd 57d7 613d 6ea2 eabc c846 f93d
000000d0: 31bb b33d a535 31bd affe 7d3c 3d21 dd3d
000000e0: 5389 04bc ec1f 8f3d f4db 10bd 6483 24be
000000f0: fe07 7dbd 4b21 853e f806 ad3d 796d 9abd
00000100: 0b38 bb3c 8182 74bd 1a03 f33c bbc1 093e
00000110: 228b a53d 5888 913c 3ee6 75ba 0217 59bd
00000120: 9a80 d93c 40e4 db3c 7053 1ebe 35b4 d83d
00000130: ba54 65bd 9c77 69bd 428b e4bc d351 123e
00000140: 09b1 463e bed1 c3bd 5bd9 ce3d 8e23 623d
00000150: e448 ffbc 558d 523d 67b0 1c3e 0548 e3bd
00000160: e211 073d b995 02bc 5c33 613c 7243 c6bc
00000170: bf95 81bd 8918 e23d bd39 1b3e 449f ff3d
00000180: 61ef 3d3b e935 dc3d d1d4 43ba 5607 2dbd
00000190: 562d 963d 4784 95bc 2664 01bc f1a9 5a3d
000001a0: e35e 793c 0351 083d d2fe 893e 0fe7 d23d
000001b0: 5086 9b3c b109 333d a066 13bd 8949 253e
000001c0: af50 9c3d 9842 cdbd f62b 1dbd d4e1 36bd
000001d0: dc2b 43be 8705 b63d b1ac 803d 5d4c c6bd
000001e0: 9765 263e 1455 22bd 20d1 e33c 002e 5fbc
000001f0: cd1a 343c d111 6e3e 6584 083b 15ff 323d
00000200: e625 1fbe e1a1 613d 0c91 52bd 12f2 edbc
00000210: 776c d43c e655 e5bd bcf1 77bd 1bcf ff3c
00000220: e967 303e 7206 153d 00a1 723d cb5f 353d
00000230: 49f4 213d 9d8b bd3d e452 4b3d 94ce 0b3d
00000240: 82af ce3c 19e4 94bd c525 d73d 4045 823c
00000250: 3009 493d f0d9 2a3c 1c41 eebc 694c 73bd
00000260: 766b 713d a35c 573d 474e a2bd 148d 7cbb
00000270: 1d6e 2f3d 00e4 d13a 01c5 43be d198 53bd
00000280: 6a0b a0bd 34b3 7e3e 6ae3 69bc 0aae f7bd
00000290: 740f 9bbd 557b 42bd 5806 cabd 6ea7 183c
000002a0: 6fb8 6ebd 023b 343d dbbe a83d c56e 7abd
000002b0: e9d5 80bd a4f9 063d eb57 2d3d c7be 5cbd
000002c0: 547c 853c 9def 643d 09c4 263d 4c93 d43d
000002d0: cb3b 4b3d 0d30 c93c 3f70 e13d 7272 e73d
000002e0: 1e35 b73d 89e8 c43d 18fa 323d d752 8ebc
000002f0: bd0d c8bd 0c0e 20bd f1f5 66bc b0e3 6ebd
00000300: 24f3 efbc 423e 4fbc 98e7 82bd 1e8a 563d
00000310: b9ba 25bd a4c3 c33d b9bc f9bd 83a4 80bd
00000320: efd2 b3bd b7b3 6c3d 7011 8b3d ab8d 17be
00000330: 326d c13d 2368 ed3d bea0 3c3e 6680 37be
00000340: 70ff 6abd 2472 77be 9a89 de3d ca4a 633e
00000350: 6f58 7ebd f132 283d 9ac7 c43c 5da9 82bd
00000360: 7cdf fbbc 85f0 003e 9582 0a3d 961b 95bc
00000370: b3d1 4bbd 39c3 1fbd b95f babd 8ffe 603e
00000380: 5c28 1d3e 6685 063c 0d20 1cbd 60dd febd
00000390: 9aee 363d 050f 11be c059 abbd 699c 53be
000003a0: 52c1 c03d 1bd4 08be 4f87 723d 6184 923d
000003b0: a411 b8bd ad4d 033e 10a4 cfbc 4055 f7bd
000003c0: 8bf5 453d 5438 71bc fba3 083e b175 1fbd
000003d0: f101 f7bc 59ef 3b3e b902 8a3d 1776 36bd
000003e0: eb3a 5c3d 035c 1b3d abfd 553a d9b7 f43d
000003f0: 84fb f13d fb9d 303e 1e92 24bd ed88 a4bd

bottleneck.0.bias f4 [32]
-0.03456796 0.01685268 0.027496187 0.03824545 0.030701041 0.027609304 0.05428285 -0.013798767
0.025044383 -0.015578104 0.012567079 0.037758663 -0.011256138 0.026823776 -0.0039716107 0.029046519
0.03511771 0.0069895247 0.028303716 0.057449404 -0.0022773917 0.050292693 0.02486777 -0.012715573
0.035750777 0.01892003 -0.027272677 0.009796483 0.025986182 0.026343925 0.026990777 0.026453177
00000000: 2297 0dbd a20e 8a3c af3f e13c 43a7 1c3d
00000010: c080 fb3c e82c e23c b257 5e3d 3914 62bc
00000020: e129 cd3c 4e3b 7fbc 26e6 4d3c d4a8 1a3d
00000030: aa6b 38bc 89bd db3c 4924 82bb f7f2 ed3c
00000040: 96d7 0f3d 6208 e53b 32dd e73c 1150 6b3d
00000050: 4b40 15bb b6ff 4d3d 7eb7 cb3c fb54 50bc
00000060: 686f 123d 2efe 9a3c f36a dfbc 6e81 203c
00000070: f9e0 d43c 37cf d73c c31b dd3c 55b4 d83c

bottleneck.2.weight f4 [32, 32, 3, 3]
-0.009935689 -0.037732013 -0.19433722 -0.10680507 -0.18604153 -0.027862689 -0.07389236 -0.12674452
-0.028033542 -0.010656669 -0.19165893 -0.026095917 0.00010417776 0.094405256 0.057495765 0.07289358
-0.038294837 -0.02644374 -0.04737635 0.21666531 0.033597548 -0.095678344 0.06461975 -0.028325127
0.09242926 -0.07281747 0.08333463 -0.03455183 0.09510732 0.021620374 -0.000543216 0.14388303
0.09148312 0.058889713 0.11290526 0.04029615 0.041118506 -0.0059323753 0.055939008 0.007057268
-0.08010681 0.1494609 -0.0061990637 0.025877014 -0.15213707 -0.197391 -0.16686314 -0.057886872
0.075484164 0.051390525 0.10904139 -0.087487705 -0.057293355 0.047919117 0.25569963 -0.09584554
-0.055988476 0.080398664 -0.016052824 -0.06522131 -0.041511577 -0.01727892 -0.10285362 0.009571141
0.0068618506 0.1250416 0.021757137 0.07755633 0.026182987 -0.053561036 0.021770108 0.054743107
-0.18337446 0.010934683 -0.12275161 0.044396028 -0.010417357 0.017223286 0.05208055 -0.08927056
0.027807519 0.01075974 0.026853226 -0.056883812 -0.058953185 0.054908425 -0.062364288 -0.025164334
-0.23380259 -0.1331207 -0.019579304 0.025803056 -0.035959315 -0.079623386 0.12518902 0.07286423
0.019853981 0.061445504 0.03817851 -0.0021365704 0.070830084 0.18662998 0.09660036 0.1784682
-0.03637336 0.04036163 -0.124727026 0.028148372 -0.061136864 -0.0666828 -0.02070752 -0.012170038
-0.05158421 -0.09792385 -0.120283045 -0.11415474 -0.16361266 0.0363004 0.0800578 -0.10448418
-0.07347036 0.0050407485 0.04616867 -0.20494698 0.0261629 0.087260805 0.10591728 0.03318095
-0.12434823 0.11916255 0.1465886 -0.20972279 -0.081777886 0.1479609 0.02699566 -0.055348534
0.08572414 0.011348971 -0.10660861 0.02528708 0.02476657 0.092489265 -0.10063914 0.09800266
0.20738499 -0.14866386 -0.012293506 -0.052267786 0.045465715 0.01800568 -0.11093706 0.047637615
-0.02713906 -0.013748648 -0.049941804 0.08407126 0.008180891 -0.0302998 0.01812831 0.018165682
0.10453462 -0.061197244 -0.03250107 -0.122879386 -0.08617654 -0.20870133 0.032588072 -0.13920145
-0.002306566 0.16020586 -0.034564167 -0.10279467 -0.07781996 -0.14318141 0.04972741 0.044827487
-0.15641652 0.03044562 0.080109216 0.15874456 -0.033232715 -0.12112864 0.12268583 -0.102354124
-0.036367673 -0.08688023 -0.08132889 0.07540509 0.10767865 -0.26145825 0.003269231 0.042382985
-0.06923355 0.023410514 0.021257292 -0.15026876 0.097108215 0.008449756 0.027631154 -0.11270361
0.022467835 -0.052885123 -0.0019327804 0.1686969 0.021072814 -0.14261426 0.056341097 0.04850921
0.05778939 -0.09800818 0.020353097 -0.16732036 -0.0066932095 -0.054343075 -0.0030909406 -0.12843654
0.010530978 0.018586174 0.016320871 0.050162073 -0.02976538 0.10710462 0.016193323 0.05854783
0.030436901 -0.11854377 -0.06709947 -0.0051422967 -0.047278102 -0.10156376 0.106393404 0.06643667
-0.051212326 0.041541364 0.03969303 -0.124996416 -0.02008077 0.15647437 -0.121617794 -0.09649757
0.029342504 -0.018185673 -0.085802615 0.04883888 0.04878788 0.029494617 0.010349979 0.075250655
0.15188746 -0.09973697 -0.034435876 0.015595835 0.14947309 0.23759301 0.25763324 -0.05996618
00000000: 4dc9 22bc e28c 1abd 5600 47be 9ebc dabd
00000010: ac81 3ebe 4b40 e4bc e154 97bd 51c9 01be
00000020: 99a6 e5bc 4f99 2ebc 3d42 44be 1bc7 d5bc
00000030: 027a da38 8b57 c13d ae80 6b3d 3b49 953d
00000040: 0cdb 1cbd 8ba0 d8bc b40d 42bd 83dd 5d3e
00000050: 959d 093d 02f3 c3bd 5c57 843d 190a e8bc
00000060: 8d4b bd3d 5321 95bd 59ab aa3d 3886 0dbd
00000070: a0c7 c23d 361d b13c 9c66 0eba 1356 133e
00000080: 815b bb3d 5736 713d df3a e73d 930d 253d
00000090: e16b 283d 5f64 c2bb 4d20 653d a840 e73b
000000a0: 0a0f a4bd 470c 193e 8421 cbbb 08fc d33c
000000b0: d2c9 1bbe de20 4abe 2cde 2abe c91a 6dbd
000000c0: 7197 9a3d df7e 523d 1851 df3d c12c b3bd
000000d0: 70ac 6abd d646 443d 10eb 823e ab4a c4bd
000000e0: 2c54 65bd 0ea8 a43d 3681 83bc c092 85bd
000000f0: 0b08 2abd 868c 8dbc eba4 d2bd 46d0 1c3c
00000100: 60d9 e03b e80a 003e 063c b23c dad5 9e3d
00000110: b47d d63c d162 5bbd 3a57 b23c 4f3a 603d
00000120: 84c6 3bbe 6227 333c 3265 fbbd 9cd8 353d
00000130: 90ad 2abc d917 8d3c 6a52 553d 7cd3 b6bd
00000140: 98cc e33c 9f49 303c 4cfb db3c 00ff 68bd
00000150: e578 71bd a8e7 603d b271 7fbd 6f25 cebc
00000160: f269 6fbe cb50 08be c764 a0bc ee60 d33c
00000170: 134a 13bd 9611 a3bd 8d31 003e d739 953d
00000180: d1a4 a23c 48ae 7b3d 1261 1c3d b405 0cbb
00000190: 5d0f 913d ee1b 3f3e 69d6 c53d 5ec0 363e
000001a0: 3bfc 14bd 3d52 253d e270 ffbd 6a97 e63c
000001b0: a66a 7abd fe90 88bd d1a2 a9bc d764 47bc
000001c0: f749 53bd 4d8c c8bd f556 f6bd f6c9 e9bd
000001d0: 148a 27be baaf 143d 58f5 a33d cdfb d5bd
000001e0: a177 96bd dd2c a53b 5c1b 3d3d 9fdd 51be
000001f0: 9453 d63c cbb5 b23d 29eb d83d bfe8 073d
00000200: 49aa febd 7f0b f43d 521b 163e 92c1 56be
00000210: 2a7b a7bd 1083 173e 0126 dd3c 25b5 62bd
00000220: 2390 af3d 09f1 393c 9d55 dabd da26 cf3c
00000230: 43e3 ca3c 036b bd3d e51b cebd 9eb5 c83d
00000240: bb5c 543e 573b 18be b46a 49bc bf16 56bd
00000250: 423a 3a3d a680 933c f832 e3bd a91f 433d
00000260: bc52 debc 0242 61bc c78f 4cbd 8e2d ac3d
00000270: 2509 063c 4937 f8bc d281 943c 32d0 943c
00000280: 3f16 d63d f6a9 7abd d81f 05bd 30a8 fbbd
00000290: 537d b0bd cdb5 55be 127b 053d d38a 0ebe
000002a0: c229 17bb 010d 243e 2893 0dbd 0386 d2bd
000002b0: 1260 9fbd 269e 12be f8ae 4b3d 079d 373d
000002c0: a72b 20be 1869 f93c 4d10 a43d ef8d 223e
000002d0: 071f 08bd 4b12 f8bd b542 fb3d 0a9f d1bd
000002e0: 45f6 14bd 43ee b1bd c38f a6bd fc6d 9a3d
000002f0: a086 dc3d dbdd 85be 9840 563b c899 2d3d
00000300: 52ca 8dbd 68c7 bf3c c623 ae3c 0ee0 19be
00000310: ace0 c63d d870 0a3c bb5a e23c 26d1 e6bd
00000320: 770e b83c 129e 58bd 5955 fdba e1be 2c3e
00000330: e5a0 ac3c 7909 12be ecc5 663d 98b1 463d
00000340: 91b4 6c3d 83b8 c8bd 8abb a63c 0756 2bbe
00000350: b652 dbbb d896 5ebd 6191 4abb de84 03be
00000360: 208a 2c3c 0842 983c 59b3 853c bf76 4d3d
00000370: 87d6 f3bc ab59 db3d dca7 843c d9cf 6f3d
00000380: cf56 f93c 13c7 f2bd 726b 89bd b680 a8bb
00000390: afa6 41bd a900 d0bd c9e4 d93d f30f 883d
000003a0: 04c4 51bd 4727 2a3d 2995 223d 1ffe ffbd
000003b0: 6d80 a4bc d13a 203e c012 f9bd 85a0 c5bd
000003c0: b15f f03c 1ffa 94bc 48b9 afbd 470b 483d
000003d0: cdd5 473d b29e f13c f592 293c 041d 9a3d
000003e0: 6388 1b3e e642 ccbd a20c 0dbd ac85 7f3c
000003f0: 790f 193e 954b 733e 81e8 833e 199f 75bd

bottleneck.2.bias f4 [32]
0.026531648 0.04729148 0.030375648 -0.014242947 -0.008824301 -0.011315644 0.025593467 -0.0009563795
0.038123317 0.0073257857 0.03464518 -0.0375005 -0.03790146 0.028843062 -0.013591046 0.026937732
0.033694737 -0.016441448 0.03546622 -0.01571073 0.028509907 0.008805113 -0.050299253 -0.00286661
0.029474098 0.03166263 -0.03469416 0.029628422 0.00594402 -0.025244705 0.02724433 0.0083334325
00000000: e658 d93c b6b4 413d 5ad6 f83c 405b 69bc
00000010: cd93 10bc 4065 39bc 64a9 d13c 8bb5 7aba
00000020: 3227 1c3d 250d f03b 1be8 0d3d 209a 19bd
00000030: 903e 1bbd 4948 ec3c fbac 5ebc 85ac dc3c
00000040: 7e03 0a3d 37b0 86bc 0745 113d cab3 80bc
00000050: 9c8d e93c 5243 103c 9706 4ebd bcdd 3bbb
00000060: aa73 f13c adb0 013d 771b 0ebd 4eb7 f23c
00000070: 0ec6 c23b fccd cebc 802f df3c f388 083c

up1.weight f4 [32, 16, 2, 2]
0.07130813 0.057247333 -0.2673969 -0.029707441 -0.1155012 0.11046006 0.084677614 0.30841038
-0.18517448 -0.07943576 0.09680114 0.017445713 -0.076924644 0.06684091 0.11911895 -0.09212322
0.0055947 0.30017897 0.08289032 -0.07782567 0.030009981 -0.16666205 0.015498624 -0.088438265
0.13681908 0.11509306 -0.042168096 -0.094030306 0.024279192 -0.21192576 0.2283767 0.057832245
-0.22950232 0.1086713 -0.22273868 -0.08929575 0.049598522 -0.057664543 0.18574052 0.2008707
-0.11909243 0.19116265 0.083312266 0.13907082 0.010564652 0.104155555 -0.092182174 -0.023240687
0.099050984 -0.24981473 -0.032999054 0.082913436 0.030718056 -0.0565736 0.27953535 0.15241124
-0.11865341 -0.23489255 0.06729085 -0.03534195 0.0056471117 0.22135903 -0.097451456 0.046724133
-0.22770649 -0.1929466 -0.02198986 -0.1298854 -0.2352239 -0.09499373 -0.18593791 0.0049599423
0.29760653 0.090033285 -0.048551813 -0.094915695 0.094543435 -0.029432416 0.085078694 -0.10841618
-0.14595029 -0.09810458 -0.0560195 -0.23000748 -0.020207465 -0.01284275 0.040841155 0.06741256
-0.139567 -0.07630486 -0.17389996 -0.32429776 0.072457924 0.09209378 -0.18165822 -0.06387663
-0.19252472 -0.033722967 -0.23591466 0.13854018 0.08850544 0.12930368 0.1081403 0.013133374
-0.104014575 -0.22778337 0.012459127 0.06033292 -0.14070193 -0.014300083 0.23645608 0.0094082495
-0.08473146 0.076764815 0.04456839 0.07416443 0.11596601 0.029000347 0.20410866 -0.05383879
0.03834401 0.16904788 -0.06892405 -0.09946617 -0.19744128 -0.1346192 -0.24182217 -0.060854886
-0.029284684 -0.060470205 -0.11479668 0.25753784 3.736738e-05 -0.059881177 -0.14804803 -0.08759965
0.04416839 0.0709198 0.2199359 0.24915378 0.107112385 0.077570476 0.33187538 -0.005765496
-0.051311698 -0.019826192 -0.20778438 -0.19993292 -0.017704751 0.03403069 -0.072131306 -0.03262248
0.04232667 0.13019985 -0.03808392 -0.15220694 -0.41621092 -0.04355089 -0.08719489 -0.03201545
0.19082974 -0.017165735 -0.15380329 0.33827457 0.10428934 0.112746686 0.19942705 -0.05867992
0.034453757 0.0035335876 0.027809465 -0.062180273 0.045970824 -0.07845843 0.09095183 -0.09145378
-0.020373214 0.028541792 -0.036856055 0.26129067 -0.032216284 -0.011840502 0.0016627521 0.28231695
-0.101105295 0.13253613 -0.06578236 -0.16451581 0.10557926 -0.11759371 -0.050106324 -0.15374084
-0.09035179 0.048186734 0.03584135 0.10334492 0.10850845 0.14038076 -0.27768037 0.08402919
-0.14941613 -0.18093249 -0.052159294 0.09446249 -0.29447615 -0.0035899996 0.0660287 0.16333827
0.08110685 -0.1083105 0.12929492 -0.057441328 -0.012202812 -0.014989564 0.07979321 0.09542781
-0.031031746 -0.007539131 0.36077726 0.026155835 -0.026646392 0.12450908 0.021837562 -0.061061725
-0.004891695 -0.018646406 0.02837654 -0.059343938 0.08882194 -0.20632555 0.0569472 0.21914148
-0.09972049 -0.036231596 0.14042379 -0.19695981 0.030069085 -0.15945642 0.07556576 0.0790785
-0.024328059 0.10764244 0.12093049 -0.132564 0.12793154 -0.026499914 0.1317161 -0.13907558
0.24119061 -0.058687393 0.12237716 -0.057076987 -0.1567729 0.08105379 0.08414418 0.02862608
00000000: ff09 923d 2e7c 6a3d 3fe8 88be 055d f3bc
00000010: e58b ecbd e238 e23d 756b ad3d f7e7 9d3e
00000020: 619e 3dbe 37af a2bd ad3f c63d 50ea 8e3c
00000030: ab8a 9dbd e3e3 883d a3f4 f33d 19ab bcbd
00000040: bf53 b73b 0fb1 993e 66c2 a93d 1163 9fbd
00000050: 7ed7 f53c 75a9 2abe f1ed 7d3c 1f1f b5bd
00000060: 4d1a 0c3e e9b5 eb3d 74b8 2cbd f692 c0bd
00000070: 28e5 c63c 1103 59be 95db 693e 81e1 6c3d
00000080: a802 6bbe 0f8f de3d 9c15 64be b1e0 b6bd
00000090: d227 4b3d a831 6cbd c332 3e3e 0cb1 4d3e
000000a0: bbe6 f3bd 24c0 433e 9f9f aa3d 9568 0e3e
000000b0: 5d17 2d3c 824f d53d 02ca bcbd 4163 bebc
000000c0: 3edb ca3d 6fcf 7fbe 042a 07bd 85ce a93d
000000d0: 6fa4 fb3c b8b9 67bd 421f 8f3e b111 1c3e
000000e0: 8f00 f3bd ac87 70be c9cf 893d b8c2 10bd
000000f0: 680b b93b f1ab 623e a194 c7bd ce61 3f3d
00000100: e42b 69be cb93 45be 1424 b4bc ae00 05be
00000110: 89de 70be 138c c2bd 8266 3ebe 0387 a23b
00000120: e25f 983e 5f63 b83d 44de 46bd 2963 c2bd
00000130: fd9f c13d 401c f1bc bd3d ae3d 4d09 debd
00000140: fe73 15be 0eeb c8bd b474 65bd 1587 6bbe
00000150: 208a a5bc 666a 52bc 0e49 273d 990f 8a3d
00000160: a7ea 0ebe b945 9cbd d512 32be 5b0a a6be
00000170: d264 943d aa9b bc3d 9d04 3abe c0d1 82bd
00000180: 3325 45be 1821 0abd 9d93 71be 7add 0d3e
00000190: 5742 b53d 2f68 043e a978 dd3d 5d2d 573c
000001a0: 9805 d5bd 0b40 69be 5e21 4c3c a71f 773d
000001b0: 2b14 10be e54a 6abc 8b21 723e 0f25 1a3c
000001c0: b087 adbd df36 9d3d 588d 363d 85e3 973d
000001d0: 967f ed3d 2392 ed3c dc01 513e 1086 5cbd
000001e0: 9c0e 1d3d e31a 2d3e 0d28 8dbd ebb4 cbbd
000001f0: 0c2e 4abe 9ed9 09be 3ba0 77be f942 79bd
00000200: 6fe6 efbc 9baf 77bd 861a ebbd 00dc 833e
00000210: ebba 1c38 f745 75bd e799 17be 7267 b3bd
00000220: eae9 343d 663e 913d e036 613e 2b22 7f3e
00000230: bd5d db3d 45dd 9e3d 92eb a93e 7cec bcbb
00000240: 372c 52bd 8a6a a2bc 6ec5 54be 37bb 4cbe
00000250: 8e09 91bc c463 0b3d 94b9 93bd 269f 05bd
00000260: bb5e 2d3d 1c53 053e e2fd 1bbd 23dc 1bbe
00000270: 9919 d5be 6b62 32bd 3c93 b2bd a222 03bd
00000280: df68 433e 289f 8cbc 9c7e 1dbe 5332 ad3e
00000290: a695 d53d bce7 e63d 9b36 4c3e 5b5a 70bd
000002a0: 621f 0d3d c393 673b add0 e33c beb0 7ebd
000002b0: e74b 3c3d d0ae a0bd f444 ba3d 1f4c bbbd
000002c0: bae5 a6bc 7ad0 e93c 60f6 16bd e4c7 853e
000002d0: 39f5 03bd aafe 41bc b4f0 d93a d98b 903e
000002e0: 4b10 cfbd 8db7 073e e7b8 86bd d576 28be
000002f0: f039 d83d f9d4 f0bd 4a3c 4dbd 3d6e 1dbe
00000300: 5c0a b9bd 745f 453d 61ce 123d 80a6 d33d
00000310: ae39 de3d f9bf 0f3e 1f2c 8ebe 7f17 ac3d
00000320: 8b00 19be 5e46 39be fca4 55bd 8d75 c13d
00000330: 94c5 96be 3346 6bbb 0e3a 873d 2642 273e
00000340: 591b a63d e5d1 ddbd e365 043e 9947 6bbd
00000350: 4eee 47bc ca96 75bc 9f6a a33d a86f c33d
00000360: 4a36 febc d10a f7bb ccb7 b83e c344 d63c
00000370: 8949 dabc 9efe fe3d b0e4 b23c dc1b 7abd
00000380: 834a a0bb 59c0 98bc eb75 e83c a112 73bd
00000390: 47e8 b53d 0147 53be 7841 693d a066 603e
000003a0: 423a ccbd 9567 14bd 41cb 0f3e d5af 49be
000003b0: 7153 f63c 8b48 23be 39c2 9a3d e9f3 a13d
000003c0: a34b c7bc a473 dc3d 68aa f73d dbbe 07be
000003d0: 7c00 033e 5916 d9bc 96e0 063e d469 0ebe
000003e0: acfa 763e 3162 70bd e0a0 fa3d 8fc9 69bd
000003f0: 1389 20be 88ff a53d c953 ac3d 3e81 ea3c

up1.bias f4 [16]
0.01793307 -0.03143672 0.026373457 -0.035743512 -0.027367042 -0.030786954 -0.027552858 -0.029395785
-0.023462132 0.024211835 -0.016619887 0.025570255 0.026237529 0.025373392 -0.027317552 -0.024288505
00000000: 60e8 923c cac3 00bd 260d d83c ca67 12bd
00000010: d930 e0bc ec34 fcbc 88b6 e1bc 6ecf f0bc
00000020: a833 c0bc e657 c63c 6e26 88bc b678 d13c
00000030: 16f0 d63c dcdb cf3c 0fc9 dfbc b0f8 c6bc

dec1.0.weight f4 [16, 32, 3, 3]
0.06783585 0.09048222 0.081961 0.103638336 0.1275891 -0.085029915 0.04297593 0.14417742
-0.24900715 0.02531098 -0.0659705 0.010168519 -0.20669052 0.11053094 0.20445676 -0.08910958
0.012541618 0.010048272 0.02789774 -0.10570873 0.16180927 0.069595136 0.021202706 0.055295102
-0.102208704 -0.004510947 0.2727211 -0.1160048 0.008845351 -0.21181482 -0.25453132 -0.019400211
-0.12834708 -0.109574676 0.04281608 0.11178949 0.035948128 0.20571865 -0.033936832 0.0005555163
-0.05685402 0.009938431 -0.026803447 -0.09739366 0.20088269 0.0054982994 0.121134944 0.10341686
0.09017159 0.09643183 0.08582811 0.010882204 0.038227282 0.015256653 -0.08866312 0.13451037
-0.035062842 -0.14492616 0.12639531 0.097229235 0.17164966 0.12755334 -0.027856193 -0.07913035
-0.11055395 -0.26343706 -0.27868643 -0.004459555 -0.020826414 -0.19002649 -0.069247164 -0.21380301
0.04128517 -0.1612278 0.25466365 0.04307262 -0.10704316 0.23480988 -0.25379616 -0.24913488
0.16759072 0.21536465 0.18359563 0.0322334 -0.048705455 0.0791331 -0.028057894 0.022231806
-0.0070900116 0.10872447 0.05979226 -0.08625116 -0.08662076 0.15050602 -0.15217681 0.12668672
-0.11569163 -0.0394202 -0.13136914 -0.082465835 -0.054800197 0.30101243 -0.18494165 0.12468978
0.0875028 0.27417108 -0.115471415 0.055897884 0.0005253979 -0.09358794 -0.19139746 -0.005662952
0.017854631 0.10557577 0.027938755 0.056889784 -0.10817144 0.13537556 -0.33331797 -0.11876532
-0.103735335 -0.06477178 0.022963652 -0.24288882 0.06904779 0.19293499 -0.010888399 -0.0014102302
0.05437899 -0.18580098 -0.044790063 0.025929585 0.17617777 0.039736047 -0.007825987 0.16326086
-0.20014921 -0.07718289 0.07295704 0.004392939 -0.023402471 0.027325228 0.37302187 0.08241063
-0.034890603 0.123166196 -0.04706349 -0.03870541 -0.015370274 -0.12998696 0.07197308 0.0066170297
-0.19105963 0.070047215 -0.14050256 0.09795526 -0.037645716 -0.079867445 0.11945921 0.10423432
-0.059676036 -0.054803822 0.01234594 0.18033631 0.07544969 0.06795743 0.23885736 0.17832187
0.0068820105 -0.019847753 -0.029640852 -0.038412083 0.07694814 -1.9037638e-05 0.020500258 0.10131419
0.026617566 -0.24361797 0.09268565 -0.08416512 0.09818594 -0.068640314 -0.04124803 0.09240558
0.05014439 0.20760886 -0.07055597 -0.06685739 -0.23433328 -0.099142455 -0.21414417 0.05871573
-0.034204673 -0.009269945 -0.14412999 0.2833825 -0.028432349 -0.057399433 -0.077060625 -0.1845901
-0.17185684 -0.040626466 -0.13702342 -0.0912433 -0.020685 0.12858897 0.040783618 -0.070687704
-0.10396566 -0.11581152 -0.13698778 0.14439441 -0.10693077 -0.0007048723 0.20564283 0.07815941
-0.14480954 -0.058433346 -0.116777204 0.021303957 -0.13200828 0.15064614 -0.10194137 -0.04537212
-0.011691465 -0.16630752 -0.0293068 0.2864906 0.16544911 0.10635608 0.009763312 0.0064991
0.11807387 0.0402789 -0.29607505 -0.08019819 0.17386077 -0.18187451 0.004528797 -0.022627404
0.11708552 -0.2570985 0.08364794 -0.2423034 -0.015118166 0.043976445 0.0796649 -0.09900818
-0.105136596 0.09326439 0.025138209 -0.05255592 -0.0871297 0.07435065 0.015849704 -0.12465577
00000000: 86ed 8a3d be4e b93d 2bdb a73d 5640 d43d
00000010: b8a6 023e 2a24 aebd 8707 303d 3fa3 133e
00000020: bbfb 7ebe f958 cf3c 8b1b 87bd dc99 263c
00000030: aea6 53be 0c5e e23d 1d5d 513e 157f b6bd
00000040: 5c7b 4d3c 82a1 243c cd89 e43c d27d d8bd
00000050: 54b1 253e e587 8e3d 4cb1 ad3c 1e7d 623d
00000060: cc52 d1bd 91d0 93bb 1aa2 8b3e ed93 edbd
00000070: 17ec 103c fce5 58be ee51 82be 31ed 9ebc
00000080: 6b6d 03be b068 e0bd ea5f 2f3d e3f1 e43d
00000090: 583e 133d e9a7 523e 5901 0bbd 11a0 113a
000000a0: c3df 68bd cdd4 223c e792 dbbc 5476 c7bd
000000b0: 31b4 4d3e 142b b43b 9915 f83d 38cc d33d
000000c0: e2ab b83d 0d7e c53d a6c6 af3d 464b 323c
000000d0: 3694 1c3d 0af7 793c 0395 b5bd 16bd 093e
000000e0: 0e9e 0fbd 8667 14be c66d 013e 1f20 c73d
000000f0: eec4 2f3e 589d 023e ac32 e4bc 180f a2bd
00000100: 1c6a e2bd 39e1 86be fdaf 8ebe 7521 92bb
00000110: 289c aabc 4e96 42be 75d1 8dbd 2def 5abe
00000120: a31a 293d e718 25be 4663 823e ea6c 303d
00000130: 7239 dbbd 0072 703e 92f1 81be 371d 7fbe
00000140: e79c 2b3e 8d88 5c3e 7e00 3c3e 2b07 043d
00000150: 5f7f 47bd 8910 a23d abd9 e5bc 7a1f b63c
00000160: 5453 e8bb efaa de3d bbe8 743d 73a4 b0bd
00000170: 3a66 b1bd 401e 1a3e 3dd4 1bbe 2aba 013e
00000180: bcef ecbd 1377 21bd a285 06be d9e3 a8bd
00000190: 2c76 60bd 4d1e 9a3e 5861 3dbe 5b5d ff3d
000001a0: ab34 b33d 2760 8c3e 477c ecbd 2ef5 643d
000001b0: dbba 093a 09ab bfbd b2fd 43be 4990 b9bb
000001c0: e043 923c 1c38 d83d d1df e43c 4305 693d
000001d0: fd88 ddbd e49f 0a3e a7a8 aabe 3b3b f3bd
000001e0: 3173 d4bd 11a7 84bd 451e bc3c d9b7 78be
000001f0: ed68 8d3d c090 453e 4165 32bc 79d7 b8ba
00000200: 81bc 5e3d 9d42 3ebe c975 37bd 486a d43c
00000210: f267 343e 44c2 223d 9238 00bc db2d 273e
00000220: eaf3 4cbe 1012 9ebd 806a 953d a5f2 8f3b
00000230: 8ab6 bfbc 28d9 df3c b9fc be3e e8c6 a83d
00000240: 73e9 0ebd 8f3e fc3d a5c5 40bd 9089 1ebd
00000250: 9ad3 7bbc 4d1b 05be 9f66 933d abd3 d83b
00000260: 23a5 43be ea74 8f3d e7df 0fbe c49c c83d
00000270: 6532 1abd 8b91 a3bd 08a7 f43d ce78 d53d
00000280: dc6e 74bd f979 60bd a046 4a3c 15aa 383e
00000290: 5e85 9a3d 442d 8b3d 0697 743e 029a 363e
000002a0: 7d82 e13b c197 a2bc 5fd1 f2bc fd55 1dbd
000002b0: fd96 9d3d 04b3 9fb7 28f0 a73c d07d cf3d
000002c0: 150d da3c fd76 79be f9d1 bd3d c35e acbd
000002d0: b615 c93d 4b93 8cbd b2f3 28bd 233f bd3d
000002e0: 3464 4d3d 6b97 543e a67f 90bd 87ec 88bd
000002f0: 10f5 6fbe 330b cbbd 9c48 5bbe e87f 703d
00000300: 331a 0cbd f8e0 17bc d096 13be 8317 913e
00000310: f5ea e8bc ab1b 6bbd f6d1 9dbd 3005 3dbe
00000320: 3dfb 2fbe f067 26bd de4f 0cbe c4dd babd
00000330: 9773 a9bc d4ac 033e b90c 273d b7c4 90bd
00000340: f3eb d4bd 972e edbd 8646 0cbe 21dc 133e
00000350: 85fe dabd 2ec7 38ba 0994 523e 0a12 a03d
00000360: f448 14be ce57 6fbd e328 efbd a385 ae3c
00000370: 2e2d 07be fb42 1a3e a3c6 d0bd 1ed8 39bd
00000380: 8f8d 3fbc 854c 2abe d014 f0bc e5ae 923e
00000390: 7e6b 293e 37d1 d93d 4cf6 1f3c 67f6 d43b
000003a0: b7d0 f13d 7dfb 243d 2697 97be f33e a4bd
000003b0: 8f08 323e 503d 3abe 4e66 943b 1b5d b9bc
000003c0: 88ca ef3d 6aa2 83be 9c4f ab3d 621e 78be
000003d0: 2fb2 77bc a520 343d 5a27 a33d cdc4 cabd
000003e0: db51 d7bd 6701 bf3d a5ee cd3c e044 57bd
000003f0: 0e71 b2bd 2745 983d 3dd7 813c 864b ffbd

dec1.0.bias f4 [16]
0.021346366 0.024222437 0.028616816 0.029047145 -0.023650097 -0.031458996 0.022037445 0.023169436
0.002541118 -0.00073934364 0.0048324247 -0.00924664 -0.015248562 0.022945894 -0.004428134 0.022613931
00000000: 93de ae3c 226e c63c d06d ea3c 47f4 ed3c
00000010: d9bd c1bc 26db 00bd df87 b43c d4cd bd3c
00000020: e388 263b 83d0 41ba 5159 9e3b 387f 17bc
00000030: 1bd5 79bc 07f9 bb3c e119 91bb da40 b93c
