sampling_based_planning_framework/checkpoints/checkpoint_epoch_57.pth (torch, 386354 bytes, 75 tensors)

enc1.0.weight f4 [8, 1, 3, 3]
0	0xbdd19922	-0.10234286
1	0x3dd2d596	0.102946445
2	0x3d8a2087	0.06744485
3	0x3e1078d3	0.14108591
4	0xbde7ea24	-0.11323956
5	0x3dab6cb9	0.083703466
6	0x3d01fa6a	0.031732954
7	0xbe35aca7	-0.17741643
8	0xbd89e622	-0.067333475
9	0x3e1819f8	0.14853656
10	0xbdfe2700	-0.124097824
11	0x3d499b8b	0.049220603
12	0x3e72e794	0.23721153
13	0xbd955e6d	-0.07293401
14	0x3e127054	0.14300662
15	0xbd7866b9	-0.06064484
16	0x3e1f1bd5	0.15537961
17	0xbd99cf61	-0.075102575
18	0x3e2f6484	0.17128187
19	0xbe505d60	-0.2034812
20	0xbe3a9222	-0.18219808
21	0x3e250a4a	0.16117206
22	0xbdaadcb6	-0.083428785
23	0xbe202305	-0.15638359
24	0xbebac255	-0.3647639
25	0xbe4638b8	-0.19357574
26	0xbdcb8a75	-0.09938518
27	0x3d6230a2	0.05522216
28	0x3cbbc2a2	0.022919957
29	0xbe48348c	-0.19551295
30	0x3d2c9937	0.042138305
31	0x3e2751c9	0.16339792
32	0x3eac68b2	0.33673626
33	0xbc67afe1	-0.014141054
34	0x39b3bc14	0.0003428167
35	0x38cf7f7f	9.894277e-05
36	0xbdcba517	-0.09943598
37	0x3d425c5d	0.047451366
38	0xbdabbea1	-0.08385969
39	0xbe8eb8bf	-0.27875325
40	0x3e682619	0.22670783
41	0xbd54aac7	-0.05192068
42	0xbd551567	-0.052022364
43	0x3dd2876d	0.10279737
44	0xbe997a6a	-0.29976207
45	0x3e5ae984	0.21378142
46	0x3e6b6196	0.22986445
47	0xbc1c8bfd	-0.00955486
48	0x3ec02952	0.37531525
49	0xbd8147e8	-0.06312543
50	0xbdc04ae5	-0.09389285
51	0x3daf10a9	0.085480995
52	0xbe3e89cc	-0.18607253
53	0xbe858903	-0.26081094
54	0x3c8eaf93	0.017417705
55	0x3d4184ca	0.04724578
56	0x3dd393d7	0.103309326
57	0x3e03ce0e	0.12871572
58	0xbdd905d7	-0.10596817
59	0x3efa5fb9	0.48901156
60	0xbd10be11	-0.03533751
61	0x3dde8d37	0.10866778
62	0x3de891a9	0.113559075
63	0x3dffd783	0.124922775
64	0xbea248e1	-0.31696227
65	0x3db056b0	0.08610284
66	0xbe1c4cf4	-0.1526373
67	0xbdb52455	-0.088448204
68	0x3e5f7aa0	0.21824121
69	0x3d85ddcc	0.06536445
70	0xbdf7cd91	-0.120997556
71	0x3d5d8f4a	0.05409173

enc1.0.bias f4 [8]
0	0x3d10fbf0	0.035396516
1	0x3b0a655b	0.0021117541
2	0x3d03c380	0.032168865
3	0xb8f00cfe	-0.00011446512
4	0x3d54ff87	0.052001502
5	0x390d7c84	0.00013493194
6	0x3b146c79	0.0022647663
7	0x39748086	0.00023317532

enc1.2.weight f4 [8, 8, 3, 3]
0	0x3d468d43	0.04847456
1	0x3d86a3f5	0.06574241
2	0xbd95eb1d	-0.07320235
3	0xbe77be12	-0.241936
4	0x3efafe35	0.4902207
5	0x3e1f40b8	0.15552032
6	0xbccd79ae	-0.025082435
7	0xbc38f3dc	-0.011288609
8	0xbcca642f	-0.024705974
9	0xbdab69ba	-0.08369775
10	0xbdc0483b	-0.09388777
11	0xbde1b3df	-0.11020636
12	0xbd200411	-0.039066378
13	0xbdd84d35	-0.10561601
14	0x3e3cf5ee	0.1845319
15	0x3e3ff9ed	0.18747683
16	0x3e297295	0.16547616
17	0xbe8aa87e	-0.27081674
18	0x3d813f5d	0.06310914
19	0x3e25c027	0.16186582
20	0x3df58857	0.119888954
21	0xbde7ded4	-0.11321798
22	0x3df87451	0.121315606
23	0xbdbb1466	-0.0913475
24	0xbe535d02	-0.20640948
25	0x3e01b5a8	0.12666953
26	0x3d617b43	0.055049192
27	0x3d0a66dc	0.0337895
28	0x3d955afe	0.07292746
29	0xbe821f01	-0.2541428
30	0x3e5da440	0.21644688
31	0x3c6b2e4b	0.014354299
32	0x3ceac763	0.028659528
33	0xbc8d3758	-0.017238304
34	0x3cfa9db8	0.030592784
35	0xbe429c0e	-0.19004843
36	0x3d05fd5a	0.032712318
37	0x3d8b0a40	0.067890644
38	0x3e21a91d	0.15787168
39	0xbe3691f3	-0.17829113
40	0x3d32543d	0.043537367
41	0x3d168712	0.036749907
42	0xbb3ea434	-0.0029089572
43	0xbd5340c3	-0.051575433
44	0x3e1209fb	0.1426162
45	0x3cbfcde6	0.02341361
46	0xbe9f8d29	-0.31162384
47	0x3d9c773c	0.0763993
48	0x3c185017	0.009296439
49	0x3e9e4e1b	0.30918965
50	0xbe1adc12	-0.15123013
51	0x3e333c26	0.17503414
52	0xbe28a196	-0.1646789
53	0xbe038077	-0.12841974
54	0xbdb17bfd	-0.08666227
55	0x3e2b06cc	0.16701812
56	0xbcc4cd70	-0.024023741
57	0x3e480cb5	0.19536097
58	0xbda50e7c	-0.08059403
59	0xbcbcb75a	-0.023036648
60	0x3d77b4bf	0.060475107
61	0xbeecb46b	-0.46231398
62	0xbd9d6e91	-0.076871045
63	0xbbcd830f	-0.006271727
64	0xbbd52e53	-0.0065057664
65	0x3e68dffb	0.22741692
66	0xbd8c48ac	-0.068497986
67	0xbd5e7611	-0.054311816
68	0x3d852eaa	0.06503041
69	0x3e1e9337	0.15485846
70	0xbcdc140d	-0.02686503
71	0xbd9cac2c	-0.07650027
72	0xbe469b1d	-0.19395109
73	0x3cf80444	0.030275472
74	0x3c92a11c	0.017899089
75	0x3e03cb13	0.12870435
76	0x3e16825a	0.14698163
77	0x3df34b43	0.118795894
78	0xbe0ca024	-0.13732964
79	0x3e3a1242	0.18171027
80	0xbe600868	-0.21878207
81	0x3cb223cc	0.021745585
82	0x3e848d2a	0.2588895
83	0xbdda17b3	-0.106490515
84	0x3e2b6990	0.16739488
85	0x3c8de521	0.017321171
86	0x3e1d3d6d	0.15355463
87	0xbd004456	-0.03131517
88	0xbe8b2eb4	-0.2718407
89	0x3e1edd36	0.15514073
90	0x3bb147a5	0.005410152
91	0xbe97afcb	-0.29626307
92	0x3e896839	0.26837328
93	0xbc9782a3	-0.01849491
94	0x3e1eac10	0.15495324
95	0x3e03b159	0.12860622
96	0x3ba40d89	0.0050064963
97	0x3e1327cf	0.14370655
98	0xbe05582f	-0.1302192
99	0xbca337e1	-0.019924106
100	0xbd880b8a	-0.06642826
101	0x3e51046c	0.20411843
102	0x3eec2a9d	0.4612626
103	0xbcaedb4c	-0.021344803
104	0x3c398c8c	0.011325013
105	0x3dadfe9f	0.08495831
106	0x3f0c3447	0.5476727
107	0x3dc03966	0.09385948
108	0xbe8f8648	-0.28032136
109	0x3d0c15c5	0.03420045
110	0xbd06b9a6	-0.032891892
111	0xbead85a5	-0.33891025
112	0x3e14fbd7	0.14549194
113	0xbe48749b	-0.19575731
114	0xbd8fe0bb	-0.07025286
115	0x3e207774	0.15670568
116	0x3eaa8502	0.33304602
117	0xbd93b299	-0.07211799
118	0xbdc7605b	-0.09735175
119	0x3bcb4dd1	0.006204345
120	0x3d72db56	0.059291206
121	0x3e6a5f65	0.22887953
122	0x3dff06b4	0.124524504
123	0x3bcc0846	0.006226572
124	0xbd5279f0	-0.05138582
125	0xbcd78f5c	-0.026313476
126	0x3e747dbd	0.2387609
127	0x3b578e88	0.0032891352
128	0xbe939a65	-0.2882873
129	0x3e935429	0.28775147
130	0x3e550824	0.20803887
131	0xbdbd0761	-0.09229923
132	0x3ed20a10	0.41023302
133	0x3e646706	0.22304925
134	0x3d248885	0.040169258
135	0xbcdcfd86	-0.026976358
136	0x3ea84b2a	0.32869846
137	0x3e01b262	0.12665704
138	0x3e902a25	0.28157154
139	0x3e947f82	0.2900353
140	0x3e33dc0c	0.1756441
141	0x3e1f271b	0.15542261
142	0xbdcebdae	-0.10094772
143	0x3e09bc6d	0.13450785
144	0x3dc9638b	0.098334394
145	0x3e4b09fa	0.19828025
146	0x3cf4e5b2	0.029894684
147	0x3e52adb4	0.20574075
148	0x3dc6b807	0.09703069
149	0xbdcb7870	-0.09935081
150	0x3dd2cad4	0.10292593
151	0x3f0a24a6	0.5396217
152	0xbe015054	-0.12628299
153	0xbeb3f729	-0.35149506
154	0xbd6fd3d6	-0.058551632
155	0x3db36276	0.08759014
156	0x3e5d849a	0.21632615
157	0xbcb56bb4	-0.022146083
158	0xbd4f7218	-0.050645918
159	0x3df19fd6	0.117980644
160	0xbee277c1	-0.4423199
161	0xbe2c60e5	-0.16833837
162	0xbe577ef8	-0.21044528
163	0xbd971234	-0.07376519
164	0xbeb0ca06	-0.34529132
165	0x3dc509f8	0.09621042
166	0x3d9e5e58	0.077328384
167	0x3e860aed	0.2618021
168	0x3d2cb9df	0.042169448
169	0x3e33bc71	0.17552353
170	0xbda0a490	-0.07843888
171	0x3ea0d3be	0.31411546
172	0x3cbcf2a9	0.023064928
173	0xbcee27bb	-0.02907168
174	0xbd7553d9	-0.059894416
175	0x3dc0ca7b	0.0941362
176	0x3deaed1b	0.114710055
177	0xbe6021ac	-0.21887845
178	0xbe589b6b	-0.21153037
179	0xbd6a7c8f	-0.057247695
180	0x3e567632	0.20943525
181	0xbe1e2ece	-0.15447542
182	0x3eb88d51	0.36045316
183	0xbe7351fb	-0.23761742
184	0xbd4ea812	-0.050453253
185	0x3e101359	0.1406988
186	0xbe590984	-0.21195036
187	0xbbb0c7a0	-0.005394891
188	0xb8b0fdd0	-8.43961e-05
189	0xbded1c9c	-0.115777224
190	0xbebede18	-0.3727882
191	0x3e98df7e	0.2985801
192	0x3e00d54e	0.1258137
193	0xbe9b67a8	-0.3035252
194	0xbe9eaab9	-0.30989626
195	0x3d3dce93	0.046339583
196	0xbebb36cf	-0.36565253
197	0x3d124ec7	0.03571966
198	0x3da7b57a	0.08188911
199	0xbcaf2083	-0.021377807
200	0xbdf3607a	-0.11883636
201	0xbe94fdb5	-0.29099813
202	0x3ea94819	0.3306282
203	0x3d9e89ad	0.07741103
204	0xbe6e6d96	-0.23283991
205	0xbdb28a85	-0.08717827
206	0x3e4344c8	0.19069207
207	0x3ddc20bc	0.10748431
208	0xbd6ca1af	-0.05777138
209	0xbd24b98a	-0.040216006
210	0x3e8a2cb3	0.26987228
211	0xbdb47a27	-0.08812361
212	0xbdd407cd	-0.103530504
213	0x3ddee630	0.108837485
214	0x3df6758c	0.12034139
215	0xbe5daf06	-0.21648797
216	0x3ce9b049	0.028526442
217	0x3e76ad57	0.24089561
218	0xb9faa89c	-0.0004780934
219	0xbd6419ef	-0.055688795
220	0x3c92fa9a	0.017941762
221	0xbe4fcbb2	-0.20292547
222	0x3e303c79	0.17210568
223	0x3cdc0c40	0.02686131
224	0x3d148b6e	0.036265783
225	0xbebed927	-0.3727505
226	0xbea779d8	-0.32710147
227	0xbe5788bf	-0.21048258
228	0xbcdd7c8f	-0.027036933
229	0xbe749fd1	-0.2388909
230	0xbdae4d9d	-0.08510897
231	0x3e8f09d1	0.27937177
232	0x3e191519	0.14949454
233	0x3de37075	0.11105434
234	0xbcb70b71	-0.022344323
235	0x3d80949c	0.06278345
236	0x3d309903	0.043114673
237	0xbdc12cae	-0.0943235
238	0xbd069389	-0.032855544
239	0x3dc3670f	0.09541141
240	0x3d6eb8a5	0.05828156
241	0x3e4bea66	0.19913635
242	0xbe4e6c93	-0.20158605
243	0xbd1fad14	-0.03898342
244	0x3d24126a	0.040056624
245	0x3ddf2fc8	0.108977854
246	0xbea3a042	-0.31958205
247	0xbe3487f1	-0.17629983
248	0x3c4a7c38	0.012358718
249	0x3dae00e5	0.08496264
250	0x3e1bbe56	0.15209326
251	0x3dea7f21	0.11450029
252	0x3eb97d7b	0.36228547
253	0xbd539b1a	-0.05166159
254	0xbe0538b1	-0.13009907
255	0xbe6a0723	-0.22854285

enc1.2.bias f4 [8]
0	0xbceea843	-0.029132968
1	0xba9fd362	-0.0012193734
2	0x3d202c64	0.039104834
3	0xbc2d616a	-0.010582307
4	0x3b8c38e5	0.0042792433
5	0x3d0c53c5	0.034259576
6	0x3cf26748	0.029590264
7	0x3bffc23a	0.007805136

enc2.0.weight f4 [16, 8, 3, 3]
0	0x3c5ce063	0.013481232
1	0xbd23335c	-0.039843902
2	0xbc6326c0	-0.013864219
3	0xbe081bf2	-0.1329191
4	0xbe518a6f	-0.20462964
5	0x3dbc97f6	0.09208672
6	0x3d725fba	0.059173323
7	0xbdb48692	-0.0881473
8	0x3e84f73c	0.25969875
9	0xbb3a75ba	-0.0028451518
10	0x3d4b9e9f	0.04971182
11	0xbd1752f8	-0.03694436
12	0xbe62b5dc	-0.22139686
13	0x3d9c24e7	0.07624226
14	0xbd3d8a44	-0.04627444
15	0xbdadeb9b	-0.08492204
16	0xbd2ec51b	-0.042668443
17	0x3e39a44a	0.18129078
18	0x3bc235c7	0.005926821
19	0x3df252ef	0.118322246
20	0xbe2c7662	-0.16842034
21	0xbd374d7c	-0.04475163
22	0xbc9466b3	-0.018115377
23	0xbe04dd3e	-0.12975022
24	0x3db54635	0.088512816
25	0x3e8b2220	0.27174473
26	0x3de51aff	0.1118679
27	0xbd499554	-0.049214676
28	0x3dd253ac	0.102698654
29	0x3de0acf0	0.10970485
30	0xbcc51ea3	-0.02406246
31	0xbe28b598	-0.16475523
32	0xbc610499	-0.013734006
33	0xbe3c688c	-0.18399256
34	0xbe220067	-0.15820466
35	0xbdaeadb9	-0.08529229
36	0x3e1c3ff5	0.15258773
37	0xbd253426	-0.040332936
38	0xbe490560	-0.19630957
39	0xbd03d2e5	-0.032183547
40	0x3d2fa9a3	0.042886388
41	0xbd256dce	-0.04038792
42	0xbe00baaf	-0.12571214
43	0xbdeef648	-0.11668068
44	0x3d823620	0.0635798
45	0x3d78316b	0.060594004
46	0x3d5c427e	0.05377435
47	0x3e0d85f6	0.13820633
48	0x3e64258a	0.22279945
49	0xbd08711f	-0.033311006
50	0x3e137a14	0.14402038
51	0x3e3353d7	0.17512451
52	0xbd15560b	-0.03645901
53	0x3decfe55	0.115719475
54	0x3e3d4371	0.18482758
55	0xbd5ea9fc	-0.05436133
56	0xbe9f0dab	-0.31065115
57	0xbe3606cf	-0.17776035
58	0x3e4e43a0	0.20142984
59	0xbd85e61e	-0.06538032
60	0x3dbde148	0.092714846
61	0x3e59d130	0.21271205
62	0x3e3cbbb8	0.18430984
63	0x3bdd2fc5	0.0067500793
64	0xbe2eb95f	-0.17062901
65	0x3cc9c204	0.024628647
66	0xbcbdabbb	-0.023153177
67	0xbba9089d	-0.0051584975
68	0x3de07053	0.10958924
69	0xbdd842d1	-0.10559619
70	0xbe2df78b	-0.16988961
71	0x3b2653eb	0.002537961
72	0x3bd869bc	0.0066044014
73	0x3d325fb5	0.043548305
74	0xbcaf6605	-0.021410951
75	0xbd6391e4	-0.055559054
76	0xbcd3bb71	-0.025846215
77	0xbde8f457	-0.11374729
78	0xbd86523a	-0.06558652
79	0x3cb63b37	0.022245033
80	0x3df27a38	0.118397176
81	0xbd3d8e9e	-0.04627859
82	0x3b9b2e55	0.004735748
83	0x3e93fa2d	0.28901806
84	0x3c2778a4	0.010221634
85	0xbdde2a64	-0.10847929
86	0x3b9f1bc6	0.004855606
87	0xbd3a4130	-0.045472324
88	0xbaf20f67	-0.0018467725
89	0xbde0f00b	-0.109832846
90	0x3d5369c6	0.051614545
91	0x3d679325	0.056536812
92	0x3e256a06	0.16153726
93	0x3db2c4fc	0.08728978
94	0x3d0fe7fb	0.035133343
95	0x3d931654	0.07181993
96	0xbe3f1973	-0.18662052
97	0x3de49f47	0.11163192
98	0x3d083264	0.03325118
99	0xbc9f3e93	-0.019439017
100	0xbdb098f1	-0.08622921
101	0x3dab2d78	0.08358282
102	0xbe3eb387	-0.18623172
103	0x3d76b35b	0.06022964
104	0x394d39fe	0.00019571927
105	0x3df7d3bd	0.12100933
106	0xbe6d33dd	-0.23164316
107	0x3cdeaa6d	0.027180875
108	0x3e068206	0.13135538
109	0xbd53b1de	-0.0516833
110	0xbcae355f	-0.021265684
111	0xbcfa45d2	-0.030550871
112	0x3dcb75bc	0.099345654
113	0x3d7f06f1	0.06226248
114	0x3e32c786	0.17458925
115	0x3e76f558	0.24117029
116	0x3c404a2d	0.011736435
117	0xbd7a0565	-0.0610403
118	0xbdb5eff7	-0.0888366
119	0x3e382c98	0.17985761
120	0x3e325359	0.17414607
121	0x3e214048	0.15747178
122	0x3d98cb76	0.07460682
123	0xbe05608b	-0.1302511
124	0x3dcf13ca	0.10111196
125	0x3e005f30	0.12536311
126	0x3e51370b	0.20431153
127	0x3b08707f	0.0020819006
128	0x3d8d14fc	0.06888768
129	0x3ce4ce66	0.02793045
130	0x3e47f379	0.19526471
131	0xbdfcbdcd	-0.12340889
132	0x3c9aa391	0.018876823
133	0xbcea9df4	-0.028639771
134	0x3e4a6df5	0.19768508
135	0xbe86e0cf	-0.2634339
136	0x3e17be7c	0.14818758
137	0xbe4f7f54	-0.20263416
138	0xbe305a75	-0.17222007
139	0x3d187677	0.037222352
140	0xbcf1ef80	-0.029533148
141	0x3d3285bc	0.04358457
142	0xbb5fe285	-0.0034162116
143	0xbdcf9537	-0.10135882
144	0xbd513bf8	-0.05108258
145	0xbc8ba093	-0.017044341
146	0xbe4f1fed	-0.20227022
147	0xbd19a6da	-0.037512638
148	0x3deeb90b	0.11656388
149	0x3e5b3ed0	0.2141068
150	0x3e8c8d7a	0.27451688
151	0x3e1d9414	0.15388519
152	0xbe39ba63	-0.18137507
153	0xbd3a57c1	-0.045493845
154	0xbe2131f6	-0.15741715
155	0xbe1a7c4f	-0.15086482
156	0x3dfae886	0.122513816
157	0x3e3381bd	0.1752996
158	0xbcec526a	-0.028847892
159	0x3d494092	0.049133845
160	0xbde05dd6	-0.10955398
161	0xbe6b3d3b	-0.22972576
162	0x3e0523fc	0.13002008
163	0x3c3e804d	0.011627269
164	0xbe387e32	-0.1801689
165	0xbdcdc9c8	-0.10048252
166	0x3d503c90	0.050839007
167	0x3e1decf9	0.15422429
168	0xbd83dd9b	-0.06438752
169	0xbe0aac8c	-0.13542384
170	0x3dc29d9b	0.09502717
171	0x3e385578	0.18001354
172	0xbc0f7498	-0.008755825
173	0x3df7e02b	0.121033035
174	0x3e12dfd8	0.14343202
175	0x3993826d	0.000281352
176	0xbd47a03d	-0.0487368
177	0x3e394d60	0.18095922
178	0xbc84aac1	-0.016194703
179	0xbdae6731	-0.08515776
180	0x3dc05391	0.09390939
181	0x3da81600	0.08207321
182	0x3df5bf42	0.1199937
183	0x3e51087d	0.20413394
184	0x3db38efd	0.08767507
185	0x3ec5103a	0.38488942
186	0x3e9ce536	0.30643624
187	0x3e263666	0.16231689
188	0x3d852011	0.06500257
189	0xbdcc4c1c	-0.09975454
190	0x3e1adb87	0.15122806
191	0xbe0b303d	-0.1359262
192	0xbdbc3681	-0.09190083
193	0xbd89bcf6	-0.067254946
194	0x3e3d16df	0.18465756
195	0x3e73305e	0.2374892
196	0x3da22e23	0.07918956
197	0xbdcfc463	-0.1014488
198	0x3dd18bc8	0.10231739
199	0x3d998104	0.07495311
200	0xbccc01fa	-0.024903286
201	0x3d779b6d	0.06045096
202	0x3e209e0c	0.1568529
203	0x3da7113f	0.08157586
204	0x3debe77e	0.11518763
205	0x3dbd706f	0.09249961
206	0xbb8c565b	-0.0042827553
207	0x3e374afe	0.17899701
208	0xbe343fbc	-0.17602438
209	0x3cddfaf2	0.0270972
210	0x3e0b3faf	0.13598512
211	0xbc4abb93	-0.012373823
212	0x3e7c3a38	0.24631584
213	0xbe26a08d	-0.16272183
214	0x3d00e13f	0.03146481
215	0xbe1ba931	-0.1520126
216	0xbcf68bf8	-0.03009604
217	0x3d684214	0.056703642
218	0x3e2378c3	0.15964036
219	0xbcd9c656	-0.026583832
220	0x3d9d3e5c	0.0767791
221	0x3e870008	0.2636721
222	0xbbafc34f	-0.005363859
223	0xbd761cf3	-0.060086202
224	0xbd54104a	-0.051773347
225	0xbeb3ccf7	-0.35117313
226	0xbe036b5f	-0.12833928
227	0x3ca705dc	0.020388536
228	0xbd412a89	-0.047159705
229	0xbe46b214	-0.19403869
230	0x3d1bd7d8	0.03804764
231	0x3e206e99	0.1566719
232	0xbb0a4d2f	-0.0021103134
233	0x3db7da23	0.08977153
234	0x3d4923b0	0.0491063
235	0xbd8e79af	-0.06956803
236	0xbdb4c463	-0.0882652
237	0xbd8c351c	-0.06846067
238	0x3dbe19c1	0.09282256
239	0xbdff7019	-0.12472553
240	0x3d2edbb8	0.04269001
241	0x3c2623a1	0.0101403305
242	0x3d030e3f	0.031996008
243	0xbccd3dc2	-0.025053862
244	0xbdfc3c58	-0.12316197
245	0x3e72b8bd	0.23703285
246	0xbc85bd9b	-0.016325762
247	0xbd6ca1e3	-0.057771575
248	0x3da13317	0.07871073
249	0xbd822c69	-0.06356127
250	0x3e737d01	0.23778154
251	0x3e06e4c0	0.13173199
252	0xbe983f19	-0.2973564
253	0xbe7034e5	-0.23457678
254	0x3ce1a9d8	0.027546808
255	0x3ca26674	0.019824244

enc2.0.bias f4 [16]
0	0x3d080570	0.03320831
1	0x3d06bf4b	0.032897275
2	0xbc773ed7	-0.015090666
3	0x3d342305	0.04397871
4	0x3c193583	0.009351137
5	0x3d1a9c6b	0.037746828
6	0xbcaed7cb	-0.021343132
7	0xbce6a0cb	-0.028152844
8	0x3cdea8a3	0.027180022
9	0x3bd8d2b5	0.006616915
10	0x3d026f4a	0.031844415
11	0x3d15a096	0.0365301
12	0x3cfcf3f9	0.030878054
13	0x3cde8b58	0.027166054
14	0x3cbec23b	0.023285976
15	0x3d17508d	0.036942054

enc2.2.weight f4 [16, 16, 3, 3]
0	0xbaf6b1fb	-0.0018821353
1	0x3d36df98	0.04464683
2	0xbcab5d6a	-0.020918567
3	0xbdeec46e	-0.1165856
4	0x3e0ff0c7	0.14056693
5	0x3d610486	0.054935955
6	0xbd696495	-0.056980688
7	0xbccc3f7b	-0.024932614
8	0x3b909cd7	0.004413228
9	0xbdfdc0da	-0.12390299
10	0x3e688543	0.22707085
11	0xbde2e69a	-0.1107914
12	0xbe38dac1	-0.18052198
13	0x3d2d61ac	0.042329475
14	0x3e3850a8	0.17999518
15	0xbe6e6a6b	-0.23282783
16	0xbd05c06b	-0.032654207
17	0xbceb9a73	-0.02876017
18	0xbdef07bf	-0.11671399
19	0xbd8875fd	-0.066631295
20	0xbe04c6bd	-0.12966438
21	0xbdd02090	-0.10162461
22	0x3e9f4e4e	0.3111443
23	0x3d30ccde	0.043164127
24	0xbd3a801f	-0.045532342
25	0x3e19d738	0.15023506
26	0xbd956470	-0.072945476
27	0x3e58fe89	0.21190847
28	0x3e178d97	0.14800106
29	0xbd79f406	-0.061023735
30	0x3e246d6f	0.1605737
31	0x3e320b5e	0.17387149
32	0xbdcbdb4e	-0.099539384
33	0xbda0af2e	-0.07845913
34	0xbea54bbf	-0.32284352
35	0x3e40d358	0.18830621
36	0xbd0e2bf5	-0.03470989
37	0xbd445344	-0.04793097
38	0x3e171711	0.14754893
39	0xbe272535	-0.16322787
40	0xbdec02fb	-0.11524006
41	0x3e62da7f	0.22153662
42	0xbd7ddb16	-0.061976515
43	0xbecbb92d	-0.39789715
44	0xbdba36a0	-0.0909245
45	0x3c2ef6ee	0.01067899
46	0xbd11fc88	-0.035641223
47	0x3e00c3ce	0.12574694
48	0x3cc0320d	0.023461366
49	0xbb3e05e5	-0.0028995213
50	0xbde52411	-0.1118852
51	0xbda75523	-0.081705354
52	0xbe8278c0	-0.2548275
53	0xbda4268a	-0.08015163
54	0x3cb51c0f	0.022108106
55	0xbce2d021	-0.027687134
56	0xbdbdae8c	-0.09261808
57	0x3e02f374	0.12788182
58	0xbe008324	-0.12550026
59	0x3e2a2b3c	0.16618055
60	0x3d2b6a42	0.041849382
61	0x3de42c9f	0.11141323
62	0x3d1d1aca	0.038355626
63	0x3d5f1748	0.054465562
64	0x3dd6ae53	0.104824685
65	0x3d862418	0.06549853
66	0xbdf637c1	-0.12022353
67	0xbc224f59	-0.009906613
68	0xbe1aca68	-0.15116274
69	0x3de6ba80	0.11266041
70	0x3e226c77	0.15861689
71	0xbca82e42	-0.02052987
72	0x3e7dcf08	0.24786007
73	0x3c63c8ca	0.013902852
74	0x3e37b0f6	0.17938599
75	0xbdb24e98	-0.08706397
76	0x3d83deaa	0.06438954
77	0x3e58d322	0.21174291
78	0x3a83446f	0.0010014902
79	0xbe54a607	-0.2076646
80	0x3e2f9fb8	0.17150772
81	0xbe5498d0	-0.20761418
82	0xbd01b747	-0.031668928
83	0xbe4f19f6	-0.20224747
84	0x3e15e5e8	0.14638484
85	0x3e29b37e	0.16572377
86	0x3d9a2ed8	0.07528466
87	0xbd6550fb	-0.055985432
88	0xbe448db5	-0.19194682
89	0x3e4fcab7	0.20292173
90	0x3aea69ec	0.001788435
91	0xbe11ad5c	-0.14226288
92	0x3ddbf3c4	0.10739854
93	0xbd9edbe8	-0.077567875
94	0x3def26e9	0.116773434
95	0x3cc2f600	0.023798943
96	0xbe837c54	-0.25680792
97	0x3d2d5c7a	0.04232452
98	0x3e3a7c45	0.18211468
99	0x3e04da55	0.12973912
100	0xbd24cd87	-0.04023507
101	0xbd53dd15	-0.051724512
102	0xbd849628	-0.064739525
103	0x3e12dbf7	0.14341722
104	0x3d87345c	0.06601784
105	0x3ccf5e1c	0.02531343
106	0xbcf27dd5	-0.029601017
107	0x3d8936bc	0.06699893
108	0xbdb3a359	-0.087713905
109	0x3cc9156b	0.024546346
110	0x3e4c3474	0.19941884
111	0xbe54e09f	-0.20788811
112	0xbd8203b8	-0.063483655
113	0xbd94816b	-0.07251247
114	0xba2fe22b	-0.0006709422
115	0x3e125e2a	0.14293733
116	0x3e1789ee	0.1479871
117	0x3cc35fe0	0.023849428
118	0x3dc5fdae	0.09667526
119	0xbe208a72	-0.15677813
120	0x3e185a0d	0.14878102
121	0x3e0b6cf5	0.13615783
122	0xbd95b1f4	-0.073093325
123	0x3dadb53a	0.08481832
124	0x3cbc3264	0.022973247
125	0xbd831889	-0.06401164
126	0x3e2447fb	0.16043083
127	0xbd944234	-0.0723919
128	0xbdda9328	-0.10672599
129	0xbceb7bdc	-0.028745584
130	0xbda5eb54	-0.08101526
131	0x3d3e6815	0.04648598
132	0xbe7fcc61	-0.24980308
133	0x3d5852e3	0.052813422
134	0xbde79b47	-0.11308914
135	0xbe054601	-0.13014986
136	0x3d3a1d18	0.045437902
137	0x3e2c5458	0.1682905
138	0xbe005da6	-0.12535724
139	0x3df2b750	0.1185137
140	0xbd41f3af	-0.047351535
141	0x3d8a9a4a	0.067677096
142	0xbcebda57	-0.028790636
143	0x3dc081ed	0.093997814
144	0x3c7a47b4	0.015275884
145	0x3d8e9d8c	0.069636434
146	0x3ddd1401	0.10794831
147	0xbcebe344	-0.028794892
148	0x3dffd453	0.124916695
149	0x3e0a787c	0.13522524
150	0x3e3ed38f	0.1863539
151	0xbdac2791	-0.08405984
152	0x3e2c8014	0.16845733
153	0x3e365cce	0.1780884
154	0x3db60dc8	0.08889347
155	0x3c1133f7	0.008862487
156	0xbe8f71c5	-0.28016487
157	0x3de0f0d3	0.109834336
158	0xbde4a23f	-0.111637585
159	0xba88d3c1	-0.0010439084
160	0xbd9b24b0	-0.07575357
161	0xbe069995	-0.13144524
162	0x3e18273b	0.14858715
163	0x3d6b774b	0.057486814
164	0x3df6d82b	0.120529495
165	0xbe5be18c	-0.21472758
166	0xbd313b78	-0.043269604
167	0xbd1d14bd	-0.038349856
168	0xbd1a6445	-0.03769328
169	0xbd3099e4	-0.04311551
170	0xbd4ad490	-0.04951912
171	0xbe522687	-0.2052251
172	0xbe1dbb3a	-0.15403453
173	0xbda22450	-0.07917082
174	0x3df802b8	0.121098936
175	0xbce799ef	-0.028271643
176	0xbe4c5779	-0.19955243
177	0xbda919fd	-0.0825691
178	0xbd23b4d7	-0.039967384
179	0x3d522353	0.05130322
180	0xbbcdf4ab	-0.00628527
181	0x3d0f51ef	0.034990247
182	0x3d9e0e90	0.07717621
183	0x3cccb539	0.024988757
184	0x3d8b51b2	0.068026915
185	0x3e4f36a0	0.20235682
186	0x3e29870a	0.1655542
187	0x3e105051	0.14093138
188	0xbbfe9234	-0.0077688936
189	0x3b85988f	0.0040770243
190	0x3e3ccf78	0.18438518
191	0xbdcc36ec	-0.09971413
192	0xbdcccd61	-0.100001104
193	0x3cfa1d09	0.030531423
194	0x3d852316	0.06500833
195	0x3e4ebba5	0.20188768
196	0x3e8d8b4c	0.27645338
197	0xbc0d9b70	-0.008643016
198	0xbd79c52d	-0.060979057
199	0xbd744397	-0.05963477
200	0xbd793a1f	-0.060846444
201	0xbe15fcd1	-0.14647223
202	0x3df49102	0.119417205
203	0x3e0baf54	0.13641101
204	0xbdcf026d	-0.101078846
205	0xbd9727d0	-0.073806405
206	0x3e43e83c	0.19131559
207	0x3df08c65	0.11745528
208	0xbe0da6e1	-0.1383319
209	0x3e001e32	0.12511519
210	0xbb5feb24	-0.0034167254
211	0x3ce08d2c	0.027411066
212	0xbd33c12b	-0.04388539
213	0x3da6d38a	0.081458166
214	0xbd86dc9b	-0.06585046
215	0xbc330638	-0.010926776
216	0x3d8ce86a	0.06880267
217	0x3e2bcdb4	0.16777688
218	0xbe364d88	-0.17803013
219	0x3b9b3a65	0.004737186
220	0x3ea03cd5	0.3129641
221	0x3e07b090	0.13250947
222	0xbd85f886	-0.06541543
223	0x3cb11a87	0.021619095
224	0xbce1a6de	-0.027545389
225	0x3e920f21	0.28527167
226	0xbdc8e792	-0.098097935
227	0xbdc817aa	-0.097701386
228	0xbdb36be7	-0.08760815
229	0x3cbf4f8c	0.02335336
230	0x3cc59613	0.024119413
231	0xbe1a2d96	-0.15056452
232	0xbed50689	-0.41606548
233	0xbd806841	-0.06269885
234	0xbc765c4c	-0.015036654
235	0xbe3e9179	-0.18610181
236	0x3d35d798	0.04439506
237	0x3e32be97	0.17455517
238	0x3d6c0b16	0.05762776
239	0xbe872572	-0.26395756
240	0xbe236087	-0.15954791
241	0x3dbf1a58	0.093311965
242	0xbd3303e5	-0.043704886
243	0x3d606782	0.054786213
244	0xbe3c1379	-0.18366803
245	0xbdbd6947	-0.09248596
246	0x3d500844	0.050789133
247	0xbe184180	-0.14868736
248	0x3e9beb32	0.30452877
249	0x3e035dbf	0.1282873
250	0x3ec11aa5	0.3771564
251	0xbd80cd1e	-0.06289123
252	0x3d1031ae	0.03520363
253	0x3cbbe670	0.02293703
254	0xbcd950e6	-0.026527833
255	0x3e0fbf7a	0.14037886

enc2.2.bias f4 [16]
0	0x3c8f174a	0.01746716
1	0x3d0131a1	0.03154147
2	0x391c7737	0.0001492173
3	0x3c4e2eb1	0.012584374
4	0x3d0893b8	0.033344
5	0x3cd55e0d	0.026045823
6	0xbb995abf	-0.004680007
7	0xbbab2a91	-0.00522358
8	0x3d6dde2b	0.058073204
9	0x3cffa04a	0.031204361
10	0x3c52f589	0.012875923
11	0xbbe9b23e	-0.007131844
12	0x3c9c5567	0.019083692
13	0xbc77bc22	-0.015120538
14	0x3d0cf8cd	0.034416962
15	0x3ce9faa7	0.028561903

bottleneck.0.weight f4 [32, 16, 3, 3]
0	0xbdbc2e00	-0.09188461
1	0x3d176633	0.0369627
2	0x3d487b10	0.048945487
3	0x3d48193b	0.048852187
4	0x3da3c5a3	0.079966806
5	0xbd0cb84b	-0.034355443
6	0x3cc815dc	0.024424486
7	0x3c4b3a3c	0.012404021
8	0xbe2f0453	-0.17091493
9	0xbc95c796	-0.018283647
10	0xbe3eeedf	-0.1864581
11	0x3dca40ed	0.09875665
12	0xbca60ce4	-0.020269819
13	0x3d84d62e	0.06486164
14	0x3e0848f1	0.13309075
15	0xbe2e4199	-0.17017211
16	0x3e5a5e15	0.21324952
17	0x3d10afba	0.035323836
18	0x3d219f86	0.039458774
19	0x3db3ecfc	0.087854356
20	0x3dadfe22	0.084957376
21	0xbd47ceb3	-0.048781108
22	0x3e06f418	0.13179052
23	0x3e5f54c2	0.21809676
24	0xbd10ad3c	-0.03532146
25	0xbc690c12	-0.014224069
26	0xbcb83a09	-0.02248861
27	0x3d2ca53a	0.04214976
28	0xbd85a578	-0.06525701
29	0x3bd79689	0.0065792245
30	0xbd2d2fb2	-0.042281814
31	0xbdd28cb2	-0.10280742
32	0xbcfd9ede	-0.030959543
33	0x3e000849	0.1250316
34	0xbc35b53f	-0.011090576
35	0xbdaa3f05	-0.08312801
36	0xbda4490e	-0.080217466
37	0xbd9998b3	-0.07499828
38	0xbb9f93d8	-0.0048699193
39	0xbd6a6515	-0.057225306
40	0x3d2f3f42	0.042784937
41	0xbe3267b1	-0.17422368
42	0x3dccfb60	0.100088835
43	0xbe0b30ea	-0.13592878
44	0x3dffeabd	0.12495945
45	0xbcd9d814	-0.026592292
46	0x3dd9ab9f	0.10628437
47	0x3cdd69d9	0.027028011
48	0xbdd2fa11	-0.10301603
49	0x3d876e74	0.06612864
50	0xbd1e1535	-0.038594443
51	0x3df63e86	0.12023644
52	0x3dbe46c5	0.09290842
53	0xbd3e4a16	-0.046457373
54	0x3cea5396	0.02860431
55	0x3df9b0d1	0.12191928
56	0x3c3df42e	0.0115938615
57	0x3d96a06c	0.07354817
58	0xbcff1b23	-0.03114087
59	0xbdfd8d52	-0.1238047
60	0xbd6c4882	-0.057686336
61	0x3e8a8d8d	0.2706112
62	0x3d9d6b98	0.076865375
63	0xbd894db1	-0.067042716
64	0x3d025961	0.03182352
65	0xbd4fcaba	-0.050730444
66	0x3d075b94	0.03304632
67	0x3e121e24	0.1426931
68	0x3db7db2a	0.08977349
69	0x3ca11ec1	0.019667985
70	0x3b498d82	0.0030754511
71	0xbd3a4705	-0.045477886
72	0x3b7ae44e	0.0038283053
73	0x3c82b67f	0.015956162
74	0xbe24f490	-0.16108918
75	0x3db254b8	0.08707565
76	0xbd9e2057	-0.07721012
77	0xbd3befa5	-0.04588284
78	0xbd2edd26	-0.042691372
79	0x3ded4efa	0.11587329
80	0x3e48e5a7	0.19618855
81	0xbdb615a6	-0.08890848
82	0x3dd19e88	0.102353156
83	0x3d6a5baf	0.057216343
84	0xbce7855f	-0.028261838
85	0x3d6517a0	0.055930734
86	0x3e20a9b5	0.15689738
87	0xbde2b6f2	-0.1107005
88	0x3d100297	0.03515872
89	0xbb6f6689	-0.0036529622
90	0x3c944e92	0.018103871
91	0xbcb9c4dc	-0.022676878
92	0xbd751180	-0.059831142
93	0x3de200b7	0.110352926
94	0x3e19b477	0.15010248
95	0x3df7e4df	0.121042006
96	0xbb4db743	-0.003138975
97	0x3dcb5a44	0.09929326
98	0xbc67120e	-0.014103426
99	0xbc6d4e9b	-0.014484073
100	0x3dad580e	0.08464061
101	0xbd348fec	-0.044082567
102	0xba37f61d	-0.000701757
103	0x3d6e1997	0.058129873
104	0x3bc7159c	0.006075574
105	0x3d0794a0	0.033100724
106	0x3e8e5aa5	0.2780353
107	0x3dda80f0	0.10669124
108	0xbb88ac47	-0.0041709277
109	0x3d13552b	0.035969894
110	0xbd269d94	-0.040677622
111	0x3e195e57	0.14977394
112	0x3d8edbb3	0.06975498
113	0xbdc5595d	-0.09636185
114	0xbd24d8ee	-0.040245943
115	0xbd198d72	-0.03748841
116	0xbe4700a2	-0.19433835
117	0x3da6615b	0.08124038
118	0x3d8170cc	0.063203424
119	0xbdf3837e	-0.118903145
120	0x3e40d7c2	0.18832305
121	0xbd02ddc1	-0.031949762
122	0x3d4271a2	0.04747165
123	0x3ac0bbae	0.001470437
124	0x3cbe2a33	0.023213482
125	0x3e5e99ce	0.2173836
126	0xbc1673cb	-0.009182881
127	0x3d30dd3c	0.043179736
128	0xbe14bb23	-0.14524512
129	0x3d66590f	0.056237277
130	0xbd3a1bcc	-0.045436665
131	0xbd064aa6	-0.032786034
132	0x3cac3678	0.021022066
133	0xbde49b61	-0.11162449
134	0xbd7196b8	-0.058981627
135	0x3cb564ec	0.02214285
136	0x3e2dc0f9	0.16968144
137	0x3d1ee86a	0.038795866
138	0x3d7859e2	0.060632594
139	0x3d42ad7f	0.04752874
140	0x3d2a1b77	0.0415301
141	0x3dc39a1a	0.09550877
142	0x3d45707f	0.048202988
143	0x3d1f1ceb	0.038845938
144	0x3bce9cac	0.006305298
145	0xbdbac1c8	-0.09118992
146	0x3dcc9e92	0.099911824
147	0x3c4b9496	0.012425562
148	0x3d3bb955	0.045831043
149	0x3c537328	0.012905873
150	0xbcb240ca	-0.02175941
151	0xbd8e556e	-0.06949888
152	0x3d815770	0.063155055
153	0x3d831a55	0.06401507
154	0xbd86641e	-0.065620646
155	0x3bd0105c	0.0063496064
156	0x3d48bcba	0.04900811
157	0xbae8ea01	-0.0017769934
158	0xbe453270	-0.19257522
159	0xbd592caf	-0.05302113
160	0xbd9b78a5	-0.075913705
161	0x3e764c18	0.24052465
162	0xbb85c538	-0.004082348
163	0xbe0063d7	-0.12538086
164	0xbdace824	-0.08442715
165	0xbd6b0744	-0.057379976
166	0xbdd22ba2	-0.102622285
167	0x3c30389e	0.010755686
168	0xbd6e1453	-0.05812485
169	0x3d4049d6	0.046945415
170	0x3db2b3cb	0.08725699
171	0xbd93409c	-0.07190058
172	0xbd8e86bf	-0.069592945
173	0x3d2419e1	0.040063743
174	0x3d2e159b	0.042501073
175	0xbd58ecb0	-0.052960098
176	0x3ccf6d1d	0.025320584
177	0x3d7c1e25	0.061552186
178	0x3d2f41ca	0.04278735
179	0x3ddf7a81	0.10912038
180	0x3d4fb470	0.050709188
181	0x3ca81508	0.020517841
182	0x3de0f09e	0.10983394
183	0x3df0c39a	0.11756058
184	0x3db381fa	0.087650254
185	0x3db9471f	0.090467684
186	0x3d32b1ef	0.043626722
187	0xbca3019d	-0.01989823
188	0xbdc0650e	-0.09394275
189	0xbd18147c	-0.03712891
190	0x3bb1852f	0.005417488
191	0xbd81d60c	-0.06339654
192	0xbcf7c947	-0.030247344
193	0x3bab326a	0.0052245157
194	0xbd834f2b	-0.064115845
195	0x3d3795f8	0.044820756
196	0xbd1c4f21	-0.0381614
197	0x3dd979fe	0.10618971
198	0xbdf0f0ee	-0.11764704
199	0xbd544fb8	-0.05183384
200	0xbe0a2931	-0.13492276
201	0x3cf9ba5c	0.03048437
202	0x3da0f6d8	0.07859582
203	0xbe1b9815	-0.15194733
204	0x3da248ba	0.07924028
205	0x3de6f92c	0.112779945
206	0x3e3f8256	0.18702063
207	0xbe332a17	-0.17496525
208	0xbd5656fa	-0.05232904
209	0xbe70f2db	-0.23530142
210	0x3dd5c860	0.10438609
211	0x3e6436c0	0.2228651
212	0xbd573ca0	-0.05254805
213	0x3d340678	0.04395148
214	0x3cd05130	0.025429338
215	0xbd6007a4	-0.054694787
216	0xbd710ebc	-0.058851942
217	0x3de66468	0.1124962
218	0x3c9f03b0	0.019410938
219	0xbbbd438c	-0.0057758745
220	0xbd171370	-0.03688377
221	0xbc5c10cb	-0.013431738
222	0xbdaddd9e	-0.08489536
223	0x3e5fca59	0.21854533
224	0x3e0b1014	0.13580352
225	0x3c2fa483	0.010720375
226	0xbcf071a6	-0.029351067
227	0xbdf4f100	-0.119600296
228	0x3d53ec59	0.05173907
229	0xbe01ee69	-0.12688603
230	0xbd9a6d24	-0.07540348
231	0xbe586485	-0.21132095
232	0x3dc9960d	0.09843073
233	0xbdfecd77	-0.12441533
234	0x3d85a6eb	0.06525978
235	0x3d8bd313	0.068273686
236	0xbdbe095b	-0.09279128
237	0x3e09a458	0.13441598
238	0xbcc4eee5	-0.024039695
239	0xbe009082	-0.12555125
240	0x3d689244	0.056780115
241	0xbc1d3967	-0.009596205
242	0x3e010afc	0.12601846
243	0xbd36021f	-0.044435617
244	0xbca6b15e	-0.020348247
245	0x3e233001	0.15936281
246	0x3d9ee08a	0.07757671
247	0xbccd0454	-0.025026478
248	0x3d9cb742	0.07652141
249	0x3d46d1e0	0.048539996
250	0xb8f6b6c6	-0.00011764238
251	0x3e0b0b05	0.13578422
252	0x3dcd8638	0.10035366
253	0x3e204496	0.15651163
254	0xbd269bf1	-0.04067606
255	0xbdabb8bd	-0.083848454

bottleneck.0.bias f4 [32]
0	0xbd03d070	-0.032181203
1	0x3ca99fe1	0.020706119
2	0x3cea1363	0.028573697
3	0x3d1899fc	0.037256226
4	0x3cf4e5a8	0.029894665
5	0x3cd76ea7	0.02629788
6	0x3d4666d9	0.048437927
7	0xbc22d622	-0.009938749
8	0x3cdba4ce	0.026811983
9	0xbc5d2c37	-0.013499311
10	0x3c6236a2	0.013806971
11	0x3d1968ed	0.03745358
12	0xbc1cc532	-0.009568499
13	0x3cd3d744	0.025859483
14	0xbb7ebd57	-0.003887018
15	0x3cf6d127	0.030129028
16	0x3d0c2d66	0.034222983
17	0x3beac66f	0.0071647684
18	0x3cd8b4a4	0.026453324
19	0x3d618ee7	0.055067923
20	0x3b1a7186	0.00235662
21	0x3d51923a	0.051164843
22	0x3cc5380c	0.024074577
23	0xbc5057d8	-0.012716256
24	0x3d0beea0	0.034163117
25	0x3ca1262f	0.019671528
26	0xbceb38c0	-0.028713584
27	0x3c3ccb18	0.011523031
28	0x3cba05bf	0.022707818
29	0x3cdd72af	0.027032224
30	0x3ccbbc7e	0.024870154
31	0x3cec98d4	0.028881468

bottleneck.2.weight f4 [32, 32, 3, 3]
0	0xbc411d0a	-0.011786709
1	0xbd05abac	-0.032634422
2	0xbe46839a	-0.1938614
3	0xbdd7ba9f	-0.10533642
4	0xbe3d2841	-0.18472387
5	0xbc97f4d2	-0.018549357
6	0xbd943a39	-0.072376676
7	0xbdfa1592	-0.122111455
8	0xbc5a6c5e	-0.013331501
9	0x3b2f9aab	0.002679507
10	0xbe3763b8	-0.17909133
11	0xbc95d258	-0.018288776
12	0x3b970f89	0.004610006
13	0x3dd29d64	0.10283926
14	0x3d8dcf3a	0.06924291
15	0x3d9e5bea	0.07732375
16	0xbd11fa05	-0.035638828
17	0xbc84586a	-0.01615544
18	0xbd423734	-0.047415927
19	0x3e6347ca	0.22195354
20	0x3d1d352d	0.03838079
21	0xbdc10d6d	-0.09426389
22	0x3d9291ba	0.071567014
23	0xbcbcc13a	-0.023041356
24	0x3dbd3c0c	0.09239969
25	0xbd8c0720	-0.068372965
26	0x3db9f521	0.09079958
27	0xbcdf32fc	-0.027245991
28	0x3dcc9875	0.09990016
29	0x3caa65ea	0.02080055
30	0xbb86b48c	-0.0041108783
31	0x3e1b902b	0.15191714
32	0x3db52dd6	0.08846633
33	0x3d5c2318	0.053744406
34	0x3deeb36f	0.11655318
35	0x3d2c9969	0.04213849
36	0x3d2c3b1a	0.04204855
37	0xbbe9906b	-0.0071278117
38	0x3d845bbb	0.06462809
39	0x3c3e045e	0.011597721
40	0xbd97c528	-0.074106514
41	0x3e20d650	0.15706754
42	0xbbfb352d	-0.007666251
43	0x3d050396	0.032474123
44	0xbe195196	-0.14972529
45	0xbe3f81b6	-0.18701825
46	0xbe218db2	-0.15776709
47	0xbd62a405	-0.055332202
48	0x3db6df05	0.08929256
49	0x3d63ae2a	0.055586018
50	0x3de99cf3	0.11406889
51	0xbd9d5156	-0.07681529
52	0xbd700d61	-0.05860651
53	0x3d57014e	0.05249148
54	0x3e85f173	0.26160774
55	0xbd97c9f6	-0.07411568
56	0xbd0ebc0b	-0.0348473
57	0x3d889359	0.06668729
58	0xbcbe97a7	-0.023265673
59	0xbd45e095	-0.04830988
60	0xbd160cbe	-0.036633246
61	0xbc84ea6f	-0.016225068
62	0xbdc9e809	-0.0985871
63	0x3c5cee69	0.013484576
64	0x3bdde157	0.0067712474
65	0x3e0019d3	0.12509851
66	0x3cdf3489	0.02724673
67	0x3d9e4868	0.07728654
68	0x3cf95a9b	0.030438712
69	0xbd388ffd	-0.045059193
70	0x3cc1b051	0.023643645
71	0x3d7cb5cf	0.061696824
72	0xbe35bb1b	-0.17747156
73	0x3c42e564	0.011895511
74	0xbde9fd27	-0.11425238
75	0x3d5f1d43	0.054471266
76	0xbc25559e	-0.0100912135
77	0x3cf20d27	0.029547287
78	0x3d77815b	0.060426097
79	0xbdad487b	-0.0846109
80	0x3d0fb073	0.035080384
81	0x3c363d2c	0.011122983
82	0x3c8f37ea	0.017482717
83	0xbd44d979	-0.04805896
84	0xbd395851	-0.04525024
85	0x3d5e72d1	0.054308716
86	0xbd78647e	-0.06064271
87	0xbc83a809	-0.016071336
88	0xbe68d449	-0.2273723
89	0xbdf7d7a9	-0.12101681
90	0xbca10ad7	-0.01965849
91	0x3cd4d397	0.0259798
92	0xbd128df9	-0.035779927
93	0xbda4ef17	-0.08053415
94	0x3dfe8d17	0.124292545
95	0x3d980b2b	0.07424005
96	0x3c9e52c9	0.019326584
97	0x3d7cbf8c	0.06170611
98	0x3d20b9b9	0.03923962
99	0x3c107c60	0.008818716
100	0x3da9fa3b	0.08299681
101	0x3e36d92f	0.17856286
102	0x3ddeeeff	0.10885429
103	0x3e3c6a4c	0.18399924
104	0xbd0da2c9	-0.034579072
105	0x3d618667	0.055059817
106	0xbdef3f49	-0.116819926
107	0x3d045798	0.0323101
108	0xbd3459ff	-0.04403114
109	0xbd7bcf15	-0.061476786
110	0xbcb19169	-0.021675782
111	0xbb87c7c5	-0.0041436874
112	0xbd4b98a0	-0.0497061
113	0xbdba0a1f	-0.09083962
114	0xbdf42541	-0.11921168
115	0xbddb1c11	-0.106987126
116	0xbe24af97	-0.16082607
117	0x3c2d7ecb	0.010589312
118	0x3da94d89	0.08266742
119	0xbddb9fae	-0.10723816
120	0xbdacd869	-0.084397145
121	0x3c504921	0.012712748
122	0x3d4c318d	0.049851943
123	0xbe52a21b	-0.20569651
124	0x3cbaa459	0.022783445
125	0x3db72e2c	0.089443535
126	0x3deecbab	0.1165994
127	0x3d12c655	0.035833675
128	0xbe07df5f	-0.13268803
129	0x3e05c9a4	0.13065201
130	0x3e195e3f	0.14977358
131	0xbe57f7b7	-0.2109059
132	0xbd90a605	-0.07062916
133	0x3e16c028	0.1472174
134	0x3d1926af	0.037390407
135	0xbd66c203	-0.056337368
136	0x3dadc026	0.08483915
137	0x3c8ec4f9	0.017427908
138	0xbdd5dbed	-0.10442338
139	0x3d0372a7	0.032091763
140	0x3d055d9a	0.03255997
141	0x3db4676f	0.08808791
142	0xbdbfa5af	-0.093577735
143	0x3dd2fc7d	0.103020646
144	0x3e5429cb	0.20719068
145	0xbe15c1a3	-0.14624648
146	0xbc81cecd	-0.01584568
147	0xbd5939da	-0.053033687
148	0x3d491651	0.04909355
149	0x3c83606e	0.016037192
150	0xbde0e7d0	-0.10981715
151	0x3d4a2f8b	0.049361747
152	0xbcdec7f9	-0.027194964
153	0xbc98f532	-0.018671606
154	0xbd4ba446	-0.04971721
155	0x3de067bf	0.10957288
156	0x3c627d76	0.0138238575
157	0xbd06bd1e	-0.0328952
158	0x3d1a6ed6	0.037703358
159	0x3cc826a3	0.024432486
160	0x3deec77c	0.116591424
161	0xbd38de31	-0.045133773
162	0xbcd9abb1	-0.026571127
163	0xbde9ed3a	-0.114222005
164	0xbdb1a2e5	-0.08673648
165	0xbe4d26b5	-0.20034297
166	0x3d039720	0.032126546
167	0xbe0a62e5	-0.13514288
168	0x3c24b0b4	0.010051895
169	0x3e2af2b6	0.1669415
170	0xbcff2cbe	-0.031149264
171	0xbda84f35	-0.082182325
172	0xbd343892	-0.043999262
173	0xbe094434	-0.13404924
174	0x3d46ce4c	0.048536584
175	0x3d4a34db	0.049366813
176	0xbe1e6c4c	-0.15471
177	0x3c89e5b7	0.01683317
178	0x3da1a460	0.0789268
179	0x3e19a995	0.15006097
180	0xbce5d1bd	-0.028054113
181	0xbdf7de3b	-0.12102934
182	0x3dfe17b7	0.12406867
183	0xbdd50243	-0.10400822
184	0xbd1c43b6	-0.03815051
185	0xbdb66e5e	-0.089077696
186	0xbda4c961	-0.080462225
187	0x3d9fee60	0.07809138
188	0x3de79e9a	0.11309548
189	0xbe838cec	-0.25693452
190	0x3c036fb9	0.008022242
191	0x3d2e6a4e	0.04258185
192	0xbd8365c1	-0.064158924
193	0x3cbe537f	0.023233173
194	0x3d041ee8	0.032256037
195	0xbe1fb8d6	-0.15597853
196	0x3dcc1093	0.09964099
197	0x3ca56f54	0.020194687
198	0x3d05639d	0.0325657
199	0xbde7c4d1	-0.113168366
200	0x3ca83f64	0.02053804
201	0xbd4775ef	-0.048696455
202	0xbaeeb409	-0.0018211614
203	0x3e339fc9	0.17541422
204	0x3c9a77cd	0.018855954
205	0xbe0c0ced	-0.13676806
206	0x3d8239a6	0.06358652
207	0x3d46b475	0.04851194
208	0x3d6cb76e	0.05779212
209	0xbdc8bb60	-0.09801364
210	0x3ca6be67	0.020354463
211	0xbe2b58e4	-0.16733128
212	0xbbdb5593	-0.006693551
213	0xbd5e99b5	-0.054345805
214	0xbb4a943e	-0.0030911113
215	0xbe0387bb	-0.12844746
216	0x3c361730	0.011113927
217	0x3c9acd40	0.018896699
218	0x3c9444ca	0.018099207
219	0x3d4a8b45	0.049449224
220	0xbcf4ceaa	-0.029883701
221	0x3de3e984	0.11128524
222	0x3c814f1d	0.015784794
223	0x3d697590	0.056996882
224	0x3d0997f6	0.033592187
225	0xbdf1dd53	-0.11809792
226	0xbd89fc7d	-0.067376114
227	0x3c40e304	0.011772875
228	0xbd348014	-0.044067457
229	0xbdd4ade0	-0.103847265
230	0x3dd133aa	0.10214932
231	0x3d8f9bb7	0.07012122
232	0xbd486123	-0.04892076
233	0x3d394c51	0.045238797
234	0x3d30e59f	0.043187734
235	0xbe01c39d	-0.12672277
236	0xbca5ac0c	-0.02022364
237	0x3e2eea52	0.17081574
238	0xbdf01d3c	-0.11724326
239	0xbdace0b8	-0.08441299
240	0x3d01c0ec	0.031678125
241	0xbc51dbb4	-0.012808729
242	0xbda00e84	-0.07815269
243	0x3d641d74	0.05569215
244	0x3d560592	0.052251406
245	0x3d34537f	0.04402494
246	0x3ca4ccfb	0.020117274
247	0x3d953850	0.072861314
248	0x3e223051	0.15838744
249	0xbdb83731	-0.08994902
250	0xbcf3de43	-0.029769069
251	0x3cc6c83c	0.024265401
252	0x3e18c5a9	0.14919151
253	0x3e67f206	0.22650918
254	0x3e7bf01f	0.24603318
255	0xbd3e7cd2	-0.046505757

bottleneck.2.bias f4 [32]
0	0x3ce4c062	0.027923767
1	0x3d3ac09c	0.045593843
2	0x3cfb5b8b	0.0306833
3	0xbc6920bb	-0.014228995
4	0xbc105b2d	-0.0088108005
5	0xbc6c2560	-0.014413208
6	0x3cd45575	0.025919655
7	0xbb7caedf	-0.003855638
8	0x3d127054	0.035751656
9	0x3c0bd165	0.00853381
10	0x3d095619	0.033529375
11	0xbd0cfc30	-0.034420192
12	0xbd16884e	-0.036751084
13	0x3ced0fb3	0.02893815
14	0xbc5ebfb4	-0.01359551
15	0x3cdc15e6	0.02686591
16	0x3ce8ab02	0.028401855
17	0xbc616676	-0.013757339
18	0x3d0f405a	0.03497348
19	0xbc41d337	-0.011830143
20	0x3ceef899	0.029171275
21	0x3b87b290	0.0041411594
22	0xbd3b87b6	-0.04578372
23	0xbbb4d342	-0.005518348
24	0x3ce5b148	0.028038636
25	0x3d00eb8d	0.03147464
26	0xbd070ade	-0.032969348
27	0x3cef681d	0.02922445
28	0x3c0e4e7e	0.008685706
29	0xbcb417c9	-0.021983998
30	0x3cd90427	0.026491238
31	0x3baaf2d6	0.0052169366

up1.weight f4 [32, 16, 2, 2]
0	0x3d968315	0.07349221
1	0x3d7c7909	0.061638866
2	0xbe87d634	-0.26530612
3	0xbce4949f	-0.0279029
4	0xbde5f049	-0.112274714
5	0x3de91df0	0.11382663
6	0x3dabd4ad	0.08390174
7	0x3e9cde37	0.30638286
8	0xbe3ee620	-0.18642473
9	0xbda98dfc	-0.082790345
10	0x3dc6f765	0.097151555
11	0x3c8a1656	0.016856354
12	0xbd9dadff	-0.07699203
13	0x3d9b95b7	0.07596915
14	0x3de9bf7e	0.11413477
15	0xbdbb96b2	-0.09159602
16	0x3b93c0b0	0.004509054
17	0x3e9992a2	0.29994684
18	0x3da81b2b	0.08208307
19	0xbd9f7cb4	-0.07787457
20	0x3d0cc775	0.034369905
21	0xbe26b11d	-0.16278501
22	0x3c8b37e8	0.016994432
23	0xbdb575da	-0.08860369
24	0x3e09361f	0.13399552
25	0x3deaed30	0.11471021
26	0xbd298529	-0.041386757
27	0xbdbeb49f	-0.093117945
28	0x3c9c18a9	0.019054728
29	0xbe5bffc4	-0.21484286
30	0x3e686d35	0.22697909
31	0x3d7f2f16	0.062300764
32	0xbe680a60	-0.22660208
33	0x3de5f1cc	0.1122776
34	0xbe626d48	-0.22112
35	0xbdb2a273	-0.08722391
36	0x3d49314c	0.04911928
37	0xbd6d2814	-0.05789955
38	0x3e3e8529	0.18605484
39	0x3e4df063	0.20111232
40	0xbdf44ff8	-0.11929315
41	0x3e42dc57	0.19029365
42	0x3da802e2	0.08203675
43	0x3e0c345d	0.1369185
44	0x3bbdd081	0.005792678
45	0x3dd7676a	0.105177715
46	0xbdbe1e63	-0.092831396
47	0xbcb848f2	-0.02249572
48	0x3dc4d30d	0.09610567
49	0xbe81b546	-0.25333613
50	0xbd0043b6	-0.031314574
51	0x3da8520b	0.082187735
52	0x3cf3e383	0.029771572
53	0xbd6c8f93	-0.05775411
54	0x3e8ef279	0.27919367
55	0x3e1c17ef	0.15243505
56	0xbdf1e775	-0.11811725
57	0xbe6f9071	-0.23394944
58	0x3d883793	0.06651225
59	0xbd1159f5	-0.03548618
60	0x3bc44e76	0.0059907986
61	0x3e633e0b	0.22191636
62	0xbdc4a2ab	-0.09601339
63	0x3d42cd9d	0.04755937
64	0xbe5b4cec	-0.21416062
65	0xbe3dd322	-0.18537572
66	0x3ba251ae	0.0049535846
67	0xbe01e3c1	-0.12684537
68	0xbe7dd8fb	-0.24789803
69	0xbdffd640	-0.12492037
70	0xbe4d1e6a	-0.20031133
71	0xbadbfb3d	-0.0016783249
72	0x3e993f43	0.29931077
73	0x3dc321ed	0.09527955
74	0xbd33d9e7	-0.04390898
75	0xbdbf32b4	-0.09335843
76	0x3de50575	0.111826815
77	0xbcfc8f72	-0.030830119
78	0x3dcb6c46	0.09932761
79	0xbde796a2	-0.11308028
80	0xbe19dd16	-0.15025744
81	0xbde2b3e6	-0.11069469
82	0xbd737f21	-0.05944741
83	0xbe777cab	-0.24168651
84	0xbcb04d02	-0.021521095
85	0xbca16b83	-0.019704586
86	0x3d2b69cb	0.04184894
87	0x3d7c077e	0.061530583
88	0xbdfd8d3f	-0.12380456
89	0xbda0b579	-0.07847113
90	0xbe23a219	-0.15979804
91	0xbeb0922d	-0.34486523
92	0x3d9f6073	0.07782068
93	0x3dce71dc	0.10080311
94	0xbe3f4c59	-0.18681468
95	0xbda0c5fa	-0.07850261
96	0xbe4ded4b	-0.20110051
97	0xbd270b2a	-0.04078213
98	0xbe80150b	-0.25016055
99	0x3e0815c7	0.13289557
100	0x3d9ba903	0.07600596
101	0x3e0bcdec	0.13652772
102	0x3dc634be	0.096780285
103	0x3ca8a019	0.020584153
104	0xbd9ca49a	-0.07648583
105	0xbe4a5712	-0.19759777
106	0xba1a9c2e	-0.00058979064
107	0x3d8b47b7	0.06800788
108	0xbe0a2459	-0.13490428
109	0xbc01ce67	-0.007922745
110	0x3e6ab21d	0.22919507
111	0x3ba842cf	0.0051349173
112	0xbda7d836	-0.08195536
113	0x3dc51f53	0.09625115
114	0x3d63d1c8	0.055619985
115	0x3dc8ea92	0.09810366
116	0x3de32cd3	0.11092534
117	0x3cc472d3	0.023980534
118	0x3e52231e	0.20521209
119	0xbd832b41	-0.064047344
120	0x3d4b1ab2	0.049586006
121	0x3e315f28	0.17321455
122	0xbd762a2e	-0.06009882
123	0xbdcc2d43	-0.099695705
124	0xbe3d9a48	-0.18515885
125	0xbdf8b413	-0.121437214
126	0xbe71f22f	-0.23627542
127	0xbd4f34de	-0.050587527
128	0xbd00d05a	-0.0314487
129	0xbd82a699	-0.06379432
130	0xbdf785c5	-0.120860614
131	0x3e82182e	0.25409073
132	0xb7bb44c9	-2.2324168e-05
133	0xbd23544a	-0.039875306
134	0xbe182af5	-0.14860137
135	0xbd8a8776	-0.067641184
136	0x3d37d734	0.044882968
137	0x3d8e72f5	0.0695552
138	0x3e5e783f	0.21725558
139	0x3e7ee9d9	0.24893893
140	0x3df0cbc0	0.11757612
141	0x3d9b0d49	0.07570893
142	0x3ea35c56	0.31906384
143	0xbcc2e22c	-0.023789488
144	0xbd55a6e3	-0.05216111
145	0xbc9db84b	-0.019252917
146	0xbe5b904c	-0.21441764
147	0xbe4e863b	-0.20168392
148	0xbc836376	-0.016038638
149	0x3d11acdc	0.035565242
150	0xbd9774d2	-0.073953286
151	0xbd03c57c	-0.032170758
152	0x3d2dc9dc	0.042428836
153	0x3e0a667f	0.13515662
154	0xbd1d270d	-0.03836732
155	0xbe17517c	-0.14777178
156	0xbed47542	-0.4149571
157	0xbd3c1bd8	-0.04592499
158	0xbda353e5	-0.07974986
159	0xbcb2f0b5	-0.021843294
160	0x3e432d7c	0.1906032
161	0xbc4a3b87	-0.012343294
162	0xbe1f3ab1	-0.15549733
163	0x3eb21043	0.34778032
164	0x3dd50ce8	0.10402852
165	0x3de92ed1	0.11385883
166	0x3e48502b	0.19561832
167	0xbd79830e	-0.060916
168	0x3d0dfdf9	0.034666035
169	0xbb91f108	-0.004453782
170	0x3d024373	0.031802606
171	0xbd86c76b	-0.06581005
172	0x3d412d21	0.04716218
173	0xbda2c5bd	-0.07947872
174	0x3dbd3964	0.09239462
175	0xbdc5d392	-0.096594945
176	0xbcb38f89	-0.021919029
177	0x3cd04304	0.02542258
178	0xbd3ac1be	-0.045594923
179	0x3e826e2c	0.2547468
180	0xbd050510	-0.03247553
181	0xbc8090ab	-0.015693983
182	0x3a20339c	0.0006111206
183	0x3e8e0aba	0.2774256
184	0xbdcbf943	-0.09959652
185	0x3e0e0ef1	0.13872887
186	0xbd8070f8	-0.06271547
187	0xbe1de39c	-0.15418857
188	0x3ddda5b2	0.108226195
189	0xbde98b6c	-0.11403546
190	0xbd268029	-0.040649567
191	0xbe19860d	-0.14992543
192	0xbdb91dab	-0.09038862
193	0x3d455c20	0.04818356
194	0x3d12da7b	0.03585289
195	0x3dd3c755	0.10340754
196	0x3dde4b6a	0.10854228
197	0x3e0fd0ad	0.14044447
198	0xbe8e37a1	-0.27776816
199	0x3dac2a60	0.0840652
200	0xbe1919fa	-0.14951316
201	0xbe3978d8	-0.18112504
202	0xbd560108	-0.052247077
203	0x3dc12b42	0.09432079
204	0xbe96c94c	-0.29450452
205	0xbb66b85b	-0.00352051
206	0x3d87321a	0.06601353
207	0x3e272a67	0.16324769
208	0x3da60d7b	0.0810804
209	0xbdddedbf	-0.10836362
210	0x3e0464b5	0.12929042
211	0xbd6b86c6	-0.057501577
212	0xbc485922	-0.012228282
213	0xbc75709a	-0.01498046
214	0x3da34ac8	0.07973248
215	0x3dc36e9f	0.09542584
216	0xbcff7b8c	-0.031186841
217	0xbbfb2443	-0.007664235
218	0x3eb89741	0.36052898
219	0x3cd58d33	0.026068306
220	0xbcda15c5	-0.026621709
221	0x3dff11f1	0.12454594
222	0x3cb2a1bb	0.021805635
223	0xbd7a8a4c	-0.061167046
224	0xbba2aa52	-0.0049641514
225	0xbc993b8d	-0.018705154
226	0x3ce85113	0.028358972
227	0xbd7353b1	-0.059405986
228	0x3db5dec2	0.08880378
229	0xbe53551b	-0.20637934
230	0x3d692f3a	0.056929804
231	0x3e6062b4	0.21912652
232	0xbdcc047f	-0.09961795
233	0xbd13d4a3	-0.036091458
234	0x3e1008fa	0.14065924
235	0xbe497c12	-0.19676235
236	0x3cf80c82	0.030279402
237	0xbe23119e	-0.15924689
238	0x3d9b33f3	0.07578268
239	0x3da28962	0.0793636
240	0xbcc6defc	-0.02427625
241	0x3ddc8e3e	0.10769318
242	0x3df802ee	0.12109934
243	0xbe079f4d	-0.13244362
244	0x3e02f790	0.1278975
245	0xbcd988c7	-0.026554478
246	0x3e06ce1a	0.13164559
247	0xbe0e7f94	-0.13915855
248	0x3e7717ba	0.24130145
249	0xbd6ffa20	-0.058588147
250	0x3dfad275	0.12247173
251	0xbd68605d	-0.056732524
252	0xbe207c57	-0.15672432
253	0x3da66d54	0.081263214
254	0x3dac6d5a	0.08419295
255	0x3ceb2c06	0.028707515

up1.bias f4 [16]
0	0x3c9fcbbf	0.019506333
1	0xbd06f95d	-0.032952655
2	0x3cdd893d	0.02704298
3	0xbd03ff25	-0.032225747
4	0xbcd73fc4	-0.026275523
5	0xbcf3aab6	-0.029744487
6	0xbcf58e5c	-0.029975109
7	0xbcebb307	-0.02877189
8	0xbcc18010	-0.023620635
9	0x3cc51754	0.024058975
10	0xbc9eb297	-0.019372268
11	0x3cd492b7	0.025948865
12	0x3ce7af42	0.028281812
13	0x3cd509ee	0.026005711
14	0xbcd4d360	-0.025979698
15	0xbccfadd7	-0.025351448
