sampling_based_planning_framework/checkpoints/checkpoint_epoch_52.pth (torch, 386290 bytes, 75 tensors)

enc1.0.weight f4 [8, 1, 3, 3]
000000 33 9b cf bd 6a 2c d3 3d af c8 89 3d 22 6d 10 3e
       -0.10137024 0.10311206 0.067277305 0.14104131
000010 57 05 e7 bd a0 8e ab 3d 62 14 02 3d 4d 9a 35 be
       -0.11280315 0.08376813 0.03175772 -0.17734642
000020 cf 7a 8a bd 4d c7 18 3e b8 c6 fd bd 61 9e 4b 3d
       -0.06761705 0.14919777 -0.12391418 0.04971159
000030 34 83 72 3e 43 b8 92 bd e4 31 12 3e 6d ec 77 bd
       0.23682863 -0.071640514 0.14276844 -0.060528208
000040 8f b9 1f 3e c5 0d 98 bd 54 6b 2f 3e cb 5b 50 be
       0.15598129 -0.07424501 0.17130786 -0.20347516
000050 c5 ac 39 be 5f ae 24 3e 80 03 a8 bd e2 3e 1f be
       -0.18132313 0.16082142 -0.082037926 -0.15551332
000060 5e 4a ba be 9d ed 47 be ad a1 ca bd 9b 88 61 3d
       -0.36384863 -0.19524236 -0.098941185 0.055061918
000070 ed 74 ba 3c 36 fd 46 be 76 f6 29 3d a5 fc 25 3e
       0.022760833 -0.1943253 0.04149481 0.16209657
000080 2b 21 ab 3e 06 11 69 bc 3d bc f5 b9 0d 4f 10 bb
       0.33423743 -0.01422525 -0.0004687029 -0.0022019774
000090 c7 5a c6 bd 9b 10 3d 3d e8 1a ad bd 5c c3 8e be
       -0.09685283 0.046158414 -0.084523976 -0.27883422
0000a0 e5 d1 68 3e 1f aa 52 bd 1e 6d 5a bd 2d a9 d2 3d
       0.22736318 -0.05143177 -0.05332672 0.10286174
0000b0 50 dd 98 be 16 ae 5a 3e af 6a 6b 3e b3 a7 10 bc
       -0.29856348 0.21355471 0.22989915 -0.008829045
0000c0 73 38 c0 3e 5c 60 7d bd dc aa c2 bd e9 d7 ad 3d
       0.37543067 -0.061859474 -0.09505245 0.08488447
0000d0 76 48 43 be e8 f7 85 be 13 a9 95 3c b0 b9 3c 3d
       -0.1907061 -0.261657 0.018269097 0.046075523
0000e0 87 6c d1 3d c1 3c 03 3e 45 06 d5 bd 70 49 fa 3e
       0.10225778 0.12816145 -0.104015864 0.48884153
0000f0 d5 ea 0d bd 7c 14 db 3d ab 00 e6 3d 74 ca fe 3d
       -0.03464778 0.106972665 0.11230596 0.124409586
000100 e3 5b a0 be 0a 25 b0 3d 61 2f 1a be ed 93 b2 bd
       -0.31320104 0.08600815 -0.15057136 -0.08719621
000110 ec b8 60 3e 6d 37 86 3d 7e 45 f5 bd 88 e8 53 3d
       0.21945542 0.065535404 -0.11976145 0.05173543

enc1.0.bias f4 [8]
000000 64 6a 10 3d 35 77 25 3b 60 10 03 3d 0b 4c 26 b9
       0.035257712 0.0025248055 0.03199804 -0.00015859322
000010 03 97 51 3d 3d 19 e5 b9 f7 ab f3 3a f0 32 4a 39
       0.051169407 -0.00043697088 0.0018590678 0.00019283197

enc1.2.weight f4 [8, 8, 3, 3]
000000 f0 8c 4f 3d c9 2e 86 3d 88 c7 95 bd a0 0c 76 be
       0.050671518 0.06551892 -0.07313448 -0.24028254
000010 fc c0 fa 3e 53 7b 1e 3e 9b 1d d7 bc fc 1b 1b bc
       0.4897536 0.15476732 -0.026259234 -0.009467121
000020 0b 70 c9 bc 60 6e ad bd 26 64 c5 bd 4e 47 e4 bd
       -0.024589559 -0.08468318 -0.096382424 -0.11146413
000030 1b 45 21 bd 7d c3 da bd 12 ed 3b 3e b1 85 40 3e
       -0.039372545 -0.10681818 0.18352154 0.18800999
000040 ff 4f 28 3e df 15 8b be 28 a8 7f 3d 3d 91 26 3e
       0.16436766 -0.27165124 0.062416226 0.16266342
000050 db a3 f7 3d f2 2c e8 bd 5d c9 f7 3d 0a d7 bb bd
       0.120918 -0.11336698 0.12098954 -0.09171875
000060 89 b8 53 be e8 02 00 3e 2d f2 5b 3d 00 eb 09 3d
       -0.20675863 0.12501109 0.053697754 0.03367138
000070 e4 b9 90 3d 68 7a 80 be 92 b1 5c 3e 52 61 73 3c
       0.07066706 -0.2509339 0.21552113 0.014854746
000080 4d 9e e1 3c 04 e6 9a bc cd d8 e4 3c 3b cb 44 be
       0.027541304 -0.018908508 0.02793541 -0.19218151
000090 e6 9a 02 3d 25 b2 8a 3d 70 05 22 3e e7 c8 38 be
       0.031886004 0.067722596 0.15822387 -0.18045388
0000a0 30 98 39 3d d6 75 1e 3d a3 a7 38 bb d6 ef 4e bd
       0.045311153 0.038686596 -0.002817609 -0.050521694
0000b0 4b 0e 13 3e 25 47 b6 3c e9 8e a0 be 79 44 98 3d
       0.14360921 0.022250721 -0.31359032 0.07434935
0000c0 62 a4 1e 3c 70 98 9d 3e dd c2 1e be f6 cb 31 3e
       0.009682747 0.30780363 -0.15504022 0.17362961
0000d0 6a f5 29 be f0 09 03 be a3 f3 b2 bd 67 b6 29 3e
       -0.16597524 -0.1279676 -0.08737876 0.16573487
0000e0 bc ad c4 bc 61 6b 48 3e f1 9a a5 bd c7 2a c1 bc
       -0.024008624 0.19572212 -0.08086193 -0.023579968
0000f0 1c 88 76 3d ec b1 ec be cb 8a 99 bd 56 32 e8 bb
       0.060188398 -0.46229494 -0.07497176 -0.0070860786
000100 8c b4 0d bc bb ca 69 3e 85 64 87 bd 7b 3d 56 bd
       -0.008649003 0.22831242 -0.066109695 -0.052304726
000110 b0 ef 7e 3d 2f 04 1c 3e fa 14 e9 bc 66 77 9a bd
       0.062240303 0.15235971 -0.028452385 -0.07542305
000120 78 d4 47 be d8 79 ee 3c c7 7b 93 3c 7e 65 03 3e
       -0.19514644 0.029110834 0.018003358 0.12831685
000130 57 8e 16 3e 0d a2 f1 3d b6 d3 0c be 47 bb 39 3e
       0.14702736 0.11798487 -0.13752636 0.18137847
000140 7c 93 60 be d1 c1 a4 3c da f6 84 3e 49 f3 dc bd
       -0.21931261 0.02011195 0.25969583 -0.107885905
000150 cd ec 2a 3e 63 03 74 3c 0c fa 1b 3e 1e 2b f6 bc
       0.16691895 0.014893386 0.15232104 -0.030049857
000160 49 b9 8b be d2 dd 1e 3e e9 6f 97 3b e0 01 98 be
       -0.272898 0.15514305 0.004621495 -0.2968893
000170 27 d9 88 3e db 87 9e bc f3 c4 1e 3e 19 e2 01 3e
       0.26728174 -0.01935189 0.15504818 0.12683906
000180 d7 18 a3 3b 1f 0e 14 3e 7f fb 04 be 1d 3b 9b bc
       0.0049773264 0.14458512 -0.12986563 -0.018949086
000190 1c 1f 81 bd b4 b0 54 3e 30 43 eb 3e ec 58 c8 bc
       -0.06304762 0.20770532 0.45949697 -0.024456464
0001a0 d5 86 2d 3c 8a ea ab 3d b6 2d 0c 3f c8 0b be 3d
       0.0105912285 0.08394344 0.5475725 0.09279591
0001b0 25 29 8f be 16 14 0c 3d 6b 9d 08 bd b3 7b ad be
       -0.27961078 0.034198843 -0.03335325 -0.33883438
0001c0 d9 cb 14 3e 42 a1 48 be 1e fe 8d bd 8a 26 20 3e
       0.14530887 -0.19592765 -0.06933235 0.15639701
0001d0 83 8b aa 3e c0 e3 94 bd 9c 25 cc bd 55 c6 c0 3b
       0.33309564 -0.07270002 -0.09968111 0.005883018
0001e0 36 7b 70 3d 05 95 6b 3e ee 0b 00 3e 1a 35 e9 3b
       0.058711253 0.23006065 0.12504551 0.007116926
0001f0 38 c8 50 bd 3e ac d2 bc 16 4d 74 3e 68 22 7b 3b
       -0.050972193 -0.025716897 0.23857531 0.0038320068
000200 aa 57 93 be 52 69 93 3e 7c 63 53 3e a1 13 bd bd
       -0.2877782 0.2879129 0.20643419 -0.092322595
000210 17 42 d2 3e b5 cc 61 3e a6 e7 20 3d 0f df d6 bc
       0.41066048 0.22050746 0.039283417 -0.02622941
000220 04 96 a9 3e 7f 05 00 3e 2b e6 8f 3e 75 a6 92 3e
       0.33122265 0.12502097 0.28105292 0.28642622
000230 dd 1a 30 3e 0f 8c 1f 3e f5 ed cd bd c1 1e 07 3e
       0.17197748 0.15580772 -0.10055152 0.13195325
000240 e4 84 ca 3d 72 a5 49 3e 7d a3 f3 3c 63 83 52 3e
       0.09888628 0.19692019 0.029741043 0.20557933
000250 5d 12 c6 3d e1 9f cd bd 71 8d d1 3d 81 09 0a 3f
       0.09671471 -0.1004026 0.10232056 0.5392075
000260 cb 57 02 be 23 f8 b3 be 93 c2 73 bd 20 bb b2 3d
       -0.12728803 -0.3515025 -0.059511732 0.087270975
000270 2d 2c 5f 3e d4 4a ba bc 49 b5 51 bd 4d 17 f5 3d
       0.21794195 -0.022740759 -0.051198278 0.11967335
000280 ef 4e e2 be d2 f5 2e be 18 28 59 be b0 03 9a bd
       -0.44200847 -0.1708596 -0.21206701 -0.075202346
000290 7a 29 b1 be 8d 4a c2 3d 49 65 9d 3d 80 ec 85 3e
       -0.34601957 0.09486876 0.07685334 0.26156998
0002a0 74 cf 31 3d 6d 6c 33 3e f7 1e a1 bd 8c 42 a1 3e
       0.043410733 0.1752183 -0.07867234 0.31496084
0002b0 b4 82 bb 3c 1e 50 df bc da 29 7b bd 83 c7 bd 3d
       0.022889473 -0.027259883 -0.06131921 0.092665695
0002c0 9d de e2 3d cb bc 5b be e7 38 59 be b5 8b 6e bd
       0.11077616 -0.21458738 -0.21213113 -0.058238704
0002d0 bd b8 55 3e de 6b 1d be f7 5b b8 3e 8d 02 74 be
       0.20871253 -0.1537318 0.36007664 -0.23829098
0002e0 bb aa 51 bd 31 1e 10 3e 21 1d 59 be ef ae bc bb
       -0.051188212 0.14074017 -0.21202518 -0.0057581584
0002f0 8b 78 25 ba b7 64 ed bd a9 1d bd be a8 28 99 3e
       -0.0006312213 -0.115914755 -0.3693669 0.2991383
000300 68 19 02 3e 0f b6 9a be da 30 9e be a2 24 43 3d
       0.12705004 -0.30217025 -0.30896646 0.047642358
000310 5e 29 ba be ee e4 14 3d 4c fe a8 3d b5 29 b5 bc
       -0.36359686 0.036351137 0.08251628 -0.022114614
000320 a0 1b f5 bd c7 91 94 be bf 15 a9 3e 06 5f 96 3d
       -0.1196816 -0.2901747 0.33024403 0.07342343
000330 c1 1d 6c be 42 40 b4 bd 5d 43 40 3e 1a 62 db 3d
       -0.23058225 -0.08801319 0.18775697 0.10712071
000340 e9 40 74 bd 2c 99 2c bd 4d 0e 8a 3e 02 b3 b5 bd
       -0.059632216 -0.042138264 0.26964036 -0.08872034
000350 93 d8 d7 bd ee 3c e1 3d 40 a1 f5 3d 51 26 5c be
       -0.10539355 0.109979495 0.119936466 -0.21498992
000360 00 7a e7 3c 4d 21 77 3e 52 85 6a ba 90 d5 62 bd
       0.028256416 0.24133797 -0.0008946258 -0.05537945
000370 f1 78 94 3c e4 fb 4f be d4 00 30 3e 5d c4 d6 3c
       0.018124076 -0.20310932 0.17187816 0.02621668
000380 35 94 12 3d 4d 36 be be d6 71 a7 be b4 b8 57 be
       0.035785872 -0.37150803 -0.32704037 -0.21066552
000390 61 99 dc bc 21 66 73 be a7 c2 ae bd 0a 0d 8f 3e
       -0.026928606 -0.23769428 -0.08533221 0.27939636
0003a0 6e 64 19 3e 55 66 e0 3d b3 12 ba bc e4 b1 7f 3d
       0.14979717 0.10957018 -0.022713995 0.06242551
0003b0 47 01 32 3d a7 9c c0 bd a8 b3 05 bd 28 be c3 3d
       0.04345825 -0.09404879 -0.032642037 0.09557754
0003c0 40 e7 6a 3d 60 86 4b 3e e8 56 4e be 7d 31 1b bd
       0.057349443 0.19875479 -0.2015034 -0.037888993
0003d0 e1 3e 26 3d 6b 4c e0 3d 80 bc a0 be d0 0a 31 be
       0.04058731 0.109520756 -0.31393814 -0.17289281
0003e0 29 65 31 3c 2c 7a ac 3d 66 ea 1d 3e 35 29 ec 3d
       0.010827341 0.0842174 0.15421447 0.11531297
0003f0 31 99 b9 3e a5 c0 53 bd 6e c2 04 be 54 21 6a be
       0.36249688 -0.051697392 -0.12964794 -0.22864276

enc1.2.bias f4 [8]
000000 73 e2 ea bc 15 f0 ca ba d0 ec 1e 3d 96 82 2d bc
       -0.028672433 -0.0015482927 0.03880006 -0.010590216
000010 e8 2b 8e 3b 68 15 0c 3d df 1d f1 3c 6e 81 fe 3b
       0.00433873 0.034200102 0.029433189 0.007766894

enc2.0.weight f4 [16, 8, 3, 3]
000000 ef 64 60 3c 84 67 23 bd 65 48 62 bc e8 7f 07 be
       0.013695939 -0.039893642 -0.0138112055 -0.13232386
000010 c7 ba 51 be c8 e1 bc 3d 49 92 72 3d 91 85 b5 bd
       -0.20481406 0.09222752 0.05922154 -0.088633664
000020 73 69 85 3e 4d 70 33 bb a4 c1 49 3d 81 c4 15 bd
       0.26057014 -0.002738017 0.049256936 -0.036564354
000030 60 bb 62 be b2 5a 9b 3d 39 21 3c bd ac 65 ad bd
       -0.2214179 0.07585658 -0.04593012 -0.08466658
000040 96 c1 2e bd e3 30 39 3e e6 19 b9 3b d1 e7 f1 3d
       -0.042665087 0.18085055 0.0056488393 0.118117936
000050 6d b3 2d be b1 fd 36 bd 90 63 94 bc 42 69 05 be
       -0.16962977 -0.044675533 -0.018113881 -0.13028434
000060 17 19 b6 3d 30 60 8b 3e ea 41 e4 3d b2 02 4b bd
       0.08891504 0.27221823 0.111453846 -0.049563117
000070 8e 17 d3 3d 21 41 e1 3d 80 cd c4 bc fa 63 28 be
       0.10307227 0.109987505 -0.024023771 -0.16444388
000080 8d a5 62 bc 48 3d 3c be 29 3c 22 be de 5e ae bd
       -0.013833416 -0.18382752 -0.15843262 -0.08514188
000090 88 b3 1c 3e ec 55 28 bd 04 b1 48 be 0f 90 02 bd
       0.1530286 -0.041097566 -0.19598776 -0.031875666
0000a0 c1 1c 2d 3d e6 ce 25 bd 18 26 01 be 05 88 ef bd
       0.04226375 -0.040480517 -0.12612188 -0.116958655
0000b0 84 fc 82 3d 6e ff 77 3d 65 84 5c 3d 2d a6 0d 3e
       0.0639582 0.06054633 0.0538372 0.13832922
0000c0 17 34 64 3e 70 3f 08 bd 0b 7d 13 3e 94 7a 33 3e
       0.22285496 -0.033263624 0.14403169 0.17527229
0000d0 ec a5 15 bd 5e e9 ec 3d a3 82 3d 3e 18 f3 5d bd
       -0.03653519 0.11567949 0.18506865 -0.05418691
0000e0 82 de 9e be 01 b0 35 be 73 bc 4e 3e 4c fc 84 bd
       -0.31029135 -0.17742921 0.20189075 -0.06493434
0000f0 b6 74 be 3d 4f 1e 5a 3e 25 fd 3c 3e 45 35 e2 3b
       0.092996046 0.21300624 0.18455942 0.006903323
000100 35 fd 2e be 3d 17 c8 3c ba f9 bb bc 24 5a a9 bb
       -0.17088778 0.024425143 -0.022946227 -0.0051682163
000110 07 22 e1 3d ec b8 d7 bd 90 9b 2d be 10 b9 2d 3b
       0.10992818 -0.10533318 -0.16953874 0.002650801
000120 87 c4 e6 3b 48 09 34 3d 99 b5 b0 bc 1d 20 64 bd
       0.007042471 0.043954164 -0.021570968 -0.055694688
000130 29 6d de bc 1b 88 e8 bd bb b5 88 bd 4c b2 b1 3c
       -0.027151661 -0.11354085 -0.06675287 0.021691464
000140 cf f3 f1 3d 88 08 3f bd 56 40 98 3b 59 15 94 3e
       0.11814081 -0.046638995 0.0046463413 0.28922537
000150 64 f5 1f 3c c2 42 de bd 2a c9 af 3b ad 78 3b bd
       0.0097630955 -0.10852577 0.005364557 -0.045769382
000160 21 f2 09 bb 45 d4 df bd c8 c8 51 3d a6 2c 65 3d
       -0.002104886 -0.10929159 0.05121687 0.055950783
000170 e4 e6 24 3e e3 e3 b1 3d 2f 02 11 3d d9 b3 92 3d
       0.16103703 0.08686044 0.035402473 0.071632095
000180 ca 6d 40 be 19 53 e5 3d 4e ae 09 3d 3a 0f a4 bc
       -0.18791881 0.1119749 0.033613496 -0.020026792
000190 1f 13 b1 bd 63 2c ab 3d c9 ec 3e be fe 5f 77 3d
       -0.08646225 0.083580755 -0.18645014 0.06039428
0001a0 fe 1a 01 39 5f 06 f7 3d b5 fa 6c be ec f5 db 3c
       0.00012312454 0.12061762 -0.23142512 0.026850663
0001b0 24 69 07 3e 44 d8 55 bd 22 57 b1 bc 5e 5f fb bc
       0.13223702 -0.0522082 -0.021647993 -0.030685123
0001c0 bd 8a ca 3d 06 03 80 3d 83 53 32 3e 6c 57 77 3e
       0.098897435 0.06250577 0.1741467 0.24154443
0001d0 59 2d 44 3c 48 19 7a bd 7b d9 b5 bd 3b 45 38 3e
       0.011973702 -0.061059266 -0.08879372 0.1799516
0001e0 a1 5a 32 3e 47 54 21 3e 51 ef 98 3d 94 90 05 be
       0.17417385 0.15754806 0.07467521 -0.13043433
0001f0 0b 7f ce 3d 66 97 00 3e 24 85 51 3e be 94 2d 3b
       0.10082825 0.12557754 0.20460945 0.0026486362
000200 34 74 8d 3d 13 43 e8 3c 7b 59 48 3e 9e 35 fc bd
       0.069069296 0.028352296 0.19565384 -0.12314914
000210 6e 39 99 3c 10 1a ea bc 04 76 4a 3e 18 bd 86 be
       0.018704142 -0.02857688 0.19771582 -0.26316142
000220 d3 96 17 3e db c2 4f be 4e 63 30 be 59 d0 17 3d
       0.14803629 -0.20289175 -0.17225382 0.03706393
000230 90 02 ee bc c3 fb 32 3d 09 86 50 bb 76 fa cd bd
       -0.029053956 0.04369713 -0.0031818172 -0.10057537
000240 7b ce 5b bd 99 23 97 bc af 17 52 be 08 62 20 bd
       -0.053663712 -0.018449591 -0.20516847 -0.03915599
000250 a4 89 e7 3d de b8 59 3e 1b 55 8b 3e 33 d4 17 3e
       0.1130555 0.21261927 0.27213368 0.14827041
000260 6b 3f 3b be 20 25 43 bd f5 c2 20 be b1 a7 1b be
       -0.18285911 -0.047642827 -0.1569937 -0.15200688
000270 ad c4 f7 3d d7 65 34 3e f1 e9 f3 bc 1f 86 43 3d
       0.1209806 0.17616974 -0.029774638 0.04773533
000280 70 28 de bd 28 fd 6a be a1 57 05 3e 13 8d 51 3c
       -0.108475566 -0.22948134 0.13021709 0.012789982
000290 9a 14 3a be 5c 86 cd bd 46 9c 58 3d a2 a3 1d 3e
       -0.18171921 -0.10035393 0.05288341 0.15394452
0002a0 78 9b 82 bd a6 12 0a be f1 b9 c1 3d 8c 65 37 3e
       -0.063773096 -0.13483676 0.09459294 0.17909831
0002b0 eb 46 02 bc eb be fb 3d 7b 39 13 3e 1b ee ba b7
       -0.0079514785 0.12292274 0.14377396 -2.2283804e-05
0002c0 cf b1 4b bd 09 8e 39 3e f5 74 7f bc a5 64 af bd
       -0.04973012 0.18120588 -0.01559185 -0.08564118
0002d0 8a 15 bd 3d 24 14 a7 3d 19 3c f5 3d e5 98 51 3e
       0.09232624 0.081581384 0.11974353 0.20468481
0002e0 93 6e b0 3d 31 24 c5 3e 10 61 9c 3e 96 89 25 3e
       0.0861484 0.38504174 0.30542803 0.16165766
0002f0 f1 7c 86 3d 67 29 cd bd d0 18 1b 3e de b6 0b be
       0.065667994 -0.100176625 0.15146184 -0.13643977
000300 a7 30 bc bd 87 06 8a bd 84 93 3c 3e 6f bd 72 3e
       -0.09188967 -0.06739526 0.18415648 0.23705076
000310 e5 a1 a0 3d 49 36 d0 bd e3 14 cd 3d fb ae 98 3d
       0.07843379 -0.10166604 0.100137495 0.0745525
000320 97 51 d1 bc ac b3 74 3d bb 0e 20 3e 18 90 a5 3d
       -0.0255516 0.05974166 0.15630619 0.08084124
000330 e2 97 eb 3d 3c 0b be 3d b2 be 55 bb af 7b 36 3e
       0.11503579 0.092794865 -0.0032614884 0.17820619
000340 1a 33 33 be c2 de e4 3c ce 87 0b 3e 66 f7 51 bc
       -0.17499962 0.02793825 0.13626024 -0.012815332
000350 7e 3c 7d 3e 35 49 27 be 4e 41 04 3d ab d8 18 be
       0.24730107 -0.1633652 0.032288842 -0.14926402
000360 9d fe eb bc 27 e5 6c 3d 88 3a 24 3e 5e 36 d7 bc
       -0.028807933 0.057835724 0.16037953 -0.026271041
000370 7d 69 a1 3d 9d 5c 87 3e 7c 33 b1 bb 66 da 74 bd
       0.078814484 0.26437846 -0.0054077487 -0.059778593
000380 33 9d 57 bd ca b1 b2 be 67 d1 02 be 4e 37 a6 3c
       -0.05264015 -0.34901267 -0.12775193 0.020290043
000390 23 e8 36 bd 38 d0 44 be c0 c7 1c 3d d8 3a 20 3e
       -0.044654977 -0.19220054 0.038276434 0.15647447
0003a0 ea ac c3 ba 91 b1 b8 3d 00 91 4c 3d 04 a8 8e bd
       -0.0014928852 0.09018243 0.04994297 -0.0696564
0003b0 b2 a9 b6 bd f5 41 8c bd 50 a6 bf 3d fe 5a ff bd
       -0.089190856 -0.06848518 0.093578935 -0.12468527
0003c0 d5 70 2a 3d 09 16 2f 3c 68 75 fe 3c 74 8f ca bc
       0.04161151 0.010686406 0.031061843 -0.024726607
0003d0 99 27 fc bd e6 15 73 3e 34 21 84 bc 3e d2 67 bd
       -0.1231224 0.23738822 -0.016129114 -0.056596987
0003e0 96 ee a1 3d 79 03 88 bd aa 2e 72 3e 15 ad 05 3e
       0.07906835 -0.06641287 0.23650613 0.13054307
0003f0 56 46 97 be 79 9c 6f be 43 50 e1 3c 69 29 a6 3c
       -0.2954585 -0.23399533 0.027504092 0.020283418

enc2.0.bias f4 [16]
000000 6a f3 07 3d 00 d0 06 3d e2 90 78 bc 1f e2 33 3d
       0.033191122 0.032913208 -0.0151712615 0.043916818
000010 52 7a 13 3c 40 0b 19 3d b1 e3 ae bc c5 f1 e6 bc
       0.009001331 0.037364244 -0.021348806 -0.028191457
000020 84 a2 de 3c cf 5d d9 3b 70 6c 02 3d 47 2c 15 3d
       0.027177103 0.0066334973 0.031841695 0.03641918
000030 b2 73 fc 3c ff 8a dd 3c 3b 06 bd 3c 29 27 16 3d
       0.030816887 0.027043818 0.02307426 0.03665844

enc2.2.weight f4 [16, 16, 3, 3]
000000 27 0f 05 bb 0c 84 37 3d 58 83 a9 bc 89 48 ee bd
       -0.002030322 0.044803664 -0.020692512 -0.11634929
000010 69 3f 10 3e 88 b8 5f 3d 59 b6 67 bd d6 c0 c8 bc
       0.14086689 0.054619342 -0.056570385 -0.024506014
000020 bc 5d 9d 3b 76 f5 fd bd d7 73 68 3e 4a d2 e2 bd
       0.004802434 -0.124003336 0.2270044 -0.11075266
000030 ee 03 39 be ad 98 2d 3d 77 e4 38 3e b8 8d 6e be
       -0.18067905 0.04238193 0.18055902 -0.23296249
000040 f2 b6 05 bd 6c 94 e7 bc 26 f6 ec bd 7b 74 87 bd
       -0.032645173 -0.028269015 -0.115703866 -0.06614014
000050 94 1a 05 be c1 b0 ce bd 79 77 9f 3e 1e 8b 31 3d
       -0.1299842 -0.10092307 0.31145838 0.043345563
000060 a3 88 3a bd 4a d0 19 3e 20 64 96 bd ed 7f 58 3e
       -0.045540463 0.15020862 -0.07343316 0.2114255
000070 1d d8 17 3e 51 cc 74 bd 31 4a 24 3e df 7a 31 3e
       0.14828534 -0.059765164 0.16043927 0.17332028
000080 15 15 cd bd 72 d3 a1 bd 92 36 a5 be 66 1e 40 3e
       -0.10013787 -0.07901658 -0.32268196 0.18761596
000090 b7 1c 10 bd 00 04 4a bd 59 e8 15 3e 7d 25 28 be
       -0.035183635 -0.04932022 0.14639415 -0.1642055
0000a0 7a 35 ee bd ce 7f 62 3e f2 91 81 bd 73 dc cb be
       -0.116312936 0.22119066 -0.06326665 -0.39816627
0000b0 c4 f8 b8 bd 7f 02 32 3c 21 6f 11 bd 1c c3 00 3e
       -0.09031823 0.010864853 -0.03550637 0.12574428
0000c0 c0 4b c1 3c f2 10 43 bb 0a a5 e5 bd 69 17 a7 bd
       0.02359569 -0.002976474 -0.11213119 -0.08158762
0000d0 2c c0 82 be e9 f6 a3 bd 70 71 b7 3c 0b e6 e4 bc
       -0.2553724 -0.08006079 0.022392958 -0.027941724
0000e0 0f 3d bd bd 43 dc 02 3e cc aa 00 be 52 c4 2a 3e
       -0.09240162 0.12779336 -0.12565154 0.16676453
0000f0 05 29 2d 3d 6b 15 e5 3d c5 d1 1f 3d b8 65 5f 3d
       0.042275447 0.11185726 0.03901841 0.054540366
000100 16 c6 d6 3d 1b 40 88 3d 95 1d f6 bd 42 8a 21 bc
       0.10487001 0.06652852 -0.12017361 -0.009859623
000110 ef 0b 1a be ba 5f e7 3d c8 8e 22 3e 2c 6c a4 bc
       -0.15043615 0.11297555 0.15874779 -0.020071112
000120 9b 39 7e 3e a8 47 5f 3c 01 5e 37 3e 98 17 b2 bd
       0.24826662 0.013627924 0.17906953 -0.086959064
000130 20 ab 83 3d f0 02 59 3e 64 56 8b 3a 6c 00 55 be
       0.06429124 0.21192527 0.0010630605 -0.20800942
000140 18 f7 2f 3e 8b 3b 54 be 7c 65 02 bd d6 6f 50 be
       0.17184103 -0.20725839 -0.031835064 -0.20355162
000150 26 51 16 3e c1 ed 28 3e c0 3e 9b 3d 1d 66 61 bd
       0.14679393 0.16496946 0.07580328 -0.055029023
000160 0f 58 44 be 0f ed 4f 3e 97 5c de 3a 1b 00 12 be
       -0.19174217 0.20305274 0.001696485 -0.14257853
000170 18 4c dc 3d 0a 36 9e bd 48 27 ef 3d 14 42 c6 3c
       0.10756701 -0.07725151 0.11677414 0.02420143
000180 33 44 83 be aa 52 30 3d 64 cb 3a 3e 55 b5 04 3e
       -0.2563797 0.043047585 0.1824165 0.12959798
000190 74 60 24 bd 96 4c 53 bd 3c f6 85 bd e8 b8 12 3e
       -0.040131047 -0.05158671 -0.06541106 0.14328349
0001a0 b6 ea 88 3d a1 a7 d3 3c ff c9 ec bc 08 22 89 3d
       0.066853926 0.025836768 -0.028904913 0.06695944
0001b0 07 49 b3 bd dd a3 cb 3c 24 90 4c 3e cc c8 54 be
       -0.08754163 0.02485841 0.1997686 -0.20779723
0001c0 98 b1 81 bd 05 08 95 bd 27 9c 82 b9 34 7b 12 3e
       -0.063327014 -0.0727692 -0.00024911875 0.14304811
0001d0 bc 84 17 3e 9e 43 c3 3c 42 19 c5 3d 73 d4 1f be
       0.14796728 0.023835953 0.09623958 -0.15608387
0001e0 0b 60 18 3e e5 bf 0b 3e 44 7b 94 bd 93 6a af 3d
       0.14880387 0.1364742 -0.072500736 0.08565249
0001f0 73 8d bd 3c 66 94 82 bd b9 71 24 3e 3b 68 94 bd
       0.023138737 -0.06375961 0.16059007 -0.07246443
000200 95 20 db bd c2 78 ea bc 79 39 a6 bd f0 e0 3d 3d
       -0.10699574 -0.028622035 -0.08116431 0.046357095
000210 06 37 7f be e2 1e 59 3d 35 c0 e6 bd 5a 91 05 be
       -0.24923334 0.053007968 -0.11267129 -0.13043728
000220 8e b9 37 3d b1 63 2b 3e 47 a2 00 be 2f 03 f3 3d
       0.044854693 0.16737248 -0.12561904 0.118658416
000230 ac 43 43 bd b1 7e 89 3d 8c cf f6 bc 59 3b c0 3d
       -0.04767196 0.067136176 -0.030128263 0.0938632
000240 82 e0 80 3c 4e 9f 8e 3d 7b 01 dd 3d ac c7 ef bc
       0.015732054 0.06963979 0.10791298 -0.029270016
000250 c9 cb fe 3d 84 74 0a 3e 6b d0 3e 3e e7 0f ac bd
       0.12441213 0.1352101 0.18634193 -0.08401471
000260 82 74 2c 3e 07 a6 36 3e 8a 07 b7 3d 24 d9 14 3c
       0.16841319 0.17836772 0.08936985 0.0090849735
000270 f3 7f 8f be 3d 88 e1 3d af ce e3 bd f6 74 a7 ba
       -0.28027305 0.110123135 -0.11123406 -0.0012775946
000280 57 ae 9b bd de 61 06 be 24 23 18 3e 7b 83 6e 3d
       -0.07601612 -0.13123271 0.14857155 0.05823086
000290 db 9a f7 3d 93 fe 5a be 39 ee 30 bd 36 af 1c bd
       0.12090083 -0.21386175 -0.043195937 -0.03825303
0002a0 c7 33 1f bd 31 f5 33 bd 9d bd 4e bd 1c f1 50 be
       -0.038867738 -0.043935005 -0.050473798 -0.20404476
0002b0 2e 93 1c be 5c ef a3 bd 7b 1c f9 3d ca 43 e2 bc
       -0.1529052 -0.080046386 0.12163635 -0.027620215
0002c0 20 7c 4d be f2 9e a7 bd 4e 6d 25 bd d7 e8 53 3d
       -0.20066881 -0.08184613 -0.040387444 0.051735725
0002d0 0f 20 c5 bb 29 64 11 3d 07 30 a0 3d 11 8b ce 3c
       -0.0060157846 0.03549591 0.078216605 0.025212796
0002e0 19 9c 8c 3d e6 f9 4f 3e af 66 2a 3e 21 45 10 3e
       0.06865711 0.20310172 0.16640733 0.1408887
0002f0 19 fa e2 bb 30 86 64 3b 50 ed 3c 3e 69 3f cb bd
       -0.0069267866 0.003487002 0.18449903 -0.09924204
000300 e9 b4 cb bd d2 a7 f9 3c a7 41 86 3d 16 22 4f 3e
       -0.09946615 0.03047553 0.06555491 0.20227847
000310 3b 8e 8d 3e 40 28 0e bc f7 84 78 bd 2b 4f 72 bd
       0.27647576 -0.008676589 -0.06067368 -0.05915753
000320 18 17 76 bd a4 a0 15 be 1a 5e f4 3d d1 9c 0b 3e
       -0.060080618 -0.14612061 0.11932011 0.1363404
000330 34 6d cf bd 9b 12 97 bd 71 cb 43 3e 6d 0b ef 3d
       -0.10128251 -0.073765956 0.19120575 0.11672101
000340 86 13 0d be 29 39 01 3e a3 72 68 bb 42 53 df 3c
       -0.13776979 0.12619461 -0.003546872 0.02726138
000350 29 ec 32 bd d3 6c a7 3d 60 1c 87 bd 55 9f 39 bc
       -0.04368225 0.081750534 -0.06597209 -0.011329492
000360 7a 91 8e 3d 61 db 2b 3e 92 1a 36 be c7 89 ae 3b
       0.06961341 0.16782905 -0.17783573 0.005326483
000370 63 3a a0 3e 85 0e 08 3e ef 6e 86 bd 12 c8 b0 3c
       0.31294546 0.13286789 -0.06564128 0.021579776
000380 87 46 e4 bc 79 c1 91 3e 22 8b c8 bd 55 73 c3 bd
       -0.027865661 0.2846792 -0.097921625 -0.09543482
000390 0a e2 af bd 0f 3e b5 3c eb 98 c1 3c dd c0 1a be
       -0.085880354 0.022124318 0.023632487 -0.15112634
0003a0 36 b0 d4 be 5e 93 7a bd b0 8f 72 bc 60 dc 3e be
       -0.41540688 -0.061175697 -0.014804766 -0.18638754
0003b0 a1 84 39 3d bf df 31 3e d8 1a 69 3d ef b9 87 be
       0.0452925 0.17370509 0.056910366 -0.26509044
0003c0 43 73 24 be bd 9f bf 3d af a9 31 bd d9 05 64 3d
       -0.16059594 0.093566395 -0.043374714 0.05566964
0003d0 98 bd 3b be cc 38 bd bd 32 e8 52 3d b6 49 18 be
       -0.18334043 -0.09239349 0.05149097 -0.14871868
0003e0 f8 ba 9b 3e 11 ff 02 3e 24 1e c1 3e 0a 94 80 bd
       0.30416083 0.12792613 0.37718308 -0.06278236
0003f0 4a 7c 0b 3d ae 31 bb 3c 6f dd d9 bc b6 a1 0f 3e
       0.03405408 0.022850838 -0.026594846 0.14026532

enc2.2.bias f4 [16]
000000 62 f2 8e 3c 8a 08 01 3d 8c 0b 84 39 ec 12 4d 3c
       0.017449562 0.031502284 0.00025185605 0.012516718
000010 23 93 08 3d a3 e9 d4 3c 11 2b a2 bb 50 eb ae bb
       0.033343446 0.025990313 -0.0049489816 -0.00533811
000020 b2 ad 6e 3d 03 e5 ff 3c 98 02 50 3c 7e 8b e6 bb
       0.058271118 0.031237131 0.012695931 -0.0070356717
000030 eb 1c 9d 3c ef f3 77 bc 3a da 0c 3d 95 9f e9 3c
       0.019178828 -0.015133842 0.034387805 0.028518477

bottleneck.0.weight f4 [32, 16, 3, 3]
000000 e4 f7 bc bd 5c 5e 19 3d 2f 96 46 3d 1d 8c 45 3d
       -0.09226969 0.037443504 0.04848307 0.048229326
000010 50 90 a4 3d 72 fb 0c bd 6e 05 c8 3c 4d 9d 43 3c
       0.08035338 -0.034419484 0.024416652 0.011939359
000020 49 d1 2f be b2 bf 96 bc 0d 1c 40 be e7 a6 cb 3d
       -0.1716968 -0.018401954 -0.187607 0.099439435
000030 89 a4 a6 bc 9d 9b 84 3d 2b 92 08 3e fa 23 2e be
       -0.020342128 0.064749934 0.13337009 -0.17005911
000040 58 ca 59 3e 96 cd 12 3d bf a3 21 3d 21 3d b4 3d
       0.21268594 0.035840593 0.0394628 0.08800722
000050 1b 25 ac 3d 1e 1d 4a bd 5d fb 06 3e 73 1f 5f 3e
       0.08405515 -0.049344175 0.13181825 0.2178934
000060 e3 84 11 bd af 17 64 bc 12 7d b6 bc de 0c 2d 3d
       -0.03552712 -0.013921662 -0.022276435 0.0422486
000070 c0 c3 85 bd eb ba da 3b 5c e6 2c bd 3a cd d3 bd
       -0.06531477 0.0066751144 -0.042211875 -0.10341878
000080 8c fb fb bc ea fa ff 3d 93 79 37 bc 3a e6 aa bd
       -0.030759595 0.1249903 -0.011198419 -0.083446935
000090 40 5f a4 bd c0 b1 98 bd 58 9c 95 bb 2c 32 6b bd
       -0.0802598 -0.07455778 -0.004565757 -0.057420895
0000a0 97 52 30 3d c1 6f 32 be cb 67 cc 3d fb fc 0a be
       0.043047514 -0.17425443 0.099807344 -0.13573067
0000b0 73 b4 ff 3d f4 28 e2 bc 7d f6 d8 3d 72 7e d9 3c
       0.1248559 -0.027607419 0.10593889 0.026549552
0000c0 ac 73 d3 bd 2c 1b 88 3d 41 ec 1d bd af 3d f6 3d
       -0.10324797 0.066458076 -0.038555387 0.12023484
0000d0 8c 65 be 3d 44 98 3c bd e9 07 ee 3c b8 e9 f9 3d
       0.09296712 -0.04604365 0.029056506 0.122027814
0000e0 31 1a 26 3c bc a4 97 3d e1 3b fa bc 3e 1d f8 bd
       0.01013808 0.074044675 -0.03054613 -0.121149525
0000f0 bc 2c 6b bd b5 d7 8a 3e b3 80 a0 3d 83 54 88 bd
       -0.05741571 0.27117696 0.078370474 -0.06656744
000100 93 be 02 3d bc c4 4f bd d4 a2 06 3d 72 3e 12 3e
       0.031920027 -0.05072473 0.03287013 0.14281633
000110 8c 30 b8 3d af a6 a1 3c ca fa 49 3b c6 b4 39 bd
       0.089936346 0.019732801 0.0030819648 -0.045338415
000120 15 58 8e 3a d5 2d 73 3c a1 37 28 be ca 2a af 3d
       0.0010859991 0.01484247 -0.1642747 0.08553083
000130 d4 3e 9d bd cd 6b 3d bd 33 d4 36 bd bc d2 ea 3d
       -0.07677999 -0.046245385 -0.044635963 0.11465976
000140 4e eb 49 3e 8c cd b5 bd fc 49 d1 3d 40 bd 6a 3d
       0.19718668 -0.088770956 0.102191895 0.05730939
000150 b1 38 e5 bc 08 ff 65 3d 96 f6 20 3e 13 8f e2 bd
       -0.027981134 0.05615142 0.15719065 -0.110624455
000160 1b 70 0f 3d e7 e2 4a bb 61 61 96 3c ec aa b7 bc
       0.03501902 -0.0030957998 0.01835698 -0.02242037
000170 f5 20 75 bd 45 b7 e1 3d 94 1c 1a 3e 84 b7 f5 3d
       -0.059845883 0.11021284 0.15049964 0.119978935
000180 0b 54 64 bb 60 27 cb 3d b9 8d 72 bc 69 11 65 bc
       -0.0034840133 0.099196196 -0.014804297 -0.013981202
000190 e0 53 ac 3d 36 a5 41 bd 1b 07 de b9 96 85 70 3d
       0.084144354 -0.047276698 -0.00042348434 0.058721147
0001a0 b9 51 92 3b 16 07 08 3d aa 9a 8e 3e 74 1a db 3d
       0.0044653085 0.033209883 0.27852374 0.10698405
0001b0 88 b6 ac bb 46 3e 12 3d 4e 1e 28 bd b9 de 18 3e
       -0.005270783 0.03570392 -0.041044526 0.14928712
0001c0 a0 75 8e 3d 68 94 c4 bd d7 89 26 bd 59 c4 18 bd
       0.06956029 -0.09598619 -0.040658798 -0.037296627
0001d0 64 05 47 be 28 2a a1 3d 1c 7f 80 3d 4a 93 f8 bd
       -0.1943565 0.07869369 0.06274244 -0.12137468
0001e0 24 4d 41 3e bb dd 02 bd c7 86 46 3d 15 b4 33 3b
       0.18877083 -0.03194974 0.048468377 0.002742057
0001f0 ab 54 c4 3c 71 8c 5d 3e ee 4f 20 bc 39 dc 31 3d
       0.023966154 0.21635605 -0.009784682 0.04342291
000200 70 d8 13 be 3b e8 65 3d ac 45 38 bd 38 f3 05 bd
       -0.14438033 0.056129675 -0.04498832 -0.032702655
000210 1d f7 aa 3c 88 1b e4 bd 37 4d 71 bd 03 c2 ae 3c
       0.020869786 -0.11138064 -0.05891153 0.021332746
000220 cb a2 2d 3e c7 68 20 3d d4 a5 77 3d 84 fa 42 3d
       0.16956632 0.039162423 0.06046088 0.04760219
000230 26 d8 2b 3d 4c df c3 3d 34 6d 45 3d 56 db 20 3d
       0.041954182 0.09564075 0.048199847 0.039271675
000240 ba 58 b0 3b db 0e bc bd 8e 5a cc 3d d7 42 4c 3c
       0.005381671 -0.09182521 0.099782094 0.012467108
000250 9a 52 3c 3d ec a2 56 3c e6 b6 b1 bc b3 9e 8f bd
       0.045977212 0.013100367 -0.021693658 -0.07012691
000260 e2 23 81 3d 74 3e 84 3d 7b 83 84 bd 7d 4e cf 3b
       0.06305672 0.064572245 -0.064703904 0.006326495
000270 be 1e 4a 3d 0b b0 01 bb ae 23 45 be ef ea 58 bd
       0.049345724 -0.0019788768 -0.19251892 -0.052958425
000280 0c 83 9b bd 87 65 76 3e 42 fc 58 bb 69 56 00 be
       -0.075933546 0.24062167 -0.0033109342 -0.12532963
000290 41 ef ac bd 39 28 6e bd ec 5d d1 bd 77 9e 35 3c
       -0.084440716 -0.058143828 -0.10222992 0.011085144
0002a0 93 4c 6e bd 12 e4 42 3d 62 cc b3 3d 30 89 95 bd
       -0.058178496 0.047580786 0.08779217 -0.07301557
0002b0 00 c5 8e bd 21 48 26 3d c6 11 2e 3d e0 95 57 bd
       -0.069711685 0.04059613 0.04249742 -0.052633166
0002c0 2f ee d3 3c 04 bb 7c 3d 1a f1 2e 3d 34 19 df 3d
       0.02587041 0.06170179 0.0427104 0.10893479
0002d0 76 c4 51 3d 71 34 a6 3c e7 e6 e0 3d ef c4 f1 3d
       0.05121275 0.020288678 0.10981541 0.1180514
0002e0 d5 1b b4 3d c1 48 b9 3d ce 87 34 3d aa 3b a1 bc
       0.08794371 0.0904708 0.044074826 -0.01968177
0002f0 fc 64 be bd b4 57 16 bd 3a 6d da 3b fd ec 81 bd
       -0.09296605 -0.036704734 0.006665853 -0.0634403
000300 bd d7 f4 bc fc d5 cd 3b bd b3 83 bd b5 a3 36 3d
       -0.029888028 0.0062816124 -0.06430767 0.044589717
000310 bd cc 1b bd 50 82 da 3d c4 67 ee bd ae 8d 48 bd
       -0.03803705 0.106693864 -0.116408855 -0.04896324
000320 21 10 0c be 7b 7c ed 3c 53 1d a2 3d 2a 9c 1c be
       -0.13678028 0.028990021 0.079157494 -0.15293947
000330 12 62 a2 3d 1c a0 e7 3d 21 ad 3e 3e 34 dd 32 be
       0.07928862 0.11309835 0.18620731 -0.17467195
000340 91 94 53 bd af 72 70 be 07 47 d5 3d 84 89 64 3e
       -0.051655356 -0.23481248 0.10413938 0.22318083
000350 dd e9 54 bd 27 a6 34 3d 32 d9 d0 3c 71 61 5f bd
       -0.051980842 0.044103768 0.025494192 -0.054536287
000360 d6 f0 78 bd d5 ef e7 3d 0c 41 9b 3c 98 e0 83 bb
       -0.060776554 0.11325041 0.018951915 -0.0040245764
000370 cc 5b 12 bd 8d 9c 61 bc a3 d1 aa bd bb b8 5f 3e
       -0.035732076 -0.013770235 -0.08340766 0.21847813
000380 a8 af 09 3e de 7e 34 3c 6d 35 ea bc d4 21 f4 bd
       0.13445914 0.011016576 -0.028589929 -0.11920515
000390 8d c6 56 3d 10 09 01 be 27 da 99 bd d4 6e 58 be
       0.052435447 -0.12601113 -0.075123124 -0.21136028
0003a0 6e 3e ca 3d d8 b3 fd bd 7f c3 85 3d 8e 35 8b 3d
       0.09875189 -0.12387818 0.065314285 0.06797324
0003b0 82 e5 bd bd 20 1e 0a 3e af 25 c4 bc 71 9d 00 be
       -0.09272291 0.13488054 -0.02394375 -0.12560059
0003c0 92 24 6a 3d b9 76 18 bc 25 7a 00 3e be b1 36 bd
       0.057163782 -0.009305649 0.12546594 -0.044603102
0003d0 73 c2 90 bc 56 c9 22 3e ee 95 a0 3d fc 77 bc bc
       -0.017670846 0.15897116 0.07841097 -0.023006432
0003e0 87 77 9e 3d a8 18 4b 3d e9 cc 68 38 0c 2a 0b 3e
       0.07737642 0.04958406 5.5503948e-05 0.13590258
0003f0 dc 12 cc 3d 6a 33 1f 3e a4 d1 27 bd 23 3c ab bd
       0.09964535 0.15546957 -0.040971413 -0.083610795

bottleneck.0.bias f4 [32]
000000 38 88 03 bd 12 a6 ab 3c 54 8a e9 3c 5c 42 18 3d
       -0.03211233 0.020953212 0.028508343 0.03717266
000010 e7 f5 f2 3c b3 89 d6 3c b9 c4 43 3d 84 ff 1f bc
       0.029658271 0.026188707 0.04779503 -0.0097655095
000020 75 0c dd 3c 78 1f 5a bc ae 97 63 3c 5b 52 19 3d
       0.026983479 -0.013313167 0.013891144 0.037432056
000030 39 b3 1d bc 40 c2 d3 3c b2 69 80 bb bb ab f7 3c
       -0.00962525 0.025849462 -0.00391885 0.030233255
000040 ef e6 0b 3d aa 7f f7 3b 48 3a d9 3c 27 aa 60 3d
       0.034155782 0.0075530605 0.026517048 0.05484977
000050 98 20 38 3b ee f9 53 3d 68 1d c4 3c d8 57 50 bc
       0.00280956 0.051752023 0.023939803 -0.012716256
000060 b0 98 0c 3d 97 16 a1 3c 56 77 e8 bc 2d 53 3f 3c
       0.0343253 0.019664092 -0.028377216 0.0116775455
000070 44 38 b9 3c b3 5e dc 3c bf 37 ca 3c be 55 ef 3c
       0.022609837 0.026900625 0.024684785 0.02921569

bottleneck.2.weight f4 [32, 32, 3, 3]
000000 a4 dc 3f bc 07 d2 02 bd df 2f 46 be 04 15 d8 bd
       -0.01171032 -0.03193858 -0.19354199 -0.105508834
000010 55 ec 3c be 65 51 95 bc d3 9c 94 bd 52 6c fa bd
       -0.18449529 -0.018227288 -0.07256474 -0.12227692
000020 92 fc 5a bc b9 fd 39 3b b2 3e 37 be 4e 35 9a bc
       -0.0133658815 0.002837999 -0.1789501 -0.018824246
000030 8f c2 8d 3b bb 81 d2 3d 5b 5d 8d 3d 38 cc 9e 3d
       0.0043261717 0.102786504 0.06902572 0.077537954
000040 44 66 13 bd e4 72 86 bc 0b c2 42 bd 05 3b 63 3e
       -0.0359862 -0.016412206 -0.047548335 0.22190483
000050 d5 13 1c 3d 78 04 c1 bd fb 8e 92 3d f8 09 be bc
       0.03810485 -0.094246805 0.071561776 -0.023198113
000060 4b 92 bd 3d 72 0d 8c bd 0e 91 ba 3d 2a e5 dc bc
       0.09256419 -0.06838502 0.09109698 -0.026964743
000070 1b ce cb 3d 28 c6 a5 3c 0f 1a 81 bb 8b 46 1c 3e
       0.09951421 0.02023609 -0.003939874 0.15261285
000080 25 b9 b4 3d 0b 59 5c 3d ef d8 ee 3d ed ec 2b 3d
       0.08824376 0.053795855 0.116624705 0.041973997
000090 d9 1a 2c 3d a5 0e f5 bb f2 44 83 3d cb 63 3f 3c
       0.04201779 -0.0074785524 0.06409635 0.011681507
0000a0 ec 1c 98 bd 60 72 20 3e f4 4f fd bb cf 48 06 3d
       -0.074273914 0.1566863 -0.0077304784 0.03278428
0000b0 fd 05 19 be f4 1d 3f be b1 4b 21 be 38 46 63 bd
       -0.1494369 -0.1866377 -0.1575153 -0.055486888
0000c0 78 cb b8 3d 29 6c 64 3d f5 af e9 3d f2 7a 9c bd
       0.090231836 0.055767212 0.11410514 -0.076406375
0000d0 6d 83 71 bd 20 f9 57 3d 39 de 84 3e 58 e1 95 bd
       -0.058963228 0.05272782 0.25950792 -0.073183715
0000e0 6f e8 02 bd 7a e6 86 3d d8 d9 e3 bc d8 ea 53 bd
       -0.031959947 0.06586929 -0.027813837 -0.051737636
0000f0 3d 29 17 bd 50 31 a9 bc f3 ad cf bd 8f 89 5f 3c
       -0.036904562 -0.020653397 -0.101406 0.013643636
000100 24 f6 e7 3b 54 6b 00 3e 34 1b e1 3c 44 68 9e 3d
       0.007078903 0.12540942 0.027478792 0.07734731
000110 dd df f9 3c 27 bf 36 bd bf 15 c2 3c b0 4e 7d 3d
       0.030502254 -0.04461589 0.02369201 0.06184262
000120 8c 68 35 be 62 06 43 3c fb 0f e9 bd 78 12 62 3d
       -0.17715663 0.011903377 -0.11380001 0.055193394
000130 b9 62 21 bc f9 99 f6 3c 86 ba 79 3d e8 aa ac bd
       -0.0098501975 0.030102717 0.0609689 -0.08431035
000140 03 cf 10 3d f1 0c 34 3c cb fc 8b 3c 86 e6 41 bd
       0.03535367 0.010989414 0.017088315 -0.047338985
000150 43 4c 37 bd d0 56 5d 3d 07 71 77 bd a2 af 83 bc
       -0.044750463 0.05403787 -0.060410526 -0.01607496
000160 35 b0 68 be 85 af f6 bd 97 38 a1 bc a0 1f d5 3c
       -0.22723468 -0.120451964 -0.019680304 0.026016057
000170 25 8f 12 bd 17 e7 a4 bd a1 6b fe 3d bf 10 98 3d
       -0.035781045 -0.080518894 0.12422872 0.07425069
000180 13 99 9e 3c 2b a7 7c 3d 5e 9b 20 3d 13 85 16 3c
       0.0193601 0.06168286 0.03921067 0.009187001
000190 87 01 a9 3d e5 10 35 3e a9 87 e0 3d e4 59 3c 3e
       0.082522444 0.17682226 0.10963375 0.18393666
0001a0 a7 ab 0d bd ce e6 64 3d ad b8 ee bd b4 c4 04 3d
       -0.03458753 0.055884175 -0.11656318 0.032414153
0001b0 a0 b1 2f bd 27 b0 79 bd 28 b5 b4 bc a1 91 81 bb
       -0.042894006 -0.060959008 -0.022059038 -0.003954128
0001c0 f3 0e 4d bd 4a e9 b8 bd f6 c4 f4 bd 48 59 da bd
       -0.050063085 -0.09028871 -0.1195163 -0.1066156
0001d0 4a 46 24 be 4e 3a 11 3c 74 63 a8 3d 56 6c dc bd
       -0.16042438 0.008863999 0.08222094 -0.10762851
0001e0 8b 5e ae bd 31 b7 52 3c 65 81 4b 3d 20 da 52 be
       -0.085141264 0.012861059 0.049683947 -0.2059102
0001f0 87 92 b6 3c 51 a4 b6 3d 71 3b ef 3d 74 a7 12 3d
       0.022286667 0.089180596 0.116812594 0.035804227
000200 2b 30 07 be 44 c5 05 3e 20 32 19 3e 61 43 58 be
       -0.13201968 0.13063532 0.14960527 -0.21119453
000210 0d 04 90 bd 20 3a 16 3e f1 42 17 3d 90 b2 66 bd
       -0.070320226 0.1467061 0.036929075 -0.056322634
000220 27 4a ad 3d b2 8a 8b 3c e7 56 d5 bd de 7b 03 3d
       0.08461409 0.017033909 -0.10416966 0.03210055
000230 16 8d 04 3d 61 0b b4 3d 1a 36 bf bd ed b7 d2 3d
       0.032361113 0.08791233 -0.09336491 0.10288987
000240 18 d4 53 3e 59 03 16 be 35 95 85 bc ab f9 58 bd
       0.20686376 -0.14649715 -0.016306499 -0.052972477
000250 80 27 49 3d ea 75 81 3c f3 77 e0 bd 1f a0 4a 3d
       0.049109936 0.015803296 -0.109603785 0.04946911
000260 11 60 de bc 6e 7e 98 bc 45 d5 4e bd 16 36 e2 3d
       -0.027145417 -0.018614974 -0.05049636 0.11045472
000270 eb 14 63 3c b7 da 09 bd 8c 89 19 3d ca 5d c8 3c
       0.013859968 -0.03365585 0.03748469 0.024458785
000280 8e f2 ef 3d 8b 07 39 bd d2 0a d7 bc 88 c9 e9 bd
       0.117161855 -0.04517321 -0.026250277 -0.11415392
000290 d7 1b b1 bd d2 38 4d be 2d a1 01 3d 04 62 09 be
       -0.08647888 -0.20041206 0.03164785 -0.13416296
0002a0 f6 95 26 3c 66 2e 2b 3e 89 e6 fb bc da 6e a7 bd
       0.010167589 0.16716918 -0.030749576 -0.0817544
0002b0 67 f5 31 bd 90 23 0a be 0b 19 46 3d 02 4c 42 3d
       -0.043446925 -0.13490129 0.048363727 0.047435768
0002c0 5a 45 20 be da fe 7f 3c 4b 67 9e 3d 17 02 17 3e
       -0.15651456 0.015624726 0.07734545 0.14746891
0002d0 94 16 e3 bc 51 af f7 bd 02 3e fe 3d c1 47 d5 bd
       -0.027720727 -0.12093986 0.12414171 -0.104140766
0002e0 6e a2 1c bd f8 57 b6 bd ec a3 a4 bd 15 38 a0 3d
       -0.038240843 -0.089034975 -0.08039078 0.07823197
0002f0 31 4f e8 3d a2 b3 83 be 0d 99 02 3c 6e 39 28 3d
       0.113432296 -0.25722986 0.00797106 0.041070394
000300 8e 58 83 bd 18 d4 b9 3c d0 70 01 3d af 01 21 be
       -0.06413375 0.022684142 0.031601727 -0.15723298
000310 f7 92 cb 3d e8 b4 a5 3c 1a 0e 08 3d 67 e9 e6 bd
       0.09940141 0.020227864 0.033216573 -0.11274987
000320 98 b4 ad 3c f2 de 44 bd cb 77 ae ba 0f 22 34 3e
       0.021204278 -0.04806418 -0.0013310848 0.17591117
000330 3d 40 97 3c af c4 0b be 87 ba 81 3d 75 b4 46 3d
       0.018463248 -0.13649248 0.063344054 0.04851194
000340 6e b7 6c 3d 60 bb c8 bd 67 be a6 3c e4 58 2b be
       0.05779212 -0.09801364 0.020354463 -0.16733128
000350 93 55 db bb b5 99 5e bd 3e 94 4a bb bb 87 03 be
       -0.006693551 -0.054345805 -0.0030911113 -0.12844746
000360 a7 86 35 3c 05 fa 99 3c df 02 94 3c cc 45 4a 3d
       0.011079467 0.018795976 0.018067775 0.04938297
000370 c6 55 f5 bc 55 fc e3 3d 8d 89 81 3c 42 70 69 3d
       -0.029948127 0.11132113 0.01581266 0.056991823
000380 be 87 09 3d 35 59 f1 bd 02 4a 8a bd 83 89 4c 3c
       0.03357672 -0.11784593 -0.06752397 0.012483957
000390 2f 48 35 bd 5f 6b d5 bd 78 d8 d0 3d dc 28 8f 3d
       -0.044258293 -0.1042087 0.10197538 0.06990215
0003a0 67 91 48 bd 00 37 3a 3d 44 4c 31 3d 8b 3a 02 be
       -0.04896679 0.04546261 0.043285623 -0.12717645
0003b0 d9 6a aa bc bf 92 2f 3e 36 cb f0 bd 7a 07 ad bd
       -0.020802902 0.17145823 -0.117575094 -0.08448692
0003c0 64 0e 00 3d 0d 37 59 bc 27 4c a0 bd 69 61 66 3d
       0.031263724 -0.013257754 -0.07827025 0.05624524
0003d0 7f 8a 58 3d a7 49 36 3d 21 fb a7 3c 3d 00 95 3d
       0.052866455 0.044503834 0.02050549 0.07275436
0003e0 9f 58 22 3e 35 8a b7 bd 03 d7 f1 bc 70 c9 c8 3c
       0.15854119 -0.08961908 -0.02952147 0.024510115
0003f0 4a d0 18 3e 17 73 68 3e de dd 7c 3e d5 e3 3a bd
       0.14923206 0.22700153 0.2469401 -0.045627434

bottleneck.2.bias f4 [32]
000000 aa 79 e4 3c 86 2a 3a 3d a9 fc fa 3c bb 20 69 bc
       0.027890045 0.04545071 0.030638056 -0.014228995
000010 69 51 10 bc db 24 6c bc 25 be d4 3c 96 d9 6b bb
       -0.008808472 -0.014413084 0.025969574 -0.0035987846
000020 f8 a4 11 3d 2e a6 0f 3c 42 e3 08 3d e7 e8 0b bd
       0.035557717 0.008767648 0.033419855 -0.03415766
000030 8b 12 17 bd 03 80 ec 3c b1 bf 5e bc c6 b7 db 3c
       -0.03688292 0.028869634 -0.0135955075 0.026821028
000040 cc 90 e2 3c 81 36 5d bc 2d 0c 0e 3d 0f fd 3d bc
       0.027656935 -0.013501764 0.03467958 -0.011595978
000050 79 8c ef 3c 91 3a 66 3b 2b 1d 3a bd 1f 4b b7 bb
       0.029241787 0.0035130123 -0.045437973 -0.005593672
000060 18 b3 e3 3c 15 cd 00 3d ca bd 06 bd d8 42 ed 3c
       0.02779536 0.03144558 -0.03289584 0.028962538
000070 85 97 0e 3c 0f 4b b2 bc 72 ca d8 3c b3 21 a3 3b
       0.008703117 -0.021764306 0.026463721 0.0049783825

up1.weight f4 [32, 16, 2, 2]
000000 8b d8 96 3d 72 b6 7d 3d a3 bd 87 be ca 75 e3 bc
       0.07365521 0.06194157 -0.2651187 -0.027766127
000010 63 98 e5 bd 89 45 e9 3d 9b c8 ab 3d 0f c9 9c 3e
       -0.11210706 0.11390216 0.08387872 0.30622146
000020 77 fb 3e be 12 e2 a9 bd b7 fb c6 3d a1 89 89 3c
       -0.18650614 -0.082950726 0.097159795 0.01678926
000030 0b 6c 9f bd a5 d3 9b 3d d2 0a e9 3d 98 c8 bb bd
       -0.077842794 0.07608727 0.11379017 -0.091691196
000040 0c c3 91 3b f9 92 99 3e 8e 02 a8 3d 35 7e 9f bd
       0.0044483 0.29994944 0.08203612 -0.07787744
000050 ba 1f 0e 3d 5b 7d 26 be 74 cc 8c 3c 00 7f b5 bd
       0.034698226 -0.16258757 0.017187335 -0.08862114
000060 b1 18 09 3e 01 15 eb 3d fd 33 29 bd 37 85 be bd
       0.13388325 0.114786156 -0.041309346 -0.093027525
000070 8c a9 98 3c b6 21 5c be 0b 3f 68 3e c5 e1 7f 3d
       0.018635534 -0.21497235 0.22680299 0.06247117
000080 b1 c8 67 be 71 92 e6 3d 43 53 62 be 7d 63 b2 bd
       -0.22635151 0.112584 -0.22102074 -0.08710382
000090 5e 05 49 3d b0 36 6d bd e0 7d 3e 3e f4 f2 4d 3e
       0.049077384 -0.057913482 0.18602705 0.2011221
0000a0 f9 3f f4 bd db c2 42 3e 7b ed a7 3d 8d 1c 0c 3e
       -0.11926264 0.19019644 0.08199593 0.13682766
0000b0 dc dc b2 3b e4 87 d7 3d e8 2c be bd fa a2 b7 bc
       0.0054584574 0.10523966 -0.09285909 -0.02241658
0000c0 c6 70 c4 3d 9e f3 81 be a1 84 ff bc 3c 07 a8 3d
       0.09591822 -0.25381178 -0.031191172 0.08204505
0000d0 42 69 f3 3c 83 eb 6c bd 76 ed 8e 3e 0e 15 1c 3e
       0.029713277 -0.05784179 0.27915543 0.15242407
0000e0 3d d5 f1 bd 39 74 6f be a0 25 88 3d 60 5d 11 bd
       -0.1180825 -0.23384179 0.066478014 -0.03548944
0000f0 5b e5 c4 3b 47 55 63 3e 1a 77 c4 bd 62 18 43 3d
       0.0060087866 0.222005 -0.09593029 0.047630675
000100 45 b0 58 be e4 28 3c be 5a 03 f5 3b a0 8f 01 be
       -0.21160991 -0.18374974 0.007477206 -0.12652445
000110 5b 53 7e be a7 02 02 be 0a 82 4e be 77 47 10 bb
       -0.24836485 -0.12696324 -0.20166793 -0.0022015253
000120 33 19 99 3e 18 63 c3 3d a7 c0 32 bd 36 9a be bd
       0.29902038 0.09540385 -0.04364076 -0.09306757
000130 c0 c8 e7 3d 07 1a fd bc d8 cc cb 3d c4 64 e6 bd
       0.11317587 -0.0308962 0.0995118 -0.11249688
000140 b6 93 1a be e5 e8 e4 bd 17 27 75 bd 49 aa 77 be
       -0.1509541 -0.111772336 -0.059851732 -0.24186052
000150 39 07 a9 bc 7d 69 a4 bc 3e b0 2b 3d 25 d1 79 3d
       -0.020633327 -0.020069832 0.041916125 0.06099047
000160 7f 94 fc bd fa a9 a3 bd 43 78 22 be de 9e b0 be
       -0.12333011 -0.07991405 -0.15866189 -0.34496206
000170 74 09 a1 3d 0e ba d1 3d 22 dc 40 be 21 af a2 bd
       0.07863131 0.10240565 -0.18833974 -0.079435594
000180 06 68 4e be 49 d9 26 bd 38 86 80 be 0a f4 07 3e
       -0.2015687 -0.040734563 -0.251024 0.13276687
000190 48 58 99 3d 82 6c 0c 3e 19 6d c4 3d a4 b1 a9 3c
       0.074875414 0.13713267 0.09591121 0.020714588
0001a0 bb 80 99 bd 25 42 49 be 93 06 d9 ba 76 a6 8c 3d
       -0.074952565 -0.19654138 -0.0016557745 0.068676874
0001b0 75 a3 09 be 4c 0a 06 bc 3f 8a 6a 3e e5 3e c0 3b
       -0.1344126 -0.008181166 0.22904299 0.0058668726
0001c0 29 a5 a8 bd cb ba c7 3d 95 0b 68 3d a6 ed cc 3d
       -0.08234627 0.09752425 0.05665167 0.10006265
0001d0 c3 35 e2 3d d8 8b c5 3c 49 3d 52 3e 62 a8 83 bd
       0.110454105 0.024114534 0.20531191 -0.06428601
0001e0 8f 0e 4e 3d 1e c0 31 3e ca d6 74 bd 05 2e cc bd
       0.050306853 0.17358443 -0.05977515 -0.09969715
0001f0 6d ba 3c be 51 37 f8 bd 9e bd 71 be e4 da 4c bd
       -0.18430491 -0.12119926 -0.2360749 -0.050013438
000200 e2 0e 01 bd 16 f3 82 bd 51 d6 f7 bd b9 03 82 3e
       -0.031508334 -0.06394021 -0.121014245 0.25393465
000210 98 22 86 39 63 c8 1e bd 03 0b 18 be bc 8a 88 bd
       0.00025584246 -0.038765322 -0.1484795 -0.066670865
000220 00 34 37 3d 35 0a 8e 3d c1 8a 5e 3e 13 f9 7e 3e
       0.044727325 0.069355406 0.21732618 0.24899702
000230 56 bc f0 3d 73 27 9b 3d 17 91 a2 3e 8e cc c7 bc
       0.11754672 0.07575884 0.3175132 -0.024389531
000240 62 d8 55 bd c7 97 9d bc 20 eb 5b be e9 87 4e be
       -0.05220831 -0.019237412 -0.21476412 -0.20169033
000250 3a cd 81 bc 54 5c 12 3d 32 d1 96 bd 82 21 03 bd
       -0.01584493 0.035732582 -0.073641196 -0.032014377
000260 aa cd 2d 3d 2e 8a 0a 3e 64 8a 1e bd a1 26 17 be
       0.042432465 0.13529274 -0.0387062 -0.1476083
000270 37 47 d4 be be 72 3b bd 50 8e a1 bd 5d b3 a8 bc
       -0.41460583 -0.045763724 -0.07888472 -0.02059334
000280 7e 2e 43 3e 81 27 44 bc 07 44 1f be 86 5d b2 3e
       0.19060704 -0.011972309 -0.15553294 0.34836978
000290 50 f3 d4 3d a7 41 e9 3d a6 ea 47 3e 47 77 7a bd
       0.10397971 0.11389475 0.19523105 -0.061148908
0002a0 19 fc 0d 3d de 4a a3 bb 05 13 03 3d b4 06 87 bd
       0.034664247 -0.00498329 0.03200056 -0.065930754
0002b0 33 83 41 3d 19 bb a2 bd 00 e5 bc 3d 79 a0 c6 bd
       0.047244262 -0.07945842 0.09223366 -0.096985765
0002c0 d3 19 b5 bc 72 80 d1 3c 2b d3 3d bd df 53 82 3e
       -0.02210704 0.025573943 -0.046343964 0.25454614
0002d0 3b 6b 05 bd 6d 09 83 bc 65 58 0c 3a 00 df 8d 3e
       -0.032572966 -0.015995706 0.0005353748 0.27709198
0002e0 de 92 cb bd a2 ae 0e 3e 96 26 7f bd 43 06 1d be
       -0.09940122 0.13933805 -0.062292658 -0.1533442
0002f0 63 35 de 3d c5 01 e9 bd 68 1a 25 bd 4d 77 19 be
       0.108500265 -0.11377291 -0.040308386 -0.14986916
000300 ab 1d b9 bd 20 5c 45 3d 7b da 12 3d 55 c7 d3 3d
       -0.09038862 0.04818356 0.03585289 0.10340754
000310 6a 4b de 3d ad d0 0f 3e a1 37 8e be 60 2a ac 3d
       0.10854228 0.14044447 -0.27776816 0.0840652
000320 fa 19 19 be d8 78 39 be 08 01 56 bd 42 2b c1 3d
       -0.14951316 -0.18112504 -0.052247077 0.09432079
000330 4c c9 96 be 5b b8 66 bb 1a 32 87 3d 67 2a 27 3e
       -0.29450452 -0.00352051 0.06601353 0.16324769
000340 7b 0d a6 3d bf ed dd bd b5 64 04 3e c6 86 6b bd
       0.0810804 -0.10836362 0.12929042 -0.057501577
000350 22 59 48 bc 9a 70 75 bc c8 4a a3 3d 9f 6e c3 3d
       -0.012228282 -0.01498046 0.07973248 0.09542584
000360 8c 7b ff bc 43 24 fb bb 41 97 b8 3e 33 8d d5 3c
       -0.031186841 -0.007664235 0.36052898 0.026068306
000370 c5 15 da bc f1 11 ff 3d bb a1 b2 3c 4c 8a 7a bd
       -0.026621709 0.12454594 0.021805635 -0.061167046
000380 52 aa a2 bb 8d 3b 99 bc 13 51 e8 3c b1 53 73 bd
       -0.0049641514 -0.018705154 0.028358972 -0.059405986
000390 c2 de b5 3d 1b 55 53 be 3a 2f 69 3d b4 62 60 3e
       0.08880378 -0.20637934 0.056929804 0.21912652
0003a0 7f 04 cc bd a3 d4 13 bd fa 08 10 3e 12 7c 49 be
       -0.09961795 -0.036091458 0.14065924 -0.19676235
0003b0 82 0c f8 3c 9e 11 23 be f3 33 9b 3d 62 89 a2 3d
       0.030279402 -0.15924689 0.07578268 0.0793636
0003c0 fc de c6 bc 3e 8e dc 3d ee 02 f8 3d 4d 9f 07 be
       -0.02427625 0.10769318 0.12109934 -0.13244362
0003d0 90 f7 02 3e c7 88 d9 bc 1a ce 06 3e 94 7f 0e be
       0.1278975 -0.026554478 0.13164559 -0.13915855
0003e0 ba 17 77 3e 20 fa 6f bd 75 d2 fa 3d 5d 60 68 bd
       0.24130145 -0.058588147 0.12247173 -0.056732524
0003f0 57 7c 20 be 54 6d a6 3d 5a 6d ac 3d 06 2c eb 3c
       -0.15672432 0.081263214 0.08419295 0.028707515

up1.bias f4 [16]
000000 b5 62 a0 3c 82 de 06 bd cb e0 dc 3c 22 a3 04 bd
       0.019578317 -0.032927044 0.026962658 -0.032382138
000010 86 21 d7 bc 9e 14 f3 bc 6f 5b f6 bc 5a 5b eb bc
       -0.026261102 -0.029672917 -0.030072896 -0.028730083
000020 d4 56 c1 bc bb e9 c4 3c 6e f2 9e bc 84 1a d6 3c
       -0.023600973 0.024037233 -0.019402709 0.02613569
000030 78 10 e9 3c 28 dd d4 3c 8f 18 d4 bc 39 7d cf bc
       0.028450236 0.025984362 -0.025890617 -0.025328266
