sampling_based_planning_framework/checkpoints/checkpoint_epoch_0.pth (torch, 385222 bytes, 75 tensors)

enc1.0.weight f4 [8, 1, 3, 3]
0	0xbdc110a2	-0.094270006
1	0x3ddec806	0.10877995
2	0x3d28f5d4	0.041250065
3	0x3e0d34a9	0.1378962
4	0xbde84fd9	-0.11343355
5	0x3d99d4a2	0.075112596
6	0x3cdf9932	0.027294729
7	0xbe31a41d	-0.1734776
8	0xbd9f9d84	-0.077937156
9	0x3e2b6ccd	0.16740723
10	0xbd6a0530	-0.057133853
11	0x3dbf49db	0.09340259
12	0x3e47ec28	0.1952368
13	0xbda278b6	-0.0793318
14	0x3e0b1b41	0.13584615
15	0xbc8ec98b	-0.017430088
16	0x3ddab38c	0.10678777
17	0xbc5bf3b3	-0.013424802
18	0x3e380ef1	0.1797445
19	0xbe0d899b	-0.13822024
20	0xbcf360fb	-0.02970933
21	0x3e0c66d0	0.13711095
22	0xbd7bfc4e	-0.061519913
23	0xbdbbaf7d	-0.09164331
24	0xbe9b8701	-0.30376437
25	0xbe02e4f2	-0.12782648
26	0xbd895408	-0.06705481
27	0x3d517a75	0.051142175
28	0x3cd2906d	0.025703633
29	0xbe852fee	-0.2601313
30	0x3d3362b4	0.043795303
31	0x3d7cb1fb	0.061693173
32	0x3e1e84b2	0.15480307
33	0xbc6af86b	-0.014341454
34	0xbdc8e206	-0.098087355
35	0xbe386c02	-0.18009952
36	0xbceff9da	-0.029293943
37	0xbcff406c	-0.031158648
38	0xbe10a0df	-0.14123867
39	0xbe5437a7	-0.20724355
40	0x3d958c60	0.07302165
41	0x3c5d09c5	0.013491099
42	0xbd2ea20f	-0.04263502
43	0xbd2a81fc	-0.04162787
44	0xbe7002e0	-0.23438597
45	0x3e5a3c17	0.21311985
46	0x3e5cb01a	0.21551552
47	0xbd025204	-0.031816497
48	0x3eaba673	0.33525428
49	0x3aa431c0	0.0012527034
50	0xbdf5c224	-0.1199992
51	0x3dd9bd22	0.10631777
52	0xbe89f6cc	-0.26946104
53	0xbe51b157	-0.20477806
54	0xbbd4cf3a	-0.00649443
55	0x3cec3ca6	0.028837513
56	0x3d5a9fd1	0.05337507
57	0x3e24d05f	0.16095112
58	0xbd383589	-0.04497293
59	0x3eeedb79	0.4665182
60	0xbd12bf5a	-0.03582702
61	0x3d725ec2	0.0591724
62	0x3c8e2757	0.017352743
63	0x3d8cb252	0.068699494
64	0xbe9db796	-0.30804127
65	0x3d2b1cc2	0.041775472
66	0xbdc7d005	-0.097564735
67	0xbc4b533b	-0.01240998
68	0x3e5a5421	0.21321155
69	0x3d44a7e3	0.04801167
70	0xbe4a03e6	-0.1972805
71	0x3b69d863	0.0035681955

enc1.0.bias f4 [8]
0	0x3cf5986c	0.029979907
1	0x3bb7723c	0.0055983346
2	0x3ce95b89	0.02848603
3	0xbb44a430	-0.003000509
4	0xbbaf1a98	-0.0053437464
5	0xbbd88f83	-0.006608905
6	0xbc7687d5	-0.015047033
7	0x3a63110e	0.0008661904

enc1.2.weight f4 [8, 8, 3, 3]
0	0x3ddcfaec	0.10790047
1	0x3d40763a	0.04698775
2	0xbd8a4d7e	-0.06753062
3	0xbe88f763	-0.2675124
4	0x3eef7971	0.4677234
5	0x3df1e9f2	0.118122
6	0xbda3f1c3	-0.08005097
7	0x3ca7a433	0.020464038
8	0xbd11d614	-0.03560455
9	0xbde1f1fa	-0.110324815
10	0xbe160acf	-0.1465256
11	0xbe03983e	-0.12851045
12	0xbe055e99	-0.13024367
13	0xbe1431a5	-0.14472063
14	0x3e215369	0.15754475
15	0x3e1646bb	0.14675419
16	0x3e0a522a	0.13507906
17	0xbe75ced8	-0.24004686
18	0x3d854188	0.0650664
19	0x3e438595	0.19093926
20	0x3e0eb78c	0.13937205
21	0xbe0e7730	-0.13912654
22	0x3dd50713	0.1040174
23	0xbe0d1769	-0.13778462
24	0xbe5fda40	-0.218606
25	0x3dacd5ac	0.08439192
26	0xbce54a77	-0.02798961
27	0xbc5b1fc1	-0.01337427
28	0xbde35363	-0.11099889
29	0xbe5d253e	-0.21596238
30	0x3dfa2f2d	0.12216029
31	0xbd073fc3	-0.033019792
32	0xbc46beaf	-0.012130423
33	0xbdc3bcdc	-0.095575064
34	0xbccbfd72	-0.024901126
35	0xbe60fe5f	-0.21972035
36	0xbdd6b669	-0.10484011
37	0x395b9c50	0.00020943698
38	0x3e019fec	0.12658662
39	0xbe55e32c	-0.2088744
40	0x3d125d2c	0.035733387
41	0x3d7d84a9	0.061894093
42	0x3d3ead59	0.046552036
43	0x3b8dded4	0.0043295417
44	0x3e5635fb	0.2091903
45	0x3d49b409	0.04924396
46	0xbeab043d	-0.3340167
47	0x3d0adf19	0.03390417
48	0xbd8594ae	-0.06522499
49	0x3e89a7f0	0.2688594
50	0xbea1e58d	-0.31620446
51	0x3dbac792	0.09120096
52	0xbe581bca	-0.2110435
53	0xbe1fca98	-0.15604627
54	0xbdf5dc5d	-0.120049216
55	0x3db6a3a9	0.089179344
56	0xbc509e27	-0.012733019
57	0x3da2c645	0.07947973
58	0xbdc59551	-0.096476205
59	0xbd181bf7	-0.037136044
60	0x3c92f590	0.017939359
61	0xbee5e746	-0.4490301
62	0x3c45bf30	0.012069508
63	0xbd9923bb	-0.07477518
64	0xbda9027e	-0.082524285
65	0x3e82d3ae	0.25552124
66	0xbdd29e8b	-0.10284146
67	0x3d756c8f	0.059917983
68	0x3d35d8d6	0.044396244
69	0x3c62eb67	0.01385007
70	0xbda80778	-0.082045496
71	0xbd984034	-0.07434121
72	0xbe5f2c84	-0.21794325
73	0xbcb2b490	-0.021814615
74	0x3cd71fbb	0.026260247
75	0x3e073209	0.1320268
76	0x3e27663e	0.16347596
77	0x3d29e83f	0.041481253
78	0xbe3997cb	-0.1812431
79	0x3e1661e6	0.14685783
80	0xbe5ea96e	-0.2174432
81	0xbda96cfe	-0.08272742
82	0x3e3579f4	0.17722303
83	0xbdf31b48	-0.11870438
84	0x3e08eda3	0.13371901
85	0xbe53c771	-0.2068155
86	0x3dab35c0	0.083598614
87	0x3cabb632	0.020960901
88	0xbedbedf0	-0.4295497
89	0x3df96cd0	0.121789575
90	0xbcd829cb	-0.026387116
91	0xbe8c9705	-0.2745897
92	0x3e605698	0.21908033
93	0xbd9473a0	-0.07248616
94	0x3e2c6b9a	0.16837922
95	0x3d5bd464	0.05366935
96	0x3cc3760b	0.023859998
97	0x3e27e7cf	0.16397022
98	0xbe2631ce	-0.16229936
99	0x3e0a1e9b	0.13488238
100	0xbd2f619e	-0.042817704
101	0x3e865ced	0.26242772
102	0x3e8df246	0.27723902
103	0xbde2314a	-0.110445574
104	0x3bbd4594	0.0057761166
105	0xbd64e799	-0.05588493
106	0x3ecb1443	0.39663896
107	0x3dc64bf4	0.09682456
108	0xbe1312d1	-0.14362647
109	0x3d2bc164	0.04193248
110	0xbe52a27b	-0.20569794
111	0xbebb0460	-0.36526775
112	0x3dac1cbe	0.0840392
113	0xbe59e671	-0.21279313
114	0x3cc74911	0.024326833
115	0x3d9aefb6	0.075652525
116	0x3e85f241	0.26161388
117	0xbe1edd8f	-0.15514205
118	0xbe9fc8a8	-0.31207776
119	0xbd0b1a7e	-0.03396081
120	0x3d235477	0.039875474
121	0x3e435658	0.19075906
122	0x3daff084	0.085907966
123	0x3b0c2bf3	0.00213885
124	0xbe0aa282	-0.13538554
125	0xbd357c2a	-0.044307865
126	0x3e7aa3f7	0.2447661
127	0xbdde37ad	-0.10850463
128	0xbe6d0cca	-0.2314941
129	0x3e815fba	0.25268346
130	0x3e3508f0	0.1767919
131	0xbe010e02	-0.12603
132	0x3ec77d7d	0.38962927
133	0x3dc26a6f	0.09492957
134	0x3d88c02d	0.066772796
135	0x3cec3be9	0.028837161
136	0x3e348529	0.17628922
137	0xbdf7b378	-0.12094778
138	0x3e555bca	0.20835796
139	0x3e1e2be7	0.15446435
140	0x3dd4bbc8	0.10387379
141	0x3ddeb536	0.10874407
142	0xbe48bbf8	-0.19602954
143	0x3c65d236	0.014027169
144	0x3e07ccf6	0.1326178
145	0x3e2322f3	0.15931301
146	0xbc61c364	-0.013779495
147	0x3e128bdf	0.14311169
148	0x3daaff6d	0.083495
149	0xbdd3f922	-0.10350253
150	0x3dc65660	0.096844435
151	0x3f0647c1	0.5245324
152	0xbe3fc9bb	-0.18729298
153	0xbebe7097	-0.37195274
154	0xbe7c2488	-0.2462331
155	0x3d6684af	0.05627888
156	0x3e73f054	0.23822147
157	0xbde71f2a	-0.11285241
158	0xbd3b49f4	-0.045724824
159	0x3dfbf49c	0.12302515
160	0xbed59541	-0.41715434
161	0xbe31f937	-0.17380224
162	0xbe7de0c7	-0.24792777
163	0xbdeeb8cc	-0.11656341
164	0xbea5d29b	-0.32387242
165	0x3d8aa6d3	0.067701004
166	0x3d73b717	0.05950078
167	0x3e80bb11	0.2514272
168	0x3d8a9a35	0.06767694
169	0x3e45cf34	0.19317323
170	0xbd8b109f	-0.067902796
171	0x3e56afd6	0.20965514
172	0xbe105065	-0.14093168
173	0xbcf8a7f8	-0.030353531
174	0xbd6f6d78	-0.058454007
175	0xbcd88feb	-0.026435813
176	0xbba401b3	-0.0050050854
177	0xbe3c6191	-0.18396594
178	0xbde22d48	-0.11043793
179	0xbe7bc6a3	-0.24587493
180	0x3da4ae38	0.08041042
181	0xbd68c02d	-0.056823898
182	0x3d775ba4	0.06039013
183	0xbe080d27	-0.13286267
184	0x3c8a27dd	0.016864711
185	0x3dfe9ef1	0.124326594
186	0xbd1d46b7	-0.038397517
187	0xbda238d6	-0.07920997
188	0x3d0b3f22	0.033995755
189	0xbe4b2286	-0.19837388
190	0xbe859030	-0.2608657
191	0x3e9a616b	0.3015245
192	0x3daa6535	0.08320085
193	0xbe990790	-0.29888582
194	0xbe871714	-0.26384795
195	0x3d71b579	0.059010956
196	0xbe6aac36	-0.22917256
197	0x3d05d0d1	0.032669846
198	0x3da80f81	0.08206082
199	0xbdf0506b	-0.117340885
200	0xbe3a2db0	-0.18181491
201	0xbe8e1a50	-0.2775445
202	0x3e898b06	0.2686388
203	0x3d70ae2f	0.058759864
204	0xbe4fe353	-0.20301561
205	0xbdafda70	-0.085865855
206	0xbce55074	-0.027992465
207	0x3cde310c	0.027122997
208	0xbe8f8742	-0.2803288
209	0x3dc08af6	0.09401505
210	0x3e962f99	0.2933319
211	0xbe34e47f	-0.1766529
212	0xbe2d8f9d	-0.16949315
213	0xbba67ac3	-0.0050805523
214	0x3de9026a	0.113774136
215	0x3b952916	0.004552017
216	0x3ca5370a	0.020167846
217	0x3e88b631	0.267015
218	0xbcbb9d7c	-0.022902243
219	0xbd228b7c	-0.039683804
220	0x3d31b58f	0.04338604
221	0xbe5a2a3d	-0.21305175
222	0x3e31c4b7	0.17360197
223	0xbcaedb0c	-0.021344684
224	0x3d4b2a42	0.049600847
225	0xbe79a154	-0.24377948
226	0xbed3c8c0	-0.41364098
227	0xbe4e1933	-0.201268
228	0x3b12d1c8	0.0022402871
229	0xbe2d8cb8	-0.16948211
230	0xbde6361c	-0.11240789
231	0x3e47b8a6	0.19504032
232	0x3e1cbfc0	0.15307522
233	0x3d6dcd5d	0.058057178
234	0xbd27fce7	-0.04101267
235	0x3d3b7903	0.045769703
236	0x3da61d95	0.08111111
237	0xbdb1d9fe	-0.08684157
238	0xbd00f83b	-0.03148673
239	0x3decaa8c	0.11555967
240	0xbcc45426	-0.023965906
241	0x3e4275ac	0.18990201
242	0xbe43a760	-0.19106817
243	0x3d702cb0	0.058636367
244	0x3cf514d4	0.029917158
245	0x3dd0fd40	0.102045536
246	0xbe0085a7	-0.12550984
247	0xba8084b4	-0.0009805174
248	0x3bb9cc7f	0.00567013
249	0xbcb83037	-0.022483928
250	0x3de4498d	0.11146841
251	0x3e08e24d	0.13367577
252	0x3ecaa927	0.39582178
253	0x3da9672b	0.08271631
254	0xbdaaaec2	-0.08334114
255	0xbe605787	-0.21908389

enc1.2.bias f4 [8]
0	0xbcf3a1c2	-0.029740218
1	0xb9a95d23	-0.00032303584
2	0x3d04d329	0.03242794
3	0xbc37ab5f	-0.011210292
4	0xbac4b209	-0.0015006672
5	0x3ceb8e79	0.02875446
6	0x3cc467b8	0.023975238
7	0xbae44c8f	-0.0017417836

enc2.0.weight f4 [16, 8, 3, 3]
0	0x3c6fe33f	0.014641582
1	0xbd36b0a2	-0.044602044
2	0xbbd308b6	-0.0064402474
3	0xbde63456	-0.11240451
4	0xbe61044c	-0.21974295
5	0x3dc520d1	0.096254
6	0x3d7c519d	0.06160127
7	0xbdbeae2c	-0.093105644
8	0x3e89039b	0.26760563
9	0xbbd75a2e	-0.0065720296
10	0x3d50c041	0.050964598
11	0xbd08db1e	-0.03341209
12	0xbe53c702	-0.20681384
13	0x3d75cfaf	0.060012516
14	0xbd11f499	-0.035633657
15	0xbd9d4233	-0.07678642
16	0xbd4f9694	-0.050680712
17	0x3e3bad91	0.18327929
18	0xbcb518c4	-0.022106536
19	0x3dedc597	0.11609953
20	0xbe42baa6	-0.19016513
21	0xbd46cec9	-0.04853705
22	0xbcb55112	-0.022133384
23	0xbe129851	-0.14315917
24	0x3dc2303b	0.094818555
25	0x3e8d5a7c	0.27608097
26	0x3ddb1943	0.10698178
27	0xbd3a6849	-0.04550961
28	0x3df160f5	0.11786071
29	0x3e00f11e	0.12591979
30	0xbc190fdc	-0.00934216
31	0xbe1ba5ca	-0.15199962
32	0xbc5951bf	-0.013264119
33	0xbe363b2b	-0.17796008
34	0xbe1bd4cc	-0.15217894
35	0xbdada40e	-0.084785566
36	0x3e29f20d	0.16596241
37	0xbd50414d	-0.050843526
38	0xbe3a89e7	-0.18216668
39	0xbca57ec4	-0.020202048
40	0x3ce8eb6f	0.028432576
41	0xbd2f8f85	-0.04286148
42	0xbe094b63	-0.13407664
43	0xbdfa5ff0	-0.1222533
44	0x3d90d4ac	0.07071814
45	0x3d4e4e7d	0.05036782
46	0x3d501ee6	0.050810717
47	0x3e101cb5	0.14073451
48	0x3e61fbd8	0.22068727
49	0xbd11c1ca	-0.035585202
50	0x3e15bf45	0.14623745
51	0x3e377132	0.17914274
52	0xbd288e04	-0.04115106
53	0x3deabd7a	0.11461921
54	0x3e4258b9	0.18979158
55	0xbd4ebd8e	-0.050473742
56	0xbe98c521	-0.29837897
57	0xbe328b15	-0.17435868
58	0x3e52a2f0	0.20569968
59	0xbd733fa8	-0.05938688
60	0x3dbb73a0	0.09152913
61	0x3e5af3b7	0.21382032
62	0x3e4762c1	0.19471265
63	0x3bd7bbe0	0.0065836757
64	0xbe3754b2	-0.17903402
65	0x3ccad23c	0.02475845
66	0xbc366735	-0.011133005
67	0xbbc436cd	-0.005987978
68	0x3dfb9171	0.122836
69	0xbdcc022e	-0.09961353
70	0xbe24565a	-0.16048566
71	0x3b9b6d58	0.0047432594
72	0x3ca7e2db	0.020493915
73	0x3d6ef9fa	0.058343865
74	0xbc496369	-0.012291768
75	0xbce10799	-0.027469443
76	0xbd27b722	-0.040946133
77	0xbdf06350	-0.11737692
78	0xbdaf3ce8	-0.08556539
79	0xbb8fabbd	-0.0043844865
80	0x3debafa2	0.11508109
81	0xbd4f274f	-0.050574597
82	0x3ab4f131	0.0013804791
83	0x3e9f16fa	0.31072217
84	0x3ca8b560	0.020594299
85	0xbdb2d99c	-0.08732912
86	0x3cfd6d76	0.030935984
87	0xbd523ca9	-0.05132738
88	0xbbfac946	-0.007653388
89	0xbda8be2b	-0.08239397
90	0x3ce36429	0.027757721
91	0x3c115441	0.008870185
92	0x3e08c482	0.13356212
93	0x3dc5ad56	0.09652202
94	0x3cd475ca	0.025935072
95	0x3d3e14eb	0.046406668
96	0xbe640e92	-0.22271183
97	0x3dc65b23	0.09685352
98	0xbc64d7f4	-0.013967503
99	0xbcd265dd	-0.025683338
100	0xbda09ce1	-0.07842422
101	0x3de14b15	0.11000649
102	0xbe43e861	-0.19131614
103	0x3d83b959	0.06431837
104	0x3c7783c6	0.015107101
105	0x3de7195d	0.112841345
106	0xbe80b824	-0.25140488
107	0x3d15b986	0.036553882
108	0x3e228631	0.15871502
109	0xbd8df98d	-0.06932364
110	0xbd03dfa1	-0.03219569
111	0xbb285dd3	-0.002569069
112	0x3da62f21	0.08114458
113	0x3d754910	0.05988413
114	0x3e363d9d	0.17796941
115	0x3e64851c	0.22316402
116	0x3c6f6377	0.014611117
117	0xbd60028c	-0.05468993
118	0xbda7857e	-0.081797585
119	0x3e3d98cb	0.18515317
120	0x3e3bdf25	0.18346842
121	0x3e27c52b	0.16383807
122	0x3d8f895f	0.07008623
123	0xbe04d0c7	-0.12970267
124	0x3dc20924	0.094744
125	0x3e0161e0	0.12634993
126	0x3e5ba2e6	0.2144886
127	0x3b6ec8fa	0.003643571
128	0x3d899b14	0.06719032
129	0x3d338a3a	0.043832995
130	0x3e475ec1	0.1946974
131	0xbe0560f0	-0.1302526
132	0x3c08e813	0.008356112
133	0xbd4f5207	-0.050615337
134	0x3e455fb9	0.19274797
135	0xbe799074	-0.2437151
136	0x3e220c11	0.15824915
137	0xbe4b0d5e	-0.19829318
138	0xbe08657d	-0.13319965
139	0x3d570728	0.05249706
140	0xba8dc3e0	-0.0010815822
141	0x3d904992	0.070452824
142	0x3bc2c7e5	0.0059442394
143	0xbd74f2f7	-0.05980202
144	0xbd776e5b	-0.060407978
145	0xbb8566c0	-0.0040710866
146	0xbe730386	-0.23731813
147	0xbd23be44	-0.039976373
148	0xbc107793	-0.008817571
149	0x3e0e7e16	0.13915285
150	0x3e4d4c89	0.20048727
151	0xbcd73c27	-0.0262738
152	0xbe45694c	-0.19278449
153	0xbe1bf0ac	-0.15228528
154	0xbddbd82d	-0.10734592
155	0xbe82b096	-0.2552535
156	0x3db61678	0.08891004
157	0x3e45aa26	0.19303188
158	0xbe31ebab	-0.17375056
159	0x3d043f53	0.032286953
160	0xbd4e0415	-0.05029686
161	0xbe63f0fd	-0.22259898
162	0x3e096f5e	0.1342139
163	0x3d4e8082	0.050415523
164	0xbe43220f	-0.19055961
165	0xbdce3b2b	-0.10069879
166	0x3de6351c	0.112405986
167	0x3e0503d8	0.12989748
168	0xbd92b60b	-0.07163628
169	0xbe180de5	-0.1484905
170	0x3d84a081	0.06475926
171	0x3e259059	0.16168346
172	0xbd97bb01	-0.07408715
173	0x3dcabd60	0.09899402
174	0x3e09c3f4	0.13453656
175	0xbd9c83bc	-0.07642314
176	0xbdda939b	-0.10672685
177	0x3e199689	0.14998831
178	0xbd4e002b	-0.05029313
179	0xbcb86fc3	-0.02251423
180	0xbbc69d01	-0.006061197
181	0x3de371dc	0.11105701
182	0x3dcab50b	0.098978125
183	0x3e5d1fc3	0.21594147
184	0x3d0d4d2e	0.034497432
185	0x3e94de64	0.2907592
186	0x3e8abf8b	0.2709926
187	0x3e296566	0.16542587
188	0x3dfe0f60	0.12405276
189	0xbde77091	-0.11300767
190	0x3e1e8b97	0.15482937
191	0xbe2ce9c4	-0.1688605
192	0xbdd667f5	-0.10469047
193	0xbdbb4d85	-0.09145645
194	0x3e1f6200	0.15564728
195	0x3e4c2d77	0.19939218
196	0x3d344a54	0.044016197
197	0xbdf6fdea	-0.12060149
198	0x3ce12ba5	0.027486632
199	0x3d67e36a	0.056613363
200	0xbd10156b	-0.035176676
201	0x3cee0a4c	0.029057644
202	0x3e0c87b4	0.13723642
203	0x3d29f7ae	0.04149597
204	0x3dc136ac	0.09434256
205	0x3ddc0656	0.10743396
206	0x3c9aba66	0.01888771
207	0x3e2db6c8	0.16964257
208	0xbe24a283	-0.16077618
209	0x3be66fe3	0.007032381
210	0x3e302a39	0.17203607
211	0xbda2c282	-0.07947256
212	0x3e2edd79	0.17076673
213	0xbe60aadb	-0.21940176
214	0x3cfdee32	0.03099737
215	0xbd9f87ff	-0.07789611
216	0x3bfa588d	0.0076399506
217	0x3d82dcad	0.06389747
218	0x3e3e26be	0.18569466
219	0xbcad1e12	-0.021132503
220	0x3dd1cc4e	0.10244046
221	0x3e9748bc	0.2954768
222	0x3c4c7991	0.012480156
223	0xbd2dff3c	-0.04247974
224	0xbdaefb1b	-0.08543988
225	0xbe848c33	-0.25888214
226	0xbd3bb998	-0.045831293
227	0x3c877652	0.016535912
228	0x3c2d6955	0.010584195
229	0xbdde3c62	-0.10851361
230	0x3cfea4b7	0.031084402
231	0x3d998b1e	0.074972376
232	0xbbb53582	-0.0055300603
233	0x3db025cd	0.0860096
234	0x3dbdb45a	0.09262915
235	0xbd818e1d	-0.06325934
236	0xbe1aa3b2	-0.15101507
237	0xbdc22a7a	-0.09480758
238	0x3e0b8d1c	0.13628048
239	0xbe1a2959	-0.15054835
240	0x3cec1fe7	0.028823806
241	0x3ce0892d	0.02740916
242	0x3c3272b5	0.010891606
243	0x3c80f5ad	0.015742147
244	0xbdf31348	-0.11868912
245	0x3e78e875	0.24307425
246	0x3c6af5ea	0.014340857
247	0xbd52cab3	-0.05146284
248	0x3d7537f4	0.059867814
249	0xbdf4b2e9	-0.11948187
250	0x3e443aa4	0.19162995
251	0x3dc1a415	0.09455124
252	0xbe53f387	-0.20698367
253	0xbe433fd2	-0.19067314
254	0x3cdf3588	0.027247205
255	0x3d167e40	0.036741495

enc2.0.bias f4 [16]
0	0x3ce82f8c	0.028342985
1	0x3cfa0c37	0.030523403
2	0xbc9c5fd6	-0.019088667
3	0x3d0772b8	0.03306839
4	0x3b27bd34	0.0025594952
5	0x3cbaca68	0.022801593
6	0xbcc369c8	-0.023854151
7	0xbcd0439e	-0.025422867
8	0x3cd1440b	0.02554514
9	0x3c5e1ccb	0.0135566695
10	0x3ccb23bd	0.024797315
11	0x3d026ab1	0.03184003
12	0x3ce2ff01	0.027709486
13	0x3caf0223	0.021363324
14	0x3c3835d2	0.0112433005
15	0x3cdb24b1	0.026750894

enc2.2.weight f4 [16, 16, 3, 3]
0	0xbbb39651	-0.0054805656
1	0x3d462eda	0.048384525
2	0xbcaa143d	-0.020761603
3	0xbdc63963	-0.096789144
4	0x3e2d76fb	0.16939919
5	0x3d3239c9	0.04351214
6	0xbd7fcfd2	-0.062454052
7	0xbca1743d	-0.019708747
8	0x3cda454b	0.02664437
9	0xbe063fc9	-0.1311027
10	0x3e6eec05	0.23332222
11	0xbdda7317	-0.10666483
12	0xbe2fd15d	-0.1716971
13	0x3d3bc5f2	0.045843072
14	0x3e427753	0.18990831
15	0xbe6f3a03	-0.23361973
16	0xbcef5ac8	-0.029218093
17	0xbcdfcecc	-0.027320288
18	0xbdc552a4	-0.09634903
19	0xbd802d69	-0.06258661
20	0xbe03cd52	-0.12871292
21	0xbd9c1334	-0.0762085
22	0x3eab4f87	0.33459112
23	0x3d53bbf4	0.051692918
24	0xbcea6a00	-0.028614998
25	0x3e074931	0.13211514
26	0xbdda0d8f	-0.10647117
27	0x3e342050	0.17590451
28	0x3e0dd23e	0.13849732
29	0xbd046504	-0.0323229
30	0x3e1bc26f	0.1521089
31	0x3e2d187b	0.1690387
32	0xbde9abc9	-0.114097185
33	0xbd6a2d6e	-0.05717223
34	0xbe96e4df	-0.2947149
35	0x3e297e6c	0.16552132
36	0xbcf1649f	-0.029466925
37	0xbd8da01e	-0.069153056
38	0x3e05664e	0.13027307
39	0xbe40e22b	-0.18836276
40	0xbdffff1b	-0.124998294
41	0x3e78778b	0.24264352
42	0xbdd45849	-0.103684016
43	0xbec64673	-0.38725623
44	0xbd957657	-0.07297962
45	0x3cf3d370	0.029763907
46	0xbcc450d0	-0.023964316
47	0x3e025f7f	0.12731741
48	0x3c01b70b	0.007917176
49	0xbb4d084d	-0.0031285465
50	0xbdd2f416	-0.10300462
51	0xbdd257e5	-0.10270671
52	0xbe7ca4ab	-0.24672191
53	0xbd9876d3	-0.07444539
54	0x3cbcd081	0.023048641
55	0xbcb13887	-0.0216334
56	0xbda1152a	-0.07865365
57	0x3e07febb	0.13280766
58	0xbdf7b45c	-0.12094948
59	0x3e3c3bb7	0.18382154
60	0x3d7f17bf	0.062278505
61	0x3df54075	0.11975185
62	0x3d5277af	0.05138367
63	0x3d9d08a0	0.07667661
64	0x3deba7e8	0.11506635
65	0x3daaec3a	0.08345838
66	0xbe0d79ff	-0.13816069
67	0xbc812ef5	-0.015769461
68	0xbe0fd973	-0.14047794
69	0x3dea67d9	0.114455886
70	0x3e2f59fe	0.17124173
71	0xbbb582c7	-0.0055392715
72	0x3e841e64	0.25804436
73	0x3c1d6998	0.009607695
74	0x3e373aaf	0.1789348
75	0xbdb8c4a1	-0.09021879
76	0x3d9255ad	0.071452476
77	0x3e64009d	0.22265859
78	0xbca91f8e	-0.02064493
79	0xbe57340f	-0.21015953
80	0x3e41b103	0.18915181
81	0xbe7cc56c	-0.24684685
82	0xbd829814	-0.06376663
83	0xbe5b50d7	-0.21417557
84	0x3e075334	0.13215333
85	0x3e0f5606	0.13997659
86	0x3dd5d7b6	0.10441534
87	0x3c926879	0.017872082
88	0xbe45d938	-0.19321144
89	0x3e40a12e	0.18811485
90	0xbca54f90	-0.02017954
91	0xbe167eb3	-0.1469677
92	0x3ddd6458	0.10810155
93	0xbd87aba8	-0.06624538
94	0x3dff1503	0.124551795
95	0x3d2dd8cd	0.042443085
96	0xbe7a6f83	-0.24456601
97	0x3d787e6c	0.06066744
98	0x3e37cd8a	0.179495
99	0x3db6f413	0.08933272
100	0xbd47ee9f	-0.04881155
101	0xbd892490	-0.06696427
102	0xbd2e72a6	-0.042589806
103	0x3e221876	0.15829644
104	0x3db84a0d	0.08998499
105	0x3d2264b0	0.039646804
106	0xbd0b578d	-0.03401904
107	0x3d59a69e	0.053137414
108	0xbdb146e1	-0.08656097
109	0x3c86fa4a	0.016476769
110	0x3e54ff25	0.20800455
111	0xbe5acda7	-0.21367513
112	0xbd6dcb83	-0.058055412
113	0xbd921cfa	-0.07134433
114	0x3c12eb46	0.008967226
115	0x3e121da4	0.1426912
116	0x3e1732ac	0.14765424
117	0x3d264a26	0.040598057
118	0x3ddf66c2	0.10908271
119	0xbe045b9f	-0.12925576
120	0x3e18651f	0.14882325
121	0x3e229ee9	0.15880932
122	0xbd6844bb	-0.05670617
123	0x3dc9385e	0.09825204
124	0x3cf27312	0.029595885
125	0xbd6bbc48	-0.057552606
126	0x3e180802	0.14846805
127	0xbd968592	-0.07349695
128	0xbdce828c	-0.100834936
129	0xbcc3b3f0	-0.023889512
130	0xbda99eb4	-0.08282223
131	0x3d3c75d8	0.046010822
132	0xbe72deb6	-0.2371777
133	0x3d4f8229	0.05066124
134	0xbdc37e90	-0.09545624
135	0xbe114610	-0.14186883
136	0x3ccdde7e	0.025130507
137	0x3e1251d1	0.14289023
138	0xbe0dd38e	-0.13850233
139	0x3e0b6d7f	0.13615988
140	0xbd1a9ad8	-0.037745327
141	0x3ce19bd9	0.027540134
142	0xbd98fa8c	-0.07469663
143	0x3db47ae9	0.08812506
144	0x3cc4baba	0.02401482
145	0x3d88d0e1	0.066804655
146	0x3dd126ee	0.102125034
147	0xbd35b20b	-0.044359248
148	0x3dc0bf2e	0.09411465
149	0x3e13ebc6	0.14445409
150	0x3e2d9a25	0.16953333
151	0xbdd95424	-0.10611752
152	0x3e38994b	0.18027227
153	0x3e304699	0.17214431
154	0x3dbb3030	0.091400504
155	0xb9cc9ae6	-0.0003902532
156	0xbe920432	-0.28518826
157	0x3df25324	0.11832264
158	0xbdec93ba	-0.11551614
159	0xbb3c2354	-0.002870758
160	0xbda76c9d	-0.08175013
161	0xbe036484	-0.12831312
162	0x3e22232d	0.15833731
163	0x3dbd799c	0.09251711
164	0x3e19196e	0.14951107
165	0xbe56ff07	-0.20995723
166	0xbd83a08d	-0.06427107
167	0xbd0e8392	-0.034793444
168	0xbd5fd316	-0.054644667
169	0xbd3cf56f	-0.0461325
170	0xbd88530a	-0.066564634
171	0xbe392d26	-0.18083629
172	0xbdf54831	-0.1197666
173	0xbda56a5e	-0.080769286
174	0x3e07437e	0.1320934
175	0xbc93e17d	-0.018051857
176	0xbe64e8f0	-0.22354484
177	0xbda934ec	-0.08262047
178	0xbd736f22	-0.059432156
179	0x3d8ceca8	0.06881076
180	0xbc600319	-0.013672614
181	0x3d5d9b0d	0.054102946
182	0x3dd8d58d	0.105876066
183	0x3c747554	0.014920551
184	0x3d9dee2b	0.077114426
185	0x3e5a38f6	0.21310791
186	0x3e2f4089	0.17114462
187	0x3e07fb73	0.13279514
188	0x3c9ec82a	0.019382555
189	0xbce5c69d	-0.028048808
190	0x3e32be87	0.17455493
191	0xbdc918f2	-0.09819211
192	0xbdd7e7db	-0.1054227
193	0x3cbb193d	0.022839183
194	0x3da7d0b3	0.08194103
195	0x3e4f694d	0.20255013
196	0x3e847486	0.2587015
197	0xbbb70ede	-0.005586489
198	0xbd82dd3a	-0.06389852
199	0xbd4c572d	-0.049887825
200	0xbd50b296	-0.050951563
201	0xbe0f0d9f	-0.1397004
202	0x3df6a553	0.12043252
203	0x3e02f042	0.12786964
204	0xbdbcf716	-0.092268154
205	0xbda8ccd2	-0.082421914
206	0x3e345517	0.17610584
207	0x3dc2de86	0.09515099
208	0xbe0e8a56	-0.13919958
209	0x3e0148b6	0.12625393
210	0xbb356efe	-0.0027684565
211	0x3cb6687e	0.022266623
212	0xbcf2ec25	-0.029653618
213	0x3da55d4d	0.08074436
214	0xbdb7fb6d	-0.089835025
215	0xbc4e1bfa	-0.012579912
216	0x3dacbde1	0.08434654
217	0x3e25ac94	0.16179115
218	0xbe345eee	-0.17614338
219	0x3c9ac603	0.018893247
220	0x3ea00304	0.312523
221	0x3e13bbf6	0.1442717
222	0xbd937cf1	-0.07201565
223	0x3c9548df	0.018223224
224	0xbcab5470	-0.020914286
225	0x3e6f41d9	0.23364963
226	0xbe1f1c81	-0.15538217
227	0xbd8214cd	-0.06351624
228	0xbd9d4b45	-0.07680372
229	0x3d1e571c	0.038657293
230	0xbd414234	-0.047182277
231	0xbd77ede9	-0.060529623
232	0xbea211e8	-0.31654286
233	0xbdf3c1f9	-0.11902232
234	0xbc96e663	-0.018420404
235	0xbe521c4d	-0.20518608
236	0x3d7895f2	0.060689874
237	0x3e1f865a	0.15578595
238	0x3d087549	0.033314977
239	0xbe9705cd	-0.29496613
240	0xbe30c00c	-0.1726076
241	0x3da74447	0.0816732
242	0xbd5ba3d4	-0.053623036
243	0x3dc5846b	0.09644397
244	0xbe2e67a5	-0.17031725
245	0xbda31a96	-0.07964055
246	0x3d80835a	0.06275053
247	0xbe27119c	-0.16315311
248	0x3e8ade07	0.27122518
249	0x3dd73ca8	0.10509616
250	0x3eb7cf2c	0.35900247
251	0xbda1a0c9	-0.078919955
252	0x3c9b1e7e	0.018935438
253	0x3cd2feb1	0.025756212
254	0xbcbcade7	-0.023032142
255	0x3e0a324a	0.13495746

enc2.2.bias f4 [16]
0	0x3c7ef70f	0.015561833
1	0x3ce375c3	0.027766114
2	0x3bd7cd83	0.006585778
3	0x3c397e2f	0.011321588
4	0x3cf764d8	0.030199453
5	0x3cd33c5a	0.025785614
6	0xbc13d2cd	-0.009022427
7	0xbc0d928d	-0.008640897
8	0xbbad65ad	-0.0052916617
9	0x3ce07806	0.027400982
10	0x3c209a6c	0.009802442
11	0x3afa1214	0.0019078874
12	0x3ca5fca9	0.02026208
13	0xbbd5c09a	-0.006523204
14	0x3cfc6406	0.030809414
15	0x3cd7b325	0.02633054

bottleneck.0.weight f4 [32, 16, 3, 3]
0	0xbdb7dbfa	-0.08977504
1	0x3d491ae5	0.049097914
2	0x3d55c913	0.052193712
3	0x3c97fee7	0.018554164
4	0x3dc76542	0.0973611
5	0xbbef6156	-0.0073053045
6	0x3ccc99cb	0.024975678
7	0xbc80f027	-0.015739514
8	0xbe356a8d	-0.17716427
9	0xbcc4b4fd	-0.024012083
10	0xbe4f25b2	-0.20229223
11	0x3dee3289	0.116307326
12	0xbc29d528	-0.010365762
13	0x3d6fa3e1	0.058505896
14	0x3e0599ba	0.13046923
15	0xbe2f697b	-0.17130081
16	0x3e3322a9	0.1749369
17	0x3d246be9	0.040141974
18	0x3d52eaa1	0.05149329
19	0x3de35aea	0.11101325
20	0x3da6d108	0.08145338
21	0xbd597389	-0.0530887
22	0x3e0c93be	0.13728234
23	0x3e6d2b50	0.23161054
24	0xbd24d2a5	-0.04023995
25	0x3baab737	0.005209829
26	0x3c3ac956	0.011400541
27	0x3d656d73	0.056012582
28	0xbd9a26b8	-0.07526916
29	0x3d0b1fac	0.03396575
30	0xbd3bd7be	-0.045860045
31	0xbdb5c6c7	-0.088758044
32	0x3ca569be	0.020192023
33	0x3de762cf	0.11298143
34	0xbc92b9d9	-0.017910885
35	0xbd8320d2	-0.06402744
36	0xbdb99589	-0.09061725
37	0xbd93923d	-0.07205627
38	0xbb82e943	-0.003995092
39	0xbd75214b	-0.059846204
40	0x3d67afe5	0.05656423
41	0xbe344c62	-0.17607263
42	0x3dd45bcf	0.103690736
43	0xbdf862bf	-0.12128209
44	0x3de02918	0.10945338
45	0xbd69e8e7	-0.05710688
46	0x3e03751a	0.1283764
47	0x3bb0db8b	0.0053972653
48	0xbdd5c2b9	-0.10437531
49	0x3da93b5c	0.08263275
50	0xbdb32391	-0.08747018
51	0x3e15491b	0.14578669
52	0x3dcb8ef7	0.09939378
53	0xbd95b5cd	-0.07310066
54	0xbd84c5c0	-0.0648303
55	0x3e4d33e7	0.2003933
56	0xbdbbdf37	-0.09173434
57	0x3df00c6a	0.11721118
58	0x3cba6a29	0.0227557
59	0xbe5eb613	-0.21749143
60	0xbd351a5d	-0.044214595
61	0x3e6dcf09	0.23223509
62	0x3dd5dadf	0.10442137
63	0xbd635635	-0.055502135
64	0x3d28ec9d	0.041241277
65	0xbd47aa4d	-0.048746396
66	0x3d4b837a	0.049685933
67	0x3e2d723f	0.16938113
68	0x3e024ac2	0.1272383
69	0x3c8581b7	0.016297204
70	0x3cdcf9ee	0.026974645
71	0x3c096b75	0.008387436
72	0xbd88d1fd	-0.06680677
73	0x3d57bd80	0.052670956
74	0xbd33331d	-0.043749917
75	0x3d0106bc	0.031500563
76	0xbd5ed511	-0.054402415
77	0xbd30b79f	-0.043143865
78	0xbd9ef93b	-0.07762381
79	0xbcfb6925	-0.030689785
80	0x3dd52365	0.104071416
81	0xbda43048	-0.080170214
82	0x3deaf956	0.11473338
83	0x3d8a5036	0.0675358
84	0xbcd50e3b	-0.026007762
85	0x3d91947f	0.071084015
86	0x3e1eae2a	0.15496126
87	0xbdbae39b	-0.091254435
88	0x3d054631	0.032537643
89	0xbb2ab514	-0.0026047872
90	0x3d28adc9	0.04118136
91	0xbd379d03	-0.044827472
92	0xbd6de130	-0.058076084
93	0x3df19e20	0.11797738
94	0x3e18f20d	0.14936085
95	0x3e1872e3	0.14887576
96	0xbd26b0ef	-0.04069608
97	0x3d94fa01	0.07274247
98	0xbcd8ae38	-0.026450261
99	0x3cab3abc	0.02090203
100	0x3e107153	0.1410573
101	0xbd7440af	-0.059632
102	0x3cd4da58	0.02598302
103	0x3dce6fcc	0.10079917
104	0xbc9cdf87	-0.019149555
105	0x3dd7c70d	0.10536013
106	0x3e850be0	0.25985622
107	0x3dad4fbc	0.08462474
108	0xbd0054ef	-0.031331
109	0x3cd1c7d7	0.025607986
110	0xbd44fb0f	-0.04809099
111	0x3e0f6006	0.14001474
112	0x3d87aaba	0.066243604
113	0xbd9df142	-0.07712032
114	0xbd431580	-0.047627926
115	0xbd0bf903	-0.034173023
116	0xbe4e8002	-0.20166019
117	0x3db202c6	0.08691935
118	0x3d1d9b85	0.038478393
119	0xbdcbde08	-0.099544585
120	0x3d6873a7	0.05675092
121	0xbdaa56f1	-0.08317364
122	0x3e07d6d7	0.13265549
123	0x3d413a11	0.047174517
124	0xbd56f3dc	-0.052478656
125	0x3e2447bf	0.16042994
126	0xbd2c91a3	-0.042131077
127	0x3d218b13	0.039439272
128	0xbe01d03d	-0.12677093
129	0x3d54a4a7	0.051914837
130	0xbd2124a8	-0.0393416
131	0xbd1f35b3	-0.03886957
132	0x3c9d0def	0.019171683
133	0xbdd601d2	-0.10449566
134	0xbd8574eb	-0.06516441
135	0xbbe66608	-0.007031206
136	0x3e26e4e8	0.16298258
137	0x3d2c88e0	0.04212272
138	0x3d44e298	0.04806766
139	0x3d54dac0	0.05196643
140	0x3d459e15	0.048246462
141	0x3dccc1cd	0.09997902
142	0x3d4dc77c	0.05023907
143	0x3d5791e9	0.052629385
144	0xbcd0cedd	-0.025489265
145	0xbe052442	-0.13002113
146	0x3da7653c	0.08173606
147	0x3c5fee01	0.013667584
148	0x3cd54166	0.026032161
149	0xbc9abc73	-0.018888688
150	0xbd2a6307	-0.041598346
151	0xbdcf507e	-0.101227745
152	0x3d41beb5	0.047301013
153	0x3da8b310	0.082372785
154	0xbd4df97f	-0.050286766
155	0x3d1495b0	0.036275566
156	0x3d907429	0.07053406
157	0x3c44e786	0.01201809
158	0xbe20c849	-0.15701403
159	0xbd1718b1	-0.036888782
160	0xbd6d45e1	-0.05792797
161	0x3e845e6a	0.25853282
162	0x3c23fb4e	0.010008646
163	0xbdf1df01	-0.11810113
164	0xbd8eafff	-0.06967162
165	0xbda0e481	-0.07856084
166	0xbdde23d5	-0.10846678
167	0x3bdf5ee6	0.0068167327
168	0xbd63ce03	-0.05561639
169	0x3d55b3c0	0.052173376
170	0x3dbdc318	0.09265727
171	0xbdfbd09f	-0.12295651
172	0xbdb6421b	-0.08899327
173	0x3d16f64d	0.036855984
174	0x3d15260c	0.036413237
175	0xbd82e221	-0.06390787
176	0x3cbeacfc	0.023275845
177	0x3d07bcee	0.03313916
178	0x3d30fd6f	0.043210443
179	0x3da01c3d	0.07817886
180	0x3d06cdce	0.032911114
181	0xbc54a886	-0.012979632
182	0x3d8f29da	0.069904044
183	0x3e0275e2	0.12740281
184	0x3da06e5e	0.07833551
185	0x3d358f1d	0.044325937
186	0x3d831a3e	0.0640149
187	0xbc66c9fa	-0.014086241
188	0xbda1738b	-0.07883366
189	0xbc240f46	-0.010013407
190	0x3d06e3b1	0.032931987
191	0xbd546965	-0.051858325
192	0xbc2e62f4	-0.010643709
193	0x3d24b86b	0.040214937
194	0xbd0bc72b	-0.03412549
195	0x3d154fcf	0.036453065
196	0xbd62a2ce	-0.055331044
197	0x3e0bf704	0.13668448
198	0xbc63791e	-0.013883857
199	0x3c842ed2	0.016135607
200	0xbe0424f8	-0.12904727
201	0x3d564792	0.05231435
202	0x3dcc879a	0.099868014
203	0xbe5d3b9d	-0.21604772
204	0x3d3ae4d4	0.045628384
205	0xbc80196f	-0.015637128
206	0x3d391897	0.045189466
207	0xbe26b009	-0.1627809
208	0xbc8ef7c7	-0.017452134
209	0xbe45f121	-0.19330265
210	0x3d982030	0.07428014
211	0x3e508a93	0.20365362
212	0xbd4c1412	-0.049823828
213	0x3d2ae3ff	0.04172134
214	0x3c9ae190	0.018906385
215	0xbd5badde	-0.05363261
216	0xbd012dcf	-0.031537827
217	0x3e0bdc51	0.13658263
218	0xbd80716e	-0.06271635
219	0x3e4a5c4c	0.19761771
220	0x3c9698ce	0.01838341
221	0x3d9d6074	0.076844126
222	0xbd46f91b	-0.04857741
223	0x3e4ac0c2	0.19800094
224	0x3dae30d7	0.08505409
225	0x3cb7c4af	0.022432653
226	0xbc7f768e	-0.0155922305
227	0xbdd46ef6	-0.103727266
228	0x3d9d4182	0.0767851
229	0xbdce4dec	-0.10073456
230	0xbd1f1418	-0.038837522
231	0xbe55be80	-0.20873451
232	0x3dcf3b87	0.10118776
233	0xbdb38563	-0.08765676
234	0x3d8b1d32	0.06792678
235	0x3d77e10a	0.06051735
236	0xbdbdf1f3	-0.09274664
237	0x3e158469	0.14601292
238	0xbd344e12	-0.044019766
239	0xbe2bc133	-0.16772918
240	0x3ce7e2cf	0.028306393
241	0x3c982853	0.018573916
242	0x3d8f4c73	0.069970034
243	0x3b42d5b7	0.0029729435
244	0x3d414496	0.04718455
245	0x3e2a418b	0.16626565
246	0x3e1436a7	0.14473973
247	0x3d0edd0e	0.034878783
248	0x3e26ce96	0.16289744
249	0x3dc75689	0.09733302
250	0xbc04adc5	-0.0080980705
251	0x3dc8c17b	0.098025285
252	0x3d86775b	0.06565734
253	0x3df6e1e2	0.120548025
254	0xbd8b454e	-0.06800328
255	0xbd9f1d78	-0.077692926

bottleneck.0.bias f4 [32]
0	0xbcd374f0	-0.025812596
1	0x3cc2d093	0.023781097
2	0x3ce0a10b	0.027420541
3	0x3ceb4e7d	0.02872395
4	0x3cda28d0	0.026630789
5	0x3c3dd3ef	0.011586173
6	0x3c5bc867	0.013414479
7	0xb9a47a9b	-0.00031371866
8	0x3cc7596c	0.024334632
9	0xbc1f2ff0	-0.009716019
10	0x3c942b3f	0.018087028
11	0x3d0e124d	0.03468542
12	0xbbfc450a	-0.00769866
13	0x3cbe152c	0.023203455
14	0xbc105469	-0.008809187
15	0x3ce616f1	0.028087111
16	0x3cff4326	0.031159949
17	0x3c47e98e	0.01220168
18	0x3cd20456	0.025636833
19	0x3cdba414	0.026811637
20	0x3caa4196	0.020783227
21	0x3d18fdab	0.03735129
22	0x3c9ea1c0	0.019364238
23	0xbc4b2dd2	-0.012401061
24	0x3d033629	0.032034073
25	0x3cb90816	0.022586863
26	0xbce342d5	-0.027741829
27	0x3c6eb76b	0.014570097
28	0xbbba6eed	-0.005689493
29	0x3cd9e34e	0.026597645
30	0x3c5b845b	0.013398255
31	0x3cf4b0db	0.029869488

bottleneck.2.weight f4 [32, 32, 3, 3]
0	0x3c27a269	0.010231593
1	0x3be88780	0.007096231
2	0xbe384e3e	-0.17998597
3	0xbdc80603	-0.09766772
4	0xbe300c0d	-0.17192097
5	0x3ca57717	0.020198388
6	0xbd8cdae6	-0.06877689
7	0xbdf02dbf	-0.117274754
8	0xbb907eed	-0.004409662
9	0x3caf7474	0.021417834
10	0xbe381082	-0.17975047
11	0xbd0d249c	-0.03445874
12	0x3c8a1d31	0.016859623
13	0x3de50bf2	0.11183919
14	0x3d8c3ff3	0.06848135
15	0x3d811fcd	0.06304894
16	0xbd4a1c75	-0.049343545
17	0xbd049296	-0.032366358
18	0xbd39496c	-0.045236036
19	0x3e65687f	0.22403143
20	0x3d15c4e3	0.03656472
21	0xbdc0cb1e	-0.094137415
22	0x3d9153f3	0.0709609
23	0xbcd9dabd	-0.02659356
24	0x3dc0f6c8	0.0942207
25	0xbd9a8fd2	-0.07546963
26	0x3ddc1a4c	0.10747203
27	0xbca7769a	-0.020442296
28	0x3dc53120	0.096285105
29	0x3c9b29dc	0.018940859
30	0x3bd10223	0.0063784285
31	0x3e27fa13	0.1640399
32	0x3db19a0a	0.08671959
33	0x3d63266d	0.055456568
34	0x3ddc2f34	0.10751191
35	0x3cebb185	0.028771171
36	0x3d4700ac	0.048584625
37	0xbbbbec40	-0.0057349503
38	0x3d82d591	0.06388391
39	0x3cb4a52e	0.02205142
40	0xbd8eb904	-0.06968883
41	0x3e1d615b	0.1536917
42	0xbbffba7c	-0.007804213
43	0x3d1fe63a	0.03903792
44	0xbe0bca3a	-0.13651362
45	0xbe261979	-0.16220655
46	0xbe0e7305	-0.13911064
47	0xbd937784	-0.0720053
48	0x3deebb85	0.1165686
49	0x3d8b07d0	0.067885995
50	0x3e049299	0.12946548
51	0xbd9a8b2d	-0.07546077
52	0xbd9e26b1	-0.077222236
53	0x3d7f12fa	0.062273957
54	0x3dabd183	0.083895706
55	0x3d071365	0.03297748
56	0x3c3af02f	0.011409803
57	0x3c516985	0.0127815055
58	0x39611f9c	0.00021469448
59	0x3da09465	0.07840804
60	0xbd82ea8b	-0.06392392
61	0xbd61dcc2	-0.05514217
62	0xbd53bdf9	-0.051694844
63	0x3c1af1a7	0.0094570285
64	0x3c77c6eb	0.015123109
65	0x3e119176	0.14215645
66	0x3d18761d	0.037222017
67	0x3da64f5a	0.08120604
68	0x3d199ce2	0.03750313
69	0xbd24b991	-0.040216032
70	0x3ceeaa76	0.029134016
71	0x3d9720e5	0.07379321
72	0xbe29f6a6	-0.16597995
73	0x3cd64563	0.026156133
74	0xbdba74fc	-0.09104344
75	0x3d9a6df0	0.075405
76	0x3b9d4be4	0.0048003066
77	0x3d40286e	0.046913557
78	0x3d8e3025	0.069427766
79	0xbd79b8c3	-0.060967218
80	0x3d35b9be	0.04436659
81	0xbc0d42bc	-0.008621868
82	0x3d41d192	0.047319002
83	0x3d26c2f0	0.04071325
84	0xbdaa1e0e	-0.08306514
85	0x3cdae615	0.02672104
86	0xbd49079e	-0.04907953
87	0xbcd567a0	-0.026050389
88	0xbe4ca538	-0.19984901
89	0xbd86f6f6	-0.06590073
90	0xbc972566	-0.01845045
91	0x3cdaa1bf	0.026688455
92	0xbd0f8b21	-0.035044793
93	0xbda30ead	-0.079617836
94	0x3dfd7368	0.123755276
95	0x3d95fa89	0.073231764
96	0x3cad54da	0.021158624
97	0x3d79b2dc	0.06096159
98	0x3d1bfdc2	0.0380838
99	0x3d4680f1	0.04846281
100	0x3da323e7	0.07965832
101	0x3de1d5c6	0.11027102
102	0x3e18eb0c	0.14933413
103	0x3e3aae1d	0.18230481
104	0xbccc5c77	-0.024946434
105	0x3df4c4a8	0.11951572
106	0xbdbaa65e	-0.09113763
107	0x3d62849c	0.055302247
108	0xbd088802	-0.033332832
109	0xbc8b146b	-0.01697751
110	0xbc9b913d	-0.018990153
111	0xbc8d15d2	-0.017222319
112	0xbd581bf6	-0.05276104
113	0xbd6d54c0	-0.057942152
114	0xbe1c6b5b	-0.15275328
115	0xbd968ef9	-0.073514886
116	0xbdefab0e	-0.11702548
117	0xbcb09b1f	-0.021558343
118	0x3d76dd6d	0.06026976
119	0xbdfe7006	-0.124237105
120	0xbda10805	-0.07862858
121	0x3c6f9bec	0.014624577
122	0x3d2dbb26	0.042414807
123	0xbe4ba1ae	-0.19885895
124	0x3bcf7c99	0.006331992
125	0x3db4b591	0.088236935
126	0xbd06f99d	-0.032952894
127	0xbd50cf96	-0.05097922
128	0xbdb3b440	-0.08774614
129	0x3d909d2a	0.07061227
130	0x3d8ab5b8	0.06772941
131	0xbbc99189	-0.0061513823
132	0xbe4195dd	-0.18904825
133	0xbc4dcab3	-0.012560534
134	0x3c663a9e	0.014052061
135	0xbd4260c1	-0.047455553
136	0x3db45eb2	0.08807124
137	0x3c98b40c	0.01864054
138	0xbdbe5667	-0.09293824
139	0x3d06902e	0.032852344
140	0x3ccdc0c5	0.025116334
141	0x3db29133	0.08719101
142	0xbda007d3	-0.07813992
143	0x3dc2f5d1	0.09519542
144	0x3e567bae	0.20945618
145	0xbe11aa4e	-0.14225122
146	0xbccba4c6	-0.024858844
147	0xbd3b8736	-0.045783244
148	0x3d417afe	0.047236435
149	0x3c2b2c75	0.010447611
150	0xbdd499ad	-0.10380874
151	0x3d473ca5	0.04864182
152	0xbd5151eb	-0.051103514
153	0x3d452814	0.048133925
154	0xbb85e27b	-0.0040858365
155	0x3e133f6d	0.14379664
156	0x3d732bf9	0.059368107
157	0xbcdf74e6	-0.027277421
158	0x3d22024a	0.039552964
159	0x3d4d2f32	0.050093837
160	0x3e08ce1d	0.13359876
161	0xbd80ecf9	-0.06295199
162	0xbc1d658e	-0.009606732
163	0xbdd27fd6	-0.10278289
164	0xbdd72c91	-0.10506547
165	0xbe4ce24f	-0.20008205
166	0x3cdc7713	0.026912248
167	0xbdbb1cdd	-0.091363646
168	0x3c645f09	0.013938674
169	0x3e3a7a51	0.18210723
170	0xbc132d31	-0.008982942
171	0xbbae8091	-0.005325385
172	0xbccf2b3c	-0.02528917
173	0xbdb167b6	-0.086623594
174	0x3cf69296	0.030099194
175	0x3d39d898	0.045372576
176	0xbdf6fcc8	-0.12059933
177	0xbd992ea4	-0.07479599
178	0x3d896349	0.0670839
179	0x3dea0b8c	0.11427984
180	0xbc9bcfc3	-0.019019967
181	0xbdf035bd	-0.11729
182	0x3df3c538	0.11902851
183	0xbde81407	-0.11331945
184	0xbd417c1a	-0.047237493
185	0xbd952e9b	-0.0728428
186	0xbda241e7	-0.07922726
187	0x3dadcdc5	0.08486513
188	0x3e127916	0.14304003
189	0xbe1e8b11	-0.15482737
190	0xbc3acb75	-0.011401047
191	0x3d1e0f15	0.038588602
192	0xbc795c2d	-0.01521973
193	0xbc9e1141	-0.019295337
194	0x3cbc0785	0.022952804
195	0xbe184041	-0.14868261
196	0x3dc14fd7	0.09439056
197	0x3c524253	0.012833196
198	0x3dcb3ed7	0.09924095
199	0xbd2a31b1	-0.041551296
200	0x3d2413b3	0.04005785
201	0x3c12732f	0.008938595
202	0x3d1156d6	0.035483204
203	0x3e206a56	0.15665564
204	0x3d899106	0.06717114
205	0xbdadf26c	-0.08493504
206	0x3d172b88	0.03690675
207	0x3d475e66	0.04867401
208	0x3d6bdd8f	0.05758434
209	0xbdc93a6d	-0.09825597
210	0x3ca48855	0.02008454
211	0xbe2b9cb4	-0.16758996
212	0xbbe2fe2c	-0.0069272723
213	0xbd5f99e3	-0.054590117
214	0xbb586b49	-0.0033022931
215	0xbe03c54b	-0.1286823
216	0x3c6b4aa5	0.014361058
217	0x3c9cbf52	0.019134197
218	0x3caeec7b	0.021352997
219	0x3d57860f	0.052618083
220	0xbd01fa37	-0.031732764
221	0x3dde1b4d	0.10845051
222	0x3c98ac2e	0.01863679
223	0x3d608124	0.054810658
224	0x3cf08e92	0.029364858
225	0xbdd59d43	-0.10430386
226	0xbd600ef6	-0.054701768
227	0x3cb1a45c	0.021684818
228	0xbd8c8ed3	-0.06863179
229	0xbdea5bc0	-0.11443281
230	0x3dd96eca	0.106168345
231	0x3d603bfe	0.054744713
232	0xbd48f586	-0.049062274
233	0x3d7fa422	0.06241239
234	0x3d72cbbc	0.059276327
235	0xbe01a7ae	-0.12661621
236	0xbc867028	-0.016410902
237	0x3e1cd63d	0.153161
238	0xbe01c115	-0.12671311
239	0xbd5aaefa	-0.053389527
240	0x3d0a480c	0.033760116
241	0xbc40bbc4	-0.011763517
242	0xbd6cea1a	-0.057840444
243	0x3d9ab1f4	0.07553473
244	0x3db95d1c	0.09050962
245	0x3da1457b	0.078745805
246	0x3cabc1cb	0.020966431
247	0x3d863675	0.065533556
248	0x3e2609c3	0.16214661
249	0xbdb603a6	-0.08887415
250	0xbc3f9062	-0.011692138
251	0x3d4eae7b	0.050459366
252	0x3c36f405	0.011166577
253	0x3e1b8a52	0.15189484
254	0x3e43bda9	0.19115318
255	0xbe0e3b55	-0.13889821

bottleneck.2.bias f4 [32]
0	0x3cd6d917	0.026226563
1	0x3cf35daa	0.029707748
2	0x3cec74ce	0.02886429
3	0xbc5befa7	-0.013423837
4	0xbc0ce527	-0.008599556
5	0xbc64a0ac	-0.013954323
6	0x3ce8ac0e	0.028402355
7	0xbbfd4476	-0.0077291084
8	0x3d02bdeb	0.0319194
9	0x3c09cdb4	0.00841086
10	0x3cf95265	0.030434797
11	0xbcd19b50	-0.025586754
12	0xbcd66288	-0.02617003
13	0x3cdb6ae5	0.02678437
14	0xbc5407f5	-0.01294135
15	0x3cd9b1f8	0.02657412
16	0xba6f0e3c	-0.00091192476
17	0xbbcdadae	-0.0062768077
18	0x3ce8cfc6	0.028419387
19	0xbbd3de7d	-0.0064657317
20	0x3cf3b59f	0.02974969
21	0x3c179790	0.009252444
22	0xbce17b83	-0.027524715
23	0xbac40d9f	-0.0014957673
24	0x3cd13f63	0.02554292
25	0x3cec36bb	0.028834691
26	0xbcd85bf4	-0.026411034
27	0x3c8f7ba5	0.017515013
28	0x3c76c9ca	0.015062759
29	0xbc2eb5e3	-0.010663482
30	0x3cd80fff	0.026374815
31	0xbc28b115	-0.010296126

up1.weight f4 [32, 16, 2, 2]
0	0x3d90b853	0.07066407
1	0x3d6fa454	0.058506325
2	0xbe855189	-0.2603877
3	0xbcdb9653	-0.026805079
4	0xbdde8525	-0.10865239
5	0x3e0979fb	0.13425438
6	0x3da0a024	0.078430444
7	0x3e9ea75d	0.30987063
8	0xbe423405	-0.18965156
9	0xbdabeb08	-0.08394438
10	0x3dcc58e5	0.09977893
11	0x3c926aa1	0.01787311
12	0xbdbc156a	-0.09183772
13	0x3d98c289	0.0745898
14	0x3de1bf9c	0.11022875
15	0xbdb3b0e9	-0.08773977
16	0x3ba18b78	0.004929956
17	0x3e98d0e8	0.29846883
18	0x3d9e8c6a	0.077416256
19	0xbda49b69	-0.08037455
20	0x3d2b1ba1	0.041774396
21	0xbe24ae0a	-0.16082016
22	0x3c9947a1	0.018710913
23	0xbdb82bf8	-0.089927614
24	0x3e073fe6	0.13207969
25	0x3dec6954	0.11543527
26	0xbd243181	-0.040086273
27	0xbdbc9a76	-0.092091486
28	0x3d209a02	0.039209373
29	0xbe478232	-0.1948326
30	0x3e6c405e	0.23071429
31	0x3d9ff973	0.078112505
32	0xbe60530b	-0.21906678
33	0x3def0740	0.11671305
34	0xbe60acc4	-0.21940905
35	0xbdadb9b2	-0.08482684
36	0x3d3cb404	0.046070114
37	0xbd6a2ea2	-0.05717338
38	0x3e3e18ab	0.18564098
39	0x3e4e90d8	0.20172441
40	0xbded0132	-0.115724936
41	0x3e4a914b	0.19781987
42	0x3da4da31	0.08049429
43	0x3e0a1b44	0.13486964
44	0xbb9a83e8	-0.0047154315
45	0x3dd655e9	0.10465605
46	0xbdbd3659	-0.092388816
47	0xbc9fc03c	-0.019500844
48	0x3dbe9934	0.09306565
49	0xbe8aed3a	-0.27134115
50	0xbcf134ed	-0.029444182
51	0x3d9a6006	0.07537846
52	0x3ce9d91a	0.028545905
53	0xbd7da831	-0.061927978
54	0x3e8f26a0	0.27959156
55	0x3e1b7eff	0.15185164
56	0xbdee3618	-0.11631411
57	0xbe6e1d73	-0.23253421
58	0x3d8430e4	0.06454638
59	0xbd1cd91a	-0.03829298
60	0x3bf985ba	0.0076148184
61	0x3e68fd7a	0.22752944
62	0xbdbfbd10	-0.09362233
63	0x3d4aeed1	0.04954416
64	0xbe0ba61c	-0.13637584
65	0xbd46bd72	-0.048520513
66	0x3e153585	0.14571197
67	0xbcf986bc	-0.030459754
68	0xbe48d7de	-0.19613597
69	0xbe28cd2e	-0.1648452
70	0xbe261ff0	-0.1622312
71	0xbb403c5a	-0.0029332847
72	0x3e821253	0.25404605
73	0x3d77b553	0.06047566
74	0xbdb3d318	-0.08780497
75	0xbe03c330	-0.12867427
76	0x3d555348	0.052081376
77	0x3daeef5e	0.085417494
78	0x3df1739e	0.1178963
79	0xb7ef5ffb	-2.8535715e-05
80	0xbe188505	-0.14894493
81	0xbe1a71b9	-0.15082444
82	0xbbe620e9	-0.007022966
83	0xbe8b903f	-0.2725849
84	0x3d8631bf	0.06552457
85	0xbc62240c	-0.01380254
86	0x3dd142d1	0.10217822
87	0x3d8a5e0f	0.067562215
88	0xbdc162eb	-0.09442695
89	0x3c9e0cbd	0.019293183
90	0xbd1f0f39	-0.038832877
91	0xbea2893f	-0.31745335
92	0x3e1a953c	0.15095991
93	0x3e1faa60	0.15592337
94	0xbe47c47e	-0.1950855
95	0xbdaf8563	-0.085703634
96	0xbe1b0a4c	-0.15140647
97	0xba141e41	-0.000565026
98	0xbe6f7eaf	-0.2338817
99	0x3e0adcc0	0.13560772
100	0xbaaea571	-0.0013324452
101	0x3df3c139	0.11902089
102	0x3d119a0b	0.035547297
103	0x3c39227a	0.011299724
104	0x3d9266cb	0.071485125
105	0xbd1a8ee7	-0.03773394
106	0x3d769adc	0.06020628
107	0x3e3d01c2	0.18457702
108	0xbe3680db	-0.17822592
109	0xbb934243	-0.004493983
110	0x3e4a5099	0.19757308
111	0x3cbcb114	0.023033656
112	0xbd692d34	-0.056927875
113	0x3d8f4af0	0.06996715
114	0x3dd923c8	0.10602528
115	0x3d8621aa	0.0654939
116	0x3d56c9c5	0.052438516
117	0x3ab98c86	0.0014156259
118	0x3e1cbc27	0.1530615
119	0xbda2ab98	-0.07942885
120	0x3dc5e53b	0.09662863
121	0x3e2e9066	0.17047271
122	0xbd15c8b4	-0.03656836
123	0xbdc21752	-0.09477104
124	0xbdee425b	-0.1163375
125	0xbd88c8ad	-0.06678901
126	0xbe2b2067	-0.1671158
127	0xbc0b7299	-0.008511209
128	0xbd10e83f	-0.035377737
129	0xbd8b89f3	-0.06813421
130	0xbe031351	-0.12800337
131	0x3e7bee34	0.24602586
132	0x3bcdfef8	0.006286498
133	0xb9f3cbca	-0.00046500406
134	0xbe15d1fe	-0.14630887
135	0xbcaea61a	-0.021319438
136	0x3d209377	0.039203133
137	0x3d87ca23	0.066303514
138	0x3e570aeb	0.21000259
139	0x3e770de6	0.24126396
140	0x3dc75a36	0.09734003
141	0x3da8693b	0.08223196
142	0x3ea241c5	0.31690803
143	0xbc46b0f2	-0.012127148
144	0xbd5a6ae4	-0.053324595
145	0xbc91c2b3	-0.017793035
146	0xbe636a46	-0.22208509
147	0xbe50bc01	-0.20384218
148	0xbc3e8f82	-0.011630895
149	0x3d203cb1	0.03912038
150	0xbd91a634	-0.07111779
151	0xbce6bd6c	-0.028166495
152	0x3d2dbcae	0.042416267
153	0x3e11467a	0.14187041
154	0xbd2ba3fa	-0.041904427
155	0xbe15d0c0	-0.14630413
156	0xbeced7c8	-0.40399003
157	0xbd2c693d	-0.04209255
158	0xbd6db81e	-0.058036916
159	0xbb3da72a	-0.002893875
160	0x3e43c3ac	0.19117612
161	0xbb8947a6	-0.0041894494
162	0xbe1ff4ee	-0.15620777
163	0x3eb653c9	0.35610798
164	0x3dd046e4	0.10169771
165	0x3de5d2fa	0.11221881
166	0x3e3f3061	0.18670799
167	0xbd8eac95	-0.06966511
168	0x3d28e3a2	0.041232713
169	0xbc0651d5	-0.008198221
170	0x3d40602e	0.046966724
171	0xbd7cbd03	-0.061703693
172	0x3d549eb7	0.051909175
173	0xbd9f0a13	-0.077655934
174	0x3dbac43e	0.091194615
175	0xbdd74e11	-0.10512937
176	0xbcf3259d	-0.029681021
177	0x3c48cb66	0.012255525
178	0xbd791532	-0.06081123
179	0x3e6600a6	0.22461185
180	0xbd19d5d1	-0.037557427
181	0xbcb31565	-0.021860788
182	0xbbb99d6f	-0.0056645195
183	0x3e89db55	0.2692515
184	0xbdbf6652	-0.09345688
185	0x3e19b69d	0.15011068
186	0xbd3c46f8	-0.04596612
187	0xbe05ec0a	-0.13078323
188	0x3ded6533	0.11591568
189	0xbdd746e2	-0.10511567
190	0xbcfb8fd5	-0.030708233
191	0xbe0dceac	-0.1384837
192	0xbdbac25f	-0.091191046
193	0x3d44ff2a	0.048094906
194	0x3d10ee8d	0.03538375
195	0x3dd31e31	0.10308493
196	0x3ddfbbd2	0.10924496
197	0x3e0fe5a7	0.14052449
198	0xbe8da4d5	-0.2766482
199	0x3dac4aba	0.084126905
200	0xbe19b470	-0.15010238
201	0xbe3a3980	-0.18185997
202	0xbd57ffd0	-0.052734196
203	0x3dc040b8	0.09387344
204	0xbe96744d	-0.29385605
205	0xbb5443a8	-0.003238896
206	0x3d86ba50	0.06578505
207	0x3e27be90	0.16381288
208	0x3da72060	0.08160472
209	0xbdddd02b	-0.108307205
210	0x3e05325b	0.1300749
211	0xbd69a9e1	-0.057046775
212	0xbc2d8b58	-0.010592304
213	0xbc71c6ff	-0.014756917
214	0x3da4cbc8	0.08046681
215	0x3dc46651	0.09589828
216	0xbcf59448	-0.029977933
217	0xbbdcb545	-0.006735476
218	0x3eb987a1	0.3623629
219	0x3cd959b2	0.026532028
220	0xbcd47f36	-0.025939565
221	0x3dff5188	0.12466723
222	0x3cb2fbb7	0.021848543
223	0xbd7c67c3	-0.061622392
224	0xbb88f04a	-0.0041790353
225	0xbc96f366	-0.018426608
226	0x3ceb9387	0.02875687
227	0xbd7227bc	-0.059119925
228	0x3db4d4d3	0.088296555
229	0xbe54089e	-0.20706412
230	0x3d672418	0.056430906
231	0x3e5ff4fa	0.21870795
232	0xbdcbc0cf	-0.09948885
233	0xbd157805	-0.036491413
234	0x3e112da5	0.14177568
235	0xbe48dc21	-0.19615223
236	0x3cf337e6	0.02968974
237	0xbe23cfb3	-0.159972
238	0x3d99673f	0.07490396
239	0x3da132b5	0.07871
240	0xbcc79a14	-0.024365462
241	0x3ddce1fa	0.10785289
242	0x3df75ad0	0.12077868
243	0xbe07d251	-0.13263823
244	0x3e0214ed	0.12703295
245	0xbcdd7d1b	-0.027037194
246	0x3e061175	0.13092597
247	0xbe0f0153	-0.13965349
248	0x3e77bc60	0.24192953
249	0xbd6de300	-0.058077812
250	0x3dfc6d0a	0.12325485
251	0xbd668419	-0.056278322
252	0xbe1f833d	-0.15577407
253	0x3da856d9	0.0821969
254	0x3daf6c8d	0.08565626
255	0x3cf1d854	0.029522099

up1.bias f4 [16]
0	0x3cd12c78	0.0255339
1	0xbceea2e1	-0.029130401
2	0x3cd2058a	0.025637407
3	0xbc7f09c5	-0.015566294
4	0xbcd655e7	-0.026164008
5	0xbce16f51	-0.0275189
6	0xbceaae19	-0.02864747
7	0xbcb1e9a5	-0.021717856
8	0xbcc1c394	-0.02365283
9	0x3cc335fa	0.023829449
10	0xbcabf655	-0.020991484
11	0x3cd8b322	0.026452605
12	0x3cd675c1	0.026179196
13	0x3cd1de78	0.025618777
14	0xbcc97dc6	-0.024596106
15	0xbcdace9f	-0.026709853
