sampling_based_planning_framework/checkpoints/checkpoint_epoch_51.pth (torch, 386290 bytes, 75 tensors)

enc1.0.weight f4 [8, 1, 3, 3]
-0.10175811 0.10290493 0.06665669 0.14089921 -0.11289832 0.08371301 0.032140084 -0.17747958
-0.067790076 0.1495872 -0.12577152 0.050202213 0.23649058 -0.06973423 0.14230964 -0.061244577
0.15627381 -0.07094904 0.17097016 -0.2034517 -0.17921901 0.1608108 -0.08219168 -0.15660982
-0.36404592 -0.1931202 -0.09527175 0.054927737 0.023070233 -0.1919692 0.0411901 0.1608068
0.33352983 -0.014388976 8.416318e-06 -0.00013173124 -0.10089042 0.048325542 -0.07944639 -0.27611402
0.22437824 -0.051089723 -0.052778777 0.10377462 -0.30281878 0.21372883 0.23037808 -0.006915406
0.37590486 -0.060573168 -0.093408175 0.08448675 -0.19281778 -0.25575137 0.017490055 0.044006716
0.10128837 0.1283825 -0.104243726 0.4886675 -0.03200394 0.1082003 0.11223444 0.12384004
-0.3205281 0.08471006 -0.14920093 -0.08651597 0.2197805 0.06580808 -0.12385973 0.05107466
00000000: 8e66 d0bd d2bf d23d 4d83 883d e247 103e
00000010: 3c37 e7bd ba71 ab3d 52a5 033d 35bd 35be
00000020: 86d5 8abd 632d 193e 40ca 00be d6a0 4d3d
00000030: 962a 723e d2d0 8ebd 9eb9 113e 98db 7abd
00000040: 3e06 203e bb4d 91bd cd12 2f3e a455 50be
00000050: 3085 37be 96ab 243e 1d54 a8bd 535e 20be
00000060: 3a64 babe 4dc1 45be d61d c3bd e8fb 603d
00000070: c9fd bc3c 9393 44be f3b6 283d 8aaa 243e
00000080: 6cc4 aa3e bdbf 6bbc d033 0d37 5621 0ab9
00000090: a39f cebd 01f1 453d cab4 a2bd d15e 8dbe
000000a0: 69c3 653e 7543 51bd 8f2e 58bd ca87 d43d
000000b0: 100b 9bbe bbdb 5a3e 3be8 6b3e a19a e2bb
000000c0: 9a76 c03e 921b 78bd c94c bfbd 6407 ad3d
000000d0: 0672 45be d8f1 82be 4e47 8f3c 6340 343d
000000e0: 4770 cf3d b476 033e bc7d d5bd a032 fa3e
000000f0: 9016 03bd 1e98 dd3d 2cdb e53d d99f fd3d
00000100: 421c a4be 787c ad3d 21c8 18be 492f b1bd
00000110: 240e 613e 63c6 863d 2caa fdbd aa33 513d

enc1.0.bias f4 [8]
0.035217505 0.0019954022 0.032133218 -2.3538903e-05 0.051316973 -0.00045020823 0.0022602105 -9.680473e-05
00000000: 3b40 103d 4bc5 023b 1f9e 033d 6975 c5b7
00000010: bf31 523d ed09 ecb9 0a20 143b a503 cbb8

enc1.2.weight f4 [8, 8, 3, 3]
0.052333083 0.0648817 -0.07179109 -0.23922975 0.48992124 0.15420982 -0.026732812 -0.007901615
-0.024409937 -0.08394426 -0.09773113 -0.11022582 -0.037495933 -0.10768876 0.18559067 0.18760593
0.16427214 -0.26979005 0.06244411 0.16268271 0.12172296 -0.114051625 0.120687515 -0.09076831
-0.20750913 0.12461439 0.05348576 0.03866846 0.069773786 -0.24986117 0.2165283 0.01644385
0.02845941 -0.019484295 0.027280714 -0.19160831 0.030739373 0.06997961 0.15671216 -0.1810865
0.047408726 0.038272325 -0.0021902404 -0.049630668 0.14371246 0.022912828 -0.3147902 0.0771628
0.008908685 0.30785212 -0.1537525 0.1725733 -0.16591774 -0.124836825 -0.084505714 0.1645471
-0.023450801 0.20155087 -0.08118202 -0.023082567 0.059804372 -0.4596623 -0.07472087 -0.0036306386
-0.0101243 0.22936213 -0.06101034 -0.053889837 0.062480476 0.15365896 -0.029607978 -0.072897464
-0.19590057 0.028257834 0.018509684 0.12854749 0.1468586 0.117316276 -0.13734771 0.18155456
-0.21978816 0.020007955 0.25907296 -0.109314315 0.16719662 0.012020104 0.15192436 -0.028858349
-0.27377245 0.15534087 0.005018139 -0.29696336 0.26640826 -0.019413976 0.15530437 0.12628475
0.0054403516 0.14485863 -0.1298035 -0.017678116 -0.066519916 0.20488429 0.45915225 -0.025101935
0.010544149 0.08190245 0.5473293 0.0928603 -0.27917498 0.034743052 -0.03393553 -0.33861208
0.14585271 -0.19606559 -0.068742014 0.15612933 0.33413866 -0.07374627 -0.10586519 0.005492791
0.059151854 0.22975482 0.12473414 0.008418823 -0.051131636 -0.025422318 0.2381501 0.0008128398
-0.28817445 0.28814846 0.20473741 -0.09235009 0.41045526 0.22045021 0.039537914 -0.02513694
0.33153433 0.123095624 0.28126854 0.28324747 0.16968203 0.15564847 -0.09969044 0.13100122
0.10005367 0.19621038 0.03035368 0.20572807 0.09770293 -0.10040417 0.10281401 0.5394455
-0.12777045 -0.35083124 -0.062234387 0.08748523 0.21958575 -0.024519552 -0.050388746 0.12031948
-0.4418773 -0.16943428 -0.2124729 -0.076041386 -0.3453964 0.09529927 0.076616764 0.2620895
0.044422545 0.1754811 -0.0785336 0.31423226 0.02420655 -0.02342104 -0.060839545 0.09157165
0.109585226 -0.2119582 -0.2112617 -0.056127347 0.20763436 -0.15163715 0.36078328 -0.23827416
-0.050155852 0.14102273 -0.21154946 -0.005063331 -0.00014234008 -0.11618507 -0.3692051 0.29954752
0.12720309 -0.30212218 -0.30782828 0.048816733 -0.36157927 0.036064364 0.08351416 -0.022826394
-0.11921831 -0.2891045 0.33008745 0.073533274 -0.23001787 -0.087572336 0.18921949 0.10802692
-0.05948844 -0.040184453 0.27115753 -0.08939596 -0.103955306 0.11291189 0.12004856 -0.21023536
0.02837935 0.24158044 -0.0009358882 -0.055253938 0.01876986 -0.20297337 0.17199531 0.025591156
0.035394814 -0.369613 -0.3290655 -0.21087925 -0.02573991 -0.2367863 -0.08624704 0.27773845
0.15036844 0.10909605 -0.022641795 0.062194556 0.04402234 -0.09372975 -0.032084066 0.096051894
0.0568273 0.19886662 -0.20134546 -0.04045947 0.03913206 0.10955416 -0.3098588 -0.17225179
0.006510649 0.0833362 0.1537542 0.1141179 0.3628105 -0.051270768 -0.12907612 -0.22788018
00000000: 375b 563d b2e0 843d 3507 93bd a5f8 74be
00000010: f5d6 fa3e 2ee9 1d3e c5fe dabc c775 01bc
00000020: 59f7 c7bc f8ea abbd 4227 c8bd 13be e1bd
00000030: 5695 19bd ed8b dcbd 7b0b 3e3e c51b 403e
00000040: f536 283e ec21 8abe 65c5 7f3d 4c96 263e
00000050: e349 f93d e693 e9bd 042b f73d bce4 b9bd
00000060: 467d 54be d435 ff3d e213 5b3d d262 1e3d
00000070: 8fe5 8e3d 9bdb 7fbe 98b9 5d3e 41b5 863c
00000080: b523 e93c 879d 9fbc ce7b df3c f834 44be
00000090: 23d1 fb3c 7851 8f3d 2779 203e bd6e 39be
000000a0: a72f 423d 71c3 1c3d 238a 0fbb 8749 4bbd
000000b0: 5c29 133e afb3 bb3c 2e2c a1be 8807 9e3d
000000c0: bcf5 113c cb9e 9d3e 4c71 1dbe 0eb7 303e
000000d0: 57e6 29be 73aa ffbd 5511 adbd 097f 283e
000000e0: e51b c0bc 5a63 4e3e c242 a6bd a717 bdbc
000000f0: 6ef5 743d db58 ebbe 4107 99bd 02f0 6dbb
00000100: 64e0 25bc e8dd 6a3e fae5 79bd 97bb 5cbd
00000110: 87eb 7f3d c658 1d3e 6e8c f2bc 444b 95bd
00000120: 299a 48be f97c e73c 9fa1 973c f4a1 033e
00000130: 1a62 163e 8443 f03d e1a4 0cbe 70e9 393e
00000140: 2610 61be b9e7 a33c 36a5 843e 2fe0 dfbd
00000150: 9735 2b3e f8ef 443c 0f92 1b3e 5868 ecbc
00000160: e72b 8cbe ad11 1f3e 336f a43b 950b 98be
00000170: aa66 883e 0f0a 9fbc 1c08 1f3e ca50 013e
00000180: fa44 b23b d255 143e 35eb 04be b2d1 90bc
00000190: 983b 88bd 30cd 513e 0116 eb3e 93a2 cdbc
000001a0: 5ec1 2c3c 79bc a73d c61d 0c3f 8a2d be3d
000001b0: 06f0 8ebe bb4e 0e3d fbff 0abd 905e adbe
000001c0: 6a5a 153e 6bc5 48be 9dc8 8cbd 5ee0 1f3e
000001d0: 3914 ab3e 4908 97bd d9cf d8bd dffc b33b
000001e0: 3749 723d d944 6b3e 9d74 ff3d 1aef 093c
000001f0: 686f 51bd 7742 d0bc 9fdd 733e c114 553a
00000200: 9a8b 93be 3288 933e afa6 513e 0b22 bdbd
00000210: 3127 d23e b3bd 613e 82f2 213d fceb cdbc
00000220: debe a93e 8f19 fc3d 6e02 903e d005 913e
00000230: 20c1 2d3e 5062 1f3e 802a ccbd 2f25 063e
00000240: f0e8 cc3d 60eb 483e 48a8 f83c 61aa 523e
00000250: 7918 c83d b4a0 cdbd 2790 d23d 1a19 0a3f
00000260: 42d6 02be 27a0 b3be 7ce9 7ebd 752b b33d
00000270: 16db 603e 3add c8bc 6e64 4ebd 0f6a f63d
00000280: be3d e2be 2e80 2dbe 7f92 59be 96bb 9bbd
00000290: ccd7 b0be 432c c33d 40e9 9c3d 9830 863e
000002a0: 6af4 353d 51b1 333e 39d6 a0bd 0de3 a03e
000002b0: d14c c63c 7bdd bfbc e332 79bd eb89 bb3d
000002c0: 386e e03d 920b 59be fd54 58be cae5 65bd
000002d0: 1a9e 543e c546 1bbe 96b8 b83e 24fe 73be
000002e0: 3970 4dbd 4368 103e 6ca0 58be 4dea a5bb
000002f0: 2041 15b9 70f2 edbd 7308 bdbe 4b5e 993e
00000300: 8741 023e c2af 9abe ab9b 9dbe 0ef4 473d
00000310: eb20 b9be 3ab8 133d 7909 ab3d 6bfe babc
00000320: bb28 f4bd 8105 94be 3901 a93e 9d98 963d
00000330: ce89 6bbe 2059 b3bd c1c2 413e 383d dd3d
00000340: 27aa 73bd 7498 24bd 29d5 8a3e 3b15 b7bd
00000350: 85e6 d4bd 593e e73d 05dc f53d f047 57be
00000360: d07b e83c dd60 773e 6556 75ba f451 62bd
00000370: 40c3 993c 40d8 4fbe 8a1f 303e 8ba4 d13c
00000380: 27fa 103d ea3d bdbe 467b a8be bbf0 57be
00000390: 81dc d2bc 1c78 72be 4aa2 b0bd bc33 8e3e
000003a0: 2ffa 193e c06d df3d 497b b9bc b8bf 7e3d
000003b0: c550 343d 62f5 bfbd 956a 03bd dbb6 c43d
000003c0: bec3 683d b1a3 4b3e 812d 4ebe d4b8 25bd
000003d0: f048 203d ee5d e03d d0a5 9ebe c662 30be
000003e0: 4857 d53b 2bac aa3d be71 1d3e a5b6 e93d
000003f0: 4cc2 b93e 4c01 52bd 882c 04be 6c59 69be

enc1.2.bias f4 [8]
-0.028497716 -0.0015097929 0.03888036 -0.010393923 0.0038440537 0.034145944 0.029416738 0.007552744
00000000: 0b74 e9bc 3ee4 c5ba 0341 1f3d 464b 2abc
00000010: 85ec 7b3b 9edc 0b3d 5ffb f03c 027d f73b

enc2.0.weight f4 [16, 8, 3, 3]
0.014209673 -0.039854404 -0.013663344 -0.13219336 -0.20515448 0.092271656 0.05923994 -0.08848639
0.26122716 -0.0029927029 0.049020894 -0.036628973 -0.22147398 0.07593863 -0.04547428 -0.08408522
-0.04241408 0.18201125 0.005354052 0.11829601 -0.17003389 -0.044994116 -0.01785194 -0.13042186
0.08897247 0.27259335 0.11122092 -0.049536034 0.10311965 0.11021386 -0.023608074 -0.163628
-0.013436438 -0.18397182 -0.15818006 -0.08521279 0.15355538 -0.041473992 -0.19581199 -0.031871766
0.04190387 -0.04041877 -0.12590662 -0.116861016 0.06464845 0.060462456 0.053897362 0.13836609
0.22280377 -0.03316776 0.14407122 0.17526618 -0.036655653 0.11567992 0.1851889 -0.054320455
-0.3101694 -0.17748137 0.20196433 -0.0648055 0.09298747 0.21298513 0.18472199 0.0069309785
-0.17115822 0.02441558 -0.022870677 -0.0051337294 0.11040624 -0.10511883 -0.1692979 0.0029544178
0.0081258565 0.044408966 -0.021942144 -0.054321397 -0.026888337 -0.11376151 -0.06645481 0.022344463
0.117986724 -0.046464004 0.0043862793 0.28983432 0.010445829 -0.10826643 0.0056966534 -0.044950817
-0.0020972874 -0.10837349 0.05056369 0.05544498 0.16132818 0.087096594 0.0354727 0.07219089
-0.18777417 0.11251577 0.034095474 -0.019996691 -0.08623333 0.08395314 -0.18634163 0.06058981
0.0004385752 0.12053441 -0.23085189 0.027145369 0.13279583 -0.052492797 -0.022111075 -0.030316027
0.098917566 0.062706165 0.17445916 0.24173558 0.011946216 -0.060822725 -0.088688664 0.18034546
0.17445509 0.15766788 0.07476007 -0.130251 0.10079344 0.12584217 0.20527992 0.0028654526
0.06922283 0.029078295 0.19604225 -0.122931756 0.019051282 -0.028508382 0.19800203 -0.26263064
0.14795078 -0.202978 -0.17164247 0.0369878 -0.028673131 0.044418525 -0.003013441 -0.10007041
-0.05433894 -0.019309003 -0.20660375 -0.040272932 0.111998536 0.21013705 0.27189657 0.14637117
-0.18368152 -0.049499355 -0.15832484 -0.15225063 0.12072491 0.1766009 -0.030743627 0.04706957
-0.10763372 -0.22810046 0.12980512 0.013516608 -0.18092619 -0.100308806 0.05365992 0.15458855
-0.06239297 -0.13475259 0.09484267 0.17916842 -0.007079268 0.123926155 0.14481942 0.0012883869
-0.04997607 0.18065421 -0.016014444 -0.08605865 0.09129128 0.08229186 0.118970014 0.20405336
0.08563984 0.38446897 0.30491975 0.16205171 0.06608521 -0.10017443 0.15183353 -0.13621587
-0.091745 -0.067371756 0.18406907 0.23695678 0.07841232 -0.10154664 0.09986956 0.07495482
-0.02500219 0.059705876 0.1565754 0.08063557 0.11492016 0.093502104 -0.00234223 0.17743117
-0.17571229 0.027886642 0.13635445 -0.013037284 0.24726295 -0.16408025 0.03340277 -0.14780459
-0.02853913 0.059781075 0.16232412 -0.026218576 0.08044377 0.26499233 -0.0067760283 -0.06059349
-0.05354564 -0.3477228 -0.12633392 0.02031936 -0.0440473 -0.19319357 0.036758617 0.15654996
-0.0011123276 0.08972095 0.05046347 -0.06841145 -0.090550944 -0.06899584 0.09378316 -0.12511306
0.03996824 0.009713599 0.029894508 -0.02453467 -0.12371149 0.23649514 -0.016181171 -0.05721706
0.0782958 -0.06829234 0.2366925 0.13126417 -0.2925946 -0.23167233 0.02798444 0.020979775
00000000: b0cf 683c 5f3e 23bd 38dc 5fbc b25d 07be
00000010: 0414 52be ecf8 bc3d 94a5 723d 5a38 b5bd
00000020: 91bf 853e 3921 44bb 22ca 483d 4308 16bd
00000030: 13ca 62be b685 9b3d 3d43 3abd df34 acbd
00000040: 63ba 2dbd 2861 3a3e 0b71 af3b 2e45 f23d
00000050: 5d1d 2ebe c04b 38bd 3b3e 92bc 4f8d 05be
00000060: 3337 b63d 5b91 8b3e cbc7 e33d 4ce6 4abd
00000070: 6530 d33d ceb7 e13d b865 c1bc 198e 27be
00000080: 8124 5cbc 1c63 3cbe f4f9 21be 0b84 aebd
00000090: 9f3d 1d3e a2e0 29bd f082 48be f88b 02bd
000000a0: 64a3 2b3d 278e 25bd aaed 00be d454 efbd
000000b0: 6866 843d 7ba7 773d 7bc3 5c3d d7af 0d3e
000000c0: ac26 643e ebda 07bd 6887 133e fa78 333e
000000d0: 3d24 16bd 98e9 ec3d 29a2 3d3e 207f 5ebd
000000e0: 86ce 9ebe adbd 35be bdcf 4e3e bfb8 84bd
000000f0: 3770 be3d c618 5a3e c327 3d3e 431d e33b
00000100: 1a44 2fbe 2f03 c83c 495b bbbc d838 a8bb
00000110: ab1c e23d 8b48 d7bd 6e5c 2dbe e89e 413b
00000120: 5022 053c 2de6 353d 03c0 b3bc 1d80 5ebd
00000130: ee44 dcbc cbfb e8bd 7619 88bd bc0b b73c
00000140: 06a3 f13d 0a51 3ebd c7ba 8f3b 2a65 943e
00000150: fb24 2b3c caba ddbd feaa ba3b 591e 38bd
00000160: a572 09bb ecf2 ddbd df1b 4f3d 461a 633d
00000170: 3733 253e b35f b23d d24b 113d d1d8 933d
00000180: df47 40be ab6e e63d b2a7 0b3d 1ad0 a3bc
00000190: 1a9b b0bd a0ef ab3d 57d0 3ebe 052d 783d
000001a0: 91f0 e539 bfda f63d 7064 6cbe f75f de3c
000001b0: a1fb 073e b002 57bd 4922 b5bc 5159 f8bc
000001c0: 4b95 ca3d 176c 803d 6ca5 323e 8889 773e
000001d0: 10ba 433c 4021 79bd 67a2 b5bd 7bac 383e
000001e0: 5ba4 323e b073 213e cf1b 993d 8560 05be
000001f0: cb6c ce3d c5dc 003e e634 523e 51ca 3b3b
00000200: b3c4 8d3d 9b35 ee3c 4dbf 483e a5c3 fbbd
00000210: 6f11 9c3c 698a e9bc 0bc1 4a3e 8677 86be
00000220: 6980 173e 77d9 4fbe 0bc3 2fbe 8580 173d
00000230: eae3 eabc 33f0 353d 277d 45bb b7f1 ccbd
00000240: 8292 5ebd ea2d 9ebc ef8f 53be 3bf5 24bd
00000250: 7d5f e53d 2b2e 573e 0736 8b3e 53e2 153e
00000260: 0217 3cbe d6bf 4abd e81f 22be 97e7 1bbe
00000270: 9f3e f73d ded6 343e 0fda fbbc 05cc 403d
00000280: 116f dcbd 2b93 69be a2eb 043e c374 5d3c
00000290: b744 39be b46e cdbd 81ca 5b3d 764c 1e3e
000002a0: c58f 7fbd 95fc 09be e03c c23d ed77 373e
000002b0: 34f9 e7bb ffcc fd3d 8b4b 143e 17df a83a
000002c0: b5b3 4cbd 6bfd 383e b930 83bc 843f b0bd
000002d0: ecf6 ba3d a288 a83d 8da6 f33d 5df3 503e
000002e0: f163 af3d 1ed9 c43e 711e 9c3e e2f0 253e
000002f0: af57 873d 4028 cdbd 407a 1b3e 2c7c 0bbe
00000300: cde4 bbbd 34fa 89bd 9a7c 3c3e cca4 723e
00000310: a396 a03d aff7 cfbd 6988 cc3d ea81 993d
00000320: 65d1 ccbc 268e 743d 4d55 203e 4324 a53d
00000330: 435b eb3d 087e bf3d 1980 19bb 84b0 353e
00000340: eced 33be 8772 e43c 80a0 0b3e 559a 55bc
00000350: 8032 7d3e a704 28be 58d1 083d 165a 17be
00000360: e5ca e9bc 00dd 743d 4b38 263e 57c8 d6bc
00000370: b4bf a43d 13ad 873e 7209 debb e130 78bd
00000380: ac52 5bbd b908 b2be ae5d 01be c974 a63c
00000390: f16a 34bd 89d4 45be 3490 163d a24e 203e
000003a0: 85cb 91ba 9ebf b73d c9b2 4e3d 4d1b 8cbd
000003b0: c672 b9bd b14d 8dbd 6311 c03d a31d 00be
000003c0: bdb5 233d ca25 1f3c 54e5 f43c effc c8bc
000003d0: 735c fdbd c82b 723e 608e 84bc 705c 6abd
000003e0: 8c59 a03d dbdc 8bbd 855f 723e 1d6a 063e
000003f0: f6ce 95be 833b 6dbe a03f e53c c7dd ab3c

enc2.0.bias f4 [16]
0.033123784 0.032999154 -0.015049192 0.043712903 0.00874944 0.037204072 -0.021272568 -0.028098485
0.027022874 0.0068875863 0.031723518 0.036372066 0.030830035 0.027134536 0.02296108 0.036654275
00000000: ceac 073d 1f2a 073d e390 76bc 4d0c 333d
00000010: d059 0f3c 4c63 183d cf43 aebc cb2e e6bc
00000020: 135f dd3c 43b1 e13b 85f0 013d e0fa 143d
00000030: 458f fc3c 3f49 de3c e018 bc3c cb22 163d

enc2.2.weight f4 [16, 16, 3, 3]
-0.0021433856 0.04439568 -0.021200592 -0.11634094 0.14071713 0.05416368 -0.05649253 -0.024557013
0.005012254 -0.12413694 0.2271369 -0.11076857 -0.18061937 0.042460535 0.18084757 -0.23310398
-0.032830324 -0.028467998 -0.11549217 -0.0655832 -0.12917592 -0.10128197 0.31126887 0.04311348
-0.04546212 0.14968391 -0.07403994 0.21128632 0.1480267 -0.05965343 0.16060424 0.1732462
-0.100829326 -0.07921888 -0.32295337 0.18688396 -0.03556559 -0.049829986 0.14510234 -0.16484378
-0.11649984 0.22152612 -0.064144775 -0.39829302 -0.0907226 0.010925752 -0.035318714 0.12577115
0.02332286 -0.0031964998 -0.112010635 -0.082024105 -0.255281 -0.08005211 0.022388196 -0.02781351
-0.09232409 0.12776315 -0.12594399 0.16646437 0.04251132 0.11175071 0.03849329 0.054803662
0.10504883 0.06688861 -0.12018955 -0.010319647 -0.15069388 0.11282495 0.15836675 -0.020482773
0.24837272 0.013407787 0.1788007 -0.08695427 0.06397476 0.21211922 0.0012565661 -0.20812401
0.17198223 -0.20757173 -0.031721618 -0.20392336 0.14674242 0.165111 0.075896 -0.054563258
-0.19121428 0.2023368 0.0012458821 -0.14289093 0.1074293 -0.077329345 0.11668039 0.023865657
-0.25648332 0.042760905 0.18226203 0.12946999 -0.039956406 -0.051962152 -0.06573763 0.1431533
0.06686903 0.025851307 -0.0288343 0.0668238 -0.08757535 0.024697052 0.1999767 -0.2080563
-0.06376572 -0.072969615 -0.0001112424 0.14303532 0.14784181 0.023941947 0.09610858 -0.15613505
0.14906086 0.13638577 -0.07231776 0.08583868 0.022355385 -0.063983805 0.16004556 -0.07299802
-0.10750167 -0.028788453 -0.081382975 0.046098765 -0.24923076 0.052957572 -0.11252848 -0.13122194
0.04420842 0.16735438 -0.12635225 0.11786786 -0.04743939 0.06669211 -0.030674992 0.09388543
0.016096214 0.06962382 0.10787979 -0.029360859 0.12413811 0.1353712 0.18606879 -0.0846755
0.16881374 0.17814729 0.08941007 0.008879397 -0.28033775 0.11038631 -0.1111415 -0.0012560742
-0.07610542 -0.131165 0.14958264 0.05966838 0.12128028 -0.21357353 -0.04205822 -0.037685238
-0.04038265 -0.044461265 -0.052079342 -0.20553504 -0.15315412 -0.080683924 0.12133794 -0.028011106
-0.20099972 -0.08152506 -0.04016884 0.052132335 -0.006195643 0.035336707 0.0787693 0.024732763
0.0690848 0.20392293 0.16663577 0.14090961 -0.006164137 0.003341232 0.18443446 -0.09913907
-0.09910629 0.030531695 0.06593734 0.20219687 0.27623013 -0.008564201 -0.05994135 -0.058786735
-0.059664864 -0.14636277 0.11895604 0.13613394 -0.10149113 -0.074214965 0.19077536 0.11688342
-0.13718936 0.12742488 -0.0035139124 0.027361872 -0.043246392 0.08115848 -0.06669172 -0.011470785
0.07007285 0.16749407 -0.17787465 0.0058859577 0.31266567 0.13286299 -0.06555823 0.021718772
-0.028017128 0.28430676 -0.0974382 -0.094286986 -0.087098 0.01831746 0.02076328 -0.15076277
-0.41271606 -0.06299285 -0.015386862 -0.18730083 0.04599847 0.17291366 0.056074593 -0.26633653
-0.16097112 0.093792684 -0.043029696 0.055705898 -0.18293634 -0.091834195 0.051380392 -0.14868079
0.30376285 0.12796162 0.37719592 -0.06319261 0.0340694 0.023321627 -0.026344895 0.13986988
00000000: 0b78 0cbb 3fd8 353d ddac adbc 2944 eebd
00000010: 2718 103e bcda 5d3d b664 67bd ca2b c9bc
00000020: d63d a43b 823b febd 9396 683e a2da e2bd
00000030: 49f4 38be 19eb 2d3d 1b30 393e cfb2 6ebe
00000040: 1779 06bd b835 e9bc 2987 ecbd 7c50 86bd
00000050: b146 04be ec6c cfbd a25e 9f3e c397 303d
00000060: 7d36 3abd bd46 193e 41a2 97bd 715b 583e
00000070: 5094 173e 2857 74bd 7075 243e 7467 313e
00000080: 9b7f cebd 823d a2bd 255a a5be 825e 3f3e
00000090: 39ad 11bd 871a 4cbd b595 143e cfcc 28be
000000a0: 7897 eebd bed7 623e 565e 83bd 10ed cbbe
000000b0: c5cc b9bd ed01 333c 5baa 10bd 27ca 003e
000000c0: 950f bf3c 5e7c 51bb d565 e5bd 41fc a7bd
000000d0: 31b4 82be 5cf2 a3bd 7367 b73c 28d9 e3bc
000000e0: 6a14 bdbd 58d4 023e 76f7 00be a375 2a3e
000000f0: 5a20 2e3d 8edd e43d 24ab 1d3d ce79 603d
00000100: d723 d73d e5fc 883d f025 f6bd bd13 29bc
00000110: 7f4f 1abe c410 e73d e52a 223e 7dcb a7bc
00000120: 6b55 7e3e 56ac 5b3c 8817 373e 1515 b2bd
00000130: 3305 833d c835 593e 5db3 a43a 761e 55be
00000140: 1c1c 303e af8d 54be 87ee 01bd 49d1 50be
00000150: a543 163e dc12 293e 5d6f 9b3d b97d 5fbd
00000160: adcd 43be 6131 4f3e de4c a33a 0052 12be
00000170: e503 dc3d d95e 9ebd 21f6 ee3d e981 c33c
00000180: c851 83be 0f26 2f3d e6a2 3a3e c893 043e
00000190: 54a9 23bd 44d6 54bd 73a1 86bd c796 123e
000001a0: a1f2 883d 1fc6 d33c e935 ecbc ebda 883d
000001b0: b55a b3bd 7951 ca3c b1c6 4c3e b60c 55be
000001c0: 9a97 82bd 1871 95bd cf4a e9b8 da77 123e
000001d0: d863 173e e721 c43c 93d4 c43d dee1 1fbe
000001e0: 69a3 183e b6a8 0b3e 551b 94bd 31cc af3d
000001f0: a422 b73c f109 83bd fce2 233e fc7f 95bd
00000200: d629 dcbd c3d5 ebbc 1eac a6bd 0fd2 3c3d
00000210: 5936 7fbe 0aea 583d 5575 e6bd 0b5f 06be
00000220: e313 353d f25e 2b3e 7c62 01be b464 f13d
00000230: ce4f 42bd df95 883d 1f4a fbbc 0147 c03d
00000240: 35dc 833c ef96 8e3d 14f0 dc3d 2f86 f0bc
00000250: 1f3c fe3d bf9e 0a3e d188 3e3e 596a adbd
00000260: 82dd 2c3e 3e6c 363e a01c b73d e47a 113c
00000270: 6e88 8fbe 3812 e23d 289e e3bd dba2 a4ba
00000280: 29dd 9bbd 1e50 06be 312c 193e d566 743d
00000290: cc61 f83d 05b3 5abe 3d45 2cbd d65b 1abd
000002a0: 4768 25bd 041d 36bd 2651 55bd c777 52be
000002b0: 6fd4 1cbe 9d3d a5bd 0780 f83d 8c77 e5bc
000002c0: dfd2 4dbe 9cf6 a6bd 1588 24bd b788 553d
000002d0: d204 cbbb 39bd 103d cc51 a13d 5d9c ca3c
000002e0: 557c 8d3d 2cd1 503e 91a2 2a3e 9c4a 103e
000002f0: 87fc c9bb 92f8 5a3b 63dc 3c3e 6d09 cbbd
00000300: 3df8 cabd 9b1d fa3c 280a 873d b20c 4f3e
00000310: 096e 8d3e dd50 0cbc 1085 75bd 5cca 70bd
00000320: 2563 74bd 1fe0 15be 399f f33d b266 0b3e
00000330: 95da cfbd 04fe 97bd 9e5a 433e 9360 ef3d
00000340: 5e7b 0cbe ab7b 023e ab49 66bb 0126 e03c
00000350: 2123 31bd 6b36 a63d ab95 88bd f6ef 3bbc
00000360: 5b82 8f3d 9183 2b3e c624 36be fede c03b
00000370: b715 a03e 3c0d 083e 6543 86bd 91eb b13c
00000380: 2d84 e5bc a890 913e ae8d c7bd 8919 c1bd
00000390: 7060 b2bd 7f0e 963c c117 aa3c 8e61 1abe
000003a0: 854f d3be 6502 81bd 2d19 7cbc cacb 3fbe
000003b0: e468 3c3d 4710 313e 79ae 653d 435d 88be
000003c0: 9dd5 24be 6116 c03d e83f 30bd de2b 643d
000003d0: aa53 3bbe 9113 bcbd 3f74 523d c73f 18be
000003e0: ce86 9b3e 5f08 033e d31f c13e 216b 81bd
000003f0: 5b8c 0b3d ff0c bf3c 40d1 d7bc 0d3a 0f3e

enc2.2.bias f4 [16]
0.01735309 0.031458084 0.0004427987 0.012649932 0.033316858 0.025929032 -0.0049339803 -0.0052956855
0.058175392 0.031216962 0.012739454 -0.0071361423 0.01905877 -0.015015974 0.034341414 0.028408337
00000000: 1128 8e3c 31da 003d 6f27 e839 a941 4f3c
00000010: 4277 083d 1f69 d43c 3aad a1bb 6e87 adbb
00000020: 5249 6e3d b7ba ff3c 25b9 503c 4dd6 e9bb
00000030: 2321 9c3c 8f05 76bc 95a9 0c3d 9ab8 e83c

bottleneck.0.weight f4 [32, 16, 3, 3]
-0.0924593 0.037617665 0.048784427 0.048062693 0.08060061 -0.033354897 0.023997534 0.011267776
-0.17127267 -0.018566113 -0.18843971 0.09957236 -0.020067044 0.064750835 0.13339995 -0.16976699
0.21236083 0.035777293 0.038927924 0.08817399 0.08372296 -0.049522113 0.1319592 0.2179342
-0.035907 -0.013633637 -0.020941721 0.042387765 -0.064908266 0.007386539 -0.042563867 -0.10329391
-0.029447129 0.124648616 -0.01098788 -0.082957074 -0.079987384 -0.07446047 -0.0045433356 -0.057651516
0.04309452 -0.17455487 0.099891126 -0.13577609 0.124388516 -0.027815064 0.10594013 0.026074335
-0.103104465 0.066679925 -0.038982265 0.12013071 0.0927715 -0.046325754 0.02790413 0.12151687
0.008858893 0.07505892 -0.029428653 -0.12054645 -0.057497837 0.27120677 0.07911246 -0.06640116
0.032351293 -0.050555024 0.03274315 0.14291191 0.09042568 0.019806374 0.003585304 -0.044308238
-0.0016308886 0.013409575 -0.16373852 0.08398994 -0.0776215 -0.0449675 -0.04635544 0.11310366
0.19550073 -0.08848791 0.10221446 0.057241183 -0.027567877 0.056289256 0.15705812 -0.11033252
0.034862977 -0.0032179744 0.018467952 -0.022453701 -0.05934292 0.10991335 0.15009189 0.11991222
-0.00424643 0.09883823 -0.015406884 -0.013060961 0.08465927 -0.048706308 -8.0604754e-05 0.059381433
0.0046922555 0.03355036 0.2785068 0.106856324 -0.0054487786 0.035610188 -0.041188665 0.1491873
0.06962637 -0.09584014 -0.041124307 -0.03748181 -0.19482626 0.07904345 0.06261668 -0.12344753
0.18832673 -0.032519877 0.049754646 0.0031426477 0.024897369 0.2186336 -0.00953706 0.043414883
-0.14420351 0.056206692 -0.045029264 -0.033019405 0.020963287 -0.111516416 -0.059263814 0.02128694
0.16951066 0.039151005 0.06019902 0.047532056 0.041856803 0.09586386 0.048228826 0.039058406
0.0052026534 -0.09177373 0.0997184 0.0123574305 0.0460187 0.012965282 -0.02192315 -0.07034971
0.06300929 0.065168776 -0.06455121 0.0061808154 0.049818795 -0.0014578452 -0.1921599 -0.05264503
-0.075074345 0.24037157 -0.0029130408 -0.12522443 -0.08472786 -0.05809917 -0.1020106 0.01118097
-0.0580496 0.047890365 0.08790784 -0.07279875 -0.06908384 0.041113954 0.042541206 -0.052268837
0.026156228 0.06163945 0.042818792 0.10893326 0.051218547 0.020258276 0.11004491 0.118307814
0.08760432 0.09068083 0.045030363 -0.019315729 -0.09237947 -0.036279898 0.006921239 -0.06323242
-0.02949328 0.0065425904 -0.06420702 0.044586048 -0.03785593 0.106701024 -0.11467766 -0.05025387
-0.13744928 0.029655522 0.0791248 -0.1530515 0.07894745 0.11289397 0.18575656 -0.17379841
-0.051380217 -0.23478214 0.10461293 0.22346582 -0.051932264 0.044353183 0.025635501 -0.054452736
-0.061686147 0.11270553 0.017518261 -0.004345632 -0.036234874 -0.013752003 -0.083760895 0.21921043
0.134021 0.011292676 -0.028477006 -0.11890231 0.05291338 -0.12587509 -0.074960425 -0.2112926
0.09880175 -0.12356818 0.06580648 0.068426445 -0.092648625 0.13489325 -0.023812879 -0.12595323
0.05704647 -0.00918428 0.12551215 -0.04368264 -0.017792404 0.15725023 0.079056375 -0.023134412
0.07721166 0.04990404 -0.000113948285 0.13512766 0.09931257 0.1555066 -0.040840294 -0.08382625
00000000: 4d5b bdbd fb14 1a3d 2ed2 473d 63dd 443d
00000010: ef11 a53d 259f 08bd 7a96 c43c 7a9c 383c
00000020: 1a62 2fbe f617 98bc 57f6 40be 98ec cb3d
00000030: a463 a4bc 169c 843d ff99 083e 66d7 2dbe
00000040: 1e75 593e 368b 123d e372 1f3d 9194 b43d
00000050: f176 ab3d b3d7 4abd 5020 073e 252a 5f3e
00000060: 3813 13bd 9e5f 5fbc f98d abbc cb9e 2d3d
00000070: a0ee 84bd c80a f23b 7357 2ebd c28b d3bd
00000080: 1b3b f1bc c647 ff3d 8206 34bc 66e5 a9bd
00000090: 6dd0 a3bd bb7e 98bd 43e0 94bb ff23 6cbd
000000a0: e183 303d 83be 32be b893 cc3d e308 0bbe
000000b0: 68bf fe3d 6bdc e3bc 24f7 d83d d899 d53c
000000c0: 6f28 d3bd 7c8f 883d deab 1fbd 1707 f63d
000000d0: fcfe bd3d 13c0 3dbd 3497 e43c d6dd f83d
000000e0: e424 113c 7eb8 993d 5c14 f1bc 0fe1 f6bd
000000f0: da82 6bbd 9ddb 8a3e b705 a23d 55fd 87bd
00000100: ca82 043d c912 4fbd ae1d 063d 8057 123e
00000110: 1931 b93d fa40 a23c 6bf7 6a3b 8e7c 35bd
00000120: 8ac3 d5ba d6b3 5b3c 12ab 27be eb02 ac3d
00000130: 05f8 9ebd d72f 38bd 34df 3dbd e4a2 e73d
00000140: 5831 483e 2639 b5bd d155 d13d bb75 6a3d
00000150: 07d6 e1bc 908f 663d d8d3 203e 04f6 e1bd
00000160: 7bcc 0e3d a7e4 52bb 1a4a 973c d3f0 b7bc
00000170: 9011 73bd 401a e13d b0b1 193e 8a94 f53d
00000180: a325 8bbb b36b ca3d 286d 7cbc a4fd 55bc
00000190: d761 ad3d 4480 47bd 590a a9b8 f239 733d
000001a0: 7ec1 993b 1a6c 093d 7198 8e3e 7dd7 da3d
000001b0: ab8b b2bb fddb 113d 72b5 28bd 8ec4 183e
000001c0: 4598 8e3d d647 c4bd f671 28bd 8786 19bd
000001d0: 8980 47be 88e1 a13d 2d3d 803d 0fd2 fcbd
000001e0: b9d8 403e 9033 05bd 87cb 4b3d e1f4 4d3b
000001f0: 91f5 cb3c 7de1 5f3e 5441 1cbc ced3 313d
00000200: 16aa 13be fd38 663d 9b70 38bd 5b3f 07bd
00000210: 33bb ab3c b862 e4bd 9dbe 72bd f361 ae3c
00000220: 3494 2d3e ce5c 203d 3f93 763d f9b0 423d
00000230: 0a72 2b3d 4554 c43d 978b 453d b5fb 1f3d
00000240: 057b aa3b def3 bbbd 2939 cc3d d276 4a3c
00000250: 1b7e 3c3d 566c 543c 2e98 b3bc 8213 90bd
00000260: 040b 813d 3577 853d 6d33 84bd 7088 ca3b
00000270: cb0e 4c3d 2b15 bfba 91c5 44be 51a2 57bd
00000280: 94c0 99bd f723 763e b7e8 3ebb d53a 00be
00000290: cd85 adbd 65f9 6dbd efea d0bd 6330 373c
000002a0: 6bc5 6dbd b028 443d 0709 b43d 8317 95bd
000002b0: d47b 8dbd 1b67 283d b03f 2e3d d917 56bd
000002c0: 9645 d63c a679 7c3d c262 2f3d 6718 df3d
000002d0: 8aca 513d aff4 a53c 3a5f e13d 5e4b f23d
000002e0: e569 b33d dfb6 b93d c271 383d 053c 9ebc
000002f0: 7331 bdbd 3b9a 14bd 90cb e23b 0080 81bd
00000300: e49b f1bc 3a63 d63b f87e 83bd dc9f 363d
00000310: d20e 1bbd 1186 da3d 1fdc eabd 01d7 4dbd
00000320: 81bf 0cbe 23f0 f23c 2f0c a23d 88b9 1cbe
00000330: 33af a13d f434 e73d f836 3e3e 36f8 31be
00000340: 1074 52bd bb6a 70be 4e3f d63d 39d4 643e
00000350: edb6 54bd afab 353d 8b01 d23c d509 5fbd
00000360: 9daa 7cbd 28d2 e63d 7582 8f3c ce65 8ebb
00000370: 056b 14bd 1550 61bc d58a abbd b378 603e
00000380: cd3c 093e eb04 393c 9c48 e9bc 0e83 f3bd
00000390: b3bb 583d 66e5 00be da84 99bd 165d 58be
000003a0: 9258 ca3d 5011 fdbd 8cc5 863d 2a23 8c3d
000003b0: 90be bdbd 7521 0a3e 3a13 c3bc e2f9 00be
000003c0: 8fa9 693d aa79 16bc 4286 003e 91ec 32bd
000003d0: 60c1 91bc 3406 213e 4fe8 a13d 6184 bdbc
000003e0: 2621 9e3d 2e68 4c3d 85f7 eeb8 e85e 0a3e
000003f0: 6464 cb3d 1f3d 1f3e 2748 27bd 19ad abbd

bottleneck.0.bias f4 [32]
-0.03208455 0.021151207 0.028547952 0.037006993 0.029956358 0.02622604 0.047597855 -0.0096570905
0.027011055 -0.013377563 0.0137152765 0.037407238 -0.009418328 0.026110496 -0.0037674347 0.03022034
0.034050826 0.0075609325 0.026450943 0.054730617 0.002929631 0.05200525 0.023919 -0.012716282
0.034085464 0.019804819 -0.028606355 0.011692248 0.02244341 0.027229844 0.024616092 0.029377988
00000000: 176b 03bd 4c45 ad3c 65dd e93c a594 173d
00000010: 0967 f53c fed7 d63c f8f5 423d c638 1ebc
00000020: 4a46 dd3c 912d 5bbc 0ab6 603c 5538 193d
00000030: 554f 1abc aee5 d53c 11e7 76bb a590 f73c
00000040: e178 0b3d b3c1 f73b a6af d83c 362d 603d
00000050: 0dff 3f3b 7503 553d c7f1 c33c f457 50bc
00000060: 339d 0b3d b73d a23c e057 eabc d890 3f3c
00000070: 3edb b73c 1f11 df3c b0a7 c93c 1baa f03c

bottleneck.2.weight f4 [32, 32, 3, 3]
-0.011515458 -0.031725273 -0.19335398 -0.10550824 -0.18441267 -0.01805926 -0.07254068 -0.122303165
-0.01324879 0.0028789912 -0.17884475 -0.019205313 0.0041945847 0.102754354 0.0690174 0.077392
-0.036158163 -0.016313331 -0.04766118 0.2218888 0.038016457 -0.09429425 0.071556576 -0.023210857
0.09259521 -0.068412736 0.09130932 -0.027063282 0.0992492 0.020113727 -0.004051089 0.15266229
0.08814932 0.053614713 0.116454676 0.04180224 0.041956306 -0.0076623196 0.06388 0.011640057
-0.0743352 0.15664986 -0.0077541647 0.03292672 -0.14924368 -0.18635124 -0.15720505 -0.055650856
0.09070124 0.055838585 0.11422874 -0.07617854 -0.059170205 0.052892987 0.26024324 -0.07357021
-0.02855585 0.066037215 -0.029332772 -0.04774976 -0.035831403 -0.022273213 -0.09960532 0.013835957
0.0072197476 0.12552872 0.027632734 0.077369176 0.030503446 -0.044373535 0.023637502 0.061863195
-0.17718303 0.011729291 -0.11364091 0.055420518 -0.009783118 0.030334378 0.061152883 -0.084179066
0.035428032 0.01137972 0.016944 -0.046973012 -0.044181112 0.05413452 -0.060188774 -0.01571297
-0.22690721 -0.12003331 -0.01969963 0.026013387 -0.035746012 -0.08054235 0.12416509 0.07428822
0.01935146 0.06164677 0.039226733 0.009028381 0.08269876 0.17583817 0.10992203 0.18389331
-0.034516532 0.056374524 -0.11656531 0.032586914 -0.04215593 -0.060937565 -0.022016939 -0.0037365954
-0.05021977 -0.08990798 -0.11980534 -0.106327415 -0.16026692 0.008273558 0.08218553 -0.10767743
-0.08541782 0.0130298035 0.04950876 -0.20592065 0.021963952 0.08898878 0.117738314 0.036207445
-0.1319435 0.13075614 0.14969522 -0.21058607 -0.07045264 0.14641897 0.037086025 -0.05640523
0.08452243 0.016920025 -0.104039125 0.032074813 0.032247122 0.087798566 -0.093226634 0.10293153
0.2066885 -0.1466278 -0.016541494 -0.053047944 0.049003 0.01562361 -0.10972136 0.049367554
-0.027249476 -0.018629095 -0.050757553 0.111284 0.013712979 -0.034032043 0.037564963 0.024320964
0.117278166 -0.0452918 -0.0259516 -0.11411003 -0.08654123 -0.200168 0.031772684 -0.13357456
0.0104527045 0.1673774 -0.030598922 -0.08207044 -0.043304898 -0.13519354 0.047648914 0.046173688
-0.1573016 0.014247101 0.07679019 0.14653437 -0.02752823 -0.120837435 0.12409754 -0.104153916
-0.038282882 -0.08900952 -0.08037523 0.078292295 0.11354439 -0.2572034 0.008009583 0.04120043
-0.06460764 0.022502903 0.03165158 -0.1577512 0.09906214 0.02016117 0.033342086 -0.11250864
0.021501852 -0.047622815 -0.00097641925 0.17596836 0.018336527 -0.13634372 0.06306814 0.048512045
0.057792224 -0.09801385 0.020354515 -0.1673317 -0.006693564 -0.05434591 -0.0030911178 -0.12844788
0.01110255 0.018777126 0.018093547 0.049334772 -0.029970225 0.11135298 0.015786491 0.05696153
0.033517495 -0.11751381 -0.06743926 0.012711248 -0.044316635 -0.104210325 0.1020506 0.06993972
-0.048986617 0.045561884 0.043376464 -0.12731938 -0.020825466 0.17180614 -0.11791274 -0.084512904
0.031146847 -0.01329492 -0.07814868 0.056679167 0.052966416 0.044645492 0.020758621 0.072712034
0.15863298 -0.08938273 -0.029338676 0.024616193 0.15002726 0.22732833 0.24703062 -0.044590686
00000000: 55ab 3cbc 5cf2 01bd 96fe 45be b414 d8bd
00000010: add6 3cbe 03f1 93bc 3590 94bd 157a fabd
00000020: 7411 59bc 75ad 3c3b 1423 37be 7654 9dbc
00000030: ba72 893b e070 d23d ff58 8d3d b27f 9e3d
00000040: 951a 14bd 89a3 85bc 5f38 43bd d136 633e
00000050: 25b7 1b3d 581d c1bd 418c 923d b224 bebc
00000060: 8fa2 bd3d fa1b 8cbd 6100 bb3d d1b3 ddbc
00000070: 2a43 cb3d 8bc5 a43c ffbe 84bb 8153 1c3e
00000080: a187 b43d 1a9b 5b3d ca7f ee3d d338 2b3d
00000090: 60da 2b3d 3214 fbbb 84d3 823d f0b5 3e3c
000000a0: 0e3d 98bd d268 203e a616 febb 2bde 063d
000000b0: 56d3 18be dcd2 3ebe 5cfa 20be 27f2 63bd
000000c0: 92c1 b93d 00b7 643d c2f0 e93d 7f03 9cbd
000000d0: 755c 72bd 51a6 583d 9a3e 853e faab 96bd
000000e0: f5ed e9bc 853e 873d 484b f0bc 4195 43bd
000000f0: f3c3 12bd 5076 b6bc e0fd cbbd 36b0 623c
00000100: a293 ec3b 9a8a 003e 0b5e e23c bb73 9e3d
00000110: 5de2 f93c 06c1 35bd 6fa3 c13c 4364 7d3d
00000120: 786f 35be 362c 403c 91bc e8bd a000 633d
00000130: 5f49 20bc cd7f f83c 727b 7a3d 1366 acbd
00000140: fc1c 113d 0172 3a3c 25ce 8a3c c666 40bd
00000150: 41f7 34bd 29bc 5d3d 8188 76bd 7db8 80bc
00000160: 5d5a 68be 06d4 f5bd 1e61 a1bc 071a d53c
00000170: 696a 12bd 63f3 a4bd 444a fe3d 6c24 983d
00000180: f486 9e3c 5381 7c3d 36ac 203d c6eb 133c
00000190: f85d a93d ec0e 343e cd1e e13d 874e 3c3e
000001a0: 3561 0dbd f9e8 663d cbb9 eebd db79 053d
000001b0: b2ab 2cbd ab99 79bd de5c b4bc abe1 74bb
000001c0: 3fb3 4dbd ad21 b8bd 815c f5bd 30c2 d9bd
000001d0: 031d 24be d18d 073c e350 a83d fc85 dcbd
000001e0: 8aef aebd f57a 553c b3c9 4a3d dddc 52be
000001f0: bfed b33c c03f b63d c920 f13d 424e 143d
00000200: 321c 07be f0e4 053e b449 193e e0a3 57be
00000210: 7949 90bd dbee 153e 84e7 173d 2c09 67bd
00000220: 191a ad3d dd9b 8a3c 7712 d5bd e160 033d
00000230: 8f15 043d bccf b33d 9bed bebd c4cd d23d
00000240: 26a6 533e 9925 16be 0782 87bc cd48 59bd
00000250: 5fb7 483d 2bfa 7f3c 98b5 e0bd a235 4a3d
00000260: 4b3a dfbc 0b9c 98bc 27e7 4fbd dee8 e33d
00000270: 67ac 603c 2f65 0bbd b8dd 193d c23c c73c
00000280: 892f f03d e583 39bd 7398 d4bc 85b2 e9bd
00000290: 873c b1bd d7f8 4cbe 1324 023d c5c7 08be
000002a0: d241 2b3c fb64 2b3e 97aa fabc 8c14 a8bd
000002b0: 7a60 31bd 2d70 0abe 822b 433d 9f20 3d3d
000002c0: ac13 21be ac6c 693c 2d44 9d3d 1b0d 163e
000002d0: e282 e1bc 9e79 f7bd da26 fe3d a64e d5bd
000002e0: 83ce 1cbd a04a b6bd c59b a4bd b657 a03d
000002f0: f689 e83d 2ab0 83be a03a 033c c8c1 283d
00000300: 0351 84bd 0258 b83c 16a5 013d 8889 21be
00000310: 17e1 ca3d 0a29 a53c b691 083d ee6a e6bd
00000320: a724 b03c 2410 43bd 63f6 7fba 0d31 343e
00000330: 7c36 963c b09d 0bbe de29 813d 91b4 463d
00000340: 8ab7 6c3d 7cbb c8bd 83be a63c 0059 2bbe
00000350: af55 dbbb d199 5ebd 5a94 4abb d787 03be
00000360: 78e7 353c 7dd2 993c eb38 943c 4213 4a3d
00000370: 1e84 f5bc 080d e43d ac52 813c 7e50 693d
00000380: a449 093d 15ab f0bd 981d 8abd d742 503c
00000390: 5c85 35bd 396c d5bd e8ff d03d 8e3c 8f3d
000003a0: 31a6 48bd 199f 3a3d 85ab 313d 0360 02be
000003b0: 2b9a aabc f3ed 2f3e 3c7c f1bd 1a15 adbd
000003c0: ac27 ff3c f0d2 59bc 6a0c a0bd 6a28 683d
000003d0: 50f3 583d 31de 363d fc0d aa3c 0cea 943d
000003e0: af70 223e 4b0e b7bd aa57 f0bc e6a7 c93c
000003f0: bfa0 193e c2c8 683e 98f5 7c3e b9a4 36bd

bottleneck.2.bias f4 [32]
0.027890388 0.04533155 0.03056165 -0.014229021 -0.008807342 -0.014412846 0.025960315 -0.004168895
0.03543277 0.0085949 0.03328679 -0.034203958 -0.0366416 0.028855294 -0.013594941 0.026819002
0.027837638 -0.01381202 0.034643196 -0.011487599 0.029157603 0.0035869633 -0.045520984 -0.0057938127
0.027818037 0.03141304 -0.03290627 0.028999394 0.008900442 -0.021684585 0.026394242 0.004930804
00000000: 627a e43c 93ad 393d 6d5c fa3c d720 69bc
00000010: ab4c 10bc dc23 6cbc baaa d43c 3a9b 88bb
00000020: f421 113d a0d1 0c3c bb57 083d 7319 0cbd
00000030: 8115 16bd f061 ec3c 51bd 5ebc 86b3 db3c
00000040: c20b e43c d04b 62bc 06e6 0d3d 7c36 3cbc
00000050: eddb ee3c 4213 6b3b 3674 3abd 06da bdbb
00000060: a7e2 e33c f6aa 003d bac8 06bd 2390 ed3c
00000070: 29d3 113c dfa3 b1bc bd38 d83c 9592 a13b

up1.weight f4 [32, 16, 2, 2]
0.07379833 0.062143907 -0.26499513 -0.027644364 -0.112010136 0.11383151 0.08385053 0.30615485
-0.186561 -0.08303804 0.09717949 0.01677713 -0.0781723 0.076214515 0.11358596 -0.091690965
0.0044482616 0.29998386 0.08198431 -0.07789877 0.034882944 -0.162458 0.017268982 -0.088629566
0.1338879 0.114827126 -0.041242052 -0.09297279 0.018382983 -0.21516138 0.22675127 0.06259809
-0.22616756 0.11275003 -0.22097816 -0.08707077 0.04905668 -0.05791774 0.1860052 0.20112649
-0.1192483 0.19005664 0.08199818 0.13677086 0.005305029 0.10525239 -0.09287772 -0.022374531
0.095846854 -0.2539821 -0.03115852 0.08190966 0.02966696 -0.057881605 0.27914798 0.15243314
-0.11802457 -0.23375425 0.066442735 -0.0355219 0.006030803 0.2220152 -0.09590563 0.047674265
-0.21112773 -0.18370059 0.008323669 -0.12688524 -0.24890788 -0.12681286 -0.20288089 -0.0014369972
0.2990393 0.095503114 -0.042993836 -0.09295607 0.11393389 -0.031943172 0.10074329 -0.112981975
-0.15151654 -0.112860665 -0.059594803 -0.24251759 -0.020431848 -0.020305263 0.04162845 0.06067438
-0.123326585 -0.08097843 -0.15893976 -0.34636635 0.07898095 0.10314173 -0.1886758 -0.079746895
-0.201886 -0.04092613 -0.25199878 0.13244815 0.07416516 0.13740265 0.095973276 0.020826295
-0.07398542 -0.19560789 -0.0034539073 0.070034854 -0.13496384 -0.00913094 0.22856665 0.0050282
-0.08277333 0.0976952 0.056809414 0.10046144 0.11022494 0.024261765 0.20555006 -0.064299256
0.050779928 0.17375511 -0.05998201 -0.099831834 -0.18400995 -0.12090001 -0.23607919 -0.05016405
-0.031627726 -0.0639395 -0.12114271 0.25393152 0.00044610826 -0.037696984 -0.14854304 -0.06546078
0.0445119 0.06913854 0.21740049 0.24904978 0.1175893 0.07518416 0.31677562 -0.02526469
-0.052172936 -0.019158322 -0.21491618 -0.20171133 -0.01579894 0.03595428 -0.07373485 -0.03187734
0.042360816 0.13543443 -0.03889156 -0.14727968 -0.4142759 -0.045471407 -0.07852864 -0.0200741
0.19066074 -0.011657614 -0.15551957 0.34868696 0.10399023 0.11386276 0.1950812 -0.061255768
0.034606095 -0.0052933353 0.03199927 -0.06595478 0.047283176 -0.07956779 0.09214056 -0.09732871
-0.022309273 0.025243035 -0.04679185 0.25400555 -0.032634266 -0.016198797 0.0005101478 0.2768743
-0.09912842 0.13975458 -0.062116835 -0.15294047 0.10860763 -0.113578625 -0.040180527 -0.14975111
-0.09038883 0.048183665 0.035852995 0.10340775 0.10854249 0.14044489 -0.277769 0.08406541
-0.14951357 -0.18112546 -0.05224718 0.094321 -0.29450536 -0.0035205164 0.06601374 0.1632481
0.08108061 -0.10836383 0.12929083 -0.05750168 -0.012228308 -0.014980486 0.07973269 0.095426045
-0.031186894 -0.007664248 0.3605298 0.026068358 -0.02662176 0.12454615 0.021805687 -0.06116715
-0.0049641645 -0.018705206 0.028359024 -0.05940609 0.08880399 -0.20637976 0.05692991 0.21912694
-0.09961816 -0.036091562 0.14065966 -0.19676277 0.030279454 -0.15924731 0.07578289 0.07936381
-0.024276301 0.10769339 0.12109955 -0.13244404 0.12789792 -0.02655453 0.131646 -0.13915896
0.24130186 -0.05858825 0.122471936 -0.05673263 -0.15672474 0.08126342 0.084193155 0.028707568
00000000: 9423 973d 9c8a 7e3d 71ad 87be 6f76 e2bc
00000010: 9265 e5bd 7f20 e93d d4b9 ab3d 54c0 9c3e
00000020: d909 3fbe d90f aabd 0a06 c73d 3170 893c
00000030: cc18 a0bd 5b16 9c3d c19f e83d 79c8 bbbd
00000040: b9c2 913b 7c97 993e 64e7 a73d 6489 9fbd
00000050: 6be1 0e3d 645b 26be ae77 8d3c 6b83 b5bd
00000060: e919 093e 7c2a eb3d 6ded 28bd 8568 bebd
00000070: e997 963c 4453 5cbe 7c31 683e 6d33 803d
00000080: 7898 67be 7de9 e63d 1948 62be 2952 b2bd
00000090: a8ef 483d 273b 6dbd 2678 3e3e 1af4 4d3e
000000a0: 7438 f4bd 359e 423e a9ee a73d a90d 0c3e
000000b0: cfd5 ad3b 918e d73d ad36 bebd cb4a b7bc
000000c0: 5b4b c43d f109 82be 2740 ffbc 40c0 a73d
000000d0: 2008 f33c 4315 6dbd 7cec 8e3e 6f17 1c3e
000000e0: deb6 f1bd 465d 6fbe 2113 883d 697f 11bd
000000f0: 0b9e c53b f457 633e 2c6a c4bd 1746 433d
00000100: de31 58be 021c 3cbe 0060 083c 34ee 01be
00000110: b5e1 7ebe 3bdb 01be 02c0 4fbe a059 bcba
00000120: ae1b 993e 2397 c33d 4e1a 30bd c15f bebd
00000130: 2c56 e93d d8d6 02bd 7f52 ce3d 1863 e7bd
00000140: 2727 1bbe 7e23 e7bd ae19 74bd 8856 78be
00000150: b160 a7bc 3957 a6bc 9882 2a3d b385 783d
00000160: a692 fcbd 05d8 a5bd 1bc1 22be ee56 b1be
00000170: c4c0 a13d f93b d33d 3b34 41be 5752 a3bd
00000180: 34bb 4ebe 28a2 27bd fc05 81be 7da0 073e
00000190: e7e3 973d 48b3 0c3e a38d c43d e89b aa3c
000001a0: ab85 97bd 6f4d 48be f35a 62bb 6f6e 8f3d
000001b0: f633 0abe f099 15bc 600d 6a3e 99c3 a43b
000001c0: 1085 a9bd 6c14 c83d fdb0 683d babe cd3d
000001d0: 9dbd e13d 9cc0 c63c b77b 523e 54af 83bd
000001e0: 9dfe 4f3d dcec 313e b2af 75bd a274 ccbd
000001f0: 1b6d 3cbe 6d9a f7bd bebe 71be d278 4dbd
00000200: 138c 01bd b6f2 82bd ab19 f8bd 5003 823e
00000210: a3e3 e939 2768 1abd ab1b 18be 4d10 86bd
00000220: 1c52 363d 8298 8d3d 3c9e 5e3e e806 7f3e
00000230: a9d2 f03d 27fa 993d 6a30 a23e e5f7 cebc
00000240: 4ab3 55bd eaf1 9cbc fd12 5cbe 6a8d 4ebe
00000250: c76c 81bc cc44 133d 4c02 97bd d091 02bd
00000260: 8982 2d3d 53af 0a3e c24c 1fbd 7cd0 16be
00000270: f91b d4be 3a40 3abd a0d3 a0bd 7072 a4bc
00000280: 923c 433e 94ff 3ebc 8640 1fbe 1987 b23e
00000290: d4f8 d43d e130 e93d 5ec3 473e 54e7 7abd
000002a0: 1fbf 0d3d b773 adbb ab11 033d 4d13 87bd
000002b0: 01ac 413d 70f4 a2bd 31b4 bc3d 4654 c7bd
000002c0: f0c1 b6bc 7bca ce3c d0a8 3fbd 040d 823e
000002d0: 82ab 05bd 57b3 84bc 70bb 053a 78c2 8d3e
000002e0: d703 cbbd d31b 0f3e 396e 7ebd 6d9c 1cbe
000002f0: ad6d de3d e99b e8bd 5694 24bd 5b58 19be
00000300: c71d b9bd 3c5c 453d 97da 123d 71c7 d33d
00000310: 864b de3d c9d0 0f3e bd37 8ebe 7c2a ac3d
00000320: 161a 19be f478 39be 2401 56bd 5e2b c13d
00000330: 68c9 96be 77b8 66bb 3632 873d 832a 273e
00000340: 970d a63d dbed ddbd d164 043e e286 6bbd
00000350: 3e59 48bc b670 75bc e44a a33d bb6e c33d
00000360: a87b ffbc 5f24 fbbb 5d97 b83e 4f8d d53c
00000370: e115 dabc 0d12 ff3d d7a1 b23c 688a 7abd
00000380: 6eaa a2bb a93b 99bc 2f51 e83c cd53 73bd
00000390: dede b53d 3755 53be 562f 693d d062 603e
000003a0: 9b04 ccbd bfd4 13bd 1609 103e 2e7c 49be
000003b0: 9e0c f83c ba11 23be 0f34 9b3d 7e89 a23d
000003c0: 18df c6bc 5a8e dc3d 0a03 f83d 699f 07be
000003d0: acf7 023e e388 d9bc 36ce 063e b07f 0ebe
000003e0: d617 773e 3cfa 6fbd 91d2 fa3d 7960 68bd
000003f0: 737c 20be 706d a63d 766d ac3d 222c eb3c

up1.bias f4 [16]
0.01972382 -0.032928154 0.026924767 -0.032225903 -0.026219234 -0.029649137 -0.030232435 -0.02855807
-0.023615966 0.024014367 -0.01946083 0.02612739 0.02842598 0.025961507 -0.025836857 -0.025304845
00000000: d993 a13c acdf 06bd 5491 dc3c 4fff 03bd
00000010: b8c9 d6bc bfe2 f2bc 03aa f7bc 9df2 e9bc
00000020: 4576 c1bc c7b9 c43c 526c 9fbc 1c09 d63c
00000030: 9add e83c 3aad d43c d1a7 d3bc 1b4c cfbc

dec1.0.weight f4 [16, 32, 3, 3]
0.07974259 0.0969481 0.08378279 0.08260798 0.114125334 -0.086452454 0.06810652 0.14919952
-0.23011969 0.02906487 -0.075763874 0.003749718 -0.20279585 0.09354943 0.19038257 -0.07751749
0.03136064 0.0420099 0.027899854 -0.108138725 0.1640075 0.070594504 0.026144614 0.06262047
-0.11165952 -0.003406749 0.26778176 -0.105462044 0.010401375 -0.20446976 -0.2521669 -0.016078945
-0.12839048 -0.10223083 0.04676505 0.11057606 0.021867167 0.20005988 -0.032839954 -0.005465511
-0.054302566 0.013492537 -0.0332455 -0.090680435 0.20257501 0.007956946 0.1224413 0.10891615
0.08958117 0.103065625 0.08019921 0.010956867 0.04619995 0.020792719 -0.11260288 0.11446437
-0.02939374 -0.14739378 0.10844916 0.07118395 0.17857532 0.11407882 -0.06849865 -0.07978012
-0.11091816 -0.25735614 -0.27266952 -0.00060967973 -0.0208294 -0.19718868 -0.06626602 -0.21902415
0.010801768 -0.22364977 0.19904813 0.05756012 -0.068368666 0.20462145 -0.25055903 -0.19534512
0.17469212 0.21294011 0.18721941 0.037972476 -0.046952106 0.08351947 -0.026625175 0.018220067
-0.0057329857 0.10818919 0.06889825 -0.07882099 -0.08711574 0.14585687 -0.15823144 0.1161275
-0.104188524 -0.039787315 -0.11840602 -0.06667612 -0.06967062 0.31166914 -0.15477745 0.14255852
0.059677448 0.2950745 -0.10093042 0.047307484 -0.0094964905 -0.0998425 -0.19155638 0.001495768
0.013233321 0.09670813 0.02341414 0.061612684 -0.10734881 0.10502296 -0.34302455 -0.08615904
-0.108829014 -0.046052102 0.03776712 -0.21840951 0.095998526 0.18915486 -0.014425771 0.0013588143
0.054213423 -0.19522604 -0.042659007 0.024887957 0.16841899 0.042743962 -0.002816302 0.14937855
-0.1989801 -0.07308786 0.06539149 0.00040156094 -0.026581522 0.021371769 0.37595177 0.088579245
-0.007881926 0.12159902 -0.043288596 -0.029789554 -0.006657668 -0.109767154 0.06792321 0.015537735
-0.19264047 0.06625846 -0.15318981 0.09975561 -0.052574433 -0.09166501 0.11718408 0.09694774
-0.056819666 -0.0477404 0.015365057 0.18255551 0.07765118 0.06238533 0.24336484 0.17121974
0.013039161 -0.018366612 -0.03620902 -0.04552026 0.07224358 -0.010529897 0.01974543 0.10252405
0.018059228 -0.25197142 0.08283591 -0.08889447 0.10886738 -0.06630008 -0.026890988 0.09974095
0.0490233 0.22706792 -0.069162615 -0.062417958 -0.22221135 -0.099692516 -0.22829196 0.055948935
-0.036645822 -0.0082004145 -0.12795548 0.28629267 -0.034317024 -0.056392264 -0.07010149 -0.18980767
-0.17262164 -0.024935903 -0.13628326 -0.08776772 -0.02830856 0.115457565 0.03541833 -0.08223741
-0.11393419 -0.12997578 -0.1440014 0.14830583 -0.10713105 -0.012864215 0.1878053 0.06987595
-0.14129794 -0.062540725 -0.11800711 0.018681487 -0.13175774 0.14294131 -0.09720761 -0.04199594
-0.015528786 -0.16832295 -0.031325612 0.29040787 0.16516063 0.10018538 0.01043867 0.007057124
0.12401925 0.044903792 -0.32427183 -0.08589689 0.15594961 -0.16799495 0.015903654 -0.019965654
0.10681492 -0.267498 0.06329845 -0.24478541 0.004742643 0.050167784 0.07562439 -0.10318746
-0.09563776 0.097287655 0.01902041 -0.037360985 -0.09680362 0.064817436 0.006517984 -0.1336636
00000000: 1550 a33d ba8c c63d 5096 ab3d 5f2e a93d
00000010: 8bba e93d fc0d b1bd 6e7b 8b3d c2c7 183e
00000020: 7fa4 6bbe 7319 ee3c 172a 9bbd d4bd 753b
00000030: b7a9 4fbe d896 bf3d a6f3 423e 7dc1 9ebd
00000040: 0474 003d 9312 2c3d 3c8e e43c d677 ddbd
00000050: 95f1 273e da93 903d 3b2d d63c 293f 803d
00000060: bfad e4bd c443 5fbb b11a 893e 7cfc d7bd
00000070: 876a 2a3c 8560 51be 051c 81be feb7 83bc
00000080: cb78 03be 665e d1bd b68c 3f3d b475 e23d
00000090: c622 b33c 7fdc 4c3e 3083 06bd 0818 b3bb
000000a0: 5e6c 5ebd cd0f 5d3c 6f2c 08bd aab6 b9bd
000000b0: d36f 4f3e da5d 023c 81c2 fa3d 6e0f df3d
000000c0: 5576 b73d 1214 d33d 7c3f a43d 6e84 333c
000000d0: 293c 3d3d 7e55 aa3c 579c e6bd 4c6c ea3d
000000e0: 24cb f0bc 65ee 16be 981a de3d e4c8 913d
000000f0: 73dc 363e 28a2 e93d 0549 8cbd c263 a3bd
00000100: 0f29 e3bd 2fc4 83be 579b 8bbe ead2 1fba
00000110: 6ba2 aabc d4eb 49be 7bb6 87bd de47 60be
00000120: e6f9 303c 7204 65be 46d3 4b3e 29c4 6b3d
00000130: df04 8cbd 4988 513e 4649 80be 8d08 48be
00000140: 7ee2 323e f90c 5a3e 72b6 3f3e 0789 1b3d
00000150: da50 40bd 420c ab3d 0a1d dabc 4042 953c
00000160: c5db bbbb 4b92 dd3d 871a 8d3d e66c a1bd
00000170: bd69 b2bd 815b 153e 6c07 22be 41d4 ed3d
00000180: cb60 d5bd 06f8 22bd db7e f2bd 7d8d 88bd
00000190: 78af 8ebd 1993 9f3e fb7d 1ebe dcfa 113e
000001a0: 5770 743d 0114 973e 9cb4 cebd 7ec5 413d
000001b0: 2b97 1bbc 3a7a ccbd 5b27 44be a50d c43a
000001c0: 92d0 583c e90e c63d 03cf bf3c 955d 7c3d
000001d0: b1d9 dbbd 4716 d73d eaa0 afbe 2774 b0bd
000001e0: bfe1 debd 21a1 3cbd b2b1 1a3d bea6 5fbe
000001f0: e09a c43d d0b1 413e 125a 6cbc 3e1a b23a
00000200: e50e 5e3d 56e9 47be 36bb 2ebd d4e1 cb3c
00000210: 0776 2c3e 4b14 2f3d b591 38bb b1f6 183e
00000220: 70c1 4bbe 17af 95bd f9eb 853d 9988 d239
00000230: 7ec1 d9bc d913 af3c c07c c03e 0969 b53d
00000240: 3223 01bc e808 f93d 624f 31bd 3909 f4bc
00000250: 9128 dabb 9acd e0bd 531b 8b3d fc91 7e3c
00000260: 8b43 45be 84b2 873d cadd 1cbe ab4c cc3d
00000270: 4a58 57bd ddba bbbd 35fe ef3d 898c c63d
00000280: bdbb 68bd 708b 43bd b8bd 7b3c d5ef 3a3e
00000290: 9507 9f3d c387 7f3d a234 793e 3a54 2f3e
000002a0: 35a2 553c 9475 96bc e94f 14bd 7473 3abd
000002b0: 71f4 933d 9785 2cbc 2bc1 a13c 21f8 d13d
000002c0: f2f0 933c 6602 81be e0a5 a93d 4e0e b6bd
000002d0: dcf5 de3d 56c8 87bd 7d4a dcbc fc44 cc3d
000002e0: a8cc 483d 7e84 683e 21a5 8dbd f9a9 7fbd
000002f0: 5f8b 63be 972b ccbd 5ec5 69be b62a 653d
00000300: ee19 16bd 085b 06bc c306 03be f494 923e
00000310: 0290 0cbd 93fb 66bd 5f91 8fbd f15c 42be
00000320: bac3 30be 6146 ccbc d78d 0bbe 90bf b3bd
00000330: 5ae7 e7bc 0475 ec3d d012 113d 166c a8bd
00000340: 5456 e9bd 5f18 05be 1a75 13be 7cdd 173e
00000350: 8667 dbbd 6ec4 52bc 0850 403e 1f1b 8f3d
00000360: 68b0 10be 5a15 80bd b6ad f1bd eb09 993c
00000370: 80eb 06be 355f 123e c914 c7bd ef03 2cbd
00000380: 736c 7ebc da5c 2cbe 494f 00bd 57b0 943e
00000390: de1f 293e fe2d cd3d f506 2b3c 723f e73b
000003a0: cefd fd3d 0aed 373d f506 a6be b5ea afbd
000003b0: 41b1 1f3e de06 2cbe 6148 823c 038f a3bc
000003c0: c8c1 da3d 7ff5 88be 9ea2 813d 07a9 7abe
000003d0: 2c68 9b3b bc7c 4d3d f6e0 9a3d f253 d3bd
000003e0: bbdd c3bd c03e c73d b1d0 9b3c d507 19bd
000003f0: fa40 c6bd 01bf 843d d094 d53b 1cdf 08be

dec1.0.bias f4 [16]
0.022017341 0.025523718 0.027774194 0.029202707 -0.021153621 -0.03616256 0.02277935 0.02428593
-0.00022486996 -0.0011966609 0.0031206666 -0.0076948483 -0.016137175 0.021846395 -0.004399679 0.024562767
00000000: b65d b43c 1e17 d13c b586 e33c 843a ef3c
00000010: 5c4a adbc 311f 14bd c29b ba3c 49f3 c63c
00000020: 12cb 6bb9 47d9 9cba 1984 4c3b 1125 fcbb
00000030: 1c32 84bc 36f7 b23c 2f2b 90bb db37 c93c
