sampling_based_planning_framework/checkpoints/checkpoint_epoch_28.pth (torch, 385842 bytes, 75 tensors)

enc1.0.weight f4 [8, 1, 3, 3]
0	0xbdce28da	-0.100663856
1	0x3ddd7bdf	0.10814642
2	0x3d30ef28	0.043196827
3	0x3e0ff8ae	0.14059708
4	0xbdf10749	-0.11768968
5	0x3da64425	0.08118466
6	0x3d182179	0.037141297
7	0xbe35ed57	-0.17766319
8	0xbd8e1e5a	-0.06939383
9	0x3e2c3a76	0.16819176
10	0xbe1409c1	-0.14456846
11	0x3d43c79b	0.04779778
12	0x3e549a05	0.20761879
13	0xbd726376	-0.059176885
14	0x3e066c01	0.13127138
15	0xbd163d79	-0.03667972
16	0x3e07e873	0.13272266
17	0xbce73091	-0.0282214
18	0x3e2c8e5c	0.16851181
19	0xbe4bc875	-0.19900687
20	0xbdc6ac40	-0.09700823
21	0x3e1c1726	0.15243205
22	0xbd804d05	-0.0626469
23	0xbde83f71	-0.113402255
24	0xbeaf26ce	-0.34209293
25	0xbe06b184	-0.13153654
26	0xbd8840e0	-0.06652999
27	0x3d31608e	0.043304972
28	0x3caa46f3	0.020785784
29	0xbdffc45c	-0.124886245
30	0x3d275798	0.04085502
31	0x3d9fe1a0	0.078067064
32	0x3e892da3	0.2679263
33	0xbc46152b	-0.012090008
34	0x3b25606f	0.002523448
35	0x3b3de9b9	0.002897842
36	0xbd21e449	-0.03952435
37	0x3cb5135e	0.022103962
38	0xbd55d033	-0.052200507
39	0xbe692140	-0.2276659
40	0x3e48f8b1	0.19626118
41	0xbcfcbc75	-0.030851582
42	0xbd6d23b8	-0.057895392
43	0x3dded276	0.10879986
44	0xbe8b6068	-0.2722199
45	0x3e5caf2e	0.21551201
46	0x3e6e65e0	0.2328105
47	0xbd7abe1b	-0.061216455
48	0x3eb97526	0.3622219
49	0xbd299e6c	-0.04141085
50	0xbddbf3f7	-0.10739892
51	0x3dacc40d	0.08435831
52	0xbeac0375	-0.33596388
53	0xbe792cc9	-0.2433349
54	0x3cd1dd52	0.025618229
55	0x3c4ae1e9	0.012382963
56	0x3d941efb	0.072324716
57	0x3de6e44f	0.11274015
58	0xbd9d872a	-0.07691796
59	0x3ef5b6e3	0.47991094
60	0xbcd20bf4	-0.025640465
61	0x3dc64e2b	0.09682878
62	0x3d77667c	0.06040047
63	0x3dce7838	0.10081524
64	0xbeb192a9	-0.34682205
65	0x3d8748d1	0.066056855
66	0xbe022a89	-0.12711538
67	0xbd5f6f74	-0.05454965
68	0x3e6517f3	0.22372417
69	0x3d5c6d58	0.053815216
70	0xbdebf363	-0.11521032
71	0x3cd607d7	0.026126785

enc1.0.bias f4 [8]
0	0x3d041614	0.032247618
1	0x3bbdd6aa	0.005793412
2	0x3cf8a398	0.030351445
3	0xbb315166	-0.0027056574
4	0x3cfbf8c9	0.030758278
5	0x3a6389e8	0.00086799124
6	0xb7d8be72	-2.583789e-05
7	0xb8337aea	-4.27914e-05

enc1.2.weight f4 [8, 8, 3, 3]
0	0x3de1764e	0.11008893
1	0x3d67e715	0.05661686
2	0xbd810e1d	-0.0630152
3	0xbe830a30	-0.2559371
4	0x3ef3ad6a	0.47593242
5	0x3dfdf41b	0.12400075
6	0xbd837b47	-0.06419998
7	0x3cbe2fef	0.023216216
8	0xbce6c492	-0.028169904
9	0xbdd158a9	-0.10221989
10	0xbe0b416a	-0.13599172
11	0xbe022eec	-0.12713212
12	0xbded08a6	-0.11573915
13	0xbe0afd27	-0.13573132
14	0x3e2571f5	0.16156752
15	0x3e27b8c3	0.16379075
16	0x3e11568a	0.14193168
17	0xbe79f64a	-0.24410358
18	0x3d89a7d0	0.06721461
19	0x3e476712	0.19472912
20	0x3e192200	0.14954376
21	0xbe05c09e	-0.13061759
22	0x3de43e02	0.111446396
23	0xbe00328e	-0.12519285
24	0xbe644ecd	-0.22295685
25	0x3dbd9212	0.09256376
26	0xbc2962a7	-0.010338462
27	0x3bc39640	0.005968839
28	0xbd9abf3b	-0.075560056
29	0xbe5bcf1b	-0.21465723
30	0x3e0a33db	0.13496344
31	0xbcc5874e	-0.02411237
32	0xbb5a3356	-0.0033294759
33	0xbd8ae5b2	-0.06782092
34	0xbc747936	-0.014921477
35	0xbe620bf4	-0.22074872
36	0xbd302e2d	-0.043012787
37	0x3d18a3a0	0.03726542
38	0x3e2d7f95	0.169432
39	0xbe4ea334	-0.20179445
40	0x3db4b571	0.0882367
41	0x3da47abe	0.08031224
42	0x3d58927e	0.05287408
43	0xbd053f9d	-0.03253137
44	0x3e2cbd11	0.16868998
45	0x3d47cd46	0.04877975
46	0xbea84b46	-0.3286993
47	0x3d48803b	0.048950415
48	0xbd398640	-0.045294046
49	0x3e8ddbc8	0.27706742
50	0xbe974f92	-0.29552895
51	0x3de48a87	0.111592345
52	0xbe4f68f7	-0.20254885
53	0xbe22819f	-0.15869759
54	0xbdddf02e	-0.10836826
55	0x3de134b2	0.10996379
56	0xbc8ac3e6	-0.016939115
57	0x3daf2992	0.08552851
58	0xbdb727a9	-0.089431114
59	0xbd120415	-0.035648424
60	0x3d090db5	0.033460338
61	0xbee6233d	-0.4494876
62	0x3bd41dd5	0.006473283
63	0xbd83d4b9	-0.06437058
64	0xbd6d2784	-0.057899013
65	0x3e7f83b1	0.2495258
66	0xbd5a156a	-0.05324308
67	0x3d67bdfd	0.05657767
68	0x3d40fa11	0.047113482
69	0x3bb9d757	0.0056714225
70	0xbd77acf1	-0.060467664
71	0xbd91f848	-0.07127434
72	0xbe4a0bf8	-0.19731128
73	0xbbb2f7fb	-0.0054616905
74	0x3d1721b6	0.036897384
75	0x3e14f297	0.14545666
76	0x3e2184cd	0.15773316
77	0x3da06426	0.07831602
78	0xbe24984d	-0.16073723
79	0x3e330db5	0.17485698
80	0xbe5a8f93	-0.21343832
81	0xbd5e7fec	-0.054321215
82	0x3e77f972	0.2421625
83	0xbe017de4	-0.1264568
84	0x3e2e4a1b	0.17020456
85	0xbe1c4f27	-0.15264569
86	0x3de1642e	0.11005436
87	0x3c9e5c04	0.019330986
88	0xbeb7e502	-0.35916907
89	0x3e169475	0.1470507
90	0xbbf88c69	-0.0075850976
91	0xbe908347	-0.28225157
92	0x3e75b809	0.23995985
93	0xbcbde314	-0.023179568
94	0x3e1cb3d4	0.15302974
95	0x3da83ac9	0.082143374
96	0x3d31d9e6	0.043420695
97	0x3e231f39	0.15929879
98	0xbe09b6c6	-0.13448629
99	0x3db58b98	0.08864516
100	0xbc711e9a	-0.014716769
101	0x3e6bd8c1	0.23031904
102	0x3eb2664b	0.34843668
103	0xbdc90351	-0.09815086
104	0xbbc62e49	-0.006047998
105	0x3c57c3b7	0.013169221
106	0x3efa6c77	0.48910877
107	0x3e038d7a	0.12846938
108	0xbe829fe4	-0.25512612
109	0x3d657dba	0.056028105
110	0xbd0130c8	-0.031540662
111	0xbead5372	-0.33852726
112	0x3e09bfc3	0.13452058
113	0xbe270551	-0.16310622
114	0xbc935ca2	-0.017988507
115	0x3e17117b	0.14752762
116	0x3ec1acd7	0.3782718
117	0xbd976e1f	-0.07394051
118	0xbe884a5a	-0.26619226
119	0xb9e9f294	-0.00044621958
120	0x3d9b83bc	0.07593486
121	0x3e4bcab6	0.19901547
122	0x3deab99c	0.114611834
123	0x3cc2589a	0.02372389
124	0xbdbbe237	-0.091740064
125	0xbca02ac9	-0.019551652
126	0x3e79c810	0.24392724
127	0xbd16821d	-0.03674518
128	0xbe91a295	-0.28444353
129	0x3e8fba92	0.2807203
130	0x3e2d5678	0.16927516
131	0xbdfbd6cb	-0.12296828
132	0x3ecc9514	0.39957488
133	0x3e2b9d82	0.16759303
134	0x3d6cf0b1	0.05784673
135	0x3d0a32f2	0.03373999
136	0x3e97610c	0.29566228
137	0xbd49ebcc	-0.04929714
138	0x3e7fa312	0.2496455
139	0x3e4b9c71	0.19883896
140	0x3dd96358	0.106146514
141	0x3e27cc6b	0.16386573
142	0xbdf8c587	-0.1214705
143	0x3d7dd536	0.061970912
144	0x3e09f9ef	0.13474248
145	0x3e27e70d	0.16396733
146	0x3bbb6195	0.00571842
147	0x3e2dde3c	0.16979307
148	0x3dc3f585	0.095683135
149	0xbde096e8	-0.10966283
150	0x3dcec575	0.10096256
151	0x3f05f77b	0.5233075
152	0xbe2c4a0d	-0.16825123
153	0xbeb7dbcc	-0.3590988
154	0xbe2a7163	-0.16644816
155	0x3d722c08	0.059124023
156	0x3e8126e7	0.25224993
157	0xbd9f35e7	-0.07773953
158	0xbd63735c	-0.055529937
159	0x3e18b400	0.14912415
160	0xbeced2d5	-0.40395227
161	0xbe2c7fd9	-0.16845645
162	0xbe7bbe1b	-0.24584238
163	0xbde7b9b2	-0.113147154
164	0xbeaab801	-0.3334351
165	0x3daabc72	0.08336724
166	0x3d7b7517	0.061390962
167	0x3e7ddb73	0.24790744
168	0x3da84306	0.08215909
169	0x3e3a46bf	0.1819105
170	0xbd9f9bf5	-0.07793418
171	0x3e8098ac	0.2511648
172	0xbd81f589	-0.0634566
173	0xbc577e3f	-0.013152658
174	0xbd7503f3	-0.05981822
175	0x3c14b5fa	0.00907659
176	0x3c24887d	0.010042307
177	0xbe1f0ace	-0.15531465
178	0xbe2014ea	-0.15632978
179	0xbe1e826a	-0.15479437
180	0x3e11e445	0.14247234
181	0xbd968dbc	-0.073512524
182	0x3eab6e1e	0.3348245
183	0xbe5c141a	-0.21492043
184	0xbd29cf4d	-0.041457463
185	0x3e1a3ebd	0.15062995
186	0xbe136e8e	-0.14397642
187	0xb9eab1e8	-0.00044764508
188	0x3c6acb4c	0.014330696
189	0xbe0881fc	-0.13330835
190	0xbe93d2fd	-0.2887191
191	0x3e9ddee3	0.30834112
192	0x3df9eb71	0.1220311
193	0xbe960119	-0.29297712
194	0xbe8c59e0	-0.2741232
195	0x3da31afd	0.07964132
196	0xbe82e2d9	-0.25563696
197	0x3d25610e	0.04037576
198	0x3db2635c	0.087103575
199	0xbd903908	-0.07042128
200	0xbe2d2827	-0.16909848
201	0xbe8f278f	-0.27959868
202	0x3e96ac54	0.2942835
203	0x3d2c809a	0.04211483
204	0xbe363a1d	-0.17795606
205	0xbda9aab0	-0.08284509
206	0x3d7131c2	0.058885343
207	0x3d5aa292	0.053377695
208	0xbdcc3d44	-0.09972623
209	0xbcdd1c4b	-0.02699103
210	0x3e968617	0.29399177
211	0xbe0ebf80	-0.13940239
212	0xbe1fe553	-0.15614824
213	0x3d81041e	0.062996134
214	0x3e060f0a	0.13091674
215	0x3c601a48	0.013678141
216	0x3cbd38d7	0.023098392
217	0x3e86d4f0	0.26334333
218	0xbc6256bb	-0.0138146235
219	0xbd434619	-0.047674272
220	0x3d20884f	0.039192494
221	0xbe5084dd	-0.20363183
222	0x3e30b4e3	0.17256503
223	0xba1f9077	-0.00060868956
224	0x3cf3d537	0.029764755
225	0xbe9344d4	-0.2876345
226	0xbebc3f10	-0.36766863
227	0xbe595259	-0.2122282
228	0xbbfde278	-0.0077479444
229	0xbe3b979f	-0.18319558
230	0xbdcfacd7	-0.101403885
231	0x3e4d74be	0.20064065
232	0x3e2e0aea	0.16996351
233	0x3d7ed809	0.062217746
234	0xbd022d5f	-0.03178155
235	0x3d5889cc	0.05286579
236	0x3d851904	0.06498912
237	0xbdaaea0d	-0.08345423
238	0xbc8a3ceb	-0.016874751
239	0x3dd79a52	0.10527481
240	0x3c5b1315	0.013371249
241	0x3e50aa76	0.20377526
242	0xbe4b15ee	-0.19832584
243	0xbd187594	-0.037221506
244	0x3c13cf80	0.00902164
245	0x3ddfda02	0.109302536
246	0xbe079b58	-0.13242853
247	0xbd9192cc	-0.071080774
248	0xbd425641	-0.04744554
249	0xbc8186ae	-0.01581129
250	0x3e0e399a	0.13889161
251	0x3dcb6dca	0.0993305
252	0x3ec27350	0.379786
253	0xbd57199e	-0.052514665
254	0xbdd9661b	-0.10615178
255	0xbe4e33fd	-0.2013702

enc1.2.bias f4 [8]
0	0xbccfff3e	-0.025390264
1	0x3b018ed9	0.0019768982
2	0x3d0b6566	0.034032248
3	0xbc1302e9	-0.008972862
4	0x399bed76	0.00029740826
5	0x3d01e6f0	0.03171438
6	0x3ce251e3	0.027626937
7	0x3b515953	0.003194411

enc2.0.weight f4 [16, 8, 3, 3]
0	0x3c383a36	0.011244347
1	0xbd45b925	-0.04827227
2	0xbc21fdea	-0.009887198
3	0xbdf1d577	-0.11808293
4	0xbe624703	-0.22097401
5	0x3dc2e679	0.095166154
6	0x3d72c013	0.059265207
7	0xbdc10d5f	-0.094263785
8	0x3e88431f	0.2661371
9	0xbc115fbb	-0.008872922
10	0x3d3d6a29	0.04624382
11	0xbd02e08e	-0.031952433
12	0xbe5a2e91	-0.21306826
13	0x3d802eee	0.06258951
14	0xbd11ecd1	-0.035626236
15	0xbd9db7e1	-0.07701088
16	0xbd42373e	-0.047415964
17	0x3e3893e9	0.18025173
18	0xbca69185	-0.020333061
19	0x3de52eb6	0.1119055
20	0xbe48350b	-0.19551484
21	0xbd5c5cc1	-0.053799395
22	0xbcd2ddee	-0.02574059
23	0xbe14b84f	-0.14523433
24	0x3db98821	0.09059168
25	0x3e8d3ff2	0.2758785
26	0x3dd5571a	0.10417004
27	0xbd4e1705	-0.050314922
28	0x3de28942	0.11061336
29	0x3df0b7b0	0.117537856
30	0xbc8d965d	-0.017283613
31	0xbe20bd45	-0.156972
32	0xbc50c5cd	-0.012742472
33	0xbe385f7a	-0.18005171
34	0xbe23537d	-0.15949817
35	0xbdaa2adc	-0.08308956
36	0x3e25d4ff	0.16194533
37	0xbd62affc	-0.055343613
38	0xbe3d1068	-0.1846329
39	0xbcdb6fa8	-0.02678664
40	0x3cd733d8	0.026269838
41	0xbd365ef2	-0.04452414
42	0xbe07d637	-0.1326531
43	0xbdf73351	-0.12070335
44	0x3d871990	0.065966725
45	0x3d554085	0.052063484
46	0x3d4c3fc1	0.049865488
47	0x3e0df9e1	0.13864852
48	0x3e6049da	0.21903172
49	0xbd18c9d3	-0.03730185
50	0x3e12ce6d	0.14336558
51	0x3e340e1e	0.1758351
52	0xbd2dd31e	-0.042437665
53	0x3de5791e	0.11204742
54	0x3e3e27bb	0.18569843
55	0xbd637016	-0.055526815
56	0xbe9b277e	-0.30303568
57	0xbe34fead	-0.17675276
58	0x3e5059fb	0.20346825
59	0xbd8136d3	-0.06309285
60	0x3db946df	0.09046721
61	0x3e5a5318	0.2132076
62	0x3e42b44a	0.19014087
63	0x3b784a1c	0.003788597
64	0xbe39e391	-0.18153216
65	0x3cb771a1	0.02239305
66	0xbc910951	-0.017704638
67	0xbbf1de4f	-0.0073812376
68	0x3df6f1a9	0.12057812
69	0xbdce75f6	-0.10081093
70	0xbe26b820	-0.16281176
71	0x3b76846a	0.0037615546
72	0x3cad88fc	0.021183483
73	0x3d6aefd9	0.057357643
74	0xbc8a483e	-0.01688015
75	0xbd03c876	-0.032173596
76	0xbd2a1027	-0.04151931
77	0xbdf160a9	-0.117860146
78	0xbdb06a92	-0.08614077
79	0x3aaed589	0.0013338785
80	0x3dee7fef	0.11645495
81	0xbd489ad7	-0.04897579
82	0x3af24f3b	0.0018486747
83	0x3e9cbe97	0.3061416
84	0x3c05ca8e	0.008165969
85	0xbdc8cf31	-0.098051436
86	0x3cc9beea	0.024627168
87	0xbd7d4698	-0.0618349
88	0xbc6509d1	-0.013979391
89	0xbdb3dd95	-0.08782498
90	0x3d0d6ce0	0.03452766
91	0x3cb7de7b	0.022444954
92	0x3e1a0ae2	0.15043214
93	0x3dc046f7	0.093885355
94	0x3d0405bb	0.032232028
95	0x3d8ffd33	0.07030716
96	0xbe57e6dd	-0.21084161
97	0x3deb4f52	0.114897385
98	0x3c98b431	0.01864061
99	0xbcf1162f	-0.029429523
100	0xbdaf5e89	-0.08562953
101	0x3dc5ef21	0.09664751
102	0xbe49cf72	-0.1970804
103	0x3d753576	0.059865437
104	0x3c20f6b1	0.009824441
105	0x3ddecf17	0.10879343
106	0xbe76bc65	-0.24095304
107	0x3cef73bb	0.02922999
108	0x3e1d914e	0.1538746
109	0xbd77261a	-0.06033907
110	0xbce1c5e7	-0.027560188
111	0xbcae7e10	-0.021300346
112	0x3dad3523	0.08457401
113	0x3d835d2f	0.06414258
114	0x3e2a716b	0.16644828
115	0x3e6ed184	0.23322111
116	0x3c63cef8	0.013904326
117	0xbd6480f5	-0.055787046
118	0xbdac21f5	-0.08404914
119	0x3e3f0fd7	0.18658386
120	0x3e387a7f	0.18015479
121	0x3e26b492	0.1627982
122	0x3d9328c6	0.07185511
123	0xbe06086f	-0.13089155
124	0x3dc4c50d	0.09607897
125	0x3e0487e1	0.12942459
126	0x3e5872bf	0.21137522
127	0x3c1d686a	0.009607414
128	0x3d9ec105	0.07751659
129	0x3d28eeac	0.04124324
130	0x3e4e56e9	0.20150341
131	0xbdf86a15	-0.121296085
132	0x3c6ca3cb	0.014443348
133	0xbd17ae49	-0.037031446
134	0x3e4ce8d8	0.20010698
135	0xbe815055	-0.252566
136	0x3e1b4d5b	0.15166228
137	0xbe4f4f50	-0.20245099
138	0xbe20b2f8	-0.15693271
139	0x3d32098c	0.043466136
140	0xbbceecf8	-0.00631487
141	0x3d533446	0.051563524
142	0x3ae5fe56	0.0017547111
143	0xbd912b2f	-0.07088315
144	0xbd9913e6	-0.074744985
145	0xbc8b1eb4	-0.016982414
146	0xbe86b2e6	-0.26308364
147	0xbd0d4625	-0.034490723
148	0x3ca6d632	0.020365808
149	0x3e207e5f	0.15673207
150	0x3e638d14	0.22221786
151	0x3bc2f138	0.0059491657
152	0xbe56ce3c	-0.2097711
153	0xbdf47e95	-0.11938206
154	0xbde7eb0e	-0.1132413
155	0xbe4c3094	-0.19940406
156	0x3dbf50dd	0.09341595
157	0x3e5833de	0.21113536
158	0xbd3e95d9	-0.046529625
159	0x3c63cd3a	0.01390391
160	0xbda1b3d0	-0.07895625
161	0xbe3c0950	-0.18362927
162	0x3e0cae28	0.1373831
163	0x3d3eb1b4	0.04655619
164	0xbe470201	-0.19434358
165	0xbdb138f3	-0.0865344
166	0x3de959a6	0.11394052
167	0x3e180f9a	0.14849702
168	0xbd366345	-0.044528265
169	0xbe057857	-0.13034187
170	0x3da171d7	0.07883041
171	0x3e281556	0.16414389
172	0xbcb45cae	-0.02201685
173	0x3e044b6e	0.12919399
174	0x3e15a5c0	0.1461401
175	0xbbb4aa74	-0.0055134837
176	0xbd355491	-0.044270102
177	0x3e2f6c2b	0.17131107
178	0xbd0eb76f	-0.034842905
179	0xbdcbfea2	-0.09960677
180	0x3cbe74ea	0.023249108
181	0x3da84113	0.08215537
182	0x3dccfbc5	0.10008959
183	0x3e625b5d	0.22105165
184	0x3d811a7e	0.06303881
185	0x3eb6ffa2	0.35741907
186	0x3e97bc71	0.29635957
187	0x3e32e034	0.17468339
188	0x3ddebcbe	0.108758435
189	0xbdd5ab5e	-0.10433076
190	0x3e21854e	0.15773508
191	0xbe2007fb	-0.15628044
192	0xbdbefa66	-0.093251035
193	0xbd9c75ec	-0.07639679
194	0x3e2dbcca	0.16966549
195	0x3e5f16a5	0.21785982
196	0x3d7213e6	0.059101008
197	0xbdd8207f	-0.10553073
198	0x3d5859ca	0.052820005
199	0x3d92e67c	0.07172868
200	0xbcb803d1	-0.022462757
201	0x3d5996ab	0.053122204
202	0x3e1efbd6	0.15525755
203	0x3d805c00	0.062675476
204	0x3de8ad82	0.11361219
205	0x3de519a6	0.11186533
206	0x3cc5e0ff	0.024155138
207	0x3e2ceac9	0.16886438
208	0xbe1ebe8a	-0.15502372
209	0x3cf54c41	0.029943587
210	0x3e31d166	0.17365035
211	0xbc990a01	-0.018681528
212	0x3e82704a	0.25476295
213	0xbe3e57c1	-0.18588163
214	0x3cf93a9c	0.030423455
215	0xbddd5c56	-0.10808627
216	0x3a5eef7b	0.00085043133
217	0x3d8ecd1c	0.06972715
218	0x3e3c7c00	0.18406677
219	0xbcd1a74b	-0.025592467
220	0x3dd40734	0.103529364
221	0x3e972b58	0.29525256
222	0x3b468ec9	0.003029751
223	0xbd37d3e5	-0.044879813
224	0xbdadc4ef	-0.08484828
225	0xbe91ac6b	-0.28451857
226	0xbd997dd0	-0.074947
227	0x3cb8e17d	0.022568459
228	0x3c241a5b	0.010016049
229	0xbe05a0b5	-0.13049586
230	0x3d154341	0.03644109
231	0x3debea71	0.115193255
232	0xba471f18	-0.0007595881
233	0x3dab691a	0.08369656
234	0x3daee9ba	0.085406736
235	0xbd838c02	-0.06423189
236	0xbe0b2492	-0.13588169
237	0xbda5274e	-0.080641374
238	0x3e0028b7	0.12515531
239	0xbe0c1edb	-0.13683645
240	0x3d0eb3a1	0.034839276
241	0x3ceb61d5	0.028733173
242	0x3cae1c67	0.021253778
243	0xbbe7f3fd	-0.007078646
244	0xbde69d35	-0.112604536
245	0x3e785266	0.24250183
246	0x3c1fdb78	0.009756915
247	0xbd396831	-0.04526538
248	0x3d941774	0.07231036
249	0xbde8f7ee	-0.11375414
250	0x3e52c400	0.2058258
251	0x3dd0844c	0.101814836
252	0xbe771762	-0.24130014
253	0xbe5a9eb2	-0.213496
254	0x3d13ed7c	0.036115155
255	0x3cf721cc	0.030167483

enc2.0.bias f4 [16]
0	0x3cf703e3	0.03015322
1	0x3d0bb5bd	0.034108866
2	0xbc8c0553	-0.017092383
3	0x3d21cc5b	0.03950153
4	0x3be182a2	0.0068820277
5	0x3d0223f3	0.031772565
6	0xbcac5a06	-0.02103902
7	0xbcc9f77f	-0.024654148
8	0x3cdb8dd8	0.026801035
9	0x3c4cb928	0.012495317
10	0x3d00870f	0.031378802
11	0x3d0c046b	0.0341839
12	0x3cf55986	0.029949915
13	0x3cf89f72	0.030349467
14	0x3c7ab81f	0.015302687
15	0x3cece6e0	0.028918684

enc2.2.weight f4 [16, 16, 3, 3]
0	0xbabd996a	-0.0014465277
1	0x3d42c593	0.047551703
2	0xbc8f5131	-0.01749477
3	0xbdce0a11	-0.10060514
4	0x3e22d601	0.15901949
5	0x3d4dda60	0.050257087
6	0xbd527ec3	-0.05139042
7	0xbc7dafdd	-0.015483824
8	0x3cb2a81f	0.021808682
9	0xbe018214	-0.12647277
10	0x3e6cc56b	0.23122184
11	0xbddf1b84	-0.1089392
12	0xbe3547bb	-0.17703144
13	0x3d3e7441	0.046497587
14	0x3e456a92	0.19278935
15	0xbe6fb79f	-0.2340989
16	0xbcf2b676	-0.02962802
17	0xbcbfe86d	-0.023426259
18	0xbdc50d83	-0.09621718
19	0xbd820aea	-0.06349738
20	0xbe0d2fa6	-0.13787708
21	0xbda2e9ae	-0.07954727
22	0x3ea1fb14	0.3163687
23	0x3d2d420d	0.04229932
24	0xbcf5870d	-0.029971624
25	0x3e11e812	0.14248684
26	0xbdc2a113	-0.09503379
27	0x3e4b7618	0.19869268
28	0x3e1c1937	0.15243994
29	0xbd00ba86	-0.031427883
30	0x3e1f2b08	0.15543759
31	0x3e296643	0.16542916
32	0xbddcc2ad	-0.10779319
33	0xbd909b54	-0.070608765
34	0xbe9c6229	-0.3054364
35	0x3e332688	0.17495167
36	0xbd1c2cd3	-0.038128685
37	0xbd808052	-0.06274475
38	0x3e0173cd	0.1264183
39	0xbe3b2302	-0.18275073
40	0xbdfe183d	-0.12406967
41	0x3e6bd87a	0.23031798
42	0xbdc64cd0	-0.096826196
43	0xbecbab22	-0.39779
44	0xbdb2f8b5	-0.08738843
45	0x3c7914a5	0.015202676
46	0xbcef0a3b	-0.029179683
47	0x3e02f08f	0.12787078
48	0x3ca80850	0.020511776
49	0xbba67492	-0.0050798142
50	0xbde4828e	-0.11157714
51	0xbdb28d87	-0.087184004
52	0xbe835d77	-0.25657246
53	0xbd9fd36d	-0.07803998
54	0x3c9fc98e	0.019505288
55	0xbd16a11d	-0.036774743
56	0xbdc30f69	-0.09524424
57	0x3e00e781	0.12588312
58	0xbe078a21	-0.13236286
59	0x3e308a58	0.17240274
60	0x3d49f746	0.049308084
61	0x3de8453f	0.11341333
62	0x3d3a13c8	0.04542902
63	0x3d762e03	0.060102474
64	0x3dd1d251	0.10245193
65	0x3d9efdfc	0.077632874
66	0xbe079557	-0.13240562
67	0xbca0580f	-0.01957324
68	0xbe15f494	-0.1464408
69	0x3de822d3	0.11334767
70	0x3e2354dc	0.1595034
71	0xbc16d1cb	-0.009205292
72	0x3e8248f9	0.254463
73	0x3c367bc6	0.011137908
74	0x3e3540df	0.17700528
75	0xbdb62d4f	-0.08895361
76	0x3d7b8218	0.061403364
77	0x3e609e54	0.21935397
78	0xbc087927	-0.008329666
79	0xbe5dfb32	-0.21677855
80	0x3e3d3c69	0.18480076
81	0xbe5943fe	-0.21217343
82	0xbd3d0531	-0.04614753
83	0xbe6925d2	-0.22768334
84	0x3e1788e6	0.14798316
85	0x3e165de6	0.14684257
86	0x3dbe3b9a	0.09288712
87	0xbca58be9	-0.020208316
88	0xbe502103	-0.20325093
89	0x3e41b973	0.189184
90	0xbb590957	-0.003311714
91	0xbe1850a0	-0.14874506
92	0x3dda01f4	0.10644904
93	0xbd85d15b	-0.06534072
94	0x3df91324	0.12161854
95	0x3d1bd210	0.038042128
96	0xbe811ff4	-0.2521969
97	0x3d5a3fd5	0.05328353
98	0x3e39394a	0.1808826
99	0x3dea7816	0.11448686
100	0xbd472caf	-0.048626598
101	0xbd7749f2	-0.060373254
102	0xbd689cea	-0.05679027
103	0x3e1acbe8	0.15116847
104	0x3dbde310	0.09271824
105	0x3d11ae4e	0.03556662
106	0xbcccb14f	-0.024986891
107	0x3d6c8972	0.057748266
108	0xbdad228c	-0.08453855
109	0x3cac01ac	0.020996891
110	0x3e51af8c	0.20477122
111	0xbe54de02	-0.20787814
112	0xbd7062d1	-0.05868799
113	0xbd98a94d	-0.074541666
114	0x3c350d0f	0.011050477
115	0x3e16383f	0.14669894
116	0x3e181ace	0.14853975
117	0x3cb7d31c	0.022439532
118	0x3daed0c8	0.085359156
119	0xbe10e4d3	-0.1414979
120	0x3e148d7c	0.14507097
121	0x3e12887a	0.14309874
122	0xbd65ea8d	-0.05613189
123	0x3dc9ce08	0.098537505
124	0x3c8d7f2c	0.017272554
125	0xbd6b15a3	-0.05739368
126	0x3e22aead	0.15886946
127	0xbd965aa7	-0.07341509
128	0xbdd99cf3	-0.10625639
129	0xbcbd9b31	-0.02314529
130	0xbda463be	-0.08026837
131	0x3d48c04f	0.049011525
132	0xbe7384f9	-0.23781194
133	0x3d694567	0.056950953
134	0xbdc3b941	-0.09556819
135	0xbe07cb39	-0.13261117
136	0x3d073165	0.03300609
137	0x3e18361b	0.1486439
138	0xbdfd8ead	-0.12380729
139	0x3e064816	0.13113436
140	0xbd50f51b	-0.051015
141	0x3d60928f	0.05482727
142	0xbd68d2c9	-0.056841645
143	0x3db5f0d5	0.08883826
144	0x3cc41780	0.023936987
145	0x3d8fbf85	0.07018951
146	0x3dda488c	0.106583685
147	0xbd1b06ae	-0.037848167
148	0x3dd454f0	0.10367763
149	0x3e12899a	0.14310303
150	0x3e34459b	0.17604677
151	0xbdcae6dc	-0.09907314
152	0x3e326bd6	0.17423949
153	0x3e309336	0.17243657
154	0x3db9beee	0.0906962
155	0x3b6bc8e5	0.0035977897
156	0xbe92b501	-0.2865372
157	0x3def248f	0.11676895
158	0xbde5ea2a	-0.11226304
159	0xbb9a10e3	-0.00470172
160	0xbda590e1	-0.08084274
161	0xbe0120c8	-0.12610161
162	0x3e26d962	0.16293862
163	0x3da1175b	0.07865783
164	0x3e04607d	0.12927432
165	0xbe4ec7b9	-0.20193376
166	0xbd8f1c04	-0.069877654
167	0xbd31d0d9	-0.043412063
168	0xbd6339a5	-0.055474896
169	0xbd54974a	-0.051902093
170	0xbd8933cc	-0.066993326
171	0xbe4936d4	-0.19649822
172	0xbe0554c6	-0.1302062
173	0xbda2e431	-0.0795368
174	0x3dfec759	0.12440366
175	0xbc734b89	-0.014849552
176	0xbe59eb32	-0.21281126
177	0xbda67ae2	-0.08128907
178	0xbd57ef66	-0.052718543
179	0x3d896b81	0.06709958
180	0xbc5e6395	-0.013573547
181	0x3d573fd1	0.052551094
182	0x3dd6de8f	0.104916684
183	0x3c99904c	0.018745564
184	0x3da0949b	0.07840844
185	0x3e5be9b0	0.21475863
186	0x3e3434fb	0.17598335
187	0x3e0c8c66	0.13725433
188	0x3c84fccb	0.016233822
189	0xbc8b20df	-0.016983448
190	0x3e363f4f	0.17797588
191	0xbdc2d798	-0.095137775
192	0xbdd0d262	-0.10196377
193	0x3ccf4e1e	0.025305804
194	0x3da30c7c	0.079613656
195	0x3e4ff1f2	0.20307139
196	0x3e876494	0.26443923
197	0xbc0a7f8f	-0.008453264
198	0xbd7d6617	-0.06186494
199	0xbd5d29bc	-0.05399488
200	0xbd54a723	-0.051917206
201	0xbe134723	-0.14382605
202	0x3ded6a81	0.1159258
203	0x3e046c42	0.12931922
204	0xbdc86f50	-0.09786856
205	0xbda4e491	-0.08051408
206	0x3e3a216d	0.18176813
207	0x3dd3b61e	0.103374705
208	0xbe0acb67	-0.13554154
209	0x3e08d789	0.1336347
210	0xbb39a518	-0.0028327163
211	0x3cb4e073	0.022079682
212	0xbd0231a1	-0.03178561
213	0x3da62a2e	0.08113514
214	0xbda948ac	-0.08265814
215	0xbc6bf07d	-0.014400599
216	0x3da6c2df	0.081426375
217	0x3e2672b2	0.1625469
218	0xbe31ef94	-0.17376548
219	0x3c786e75	0.015163054
220	0x3e9fc6f3	0.31206474
221	0x3e0f822f	0.14014505
222	0xbd9339de	-0.07188772
223	0x3c97d221	0.018532814
224	0xbcd8520d	-0.026406312
225	0x3e867c25	0.2626659
226	0xbe0ed414	-0.13948089
227	0xbd808338	-0.06275028
228	0xbd76950d	-0.06020074
229	0x3cb4ee06	0.022086155
230	0xbd139cf0	-0.03603834
231	0xbdc0820d	-0.09399805
232	0xbeae005e	-0.33984655
233	0xbdad180f	-0.084518544
234	0xbcaf667c	-0.021411173
235	0xbe53485f	-0.20633076
236	0x3d6a4f38	0.057204455
237	0x3e1eb9e4	0.15500599
238	0x3d212a0b	0.039346736
239	0xbe93e678	-0.2888677
240	0xbe3550b5	-0.17706569
241	0x3db24b39	0.08705754
242	0xbd374dad	-0.04475181
243	0x3da56600	0.080760956
244	0xbe2ef4c9	-0.17085566
245	0xbda84efe	-0.082181916
246	0x3d80b505	0.06284527
247	0xbe1b25d3	-0.15151148
248	0x3e902839	0.28155687
249	0x3dec93e7	0.11551648
250	0x3ebbe1a9	0.36695603
251	0xbd8d5bcf	-0.06902277
252	0x3cbb38d2	0.022854242
253	0x3ccb09ac	0.024784885
254	0xbccc46e3	-0.024936145
255	0x3e0baa69	0.13639225

enc2.2.bias f4 [16]
0	0x3c8de436	0.017320734
1	0x3cf5a688	0.029986635
2	0x3b4807d4	0.0030522244
3	0x3c4f75a1	0.012662322
4	0x3d06c25f	0.03290021
5	0x3cea55d2	0.028605375
6	0xbb387dca	-0.0028151148
7	0xbbb2890d	-0.0054484666
8	0x3d53749c	0.05162488
9	0x3d00e17f	0.03146505
10	0x3c3db380	0.011578441
11	0x3bc49775	0.0059995004
12	0x3ca7a04c	0.020462178
13	0xbc4773f8	-0.012173645
14	0x3d04a9e4	0.032388583
15	0x3ce6c753	0.028171217

bottleneck.0.weight f4 [32, 16, 3, 3]
0	0xbdba8144	-0.09106687
1	0x3d4d2bff	0.050090786
2	0x3d6785d6	0.05652412
3	0x3ce4d02d	0.027931297
4	0x3dbb4b00	0.091451645
5	0xbca508c7	-0.020145787
6	0x3cd0f4d2	0.025507364
7	0xbbc67070	-0.006055884
8	0xbe33cc97	-0.17558514
9	0xbcbe238b	-0.023210308
10	0xbe518e03	-0.2046433
11	0x3de19fa2	0.11016776
12	0xbc66cac2	-0.014086427
13	0x3d82ab1d	0.063802935
14	0x3e0e63a7	0.13905202
15	0xbe2cdf10	-0.16881967
16	0x3e433117	0.19061695
17	0x3d4f65de	0.050634257
18	0x3d522cf1	0.05131239
19	0x3dd98800	0.10621643
20	0x3da9b03d	0.08285568
21	0xbd4e4e4a	-0.05036763
22	0x3e0beb29	0.13663925
23	0x3e6ac80e	0.22927877
24	0xbd1d788f	-0.03844505
25	0xbb89be1c	-0.004203571
26	0xbb800b75	-0.003907616
27	0x3d678568	0.05652371
28	0xbd8b6f24	-0.06808308
29	0x3d0b23af	0.033969577
30	0xbd3246ab	-0.043524425
31	0xbdd79d4d	-0.105280496
32	0xbbf516b8	-0.007479515
33	0x3df90c25	0.121605195
34	0xbc7efa0f	-0.015562548
35	0xbd9e37df	-0.077255
36	0xbdb4e5bc	-0.08832881
37	0xbd8c4d1f	-0.06850647
38	0xbbc149cf	-0.0058986912
39	0xbd77f5c8	-0.06053713
40	0x3d540634	0.05176373
41	0xbe394e46	-0.18096265
42	0x3dcb441d	0.09925101
43	0xbe0077fd	-0.12545772
44	0x3decfb70	0.115713954
45	0xbd423899	-0.047417257
46	0x3e01a866	0.12661895
47	0x3c334386	0.010941392
48	0xbddf7d8b	-0.10912617
49	0x3db00ecc	0.08596572
50	0xbd7d4ad5	-0.061838944
51	0x3dffd8aa	0.12492497
52	0x3dc57692	0.09641756
53	0xbd5d8f05	-0.054091472
54	0x3ca15437	0.019693477
55	0x3e314860	0.17312765
56	0xbd0dbd36	-0.034604274
57	0x3d82908c	0.063752264
58	0x3cd074f9	0.025446402
59	0xbdb51182	-0.0884123
60	0xbdc4f2b5	-0.09616605
61	0x3e7cc7b0	0.2468555
62	0x3df818a4	0.12114075
63	0xbd4f570f	-0.050620135
64	0x3d416423	0.04721464
65	0xbd18a80f	-0.03726965
66	0x3d301052	0.042984314
67	0x3e24d448	0.16096604
68	0x3def82bb	0.11694857
69	0x3c7d669d	0.015466359
70	0x3bcbc227	0.006218213
71	0xbcd909e4	-0.026493974
72	0xbd9e3c01	-0.077262886
73	0x3bff9358	0.007799547
74	0xbe15dcf6	-0.14635071
75	0xbd498c10	-0.04920584
76	0xbd9d1c4b	-0.07671412
77	0xbccc5eac	-0.024947487
78	0xbdf41692	-0.119183674
79	0x3d2f4ef3	0.0427999
80	0x3e27f515	0.16402085
81	0xbda3af2b	-0.07992395
82	0x3de7794f	0.11302435
83	0x3d891316	0.066930935
84	0xbcdbe5f6	-0.026843052
85	0x3d8a498f	0.067523114
86	0x3e24cee0	0.16094542
87	0xbdd111e9	-0.10208494
88	0x3d02f5a4	0.031972542
89	0x3b25b29e	0.0025283466
90	0x3ce505b2	0.027956817
91	0xbd0802b2	-0.033205695
92	0xbd2edc6b	-0.042690676
93	0x3de29b79	0.1106481
94	0x3e10ba35	0.14133532
95	0x3e0497b0	0.12948489
96	0xbce08f8e	-0.027412202
97	0x3da53d43	0.08068325
98	0xbd1342f9	-0.035952542
99	0x3cdcc227	0.026948048
100	0x3e021035	0.12701495
101	0xbd805414	-0.06266037
102	0xbadd2457	-0.0016871792
103	0x3da95e33	0.0826992
104	0x3c163e1c	0.0091700815
105	0x3d1ee1bc	0.038789496
106	0x3e880268	0.26564336
107	0x3de17187	0.11007982
108	0xbcd5fe1d	-0.026122147
109	0x3cfb5a48	0.030682698
110	0xbd34c704	-0.04413511
111	0x3e1063be	0.14100549
112	0x3d868371	0.06568039
113	0xbdae87d0	-0.08521998
114	0xbd4327b3	-0.047645282
115	0xbd09b0c4	-0.033615842
116	0xbe4ce797	-0.2001022
117	0x3dabae00	0.08382797
118	0x3d4ca530	0.049962223
119	0xbe2ac69c	-0.16677326
120	0x3e2809e8	0.16410029
121	0xbd3d64a7	-0.046238568
122	0x3dabf643	0.0839658
123	0x3d4fe2ed	0.050753523
124	0x3d234e97	0.03986987
125	0x3e64df46	0.22350797
126	0xbd069be6	-0.03286352
127	0x3d2d67d8	0.04233536
128	0xbe0a16a2	-0.13485196
129	0x3d63d082	0.05561877
130	0xbd1d6771	-0.038428728
131	0xbd2082f0	-0.03918737
132	0x3ca3f437	0.020013912
133	0xbdd1ac88	-0.10237986
134	0xbd67a1b1	-0.056550685
135	0x3b5e9a49	0.0033966473
136	0x3e2c9100	0.16852188
137	0x3d180bec	0.037120745
138	0x3d5b45f9	0.053533528
139	0x3d5e5d08	0.05428794
140	0x3d344b26	0.04401698
141	0x3dc83225	0.09775189
142	0x3d5ebcbd	0.054379214
143	0x3d5a3d28	0.05328098
144	0xbc68296d	-0.014170033
145	0xbdee27fd	-0.11628721
146	0x3dbd9687	0.092572264
147	0x3c35f193	0.011104959
148	0x3d1fcd3a	0.03901408
149	0x39996d6f	0.00029263968
150	0xbcc0acd9	-0.02351992
151	0xbdb32559	-0.08747358
152	0x3d5f4b2c	0.05451505
153	0x3da3654c	0.07978305
154	0xbd582275	-0.052767236
155	0x3cde0260	0.027100742
156	0x3d83bbc9	0.064323016
157	0x3b5095d8	0.0031827595
158	0xbe2e9ba8	-0.17051566
159	0xbd366d76	-0.044537984
160	0xbd8926e2	-0.066968694
161	0x3e7b99a4	0.24570328
162	0x3c44fe73	0.012023556
163	0xbe000fe5	-0.12506063
164	0xbd9d6144	-0.076845676
165	0xbd8dc33c	-0.069220036
166	0xbdd2d00c	-0.10293588
167	0x3c6b9267	0.014378167
168	0xbd5a835c	-0.05334793
169	0x3d60dc4e	0.0548976
170	0x3dc1f66d	0.0947083
171	0xbdbc7ee2	-0.092038885
172	0xbd8f285a	-0.06990118
173	0x3d4af262	0.04954756
174	0x3d3fdc4a	0.046840943
175	0xbd5d7464	-0.054066077
176	0x3cd45410	0.02591899
177	0x3d544d6c	0.051831648
178	0x3d0e6d39	0.03477213
179	0x3dce7b6c	0.100821346
180	0x3d47b6f3	0.04875846
181	0x3c5b8ce1	0.013400287
182	0x3dcdce66	0.10049133
183	0x3dfd4710	0.1236707
184	0x3db3afee	0.0877379
185	0x3d9c44b9	0.07630295
186	0x3d5b5f76	0.053557836
187	0xbc854e00	-0.016272545
188	0xbd981474	-0.07425776
189	0xbcb7ed8c	-0.022452138
190	0x3cf87854	0.030330814
191	0xbd50e3d1	-0.050998513
192	0xbcad9d63	-0.021193212
193	0x3ce700ed	0.028198684
194	0xbd16020e	-0.036623053
195	0x3d1cf8e2	0.03832329
196	0xbd1c825b	-0.038210254
197	0x3e051b35	0.1299866
198	0xbdc4d21a	-0.09610386
199	0xbd6e022d	-0.058107544
200	0xbe18b006	-0.14910898
201	0x3caaab37	0.020833595
202	0x3d79eba9	0.06101576
203	0xbe0ce6e7	-0.13759957
204	0x3d82a27e	0.06378649
205	0x3dac4aa5	0.08412675
206	0x3e126a81	0.1429844
207	0xbe2693d6	-0.16267332
208	0xbd20e26d	-0.039278436
209	0xbe5bf945	-0.21481808
210	0x3dccfd2d	0.10009227
211	0x3e60dd5d	0.21959443
212	0xbd492a95	-0.049112875
213	0x3d3c7766	0.046012305
214	0x3cb79e3d	0.022414321
215	0xbd513a5a	-0.05108104
216	0xbdd65cdb	-0.104669295
217	0x3df0a6e9	0.117505856
218	0xbc14af2a	-0.0090749655
219	0x3dbfe6b9	0.09370179
220	0xbade7340	-0.0016971603
221	0x3d31d8cf	0.043419655
222	0xbd38daee	-0.045130663
223	0x3e61eb70	0.22062469
224	0x3dc818a8	0.09770328
225	0x3c92a49b	0.017900756
226	0xbc91f8d3	-0.017818844
227	0xbddda96d	-0.10823331
228	0x3d909ffd	0.07061765
229	0xbdd9defa	-0.106382325
230	0xbd556422	-0.052097447
231	0xbe58cf74	-0.21172887
232	0x3dd21426	0.10257749
233	0xbdcfa8c0	-0.101396084
234	0x3d9b32d1	0.07578052
235	0x3d9f3c0b	0.07775124
236	0xbdc09dc7	-0.09405094
237	0x3e1960ec	0.14978379
238	0xbca76d87	-0.020437969
239	0xbe123b4c	-0.14280432
240	0x3d5ddb32	0.05416412
241	0xba31552c	-0.0006764706
242	0x3dee52a4	0.11636856
243	0xbd389a56	-0.04506906
244	0xbacb254a	-0.0015498784
245	0x3e1f4578	0.15553844
246	0x3df02596	0.11725919
247	0xbb4d28ad	-0.0031304762
248	0x3e074391	0.13209368
249	0x3d959bd2	0.07305111
250	0xbc14b5e0	-0.0090765655
251	0x3e0b55cc	0.13606948
252	0x3da1dd22	0.07903506
253	0x3e0ae567	0.13564073
254	0xbd58cda5	-0.052930493
255	0xbda3d601	-0.079998024

bottleneck.0.bias f4 [32]
0	0xbcee7210	-0.029107124
1	0x3cde06bb	0.027102819
2	0x3cf5c50c	0.030001186
3	0x3d0b1dea	0.033964075
4	0x3ceec150	0.029144913
5	0x3cbca0f4	0.023025967
6	0x3c65a724	0.0140169
7	0xbb95778d	-0.0045613707
8	0x3ce879dc	0.02837842
9	0xbc2c3b7d	-0.01051223
10	0x3c7da07b	0.015480156
11	0x3d19f72b	0.037589233
12	0xbc0d2820	-0.008615524
13	0x3cd310e7	0.025764896
14	0xba66744e	-0.00087911345
15	0x3cfd64f5	0.03093193
16	0x3d0b3f7f	0.0339961
17	0x3c279537	0.010228447
18	0x3cd2c6e5	0.025729606
19	0x3d57c9d7	0.052682724
20	0x3c36e4be	0.011162935
21	0x3d4cf31c	0.050036535
22	0x3cce84a5	0.025209734
23	0xbc505d1d	-0.012717512
24	0x3d054145	0.03253295
25	0x3cadb40d	0.021204019
26	0xbcee6bc7	-0.029104127
27	0x3c8448b1	0.016147943
28	0x3c843a5c	0.01614111
29	0x3ce33ca3	0.027738875
30	0x3cb91289	0.022591846
31	0x3d048cd7	0.032360878

bottleneck.2.weight f4 [32, 32, 3, 3]
0	0x3b5a9480	0.0033352673
1	0xbb431139	-0.0029764904
2	0xbe419e53	-0.18908052
3	0xbdd17b09	-0.10228545
4	0xbe38abc2	-0.1803427
5	0xbc1c0600	-0.009522915
6	0xbd88bf48	-0.06677109
7	0xbdf32ee9	-0.11874182
8	0xbca93217	-0.020653768
9	0x3bb012cd	0.005373335
10	0xbe3ea26a	-0.18616644
11	0xbd1c0c36	-0.038097583
12	0x3c4ae0e5	0.012382721
13	0x3de05612	0.109539166
14	0x3d8a99f6	0.06767647
15	0x3da3b9e5	0.07994441
16	0xbd0f9595	-0.035054762
17	0xbc6d7589	-0.014493355
18	0xbd4454ce	-0.04793244
19	0x3e633369	0.2218758
20	0x3d0dad8e	0.034589343
21	0xbdc170bb	-0.0944533
22	0x3d903f04	0.07043269
23	0xbcdea47f	-0.027178047
24	0x3dc19c41	0.09453631
25	0xbd96a7e3	-0.073562406
26	0x3dd6df09	0.10491759
27	0xbcc0e0a5	-0.023544619
28	0x3dbdfe65	0.092770375
29	0x3c8beb07	0.017079843
30	0x3abcf9c2	0.0014417695
31	0x3e271bb5	0.16319163
32	0x3db505bf	0.088389866
33	0x3d58557e	0.052815907
34	0x3de13611	0.109966405
35	0x3d0e8c32	0.03480167
36	0x3d2e59c5	0.04256608
37	0xbc317e44	-0.010833327
38	0x3d6d4345	0.05792548
39	0x3c854fcc	0.016273402
40	0xbd970d84	-0.07375625
41	0x3e1a771b	0.15084498
42	0xbc171df1	-0.009223447
43	0x3d1450a0	0.036209702
44	0xbe0ac55e	-0.13551852
45	0xbe30ad3c	-0.17253584
46	0xbe18c20e	-0.14917776
47	0xbd8fc2a5	-0.070195474
48	0x3de1f498	0.11032981
49	0x3d899d36	0.06719439
50	0x3e0433d9	0.12910403
51	0xbd973c95	-0.07384602
52	0xbd9192d8	-0.07108086
53	0x3d865396	0.065589115
54	0x3da7e05b	0.08197089
55	0x3d01e660	0.031713843
56	0x3c3d60b7	0.011558703
57	0x3c4d6519	0.012536311
58	0x3b887cd7	0.0041652727
59	0x3da12213	0.07867827
60	0xbd81ba8e	-0.063344106
61	0xbd5fbb8f	-0.05462223
62	0xbd51a5d2	-0.05118353
63	0x3c5f0483	0.0136119155
64	0x3c83b903	0.016079431
65	0x3e0c5d10	0.13707376
66	0x3d1aa21c	0.037752256
67	0x3da4eec1	0.08053351
68	0x3d022265	0.031771082
69	0xbd2554e4	-0.04036416
70	0x3cc9811d	0.024597699
71	0x3d8cc74f	0.068739526
72	0xbe30713a	-0.17230693
73	0x3c98199d	0.0185669
74	0xbdc38bcb	-0.09548148
75	0x3d95ddf5	0.073177256
76	0x3b743c14	0.0037267255
77	0x3d46566e	0.04842227
78	0x3d889aff	0.06670188
79	0xbd907d45	-0.07055143
80	0x3d332510	0.043736517
81	0x3bdac109	0.0066758436
82	0x3c6c879f	0.014436631
83	0xbc58041b	-0.013184573
84	0xbd39ae45	-0.045332212
85	0x3d2d73a8	0.042346627
86	0xbd682961	-0.056680087
87	0xbbdfa2e8	-0.00682484
88	0xbe54644d	-0.20741387
89	0xbdc2570b	-0.094892584
90	0xbca826df	-0.020526348
91	0x3cd3fafa	0.02587651
92	0xbd11625d	-0.035494197
93	0xbda5995a	-0.0808589
94	0x3dfcc297	0.123418026
95	0x3d976467	0.07392197
96	0x3ca0eb0e	0.019643333
97	0x3d75686c	0.059914038
98	0x3d1b3b85	0.03789856
99	0x3cbb11ac	0.022835575
100	0x3d8bb775	0.06822101
101	0x3e072072	0.1319597
102	0x3e085866	0.13314971
103	0x3e3843d3	0.17994623
104	0xbc98e753	-0.018664991
105	0x3dbe13c6	0.09281115
106	0xbddd4659	-0.108044334
107	0x3d52d54c	0.051472947
108	0xbc96d073	-0.018409943
109	0xbd2560ba	-0.04037545
110	0xbd1b2398	-0.03787574
111	0xba31e2d7	-0.0006785816
112	0xbd7132c3	-0.0588863
113	0xbd8d089a	-0.06886406
114	0xbdfceacf	-0.12349474
115	0xbda1b4f7	-0.078958444
116	0xbe0e1349	-0.13874544
117	0xbcb3100a	-0.021858234
118	0x3d8d3c0e	0.0689622
119	0xbdeafd20	-0.11474061
120	0xbda21165	-0.07913474
121	0x3cadf575	0.021235207
122	0x3d434a14	0.04767807
123	0xbe514f0e	-0.20440313
124	0x3c39c176	0.011337629
125	0x3db26db6	0.08712332
126	0x3df8ef23	0.12154987
127	0x3d3a034d	0.045413304
128	0xbda8a834	-0.08235207
129	0x3e13a701	0.14419176
130	0x3e203b17	0.15647541
131	0xbe1bfe06	-0.15233621
132	0xbd8cd618	-0.06876773
133	0x3e117c60	0.14207602
134	0x3d88522d	0.06656299
135	0xbd5a53ab	-0.05330245
136	0x3daaf5df	0.083476774
137	0x3c558610	0.013032451
138	0xbdc7ae02	-0.09749986
139	0x3cfbbb7d	0.03072905
140	0x3ce83223	0.02834422
141	0x3dafd120	0.08584809
142	0xbda98b35	-0.08278505
143	0x3dcdfb34	0.10057679
144	0x3e4ce701	0.20009996
145	0xbe188e89	-0.14898123
146	0xbce2253f	-0.027605651
147	0xbd535a0d	-0.05159955
148	0x3d4d931c	0.050189123
149	0x3c6581f9	0.014008039
150	0xbdddd693	-0.108319424
151	0x3d4ba475	0.049717385
152	0xbd0da677	-0.03458258
153	0xbce477a9	-0.02788909
154	0xbd50dd37	-0.050992217
155	0x3dfa541b	0.12223073
156	0x3cc9d03c	0.024635427
157	0xbd20ea9e	-0.03928625
158	0x3ceb6ec6	0.028739344
159	0x3d14f08a	0.03636221
160	0x3e0900e3	0.13379245
161	0xbd4f1905	-0.05056097
162	0xbc43cfe4	-0.01195142
163	0xbddf96fb	-0.10917469
164	0xbdc18129	-0.094484635
165	0xbe4cfe63	-0.20018916
166	0x3ce237fd	0.027614588
167	0xbdb5bbde	-0.088737234
168	0x3c8b2c06	0.016988765
169	0x3e39f725	0.18160684
170	0xbc44d597	-0.012013814
171	0xbd3a4ca0	-0.04548323
172	0xbcbec596	-0.023287576
173	0xbe172ac3	-0.14762406
174	0x3d67391f	0.05645096
175	0x3d3da410	0.04629904
176	0xbe228114	-0.15869552
177	0xbca9ad65	-0.020712564
178	0x3d81503f	0.06314134
179	0x3dcf0393	0.101081036
180	0xbc9a62cd	-0.01884594
181	0xbdf583ca	-0.119880274
182	0x3df5909c	0.11990473
183	0xbddbc6c9	-0.10731275
184	0xbd358fc5	-0.044326562
185	0xbdada591	-0.08478845
186	0xbd9bb690	-0.076031804
187	0x3da2ca2d	0.07948718
188	0x3e033d57	0.12816368
189	0xbe6e89c7	-0.23294745
190	0xbb8afad1	-0.0042413254
191	0x3cc68048	0.024231091
192	0xbd511d43	-0.051053297
193	0x3ba242ba	0.004951802
194	0x3cf8c903	0.030369287
195	0xbe2d6717	-0.16933857
196	0x3dc990db	0.09842082
197	0x3c9bdc8f	0.019026069
198	0x3d38f462	0.045154937
199	0xbda789a5	-0.081805505
200	0x3d566a00	0.052347183
201	0xbc83a174	-0.016068198
202	0x3cd4195d	0.025891
203	0x3e392cd2	0.18083504
204	0x3d12c3f1	0.035831396
205	0xbdf70a9f	-0.12062573
206	0x3d352e8a	0.044233836
207	0x3d46b9ba	0.048516966
208	0x3d6cbcb3	0.057797145
209	0xbdc8c0a5	-0.09802369
210	0x3ca6c249	0.020356314
211	0xbe2b5cc6	-0.16734609
212	0xbbdb5ad8	-0.006694179
213	0xbd5e9efa	-0.05435083
214	0xbb4a9983	-0.0030914254
215	0xbe038b9d	-0.12846227
216	0x3c34d649	0.011037418
217	0x3c91611e	0.017746504
218	0x3c9db120	0.019249499
219	0x3d4954d7	0.049153175
220	0xbcfba2e4	-0.03071732
221	0x3de5ea35	0.11226312
222	0x3c886296	0.016648572
223	0x3d682234	0.056673244
224	0x3d08d4c0	0.03340602
225	0xbdcf9491	-0.10135759
226	0xbd7a5a94	-0.06112154
227	0x3c605f27	0.013694561
228	0xbd75659c	-0.059911355
229	0xbde246f9	-0.11048693
230	0x3dd6de76	0.1049165
231	0x3d800b08	0.06252104
232	0xbd4c99d9	-0.049951408
233	0x3d5f8961	0.054574374
234	0x3d70d77a	0.058799244
235	0xbe11b847	-0.14230452
236	0xbd1b8b80	-0.037974834
237	0x3e35f740	0.177701
238	0xbe03fa69	-0.12888493
239	0xbd9df4f9	-0.077127405
240	0x3d277a33	0.040888023
241	0xbc4844df	-0.012223451
242	0xbd9d0263	-0.07666471
243	0x3d8d1546	0.06888823
244	0x3d93cc8d	0.07216749
245	0x3d6363fa	0.055515267
246	0x3cca58ff	0.02470064
247	0x3d85b1b1	0.065280326
248	0x3e242f2d	0.16033621
249	0xbda798e5	-0.08183459
250	0xbc864f08	-0.016395107
251	0x3d20e09e	0.03927671
252	0x3e250912	0.16116741
253	0x3e7f2a96	0.24918589
254	0x3e9461d9	0.28980902
255	0xbcb8e834	-0.02257166

bottleneck.2.bias f4 [32]
0	0x3cf05f50	0.029342324
1	0x3d2be3bd	0.041965235
2	0x3cfa5b3a	0.030561078
3	0xbc68f65a	-0.014218891
4	0xbc1020da	-0.008796895
5	0xbc6c11ad	-0.014408511
6	0x3cdf74d5	0.02727739
7	0xbc5e22f2	-0.013558136
8	0x3d04f89f	0.032463666
9	0x3c0a7509	0.008450755
10	0x3d0db6e1	0.034598235
11	0xbd05e28c	-0.032686755
12	0xbd11cb07	-0.035594013
13	0x3ced26e3	0.028949207
14	0xbc5a4b98	-0.013323687
15	0x3ce2ac50	0.027670056
16	0x3c9a9375	0.018869141
17	0xbc0da9eb	-0.008646469
18	0x3d06b5ea	0.03288833
19	0xbb8d9a96	-0.0043214066
20	0x3cffdbf2	0.031232808
21	0xbace8512	-0.0015756211
22	0xbd282674	-0.041052297
23	0xbc085876	-0.008321872
24	0x3cdc1849	0.026867049
25	0x3d008b34	0.031382754
26	0xbcef568e	-0.029216077
27	0x3cd99f07	0.026565088
28	0x3c872ba6	0.016500305
29	0xbc6b5405	-0.014363294
30	0x3ce0f937	0.027462585
31	0x3b4f81d2	0.0031663072

up1.weight f4 [32, 16, 2, 2]
0	0x3d96e631	0.07368124
1	0x3d7cc9aa	0.06171576
2	0xbe85b05c	-0.26111114
3	0xbcd243e3	-0.025667137
4	0xbde19362	-0.11014439
5	0x3deb17af	0.11479127
6	0x3da1b9f4	0.07896796
7	0x3e9bee9b	0.3045548
8	0xbe3f7394	-0.18696433
9	0xbda8fac1	-0.082509525
10	0x3dcd7a05	0.10033039
11	0x3c914bbb	0.017736306
12	0xbdbc1499	-0.09183616
13	0x3d94cb4f	0.072653405
14	0x3de61a35	0.11235467
15	0xbdb61496	-0.08890645
16	0x3b44fc2f	0.003005754
17	0x3e98de2a	0.29856998
18	0x3d9e8c90	0.07741654
19	0xbda4e0d3	-0.08050694
20	0x3d1f497e	0.038888447
21	0xbe25de7b	-0.16198151
22	0x3c9dc879	0.019260632
23	0xbdb9aca9	-0.090661354
24	0x3e074549	0.13210024
25	0x3dee0f22	0.1162398
26	0xbd2631d0	-0.04057485
27	0xbdbbdf67	-0.0917347
28	0x3cd97335	0.026544193
29	0xbe545dd7	-0.20738922
30	0x3e6cbb34	0.23118287
31	0x3d9eee9d	0.077603556
32	0xbe64dc44	-0.2234965
33	0x3de8dfd6	0.11370818
34	0xbe616734	-0.22012025
35	0xbdb1ef83	-0.08688261
36	0x3d4210d2	0.047379322
37	0xbd6712bc	-0.05641435
38	0x3e3e7767	0.18600236
39	0x3e4e9b3f	0.20176409
40	0xbded5989	-0.11589343
41	0x3e45c004	0.1931153
42	0x3da4158a	0.08011921
43	0x3e08a97e	0.13345906
44	0xba9e924a	-0.0012098041
45	0x3ddb138c	0.10697088
46	0xbdbc9bc0	-0.092093945
47	0xbc9d971c	-0.019237094
48	0x3db9b70c	0.090681165
49	0xbe8999db	-0.26875195
50	0xbcf19d8d	-0.029494071
51	0x3d9f1870	0.07768333
52	0x3cfa813d	0.030579204
53	0xbd74a065	-0.059723277
54	0x3e8fd1b9	0.28089693
55	0x3e1c91a9	0.1528994
56	0xbdf59ae8	-0.11992437
57	0xbe7177e5	-0.23580892
58	0x3d8284d1	0.06372989
59	0xbd1cb546	-0.038258813
60	0x3bbe3619	0.005804789
61	0x3e66ab9e	0.22526404
62	0xbdc1c6d0	-0.094617486
63	0x3d4cd85c	0.050011024
64	0xbe1ccc10	-0.15312219
65	0xbe249d34	-0.16075593
66	0x3d889843	0.066696666
67	0xbdccdc9b	-0.10003015
68	0xbe7c5fc4	-0.24645907
69	0xbe1f6d81	-0.15569116
70	0xbe61f6d9	-0.22066821
71	0x3b6c0077	0.003601102
72	0x3e94e49c	0.29080665
73	0x3dd27e61	0.10278011
74	0xbd41d791	-0.04732472
75	0xbdba51fd	-0.09097669
76	0x3dfa3a04	0.12218097
77	0x3bf7c253	0.007561007
78	0x3e184365	0.14869459
79	0xbd93f214	-0.07223907
80	0xbe35cd0e	-0.17754003
81	0xbe114cad	-0.14189406
82	0xbd3f6a66	-0.04673233
83	0xbe8b8d82	-0.272564
84	0x3bcbf2b6	0.0062240018
85	0xbcfed41d	-0.031107003
86	0x3d40a089	0.0470281
87	0x3d6c013b	0.05761836
88	0xbde67410	-0.11252606
89	0xbce9a521	-0.028521122
90	0xbe1d564b	-0.1536495
91	0xbecb0ff7	-0.39660618
92	0x3dda4248	0.106571734
93	0x3de1c961	0.11024738
94	0xbe505bc5	-0.20347507
95	0xbdd71494	-0.10501972
96	0xbe402d71	-0.18767335
97	0xbd1120a7	-0.03543153
98	0xbe89d1f1	-0.26917985
99	0x3de8ee6a	0.11373599
100	0x3d3e479f	0.046455022
101	0x3e170df0	0.1475141
102	0x3daed9c5	0.0853763
103	0x3d08f798	0.03343925
104	0x3c8ff387	0.017572178
105	0xbdfe68d5	-0.12422339
106	0xbc0c6cef	-0.008570894
107	0x3dfad4a4	0.12247589
108	0xbe0374ce	-0.12837526
109	0xbbdea082	-0.0067940364
110	0x3e765675	0.24056418
111	0x3d34d26b	0.044145983
112	0xbd93e3f8	-0.07221216
113	0x3dfac49b	0.12244531
114	0x3da06830	0.07832372
115	0x3e0b4362	0.13599923
116	0x3dc8b2cc	0.09799728
117	0x3cf782d7	0.030213756
118	0x3e4f69cd	0.20255204
119	0xbd8eefd9	-0.06979341
120	0x3d8936d1	0.066999085
121	0x3e2f0e3e	0.17095277
122	0xbd6254b0	-0.055256546
123	0xbdd160ab	-0.10223516
124	0xbe30fac4	-0.1728316
125	0xbdf12564	-0.1177471
126	0xbe6f6a7e	-0.23380467
127	0xbd3eee91	-0.046614233
128	0xbd0981d7	-0.03357109
129	0xbd871078	-0.06594938
130	0xbe00a8bd	-0.12564369
131	0x3e804f21	0.2506037
132	0x3b9b53f3	0.004740232
133	0xbc791886	-0.015203601
134	0xbe1a4736	-0.15066227
135	0xbd32f195	-0.04368742
136	0x3d2cbd5b	0.04217277
137	0x3d8b942b	0.0681537
138	0x3e5ef0b3	0.21771507
139	0x3e806063	0.25073537
140	0x3dd5e398	0.10443801
141	0x3d96d055	0.07363955
142	0x3ea00cc5	0.31259742
143	0xbcb88888	-0.02252604
144	0xbd59b115	-0.053147394
145	0xbc90a84e	-0.017658379
146	0xbe637efd	-0.22216411
147	0xbe4e79c5	-0.20163639
148	0xbc6ca578	-0.014443748
149	0x3d20358d	0.03911357
150	0xbd9b0ae3	-0.07570436
151	0xbcefd9f8	-0.02927874
152	0x3d282b42	0.04105688
153	0x3e0d4053	0.13794069
154	0xbd31c43e	-0.04340004
155	0xbe186155	-0.14880879
156	0xbed00941	-0.4063206
157	0xbd2870d1	-0.041123215
158	0xbd78ca88	-0.060740024
159	0xbc03bb33	-0.008040237
160	0x3e424ddf	0.18975018
161	0xbbcf5761	-0.006327555
162	0xbe1ef23d	-0.15522094
163	0x3eb636f9	0.35588816
164	0x3dd49a5e	0.10381006
165	0x3de8d786	0.11369233
166	0x3e42aaa8	0.19010413
167	0xbd869725	-0.06571797
168	0x3d149ef5	0.036284406
169	0xbc729b2e	-0.0148075055
170	0x3d18e4bc	0.037327513
171	0xbd87224b	-0.06598338
172	0x3d4d80fc	0.050171837
173	0xbda4ce0b	-0.08047112
174	0x3db87a16	0.09007661
175	0xbdd85bf4	-0.10564414
176	0xbcdc287a	-0.02687477
177	0x3ca8746c	0.020563327
178	0xbd678da8	-0.05653158
179	0x3e6ec663	0.23317866
180	0xbd0d4f48	-0.034499437
181	0xbca9f6cb	-0.020747563
182	0xb9b37159	-0.0003422599
183	0x3e8b3024	0.27185166
184	0xbdc4e924	-0.096147805
185	0x3e19662c	0.14980382
186	0xbd50129f	-0.05079901
187	0xbe081d83	-0.13292508
188	0x3de7df67	0.113219075
189	0xbddd6de3	-0.10811975
190	0xbd13a748	-0.036048204
191	0xbe13f520	-0.14448977
192	0xbdb91510	-0.090372205
193	0x3d45764e	0.048208527
194	0x3d12e378	0.035861462
195	0x3dd3d0a6	0.10342531
196	0x3dde519b	0.10855409
197	0x3e0fd30e	0.14045355
198	0xbe8e3df1	-0.27781633
199	0x3dac23c5	0.0840526
200	0xbe1921c0	-0.14954281
201	0xbe397f20	-0.181149
202	0xbd560ed9	-0.052260254
203	0x3dc133a5	0.094336785
204	0xbe96cb28	-0.2945187
205	0xbb666742	-0.0035156761
206	0x3d8736e2	0.06602265
207	0x3e2732d4	0.16327983
208	0x3da60c51	0.08107818
209	0xbdddf42e	-0.10837589
210	0x3e04681d	0.12930341
211	0xbd6b8f17	-0.057509508
212	0xbc47dda1	-0.012198837
213	0xbc755c04	-0.0149755515
214	0x3da35b66	0.07976417
215	0x3dc3780d	0.09544382
216	0xbcff3ac7	-0.031155957
217	0xbbfa2002	-0.00763321
218	0x3eb89d5f	0.36057565
219	0x3cd5a823	0.02608115
220	0xbcda2ff4	-0.026634194
221	0x3dff216c	0.124575466
222	0x3cb26d2a	0.02178057
223	0xbd7a8586	-0.061162494
224	0xbba3346d	-0.004980615
225	0xbc993ce5	-0.018705795
226	0x3ce85b84	0.02836395
227	0xbd735e74	-0.05941625
228	0x3db5e055	0.088806786
229	0xbe535898	-0.20639265
230	0x3d692fe9	0.056930456
231	0x3e606689	0.21914114
232	0xbdcc005f	-0.09961008
233	0xbd13de31	-0.03610057
234	0x3e1012a6	0.14069614
235	0xbe498161	-0.1967826
236	0x3cf86f3b	0.030326476
237	0xbe230dcf	-0.15923236
238	0x3d9b41a8	0.07580882
239	0x3da2991f	0.07939362
240	0xbcc66c6c	-0.024221621
241	0x3ddc9c4a	0.10771997
242	0x3df80f51	0.121122964
243	0xbe07a0ff	-0.13245009
244	0x3e02f9ba	0.12790576
245	0xbcd98b33	-0.026555633
246	0x3e06d549	0.131673
247	0xbe0e8133	-0.13916473
248	0x3e77249b	0.24135058
249	0xbd700275	-0.058596093
250	0x3dfae63f	0.12250947
251	0xbd685206	-0.05671885
252	0xbe207cb8	-0.15672576
253	0x3da677fb	0.08128353
254	0x3dac6719	0.08418102
255	0x3ceb298c	0.028706335

up1.bias f4 [16]
0	0x3cd47eda	0.025939394
1	0xbd085614	-0.033285215
2	0x3ce44991	0.02786711
3	0xbca22349	-0.019792216
4	0xbcd7728e	-0.026299741
5	0xbce33ed3	-0.027739918
6	0xbd02c9b2	-0.031930633
7	0xbcd31d13	-0.0257707
8	0xbcbfcbb6	-0.023412567
9	0x3cc73529	0.02431734
10	0xbcccb6c3	-0.024989491
11	0x3cdeaf44	0.027183183
12	0x3cf4142d	0.029794777
13	0x3cd7345e	0.026270088
14	0xbcc39572	-0.023874972
15	0xbcdb5417	-0.026773496
