sampling_based_planning_framework/checkpoints/checkpoint_epoch_10.pth (torch, 385522 bytes, 75 tensors)

enc1.0.weight f4 [8, 1, 3, 3]
0	0xbdcd5124	-0.10025242
1	0x3ddf1bc0	0.10893965
2	0x3d211fa7	0.039336827
3	0x3e0fbeb4	0.14037591
4	0xbdf1a2ce	-0.11798631
5	0x3da28a41	0.07936526
6	0x3d1b1802	0.037864693
7	0xbe357256	-0.17719397
8	0xbd924c13	-0.07143416
9	0x3e2e77a6	0.1703783
10	0xbe10d36d	-0.14143153
11	0x3d65a809	0.056068454
12	0x3e53493a	0.20633402
13	0xbd764ccc	-0.060131833
14	0x3e07249f	0.13197564
15	0xbd023a1d	-0.031793702
16	0x3e02264f	0.12709926
17	0xbcf6b993	-0.030117786
18	0x3e2f009a	0.17090073
19	0xbe433033	-0.19061355
20	0xbdaa1591	-0.08304895
21	0x3e1a3f48	0.15063202
22	0xbd793e42	-0.06085039
23	0xbdcb9948	-0.099413455
24	0xbea39779	-0.31951502
25	0xbdf6188f	-0.12016403
26	0xbd8e4e98	-0.06948584
27	0x3d31257f	0.04324865
28	0x3cb08adf	0.021550594
29	0xbdeafca2	-0.11473967
30	0x3d37379a	0.04473076
31	0x3d864a9b	0.065571986
32	0x3e7f3282	0.24921611
33	0xbc179dfb	-0.009253974
34	0xbca8c855	-0.020603338
35	0x3af1d1c7	0.0018449359
36	0xbcc1f741	-0.02367747
37	0x3c0e5534	0.008687306
38	0xbd0c2404	-0.034214035
39	0xbe5f903c	-0.21832365
40	0x3e36e7df	0.1786189
41	0xbc74ade4	-0.014934037
42	0xbd37645f	-0.044773456
43	0x3dd1c39d	0.102423884
44	0xbe8249f2	-0.2544704
45	0x3e60747a	0.21919432
46	0x3e6d2b9d	0.23161168
47	0xbd867565	-0.0656536
48	0x3eb47661	0.35246566
49	0xbc868e64	-0.016425319
50	0xbde7cbaa	-0.11318143
51	0x3dc4dab9	0.096120305
52	0xbeb1f739	-0.34758928
53	0xbe78974f	-0.2427647
54	0x3cc8a7b3	0.024494028
55	0x3bed239c	0.007236911
56	0x3d8bb3ac	0.06821379
57	0x3df07975	0.11741916
58	0xbd994820	-0.0748446
59	0x3ef399ea	0.47578365
60	0xbcb9856d	-0.02264663
61	0x3db96733	0.09052887
62	0x3d474f08	0.048659354
63	0x3dc12d93	0.09432521
64	0xbebbcffe	-0.36682123
65	0x3d89e24f	0.06732618
66	0xbe02b341	-0.12763692
67	0xbd4b206c	-0.049591467
68	0x3e63412f	0.22192834
69	0x3d614d4a	0.05500535
70	0xbe11434c	-0.14185828
71	0x3cc375d6	0.0238599

enc1.0.bias f4 [8]
0	0x3d01dea7	0.03170648
1	0x3bec8b04	0.0072187204
2	0x3cf68597	0.030092997
3	0xbb71580f	-0.0036826169
4	0x3cb22a23	0.021748608
5	0x3aa6dd0f	0.0012730676
6	0x3982fd03	0.0002498404
7	0x35aa1367	1.2671634e-06

enc1.2.weight f4 [8, 8, 3, 3]
0	0x3de734de	0.112893805
1	0x3d54fddf	0.051999923
2	0xbd84ba78	-0.064808786
3	0xbe8576ab	-0.260671
4	0x3ef13a8c	0.4711498
5	0x3df79c8d	0.120904066
6	0xbd8eee85	-0.06979088
7	0x3cb97a4e	0.022641327
8	0xbd0218cd	-0.031761933
9	0xbdda2093	-0.10650744
10	0xbe10f06b	-0.14154212
11	0xbe02a07c	-0.12756532
12	0xbdff1073	-0.12454309
13	0xbe0ff3e5	-0.14057882
14	0x3e22661d	0.15859266
15	0x3e22f544	0.15913874
16	0x3e0d6c1b	0.1381077
17	0xbe75aab9	-0.23990907
18	0x3d897a00	0.06712723
19	0x3e481736	0.19540104
20	0x3e137714	0.14400893
21	0xbe0c4637	-0.1369866
22	0x3ddd6fbc	0.10812327
23	0xbe072ef3	-0.13201503
24	0xbe6168f0	-0.22012687
25	0x3db4d390	0.08829415
26	0xbc94b626	-0.018153261
27	0xbc1d701a	-0.009609247
28	0xbdcf6822	-0.10127284
29	0xbe5c4e0b	-0.21514146
30	0x3e0341e3	0.12818103
31	0xbcecbd33	-0.028898811
32	0xbc4421e1	-0.011970968
33	0xbda1667c	-0.078808755
34	0xbca36410	-0.019945174
35	0xbe62bac0	-0.22141552
36	0xbd955189	-0.07290942
37	0x3c112530	0.008858964
38	0x3e0d4bec	0.13798493
39	0xbe52b483	-0.20576672
40	0x3dad3ffd	0.084594704
41	0x3d8424cc	0.06452331
42	0x3d1a7c75	0.037716348
43	0xbcc4916f	-0.02399513
44	0x3e220b90	0.15824723
45	0x3d4ebd37	0.050473418
46	0xbea969d7	-0.33088562
47	0x3d22c2ea	0.039736666
48	0xbd5cd9f1	-0.053918783
49	0x3e8b4a97	0.27205345
50	0xbe9f08e3	-0.31061468
51	0x3dd34045	0.10314993
52	0xbe549fca	-0.2076408
53	0xbe21f323	-0.15815406
54	0xbdeec84f	-0.116592996
55	0x3dc3dff2	0.095641986
56	0xbc6db0c1	-0.014507473
57	0x3da64360	0.081183195
58	0xbdbfe1ce	-0.09369241
59	0xbd191dca	-0.037381925
60	0x3cdeb067	0.027183725
61	0xbee681dd	-0.45020953
62	0x3c16717e	0.009182332
63	0xbd95db6f	-0.07317244
64	0xbd932d4e	-0.071863756
65	0x3e81fff7	0.25390598
66	0xbd6bb6ac	-0.057547256
67	0x3d6d361c	0.05791293
68	0x3d372ca3	0.044720303
69	0x3c55a53f	0.013039886
70	0xbd95bb3d	-0.073111035
71	0xbd969beb	-0.07353958
72	0xbe4ae2c1	-0.19813062
73	0xbbd6e054	-0.0065575037
74	0x3d2535c1	0.040334467
75	0x3e19b14a	0.15009037
76	0x3e26daa6	0.16294345
77	0x3d8d3f8b	0.068968855
78	0xbe2ce4e6	-0.16884193
79	0x3e31239c	0.1729874
80	0xbe59fb90	-0.2128737
81	0xbd8c400d	-0.06848154
82	0x3e69c767	0.22829972
83	0xbdf7122a	-0.120640114
84	0x3e2bc1ec	0.16773194
85	0xbe3b8760	-0.1831336
86	0x3dd2b89e	0.10289119
87	0x3cf1dde4	0.029524751
88	0xbec48de0	-0.38389492
89	0x3e1071e8	0.14105952
90	0xbc5a65b1	-0.013329909
91	0xbe8f6487	-0.28006384
92	0x3e71f841	0.23629858
93	0xbcf419ef	-0.029797522
94	0x3e1ef27d	0.1552219
95	0x3d9b55b1	0.07584704
96	0x3d483e5f	0.048887607
97	0x3e255af6	0.1614798
98	0xbe0e9a72	-0.13926104
99	0x3de05b84	0.10954955
100	0xbc2a9578	-0.010411613
101	0x3e7a5141	0.24445058
102	0x3ea77df5	0.32713285
103	0xbdcadb6f	-0.09905135
104	0xbb3dc926	-0.0028959005
105	0xbc172fd2	-0.00922771
106	0x3eec721a	0.46180803
107	0x3e03d183	0.12872891
108	0xbe76fb2c	-0.24119252
109	0x3d818b6c	0.06325421
110	0xbd0b0f6b	-0.03395025
111	0xbeace4c3	-0.3376828
112	0x3dfd661f	0.12372994
113	0xbe1700df	-0.14746426
114	0x3bde69cf	0.0067875157
115	0x3e0457ef	0.12924169
116	0x3ec5dcb0	0.38644934
117	0xbdc5224e	-0.09625684
118	0xbe9b9b98	-0.30392146
119	0xbaff2887	-0.0019467034
120	0x3d97882c	0.073990196
121	0x3e40d7de	0.18832347
122	0x3de0b267	0.109715275
123	0x3cba1d23	0.022718972
124	0xbdd4f741	-0.103987224
125	0xbcd168b2	-0.025562618
126	0x3e7c30f9	0.24628057
127	0xbd4017ab	-0.04689757
128	0xbe8c5a88	-0.2741282
129	0x3e8d5d7a	0.2761038
130	0x3e2ed6c2	0.17074111
131	0xbe03e9f5	-0.12882216
132	0x3ec986f6	0.3936078
133	0x3e1a4f53	0.15069322
134	0x3d77d311	0.060504023
135	0x3d3aa049	0.045563016
136	0x3e8e1dec	0.27757204
137	0xbd9c36da	-0.076276496
138	0x3e750f33	0.2393158
139	0x3e439271	0.19098832
140	0x3dba8e48	0.09109169
141	0x3e1d899c	0.15384525
142	0xbe0a3f2f	-0.13500665
143	0x3d43bd59	0.047787998
144	0x3e0a8a12	0.13529232
145	0x3e257931	0.16159512
146	0xbb02dd52	-0.0019968343
147	0x3e232647	0.1593257
148	0x3db8fd6c	0.090327114
149	0xbddd240a	-0.107978895
150	0x3dcd019f	0.10010075
151	0x3f05c401	0.52252203
152	0xbe34fe0d	-0.17675038
153	0xbeb8e113	-0.36109218
154	0xbe4a130a	-0.19733825
155	0x3d5c7b23	0.05382837
156	0x3e80daa6	0.25166816
157	0xbdb52321	-0.08844591
158	0xbd6156f9	-0.055014584
159	0x3e156fab	0.14593379
160	0xbecddf4b	-0.40209422
161	0xbe25f7c9	-0.16207804
162	0xbe7d2913	-0.247227
163	0xbdf097d3	-0.11747708
164	0xbea89eae	-0.32933563
165	0x3da872a1	0.08224989
166	0x3d733ae3	0.05938233
167	0x3e7bc7c0	0.24587917
168	0x3da89d5d	0.0823314
169	0x3e3d68db	0.1849703
170	0xbd9c0914	-0.07618919
171	0x3e67e84d	0.2264721
172	0xbddce42d	-0.107857086
173	0xbcb99ee3	-0.02265877
174	0xbd51393f	-0.051079985
175	0xbbb7c7ff	-0.005608558
176	0xbb248bb4	-0.0025107684
177	0xbe22a032	-0.15881422
178	0xbe044783	-0.12917905
179	0xbe49f044	-0.1972056
180	0x3df7766f	0.12083136
181	0xbd7e27a1	-0.06204951
182	0x3e9f41cc	0.31104887
183	0xbe439589	-0.19100012
184	0xbcbec7f0	-0.023288697
185	0x3e186cb0	0.14885211
186	0xbdd0ecc7	-0.10201412
187	0x3b6e0234	0.003631723
188	0x3d062cc7	0.032757547
189	0xbe154fec	-0.14581269
190	0xbe8fa16e	-0.2805285
191	0x3e9d6576	0.3074147
192	0x3de6beba	0.11266847
193	0xbe99866f	-0.29985377
194	0xbe8c257d	-0.2737235
195	0x3d9efcf6	0.07763092
196	0xbe742df7	-0.23845659
197	0x3d28e3c5	0.041232843
198	0x3da828e2	0.08210923
199	0xbdbcc522	-0.092172876
200	0xbe3572db	-0.17719595
201	0xbe8ea3c6	-0.27859324
202	0x3e91b996	0.28461903
203	0x3d328c13	0.043590616
204	0xbe354973	-0.177038
205	0xbda672f9	-0.08127398
206	0x3caaa34e	0.020829823
207	0x3d251c40	0.040310144
208	0xbe104dde	-0.14092204
209	0xbbd7554a	-0.0065714465
210	0x3e96e2b8	0.29469848
211	0xbe1b362c	-0.15157384
212	0xbe2e3904	-0.17013937
213	0x3d2cacdb	0.042157035
214	0x3e096486	0.13417253
215	0x3d1bcd90	0.038037837
216	0x3cbf3b0a	0.023343582
217	0x3e893147	0.26795408
218	0xbc643744	-0.013929192
219	0xbd372015	-0.04470833
220	0x3d350b0d	0.044199992
221	0xbe501b88	-0.20323002
222	0x3e341fab	0.17590205
223	0xbb69d2c9	-0.0035678616
224	0x3d1007c9	0.035163675
225	0xbe8a46d2	-0.27007157
226	0xbec3ff8a	-0.38280898
227	0xbe55b716	-0.20870623
228	0xbb961bb0	-0.0045809373
229	0xbe336092	-0.17517307
230	0xbdce912c	-0.10086283
231	0x3e41025b	0.18848555
232	0x3e2eb26f	0.17060255
233	0x3d734863	0.059395205
234	0xbd055cb6	-0.03255912
235	0x3d566175	0.052339036
236	0x3d9057be	0.070479855
237	0xbda76dfa	-0.08175273
238	0xbc763917	-0.01502826
239	0x3ddaace7	0.1067751
240	0x3b56390f	0.0032687818
241	0x3e518117	0.204594
242	0xbe493a1d	-0.19651075
243	0xbd247479	-0.04015014
244	0xbb3d2fc3	-0.002886758
245	0x3de9614c	0.11395511
246	0xbdea58d3	-0.11442723
247	0xbd3e52d9	-0.04646573
248	0xbd4ec1c2	-0.05047775
249	0xbceb9a94	-0.028760232
250	0x3e0ac55f	0.13551854
251	0x3de2a351	0.110663064
252	0x3ec562c8	0.38551927
253	0xbd4cc961	-0.049996737
254	0xbdcdd0a6	-0.10049562
255	0xbe431e0b	-0.19054429

enc1.2.bias f4 [8]
0	0xbce0ae64	-0.027426906
1	0x3b83a392	0.004017302
2	0x3d09c97f	0.033639427
3	0xbc03606c	-0.008018594
4	0x3a9542fd	0.0011387762
5	0x3cfd5e58	0.030928776
6	0x3cdd5343	0.027017241
7	0x3aeae8b4	0.0017922134

enc2.0.weight f4 [16, 8, 3, 3]
0	0x3c3a4d63	0.0113709895
1	0xbd458fc6	-0.048232816
2	0xbc1e1fc3	-0.009651127
3	0xbdee7073	-0.11642542
4	0xbe627da3	-0.22118239
5	0x3dc25447	0.09488731
6	0x3d7275bf	0.059194323
7	0xbdc12f71	-0.09432877
8	0x3e884919	0.2661827
9	0xbc0f319b	-0.008739854
10	0x3d3c8752	0.04602749
11	0xbd07fba0	-0.033198953
12	0xbe58c81c	-0.21170086
13	0x3d71a2e5	0.05899324
14	0xbd16b60e	-0.036794715
15	0xbd9f4ea9	-0.07778675
16	0xbd52b852	-0.051445313
17	0x3e387407	0.18013011
18	0xbcc89e64	-0.024489589
19	0x3de0dec9	0.10979993
20	0xbe4984e2	-0.19679597
21	0xbd628afa	-0.05530832
22	0xbce29854	-0.027660526
23	0xbe174073	-0.14770679
24	0x3db7c9c4	0.089740306
25	0x3e8bdbaf	0.27316043
26	0x3dd087bb	0.101821385
27	0xbd4f90d0	-0.050675213
28	0x3de49d6f	0.111628406
29	0x3df37fac	0.11889586
30	0xbc8bc3b1	-0.017061086
31	0xbe200855	-0.15628178
32	0xbc6098a4	-0.013708267
33	0xbe39f554	-0.18159992
34	0xbe22282d	-0.15835638
35	0xbdae5325	-0.08511952
36	0x3e275505	0.16341026
37	0xbd62ac41	-0.055340055
38	0xbe3b8c6b	-0.18315284
39	0xbcd02766	-0.025409412
40	0x3cc938cc	0.024563216
41	0xbd39d387	-0.045367744
42	0xbe09c050	-0.13452268
43	0xbdfb5acd	-0.12273178
44	0x3d892d59	0.066981025
45	0x3d4bc05a	0.049743988
46	0x3d44ef5c	0.048079833
47	0x3e0d1900	0.13779068
48	0x3e5f2011	0.21789576
49	0xbd1e3e5f	-0.0386337
50	0x3e11f8bc	0.14255041
51	0x3e3344bf	0.17506693
52	0xbd341515	-0.043965418
53	0x3de2e97d	0.110796906
54	0x3e3db33e	0.18525407
55	0xbd66c48e	-0.056339793
56	0xbe9ac0e6	-0.30225295
57	0xbe3662cb	-0.17811124
58	0x3e4f0038	0.20214927
59	0xbd82024f	-0.063480966
60	0x3db5349c	0.08847925
61	0x3e58565b	0.21126692
62	0x3e4257dc	0.18978828
63	0x3b6087f5	0.0034260724
64	0xbe3b626d	-0.18299265
65	0x3caf25b9	0.021380292
66	0xbc89b47a	-0.01680969
67	0xbc0f1228	-0.008732356
68	0x3df68de8	0.12038785
69	0xbdd0c4ab	-0.101937614
70	0xbe273216	-0.163277
71	0x3b37c80f	0.0028042828
72	0x3ca714bf	0.020395635
73	0x3d6b7248	0.057482034
74	0xbc73295f	-0.014841407
75	0xbcf65c86	-0.030073415
76	0xbd2a6d68	-0.041608244
77	0xbdf13183	-0.11777022
78	0xbdb11fad	-0.0864862
79	0xba8a289f	-0.001054067
80	0x3dede3bd	0.11615703
81	0xbd4b4708	-0.049628288
82	0x3b912a7a	0.0044301124
83	0x3e9dd1f7	0.30824253
84	0x3c375aee	0.011191113
85	0xbdbe0b33	-0.0927948
86	0x3cdc6159	0.026901888
87	0xbd812eef	-0.0630778
88	0xbc5529aa	-0.013010422
89	0xbdaf35eb	-0.08555206
90	0x3ced61a3	0.02897722
91	0x3c9809f1	0.018559428
92	0x3e15381c	0.14572185
93	0x3dc0e41f	0.09418511
94	0x3d03e2ee	0.03219884
95	0x3d80afcc	0.062835306
96	0xbe5ccdc5	-0.2156287
97	0x3de237ea	0.11045821
98	0x3bde9f3c	0.0067938846
99	0xbce9a63a	-0.028521646
100	0xbdaccfea	-0.08438094
101	0x3dcdfa4a	0.100575045
102	0xbe4addcf	-0.19811176
103	0x3d75521f	0.05989277
104	0x3c3fa988	0.011698134
105	0x3dd937b6	0.10606329
106	0xbe7e0f70	-0.24810576
107	0x3cfd5415	0.030923882
108	0x3e1fdbe7	0.1561123
109	0xbd75824d	-0.059938718
110	0xbcd2c174	-0.025727011
111	0xbc84ee81	-0.016227009
112	0x3da9fd91	0.08300317
113	0x3d847cbf	0.06469106
114	0x3e2971b0	0.16547275
115	0x3e69d25f	0.22834156
116	0x3c80c68d	0.015719676
117	0xbd62dfe4	-0.0553893
118	0xbdaa1deb	-0.08306488
119	0x3e3f3e88	0.18676198
120	0x3e3a0657	0.18166481
121	0x3e273aea	0.16331068
122	0x3d920789	0.071303435
123	0xbe058ef1	-0.13042809
124	0x3dc31c3d	0.095268704
125	0x3e0417b1	0.12899663
126	0x3e59333f	0.21210955
127	0x3c1377ec	0.00900076
128	0x3d9c1cd1	0.07622684
129	0x3d30521c	0.043047056
130	0x3e4d2359	0.20033015
131	0xbdfcacf3	-0.12337675
132	0x3c4b6630	0.0124145
133	0xbd298596	-0.041387163
134	0x3e4c68c5	0.19961841
135	0xbe7f8f60	-0.24957037
136	0x3e1ed4ab	0.15510814
137	0xbe4ce89e	-0.20010611
138	0xbe19b2e0	-0.15009642
139	0x3d412aa7	0.047159817
140	0xbb3a40c4	-0.002841995
141	0x3d580dcc	0.052747533
142	0x3b0f8ae2	0.002190285
143	0xbd86d174	-0.06582919
144	0xbd7e8c6f	-0.062145647
145	0xbc11ffb5	-0.008911063
146	0xbe7f1d1e	-0.24913451
147	0xbcfb3dd9	-0.03066914
148	0x3c5b8b0e	0.013399852
149	0x3e1c5d9e	0.15270087
150	0x3e5d8f91	0.21636797
151	0xbc3848d2	-0.01124783
152	0xbe541006	-0.20709237
153	0xbe0d21d9	-0.13782443
154	0xbdda8b7b	-0.10671135
155	0xbe4caeb4	-0.19988519
156	0x3dbd0269	0.09228975
157	0x3e58032d	0.21094961
158	0xbd761742	-0.060080774
159	0x3c282ebe	0.01026505
160	0xbd9f8935	-0.07789842
161	0xbe4188fc	-0.18899912
162	0x3e109276	0.1411837
163	0x3d5e8165	0.05432262
164	0xbe435644	-0.19075876
165	0xbdaa9edb	-0.083310805
166	0x3df971a5	0.12179879
167	0x3e143afb	0.14475624
168	0xbd426c68	-0.047466666
169	0xbe08a2f6	-0.13343415
170	0x3d97be8c	0.07409391
171	0x3e2737f8	0.16329944
172	0xbce6d70d	-0.028178716
173	0x3e05d2e5	0.13068731
174	0x3e155104	0.14581686
175	0xbc1f7a1d	-0.009733704
176	0xbd3b34fe	-0.045704834
177	0x3e21ba7b	0.15793793
178	0xbd5e309a	-0.05424557
179	0xbdcaf1d4	-0.09909406
180	0x3be2a7cd	0.006916976
181	0x3db0deed	0.0863627
182	0x3dcf2b51	0.10115684
183	0x3e624759	0.2209753
184	0x3d65660d	0.056005526
185	0x3eb55d48	0.3542273
186	0x3e93a2a2	0.28835016
187	0x3e367914	0.17819625
188	0x3e078097	0.13232647
189	0xbdd4f36b	-0.10397991
190	0x3e22b9f9	0.15891255
191	0xbe222e90	-0.15838075
192	0xbdc0068b	-0.09376248
193	0xbda3c861	-0.079972036
194	0x3e2ba91f	0.16763733
195	0x3e5b79dd	0.21433206
196	0x3d64f808	0.055900604
197	0xbddb8d02	-0.107202545
198	0x3d3ab55b	0.04558311
199	0x3d91d0af	0.07119881
200	0xbcb41698	-0.02198343
201	0x3d4783e7	0.048709776
202	0x3e1aebdb	0.15129034
203	0x3d738ee1	0.05946243
204	0x3de21fc7	0.11041217
205	0x3dea07e3	0.114272855
206	0x3ced39bd	0.028958196
207	0x3e2ff895	0.1718467
208	0xbe1a6e01	-0.15081026
209	0x3d0b3a06	0.033990882
210	0x3e38ae76	0.18035302
211	0xbce475cc	-0.027888201
212	0x3e7ec8dd	0.24881311
213	0xbe4e50d8	-0.20148027
214	0x3cc9d699	0.024638461
215	0xbdccbda3	-0.09997108
216	0x3af324f1	0.0018550438
217	0x3d8c2055	0.06842104
218	0x3e3cd6b3	0.18441276
219	0xbcd4a161	-0.025955858
220	0x3dd32a28	0.10310775
221	0x3e97773a	0.2958315
222	0x3c1117d5	0.00885578
223	0xbd34258c	-0.04398112
224	0xbdae29be	-0.085040554
225	0xbe8d853f	-0.2764072
226	0xbd8882eb	-0.066655956
227	0x3c8c9af9	0.01716374
228	0x3c382a89	0.01124061
229	0xbdfaf526	-0.122537896
230	0x3d03a7e6	0.032142542
231	0x3dd01ae2	0.101613775
232	0xbb587949	-0.0033031276
233	0x3da963cc	0.08270988
234	0x3db4f563	0.08835866
235	0xbd851a31	-0.06499136
236	0xbe152cb6	-0.14567837
237	0xbdae8793	-0.085219525
238	0x3e03a95f	0.12857579
239	0xbe144009	-0.14477552
240	0x3d0e041c	0.034671888
241	0x3cf35bc5	0.029706845
242	0x3c86e0ae	0.016464557
243	0xbb15206a	-0.0022754916
244	0xbdeeb9bb	-0.11656519
245	0x3e76f695	0.24117501
246	0x3c4fb50c	0.012677442
247	0xbd42939c	-0.047504053
248	0x3d8fcedc	0.07021877
249	0xbde63d44	-0.11242154
250	0x3e4d6b1e	0.20060393
251	0x3dcc0b45	0.09963087
252	0xbe71ec84	-0.2362538
253	0xbe57e6d5	-0.21084149
254	0x3d02f778	0.031974286
255	0x3cefac68	0.029257014

enc2.0.bias f4 [16]
0	0x3cef0f97	0.029182239
1	0x3d0a5194	0.033769205
2	0xbc8cbc8f	-0.017179755
3	0x3d1b12ed	0.037859846
4	0x3bbd7669	0.005781938
5	0x3cf41ea2	0.029799763
6	0xbcae6d04	-0.021292217
7	0xbcc695ec	-0.02424141
8	0x3cd7c1b5	0.026337484
9	0x3c663a24	0.014051948
10	0x3cf9ad04	0.030478008
11	0x3d0984b2	0.033573814
12	0x3cf3e6d3	0.029773152
13	0x3cf5e8b1	0.030018182
14	0x3c567910	0.013090387
15	0x3ce3fc60	0.027830303

enc2.2.weight f4 [16, 16, 3, 3]
0	0xbac60449	-0.0015107478
1	0x3d49492a	0.04914204
2	0xbc93d02d	-0.018043602
3	0xbdc72b40	-0.09725046
4	0x3e26e3ed	0.16297884
5	0x3d428f84	0.04750015
6	0xbd561687	-0.052267577
7	0xbc853523	-0.01626069
8	0x3caf6ab0	0.021413177
9	0xbe036064	-0.12829739
10	0x3e6c3806	0.23068246
11	0xbddf341a	-0.108986095
12	0xbe33e152	-0.17566422
13	0x3d3a65ad	0.04550712
14	0x3e448692	0.1919196
15	0xbe6fdc1c	-0.23423809
16	0xbcf05ef5	-0.029342154
17	0xbcc4477d	-0.02395987
18	0xbdc9ca6b	-0.09853061
19	0xbd8b373d	-0.06797645
20	0xbe12139c	-0.14265293
21	0xbdaa0590	-0.08301842
22	0x3ea1a36f	0.31570002
23	0x3d2d7264	0.04234542
24	0xbd01c8b9	-0.031685565
25	0x3e0caff7	0.13739
26	0xbdcdb96b	-0.10045131
27	0x3e46e0ab	0.19421642
28	0x3e1b2af6	0.15153107
29	0xbcead3fc	-0.028665535
30	0x3e1e2fce	0.15447924
31	0x3e2c7e36	0.1684502
32	0xbddb9b4d	-0.10722981
33	0xbd890d49	-0.06691987
34	0xbe9abbdc	-0.3022145
35	0x3e30ab04	0.17252737
36	0xbd11c727	-0.035590317
37	0xbd831baa	-0.06401761
38	0x3e05443d	0.13014312
39	0xbe3bb5e3	-0.18331103
40	0xbe035c96	-0.12828287
41	0x3e6fa1b7	0.23401533
42	0xbdc8b935	-0.098009504
43	0xbecb69a1	-0.39729026
44	0xbdb0e812	-0.08638014
45	0x3c86def6	0.016463738
46	0xbcec1e00	-0.028822899
47	0x3e0122dc	0.12610954
48	0x3c888e43	0.016669398
49	0xbbb3ead8	-0.005490642
50	0xbde3f719	-0.111311145
51	0xbdb9cee9	-0.09072668
52	0xbe82d90f	-0.25556228
53	0xbda02e2e	-0.07821308
54	0x3c69dac2	0.014273347
55	0xbd1f50fd	-0.038895596
56	0xbdc2e19d	-0.095156886
57	0x3dfc8318	0.12329692
58	0xbe089d99	-0.13341369
59	0x3e32e45f	0.17469929
60	0x3d484b96	0.04890021
61	0x3de918bd	0.113816716
62	0x3d468d68	0.0484747
63	0x3d75b52d	0.059987236
64	0x3dcf3fe1	0.10119606
65	0x3d9df869	0.07713396
66	0xbe0d1d89	-0.13780798
67	0xbcaa086e	-0.020755973
68	0xbe1472ef	-0.14496969
69	0x3de4c443	0.111702465
70	0x3e262b00	0.1622734
71	0xbbdec21d	-0.0067980425
72	0x3e8230ab	0.25427756
73	0x3c26ccdd	0.010180679
74	0x3e335c4b	0.17515676
75	0xbdb8f1fc	-0.0903053
76	0x3d7e7ed2	0.062132664
77	0x3e601531	0.21883084
78	0xbc42c46a	-0.011887649
79	0xbe5dbd50	-0.21654248
80	0x3e3f3304	0.18671805
81	0xbe668827	-0.22512875
82	0xbd6c5e48	-0.0577071
83	0xbe6b7231	-0.2299278
84	0x3e1062b7	0.14100157
85	0x3e10c4ce	0.14137575
86	0x3dc57311	0.09641088
87	0xbc9d2df3	-0.01918695
88	0xbe550247	-0.2080165
89	0x3e4159fc	0.18881983
90	0xbbe676fe	-0.007033228
91	0xbe18a38b	-0.14906137
92	0x3dd7cd55	0.10537211
93	0xbd82b1c5	-0.06381563
94	0x3dfeca2b	0.12440904
95	0x3d236a8e	0.03989654
96	0xbe813d60	-0.25242138
97	0x3d606ab9	0.05478928
98	0x3e37152e	0.17879173
99	0x3ddfb930	0.109239936
100	0xbd4be20d	-0.049776126
101	0xbd7d4661	-0.061834697
102	0xbd533a83	-0.051569473
103	0x3e1e0018	0.15429723
104	0x3dc3e867	0.095658116
105	0x3d178ac4	0.03699757
106	0xbccf7492	-0.02532414
107	0x3d66b7c3	0.056327593
108	0xbdb18e91	-0.086697705
109	0x3c97b0b1	0.01851687
110	0x3e51da11	0.20493342
111	0xbe584ee7	-0.21123849
112	0xbd736a33	-0.05942745
113	0xbd97fb5d	-0.074209906
114	0x3c2ebadd	0.010664669
115	0x3e14d77b	0.14535324
116	0x3e176734	0.14785463
117	0x3c9c71a6	0.01909716
118	0x3dadbc71	0.08483208
119	0xbe102c33	-0.1407936
120	0x3e10e4f1	0.14149834
121	0x3e15d1b0	0.1463077
122	0xbd5d9549	-0.054097448
123	0x3dc4023e	0.0957074
124	0x3ca113ca	0.019662756
125	0xbd61065f	-0.054937717
126	0x3e1f0875	0.1553057
127	0xbd95d802	-0.07316591
128	0xbdd53e83	-0.10412314
129	0xbcb84d5f	-0.02249783
130	0xbda2c48d	-0.07947645
131	0x3d494bff	0.04914474
132	0xbe738906	-0.23782739
133	0x3d622fce	0.05522137
134	0xbdc1d520	-0.094644785
135	0xbe089396	-0.1333755
136	0x3d029c1c	0.03188716
137	0x3e14fdc9	0.14549936
138	0xbe01ff40	-0.12695026
139	0x3e07707d	0.13226505
140	0xbd560413	-0.05224998
141	0x3d49014b	0.0490735
142	0xbd80ea28	-0.06294662
143	0x3dace372	0.08441819
144	0x3ccd0f8f	0.025031833
145	0x3d8e0a89	0.06935603
146	0x3dd64cae	0.10463844
147	0xbd1eaeff	-0.038741108
148	0x3dccd42c	0.10001406
149	0x3e12bfbc	0.14330953
150	0x3e32157f	0.17391013
151	0xbdcf8af5	-0.10133926
152	0x3e34399d	0.17600103
153	0x3e2f640f	0.17128013
154	0x3dbaa4c2	0.09113456
155	0x3b075ea4	0.0020655775
156	0xbe92bbc0	-0.28658867
157	0x3df07b95	0.117423214
158	0xbde890ed	-0.113557674
159	0xbb866975	-0.004101927
160	0xbda6e266	-0.08148651
161	0xbe01b3fc	-0.12666315
162	0x3e25e89e	0.16202018
163	0x3da31795	0.07963482
164	0x3e09ac44	0.1344462
165	0xbe519a35	-0.20468982
166	0xbd94183b	-0.07231184
167	0xbd2fac5a	-0.042888977
168	0xbd63787e	-0.055534832
169	0xbd515b91	-0.051112715
170	0xbd8c37e7	-0.068466
171	0xbe45b064	-0.19305569
172	0xbe02d906	-0.127781
173	0xbda59368	-0.08084756
174	0x3e026b07	0.1273614
175	0xbc66001a	-0.01403811
176	0xbe5d23c5	-0.21595676
177	0xbda39ccc	-0.07988891
178	0xbd5e6760	-0.054297805
179	0x3d88ed27	0.06685858
180	0xbc57f49f	-0.013180881
181	0x3d6156d2	0.05501444
182	0x3dd9185d	0.1060035
183	0x3c9aea27	0.01891048
184	0x3da1e3c3	0.0790477
185	0x3e5c7abf	0.21531199
186	0x3e342319	0.17591514
187	0x3e0b2137	0.13586889
188	0x3c98fc8d	0.018675113
189	0xbca1a4a1	-0.019731821
190	0x3e350a6a	0.17679754
191	0xbdc1e4db	-0.09467479
192	0xbdd5d73a	-0.10441442
193	0x3cc8e379	0.02452253
194	0x3da72a5c	0.08162376
195	0x3e4f7a09	0.20261396
196	0x3e8671c4	0.2625867
197	0xbc035ac9	-0.00801725
198	0xbd81f65c	-0.063458174
199	0xbd59133e	-0.052996866
200	0xbd53b5b0	-0.051686943
201	0xbe136556	-0.14394125
202	0x3dee9996	0.11650388
203	0x3e030fd2	0.12799004
204	0xbdc78690	-0.09742463
205	0xbda92f0d	-0.08260927
206	0x3e369744	0.17831141
207	0x3dd11711	0.10209478
208	0xbe0b08f3	-0.13577633
209	0x3e06ef49	0.13177218
210	0xbb78df17	-0.0037974769
211	0x3cac67c0	0.021045566
212	0xbd01d2d5	-0.031695206
213	0x3da2a36a	0.07941325
214	0xbdb1244a	-0.086495
215	0xbc8192d9	-0.015817093
216	0x3daa5816	0.08317582
217	0x3e2631ed	0.16229983
218	0xbe32fbd8	-0.17478883
219	0x3c8b0abf	0.016972898
220	0x3e9fe1f1	0.31227067
221	0x3e108601	0.14113618
222	0xbd92e703	-0.07172968
223	0x3c9b819a	0.018982697
224	0xbcc900be	-0.024536487
225	0x3e81c92f	0.25348803
226	0xbe150d0a	-0.14555755
227	0xbd6b8467	-0.057499316
228	0xbd8352b6	-0.0641226
229	0x3ce3f9f0	0.02782914
230	0xbd274cd8	-0.04084477
231	0xbda7f0e5	-0.08200244
232	0xbeab3fb6	-0.33447045
233	0xbdce87b4	-0.10084477
234	0xbcc0684b	-0.02348723
235	0xbe564cfa	-0.20927802
236	0x3d6a7df2	0.057249017
237	0x3e1f10b7	0.1553372
238	0x3d1a7edd	0.037718643
239	0xbe95b9c9	-0.29243305
240	0xbe355cab	-0.17711131
241	0x3dab69bd	0.08369777
242	0xbd4ab6ad	-0.04949062
243	0x3dafc719	0.08582897
244	0xbe2eedbc	-0.17082876
245	0xbdabf77e	-0.08396815
246	0x3d85cc3f	0.065330975
247	0xbe1e0c67	-0.15434419
248	0x3e8dc29a	0.27687532
249	0x3de8bb46	0.113638446
250	0x3eba4e2a	0.3638776
251	0xbd9407de	-0.07228063
252	0x3cac09d3	0.021000778
253	0x3cc60782	0.024173502
254	0xbcca94a7	-0.024729086
255	0x3e0a2970	0.1349237

enc2.2.bias f4 [16]
0	0x3c85f4b1	0.01635203
1	0x3cf2bb91	0.029630454
2	0x3b438bd8	0.0029837992
3	0x3c51525d	0.012775985
4	0x3d05dce4	0.03268136
5	0x3cec7564	0.02886457
6	0xbb9bfbd9	-0.004760247
7	0xbbc62b22	-0.0060476223
8	0x3d4aa22f	0.049471077
9	0x3d01d713	0.03169925
10	0x3c3a6a39	0.0113778645
11	0x3bc2d18a	0.005945389
12	0x3ca78f70	0.020454139
13	0xbc3be391	-0.01146783
14	0x3d0260fb	0.03183077
15	0x3ce71d18	0.028212115

bottleneck.0.weight f4 [32, 16, 3, 3]
0	0xbdba0bf2	-0.0908431
1	0x3d577308	0.052599937
2	0x3d712779	0.058875535
3	0x3cba1353	0.022714293
4	0x3dbe850d	0.09302721
5	0xbc788138	-0.015167527
6	0x3cd420b2	0.025894497
7	0xbc2236b4	-0.009900738
8	0xbe3578a5	-0.17721803
9	0xbcb92b8c	-0.022603773
10	0xbe5093aa	-0.2036883
11	0x3de343c5	0.110969104
12	0xbc42e0fe	-0.011894463
13	0x3d82e6ab	0.06391653
14	0x3e0b55f4	0.13607007
15	0xbe2dd289	-0.16974844
16	0x3e3e6a9d	0.18595357
17	0x3d49fb34	0.04931183
18	0x3d54dacb	0.05196647
19	0x3de11831	0.10990942
20	0x3daf81ba	0.08569665
21	0xbd546cb1	-0.05186147
22	0x3e0c0aaa	0.13675943
23	0x3e6e6eb1	0.23284413
24	0xbd2b477d	-0.041816223
25	0xbb8bb6cc	-0.0042637344
26	0x38a7415d	7.9753554e-05
27	0x3d6b5f2f	0.05746382
28	0xbd8e2cb3	-0.069421194
29	0x3d249b7d	0.040187348
30	0xbd46c2c9	-0.048525605
31	0xbdd6fd52	-0.10497536
32	0xba2fdea2	-0.0006708895
33	0x3df419a7	0.11918955
34	0xbc924bfd	-0.0178585
35	0xbd9f63c9	-0.077827044
36	0xbdb707fd	-0.089370705
37	0xbd8ec34d	-0.069708444
38	0xbbcfb185	-0.0063383006
39	0xbd7aa5bf	-0.061193224
40	0x3d554fb1	0.052077953
41	0xbe3a6f75	-0.1820658
42	0x3dcdf6db	0.100568496
43	0xbdfddd12	-0.123956814
44	0x3de7b139	0.113130994
45	0xbd5917fe	-0.053001396
46	0x3e09d416	0.1345981
47	0x3c006985	0.007837658
48	0xbdde71b8	-0.10861534
49	0x3dbb71c0	0.091525555
50	0xbd91201f	-0.07086205
51	0x3e040d5c	0.12895721
52	0x3dcd4766	0.10023384
53	0xbd71a3e1	-0.058994178
54	0xbbd84c7c	-0.0066009145
55	0x3e4cdf27	0.20007001
56	0xbd2f08d4	-0.04273303
57	0x3d92a2b8	0.071599424
58	0x3d3fb997	0.04680785
59	0xbddd2cba	-0.107995465
60	0xbdc2d32d	-0.09512935
61	0x3e7fbf3c	0.24975294
62	0x3df3911c	0.11892912
63	0xbd4cec88	-0.05003026
64	0x3d4712b6	0.04860183
65	0xbd0f91d3	-0.03505118
66	0x3d35e024	0.04440321
67	0x3e280f3a	0.16412058
68	0x3dfdf841	0.12400866
69	0x3c4891fd	0.012241838
70	0x3be2ad77	0.0069176513
71	0xbca30485	-0.019899616
72	0xbdea7e6b	-0.114498936
73	0x3c25237f	0.010079264
74	0xbe0331c5	-0.12811954
75	0xbdad61cf	-0.08465921
76	0xbda1bcdd	-0.07897351
77	0xbd1faf11	-0.038985316
78	0xbdef8b09	-0.11696441
79	0x3cd46858	0.025928661
80	0x3e0d00f3	0.13769893
81	0xbda3b029	-0.07992584
82	0x3def51d8	0.11685532
83	0x3d8762bd	0.0661063
84	0xbcdf1d63	-0.027235692
85	0x3d92158e	0.071330175
86	0x3e21b2ac	0.15790814
87	0xbdc90927	-0.09816199
88	0x3d0b4621	0.034002427
89	0xba1ee0a4	-0.0006060696
90	0x3cfc510e	0.030800369
91	0xbd1b8231	-0.037965957
92	0xbd1994dd	-0.037495483
93	0x3ddd2ca4	0.1079953
94	0x3e0beb30	0.13663936
95	0x3e0e0c7c	0.1387195
96	0xbd0f5087	-0.034988906
97	0x3d94e3de	0.07270025
98	0xbd16470f	-0.03668886
99	0x3c514df0	0.012774929
100	0x3e128067	0.14306794
101	0xbd75893b	-0.059945326
102	0xbbd19701	-0.006396175
103	0x3dca944e	0.09891568
104	0x3c0d99e8	0.008642651
105	0x3d47b212	0.048753805
106	0x3e87ff4d	0.26561967
107	0x3dd78444	0.105232745
108	0xbcdef517	-0.027216477
109	0x3cebabbb	0.02876841
110	0xbd374c73	-0.044750642
111	0x3e102914	0.1407817
112	0x3d8419f6	0.06450264
113	0xbdac80d4	-0.084230095
114	0xbd3b9c7e	-0.04580354
115	0xbd0573b4	-0.032581046
116	0xbe4da11d	-0.20080991
117	0x3db36bb4	0.08760777
118	0x3d6e2580	0.05814123
119	0xbe2bc315	-0.16773637
120	0x3e0cba7b	0.13743012
121	0xbd3c2e46	-0.045942567
122	0x3db71e1f	0.08941292
123	0x3d41afed	0.047286917
124	0x3d18cfd3	0.03730757
125	0x3e60dbf3	0.21958904
126	0xbd10e1ff	-0.035371777
127	0x3d25417f	0.040345665
128	0xbe0a4fb9	-0.13506974
129	0x3d63febb	0.05566285
130	0xbd1d95ba	-0.03847287
131	0xbd26cc51	-0.040722195
132	0x3ca960d9	0.020676063
133	0xbdcf005a	-0.10107489
134	0xbd6b1e77	-0.0574021
135	0x39f85437	0.0004736499
136	0x3e2bdb9d	0.16782995
137	0x3d135ae7	0.035975363
138	0x3d51c628	0.051214367
139	0x3d5eba63	0.05437697
140	0x3d2e8173	0.04260392
141	0x3dc9bc20	0.09850335
142	0x3d63f9a1	0.055657987
143	0x3d5e1ede	0.054228656
144	0xbc8a9f2d	-0.016921604
145	0xbdf6197f	-0.12016582
146	0x3db43067	0.087982945
147	0x3c57c1c0	0.013168752
148	0x3d1486f2	0.036261506
149	0xbb945c08	-0.0045275725
150	0xbceeacd0	-0.029135138
151	0xbdbf1914	-0.09330955
152	0x3d4ccd53	0.0500005
153	0x3da728ca	0.08162077
154	0xbd590ee3	-0.052992713
155	0x3cfe8c59	0.031072782
156	0x3d874db5	0.06606618
157	0x3b71ae5d	0.003687761
158	0xbe290410	-0.16505456
159	0xbd2af56a	-0.04173795
160	0xbd8292fe	-0.06375693
161	0x3e808c02	0.25106817
162	0x3c261c22	0.010138543
163	0xbdffe6bf	-0.12495183
164	0xbd993a45	-0.07481817
165	0xbd936e43	-0.07198765
166	0xbdd40324	-0.103521615
167	0x3c44b3dd	0.012005773
168	0xbd584fe3	-0.05281056
169	0x3d60a72f	0.05484694
170	0x3dc0ef54	0.09420648
171	0xbdc3a925	-0.09553746
172	0xbd8ce757	-0.06880062
173	0x3d3d7d47	0.046262052
174	0x3d4b9b7c	0.04970883
175	0xbd5bda20	-0.053674817
176	0x3cc03547	0.023462905
177	0x3d392d9e	0.04520952
178	0x3d026ce0	0.031842113
179	0x3dc837b6	0.09776251
180	0x3d438e6b	0.047743242
181	0x3c32ee74	0.0109211095
182	0x3dc51693	0.09623446
183	0x3dfec6f4	0.12440291
184	0x3dafcbea	0.085838154
185	0x3d905274	0.07046977
186	0x3d664198	0.0562149
187	0xbc86e7ad	-0.016467893
188	0xbd945389	-0.072424956
189	0xbca452c3	-0.020058995
190	0x3d027592	0.031850405
191	0xbd41d294	-0.047319964
192	0xbca4c4f0	-0.020113438
193	0x3ce4aaf8	0.027913556
194	0xbcffb9bb	-0.031216493
195	0x3d2284b4	0.039677337
196	0xbd264352	-0.040591545
197	0x3e0b6cc7	0.13615714
198	0xbdc4cea8	-0.09609729
199	0xbd835808	-0.06413275
200	0xbe15dff0	-0.14636207
201	0x3cac5ea6	0.021041226
202	0x3d370e93	0.044691633
203	0xbe19f6be	-0.15035531
204	0x3d86f84d	0.06590328
205	0x3d92579c	0.071456164
206	0x3e083102	0.13299945
207	0xbe27abe1	-0.1637416
208	0xbd16ee47	-0.036848333
209	0xbe5814ca	-0.2110168
210	0x3dca16fd	0.09867666
211	0x3e5f99a9	0.2183596
212	0xbd514bf3	-0.05109782
213	0x3d3de8e8	0.046364695
214	0x3cb587a4	0.022159405
215	0xbd563d7e	-0.052304737
216	0xbd9e81ad	-0.077395774
217	0x3e1088b0	0.14114642
218	0xbca65785	-0.020305404
219	0x3dff3e25	0.12463025
220	0x3a4b3130	0.0007751165
221	0x3d637344	0.055529848
222	0xbd23699b	-0.039895635
223	0x3e577cfc	0.21043772
224	0x3dbf37f5	0.09336845
225	0x3caca8f0	0.02107665
226	0xbc88fc25	-0.016721794
227	0xbdd935bc	-0.10605952
228	0x3d96132f	0.07327878
229	0xbdd7059f	-0.10499119
230	0xbd4296e4	-0.04750718
231	0xbe57a04d	-0.21057244
232	0x3dd0b072	0.10189904
233	0xbdc49083	-0.09597876
234	0x3da02c1c	0.07820913
235	0x3da86502	0.08222391
236	0xbdc5e3b6	-0.09662573
237	0x3e2153a6	0.15754566
238	0xbc8c9713	-0.017161882
239	0xbe17d02b	-0.14825504
240	0x3d452b63	0.04813708
241	0xb8d8e9c2	-0.000103432234
242	0x3de71738	0.112837255
243	0xbd10c051	-0.035339657
244	0xb803909f	-3.1367523e-05
245	0x3e25f93c	0.16208357
246	0x3e04d29b	0.12970965
247	0xbc078d5b	-0.008273448
248	0x3e0ee814	0.13955718
249	0x3da27edb	0.07934352
250	0xbc89a4ce	-0.016802218
251	0x3e0976b7	0.13424192
252	0x3d9cdf47	0.07659774
253	0x3e091729	0.13387741
254	0xbd63b405	-0.055591602
255	0xbda3bd75	-0.079951204

bottleneck.0.bias f4 [32]
0	0xbced799b	-0.02898865
1	0x3ce35f81	0.0277555
2	0x3cf28391	0.029603751
3	0x3d084095	0.033264715
4	0x3ceea797	0.029132647
5	0x3cb5e42d	0.02220353
6	0x3c56f199	0.013119125
7	0xbb75009c	-0.0037384396
8	0x3ceaa6ac	0.028643928
9	0xbc28fb04	-0.010313753
10	0x3c7c6d0e	0.01540686
11	0x3d19847b	0.03747986
12	0xbc0d081c	-0.00860789
13	0x3ccf2297	0.025285048
14	0xba09f153	-0.00052620954
15	0x3cff855a	0.031191517
16	0x3d0aa5bd	0.033849467
17	0x3c564570	0.013078079
18	0x3cda2e24	0.02663333
19	0x3d50bd2c	0.05096166
20	0x3c50aeeb	0.012737016
21	0x3d4a0ee3	0.049330603
22	0x3cc882d0	0.024476439
23	0xbc505da8	-0.012717642
24	0x3d058718	0.03259954
25	0x3cb50df8	0.022101387
26	0xbceb27d0	-0.028705508
27	0x3c7dbbe4	0.015486691
28	0x3c7c964a	0.015416691
29	0x3ce2e207	0.027695669
30	0x3cb613c7	0.022226227
31	0x3d04e027	0.03244033

bottleneck.2.weight f4 [32, 32, 3, 3]
0	0x3be1e83a	0.0068941386
1	0x3b958c74	0.0045638625
2	0xbe419897	-0.18905865
3	0xbdd1532e	-0.102209434
4	0xbe3789bb	-0.17923634
5	0xbba77d23	-0.005111353
6	0xbd887798	-0.06663436
7	0xbdf261d5	-0.11835066
8	0xbcad280e	-0.021137264
9	0x3c07fb45	0.008299653
10	0xbe3f12f5	-0.18659575
11	0xbd2340e9	-0.039856825
12	0x3c76962e	0.015050454
13	0x3de27cd3	0.110589646
14	0x3d8a8560	0.067637205
15	0x3d9db0e7	0.07699757
16	0xbd0fe843	-0.03513361
17	0xbc7e5562	-0.015523287
18	0xbd428643	-0.047491323
19	0x3e635a47	0.22202407
20	0x3d0e1dde	0.034696452
21	0xbdc1ec70	-0.09468925
22	0x3d8f9cc1	0.0701232
23	0xbce3385a	-0.027736831
24	0x3dc18468	0.094490826
25	0xbd987349	-0.07443864
26	0x3ddc7599	0.107646175
27	0xbcbad523	-0.02280671
28	0x3dbfc02d	0.093628265
29	0x3c881fe1	0.016616764
30	0x3b1f0df5	0.0024269794
31	0x3e279c10	0.16368127
32	0x3db5b885	0.08873085
33	0x3d595074	0.05305524
34	0x3ddead4f	0.108729
35	0x3d097310	0.033556998
36	0x3d2eaacc	0.042643353
37	0xbc2ac68c	-0.010423314
38	0x3d6fb0e1	0.058518294
39	0x3c91fc5e	0.017820533
40	0xbd960fa9	-0.07327206
41	0x3e1ab843	0.15109353
42	0xbc24c516	-0.010056755
43	0x3d160827	0.03662887
44	0xbe0b16db	-0.13582937
45	0xbe2d5030	-0.1692512
46	0xbe18b34e	-0.1491215
47	0xbd95bfb5	-0.07311956
48	0x3de8c428	0.11365539
49	0x3d881b97	0.06645887
50	0x3e063084	0.13104445
51	0xbd98e9bd	-0.07466457
52	0xbd997d8b	-0.074946485
53	0x3d878512	0.06617178
54	0x3da8e1a6	0.08246164
55	0x3d03a965	0.03214397
56	0x3c3d6142	0.011558833
57	0x3c521f23	0.012824806
58	0x3b3f6341	0.0029203447
59	0x3da123ff	0.07868194
60	0xbd81bb38	-0.06334537
61	0xbd5fbc44	-0.054622903
62	0xbd51a825	-0.051185746
63	0x3c438b8a	0.011935124
64	0x3c7e9473	0.015538323
65	0x3e0ea80e	0.13931295
66	0x3d20ba48	0.03924015
67	0x3da58023	0.08081081
68	0x3d072273	0.032991838
69	0xbd295978	-0.04134509
70	0x3cd21eea	0.025649507
71	0x3d90780b	0.070541464
72	0xbe2fb016	-0.17157015
73	0x3ca006cd	0.019534493
74	0xbdc0ba23	-0.09410503
75	0x3d9a99f9	0.07548899
76	0x3b9b7727	0.0047444287
77	0x3d4d4770	0.050116956
78	0x3d88d155	0.06680552
79	0xbd895fe9	-0.067077465
80	0x3d37e1a7	0.044892933
81	0x3b54bb55	0.0032460291
82	0x3c9dcdcb	0.019263169
83	0xbb0e9419	-0.0021755754
84	0xbd48b3df	-0.048999663
85	0x3d26c250	0.040712655
86	0xbd5b9571	-0.053609315
87	0xbbcabf95	-0.006187389
88	0xbe503d2f	-0.2033584
89	0xbdb644c0	-0.08899832
90	0xbca7bacc	-0.020474814
91	0x3cd40261	0.02588004
92	0xbd1051ff	-0.035234448
93	0xbda58f1f	-0.08083939
94	0x3dfcd303	0.12344935
95	0x3d97ca78	0.07411665
96	0x3ca0f2da	0.01964705
97	0x3d75150f	0.059834536
98	0x3d1b927a	0.037981488
99	0x3ce779cd	0.028256321
100	0x3d8e62e4	0.06952456
101	0x3e0203ed	0.1269681
102	0x3e0e8879	0.13919248
103	0x3e3a2c8b	0.18181054
104	0xbc8c1c1e	-0.017103251
105	0x3dd61f61	0.10455204
106	0xbdd8a19c	-0.105776995
107	0x3d5bd13a	0.05366633
108	0xbc81d618	-0.015849158
109	0xbd12aeff	-0.03581142
110	0xbd1980ea	-0.037476458
111	0xbb7b999a	-0.0038391114
112	0xbd7159a2	-0.05892337
113	0xbd8b062b	-0.06788286
114	0xbe027cc7	-0.12742911
115	0xbd9aad69	-0.075526066
116	0xbe07051b	-0.13185541
117	0xbcbd8a9c	-0.023137383
118	0x3d886b2c	0.066610664
119	0xbdefa1c9	-0.1170078
120	0xbd9b1dd4	-0.07574049
121	0x3cb2066e	0.021731582
122	0x3d4277c6	0.047477506
123	0xbe500944	-0.20316035
124	0x3c02e604	0.00798941
125	0x3db219ca	0.08696325
126	0x3deee5b0	0.11664903
127	0x3d426fa4	0.04746975
128	0xbd7fdb67	-0.062465098
129	0x3e12e956	0.14346823
130	0x3e1b6157	0.15173851
131	0xbe07c3d4	-0.13258296
132	0xbd9803c2	-0.07422592
133	0x3e0d0019	0.13769569
134	0x3daa3133	0.08310165
135	0xbd55386f	-0.052055772
136	0x3dadbb2c	0.08482966
137	0x3c6e61aa	0.014549652
138	0xbdc5f6db	-0.096662246
139	0x3d006f27	0.031356003
140	0x3ce258a4	0.027630158
141	0x3db066bb	0.08613344
142	0xbda4ac1f	-0.08040642
143	0x3dc9e447	0.098579936
144	0x3e4c46ca	0.19948879
145	0xbe192260	-0.1495452
146	0xbcf07ee1	-0.029357376
147	0xbd51107f	-0.051041123
148	0x3d4a91ac	0.04945533
149	0x3c7f875c	0.015596237
150	0xbddd1ba9	-0.107962914
151	0x3d4ceb9a	0.050029375
152	0xbd14693b	-0.036233168
153	0xbcb33483	-0.021875625
154	0xbd357e63	-0.044309985
155	0x3e009204	0.125557
156	0x3cec469e	0.028842267
157	0xbd1d1f64	-0.038360015
158	0x3ce4f18c	0.02794721
159	0x3d1dccc5	0.03852536
160	0x3e0b36f6	0.13595185
161	0xbd529f3b	-0.051421385
162	0xbc32a92c	-0.0109045915
163	0xbddd09c1	-0.10792876
164	0xbdc9bd77	-0.09850591
165	0xbe4bc675	-0.19899924
166	0x3ce92f62	0.028464977
167	0xbdb02da0	-0.08602452
168	0x3c8f3a8c	0.017483972
169	0x3e3b7ca2	0.18309262
170	0xbc21ac16	-0.009867689
171	0xbcd1fea4	-0.025634117
172	0xbc17cc35	-0.009264995
173	0xbe0979b9	-0.1342534
174	0x3d49b4e9	0.049244795
175	0x3d82e343	0.06391003
176	0xbe10dda8	-0.14147055
177	0xbd1d9610	-0.03847319
178	0x3d9a8aac	0.07545981
179	0x3dd6ca9e	0.10487865
180	0xbc94617f	-0.018112896
181	0xbdf684ea	-0.1203707
182	0x3df1d4a6	0.118081376
183	0xbddd4471	-0.1080407
184	0xbd388a07	-0.045053508
185	0xbda4738c	-0.08029851
186	0xbd99f51c	-0.07517454
187	0x3da561b9	0.0807528
188	0x3e0855ce	0.13313982
189	0xbe66803b	-0.22509854
190	0xbc3d1c3f	-0.011542379
191	0x3caef7aa	0.02135833
192	0xbd354039	-0.0442507
193	0xbaa5dafa	-0.0012653761
194	0x3cdd17bc	0.026988856
195	0xbe2f49ad	-0.17117949
196	0x3dc25331	0.09488524
197	0x3c81a13b	0.015823951
198	0x3d417b66	0.047236823
199	0xbd9f3dc7	-0.07775455
200	0x3d60b6b5	0.054861743
201	0xbc14e0e3	-0.00908682
202	0x3d06b813	0.03289039
203	0x3e3951ce	0.18097612
204	0x3d29ccb9	0.041455004
205	0xbdf0e571	-0.117625125
206	0x3d1e10cd	0.03859024
207	0x3d46ba45	0.048517484
208	0x3d6cbd3e	0.057797663
209	0xbdc8c130	-0.098024726
210	0x3ca6c2d4	0.020356573
211	0xbe2b5d51	-0.16734816
212	0xbbdb5b63	-0.0066942438
213	0xbd5e9f85	-0.05435135
214	0xbb4a9a0e	-0.0030914578
215	0xbe038c28	-0.12846434
216	0x3c33f1ca	0.01098294
217	0x3c8fef84	0.017570265
218	0x3c9ff919	0.019527959
219	0x3d4a04fa	0.049321152
220	0xbcfc3dfe	-0.030791279
221	0x3de5d51f	0.1122229
222	0x3c88dc02	0.01670647
223	0x3d67d386	0.05659821
224	0x3d0a3e52	0.03375084
225	0xbdcc0fd6	-0.09963958
226	0xbd770157	-0.060304012
227	0x3c5d3cf7	0.013503305
228	0xbd811c53	-0.063042305
229	0xbde38c84	-0.111107856
230	0x3dd883c2	0.10572006
231	0x3d790de4	0.060804263
232	0xbd485cc3	-0.04891659
233	0x3d6adfc9	0.057342324
234	0x3d7e002b	0.06201188
235	0xbe0ef198	-0.13959348
236	0xbd0e385a	-0.03472171
237	0x3e323f2c	0.1740691
238	0xbe04ae90	-0.12957215
239	0xbd93f154	-0.07223764
240	0x3d2f6288	0.042818576
241	0xbc7e8f0a	-0.015537033
242	0xbd9e1fab	-0.07720884
243	0x3d90cd8f	0.07070457
244	0x3d9d29a1	0.07673956
245	0x3d765a44	0.060144678
246	0x3cc0bcd0	0.023527533
247	0x3d83a663	0.0642822
248	0x3e235e28	0.15953887
249	0xbda80db9	-0.082057424
250	0xbc555dd5	-0.01302286
251	0x3d326baf	0.043559726
252	0x3e1d64f9	0.1537055
253	0x3e7c6494	0.24647743
254	0x3e95b90b	0.2924274
255	0xbcae0ffd	-0.021247858

bottleneck.2.bias f4 [32]
0	0x3cf0d5c9	0.029398816
1	0x3d291086	0.041275524
2	0x3cf9952b	0.030466637
3	0xbc68f6e5	-0.0142190205
4	0xbc102165	-0.008797024
5	0xbc6c1238	-0.014408641
6	0x3ce3026c	0.027711116
7	0xbc6d4263	-0.01448116
8	0x3d077933	0.03307457
9	0x3c0e4321	0.008682997
10	0x3d1018ed	0.03518002
11	0xbd01bb59	-0.03167281
12	0xbd0f27c6	-0.03495004
13	0x3cecc576	0.02890275
14	0xbc5a428f	-0.013321533
15	0x3ce183e6	0.027528714
16	0x3c8011e6	0.015633535
17	0xbc0a9fd8	-0.008460961
18	0x3d04b002	0.032394417
19	0xbb852300	-0.00406301
20	0x3d00f136	0.031480037
21	0xbb5fc310	-0.0034143366
22	0xbd245cb2	-0.040127464
23	0xbbfd710f	-0.007734425
24	0x3cd7eadc	0.026357107
25	0x3d0242b4	0.031801894
26	0xbce97a50	-0.028500706
27	0x3cd2a675	0.025714139
28	0x3c8e6497	0.01738195
29	0xbc6c30ca	-0.014415929
30	0x3ce2bd0c	0.027678035
31	0x3b483aee	0.0030552703

up1.weight f4 [32, 16, 2, 2]
0	0x3d95cf2a	0.07314904
1	0x3d7aada5	0.061200757
2	0xbe85513b	-0.26038536
3	0xbcd0ac9f	-0.025472937
4	0xbde08ed4	-0.10964742
5	0x3df32bb8	0.11873573
6	0x3d9fb0a1	0.07797361
7	0x3e9c4458	0.30520892
8	0xbe40e4a3	-0.18837218
9	0xbda8f5b2	-0.08249988
10	0x3dcea883	0.10090735
11	0x3c933c4c	0.017973088
12	0xbdb9b506	-0.090677306
13	0x3d9393fc	0.0720596
14	0x3de459f8	0.11149973
15	0xbdb695e7	-0.0891531
16	0x3b6b7e6a	0.0035933503
17	0x3e98b6b5	0.29826894
18	0x3d9d9331	0.0769409
19	0xbda5839e	-0.080817446
20	0x3d24bdb0	0.040219963
21	0xbe255dbf	-0.16149043
22	0x3ca3cc6d	0.019994939
23	0xbdb96118	-0.09051722
24	0x3e0747c4	0.1321097
25	0x3dee0e80	0.116238594
26	0xbd25dba3	-0.040492665
27	0xbdbb53f8	-0.09146875
28	0x3d06fbd3	0.032955002
29	0xbe4f40e5	-0.20239599
30	0x3e6e61a9	0.23279442
31	0x3da4ce1b	0.08047124
32	0xbe632e3b	-0.22185604
33	0x3dea229d	0.11432383
34	0xbe61382a	-0.21994081
35	0xbdb131b6	-0.0865206
36	0x3d419b40	0.0472672
37	0xbd65f828	-0.056144863
38	0x3e3e3d87	0.18578158
39	0x3e4e8c40	0.20170689
40	0xbdec1a4f	-0.115284555
41	0x3e4733fb	0.19453423
42	0x3da21c7a	0.07915588
43	0x3e0879d6	0.13327727
44	0xbb11eaaa	-0.0022265115
45	0x3dda2a32	0.10652579
46	0xbdbc7c76	-0.092034265
47	0xbc9ac739	-0.018893825
48	0x3dba9ce4	0.09111956
49	0xbe8aa312	-0.27077538
50	0xbcf44027	-0.029815746
51	0x3d9dde7a	0.0770845
52	0x3cf77085	0.03020502
53	0xbd773a34	-0.06035824
54	0x3e8ffa1d	0.2812051
55	0x3e1c4f32	0.15264586
56	0xbdf4105b	-0.11917182
57	0xbe71369e	-0.23555991
58	0x3d82986f	0.06376731
59	0xbd1dc62a	-0.038519062
60	0x3bc8606b	0.0061150095
61	0x3e67b77a	0.22628585
62	0xbdc19716	-0.094526455
63	0x3d4ec4fe	0.050480835
64	0xbe0cec23	-0.13761954
65	0xbe1a854b	-0.1508991
66	0x3d9d0782	0.076674476
67	0xbdb8167a	-0.08988662
68	0xbe7b12ab	-0.2451884
69	0xbe28f629	-0.16500153
70	0xbe61d302	-0.2205315
71	0x3bb0702c	0.0053844657
72	0x3e94d665	0.2906982
73	0x3dd0a5e0	0.10187888
74	0xbd534b1c	-0.0515853
75	0xbdc00827	-0.09376555
76	0x3dd87aca	0.10570295
77	0x3c480d2e	0.0122101735
78	0x3e2352b1	0.15949513
79	0xbd8f4be4	-0.06996897
80	0xbe3494cf	-0.17634891
81	0xbe11e711	-0.14248301
82	0xbd37ba08	-0.044855148
83	0xbe8a5a31	-0.27021936
84	0x3bf7df5f	0.0075644697
85	0xbd13fe46	-0.036131166
86	0x3d3d7c70	0.04626125
87	0x3d75a337	0.059970107
88	0xbe008d54	-0.12553912
89	0xbc6da9b8	-0.014505796
90	0xbe16f3d5	-0.14741452
91	0xbecd9c5e	-0.4015836
92	0x3dcff1f3	0.1015357
93	0x3de4ea86	0.11177544
94	0xbe5d1063	-0.21588282
95	0xbde43094	-0.11142078
96	0xbe470f16	-0.19439349
97	0xbd143d96	-0.036191545
98	0xbe8cfb8e	-0.2753567
99	0x3de00cc2	0.10939933
100	0x3d234249	0.039858136
101	0x3e18ddb8	0.14928329
102	0x3dae48e6	0.08509998
103	0x3d0fa720	0.035071492
104	0x3ccd5791	0.025066169
105	0xbdf243a4	-0.11829308
106	0xbc168342	-0.009186568
107	0x3dfa1428	0.12210876
108	0xbe0ff31c	-0.14057583
109	0xbc19a4e9	-0.009377697
110	0x3e7aa3df	0.24476574
111	0x3d918ab1	0.071065314
112	0xbd98dca8	-0.07463962
113	0x3df6cb36	0.12050478
114	0x3d9b872a	0.0759414
115	0x3e08b471	0.13350083
116	0x3dc90694	0.09815708
117	0x3cffca18	0.031224295
118	0x3e4dad50	0.20085645
119	0xbd941765	-0.07231025
120	0x3d8c82f9	0.068609186
121	0x3e2b512f	0.16730188
122	0xbd6c614c	-0.057709977
123	0xbdcfa84c	-0.10139522
124	0xbe324985	-0.17410858
125	0xbdefe38c	-0.11713323
126	0xbe6fc1fd	-0.23413844
127	0xbd34b57f	-0.0441184
128	0xbd0a51dc	-0.033769473
129	0xbd8807e3	-0.06642129
130	0xbe0157b6	-0.12631115
131	0x3e80026a	0.25001842
132	0x3bb2e004	0.0054588336
133	0xbc5a2df5	-0.013316621
134	0xbe197ee4	-0.14989811
135	0xbd2c2eb8	-0.042036742
136	0x3d2c4511	0.042058054
137	0x3d8bfedd	0.06835721
138	0x3e5f3547	0.21797667
139	0x3e80874f	0.25103232
140	0x3dd48601	0.10377122
141	0x3d994867	0.07484513
142	0x3ea1698b	0.31525835
143	0xbcb29f0f	-0.02180436
144	0xbd5ad1ad	-0.05342262
145	0xbc90af0b	-0.017661592
146	0xbe640603	-0.22267918
147	0xbe4ebf73	-0.2019022
148	0xbc66066b	-0.014039616
149	0x3d2039a4	0.03911747
150	0xbd9aad3b	-0.07552572
151	0xbcee87c5	-0.029117474
152	0x3d274a23	0.040842187
153	0x3e0dab27	0.1383482
154	0xbd33bcaf	-0.043881115
155	0xbe19085f	-0.149446
156	0xbecf1479	-0.40445307
157	0xbd25c656	-0.04047235
158	0xbd719906	-0.058983825
159	0xbbc71266	-0.0060751913
160	0x3e42338e	0.18964979
161	0xbbbe5875	-0.0058088847
162	0xbe1f4599	-0.15553893
163	0x3eb6161d	0.35563746
164	0x3dd46656	0.103710815
165	0x3de90251	0.11377395
166	0x3e42173a	0.18954173
167	0xbd87b5f6	-0.06626503
168	0x3d179ccc	0.037014768
169	0xbc6e0318	-0.014527105
170	0x3d1eaa39	0.038736556
171	0xbd855173	-0.06509676
172	0x3d506304	0.05087568
173	0xbda4d18d	-0.08047781
174	0x3db73c91	0.08947099
175	0xbdd8b67f	-0.10581683
176	0xbce05d5a	-0.027388263
177	0x3ca6cbb3	0.020360803
178	0xbd72cd7e	-0.059278004
179	0x3e6c4368	0.23072588
180	0xbd0e93de	-0.034808986
181	0xbcaca79d	-0.021076018
182	0xb99702bf	-0.0002880301
183	0x3e8b29f1	0.27180436
184	0xbdc524aa	-0.09626134
185	0x3e195dd3	0.14977197
186	0xbd4bd629	-0.049764786
187	0xbe0732cc	-0.13202971
188	0x3de91e6b	0.11382755
189	0xbddbc73a	-0.10731359
190	0xbd13abc4	-0.03605248
191	0xbe130230	-0.14356303
192	0xbdb9159b	-0.09037324
193	0x3d4576d9	0.048209045
194	0x3d12e403	0.03586198
195	0x3dd3d131	0.103426345
196	0x3dde5226	0.10855512
197	0x3e0fd399	0.14045562
198	0xbe8e3e7c	-0.27782047
199	0x3dac2450	0.084053636
200	0xbe19224b	-0.14954488
201	0xbe397fab	-0.18115108
202	0xbd560f64	-0.05226077
203	0x3dc13430	0.09433782
204	0xbe96cbb3	-0.29452285
205	0xbb6667cd	-0.0035157085
206	0x3d87376d	0.066023685
207	0x3e27335f	0.1632819
208	0x3da60cdc	0.081079215
209	0xbdddf4b9	-0.10837693
210	0x3e0468a8	0.12930548
211	0xbd6b8fa2	-0.057510026
212	0xbc47de2c	-0.012198966
213	0xbc755c8f	-0.014975681
214	0x3da35bf1	0.07976521
215	0x3dc37898	0.09544486
216	0xbcff3b52	-0.031156216
217	0xbbfa208d	-0.007633275
218	0x3eb89dea	0.3605798
219	0x3cd5a8ae	0.02608141
220	0xbcda307f	-0.026634453
221	0x3dff21f7	0.1245765
222	0x3cb26db5	0.021780828
223	0xbd7a8611	-0.061163012
224	0xbba334f8	-0.0049806796
225	0xbc993d70	-0.018706053
226	0x3ce85c0f	0.02836421
227	0xbd735eff	-0.059416767
228	0x3db5e0e0	0.08880782
229	0xbe535923	-0.20639472
230	0x3d693074	0.056930974
231	0x3e606714	0.21914321
232	0xbdcc00ea	-0.09961112
233	0xbd13debc	-0.036101088
234	0x3e101331	0.14069821
235	0xbe4981ec	-0.19678468
236	0x3cf86fc6	0.030326735
237	0xbe230e5a	-0.15923443
238	0x3d9b4233	0.07580986
239	0x3da299aa	0.07939465
240	0xbcc66cf7	-0.02422188
241	0x3ddc9cd5	0.10772101
242	0x3df80fdc	0.121124
243	0xbe07a18a	-0.13245216
244	0x3e02fa45	0.12790783
245	0xbcd98bbe	-0.026555892
246	0x3e06d5d4	0.13167506
247	0xbe0e81be	-0.1391668
248	0x3e772526	0.24135265
249	0xbd700300	-0.05859661
250	0x3dfae6ca	0.12251051
251	0xbd685291	-0.056719366
252	0xbe207d43	-0.15672784
253	0x3da67886	0.08128457
254	0x3dac67a4	0.084182054
255	0x3ceb2a17	0.028706593

up1.bias f4 [16]
0	0x3cdaada7	0.026694132
1	0xbd05ad27	-0.032635834
2	0x3ce2802a	0.027649004
3	0xbc8e1fb3	-0.0173491
4	0xbcd8bc80	-0.026457071
5	0xbce2177a	-0.027599085
6	0xbd016a20	-0.03159535
7	0xbcc5d566	-0.024149608
8	0xbcc04e34	-0.02347479
9	0x3cc83dde	0.024443563
10	0xbcc96053	-0.024582064
11	0x3ce54c6f	0.027990548
12	0x3cef695b	0.029225042
13	0x3cd705a4	0.026247807
14	0xbcc424ce	-0.023943331
15	0xbcddca05	-0.02707387
